All_Benchmarking/DATA_17/Results/f2/best_model.pth (torch, 192098 bytes, 32 tensors)

gat1.att_src f4 [1, 4, 32]
000000 56 26 b6 3e 44 0d 37 be 7a 16 f1 3d 45 ad 3a be
       0.35576123 -0.17876154 0.11771865 -0.1823016
000010 9e de a7 3e 9e de 1e 3e 74 86 0b bd 5b ee e4 3d
       0.3278703 0.15514609 -0.03406377 0.11178275
000020 69 c5 67 3e 11 8c 27 3e 24 7d cf 3e e7 d2 e5 3d
       0.226339 0.16362025 0.40525162 0.11221867
000030 e4 aa c2 be c3 62 f6 bd 9f 44 fe bd b4 f9 d0 3d
       -0.38021004 -0.12030556 -0.12415432 0.10203877
000040 61 6d ce bd a4 98 7b 3e 42 1d 63 be f4 0b 67 be
       -0.10079456 0.24569947 -0.2217913 -0.22563154
000050 43 c1 63 3e 08 dd 8d 3e 4f 7d ce 3e 39 d6 09 be
       0.22241692 0.27707696 0.40329978 -0.13460626
000060 e8 2f 9c 3e ff 87 85 3e 39 1a 4d bd 0c 5f 7b 3e
       0.305053 0.2608032 -0.050073836 0.24547976
000070 4a ca 04 be 30 73 ad 3d 52 14 ca 3e 67 17 b7 be
       -0.12967792 0.08469236 0.39468628 -0.35760042
000080 d1 87 09 3e 59 eb 61 3e ff 4e bd be 1e f9 47 3e
       0.13430716 0.22062434 -0.36974332 0.19528624
000090 54 ee 88 be 6c 21 f6 3d ef 5f b3 3e 94 55 c4 be
       -0.2674433 0.120180935 0.3503413 -0.3834654
0000a0 9c 44 69 be 4f 37 f0 bd b4 44 36 be 48 de f7 3d
       -0.22780079 -0.11729299 -0.17799646 0.12102944
0000b0 26 19 14 be 87 f5 bb 3e b7 f6 44 be 59 15 c5 3e
       -0.14462718 0.3671076 -0.19234739 0.3849285
0000c0 fc 4a 2d 3e 30 60 b4 be 9a d1 c2 be 12 74 b1 3e
       0.16923136 -0.35229635 -0.38050538 0.34658867
0000d0 e7 9c 06 3e 9d 96 fc 3b 91 60 d0 3e 91 ed 43 3e
       0.13145791 0.007708384 0.40698674 0.19133593
0000e0 51 f8 84 3e 45 ff 99 be 39 08 fa 3d a1 b1 6e be
       0.259707 -0.30077568 0.122085996 -0.23309948
0000f0 cf 89 26 bd ba ea 6f 3e 60 41 b1 3e f3 1e cb 3e
       -0.04065877 0.23429385 0.3462019 0.3967205
000100 58 f0 71 bd 46 8e c4 be 64 13 be 3e 18 51 23 3e
       -0.0590671 -0.38389796 0.3712417 0.15948904
000110 cb 74 59 be 96 67 c8 3c c6 3e 86 3d fc 6c 6a be
       -0.21235959 0.024463456 0.06554942 -0.22893137
000120 5c 41 c0 3e 0c 0f 45 be b3 ad a2 be fe 0b 5b 3d
       0.37549865 -0.19244021 -0.31773147 0.053478234
000130 13 d3 02 be 3f 77 52 3d 21 db cd 3d 60 ab c4 be
       -0.12775831 0.051383253 0.10051561 -0.38412
000140 7d 63 75 3e 32 0a 9b be e5 0f c9 3e 6f 0a af be
       0.23963733 -0.30281216 0.3926994 -0.34187648
000150 06 02 4a be 83 34 d8 3d 08 84 c6 3d 56 8a 55 be
       -0.19727334 0.10556891 0.09693152 -0.20853552
000160 f2 18 a4 3e 11 b5 7a 3e 29 7c 6a bd 73 a7 45 be
       0.32050282 0.24483134 -0.057247315 -0.19302158
000170 0e 6b bb 3e c9 3a c1 bd bd 45 4e be 09 60 44 bd
       0.36605114 -0.094350405 -0.2014379 -0.04794315
000180 be 67 0c be 09 4c 9a be 23 c0 4b bd 2c d8 f1 bd
       -0.1371145 -0.30136135 -0.049743783 -0.1180881
000190 89 8d c5 be 79 97 bb 3e 26 8e b6 3e dc 0d 36 3e
       -0.38584545 0.36639002 0.35655326 0.17778724
0001a0 16 08 be bd c8 4e 14 3e c1 15 4c bc ca 94 8d 3e
       -0.09278886 0.14483178 -0.012456358 0.2765258
0001b0 66 e5 26 be fb 0d db 3d aa 8a 07 3d 23 61 56 3e
       -0.16298446 0.10696026 0.033091225 0.20935492
0001c0 6d 32 7e be 03 da 88 3e 40 ed 92 3e b7 07 99 3e
       -0.24823923 0.2672883 0.28696632 0.29888698
0001d0 b8 92 29 bd a3 5f 57 be 69 80 ad 3d ad 18 21 3e
       -0.041399688 -0.21032576 0.08471758 0.1573207
0001e0 ce f4 55 be 25 64 21 be 42 67 7e 3e 75 d3 b2 be
       -0.20894167 -0.15760858 0.24844077 -0.34926954
0001f0 46 b7 c0 3e b9 98 ba 3e f2 e1 7a bd b0 e2 77 3e
       0.37639827 0.36444643 -0.061250634 0.24207568

gat1.att_dst f4 [1, 4, 32]
000000 16 4d 72 3e 71 a2 78 3d 1b 94 2c 3d 49 92 5c 3e
       0.23662218 0.06070179 0.042133432 0.21540178
000010 f3 db 94 3e 00 8d a5 3e 12 dc 83 bc 65 2a bb bb
       0.29074058 0.32334137 -0.016096149 -0.005711841
000020 cf ea 21 3d 6f 92 e4 bc 41 28 4f be 39 29 66 3e
       0.03953057 -0.027901856 -0.202302 0.22476663
000030 f5 d3 a0 be e8 09 30 3e 9d 01 5d be 17 8d 89 3e
       -0.3141171 0.17191279 -0.21582647 0.26865456
000040 4d ec af bc fe 99 0d be 5b b9 bd 3e 8a 5e f0 3b
       -0.021474982 -0.13828275 0.37055477 0.0073354887
000050 94 e5 c3 3b a4 e1 53 be e1 a8 bf 3e 10 d6 b2 3d
       0.0059782956 -0.20691544 0.37433532 0.087322354
000060 fd d2 7a 3e 5d 86 a1 be 80 7b 15 3e b3 26 1c bd
       0.24494548 -0.31547824 0.14597893 -0.038122844
000070 aa fe 32 3e f0 99 58 be 27 e3 0f be 65 36 24 be
       0.17479959 -0.21152472 -0.14051495 -0.16036375
000080 71 43 9c bd 03 49 85 be cd bb 89 bd a3 f7 a3 be
       -0.07630051 -0.26032266 -0.06725273 -0.3202487
000090 97 73 5a be d3 69 5d 3e 4a 3a a3 bd 00 8e ad bd
       -0.21333157 0.216224 -0.07970102 -0.0847435
0000a0 51 19 30 be 26 a1 0b be c9 7e 88 3e 2f 57 13 3e
       -0.17197157 -0.13635692 0.2665923 0.14388727
0000b0 22 e4 26 bd d4 63 89 bd 46 ce 9e 3e fe fa 2e 3e
       -0.04074491 -0.06708494 0.3101675 0.17087933
0000c0 b2 f0 93 3d 8e bf 30 3e bd ed 48 3e 33 2e b0 be
       0.07223643 0.17260572 0.1962194 -0.34410247
0000d0 42 37 81 be 32 0d bd 3e 1a 86 6a 3e ff d0 bb 3c
       -0.2523747 0.3692413 0.22902718 0.022926806
0000e0 88 d3 c4 3e 29 c7 b4 3e ea 6d ec 3d 5a 04 38 3e
       0.38442636 0.35308197 0.11544402 0.1797041
0000f0 f1 f3 18 3e 1e 3b 89 be 70 ca a2 3e c4 06 4d 3e
       0.14936806 -0.26802915 0.31795073 0.20022112
000100 03 92 ae be 00 53 05 be ed f6 70 bc c2 a3 82 be
       -0.34095773 -0.13019943 -0.014707309 -0.25515562
000110 6a d7 92 3e e9 e5 c6 3d 9c a8 b3 3e 72 d8 9f be
       0.28679973 0.09711821 0.35089576 -0.31219822
000120 25 ad b8 be bf 1b b6 be 15 e4 05 3d 45 53 88 be
       -0.360696 -0.35568044 0.03268822 -0.2662603
000130 09 13 a9 3e cf 60 9a 3e be 11 b8 3e a6 05 63 be
       0.33022335 0.30151984 0.35951036 -0.22170123
000140 26 12 c5 3e 35 a0 68 be e3 db a5 3e 0e 8c 1c 3e
       0.3849041 -0.22717364 0.32394323 0.15287802
000150 4f a8 8c be b7 f3 bf 3c 64 3a c4 bd e9 a5 5f 3e
       -0.2747216 0.023431642 -0.0958145 0.21840633
000160 94 fc cf 3e a1 b8 b0 3e d2 b6 87 be 02 0f 83 bd
       0.4062239 0.3451586 -0.26506668 -0.06399347
000170 f5 76 6c 3e 30 58 62 be df 9e 11 3e a9 9d 9c bd
       0.23092254 -0.22103953 0.14220761 -0.07647259
000180 ee 0a 91 3c ac de 65 3e db 06 07 3e 7f be ac be
       0.017705407 0.22448224 0.13186209 -0.33739087
000190 f3 e4 95 3e a9 9b 09 3e 4b 62 af be 53 4f a4 3e
       0.29276237 0.13438286 -0.3425468 0.3209177
0001a0 96 e6 9e 3e d5 02 18 3e 37 1c 3a be fc f2 e9 bd
       0.31035298 0.1484483 -0.18174826 -0.11423299
0001b0 f4 3e 36 3d c2 2b 9b be d8 63 4a 3b 9b 40 47 be
       0.04449363 -0.30306822 0.0030882265 -0.19458239
0001c0 ac 60 a4 3d 6e 91 44 3e 48 0d 91 be 4f 38 09 be
       0.08026251 0.19196102 -0.28330445 -0.13400386
0001d0 a3 a9 0a bd 13 3d c6 be 81 7d cc 3e 91 09 8e 3e
       -0.033853184 -0.3871847 0.39939502 0.27741674
0001e0 a4 59 96 bc 69 cd 6f be a0 99 93 3e 2c 52 f9 3d
       -0.01835329 -0.23418202 0.28828144 0.12173876
0001f0 05 8d 6f be 34 01 40 be e8 53 38 3e f1 36 83 3e
       -0.23393638 -0.18750459 0.18000758 0.25627854

gat1.bias f4 [128]
000000 c7 c6 f1 b6 3a 5e 9d b8 09 72 05 b9 8c e6 ba 38
       -7.2055004e-06 -7.5038944e-05 -0.0001272635 8.912114e-05
000010 9e 92 bf 37 01 ef 3f b8 fe 43 da 38 8e 88 9f b8
       2.2837248e-05 -4.576054e-05 0.000104077146 -7.607146e-05
000020 a6 23 e6 38 6e 7c f3 38 cd 53 89 39 76 c3 b3 b9
       0.00010973895 0.0001161032 0.00026193113 -0.0003428717
000030 5b 50 12 39 69 86 81 b9 91 39 4c b9 4f 4f f1 38
       0.0001395358 -0.0002470494 -0.00019476401 0.00011506548
000040 0e bb 21 38 be c5 98 38 2b eb 77 b9 a5 a2 42 39
       3.85596e-05 7.284757e-05 -0.00023643363 0.00018561872
000050 a1 cd a6 b9 37 87 fa b8 d7 68 2a b8 fa fe 11 b9
       -0.00031815193 -0.00011946115 -4.0628798e-05 -0.00013923264
000060 16 ab c2 b8 c9 19 33 b9 11 6c ed b8 5c a4 05 39
       -9.282508e-05 -0.00017080376 -0.000113211696 0.00012745097
000070 79 fe 8c b8 74 ce d8 b8 ba 4b 1d b9 66 2b e0 38
       -6.7231194e-05 -0.000103381375 -0.00015000897 0.00010689236
000080 94 24 54 37 41 e7 a9 39 08 fc 3c 39 7d 00 15 b9
       1.2644701e-05 0.0003240649 0.00018022966 -0.00014209929
000090 14 7b 3d 39 1e 58 17 39 52 09 13 39 8a 50 7a 38
       0.00018070295 0.00014433308 0.00014022485 5.9679653e-05
0000a0 83 d3 28 39 53 2c 0b 39 31 25 c3 39 61 a2 03 b9
       0.00016100523 0.00013272585 0.00037221008 -0.00012553624
0000b0 b2 86 73 38 78 5b 96 39 59 95 10 b9 68 44 9a 38
       5.806116e-05 0.0002867838 -0.00013788546 7.356034e-05
0000c0 a8 c2 84 39 03 f2 89 39 02 9f e1 38 b0 8e 17 b9
       0.00025322032 0.0002631099 0.000107584536 -0.00014453637
0000d0 5f 89 dc 38 32 03 9e 39 b8 c9 c0 38 5d 07 70 39
       0.00010516005 0.0003013849 9.1928465e-05 0.00022890927
0000e0 1f 84 4d b8 e2 a8 f2 b7 33 fe 96 b9 b4 46 52 37
       -4.8998856e-05 -2.892729e-05 -0.00028799623 1.2533437e-05
0000f0 4a 51 13 b9 9b d2 a3 38 b3 1d e9 38 5f 01 3f b7
       -0.00014049295 7.811674e-05 0.00011115838 -1.1384806e-05
000100 1e ee 57 39 f2 59 c1 38 25 10 0b b9 e5 37 49 39
       0.00020592703 9.219711e-05 -0.00013262087 0.00019189676
000110 d1 9d 00 3a 72 c5 9f b8 36 1c a0 38 2f 81 52 39
       0.0004906329 -7.618488e-05 7.634649e-05 0.00020075285
000120 73 b5 60 b9 19 2c 40 b9 d3 af 84 38 d6 00 46 b9
       -0.000214299 -0.00018326975 6.327e-05 -0.00018883063
000130 e7 e3 89 38 1a a4 89 38 92 51 59 39 78 f0 a8 38
       6.575119e-05 6.5632354e-05 0.0002072512 8.055655e-05
000140 e8 cf 35 39 d8 51 42 36 ff 97 67 b9 81 c1 30 39
       0.00017338956 2.8955892e-06 -0.000220865 0.00016856754
000150 5d ec 4d 39 78 7b 89 39 80 ef 43 39 fe 3e 43 39
       0.00019638376 0.00026222668 0.0001868587 0.00018620116
000160 12 74 94 b9 89 5d bd b6 d2 03 a6 b9 06 de e1 b9
       -0.0002831524 -5.643528e-06 -0.00031664834 -0.00043080765
000170 87 6a 77 39 7d 0d 8c 37 90 c0 2c b9 b0 8b 89 37
       0.0002359544 1.6695582e-05 -0.00016474933 1.639672e-05
000180 ae 5b a6 38 af 7c 3d 38 5a 02 58 b9 d5 1a b9 37
       7.9325735e-05 4.5177232e-05 -0.00020600241 2.2066213e-05
000190 e3 e0 e1 37 2c 13 55 39 98 b3 82 39 83 ae 72 b8
       2.6926811e-05 0.00020320405 0.0002492934 -5.7859823e-05
0001a0 e4 c0 33 b9 75 61 67 b8 d5 86 4e b8 73 ee 22 b9
       -0.00017142628 -5.5165456e-05 -4.92398e-05 -0.00015538353
0001b0 bc 7d b1 38 30 9f 50 38 40 c7 0d 37 7a 7d 50 39
       8.4634376e-05 4.973932e-05 8.450646e-06 0.0001988317
0001c0 66 71 d2 38 da a7 53 b9 75 83 04 39 10 e6 25 39
       0.000100347024 -0.00020185058 0.00012637473 0.00015821331
0001d0 90 86 c6 b6 0d 71 4e b9 0e c8 da b7 d4 6b a6 b8
       -5.916525e-06 -0.00019687806 -2.6080783e-05 -7.9355814e-05
0001e0 f8 01 b1 38 dd fe 23 39 fe 70 75 b9 78 7f 5e 38
       8.4403844e-05 0.00015639835 -0.00023407114 5.304764e-05
0001f0 09 8d 5e b9 17 9b 83 39 12 10 04 39 e4 6f 21 38
       -0.0002122411 0.00025101818 0.00012594488 3.8489598e-05

gat1.lin.weight f4 [128, 5]
000000 b1 8a 3d be fb 6c ce bd 3d 0b e0 3d 90 0a fa 3d
       -0.18509938 -0.1007938 0.109396435 0.12209046
000010 1f 43 09 be aa c0 5a bd a9 9c 3a be 18 02 e0 bd
       -0.13404511 -0.053406395 -0.18223824 -0.10937899
000020 f7 ee 20 be 28 28 33 3e 6e 5c b7 bd 70 76 51 3e
       -0.15716158 0.17495787 -0.089531764 0.20455337
000030 ce 84 1c 3d a8 91 95 bd ed e3 0c be 55 98 02 bd
       0.03821259 -0.07303172 -0.13758822 -0.031883556
000040 d2 b9 99 3d 31 62 b3 bd 6e 7c 55 be a1 64 3b be
       0.075061455 -0.08758963 -0.20848247 -0.18300106
000050 a7 2f 17 bd a8 72 30 3d 05 a7 2a 3d 30 7f 97 3c
       -0.03691068 0.043078095 0.04166319 0.018493265
000060 f9 d8 18 3e aa b1 57 bd b0 1c cc 3d ec 8b b1 bd
       0.14926518 -0.052659668 0.09966409 -0.08669266
000070 4a c6 64 bd a8 f8 22 3e b5 c4 1e 3c 33 7d 84 3d
       -0.055853166 0.15915167 0.009690453 0.06469192
000080 12 80 84 3c 8e 90 07 be 08 c8 8e 3d 41 5b f4 3c
       0.01617435 -0.13238737 0.06971747 0.02982867
000090 32 b0 54 be 69 dd d6 ba dd c8 36 3e 97 25 ad 3d
       -0.20770338 -0.001639289 0.17850061 0.08454435
0000a0 87 26 3a 3d 58 d5 8d bd 99 6e 4e 3d 98 bb e6 bd
       0.0454469 -0.06925458 0.050398443 -0.112662494
0000b0 4b 54 ef 3d 9f a9 3a bd 6c bc e9 3b f0 1b 8b 3d
       0.116859995 -0.04557192 0.0071330573 0.06792438
0000c0 a4 ed 54 3d 1f c4 0e 3d 26 fa 6a 3d b7 35 f6 3b
       0.051984444 0.034855004 0.057367466 0.0075137275
0000d0 d3 53 73 bd 00 92 40 bd b5 bd 82 3d 0c d3 2c be
       -0.059406113 -0.047014236 0.0638384 -0.16877383
0000e0 18 15 43 be bc 78 44 3e 63 ba 67 bd 0c 3c 3d be
       -0.19051015 0.19186682 -0.056574237 -0.18479937
0000f0 cd 78 57 be a4 65 41 3e 6f eb 2d 3e 46 85 95 bd
       -0.21042176 0.18886429 0.16984342 -0.073008105
000100 84 17 79 3c 13 c2 b5 3d 28 bb 44 3e a8 17 3a be
       0.0152033605 0.08874907 0.1921202 -0.18173087
000110 4e ba 32 be 0d f1 81 3b f6 ae b4 bd 51 71 53 3c
       -0.17453882 0.003965503 -0.08822434 0.012905435
000120 de b6 07 bd 63 ce 0b 3b 0b 38 04 3e 11 90 f1 bd
       -0.03313338 0.0021332733 0.12912004 -0.117950566
000130 6c 4e e1 3d 4b c2 a2 3b 9e d9 26 3e e2 74 b6 bd
       0.11001286 0.004967009 0.16293952 -0.089090124
000140 1b cd 20 be 76 04 3e be f0 3d e5 3d 7c 5c 27 3e
       -0.15703242 -0.18556389 0.11193454 0.16343874
000150 cb d7 ea bd f8 42 20 3e 39 4a 57 3d dc b1 39 be
       -0.114669405 0.15650547 0.05256102 -0.18134254
000160 93 2a 48 be 3a 10 97 3d cd db 1e bc 26 f7 ca bd
       -0.19547491 0.07376142 -0.009695959 -0.09910421
000170 87 ae 2c be f0 fb 55 3e ae e8 04 be 0a 3b 49 3e
       -0.16863452 0.20896888 -0.12979385 0.19651428
000180 ed 0e 3b bc 95 48 28 bd 2f 08 47 be a2 73 21 be
       -0.011417133 -0.041084845 -0.19436716 -0.15766767
000190 83 38 3d be e4 d0 6f bc 4b 42 46 3d 13 a0 25 3e
       -0.18478589 -0.014637206 0.048403066 0.16174345
0001a0 19 7b cb bd 74 a2 35 be c5 67 dd 3d e1 ac 06 be
       -0.099355884 -0.17737752 0.10810808 -0.13151886
0001b0 a8 9f 3d 3d f2 87 25 3e 8b d2 f8 3c 01 c8 94 3d
       0.04629484 0.1616514 0.030373832 0.0726471
0001c0 6f dd b7 bc 51 b9 41 bd 0a 23 c9 bb 8d 94 3e be
       -0.022444455 -0.047295872 -0.00613821 -0.18611355
0001d0 5e e7 46 bd c3 6f 1e 3e 7e 52 82 3d 61 33 20 3e
       -0.048560493 0.15472321 0.063633904 0.156446
0001e0 7a c3 a5 bd a0 0e 18 bd f9 a7 dd 3b d0 1b 8f bd
       -0.08093925 -0.037123322 0.0067644087 -0.06987727
0001f0 33 df 9f bd 9f 7a b9 bd 15 38 a9 bd e7 54 3b be
       -0.07806244 -0.09056591 -0.0826265 -0.18294106
000200 1e 25 99 3d 18 5e 84 bd 13 15 26 3e 56 77 7e bd
       0.07477783 -0.064632595 0.16218977 -0.062125526
000210 f4 6d bf 3d 0a 24 d2 3c b0 2d 2b be a9 47 59 3b
       0.09347144 0.02565195 -0.16716647 0.0033154285
000220 bf 4d d2 bd 2d 03 4d 3d 43 af eb 3d 60 82 55 be
       -0.10268735 0.050051857 0.11508038 -0.20850515
000230 72 d2 97 bd b1 d0 84 bd 1c 99 01 3e 6c bf e6 3a
       -0.07413186 -0.06485117 0.12656063 0.0017604656
000240 94 4a 2d bb 5e 32 30 be da ee 4b 3e 64 4b 2f be
       -0.0026442157 -0.17206714 0.19915333 -0.17118603
000250 cb ae ef bd 17 93 8c 3b e5 e3 c8 3d d7 d4 2f be
       -0.11703261 0.0042899954 0.098090924 -0.17171036
000260 a3 bc ef 3d db f0 21 bd 8c 07 94 3d 38 f1 f4 3d
       0.117059015 -0.03953634 0.07228002 0.11960071
000270 0d a3 56 3d df 87 50 be b4 df bf bd 83 49 07 3d
       0.05240159 -0.2036433 -0.0936884 0.03302909
000280 09 f9 3b 3e e7 f1 3e 3e 3f 77 24 be 37 49 59 be
       0.18356718 0.18646966 -0.16061114 -0.21219335
000290 2a 87 33 bd 5d 6e d1 3d 75 d3 4c 3d d2 67 09 3e
       -0.043830074 0.10226128 0.05000635 0.1341851
0002a0 ba ff 25 3e 8a 1b b1 3b f8 2a c3 3c bb 48 bd 3d
       0.16210833 0.0054048942 0.0238242 0.09242388
0002b0 93 b4 44 3e 99 bb fc bd bb 20 29 3e c7 e7 0b 3e
       0.19209509 -0.12340469 0.16516392 0.13662635
0002c0 cd 4f 34 bd df b4 a9 3d 0d 08 fd 3d c6 9c e7 3d
       -0.044021416 0.082864515 0.12355051 0.11309199
0002d0 4f 1e 40 3e 70 21 fb 3d e2 88 0d be a6 a7 44 3e
       0.18761562 0.12262237 -0.13821748 0.19204578
0002e0 3f 63 0b be 25 57 4f bd 1a e4 c5 bd 1a c6 19 bd
       -0.13612078 -0.050620217 -0.096626475 -0.03754244
0002f0 77 2e 89 bd 74 f5 0e 3e 05 9a a5 bc 62 51 e6 bc
       -0.066983156 0.1396082 -0.020215044 -0.028114978
000300 80 04 3f bd 94 6c 77 bd 99 83 4d be f8 30 8e bd
       -0.04663515 -0.060406283 -0.20069732 -0.06942934
000310 64 d0 da 3d 35 c5 3f 3e a8 61 a4 3d a6 f1 17 3e
       0.106842786 0.18727572 0.08026439 0.14838275
000320 df 03 52 be ec 11 57 3e 3e 13 11 3e 73 a5 29 be
       -0.20509289 0.2100293 0.14167497 -0.1656702
000330 1f 21 32 bd b0 0e 50 3e 7d 3c 39 be 93 b5 89 bc
       -0.043488618 0.20318103 -0.1808948 -0.016810214
000340 96 1a 3f bd 1f 2c 93 3d c9 50 cc bd 66 31 4e be
       -0.046656214 0.0718615 -0.09976346 -0.20136032
000350 36 7b 1c be 3d e3 2b be ec f2 57 3d 42 44 34 be
       -0.15281376 -0.16785903 0.052721903 -0.17604163
000360 32 04 19 bd ec 1a 9c bd 33 80 84 bd 68 0b fc bc
       -0.037357517 -0.076223224 -0.064697646 -0.030767158
000370 78 84 27 3e 48 8b 93 3d 33 dc 49 be aa 57 d3 3b
       0.16359127 0.072043 -0.19712906 0.0064496594
000380 c6 d5 2d 3e 82 c6 15 be 4e 17 53 be 57 1a 89 bc
       0.1697608 -0.14626506 -0.20614359 -0.016736193
000390 92 88 2c bd fa 2d d7 3c b2 3f 1a bd b0 d9 4b be
       -0.04212243 0.02626704 -0.0376584 -0.1990726
0003a0 4e ae f8 bc e8 74 25 3e 81 1a 46 3d fc 41 29 be
       -0.030356552 0.16157877 0.04836512 -0.16529077
0003b0 a4 ba 2a 3d 48 25 24 3e d0 1b 5f 3c 9d df 20 3e
       0.0416819 0.16029847 0.013617471 0.15710302
0003c0 96 bc 1d be 50 5a 56 3e 85 c7 ab bd 05 f4 dd bd
       -0.15403971 0.20932889 -0.08387665 -0.10837559
0003d0 84 5a 57 3e 62 34 20 be 79 09 bd bd b0 f0 7c bd
       0.21030623 -0.15644982 -0.092303224 -0.061752975
0003e0 52 52 40 3e 19 6a 20 bd ab 45 39 bd c8 44 1c be
       0.18781403 -0.039163683 -0.045232456 -0.15260613
0003f0 01 bd 53 3e f5 00 37 be c6 9b 8e 3d 6e f2 0f 3e
       0.20677568 -0.17871459 0.06963305 0.14057323

sage1.lin_l.weight f4 [128, 128]
000000 61 d4 a8 bd 08 c7 88 3d eb 39 0d 3c f4 8a ca bc
       -0.08243633 0.06678587 0.008619766 -0.024724461
000010 e1 0b 86 38 92 0e ca bc 09 3a 36 3c 91 a5 e5 3c
       6.3918305e-05 -0.02466515 0.011122235 0.02803305
000020 55 ab b3 3d 3f 0a 8b bd 61 da 69 bd c1 06 82 bc
       0.08772913 -0.06789064 -0.057093028 -0.015872361
000030 b0 bf 6a bd 90 0f 9c bd 01 08 8a bd 04 70 19 bd
       -0.057311714 -0.07620156 -0.06739808 -0.037460342
000040 80 ea 2b 3d 2c 4a a3 bd 5e a2 9b bd 1e 79 37 3c
       0.041971684 -0.079731315 -0.075993285 0.01119831
000050 05 74 56 bd 71 0b ac 3d a1 d0 b4 3d ec 58 a2 3d
       -0.05235674 0.0840062 0.08828855 0.07927117
000060 24 54 9e 3d 10 7f e0 3b b8 57 59 bd ae b6 20 bd
       0.07730892 0.0068510845 -0.05306217 -0.039236717
000070 dd b0 4e bd 92 77 11 3d 06 a4 36 bd 5b d7 5b bd
       -0.05046164 0.03551442 -0.04459002 -0.053672176
000080 59 7a 9c bd 30 6b 6a bd 4e 51 0b 3c 1f 8e 0d 3d
       -0.076405235 -0.05723113 0.008503271 0.034559365
000090 38 be 83 bd 1c 34 2d 3c 6e f2 01 3d 0c ee a9 3d
       -0.06432766 0.010571506 0.03172534 0.08297357
0000a0 59 2a 66 bd cb 92 aa bd d5 fe 91 3d 85 8c ae bc
       -0.05619273 -0.0832878 0.071286835 -0.02130724
0000b0 25 df 01 3d c9 7b 99 bd ff 37 89 bd a0 e8 b2 3d
       0.031706948 -0.07494313 -0.067001335 0.08735776
0000c0 48 f5 bf 3a 24 0e 3f 3d db 81 1c bd 90 69 a5 3d
       0.0014645243 0.046644345 -0.038209777 0.08076775
0000d0 a2 7f 9f bd 09 ef 86 3d c4 d5 88 3d 22 81 2c bc
       -0.07788016 0.06588561 0.066813976 -0.010528835
0000e0 67 ec 0f 3d cb 3f 80 bd 49 c6 a3 bc 42 8f 9b 3d
       0.03513756 -0.062621675 -0.01999201 0.07595684
0000f0 c5 28 6d 3d 07 87 9e 3c dd 38 56 3d e8 d0 09 3d
       0.05790021 0.019351495 0.052300323 0.033646494
000100 ba da 14 bd e7 9d c6 3c 85 76 9b bd 05 2c 5a bd
       -0.036341406 0.024245216 -0.07590965 -0.053264637
000110 98 ab ca bc 32 cb 9f bc 79 cc 37 bd 80 f9 84 3d
       -0.024740025 -0.01950607 -0.044872735 0.06492901
000120 84 ac 22 bd 0e ba 05 3d b6 0c 3f 3d 34 7f b4 bd
       -0.039715305 0.03264814 0.04664298 -0.088133246
000130 d9 1c 8a 3d 01 fa ca bc 92 62 8b bd 13 d5 ae 3d
       0.067437835 -0.024777414 -0.0680591 0.085367344
000140 3f f0 6b 3d 61 de 73 bd 8f 8a ec bc 62 3e 9a bd
       0.057602163 -0.05953825 -0.028874664 -0.0753143
000150 b4 c9 12 3c e8 47 74 bd 8f 64 3c bd 3c ba ad bd
       0.008959223 -0.059638888 -0.045994338 -0.08482787
000160 2f f6 26 bd 02 a2 82 3a 24 8a 7a bd 45 f0 46 bc
       -0.040762123 0.0009966495 -0.061166897 -0.012142246
000170 7e 8d f6 bc 6a 25 f2 3c a1 0a 7b bb 97 46 a7 bc
       -0.030096766 0.029558856 -0.0038305896 -0.020419402
000180 d7 ea 83 bd 8a ee f3 bc 2a ac 85 3d 8b 4f b0 bd
       -0.064412765 -0.02977683 0.06526978 -0.086089216
000190 42 d1 27 3d d1 25 6d 3c de 0e 56 3c 94 27 ae bc
       0.04097105 0.014474348 0.013065068 -0.021259107
0001a0 09 d8 81 bd d2 16 7a 3c c4 62 0e 3c 2e b8 8d bd
       -0.063400336 0.01526423 0.00869054 -0.06919895
0001b0 a2 23 96 3d 02 b2 9d bb c0 9a 35 3d fd 4e 3c 3d
       0.07331015 -0.00481248 0.044337034 0.045973767
0001c0 7e 0e 2e 3d e2 e4 76 bb 3c f1 c8 bb 65 08 87 3d
       0.04249429 -0.0037673046 -0.006132273 0.06593398
0001d0 47 50 42 3d 88 83 4a 3d ca 3b a8 bd da 30 6d 3d
       0.04743984 0.049441844 -0.08214529 0.057907917
0001e0 e7 e8 af 3b dc 9a 99 3c ef e1 b9 3c 7f 0e 2b bd
       0.0053683403 0.0187506 0.022690741 -0.04176187
0001f0 2a e8 2a 3d 9c 64 55 3d 48 b1 4d bc 3c 89 63 bc
       0.041725315 0.0520979 -0.012554474 -0.0138877
000200 a6 0b a6 bd c6 26 f7 ba 4d c4 b0 3d e4 7f 9f 3d
       -0.081076905 -0.001885616 0.086311914 0.07788065
000210 88 4b 3a 3b 72 42 7c 3c 4b c5 3d bd 90 fa 8e bb
       0.0028426368 0.015396701 -0.04633073 -0.0043633655
000220 72 4a 8b 3d e0 48 25 bd 15 49 f5 3b ee da b5 3d
       0.06801309 -0.040352702 0.0074855187 0.08879648
000230 f3 d5 8d 3d 61 9e 02 bc 81 4d 84 3d 03 b8 e8 3c
       0.06925573 -0.007972331 0.06460095 0.028408056
000240 1d 07 0a 3d e3 1e 49 3d 5e 61 a0 3d 77 ba 4a 3d
       0.03369819 0.04910172 0.07831071 0.049494233
000250 58 d7 04 3a e7 e2 b3 bd bd 3c 49 3d 07 86 ec bc
       0.0005067489 -0.087835126 0.04913019 -0.028872503
000260 0b 3e 78 bc 2f 38 6b 3b e0 14 a1 3d 50 82 8c bd
       -0.015151511 0.0035891642 0.0786531 -0.06860793
000270 7b 43 1c 3c 4e c7 77 ba a7 1a ea bc 7e d7 b4 bd
       0.009537573 -0.0009452001 -0.028577162 -0.088301644
000280 79 2d 80 3d b2 fb 4e bd 0a 4b 5d 3d c9 e8 55 bc
       0.06258673 -0.050533004 0.05402664 -0.013055989
000290 5c 49 b9 3b 49 6e 9c bd 18 c4 5c bd 79 41 b7 bc
       0.005654497 -0.07638223 -0.053897947 -0.022370087
0002a0 54 c1 8d 3a da 36 5a bd b4 3e 57 bd ed 5f 43 3c
       0.0010815063 -0.053274967 -0.052550033 0.011924726
0002b0 c7 fa 10 bc c7 54 5a 3d e9 41 9e bd 1c 84 7f 3c
       -0.0088488525 0.053303506 -0.07727415 0.015595462
0002c0 c8 66 b5 3d a3 90 ae 3d 74 73 b2 3c a9 46 3f bd
       0.088574946 0.08523681 0.021783568 -0.046698246
0002d0 d1 8a cc bc a7 95 89 3d f3 82 89 3d 63 51 9e 3d
       -0.024968537 0.06717997 0.0671443 0.07730367
0002e0 35 a1 74 3b 59 1a 3a 3d 42 81 f1 3c 0f be 94 bd
       0.0037327532 0.045435283 0.02948058 -0.07262813
0002f0 73 e6 19 3d 3c f0 82 3c 79 eb 71 3d 60 3b 47 3d
       0.03757329 0.015983693 0.059062455 0.04864061
000300 9b 31 97 3d d8 c5 a3 3a dc 61 00 3d 9b b8 7a bd
       0.07382508 0.0012494875 0.031343326 -0.06121121
000310 16 49 2a 3d b7 92 6e bd c9 b4 3a bd 6d 77 3a bd
       0.041573606 -0.058245387 -0.045582566 -0.04552405
000320 fe e4 1a 3d 5f fe 50 3d eb 43 b3 3c 9b ac b0 3d
       0.03781604 0.051023837 0.021882972 0.08626672
000330 55 ad 27 3d 31 b9 3b 3d a3 0a af 3d e7 6e 24 bd
       0.040936787 0.04583091 0.08546951 -0.040144827
000340 a5 90 a1 bd 54 a9 5a 3c bb 99 39 bd b5 88 8c 3d
       -0.07888917 0.013346035 -0.045312624 0.06862012
000350 91 ba 89 bd 12 4b 65 3d 2d 49 f1 3c 77 97 28 bd
       -0.06725038 0.055979796 0.029453838 -0.041160073
000360 ec 11 1f 3d 6d 08 e7 3c 5a 5c 3c 3d 0a 70 e4 3b
       0.03883545 0.02820226 0.04598651 0.006971364
000370 9d ed de bb b8 da a4 3d 66 82 87 3d 17 9c 94 3d
       -0.006803228 0.0804953 0.066166684 0.07256334
000380 39 8a 9a 3d 4d 04 81 bc 4a f3 8c bd 19 c3 09 bd
       0.07545895 -0.015749121 -0.06882341 -0.033633325
000390 8f a3 4a bc ec 89 1e 3d 9f 5b aa 3d 43 22 a4 bd
       -0.012368097 0.03870575 0.083182566 -0.080143474
0003a0 96 6a a4 3c b1 db 2c 3c 62 f2 3b 3d 3d 09 f5 bb
       0.020070355 0.010550425 0.04588545 -0.007477908
0003b0 3f f5 4c 3d ef 2e 85 bd 7e 62 94 bc c6 13 5a bd
       0.050038572 -0.065030925 -0.018113371 -0.053241514
0003c0 67 42 8d 3d 60 dc 81 bd 70 9b 9e bd 54 11 3c bd
       0.06897431 -0.06340861 -0.07744491 -0.045914963
0003d0 02 36 ae bd 42 0b 65 3d db 78 37 bd 2b 1b 33 3d
       -0.08506395 0.05591894 -0.04479299 0.04372708
0003e0 85 f1 97 bd a2 5a b2 3d 19 32 63 3c 22 52 9b 3c
       -0.07419113 0.08708693 0.013866925 0.018960062
0003f0 85 5d 7c 3d d8 5d b1 bd 1c 2a 8c bd b6 71 b6 bd
       0.061612625 -0.086604774 -0.06843969 -0.089084074

sage1.lin_l.bias f4 [128]
000000 71 f3 67 3d b1 a8 39 3c ca 9f 75 bd fb 9c de bb
       0.05662865 0.011331723 -0.05996684 -0.006793616
000010 57 df 64 3d 50 49 92 3d 16 78 91 bd 21 5d 58 bd
       0.055877056 0.071428895 -0.07102983 -0.05282319
000020 02 ee 4c bc 13 81 a4 3c 10 7c 14 3d f1 2a 28 ba
       -0.012507917 0.020081079 0.036251128 -0.000641509
000030 fe 1c b2 bd 8f 43 70 3d a1 e8 98 bd 85 45 b1 bd
       -0.08696936 0.05865818 -0.074662454 -0.08655838
000040 50 ef 99 bd ba da d4 3c 4c 4e 10 3d 5f b6 8f bd
       -0.07516348 0.025983203 0.03523092 -0.070172064
000050 bd a0 8c 3d ec fd 71 bd b8 c7 20 3d 2c 69 41 3d
       0.06866596 -0.05908005 0.039252967 0.04721944
000060 b7 fc 8e bd 0a 02 fc bc 5a 60 a3 3d 25 15 56 bd
       -0.06981795 -0.030762691 0.07977362 -0.05226626
000070 3f 84 94 bd 5c 08 5a 3d e4 2a 2b 3c 1a d4 8d 3d
       -0.072517864 0.05323063 0.010447238 0.06925221
000080 17 97 85 3d e6 37 bc bc a1 b8 5e bc 55 4d ab 3c
       0.06522959 -0.022975873 -0.013593824 0.020910898
000090 9d 23 c6 3c c2 97 49 bd 68 fb 35 3b c9 67 38 3d
       0.024186904 -0.049216993 0.0027768258 0.045020852
0000a0 c4 78 ac bc fa ee 85 bd ad 9f 56 bd f5 fb 97 bd
       -0.02105368 -0.06539722 -0.052398372 -0.07421104
0000b0 eb b1 83 3d 6d 56 9f 3c 5f 5a 65 bd 45 9a 60 3d
       0.064304195 0.01945039 -0.055994388 0.054834623
0000c0 68 3c 60 3c ff e8 5d 3d 40 70 c1 3c 96 00 bb 3a
       0.013686277 0.05417728 0.023613095 0.0014267142
0000d0 62 48 6f 3c 36 29 3a bd fa 08 8a 3d c4 76 a5 3c
       0.01460466 -0.045449458 0.067399934 0.020198233
0000e0 42 28 8e bc 03 ad 0c 3d 25 9b af bd f3 b2 72 3d
       -0.01735318 0.034344684 -0.08574513 0.05925269
0000f0 c7 19 a5 bc f1 ae f6 bc 26 e2 fc bc ed d0 73 3c
       -0.020153893 -0.030112715 -0.030869555 0.014881355
000100 0a c2 b2 bd e9 6c 5e 3d 46 a0 50 3d 08 9a 19 bd
       -0.08728416 0.054303084 0.0509341 -0.03750041
000110 7e 06 b1 bd 4b 96 78 3d 07 dc 9f bd 2d 17 81 bd
       -0.086438164 0.060690206 -0.07805639 -0.063032486
000120 a1 7c 1a bd 63 6c 81 bd fe b2 32 bd 4c a2 9e bd
       -0.03771651 -0.06319501 -0.04362773 -0.077457994
000130 e1 18 31 bd 87 48 3d 3d 4c f9 88 bd dd 48 fd bc
       -0.043236617 0.046211746 -0.066881746 -0.030918533
000140 e1 41 7b 3d d7 10 db 3c 07 35 4d 3d 86 67 e0 bc
       0.061342124 0.026741428 0.0500994 -0.027393114
000150 5b 1d a3 3d aa b4 54 3d c2 82 61 3d 5e cb 6e bd
       0.079645835 0.051930107 0.05505634 -0.058299415
000160 04 0f a5 3d 10 71 21 bd f0 ab 93 bd 59 cf 82 3d
       0.08059505 -0.039414465 -0.07210529 0.06387205
000170 a1 54 8c 3d 83 d6 50 bd cb d0 34 bd d2 6e 69 3c
       0.06852079 -0.050985824 -0.044144433 0.014247613
000180 2a 0f 38 bd a6 8c 81 bc ab 98 86 bd f9 5d 8e 3d
       -0.044936337 -0.015814137 -0.06572088 0.069515176
000190 dd e0 43 bd 21 18 b0 ba 7c aa d1 bc 9c b3 f4 3c
       -0.04782187 -0.0013434925 -0.025593989 0.0298708
0001a0 b8 e0 4b bc cc be 40 3d a3 9e b3 bd 4e 80 b4 3d
       -0.012443714 0.047056958 -0.08770492 0.08813535
0001b0 47 1f 7e bc 6f d3 69 3d 2e 44 ac bc 98 81 68 3d
       -0.015510387 0.057086404 -0.021028604 0.056764215
0001c0 da 46 8c 3d bd 82 6f bd 01 32 b4 3d 23 76 f6 3c
       0.06849451 -0.05847429 0.087986 0.030085629
0001d0 a8 70 9c bd de 84 2f 3d 17 41 88 3c 69 f8 97 bd
       -0.07638675 0.04285132 0.0166326 -0.07420427
0001e0 c9 16 c0 3c c2 d9 65 3d 79 79 d5 39 38 21 8f bd
       0.023448365 0.056115873 0.0004071703 -0.06988758
0001f0 b0 86 8b bd c1 85 1f bd b1 f7 6b bc 7a 94 90 bd
       -0.06812799 -0.038945917 -0.014402316 -0.0705957

sage1.lin_r.weight f4 [128, 128]
000000 92 0e a5 3d db 83 6c bd 37 6c c7 3c 34 0e b1 bd
       0.0805942 -0.057742935 0.024343593 -0.08645287
000010 c4 a8 3f 3d 28 a5 a6 3d 19 7b a1 3d 6e 3a 83 bd
       0.046791807 0.0813697 0.07884807 -0.06407629
000020 f2 b0 39 bd f0 c8 4f bd 8f 4e 5e bd 4d c6 2b 3d
       -0.045334764 -0.05072874 -0.054274138 0.04193716
000030 2c f2 25 3d 2e bc 6b bc f6 4b 9b bd d4 a0 3e 3d
       0.040514156 -0.014388127 -0.07582848 0.046540096
000040 b1 28 79 bb 60 ee 66 bd ec 95 f7 3a 11 63 20 bd
       -0.0038018639 -0.056379676 0.0018889285 -0.039156977
000050 0b 9b 81 bc e2 5d d6 3a 71 99 9e 3c 62 52 b1 bc
       -0.015821 0.0016354884 0.019360276 -0.021645728
000060 61 12 27 3d ba a6 df 3b b8 87 c2 bc 69 f5 96 bd
       0.040789012 0.0068252953 -0.023746356 -0.07371027
000070 2d 6b 6c bd ee 14 8f bd a5 a7 54 bd bf f0 9e bd
       -0.0577194 -0.06986414 -0.05191769 -0.077607624
000080 42 24 0c 3d b3 d4 8c bd d2 a6 2e bd 69 f6 04 3d
       0.034214266 -0.06876507 -0.04263956 0.032461558
000090 8c 1d ad bd 1b 55 3a 3d bb c1 2d 3d 26 d1 96 bd
       -0.08452901 0.04549132 0.042421084 -0.07364111
0000a0 c6 33 8b bd 5c 57 a1 3d e3 d5 9a bd bd 4a 8e bd
       -0.067969844 0.078779906 -0.07560327 -0.06947849
0000b0 98 bf 1e bd b6 3c 32 3d e6 b0 aa bd e5 d2 22 bd
       -0.038756937 0.04351493 -0.08334522 -0.039751906
0000c0 f1 44 70 3d ff eb a5 3d 59 d3 87 bd 66 14 82 bd
       0.058659498 0.08101653 -0.06632108 -0.06351547
0000d0 bd 4e 98 3d f5 71 87 3d 7d 33 80 3d 3b 35 f0 bb
       0.07436893 0.066135325 0.062598206 -0.0073305643
0000e0 d2 a1 46 3d 34 1c bf bc 43 13 c1 bc e9 14 52 3d
       0.048494168 -0.023328878 -0.023568755 0.051289473
0000f0 27 50 81 3d 70 1b 91 bd 19 07 a7 3d 6f ea e3 bb
       0.06314116 -0.070853114 0.08155651 -0.006955437
000100 37 68 ac 3d e8 36 a9 3d ee ba 50 3d 36 42 80 bc
       0.08418315 0.08262426 0.05095952 -0.015656572
000110 6e 6d 17 bd ec 86 42 3d b1 fb 2d 3d 09 04 82 3d
       -0.036969595 0.047491953 0.04247636 0.06348426
000120 51 ce 91 3d 5c 16 a3 3b db 7c 95 bd 8e 21 d8 bb
       0.0711943 0.0049770307 -0.07299205 -0.006595797
000130 15 11 a8 bd 99 0e 91 bd d6 11 33 bc 97 2d 65 3d
       -0.08206383 -0.070828624 -0.010929545 0.05595168
000140 e7 e1 84 3d e9 ca 18 3d 94 bd e3 3c 2f de a4 3d
       0.064884 0.037302885 0.027800359 0.08050191
000150 8d f3 3d 3d 29 ba ad 3c bc 41 09 3d 92 3b 8c 3d
       0.046374846 0.021206932 0.033509955 0.068473
000160 3f ef 8b bd c3 37 a9 3d ac f0 13 bd 45 42 46 3d
       -0.06832742 0.08262589 -0.036118194 0.048403043
000170 78 2f 8a 3d 04 c2 ab bd eb 79 7f bd bb 4d 99 3d
       0.06747335 -0.08386615 -0.06237213 0.07485529
000180 a7 27 f4 bc d8 88 25 bd 0d a8 90 3d 86 27 80 bd
       -0.029804064 -0.040413707 0.07063303 -0.062575385
000190 87 68 22 bd 23 77 ca 3c d7 c5 8b bd f1 2a b0 3d
       -0.039650466 0.024715012 -0.06824844 0.086019404
0001a0 d9 51 51 bd a8 62 5d bd 09 3c 72 bd 14 6f a4 3d
       -0.051103447 -0.054049164 -0.059139285 0.08028999
0001b0 17 84 2e 3d 70 0a a2 3d 36 85 54 ba 74 2f 56 3d
       0.04260644 0.07912147 -0.0008107008 0.05229135
0001c0 8b 96 08 3d 78 fa 9b bc d3 9e 6d bd 03 c4 83 bd
       0.033346694 -0.019040331 -0.058012795 -0.06433871
0001d0 3a a4 9f 3c 8c f7 1b bd f6 56 bd 3c 0e 68 59 bc
       0.019487489 -0.038077876 0.023112755 -0.0132694375
0001e0 d4 4b 77 3d c4 9e 0a 3d 0e 25 2d bc e9 0b 59 3d
       0.06037505 0.033842817 -0.010567917 0.052989874
0001f0 dc 34 be b9 e6 5b 88 bd 2c 5a 8a 3c 5e a0 37 3d
       -0.00036279007 -0.06658153 0.0168887 0.044830672
000200 6b 8b b6 bc 42 75 59 bd 87 b9 9b 3d 88 07 72 3d
       -0.022283277 -0.05309034 0.07603746 0.059089214
000210 3e b6 10 3d f0 3f 31 3d 45 5c 9b 3c 71 61 b6 3d
       0.03533005 0.043273866 0.018964896 0.08905304
000220 65 d8 36 bd 70 3d eb 3c f7 f8 8b 3d 61 ea cd bc
       -0.044639964 0.02871582 0.06834596 -0.025136175
000230 c3 11 40 3d 97 94 b4 bc a1 30 77 bd db 83 b2 3c
       0.04689194 -0.02204351 -0.06034911 0.02179139
000240 5d 2a ad bc 45 88 39 bd 2e 18 7e 3d b6 cf e6 bc
       -0.021138364 -0.045295972 0.06203478 -0.028175216
000250 9a 3d e7 3c e6 24 af bd 7b 7a 69 bd cc 29 88 bd
       0.028227616 -0.0855196 -0.057001572 -0.06648597
000260 05 d2 8c 3d d1 fd a7 3d 91 cc 75 3c 66 c3 67 3d
       0.068759955 0.082027085 0.015002386 0.05658283
000270 e8 22 8d bd 37 d8 35 3d e8 3d a9 bd 69 64 02 bc
       -0.068914235 0.04439565 -0.08263761 -0.00795851
000280 06 02 a4 3d 85 c0 71 bd fb 44 5a 3d c2 03 9c bd
       0.080081984 -0.05902149 0.05328844 -0.07617904
000290 35 93 8e bd 1b 06 a6 bd c4 58 85 3d cf 3b b3 3d
       -0.06961671 -0.08106633 0.06511071 0.08751642
0002a0 b3 18 8c 3d f3 ad ae 3d 8c 7a c4 3c 9e 50 4d 3c
       0.068406485 0.08529272 0.023984216 0.012531428
0002b0 a3 4f 95 3c c1 69 5b 3d 38 cc d3 bc 50 3b 9b 3d
       0.01822645 0.05356765 -0.025854215 0.07579672
0002c0 ca d3 2b 39 0b 23 a6 bd 08 f0 2b bd 2f 63 29 bd
       0.00016386728 -0.08112153 -0.04197696 -0.041354354
0002d0 06 f3 6a 3d f2 61 e4 3c 0e c4 5b bc a3 16 9b 3d
       0.05736067 0.027878735 -0.013413442 0.07572677
0002e0 59 a0 a6 3d 02 a9 9e bd 29 f1 9a bc 57 85 39 3c
       0.08136053 -0.077470794 -0.018913822 0.011323295
0002f0 a7 4e f4 3c 96 79 e0 3c 00 7b bd 3b 27 96 9e bd
       0.02982266 0.027401727 0.005782485 -0.07743483
000300 1c 6f 20 bd 9d b2 ff bb 78 d8 75 bd 48 d1 dd bb
       -0.039168462 -0.007803275 -0.060020894 -0.006769333
000310 cb c9 f2 bb 03 3b 90 3c b8 16 6b bd 69 c3 23 3d
       -0.0074093095 0.017606264 -0.057394713 0.03998128
000320 0e fa 06 bc 3a 6f 01 3d 4d 3e 6a 3d f5 f9 39 3d
       -0.008238329 0.031600215 0.05718832 0.045404393
000330 0e 68 8a 3d bf b7 82 3d 31 e2 14 3d 26 57 5f 3d
       0.06758128 0.06382703 0.036348525 0.05452647
000340 57 c3 de 3c f5 fb 77 bd 27 b6 af bd 23 f6 d8 3c
       0.027192755 -0.06054302 -0.08579665 0.026484555
000350 66 c9 8b 3d 8d 51 de bc 9f 3d 02 bd 1d 1a ae 3d
       0.06825523 -0.027138496 -0.031797048 0.085010745
000360 3a 7b d0 3c ab 3b f6 bc f8 c2 1b bd 46 d0 01 bd
       0.025449384 -0.030057749 -0.038027734 -0.031692766
000370 42 e8 e4 3c 30 ca 3a 3d ff 88 5e bd 34 fc 4d bd
       0.02794278 0.045602977 -0.05432987 -0.050289348
000380 65 ea 8e 3d f7 43 73 3d 74 c0 b5 3c 32 78 5c 3d
       0.06978301 0.05939099 0.022186495 0.053825565
000390 d2 9f 83 bd cd f2 b8 3c 97 7d 90 3d df 0b 95 bd
       -0.06426968 0.022576714 0.07055204 -0.07277655
0003a0 05 d8 92 3d 2c 0d a7 3d 78 cd 84 3d b8 83 dd 3b
       0.07170109 0.08156809 0.064845026 0.006760087
0003b0 fd 47 6e 3c 31 7e 18 3c 4b ab b0 bd e2 bf 64 bd
       0.0145435305 0.00930743 -0.086264215 -0.055847056
0003c0 8e dc 98 bc 46 03 a2 3c f4 9d 06 3d 7d e6 a9 bd
       -0.018659856 0.019776952 0.03286548 -0.08295915
0003d0 7c a9 2a 3d d0 ea ee bb c2 75 17 bd ad 94 35 bd
       0.04166554 -0.0072911754 -0.036977537 -0.04433124
0003e0 19 32 ba ba 92 37 83 bc 60 ca 2a bd 7c b6 a9 3d
       -0.0014205604 -0.016017709 -0.041696906 0.08286759
0003f0 ed df e0 bc d9 3c d4 3c 3d 3c 36 3b 72 5e ae 3b
       -0.027450526 0.02590792 0.00278069 0.0053213174

sagpool.gnn.lin_rel.weight f4 [1, 128]
000000 d2 4e 9b bd e4 18 51 bd 4b 56 af 3c 3b f1 dd 3c
       -0.07583393 -0.05104913 0.021403452 0.027092567
000010 fd 06 bb bb 8b 4b 15 bd b0 9d 9d bd 35 c7 84 bd
       -0.00570762 -0.036448997 -0.07696092 -0.06483308
000020 37 50 bf 3c 60 35 a3 bd c5 2a e0 bb 44 4c 44 3d
       0.02335368 -0.07969165 -0.006841036 0.047924295
000030 d1 dc 6e bd 9c 7d 9c bd 7d 0e e2 3c 55 b5 c0 3c
       -0.058316056 -0.076411456 0.0275948 0.023523966
000040 eb 43 07 3d 22 53 a6 3d 50 62 8f 3d 6f a5 fd bc
       0.033023756 0.08121325 0.070011735 -0.030962674
000050 5f 86 87 bd ba 44 2b bd 94 7c a1 3c 54 b2 61 3d
       -0.06617426 -0.04181359 0.019712724 0.055101708
000060 b7 ec c7 bc 0c 15 5c 3d 1c 42 7c 3c ba 31 60 ba
       -0.024404867 0.05373101 0.015396621 -0.0008552332
000070 53 df 1f 3c 8e 3c 75 bd 38 f6 81 3d c3 ff 6a 3d
       0.0097578345 -0.059872203 0.063457906 0.05737282
000080 0f 66 53 3d c6 51 6b bd 74 11 75 3d 76 7e 97 bd
       0.051611003 -0.057451032 0.059831098 -0.073971674
000090 a0 c6 7b 3c 05 3a a5 bd 3a ab 14 3d 4f bc 61 bd
       0.01536718 -0.08067707 0.036296107 -0.055111226
0000a0 bb f9 7b 3b 2e dd 03 3b 9a 51 e8 ba a0 9d 68 bc
       0.0038448412 0.0020120847 -0.0017724514 -0.014197737
0000b0 03 7d e0 3c fc 24 0c bd 25 38 6a bd 35 a1 40 3d
       0.02740336 -0.03421496 -0.05718245 0.04702874
0000c0 73 a3 d6 3c e7 74 83 3d 62 dc ae bd 79 a9 8c 3d
       0.026200986 0.06418782 -0.085381284 0.06868262
0000d0 fc 7d 08 3d 97 c1 d7 ba e5 d5 3d bd 73 90 3b 3d
       0.033323273 -0.0016460893 -0.046346564 0.045792054
0000e0 31 f5 84 3d 5c 75 85 3d 71 26 98 b8 6b 4d 26 3d
       0.06492079 0.06516525 -7.255085e-05 0.040601175
0000f0 27 07 ee 3c 12 d9 a8 3c ff b3 95 3c 98 9b 2c 3d
       0.029056145 0.02061132 0.018274305 0.042140573
000100 9f 8d a2 bd 9a d0 68 bd 01 9e 8d bd 15 18 77 bd
       -0.07937168 -0.056839563 -0.069149025 -0.0603257
000110 2f fe a1 3d ed a9 9d 3d 5d d2 e9 bc cc b7 77 bd
       0.0790981 0.076984264 -0.028542692 -0.060478017
000120 18 55 b3 bd e6 04 fe bc a0 a0 02 bd 6a 59 cc 3c
       -0.08756465 -0.031008195 -0.031891465 0.02494498
000130 cc 31 04 3d 59 0a 8a 3d 02 3f 33 3d 29 a8 77 3d
       0.032274053 0.06740255 0.04376126 0.060463104
000140 82 44 44 3d 5c af 7d bd ac 23 3b bd 8c f4 34 3c
       0.047916897 -0.061934814 -0.045688316 0.011044633
000150 57 1b a1 bd 77 7a 1d 3d ba 04 ff 3a fa a1 10 bd
       -0.07866543 0.03844687 0.0019456365 -0.035310723
000160 7f a3 4b 3d e2 75 9e bd 42 e2 16 bd 34 bc 6d bd
       0.04971647 -0.07737328 -0.03683687 -0.058040813
000170 f6 47 1c bd f2 dc 9a bd 45 57 60 3c 29 ef b4 3d
       -0.038154565 -0.07561673 0.013692682 0.08834679
000180 8a 43 98 3d 64 41 6a bc eb 6e 57 bd 35 25 78 3d
       0.07434757 -0.014297817 -0.052596014 0.06058236
000190 aa 3c 30 bd d1 eb 9d 3d 7e 51 56 3c 9d 69 32 bd
       -0.043026604 0.07710994 0.013080953 -0.043557752
0001a0 2d 86 8c bd fd 5b 4e bb e1 f9 51 bd 44 77 0c 3d
       -0.068615295 -0.0031487935 -0.051263694 0.034293428
0001b0 7f d6 37 bd 4e 08 64 3d f6 c4 9a 3d 01 a9 39 bd
       -0.044882294 0.055671982 0.075570986 -0.04532719
0001c0 fa c7 d2 bc 5b 36 94 3d 1c ca 9c 3d 35 2a a7 3d
       -0.025730122 0.0723693 0.07655737 0.08162347
0001d0 71 dc 38 bc a6 aa 69 3c 63 17 9f bd 00 60 1d 3c
       -0.011283026 0.014261877 -0.077681325 0.009605408
0001e0 64 76 4d 3d ef 63 e3 bb 6c d8 99 bc 59 7a 47 3d
       0.050161734 -0.0069394032 -0.018779956 0.048700664
0001f0 fa f2 93 bd db ff f2 bb f3 49 11 bd f5 ac 7d bd
       -0.072240785 -0.0074157543 -0.035470914 -0.061932523

sagpool.gnn.lin_root.weight f4 [1, 128]
000000 de 3e a2 bc c1 85 85 3d 1b de 3b bd 30 01 d6 3c
       -0.019805368 0.06519652 -0.045866113 0.026123613
000010 e1 ba fa 3c 9a d4 5b 3c 1f eb 8f 3d ea 57 a3 bd
       0.030606689 0.013417387 0.07027268 -0.07975753
000020 17 09 de 3c ce ba 45 bd 5e a2 3b 3d bc 61 05 bd
       0.027103944 -0.048273854 0.045809142 -0.03256391
000030 2a a3 4b 3b ed 6e 81 bd 42 9e 68 3d b7 99 49 3d
       0.0031072595 -0.063199855 0.05679155 0.04921886
000040 f0 89 22 3d d1 fe 41 3d 56 3a b2 3d f4 57 45 3d
       0.03968233 0.047362152 0.08702533 0.04817958
000050 64 07 a3 bd f0 34 aa 3d f2 11 b2 3d 2c 4b 87 3d
       -0.07960394 0.08310878 0.08694829 0.06606135
000060 98 5a bb bc 28 ef 65 3d 47 34 71 bc 33 50 c7 bc
       -0.022870347 0.05613628 -0.014721937 -0.024330234
000070 aa d5 89 3c 51 06 2c bd d1 a8 a8 3c 99 be f7 bc
       0.016825516 -0.04199821 0.02058831 -0.030242251
000080 9e 25 aa 3c 42 a3 7e bc 60 c9 1a 3d 04 66 9a bb
       0.02076989 -0.015541853 0.037789702 -0.0047118682
000090 de 0c a4 bd b8 78 70 bd 8c 0f 01 3d ea e8 9a bd
       -0.08010267 -0.058708876 0.031508967 -0.07563956
0000a0 a2 84 a1 bd 5c 48 73 bd 98 60 5a bc 00 78 a4 bd
       -0.07886626 -0.05939518 -0.013328694 -0.08030701
0000b0 7d b9 90 3b 30 0a 64 bd f2 3a 97 bd bf cf 92 3c
       0.004416643 -0.055673778 -0.0738429 0.017921327
0000c0 2e 8b 41 bd 38 78 a4 3d 62 fe 37 3d 2f 21 ed 3c
       -0.047251873 0.080307424 0.044920333 0.028946487
0000d0 83 2d 4a bd 92 f5 86 bd 24 4c a9 3d b7 43 a5 bd
       -0.04935981 -0.065898076 0.08266476 -0.08069556
0000e0 33 94 a0 3b b5 b8 c1 bb fe 19 0c bd 28 8b c4 3c
       0.004900479 -0.0059119114 -0.034204476 0.023992136
0000f0 b8 af 71 3c c7 26 95 3d 29 df 58 bc f5 c0 df bc
       0.014751367 0.07282787 -0.013236799 -0.027313689
000100 2e 76 00 3d 0a 12 b1 bd aa 67 a7 bd 21 cc 8f 3d
       0.031362705 -0.08646019 -0.08174069 0.070213564
000110 e5 1c ce bc b3 9e 51 3d 57 1c 72 3d 30 df 56 3d
       -0.025160262 0.051176738 0.05910906 0.052458942
000120 d1 34 bd ba d0 69 b6 bd 03 06 02 bd cc bd 8c bd
       -0.0014435296 -0.08906901 -0.031744014 -0.068721384
000130 1e 3b 8f 3d b2 47 97 3d ec 27 08 bc 14 67 06 3d
       0.069936976 0.07386722 -0.008310299 0.032813147
000140 52 84 70 3d 68 be 8d bc 95 29 15 3d b9 16 a4 bd
       0.05871994 -0.017302707 0.03641661 -0.080121465
000150 5b 0c 13 bb 98 54 be 3c a7 97 62 bd 0d 5a 9a bd
       -0.0022437784 0.023233697 -0.05532041 -0.07536707
000160 da 86 39 3d a4 2f 23 3d d2 ad 61 3d 01 2f 98 3d
       0.04529462 0.039840356 0.05509741 0.0743084
000170 13 01 8d bd f8 38 0f 3d 91 14 30 3d a2 1b 7a bd
       -0.068849705 0.03496644 0.042988364 -0.06106151
000180 f1 14 67 bc 52 a6 6d bd 85 79 d2 3b d1 f4 ac 3d
       -0.014104114 -0.058019944 0.0064231777 0.084451325
000190 33 a0 73 bd 1f 76 95 3c b1 7e 2e bd 0e ff 78 bd
       -0.05947895 0.018244801 -0.04260129 -0.060790114
0001a0 cc 6a 94 3d 82 02 8e bd e4 da 9f 3d ba 65 a7 bc
       0.072469324 -0.06934072 0.07805422 -0.02043425
0001b0 ea 32 9a bd a0 fb d2 bc 46 60 bc bc f0 82 27 3d
       -0.07529242 -0.02575475 -0.022995126 0.040896356
0001c0 98 93 ab bd b8 26 9a bd 4e 63 a0 bc f9 af b2 bd
       -0.08377761 -0.07526916 -0.019578602 -0.0872497
0001d0 6a a7 07 bd 06 4d ba ba ac 35 54 bd 6c 22 9b 3c
       -0.033118643 -0.0014213629 -0.051808998 0.018937312
0001e0 5d 11 95 bd 60 91 ba 3c fe 27 8c bd af d8 91 3d
       -0.072787024 0.022774398 -0.068435654 0.07121407
0001f0 f8 91 16 bd ea 5b 0b 3d 18 99 a2 3c 32 1d 3e 3d
       -0.0367603 0.034023203 0.019848391 0.04641456

lin.weight f4 [64, 128]
000000 0e 7e 9c 3d c1 06 83 bd b4 f4 a8 3d 8e 04 d6 bb
       0.076412305 -0.063977726 0.082497984 -0.0065313047
000010 86 2e 7f bd 1a 57 81 3d 8a 72 82 bd 48 7b a5 bd
       -0.062300228 0.063154414 -0.06369503 -0.08080155
000020 70 de 7e 3d 76 39 92 bd c3 c4 fb bc 9b 77 01 bc
       0.06222385 -0.07139866 -0.030733472 -0.007902051
000030 a0 0a 74 3d 9f 27 54 bc 7b 85 6d 3d 28 06 94 3d
       0.059580445 -0.0129488995 0.057988625 0.07227737
000040 f0 10 62 bd 02 1f 3a 3d 1b 88 52 3d c0 5e 88 3d
       -0.055191934 0.045439728 0.05139933 0.06658697
000050 1b 61 5b bc bc 5f 81 bc 2c c7 9d 3d 6d 3d a2 3d
       -0.013389851 -0.01579272 0.07704005 0.07921872
000060 25 f6 93 bd 28 57 17 bd 9b ff 8a bd 90 4e 9d bc
       -0.07224683 -0.036948353 -0.06787034 -0.0192025
000070 eb 71 69 3c e9 53 91 bc f5 cd 9d 3d 16 05 27 bd
       0.014248352 -0.017740207 0.07705299 -0.040776335
000080 fe e3 89 3a 66 cc c6 bc 78 65 08 bd 47 e4 88 3d
       0.0010520217 -0.024267387 -0.033299893 0.066841654
000090 26 b4 64 bc f9 85 d0 3c 45 b1 48 bd 24 59 a3 bd
       -0.013958966 0.025454508 -0.048997182 -0.079759866
0000a0 46 1d 36 3d c9 f3 5f 3b 4a 9e 0e 3c 9e 85 88 bd
       0.04446151 0.0034172407 0.008704731 -0.066661105
0000b0 eb 2b 1e 3d 1e f5 78 bd d4 32 95 3d 95 dc 8b 3d
       0.038616102 -0.060780637 0.07285085 0.06829182
0000c0 a8 bd 24 bd 41 34 b1 3d b6 26 55 3d c7 ea 6e bd
       -0.040219933 0.08652545 0.05203887 -0.05832937
0000d0 e6 a4 58 3c 1d f5 57 bd a6 8c 25 3d 94 7d 9c bd
       0.013222909 -0.052723993 0.040417336 -0.076411396
0000e0 1b f2 97 bd c4 90 3d bd 16 f7 93 3d 68 06 3b 3d
       -0.07419225 -0.046280637 0.07224862 0.045660406
0000f0 f3 5b 55 3d fa 70 6d bd cc bd 3f ba 71 19 29 bd
       0.052089643 -0.05796907 -0.0007314354 -0.04128403
000100 f4 97 a5 3d 2e 9c ab 3d fc 2a 66 3d 96 36 9b bd
       0.080856234 0.08379398 0.056193337 -0.07578771
000110 45 0d f1 3c 1a f7 6c 3d bd 3c 8f 3d eb c9 21 3b
       0.029425273 0.057852842 0.06994007 0.0024687003
000120 ad ad ba bc ef 09 49 3d 99 b9 80 bd 74 2c 07 bd
       -0.022787893 0.04908174 -0.062854 -0.03300138
000130 e3 80 e3 bc 31 55 9c bd c4 70 96 3d 4e dc db 3c
       -0.027771419 -0.076334365 0.07345727 0.026838448
000140 b1 6a 94 bc 9c 4c 8f 3d cb 6e a2 bd 7a 14 80 bd
       -0.01811728 0.06997034 -0.07931288 -0.062539056
000150 2f cd 01 3c aa 50 56 3c 62 93 b4 3c 9e ef 57 3d
       0.007922455 0.013080755 0.022042934 0.05271875
000160 cd d9 a8 3d a1 7e a5 bd 5a 40 77 3d 57 7a 04 3c
       0.08244667 -0.08080793 0.060364105 0.008085809
000170 2c 36 93 bb 8a 01 af bd 91 fc ab 3d 12 58 a5 3d
       -0.004492542 -0.085452154 0.083977826 0.08073439
000180 65 72 76 3b dd 3e 1a 3a 73 22 8c 3d 69 6d a1 ba
       0.0037604806 0.0005884001 0.06842508 -0.0012315932
000190 eb 95 94 3d d4 cd 2b bd c7 99 52 bd fe e2 ca bc
       0.07255157 -0.04194434 -0.051416185 -0.024766441
0001a0 77 db 55 3c 65 72 91 bd 5a 85 a7 bc b1 a9 3f 3d
       0.013052813 -0.07101897 -0.02044933 0.04679269
0001b0 67 66 8e bd bf 5e 8e bd 4e 07 36 3a ed da 02 3d
       -0.069531254 -0.06951665 0.00069438375 0.031947065
0001c0 39 d6 3d bd 3d a6 90 3d cc c4 b2 bd a8 1b 99 bd
       -0.046346877 0.070629574 -0.08728942 -0.07475978
0001d0 06 49 71 3c c0 6d 91 3d 8e e4 47 bd c0 0a 09 bd
       0.014726883 0.07101011 -0.04880195 -0.033457518
0001e0 eb 29 9d bd 91 f7 6a 3d de 76 b0 3d 62 22 52 3c
       -0.07674011 0.057365004 0.08616422 0.01282558
0001f0 f1 ef a6 bd c8 ab 28 bc d8 87 09 bd 9f 74 5f bd
       -0.08151234 -0.010294862 -0.033576816 -0.054554578
000200 e3 7a 26 bd 78 de 86 bd 95 39 a5 38 48 8a 71 bd
       -0.040644538 -0.06585401 7.8785386e-05 -0.058969766
000210 d5 d6 4f 3c 1e b1 46 3c c2 53 96 3d c2 96 34 bd
       0.012685497 0.012127189 0.07340194 -0.044089086
000220 38 65 68 bc 3e b9 1c 3d db 44 4a bc 6a dd 83 3b
       -0.014184289 0.0382626 -0.012345518 0.0040241973
000230 21 79 39 bd b0 61 63 3d 02 fe 84 3c f6 20 15 bd
       -0.045281533 0.055513084 0.016234402 -0.036408387
000240 ea 5a 0f bd b6 fa ac bd 25 2b 82 bc 64 e8 7d 3d
       -0.03499881 -0.08446257 -0.015889714 0.061989203
000250 93 83 75 bd af 15 25 bc 7c 96 86 bd e1 66 77 bd
       -0.059939932 -0.010075971 -0.06571671 -0.060400847
000260 4f 59 65 bd ec 1a 73 3d cb b3 89 bd 13 0c 31 3d
       -0.055993374 0.059351847 -0.06723746 0.043224405
000270 36 d0 a1 bd 77 23 56 3d 18 98 25 3a 9b fc 7e bd
       -0.07901041 0.052279916 0.0006316914 -0.062252622
000280 63 22 59 3d f5 03 e2 3b 9a a4 0e 3c 7f 89 b3 3b
       0.05301131 0.0068974444 0.008706236 0.0054790373
000290 dc 94 4c 3d 84 08 59 bd 7c f8 13 3d 17 55 7c bb
       0.04994665 -0.052986637 0.036125645 -0.0038502866
0002a0 be 29 47 bd 78 3c a4 3d f2 74 62 3c 2c 32 b1 3c
       -0.048623793 0.08019346 0.013821827 0.02163037
0002b0 12 3a 98 3a fd d0 88 bd b7 3e e5 bc a6 4f 40 bc
       0.0011613986 -0.06680486 -0.027984006 -0.01173774
0002c0 6c 91 62 3d 1a 66 e7 bc 43 d5 09 3d ad ba 93 3d
       0.055314466 -0.028246928 0.033650648 0.0721334
0002d0 ca 4f a6 3d 20 9e 4d 3d 00 e4 0b 3d 9e ad f8 3c
       0.08120687 0.050199628 0.034152985 0.030356225
0002e0 3a f3 d7 3b dd 0c 77 3d 89 68 d3 bb 6e 5c 94 3c
       0.006590274 0.060315 -0.0064516705 0.01811048
0002f0 c6 87 85 3d 2e 6b 19 3d fd ca 5e 3d db 05 be bc
       0.06520037 0.03745573 0.054392803 -0.023196151
000300 b8 66 8b bd 45 cb 38 bd de e4 2c 3d cb 12 f9 3c
       -0.068067014 -0.045115728 0.042210452 0.030404469
000310 a3 d4 ea 3c c6 e4 b3 bc a4 67 02 3b 96 9d 26 bc
       0.028665846 -0.021959674 0.00198982 -0.010169407
000320 69 78 80 3c 84 c3 1d bc c7 67 fa 3b 8f 0e ce bc
       0.015682416 -0.009629134 0.0076417658 -0.025153426
000330 53 72 b2 bd 6f 6d 2d 3d 8e 8d a9 bd cd 80 57 bd
       -0.08713212 0.042340692 -0.082789525 -0.05261307
000340 a5 6e 8d bd 7b 5d aa 3d 3e 05 70 bd e9 95 9a bd
       -0.069058694 0.08318611 -0.05859875 -0.07548124
000350 7d 1b 48 3d 96 21 af bd 8d fb 5e bd bb aa d5 3c
       0.04885434 -0.08551328 -0.054439116 0.026082387
000360 c4 82 d7 ba 7b 1f 09 3c cc ab 21 3c 2f 3b 52 3d
       -0.001644217 0.008369322 0.00986762 0.051325973
000370 30 0a 85 3c 2c 8c e7 bc 8c 01 84 3d e1 98 4f b9
       0.01624021 -0.028265081 0.064456075 -0.0001979801
000380 3a 53 5c 3d 58 0e af bd cc 38 72 3d 68 a1 b7 3c
       0.05379031 -0.08547658 0.059136197 0.022415832
000390 d7 6f 50 ba 0e 96 8c bd b0 5d 85 3d 15 53 a7 3d
       -0.0007951236 -0.06864558 0.0651201 0.081701435
0003a0 5f 36 9d 3d c4 78 a0 bd 03 71 5b bd cf 39 55 bd
       0.07676386 -0.07835534 -0.053574573 -0.052057084
0003b0 a9 74 69 3d de b7 4f bd c3 d6 ac 3d f9 98 d2 bb
       0.05699602 -0.05071246 0.084394 -0.006426927
0003c0 00 3b 76 bd 8d 11 d0 bc 9d 10 3e bd f1 ac 36 3d
       -0.06011486 -0.025398994 -0.046402562 0.044598524
0003d0 72 eb e5 bc af 9c 9b bd aa 45 3d bd 11 f5 8c bc
       -0.02806637 -0.075982444 -0.046209015 -0.0172067
0003e0 8f 41 82 bd 15 f6 3d 3d 32 3d 99 bd 26 ef 86 bd
       -0.063601606 0.04637726 -0.07482375 -0.06588583
0003f0 4e 48 d0 3c e2 b1 5f 3c f2 cc 6e 3d a8 f0 93 bd
       0.025425103 0.01365325 0.05830092 -0.07223636
