All_Benchmarking/DATA_4/Results/fold_2/best_model.pth (torch, 192098 bytes, 32 tensors)

gat1.att_src f4 [1, 4, 32]
00000000: 9ce8 a33c 8a98 19be 6ad7 c5be e44c 88be
00000010: ba2d df3d 053b cc3e 897d 8ebe cbc7 9c3e
00000020: ddf3 a5be 4d08 7dbd 3e5c 0ebe 895a a2bd
00000030: aeca bd3d 58ff 2e3e c3c1 4b3e 3e98 5dbe
00000040: 7ee8 b5be 7751 b1be e18f 81bd 467a 84be
00000050: 2853 d0be a541 e93d b481 21be 9107 be3e
00000060: d841 043e 1b34 1ebe bc55 c53e b439 ae3e
00000070: d9eb 86bc de52 66be b4e8 54be 8098 133e
00000080: c759 81be cc6b 413e f63b 0ebe 0b56 94be
00000090: 6013 833e d393 94be b1ee 64be 66d8 513d
000000a0: 45ee d03e cd6c e6bd 6d3a 7cbd a232 563e
000000b0: 6e5c 25be ddb0 67bd ca2f b0be 0343 103d
000000c0: 6b97 00be 118e 0abc adba 84be 9032 ba3d
000000d0: f215 92be 2e85 e13d 52ca 793e 1cbc 943e
000000e0: f1bc c23b 19b4 63bd d04a 243e 94bc b6be
000000f0: 903f cbbd 7bac a33e 7a0b f6bc da8d 70bc
00000100: 5f64 77be 512a 923e 13c7 d03e bc66 08be
00000110: d24b 453e 6d69 d03e 6c60 73be 4171 b5be
00000120: 43f6 aabe f312 6abd 14ec e43c 0e55 63be
00000130: 025c 7dbe d3df aabe 2db3 edbc 48d4 513e
00000140: 16d1 8ebe 30d2 e83d 20b0 d23d f80b 853c
00000150: 1d60 423e 89d6 ccbd a464 31be 6fa3 6dbe
00000160: 0440 bfbe 1fbd a63d 1f30 98bd e18b 8d3e
00000170: c288 a03d e499 d03d dac0 9dbe 6e9c 02bd
00000180: f91e 12be 6beb 143e 4beb 8cbe d96c be3e
00000190: a9e7 42be e068 63be 89a0 1a3e d420 963e
000001a0: e55a 49b9 ebab 823e 5d48 223e 45fb bd3d
000001b0: e21b 1fbe 8695 bbbe 2866 b13e 0f75 1c3e
000001c0: eacf b8be ed49 873e c749 93be b616 c6be
000001d0: 4827 623e 9646 443d 7e6d 703e 996e f73d
000001e0: e1c6 863e 308e c03e 9bf8 89be 3f83 b0bd
000001f0: 3c93 93be 7d5f 903e 8ef3 98be 1632 7a3e
0.020008378 -0.14999595 -0.3864091 -0.26621163 0.108973935 0.39888778 -0.2783015 0.3062118
-0.32412615 -0.061775494 -0.13902375 -0.079274245 0.09267174 0.17089593 0.19898133 -0.21640107
-0.3552894 -0.34632465 -0.06326271 -0.25874537 -0.40688443 0.11389474 -0.15772134 0.37115148
0.12915742 -0.15449564 0.38541973 0.340284 -0.016469883 -0.22492549 -0.20791894 0.14413643
-0.25263807 0.18888777 -0.13890061 -0.28971896 0.2560072 -0.2901903 -0.22356679 0.051231764
0.40806785 -0.11251221 -0.061579157 0.20917752 -0.1614854 -0.056565154 -0.3441146 0.035220157
-0.12557761 -0.008456723 -0.25923672 0.09091675 -0.28532368 0.1101173 0.24393585 0.29049766
0.0059429337 -0.055591676 0.16044164 -0.3569075 -0.09924233 0.3196753 -0.03003477 -0.014682258
-0.24159382 0.2854791 0.40776882 -0.1332044 0.19267204 0.40705433 -0.23767251 -0.35437968
-0.33391008 -0.057146978 0.027944602 -0.22200415 -0.2474213 -0.3337389 -0.029016102 0.20491135
-0.27893895 0.11368215 0.102874994 0.016241059 0.18981977 -0.10001857 -0.17323548 -0.23206876
-0.37353528 0.08141541 -0.07431053 0.27645782 0.078385845 0.10185602 -0.30811197 -0.031887464
-0.14269628 0.1454293 -0.27523264 0.3719242 -0.19033684 -0.22207975 0.15100302 0.2932192
-0.00019202715 0.25521788 0.15847917 0.092764415 -0.1553798 -0.36637515 0.34648252 0.1527903
-0.36096126 0.26423588 -0.28767225 -0.38689202 0.22085297 0.04791888 0.23479268 0.12081642
0.26323608 0.3760848 -0.26947483 -0.08618783 -0.28823268 0.28197852 -0.29873317 0.24433169

gat1.att_dst f4 [1, 4, 32]
00000000: fd5a a8be bbc0 ba3e 4b78 47bd a7be 95be
00000010: 2b48 c9be a9d5 bc3d d87f a5bd 87cb c73d
00000020: 483d bb3e 084e 7cbe 95ca cbbd 2d24 d0be
00000030: 5c77 b3be cb46 a7be 9f83 e03d 8491 c4be
00000040: 52dd ae3d 20af 9cbe 1f51 59be e852 bd3e
00000050: 8e79 6fbe fb80 a3be 4198 213e 77e5 2abe
00000060: 9935 be3d 9de1 9abd a7cb a93e 4cd8 be3e
00000070: a7d0 013e d3ac 62be 597a 86be 0771 9a3d
00000080: 61ad 04be d160 66be e77d b93d 5d9f d03c
00000090: 3481 593e 6984 143e 0cc1 ca3e 1a8a 71be
000000a0: 8a52 973e dd91 c83e 563f 6a3e 9bb0 8c3d
000000b0: 2623 983e 9b8a 88be 2380 f93d 69c2 14be
000000c0: 4c09 bbbd 4fc6 c8be 1498 5a3e f0fb b4be
000000d0: 991f 9a3e 3ebe ea3d fe96 02be 34fb 9ebc
000000e0: 5b50 8ebe 2f76 a43e d7b4 e9bd 511d b13d
000000f0: bcf9 bcbe dbf4 74bd 2c6e 8d3c 2deb 96bd
00000100: d638 c8be 8522 8e3d 6e5b 893e 3b70 e6bd
00000110: bc63 963e a4b3 f13d bc19 ff3d ce0d 9cbd
00000120: 01f3 c83e da0c 6ebe 4b1c ea3d 15e2 95be
00000130: eedb ce3e 151d 7fbe 0bd5 433e 3eac b3bc
00000140: adac 63be d181 9dbe e8c3 7fbc 9e96 dfbd
00000150: 8c94 7ebe b69d 443e 5fb8 983e f8ee 433e
00000160: 5151 47be 8856 f6bd 0c97 963d 62b6 df3d
00000170: 871c 83be 04c1 873e 62be c73e b871 51be
00000180: fbf6 223e 47fa e2bb 9a3d 78be 59ac 763d
00000190: 8a68 85be 8769 cc3e ca83 f7bd d01b 5abe
000001a0: adce c5be 842b 823d 0541 333e 8c6a a63e
000001b0: 244d 7d3e 5f4f 863e 8074 633e 1e1e 1a3e
000001c0: ab6c 59be 1431 89be 4031 c03d 021a a73c
000001d0: c01b 0d3e 134e 7f3e 26ea 70be 872f a9bd
000001e0: 2d22 183c dc8a dfbc 9e06 a2be 714b 9e3e
000001f0: 5130 793e b157 8dbe f9c6 893d f924 283d
-0.3288192 0.36475167 -0.048698705 -0.2924702 -0.39312872 0.0922044 -0.08081025 0.09755617
0.3657019 -0.24639142 -0.09950749 -0.406526 -0.35052 -0.32671198 0.10962605 -0.3839227
0.08538307 -0.3060236 -0.21222351 0.36977315 -0.23386213 -0.31934342 0.15780737 -0.16689096
0.09287567 -0.075625636 0.33163187 0.37274396 0.12677251 -0.2213624 -0.2626522 0.075410895
-0.12956764 -0.2249787 0.09057217 0.025466615 0.21240693 0.14503635 0.39600408 -0.23587838
0.2955516 0.39173785 0.22875723 0.06869622 0.29714316 -0.26668248 0.12182643 -0.14527287
-0.091326326 -0.39213797 0.21347076 -0.35348463 0.30102232 0.11462067 -0.12752911 -0.019406892
-0.2779568 0.32121417 -0.114114456 0.0864817 -0.36909282 -0.059803825 0.017264448 -0.07369075
-0.39105862 0.06940178 0.26827568 -0.11251875 0.29372966 0.11801842 0.1245608 -0.076198205
0.39247897 -0.2324709 0.11431178 -0.2927405 0.40402168 -0.24913438 0.19124238 -0.021932717
-0.2223384 -0.30763105 -0.0156106725 -0.109174 -0.24861354 0.19200787 0.29828164 0.19134128
-0.19464613 -0.12028223 0.07353029 0.10923459 -0.25607702 0.26514447 0.39012438 -0.20453537
0.15914528 -0.006926808 -0.24242249 0.060222957 -0.2605632 0.3992426 -0.12085684 -0.21299672
-0.38634244 0.06355956 0.17505272 0.32503164 0.24736458 0.2623243 0.2221241 0.15050551
-0.2123286 -0.26795256 0.09384394 0.020398144 0.13780117 0.24932127 -0.2352682 -0.08261018
0.009285492 -0.027287893 -0.31645674 0.30916932 0.24334837 -0.27605966 0.06727404 0.041050885

gat1.bias f4 [128]
00000000: 12e5 dbb8 4561 ef38 a8a9 05b9 308b d9b8
00000010: e475 f0b4 d94f 0bb9 b554 9838 8f3a ea37
00000020: 2548 0a39 de5f 23b8 d817 43b8 7d11 2738
00000030: 0da5 1538 f29c fdb8 5c71 f838 7690 c638
00000040: 3504 67b7 5686 1bb9 897c 23b9 cfcb 00b9
00000050: 6810 fbb8 6576 4bb8 0fcd ef38 68a7 30b8
00000060: eafa 0cb8 3612 28b8 b2af 16b8 62df b4b7
00000070: 4ab0 cab7 dee9 a038 46d2 6538 323c ad37
00000080: 562a 03b6 cdb7 46b8 63d5 2239 0c69 9338
00000090: 77ad b638 5e96 1b38 8922 c138 ee67 62b8
000000a0: bdac 36b8 5d50 c237 56cd d4b8 892f e3b7
000000b0: c1cf c936 7375 28b9 c99d 00b9 5226 3539
000000c0: 291b 39b8 69c3 06b8 06b5 edb7 235f 5738
000000d0: 51bd 13b9 2dd8 de36 19f9 1b38 69b6 fe38
000000e0: 44c9 bcb8 2860 6338 1c74 5fb9 e456 60b8
000000f0: 674c f837 81dc 7b38 e216 c0b8 2fbe e3b8
00000100: 4b62 9fb7 4bf5 3cb9 49c0 3839 13d1 97b8
00000110: 80f2 edb4 bbc9 27b8 d881 f437 8e01 35b9
00000120: ba0e 3b39 3feb d238 8714 5037 e29a 2eb9
00000130: 089c 8fb8 fac8 f1b8 bf1c 6d38 b592 46b8
00000140: e332 20b9 bb1d 09b7 4fe8 cdb8 51c7 a938
00000150: 4a39 d737 e993 2bb9 3a47 5038 a35f 2938
00000160: 1e46 29b7 89b8 0eb9 34d0 8c34 f3d1 33b8
00000170: 29a3 66b8 f032 02b9 4c10 a838 db72 0b38
00000180: 0b8b 50b7 2a17 b138 abe2 79b7 6d7f 13b9
00000190: b78c b438 3ee8 f137 e770 0039 aa66 1338
000001a0: e954 60b8 b6d4 ad36 c185 07b8 77a8 eab8
000001b0: 8c4f 6538 a99c fb38 4c3b 82b8 cd33 e5b7
000001c0: 31d7 e7b8 f95b 2938 8b8c 0bb9 a875 5db7
000001d0: 2011 5937 80e4 8b38 18e6 4139 3640 8e38
000001e0: 0565 f237 29fb 2e36 3ebf 9638 52b2 8239
000001f0: 1a3b 9fb8 ef75 4139 d879 5c38 ecbd 8838
-0.000104854014 0.00011414526 -0.0001274707 -0.00010373292 -4.478926e-07 -0.00013285819 7.263703e-05 2.7922242e-05
0.00013187581 -3.895151e-05 -4.651383e-05 3.983219e-05 3.5678084e-05 -0.000120932134 0.00011846676 9.468284e-05
-1.37696525e-05 -0.00014831996 -0.00015591284 -0.00012282956 -0.000119716686 -4.8509235e-05 0.00011434603 -4.211758e-05
-3.3612283e-05 -4.007128e-05 -3.5926416e-05 -2.1561693e-05 -2.4162367e-05 7.672956e-05 5.4793687e-05 2.0651238e-05
-1.9545164e-06 -4.7378056e-05 0.00015529017 7.029073e-05 8.7107466e-05 3.709492e-05 9.20939e-05 -5.397939e-05
-4.3553056e-05 2.3164024e-05 -0.000101471946 -2.7082644e-05 6.0144525e-06 -0.00016065482 -0.00012265811 0.0001727578
-4.4132732e-05 -3.213008e-05 -2.8336897e-05 5.1348597e-05 -0.00014089538 6.6412817e-06 3.718687e-05 0.0001214564
-9.002027e-05 5.421057e-05 -0.00021310191 -5.3486685e-05 2.9599481e-05 6.0048424e-05 -9.159536e-05 -0.00010859628
-1.9000048e-05 -0.00018020456 0.00017619239 -7.239184e-05 -4.4321132e-07 -4.000378e-05 2.914753e-05 -0.00017262084
0.00017839196 0.00010057398 1.24025455e-05 -0.00016651631 -6.8478344e-05 -0.0001152921 5.6531975e-05 -4.734351e-05
-0.00015277746 -8.1727585e-06 -9.8184326e-05 8.0956735e-05 2.5656675e-05 -0.00016362932 4.96574e-05 4.038181e-05
-1.008951e-05 -0.0001361092 2.622852e-07 -4.2872456e-05 -5.4988228e-05 -0.00012416742 8.0139e-05 3.324715e-05
-1.243014e-05 8.444332e-05 -1.4894332e-05 -0.00014066482 8.609279e-05 2.8837585e-05 0.0001224909 3.5143144e-05
-5.348484e-05 5.1805646e-06 -3.2311076e-05 -0.000111893685 5.467194e-05 0.00011997793 -6.209928e-05 -2.7323049e-05
-0.00011055021 4.0378396e-05 -0.0001330843 -1.32000205e-05 1.2938195e-05 6.670598e-05 0.00018491631 6.783048e-05
2.8895689e-05 2.6074215e-06 7.188179e-05 0.0002492839 -7.592719e-05 0.00018449848 5.2565563e-05 6.520361e-05

gat1.lin.weight f4 [128, 5]
00000000: fc62 533e 93ef 11bd 605d 54be f3db 0cbe
00000010: e81a 92ba 625f e2bd bde0 2b3b d002 493d
00000020: 4d59 06be a4b9 ae3d 7930 25bd 8a0d ab3d
00000030: 3d8d 0ebe 56db cabd 99e3 723d bd60 063d
00000040: be84 483e ce64 e63c 955d e13c ae27 0ebd
00000050: 07d3 3d3e 2d95 353a 73cd 0ebe 73df 9b3d
00000060: 6ab4 2bbe 6a97 eebd fbb4 cc3d 0432 623d
00000070: a2dc 203e 2118 ee3d 5c2e 193e 51a4 c7bc
00000080: d865 09be b259 9a3d 6637 9f3b fa29 c7bd
00000090: 7d01 4d3d 06ab bf3d 03ff 2e3e 5a5b 04bd
000000a0: e323 053e d604 4c3e 6598 243e 2e14 393e
000000b0: 6003 1dbd 537c 8d3d 16ef 2b3e e5dd 31bd
000000c0: 986f 113e 2f07 c43d 17ed 1cbd 9a83 9cbd
000000d0: 5562 cfbd 65a9 8a3d 2f29 f63c b055 0d3d
000000e0: 7fdf 2ebe ad35 553d c39a 6a3c 0d38 313e
000000f0: 7dd8 3dbe ee87 d9bd c60a cdbd 4337 463e
00000100: e686 45be 1f53 553e aa97 1e3d 899d 4bbe
00000110: c816 163d e59b d73d d7d2 3e3e 6b37 313e
00000120: 8f44 fcbd b35f d93d 43cd bf3a 0455 28be
00000130: d33e 373e e700 d5bd b443 573e f52f 223e
00000140: e5c2 303e 3fe3 373e 7027 c1bd 4861 583e
00000150: 7f5a 173e 1a80 4c3e affb b4bd 558a 463e
00000160: 874a 213d 7dbb 16be ce82 1dbe 5391 30bd
00000170: a86d 01be 9380 9b3c 418e 2cbe 2791 c2bd
00000180: bbb1 173e 17d3 0fbe 49ea 2abd e65f 06bb
00000190: f307 0cbd 7406 54be c74a 8b3d e79e e73d
000001a0: 4e7a 3c3e e30f cebd 9302 bb3d e617 3f3e
000001b0: 14a3 8f3d be5f a8bc a02b 853c a5e0 ac3c
000001c0: fd8d 40be 12c7 183c bb73 a03c 26ec 44be
000001d0: 37a2 a3bc 52c3 cf3c f593 3f3e 8602 eabd
000001e0: bc5f c43d 81b7 f9bd 8035 b63c ecbd 9ebc
000001f0: d608 893d 20be 0b3e 261e 583e 540f abbd
00000200: 8d69 f4bd 592f 4c3e c588 e53d 6edb 563e
00000210: bfa9 c33d a6e1 3ebe 76b3 b83d ca0b 07bb
00000220: 5603 83bd 5cbf 343e d05f 8b3d 377a 3d3d
00000230: b04f a4bd cdc3 b5bd c082 503e af10 de3d
00000240: ce18 633d 86f3 1e3e 01b8 103d 6530 083e
00000250: 258b a43c 20eb 413e bd0d 89bd 704c 0d3e
00000260: 589d c7bc 8375 af3d c311 56be 8c2f fb3d
00000270: 49e5 4dbd effa 1cbe 5499 503e 7101 40be
00000280: b8b5 3b3e edd6 a73d 4f4d fbbb 1678 153e
00000290: 578a 0dbe c33f b73c 9a01 23be 3c5d 32be
000002a0: 3b5d 323e e1cc 883d 77b7 fb3c 3f07 3d3e
000002b0: a9f6 94bd 9adb 203d e613 523e 1e8e 4bbe
000002c0: ae63 b9bd 3e15 113d 1542 3c3e 6b0c 823d
000002d0: eb92 4b3e a95b 963d fa88 033e b9d5 ce3c
000002e0: 6bd9 03bd 681b 403e ad13 ca3d 6169 e5bc
000002f0: 1fbe fa3d 3420 52be 0399 403d bd8a 123d
00000300: 8a76 363e ca91 ec3d 027f 0c3e ae82 e33d
00000310: 5b79 20bd 2e5c a13d 911e 81bd 8d8c 43bc
00000320: e1a0 a93d 9c37 08bd cf3e 323e cdfc 80bd
00000330: da9c 153d 6c60 073e 8147 31be 8576 3e3e
00000340: d0c5 4bbd 91c8 993d ec42 cd3d fc9a d13d
00000350: ed53 453d 61e7 f23d b91e debd f9bf 133e
00000360: 3e84 e1bd ec65 f43c dbc1 583e 9177 0cbe
00000370: 4a2a 06be ca59 e43d 2ee8 113e e1d6 73bc
00000380: 635f 52be fdfe 29bd 4a4f 1fbe 8edf 453e
00000390: 1929 4b3e e73d 8f3b 80d9 df3c 44ce bfbd
000003a0: 63bb f53d 0ad0 10be f290 423d 0727 273e
000003b0: 71b6 f5bd 96c0 12be c341 8b3d aedd 893b
000003c0: 0e7e 5fbd cd6b 11be e238 913d dc39 bb3c
000003d0: 7514 723d 6347 cbbd c29a 20be 7dd3 8d3d
000003e0: ce9f d5bd 0961 2f3e c6f2 2dbe 6165 c9bd
000003f0: 9427 5f3d e4a2 203e d034 2ebe 2c66 603d
0.20643228 -0.035628866 -0.20738745 -0.13755779 -0.0011146935 -0.11053349 0.0026226484 0.049074948
-0.13120003 0.08531502 -0.04032943 0.08352192 -0.13921066 -0.09905116 0.059299085 0.0328071
0.19581887 0.02812424 0.027510444 -0.03470581 0.18537532 0.0006926831 -0.1394556 0.07610979
-0.16768041 -0.11649974 0.09995457 0.05522348 0.15709165 0.11625696 0.14959091 -0.024370344
-0.13417757 0.07536639 0.004858899 -0.09724803 0.050050247 0.09358792 0.17089467 -0.032313682
0.13001971 0.1992372 0.16073759 0.18074104 -0.038333297 0.069084786 0.16790423 -0.043424506
0.14202726 0.09571683 -0.038312044 -0.076422885 -0.10126177 0.06770591 0.030048935 0.034505546
-0.17077444 0.052053142 0.014319125 0.17306538 -0.18539615 -0.1062163 -0.100118205 0.19357018
-0.19289741 0.2083249 0.038718857 -0.19884314 0.03664282 0.105277814 0.18635117 0.17306297
-0.12317764 0.10613956 0.0014633316 -0.16438681 0.1789506 -0.10400563 0.2102192 0.15838607
0.17261846 0.17957781 -0.0943135 0.2113086 0.14780615 0.19970742 -0.08837067 0.19388707
0.039377715 -0.14719959 -0.1538193 -0.043107342 -0.12639487 0.018982207 -0.1685114 -0.09500342
0.14813893 -0.14045368 -0.041727338 -0.0020503937 -0.03418727 -0.20705587 0.06801372 0.11309605
0.1840603 -0.10061624 0.0913135 0.1866146 0.070135266 -0.020553466 0.016256154 0.021103213
-0.18804164 0.009324806 0.019586435 -0.19230708 -0.019974811 0.02536169 0.18708785 -0.114262626
0.095885724 -0.12193204 0.022242308 -0.019377671 0.066911384 0.13646746 0.2110525 -0.08352533
-0.11934195 0.19939937 0.11207727 0.20982143 0.09553861 -0.18640766 0.090186045 -0.0020606392
-0.06397121 0.17651123 0.06805384 0.04625913 -0.08023012 -0.08875237 0.20362377 0.10843026
0.055443577 0.15522584 0.03533173 0.13299711 0.02008588 0.1893735 -0.066920735 0.1379869
-0.02436702 0.085673355 -0.20905213 0.12264928 -0.05026749 -0.15330099 0.2037099 -0.1875055
0.18331039 0.08195291 -0.007669128 0.1459659 -0.13822304 0.022369271 -0.1591858 -0.17418379
0.17418377 0.066797026 0.030727131 0.18459795 -0.07273609 0.03927193 0.20515403 -0.19878432
-0.090522155 0.03542065 0.18384583 0.06350025 0.19880264 0.073417015 0.12845221 0.025248395
-0.032189768 0.18760455 0.09867034 -0.02800435 0.12243294 -0.20520097 0.047020923 0.035776842
0.17818657 0.115512446 0.13720325 0.111089095 -0.039178234 0.0787891 -0.06304658 -0.011935365
0.08282638 -0.03325616 0.17406772 -0.06298218 0.03652654 0.13220376 -0.17312433 0.18599899
-0.049749196 0.07508958 0.1002253 0.10234639 0.04817574 0.11860538 -0.10845704 0.144287
-0.11011551 0.029833756 0.211677 -0.13717486 -0.1310207 0.111499384 0.14248726 -0.014882774
-0.205442 -0.04150294 -0.1555759 0.1932356 0.19839896 0.004371393 0.027325392 -0.09365514
0.11998632 -0.1414186 0.047501512 0.16323482 -0.119976886 -0.14331278 0.067996524 0.0042073345
-0.054563574 -0.14201279 0.07090928 0.022854738 0.05910154 -0.09925725 -0.15684035 0.06925104
-0.10430871 0.1712686 -0.16987142 -0.098337896 0.054481104 0.15687138 -0.17012334 0.05478494

sage1.lin_l.weight f4 [128, 128]
00000000: 28b4 44bc 987f 67bd 9f6e 84bd ef29 01bd
00000010: d0c4 833c b755 8338 82fe b1bd a258 8fbd
00000020: 166e f73c 4f18 ac39 f92c 5b3c e828 8a3c
00000030: 6538 883d 76ec 223d 647c a6bd cbfb 1bbd
00000040: 610a 07bc 01e4 9c3c e80e 483c 2c12 4ebd
00000050: d045 93bd 259a 193d 9495 9fbd 82fd 29bd
00000060: 74be 84bd 36a3 5ebb c400 773c 87dd 8bbd
00000070: d119 b7bc 0101 503d dff0 993d 5615 8bbc
00000080: 5eb6 8ebd f4e0 1fbd 6647 313c 8540 a13d
00000090: ffcf 46bd d484 9dbd 4b6f fcbc 791e 9e3d
000000a0: 9c15 823d 1192 75bd 718f a8bd 4393 6f3d
000000b0: e289 a33d 1d76 b4bc b008 b73c 1e0c e33c
000000c0: 34dc a93c 8506 be3c 0bdb e6bc 5547 213d
000000d0: 11be 97bd 7479 9fbd 317e db3c cfbf 36bc
000000e0: 047c 1ebd 4d00 2f3d 5517 c6bc 371d 6a3c
000000f0: 7335 61bd d086 993d ac4d db3c 1e20 9e3d
00000100: bfdf b8bc 8f47 853d 3622 69bd 56ae 083d
00000110: e9e6 d6bc 0898 9e3d 7c5a 5dbd b9e2 2a3d
00000120: 6876 da3b 457a 13bd be27 983d f6a1 3fbc
00000130: 8774 3ebd 842e c3bb a638 993c 9b8b ba3b
00000140: ee43 373d 6281 203d 958f 8b3d dc4a 853d
00000150: d1ad 6c3d 10df 61bd 65ac 643c 0eda 9abd
00000160: 09b7 453d e5d5 b03d 73bc 9bbd 517a 65bd
00000170: d83d 5a3d 7201 8d3d 190a a83d 550f 4c3d
00000180: 39c3 d4bb dbc0 e63c 2496 adbd 8a56 88bd
00000190: 842f d5bc 9709 99bd 3134 2cbc e9d1 6cbd
000001a0: e78b 793d ba67 173d e9f0 af3d d038 d7bc
000001b0: da5c 7a3d a7c2 893d ccd8 88bd 583a a13d
000001c0: d7a4 aabc 3bda 7fbc 39be a33d 617b 753d
000001d0: 625e 8dbd 13d5 96bb 5dd5 14bc 485d 93bd
000001e0: 597e b5bd 5361 1dbd d66c 453d 5e3e 87bd
000001f0: 8282 35ba b10b 77bd 8668 1dbd ac21 c2bc
00000200: 1f70 6d3d 31df 84bd 05d4 6dbb 5702 233d
00000210: d676 893d 7bfc a7bd fceb 63bd a8e3 413d
00000220: d6bc 703d 469d 91bd 17fb 6d3d e206 173d
00000230: c3e7 073d 8398 aabc c2fd 2d3c 542c 853d
00000240: d124 3f3d 2250 663d ed66 ab3d a29a 9bbd
00000250: 6384 e33b c74e 1b3c 0217 53bd 5fa1 8e3d
00000260: be87 98bd 7217 1dbd 609c 543d 616b 983b
00000270: 73d4 09bd bf23 3f3d 0194 a6bd 4ab7 7cbd
00000280: e43b a23c ab87 9f3d 83d2 b0bc c540 0ebd
00000290: c154 97bd a9b8 a4bd a0dc a33d 8da3 6e3d
000002a0: c8d8 18bc 9e3c 363c 8e23 3c3d 0474 81bd
000002b0: cc16 3dbd 339d 2e3d 2996 5ebd d584 71bd
000002c0: 3f2f f83b 9f03 ab3d 70ae 4f3d 0590 14bd
000002d0: e517 1cbd 475b 803d 1fba a63d 9d15 4c3d
000002e0: 6d1f 63bd fbcc 723c 44bd b2bd 6e89 00bd
000002f0: 1120 2b3c 154a f33a 48bf a33d d9a5 44bd
00000300: 596b 173d 1929 5c3d 7c01 d9bc b2e4 a8bd
00000310: ade0 92bd 6bec 99bd a34a 3d3d ba56 a8bd
00000320: 4306 97bc dcb3 92bd a3dd 3fbd 6728 243d
00000330: 97b3 633d d082 3137 1e0d 29bd 4205 21bd
00000340: 8102 cc3c 0007 323c f070 a639 be0b f0bc
00000350: 263e 87bd b092 933d 4fe4 01bd 5a24 453d
00000360: 655c 953d 48d6 76bd 6851 09bd f72e 41bd
00000370: 08dd 0abd 9080 8e3d ea33 9a3d 1d7f 913c
00000380: 9c0b 80bc 61b9 863d 8775 f8bc d2aa 633d
00000390: c5f2 37bd 177a 773d d93e 4dbd 8a43 9ebd
000003a0: 3552 773d d850 91bd 6984 02bb f0b4 78bd
000003b0: 2370 1dbd a512 7fb9 c699 013d 080e 00bd
000003c0: d127 1b3c c479 41bd cc47 0fbd 1b39 953b
000003d0: 171a 92bd e572 ab3d 261e abbd e716 fc3c
000003e0: 3244 9ebb 8ee3 763b 9f5f a33d f6bd c73c
000003f0: a7e1 143d cfe1 34bb 3e97 4e3a 019b a2bd
-0.012005843 -0.056518167 -0.06466412 -0.03153413 0.016085058 6.2625324e-05 -0.08691122 -0.06999327
0.03020386 0.00032824508 0.013377422 0.016865209 0.066513814 0.039776288 -0.081291944 -0.038081925
-0.008242221 0.01915169 0.012210585 -0.0503103 -0.0719105 0.03750052 -0.07792202 -0.04150153
-0.064816386 -0.0033971793 0.015075866 -0.06829362 -0.022351177 0.050782207 0.07516646 -0.016977947
-0.069683775 -0.03903289 0.010820245 0.07873634 -0.048538204 -0.076913506 -0.030814787 0.07720656
0.06351778 -0.059953753 -0.08230484 0.05849005 0.079852834 -0.022028977 0.02234301 0.027715739
0.020734884 0.023196468 -0.02818062 0.03937467 -0.07409299 -0.07786837 0.026793571 -0.011154129
-0.03869249 0.042724896 -0.024181047 0.014289192 -0.054982614 0.074964166 0.026770435 0.077209696
-0.022567628 0.06507789 -0.05691739 0.033369385 -0.026233153 0.077438414 -0.05404137 0.041720126
0.006666947 -0.036005277 0.07429455 -0.011696329 -0.046497848 -0.005956473 0.01870377 0.005692912
0.044742517 0.03918589 0.068144955 0.06508419 0.05778295 -0.05514437 0.013957118 -0.07561122
0.04827026 0.08634547 -0.07604303 -0.056024853 0.053281635 0.06885041 0.08205051 0.04981931
-0.006492999 0.028168133 -0.08475903 -0.06657131 -0.026023634 -0.07472532 -0.01051049 -0.057817373
0.060924437 0.036964156 0.08590872 -0.026272207 0.061123706 0.0672658 -0.06681976 0.07872456
-0.020830555 -0.015615995 0.079952665 0.059932116 -0.06902768 -0.004603037 -0.009084073 -0.07195526
-0.088619895 -0.038422894 0.048199497 -0.066036925 -0.0006924049 -0.060313884 -0.03842976 -0.023697697
0.057968255 -0.06487883 -0.0036289704 0.039797153 0.06712119 -0.08202454 -0.055644974 0.04733625
0.058773838 -0.07110076 0.058100786 0.0368718 0.03318001 -0.020824676 0.010619583 0.065025955
0.04666597 0.056228764 0.08369241 -0.07597853 0.006943272 0.009479231 -0.051535614 0.06964373
-0.07447766 -0.038352437 0.051906943 0.0046514724 -0.033649873 0.04666495 -0.08133698 -0.061698236
0.019803949 0.077895485 -0.021584755 -0.034729738 -0.073892124 -0.08043034 0.08001065 0.058261443
-0.009329028 0.011122851 0.045932345 -0.06320956 -0.04616432 0.042630386 -0.054342423 -0.05896457
0.0075739915 0.083503 0.050703466 -0.03627016 -0.038108725 0.0626741 0.081409685 0.0498253
-0.05544989 0.014819379 -0.08727506 -0.031381063 0.010444657 0.0018561507 0.079954684 -0.048009727
0.03696761 0.05375013 -0.026489966 -0.08246745 -0.0717176 -0.07515796 0.046213757 -0.08219667
-0.018435603 -0.07163212 -0.04684223 0.040077593 0.055591192 1.0580479e-05 -0.041272275 -0.039311655
0.024903538 0.010865927 0.00031746132 -0.029302474 -0.06603651 0.07205713 -0.031711873 0.04813037
0.072930135 -0.06026295 -0.0335249 -0.04716393 -0.033902198 0.06958115 0.07529433 0.017760808
-0.015630536 0.06578327 -0.030329479 0.05558283 -0.044909257 0.06041917 -0.050108764 -0.07727726
0.060381133 -0.07095498 -0.0019915348 -0.06071943 -0.03843702 -0.0002432564 0.03164079 -0.03126338
0.009469942 -0.047235265 -0.03498058 0.0045539266 -0.071338825 0.08371524 -0.0835536 0.03077264
-0.004829907 0.0037672254 0.07977223 0.024382573 0.03634801 -0.0027600413 0.0007880813 -0.07939721

sage1.lin_l.bias f4 [128]
00000000: 2cb5 963d fb24 aabd cd11 513d 3f26 913d
00000010: a89f 893d fae0 453d ac38 ae3d 7586 5f3d
00000020: e4dd 06bd 1dd8 9f3d 1ee9 343d c601 89bc
00000030: b5a2 5bbd 2312 bbbb ffff 093d 37cc 423b
00000040: 4d20 fa3c 1c4c 743d 1f5c 5b3c ea5e 603b
00000050: 4a89 433d e13f c53b 968d 873d 1485 adbd
00000060: b502 a13c 5954 a63d 650a 10bd 9032 c6ba
00000070: 53fd d03c bf19 2abd 901d 913d fa64 9a3d
00000080: 953c b1bd a743 09bd 60a3 febc f132 a3bd
00000090: 4a04 aebb 7e60 a1bc 4d90 80bd 8c31 6fbd
000000a0: 746f 2b3c 8fef 9bbd 856e a5bd 45f8 a93c
000000b0: 84a0 5bbd fe56 ad3d acc1 353d 23a5 58bd
000000c0: 94fc 983d 342f 19bc a9d0 393c 41d8 93bd
000000d0: 82c2 e7bc a7fa 42bd 42b4 963d f69d aa3d
000000e0: 6c33 55bd 5ebe 36bb f1e3 aa3d dc7e 48bd
000000f0: 4a89 083d 748f 72bd f343 893d 7d07 7bbd
00000100: 1292 a3bc 079b 1b3c a098 d53c 14c7 b33d
00000110: 3210 933d 512b b33c ec4f 403d 6afc 20bd
00000120: 2d36 6f3d 0440 a7bd 872f a4bd 82a6 3c3b
00000130: c8c9 8f3d 21d7 33bd f999 3dbd 2921 dfbc
00000140: 3d8b b1bc e43d 6e3d 378e 0fbd d3aa 663d
00000150: 3943 7abc 63cb 313d b28c 77bc cbf6 753b
00000160: d0a3 6e3c d919 9cbc 253e 2f3b 0c90 5f3d
00000170: cdea b73c 1044 903d d3bc cf3b e3cd 203d
00000180: 3bd5 f63c d05c 93bd 0e24 03bd a5f7 893c
00000190: e8e3 213d 9e1f 853d fac3 b53d 603a 77bd
000001a0: 9633 5bbd d911 98bd bdc6 a43d b136 2d3c
000001b0: 6a6e 59bd 0ff3 053d d751 61bd 0ff0 50bd
000001c0: b1b4 fb3c e03b 82bd d354 fb3c 0a8a d2bc
000001d0: 6ab8 82bd 94de 41bd c623 833c a19b 75bd
000001e0: 8ad0 653d d9fc 8e3d 1cbd 5ebd 5837 5ebd
000001f0: 9211 023d 565f 09bc aed7 c8bc bece 3b3d
0.073587745 -0.08307835 0.051042367 0.07087373 0.06719905 0.048310257 0.08506903 0.054571588
-0.032926455 0.07804892 0.04416763 -0.016724478 -0.053621966 -0.005708949 0.033691403 0.0029723772
0.03053298 0.059642896 0.013388663 0.003423626 0.04773835 0.006019578 0.06618802 -0.08472648
0.019654611 0.08121557 -0.035166163 -0.001512127 0.02551142 -0.04152846 0.07085717 0.07538791
-0.08654133 -0.033511784 -0.031083763 -0.07968701 -0.00531057 -0.019699331 -0.06277523 -0.05839686
0.010463584 -0.076140516 -0.080777206 0.020748267 -0.053619877 0.08463858 0.044374153 -0.05289186
0.074700505 -0.009349633 0.011341252 -0.072189815 -0.02829099 -0.047602322 0.073586 0.0833091
-0.052050993 -0.0027884464 0.083442576 -0.048949108 0.033334054 -0.05921884 0.067024134 -0.06128644
-0.019967113 0.009497411 0.026073754 0.087782055 0.071808234 0.02187124 0.04695122 -0.03930322
0.058401275 -0.08166507 -0.080168776 0.002878577 0.070209086 -0.043906335 -0.046289418 -0.027237492
-0.02167284 0.058164492 -0.035047736 0.056315254 -0.015274816 0.043406855 -0.015109228 0.0037531133
0.014565423 -0.019055294 0.0026739922 0.054580733 0.022450829 0.07044232 0.0063396483 0.03925885
0.030130973 -0.07195437 -0.032016806 0.016841719 0.03952399 0.06500171 0.0887527 -0.060358405
-0.053515993 -0.07425279 0.08045719 0.0105721215 -0.053083815 0.032702502 -0.05500969 -0.051010188
0.030725809 -0.063590765 0.030680096 -0.025700588 -0.063828304 -0.047331408 0.016008269 -0.059962872
0.05610708 0.069818206 -0.054379568 -0.054252 0.031755038 -0.008384546 -0.024516907 0.04585146

sage1.lin_r.weight f4 [128, 128]
00000000: ad97 febc 0c8b 73bd 485b 33bb 61be 47bd
00000010: cd88 9bbd 2430 9436 8358 86bb 05da 71bd
00000020: 5745 9fbc 1394 723d 04ef d93c 747f 633d
00000030: 596f 6ebc e4ac 353c 21c8 6e3d ffb2 903c
00000040: d5cf 783c 0d2a f93c 6df9 80bd fe77 b8bc
00000050: fa7b 97bd 789a 8f3d 9fe7 2dbd 0695 713d
00000060: 2414 cabc 5eab adbd 54ad 07bc 2621 98bc
00000070: 39de 343d 0dbf 623d f897 8ebd d5ec f03b
00000080: 5612 743d d287 3ebc 7c89 cfbc 146c a43d
00000090: 6980 80bd 80d4 983d da9d 3ebd c650 e63b
000000a0: 6125 6fbd 2274 38bb 7eb3 f53c 8f0f a1bb
000000b0: 7ecc 1b3d bccc 9ab9 468a 123d a31c 4fbd
000000c0: 8c06 f3b9 09ea 98bd 60ae e8bc d5e3 553d
000000d0: 40b8 573c f6e2 a43a 7af8 18bb 13c4 0ebd
000000e0: a90f 223d 4976 933d b68b b3bb 29fe 5b3d
000000f0: 8de7 91bd b49a 3fbc 039c ab3b 16ce 94bd
00000100: 2946 783d e27c 953d 3759 98bd 578d 6e3d
00000110: b66c f83c 8231 86bc bb19 e13b 939e 88bd
00000120: d194 923d 45b2 ca39 db26 78ba dd2e 8e3c
00000130: 2281 b73b a1fa acbd d1fc 023d d8a9 013d
00000140: 968f 233c 4a1d 23bd cebe c63c 086b 833d
00000150: dc13 823d e5fc 353d ca09 99bc 3913 31bd
00000160: d3c6 2dbb b4e1 bbbc 44ca 8cbd 1917 14bd
00000170: 385e af3d 80f9 c93c 7185 91bc 01dd 95bd
00000180: 7ba5 883d 25f8 23bd 8e59 d3bc 16a9 113a
00000190: 73f2 45bd 8027 35bb 5766 08bd 18be 0dbd
000001a0: 4a89 3a3d 8b29 54bd 6c8b e6bc 872c 9cbc
000001b0: a3e3 58bd 0787 863d 1cda 8e3d ab0f 653c
000001c0: d0ac 523d 071c 903d ba82 44bd bed9 5dbc
000001d0: 181a aa3d c27b 0c3d d91c c2bc 3ef4 a43d
000001e0: cdbb b43c 8cde b2bd cd19 98bd 8eb0 a8bd
000001f0: ee00 593d 5e33 9e3d c709 af3c 870c 743d
00000200: 10f4 abbd 35a0 31bd e943 2e3c 957c 553d
00000210: 4b1a 86bd cf2f f93b ca60 c53c 35e5 65bd
00000220: 78d7 933d c185 b5bc b156 d9bc cac4 843c
00000230: f637 f2bc c199 abbd 164f 32bd cc42 1cbd
00000240: 56f3 b93c 4d42 863d 1d3c 9cbd f327 273c
00000250: a4c7 4cbd cc75 613d 37b9 88bd 8fbe 62bd
00000260: ccf6 80bc bcd8 053b d839 98bd 768c b5bc
00000270: a828 8cbd 5c3f 3fbd 84e9 a93d f777 3a3d
00000280: ac49 293d 6cf9 a2bd 8444 a3bc 2fb4 763c
00000290: f6db 693d 9816 083c cd49 fc3c f11d 533d
000002a0: 132d 5a3d e7bf aabc cb89 4a3c 37f9 853b
000002b0: a667 063d d1af ab3d 0358 a0bd 7e31 4fbd
000002c0: 8261 a0bd 76e6 22bd e555 4d3d fc20 db3c
000002d0: 2eb0 2fbd bd3d b43d 9adb b83a 1106 1bbc
000002e0: b660 b2bd 8318 aebd 28e7 72bd 0b98 833c
000002f0: 0f21 8e3d 37ab 533d 25a2 4abd b935 70bc
00000300: 9098 cb3c e2fc b23c d639 803b 385c 783d
00000310: f031 9e3c 81db f9bb a299 5abd eeff 10bd
00000320: abcf aa3d 616c 21bd ead4 3cbd 5c7d 3c3d
00000330: 1b57 47bc 91b8 de3c 52c5 6ebd faaf fdbc
00000340: b8b2 813d 8306 6abd 87b1 99bd bfb5 653d
00000350: 3880 603d 72a4 e83b fb7c a5bd 7e88 913d
00000360: 63de e73b 901c 8a3d 2167 a2bd 072c 383c
00000370: 669c 00bd 8639 843d a4f4 95bc 53b8 a2bc
00000380: 0008 a2bd 29b6 81bd ca79 01bd da38 f5bc
00000390: 7eb3 43bb ff2b 4c3d b203 3dbd e591 a4bd
000003a0: a21c 9dbc 8a14 073d dd50 6ebc 3da5 093d
000003b0: b50a 82bd d95e 6abd 1cf1 06bc cec0 333c
000003c0: 05ec 8f3a 3f81 aabd 7d4b a83d a535 78bd
000003d0: e251 6dbd 0a16 52bd a5ff 233d 5143 49bd
000003e0: 60b1 aabc 6e0a 643c 7bcb 99bd 6d8c 81bd
000003f0: d18d 3a3d c7cf 12bd fa73 eebc 00bc 65bd
-0.031078184 -0.059458777 -0.002736764 -0.048765544 -0.07594452 4.416348e-06 -0.004099907 -0.05904581
-0.019442244 0.059223246 0.02660323 0.05554147 -0.014552915 0.011088584 0.058296327 0.017663477
0.01518627 0.03041556 -0.06297574 -0.022518154 -0.073966935 0.070118845 -0.04245722 0.05898001
-0.024667807 -0.08479951 -0.008281071 -0.018570494 0.04415724 0.05535798 -0.069625795 0.0073524513
0.0595878 -0.011629062 -0.025334112 0.08028427 -0.06274492 0.07462406 -0.046537258 0.007028672
-0.058385257 -0.0028145392 0.029992815 -0.004915185 0.038036816 -0.00029525708 0.0357764 -0.05056442
-0.0004635345 -0.07466514 -0.028403461 0.05221923 0.013166487 0.0012579847 -0.0023341463 -0.03485496
0.039565716 0.072002955 -0.0054793013 0.053709183 -0.07124243 -0.011694599 0.005237104 -0.0726587
0.060613785 0.0729921 -0.074388914 0.05824026 0.030325275 -0.016381029 0.0068695224 -0.06670871
0.07157291 0.00038661264 -0.0009466239 0.01735633 0.0056001106 -0.08446241 0.031979386 0.031656116
0.009982964 -0.039822854 0.024260905 0.06416899 0.06351444 0.044430632 -0.018681426 -0.043231223
-0.0026516214 -0.022934772 -0.068745166 -0.03615484 0.08562893 0.024655104 -0.017763825 -0.07317544
0.06672188 -0.04003157 -0.025799539 0.0005556507 -0.04832692 -0.0027641952 -0.033300724 -0.034605116
0.045541085 -0.05179743 -0.028142653 -0.019064201 -0.052951466 0.06568723 0.06975195 0.013980786
0.051434338 0.07036596 -0.047976233 -0.013540683 0.08305758 0.034297712 -0.023695396 0.08054398
0.022062207 -0.08733854 -0.07426796 -0.082368 0.052979402 0.07724641 0.021366967 0.05958226
-0.083961606 -0.043365676 0.010636308 0.052120764 -0.06547984 0.007604576 0.024094004 -0.056126792
0.07218832 -0.022158505 -0.026530595 0.016207118 -0.0295677 -0.083789356 -0.043532453 -0.03814964
0.02269904 0.065556146 -0.07628653 0.010202396 -0.04999508 0.05504398 -0.06675952 -0.055357512
-0.015742682 0.0020423373 -0.07432908 -0.022161704 -0.06843692 -0.046691284 0.08296493 0.045524564
0.041330025 -0.0795773 -0.019930132 0.015057608 0.057094537 0.008306168 0.03079691 0.051542226
0.053265642 -0.02084346 0.012361954 0.0040885466 0.03281369 0.08383144 -0.07829287 -0.05058431
-0.07831098 -0.039770566 0.050130744 0.026749127 -0.042892627 0.08800838 0.0014103532 -0.009461896
-0.087098524 -0.08500769 -0.05930248 0.01606371 0.06939899 0.051676955 -0.04947104 -0.014661246
0.02485302 0.0218491 0.0039131446 0.06063482 0.019310921 -0.007625044 -0.053369172 -0.035400324
0.08340391 -0.03941 -0.04610149 0.04601799 -0.012166764 0.027187617 -0.058293648 -0.030967701
0.06332916 -0.057135116 -0.07504564 0.05608153 0.05480978 0.0070996815 -0.08080479 0.07106112
0.007076071 0.06743729 -0.079298265 0.011240966 -0.031399153 0.06456284 -0.01830513 -0.019863283
-0.07911682 -0.063335724 -0.031610288 -0.029934336 -0.0029861624 0.049846645 -0.046146102 -0.0803564
-0.019178692 0.032978572 -0.0145456465 0.03360485 -0.063496985 -0.05721936 -0.008236196 0.010971261
0.0010980373 -0.08325433 0.08217523 -0.060598034 -0.057939418 -0.05129055 0.040038723 -0.049136464
-0.020836532 0.013918502 -0.07509514 -0.06325612 0.045545403 -0.035842683 -0.029108036 -0.056087494

sagpool.gnn.lin_rel.weight f4 [1, 128]
00000000: 3d54 99bd 2950 afbd bb2a 50bd e12f 3bba
00000010: 0115 9c3d 4046 94bd 6c00 71bd 8ec8 503d
00000020: 572f a7bd f6fe 953c 4478 69bc 9fcb 07bd
00000030: fded 263d 551b 483d aef4 803d 4b0f 01bd
00000040: 7b55 9abd 804e 88bc 6630 40bd 4fa4 953d
00000050: e566 2c3c 3def b23d 641f 533d 20d2 263d
00000060: 233e 84bd ac6d 5c3d 05f7 a33d 41b5 8dbb
00000070: f6f5 94bd 776c 41bd c9b9 923d 68f9 08bd
00000080: 766e 99bd c7d4 cbbc 1875 883d d5a7 033d
00000090: cd31 77bd 3e4c 4bbc 43b8 9f3d 8db5 b23c
000000a0: 9a1b 5bbd 3586 5f3d 23a6 afbd fb02 0d3d
000000b0: 2f2b 0c3d d221 383d 7ce9 42bd 0cdc 59bc
000000c0: e77d 173d 32ad b13d 4d95 b13d 40e9 a13d
000000d0: 1cd8 433d ca07 3abd 5098 853d 1c5c fbbc
000000e0: eade a43c 1994 963d 2281 303d 74f9 963c
000000f0: b158 793d a8aa 0a3d afcf 683d 7ac9 a8bc
00000100: 2aab 84bd 56d8 273c f39e b2bd 2b07 523c
00000110: fb75 40bd 44d4 cbbc b38c 923d fec3 81bc
00000120: 7cc8 063c d41a adbd 44a9 d7bc 36fa aebd
00000130: e4cd 493d 3d7e 39bd 151b 18bd 7ace 743d
00000140: f200 943d 5a7a 4bbd 65b6 5ebd 3a98 22bc
00000150: a06e 1b3d 51b8 89bb 1089 0abd 3d8a 99bd
00000160: 3032 8ebd 2d81 f53c 3147 95bd 7294 39bd
00000170: b7aa ef3c 2464 66bd 2aa1 85bd 4ee7 74bd
00000180: a134 9c3d 1fee 993c 4a5f b5bd 47cf 96ba
00000190: 8acd 9dbd cc17 81bd 2d81 d4ba ed61 94bd
000001a0: f4a0 b23b 5d3d d9bb 85b0 f3bc e93a ac3d
000001b0: 7c16 533d 41ff 6bbc ae15 64bd c29d 8abc
000001c0: 090c 90bd 70fb 8d3d 6f1f 82bd 7f90 963d
000001d0: b5d7 9e3b 5f32 223c a44c 1abd e8ba a93d
000001e0: e9fb 61bd 7327 9f3d c67d 8f3d 3b71 babb
000001f0: 0740 99bc b667 31bd 024c 133d 91b8 a8bd
-0.0748677 -0.08560211 -0.050822 -0.00071406184 0.07621194 -0.072399616 -0.058838293 0.050972514
-0.08163326 0.018310051 -0.014249865 -0.033153173 0.040754307 0.04885419 0.06296669 -0.031508725
-0.07535835 -0.016638994 -0.046921156 0.0730673 0.010522579 0.08737037 0.05154361 0.040727735
-0.06457164 0.05381553 0.080060996 -0.0043245857 -0.07273476 -0.04722258 0.07164342 -0.033440977
-0.07491772 -0.024881734 0.06662959 0.03214248 -0.060350228 -0.012408314 0.07798817 0.021815086
-0.05349312 0.05457135 -0.0857661 0.03442667 0.03422087 0.04495413 -0.04758595 -0.013297092
0.036985304 0.086756125 0.08671055 0.07905817 0.04781352 -0.045417584 0.06523192 -0.03068357
0.020125825 0.07352466 0.0430919 0.018429495 0.0608756 0.033854157 0.056838688 -0.020603884
-0.064779595 0.01024445 -0.087217234 0.012819092 -0.046987515 -0.02488149 0.071557425 -0.015840527
0.00822651 -0.08452383 -0.02632583 -0.08543818 0.04926862 -0.045286406 -0.037135202 0.059767224
0.07226743 -0.04967723 -0.054373164 -0.009923989 0.037947297 -0.0042028804 -0.03382212 -0.0749707
-0.06943166 0.029968822 -0.07288969 -0.045307584 0.029256208 -0.056247845 -0.0652488 -0.0597909
0.07627226 0.018790303 -0.088560656 -0.0011505865 -0.07705219 -0.06303367 -0.0016212814 -0.0724524
0.005451316 -0.0066296295 -0.029747257 0.08409674 0.051535115 -0.014404119 -0.055684738 -0.016920928
-0.070335455 0.069327235 -0.06353652 0.07351779 0.0048474916 0.009899705 -0.037670746 0.08287603
-0.05517188 0.07771196 0.07006411 -0.0056897677 -0.018707288 -0.043311797 0.03596116 -0.08238328

sagpool.gnn.lin_root.weight f4 [1, 128]
00000000: ec47 80bd 4ffc 413d fc3b b0bd 1706 023d
00000010: 0511 a0bd ae2d fe3b b05c 74bd 4eca a0bd
00000020: 4312 b73b ac9b 6bbc 1437 983d f954 32bc
00000030: 7e17 783d 4ff9 94bc cae1 05bc 6bd6 3f3b
00000040: 27be 9e3d 1a9a 01bd fa27 8dbc 32f9 b23b
00000050: 17d8 ae3d 67df 1e3d 054b 923c f2bf 6d3d
00000060: 83ef 9a3d 3316 2f3d da0b 623d b508 45bd
00000070: f74d 51bd ad1a af3d a0aa 10bc d6d5 cabb
00000080: 6a34 3dbc e5e0 8e3d f49c 8fbd f498 acbc
00000090: 94df f43b bfb9 943d 5e0c 9b3d 407e fe3c
000000a0: d8a2 a93d fab0 68bd a4f1 b03d c7fb 193d
000000b0: 7012 abbd 4538 c4bc 65fa 043d 3fce a7bd
000000c0: e763 973d 6ccb aa3c df44 95bc 2252 8cbd
000000d0: 33f5 ab3d 2bc6 77bd 6c9e 05bb 53d9 6b3d
000000e0: e7e3 b1bd 4e8b 63bd eba7 5cbd 963d 3c3d
000000f0: 9bc2 8c3b a0c7 8e3d 4b79 b43c b3f3 7dbc
00000100: 83d5 313d 6f88 283d 3583 393d 8d3d c43c
00000110: 91e1 04bc 0162 5d3d 5283 38bd b494 76bc
00000120: e5c5 ffbc c36c d0bc ea74 12bd 4982 1c3d
00000130: eeeb 9dbd be18 1c3d 2ade acbd 684c 72bd
00000140: 9431 8dbd aeeb aa3d dac3 ae3d 014e 41bd
00000150: aa90 13bd 275a 433c 6f6f 9cbd 62e9 a43d
00000160: 9e43 9dbc ba32 273d 2c9f a63d 22c8 8e3d
00000170: 1892 60bd 1f49 b2bc 2e33 613d e3fd 6a3d
00000180: f667 a1bd 8a5a a7bd 6dac 063c 639b b03c
00000190: b675 8e3c 6d90 eebb 5a87 a23d 20c3 323d
000001a0: 6f76 803d 1d07 a3bd 1250 94bd 6d4e acbc
000001b0: 4851 50bd 7ec7 50bd cae4 913b d3c9 4c3d
000001c0: 2c00 6e3d 3a48 32bb 2b0f 9fbd 2e57 10bd
000001d0: 7cb1 afbd 26e2 09bd 7b79 62bd 3dfa 39bd
000001e0: a029 37bc d520 003d 7a0b 4cbd f897 72bc
000001f0: f58a 54bd b16b 2c3d c61d 9f3d cade a03d
-0.06263718 0.04735976 -0.08605191 0.03174409 -0.07815746 0.0077569103 -0.059658706 -0.078510866
0.0055868938 -0.014380377 0.0743238 -0.010884517 0.06056928 -0.018185286 -0.008171508 0.002927209
0.077511124 -0.031641103 -0.017230976 0.0054618353 0.085373096 0.03878727 0.017858038 0.05804438
0.075652145 0.04274578 0.055187084 -0.048104007 -0.051099744 0.0855001 -0.008829743 -0.006190042
-0.011548141 0.06976489 -0.07012358 -0.021069027 0.0074729417 0.07261991 0.07570718 0.03106606
0.08283013 -0.056809403 0.08639839 0.03759363 -0.08353126 -0.023952613 0.032465357 -0.08193635
0.07392102 0.020848952 -0.018221317 -0.06851603 0.083963774 -0.060491722 -0.0020388616 0.057580303
-0.08686047 -0.055552773 -0.053871077 0.04595717 0.0042956597 0.06971669 0.022030493 -0.015499997
0.04341651 0.04114574 0.045291144 0.023955131 -0.00811042 0.054048542 -0.04504711 -0.015050102
-0.031222293 -0.025442487 -0.03575603 0.038210187 -0.07711016 0.038109533 -0.08440812 -0.059154898
-0.06894222 0.083457336 0.085334495 -0.04719353 -0.036026634 0.011923349 -0.07638442 0.08052327
-0.019197281 0.04081986 0.081358284 0.06971766 -0.054826826 -0.021763382 0.05498045 0.05737103
-0.07881157 -0.08171566 0.00821982 0.02155847 0.017390113 -0.0072804005 0.079359725 0.043643117
0.062725894 -0.07960341 -0.07241835 -0.02103349 -0.050858766 -0.0509715 0.0044523226 0.049997162
0.058105633 -0.0027203695 -0.07766565 -0.03523939 -0.08578774 -0.033662938 -0.055291634 -0.04540466
-0.011179358 0.03128131 -0.049815632 -0.01480674 -0.051890332 0.04209489 0.07769351 0.07854994

lin.weight f4 [64, 128]
00000000: fdf8 913d 939b 5abb 5fee 3d3c b497 be3c
00000010: ca68 11bd 1d88 853b 850d c43c fb51 ae3d
00000020: fc4b 18bb bd40 4a3d 9bf7 993c 3975 e83c
00000030: 2be7 c63c 3785 8e3c 9e64 043d 1963 86bd
00000040: df9a d63c 35b7 113d add7 3c3d f35d 8bbd
00000050: 8ab2 923d 71aa 3bbd 411d 85bc 6cdb 4d3b
00000060: fc94 d13b a1ef 4c3d 3723 663d f2d3 b43d
00000070: 5631 ad3c db04 ea3b f75d 2d3b cb13 8c3c
00000080: ab97 08bd b757 d9bc 9071 ab3d 7ee5 953d
00000090: 9425 a53b 7df2 4bbd 9142 29bd b9e2 67bd
000000a0: 574d 07bd dcb9 22bd 8f5c a13d d230 4cbd
000000b0: 66f4 4e3d 09ea 83bd 945d 94bc 2db8 d4bc
000000c0: af16 54bd f139 773b 2982 743d 7d08 743d
000000d0: f71f 783d 0f3b 383c 9b2d adbd aae5 1abd
000000e0: 938e 893d 7016 39bd 3f23 2d3d d53e c4bc
000000f0: 79fd 41bd a103 f73b 8001 6abd 4d4a 9a3d
00000100: 6606 71bd cf83 1cbd 982d 0f3d caff 32bd
00000110: 1dcd a8bd 27c0 24bd 9d0c d6ba 7a06 953d
00000120: fa5a c8bc 5ff8 43bd 4166 aabd 9f30 5fbd
00000130: 19ed 87bd 2860 53bd 1564 64bc 9aaf 6b3d
00000140: 9d24 103c b679 563d 0887 a93d 8484 cabc
00000150: 40a6 973d f7e0 37bd 45b4 d5bc c776 9d3d
00000160: cc2d 86bd 470f 25bd 6034 913d 619d 8d3d
00000170: ac5d b73b 3ca9 80bd 7d72 803d 46c7 0d3c
00000180: 4ff5 33bd 45d0 d6bc cab8 41bc 6161 153d
00000190: 1677 ecbb 39fd 8a3d 0226 8cbd 7b8b 81bd
000001a0: e66b 4abd 67c2 8ebd d959 653c 97df 37bd
000001b0: ae36 07bd 2dbc a93c e733 bebc 8d0c 56bc
000001c0: 92a3 88bd f3f3 5f3d 64e3 2d3d aca2 59bd
000001d0: 7119 53bd 0a64 6dbd 5bc3 19bd e77a 8dbd
000001e0: c263 943d 0074 20bc ccf7 abbd 5eb2 963d
000001f0: 465f f1bc e72c 71bd 3c53 403c 0128 2f3d
00000200: 8ce6 debc 2e3a 233d be45 b13d 0fbd 7b3c
00000210: cfc9 863d d9d9 8d3d 8d59 a83d 7e3e 223d
00000220: 084d 77bd 6d45 8e3d 668b d4bc e7cb 483d
00000230: 3e54 a53d 7010 843d c012 9bbc aea0 7abd
00000240: 0488 36bd 7a7a 8a3c d76f 7a3d 0307 a1bd
00000250: 8769 983a a528 debc b8db 8ebc 59d6 80bd
00000260: c4ee 0cbd 521f 2c3d 03f8 413d 0c2a 6ebd
00000270: 9f8e 223d 2c3e f33c 5bc2 61bd 23d4 203d
00000280: 16fa 953c c551 70bd 7739 aa3d da0a 2b3c
00000290: d50c 1d3d 2f68 a8bd 848e e13b e1dd 9f3d
000002a0: 962d 75bd e1d0 c43b 0fcd 80bc 7e10 a53d
000002b0: 620c 35bd 32d0 a2bd 7cb7 0dbd 8069 d1bc
000002c0: 8b87 24bd ef11 f43c e137 933d bfd0 b33d
000002d0: 358b 1fbd 2504 a63d e3b8 fe3c e26d a2ba
000002e0: 117f a83d bc68 463d 72d7 9a3d 4c60 dd3c
000002f0: 4757 683c e48e 0f3d 72e5 7cbc 8c7a b8bc
00000300: 68de 45bd f236 8d3d b766 f73c 42af 483d
00000310: 1db4 8639 d1eb a93d 73b9 9d3d 451b 703d
00000320: 9bcb c4bc 5fb8 a03d ae97 afbc d01d 29bd
00000330: 067d 0c3d 749b 463d db37 a4bd aeb4 fa3c
00000340: cd4a af3d 1033 5fbd c77e 383d 3322 193d
00000350: d806 9fbd b6e6 7e3c f896 a8bd b037 a93d
00000360: edd6 a93b 7beb 49bd 5c5f 15bd 15db 703d
00000370: bb1a 763d b723 5f3d 8927 ff3c 389a f6bc
00000380: 4f20 8c3c c8a3 81bd e464 69bc 08f1 aa3c
00000390: de2a 96bd 6afc 86bc fc6e 213d e95a e63c
000003a0: b4a9 473d bad9 a7bd 7b6c 883d d558 34bb
000003b0: 8690 0b3d 9f2c 46bd 35b9 443d 15df 2b3b
000003c0: 7f96 063d 5a86 083d 906e 60bd 57bd a33d
000003d0: 7cad 9e3d e6a1 6f3d 1177 febc 8dfb 55bd
000003e0: 20fa 813d 8e22 6bbd f6b1 533d d039 aebd
000003f0: 0eaf d63c b1d6 a43b b076 a3bd 3266 a73d
0.07127569 -0.003335689 0.011592477 0.023265697 -0.035500325 0.004075064 0.023932228 0.0851173
-0.002323865 0.049378145 0.018794825 0.028376209 0.024280151 0.017397506 0.03232252 -0.0656187
0.026196895 0.03557511 0.046104122 -0.06805029 0.0716296 -0.045816842 -0.0162493 0.0031411303
0.006395934 0.050033215 0.056185927 0.08829488 0.02114169 0.007141692 0.0026453712 0.017099282
-0.033347767 -0.026531084 0.0837127 0.07319163 0.00503988 -0.0497918 -0.04132325 -0.056612704
-0.03303274 -0.03972803 0.07878982 -0.049851246 0.050526045 -0.06441123 -0.018111028 -0.025966728
-0.051779445 0.0037723745 0.059694443 0.059578408 0.06057736 0.011244549 -0.08455964 -0.03781668
0.06716647 -0.045187414 0.04226994 -0.023955742 -0.04736087 0.0075382744 -0.057130337 0.07533703
-0.058843993 -0.03821164 0.03495559 -0.04370097 -0.08242247 -0.040222313 -0.0016330663 0.07276626
-0.024457444 -0.047844287 -0.08320285 -0.054489728 -0.0663702 -0.051605374 -0.013939877 0.057540514
0.008797792 0.052362166 0.08277708 -0.024721391 0.074047565 -0.044892278 -0.026086936 0.076886706
-0.06551704 -0.040297773 0.07090068 0.06914783 0.0055958834 -0.06282279 0.06271837 0.0086534675
-0.043935116 -0.026222358 -0.011823842 0.03646982 -0.0072163446 0.0678658 -0.06843187 -0.06325432
-0.049419306 -0.06970673 0.013998472 -0.044890966 -0.03301113 0.020719612 -0.023218108 -0.013064516
-0.066718236 0.054676007 0.042453185 -0.05313365 -0.051537935 -0.057956733 -0.03753982 -0.069082074
0.0724559 -0.009793282 -0.08396873 0.073582396 -0.029464375 -0.058880713 0.011738595 0.04276276
-0.027209543 0.039850406 0.086558804 0.015364899 0.06581461 0.06926317 0.082202055 0.03961038
-0.060376197 0.06946836 -0.025945377 0.04902258 0.080727085 0.06448448 -0.01892984 -0.061188392
-0.04456331 0.016904105 0.061141815 -0.078626655 0.0011628129 -0.02711899 -0.017438754 -0.062908836
-0.034407392 0.042022057 0.047355663 -0.058145568 0.039686795 0.029692732 -0.055116992 0.03926481
0.018307727 -0.05867173 0.08311742 0.010439599 0.038342316 -0.082229964 0.0068834443 0.07805992
-0.059857927 0.0060063456 -0.01572278 0.08059786 -0.044201262 -0.07949866 -0.034598812 -0.025563002
-0.040168326 0.029793708 0.071883924 0.087800495 -0.038951118 0.08106259 0.03109402 -0.0012392367
0.08227361 0.048439726 0.07560624 0.027023457 0.014180965 0.03504838 -0.015435563 -0.022519372
-0.048307806 0.068952456 0.030200345 0.048995264 0.00025692667 0.082969315 0.07701387 0.058619756
-0.024022868 0.07847666 -0.021434631 -0.041288197 0.03429892 0.048488095 -0.08018466 0.030603733
0.08559189 -0.054492056 0.04504278 0.03738613 -0.07764977 0.015557935 -0.0823192 0.08262575
0.005183092 -0.049296837 -0.036467895 0.058802683 0.060084086 0.05447742 0.031146782 -0.030102834
0.01710525 -0.06330067 -0.014245246 0.020866886 -0.07332395 -0.016477782 0.039412484 0.028119521
0.048745826 -0.08195825 0.06661316 -0.0027518768 0.034073375 -0.048382398 0.04802819 0.0026225497
0.032858368 0.033331253 -0.05479294 0.07995098 0.07747933 0.058504008 -0.031062635 -0.05224185
0.06346536 -0.057406 0.05168339 -0.085071206 0.02620652 0.005030476 -0.07981622 0.08173789

lin.bias f4 [64]
00000000: 6f65 703d c7db a2bd 8720 d2bb 9dd3 85bd
00000010: 3563 46bd a606 75bd 2c69 273d d3c4 0a3d
00000020: 1cd5 c43c f9c1 dcbc 64d1 d7bc ec68 3b3d
00000030: 7b78 77bd 0dd7 0e3d ff8e a2bd d6aa 99bd
00000040: 6e42 033d 6284 90bd 0bd2 98bc 3611 2a3c
00000050: ec74 8ebd 3fd6 a23d fc40 6dbc 6162 8a3d
00000060: 0de5 d2bc 73b9 a63d 0821 0d3d f625 1fbc
00000070: 2080 d23c 5782 c53c 22ca 28bc 06de 933d
00000080: da18 66bd c123 05bb fb68 4ebc c0c7 3dbd
00000090: 0cf9 b0bc f4aa 7dbd 5e0e 0e3d b316 19bd
000000a0: d97f 61bd ea1a bb3b 407f a9bd 6d14 aabd
000000b0: bf91 b73c 6fdc 483d 5432 14bc 8341 0d3d
000000c0: 7e12 71bd 5c6e 073d a704 103d 1293 883d
000000d0: 42c4 9cbd c2c3 86bd 0b98 92bd cd84 9cbd
000000e0: 8c2c 133c 9628 9abd ced3 d83c e979 02bd
000000f0: afa1 b2bc 8436 2ebd 4ed2 92bc a3c7 623d
0.058690485 -0.079520755 -0.006412569 -0.06534503 -0.048434455 -0.059820794 0.040871784 0.033879112
0.0240274 -0.026947962 -0.026344962 0.04575436 -0.060417634 0.034873057 -0.079374306 -0.075032875
0.032045774 -0.070565 -0.018654844 0.01038008 -0.06955895 0.079510204 -0.0144808255 0.067570455
-0.025743986 0.081408404 0.03445533 -0.00971364 0.02569586 0.024110002 -0.0103020985 0.07220082
-0.056176044 -0.00203155 -0.0125982715 -0.046333075 -0.02160313 -0.06193061 0.03468167 -0.037375163
-0.055053566 0.0057099955 -0.08276224 -0.08304677 0.022408364 0.049038347 -0.009045202 0.034486305
-0.058855526 0.03306423 0.035160687 0.066686764 -0.07654621 -0.065803066 -0.07157906 -0.07642517
0.008982789 -0.075272724 0.026468184 -0.031854544 -0.021805612 -0.04253246 -0.017922547 0.05536617

fc.weight f4 [1, 64]
00000000: 33f7 813d c470 9f3c ad26 1f3d 40e2 d63d
00000010: daa3 4abc cdc2 6f3d 5951 9cbd fc00 2ebd
00000020: 3559 89bc d63a 52bc 7e76 fbbd 5f8d debd
00000030: 0bc7 6abc 6f10 5b3d 74ed a13d 1d1a 6c3d
00000040: 4106 c8bd 97dd 1f3d c13a 003d 28d7 cd3c
00000050: 257f 013d acf2 03bd dfa9 c8bd 8f38 a13d
00000060: b997 e93d 5090 adbd f5eb e83d 9da1 403d
00000070: 9a1e 98bd 4a2d 58bd 2cc0 f1bc 7b87 f33d
00000080: 419b e1bd 6b04 02bd 4c75 3e3c 527b 9f3d
00000090: 318e 20bd ff0f f13d 7432 c83d 05e1 a1bd
000000a0: 5173 80bd 9abb eabc c61a abbd 91cf bfbc
000000b0: 5f5d bc3d 4dde f8bc 81b8 31bc ee22 543c
000000c0: aa22 67bd 03ca d1bd 3e9d eebd c544 0d3d
000000d0: 5082 473d c790 1bbc 4663 82bd 1fe9 c03d
000000e0: 485a c2bb 1b3f 233d 42af 87bc 4c5e f8bc
000000f0: 0a73 49bb 467e abbd 8c7d bcbc c1ac f4bc
0.06345978 0.01946295 0.038855243 0.104923725 -0.012368167 0.058535386 -0.07632703 -0.042481408
-0.01676617 -0.01283141 -0.1227846 -0.10866808 -0.014329682 0.05348247 0.07906619 0.05764209
-0.09766818 0.039029684 0.031306032 0.025127009 0.031615395 -0.03221385 -0.09798025 0.07872116
0.11405892 -0.08474791 0.1137313 0.047029126 -0.07427712 -0.052777566 -0.02951058 0.11891075
-0.110159405 -0.031742495 0.011624645 0.07787193 -0.039198104 0.11770629 0.09775248 -0.07904247
-0.06271995 -0.028653909 -0.08354716 -0.023414405 0.091974966 -0.030379439 -0.010847212 0.012947781
-0.056429543 -0.10243609 -0.11651085 0.03448941 0.04870826 -0.009494967 -0.06366591 0.09419464
-0.0059311725 0.039855104 -0.016563062 -0.030318402 -0.0030738735 -0.08373694 -0.023009084 -0.029867532

gcn_batch_norm.weight f4 [128]
00000000: 0000 803f 0000 803f 0000 803f 0000 803f
00000010: 0000 803f 0000 803f 0000 803f 0000 803f
00000020: 0000 803f 0000 803f 0000 803f 0000 803f
00000030: 0000 803f 0000 803f 0000 803f 0000 803f
00000040: 0000 803f 0000 803f 0000 803f 0000 803f
00000050: 0000 803f 0000 803f 0000 803f 0000 803f
00000060: 0000 803f 0000 803f 0000 803f 0000 803f
00000070: 0000 803f 0000 803f 0000 803f 0000 803f
00000080: 0000 803f 0000 803f 0000 803f 0000 803f
00000090: 0000 803f 0000 803f 0000 803f 0000 803f
000000a0: 0000 803f 0000 803f 0000 803f 0000 803f
000000b0: 0000 803f 0000 803f 0000 803f 0000 803f
000000c0: 0000 803f 0000 803f 0000 803f 0000 803f
000000d0: 0000 803f 0000 803f 0000 803f 0000 803f
000000e0: 0000 803f 0000 803f 0000 803f 0000 803f
000000f0: 0000 803f 0000 803f 0000 803f 0000 803f
00000100: 0000 803f 0000 803f 0000 803f 0000 803f
00000110: 0000 803f 0000 803f 0000 803f 0000 803f
00000120: 0000 803f 0000 803f 0000 803f 0000 803f
00000130: 0000 803f 0000 803f 0000 803f 0000 803f
00000140: 0000 803f 0000 803f 0000 803f 0000 803f
00000150: 0000 803f 0000 803f 0000 803f 0000 803f
00000160: 0000 803f 0000 803f 0000 803f 0000 803f
00000170: 0000 803f 0000 803f 0000 803f 0000 803f
00000180: 0000 803f 0000 803f 0000 803f 0000 803f
00000190: 0000 803f 0000 803f 0000 803f 0000 803f
000001a0: 0000 803f 0000 803f 0000 803f 0000 803f
000001b0: 0000 803f 0000 803f 0000 803f 0000 803f
000001c0: 0000 803f 0000 803f 0000 803f 0000 803f
000001d0: 0000 803f 0000 803f 0000 803f 0000 803f
000001e0: 0000 803f 0000 803f 0000 803f 0000 803f
000001f0: 0000 803f 0000 803f 0000 803f 0000 803f
1.0 1.0 1.0 1.0 1.0 1.0 1.0 1.0
1.0 1.0 1.0 1.0 1.0 1.0 1.0 1.0
1.0 1.0 1.0 1.0 1.0 1.0 1.0 1.0
1.0 1.0 1.0 1.0 1.0 1.0 1.0 1.0
1.0 1.0 1.0 1.0 1.0 1.0 1.0 1.0
1.0 1.0 1.0 1.0 1.0 1.0 1.0 1.0
1.0 1.0 1.0 1.0 1.0 1.0 1.0 1.0
1.0 1.0 1.0 1.0 1.0 1.0 1.0 1.0
1.0 1.0 1.0 1.0 1.0 1.0 1.0 1.0
1.0 1.0 1.0 1.0 1.0 1.0 1.0 1.0
1.0 1.0 1.0 1.0 1.0 1.0 1.0 1.0
1.0 1.0 1.0 1.0 1.0 1.0 1.0 1.0
1.0 1.0 1.0 1.0 1.0 1.0 1.0 1.0
1.0 1.0 1.0 1.0 1.0 1.0 1.0 1.0
1.0 1.0 1.0 1.0 1.0 1.0 1.0 1.0
1.0 1.0 1.0 1.0 1.0 1.0 1.0 1.0
