All_Benchmarking/DATA_19/Results/f1/best_model.pth (torch, 192098 bytes, 32 tensors)

gat1.att_src f4 [1, 4, 32]
00000000: 868b 97be 199d cfbd ae0f 22bd ad26 68be
00000010: e41b 9abe c7df 8c3e a597 8d3e c3a0 bdbe
00000020: 818a 053e 2f68 293e 19da c63e 88d8 713e
00000030: 4c58 c03e 37a6 08be 164c 923e 2c4d aa3e
00000040: b814 c5be b17b a7be d32d a93d fe59 643e
00000050: 529d 50be 28a9 3a3d a9a3 1cb8 1bb7 d23d
00000060: 6d68 60be 7b5e 6c3e f44b 8b3e 2e58 91be
00000070: 4853 5a3b d651 fc3a 23cb 063e 8578 c23e
00000080: a902 f63d b493 bebd 64c8 bb3e cc1a 1fbe
00000090: 5fee f1bd 72a2 e73c 7404 9fbe a453 333d
000000a0: 4a48 8ebe b843 2e3d f829 213d b684 693d
000000b0: 967d b0be 4b5a c6be 68e5 403e 9484 b33e
000000c0: c443 b9be a542 1b3e c70f 9abe e97f d03c
000000d0: 6d43 c23e c04c 9e3e 856f 98be 4a1d 813e
000000e0: 7ae4 5a3e 2281 83ba 0b8c ca3e c974 26be
000000f0: 74c3 c1bd f65a 53be 1420 6f3d 0685 dc3d
00000100: 8790 043d 069d 6bbe 65dc 3bbe 887a 0e3e
00000110: 4d5b b7be c051 82bd 3fed 10bc be7f 29be
00000120: aac0 173e f1c8 d43c 1f95 923e 1a97 14bd
00000130: e4db 83be 2189 933e e901 693d b720 f0bd
00000140: c0ba 89be 70a4 c43d de75 c7be 8c6d db3d
00000150: aa16 4f3e 8751 b7be 5d07 89be c344 96be
00000160: 74be af3e b6b1 b13e f924 d03c b356 c43e
00000170: 6407 0cbe adbb cabe 8acd 113e 6938 143e
00000180: e0c8 cc3e 7ff2 03ba 5b6d a03e c0d9 7f3e
00000190: 042b 973e 8d45 cfbe 2d22 ac3e 32ae b1be
000001a0: a914 bb3e 0bd6 8cbc e2ae b8be 6615 e93d
000001b0: 545e a9bd cf7b bbbe d104 18be dee1 293d
000001c0: 5374 a23e e630 00be e3e7 773e 20ca 523d
000001d0: f554 5e3c 5fda 9e3d c2d9 88be bce0 adbe
000001e0: 1f8e 03be 4cf0 c2be 025c 43be fe7c 963c
000001f0: cc70 89be 20cf 2dbe 61c8 95bd b96d 3ebd
-0.29598635 -0.10137386 -0.039565735 -0.22671004 -0.30099404 0.2751448 0.27654758 -0.37036714
0.13041116 0.16543649 0.3883827 0.23617756 0.37567365 -0.13344656 0.28573674 0.33262002
-0.3849237 -0.32711557 0.082606934 0.22299954 -0.20372513 0.045571476 -3.734572e-05 0.10288831
-0.21914835 0.23082916 0.27206385 -0.28387588 0.00333138 0.0019250463 0.13163428 0.37982574
0.12012226 -0.09305516 0.36676323 -0.15537566 -0.11813044 0.028275702 -0.31058085 0.043780938
-0.27789527 0.04254505 0.039346665 0.05701133 -0.34470814 -0.38740763 0.18837512 0.35062087
-0.36184514 0.15162142 -0.30090162 0.025451617 0.37942067 0.3091793 -0.29772583 0.25217658
0.2137622 -0.0010032991 0.3955997 -0.16255488 -0.09461108 -0.20640168 0.0583802 0.1076756
0.032364395 -0.23009118 -0.18345793 0.1391393 -0.35811844 -0.06363249 -0.008845626 -0.16552636
0.1481959 0.025974723 0.28629395 -0.036276914 -0.257537 0.2881556 0.056886587 -0.1172499
-0.2690029 0.096016765 -0.38957113 0.10714254 0.2022349 -0.35804388 -0.2676343 -0.29349336
0.34324992 0.34705895 0.025408255 0.38347396 -0.13674694 -0.3959631 0.14238563 0.14474644
0.39997005 -0.0005033388 0.31333432 0.24985409 0.29525006 -0.4048275 0.33619824 -0.34703213
0.365392 -0.017191907 -0.36070925 0.113810346 -0.08269945 -0.36617896 -0.14845587 0.04147517
0.31729373 -0.12518653 0.24209552 0.051462293 0.01357006 0.07756495 -0.26728636 -0.3396052
-0.12847184 -0.38073957 -0.19078067 0.018370148 -0.2684387 -0.16973543 -0.0731361 -0.04649136

gat1.att_dst f4 [1, 4, 32]
00000000: ddb8 66be be77 a03c 4a97 6abd d540 ef3d
00000010: 40f5 963c b39c 50be 3bf1 0fbe 8ea3 96bb
00000020: 9b58 82be d037 033d 3a4f ecbc 9316 223e
00000030: 911f c63d ca60 9c3e e33c 5ebc 9563 9abe
00000040: cddc 3a3e d83e 8dbe fe6a 65bd ab40 07be
00000050: 2b88 1ebe c1b8 1abe 110e c03e 4c30 6f3e
00000060: 22e8 e73d c43e c43e 6c68 bdbe 4201 873d
00000070: 9cd7 853e adcd 8a3e e266 a6be b3a6 143e
00000080: b164 6ebe fe7e 80bc 78f3 aebd 13a7 aebe
00000090: e38a c7be eda4 89be f3d0 3d3e 8184 3f3e
000000a0: f0a9 b5be c647 1dbe 5541 e13b 23dc b4be
000000b0: 8edd 6b3e 135f bd3e 9c4a 933d 9372 9bbe
000000c0: 346b c23d e074 173e 5968 a53e 0a30 5ebe
000000d0: c94b bbbe 3af8 373e 800c ce3c 55fd 07be
000000e0: d278 2fbe eb4d 57be 8d4f a93e 66a8 8fbd
000000f0: d9dd 963e 4ea3 ba3e 62a9 543d 1fa3 b23d
00000100: 5369 e8bc f41d 8f3e 4532 bcbe 46f7 263e
00000110: 0700 88bd 6937 3f3e f32f edba f088 1abe
00000120: 3947 37bd 8840 613e d469 91be 64f1 83be
00000130: ef99 bbbd 1f5b 18be c316 243e cf47 8c3e
00000140: 5ff6 33bd cd05 c63e 7852 2fbe 1c68 6bbe
00000150: ef58 3abe 45c4 8fbe dceb 92be 2918 babe
00000160: a05d b9be 7b52 d93d 005e 7e3e c38f c43e
00000170: 01b5 b13e f931 bdbc d81b a23d 1194 79be
00000180: 2f86 213e 9f80 c8be e300 453e ab74 993d
00000190: e662 003e b130 193e b51b 40be 0c47 b33e
000001a0: 5da8 473e f864 893e 9642 5c3d ec4f 833e
000001b0: 3698 8c3e 7e50 3d3e f323 9f3e 5a64 97bd
000001c0: d884 893e 704a c03d a6b6 7b3e cd9b cb3e
000001d0: 02fa bc3d 5157 1bbe bfde 26bd 351c eb3d
000001e0: 82a5 8c3d 790d e4bd 02dc a33e a956 7b3e
000001f0: 9ceb 81be 1d8e 07bd ef0a 20bd ba14 83be
-0.22531457 0.019588348 -0.057273187 0.116822876 0.018427491 -0.20372276 -0.14056866 -0.004597134
-0.25458226 0.03203565 -0.028846372 0.15828924 0.096739896 0.30542594 -0.013564321 -0.301541
0.18248291 -0.27587008 -0.05601024 -0.13208263 -0.15481631 -0.1510954 0.37510732 0.23358268
0.11323573 0.38329136 -0.3699373 0.06592037 0.2614106 0.27110043 -0.32500368 0.14516716
-0.23280598 -0.015685555 -0.08542532 -0.34111843 -0.3897315 -0.2688364 0.18536739 0.1870289
-0.35481215 -0.1535941 0.0068742433 -0.353242 0.23033735 0.36986598 0.07191965 -0.3036085
0.094931036 0.14790678 0.32306173 -0.21698013 -0.36581257 0.17965785 0.025152445 -0.13280232
-0.17135933 -0.21025817 0.33068505 -0.07014541 0.2946613 0.36452717 0.05191935 0.08722519
-0.028370535 0.2795254 -0.36757103 0.16305265 -0.0664063 0.18673481 -0.0018095955 -0.150913
-0.044745658 0.21997273 -0.28401053 -0.25770104 -0.0916022 -0.1487851 0.16024308 0.27398536
-0.04393613 0.386763 -0.17121303 -0.22988933 -0.18197988 -0.2807943 -0.2869557 -0.36346558
-0.36204243 0.10611435 0.24840546 0.3839093 0.34708408 -0.023095118 0.07915467 -0.24372889
0.15773843 -0.3916063 0.1923862 0.07492956 0.12537727 0.1495998 -0.1876057 0.35015142
0.19497819 0.26834846 0.05377444 0.25646913 0.27459878 0.18487737 0.31082115 -0.073921874
0.26859164 0.09389198 0.24581394 0.39767304 0.09227373 -0.15170027 -0.04073977 0.114799894
0.068675056 -0.11135382 0.3200379 0.24544777 -0.25375068 -0.033094514 -0.039072927 -0.2560175

gat1.bias f4 [128]
00000000: f7d6 62b9 8ff9 dd38 cf39 34b9 98d3 19b9
00000010: 460d 8838 6cf3 1fb7 b4db 15b8 4b5d 75b8
00000020: 8c5b ffb8 eb53 f338 cbe4 e737 d807 50b9
00000030: 458d 0cb9 ce1b c739 b230 fa38 dee5 7338
00000040: 2c57 1839 53fc a638 ffbd 9cb8 565f adb8
00000050: 8a61 7fb9 dcfd dc37 16c4 aab9 611f 9a38
00000060: 7c86 3a39 f5ff 0fb9 d2c8 1838 8ae7 8937
00000070: b871 4db9 54cc 3bb9 8085 62b8 a086 c138
00000080: f090 a238 2c4f 08b8 a9a6 1337 c20e 28b9
00000090: a404 1a38 9aae dbb8 4352 5138 0d93 dcb8
000000a0: e9be 8438 d266 1939 286c 2b39 e2a4 2939
000000b0: 2a6b 2e38 400b 2eb8 a9f6 fe37 d65e 00b8
000000c0: 9aed 8eb7 b163 84b8 a85f 4937 c92b f5b7
000000d0: 43ad 18b9 57ba 1b36 1f1a cdb7 1631 73b7
000000e0: a275 b1b8 9725 a3b8 9207 2137 02c6 34b9
000000f0: 1671 fdb8 cd83 f837 5a3e a938 8376 f938
00000100: 70e2 09b9 9ead 4e38 ba13 ffb8 c893 80b8
00000110: 6e9c c7b8 5ec3 15b9 5ac8 8eb8 d96c 3039
00000120: 4e2b b036 b526 1639 1317 a1b8 7ab8 55b9
00000130: e51d 43b8 5789 eab7 1ad1 50b7 4232 83b5
00000140: 6a9c 8239 450a acb8 1068 00b8 0445 adb6
00000150: c80e ceb8 e4b2 beb8 7540 88b8 12b3 40b8
00000160: 3763 3839 96d3 1b39 0b77 dab6 fcad 93b9
00000170: c61f 4838 5725 e8b6 95b2 a438 10f6 70b8
00000180: f217 39b8 a0f6 e0b8 86a7 0739 7847 11b9
00000190: a587 bfb9 81aa ef38 1e65 bc38 ed97 5038
000001a0: 2235 49b8 5ce1 8137 17a1 14b9 26d7 d8b7
000001b0: 8c99 69b9 ea01 7cb9 eda3 9538 089a ea38
000001c0: addb 3538 b298 ec36 54c9 a4b8 f094 3c38
000001d0: 5ba1 b1b8 4925 8138 509a d8b8 f6d9 0fb8
000001e0: 64db f838 f8e4 deb6 481e 92b8 4c07 8a38
000001f0: bd69 23b8 2487 ab38 79e4 b9b8 58ed 3039
-0.0002163312 0.00010584585 -0.00017187673 -0.00014670042 6.487458e-05 -9.533815e-06 -3.5728983e-05 -5.8499438e-05
-0.000121763995 0.00011602774 2.7643886e-05 -0.00019839348 -0.00013404067 0.00037976954 0.00011929999 5.8149795e-05
0.00014528324 7.962496e-05 -7.474049e-05 -8.2670405e-05 -0.00024355031 2.6344256e-05 -0.00032571022 7.349137e-05
0.00017788442 -0.00013732894 3.6426653e-05 1.6439491e-05 -0.00019592687 -0.00017909828 -5.400693e-05 9.228033e-05
7.751759e-05 -3.249866e-05 8.800686e-06 -0.00016027226 3.6720783e-05 -0.00010475256 4.9906095e-05 -0.00010517808
6.32981e-05 0.0001462952 0.00016348122 0.0001617852 4.1584637e-05 -4.149531e-05 3.039402e-05 -3.06059e-05
-1.7038361e-05 -6.3128195e-05 1.2002805e-05 -2.9226665e-05 -0.00014560395 2.3205264e-06 -2.4450068e-05 -1.4495357e-05
-8.4619285e-05 -7.779447e-05 9.59811e-06 -0.00017239901 -0.00012085044 2.9625278e-05 8.070162e-05 0.0001189532
-0.00013149693 4.927592e-05 -0.00012163022 -6.131042e-05 -9.518197e-05 -0.00014282527 -6.808406e-05 0.00016825217
5.25025e-06 0.00014319534 -7.681376e-05 -0.00020381986 -4.6519464e-05 -2.7958928e-05 -1.2446451e-05 -9.774888e-07
0.0002491207 -8.203512e-05 -3.0614494e-05 -5.1638362e-06 -9.825599e-05 -9.093227e-05 -6.4969914e-05 -4.594314e-05
0.00017584568 0.00014860774 -6.5107647e-06 -0.00028167653 4.7713307e-05 -6.9184857e-06 7.853393e-05 -5.7449623e-05
-4.4129738e-05 -0.0001072709 0.0001293701 -0.00013854902 -0.00036531422 0.00011428167 8.983373e-05 4.9732556e-05
-4.797162e-05 1.548294e-05 -0.0001417439 -2.5849393e-05 -0.00022277812 -0.00024033306 7.135407e-05 0.0001118668
4.3358352e-05 7.051124e-06 -7.85763e-05 4.49614e-05 -8.4700725e-05 6.158144e-05 -0.000103284256 -3.429685e-05
0.00011866426 -6.642771e-06 -6.967463e-05 6.581712e-05 -3.8960705e-05 8.179087e-05 -8.864044e-05 0.00016873085

gat1.lin.weight f4 [128, 5]
00000000: d4a8 2f3d db02 4cbe 77a4 3e3e ed92 073e
00000010: 8211 56be 5f40 cfbd 1bd4 8e3d 0786 34bd
00000020: c238 b9bc 672c c2bd e148 2e3e 8a09 f2bd
00000030: 750b 353e c534 523c 297c 283d 796b 293e
00000040: e89c 0fbd d178 f7bd d6f6 0abd a92f 313e
00000050: ba08 21be 2d6d 413d c567 55be 20d9 e53d
00000060: d1e6 a33d b7f4 133c 2022 bb3d c062 91b9
00000070: e54b f23d 2021 2bbe d9cc fbbc b8a8 c03d
00000080: 9b55 583e e4ba de3d a5bc 1ebe 2f41 273e
00000090: 7522 45bd 1a1b 37bd f78c 45be 2378 06bd
000000a0: 758b 1a3e c387 ee3c c483 fcbd ef83 853d
000000b0: 2da6 8cbd c625 463e a423 3dbe d499 88bd
000000c0: ba45 52be 999f abbd acb2 873d aa41 523e
000000d0: b518 133d 05bc 543e 2300 2f3d 4359 fb3d
000000e0: 39eb 2d3e da41 363e 4fc1 f3bd 9e7c 483e
000000f0: 2ebb 033e 41ac cbbd f06f cfbd be39 36be
00000100: 9f5f 5a3d a6d0 30be 93ef b73d ad4d 893d
00000110: 72b2 3cbe 9f9b 673d e014 88bc a831 c73d
00000120: 8780 f83d 04ae 58be 3c51 483e 7e89 363e
00000130: fed9 ad3d 8ccc 46be 9d7b 9dbd 2249 81bd
00000140: 18f0 61bd 58ad f43d 801a 9f3d a9d2 2b3e
00000150: 396d a3bd 4446 913d b8ba 9a3d 9e00 34be
00000160: 7ad7 53be 2a39 e3bd 595f 143e 1a6d 4dbe
00000170: 55a0 3cbe 3de1 f33d 7e87 ed3d 769d 333e
00000180: 3d5b 24be 0102 1fbe 518e dd3d a57e 3c3e
00000190: 46b4 023e fdbc 063d 890a 903d fa62 4d3e
000001a0: aa78 0dbe 1fde c4bd 243d 173e 4a4b 15be
000001b0: 0c2c eebd fc20 203e da87 883d 642a 8e3d
000001c0: 9473 b9bd 5dd6 6bbb 1fd4 453e a305 03be
000001d0: e525 173b a023 cd3d dd99 15be 538b 543e
000001e0: b374 d7bd d82c 53bd fbe1 6abd 27d8 0ebe
000001f0: d081 56be 7640 f43d 76ab 6a3d 3917 4cbe
00000200: a785 0cbe db6e 573e 830c a83d 2419 ad3d
00000210: a64e 03be 845c bcbd bacb fabc 7528 1ebd
00000220: 46a9 15be fc57 8e3c ff4e b03c a16d e1bc
00000230: 2a85 ef3c 278c acbd 970f 623d ae2e a53d
00000240: 35bf e2bd 4ff4 57be 3e56 e33d e540 503d
00000250: 5821 ddbd 741f 513e f977 c5bd eca6 123e
00000260: 7d5f dd3d 594c 36be bf90 0b3e 4e73 48be
00000270: aa50 efbd dd0e 15bd d049 12be e82b 553e
00000280: 59bf 2abd 0194 aa3d f02b 43be 83c9 fc3d
00000290: 8317 84bd 6dec 24be 2ffe f93c 53b2 d33d
000002a0: fb45 3c3e ff65 05be 55aa d5bd ad77 273d
000002b0: dda2 6b3d 560f a73d 1078 ee3d 6e66 49bd
000002c0: ee07 f43d 5d10 1f3e d1c6 5fbd 4644 1c3e
000002d0: 94c1 d43d 24a9 3f3e f7bd f7bd f8f1 d5bd
000002e0: c359 7dbd 7fe1 323c 1b6c 023e bd83 f8bd
000002f0: e0b1 d93d f896 9cbd 43fd 033e 0498 2ebc
00000300: 80fb 3dbe 96bd eebd 91c2 1dbe aa09 d73d
00000310: f818 12be 9f9e 8ebc 80fb 3a3d cecd efbd
00000320: 2d9e 793d 4f70 54be 684b 1bbe aff6 45be
00000330: 87e1 85bd 7251 9fbd bb06 f93c c4fd 1ebd
00000340: 2f40 cb3d 27a7 473e eee6 9b3d ffe6 aabd
00000350: 22e4 4bbe a5dd 9c3d 4573 d7bd 857e dd3d
00000360: 9a3d 123e 5249 a63d 37ce 4b3e d868 4d3e
00000370: 6a4b 373d 4df1 1ebe 75a4 423e 251e cdbd
00000380: 4ab4 ccbd 2aab 363e 2e51 283e 6736 813d
00000390: aa93 6a3c b614 36be f2be b1bc 2627 513e
000003a0: 5a61 5b3d 2e89 9a3c 1566 33bd 4644 99bd
000003b0: 364e 003e 38d7 613c bb8e 0e3e df03 15bd
000003c0: 7b15 be3d ab16 b23d 7178 0f3d 8511 093e
000003d0: 3c8a 093e 82cd 483e e0d4 273e 7e7d 5bbd
000003e0: 2cf7 38be 51d7 1f3d 42d5 bdba c84f 63bd
000003f0: 132d 13bd d179 363c f75e 1d3e fbfe 863d
0.042885616 -0.19922964 0.18617426 0.13239641 -0.20905116 -0.101197 0.0697405 -0.04407313
-0.022610072 -0.09481125 0.17019989 -0.11818226 0.17680152 0.012829964 0.041134033 0.16544904
-0.035061747 -0.12083591 -0.033926807 0.17303337 -0.15725985 0.04722326 -0.20840366 0.11223054
0.08003009 0.0090305125 0.09137368 -0.0002773013 0.11830882 -0.16711855 -0.030737327 0.094071805
0.21126406 0.1087549 -0.1550165 0.1633346 -0.048128564 -0.04470358 -0.19292055 -0.032829415
0.15092261 0.02911747 -0.1232982 0.06519305 -0.06867633 0.19350347 -0.18470627 -0.066699654
-0.20534411 -0.0838005 0.06625876 0.20532861 0.035912234 0.20774849 0.04272474 0.12272885
0.16984262 0.17798558 -0.11902105 0.19578788 0.12864372 -0.09944964 -0.10128772 -0.17795464
0.053313848 -0.17267093 0.08981242 0.067042686 -0.18427446 0.056544896 -0.016611516 0.09726268
0.1213389 -0.21160132 0.19562238 0.17825887 0.08488844 -0.19413966 -0.07689593 -0.06312777
-0.055160612 0.11947125 0.07768726 0.16779579 -0.07979817 0.0709348 0.07555145 -0.1757836
-0.20687667 -0.110948876 0.14489497 -0.2006115 -0.18420537 0.11908195 0.11598109 0.17540535
-0.1605043 -0.15528108 0.1081816 0.18407686 0.12764081 0.032895077 0.070332594 0.20057288
-0.13815561 -0.09612679 0.14769417 -0.14579502 -0.11629495 0.15637583 0.06666537 0.06941679
-0.09055248 -0.0035985925 0.19319199 -0.12795119 0.0023063358 0.100165606 -0.14609475 0.20756273
-0.105203055 -0.05155644 -0.057344418 -0.13949643 -0.20947957 0.119263574 0.057292424 -0.19930734
-0.1372286 0.21038382 0.082055114 0.08452061 -0.12822971 -0.091973335 -0.030614723 -0.0386128
-0.14615354 0.017375939 0.021522043 -0.027518095 0.029238302 -0.084251694 0.05519065 0.08065544
-0.11071626 -0.2108929 0.11100434 0.05084314 -0.107973754 0.20422155 -0.096420236 0.14321488
0.108092286 -0.17802562 0.13629435 -0.19575235 -0.11685307 -0.036391128 -0.1428597 0.2081753
-0.04168639 0.08329011 -0.1905973 0.12343123 -0.06449797 -0.16105814 0.030516712 0.10336747
0.1838607 -0.1302719 -0.10432879 0.040885616 0.057528365 0.08157222 0.11643994 -0.04916995
0.11915575 0.15533586 -0.054632965 0.15260419 0.103884846 0.18716866 -0.1209678 -0.104465425
-0.06185318 0.01091802 0.12736551 -0.12134502 0.1062963 -0.076459825 0.1288958 -0.010656361
-0.18552971 -0.116572544 -0.15406252 0.1049989 -0.14267337 -0.01740962 0.045650005 -0.11709176
0.060941864 -0.20745967 -0.15165484 -0.19332384 -0.065371566 -0.07779206 0.030398717 -0.03881623
0.099243514 0.19497357 0.07612406 -0.0834484 -0.19911245 0.07659463 -0.10520033 0.10815147
0.14281312 0.081194535 0.19902883 0.20059526 0.044749655 -0.15521736 0.19008048 -0.10015515
-0.09995325 0.17838731 0.16437218 0.063092045 0.014317432 -0.17781338 -0.021697495 0.2042509
0.05355964 0.01886424 -0.043798525 -0.07483725 0.12529835 0.013784222 0.13921635 -0.036380645
0.09281441 0.0869573 0.03502697 0.1338559 0.13431638 0.19609645 0.16389799 -0.053586476
-0.18063039 0.0390237 -0.0014483111 -0.055496007 -0.035931658 0.011137442 0.15368257 0.065916024

sage1.lin_l.weight f4 [128, 128]
00000000: f6a8 983d da31 ddbc f2ea 063d 323d 993c
00000010: c802 64bd 8374 7cbd 3b87 633d 4682 1fbd
00000020: 0866 833d d07c 623c 111c 143c 0aaa 613d
00000030: acae dcbc c24d d3bc fdd3 ff3c aafd 943c
00000040: cc0a 343d 613d 733d edec 993d 1c4c 503d
00000050: 921a 67bb da91 98bd 139a 04bd ad84 14bc
00000060: afa5 053c 9146 56bd 21b1 07bd c07d 813d
00000070: c119 4bbd fe3f b93b fab3 973c cec4 be3b
00000080: 1c69 113c e37c a53d 14de 833d f58f 543d
00000090: ac8f 02bd 126d 8abd 66d8 763d a498 7fbd
000000a0: 8e5f 37bd 9ac8 42bd 3a77 5cbb ee30 be3c
000000b0: 25e4 0a3d ba1f 8e3c 9b9e 97bd a618 d43c
000000c0: 4387 54bd 5dc0 2a3d e04c 94bd 7c08 663c
000000d0: 75a1 b1bd d022 883d 8078 0e3d 8fed 91bb
000000e0: 284a 09bb 2ceb 64bb 0d2c 78bd a73e 77bd
000000f0: cc60 d23a 73ef 773d fa4c 293d dcdd 683d
00000100: 1913 8e3d 483f fa3c 584c 71bd 9a22 b63c
00000110: 77c4 38bd 21b7 6abc 88a8 53bd 8b9f 363d
00000120: 37c7 4fbd 9adc 5d3d 0ec8 173d 1c87 3b3d
00000130: 3ce0 5b3d c30c 733c 10d3 16bd 4dd3 163d
00000140: dee6 923d da52 733d bf80 73bd 1b24 083d
00000150: b22a f2bc 6ca6 933d 1224 13bd c80b 6bbc
00000160: 4034 eb3c 183f a0bd 45b8 903c b974 403d
00000170: 4afc 70bc 204c a5bd 38fc b1bd fc5a 84bd
00000180: 8494 9bbd 0d2f 233d 9b66 b9bc ce5f bebc
00000190: 2f27 7a3d de2c 7f3c aff1 7ebd ac98 8e3c
000001a0: cf69 213d 13c7 2abd cce8 8d3c 8a5d 0dbd
000001b0: 05b5 9ebd d85b 58bd 6073 42bd 6152 543d
000001c0: 0857 9d3d de54 75bd c2aa 503d ca89 0fbd
000001d0: 2b7a 67bc f510 eb3b ff10 a83c 25bd 763c
000001e0: af2d abbd 33a9 9d3c f96d b3bd 205c ae3d
000001f0: 5746 b13d cd10 a3bd 0bc7 293d ac37 793d
00000200: 6833 62bd b313 a33c 9141 2ebd 682e 80bd
00000210: c533 1ebd b7ae 1fbd 97bf 81bd 7632 edba
00000220: 511d ad3d dd5d a63c 88b3 5bbb 90fe b0bd
00000230: cd44 203d 835d a33d 2d0f 37bc 39f1 a83d
00000240: ef1f b03d 6f4f 023d bb33 a1bd 0d69 b8bc
00000250: 5121 bcbc badc f93a a7c4 11bd 5e99 08bd
00000260: ffbe e5bc 7a91 1bbc 80d2 93bd ab33 53bd
00000270: 6ad8 b33c 3dee 8d3d 1971 a13d c401 753d
00000280: 8e68 b0bd 4b35 73bc 4dbd 13bd 07eb 153d
00000290: 184f b63d edf0 703d 6d61 643d 2abd 4fbd
000002a0: d7c6 9a3d 29be 7cbd d786 88bd 4d6f 163d
000002b0: 035b 8c3d b201 483d 0a2a b2bd 3be9 473d
000002c0: 5552 fcbc 23f4 ac3c ac87 26bd 3184 3fbd
000002d0: 337a c1bc c871 6339 8434 253d 8c52 38bd
000002e0: 75cd 16bd 45a9 413d 7ab1 15bd 3d9a 85bd
000002f0: 2c08 683b cab1 1d3d 2d42 48bc 90f4 833b
00000300: 1a9f a43d ce61 0e3d 2fa1 1b3b 170b 7c3d
00000310: 3fe9 8cbc 594b 35bd 35b7 043d db59 87bd
00000320: 85f5 d03c 37f5 1f3d 2ede 413d 9b08 6b3c
00000330: 9403 703d 293a 693d 32b7 443d 788d 84bd
00000340: d592 8a3c c4e6 2f3d 2dc1 923d 33a0 a23d
00000350: 9b9c a7bd 30f5 993d 45c7 b43c 89e3 45bd
00000360: a7b3 9cbd ffaf 0c3d 5c64 8b3d 3f4e 7c3d
00000370: 0120 4c3d 9867 8ebd d782 adbd 0514 9dbc
00000380: 81f7 30bd e9fa 66bd 6105 a3bd 7618 003d
00000390: e960 e33c de80 213d a165 43bd 3c2a 5ebd
000003a0: c265 603b 4bea 503d e22c 163d 04f5 de3c
000003b0: 9d55 bfbc dbe3 883c cb7a eabc b0b0 6a3d
000003c0: a761 843d 0206 7c3b d47b 17bc 39d8 a13d
000003d0: fe1d 74bd ee0f 9aba 59a7 643c 9a0b f9bc
000003e0: 2ac2 4fbb 2290 67bd 7888 153b 8ec7 3c3d
000003f0: aba1 793d 257b 843d 9ce6 1c3d c02d ab3d
0.07454102 -0.02700131 0.032938905 0.018705938 -0.055666715 -0.06163455 0.055548888 -0.038942598
0.06415945 0.013823703 0.009039895 0.055093803 -0.026938759 -0.025793914 0.031229014 0.018187363
0.04395561 0.059384707 0.07515893 0.050853834 -0.003526364 -0.07449694 -0.0323735 -0.0090648355
0.008157178 -0.05231339 -0.033127908 0.06322813 -0.049585108 0.0056533804 0.018518437 0.005821801
0.008875158 0.08080461 0.064388424 0.0518951 -0.031875297 -0.06759085 0.060264967 -0.06240143
-0.044768862 -0.04755459 -0.00336404 0.02321669 0.03390898 0.017349113 -0.074032985 0.02589066
-0.051886808 0.04168736 -0.07241225 0.014040109 -0.086733736 0.06647265 0.034782887 -0.004453368
-0.0020948742 -0.0034930212 -0.060588885 -0.060362484 0.0016050576 0.06053109 0.041333176 0.056852207
0.06937236 0.030547753 -0.058910698 0.022233296 -0.04510924 -0.014325888 -0.051674396 0.044585746
-0.050727095 0.05416546 0.03705602 0.045783147 0.053680643 0.014834586 -0.03682238 0.036822606
0.07172941 0.059405185 -0.059448954 0.033237558 -0.029561374 0.07209477 -0.03592307 -0.014346071
0.028711438 -0.07824534 0.017665992 0.046986315 -0.014708588 -0.0807116 -0.08690685 -0.064626664
-0.075966865 0.039839793 -0.022631934 -0.023239043 0.061072525 0.015574662 -0.062242206 0.017406784
0.039407548 -0.04169376 0.01732292 -0.034513034 -0.077493705 -0.052821964 -0.04747331 0.051836375
0.076826155 -0.05989539 0.050944097 -0.035043515 -0.014128248 0.0071736523 0.020515917 0.015059744
-0.08358323 0.01924572 -0.0876121 0.08513665 0.086559944 -0.07962189 0.041449588 0.06084411
-0.055224806 0.019906854 -0.042542998 -0.06258851 -0.03862359 -0.03898498 -0.06335371 -0.0018096704
0.08452857 0.02030843 -0.0033523757 -0.08642304 0.039128114 0.0797682 -0.011173052 0.082491346
0.08599841 0.031814035 -0.07871195 -0.02251103 -0.022965105 0.0019062974 -0.035587933 -0.033349387
-0.028045176 -0.0094951335 -0.07217884 -0.051562946 0.02195378 0.06930206 0.078829 0.059816137
-0.08613692 -0.014844249 -0.036069203 0.036601093 0.08901805 0.058823515 0.055756975 -0.05071751
0.07557457 -0.06170479 -0.06666344 0.03672724 0.068532966 0.04882974 -0.086994246 0.04880641
-0.030800978 0.021112507 -0.04065673 -0.046756927 -0.02361784 0.00021690794 0.040333286 -0.045000598
-0.036817033 0.04728057 -0.036546208 -0.06523559 0.0035405261 0.03849963 -0.012222809 0.004026957
0.08038159 0.034761243 0.0023747196 0.061534014 -0.017201064 -0.04426131 0.032401282 -0.066089354
0.025507698 0.039052214 0.047331028 0.014345313 0.058597162 0.05694023 0.04802627 -0.064722955
0.016915718 0.042944685 0.071657516 0.07940712 -0.08184167 0.07517469 0.022067675 -0.048312698
-0.076514535 0.03434753 0.068062514 0.06159806 0.04983521 -0.06953353 -0.08472221 -0.019174585
-0.043204788 -0.05639163 -0.0796001 0.031273328 0.027756171 0.039429538 -0.047704343 -0.054239497
0.003424034 0.05100469 0.036663897 0.027216442 -0.023356253 0.016710212 -0.028623005 0.05729741
0.06463938 0.003845573 -0.0092458315 0.07902569 -0.059598915 -0.0011754015 0.013955914 -0.03040104
-0.0031701424 -0.05653394 0.0022816937 0.046088748 0.060945194 0.064688005 0.038305864 0.083583355

sage1.lin_l.bias f4 [128]
00000000: 33d1 40bd 269e b2bd 6d0b ddbc 637c 0a3c
00000010: 93ae c13b 25dc 8939 ef97 b4bd 5989 cebc
00000020: 2f02 4cbd f042 b1bc 86d4 48bd def8 56bb
00000030: 815b 80bc c36d a3bd 6273 233d ec2b df3c
00000040: ff9e bf3c 1dc9 063d 6ae5 8fbb d9b5 8f3c
00000050: 03c4 b0bd 63b1 693d 7407 8e3d e3b8 0ebd
00000060: 210b 973d 129d dcbc 1cad 113d 0716 0dbd
00000070: a4f3 4abd 4b9d 3dbd d15d 753d c01d e1bc
00000080: a276 8ebd 4f02 2c3c f861 5fbd 919d 63bd
00000090: 34af 4abd 12b3 5cbd 7985 67bd 95c6 093d
000000a0: a76b 01bd 2117 ac3c 4cec 993d 7295 b43c
000000b0: 7ada b13d 1b69 933d 9633 f33b 753b 2c3d
000000c0: 7d41 ae3d 7673 81bd c51c 66bd 146c 813d
000000d0: fd2c 393d 7613 e03c 786d 5c3c 6ff0 4ebd
000000e0: 88f7 063d 16c2 e6bb 63a1 6a3b 13c5 a13d
000000f0: 0f75 3c3d c22b 9f3a ba0a a3bc f75c 61bd
00000100: a7e0 173d 10c9 ad3d 05b6 3abd 5d2f 7bbd
00000110: 0eb2 6d3d 3495 9dbd 1364 a53d bfc4 413c
00000120: 288b 9c3d a943 c93b 1f35 d73c 2d46 aabd
00000130: 8dce 5dbc 3ccf 863d b059 0cbd 1871 953d
00000140: 0f4e 50bc 00cb 39bd 72ce 33bd d12f 8ebd
00000150: 1212 d33c b9f5 48bd 01f2 163d ba3b c7bc
00000160: 1870 3d3d 11d3 813d 51a8 84bd 2837 59bd
00000170: 270e 743d 41d7 c4bc 4db3 96bd 2a91 50bd
00000180: b1f4 adbd 6010 64bd 6f5e 8138 c2b3 7d3d
00000190: 112c 833c 4f5d 123c 9a06 35bb 8cfb 5abd
000001a0: 6428 293d 9ed0 733d 4c1e f33c 5c39 963d
000001b0: 4b6b b03d 1c04 203c e573 43bd bc9f 813d
000001c0: a4ee 193c c193 94bc 326b 2dbc 01aa 4a3c
000001d0: f230 2bbd e8c9 593d 999a 89bd 5f22 033c
000001e0: c7ea b2bd 74f3 0a3d 0234 27bd 1bc5 f0bb
000001f0: 4eae 8b3d 69ba 813c b531 963b 233d 123d
-0.047074508 -0.08721571 -0.026982987 0.008452508 0.0059107034 0.00026294697 -0.088180415 -0.025211977
-0.04980677 -0.021638364 -0.049030803 -0.0032802145 -0.015668632 -0.0797992 0.03990496 0.027242623
0.023391245 0.03290664 -0.004391362 0.017542766 -0.08631136 0.057053935 0.06935015 -0.03484429
0.073751695 -0.026930366 0.03556548 -0.034444835 -0.04954876 -0.046292584 0.059903923 -0.027480006
-0.06956221 0.010498597 -0.05453679 -0.05557019 -0.049483493 -0.053881712 -0.056523774 0.03363665
-0.031596806 0.021007122 0.07515773 0.022043917 0.08684249 0.07197782 0.007421921 0.04204889
0.08508585 -0.063208506 -0.05617978 0.063194424 0.04520892 0.02735303 0.013453834 -0.050522264
0.032950908 -0.00704218 0.003580176 0.07898917 0.046010073 0.0012143778 -0.019902576 -0.0550203
0.03707948 0.08485615 -0.045583744 -0.061324466 0.058031134 -0.07694474 0.08075728 0.011826693
0.076437294 0.006142099 0.026270447 -0.08314166 -0.013538015 0.065824956 -0.03426522 0.072969615
-0.012713923 -0.04535961 -0.043898053 -0.06942714 0.025765453 -0.049062464 0.036851887 -0.024320472
0.04624948 0.06339086 -0.06477416 -0.053031117 0.05958381 -0.024028422 -0.07358418 -0.05091969
-0.08493937 -0.05567968 6.168789e-05 0.06193901 0.016012223 0.008933379 -0.0027622343 -0.05346255
0.041298285 0.059525125 0.029677533 0.07335159 0.086142145 0.009766605 -0.047717948 0.06329295
0.009395275 -0.01813686 -0.010584639 0.012369634 -0.041794725 0.05317107 -0.0671894 0.0080038
-0.087361865 0.03392358 -0.040821083 -0.0073477156 0.06820355 0.015835958 0.0045835623 0.035702836

sage1.lin_r.weight f4 [128, 128]
00000000: 0a06 bc3b b796 6c3d 91d0 dd3b abfe 613d
00000010: 8e78 6c3d d39c 56bc 20e5 963d af41 8b3c
00000020: 1392 823d 1350 a9bd c122 abbd 972f bf3c
00000030: 6587 e33c 19f4 03bd 12b1 bfbc a613 ab3c
00000040: b50d a33d ff95 9c3c 5912 933d ed6d 9c3d
00000050: d49c d03c 794e e83b 71d1 c9bc a587 83bd
00000060: 9386 4e3d 2730 0aba c1df 17bd f7c7 babc
00000070: 8291 54bd fe72 f8bb 844e 4e3d 9625 903d
00000080: e4f4 6bbd 8723 663c 6428 10bd 8ded abbd
00000090: 96ba 483d 7c14 903d 6f92 973d 6e65 9a3d
000000a0: 81ef fdbc 1da3 963c 4fa4 ed3c 4acf 7ebd
000000b0: c4ba a03d 7e98 9bbd 05e2 673b 7863 e2bc
000000c0: f9b4 1b3d f53b 8a3d 6522 f33b bc00 29bd
000000d0: 8bb3 8c3d 2eb1 b1bd b782 d7bb e4b6 a3bd
000000e0: 887d 2dbb de63 833d 7740 243d 11ac 2dbd
000000f0: 2981 2fbd 27d2 ec3c 2f6d 62bd bb22 9cbd
00000100: 78f2 8d3d 8151 cd3c 4ad7 8cbd 0483 a8bd
00000110: d465 f13c 101e e6bc 18e3 41bd f850 b53d
00000120: 0869 303d df01 8d3d eff1 583c a550 40bb
00000130: dfad 6ebd 4c37 103d 6999 debc 3af9 1fbc
00000140: 06b4 af3b 42ff 883d b394 033d 48e7 b1bd
00000150: f4e1 cc3a 8b92 813d 0aa7 b9bb 3e00 9a3d
00000160: 5738 1bbd 60a1 82bd 4d42 a33d 16ee 03bd
00000170: 2984 853d b279 893d 709e 74bd 8234 a4bd
00000180: 8a4a 38bc 5a00 4cbd 8cac 843d 880e 323d
00000190: a29b 9a3d 6522 28bd 36ea 913c 8c1b dc3a
000001a0: 8f0a 84bd 9a00 30bd 5fb4 213d 3108 cb3b
000001b0: f952 9f3d 2001 cc3b a6ec da3c ff8f fe3c
000001c0: a165 76bd c37c 87bd bc9f 67bd fd21 04bd
000001d0: dd4d e53c 2822 40bd 756c 92bd 83f8 dcbc
000001e0: f8a8 9bbd 4095 01bc 17ea abbd 5143 31bc
000001f0: 35f9 8cbd 71dc a5bd 96b7 813d ad1a af3d
00000200: d07a 7cbd 97aa 723c c43b 97bd 1fb8 7bbd
00000210: 4875 9fbd 89d0 82bd 7337 b13d b147 bc3c
00000220: 542a 233d 9f33 52bd da44 173d 0348 013d
00000230: 980f d93c ba1d e53b 87b2 2dbd cd8e 073d
00000240: 8df7 8f3d 10ed 84bc 78a8 953d 314b 743c
00000250: 4f6e a33c 925e 7b3d 18ab 39bc f718 9e3c
00000260: 3aa1 7ebc 6f60 94bd 521c d83b fa67 c43c
00000270: 183f 9d3b 9f0f a73c 27c6 9dbc f500 903d
00000280: ab18 96bd cf9c 1039 46e8 743b aff5 033d
00000290: efd4 e4bc ccc1 8c3c 100b 94bd 5056 043d
000002a0: 6c26 e6bc bb38 7b3d 4c15 9e3d 35d0 9f3d
000002b0: 0cc0 4fbd cb42 2c3d 9d5c 24bd 262f 733c
000002c0: cce3 083d c635 9abd 40f4 acbd 50d9 ec3b
000002d0: 7cdc 313c 2655 68bd 092f 323d aea7 643d
000002e0: 599d 67bc 583c a3bd a7d3 c63c 4fcd 44bd
000002f0: e7a1 f4bb 6d8f 98bc e8af 3d3d 5ab8 bd3c
00000300: ebc1 79bd ea9c 9ebd 73a5 3fbd 265c b2bd
00000310: 795f 47ba 2de1 23bd 1da1 f1bc b31f a2bd
00000320: 7d0e 943d 2150 58bd d639 ffbc 1a57 7b3d
00000330: ee63 62bc 33fc 95bc 75ed 313d 7fd7 0cbd
00000340: 59c0 813d 0165 9cbb c2af 3d3d dd8b d83b
00000350: 426d 21bd 30c6 29bd f797 903b b535 c0bc
00000360: 87cc 623d 3c08 5e3d 7c82 3dbd c116 50bd
00000370: 7eef 65bc 1aa1 903d 2a0e 87ba 73f2 903d
00000380: fca0 d63c 462a d2b7 e7da 90bd f3d8 6abb
00000390: bc35 6cbd 442a 39bd 55c3 3b3d 3c34 53bd
000003a0: e125 3abd c206 903d 31ed 1abd ddc0 86bd
000003b0: bcd1 b9bc 9de2 e1ba 3287 99bd ef88 adbd
000003c0: 0eb5 9fbd 02aa 503a 2434 05bc 8dd8 a8bd
000003d0: 90d2 6abd d98f 053b ba20 a2bd f8fc 4ebd
000003e0: a879 02bd f1b5 aebd b3d3 64bc aa29 f0bc
000003f0: a416 843c de32 8b3b 5c54 293d 92ab d3bc
0.0057380246 0.05776092 0.006769248 0.05517451 0.057732157 -0.013098913 0.07367921 0.016999094
0.06375518 -0.08267226 -0.08356238 0.023338122 0.027774522 -0.03221521 -0.023399863 0.020883393
0.07961599 0.019114492 0.07181234 0.07638154 0.025465406 0.007089433 -0.024636002 -0.064223565
0.05042131 -0.00052714575 -0.037078623 -0.022800429 -0.05189658 -0.0075820675 0.050367847 0.07038419
-0.057606593 0.014046556 -0.03519477 -0.083949186 0.049006067 0.07035157 0.07400977 0.075388774
-0.030997993 0.018388325 0.029009013 -0.062209405 0.07848123 -0.07597445 0.003538252 -0.027635321
0.038014386 0.06749717 0.0074198716 -0.041260466 0.068701826 -0.086763725 -0.0065768617 -0.07993868
-0.0026472528 0.064155325 0.04010054 -0.042400423 -0.042847786 0.028908802 -0.055279907 -0.07623812
0.06931013 0.025063278 -0.06877001 -0.08228114 0.0294675 -0.028090507 -0.047335714 0.08853334
0.043068916 0.068851225 0.013241275 -0.0029344943 -0.058271285 0.035208985 -0.027172761 -0.00976401
0.0053620366 0.066893116 0.032124233 -0.086866915 0.0015631304 0.06326779 -0.0056656646 0.075195774
-0.037895527 -0.06378436 0.0797163 -0.03220948 0.06519348 0.06712665 -0.05972141 -0.080178276
-0.01124824 -0.049805023 0.06478223 0.04347089 0.07549216 -0.041048426 0.017811876 0.0016792878
-0.064473264 -0.042969324 0.039478656 0.006196045 0.07779498 0.00622572 0.02672417 0.031074522
-0.060155515 -0.06615593 -0.05654882 -0.032258976 0.02799123 -0.046907574 -0.07149593 -0.026973968
-0.076005876 -0.007909119 -0.083942585 -0.010819272 -0.0688347 -0.080986865 0.06333844 0.0855001
-0.06164056 0.01481118 -0.07384446 -0.06145489 -0.077860415 -0.06387431 0.08653154 0.022983404
0.03983529 -0.05131876 0.036930896 0.031562816 0.026496693 0.006992069 -0.042406585 0.03309517
0.070296384 -0.016226321 0.073075235 0.014910505 0.01995006 0.061369486 -0.011332296 0.019299014
-0.015541369 -0.07244956 0.006595173 0.023975361 0.004798781 0.02039319 -0.019259525 0.070314325
-0.07328924 0.00013791326 0.003736989 0.032216724 -0.027933566 0.017182253 -0.072286725 0.032308877
-0.028094493 0.0613334 0.07718906 0.07803384 -0.05072026 0.042055886 -0.040127385 0.014842784
0.03342037 -0.07529788 -0.084450245 0.007228054 0.01085579 -0.05672183 0.043501887 0.055823974
-0.014136636 -0.07970494 0.024270846 -0.04804736 -0.0074655893 -0.018623078 0.046310335 0.023159195
-0.06097595 -0.07744773 -0.046788644 -0.08708982 -0.0007605474 -0.040009666 -0.02949577 -0.079162024
0.07229326 -0.052810792 -0.031155508 0.061362363 -0.01381777 -0.018308735 0.043439347 -0.0343852
0.063355155 -0.004772783 0.046310194 0.00660847 -0.039410837 -0.041448772 0.004412647 -0.02346311
0.055370834 0.05420707 -0.046267018 -0.05080295 -0.01403415 0.07061978 -0.0010303904 0.070774935
0.02619981 -2.5053636e-05 -0.07073002 -0.0035834878 -0.057668433 -0.045206323 0.04584058 -0.051563486
-0.04544628 0.07032539 -0.03782386 -0.065797545 -0.022683017 -0.0017233674 -0.074964896 -0.08473384
-0.07798205 0.00079599035 -0.008130107 -0.08244429 -0.057329714 0.002037993 -0.07916398 -0.05053422
-0.0318543 -0.08530796 -0.013966489 -0.029316742 0.016124077 0.004248007 0.041340217 -0.025838647

sagpool.gnn.lin_rel.weight f4 [1, 128]
00000000: 54fc a2bd dcb0 303d ff04 573d 0e1d dbbc
00000010: 9d0c 103d ee36 5e3d 8858 813d c057 8f3d
00000020: 0447 c0bc d93b eebc e359 773d 86e0 833d
00000030: 99a5 b3bd 1182 93bd 71d2 8cbd f56c 7a3d
00000040: 6dc9 b23c 6ad3 39bd f892 803c e364 583b
00000050: 30d8 983c 49ba 05bd d54d 133d 63b7 8abd
00000060: 5528 953c 34e5 5e3d 7e01 2c3d 30e9 51bd
00000070: 9a1c e1bc 6528 a23d 5616 37bd 359c 9e3d
00000080: cc07 8fbd 6111 4dbd 2a52 173b d0e2 333d
00000090: 462a ebbc ab1d b3bc 422c 393d 36c6 683d
000000a0: ffce 003c db7b 4b3c 8b87 a73d 38b0 163d
000000b0: 2803 f7bc 9e89 a8bd 6be5 33bd b42a d03c
000000c0: a0fb acbd 8fda e03b c6e9 56bc 4b2a 7ebd
000000d0: dd5f 3d3d ab58 283d 41a8 9e3d 05ad afbd
000000e0: af09 78bd ab3b 7b3d 4576 8fbd 17cd a53d
000000f0: 3a10 893d 1a59 d0bc 73b9 893d 2789 f03c
00000100: 2732 86bc a9e6 e23b 29dd b3bc b7ce 39bc
00000110: 357d 8f3d d88f b0bd 4233 27bd 8056 8abc
00000120: 56fe 09bd 4d77 9bbd 8071 ee3b 034e e23c
00000130: 40bf 90bd 33a0 9b3c 455c bb3c 4d73 d4bc
00000140: 3697 883d a651 523c 4a95 cabc 863e e43c
00000150: 604c 5f3d 2a08 82bd fb88 b0bb ed0c 353c
00000160: 7584 9dbc 234d 0a3d 90d4 733b 6380 8e3d
00000170: c92b eabc 8291 6fbd 615c ad3d 18e0 dc3c
00000180: efe5 ef3a 47f7 af3d 6e71 80bd a611 f6bc
00000190: fb71 823d 0ec9 a43d c766 903c 742b b33d
000001a0: 9682 12bd 6433 683d abc4 97bd 8be4 b33c
000001b0: a190 6e3d 9853 aa3c 5529 4f3d 810d 273c
000001c0: 3433 1e3d df5c b2bd a426 26bb db6c cd3c
000001d0: e3ab 373d 0e86 45bc 6125 5cbc 84d5 adbd
000001e0: 48bc 423d 11cd 1d3d 7ca6 eebc dfd2 783d
000001f0: 4969 3cbc 1776 bd3c 0419 233d 6492 183d
-0.07958284 0.043137416 0.052495 -0.026747253 0.03516828 0.054251604 0.06315714 0.06999159
-0.023471363 -0.029081272 0.060388457 0.06439309 -0.087718196 -0.072025426 -0.06876076 0.061139066
0.021824563 -0.045367636 0.01569508 0.0033019118 0.018657774 -0.03264836 0.0359629 -0.067732595
0.018207708 0.054417804 0.04199361 -0.051247776 -0.027479459 0.07917861 -0.044699036 0.07744638
-0.06983909 -0.050065402 0.0023089745 0.043917477 -0.028706681 -0.021864733 0.045208223 0.056829654
0.007861852 0.012419666 0.0818015 0.03678915 -0.030152872 -0.082293734 -0.043919962 0.025410987
-0.08446431 0.0068619917 -0.013117259 -0.062052052 0.046234 0.041100185 0.07746936 -0.08577923
-0.06055611 0.0613362 -0.0700498 0.080957584 0.06692548 -0.025433112 0.06724825 0.029362274
-0.016381336 0.0069244695 -0.021956043 -0.011340789 0.07006303 -0.08621186 -0.040820368 -0.01688695
-0.03368982 -0.07591114 0.007276714 0.02762509 -0.07067728 0.018997287 0.022871146 -0.025933886
0.06669466 0.012836849 -0.02472939 0.027861845 0.054516196 -0.063492134 -0.005387423 0.011050445
-0.0192282 0.03376497 0.0037205555 0.069580816 -0.028585332 -0.058488376 0.084648855 0.026962325
0.0018302778 0.08592086 -0.06271635 -0.030037712 0.06369396 0.08046161 0.017627133 0.087485224
-0.035769068 0.056689635 -0.07410558 0.021959564 0.058243398 0.020791814 0.050576527 0.010196091
0.03862305 -0.0870912 -0.0025352621 0.02507632 0.04484166 -0.012055887 -0.013436646 -0.084879905
0.04754284 0.038525645 -0.02913212 0.060747977 -0.011499711 0.023127599 0.03981878 0.037248984

sagpool.gnn.lin_root.weight f4 [1, 128]
00000000: 7577 86bd e7c8 943d 2c11 e5bb 5f6f a23d
00000010: 1c50 4f3c 26ba a2bb b589 28bc 6e7c b0bd
00000020: 6069 b63c 5fb3 863d d6b7 da3c e571 93bd
00000030: 740e ecbb 3daa 6ebc f128 973d ba7f e2ba
00000040: 5e86 dabc ae3e a0bd 6299 ac3c 32b8 97bd
00000050: 5550 58bd b740 113d 9f75 6fbd 905e ffbc
00000060: 0984 473d e830 973d b638 733d fcb5 61bc
00000070: 9ddf 213c 9ea0 a63d d9f2 82bc ccce ad3d
00000080: 7b22 14bb 144d a53d 4062 76bd e13c a03c
00000090: efcd 01bd a43c a1bd c45e 5abd 0d2b 3b3c
000000a0: 7511 31bc 3461 3fbd 0a54 9d3d c3e3 57bd
000000b0: b906 f93b 4934 6a3d f76b 363d f926 a4bd
000000c0: ed54 673d c35c d23c bace 94bd bb30 54bd
000000d0: 1047 a83c c95f 183d fc54 99bd d854 85bd
000000e0: 8414 723c 3ae2 17bb a2b3 e03c b76e 113d
000000f0: 0b9a 9dbc 361b 2cbd b919 9d3d 0e44 9a3d
00000100: a9e3 9abd 267f 14bc 8740 703d 5206 85bd
00000110: 4da0 613d 9627 ccbb 31be 9ebd e364 9c3c
00000120: 7d29 4e3d cb63 c63c 3aea 98bd b7f5 5a3d
00000130: 8d0e 9fbd b76b 93bd 20a2 f0bc 1125 1bba
00000140: 52be d83c 4141 3b3d 6f24 b0bd 0774 153d
00000150: 9abc 163d ca40 89bd 235b 92bd 0b16 8c3d
00000160: cda0 fb3c 2e24 a6bd 5535 83bd 9bfa 093d
00000170: fbe7 28bb 9ccd 6fbc 7d24 36bb a46d f2bc
00000180: 47bd 773d a9a4 c9bc aad5 6cbd ed43 733d
00000190: ae6b 9e3c a9d5 a2bd 9714 adbd a804 e73c
000001a0: 1f8d 92bd 7ba0 f1bc 0ad8 8e3d 321c b43d
000001b0: 70b4 4cbd 82b2 cbbb efaa 0c3d 9968 793d
000001c0: c37f b33c 79e6 b33d 7728 0ebd e593 aebb
000001d0: 0619 ac3d d1de 22bd 94c3 b2bd 481e 173d
000001e0: eb97 81bd c1de 4cbd 1689 953d bec2 8b3d
000001f0: b495 473d a71a 7a3d d33e b0bd e57d c73c
-0.06565753 0.072648816 -0.0069905724 0.079313986 0.012653377 -0.0049660383 -0.010286738 -0.08617483
0.022267044 0.06577181 0.026698988 -0.07199458 -0.0072038714 -0.014566955 0.07380856 -0.0017280497
-0.0266754 -0.07824455 0.021069232 -0.07408179 -0.052810986 0.035462108 -0.05846178 -0.03117302
0.048709903 0.07382375 0.059380256 -0.013776299 0.009879974 0.08136104 -0.01598494 0.08486709
-0.002260356 0.08071342 -0.060152292 0.01956028 -0.031690534 -0.078728944 -0.05331303 0.011423838
-0.010807385 -0.04672356 0.07682045 -0.052707445 0.0075996784 0.05717877 0.044536557 -0.08015246
0.056477476 0.025678998 -0.072659925 -0.051804285 0.020541698 0.037200723 -0.074869126 -0.06510323
0.014775399 -0.0023175613 0.027429406 0.035505977 -0.019238492 -0.042018138 0.07670922 0.07532512
-0.07562954 -0.009063518 0.058655288 -0.06495346 0.055084515 -0.006230305 -0.0775112 0.019091075
0.050332535 0.024217507 -0.0746655 0.05345699 -0.07766447 -0.07198279 -0.029374182 -0.0005918304
0.02645794 0.045716528 -0.08600699 0.036487605 0.03680096 -0.06701811 -0.07146289 0.06840142
0.030716324 -0.081123695 -0.06406657 0.03368626 -0.0025773037 -0.014636423 -0.0027792745 -0.029593296
0.060483243 -0.024614649 -0.057820953 0.05939095 0.019338455 -0.07950909 -0.08451193 0.028200462
-0.07155823 -0.029495468 0.069748 0.0879444 -0.049976766 -0.006216348 0.034342702 0.060890768
0.021911507 0.087841935 -0.03470656 -0.005327689 0.0840321 -0.039763276 -0.0872871 0.036894113
-0.06327804 -0.050017122 0.07301538 0.068242535 0.048726752 0.061060574 -0.08605733 0.024352023

lin.weight f4 [64, 128]
00000000: 1ce9 a93d e138 afbd 1203 dcbc 3df1 87bd
00000010: f630 80bd 1c1d 6abd 1bcc 42bd a61c 673c
00000020: 402d 4b3d 3b8c 88bd e61e 863d 95dc 883d
00000030: 224f 1cbd 4482 40bd e9e6 86bd a8f9 b33d
00000040: aa5e 353d 3907 24bd c32f 0f3d 8e5c 88bd
00000050: d581 74bd 7ab8 4b3d 2676 92bc 0edf af3d
00000060: cc09 18bc 386e a8bd 3774 f93b 4a9c 0cbc
00000070: 49ae 833d 8c07 bebc cccf f9bc e7ab e33c
00000080: 70d8 b23d e91c 933d 8cd3 75bd 567f 93bc
00000090: 6393 39bd 0253 a1bc cb9e 2f3c 7681 a5bc
000000a0: 660a 233d 7432 8a3d b92e 96bb e7f9 0cbc
000000b0: 6720 743d 2e0c dc3b 894d 19bc 3ec2 393c
000000c0: 8600 e1bc aa09 2fbd 91f0 203d c966 dfbc
000000d0: 1255 a0bd 0ee1 afbd c1d0 b53d fc0b 81bd
000000e0: 763e 34bc ea64 e4bc 735c a7bd 02b0 1c3d
000000f0: d035 a53d cf4b 8d3c c6ca 16bd 0747 81bd
00000100: 47cd 3dbd dd7e bd3c 1a12 27bb b3a0 1dbd
00000110: ee98 48bd 42f7 843c c522 8e3d a2c7 733d
00000120: 9885 393d 891c a23c be93 95bd 2496 98bd
00000130: 7d5e 993d 3973 313d 1dee a63b 3133 eabc
00000140: fb5a b93c bee5 4ebd d6ac 21bd a699 5ebd
00000150: a2ae 1cbd 783b 243c ffe7 16bd a5a9 29bd
00000160: aa4f 37bb 4b5d b6bd 2ae9 ae3d dda3 a3ba
00000170: f381 d83c 52d7 b9bc 7196 8ebd 346f adbd
00000180: b1a0 953d 1b69 4a3d bfd8 423d 631f fabc
00000190: 0ddb ac3d 1930 913d c398 95bc fdcf 69bd
000001a0: 2667 99bd 54b9 d2bc e7fc a1bc 2fbe ac3d
000001b0: 82c0 66bd c08b 3dbc edae b33d 46f3 b43d
000001c0: f2d6 9a3d 403b 4b3d ce76 adbc 5fe8 5c3d
000001d0: ba1f b638 0f20 173b dba9 65bd 0b58 2fbc
000001e0: 99af 793d 4743 58bd f4ea a13d e729 893c
000001f0: 04ec 223d 91e6 57bd b99e 583d bdb2 94bc
00000200: 37e8 743c f2f9 033d 379b 843d fee8 54bd
00000210: bbf3 9fbd cf00 9d3d a5f7 113d 1e41 2b3d
00000220: 8c78 3a38 d096 e03c b39f 63bd 1eff 99bd
00000230: 5ae3 e83c ac08 313d fa66 08bd 179b 5c3d
00000240: 9b7f 6b3d 5bb1 c7bc a50b 23bd f43a 3c3d
00000250: 6817 163d 843f 763d 08d3 963d 1628 843c
00000260: 9914 953d 3faa 363d 08d5 ae3c 3e2c 56bd
00000270: 3086 4a3d 1456 65bd 7414 56bd 3835 f93b
00000280: 7897 3abc e818 30bd 776a afbc b267 773d
00000290: 876f aebd 560d f53b 1155 06bb 1db2 683b
000002a0: d6f2 7739 0f05 223d 612c 3b3d ae96 c3bc
000002b0: 0113 643d d0b9 06bc e5c7 7e3c 333b e03c
000002c0: d6a2 aebd 0c4b a9bd 9145 10bd 2b78 ec3c
000002d0: a3d5 993c 08f1 943c 6d2e 95bc ed5c e53a
000002e0: c4b1 9fbd b214 203d d009 e1bc 90b8 b13d
000002f0: 6637 7abc 3856 aabd 7f62 aa3c 7c94 3f3d
00000300: 91ee b83c b233 d63c a6dc 9d3d dd43 3f3d
00000310: 5d25 ae3d 454e 7dbd a0cb ab3d 4de8 63bd
00000320: 93b7 1dbd 66f0 aebd 1b60 6e3d 06a0 7abd
00000330: 34e9 0fbd 7d93 0abd 8935 373d f7db 01bc
00000340: af1a d6bb bfef db3c 6c9e 3fbd ac23 56bd
00000350: 8443 23bd 1eee 2bbd 118c 653c 3005 86bd
00000360: 0494 453d 3ac3 a33d 2182 bfbb 6020 29bd
00000370: b219 db3a 4486 f8bc 7237 a9bd 9b57 38bd
00000380: 1e4c 79bd 6627 203b 75ac 74bd 975d 743c
00000390: 4bd1 acbd 6a74 2bbd aef8 8fbd fed6 013d
000003a0: 323b 44bd 9b5b ae3d 5859 1ebc 4351 45bd
000003b0: fa23 58bc 5d5a a33d 7623 9fbd 62b6 24bd
000003c0: 6693 993d 5115 afbb 4bc0 a1bc 9f86 c13c
000003d0: 5ed9 353d 3883 14bd 4e1f af3d 7200 b43c
000003e0: eed9 0d3c 12bc 983b a886 66bc d853 023b
000003f0: 7fd4 33bd 8d8f 70bc ef01 3ebd 291f ccbb
0.08296415 -0.08555771 -0.026856933 -0.066378094 -0.062593386 -0.057156667 -0.04755793 0.014105951
0.0496037 -0.06667372 0.06548862 0.06682698 -0.038161404 -0.04699923 -0.06587011 0.087878525
0.04427973 -0.04004595 0.03495766 -0.066582784 -0.05969413 0.049736477 -0.017878603 0.08587466
-0.0092796795 -0.082241476 0.007612731 -0.008582184 0.06429727 -0.023196958 -0.030494593 0.02779193
0.087326884 0.071832485 -0.0600162 -0.018005054 -0.045306575 -0.019692902 0.010719012 -0.020203333
0.03980484 0.067479044 -0.0045832065 -0.008604503 0.059601214 0.006715319 -0.009356865 0.011337815
-0.02746607 -0.042733826 0.039291922 -0.027270691 -0.07828726 -0.08587848 0.08877707 -0.06301114
-0.01100122 -0.02788015 -0.0817193 0.03825379 0.080669045 0.017248062 -0.036814474 -0.063123755
-0.046338346 0.023131782 -0.0025492967 -0.038483333 -0.04897397 0.016231183 0.069402255 0.059516557
0.04529342 0.019788997 -0.0730357 -0.07450512 0.07488725 0.043322776 0.0050943033 -0.028588863
0.02262639 -0.050512068 -0.03947147 -0.05434575 -0.03825248 0.010023944 -0.036842342 -0.04142155
-0.0027971067 -0.08904513 0.08540566 -0.0012484748 0.026429152 -0.02268568 -0.06962288 -0.08468476
0.0730604 0.049416643 0.047569986 -0.030532544 0.08440218 0.07089252 -0.018261319 -0.05708312
-0.07490377 -0.025723137 -0.019773914 0.08434712 -0.056335934 -0.0115689635 0.08773599 0.08835463
0.07560529 0.049617052 -0.021174815 0.053932544 8.684346e-05 0.002305988 -0.05607019 -0.010702143
0.06095848 -0.052798536 0.07906142 0.016743613 0.039775863 -0.05271012 0.052885745 -0.018151635
0.014947942 0.03222079 0.064749174 -0.05198001 -0.0781016 0.0766617 0.035636563 0.041810147
4.4458124e-05 0.027415663 -0.055572223 -0.07519363 0.028428722 0.04322116 -0.03330133 0.053858843
0.05749474 -0.024376562 -0.039806027 0.04595466 0.036643416 0.060119167 0.0736447 0.016132396
0.07279319 0.044595953 0.021341816 -0.052288286 0.049444377 -0.055990294 -0.0522656 0.007605221
-0.011388652 -0.042992502 -0.021413071 0.060401626 -0.08517366 0.0074783964 -0.002049748 0.0035506554
0.00023646219 0.039555606 0.04569662 -0.02387556 0.055682186 -0.008223012 0.015550588 0.027371978
-0.08527152 -0.08266267 -0.035222594 0.028865894 0.018778628 0.018181339 -0.018210614 0.0017499008
-0.07797578 0.039082237 -0.0274705 0.08677781 -0.015271997 -0.08317226 0.02079892 0.046772465
0.022574695 0.026147697 0.07708101 0.04669558 0.0850322 -0.06184222 0.08388448 -0.05564146
-0.03850515 -0.08541946 0.058197122 -0.061187766 -0.03513451 -0.033832062 0.04472879 -0.007925979
-0.0065339427 0.026847718 -0.046781942 -0.052280113 -0.03985931 -0.041975133 0.014010445 -0.06543958
0.04823686 0.07996221 -0.00584437 -0.04129064 0.0016716032 -0.03033746 -0.082625285 -0.045005422
-0.060863607 0.0024437546 -0.05973478 0.014914892 -0.08438357 -0.041859068 -0.07029854 0.031699173
-0.047908016 0.08513566 -0.009664856 -0.0481732 -0.013192171 0.0797622 -0.077704355 -0.040212996
0.07498817 -0.0053431173 -0.019745013 0.023623763 0.04439675 -0.036257952 0.08550893 0.021972869
0.0086579155 0.0046610916 -0.0140701905 0.00198864 -0.043903824 -0.014682663 -0.046388563 -0.0062293005

lin.bias f4 [64]
00000000: 985b 04bc 26e1 823d 0f17 843c 5299 733d
00000010: c9ee f53c 36b0 383d b876 02ba 33ed 96bc
00000020: 698f 423d 48eb 7cbd a376 93bd c30f 55bd
00000030: 9fed ed3c 7178 7b3d 69c5 02bc 6268 fa3c
00000040: 1ad5 ef3c 9f34 023d fb81 463d b003 d4bc
00000050: ea49 ad3d 23cf b03d c68c ff3c 5fad 663d
00000060: 3903 7bbd 7e61 583d 636d 30bd cab8 c8bc
00000070: c072 52bd 0081 393d e4e2 81bc 0ac1 77bd
00000080: 3166 04bd 4397 abbd 503e 57bd 82c4 8c3d
00000090: c8eb 92bd c028 e63b c88f 213d 4089 a3bd
000000a0: 8446 ee3c fffb a13d eef6 2bbd f91b 383d
000000b0: ff7e abbd f9b7 5cbd 4d15 9f3d abe4 903d
000000c0: f11a 68bd f91e 9e3d 2e4f b3bc c6fc 77bc
000000d0: 3545 8e3d aa95 93bd bccd 003d c1aa a13d
000000e0: dd53 b13d b5ab 963c e537 3e3d aa6f 94bc
000000f0: cc52 d23b 39c4 d5bc e3b8 703c 1a55 09bd
-0.008078478 0.063906 0.016124276 0.05947239 0.030021088 0.045089923 -0.0004976797 -0.018423652
0.047500048 -0.06174782 -0.072003625 -0.052016985 0.02904397 0.06139416 -0.007981637 0.030567352
0.02927642 0.031788465 0.048463803 -0.025880665 0.084613636 0.08633258 0.031195056 0.056317683
-0.06128237 0.05282735 -0.04307307 -0.024502177 -0.051378965 0.04528904 -0.01585526 -0.06048683
-0.03232402 -0.0837846 -0.05254966 0.068734184 -0.07173878 0.0070239007 0.03944376 -0.07985163
0.029086359 0.079093926 -0.041983537 0.04494855 -0.08373832 -0.053886387 0.07767735 0.07074865
-0.05666632 0.07720751 -0.021888342 -0.0151359495 0.06946794 -0.072062805 0.031446204 0.07893897
0.08658574 0.018392423 0.046440024 -0.018119652 0.0064185616 -0.026094543 0.014692518 -0.033528425

fc.weight f4 [1, 64]
00000000: 5cc7 07bd f3a6 de3d 3fed c5bd 0e10 75bd
00000010: 6ee1 ed3d 6de9 8f3d 15fe ba3d 7c11 653d
00000020: dce5 71bd 121d 8c3d f9f7 71bb 2c04 44ba
00000030: 7480 8fbd 319e 83bd 7280 c93d 64e2 693d
00000040: 84c2 3fbd f636 91bd 15a4 c23b e885 b23c
00000050: dbff 83bc b608 003e 0927 54bb 33ac 4d3d
00000060: 93b6 fb3d e4dc c43d 949b b6bd 778e 2bbd
00000070: da49 593d 696a f83c 758c c6bb 0cd4 673d
00000080: f7f3 95bd a71b eabc 1386 f0bd 7621 dbbc
00000090: 0e02 b1bd cab6 51bc 2d58 c4bd bd54 9c3d
000000a0: 50d8 c6bd 2f4c 75bd fb4c 8ebc 0a87 fa3d
000000b0: 4f23 8ebc 7f34 a1bb 441b e93d 3ac8 d8bd
000000c0: 3aa8 d63c a0fd f43d 573a a73d 8ac5 8cbd
000000d0: 24a3 de3b 17eb 5c3d c209 9a3c 262f 8cbd
000000e0: 142c 663d 0c34 9e3d af54 fe3d 2ac8 b6bd
000000f0: fbcc 853d 146a a8bd cd92 90bd 96c8 7fbd
-0.03314911 0.10871687 -0.09664392 -0.059829764 0.11615263 0.07026944 0.091304936 0.055924878
-0.0590571 0.06841482 -0.0036921485 -0.00074774283 -0.07006922 -0.06426657 0.09838952 0.05710067
-0.046816364 -0.07090561 0.0059399703 0.021792367 -0.016113212 0.12503323 -0.00323719 0.05021305
0.12290683 0.09612444 -0.08916393 -0.041883912 0.053048946 0.030324178 -0.0060592243 0.056598708
-0.07321923 -0.028577639 -0.11744323 -0.026749354 -0.0864297 -0.012799928 -0.09587131 0.0763335
-0.09709227 -0.059887107 -0.017370692 0.12232788 -0.01735082 -0.004919588 0.11382154 -0.10585065
0.026203264 0.11962438 0.08165424 -0.06873615 0.00679435 0.053935137 0.018803481 -0.0684493
0.05619438 0.07724771 0.12418496 -0.08924897 0.065332375 -0.08223358 -0.0705925 -0.062447153

gcn_batch_norm.weight f4 [128]
00000000: 0000 803f 0000 803f 0000 803f 0000 803f
00000010: 0000 803f 0000 803f 0000 803f 0000 803f
00000020: 0000 803f 0000 803f 0000 803f 0000 803f
00000030: 0000 803f 0000 803f 0000 803f 0000 803f
00000040: 0000 803f 0000 803f 0000 803f 0000 803f
00000050: 0000 803f 0000 803f 0000 803f 0000 803f
00000060: 0000 803f 0000 803f 0000 803f 0000 803f
00000070: 0000 803f 0000 803f 0000 803f 0000 803f
00000080: 0000 803f 0000 803f 0000 803f 0000 803f
00000090: 0000 803f 0000 803f 0000 803f 0000 803f
000000a0: 0000 803f 0000 803f 0000 803f 0000 803f
000000b0: 0000 803f 0000 803f 0000 803f 0000 803f
000000c0: 0000 803f 0000 803f 0000 803f 0000 803f
000000d0: 0000 803f 0000 803f 0000 803f 0000 803f
000000e0: 0000 803f 0000 803f 0000 803f 0000 803f
000000f0: 0000 803f 0000 803f 0000 803f 0000 803f
00000100: 0000 803f 0000 803f 0000 803f 0000 803f
00000110: 0000 803f 0000 803f 0000 803f 0000 803f
00000120: 0000 803f 0000 803f 0000 803f 0000 803f
00000130: 0000 803f 0000 803f 0000 803f 0000 803f
00000140: 0000 803f 0000 803f 0000 803f 0000 803f
00000150: 0000 803f 0000 803f 0000 803f 0000 803f
00000160: 0000 803f 0000 803f 0000 803f 0000 803f
00000170: 0000 803f 0000 803f 0000 803f 0000 803f
00000180: 0000 803f 0000 803f 0000 803f 0000 803f
00000190: 0000 803f 0000 803f 0000 803f 0000 803f
000001a0: 0000 803f 0000 803f 0000 803f 0000 803f
000001b0: 0000 803f 0000 803f 0000 803f 0000 803f
000001c0: 0000 803f 0000 803f 0000 803f 0000 803f
000001d0: 0000 803f 0000 803f 0000 803f 0000 803f
000001e0: 0000 803f 0000 803f 0000 803f 0000 803f
000001f0: 0000 803f 0000 803f 0000 803f 0000 803f
1.0 1.0 1.0 1.0 1.0 1.0 1.0 1.0
1.0 1.0 1.0 1.0 1.0 1.0 1.0 1.0
1.0 1.0 1.0 1.0 1.0 1.0 1.0 1.0
1.0 1.0 1.0 1.0 1.0 1.0 1.0 1.0
1.0 1.0 1.0 1.0 1.0 1.0 1.0 1.0
1.0 1.0 1.0 1.0 1.0 1.0 1.0 1.0
1.0 1.0 1.0 1.0 1.0 1.0 1.0 1.0
1.0 1.0 1.0 1.0 1.0 1.0 1.0 1.0
1.0 1.0 1.0 1.0 1.0 1.0 1.0 1.0
1.0 1.0 1.0 1.0 1.0 1.0 1.0 1.0
1.0 1.0 1.0 1.0 1.0 1.0 1.0 1.0
1.0 1.0 1.0 1.0 1.0 1.0 1.0 1.0
1.0 1.0 1.0 1.0 1.0 1.0 1.0 1.0
1.0 1.0 1.0 1.0 1.0 1.0 1.0 1.0
1.0 1.0 1.0 1.0 1.0 1.0 1.0 1.0
1.0 1.0 1.0 1.0 1.0 1.0 1.0 1.0
