All_Benchmarking/DATA_13/Results/f1/best_model.pth (torch, 192098 bytes, 32 tensors)

gat1.att_src f4 [1, 4, 32]
00000000: db7d 97be 1014 d0bd 09a0 21bd 0eca 67be
00000010: 6321 9abe 44eb 8c3e 147b 8d3e e115 bdbe
00000020: 54d5 053e 9b4e 2a3e 63d2 c63e aec2 703e
00000030: c6da c03e ab41 0abe 54d5 913e 2362 aa3e
00000040: 6c81 c5be e471 a7be 94db ab3d 6586 653e
00000050: f632 4fbe 8d04 3a3d 5fa1 a0b7 9bc1 d13d
00000060: 6e3d 60be 7871 6c3e f055 8b3e f34b 91be
00000070: 9f40 673b 0f14 cab8 d7f0 043e c343 c23e
00000080: 0b23 f63d 3df2 bebd c936 bb3e dbcf 1fbe
00000090: b8bd f1bd 3d40 e83c f5dc 9ebe 85f9 343d
000000a0: 2ca5 8dbe cdc0 2b3d 6d7d 223d 757e 673d
000000b0: a279 b0be 9829 c6be 31d0 403e 0774 b33e
000000c0: 2766 b9be 925c 1b3e 2794 9abe 22f2 d83c
000000d0: 7641 c23e 1a64 9e3e 5e63 99be e510 813e
000000e0: 759d 5a3e 4110 8dba 9fd3 ca3e 687f 26be
000000f0: 4bf5 bfbd e9d3 52be 475f 6e3d 22fd db3d
00000100: a9fc 023d d1ab 6bbe 4e51 3cbe 95cf 0e3e
00000110: ab13 b7be 4623 81bd b095 19bc f5dc 28be
00000120: 6905 183e 7e48 d63c 1dc3 923e d16c 12bd
00000130: 721d 84be 8868 933e 9733 693d fba7 f0bd
00000140: 24f6 89be c575 c53d 56bf c7be 16a5 db3d
00000150: 1d7a 4f3e 3710 b7be 301a 89be 7b22 96be
00000160: ce6f af3e 0c5b b13e d35a cc3c d489 c43e
00000170: d945 0cbe 8cf7 cabe 515f 123e 7eb6 143e
00000180: 0d77 cc3e e722 b7ba f035 a03e 835b 7f3e
00000190: c0df 963e 11f1 cebe 5605 ac3e 5c07 b3be
000001a0: 2d09 bb3e 0442 8cbc 3fbf b9be 0588 ea3d
000001b0: bba0 a8bd 77d0 bbbe 1d48 19be c404 293d
000001c0: 9a82 a33e 2491 00be 06ea 773e 4645 553d
000001d0: d32a 413c 12b1 9c3d c9bc 89be 774c aebe
000001e0: f1d7 04be a208 c3be 2c64 43be 0a91 973c
000001f0: cc5c 89be 21c8 2dbe 2446 94bd cd2e 3fbd
-0.29588208 -0.101600766 -0.039459262 -0.22635671 -0.30103597 0.27523243 0.27632964 -0.36930755
0.1306966 0.16631548 0.38832387 0.23511764 0.3766691 -0.13501613 0.2848307 0.33277997
-0.38575304 -0.3270408 0.083914906 0.22414549 -0.20234284 0.045414496 -1.914863e-05 0.102420054
-0.21898434 0.2309016 0.27214003 -0.28378257 0.003528632 -9.635847e-05 0.12982498 0.37942323
0.12018403 -0.09323547 0.36565235 -0.15606634 -0.11803764 0.028350944 -0.31027952 0.044183273
-0.2766508 0.041931916 0.039670397 0.056517083 -0.34467798 -0.3870361 0.18829419 0.3504946
-0.3621075 0.15172032 -0.30191156 0.026482645 0.37940568 0.30935746 -0.29958624 0.25208202
0.21349128 -0.001076229 0.3961458 -0.16259539 -0.09372958 -0.2058865 0.058196332 0.107416406
0.031979237 -0.23014762 -0.1839039 0.13946374 -0.35757193 -0.06305556 -0.009374067 -0.16490538
0.14845814 0.026157614 0.28664485 -0.035748307 -0.25803715 0.2879069 0.056933966 -0.1175079
-0.26945603 0.096416034 -0.39013165 0.10724847 0.20261426 -0.35754558 -0.26777792 -0.29323182
0.34264988 0.34639776 0.024945652 0.38386405 -0.1369852 -0.39641988 0.14294173 0.1452274
0.3993458 -0.0013972194 0.3129115 0.24937253 0.29467583 -0.40418294 0.3359782 -0.34966552
0.36530438 -0.017121322 -0.36278722 0.11451725 -0.08233782 -0.36682484 -0.14968915 0.04126431
0.3193558 -0.12555367 0.24210367 0.052068017 0.011789995 0.07650961 -0.26901844 -0.34042713
-0.12973 -0.38092524 -0.19081181 0.018501777 -0.2682861 -0.16970874 -0.07239941 -0.046675492

gat1.att_dst f4 [1, 4, 32]
00000000: acb2 66be e633 a03c cd68 6abd 01e9 ee3d
00000010: 9e66 963c 55c1 50be 3ed6 0fbe 0aa3 99bb
00000020: 4170 82be c412 033d 23c0 ecbc cf2a 223e
00000030: 31dc c53d 556b 9c3e c0d7 5cbc d481 9abe
00000040: 2ad9 3a3e f94e 8dbe 47ce 65bd 495d 07be
00000050: 3e97 1ebe b2bc 1abe ff09 c03e 334d 6f3e
00000060: c7d4 e73d 8639 c43e c176 bdbe db0d 873d
00000070: b8d7 853e 88d6 8a3e 445d a6be a5c3 143e
00000080: 9ceb 6dbe d89b 84bc 3911 aebd cf69 aebe
00000090: 5441 c7be 0265 89be 3197 3d3e bffa 3e3e
000000a0: f1e9 b5be f7c1 1cbe 881e d43b e599 b4be
000000b0: 4747 6b3e 2648 bd3e 645c 943d 5433 9bbe
000000c0: 4165 c33d 4c06 183e ec98 a53e 39a2 5ebe
000000d0: c138 bbbe fc68 373e 7119 d23c c869 08be
000000e0: dce9 2ebe 35c8 57be 841c a93e 5fc7 90bd
000000f0: f1a5 963e 218f ba3e 90da 523d 3da0 b13d
00000100: f55d dabc 3a42 903e ce3d bcbe e5c2 243e
00000110: cc4a 89bd ea22 3e3e cdaf b9ba 6bac 1bbe
00000120: cd54 33bd f873 613e 5015 91be 9177 84be
00000130: d215 babd ce1e 16be d924 243e d18a 8d3e
00000140: d444 31bd 69b8 c43e c50f 2dbe c716 6abe
00000150: 7006 3dbe ec78 90be cfb2 91be 9493 babe
00000160: 77f4 b8be 5ab7 da3d 3a21 803e 4d8f c33e
00000170: f8c0 b23e 2347 bfbc e79b a13d be3e 7bbe
00000180: 82aa 213e 2162 c8be 5040 453e 4f5d 993d
00000190: 4988 003e c7ff 183e 92e1 3fbe e366 b33e
000001a0: 5d74 473e e047 893e af1e 5d3d 873d 833e
000001b0: 61b1 8c3e be87 3d3e 1742 9f3e 06be 97bd
000001c0: 5167 893e ecbe c03d 9379 7b3e 588f cb3e
000001d0: 1978 bd3d 971b 1bbe f51e 26bd f289 eb3d
000001e0: 571e 8d3d 387b e4bd bebe a33e 881a 7b3e
000001f0: 2ece 81be 287e 08bd 59db 20bd c9f8 82be
-0.22529095 0.019555997 -0.057228852 0.11665536 0.018359479 -0.2038625 -0.1404657 -0.004688625
-0.25476268 0.03200032 -0.028900212 0.15836643 0.09661139 0.30550638 -0.013479173 -0.30177176
0.18246904 -0.27599314 -0.056104925 -0.13219179 -0.15487382 -0.15111044 0.37507626 0.23369293
0.11319881 0.38325137 -0.37004665 0.065944396 0.26141143 0.271168 -0.3249303 0.14527757
-0.23234409 -0.016187593 -0.08499379 -0.340651 -0.3891703 -0.26834875 0.18514706 0.1865034
-0.35530046 -0.15308367 0.006473366 -0.35273662 0.22976409 0.36969107 0.072441846 -0.30312598
0.09540797 0.14846152 0.32343233 -0.2174157 -0.36566737 0.17911142 0.025646897 -0.13321602
-0.17081398 -0.21072467 0.33029568 -0.07069277 0.29423478 0.36437324 0.05147797 0.08673141
-0.02665613 0.28175527 -0.36765903 0.16089971 -0.067037195 0.18568006 -0.0014166773 -0.15202491
-0.043782044 0.22016895 -0.28336573 -0.25872472 -0.09086193 -0.14660189 0.16029681 0.2764497
-0.04327853 0.38421944 -0.16900547 -0.22860251 -0.18459487 -0.28217256 -0.28456733 -0.36440718
-0.36124012 0.10679503 0.2502535 0.38195267 0.34912848 -0.02334935 0.07891064 -0.24535653
0.157877 -0.39137366 0.19262815 0.074885 0.12551989 0.14941321 -0.18738392 0.35039434
0.19477983 0.2681265 0.05398434 0.2563288 0.2747908 0.18508813 0.3110511 -0.07409291
0.26836637 0.094114155 0.24558096 0.397578 0.092514224 -0.15147243 -0.040556867 0.1150092
0.068905525 -0.111563146 0.31981462 0.2452184 -0.25352615 -0.033323437 -0.039271686 -0.25580433

gat1.bias f4 [128]
00000000: 8e9e 2b39 9715 d639 39a7 a9b9 b89b 20b9
00000010: 09ab 8839 216a 1b38 69b0 2239 9c18 8cb8
00000020: 1c17 8438 2ef3 ae39 dd00 d1b8 114e 9038
00000030: eebb e237 8e79 92b8 ba4c 1cb8 8bd0 3639
00000040: cfb9 8db8 ed81 29b9 f387 3538 b292 f6b8
00000050: 7607 8d37 1395 02b9 7624 ef37 e5f8 2539
00000060: 4c62 9637 70e6 9e37 5c7c 7c39 0df6 2b39
00000070: 04c6 4239 2e62 b4b8 1221 3138 0888 deb8
00000080: f976 8638 dc25 82b9 b554 2f38 ff93 42b8
00000090: 3ce8 67b9 aa50 28b8 21ef 8538 8f16 fe36
000000a0: ecf9 e8b8 e973 8938 9541 13b9 c9ec c838
000000b0: acb8 f638 9d03 00b9 afa3 35b9 8322 9bb9
000000c0: c094 aa36 09f5 24b8 1bcd cf38 f27b 1039
000000d0: c415 1ab4 7f59 8438 c314 2838 099a f538
000000e0: dc99 82b9 4fe1 1fb5 9543 6339 5997 5fb9
000000f0: 5d1f ccb8 d7d8 a038 355e 88b7 9bd0 03b9
00000100: fb46 b536 1c43 2cb8 3166 cd39 7f15 b038
00000110: cec5 23b9 253c 0cb9 0d98 11b8 b6d5 e437
00000120: ab0c f8b8 13b9 2639 f1b9 a838 92d5 a1b9
00000130: 9fce 9b38 2176 87b9 5511 f7b7 4366 0839
00000140: 2354 b138 dc5f 41b9 3515 03b9 3f71 fbb7
00000150: 8288 72b8 e390 e9b7 6fac 9138 b00f c9b9
00000160: a67f aab8 ccc3 d2b8 b0f4 8139 ebdb c1b8
00000170: e6ee 6738 4367 ac39 e9d4 cb38 41fd 3a38
00000180: 4860 ad38 bfd7 6cb8 c4ff 36b9 cfd4 7db9
00000190: cde4 6a38 94ab 0136 fe2d 3c38 3df5 1ab9
000001a0: fd86 51b8 4728 9539 d6d2 d4b6 0a79 10b9
000001b0: cb36 1738 6dab 02b9 98c6 33b8 8a97 1738
000001c0: 5452 91b8 ffd3 5639 4451 a6b9 eda9 3039
000001d0: 420e 4d38 047d 30b9 987c 61b9 16f2 7438
000001e0: 2168 fbb8 b66b 59b8 b62a f137 cd22 8db7
000001f0: 1072 96b8 d38d 8f38 5bc0 0539 a834 46b9
0.00016366897 0.00040833346 -0.00032358782 -0.00015316799 0.00026067373 3.705372e-05 0.00015515242 -6.680304e-05
6.298555e-05 0.0003336905 -9.9660574e-05 6.880996e-05 2.7028811e-05 -6.984464e-05 -3.7264756e-05 0.00017434561
-6.7580135e-05 -0.00016165497 4.3280375e-05 -0.00011757518 1.6811984e-05 -0.000124533 2.8507999e-05 0.00015828347
1.7927166e-05 1.8942374e-05 0.0002407892 0.00016399492 0.00018575048 -8.601356e-05 4.2230888e-05 -0.00010611123
6.411778e-05 -0.0002482374 4.180214e-05 -4.6391036e-05 -0.00022116391 -4.0129446e-05 6.3864754e-05 7.572416e-06
-0.00011109174 6.554259e-05 -0.00014043444 9.580848e-05 0.00011764592 -0.00012208377 -0.00017322482 -0.00029589617
5.0837116e-06 -3.9328854e-05 9.908733e-05 0.00013779083 -1.4350286e-07 6.3109204e-05 4.0073657e-05 0.00011711202
-0.00024910166 -5.9559983e-07 0.00021673583 -0.00021323319 -9.73332e-05 7.669784e-05 -1.6256332e-05 -0.00012570845
5.4024836e-06 -4.1070496e-05 0.00039176786 8.396338e-05 -0.0001561858 -0.00013373846 -3.4712302e-05 2.7279235e-05
-0.00011827921 0.00015899939 8.0454985e-05 -0.00030867435 7.429462e-05 -0.0002583722 -2.9452765e-05 0.00013008066
8.4556894e-05 -0.00018441625 -0.00012501034 -2.9974266e-05 -5.782443e-05 -2.7843233e-05 6.946257e-05 -0.00038349396
-8.130008e-05 -0.0001005005 0.00024787104 -9.24392e-05 5.5297183e-05 0.00032883332 9.719452e-05 4.4581717e-05
8.2672166e-05 -5.6467714e-05 -0.00017452153 -0.00024207238 5.6003035e-05 1.932237e-06 4.4865526e-05 -0.00014777943
-4.99552e-05 0.00028449504 -6.342637e-06 -0.00013778 3.6052235e-05 -0.00012461627 -4.286188e-05 3.6142337e-05
-6.9294736e-05 0.00020487605 -0.00031722535 0.0001684797 4.8889087e-05 -0.0001683124 -0.00021504087 5.8399593e-05
-0.00011988008 -5.1837145e-05 2.8749328e-05 -1.6824715e-05 -7.173803e-05 6.845188e-05 0.00012755526 -0.00018902367

gat1.lin.weight f4 [128, 5]
00000000: 9fee 373d 510e 4dbe 0a61 3d3e 3dc1 083e
00000010: 47c8 53be 9ec5 d1bd e75e 8f3d ad3d 31bd
00000020: 9ab5 bcbc 8f1d c0bd f50c 303e da9c f6bd
00000030: e5cd 323e f34a 7b3c 7452 293d be56 293e
00000040: 5ba3 0ebd 7303 f8bd bb19 0cbd 50a0 2f3e
00000050: 2380 23be 23f4 3f3d 608a 53be 07fe e63d
00000060: 3e1b a63d 38dc 063c 10d2 bd3d dff4 8aba
00000070: ed01 f33d 6a41 2abe de0c ffbc 8368 c23d
00000080: 7c72 573e 9691 dc3d abeb 1fbe 085e 273e
00000090: 8d60 46bd 8477 37bd bdf6 44be e83a 0dbd
000000a0: 87c8 193e 1882 ff3c 6294 fcbd f364 823d
000000b0: 89ac 90bd 08f4 463e 5086 3bbe c6e8 8abd
000000c0: 7bd4 52be cb25 b0bd c805 863d f619 513e
000000d0: 4c77 173d eab6 553e 3d1b 353d da3e fc3d
000000e0: afd2 2c3e dd0f 373e 064c f2bd e3c4 473e
000000f0: 5c9e 043e f234 c8bd f797 d2bd 7cf1 35be
00000100: 1258 573d 230a 2fbe c707 b73d 5f56 8a3d
00000110: c7a0 3ebe 7b12 6a3d 85c7 8abc ae63 c63d
00000120: e036 f93d 41fe 56be 6374 483e 0e7a 373e
00000130: 30af ac3d 6dea 45be 0280 9ebd c579 83bd
00000140: 6c90 64bd 236a f63d 2c0d a13d e15e 2a3e
00000150: 876c a6bd 7f68 913d 54f8 993d 45ee 34be
00000160: bc91 52be 9f05 e5bd 4a8a 153e ac4f 4ebe
00000170: 55ab 3bbe 8009 f13d fd98 ef3d 2e3e 333e
00000180: c630 22be 6256 21be 2c6e e13d e7cb 3a3e
00000190: 7ae1 003e 07b9 073d eb9f 903d 0343 4e3e
000001a0: 1214 0fbe 440e c7bd 049a 153e ab3b 15be
000001b0: 86bb ebbd 0b58 213e 80ba 893d 6c5a 8f3d
000001c0: 6086 b9bd 5f4f 74bb 1acd 453e 294e 02be
000001d0: 5ad1 6f3a e477 d03d 188a 15be 0900 523e
000001e0: 05af d7bd 91ea 4abd 9540 73bd 7849 0bbe
000001f0: 6552 58be 4f4b f63d 9192 5f3d 35a1 4cbe
00000200: 1b20 0abe 9153 593e feb9 a53d dbb1 af3d
00000210: add7 03be de3c bbbd 299f f3bc 48ce 23bd
00000220: 0748 14be 40f8 9a3c 13af a13c 042f d2bc
00000230: 557f ed3c 6f6a aabd a7c6 613d c0cf a43d
00000240: f698 eabd fb12 59be 09d2 e23d d0a6 503d
00000250: 5cce dbbd 5a8d 503e 1b94 c6bd dd4d 123e
00000260: 75e8 dd3d 944a 35be 6fbe 0d3e db57 49be
00000270: e522 f0bd 5114 10bd 37f0 12be a64a 523e
00000280: 4770 32bd 11f8 a83d 02a8 41be a979 fe3d
00000290: 0756 82bd 23ef 25be 2687 ff3c be47 d33d
000002a0: 1c98 3b3e b785 03be 1b21 d4bd 55ef 243d
000002b0: 932b 6a3d f7d6 aa3d ac2f f03d 6e34 49bd
000002c0: 42cc f13d 4817 203e f79f 5cbd 6f26 1d3e
000002d0: f88d d73d ca47 3e3e 0130 f5bd c2f7 d8bd
000002e0: e780 81bd 2bb5 2e3c 0667 043e 5c13 f6bd
000002f0: b5fc d53d 388b 9ebd aae4 023e 25b3 24bc
00000300: a8b0 3dbe 177e f0bd 5507 1fbe c13f d83d
00000310: 39a2 11be ff84 92bc f198 3b3d 8899 f1bd
00000320: c929 7a3d f3ad 54be a25b 1bbe 9335 45be
00000330: c5e6 86bd 98a5 9ebd ef1e f83c 9168 1ebd
00000340: 4e49 c93d b803 493e 2ef4 983d 6bb0 aabd
00000350: b14c 4cbe e4c4 a03d 59e3 d3bd 29fa de3d
00000360: 7c41 103e 810b a83d 2577 4c3e f3d7 4d3e
00000370: 5a09 403d 2c2b 20be 17f1 403e fb99 ccbd
00000380: dae0 cbbd 36aa 363e 670d 293e 4500 823d
00000390: 5601 5f3c 5744 36be 8f7a bcbc 43f7 4f3e
000003a0: de19 613d dff5 903c e4bb 30bd 8912 9abd
000003b0: c916 013e 6c8f 683c f133 0d3e b507 11bd
000003c0: b733 bc3d 244d b03d e534 113d f51e 093e
000003d0: d2f7 083e f646 493e c7c8 273e 48ae 61bd
000003e0: a740 37be 472b 253d 3466 14bb 98f7 5fbd
000003f0: 47e3 14bd 7b00 373c 67d1 1e3e 4f64 893d
0.0449053 -0.20024993 0.18494049 0.13354965 -0.20681868 -0.102427706 0.07000523 -0.04327171
-0.023035813 -0.09380638 0.17192443 -0.12041636 0.17461355 0.0153376935 0.0413384 0.16536996
-0.034823757 -0.12110033 -0.034204226 0.17150998 -0.15966849 0.046863686 -0.20658255 0.112789206
0.08110665 0.008231215 0.09268582 -0.0010601542 0.11865602 -0.16626516 -0.031134065 0.0949259
0.21039766 0.10769956 -0.15617244 0.16344464 -0.04843192 -0.044791713 -0.19234748 -0.034480006
0.15017901 0.031189963 -0.12332989 0.06366911 -0.070641585 0.19429028 -0.18312955 -0.06782679
-0.20588867 -0.086009584 0.065440714 0.2042006 0.036979005 0.20870557 0.04421543 0.123166755
0.16877244 0.17877145 -0.118309066 0.195087 0.12951034 -0.097757235 -0.10282891 -0.177679
0.052574225 -0.1709371 0.0893703 0.06754755 -0.18616019 0.05714653 -0.016940841 0.09686981
0.1216867 -0.20995428 0.19575648 0.17917654 0.08431852 -0.19327708 -0.07739259 -0.0641971
-0.055801794 0.12031963 0.078638405 0.16637756 -0.08126169 0.07100009 0.07518068 -0.17669018
-0.20563406 -0.11182713 0.14603534 -0.2014758 -0.18327077 0.1176939 0.11699102 0.17504188
-0.15838918 -0.15755609 0.11007342 0.18241845 0.12586012 0.03313544 0.07061752 0.2014275
-0.139725 -0.09719518 0.14609534 -0.14573543 -0.11510377 0.15756242 0.06725025 0.069996685
-0.09058833 -0.0037278754 0.19316521 -0.12725128 0.0009148322 0.10179117 -0.1460346 0.20507826
-0.10531429 -0.049540106 -0.059387762 -0.13602245 -0.21125181 0.12026083 0.054583136 -0.1998337
-0.1348881 0.21223284 0.08092116 0.08578845 -0.12875243 -0.09142469 -0.02973898 -0.039991647
-0.14480601 0.018917203 0.019736802 -0.025657184 0.02899138 -0.08321082 0.05512109 0.08047438
-0.11454956 -0.21198647 0.11075217 0.050940335 -0.10732719 0.20366421 -0.096962176 0.14287515
0.10835353 -0.1770423 0.13842176 -0.1966242 -0.117254056 -0.035175625 -0.14349447 0.20536289
-0.043564107 0.0825044 -0.18911746 0.124255486 -0.06364065 -0.16204505 0.031192373 0.10316418
0.18319744 -0.12843977 -0.10357877 0.040267307 0.057170462 0.083417825 0.11727843 -0.049122266
0.11806537 0.15633881 -0.053863492 0.15346693 0.10525125 0.18582073 -0.11972047 -0.10594131
-0.06323414 0.010663311 0.12929925 -0.12015411 0.10448591 -0.077413976 0.12782541 -0.010052477
-0.1852442 -0.117428 -0.1553014 0.10559035 -0.1422204 -0.017885683 0.045800153 -0.11796862
0.061075006 -0.20769481 -0.15171674 -0.19258718 -0.065869845 -0.07746428 0.030288188 -0.03867394
0.09828435 0.19630325 0.074684486 -0.0833443 -0.1995113 0.07850054 -0.103460975 0.10887558
0.1408748 0.08205319 0.19967325 0.2010191 0.04688392 -0.15641469 0.18841968 -0.09990307
-0.099549964 0.17838368 0.16509019 0.06347708 0.013611158 -0.17799507 -0.02300766 0.20309167
0.05495631 0.017695365 -0.043147936 -0.075230666 0.12606348 0.014194351 0.13789345 -0.03540774
0.09189551 0.086084634 0.035450835 0.13390715 0.13375786 0.19655976 0.16385184 -0.05509785
-0.17895757 0.040324476 -0.0022643926 -0.054679483 -0.03634956 0.011169548 0.15509568 0.067085855

sage1.lin_l.weight f4 [128, 128]
00000000: e265 963d e29c d4bc ce18 073d 1601 9b3c
00000010: cbbb 66bd 1af4 77bd e74f 5e3d a3ce 24bd
00000020: 9c95 863d 1878 4f3c 1980 083c 7644 623d
00000030: c317 e7bc 5505 cdbc 92e6 023d 4f48 a03c
00000040: b031 2a3d 11e2 793d acac 9b3d fa53 523d
00000050: 9d91 47ba eac6 9bbd 9183 06bd 3779 ffbb
00000060: 749a 103c c77e 54bd e325 02bd aa0a 803d
00000070: 12a6 4fbd 9cb3 bf3b 5286 9d3c 6191 f43b
00000080: 6744 193c 8706 a13d 7600 853d 9753 5a3d
00000090: 7040 f9bc 7cb2 88bd 46e3 7d3d d5d6 7dbd
000000a0: bab5 3cbd fe65 49bd 656c baba b2a2 b43c
000000b0: 66d2 083d f7a9 9b3c 0ff1 97bd 5b45 c93c
000000c0: 184c 58bd 085e 323d 40ef 90bd 4712 6d3c
000000d0: 1400 b1bd c787 873d bf05 113d e7a1 abbb
000000e0: 83db 86bb 8775 83bb bb34 74bd 22f2 7abd
000000f0: decb 273b a6f9 743d 6324 283d 4345 663d
00000100: 5b4b 8d3d 0037 033d 0dba 70bd b7c9 b83c
00000110: 393e 3bbd aa41 6ebc 7c87 54bd 46f5 2c3d
00000120: 18cd 47bd 671f 633d 8abb 153d 5d18 3f3d
00000130: 145a 533d f7b7 813c dfd0 1cbd 563a 1c3d
00000140: 2f42 903d 2ce4 6c3d 8b90 70bd eefd 0e3d
00000150: 6392 00bd 66d4 943d 0741 0dbd 291c 71bc
00000160: 25a5 f13c 4fa5 9dbd 4904 903c a8f6 403d
00000170: 6a3a 7bbc 7edb aabd 9c0f b2bd 442d 84bd
00000180: 28dd 9abd 094e 223d fe10 cbbc b5b9 c3bc
00000190: 0366 7a3d 86ef 803c ff00 81bd 778b 8b3c
000001a0: 0db0 173d 2673 2abd 9f94 893c f51e 0abd
000001b0: e610 9cbd 343d 5fbd 4c9c 42bd 188e 4c3d
000001c0: 2a28 9d3d e986 7dbd 2fa1 503d 276b 09bd
000001d0: 731d 59bc 6b04 de3b 9b20 c33c 3e7b 813c
000001e0: b8ab a8bd a587 9f3c 3bc6 b3bd 7f1b ad3d
000001f0: 7826 b13d d720 a4bd 0009 303d e2d5 7c3d
00000200: 92d0 55bd 8805 a63c 7a2c 22bd c60a 83bd
00000210: aab6 24bd 71fe 1ebd 9987 77bd 71ad f7ba
00000220: 1e26 ac3d b50e ad3c b9b2 a8bb 93f1 aebd
00000230: afdd 1c3d 70fb a53d 44cc 16bc fc1c a83d
00000240: 1efc ab3d ce81 043d a126 a4bd 06ea c4bc
00000250: dc34 abbc 913b b6ba bbf2 18bd 86c0 f6bc
00000260: b2b3 dabc 6132 32bc 80be 94bd ef62 46bd
00000270: 820a c93c 0ce8 8e3d a0ac a33d 5427 823d
00000280: 6f89 b4bd 5732 53bc 44bc 09bd 6e35 223d
00000290: 99f0 b43d ba62 683d 9522 663d d616 47bd
000002a0: 6bab 9b3d 3b6b 81bd a4cc 88bd ab77 103d
000002b0: 7171 923d c4e5 4c3d 76a7 b3bd 2f28 3e3d
000002c0: 6082 04bd 37c8 af3c f737 2abd de12 40bd
000002d0: 9521 adbc b305 323b 1433 2a3d 9806 2bbd
000002e0: 67ba 20bd c7f1 4e3d b4f5 14bd bd9e 7dbd
000002f0: 604e 9d3b 201e 193d d0ad 0cbc 4de3 8b3b
00000300: d64f 9e3d daf2 0b3d 6007 cf3a d001 853d
00000310: d768 6ebc 3d27 29bd 5626 fa3c 6842 83bd
00000320: 9fbf d33c 710f 263d 365a 3d3d ab1e 8e3c
00000330: 6de9 633d 3651 613d 52f4 463d 51a2 87bd
00000340: b795 703c 9da7 3b3d 6788 903d ec2f a53d
00000350: 7755 a2bd 5c47 a03d 290c ac3c 638c 3fbd
00000360: 389a 9cbd dbdb 113d 8457 853d d2c2 843d
00000370: cd62 403d eb8f 90bd 71be a9bd 9b67 83bc
00000380: 4e05 23bd f75f 58bd e509 a8bd 73f3 0b3d
00000390: 69e1 f63c e823 1c3d fd6b 49bd 7bd9 5ebd
000003a0: f7bf bd3b 225d 593d 396d 103d 6b45 d43c
000003b0: 30ce c9bc f299 7a3c 47ed e1bc 88f1 6f3d
000003c0: 1050 823d 3d2c 0f3b 71ce d7bb 2da9 a03d
000003d0: 606a 6bbd 96a0 153a 2917 883c 6dfa d8bc
000003e0: 0918 0d3a 4162 5cbd 54eb a33b e3d9 453d
000003f0: 20ba 6d3d a571 893d fb6a 1d3d 14be a93d
0.07343651 -0.025953714 0.03298264 0.018921416 -0.056331437 -0.060535528 0.05427542 -0.040236127
0.065715045 0.01266291 0.008331322 0.05524107 -0.028209573 -0.025026957 0.03195817 0.01956573
0.041551292 0.06100661 0.07601294 0.051349618 -0.00076129456 -0.07606299 -0.032840315 -0.0077964324
0.008825887 -0.051878717 -0.031774413 0.06252034 -0.050695486 0.0058502685 0.019229088 0.0074636196
0.009354687 0.07862573 0.064942285 0.053302374 -0.030426234 -0.06674668 0.061984323 -0.061972458
-0.046071745 -0.049169533 -0.0014222978 0.022050235 0.033403777 0.019001944 -0.07419025 0.024569204
-0.052806944 0.043546706 -0.07076883 0.01446969 -0.08642593 0.06617694 0.03540587 -0.005237806
-0.0041155233 -0.004011813 -0.0596206 -0.061266072 0.0025603692 0.059808396 0.041050326 0.056218397
0.068991385 0.032034874 -0.05877118 0.022557123 -0.045713637 -0.014542023 -0.05188702 0.0422261
-0.048779577 0.05544987 0.036555804 0.046654094 0.051599577 0.015834792 -0.038285132 0.03814157
0.070438735 0.05783479 -0.058731597 0.034910135 -0.031389605 0.07267074 -0.034485843 -0.014716187
0.029497692 -0.07697546 0.017580168 0.04711023 -0.015333751 -0.08342646 -0.086943835 -0.06453946
-0.075617135 0.0396252 -0.024788376 -0.023892263 0.061132442 0.015739214 -0.06299018 0.017034275
0.03703313 -0.04161372 0.0167945 -0.03372093 -0.076204106 -0.054501727 -0.047512338 0.0499402
0.07673676 -0.06189624 0.050934967 -0.033549454 -0.01325165 0.006775429 0.023819258 0.015805837
-0.08235878 0.01947386 -0.08778044 0.0845251 0.086499155 -0.08014076 0.042977333 0.061727412
-0.05220086 0.02026631 -0.039593197 -0.06398539 -0.040213265 -0.038816873 -0.06043205 -0.0018896294
0.08405708 0.021125177 -0.0051482585 -0.085421704 0.03829735 0.081045985 -0.009203974 0.08208653
0.08397697 0.032350354 -0.080151804 -0.024037372 -0.020899229 -0.001390325 -0.03734086 -0.0301211
-0.026697014 -0.010876269 -0.072628975 -0.048434194 0.024541143 0.06977853 0.0799191 0.063551575
-0.08815276 -0.01289042 -0.03362681 0.039601736 0.08834953 0.056734778 0.056185324 -0.048605762
0.07601055 -0.06319281 -0.06679657 0.035270374 0.071505435 0.05002381 -0.08772175 0.04642504
-0.032350898 0.021457775 -0.04155728 -0.046892993 -0.021134177 0.0027164042 0.04155262 -0.041754335
-0.039240267 0.050523546 -0.036367133 -0.061918963 0.004800603 0.037382245 -0.008586362 0.0042690397
0.07730071 0.03416715 0.0015795045 0.06494486 -0.014551363 -0.041297186 0.030535858 -0.0640915
0.025848208 0.04054207 0.04622861 0.017348608 0.055642534 0.05500909 0.048572846 -0.06622756
0.014684132 0.045814145 0.07057267 0.08065781 -0.079264574 0.07826111 0.021001892 -0.046764743
-0.076466024 0.03561006 0.06510833 0.064824715 0.046969224 -0.070587 -0.08288277 -0.016040614
-0.03979998 -0.052825894 -0.08205012 0.03416772 0.03013678 0.03812018 -0.04917525 -0.054406624
0.0057907063 0.053067334 0.035260413 0.025912007 -0.02463445 0.0152954925 -0.027578963 0.05857995
0.06362927 0.0021846436 -0.006585889 0.07844768 -0.057474494 0.0005707828 0.016612606 -0.0264866
0.00053823047 -0.05380464 0.0050024185 0.048303496 0.05803883 0.06711129 0.038432103 0.08288208

sage1.lin_l.bias f4 [128]
00000000: b0f2 44bd a9ee b5bd ecfb dabc e389 0b3c
00000010: 7bfe d83b 8d1e 783a c483 b6bd 471b c1bc
00000020: b1a5 48bd 872b a5bc 8704 49bd f47f 1cbb
00000030: 3391 81bc d9a4 a8bd 8272 1b3d 9a08 de3c
00000040: 235d c23c 7d7a 0d3d 6ab0 70bb ade4 893c
00000050: 8882 aebd 6e1d 6b3d db7d 8e3d 6b49 14bd
00000060: 8224 983d 44ec d3bc a447 0f3d 7f61 0abd
00000070: 44bb 46bd b463 3ebd 67bf 733d d7f5 e4bc
00000080: b06e 8ebd dbe7 263c 78f4 5bbd 218d 68bd
00000090: 7444 4bbd e00c 59bd 0a31 6cbd 102f 063d
000000a0: e5de f7bc d27d ae3c 9bdd 993d a122 b43c
000000b0: 37bd b23d e9a5 913d 60db d53b e292 303d
000000c0: 6f5e ad3d 47c0 81bd 34a5 63bd 5240 833d
000000d0: d909 353d fa27 d03c 7310 5a3c 6018 4abd
000000e0: 170d 0e3d 9ba8 f7bb 57f4 5f3b 37f8 9f3d
000000f0: 5b67 363d 51b2 3339 f542 9bbc 375b 5cbd
00000100: dd90 1c3d 058d ae3d 01b6 34bd bec4 7dbd
00000110: c5e5 693d 4989 9cbd 1663 a53d 7647 193c
00000120: 2893 9f3d 9a7e d33b 2d1e cf3c 9c0f a7bd
00000130: 1ccc 5fbc e3d4 883d fb74 10bd 0e79 953d
00000140: 0850 4abc 8b3d 39bd 183a 33bd 002e 8abd
00000150: 6e8f e63c a16a 45bd fc1a 193d bb08 c0bc
00000160: 2e16 3e3d 694f 823d e58c 87bd e226 5dbd
00000170: 3bf3 783d 00f2 c5bc bfa7 97bd f018 4bbd
00000180: 324d acbd 06c6 67bd 537b c03a fe8b 813d
00000190: 6ce4 843c 4b18 0b3c 81b6 a6ba 6b5e 56bd
000001a0: fe42 2a3d 5e10 713d 6795 e93c 9bd0 973d
000001b0: 5735 b13d 78b3 223c 4a54 49bd e6c6 843d
000001c0: ae91 113c 35cc 99bc 44a2 0fbc be23 4b3c
000001d0: 8094 2ebd a968 583d 830b 8abd 9255 bf3b
000001e0: 5622 afbd bbf9 073d 4bc6 29bd d57b d5bb
000001f0: a018 8b3d 64fb 6b3c a5bf 773b df33 0e3d
-0.048083007 -0.088834114 -0.026731454 0.0085167615 0.0066221333 0.00094650016 -0.08911851 -0.023572577
-0.04898614 -0.020162357 -0.049076583 -0.0023879977 -0.015816307 -0.08234567 0.037951 0.02710371
0.023726052 0.034540642 -0.0036726245 0.016832674 -0.085209906 0.057401113 0.06957599 -0.03620283
0.07428838 -0.025869496 0.03498043 -0.033784386 -0.048518434 -0.046481803 0.059508707 -0.027949257
-0.06954706 0.010187115 -0.05369994 -0.056775216 -0.04962583 -0.052990794 -0.057663955 0.032759726
-0.030257652 0.02130023 0.07512971 0.021989169 0.08727496 0.07111723 0.0065263957 0.04310883
0.084652774 -0.06335502 -0.05557747 0.064087525 0.044198845 0.025409687 0.013309586 -0.049339652
0.034680452 -0.007557941 0.0034172738 0.07811015 0.04453216 0.00017137198 -0.018952826 -0.053797927
0.03822409 0.08522991 -0.044118885 -0.061955206 0.05710389 -0.076433726 0.0807554 0.0093554165
0.0779174 0.006454301 0.025282944 -0.08157274 -0.013659503 0.0668123 -0.03526781 0.0729848
-0.0123481825 -0.045224708 -0.043756574 -0.06747055 0.028144564 -0.048197392 0.03737925 -0.023441663
0.04640787 0.063628025 -0.066186704 -0.05399216 0.060778838 -0.024163246 -0.07405042 -0.04958433
-0.08413161 -0.056585334 0.0014685191 0.063255295 0.016222201 0.008489679 -0.0012719185 -0.052336138
0.041567795 0.0588535 0.028513623 0.07412835 0.08652752 0.009930484 -0.04915265 0.06483249
0.00888483 -0.018774131 -0.0087667145 0.012398658 -0.04262209 0.052834187 -0.06740477 0.005839058
-0.08551471 0.033197146 -0.041448873 -0.006515006 0.06791806 0.014403198 0.0037803438 0.034717437

sage1.lin_r.weight f4 [128, 128]
00000000: 7f48 d53b 212b 6f3d b66a f93b 1335 603d
00000010: 4c44 673d 75f3 51bc 4855 973d 02d4 963c
00000020: a26b 833d 7586 a5bd 2dcf adbd f0c8 b93c
00000030: 9130 f33c 00cd 06bd 6c20 c5bc c7e1 b03c
00000040: 5623 a13d 2f48 ac3c db13 923d 9816 9b3d
00000050: 476f dc3c 247b b53b 4ab1 d2bc 9ef4 84bd
00000060: 0a0d 543d 57f4 abba 2d2e 14bd 1a34 b7bc
00000070: afe8 50bd 7c94 0ebc cd61 4a3d af2a 8e3d
00000080: 33cb 6ebd 64f9 5e3c 30a4 14bd d8e7 adbd
00000090: 3b86 4c3d fb36 8f3d 5d5f 9b3d e33e 9e3d
000000a0: dc41 ebbc ff7b 8b3c 7fa0 f03c a0fa 81bd
000000b0: 3e25 a23d 76e9 96bd 73eb 563b da00 f3bc
000000c0: 3605 173d 9743 8d3d 9f0d d83b 669a 1ebd
000000d0: 3463 8d3d c279 afbd 7b27 00bc d55e a3bd
000000e0: 603d 92bb c613 843d 4274 2e3d 4948 2dbd
000000f0: 5d8e 2abd c480 fb3c 3538 63bd e54e 9cbd
00000100: ea30 8c3d 3e95 d73c aa13 8fbd 1674 a8bd
00000110: 982c f83c 2c11 e1bc e978 46bd 4ea3 b53d
00000120: f965 353d e5b2 8f3d 074f 623c fb40 08bb
00000130: 75ed 75bd 8118 103d 7125 d1bc 8bfb 16bc
00000140: e1bd 823b 4b60 873d e9e1 013d e757 adbd
00000150: 7bba 583a d8f6 823d 0eac a3bb 67fc 9c3d
00000160: 6e81 16bd 42a7 7fbd 9c2d a13d 776d 02bd
00000170: 3717 833d 095f 8a3d 76d2 74bd 7130 a3bd
00000180: b1dd 36bc 5e7d 4fbd 88b2 803d 1b03 343d
00000190: 67b1 9b3d 196e 2bbd f827 913c 17a8 0d3a
000001a0: a6e5 84bd cde8 29bd 5410 1e3d f9fc b83b
000001b0: c601 a03d bb6b 9b3b a69a de3c 4562 f83c
000001c0: d8c7 79bd 37c7 8bbd 4c41 63bd 5301 00bd
000001d0: 731a dc3c 8135 42bd 02a9 92bd 2619 e2bc
000001e0: 89c4 9dbd 75a3 e2bb 6dde a9bd 4457 21bc
000001f0: 7ff0 8ebd 69e3 a3bd 688b 833d f2f8 ae3d
00000200: e8eb 73bd 1b4f 5f3c 3924 93bd d3ad 82bd
00000210: 861b a5bd 8db7 87bd c04f b43d 1770 c93c
00000220: e2c4 193d 9eac 49bd 28a1 0b3d a332 053d
00000230: 70e4 e13c d84a fa3b 4076 29bd 9f5b fc3c
00000240: 7fb7 8c3d bd50 8ebc 5a50 923d 89e8 573c
00000250: bc33 a43c 74af 6e3d e83f 68bc 2bf0 a63c
00000260: b3d2 67bc f1f9 99bd a8a1 8e3b 7050 d53c
00000270: 37f8 de3b 05dd aa3c b459 98bc f588 8f3d
00000280: ddd5 9bbd 0cec 5c3a 482c 403b 76e2 063d
00000290: 6cae f5bc 6736 6c3c ae50 97bd 2241 0d3d
000002a0: 8743 d4bc 160d 703d 4a68 993d 545a 9a3d
000002b0: 8396 47bd 5536 313d 9b3c 29bd 5664 433c
000002c0: b670 fb3c fa16 9cbd cbdb afbd db89 fd3b
000002d0: 4262 503c 7635 60bd d7e6 313d 8141 6c3d
000002e0: 6556 8dbc f630 9fbd 4a1a c23c 2f6c 3cbd
000002f0: fef4 cfbb 95b5 9dbc 4d20 453d e025 b73c
00000300: d3cc 82bd f701 a3bd 6666 44bd 4c49 aebd
00000310: a2c6 a33a e3b7 1bbd 6577 febc d6a6 9ebd
00000320: 7f7f 903d 6521 53bd e099 02bd 9df0 813d
00000330: 5d05 8bbc bdfa abbc 5ac9 393d 83d1 16bd
00000340: 994e 7a3d 70ba 6abb 3639 333d 3a06 d93b
00000350: 3096 1ebd e85a 21bd ad68 003b 3af4 b0bc
00000360: 976d 613d 1c6c 633d 7e49 49bd 50ff 47bd
00000370: f2db 8abc 7b4e 933d 793b e6b8 c506 953d
00000380: 72db e63c 13eb 3d3a 3851 95bd 025d e5ba
00000390: 44c3 64bd cc4a 43bd c2c1 3b3d 53d5 50bd
000003a0: 7785 33bd 81f5 933d aeb2 22bd 4313 8cbd
000003b0: dedc ccbc cbf1 95bb bb7e 97bd 9a13 adbd
000003c0: d0f0 a2bd 1f1e 07bb d61d c7bb 44af adbd
000003d0: de22 69bd 7211 383b 3055 a2bd 8210 4bbd
000003e0: 005a 02bd 53ac aabd 184c 43bc a6b9 e0bc
000003f0: 20ff 593c 38e5 c73b 4f39 1f3d 60bd d9bc
0.0065088863 0.05839074 0.007611598 0.054738116 0.056461617 -0.012814392 0.07389313 0.01841164
0.06417014 -0.08082286 -0.08486781 0.022678822 0.029686244 -0.032910347 -0.024063312 0.021592034
0.07868068 0.021030514 0.071326934 0.07572669 0.02690853 0.005538361 -0.025719304 -0.064919695
0.051770248 -0.0013119084 -0.03617685 -0.022363711 -0.051003154 -0.008702394 0.049409676 0.06941735
-0.058299255 0.013609264 -0.036289394 -0.08491486 0.0499327 0.069929086 0.075865485 0.077268384
-0.028717928 0.0170269 0.029373406 -0.06346631 0.0791726 -0.07368748 0.0032794147 -0.029663492
0.036870204 0.06897657 0.0065934206 -0.038721465 0.06903687 -0.08568145 -0.007821913 -0.07977072
-0.004462883 0.06449084 0.04259134 -0.042305265 -0.041639674 0.030701049 -0.055473525 -0.076322354
0.06845267 0.026316281 -0.069861725 -0.08225267 0.030294701 -0.027474009 -0.048455153 0.088690385
0.0442867 0.07016543 0.013812787 -0.0020790685 -0.06004091 0.03517962 -0.025530549 -0.009215246
0.0039899205 0.06610163 0.031709585 -0.08464032 0.0008267534 0.06394738 -0.0049948758 0.076653294
-0.036744528 -0.06241537 0.078700274 -0.031842675 0.06400912 0.06756408 -0.059771024 -0.07968224
-0.011161254 -0.05065667 0.06284052 0.043948274 0.07602196 -0.041853044 0.017719254 0.00054037705
-0.064891145 -0.04148178 0.03858979 0.005645391 0.07812838 0.004743067 0.027173351 0.030320296
-0.0609816 -0.068251066 -0.055482194 -0.031251263 0.02686808 -0.047414307 -0.07161142 -0.027599882
-0.07703502 -0.0069164583 -0.082943775 -0.009847466 -0.06979465 -0.080023594 0.06423074 0.08543576
-0.05955115 0.0136297 -0.07184643 -0.063808106 -0.0806189 -0.066268064 0.088042736 0.024589581
0.037541278 -0.049236886 0.034089237 0.032518994 0.027574748 0.0076383166 -0.041372538 0.030805407
0.068709366 -0.017372483 0.07144232 0.013177999 0.0200442 0.058272794 -0.014175393 0.020378193
-0.014149356 -0.07518376 0.004352767 0.026039332 0.006804492 0.020857343 -0.018597461 0.07008544
-0.076091506 0.0008427508 0.0029323269 0.032930814 -0.029990397 0.014417267 -0.07388435 0.034485944
-0.025911106 0.05860623 0.07490595 0.0753676 -0.048727524 0.043264706 -0.041317564 0.011925777
0.030693393 -0.0762157 -0.08586844 0.007737381 0.012718739 -0.054738484 0.043433037 0.057679657
-0.01725311 -0.077730104 0.023694176 -0.04600161 -0.006346344 -0.019251624 0.048126508 0.022356927
-0.06386723 -0.07959359 -0.047949217 -0.08510074 0.001249511 -0.038017165 -0.031062791 -0.07746665
0.07055568 -0.05154552 -0.031885028 0.063447215 -0.01697033 -0.020993585 0.04535804 -0.0368209
0.061110113 -0.0035816692 0.043755732 0.0066230567 -0.03871745 -0.039393336 0.0019593642 -0.021600831
0.055036154 0.055523023 -0.049142353 -0.04882747 -0.016950581 0.07192703 -0.00010978332 0.07276682
0.028180812 0.00072448066 -0.07290882 -0.0017499032 -0.055850282 -0.047678754 0.04583908 -0.05098469
-0.043828454 0.072245605 -0.039721183 -0.068396114 -0.025007661 -0.004575943 -0.07397219 -0.08451004
-0.079560876 -0.0020617319 -0.006076555 -0.08480695 -0.056918018 0.002808657 -0.079264045 -0.04957629
-0.031824112 -0.083336495 -0.011919998 -0.027432274 0.013305455 0.006100323 0.038873013 -0.026579559

sagpool.gnn.lin_rel.weight f4 [1, 128]
00000000: 722c a5bd 9755 2d3d 6bda 513d e4f3 e2bc
00000010: cbc5 0d3d 2ec8 5a3d 4e1f 7f3d 8675 8c3d
00000020: 49f9 c7bc dc25 f9bc f5f4 743d 3813 833d
00000030: 0a87 b6bd 821d 95bd f5fc 8ebd c848 763d
00000040: cd32 af3c c08f 3ebd 020b 743c caa1 233b
00000050: 2419 933c c596 08bd c77c 103d db87 8dbd
00000060: b785 8b3c ea55 5b3d ead8 273d 696c 56bd
00000070: ecdc e9bc 6f2d a13d c760 39bd 6f9b 9b3d
00000080: 9992 90bd 1ba1 4ebd 55b4 ca3a 1354 2e3d
00000090: cc66 f3bc cca7 b9bc ae91 343d 6d70 633d
000000a0: c3b7 d43b d34e 463c 0dbb a53d 3135 153d
000000b0: 9e70 00bd 3564 abbd 9080 37bd 7004 cc3c
000000c0: f100 aebd 190a bb3b 77bc 5fbc 72d2 81bd
000000d0: b124 383d 6055 233d bb2c 9d3d f3e8 b1bd
000000e0: d603 7abd f25d 763d 3413 92bd 15a0 a33d
000000f0: f52d 863d d317 dbbc 9c6a 873d ae28 f23c
00000100: a5b1 8cbc c412 c03b 24bb b7bc 0bb7 4dbc
00000110: ea2e 8d3d 3cfb b2bd e755 2bbd cb1d 90bc
00000120: 185f 0ebd 297c 9fbd e95e ce3b 10b9 d73c
00000130: 3201 92bd f078 943c 7b77 b03c ff79 dcbc
00000140: bf36 873d c91c 463c e48a d2bc 7bef d93c
00000150: 3491 5c3d dda5 84bd 6322 d0bb df98 203c
00000160: dc28 a7bc 6c0d 043d 57a9 403b c008 8c3d
00000170: 3ae8 efbc 73ea 74bd 20cc ab3d 25ee d23c
00000180: 40cb 073a 9ed7 ad3d ddd8 81bd 2e2c ffbc
00000190: c3da 7f3d ff98 a33d 201d 8b3c c574 b23d
000001a0: de96 14bd a9ea 623d cf34 98bd c11c ae3c
000001b0: 6c99 6a3d e8e3 a73c 0f01 4b3d 9342 293c
000001c0: bdc3 1c3d 5514 b3bd 3de8 76bb 6b71 c53c
000001d0: 3bd8 323d 9729 57bc 772d 70bc d96f b0bd
000001e0: 994a 3d3d a58a 183d 16a6 f8bc 35e1 733d
000001f0: a06b 4abc 00a1 b33c 394c 1f3d 70c5 133d
-0.08065118 0.042317953 0.05123369 -0.027704187 0.03461246 0.053413562 0.062285714 0.06858353
-0.02441086 -0.03041356 0.05980392 0.0640015 -0.089124754 -0.07281019 -0.069818415 0.060128003
0.021386528 -0.04652381 0.014895203 0.002496826 0.017956324 -0.03334691 0.035275247 -0.06910678
0.017031534 0.05354873 0.04097835 -0.05234948 -0.028547727 0.07869994 -0.04525831 0.07598006
-0.07059211 -0.05044661 0.001546512 0.04256065 -0.029712103 -0.02266302 0.044084243 0.05552714
0.0064916327 0.012103754 0.08092318 0.03642768 -0.0313574 -0.08368722 -0.04480034 0.02490446
-0.08496273 0.005707991 -0.013655773 -0.063389674 0.044956867 0.03987634 0.07674547 -0.0868701
-0.061038814 0.060148187 -0.07132569 0.079895176 0.06551734 -0.026744759 0.06612131 0.029560413
-0.017174551 0.005861612 -0.022428103 -0.012555848 0.06893714 -0.087393254 -0.04182997 -0.017592331
-0.034758657 -0.077873535 0.0062979353 0.026333362 -0.07129134 0.018124074 0.021541348 -0.026913641
0.06602239 0.012091824 -0.025700994 0.026603451 0.053849414 -0.064769484 -0.0063517555 0.009802072
-0.020405225 0.032239363 0.002939781 0.068376064 -0.029285539 -0.0597939 0.08388543 0.025748322
0.0005180128 0.08488391 -0.063401915 -0.031148996 0.062464487 0.07988166 0.016981661 0.08713678
-0.03627669 0.05539957 -0.074319474 0.021253945 0.05727522 0.020494416 0.049561556 0.010330814
0.038272608 -0.087441124 -0.0037675046 0.024101933 0.043663245 -0.013132474 -0.014659277 -0.08615083
0.04621372 0.037241597 -0.030352633 0.059540946 -0.012354761 0.021927357 0.03889105 0.036076963

sagpool.gnn.lin_root.weight f4 [1, 128]
00000000: 51e2 8abd 6b59 953d e2cf 1cbc 6d2c a13d
00000010: 4760 543c 806f 98bb 7c60 46bc 6740 b3bd
00000020: a161 b43c f06c 823d 9313 dd3c ed39 97bd
00000030: d607 0abc 96b8 88bc 3741 933d 8999 10bb
00000040: 9d5e d7bc abcd a1bd 35b6 a93c ce8c 98bd
00000050: c813 5bbd 2f6f 103d ca43 70bd e50b 07bd
00000060: 3114 3c3d f433 963d 611f 713d f44b 82bc
00000070: 677b 023c 43fb a13d f62a 96bc a8d4 aa3d
00000080: 6e3e 0bbb 9c38 a63d d4a3 74bd f05e 903c
00000090: f90a 04bd fe20 a1bd 72a4 5cbd b01e 1c3c
000000a0: 1901 4dbc 7173 3dbd fd1a 9d3d 03bb 56bd
000000b0: d05d a63b e42a 663d f79d 343d 23ef a2bd
000000c0: 69cd 673d eac0 c93c 2370 97bd b279 57bd
000000d0: 55f4 8f3c c374 103d 3226 9cbd b4f2 89bd
000000e0: ce2e 773c d1f1 97bb 04e4 d93c 2722 083d
000000f0: 90f5 a0bc d647 30bd b696 983d cddf 983d
00000100: e5ac 9abd 7378 1bbc 2ce0 643d 4858 89bd
00000110: 3489 593d 40d6 06bc 30f4 a1bd 3d0b 8d3c
00000120: 35fc 4c3d 11fc b73c 1c0d 9bbd 78a2 523d
00000130: 36e7 9ebd 3580 93bd 8a7b 01bd f392 7eba
00000140: 0d61 db3c ac28 363d 4e7d b1bd c4b4 133d
00000150: 63df 153d fb69 8dbd e8d8 92bd 8830 863d
00000160: 86ea f03c 246f aabd e260 83bd 96e9 003d
00000170: a8e9 14bb 3a42 90bc ee0f 72bb 024d 01bd
00000180: ee87 6d3d df20 d5bc 1ccd 70bd 6bf3 683d
00000190: 456d 863c 3c66 a2bd 5c35 aebd f909 ce3c
000001a0: c842 95bd 35de 04bd dadf 8e3d a064 b43d
000001b0: 22f6 4ebd c7ab bbbb 24fe 033d f201 793d
000001c0: 4306 b63c 3bfe b43d 1b3e 16bd 626b b8bb
000001d0: a33b a83d b944 2abd c7ba b6bd 8565 0e3d
000001e0: 4e57 84bd dfd8 54bd 6d7e 913d e8cf 873d
000001f0: f390 453d bfeb 713d 6f27 b0bd d6e3 b93c
-0.06781448 0.07292446 -0.0095710475 0.07869802 0.012962407 -0.0046519637 -0.012107965 -0.08752518
0.02201921 0.063684344 0.026986873 -0.07384095 -0.00842472 -0.01668958 0.07190173 -0.002206417
-0.026290232 -0.07900556 0.020716766 -0.07448731 -0.05348566 0.035262283 -0.0586584 -0.032970328
0.045917694 0.07334128 0.058867816 -0.015905358 0.007963992 0.079092525 -0.018331032 0.08341342
-0.0021246928 0.08116266 -0.05972655 0.017623395 -0.032237027 -0.07867621 -0.053867765 0.009528801
-0.012512469 -0.04625267 0.07671163 -0.052424442 0.0050771013 0.056193247 0.04409596 -0.07955768
0.05659238 0.024628121 -0.07394435 -0.052606292 0.017572561 0.035267603 -0.07624473 -0.06735745
0.015086843 -0.004636981 0.026597984 0.033235695 -0.019648343 -0.043037258 0.07450621 0.074645616
-0.07552508 -0.009489167 0.05587785 -0.067062914 0.053109363 -0.008229792 -0.07907903 0.017217273
0.05004521 0.022459062 -0.0757086 0.051424474 -0.07758944 -0.07202188 -0.031611957 -0.0009711228
0.026779676 0.04447238 -0.08666478 0.036061063 0.03658999 -0.0690498 -0.07170278 0.06552225
0.029408704 -0.0832198 -0.06414963 0.031472765 -0.0022722278 -0.017609704 -0.0036935764 -0.03156758
0.05799096 -0.02601665 -0.058789358 0.056872766 0.016409526 -0.07929656 -0.08506271 0.02515124
-0.07288128 -0.032438476 0.0697629 0.08808255 -0.0505277 -0.0057272646 0.03222479 0.06079287
0.022219783 0.08837553 -0.036680322 -0.0056280354 0.082145 -0.041569445 -0.08922344 0.034764785
-0.064619645 -0.051964637 0.07104192 0.06631452 0.048233937 0.059062716 -0.08601271 0.022691648

lin.weight f4 [64, 128]
00000000: 26dc aa3d 6dbd b3bd 8fa6 dfbc dc01 86bd
00000010: 988d 81bd bfe7 64bd 4164 48bd 6e80 563c
00000020: 55bd 433d 37b3 8abd 11e4 843d f311 863d
00000030: ce15 1dbd 0e6b 3ebd c3f8 87bd 59eb b13d
00000040: 3abc 323d 8b88 25bd 65a5 143d aad9 88bd
00000050: 85e5 6dbd 7fae 4e3d 2d3a 97bc 3c00 b23d
00000060: 5cb3 f6bb 1a4f a9bd 5a7b 043c 2030 0bbc
00000070: f786 803d bc04 c7bc 17d5 f0bc 6921 ef3c
00000080: b88f b13d 3c6f 923d aba6 72bd 3ea1 97bc
00000090: eacc 3bbd b422 a9bc ad59 303c da00 a7bc
000000a0: 7172 1d3d 9070 873d 5d6c aebb d28e 14bc
000000b0: b49b 713d a877 a93b 69c3 25bc 9f6e 523c
000000c0: 45af e6bc f9fc 2cbd c47d 1f3d 3dd1 e7bc
000000d0: f03b a3bd 5202 b2bd 521c b13d 2449 84bd
000000e0: 6ec8 34bc 3c1e e6bc 389c a9bd 9d65 173d
000000f0: 6b48 a33d 4563 8d3c 86e8 14bd 9953 83bd
00000100: ea1e 41bd 61a8 b83c 98fa 1dbb d608 22bd
00000110: f842 4bbd fff3 893c f9e8 8e3d af16 733d
00000120: 7335 413d 6650 963c 3c00 97bd c8af 98bd
00000130: 2db3 953d e423 343d af4e 9a3b e1e8 f2bc
00000140: cfd6 c23c a7f0 4fbd a5f7 21bd 49fb 60bd
00000150: ac1b 1abd bbe8 023c a110 15bd af7f 31bd
00000160: e3aa 6dbb a463 b8bd 8ae3 ad3d 92fa b7ba
00000170: 1752 dc3c 690f c1bc 0cac 8dbd f51d adbd
00000180: b750 983d 4bac 453d c7f3 3c3d decc fbbc
00000190: 7bed ad3d e727 913d 8635 94bc a1a7 66bd
000001a0: 8d4c 97bd 21a8 dabc 476f b3bc c5d2 aa3d
000001b0: 57f3 6abd d60e 20bc 1a37 b43d 9a22 b63d
000001c0: a599 9a3d 6f0b 463d b154 a7bc a418 593d
000001d0: 359f fdb9 72d3 de3a 46ef 61bd c77a 1fbc
000001e0: 5705 7c3d 8261 5bbd d852 a33d 3527 913c
000001f0: ca2f 203d 43eb 59bd fa55 573d 5cb4 93bc
00000200: 2ead 6b3c 873d 0f3d 4726 833d 9a1e 59bd
00000210: 28a3 9dbd 668c 9a3d d089 193d f2e0 2e3d
00000220: 47bc a63a 5c9d e93c 6b03 61bd dd1a 97bd
00000230: 056f ee3c f833 2d3d 843b 07bd 1f4d 5d3d
00000240: 538b 6f3d ce62 cabc 6b46 2abd 1364 3f3d
00000250: 1edc 0d3d 0077 723d 7289 963d c9d4 6b3c
00000260: ae54 923d 46dc 363d 93e7 a53c 8527 56bd
00000270: a5ba 503d 50f1 60bd ff02 5bbd e52a c93b
00000280: 9d1a 3cbc 55c4 33bd 7337 b8bc b181 753d
00000290: 1561 adbd c567 053c 69b1 3cbb 0dc7 7b3b
000002a0: 7afa bd3a 21a6 243d 6f0f 3a3d ac4c bbbc
000002b0: 2ac4 623d fc23 d3bb 304e 803c b4a2 d23c
000002c0: d462 adbd 40ee abbd 0ef4 11bd b84d f63c
000002d0: 259b 9f3c 6ad6 9c3c 729c 88bc 3e79 683b
000002e0: e507 a1bd df5e 1d3d 1b31 d8bc 714f b23d
000002f0: 4e9f 75bc 57a2 abbd 5dc1 a13c 4563 443d
00000300: cf8f b93c a8b3 d83c 776d 9c3d 3281 3f3d
00000310: ba6e af3d ed64 80bd 1f78 aa3d 3381 67bd
00000320: 37e6 24bd 3f4c abbd 0486 6b3d f887 79bd
00000330: 9790 0bbd 491c 11bd 0db1 373d df3e cebb
00000340: 71bf 03bc 6196 d83c 13e0 3fbd 9c17 52bd
00000350: 1178 26bd b23b 23bd d45d 5d3c 222b 82bd
00000360: 813f 443d 7d54 a63d cdc0 aebb 51b5 29bd
00000370: 4fcd 893a 6875 f3bc b063 abbd d4ea 36bd
00000380: 85bd 7fbd ed52 293b 3fb2 6cbd c432 743c
00000390: 57a0 adbd c12f 2fbd 5470 92bd b91a ff3c
000003a0: 2866 49bd bccb b13d edf6 eabb 3861 44bd
000003b0: 56c0 42bc 99cf 9f3d 6127 a1bd 0465 29bd
000003c0: bac3 993d 2827 a9bb 8e77 abbc 9713 c63c
000003d0: 0bd1 393d 522e 18bd 39e9 ab3d 408b a93c
000003e0: aca7 e83b 3b9e 983b 7474 7dbc c004 253a
000003f0: 55e5 30bd 01cb 68bc e485 40bd 58f1 ddbb
0.08342771 -0.087763645 -0.027301101 -0.065433234 -0.06325835 -0.055885073 -0.048923735 0.013092143
0.047787983 -0.06772464 0.06488813 0.06546392 -0.038350873 -0.046488814 -0.066392444 0.08687467
0.043636538 -0.04041342 0.036290545 -0.06682141 -0.058080215 0.05045938 -0.018460358 0.08691451
-0.0075287055 -0.082670406 0.00808605 -0.008495361 0.062757425 -0.02429425 -0.029398484 0.029190736
0.0866999 0.071501225 -0.05924098 -0.018509503 -0.04584972 -0.02064643 0.010763568 -0.020386148
0.038439218 0.066132665 -0.0053229765 -0.009067254 0.05898638 0.005171735 -0.01011739 0.012843757
-0.028159747 -0.04223344 0.0389383 -0.028298015 -0.079704165 -0.08691849 0.0864798 -0.06459263
-0.011034114 -0.028090589 -0.082817495 0.03696214 0.07972797 0.01725925 -0.036354564 -0.06412429
-0.047148623 0.022541227 -0.0024105664 -0.039559208 -0.049624413 0.01683998 0.0697803 0.059347805
0.047170114 0.018348884 -0.073730916 -0.074554026 0.07309566 0.04397954 0.004709087 -0.029652061
0.02378407 -0.050766613 -0.039542813 -0.054927144 -0.037624046 0.007990058 -0.03639281 -0.04333466
-0.0036265186 -0.0900338 0.08490665 -0.0014036468 0.026894612 -0.023566918 -0.06917581 -0.084529795
0.0743727 0.048260015 0.04613092 -0.030737337 0.084925614 0.07087689 -0.018091928 -0.056312207
-0.07387648 -0.026691498 -0.021903647 0.08340982 -0.057360973 -0.009769162 0.08799572 0.088933185
0.075488366 0.048350748 -0.020426126 0.053002015 -0.0004837454 0.0017000271 -0.05515983 -0.009733862
0.06152853 -0.053559788 0.079747856 0.01771889 0.039108075 -0.05320288 0.052572228 -0.018030338
0.014384551 0.034970786 0.06403785 -0.0530077 -0.07697135 0.0754631 0.037484944 0.042694993
0.0012720906 0.028517418 -0.0549349 -0.07378171 0.029105673 0.04228589 -0.033015743 0.054028627
0.05848248 -0.024705317 -0.041571062 0.046726298 0.03463375 0.05919552 0.07350434 0.014393994
0.071450576 0.044643663 0.020252025 -0.052283783 0.050959248 -0.054917634 -0.053469654 0.0061391466
-0.0114809545 -0.04388841 -0.022487378 0.059938136 -0.084657826 0.008142416 -0.0028792268 0.0038418204
0.0014494203 0.040197495 0.045424875 -0.022863708 0.055362858 -0.0064434987 0.015662283 0.025712349
-0.084661156 -0.08395052 -0.03563314 0.030066356 0.019483158 0.01914521 -0.016676161 0.0035472657
-0.07862834 0.038420554 -0.026390603 0.087065585 -0.0149915945 -0.08380573 0.019745523 0.047946233
0.022651581 0.026452854 0.07638066 0.04675407 0.08566041 -0.0626925 0.083236925 -0.0565197
-0.040258612 -0.08364152 0.057500854 -0.060920686 -0.03407344 -0.035427365 0.044846583 -0.006294116
-0.008041249 0.026438894 -0.046844553 -0.051292047 -0.040641848 -0.03985185 0.01351114 -0.06355883
0.047912125 0.081215836 -0.0053330422 -0.041432682 0.0010513457 -0.02971907 -0.08368623 -0.044657543
-0.0624366 0.002583678 -0.057787176 0.014904682 -0.08477848 -0.04277015 -0.07150331 0.031140672
-0.04916969 0.086814374 -0.007170549 -0.047944278 -0.011886677 0.07803268 -0.07868839 -0.0413561
0.07508035 -0.0051621385 -0.020931032 0.024179263 0.045365375 -0.03715355 0.08394093 0.020696282
0.007100066 0.0046575344 -0.015469659 0.00062949583 -0.043187458 -0.014208556 -0.047002688 -0.006773155

lin.bias f4 [64]
00000000: 9ade 04bc 8d1d 833d 076a 833c f8bc 733d
00000010: 206e f63c e89d 383d 8b8b 03ba ffd8 96bc
00000020: 3481 423d 80f3 7cbd 7875 93bd 240e 55bd
00000030: bc69 ee3c f44f 7b3d ea98 02bc 6f62 fa3c
00000040: 7aa8 ef3c 2718 023d bf80 463d 67de d3bc
00000050: ab48 ad3d d9b2 b03d c988 ff3c 9563 663d
00000060: bcea 7abd 3c2c 583d ea17 30bd e2b3 c8bc
00000070: 34b4 52bd 3674 393d 94e1 81bc 1598 77bd
00000080: 7280 04bd b88d abbd a15e 57bd 8bba 8c3d
00000090: 32e1 92bd bc3f e63b 06ad 213d f488 a3bd
000000a0: 17f3 ed3c 1eee a13d f3fe 2bbd d907 383d
000000b0: ae81 abbd 7aba 5cbd 5ef9 9e3d 02d7 903d
000000c0: c908 68bd fa22 9e3d d1d6 b2bc ed72 77bc
000000d0: e944 8e3d 0572 93bd e3d0 003d 3dc3 a13d
000000e0: 7059 b13d e1a7 963c 4bfa 3d3d a067 94bc
000000f0: 1d92 d33b 1921 d6bc be19 703c 1bf5 08bd
-0.008109713 0.06402121 0.016041769 0.059506387 0.030081809 0.045072466 -0.0005018047 -0.018414019
0.0474865 -0.061755657 -0.0720014 -0.05201544 0.029103152 0.061355546 -0.007971028 0.030564515
0.02925514 0.031761315 0.048462626 -0.025862886 0.08461126 0.086278625 0.031193154 0.056247313
-0.061259016 0.05277656 -0.042991556 -0.024499837 -0.051441386 0.045276843 -0.015854634 -0.06044777
-0.032349057 -0.0837664 -0.05258048 0.06871518 -0.07171859 0.0070266407 0.03947165 -0.07985106
0.029046578 0.079067454 -0.041991185 0.04492936 -0.08374344 -0.053888775 0.07762407 0.070722595
-0.056649003 0.07721515 -0.021830948 -0.015103084 0.06946737 -0.07199482 0.03144921 0.07898567
0.08659637 0.018390598 0.046381276 -0.018115819 0.006456627 -0.026138829 0.014654575 -0.033436876

fc.weight f4 [1, 64]
00000000: 3e28 0ebd 5681 e23d 085c c9bd 16fa 7dbd
00000010: 94e1 f13d b1a8 8c3d fb21 bb3d 4fe6 673d
00000020: 144b 77bd c0a1 893d d3b0 88bb bdba faba
00000030: 2694 94bd 7cb7 7fbd 1aac c83d 5869 6d3d
00000040: 20c9 3cbd 760d 91bd dd14 963b c059 be3c
00000050: 4fa1 8abc e862 fa3d e4cf 24ba c75d 493d
00000060: a04a fd3d 4507 c33d 6517 babd b4ed 32bd
00000070: 1b54 533d cfa6 fe3c 6fd4 00bc f857 6b3d
00000080: 2ca5 97bd 268c e6bc 592d f2bd 05c1 d1bc
00000090: 1fab b1bd 90b7 60bc 4004 c4bd b569 9f3d
000000a0: 8ab9 c7bd 2e62 77bd ba71 87bc c265 fd3d
000000b0: dc1c 89bc f6b1 bdbb 9b79 eb3d 9d84 dbbd
000000c0: 2b0f ce3c 6943 f63d 9efe a73d ce61 8dbd
000000d0: ba42 fb3b 7f4a 5f3d 2f26 8f3c 12ab 8bbd
000000e0: 88a5 613d 434c 9b3d b0d1 003e d1b8 b5bd
000000f0: 4efe 873d 5da4 a7bd 8c32 91bd 86a3 81bd
-0.034706347 0.11059825 -0.09832007 -0.06200608 0.11810604 0.06868113 0.09137341 0.056616124
-0.060374334 0.067203045 -0.0041714697 -0.0019129139 -0.072548196 -0.062430844 0.09798451 0.05796179
-0.046090245 -0.070826456 0.004580124 0.023236156 -0.016922621 0.12225896 -0.00062870816 0.0491617
0.12367749 0.09522871 -0.090864934 -0.043683723 0.05159388 0.0310854 -0.007863148 0.05745694
-0.07404551 -0.028143 -0.11825056 -0.025604734 -0.08675217 -0.01371564 -0.09571123 0.07783834
-0.09752186 -0.060396366 -0.016533721 0.123729244 -0.016737394 -0.005789037 0.11497804 -0.10718653
0.025153717 0.12024576 0.08202861 -0.069034204 0.0076678665 0.054514404 0.017474262 -0.068197384
0.055089504 0.07582905 0.1257999 -0.088731416 0.06640302 -0.08185647 -0.07089719 -0.06330018

gcn_batch_norm.weight f4 [128]
00000000: 0000 803f 0000 803f 0000 803f 0000 803f
00000010: 0000 803f 0000 803f 0000 803f 0000 803f
00000020: 0000 803f 0000 803f 0000 803f 0000 803f
00000030: 0000 803f 0000 803f 0000 803f 0000 803f
00000040: 0000 803f 0000 803f 0000 803f 0000 803f
00000050: 0000 803f 0000 803f 0000 803f 0000 803f
00000060: 0000 803f 0000 803f 0000 803f 0000 803f
00000070: 0000 803f 0000 803f 0000 803f 0000 803f
00000080: 0000 803f 0000 803f 0000 803f 0000 803f
00000090: 0000 803f 0000 803f 0000 803f 0000 803f
000000a0: 0000 803f 0000 803f 0000 803f 0000 803f
000000b0: 0000 803f 0000 803f 0000 803f 0000 803f
000000c0: 0000 803f 0000 803f 0000 803f 0000 803f
000000d0: 0000 803f 0000 803f 0000 803f 0000 803f
000000e0: 0000 803f 0000 803f 0000 803f 0000 803f
000000f0: 0000 803f 0000 803f 0000 803f 0000 803f
00000100: 0000 803f 0000 803f 0000 803f 0000 803f
00000110: 0000 803f 0000 803f 0000 803f 0000 803f
00000120: 0000 803f 0000 803f 0000 803f 0000 803f
00000130: 0000 803f 0000 803f 0000 803f 0000 803f
00000140: 0000 803f 0000 803f 0000 803f 0000 803f
00000150: 0000 803f 0000 803f 0000 803f 0000 803f
00000160: 0000 803f 0000 803f 0000 803f 0000 803f
00000170: 0000 803f 0000 803f 0000 803f 0000 803f
00000180: 0000 803f 0000 803f 0000 803f 0000 803f
00000190: 0000 803f 0000 803f 0000 803f 0000 803f
000001a0: 0000 803f 0000 803f 0000 803f 0000 803f
000001b0: 0000 803f 0000 803f 0000 803f 0000 803f
000001c0: 0000 803f 0000 803f 0000 803f 0000 803f
000001d0: 0000 803f 0000 803f 0000 803f 0000 803f
000001e0: 0000 803f 0000 803f 0000 803f 0000 803f
000001f0: 0000 803f 0000 803f 0000 803f 0000 803f
1.0 1.0 1.0 1.0 1.0 1.0 1.0 1.0
1.0 1.0 1.0 1.0 1.0 1.0 1.0 1.0
1.0 1.0 1.0 1.0 1.0 1.0 1.0 1.0
1.0 1.0 1.0 1.0 1.0 1.0 1.0 1.0
1.0 1.0 1.0 1.0 1.0 1.0 1.0 1.0
1.0 1.0 1.0 1.0 1.0 1.0 1.0 1.0
1.0 1.0 1.0 1.0 1.0 1.0 1.0 1.0
1.0 1.0 1.0 1.0 1.0 1.0 1.0 1.0
1.0 1.0 1.0 1.0 1.0 1.0 1.0 1.0
1.0 1.0 1.0 1.0 1.0 1.0 1.0 1.0
1.0 1.0 1.0 1.0 1.0 1.0 1.0 1.0
1.0 1.0 1.0 1.0 1.0 1.0 1.0 1.0
1.0 1.0 1.0 1.0 1.0 1.0 1.0 1.0
1.0 1.0 1.0 1.0 1.0 1.0 1.0 1.0
1.0 1.0 1.0 1.0 1.0 1.0 1.0 1.0
1.0 1.0 1.0 1.0 1.0 1.0 1.0 1.0
