All_Benchmarking/DATA_18/Results/f3/best_model.pth (torch, 192098 bytes, 32 tensors)

gat1.att_src f4 [1, 4, 32]
00000000: 031e 1b3e 6ad1 98be 80a5 2a3d 03ea 813d
00000010: 806b 1bbe 3875 42be 2523 913e fc23 593e
00000020: 1c10 7d3d 8c1d 14be 94a2 9d3c 0d30 8d3e
00000030: b4aa cb3e cd5f de3d 540a 94be 3bed 4cbe
00000040: 66a3 40be abf6 523e dc3a babe e8fa 753e
00000050: f7e9 8fbe 0217 e63d 64d5 4fbe 6a00 a1bd
00000060: 570a ccbe 1888 ce3e 198f 4e3e 7157 cc3e
00000070: e8ee 993e 54d5 673e b321 813e 72db b1be
00000080: a497 81bd 4bb5 993c b8e6 5ebe 4e39 ef3b
00000090: e23f 483e af09 82be bbdd 063e 62d6 753e
000000a0: 23d3 cabe 189b c23e 4ec9 82bd 631a 813e
000000b0: 3709 7abd bc18 59bd 6402 9abe dc05 a03e
000000c0: 0544 0abe bda1 9bbd 179f a2be e132 81be
000000d0: 3e68 5b3e 46ad c63d e556 293b 3031 9e3e
000000e0: 235e e23d 7b17 833e e94b 06be 8055 6b3e
000000f0: d65d 18bd e8fc 1d3e f1ec 77be 7e0f c13d
00000100: 4004 38be de1c 51be db81 913e 1c13 6f3e
00000110: d63f c7be 758c 973d 5fde 893e 87b2 cdbe
00000120: 28ca abbe 487d 733e dd44 aa3e 7df4 163e
00000130: 0f7f cf3e b27f 7ebe b48b ba3e 6fc2 aa3e
00000140: 67cc 8f3e fd85 5cbe 4ce2 6c3d d9bc 91bd
00000150: 9c0b c63d aede 9ebe 0cf3 b1be 700e 0dbe
00000160: 602a c5bd b82d 6c3e 38df 98bd 3a8f 92be
00000170: 10c2 21be abfc 0b3e ba2e 9ebe 550c b53e
00000180: ecdf b5be bbf7 033d 3f98 643e 6d78 2c3d
00000190: 7071 1cbe 0177 a73e 8ff1 31be d472 cf3d
000001a0: 22e6 95be d33c 44be 8ed2 8a3e 1ba3 b63e
000001b0: 1095 983e 7034 c33e 3fcb a5be 5c4d b4bd
000001c0: bc18 9fbd 86e4 0bbd 7071 9cbe 8f39 66be
000001d0: d5d0 c23e f953 c93e a8a5 9abe 22ad b0be
000001e0: f568 d6bd db69 0a3e a55b 66be 4932 823b
000001f0: e82e 183e 7f74 95be 65b2 2ebe 7a34 813e
0.15148167 -0.2984727 0.04166174 0.06343462 -0.15177727 -0.18990028 0.28347126 0.21205133
0.06178294 -0.14464396 0.019242562 0.27575722 0.39778674 0.10858116 -0.2891413 -0.20012371
-0.18812332 0.20601909 -0.3637303 0.24021494 -0.2810819 0.11234857 -0.20296246 -0.07861407
-0.3985164 0.40338206 0.20171775 0.39910462 0.30065084 0.22639972 0.25221023 -0.34737736
-0.06327751 0.018763205 -0.217677 0.0073005324 0.1955562 -0.25398013 0.13170521 0.24007562
-0.3961421 0.38008952 -0.06386052 0.25215444 -0.061043944 -0.053002104 -0.3007995 0.3125447
-0.1350251 -0.075992085 -0.31762 -0.2523413 0.21426484 0.09701018 0.0025839147 0.30896902
0.110531114 0.25603852 -0.13114895 0.22981834 -0.037198864 0.15428507 -0.2421148 0.09426783
-0.17970371 -0.20421168 0.28419384 0.23347133 -0.3891589 0.07399837 0.26927468 -0.40175268
-0.3355267 0.2377826 0.33255664 0.14741702 0.40526626 -0.248534 0.3643471 0.33351466
0.28085634 -0.21535487 0.057833 -0.07116098 0.09670183 -0.31029266 -0.34755743 -0.13775039
-0.09627223 0.23064315 -0.074644506 -0.28624898 -0.15796685 0.13670604 -0.30895025 0.3536097
-0.355224 0.032218676 0.22323702 0.042107034 -0.15277648 0.3270798 -0.17377304 0.101293236
-0.2927714 -0.19163828 0.27113765 0.35671315 0.29801226 0.38125944 -0.32381627 -0.08803818
-0.077683896 -0.034153484 -0.30555296 -0.22482894 0.3804995 0.3932188 -0.3020451 -0.3450709
-0.10469238 0.13516943 -0.22495897 0.0039732796 0.14861643 -0.29190442 -0.1706024 0.2523535

gat1.att_dst f4 [1, 4, 32]
00000000: 48c8 13bd ce0c 493d 2c93 babd a1ea 5bbe
00000010: 3123 803e 5aff adbd 0007 d0bd 8ba0 d53d
00000020: 6432 623e a9a2 ad3d 0b73 b13e e84f cfbe
00000030: b513 97be 9977 143c 86cd 4b3d b1fb 963e
00000040: 528e 7c3c b451 8abe 8d55 9dbe 48ed 8e3e
00000050: d5ab 9a3e 9b17 aebe a03e ca3e 58f0 05be
00000060: 7faf a73b e5ad 4abe 220a 403d 01cf 6dbe
00000070: dddd c1be 7682 bc3e 030e 343d cd2f c83e
00000080: e06b a13d e376 a93e 7e8e 1bbe 8293 c43e
00000090: 32c6 b8be 7c9a b5be 7491 a5be d97f 423e
000000a0: d728 ff3d 6ce5 c53e 2faa a43e b1b2 473e
000000b0: 5e33 62be 49d7 c93e 4be5 f83d 8414 b93e
000000c0: d1a7 5e3e 2cd9 0dbe 3f0f 1a3e 784a 9abe
000000d0: c6bd b23e e233 933e 1d3e f4bc e646 84bc
000000e0: 9ef2 063e a09f efbd 7fc4 c1be 4a0d 30be
000000f0: 4c78 4abe d91d 8b3d 23ef 893e 4d48 fabc
00000100: 0a28 503c b577 47bd c518 cfbe 0e26 193e
00000110: 75af eabd c551 c13e d057 d2be f14b bebe
00000120: 0aa9 bf3e 870a cabe bb67 bcbe 95d0 5f3e
00000130: 298e 65be 4e07 4bbe dbaf 053e 230d 1b3c
00000140: f3a0 92bc c801 d23e 4274 b9be 5979 c1bc
00000150: 71ce aa3e eee4 243e c045 3a3d 2e27 a7be
00000160: 2eae 5dbe 52f8 a33e 7ac1 4f3e bd03 193d
00000170: 3bc1 9cbe fffa 81bd b09f c23e 83b4 163e
00000180: a0e9 20be 925f b43e 14aa ce3e 79b9 9cbe
00000190: 8025 a43e 5718 a8be c80c 2dbe 7efe 19bb
000001a0: cf4a 26be 3505 753c bbc2 c8be a78a 123d
000001b0: 3552 cbbe 9c46 a33e 95fd abbe 1265 c2be
000001c0: 80c8 63be 2120 9f3e 25a8 87bc 6e82 863e
000001d0: f90c c53e 3ba2 23be 16bf d03e 5bd6 18bd
000001e0: bf2d 943e b46c 9e3d c786 603e 7c61 6abe
000001f0: 0340 32bd 9aa3 8abc f45b 7f3e 1e08 90be
-0.036079675 0.049084477 -0.09110102 -0.21476223 0.2502685 -0.0849597 -0.10157585 0.10431012
0.22089535 0.084782906 0.34658083 -0.4049065 -0.29507223 0.009061717 0.04975655 0.294889
0.015414791 -0.2701546 -0.30729333 0.27915406 0.30209222 -0.34002385 0.39500904 -0.13079965
0.0051173563 -0.19792898 0.046884663 -0.23223497 -0.3786458 0.36818284 0.043958675 0.3909897
0.07881904 0.33098516 -0.15191075 0.3839379 -0.3608871 -0.35469425 -0.32337534 0.18994083
0.124589615 0.38651597 0.3216109 0.19501759 -0.22089908 0.39422062 0.12153109 0.36148465
0.21743704 -0.13852376 0.15044878 -0.3013494 0.3491041 0.2875052 -0.029814774 -0.016147088
0.13178489 -0.11700368 -0.37845227 -0.1719257 -0.19772452 0.06792802 0.2694026 -0.030552054
0.012704859 -0.048698146 -0.40448585 0.14955923 -0.11459247 0.37757698 -0.4108262 -0.37167314
0.37433654 -0.39461157 -0.3679789 0.21856911 -0.22417511 -0.19827005 0.13055365 0.009463581
-0.017899012 0.41016984 -0.3622151 -0.023617433 0.33360627 0.16102955 0.045476675 -0.3264708
-0.21648476 0.3202539 0.20288649 0.03735708 -0.30616173 -0.06346702 0.38012457 0.14717297
-0.15714121 0.35229164 0.40364134 -0.30610254 0.3205986 -0.3283107 -0.16899407 -0.0023497636
-0.16239475 0.014954855 -0.39211068 0.03577676 -0.39711156 0.31889808 -0.33591905 -0.37967736
-0.22244453 0.310792 -0.01655967 0.26271385 0.3848646 -0.15979855 0.40770787 -0.0373138
0.28941151 0.07735577 0.21926413 -0.2288875 -0.043518078 -0.016923714 0.24937421 -0.28131193

gat1.bias f4 [128]
00000000: 2f24 47b9 05a8 7f39 f285 22b9 d478 cbb7
00000010: 956c 27b9 834f 9239 0ecc 85b8 f0d0 52b9
00000020: 397b 8939 67d1 20b9 681b 9eb9 3a8f 5939
00000030: d93c 8cb8 02ed 7a39 d6c5 dfb8 f20d 0d39
00000040: 88f2 f339 719a d439 3c87 74b9 7200 cf39
00000050: 45b7 3b38 7ebc 123a 9dad 96b9 fe86 6db9
00000060: b5c2 f538 86b3 adb9 eef4 60b9 efc4 fdb9
00000070: da9c b0b9 d43d d439 c6be 1a39 48c2 0e3a
00000080: 9d88 4a38 98a6 9fb9 5cef 8f38 5c40 0b38
00000090: a4ab 2439 cd5a eab8 08a6 a6b9 52b5 5ab8
000000a0: ee2f 05ba 6858 cd38 fcab b1b9 f761 9138
000000b0: 1705 d839 ee42 8038 89f7 90b9 3855 8639
000000c0: 3ff4 50b8 519f 7337 f263 2eb9 805a 9ab9
000000d0: 58f5 82b9 a13f 95b9 c921 8e39 10eb 4a39
000000e0: d0cd 88b8 2c7d a539 b295 37b9 00e7 2b39
000000f0: cac9 c038 de19 4f39 bb45 8838 0e30 a1b7
00000100: 9710 42b9 4af7 a5b9 9953 cf39 f151 9238
00000110: 6232 b1b9 e865 7f38 a100 043a 5705 a839
00000120: 2fbf d837 1fe1 dd39 db8b 00b9 a019 37b8
00000130: fae9 d638 9f22 da39 3e03 6fb9 8ba2 2639
00000140: 91d0 66b9 7436 ceb9 7569 8b39 f4e7 6838
00000150: 0a9f 7338 75dd 42b9 985d b539 94e0 0fb9
00000160: f54c a0b9 77ee 84b8 01fb c1b9 37b1 5539
00000170: aaa8 1c3a 063e 06b8 cb64 1139 55d3 1ab8
00000180: fbc6 04ba 8fae bc37 addf aab9 916d 5339
00000190: fa00 2036 80a3 e238 19ef f2b9 1d22 84b9
000001a0: 1785 8039 ced0 90b8 2b12 bab8 7e5b 06ba
000001b0: ab23 2539 6642 353a fa5c edb9 f250 33b7
000001c0: a192 6a39 eb93 f638 5ecd eab8 3b7e 86b7
000001d0: 741c acb9 d793 b9b9 87ed fdb7 783e d439
000001e0: dda4 3eb9 f4af de39 5cc4 c3b9 38a0 5b39
000001f0: 1af4 a738 5e9c 06b8 7858 24b7 ead5 48b8
-0.00018991598 0.00024381287 -0.00015499422 -2.425575e-05 -0.00015966811 0.0002790653 -6.379942e-05 -0.00020104996
0.00026222484 -0.00015336798 -0.00030156528 0.00020748089 -6.687054e-05 0.0002393015 -0.000106703184 0.00013452003
0.00046529272 0.0004055086 -0.00023320032 0.00039482448 4.4754957e-05 0.00055975455 -0.00028739581 -0.0002265237
0.000117187774 -0.00033130887 -0.00021453548 -0.00048402647 -0.000336862 0.00040481857 0.00014757653 0.000544582
4.8287784e-05 -0.00030450965 6.8633555e-05 3.3200122e-05 0.000157042 -0.000111749025 -0.0003178569 -5.2144118e-05
-0.00050806894 9.791629e-05 -0.0003388821 6.932386e-05 0.00041202523 6.115982e-05 -0.00027650248 0.00025621965
-4.9818536e-05 1.4521022e-05 -0.00016631166 -0.00029440597 -0.00024978328 -0.00028466902 0.00027109522 0.00019351789
-6.523321e-05 0.00031564513 -0.00017508006 0.00016393885 9.1928596e-05 0.00019750695 6.497974e-05 -1.9215073e-05
-0.00018507462 -0.00031655497 0.00039544402 6.977085e-05 -0.0003379761 6.0891645e-05 0.0005035494 0.00032047436
2.5838233e-05 0.00042320133 -0.00012259131 -4.3654465e-05 0.00010247897 0.00041605995 -0.00022794024 0.00015891546
-0.00022012206 -0.00039331953 0.00026590718 5.5529134e-05 5.808383e-05 -0.00018583781 0.00034592743 -0.00013721205
-0.00030574916 -6.338668e-05 -0.0003699884 0.0002037928 0.00059760606 -3.2005853e-05 0.00013865826 -3.691328e-05
-0.0005065051 2.2492632e-05 -0.00032591578 0.00020163345 2.3842426e-06 0.00010806974 -0.0004633598 -0.00025202418
0.00024513222 -6.905348e-05 -8.872555e-05 -0.0005125328 0.00015748914 0.0006914496 -0.00045273436 -1.0688078e-05
0.00022370603 0.00011757746 -0.00011196242 -1.6032825e-05 -0.00032827596 -0.000353961 -3.0270558e-05 0.00040482334
-0.00018181228 0.00042474235 -0.00037339597 0.00020945154 8.008648e-05 -3.2093718e-05 -9.79576e-06 -4.788294e-05

gat1.lin.weight f4 [128, 5]
00000000: 7743 463c 91fb 7abd bde0 4d3e 39f6 51be
00000010: 249a 8fbd 21aa 523e f4b2 383e c511 543e
00000020: 85f8 19bb 78df 193e d1bb e0bc e6e0 95bd
00000030: 2d71 48be fea1 40bd 3219 e93d b2e6 ddbd
00000040: 7df6 893d c1ea 0fbe 8628 82bd 4d51 4c3c
00000050: b777 573e fa62 dfbd 9bcd e33d 02cd 6cbc
00000060: 15d6 3ebe 04e4 53bd 3604 423e 184f 5dbd
00000070: a383 b63d 9f98 f03d bdb2 acbd 4b82 4ebe
00000080: d2d0 393d 8cee 283e ad46 4c3e 25a0 88bd
00000090: 4aee e13d 39de 26be c343 793d 9a6f 46be
000000a0: 2df9 c73d cc43 7b3c 44fb bcbd a44b 243e
000000b0: 27e3 6f3d 8d3e 973d 619d eebd 0b37 eebd
000000c0: 8d79 10be 15e7 c2bc e9ae f0bd 6894 953d
000000d0: 4dcd eebd 5597 75bd f313 273e 35b6 28bd
000000e0: 2915 45be 7233 8dbd 452a 33be 9c51 863d
000000f0: 5ab3 20be 75fd ab3d 56a6 5cbd efae 683d
00000100: cfa8 513d 9b04 543e 7d2f 163e 5df5 ebbb
00000110: 32e1 e83b c23b 0b3d b5ac 083e 7b89 c1bd
00000120: 5abf e13d 8fc1 c6bd c584 16be cf84 e0bd
00000130: e2c7 493e 5583 293e 74ef adbd c691 49be
00000140: ffdf bd3d 1071 c33d 6fce 2b3e 7a86 f93d
00000150: 5da3 e33d 3f7e f0bd 2178 ab3d ed1b 2d3d
00000160: a5e6 2dbe c246 673d bea1 1e3e ab8a 81bd
00000170: 5ed1 39be 16d4 02be c60e 5abe b9b0 acbd
00000180: ac52 303e d5c3 d2bd 698d afbd 63e9 2ebe
00000190: 015a ab3b 90c6 22be ca30 5bbd d17b 333e
000001a0: 2d2d 0f3d eef4 1dbd 4e9a 27be 28a7 4d3e
000001b0: 0f0f 123e 93f7 203d 3371 08bd 95f1 03bd
000001c0: c828 063e 2269 41be bdba f73b 32a8 75bd
000001d0: c0f6 30be 1862 fb3d f11c e2bd 57ec 4f3e
000001e0: d1f5 a23d 76be 383e f73a 383e bc1d 0f3d
000001f0: dfe1 d2bd 7dd2 02bc 33de 53be c23e 7ebd
00000200: f1e9 dd3d 2163 5bbe f39e 513d 7615 e1bd
00000210: 3fb9 b6bc 67e4 adbd f14c 0fbe 6014 f1bd
00000220: c7c8 173e 246a 83bd 760a af3d fb8c 8d3d
00000230: b156 ee3c fca4 0c3e a241 813c 3713 8bbd
00000240: a73a 873d 904c cf3d 701e 273e 75e4 96bd
00000250: 017e 20be 6c8e 8cbd dbed 1bbe 1b77 df3d
00000260: a146 2c3e d682 39be 893b 39be 7dc3 48bc
00000270: 7db6 3ebe e276 f93d 7f26 9a3c f314 f53d
00000280: ebfd ed3d d3ac 6dbd bdf1 fb3c 259c d3bb
00000290: 6fc4 013e ec91 81bd f680 02be 1390 3abd
000002a0: 46db 2ebe 72b4 dc3d 1774 cebc 0db2 2dbe
000002b0: be77 e8bc 53fa ca3d ec99 58bd 312c d83d
000002c0: 9fd4 52be 11f1 44be ddda e0bc 87e6 41be
000002d0: b4f6 4e3e adbd 713d 4cb9 fc3d 77ab 813d
000002e0: 26b1 d83c 130d 0a3e a379 bb3c 44d8 21be
000002f0: cdcd 23be c42d c13d 4e55 c43d b330 90bc
00000300: b4b2 9dbb c766 343e 005c 2abe 0d8e bcbd
00000310: f45e cabd 4073 433e 44e2 73bc a011 34bd
00000320: 84eb 30be df40 553d 9022 e83d 2827 983d
00000330: 43d1 033e 837d 033e f548 223c 908c b63c
00000340: 7af4 203e e163 513e 50a4 a8bd 88c4 35be
00000350: 7381 563e 6856 bf3c 68b2 45be 8ac0 46be
00000360: 590a 04be abe1 31be fd3c 1ebe 08dc 2e3e
00000370: 0fdf 43be 0bce c83d b5d2 7abd 57ed 29be
00000380: f646 d93d 6c94 86bd 52c4 0fbe c533 f4bc
00000390: 80c6 2c3e 45a9 91bc 05e6 cbbd 7d84 0ebe
000003a0: ce52 db3d 0c33 233e 56ab bbbd 0780 8f3c
000003b0: 878a 253e 9d2e 14be 053a 873c 2c69 b43c
000003c0: 53ac c13d 3f03 a9bd 4af8 e63d 7b59 0e3e
000003d0: 1a58 1abe 1539 70bd 80db 2dbe f644 00be
000003e0: 3163 09bc b4bb 60bd 9faf 223e 0379 fd3c
000003f0: 535a 093c f031 94bd 9a6d 0fbe 2373 c63d
0.012101046 -0.06127507 0.20105262 -0.20504083 -0.07011822 0.20572712 0.18037015 0.20709904
-0.0023494076 0.15026653 -0.027433308 -0.073182866 -0.19574423 -0.047029488 0.11381759 -0.10835017
0.06736467 -0.14054395 -0.063553855 0.0124705555 0.21041761 -0.1090755 0.111232005 -0.014453175
-0.18636353 -0.051731125 0.18946919 -0.054030508 0.089118265 0.1174786 -0.08432529 -0.2016689
0.045365162 0.16497248 0.19948836 -0.0667117 0.11031778 -0.16295709 0.06085564 -0.1937851
0.097643234 0.015335988 -0.092276126 0.1604448 0.05856624 0.073849775 -0.116511114 -0.11631592
-0.14108868 -0.02379183 -0.117521115 0.07303697 -0.11660252 -0.059958775 0.16316204 -0.04118939
-0.19246353 -0.06894578 -0.17496593 0.065585345 -0.15693417 0.083979525 -0.053869568 0.056807455
0.05118638 0.20704882 0.14666553 -0.0072008804 0.0071069235 0.033992536 0.13347133 -0.094500504
0.110228255 -0.09704887 -0.14699085 -0.10962831 0.19705155 0.16554005 -0.08492938 -0.19684514
0.092712395 0.09543049 0.16777967 0.121838525 0.111151434 -0.117428295 0.08372522 0.04226296
-0.16982515 0.056463964 0.15491387 -0.06325277 -0.18146273 -0.12776217 -0.21294698 -0.08432145
0.17219037 -0.10291258 -0.08571894 -0.17081217 0.005229235 -0.15896058 -0.053513326 0.17527701
0.034955192 -0.03856366 -0.16367456 0.20083296 0.14263557 0.039298605 -0.03331108 -0.032212812
0.13101494 -0.18887761 0.0075601027 -0.059974857 -0.17281628 0.12274569 -0.110406764 0.20305
0.07957042 0.18041405 0.17991243 0.034940466 -0.10296988 -0.007984755 -0.20690231 -0.06207157
0.108356364 -0.21424533 0.051176976 -0.109904215 -0.02230513 -0.0849083 -0.13994195 -0.11771464
0.14822684 -0.06416729 0.08546917 0.069116555 0.029094072 0.13734812 0.015778366 -0.06790774
0.06602984 0.10122025 0.16320205 -0.073677935 -0.15673067 -0.06863102 -0.15227453 0.109113894
0.16823818 -0.18116316 -0.18089117 -0.012253639 -0.18624301 0.12180878 0.018817184 0.11966886
0.11620697 -0.058026146 0.030754918 -0.006457823 0.1267259 -0.063266605 -0.12744507 -0.045547556
-0.17075834 0.10776605 -0.02520184 -0.16962452 -0.02837741 0.09911027 -0.052881166 0.10555304
-0.20588921 -0.19232585 -0.027448112 -0.18935595 0.20211297 0.05901878 0.1234003 0.063315324
0.026451658 0.1348155 0.02288515 -0.15805155 -0.15996476 0.09432557 0.09586583 -0.017601347
-0.004812563 0.17617331 -0.16636658 -0.092067815 -0.09881392 0.19086933 -0.014885489 -0.04396212
-0.17277342 0.05206382 0.11334717 0.074293435 0.12872796 0.12840848 0.00990509 0.022283822
0.1571826 0.20448257 -0.08234465 -0.17750752 0.20947818 0.023356631 -0.19306338 -0.19409385
-0.12894572 -0.17371242 -0.15452953 0.17076123 -0.19128059 0.098049246 -0.061236102 -0.16594444
0.10609238 -0.06571278 -0.14039734 -0.029809842 0.16872597 -0.01778091 -0.09955982 -0.13917728
0.10709153 0.15937442 -0.09163539 0.017517103 0.16166125 -0.14470907 0.016507158 0.022022806
0.09456696 -0.08252572 0.11277826 0.13901322 -0.1507267 -0.058648188 -0.16978264 -0.12526307
-0.0083854655 -0.054866508 0.15887307 0.030941492 0.008383351 -0.07236087 -0.14006653 0.09689929

sage1.lin_l.weight f4 [128, 128]
00000000: e0e7 3a3b 3117 44bc 0ae7 22bd 8c20 cc3b
00000010: 6ac3 8abd 8001 b73c 8b49 88bd 27b4 cd3b
00000020: 77c7 603b 5ebe 2c3d 57f1 debc bfbd a43d
00000030: 427d 8d38 b2e4 723c e72f 5c3c dfaf 2fbd
00000040: 7edb debc c8ef a1bc 8d18 1abd 7467 5a3d
00000050: 8437 843c 48eb 72bd d99d 93bc 7eff 4f3d
00000060: b4eb 40bd a048 ad3d 1bf5 333c 95e3 21bd
00000070: 6a65 923c e932 19bd 3448 94bd d3f3 8bbc
00000080: fb55 abbd 4e34 1ebc c9d9 803c 1f00 45b9
00000090: 3850 a73d 2c49 17bd f358 ce39 0612 78bd
000000a0: e78e 41bd 1b02 8dbd 2e30 853d ee46 913d
000000b0: 4bf2 ad3d 8c17 6abd a38a 943d 1c2e 0d3d
000000c0: 743a a03d d4b1 90bd 37bb e93c 7d9b 303d
000000d0: 3d24 863d 5ca1 a73d 4ba3 653d b93d ab3d
000000e0: 672c 3d3d ba2f 5abd 3a11 023d 6f78 493d
000000f0: 35c2 963d 1cb2 b2bd bc56 82bd 2456 7e3d
00000100: f6bd 983d c1e2 abbd ad76 a8bd 68fc 23bd
00000110: ba96 58bd afd0 61bd 1c92 babc 4f36 aabd
00000120: 56fa c93b 52cc 363d 4e5c 96bd 591a d8bc
00000130: e146 efbc 9d32 89bc 3cab a0bd 1929 08bc
00000140: ca8a cf3a 435f 0ebd 592e 933d f245 8f3d
00000150: 9058 053d 4c02 6ebd a2ae 683d 00a8 aebd
00000160: f858 98bd 3d0f 713c 0fdb 293c 2df6 373d
00000170: 098e 15bd 714c 83bd 12af a9bd bc4e e53a
00000180: b12f 4a3c 4821 53bd 3b04 0ebd cfa1 ebbc
00000190: 54b4 7fbd d8e7 753d 5aad 81bd dfed 463c
000001a0: 255f 8b3d efde 363d 3ab9 09bc fa42 e1b9
000001b0: a58e 283c 8576 85bd 328e 66bd 2bbb 1c3d
000001c0: 3f25 6bbd 8097 b73c be68 593d 8b98 88bd
000001d0: 915f 11bb d51d 28bd 5359 043d 0aca a3bd
000001e0: 181e 75bd 22e6 993d 619e 2c3c f0af 173c
000001f0: 89cd 92bd 484d 21bd e3bd 74bd be40 7cbd
00000200: 3b87 903d 9166 08ba 877b f63b f3a7 a9bd
00000210: dad5 36bd d436 b03b 130e 183d 56fa 933d
00000220: 1198 90bb f5d8 853c 06c8 033d e756 e03c
00000230: c74b 4f3d f167 843d 20e9 b73d f7c8 6c3c
00000240: 3d1b a2bd 2d3d b23d 3e0b 80bd e2f6 46bc
00000250: df47 6fbd 7afe 60bd 4e92 293c ca19 d5bc
00000260: f03d b13d 27dd ef3c ab06 153d a85b 99bd
00000270: ba29 adbb 6937 16bd db73 263d dbf7 453d
00000280: 8a0c 96bd 0d15 abbd f018 a03d c08a ebbc
00000290: 25f8 acbd 67e5 fbbc 24c4 0d3c 6ee9 a53d
000002a0: 5026 87bd 954c 8cbd 4187 753d 5ee0 b13c
000002b0: 8431 693d 22fb 4a3b 0249 ef3c 1b7c 9a3d
000002c0: b7a8 f93c cd7d 77bc 1302 78bd d1d2 22bd
000002d0: ad44 93bd 14d1 a4bd 6f45 1a3d 2478 2b3d
000002e0: f48d 883d 2242 4dbd 2893 e1bc 8ebc 8c3d
000002f0: b2fa 13bd e94d 1a3d ad5b b0bd a023 90bd
00000300: dd52 843d c257 88bd 8f67 e1ba a0f5 923d
00000310: 2a54 a83d ac2e 84bd c663 673d 029d dd3c
00000320: 1af3 a13d f4cf 323d a93f fc3c 288e 363d
00000330: 6e14 12bd d776 9e3d 0ea0 013d df9e a23d
00000340: 5c41 82bd a61b 8ebd af82 e3bc 274a 45bd
00000350: 8399 2c3c d01a e1ba 4b45 ea3c ad5c b43c
00000360: 48c4 3e3d 3128 033d fab2 a83d f3e6 b53d
00000370: 254a aa3d 7024 b43d 2763 9cbb 53d5 56bd
00000380: 8968 a3bd ae56 86bc e6cf d7bb 6981 45bc
00000390: c157 293c 82db 8c3c 7235 bfbc ab90 a7bd
000003a0: d1de af3c 53e3 bd3c 2131 0cbd 640f 673d
000003b0: 78d9 82bd cf2d 66bd 00b2 ad3d 5d94 4a3d
000003c0: c9de 853c 24ef 2f3d 8b4c 3bbd 9bd9 c0ba
000003d0: b38a 84bd ed44 99bd 71fc f3bc d2ea 5d3d
000003e0: 3523 82bd 680d 59bc 68f6 1a3d edbd a2bd
000003f0: 2774 483d d533 a23d 1bb9 39bd 74e7 423d
0.0028519556 -0.01196842 -0.039771117 0.006229466 -0.067755535 0.022339582 -0.06654652 0.0062775793
0.0034298578 0.042173736 -0.02721469 0.08044004 6.746735e-05 0.014825033 0.013439155 -0.042892333
-0.027204271 -0.019767657 -0.03762107 0.053321317 0.016139753 -0.059306413 -0.018019604 0.050780766
-0.047099784 0.08461118 0.010983731 -0.03952368 0.017870624 -0.037402067 -0.07240334 -0.017084038
-0.08366009 -0.009656025 0.015728848 -0.00018787429 0.081695974 -0.036935017 0.00039357654 -0.060564063
-0.047255423 -0.06885167 0.0650333 0.07093607 0.08493479 -0.057151362 0.07253005 0.0344678
0.07823649 -0.07065168 0.028531654 0.043117035 0.06549881 0.08185074 0.05606393 0.08361382
0.046184923 -0.05326817 0.03175471 0.04918712 0.07361261 -0.08725378 -0.063641995 0.06209387
0.07458107 -0.08392859 -0.082257606 -0.040035635 -0.05287812 -0.055130657 -0.022774749 -0.0831114
0.0061638756 0.04462845 -0.073418245 -0.026379751 -0.029208602 -0.016747767 -0.0784516 -0.00831058
0.0015834209 -0.034758817 0.071865745 0.06995763 0.032555163 -0.05810766 0.056807168 -0.08528137
-0.074388444 0.014713106 0.010367169 0.044912506 -0.03651241 -0.064110644 -0.08285345 0.0017494778
0.012340472 -0.05154541 -0.034672003 -0.02876368 -0.062427834 0.060035557 -0.06331892 0.012141674
0.06805257 0.0446462 -0.008405978 -0.00042965246 0.010287915 -0.065167464 -0.05628795 0.038264435
-0.057408568 0.022411108 0.053078406 -0.0666972 -0.0022182206 -0.041044075 0.03231175 -0.0799752
-0.059843153 0.075145975 0.010535807 0.009258255 -0.07168109 -0.03938034 -0.059751403 -0.06158518
0.07057043 -0.0005203272 0.00752205 -0.08283987 -0.04463754 0.00537763 0.037122797 0.07225482
-0.004412659 0.016338805 0.03217318 0.027385188 0.050609376 0.06465138 0.08980012 0.014452211
-0.079153515 0.087030746 -0.06252144 -0.012143822 -0.05841815 -0.054930188 0.010349823 -0.026013274
0.08654392 0.029280258 0.036383312 -0.07488185 -0.005284515 -0.036673937 0.040637832 0.048332077
-0.073266104 -0.083536245 0.078172565 -0.028752685 -0.08445767 -0.030749036 0.008652721 0.08101164
-0.065991044 -0.06850544 0.05994344 0.021713432 0.056931987 0.003097244 0.029209618 0.075432025
0.030475957 -0.015105677 -0.060548853 -0.03975183 -0.07190833 -0.08047691 0.037663873 0.041862622
0.066677004 -0.050111897 -0.02753599 0.068719015 -0.036127754 0.037671957 -0.08611236 -0.07038045
0.064611174 -0.066573635 -0.0017197 0.071757555 0.08219178 -0.064542145 0.056491636 0.027052406
0.07907696 0.04365535 0.030792074 0.044569165 -0.035664015 0.07737511 0.03164678 0.079404585
-0.063601226 -0.06938867 -0.027772276 -0.04816642 0.010534647 -0.0017174128 0.028597495 0.022016848
0.046573907 0.03202075 0.08237262 0.08881941 0.08314923 0.087960124 -0.004772562 -0.052449536
-0.07978923 -0.016398754 -0.0065860627 -0.01205478 0.010335864 0.017194513 -0.023340914 -0.0818189
0.021468552 0.023179686 -0.03422654 0.056411162 -0.06389135 -0.05619603 0.084812164 0.049457897
0.016341584 0.04295267 -0.045727294 -0.0014713289 -0.06471767 -0.0748385 -0.02978346 0.05417902
-0.063543715 -0.013247825 0.037832648 -0.07946382 0.048938897 0.079200424 -0.045342546 0.047584012

sage1.lin_l.bias f4 [128]
00000000: 9708 aabd ecb0 25bd cb91 423d 6bdb a23d
00000010: 5dd9 abbd 1069 723d ea71 19bb 33cf a8bd
00000020: 8e90 ad3d d40f a93d ac96 a03c 3155 703d
00000030: d59f bd3c fd07 743d 70b2 333d bfdd 68bd
00000040: 5aae 4abd f72e 983d 708d 9c3d 298b 2f3c
00000050: 49a0 0bbd 8ede 953c 1a98 d7bc 7bb1 143d
00000060: 029d a9bc 79ec 143d b35f 4e3d 7240 acbd
00000070: 909c 14bd 3b09 7abd 917e 46bc 041a 5d3d
00000080: f923 b63c 6d2d 5a3c 4a26 023d 99f1 1ebd
00000090: 34b9 8c3d 7f87 2e3d c944 32bd b82b 9f3d
000000a0: 7276 87bd d03a 81bd 89e4 3e3a 064f 6dbc
000000b0: 0351 153d 93d9 ad3d ae5d 583d 07f7 973d
000000c0: 397b 663c 5a01 a3bd 6ce7 95bd 7085 43bd
000000d0: 13c4 823c 0b94 ab3b bcea 71bd d62d 0f3c
000000e0: 6a17 073d c561 aa3d 297c a83d 3972 943d
000000f0: bc0a ccb9 37a9 853d 6aa4 133d 3f28 1c3d
00000100: 0750 bc3b 0ec4 713d 92ed 97bc 280e 503d
00000110: fe74 523d d5a1 a73b af6b 81bd 71d0 d03c
00000120: 6649 36bb 3ab7 af3d 3aa1 833d a84a 16bc
00000130: 033b 11bd 0f99 ae3c 38c2 963c 0668 8c3d
00000140: f6a3 fb3c 80ff a63d 0f10 0ebc 8ce6 05bd
00000150: 71b4 3f3c 2e64 863d 769d 483d 73eb 853d
00000160: cd56 8ebd 144a a8bd ddef 05bd f821 1bbd
00000170: cdb0 753d fb59 29bd aed3 13bd 3b2a 18bd
00000180: c1df e43c 83e8 983c 6389 9cbd e398 77bd
00000190: ebdc 923c 1663 7e3d 5fa4 8abb f8f7 013c
000001a0: 2034 673b 7a39 62bd 3510 43bd e2c9 53bd
000001b0: 151d aabc 1731 543d 5cb3 a63d 20f3 7dbc
000001c0: 4ab4 98bd 93a1 1dbd 064e 9bbb 29d1 ab3c
000001d0: 5a1f 8bbd 96ad 15bd 00da c33c 938a a33d
000001e0: 8f07 853d 89c1 883d 72a0 843c d9ae 60bb
000001f0: e719 7bbd bbc8 bdbb bf70 7abd b622 a2bd
-0.0830242 -0.04045193 0.04750232 0.07952007 -0.08391068 0.059182227 -0.0023413845 -0.08242645
0.08474837 0.08254972 0.019603096 0.058674995 0.023147503 0.05957793 0.043871343 -0.0568521
-0.04948268 0.07430833 0.076441646 0.010714331 -0.034088407 0.018294599 -0.026317645 0.03630207
-0.02070475 0.03635833 0.050384235 -0.084107295 -0.036282122 -0.06104396 -0.012115137 0.05397989
0.02223395 0.013316494 0.031774797 -0.038804624 0.06871262 0.042609688 -0.04352263 0.077720106
-0.066143885 -0.06310046 0.0007281979 -0.014484173 0.036454212 0.084887646 0.052823715 0.074201636
0.0140674645 -0.07959242 -0.07319531 -0.047734678 0.015962636 0.005236154 -0.05906175 0.0087389555
0.032981314 0.08319429 0.08226807 0.07248349 -0.0003891791 0.06526416 0.03604547 0.03812432
0.0057468447 0.059024863 -0.0185459 0.05079475 0.051381104 0.0051157274 -0.06319367 0.025490018
-0.0027814745 0.085798696 0.06427236 -0.009173073 -0.03545667 0.021313218 0.018403158 0.068557784
0.030717831 0.081542015 -0.008670821 -0.03269057 0.011700735 0.065620765 0.04897829 0.06539049
-0.0695015 -0.08217254 -0.032699455 -0.037874192 0.059983063 -0.041345578 -0.036090545 -0.03714965
0.027938725 0.018665558 -0.07643392 -0.06044854 0.017927608 0.062106214 -0.0042310203 0.0079326555
0.0035278872 -0.055230595 -0.047622878 -0.051706202 -0.02076582 0.05180463 0.08139679 -0.01549986
-0.074562624 -0.038484167 -0.0047395257 0.020973759 -0.06793089 -0.036542498 0.023907661 0.07985415
0.06495582 0.06677539 0.016189788 -0.0034283905 -0.061304 -0.005791751 -0.06114268 -0.07916777

sage1.lin_r.weight f4 [128, 128]
00000000: e264 01bd 5521 623d 9560 133b ef0c 11bd
00000010: a510 953d 043c 953c b0d6 493d 1747 103c
00000020: 4f62 af3d ceb4 50bd 7582 a93b 4f91 b6bc
00000030: 88d9 b33c afc9 7ebd 6542 6bbc 7ffb 82bd
00000040: 1587 6b3b 6f02 5cbd 6765 a83a 8c13 f3bc
00000050: 073f a7bd d8df 2bbd 95be 93bd 541e 943d
00000060: f227 b3bc 6c7a 9cbc d7a8 4bbd e1fa 71bd
00000070: 70eb 6ebd 9085 6ebd c493 38bd 5eee d73c
00000080: a0c1 55bd f987 aebd 60e7 c33c d8d4 b8bc
00000090: f381 08bc 26ca 963d 7eb5 953d 9e55 b33d
000000a0: 386c a33d 3832 b7bc ca3b 983d b01d 8f3d
000000b0: 7110 443d 3265 e33c 7842 ba3c 698f 71bd
000000c0: 2245 fdbc a330 24bd 051e babc 5205 b93c
000000d0: 3411 ea3b d4b9 a23d 0786 383c 9dd1 9dbc
000000e0: 47e0 963c c9d1 e5bc 6211 2e3d 46f0 8abb
000000f0: d4a1 063d 2e87 a23d 1472 753d c0e4 2b3b
00000100: b089 23bc 2e81 a7bd a97d 9dbd 0a2d 4d3c
00000110: d490 5fbd fc65 64bc 3482 bb3c 4206 bb3c
00000120: 1bfc 90bd 9cc1 3f3d b6c7 903d f951 41bd
00000130: fe08 3dbd 72fe 73bd 1ad7 143d 5ed7 713d
00000140: 2a20 78bd 2313 82bd 7a0b 183d d5cf e6bb
00000150: 78ce 2a3d fa80 083d 27f9 8f3d 591b 42bd
00000160: 270c 493c 790b 9b3d 8d7a eebc f163 5bbc
00000170: d195 ca3c d86a 89bd 8936 aebd a35c 15bc
00000180: 40b8 903d d576 38bd 7933 753d feb9 6a3d
00000190: e0c3 793c 92b7 62bc fc78 a43d 37f8 b53d
000001a0: fd17 0d3d 6148 b7bc 2b18 3e3d 011e 333d
000001b0: 1c06 a0bd 9ae9 84bd f882 fa3c 4b3c 95bc
000001c0: f9b1 463d 2b01 873b 3b32 26bd dd59 edbc
000001d0: 9ec4 02bc 6a84 613d f153 623b 691b 093b
000001e0: f3ff 803d e98e 8bbd dedc 30bc 7971 ab3c
000001f0: 2f12 743d cb73 cb3b cdbc 373d c77d 863d
00000200: c0bb 313d f806 7e3d 7cc7 933d c308 8a3d
00000210: ebde 4ebd 7768 9bbd 1838 03bd 4a10 5c3d
00000220: 007f dbbc e98e a43d b8d1 e23c 19ca 9c3d
00000230: 7a28 8dbd b29c 9c3d b583 143d c028 5a3d
00000240: ca09 993c 00d2 44bc d731 d1bb 4fd4 3cbd
00000250: 264f 74bd b5b7 af3d 054d 693d bdba 3d3d
00000260: ccfc af3d 7730 06bd aebd 813d 7a0b 4f3d
00000270: 7a9c d3ba 4613 7ebd 0bfd 5a3c 0a7e 0e3c
00000280: 823b afbd ce0d 53bd 7c40 0dbd 4a5c 0d3d
00000290: 857c 933d ee5b 62bd edb9 83bd d740 b13d
000002a0: ac03 a1bd 2089 24bd 2c83 103d d5ed 74bd
000002b0: 4637 233d 5e95 b03d f3f2 14bd bf1b 303d
000002c0: 0ff5 d3bb 4f12 703d 57ca 8ebd a242 4dbd
000002d0: 4e18 713d 9332 c83b 74cf 563d 3c5e a0bd
000002e0: 1ac3 6abd 7742 2f3d 72f4 673c 8d7f 763d
000002f0: f4b8 b7bd 771b 843d 9393 01bd 6d5b a9bd
00000300: 751a 963c 50e0 21bd bf34 d13b 0661 91bd
00000310: 7be1 5dbb 1051 55bc 5a45 093c 90e8 c93c
00000320: 88f6 8d3d ef22 433d 1358 a4bd b6f8 3bbd
00000330: 0bab 933d ebd4 aa3d dbf6 a0bd 5df9 7fbd
00000340: 5dde 283c 7430 9bbd c382 873d 0149 24bd
00000350: 5af2 643d 90ef 5b3d f198 75bb dd5d 5b3c
00000360: 4b4b d73c c40a 0dbd fc2e 8b3d 5d7f 21bd
00000370: 7814 a03d 5dac b33c d3d1 9ebc 9428 813d
00000380: 2526 acbc 91ee 22bd 5ce5 623d 0de4 cebb
00000390: f1b6 88bd c743 a93d 1776 243d 44a3 27bd
000003a0: e0cb 4f3d 4178 753d c7e9 88bb 7ffc a33d
000003b0: d00f 15bd 0c6c 5abd 5c66 95ba cb8c 8c3c
000003c0: 9b25 9d3d 3130 a33d aa6b f43c 8543 553d
000003d0: 76a1 63bc 0680 09bc cf7e 93bd fe07 ddbc
000003e0: 66f6 28bd 201a 773d fc20 48bb a446 3bbd
000003f0: 243d 11bd ad66 51bd 36d9 f13c e0fe 6b3c
-0.03159035 0.05520757 0.0022487987 -0.035412725 0.07278565 0.018217094 0.049277008 0.008806012
0.08563673 -0.05095368 0.0051730224 -0.022286085 0.021954313 -0.06220406 -0.014359091 -0.06395625
0.003593867 -0.05371326 0.0012847603 -0.029672407 -0.081663184 -0.04196152 -0.07214085 0.07232347
-0.021869633 -0.019101344 -0.049721565 -0.059077147 -0.05833 -0.058232844 -0.045062795 0.02635878
-0.05218661 -0.085220285 0.02391404 -0.02256243 -0.008331764 0.073627755 0.073100075 0.087565646
0.079796255 -0.022362813 0.07433279 0.06988084 0.047867242 0.027758215 0.022736773 -0.058974657
-0.030916754 -0.040085446 -0.022719393 0.022585545 0.007143164 0.079456 0.011262423 -0.01926499
0.01841749 -0.028054135 0.042497046 -0.0042400686 0.032869175 0.0793594 0.059923247 0.0026228875
-0.009981558 -0.08178936 -0.076899834 0.012522945 -0.05458148 -0.013940331 0.022889234 0.022830132
-0.07079335 0.0468155 0.07069342 -0.047197316 -0.046151154 -0.05956883 0.03633795 0.05904328
-0.06057755 -0.06351306 0.03712032 -0.0070438185 0.04170081 0.033326127 0.07029944 -0.047389362
0.012270964 0.075705476 -0.029111171 -0.013390527 0.024729641 -0.06709832 -0.085064955 -0.009116325
0.07066393 -0.045035202 0.05986354 0.057306282 0.015244454 -0.013837712 0.080308884 0.08885234
0.034446705 -0.02237338 0.046409767 0.043729786 -0.07813665 -0.064898685 0.030580029 -0.018217226
0.04850957 0.0041200123 -0.040575247 -0.028973514 -0.0079814475 0.05505792 0.0034534896 0.0020920879
0.062988184 -0.06814367 -0.010794846 0.020928131 0.059587654 0.006208872 0.04485779 0.06566959
0.043391943 0.062018365 0.07215783 0.067399524 -0.05050556 -0.075882845 -0.032035917 0.053726472
-0.026793957 0.080350704 0.027687892 0.076557346 -0.06892486 0.07647075 0.036258418 0.05326152
0.018681426 -0.0120129585 -0.006384115 -0.04610091 -0.059645794 0.08579961 0.056958217 0.046320666
0.08593139 -0.032761063 0.06335007 0.050548054 -0.0016144656 -0.0620301 0.013365994 0.008697042
-0.08556272 -0.051526837 -0.034485325 0.03451184 0.072014846 -0.055263452 -0.06431947 0.08654945
-0.078620285 -0.040169835 0.035281345 -0.059797127 0.039847635 0.086222395 -0.036364507 0.04299521
-0.0064684222 0.05861121 -0.06972187 -0.050112374 0.05886107 0.0061095445 0.052443936 -0.07830474
-0.05731497 0.042787995 0.014157401 0.060180236 -0.08970824 0.06450551 -0.03163488 -0.08269391
0.018323163 -0.03952056 0.0063844617 -0.07098584 -0.003385632 -0.013019815 0.008378351 0.024647027
0.06931788 0.047640737 -0.08024611 -0.045891486 0.07210358 0.08341392 -0.07859584 -0.06249367
0.010306922 -0.07577601 0.06616738 -0.040108684 0.055895187 0.05369526 -0.0037475193 0.013389078
0.02628102 -0.034434095 0.06796071 -0.039428104 0.07816404 0.021932775 -0.019387161 0.06306568
-0.021014282 -0.039778296 0.055394515 -0.006313807 -0.06675518 0.082648806 0.04015168 -0.040927187
0.05073154 0.059929136 -0.004178259 0.08007144 -0.036392033 -0.053325698 -0.0011398303 0.01715698
0.07673188 0.07968176 0.029836494 0.052066345 -0.013893476 -0.00839234 -0.07201921 -0.02698135
-0.04125061 0.06032765 -0.0030537238 -0.045721665 -0.0354587 -0.05112331 0.02952252 0.014404029

sagpool.gnn.lin_rel.weight f4 [1, 128]
00000000: c02c 18bd 74ea 8bbd 7276 133d e4e7 98bd
00000010: 8374 7cbc f418 543d 9992 51bd ab57 45bd
00000020: 228a 98bd 4c32 dd3c f4d2 623d bc41 573b
00000030: f003 8bbd ae88 9e3b 5f72 f3bc b2b4 3cbd
00000040: d78c 67bd c8c3 0b3d 74a4 443d 3b4e c83c
00000050: 1981 32bd b673 993c 6659 543d cf90 f4bc
00000060: 8d8f 4a3c 820f 973d 11a3 a23d c66c 543d
00000070: ba31 833d a516 8ebc 1f19 8c3d 2380 96bd
00000080: 80bf 1dbd 0f4f c13b b3e6 973d 1713 08bd
00000090: 7755 3e3d 7767 a5bd 68f8 73bc 1490 4b3d
000000a0: 0b9a 14bd 98ab 133d b3be 7a3d 0fda f8bb
000000b0: 259c 95bc 854b 493c f038 6ebd d79f 77bb
000000c0: 2a68 41bd b292 a33d 9f79 813d 0937 a8bc
000000d0: f547 b3bc 10ff a8bd 3333 333c 46e8 87bd
000000e0: 2ad1 983c 1592 ab3d dea2 9a3d 2230 523c
000000f0: 0bf4 153d 8796 8bbd 45da 673c cc11 84bd
00000100: d9cc a8bd e53c 9bbd e732 19bb c469 1f3d
00000110: 95c6 b23d 4776 5a3d 95c4 2cbd 6434 8bbd
00000120: ee3e fe3c 4876 6dbd 5dc9 963d 77d1 9abd
00000130: 5f48 253d 7a24 623d 97f2 a4bd 36cd 833c
00000140: ea58 323d 8af6 e13c 27f0 893d d2f7 3f3d
00000150: 4028 e2bb 8559 92bb 6ff2 f1bc fc42 3a3c
00000160: 4737 f13b bdb6 d03a e02e 13bd 33c7 af3d
00000170: 1bc3 a8bc 85da fdbc c226 2ebd b4f0 84bd
00000180: f2a4 b23d bd9d 843d 5b5e a2bd 646b cfbb
00000190: 8ed1 93bd e0cd f4bc 01c4 963d 7882 b43d
000001a0: e149 8b3d 57d9 333d 58e2 3e3d bb31 f03a
000001b0: 92af 173d eb7e 063d b9aa b43d ae02 f73c
000001c0: 2be4 80bd 2944 04bc 71d2 e9bc b034 f63c
000001d0: cd41 60bd 059a 32bd 97dc c1bc eb51 563d
000001e0: bfee 223d e9f2 72bd 186d 2bbb 9cd2 debc
000001f0: df9c a83c d9f4 8ebd fa61 3bbd 13db 103d
-0.037152052 -0.06831828 0.03600163 -0.074661046 -0.015408638 0.05178161 -0.051165197 -0.04817931
-0.07448222 0.027001522 0.05537696 0.0032845577 -0.067878604 0.004838071 -0.029717622 -0.046070762
-0.0565308 0.03412226 0.048008397 0.024451366 -0.04358015 0.018731933 0.05184307 -0.029854206
0.012363327 0.07376005 0.07941259 0.051861547 0.06405969 -0.017344782 0.06840729 -0.07348659
-0.038512707 0.005899317 0.07417049 -0.03322133 0.046468224 -0.08076375 -0.014890768 0.04969795
-0.03627972 0.036052316 0.06121702 -0.007594354 -0.018262932 0.012286072 -0.05815977 -0.003778448
-0.04721848 0.07986964 0.063220255 -0.020534055 -0.021884898 -0.08251774 0.0109375 -0.066360995
0.018654425 0.08377472 0.07550596 0.012828859 0.03660969 -0.0681582 0.014151161 -0.06448707
-0.082421966 -0.07579974 -0.0023376287 0.038919225 0.08729283 0.053335454 -0.042179663 -0.06797102
0.031035867 -0.05797413 0.07362626 -0.075594835 0.04035222 0.055210568 -0.08054083 0.016089063
0.043541826 0.02758338 0.067352585 0.0468672 -0.006901771 -0.004466238 -0.029534547 0.011368509
0.007361326 0.0015923601 -0.035933375 0.08582916 -0.020600846 -0.030987987 -0.04251743 -0.06491223
0.08722867 0.06475399 -0.07928153 -0.0063299406 -0.07217704 -0.029883325 0.073616035 0.088139474
0.06801201 0.043908443 0.046602577 0.0018325368 0.03703267 0.032835882 0.08821625 0.030152645
-0.062935196 -0.008072891 -0.02854273 0.03005442 -0.054750253 -0.043603916 -0.023664756 0.052324217
0.039778467 -0.05931369 -0.0026157554 -0.027200036 0.020582614 -0.06980295 -0.045747735 0.035365175

sagpool.gnn.lin_root.weight f4 [1, 128]
00000000: 5158 2dbd de65 683d 0618 6f3d 5764 acbb
00000010: 6a76 6abc 0d4b 8f3d cfb5 353d a807 9e3d
00000020: 1290 abbd 0287 fcbc 3d55 433c 09c6 433d
00000030: c49a 753d 9eb2 70bd 36c9 b9bc 746a ac3d
00000040: 3186 a3bd cee2 43bd faaa fe3c 9bc5 1cbd
00000050: 7e19 813d 2d94 71bd 6ac4 263d ef33 49bc
00000060: bd20 02bd bd66 643d 966d 7ebd b559 99bc
00000070: b59e 9e3d f5b0 7b3d 782b b3bd d5da 68bc
00000080: b871 f73c 3e2a f03b 92c7 6a3d 1c05 98bb
00000090: 467b e6bc 270f efbc dafd 4bbd d5d7 b23c
000000a0: d8f6 07bd 9f74 4e3c 08d3 793d 5764 9fbd
000000b0: c1bb 26bc f00d 33bc 3f16 0b3d 18e3 b0bd
000000c0: 30cf 67bb f4b7 843c f451 88bd e7c5 453c
000000d0: 486a 023d c716 21bd 7aec 7b3c c1e7 663d
000000e0: 2089 163d 9254 05bd 0908 993d 1d5d 19bd
000000f0: 2e1b 7a3d 11fe 633d 6f42 853d b3b8 09bd
00000100: e719 1a3d 5f3f 7dbd 6e60 dab9 1617 a3bd
00000110: 40b4 e5bb 262b b0bd 2ee2 b1bd bc56 dd3c
00000120: 67f1 28bd 8257 38bd 2133 62bb 64c9 273d
00000130: a847 3c3d c53b b33d bc9d ac3c c795 ff3c
00000140: a065 1b3d e0a5 53bd 8ccc a4bd 0556 673c
00000150: 75d2 5fbd 6494 95bc d54b 0d3d f41e 46bd
00000160: 6d31 983d df32 6abd d1bb a33d cb0d a2bd
00000170: e739 913c f77e c4bc 716c b1bc 0c56 873b
00000180: b2d1 03bc 27e2 a53d a802 25bd 2ec5 e93b
00000190: aa4b acbd b679 593d bc58 e8bc cf83 a6bd
000001a0: 6ba9 a53d 9451 763d e9b6 adbd acba 593c
000001b0: 4277 5fbd 32cc 4dbd a108 973d 62ac 963d
000001c0: 89ff 4f3d de59 503d 1a82 80bd f7b3 0c3d
000001d0: 0a4b 5fbd eade ebbc bc18 a5bc ad9e b3bd
000001e0: ab0a 173d 96df 34bd c5b9 683c d72c 903d
000001f0: e566 113d dd4a 5dbd 5ce8 82bd cb37 a83d
-0.042320553 0.056737773 0.05837252 -0.005260985 -0.014310459 0.06996737 0.04436284 0.07716304
-0.083770886 -0.030826095 0.011922178 0.047796283 0.05996205 -0.058764093 -0.022678953 0.08418742
-0.07984579 -0.04782372 0.031087387 -0.03827439 0.063036904 -0.058979202 0.04071466 -0.012280448
-0.031769503 0.05576204 -0.062116228 -0.018719533 0.07745115 0.061448056 -0.087485254 -0.01421233
0.030205593 0.0073292544 0.05731923 -0.004639281 -0.028134953 -0.02918203 -0.04980264 0.021831432
-0.033194393 0.012601047 0.06099227 -0.0778281 -0.0101766 -0.010928616 0.033956762 -0.08637065
-0.0035371296 0.016200997 -0.06656256 0.012071109 0.03183964 -0.039328363 0.015376205 0.05637336
0.036751866 -0.032551356 0.07472236 -0.037442315 0.061061077 0.05566222 0.06506812 -0.03362341
0.03762236 -0.061828014 -0.00041652046 -0.07963388 -0.007010013 -0.0860198 -0.086857185 0.027018897
-0.041245844 -0.04500533 -0.0034515338 0.040963545 0.045966774 0.087516345 0.021071307 0.03119935
0.037938714 -0.051671863 -0.08046827 0.01411963 -0.054644067 -0.018259235 0.034496147 -0.048369363
0.07431302 -0.05717742 0.079948075 -0.07912787 0.017727805 -0.023986323 -0.021658154 0.0041301306
-0.008045601 0.08099776 -0.040285736 0.0071341014 -0.08412869 0.05309459 -0.028362624 -0.08130609
0.080889545 0.060136393 -0.08482153 0.013289135 -0.054557092 -0.050243564 0.07374693 0.07357098
0.050780807 0.050866954 -0.06274815 0.034351315 -0.054514922 -0.028792817 -0.020153396 -0.087704994
0.03687541 -0.04415854 0.014204447 0.070398025 0.03549852 -0.054026473 -0.06391975 0.08213767

lin.weight f4 [64, 128]
00000000: 950b 043d f59d 9ebd 4746 283c a0c0 36bd
00000010: db91 30bd 5309 e63c 1aa4 c2bc 9670 85bd
00000020: a618 913d e36c 6b3d 60ac 813d 30cd a6bd
00000030: 7a9d 84bd 2021 443d 4126 563d 0e5b 003d
00000040: 3bd8 d83c 7057 16bb 8d37 ab3c 00cc 80bd
00000050: 2974 8f3d 90dc 323d 6260 72bd 9481 193d
00000060: c9b5 2e3d 6cd1 97bc e87c babc f085 4dbd
00000070: 69d4 27bd 251c 463c 168c 353d a62d e0bc
00000080: e31e a33c ce19 36bd 5d38 d43c a7bb 42bc
00000090: 5d16 8abd 4d8c c83b 8a7d 92bd 4dea b1bd
000000a0: 18c7 e4bc 4c0a ba3b b7c0 05bc acd1 833d
000000b0: 3d23 373c 22ee 943d 1b3b 8f3d 1a61 c7bc
000000c0: 2ac2 b83c 4a00 0bbd d212 09bd 42d3 283d
000000d0: 21b4 3e3d 92b7 773d be66 c23b c57b 1d3d
000000e0: 5ea2 98bb 86a6 a53d a3f0 d33c b608 33bd
000000f0: df41 4a3c f5c2 593d a037 89bd 162e 8ebd
00000100: c461 d1ba 210c 9bbd c5d0 b1bc a380 0e3c
00000110: 5e21 b63d 4246 21bd ae97 133d 0008 a2bd
00000120: 24a7 903d 7973 88bd f5dd 66bd e4fa 8e3c
00000130: 5567 ea3a 6309 6c3d f824 6b3d 2d6c 403d
00000140: ec6a 273d d4c4 893d 8d1b 963d d788 a23b
00000150: 5757 98bd 162f ab3d 7bc7 5a3d 52a7 333d
00000160: 38cd 24bd d51d 7d3b 8e24 233b 230f b4bb
00000170: 118c 89bc 164d 563d c2e6 9a3d fe17 dbbb
00000180: 5795 97bc f775 113d a4bd 6f3d 2d20 b6bc
00000190: a013 463d 619b 90bd 9e23 17bd 4733 ba3d
000001a0: fa84 fe3c 907f 0b3c 9daa 73bd 43b0 febb
000001b0: 8e14 b0bd ee96 4a3d a5f1 583d 6532 9fbb
000001c0: 101f 813d f978 ac3d 985a a03d 0b7e 89bd
000001d0: b97d bdbd 61e9 843d 41c5 81bc 684a 5e3d
000001e0: c231 0bbc 0ff4 bbbb 6190 82bb 6f5c 1a3d
000001f0: b66b 86bd b852 973d c7ea 8abd 8656 bc3d
00000200: f329 8abd e404 0d3d f702 6e3d c9d5 06bd
00000210: e5be 88bd ee7a 163d 0bc9 60bd 7508 b33d
00000220: 7e17 28bd 5e12 e5bc e491 0f3c 1631 f03c
00000230: 466a e8bc 1abd 1b3c 4f3d 20bd afc1 ad3d
00000240: 8ed2 67bc f94e 0c3d 42db b5bc b3e4 4abc
00000250: dc7a 96bc e51f 27ba e097 a33d 6f2b 3fbb
00000260: 2410 cd3c 35dd 55bd 4af7 373d ee9b 47bd
00000270: a551 52bc 4296 8ebd ad85 97bd a04d 853d
00000280: fd30 853d 2a70 63bd 5d58 98bd 9d60 24bd
00000290: 1cd8 73bd 223b fc3b 94c1 dd3b bde5 05bd
000002a0: e86f 91bd efd5 7a3d 1f12 97bd 8f3e 4a3d
000002b0: c4db 463d 9fee b3bc 7ac1 0ebd 360d 40bd
000002c0: 002e 58bd 24d9 93bc ac09 b3bc 4f99 823d
000002d0: 2d6f c93b 57a0 f5bb dc54 84bd f49c ee3b
000002e0: 59ff 60bc feea b1bd 03eb 75bc e81b d5bc
000002f0: ebeb 55bd 739b 9c3c 8932 b0bd 490d 0b3d
00000300: f44d 94bd 5fef bc3c c018 4a3d cd9d d03c
00000310: f0a7 84bd d9bc 133d 2125 b3bc 2eda 5abd
00000320: 6eaa 893c d4e0 813c 4988 a5bd 0c58 efbc
00000330: 1e87 293d 4a98 77bd d15e 963c 3c15 723d
00000340: 20db 353d 313a 393c 53eb 66bc 45a4 4ebd
00000350: df00 023d 6760 613c ee8a aa3c 6b66 99bd
00000360: 2c55 3c3d 4b17 a1bd f4da 083d 1ad1 b33c
00000370: 2795 6ebd 3f2a 5cbd 53a9 b6bc 3107 e239
00000380: ce8f 14bd 37c7 12bd 7f82 833c 2c25 a0bd
00000390: 71bb 9c3d efb7 af3d 307e 853c aaf7 68bd
000003a0: 4172 2abc 8961 72bd 0392 d3bc 0c72 3c3d
000003b0: e894 4b3d dbe6 493c 9aaa 71bd 6b88 923d
000003c0: 365e a6bd 2975 1dbd b92f 303d 62b0 383d
000003d0: a484 1abd 3be0 623d d679 af3d 3fbc 6dbd
000003e0: ba5a 083d 58ab d0bc 9e7a 9dbd 1c2b dc3c
000003f0: 589d c4bc c463 2fbd 091e bd3b e25b 27bc
0.032237608 -0.07744972 0.010270662 -0.044617295 -0.04310785 0.028080618 -0.02375989 -0.06515615
0.070847794 0.05747689 0.06331706 -0.08144605 -0.06475349 0.047883153 0.052282576 0.031336837
0.026470294 -0.00229403 0.020900512 -0.0628891 0.07004578 0.043667376 -0.05917395 0.03747709
0.042653833 -0.018532477 -0.022764638 -0.05017656 -0.040974054 0.012091671 0.04432305 -0.027365517
0.019912189 -0.044458203 0.025905782 -0.01188556 -0.06742547 0.006120241 -0.07152851 -0.086872675
-0.027926967 0.005677497 -0.008163623 0.06436476 0.011177835 0.07271983 0.06993695 -0.024338294
0.022553522 -0.033935823 -0.033465214 0.041217096 0.046558503 0.0604778 0.005932658 0.038448114
-0.0046580276 0.080884025 0.02587158 -0.04370948 0.012344806 0.05316444 -0.06700063 -0.06942384
-0.0015974571 -0.07570673 -0.021705994 0.008697662 0.08893083 -0.039373644 0.036033325 -0.07911682
0.070631295 -0.0666265 -0.05636402 0.017453618 0.0017883579 0.05762614 0.057408303 0.046978164
0.040873453 0.06726995 0.07329474 0.0049601602 -0.07438534 0.0835859 0.053412896 0.04386074
-0.040234774 0.0038622518 0.0024893614 -0.0054949685 -0.016790422 0.05231961 0.07563545 -0.0066862097
-0.018503828 0.03551289 0.058530465 -0.02223214 0.04835856 -0.07060886 -0.0368992 0.090918116
0.031069268 0.0085143 -0.05948888 -0.007772477 -0.085976705 0.049460344 0.052964825 -0.0048583024
0.06304753 0.08421511 0.078297794 -0.06713494 -0.09252495 0.06489826 -0.015841128 0.054270178
-0.00849575 -0.005735881 -0.0039844965 0.037685808 -0.06563513 0.07388824 -0.067830615 0.091961905
-0.067462824 0.034428492 0.058108296 -0.032918725 -0.06677035 0.03673833 -0.05487923 0.087418474
-0.04103803 -0.02796286 0.00876281 0.029320281 -0.028370988 0.009505535 -0.03912097 0.08484208
-0.014149321 0.034255 -0.022199277 -0.012383628 -0.01836913 -0.0006375297 0.07987952 -0.0029170176
0.02503211 -0.052212913 0.044913568 -0.04873269 -0.012836848 -0.06962253 -0.073985435 0.065089464
0.065034844 -0.05552689 -0.07438729 -0.0401312 -0.05953227 0.007697479 0.006767461 -0.0326898
-0.071014225 0.06123918 -0.07376503 0.049376067 0.04854943 -0.02196437 -0.034852482 -0.0468876
-0.052778244 -0.018047877 -0.021855198 0.063768975 0.0061472864 -0.0074959206 -0.06461498 0.007281894
-0.013732755 -0.08687399 -0.015009644 -0.026014283 -0.052226942 0.019117093 -0.08603389 0.033948217
-0.07241431 0.02306336 0.04934001 0.02546587 -0.06477344 0.03606877 -0.02186829 -0.05343073
0.0168049 0.015854277 -0.08082635 -0.029216789 0.041388623 -0.06044797 0.018355759 0.059102282
0.044398427 0.011305378 -0.014094192 -0.05044963 0.031739112 0.013755894 0.0208182 -0.07490238
0.045979664 -0.07865771 0.033411935 0.021950293 -0.05824771 -0.053751227 -0.022297537 0.00043111437
-0.036269955 -0.035834517 0.016053436 -0.0781959 0.07652939 0.085800044 0.016295522 -0.056876816
-0.010403217 -0.059175048 -0.02582646 0.0460072 0.049702555 0.012323107 -0.05900059 0.07154926
-0.08123438 -0.03844181 0.043014262 0.045090087 -0.037724152 0.055389624 0.0856816 -0.058040854
0.03328965 -0.025472328 -0.07689403 0.026876025 -0.024000809 -0.042819753 0.0057714027 -0.010214778

lin.bias f4 [64]
00000000: 88b4 9cbd a1c8 023c fbd6 c23c 4757 9b3c
00000010: a814 933d c030 943c f8c1 983d 8da6 4bbd
00000020: f74f 8abd 0c91 86bd 9e8b 4b3d b1ad 083d
00000030: 9608 66b9 462c 57bd f864 fdbc 3996 cbbc
00000040: 2f73 303c 08aa a63d ca3c 173d 6152 273c
00000050: 39f4 493d 6681 b0bb e074 20bd c849 073d
00000060: 72d4 3abd 688a ad3c 59ac 11bd ff3d b13d
00000070: 9cb2 a6bd b87d 41bd a03f fc3c 1cc7 a23d
00000080: 50bf acbc 514f 103c bcee 503d 0dd9 b5bb
00000090: 0c7d 09bd 3a1b 693d ffe3 943c 36f1 3dbd
000000a0: 2fad 5f3d c4f0 a13d 6991 363c 919e 84bd
000000b0: a206 f9bb 3ab9 b83c 96bc 5c3d 053d f5bc
000000c0: 1958 a6bc 23f6 963c d035 aa3d f8eb 273d
000000d0: 06f8 a3bd 939a 4b3d a4dd 41bd e5cc 5ebd
000000e0: 0167 803c 7dbd 34bd 07c5 86bd 5507 553d
000000f0: c011 673d 51ce 02bd caf2 913b 3758 983d
-0.07651621 0.007982404 0.023784151 0.018962516 0.07181674 0.018089652 0.074588716 -0.049719382
-0.06753533 -0.06570634 0.049693696 0.03336877 -0.00021937708 -0.052532457 -0.030931935 -0.024851905
0.010769649 0.081379 0.036923207 0.010212512 0.049305174 -0.0053865192 -0.03917396 0.033029348
-0.04561276 0.021184161 -0.035564754 0.08654403 -0.08139536 -0.047239035 0.030792058 0.07948133
-0.021087319 0.008807973 0.051008925 -0.005549556 -0.03356652 0.05691073 0.018175123 -0.046372615
0.05460852 0.079072505 0.011143067 -0.06475557 -0.0075996676 0.02254926 0.053890787 -0.029936323
-0.02030568 0.018427914 0.08311045 0.04099652 -0.08006291 0.04970796 -0.047330514 -0.05439462
0.015674116 -0.044126023 -0.06580549 0.052008945 0.056413412 -0.03193504 0.0044539915 0.07438701

fc.weight f4 [1, 64]
00000000: bc6c d73b 00c0 8c38 6739 10bd 42a1 953d
00000010: 305b 213c 2e11 7cbc 2bc2 35bd c614 943d
00000020: 1386 a73d 5424 ddbd a326 9abc 28a9 b7bd
00000030: 3b76 e8bc 9501 a63d 2bbd 683c 7606 94bd
00000040: 81fb 923d c0ab 53bd fa4a 78bd acd6 0f3d
00000050: e4d9 ee3d fd84 d7bd 6158 723c 6718 42bd
00000060: adf6 04bd cf98 0dbd f122 9f3d a0b0 b7bc
00000070: eeb4 abbd b23c a33d 5f9f c5bd e061 c93d
00000080: 4ada aebd c0d9 8cbd 3895 803d 31c9 a9bd
00000090: 5685 f03d 2df8 ad3d 78c8 88bd d4ce 6ebd
000000a0: 8a33 b23d 97e8 413d 135b bfbc e62f 813d
000000b0: e521 fdbd 9e40 b6bc 9297 d5bd ce09 b2bd
000000c0: 8ee6 adbd 9894 08bc 957f d33d 160d dabd
000000d0: 187e c33c 3e98 82bd aa7c abbd 2d63 62bd
000000e0: efd6 493d 2606 5abd 5f47 abbd 5fe4 b6bd
000000f0: 3fc8 e0bd f768 f93d 5b47 8c3d 5b86 06be
0.0065742414 6.711483e-05 -0.035210993 0.07306148 0.009848401 -0.015384955 -0.044374626 0.07230525
0.081798695 -0.10797945 -0.018817252 -0.08967811 -0.02837669 0.081057705 0.014205257 -0.07227795
0.07176877 -0.051677465 -0.06061838 0.035116836 0.11662653 -0.105234124 0.014791579 -0.047386553
-0.03246181 -0.034569558 0.077703364 -0.022423089 -0.08384119 0.07970561 -0.09649538 0.09833121
-0.08537729 -0.0687747 0.06278461 -0.08290327 0.11744182 0.084946014 -0.066788614 -0.058302715
0.087012365 0.047340956 -0.023358857 0.06307964 -0.123599805 -0.022247609 -0.104293 -0.08693276
-0.084912404 -0.008336209 0.10327069 -0.10647027 0.023863837 -0.06376694 -0.08373387 -0.055270363
0.049277242 -0.05322852 -0.08363222 -0.08930277 -0.10975694 0.121782236 0.068495475 -0.1313719

gcn_batch_norm.weight f4 [128]
00000000: 0000 803f 0000 803f 0000 803f 0000 803f
00000010: 0000 803f 0000 803f 0000 803f 0000 803f
00000020: 0000 803f 0000 803f 0000 803f 0000 803f
00000030: 0000 803f 0000 803f 0000 803f 0000 803f
00000040: 0000 803f 0000 803f 0000 803f 0000 803f
00000050: 0000 803f 0000 803f 0000 803f 0000 803f
00000060: 0000 803f 0000 803f 0000 803f 0000 803f
00000070: 0000 803f 0000 803f 0000 803f 0000 803f
00000080: 0000 803f 0000 803f 0000 803f 0000 803f
00000090: 0000 803f 0000 803f 0000 803f 0000 803f
000000a0: 0000 803f 0000 803f 0000 803f 0000 803f
000000b0: 0000 803f 0000 803f 0000 803f 0000 803f
000000c0: 0000 803f 0000 803f 0000 803f 0000 803f
000000d0: 0000 803f 0000 803f 0000 803f 0000 803f
000000e0: 0000 803f 0000 803f 0000 803f 0000 803f
000000f0: 0000 803f 0000 803f 0000 803f 0000 803f
00000100: 0000 803f 0000 803f 0000 803f 0000 803f
00000110: 0000 803f 0000 803f 0000 803f 0000 803f
00000120: 0000 803f 0000 803f 0000 803f 0000 803f
00000130: 0000 803f 0000 803f 0000 803f 0000 803f
00000140: 0000 803f 0000 803f 0000 803f 0000 803f
00000150: 0000 803f 0000 803f 0000 803f 0000 803f
00000160: 0000 803f 0000 803f 0000 803f 0000 803f
00000170: 0000 803f 0000 803f 0000 803f 0000 803f
00000180: 0000 803f 0000 803f 0000 803f 0000 803f
00000190: 0000 803f 0000 803f 0000 803f 0000 803f
000001a0: 0000 803f 0000 803f 0000 803f 0000 803f
000001b0: 0000 803f 0000 803f 0000 803f 0000 803f
000001c0: 0000 803f 0000 803f 0000 803f 0000 803f
000001d0: 0000 803f 0000 803f 0000 803f 0000 803f
000001e0: 0000 803f 0000 803f 0000 803f 0000 803f
000001f0: 0000 803f 0000 803f 0000 803f 0000 803f
1.0 1.0 1.0 1.0 1.0 1.0 1.0 1.0
1.0 1.0 1.0 1.0 1.0 1.0 1.0 1.0
1.0 1.0 1.0 1.0 1.0 1.0 1.0 1.0
1.0 1.0 1.0 1.0 1.0 1.0 1.0 1.0
1.0 1.0 1.0 1.0 1.0 1.0 1.0 1.0
1.0 1.0 1.0 1.0 1.0 1.0 1.0 1.0
1.0 1.0 1.0 1.0 1.0 1.0 1.0 1.0
1.0 1.0 1.0 1.0 1.0 1.0 1.0 1.0
1.0 1.0 1.0 1.0 1.0 1.0 1.0 1.0
1.0 1.0 1.0 1.0 1.0 1.0 1.0 1.0
1.0 1.0 1.0 1.0 1.0 1.0 1.0 1.0
1.0 1.0 1.0 1.0 1.0 1.0 1.0 1.0
1.0 1.0 1.0 1.0 1.0 1.0 1.0 1.0
1.0 1.0 1.0 1.0 1.0 1.0 1.0 1.0
1.0 1.0 1.0 1.0 1.0 1.0 1.0 1.0
1.0 1.0 1.0 1.0 1.0 1.0 1.0 1.0
