All_Benchmarking/DATA_6/Results/fold_2/best_model.pth (torch, 192098 bytes, 32 tensors)

gat1.att_src f4 [1, 4, 32]
000000 db cc a6 be 43 cd 35 be 80 65 3d 3e c2 d1 0f 3d
       -0.32578167 -0.17754082 0.1849575 0.03511215
000010 6e 51 38 be b2 80 c1 bd a7 e7 7c be c3 53 69 be
       -0.17999813 -0.09448375 -0.24697743 -0.22785859
000020 6f 55 a4 3e 56 4d a3 3d 93 1f 9a 3e f7 c5 7f be
       0.3209643 0.07973735 0.30102214 -0.24977861
000030 74 45 42 3e d1 a5 0d be 2c e8 e3 3c 5d b0 bb 3e
       0.18971807 -0.13832785 0.02782067 0.36657992
000040 21 6d 7c be bc b2 43 bd 39 e8 47 3e 60 5c 7b 3e
       -0.24651004 -0.047777876 0.1952218 0.24546957
000050 10 93 11 be cb 30 7c be f1 d6 97 3e 2c 61 60 bd
       -0.14216256 -0.24627988 0.29656175 -0.05478017
000060 75 59 99 be 01 ee a7 be d9 84 ca bd c8 22 ef bd
       -0.29951063 -0.3279877 -0.0988862 -0.11676556
000070 75 ce 97 bd 9d d1 99 be 57 35 50 3d 6a f9 06 3e
       -0.074124254 -0.30042735 0.05083212 0.13181081
000080 d7 cc 2e be 9f b1 7e 3d 39 fb 79 bd bf c2 2f 3d
       -0.17070328 0.06218111 -0.0610306 0.042910334
000090 d5 8d 7a 3e 44 b8 7e be 69 a7 a4 be 0a 94 97 be
       0.24468167 -0.2487498 -0.32158974 -0.29605132
0000a0 d7 4a 93 3e 6b 21 05 3d 47 07 8a be 2c 94 e5 bc
       0.28768036 0.032502573 -0.26958677 -0.028024755
0000b0 ae ef 90 be e4 68 a4 3e 8a b0 a6 3e c6 26 42 3e
       -0.2830786 0.32111275 0.32556564 0.18960103
0000c0 f6 30 75 bd ce 71 4d 3d 25 2d ac 3e c6 9a f4 bd
       -0.059861146 0.05015736 0.33628193 -0.11943583
0000d0 b8 2f c3 be f0 d3 83 bb bd 7e a9 be 14 31 29 3e
       -0.38122344 -0.0040230677 -0.33104506 0.16522628
0000e0 4c 83 7d be 9d 9e c0 3e ca 6a ca 3d 60 50 01 3e
       -0.24757117 0.37621012 0.0988365 0.12628317
0000f0 cf bd 2f 3c 39 fa cb 3e ef c0 e5 3b fc 11 68 be
       0.010726406 0.39839342 0.007011525 -0.2266311
000100 47 4f 99 bd 34 0d c6 3e 51 5e 2a be ac fa e5 bd
       -0.07485824 0.38681948 -0.16637541 -0.112294525
000110 ef 52 cb 3e 6c 0a 6e be 0a 44 0d be 38 e3 9a 3e
       0.3971171 -0.23246163 -0.13795486 0.3025148
000120 18 3d a5 be 3b e5 41 bd 08 ee b9 be 3c 49 c6 3e
       -0.32273173 -0.04733775 -0.36314416 0.38727748
000130 6c 64 fe bd 45 5f 98 3d 29 b1 4c be 68 23 8b be
       -0.12421498 0.07440046 -0.19989456 -0.2717545
000140 14 51 13 be ef f9 bf 3e 3d e4 5a 3e fb bf 84 be
       -0.14386398 0.37495372 0.21376128 -0.2592772
000150 dc 08 10 be 6b a1 94 be 5d ec 07 3e 51 db 19 bd
       -0.1406588 -0.29029402 0.13273759 -0.037562672
000160 c1 d3 12 be 15 15 50 be f0 f0 1a 3e 9c bf 13 be
       -0.1433859 -0.20320542 0.15130973 -0.14428562
000170 7d 0e d5 3e ff 64 b7 be 1c f1 c7 be 51 e0 ae be
       0.41612616 -0.3581924 -0.3905114 -0.34155515
000180 e3 e1 ae 3e 45 93 be 3e 64 c4 49 3e c8 8d 1c be
       0.34156713 0.37221733 0.19703823 -0.1528846
000190 89 b3 d5 3e f0 ff 57 be 95 bf 52 be f8 43 06 bc
       0.41738537 -0.21093726 -0.20580895 -0.008194916
0001a0 0a 87 57 be 6a 67 a5 be 60 90 81 be 0b 63 71 bd
       -0.21047607 -0.3230546 -0.25305462 -0.058932345
0001b0 36 4a 53 3e 80 ca 15 3e b1 dd c3 bd 36 bb 8f 3d
       0.20633778 0.14628029 -0.09563769 0.070181295
0001c0 37 c0 ba be 80 73 af 3e 96 67 84 bd 7c 29 ca be
       -0.36474773 0.34267807 -0.0646507 -0.39484775
0001d0 45 75 0f 3e e8 83 47 3e 4f 29 b6 3e a0 40 90 be
       0.14009579 0.19483912 0.3557839 -0.28174305
0001e0 75 84 45 be 19 62 62 be e2 47 99 be ee 0a 76 3d
       -0.1928881 -0.22107734 -0.29937655 0.060069017
0001f0 19 6f a5 3d 19 c8 20 be e7 eb f5 3d bb 09 74 be
       0.08077831 -0.15701331 0.120078854 -0.23831837

gat1.att_dst f4 [1, 4, 32]
000000 19 18 14 3c 82 93 90 3e 70 ae 72 3e 2a 0f a6 be
       0.009038948 0.2823754 0.23699355 -0.32433444
000010 25 2a 6a be cb 65 bc 3e e7 8d 78 3e c9 00 8a 3e
       -0.2286764 0.36796412 0.24272881 0.26953724
000020 19 d4 a2 be ed e1 9c 3e 6c 9a 92 3e b2 97 c0 be
       -0.31802443 0.30641118 0.2863344 -0.37615734
000030 21 fd c5 3e 0c 5b 1a be c7 ef ce 3e b9 dc 04 be
       0.38669685 -0.15073794 0.4041731 -0.12974824
000040 6e fd 68 be 87 d1 d8 bd ae 2b 49 3e 18 71 39 3d
       -0.22752926 -0.10586839 0.19645569 0.04527387
000050 5b b9 40 3e 4f 9f 2a 3e 96 88 92 be 81 9a 95 3e
       0.18820707 0.16662334 -0.28619832 0.2921944
000060 dd 40 78 be 6b 9c 74 be 90 d3 98 be 7b e5 6f 3e
       -0.24243493 -0.23887794 -0.2984891 0.23427384
000070 85 bc b1 bb e4 cb ae 3e 35 b9 4e 3e fe 0d 69 be
       -0.0054240846 0.3413993 0.20187838 -0.22759244
000080 46 af cf bd bc 0e 4c bd 9d 8d 70 be f4 e9 f6 3d
       -0.10140853 -0.04981874 -0.23491521 0.12056342
000090 d1 04 5f 3e cb db c6 be 18 d4 7c bd bc 42 96 3e
       0.21779181 -0.38839564 -0.061725706 0.2934779
0000a0 e0 3f 7e 3c 9c 75 68 3e f5 9a 39 3e 80 28 5f 3d
       0.015518159 0.22701114 0.18125518 0.054481983
0000b0 86 46 8a be 23 67 ad 3e 07 8b c3 be c8 02 ec 3a
       -0.2700693 0.3386775 -0.38192007 0.00180062
0000c0 e7 8f 9d be c3 e5 98 be ba a7 5d be 22 c5 2e be
       -0.3077385 -0.29862794 -0.21646014 -0.17067388
0000d0 bd 77 b4 3e da f7 be be 1b 1b 11 be ed 3e 29 be
       0.35247603 -0.3729847 -0.14170496 -0.1652791
0000e0 c4 15 c4 bd c5 91 bc be 61 3e ca be 88 5a 8d be
       -0.09574464 -0.36829963 -0.39500716 -0.27608132
0000f0 69 71 cb be d2 60 c3 3e 67 2a a8 3e e0 5b e0 3d
       -0.39734963 0.38159806 0.3284485 0.10955024
000100 88 d7 16 be 88 a7 b2 3e ff e3 37 3e d2 b4 46 3c
       -0.14730656 0.3489344 0.17958067 0.012128072
000110 da 02 b3 be 23 f3 04 bd 18 78 08 3d dd c2 4e 3e
       -0.34963113 -0.032458436 0.033317655 0.20191522
000120 f4 e5 e0 3d 2b 08 6b bd 7f 98 30 be 5e 04 1f bc
       0.1098136 -0.057380836 -0.17245673 -0.009705631
000130 46 d1 d8 3d cb 5a 55 3d 17 6b cf 3d bf e9 ab 3e
       0.10586791 0.05208854 0.10127848 0.33576772
000140 da 8b 8b be 5a 54 9a be 2f ab 15 3d ca 46 cc be
       -0.27255136 -0.3014248 0.036540207 -0.39897758
000150 60 c7 ba be 95 91 a5 bd be 6c 46 3e 02 8c 8c be
       -0.36480236 -0.08084408 0.1937742 -0.27450567
000160 bd a6 c1 3d 7a 42 c6 39 df 7f 5d be aa 1f 99 3e
       0.09455631 0.00037815032 -0.2163081 0.2990697
000170 68 03 30 be 82 81 07 be 5f 8f 80 3d cc 3b c3 be
       -0.171888 -0.13232997 0.06277346 -0.3813156
000180 fe ae 64 3e 2a de ca be 5b 98 03 be 49 8d b2 be
       0.22332379 -0.39622623 -0.12851088 -0.34873417
000190 d8 99 ca 3e 65 00 c3 bd 6e 4b bf be 3f 81 b6 be
       0.39570498 -0.095215596 -0.37362236 -0.35645482
0001a0 3d cc d1 3d c3 8c 4b 3e 92 7c 8d bd 04 96 1b bd
       0.102440335 0.19877915 -0.069085255 -0.037984863
0001b0 c9 b0 4c 3d 33 c1 9f be ca 8e a1 3e f8 16 b8 3e
       0.049973283 -0.31202087 0.31554252 0.35955024
0001c0 32 3b 3a 3e 18 6c d1 bb c5 4e 38 bd c8 20 32 be
       0.18186644 -0.0063910596 -0.044996995 -0.17395318
0001d0 de c0 41 be 75 81 a8 3e 83 cd a8 3e 21 94 13 be
       -0.18921229 0.32911268 0.32969293 -0.14411975
0001e0 a0 6d ba 3e c2 5c 7c be 58 55 95 be 90 38 83 3e
       0.36411762 -0.2464476 -0.29166675 0.2562909
0001f0 5d 4f 86 3e dd 26 4a 3e 14 ab bf be a7 17 b5 3e
       0.26232424 0.19741388 -0.3743521 0.35369608

gat1.bias f4 [128]
000000 5c 5e b9 3a df 68 54 ba 20 c2 a7 39 52 7f fd b8
       0.0014142501 -0.0008102785 0.00031997357 -0.00012087695
000010 4e a8 2b b9 b7 14 c2 38 8e 2b 1f 3a 54 20 d3 39
       -0.00016370529 9.254499e-05 0.0006071859 0.00040269142
000020 7d 81 d0 3a 78 3d 0d b7 96 13 6f 39 59 f2 cb b9
       0.0015907731 -8.418567e-06 0.00022800112 -0.0003889974
000030 e3 12 6b b9 79 2b 43 3a 42 05 a5 ba 5a 5c 4d 39
       -0.00022418382 0.00074451376 -0.0012590068 0.00019584727
000040 5f ba a4 ba f6 2c ac b9 67 27 d5 39 ab 91 aa 3a
       -0.001256775 -0.00032839895 0.00040655883 0.0013013383
000050 00 af bc 39 bc 80 91 3a f6 87 0d 38 4f 0a f3 39
       0.0003598854 0.0011100988 3.3743643e-05 0.00046356252
000060 0c ed 9a ba c7 d6 83 ba c3 8d 93 39 9e f0 75 3a
       -0.0011819913 -0.0010058515 0.00028143646 0.0009381863
000070 0d 12 93 ba 18 a1 87 3a 0c 09 7c b9 b8 32 b1 3a
       -0.001122059 0.0010347692 -0.00024035963 0.0013519144
000080 af 76 9d ba 66 9f 62 3a 7c 78 be ba b2 9e 25 ba
       -0.001201352 0.0008644968 -0.0014531757 -0.0006317898
000090 a8 6a ad b9 ed 5f fa b9 4a 33 9b ba 4e 0e 2a 3a
       -0.00033076596 -0.00047755186 -0.0011840847 0.0006487117
0000a0 3f 65 60 ba 49 ed 61 b9 0d f4 b8 b9 47 71 d6 b7
       -0.0008560009 -0.00021546068 -0.00035277047 -2.5563537e-05
0000b0 e8 8f 1c 3a 1c b6 6a 39 2d 6e 7a ba 55 89 04 ba
       0.00059723714 0.0002238382 -0.00095531606 -0.00050558645
0000c0 8e 15 20 bb 21 1c f3 39 9e c2 33 3a 7e f3 0c ba
       -0.002442691 0.0004636953 0.00068573083 -0.00053768593
0000d0 f2 cd 5b ba 56 45 23 3a fb 1d 18 ba 29 8a 1e ba
       -0.0008384875 0.00062282884 -0.0005802807 -0.0006047809
0000e0 6f 9e a5 3a 63 32 ca b9 fd da 01 b8 1c 9a 33 3a
       0.0012635718 -0.00038565983 -3.0959945e-05 0.0006851272
0000f0 2b 2b 93 b9 77 32 05 3a bf 6d 18 b9 11 5a 59 39
       -0.00028070188 0.0005081067 -0.00014536733 0.00020728285
000100 f6 16 0a 3a 1c c8 a3 b8 f4 10 51 3a 52 47 80 ba
       0.00052677037 -7.809719e-05 0.00079752435 -0.000978688
000110 1b c0 28 b9 6b c4 bc 39 a8 a7 2a 3b 56 e4 e7 b7
       -0.00016093293 0.00036004497 0.0026039872 -2.7643673e-05
000120 64 9f c6 38 d0 45 64 ba 18 65 7b ba 92 5c a2 b9
       9.4710645e-05 -0.00087079126 -0.0009589954 -0.00030968018
000130 f9 80 13 ba 1e 0f b0 ba 10 10 7e b9 e9 bc ed b9
       -0.00056268234 -0.001343224 -0.00024229311 -0.00045344912
000140 f1 39 07 3a bf 46 e0 b9 e0 28 be 39 cc 94 c1 b9
       0.0005158475 -0.0004277732 0.00036270078 -0.0003692269
000150 7e 19 2f ba 61 72 54 b9 2d c3 12 b9 20 1a 06 3a
       -0.0006679519 -0.00020260505 -0.00013996354 0.0005115587
000160 a6 67 5a 38 da 56 82 ba 08 1d 45 38 ee dd 8b 38
       5.207178e-05 -0.0009944097 4.6995498e-05 6.669374e-05
000170 f2 bf 1b 3a b6 ec 83 b9 2d 16 8c 39 95 0d 0f 3a
       0.0005941383 -0.0002516263 0.00026719403 0.0005457041
000180 3f ec e3 38 5a f8 16 3a 8e 93 08 ba fa e5 94 39
       0.00010868208 0.0005759053 -0.00052099756 0.00028400106
000190 38 0c 65 ba 84 1b ab 39 51 02 15 b9 27 7b f8 39
       -0.00087374775 0.00032636162 -0.0001421061 0.00047394002
0001a0 3a c9 b3 39 d1 29 c3 ba d5 85 e9 b8 55 b0 45 ba
       0.00034291466 -0.0014889782 -0.00011135234 -0.0007541229
0001b0 4a bb 1e 3a 57 f7 87 b9 b0 be 06 ba 39 ee 15 3a
       0.000605513 -0.0002593349 -0.0005140109 0.0005719397
0001c0 a5 ec 5b b9 7c 24 cf 39 49 97 1b ba 63 55 06 3a
       -0.00020973624 0.000395093 -0.0005935324 0.0005124418
0001d0 03 b8 f9 39 d8 0b 24 39 5e 6b 41 3a 36 9a 9a b9
       0.0004763008 0.00015644671 0.00073783647 -0.00029488065
0001e0 a3 69 68 3a 01 98 6c b9 f3 e5 54 3a e8 ed 97 b9
       0.0008865839 -0.0002256334 0.00081214233 -0.00028978218
0001f0 03 5d 39 ba 9c 39 72 3a 84 ee 16 3a a3 96 1e 3a
       -0.000707105 0.0009240152 0.00057575875 0.00060496683

gat1.lin.weight f4 [128, 5]
000000 8a 74 08 3d 63 e6 d6 bd b7 33 a4 3c 61 63 35 bd
       0.033314265 -0.104931615 0.02004419 -0.04428423
000010 3e 1c 90 bc 27 82 08 be eb 4c 83 bc 74 1d 1e be
       -0.017591592 -0.13330899 -0.016027888 -0.15440923
000020 d0 4e 48 3e c6 ed 37 bb 86 a4 a2 bd 05 74 07 be
       0.19561315 -0.0028065308 -0.079415366 -0.13227852
000030 ea e0 61 bd 91 79 0a 3d 06 cf 84 3c 44 cc 18 be
       -0.055146135 0.03380734 0.016211998 -0.14921671
000040 1a 1d 45 bd 2b 64 d5 bd a2 3f 4a 3e 2f 20 a2 bd
       -0.048123457 -0.10419496 0.19750836 -0.07916295
000050 68 3c ed 3d 4f 4d 23 3e 5f a9 1b 3e 4c 50 3d 3e
       0.11583787 0.1594746 0.15201329 0.18487662
000060 8d f9 83 be fc 1a 2b be 29 0e 28 be f1 5d 53 3d
       -0.2577633 -0.16709512 -0.16411652 0.05160326
000070 11 7c 57 be 0d a3 27 3e 7b 03 53 bd 10 7e 00 bd
       -0.21043421 0.16370793 -0.05151699 -0.031370223
000080 90 9b 50 3e 41 c1 1c be db e9 02 3e 39 0c 21 3d
       0.20371842 -0.15308096 0.12784521 0.039318297
000090 52 d3 c3 3b 65 ae 84 3a 13 54 34 bd 28 7f 0b be
       0.005976119 0.0010122774 -0.044025492 -0.13622725
0000a0 a5 89 7a bd 24 a8 10 3e 68 f7 5c be 05 7c 99 3c
       -0.061166424 0.1412664 -0.21578753 0.018735895
0000b0 ba b6 0b be f4 c0 24 3e 2b 61 d4 bc 8b eb 34 be
       -0.13643923 0.16089231 -0.02592524 -0.17667978
0000c0 2a 14 be 3b 84 92 76 bd 90 b9 84 3c 54 74 49 3e
       0.0058007436 -0.060198322 0.016201764 0.19673282
0000d0 12 19 51 bd c5 d4 3c 3d 69 94 ad 3d 5d eb 4a 3d
       -0.0510493 0.04610135 0.084755726 0.049540866
0000e0 40 6c 41 be fe 69 59 bd ef 66 f3 bd 43 74 49 be
       -0.1888895 -0.053079598 -0.118848674 -0.19673257
0000f0 06 5b 4c 3e f6 62 ad 3d 6b 30 31 be 47 d0 f8 3d
       0.19956598 0.08466141 -0.17303626 0.12149101
000100 a7 ab 43 3e 2d 75 15 bd 08 24 c0 bc 19 62 c6 3d
       0.19108449 -0.0364887 -0.023454681 0.096866794
000110 01 69 3c bc eb 46 0a be a2 4c 93 bd dc 66 ea 3d
       -0.011499644 -0.13503616 -0.07192351 0.114454
000120 54 54 f6 3d d5 35 24 3e 28 26 b0 bc 73 c6 ec 3d
       0.12027803 0.1603616 -0.02150257 0.11561289
000130 83 82 81 bd eb 46 49 3e 93 6a 0e 3b 26 0b f4 bd
       -0.06323721 0.1965596 0.0021731004 -0.11916189
000140 8c cd 2a 3e 70 b4 e8 3d 49 d9 e0 bd af a1 86 3d
       0.16679972 0.11362541 -0.10978944 0.065738074
000150 0e ca 06 3d c6 05 41 be 71 7b 45 be d8 00 20 3d
       0.032907538 -0.18849859 -0.1928537 0.039063305
000160 09 61 f0 bd b3 bd 04 3e 28 09 8d bd 1f 80 17 be
       -0.11737258 0.1296299 -0.06886512 -0.14794968
000170 cf de d0 3d 1a c1 5e be bc 85 22 3e af ac df 3d
       0.10198747 -0.2175335 0.15871328 0.10921609
000180 db 4e a4 bd 6b f5 8b 3d 2e 5e 37 3e 08 a8 0d be
       -0.08022853 0.06833919 0.1790702 -0.1383363
000190 20 8f 0d 3e 89 d5 d6 3d 74 43 22 3d 0d c1 ee bd
       0.13824129 0.10489947 0.03961511 -0.11657915
0001a0 91 dd ec bd b1 c3 49 3e a9 8e b2 bd 91 79 82 3d
       -0.11565698 0.19703557 -0.087186165 0.06370843
0001b0 d4 0b 1a be f5 d1 42 be a0 e0 8f 3d 4a 67 06 3d
       -0.15043575 -0.19025405 0.07025266 0.032813348
0001c0 61 28 a6 bd a5 bd 01 3e 01 57 61 be 73 88 39 3e
       -0.081131704 0.1267 -0.22005846 0.18118457
0001d0 99 b5 3d 3c af ea 3c be 57 b8 99 3c 9b 05 bf bd
       0.011578941 -0.184489 0.018764658 -0.09327241
0001e0 c7 bd 0d be 3e 73 a4 3d 89 cd 12 3e ee 34 60 3d
       -0.13841926 0.08029793 0.14336218 0.054737978
0001f0 96 cb b6 3a ce 06 06 3e 5a 27 1e bd b1 53 dc 3d
       0.0013946171 0.13088533 -0.038611747 0.1075815
000200 ae fa be 3c 7f 3d 27 be 81 b7 fc bd 73 f0 22 3e
       0.023312893 -0.16332053 -0.12339688 0.15912037
000210 2c e2 ba 3d f2 a6 c2 3d 4a 03 2c 3e 22 cd bd 3d
       0.0912517 0.095044985 0.1679813 0.092676416
000220 1e 6f 30 3e 32 c9 02 3e 81 0d df 3d f6 c1 61 3d
       0.17229888 0.12772062 0.108912475 0.055116616
000230 54 ac 2c 3e 3e 20 f0 3d ce 5d 72 bd d4 59 8c bd
       0.16862613 0.117249 -0.05917149 -0.06853071
000240 7b e1 3a be 47 6e d5 bd 7f 51 39 be 19 4c c8 3d
       -0.18250076 -0.10421424 -0.18097495 0.097801395
000250 96 cf 90 3d db c3 3b be 97 bc 4c bd 59 bc 0b be
       0.07070844 -0.18336432 -0.04998454 -0.13646068
000260 33 36 e7 bd 4b da 04 be c0 e8 3b 3e 9b b8 16 3e
       -0.112896346 -0.12973897 0.18350506 0.14718859
000270 8c b5 cb bc 3f 16 55 3c 2e 9b 32 3e dc 49 8f bd
       -0.024866842 0.013005792 0.17442009 -0.069965094
000280 17 80 14 3e 49 0d 75 bd 5b 3e 97 3d cf c1 cf 3d
       0.14501987 -0.059827123 0.0738494 0.10144388
000290 42 8a 27 be 5e 51 15 be 84 eb 96 bd 0e 76 9b 3b
       -0.16361335 -0.1458182 -0.0736914 0.004744298
0002a0 b8 01 17 be 01 d8 86 bc 22 b8 a9 3d 6c 19 01 3e
       -0.1474675 -0.01646042 0.08287074 0.12607354
0002b0 3c 93 4d 3c 97 e8 23 be 73 cc 28 3d ac 8e 16 be
       0.01254731 -0.16006695 0.041210603 -0.14702863
0002c0 da 6d 0e 3e a3 6f 24 be b8 7a 00 3e 44 32 a8 3d
       0.13909093 -0.16058211 0.12546813 0.082127124
0002d0 a2 75 5e 3d 95 d9 22 be 37 1c 6f bd 06 0a 3e be
       0.054311402 -0.15903313 -0.058376517 -0.18558511
0002e0 1a 9e 03 bc da ac 65 3c b2 37 19 3e 82 4c d7 3d
       -0.0080333 0.014018262 0.14962652 0.105126396
0002f0 cc 41 84 3c 63 3a 5d be 50 d3 41 3e ac 19 a8 bd
       0.016144656 -0.21604304 0.18928266 -0.082080215
000300 63 42 99 3d 72 10 39 3e 96 34 52 3e 6c 06 59 3d
       0.074833654 0.1807268 0.20527872 0.05298464
000310 79 f6 8a bd 08 00 41 3e 9e 1f a8 3d fb 49 6b 3d
       -0.06785292 0.18847668 0.082091555 0.0574436
000320 83 42 08 3d de dd df 3d b8 95 dc 3d 84 a7 43 3d
       0.033266556 0.1093099 0.10770744 0.047767177
000330 f6 56 68 3e 96 ce 03 be e7 92 b0 3c d4 94 3a bd
       0.22689423 -0.12871775 0.021554423 -0.04555209
000340 a6 c6 52 3d 18 6d 5c bd 3d c7 ec 3b 28 b1 9b 3d
       0.051458977 -0.053814977 0.0072258995 0.07602149
000350 27 49 2a bd b3 61 99 3d 54 6e 28 3e 98 20 56 be
       -0.04157367 0.07489338 0.16448337 -0.20910871
000360 ea f5 ee bd c8 ea 53 3e 7b 4d a8 bd 0d 81 26 3e
       -0.11667998 0.2069503 -0.08217903 0.16260166
000370 22 c1 08 3d 00 7e 29 3e d9 99 3e be 13 e3 ee 3d
       0.03338731 0.16551971 -0.18613376 0.11664405
000380 be 19 a5 3d dc d4 e1 bd a7 23 19 3e 92 58 e5 bd
       0.080615506 -0.11026928 0.14955007 -0.11198534
000390 53 9a ba bd 6b 9e 4a 3e 4e e1 f0 bd a3 f9 7d bc
       -0.09111466 0.19786994 -0.117617235 -0.015501413
0003a0 ea 9c 0c be c0 2d d4 bd 5e e6 8b bd a3 5c 2d bc
       -0.13731733 -0.103602886 -0.068310484 -0.010581168
0003b0 05 6d 34 be 2c eb 1e be 50 4f 5e 3e 70 5f 35 3d
       -0.17619713 -0.15519398 0.21709943 0.04428047
0003c0 9a 3c 13 3e 5b e9 1a be aa 74 13 be bb e3 a4 bd
       0.14378586 -0.1512808 -0.14399973 -0.08051249
0003d0 09 0c 03 3e 0d d0 50 3e b6 41 10 3e ea 41 37 be
       0.1279756 0.20391865 0.14087567 -0.17896238
0003e0 18 53 f8 bd a2 d4 ed bd ec 1f bf 3d 6f b1 08 3e
       -0.12125224 -0.11612822 0.093322605 0.13348936
0003f0 43 dc 32 be 22 8c 4b be 7e 26 e1 3d 74 7f 1e be
       -0.17466836 -0.19877675 0.1099367 -0.15478307

sage1.lin_l.weight f4 [128, 128]
000000 d6 2a 96 3d 9a 64 6d 3d 3a 7f 96 bc 74 47 9e 3d
       0.07332389 0.05795727 -0.018371213 0.07728472
000010 af 10 6c 3d ef 56 5b bc 72 67 40 bd 16 40 b0 bd
       0.0576331 -0.013387426 -0.046973653 -0.086059734
000020 bb 1f 12 3b d2 f7 01 3d cf d8 ae 3b 8a 11 5e bc
       0.0022296745 0.03173048 0.005335904 -0.013553986
000030 d2 0d d4 3c 26 21 44 3d a7 e5 7a 3d 0b fb 48 3c
       0.025885496 0.047883175 0.06125417 0.012266885
000040 c1 87 67 3d db e9 88 3d 84 35 8c 3d e8 b8 7f bc
       0.05652595 0.066852294 0.06846145 -0.01560805
000050 e5 7c 2e 3d b4 dd c4 bc 70 40 8b 3d d3 21 bd 3c
       0.042599577 -0.024031498 0.067994 0.023087418
000060 3a ba 1a bc 76 5a 22 bd bf 3b 86 3d fd b5 a6 3d
       -0.009443814 -0.03963705 0.065543644 0.0814018
000070 89 77 dd 3c 76 78 72 bd ce 38 02 bd be d8 44 3d
       0.027034538 -0.05919691 -0.031792454 0.048058264
000080 d4 a9 a4 3d 0d 05 58 bd ba e9 23 bd a4 e5 8a 3d
       0.08040205 -0.05273919 -0.04001782 0.06782082
000090 97 a8 a1 bc 9a eb f0 bc 85 4b b7 3d 71 62 79 3d
       -0.01973371 -0.029409219 0.08949951 0.060884897
0000a0 af 4a b1 bc c9 2d ad ba 9c fd a0 3c fb 2b 20 bd
       -0.021642057 -0.0013212498 0.01965218 -0.039104443
0000b0 2f 2e 28 bd d6 d5 24 bd 21 2f 26 bd 22 f6 a2 bd
       -0.04105967 -0.040242992 -0.04057229 -0.07957102
0000c0 f7 f9 f7 bc 04 7d 76 3d d5 f1 b2 bc b8 0d 06 3c
       -0.03027056 0.060177818 -0.02184383 0.008181982
0000d0 c4 69 b7 3d 43 98 ad 3d 95 cd ad 3d e8 dd 4b 3d
       0.0895572 0.08476307 0.08486477 0.049772173
0000e0 5a 33 1b 3d 0b 81 5e bc 78 a9 32 3d ed de 08 bd
       0.03789077 -0.013580571 0.04361865 -0.033415724
0000f0 e8 30 88 3d e4 43 36 bb 66 74 12 3d 05 77 ef 3c
       0.06649953 -0.0027811462 0.035755537 0.029231558
000100 08 d1 19 bd 41 8e 92 3c 0d 43 0e bd 9f b7 06 bd
       -0.037552863 0.017890098 -0.034731913 -0.03288996
000110 0d ee c9 bc 96 24 a9 bd 3d 21 c9 3d fc af c7 bc
       -0.024649644 -0.08258931 0.09820793 -0.024375908
000120 1f fd 5e bd 88 97 16 3d c3 d9 63 3c b2 3c 04 3c
       -0.054440614 0.036765605 0.013906899 0.0080711115
000130 a9 f1 6b bd 72 fa 0c bc 70 bd 1c bd b5 03 f1 bc
       -0.057603512 -0.008604633 -0.0382666 -0.029420713
000140 6a ad 91 3c d4 9e 3a 3d 9f 70 7a 3d 6a 3e 5d 3d
       0.017782886 0.045561627 0.06114256 0.0540146
000150 22 af ab 3d ff e1 a7 3d a6 90 5c bd 10 d4 95 bd
       0.08383013 0.08197402 -0.053848885 -0.07315838
000160 f6 5f 40 3d 3a f6 d9 3c d2 ef f9 bc d1 05 5b 3b
       0.046966515 0.026606668 -0.030509863 0.0033420215
000170 81 82 d0 3d 53 b0 36 bd 49 32 82 bc c1 12 b2 3c
       0.10181142 -0.04460175 -0.015893118 0.021737458
000180 0f c7 96 bd 75 c9 41 3d b4 26 87 bd 80 1d 41 bd
       -0.07362186 0.047311265 -0.06599179 -0.047147274
000190 e2 09 6a bd 76 b7 ee ba 79 46 2d bd a9 eb 5e bd
       -0.05713833 -0.0018212635 -0.042303536 -0.05442396
0001a0 f1 0b 18 3d bf 0f 03 bd 9f db 91 bd 6d 0e 1e bd
       0.037120763 -0.03199744 -0.071219675 -0.038587976
0001b0 b0 75 20 3d 7d 8e 6c bd e1 3b b1 3c 51 6b 69 3d
       0.039174736 -0.057753075 0.021634998 0.05698711
0001c0 43 b2 c1 3d a5 3a 3c bd 0b 70 a6 3b ad c6 a2 3d
       0.09457829 -0.045954365 0.0050792745 0.07948051
0001d0 87 4c a9 3d 99 19 3d 3d 17 2c 79 bd 45 f4 37 bc
       0.082665496 0.04616699 -0.060833063 -0.011227672
0001e0 a4 c3 37 3d 19 25 93 3d 98 69 76 3d 30 f7 d9 bc
       0.04486431 0.0718481 0.060159296 -0.026607126
0001f0 16 18 f9 3b 17 7f c5 bd e4 b7 b5 b8 2b 4f 05 bc
       0.007601748 -0.09643381 -8.665005e-05 -0.008136551
000200 e9 99 a8 bc f4 87 7a 3d 34 08 52 bc 62 1d a3 bd
       -0.020581203 0.06116481 -0.012819339 -0.07964589
000210 05 8d 8e 3d a2 91 9a 3d 96 b2 77 3d 8f d1 0c bd
       0.06960491 0.075473085 0.060473047 -0.03437954
000220 e6 83 8f bd c1 4d 9f 3c 1e ef 8c bd 8f 44 04 bd
       -0.070075795 0.019446256 -0.068815455 -0.032291945
000230 87 9c 81 3b 2d 23 7b 3d 65 af 9e 3d 5c 50 ac 3d
       0.003955427 0.061312843 0.077482976 0.08413765
000240 75 f6 8f 3d 28 e7 8c bd 37 ce 2e 3d 3a af 3e bd
       0.0702943 -0.06880027 0.04267713 -0.046553828
000250 6a 9e 8e 3c 76 c7 69 bd 16 01 48 3d fb bc f8 bc
       0.017409522 -0.057074986 0.04882916 -0.03036355
000260 99 2a 8d 3c 5a da 39 bd 8a 31 6f bd 48 43 dc bc
       0.017232226 -0.045374252 -0.058396854 -0.026887551
000270 d9 a0 88 3c 76 f7 fa 3c 67 ab 8b bd 09 2f 86 3d
       0.01667826 0.030635577 -0.06819802 0.0655194
000280 39 d1 5a bd e2 8d 5a 3c 8a b8 e4 ba 35 1f 75 bd
       -0.053422187 0.013339492 -0.0017450016 -0.059844214
000290 fd 51 1b bd a1 9a 82 bd cf a8 53 3d 76 54 06 bc
       -0.037919987 -0.063771494 0.05167466 -0.008198848
0002a0 7d b4 73 3c c6 1c a7 bd 88 6d 21 3c 11 d0 06 bd
       0.014874575 -0.08159785 0.009852774 -0.03291327
0002b0 f8 bd 46 3d 15 a1 d3 bc 87 5c 9f 3d 23 91 18 bd
       0.048521012 -0.025833646 0.0778132 -0.03724779
0002c0 28 10 1a bc bb 29 94 3d 03 8e 59 bd 9c 26 17 3d
       -0.009403266 0.07234522 -0.05311395 0.036902055
0002d0 02 f7 4b 3d 1e 20 87 bd be 3d da 3c 0b f3 0b bd
       0.049796112 -0.06597923 0.02664077 -0.03416733
0002e0 27 7f 67 3d 06 80 4f bd 6b 86 9f 3d 99 57 07 bd
       0.056517746 -0.050659202 0.0778931 -0.033042524
0002f0 47 e6 7e bd 45 7d a5 3d ea 6b 61 bd 2c 46 a6 bb
       -0.06223133 0.08080534 -0.055034555 -0.005074283
000300 00 a3 0f bd e6 09 80 3d bd b9 3a bd 55 ea 54 3c
       -0.03506756 0.06251888 -0.04558729 0.012995322
000310 e6 b9 85 3d e6 6c 79 3d ae 82 77 3c 40 c9 08 3d
       0.06529598 0.06089487 0.01510684 0.033395052
000320 31 32 70 3d c6 bc 95 bd 08 c3 43 3b 0d 8d 1d 3d
       0.058641616 -0.07311396 0.0029870886 0.038464595
000330 6a 2f ac 3d da d6 47 3d 65 3a 6f 3d 68 f8 a8 3d
       0.08407481 0.048788883 0.0584053 0.08250505
000340 a9 f1 5e bd b0 15 00 3d c5 d5 58 bc f9 a5 dc bc
       -0.054429684 0.031270683 -0.01323456 -0.02693461
000350 08 28 89 bd ab 7b 99 3d 7b b1 53 3d a8 1f 79 bd
       -0.066970885 0.07494291 0.05168293 -0.060821205
000360 47 42 a7 3d d1 ba 52 3d 98 fc 52 bd 8a 08 41 3d
       0.08166938 0.051447693 -0.051510423 0.047127284
000370 c2 35 53 bd b1 4d 93 bc 87 35 0f 3d b0 c7 ab bd
       -0.05156494 -0.017981382 0.034963157 -0.08387697
000380 fe 2f 01 3d 88 3d ab bc b9 70 bb bc eb e6 22 bd
       0.03153991 -0.020903364 -0.022880899 -0.039771
000390 35 6b d1 3c cd 28 f7 bc 20 df f7 3c 46 a1 9e 3d
       0.025563816 -0.030170823 0.030257761 0.07745604
0003a0 ea 58 78 3d 38 9d 2b bd 02 b8 b0 3d 46 a5 1d bd
       0.06063167 -0.041897982 0.08628847 -0.038487695
0003b0 a9 9d 71 3c 86 e6 59 3d 22 68 9b 3d 92 21 b2 3d
       0.014747062 0.05319836 0.07588221 0.08697809
0003c0 c5 a0 41 3d 7c 89 9e bc ab c6 10 bd af 43 3e 3d
       0.047272462 -0.019352667 -0.035345715 0.046451267
0003d0 a4 54 a3 bd 75 70 63 bd 86 48 0d bc dd 92 ad bd
       -0.07975128 -0.05552717 -0.008623248 -0.084752776
0003e0 89 06 63 bc dc 24 a4 3d 8b 47 ac bd 53 aa 67 bd
       -0.013856539 0.08014843 -0.08412083 -0.05655892
0003f0 76 24 74 bc 14 ce 5c 3d 56 22 91 3d 4b 75 6c bc
       -0.014901271 0.05390747 0.07086627 -0.014432262

sage1.lin_l.bias f4 [128]
000000 13 4e b2 3a bf 5a d0 3b 5a 68 ab 3d 88 58 76 3b
       0.001360359 0.006358474 0.08369513 0.003758939
000010 c4 d4 9e bd 6e ea 76 3d 72 30 08 3d 97 bf d7 bc
       -0.077554256 0.060282163 0.033249326 -0.026336474
000020 ea d4 8c 3d e7 a7 a6 bc 1e 60 00 3c d9 9a 8a 3c
       0.06876548 -0.020343734 0.007835416 0.01691954
000030 0f eb a8 bc 7e f1 3f 3d ab 9d a8 bd 56 e0 92 bd
       -0.020619897 0.046861164 -0.08233198 -0.07171695
000040 86 54 76 3d f1 9e 32 3d 48 e5 b5 3c ab 63 7e bd
       0.0601392 0.04360861 0.022204056 -0.06210677
000050 c7 e5 b8 3c 2f 2b 99 bc e2 be fa bc 89 f4 1e bd
       0.022570504 -0.01869735 -0.030608598 -0.038807426
000060 ad 62 3d 3d 0b 2b 2e 3d 33 29 ad 3d 85 4e 9f bc
       0.046236683 0.042521518 0.08455124 -0.01944662
000070 7c 80 8f bd 2e 9f 3d 3d e8 33 4e bd ed 4d 24 bd
       -0.07006928 0.046294384 -0.05034247 -0.04011338
000080 35 65 a8 3d 10 69 fa 3c 31 9a 69 3d 69 d2 00 3c
       0.08222429 0.030567676 0.057031814 0.007862666
000090 e3 7d fb bc 2b a9 a1 bc 8e 15 a8 bc 81 31 5d bd
       -0.030699676 -0.019733986 -0.02051809 -0.05400229
0000a0 a7 c0 64 3d 06 f4 70 bd 82 af 26 bd f9 60 b5 ba
       0.05584779 -0.05882647 -0.04069472 -0.0013838104
0000b0 69 3a 1e 3c 1e 31 ef ba 87 04 3d 3c 00 1f 94 bd
       0.009657481 -0.0018248891 0.011536724 -0.07232475
0000c0 63 83 8a 3d a1 53 b2 3d 60 43 43 bd 2a 0c 95 bd
       0.06763341 0.08707357 -0.047671676 -0.07277711
0000d0 17 a8 7a 3d e8 ba b8 3b 8d 3c 4c bd 75 b2 5f 3d
       0.06119546 0.0056375153 -0.049862433 0.05461355
0000e0 d5 8e 8d bd 41 34 8c 3d 06 d9 34 bd 98 39 03 3c
       -0.06912009 0.06845904 -0.044152282 0.008009337
0000f0 71 2d 3e bd c3 d1 06 bb 6e 12 fd b8 42 b5 65 bd
       -0.046430055 -0.0020571805 -0.00012067413 -0.056081064
000100 b4 67 4f bd 7e 70 cb 3c 6c 73 b3 3d 1e bf 44 bd
       -0.05063601 0.024833914 0.08762249 -0.048033826
000110 cf d1 42 bd 7d f4 e5 bc d0 77 1d 3c 63 dc a4 bd
       -0.04756337 -0.028070683 0.009611085 -0.08049848
000120 91 d0 58 bd 25 5e 42 bb 3d 5e b1 bc 15 61 18 bc
       -0.05293328 -0.0029658165 -0.021651382 -0.00930049
000130 b7 7c b0 3b da b0 78 bc f4 14 95 bd 04 59 6b bd
       0.005385961 -0.015178883 -0.07279387 -0.05745794
000140 7f 08 bd bc ab a1 81 3d 55 9f e2 3a e3 0d 93 3d
       -0.02307534 0.06329664 0.0017289916 0.07180383
000150 85 4a 3e bd 89 b9 72 3d c9 71 68 ba cc 4b 90 3c
       -0.046457786 0.05925897 -0.0008867053 0.017614268
000160 49 20 71 bd 12 ec 99 3d 44 4d 5a 3c 85 ff 98 bb
       -0.05886868 0.0751573 0.013324086 -0.004669132
000170 e0 e8 6f 3d 3a 36 88 3d dd 57 9b 3d 8b e3 89 3a
       0.058571696 0.06650968 0.07585118 0.0010520084
000180 b9 c8 a6 3c c9 39 32 bd 27 8b 12 3d 7e c2 db bd
       0.020359384 -0.04351214 0.035777237 -0.10730456
000190 0c fd 51 bd 5e c5 6a bd 61 78 ec bc 95 02 ee 3b
       -0.051266715 -0.05731713 -0.028865995 0.0072634914
0001a0 39 52 90 bd 63 25 2b 3c b0 ee 9a bd e8 bd b8 bd
       -0.07046933 0.010445925 -0.07565057 -0.09020597
0001b0 02 47 3f 3d 94 b6 07 bd 7b c8 3f bd f6 c9 01 bd
       0.046698578 -0.033133104 -0.046822052 -0.031686746
0001c0 e9 5d e5 3c 5a ae 46 bd 64 a1 7f bd 5b 55 a6 3d
       0.027998881 -0.04850612 -0.062409773 0.08121749
0001d0 51 8e 49 3d 45 bb 5a bd 04 9d 8a 3d 89 16 47 3d
       0.04920799 -0.05340125 0.067682296 0.048605476
0001e0 00 56 1a bd 79 c6 a0 3d d0 a8 f0 bb 88 68 60 3d
       -0.037679672 0.07850356 -0.007344343 0.05478719
0001f0 22 8b 8d bd 57 a9 82 bd d0 1e e3 bc 9e 0b c0 bc
       -0.06911303 -0.06379955 -0.027724653 -0.02344304

sage1.lin_r.weight f4 [128, 128]
000000 da 21 74 3d 0b 81 62 bc 98 fe c1 3c 88 af ea 3c
       0.059602596 -0.013824712 0.02368097 0.028648153
000010 73 52 b5 bd 86 ee ff 3c 2d 34 9e bd 08 1a 01 3d
       -0.088536166 0.031241667 -0.077247955 0.031518966
000020 0d fb ab bd ad b7 22 3d ba 3f f7 bb 38 88 06 bd
       -0.083974935 0.039725948 -0.0075454386 -0.032844752
000030 e8 80 f3 3b 6e d7 9a 3d 8e fb 44 ba bb 46 2e 3d
       0.0074311383 0.07560621 -0.0007514291 0.042547923
000040 4e d7 44 3d 5b d2 cc 3c 65 4c 45 3c 58 f9 b9 3c
       0.048056893 0.025002649 0.01204214 0.022701904
000050 87 72 32 3c 40 29 c0 3c 84 17 b5 bd 5e 25 96 3d
       0.010891563 0.02345717 -0.08842376 0.07331346
000060 f8 6d 98 bc 30 26 59 3d 6e 82 c0 bc be 2c ab bd
       -0.018607125 0.053014934 -0.023499694 -0.08358143
000070 23 7f 84 3c 8a 8a ae bd 9b 4a 78 bd 48 d8 8b bd
       0.016173905 -0.08522518 -0.060618024 -0.06828362
000080 4e 2a 94 3d 61 ac 04 bd 4b b6 59 3b 37 2c 44 bd
       0.072346315 -0.032390956 0.0033220227 -0.04789373
000090 50 1b 8e bd e0 fe 2d 3d ad 14 5b 3d 1c 57 b1 3d
       -0.06938803 0.042479396 0.053486515 0.08659193
0000a0 90 41 c5 3d 25 1d 2c 3d f7 3a 9e 3c b9 da 2d 3d
       0.09631646 0.042019982 0.019315226 0.04244492
0000b0 0f 76 30 3d 4d 61 d3 3c 7e 98 65 bd 72 72 93 3d
       0.04308134 0.025803233 -0.05605363 0.07199563
0000c0 94 db 93 ba b4 c1 ce 3c d5 b1 41 bd 1b 3f 22 bd
       -0.0011280649 0.02523885 -0.047288734 -0.039610963
0000d0 b0 8a e8 bb a9 70 62 3d ac 05 85 bd 9d d8 22 3c
       -0.007096611 0.055283222 -0.064952224 0.00993934
0000e0 04 29 fa bc df da 91 bd 5a 41 9a 3d 83 04 cc bd
       -0.030537136 -0.071218245 0.07531996 -0.09961798
0000f0 0e 45 3b 3d b3 00 90 3d 1c d4 a7 3d 9c b3 c4 bc
       0.045720153 0.07031383 0.081947535 -0.024011426
000100 c0 37 9c 3d 18 cc 9d 3d 43 38 88 3d c2 8c 8b bd
       0.07627821 0.077049434 0.06651356 -0.06813957
000110 ea 41 0c 3d 44 44 23 bd 53 dc 3c 3d 4d 50 b1 3d
       0.034242548 -0.039860025 0.046108555 0.08657894
000120 08 d2 99 3d 0f cd b4 bd 06 73 17 3d 39 df ab 3c
       0.075107634 -0.08828174 0.03697493 0.020980464
000130 db c3 49 bd a1 0b ba 3c bd d1 59 bc 84 63 32 bd
       -0.049259048 0.022710623 -0.013294634 -0.043551937
000140 d1 42 43 bd a9 5e b3 bd 42 79 6e 3d d5 b2 2a bd
       -0.047671143 -0.08758289 0.05822111 -0.041674454
000150 ad 47 8f 3d a1 9d 99 bc ed 90 c1 bd 9a 0e 79 bd
       0.06996093 -0.018751921 -0.094514705 -0.06080494
000160 c2 54 5c bb 6d 6e 79 bd 00 ba 8e 3d 9b d9 6c 3d
       -0.0033619856 -0.060896326 0.069690704 0.057824712
000170 eb 94 09 bd 71 eb 96 bd 63 d2 95 3d cb af 93 bb
       -0.033589285 -0.07369126 0.07315519 -0.00450704
000180 3d 2a 77 3d 09 36 9d 3d be 70 f8 39 e4 90 d6 ba
       0.060343016 0.07676322 0.00047386246 -0.0016370085
000190 e6 c3 30 bd 86 76 66 bd 8f 63 bd bd 71 56 50 3d
       -0.043155573 -0.056265377 -0.09247505 0.050863687
0001a0 c0 b6 1d bd 09 5b 46 bd e8 e5 9f 3d 30 d7 95 bd
       -0.038504362 -0.04842666 0.07807523 -0.073164344
0001b0 2a bd 87 bb a3 28 8f 3d 67 84 25 bd e2 3d 93 bd
       -0.004142423 0.06990173 -0.04040947 -0.071895376
0001c0 55 d3 67 bd c0 69 a0 3d 52 ae 2b bc 32 29 9e bd
       -0.056598026 0.0783267 -0.010478573 -0.07722701
0001d0 60 d1 88 bc 9a c1 6c bd fd 0e 36 3d eb 00 22 3d
       -0.0167014 -0.05780182 0.044447888 0.039551657
0001e0 60 f2 3f bd 36 12 94 bd a2 0a a4 bd 4c 40 16 bd
       -0.046862006 -0.07230036 -0.080098405 -0.036682412
0001f0 bf 77 2a 3d 9c b9 2a 3d ac ea 8d bd f4 65 8f bd
       0.041618105 0.041680917 -0.06929526 -0.07001868
000200 ad 13 7b bd d2 d7 a4 3b 2e 02 87 3d d0 87 50 3c
       -0.06129806 0.0050306106 0.065922126 0.012727693
000210 29 1e 1b 3d 28 3f 9b 3d 9a 91 8e bd 85 b6 da 3c
       0.03787056 0.075804055 -0.06961365 0.02669836
000220 51 5a 47 bb d3 3c c2 bb be 02 08 3d 0b f4 0e 3d
       -0.0030418823 -0.005927661 0.03320574 0.034900706
000230 80 93 99 3d 80 3a a6 3d 43 c8 9f 3d fa b0 88 3c
       0.074988365 0.08116627 0.07801869 0.016685952
000240 fa 28 b0 3d f4 23 39 3d 21 2f 7b bc e4 d4 62 bd
       0.08601566 0.045200303 -0.015331061 -0.05537881
000250 da 10 8b 3d 77 b4 05 3d 7e 2a b5 3c 88 7c e1 3c
       0.067903236 0.032642808 0.022114988 0.027525201
000260 0e 62 96 bd 9a 65 98 bd c8 9b 9b bd ba ab db bc
       -0.07342921 -0.07441254 -0.07598072 -0.026815284
000270 db 41 bb bb 7d 4f 08 3d de fe aa 3d a5 90 84 3d
       -0.0057146377 0.03327893 0.08349393 0.06472901
000280 20 ae 86 bd cf 70 8c 3c a8 41 9c bd e9 39 99 bc
       -0.065761805 0.017143635 -0.076297104 -0.018704372
000290 88 31 12 bd 2a c5 ec 3c 7c e1 2c bd 14 09 16 bd
       -0.035691768 0.028902609 -0.042207226 -0.03662975
0002a0 3c 1f 98 3d 70 db 3e 3c 41 6d d6 bc 4e 44 d5 bc
       0.074278325 0.011648998 -0.026175143 -0.026033547
0002b0 91 88 c8 3b 42 3b 9a bc 18 8d 9f 3d a4 5a 22 bd
       0.0061197956 -0.018827084 0.07790583 -0.039637223
0002c0 3a f5 60 3d 8f 02 2e 3d c0 e1 75 bc 92 22 ae 3d
       0.054921366 0.04248291 -0.015007436 0.085026875
0002d0 47 15 79 3d 9d 48 25 3d ac 95 7d bd 92 8f 62 bd
       0.060811307 0.040352453 -0.061910316 -0.0553127
0002e0 4f d8 06 bd fa 70 61 bd 12 fb 43 bc 75 fe 11 3d
       -0.03292113 -0.055039383 -0.011961715 0.03564306
0002f0 3d 51 28 3d c7 cb b9 3c a4 c3 a3 3d 8b 8b 73 3d
       0.0410931 0.022680176 0.079963 0.05945925
000300 29 ff a0 3c 2d 7e 1e bd 2a 09 99 bd 62 1e ca 3b
       0.01965292 -0.03869455 -0.07472451 0.0061681727
000310 ae 12 25 bd 3f e5 a6 bd eb 82 81 bd 50 1b f1 3c
       -0.040301017 -0.08149194 -0.06323799 0.029431969
000320 a1 45 b3 bc 3d c2 b8 bb 9e 03 e9 bb 6d 56 0a 3d
       -0.021883788 -0.0056383894 -0.007111027 0.03377383
000330 80 59 9c bd 19 ca 06 3d c3 a0 9b bd f0 bd 69 bd
       -0.07634258 0.03290758 -0.07599022 -0.057065904
000340 e7 0d 75 3d 01 52 03 3c cd b9 23 3d 87 37 87 bd
       0.05982771 0.008015157 0.039972115 -0.06602388
000350 4b a5 94 3c cc 70 7f bd c3 40 2b 3d 4c 47 14 3d
       0.018145224 -0.06236343 0.04180981 0.036200806
000360 6a e0 77 bc 9c 65 09 bd 4a d3 4a 3d 66 f1 c2 bc
       -0.015129188 -0.033544168 0.049517907 -0.023796748
000370 05 cf a1 3d e2 c2 9d 3d eb d5 a2 bd 07 ae 5c bd
       0.07900814 0.077031866 -0.07950958 -0.053876903
000380 b3 87 b2 3d f3 f9 e8 bc a6 c4 38 3c bd 09 98 3d
       0.08717289 -0.028439498 0.011277353 0.074237324
000390 0a a8 ac 3d 1e f9 82 3d f7 ca b6 3d ff 08 a6 bc
       0.084304884 0.063951716 0.08925431 -0.020267962
0003a0 7e ae 3d 3d e7 17 0c 3d 2a dd b0 3c 8a 6d 0e bd
       0.046308987 0.034202483 0.021589834 -0.034772433
0003b0 e6 3b 51 3d d2 84 b0 bd 08 d2 35 39 75 78 87 bd
       0.051082514 -0.086190835 0.00017339748 -0.06614772
0003c0 ed 28 96 3d 5b af 84 bd 35 e7 1a bd f3 8b 7f 3d
       0.07332025 -0.06478759 -0.037818152 0.062389325
0003d0 32 a2 8d 3d 42 69 b1 3d 92 cf a4 3d bd b3 d3 bc
       0.06915702 0.086626545 0.080474034 -0.025842542
0003e0 d1 13 bb ba 35 83 83 ba 2e e8 0d 3d 61 db b0 3d
       -0.0014272874 -0.001003361 0.034645252 0.08635593
0003f0 e9 dd 29 bd a4 a8 be bc 55 9a 8d bd 9a d5 16 3d
       -0.041471396 -0.023273773 -0.06914202 0.0368248

sagpool.gnn.lin_rel.weight f4 [1, 128]
000000 68 27 bd 3a 3c 1c 99 bd 22 12 8a 3d c6 0b 6d 3d
       0.00144313 -0.074760884 0.0674174 0.057872556
000010 d6 f2 35 3b da da 9d 3d da b2 3b 3b 9c 31 07 3d
       0.002776315 0.07707758 0.002864054 0.033006296
000020 b0 99 52 bd bf 45 77 3d cd b8 88 3d 52 69 4e 3d
       -0.0514161 0.06036925 0.06675873 0.05039341
000030 69 a4 9e 3d 36 7b 00 bc 10 1e 3b 3d 84 44 08 3d
       0.077462025 -0.007841876 0.045682967 0.033268467
000040 d2 73 71 3b c4 c0 c0 3c 8d ef 6b bd 79 e0 7e 3d
       0.0036842716 0.023529418 -0.0576015 0.062225793
000050 0e e1 9e bd 0f e4 96 3d da 7d 86 bc 6f 33 f6 bb
       -0.077577695 0.073677175 -0.016417433 -0.0075134556
000060 e3 32 6c bc 42 5f 78 3d 63 77 b4 3c c4 9f 52 3d
       -0.014416429 0.06063772 0.022029584 0.051421896
000070 29 6c b7 3c 46 d0 e7 bc 18 5e 09 3d 84 1e b7 3d
       0.022390442 -0.028297555 0.033537 0.08941367
000080 3f 5f 80 bb 0d 2a 73 bd 9e 79 b0 bc 38 f3 f0 bc
       -0.003917604 -0.059366275 -0.021542367 -0.02941285
000090 90 a5 cf bc 59 68 20 3d 3f 1d 74 3d 71 76 44 3d
       -0.025347501 0.039162014 0.059598204 0.047964517
0000a0 5a 0c a2 3d de bf 18 3c 09 5d f3 3c 84 82 60 bd
       0.07912512 0.009323088 0.029707449 -0.05481197
0000b0 aa 61 f1 3c eb 14 61 3d 1f 66 db bb b7 df b4 3d
       0.029465515 0.05495159 -0.0066955234 0.08831733
0000c0 80 45 a5 bb 82 6a 00 3d 9c 17 8c 3d f0 b5 81 bd
       -0.0050436854 0.031351574 0.06840441 -0.0633353
0000d0 ee f2 28 bd d9 c2 83 3d 3d 52 9c 3d 6c 30 86 bd
       -0.0412473 0.064336486 0.07632873 -0.065522045
0000e0 e4 3e 19 bd 32 14 91 3d 83 62 32 bd e8 14 99 bc
       -0.037413493 0.0708393 -0.04355098 -0.018686727
0000f0 04 c2 61 bc 68 8a 49 bd 37 ac 88 3d 95 5e 5f 3d
       -0.013779167 -0.04920426 0.066734724 0.05453356
000100 62 7d 7a 3d 4d cb 45 bc be 41 7b bd f5 cc 60 bd
       0.06115473 -0.012072396 -0.061341994 -0.054882962
000110 0e 80 ba 3c 9e 06 a7 bd 35 03 34 3b 9d 32 89 bd
       0.02276614 -0.08155559 0.0027467732 -0.06699107
000120 5a 67 2d bd be fd 8c 3d 20 39 bf bc c7 1f 94 bd
       -0.04233489 0.06884335 -0.023342669 -0.072326235
000130 95 fc 34 3d 3d 25 6c bc f9 92 72 3d 69 e2 38 bd
       0.044186193 -0.014413175 0.059222195 -0.045137797
000140 77 fd a6 3d b0 a3 52 3d e8 b9 9d bc f7 38 7c 3d
       0.08153813 0.051425636 -0.019253686 0.061577763
000150 6a 28 8b 3d fe e6 dd 3a 2b 16 5c bc 40 7f 64 3d
       0.06794818 0.0016929803 -0.01343302 0.055785418
000160 6c c2 55 bd 00 77 36 bb 94 4f b7 3d 26 63 e8 bc
       -0.05218737 -0.0027841926 0.08950725 -0.02836759
000170 0d ac 05 bd eb f7 a4 3d 57 95 19 3d 92 f9 1f bd
       -0.032634784 0.08055099 0.037495937 -0.03905637
000180 60 58 2c bc d5 f1 17 bd c6 0f 93 bd f4 c3 0e bc
       -0.010519117 -0.037095863 -0.07180743 -0.008713711
000190 2b 27 97 bd 64 be 26 3d 41 09 34 3d 4d c3 76 3d
       -0.073805176 0.040708914 0.043954138 0.060244847
0001a0 bb 64 b9 3c 4b c6 15 bd ff 07 67 bd 40 11 d0 bc
       0.02263104 -0.03656606 -0.05640411 -0.02539885
0001b0 2c c0 12 3d 26 81 81 bc 83 7e 11 bd f8 1a 3d 3d
       0.0358278 -0.015808653 -0.03552104 0.046168298
0001c0 96 55 a1 3b fe 6f 96 bd 47 51 95 bd 8d 1a 57 bd
       0.0049235327 -0.073455796 -0.07290893 -0.052515555
0001d0 42 60 9f 3d 34 7a 52 bd c3 8f a3 3d b6 49 4a bd
       0.077820316 -0.051386073 0.07986405 -0.049386702
0001e0 63 8b 54 bd c9 c6 7d 3d 86 0b 11 bd 27 9e b0 3d
       -0.051890742 0.061957154 -0.03541138 0.08623915
0001f0 b8 15 a9 bd 9c 72 40 bd ed a1 c4 bc 11 25 81 3d
       -0.08256096 -0.0469843 -0.024002993 0.06305898

sagpool.gnn.lin_root.weight f4 [1, 128]
000000 38 fd b4 bd a1 7b c3 3c 52 16 6f 3d 81 01 c1 3d
       -0.0883736 0.023862662 0.058370896 0.09424115
000010 c2 dd 9e 3d d8 d2 8e bd 56 30 46 bd db 83 15 3d
       0.07757141 -0.06973809 -0.04838594 0.0365027
000020 34 f9 3f 3c 90 9a 07 3d 96 92 d6 3a c9 2b 70 3d
       0.0117171295 0.033106387 0.001637059 0.058635507
000030 fa b7 a5 3d 03 f7 65 3d ad 18 8b bd f2 b6 06 bd
       0.08091731 0.05614377 -0.06791816 -0.032889314
000040 4d b2 02 3d ca 73 6a bc 25 e0 01 3c 0b 72 03 bd
       0.031908322 -0.014309833 0.007926975 -0.03209118
000050 36 d8 7b bd e0 ca 3a 3b 52 e5 02 bc 12 76 3c 3d
       -0.06148549 0.002850227 -0.007989245 0.046011038
000060 91 d8 37 bd 86 4f 03 bd 83 58 5d bb d8 4a 76 bc
       -0.04488427 -0.03205826 -0.003377468 -0.015032493
000070 10 dc a9 bc a3 91 63 3d d1 fb 02 bc dd a8 17 bd
       -0.020734817 0.055558812 -0.007994608 -0.037026275
000080 bc 47 5c bd 9d 8e f6 3b 7d b7 a5 bc 7c 81 c0 3d
       -0.05377935 0.007524325 -0.020229096 0.09399697
000090 e1 16 a7 3d 0a 90 d8 bc ea af 91 bd 15 48 57 bb
       0.08158661 -0.02643587 -0.07113631 -0.003284936
0000a0 0e 3b 28 bd f3 c6 c3 3b 1c f7 d1 bc e8 1b 45 3c
       -0.041071944 0.0059746443 -0.025630526 0.012030579
0000b0 ce e8 93 bd 85 4d 17 3c 56 8e da 3c d8 83 2d 3d
       -0.07222138 0.009234791 0.0266792 0.042362064
0000c0 80 f7 24 bb fd a6 a2 bc 49 4f 31 3d 33 0c 0b 3d
       -0.0025171936 -0.019855017 0.043288503 0.03394718
0000d0 d6 cc 78 3d 69 af bb 3d 54 d6 84 bd 13 68 ab bb
       0.06074222 0.09164316 -0.06486192 -0.0052309125
0000e0 62 a8 1f 3d 89 5a 57 bd 73 5f 51 bd 5c df 99 3b
       0.03897894 -0.052576575 -0.051116418 0.004695816
0000f0 98 25 a8 bd 97 a7 2a bb 0f 42 85 bd 5c 97 8a 3d
       -0.082102954 -0.0026039833 -0.0650674 0.06767151
000100 5b 34 e4 bc 3c dd 98 3d 08 41 81 3d 6e aa 43 3d
       -0.027856996 0.07464072 0.06311232 0.047769956
000110 a3 98 9c 3d 61 30 7f bd 6f 39 37 bd 3f c1 84 3d
       0.07646301 -0.062301997 -0.044732507 0.06482171
000120 fc ce 5b 3d 4c a1 93 3d 66 96 bb 3c 1e 1a d8 bb
       0.053664193 0.07208499 0.022898864 -0.0065949103
000130 f2 a5 86 3d c4 47 b0 bd ac f9 d6 3b 6c 8c fb 3c
       0.0657462 -0.08607438 0.006560525 0.030706607
000140 e1 3b 8d 3c f8 69 61 bd db ec 83 3d de 12 af 3d
       0.017240467 -0.0550327 0.06441661 0.085485205
000150 0a 5a 79 3d 7d 9f dd 3c 32 f3 1a bd 07 aa 96 bd
       0.060876884 0.027053589 -0.037829585 -0.07356649
000160 12 e3 d3 bd 84 54 76 3d 4d 55 e7 bc ca 58 9c 3d
       -0.103460446 0.060139194 -0.028238917 0.07634123
000170 f1 b0 ea bc d1 af 3f bd 8e e1 ca bc e2 4e b2 3d
       -0.028648825 -0.04679853 -0.024765756 0.08706452
000180 01 e4 7f bc ed 2a 19 3b ce 7f 8e 3b 76 34 b1 bd
       -0.015618325 0.0023371533 0.0043487316 -0.08652584
000190 07 85 d9 3b 2f 29 2c 3d 98 96 21 bb 7a 56 3b bd
       0.0066381725 0.042031463 -0.0024656411 -0.045736767
0001a0 8d c1 0d bc 22 f7 7f 3d b7 eb 69 bd a3 ee 16 bd
       -0.008652103 0.062491544 -0.05710956 -0.036848675
0001b0 8d 69 32 3d 96 c4 8f bd c5 b5 91 bd bc d5 49 bd
       0.043557692 -0.07019918 -0.07114748 -0.0492761
0001c0 e1 85 cf bb 10 66 ae 3d dd c2 6a 3d 12 84 39 3d
       -0.0063330983 0.085155606 0.057314742 0.045291968
0001d0 f1 7e 44 3d a4 33 27 3d 8e 3d ec bc f3 92 2f bb
       0.047972623 0.040820733 -0.028837945 -0.002679047
0001e0 c2 95 45 3c 2c 41 e9 bb 4a da 10 bd 7b ef 8e bc
       0.012059631 -0.007118365 -0.035364427 -0.017448178
0001f0 5a 25 c1 3c 3f 36 15 3d 72 f1 fc bc 2b 91 27 bc
       0.02357738 0.036428686 -0.030876849 -0.010227482

lin.weight f4 [64, 128]
000000 d4 84 9e bc 30 d1 c8 3a bd e7 a6 bd a2 bb 8c bd
       -0.019350447 0.0015321132 -0.08149669 -0.068717256
000010 f1 9d ba bc 5f cb 9e 3d 9e b8 a3 3d c6 8e e1 bc
       -0.02278039 0.07753634 0.07994197 -0.0275339
000020 97 ec 25 3d ce ef 8b bd 59 66 80 bb 52 70 8e bd
       0.040508833 -0.068328485 -0.003918451 -0.06955017
000030 48 81 65 bd 90 bb 21 3d 23 8a 15 bd 15 4f ab bd
       -0.056031495 0.039485514 -0.03650869 -0.08364693
000040 51 08 62 3d af 01 f3 3c 9e 52 8b 3d 0b 83 a0 bd
       0.055183712 0.029663889 0.06802867 -0.078374945
000050 34 26 84 bc d8 96 82 3d b8 98 5b 3d 42 3e 1e 3d
       -0.016131498 0.063764274 0.05361244 0.038633592
000060 68 c4 8c bd 9b 3b 7c bd 64 d1 ce 3c e0 85 1b bc
       -0.06873399 -0.06158028 0.02524633 -0.0094923675
000070 2c 47 1b 3d 2d 28 a7 bd b4 e9 69 3c 55 b7 2c bd
       0.03790967 -0.0816196 0.014276911 -0.042167027
000080 e1 e6 cc bc 62 22 da 3c c6 12 b2 3d f7 f5 51 3d
       -0.025012435 0.026627723 0.08694987 0.05125996
000090 cb 2d 84 3d 5b 53 2b bd 1c bc b0 3b af 3c 5a 3c
       0.06454047 -0.04182754 0.005393518 0.013320132
0000a0 86 29 31 bd 38 e4 a0 3d dd 26 35 3d 51 e5 68 bd
       -0.04325249 0.07856029 0.044226516 -0.05685932
0000b0 5c 1e b3 3d 7c 02 23 3d 2f 69 67 3d dd a6 d0 3b
       0.08746025 0.03979729 0.056496795 0.006367548
0000c0 37 fa 1a 3d 98 2d 9e bd 07 7b 1a 3d 4d e4 c1 bd
       0.03783628 -0.0772354 0.037714984 -0.09467373
0000d0 cd 73 ff bc 05 44 86 3d 9c 63 0f 3d bb 29 81 3c
       -0.031183148 0.065559424 0.035007104 0.015766969
0000e0 87 da 1b bc 96 d9 a6 bd 9c f3 79 bd 8d 85 81 bd
       -0.00951255 -0.0814697 -0.06102334 -0.06324301
0000f0 3d 14 16 3d 09 dd 50 3d 35 45 0a bd 0c 98 c3 bd
       0.036640394 0.050992046 -0.033757407 -0.09550485
000100 47 a1 bd bd fc 70 07 bd 48 d7 08 bc f1 4e c6 3d
       -0.09259277 -0.033066735 -0.008352108 0.09683026
000110 42 eb f8 3c 46 a3 d8 bb b2 f3 4d 3d a5 31 24 3d
       0.030385617 -0.0066112606 0.050281234 0.040086407
000120 9e f9 ae bc ae c2 a2 3d 65 cf e6 bb 8a 3a 6b 3d
       -0.021359261 0.079472885 -0.0070437663 0.057428874
000130 fa 55 7b bd 28 3e 83 3d 59 79 5b 3d d5 eb 9c 3d
       -0.06136129 0.0640834 0.053582523 0.07662169
000140 b0 f2 77 bc 58 e4 27 3d b3 53 ad 3d 3a 0b 9e bd
       -0.015133545 0.04098925 0.0846323 -0.07716985
000150 f8 6a e0 3c 83 d1 71 bd 73 dd 5a bd 86 03 12 3d
       0.027394757 -0.059037697 -0.053433847 0.03564789
000160 52 12 93 bd ca e7 a1 bc 75 70 d4 3c 15 a7 87 39
       -0.07181229 -0.019763846 0.02593253 0.00025873692
000170 ae 04 de bb df e0 5b bc 2e 42 3c 3d 0a 63 28 3d
       -0.00677546 -0.013420313 0.04596155 0.041110076
000180 1a d3 16 bd 16 97 f2 3b 19 dc 92 bd 88 bc 98 bb
       -0.036822416 0.0074032648 -0.071708865 -0.0046611466
000190 44 81 4f bd d4 ed 74 bd ca 2e 58 3d b9 f9 8a 3d
       -0.050660387 -0.059797123 0.052778997 0.06785912
0001a0 a2 63 20 b9 7a e6 99 3d d3 02 42 bd 10 17 f5 bc
       -0.00015295905 0.07514663 -0.047365975 -0.029918224
0001b0 74 b9 7e 3d c6 5a 6e bd df 9a 53 bd 0a ab 0b 3d
       0.06218858 -0.058192037 -0.05166137 0.034098662
0001c0 d1 ea bd 3c 0a f4 c5 3c 3c 3b ad 3d 27 f1 3a bd
       0.023183258 0.024164218 0.08458564 -0.045640137
0001d0 f8 14 ff bc ca de 81 3d de 74 ec ba f6 d3 91 bd
       -0.031137928 0.06341322 -0.00180402 -0.071205065
0001e0 70 0d b7 3c b0 2b 4d bd ee de 64 bd 36 37 a0 3d
       0.022345275 -0.05009049 -0.055876665 0.07823031
0001f0 26 66 9f bd 61 67 92 3b 19 95 2f bd 8a 76 32 bc
       -0.07783155 0.00446789 -0.0428668 -0.01089252
000200 e3 92 25 3d 00 5c 8f 3d 40 9a 19 3d 77 85 30 3d
       0.040423285 0.069999695 0.03750062 0.043096032
000210 ee b9 b8 bc 52 17 aa 3d d7 ef df 3d 9d 9e d4 3d
       -0.022549596 0.08305229 0.10934418 0.103818156
000220 c5 22 7a 3c 77 a6 8f 3c 4d 77 62 3b 0e 9d af bd
       0.015267079 0.017535431 0.0034555972 -0.08574878
000230 05 26 ba bb f5 bd 07 3d a0 37 7e bd 83 1a 9e 3c
       -0.005680802 0.03314014 -0.062064767 0.019299751
000240 95 b4 da 3c 18 59 45 bd 6f 2c 1b bd f1 d7 24 bd
       0.026697436 -0.04818067 -0.037884172 -0.040245
000250 d5 38 61 3d d4 1c 08 3b 50 9e d6 3a 14 ca 95 3d
       0.05498584 0.0020769136 0.0016374085 0.07313934
000260 3d a9 ab bd d9 3d ff 3c d0 f7 06 3c 7e 91 b5 bb
       -0.08381889 0.031157421 0.008237794 -0.0055410257
000270 1e b3 2f bd 4a 10 c6 bd 70 91 36 ba 67 25 da bc
       -0.04289543 -0.09671076 -0.0006964421 -0.026629163
000280 fa db a0 3c 71 3e c6 3d 0a 2e 58 3d 01 87 32 3d
       0.019636143 0.096798785 0.05277828 0.04358578
000290 11 e2 46 3d a8 fc 7a 3d 36 10 ad 3c b3 46 6f bd
       0.048555437 0.061276108 0.021125894 -0.058417033
0002a0 53 de 72 bd ba f5 59 3c 23 3c 9f 3d 55 54 94 3d
       -0.059294056 0.013303215 0.07775142 0.072426476
0002b0 58 29 3a bd b0 ea 4e 3d 29 9b 2c bb e2 f1 54 bd
       -0.045449585 0.050516784 -0.00263376 -0.05198849
0002c0 5c 9b a0 bd 9d fb 20 3b 49 01 aa bd 38 91 12 3d
       -0.078421324 0.0024564036 -0.083010264 0.035783023
0002d0 44 a2 a1 bd ce 4c a0 bd 29 e6 07 bd c9 4a 12 bc
       -0.07892278 -0.07827149 -0.033178482 -0.008928963
0002e0 67 c0 22 bd 1d ab c8 3b c1 be 57 bd 76 80 54 3d
       -0.03973427 0.006123914 -0.05267215 0.051880322
0002f0 eb 09 30 bd 3a ee 35 bd 10 55 8d 3a 1b b9 2a bd
       -0.04297821 -0.044416644 0.0010782797 -0.041680437
000300 3b 42 b6 bd 26 e0 62 bc cb 85 11 3d ae 40 42 3d
       -0.08899351 -0.013847386 0.035527986 0.047424965
000310 28 98 48 bd 2d 35 c8 3c 9a 53 f7 3b 63 2c 43 3d
       -0.048973233 0.024439419 0.007547808 0.047649752
000320 dc 39 a3 3c b9 ad bf bb 27 b0 c6 bc 79 a0 a0 3d
       0.01992505 -0.005849567 -0.024253918 0.07843108
000330 2d 63 02 3d d0 3d a1 3c 24 35 72 3d b3 5e 22 3d
       0.031832863 0.019682795 0.05913271 0.039641093
000340 eb c3 40 3d cc 11 3a bd a2 3d ad bd 95 ce 05 bd
       0.047061842 -0.04542713 -0.08459021 -0.032667715
000350 b8 58 8e 3d 57 14 65 3c 1b 85 56 3d 09 f6 03 bc
       0.069505155 0.0139819 0.052373033 -0.008054265
000360 48 ab 8a bc ae 79 85 bd a5 a3 32 bd c1 fe 37 3c
       -0.016927376 -0.06517349 -0.043613095 0.011230172
000370 07 23 b3 bd 27 16 1f bb 72 a7 87 bd 16 17 13 bd
       -0.08746915 -0.0024274678 -0.066237345 -0.03591069
000380 bd 64 db 3b 0f c6 80 3d 90 47 e2 3c 3d 67 a0 39
       0.0066953585 0.06287777 0.027622014 0.00030594497
000390 8d 30 86 3c 7f c4 d4 bd b2 24 18 bd e1 03 41 ba
       0.016380573 -0.10389041 -0.03714437 -0.0007362944
0003a0 68 7c 98 bd 04 de 81 bd af 84 7f bc 95 c5 9b bb
       -0.074456036 -0.06341174 -0.015595599 -0.004753778
0003b0 f1 f5 2a 3d ef 8b f7 bc 00 cf ae bd eb e9 e7 3d
       0.041738454 -0.030218093 -0.08535576 0.11323913
0003c0 62 ff 15 bd 92 bd c7 3d 03 ba 91 bd 20 79 8e bd
       -0.036620505 0.097529545 -0.07115557 -0.069566965
0003d0 17 de 64 bc de 76 21 3d 2c a6 2c 3d f0 32 d6 3c
       -0.013968966 0.03942 0.04215066 0.026147336
0003e0 8d 70 9e bd 55 f8 56 bd c1 7a 7b 3d 27 f5 b0 3d
       -0.07736311 -0.05248292 0.061396364 0.08640509
0003f0 21 30 d6 3c 6a 17 be bd f3 07 89 3d 41 67 cd bc
       0.026145997 -0.0928181 0.06690969 -0.02507365
