All_Benchmarking/DATA_9/Results/fold_4/best_model.pth (torch, 192098 bytes, 32 tensors)

gat1.att_src f4 [1, 4, 32]
00000000: 394c 22be c38b 8d3e 0e21 4bbe 3997 7bbd
00000010: dc04 b73b 7ddc 9cbe 681d 23be 7a89 ba3e
00000020: a04d 63be 80cb cc3e 5558 aa3e fafb c4be
00000030: 1cc4 9b3e 2978 5d3e 0fa4 aa3e e184 7abe
00000040: f687 cfbe f50b 82be 3d62 703d 7ac1 20be
00000050: bc04 7f3e c0f3 babe 66a7 d0be 8811 4b3e
00000060: db5c a73e 5fa8 a5be b86f 92bd 78a2 8cbe
00000070: 46b0 33be 222e 993e be45 bc3e 462e a93e
00000080: 1921 923e 0baf 2d3e eff2 8a3e 761c 333e
00000090: de4f 9e3d 78e8 08bd 9db2 593c e644 0cbe
000000a0: 6fa6 85be b6d4 61be a9c6 6dbe c5b0 19bc
000000b0: 056f 3b3e 85d7 a4be ed3b 993e b77b 8fbe
000000c0: 17e6 72be a610 55bd 3702 b4be 69d6 73be
000000d0: 45bf a93e 4b28 a03e 274b 51bd b502 993e
000000e0: 49e3 613e d734 85bc 4ac0 153e 4e32 b8be
000000f0: 81b3 cebe c8cd ce3e 6b56 b4be a23c 7d3e
00000100: 7815 8dbe d0a5 c83e 88b8 1bbe f8af 9d3c
00000110: a0ea 9a3e bd3c e8bd cbe2 5e3e 3b9a 00be
00000120: 7598 b63e cf5c 053d 2988 5ebd 8a11 4fbe
00000130: 4b89 7fbe 2447 d5bd 1994 fc3d ab83 23be
00000140: 348c 61bc c0e3 863e 9d40 98be ae5a 7c3e
00000150: 6b2d 05be 6322 c2bd 4a98 91be 009d 37be
00000160: f3c3 cb3e e792 75be 019f 46bd 2b28 7bbc
00000170: 8d7d ff3d d29a ccbd bf1b 9dbe 5c9b c8be
00000180: f9d6 c7be 00ab 693e 27ca 063d 968a 94be
00000190: a775 a5be 2f94 dfbb 9a77 b8be f522 b53e
000001a0: ed18 a8be d154 a03e 315d 973e 7efa 2abe
000001b0: 33c8 a0be e271 a9be 030c 003e 2d51 293e
000001c0: c0fb cfbc d6c1 1abd 4364 a3bd dd7d c1be
000001d0: a51b ebbd 4d46 853d d99d 9c3e 0244 8e3e
000001e0: 7308 c83e 141a b6bd 7f41 813c e893 4b3e
000001f0: 43bc c4be 16ed 333e 34d9 b4bd 6742 abbe
-0.15849389 0.27645692 -0.19836828 -0.061423514 0.005585296 -0.3063697 -0.15929186 0.3643301
-0.2219758 0.39999008 0.33270517 -0.38473493 0.30423057 0.21627869 0.33328292 -0.24464752
-0.40533417 -0.25399747 0.058687437 -0.15698805 0.2490415 -0.36514091 -0.40752715 0.19830906
0.3268803 -0.3235502 -0.07150215 -0.27467704 -0.17547712 0.2991801 0.3677196 0.33043116
0.28540877 0.16961305 0.2713847 0.17491326 0.07730077 -0.033424824 0.013287214 -0.13698158
-0.2610354 -0.22053799 -0.23220314 -0.009380524 0.1830407 -0.32195678 0.29928532 -0.28024074
-0.23720585 -0.05201783 -0.3515794 -0.2381226 0.3315374 0.3128074 -0.05109706 0.29884878
0.22059359 -0.016260548 0.14624134 -0.3597588 -0.40371326 0.40391374 -0.35222182 0.24730161
-0.27555442 0.39189005 -0.15207112 0.019248948 0.3025713 -0.1133971 0.21766202 -0.12558834
0.3566319 0.032559212 -0.05432907 -0.20221534 -0.24954717 -0.104139596 0.12332935 -0.15968196
-0.013766337 0.26345634 -0.29736796 0.24643967 -0.13005607 -0.09479215 -0.284365 -0.17930984
0.39797935 -0.2398182 -0.04849148 -0.015329401 0.12475119 -0.09990467 -0.3068523 -0.3918103
-0.390312 0.22819138 0.03290763 -0.29011983 -0.32316324 -0.006823085 -0.3602875 0.35378233
-0.32831517 0.3131471 0.29563287 -0.16697118 -0.3140274 -0.33094698 0.12504582 0.16534872
-0.025388598 -0.037782513 -0.07978108 -0.3779134 -0.11479882 0.065075494 0.30589178 0.2778626
0.39068946 -0.08891693 0.015778301 0.1988064 -0.38424882 0.1757091 -0.08830491 -0.33449098

gat1.att_dst f4 [1, 4, 32]
00000000: d341 be3e 61f6 503d 53be 0e3e 919d 1d3e
00000010: 58bf 903d c17e 803e f9d1 123d 5b82 1e3e
00000020: 533f d93d 4197 91be 1121 47bc 9e91 68be
00000030: 8942 603e b5b4 153e 82df dabc c225 9dbe
00000040: 2a67 28be 7db1 b2be 0944 953e d01d 9fbd
00000050: 375f 153e ddcd b8be ef49 a3be 3fad d2bd
00000060: a00b 9cbe ce19 603e 91a5 463e 92f3 f93c
00000070: 2491 313e 5931 323e 8ffe 1cbe 51e4 87be
00000080: 011e 703e 0539 20be c18f 683e 31e8 67be
00000090: c275 cb3e 6152 df3d 31e4 c5bc 43ef 133d
000000a0: a4b0 3f3e 8f41 64be 474b 20be c15c 9bbe
000000b0: b1fe ba3e 814f a53e a72a c93c a7ad 83bd
000000c0: 298e bebe 64e1 433d 7874 59be 69cf 93be
000000d0: f899 45be ae05 b73d ad96 a1be 91e1 10be
000000e0: 203e a03e 8b1a 98be 62c0 86be 17e0 71be
000000f0: 984d 60bd f981 183e 9d86 873e 14b0 ad3d
00000100: f709 d23e b8bd a53e d18a 953e 7b81 5dbe
00000110: 5df3 d5bc 5a6b 8c3e 6f38 90be 53db b4be
00000120: e962 a5be f7d1 923d 70d7 223e 2166 87bd
00000130: 0949 4f3d 8540 4dbe a1e6 ca3e 9916 923e
00000140: fe99 17bd c8da c8bd 6716 34be 711e 58be
00000150: 5e81 8ebe c314 e8bd 0e05 893e 1f70 1c3d
00000160: a1b4 c53d f84b aebd 90a2 973e 512c 23bc
00000170: 41c8 bc3e 3809 4dbe 464e 823d 18a1 853e
00000180: 2557 57be f59e 553e b897 123d fca4 1ebe
00000190: b56f b2be 6e4b 9b3e fc44 a93d d0f0 ba3e
000001a0: 46d2 553e d40d f23d 485f 37bd edfb 353e
000001b0: 5eea 3bbe 9a22 3dbe 5942 0bbe c0ac 1cbe
000001c0: d773 15be 27c6 893e bce0 5bbe 2efe 813e
000001d0: e2e9 a63e af2c 973e b3b8 95bd 68ef 2bbe
000001e0: e124 8bbe 3996 223c cd4d 743d af4e 563e
000001f0: 2b88 c3be db02 84be 0fea 45be 0ece e6bd
0.37159595 0.051016215 0.1393979 0.15392138 0.07067746 0.25096706 0.035844777 0.15479414
0.10607781 -0.2843571 -0.01215388 -0.22711799 0.21900381 0.14619716 -0.026717905 -0.3069287
-0.16445604 -0.34901038 0.2915347 -0.07769358 0.14587103 -0.3609456 -0.31892344 -0.1028695
-0.3047762 0.21884844 0.19399096 0.030511651 0.17340523 0.17401637 -0.15331481 -0.2654138
0.23448946 -0.15646751 0.22711088 -0.22647168 0.3973828 0.109043844 -0.024156662 0.03611685
0.18719727 -0.22290634 -0.15653716 -0.30344203 0.3652244 0.3228722 0.024556471 -0.06429606
-0.37217835 0.04782237 -0.21235836 -0.2886918 -0.19297016 0.0893663 -0.3156027 -0.14148547
0.31297398 -0.2970775 -0.2631865 -0.2362064 -0.0547615 0.1489333 0.2646989 0.0848085
0.41023228 0.32371306 0.2920747 -0.21631424 -0.026117021 0.27425653 -0.28168055 -0.3532358
-0.32302025 0.07168954 0.15902495 -0.066112764 0.05060676 -0.20044143 0.3962908 0.28532866
-0.037012093 -0.09807354 -0.17586671 -0.21105362 -0.27833074 -0.11332085 0.2676167 0.038192865
0.09653593 -0.08510584 0.29616213 -0.009959296 0.36871532 -0.20023048 0.06362586 0.26099467
-0.21029337 0.20861419 0.03578922 -0.15492624 -0.3485085 0.30330986 0.08265111 0.3651185
0.20880994 0.11819044 -0.0447686 0.17771883 -0.18351123 -0.1847023 -0.13599528 -0.15300274
-0.1459497 0.2690899 -0.21472448 0.25389236 0.32600313 0.29526278 -0.07310619 -0.16790545
-0.27176574 0.009923511 0.05964451 0.20928453 -0.38189825 -0.2578343 -0.19327568 -0.112697706

gat1.bias f4 [128]
00000000: 72d6 12b9 6fd1 83b9 b2da c1ba c9c9 f739
00000010: 0e5c a8b8 9227 9ab9 e085 593a 1f98 123a
00000020: 6466 e9b9 f48a a2b9 dffd 183a e55d eb38
00000030: fae1 f3b9 899f 873a 6f02 4f39 35dc c6b9
00000040: 9850 90b9 f350 b6b9 d9b9 e4b9 e122 12ba
00000050: ccbb 02b8 e925 2338 634d da38 375b 8d39
00000060: 9c4e 8939 946b 2eba f799 b6b8 2264 a6b7
00000070: 5657 183a c8a8 11ba 0950 b8b9 4ce4 273a
00000080: d848 4e39 3102 14b9 3736 5eb9 f506 d6b9
00000090: 3d51 74ba 30db 4f38 11f2 83ba 3b73 6b3a
000000a0: f975 dbb9 3d9f 013a 493d 103a 39b9 cbb9
000000b0: dcc8 b538 26e0 723a 99d7 8bb9 bdff 3939
000000c0: 00cb ef39 03a1 0239 85c1 5338 231c 9739
000000d0: 0340 37ba ca98 09ba b833 6a39 4605 37ba
000000e0: e5c3 25ba f6ee 233a 6b19 1839 0525 073a
000000f0: 2090 5339 0c5d a0b9 c42a 593a 30db e6b9
00000100: 4fca 3239 7e1a 65ba de92 a33a 9de4 253a
00000110: cdff 83ba d1f7 cfb9 879e 9a39 d724 dc38
00000120: 8fbd 03ba b3d9 45b8 77cb 14b9 f57a 7eb9
00000130: 4a4a 243a 8e3b b4b7 059a efb8 fd02 17ba
00000140: 6727 6939 54a2 14ba 59e2 a5b9 d8ae efb9
00000150: 1ae5 5bba 787a 1a39 c9a6 c6b9 3aac 073a
00000160: a17e f739 c9e4 2fb9 a2e1 3fba f0e9 8d38
00000170: f08a b7b9 c39d 5bba 960d bcba 087d 30b9
00000180: 4176 ae38 e7b3 97ba c668 a8b7 1cbd 07b9
00000190: 6d90 8939 4073 55b8 3854 e3b9 8908 8d38
000001a0: aa2c fab9 3d28 8c39 7ed1 b6b8 011c db39
000001b0: f2ef db36 b60e 223a d832 96b9 2516 94b9
000001c0: e3ab 14ba 68a2 1c39 0384 313a fd4d c839
000001d0: 88ff 83b9 1b4f 08b9 68e2 243a 2cbe 0739
000001e0: c491 0fba ecd0 5eb9 5e22 d2b9 2e92 ab39
000001f0: 2fa9 4e39 2373 2439 0328 15ba e6de 2cba
-0.00014003532 -0.00025142307 -0.0014789908 0.00047261853 -8.028011e-05 -0.0002940265 0.0008297842 0.0005592126
-0.0004451751 -0.00031002576 0.00058361696 0.000112231624 -0.00046516937 0.0010347228 0.00019741965 -0.0003792957
-0.00027525867 -0.00034774057 -0.00043626016 -0.00055746554 -3.1169315e-05 3.8897535e-05 0.000104094644 0.00026961576
0.00026189245 -0.00066536036 -8.7071145e-05 -1.983537e-05 0.0005811354 -0.00055564614 -0.00035154846 0.00064045633
0.00019672827 -0.00014115196 -0.00021191766 -0.00040822444 -0.0009319967 4.955678e-05 -0.0010066648 0.0008981709
-0.00041858832 0.0004944688 0.0005502296 -0.0003885718 8.6681655e-05 0.0009264968 -0.0002667278 0.00017738245
0.0004573688 0.00012457748 5.048655e-05 0.00028821928 -0.00069904345 -0.00052489026 0.00022335246 -0.0006981682
-0.0006323441 0.00062535645 0.00014505319 0.00051553576 0.00020176219 -0.00030586903 0.00082842656 -0.00044032326
0.00017050769 -0.00087396044 0.0012479683 0.00063283165 -0.0010070741 -0.00039666754 0.0002949128 0.000104972794
-0.00050255 -4.717121e-05 -0.00014190176 -0.00024269133 0.00062671734 -2.1485404e-05 -0.000114250965 -0.0005760638
0.0002223529 -0.0005669941 -0.00031639895 -0.000457159 -0.0008388326 0.00014732208 -0.00037889768 0.0005175505
0.00047205857 -0.0001677453 -0.00073196937 6.766978e-05 -0.00035007996 -0.00083776953 -0.0014347311 -0.00016831246
8.318993e-05 -0.0011574001 -2.007595e-05 -0.00012945052 0.00026238282 -5.0890492e-05 -0.00043359562 6.724994e-05
-0.00047716993 0.0002673286 -8.717457e-05 0.000417918 6.554642e-06 0.00061820017 -0.0002864811 -0.0002824526
-0.0005671365 0.0001493782 0.00067716854 0.00038205078 -0.00025176653 -0.0001299944 0.00062898407 0.00012945448
-0.0005476738 -0.000212494 -0.00040079927 0.00032724574 0.00019708717 0.0001568315 -0.0005689861 -0.0006594494

gat1.lin.weight f4 [128, 5]
00000000: 3448 10be 0d00 183e 85d8 45be ea60 18bd
00000010: 9d9a 273e 911d 2c3e d6f5 36be 7230 073e
00000020: 1f7a 103e 2413 ebbd 91bc 013e 2720 1dbd
00000030: 7289 22bd d08a dcbd ef21 f6bd 7e35 b4bd
00000040: 817a 213e 2527 3ebe 7a83 493e 5096 273e
00000050: d61a 383d 81de 003e f730 adbc 4241 493e
00000060: b73c f8bd a57f 0c3e 7661 28bd b38c 4f3e
00000070: 344d e73d c558 3dbd 8999 08be 31b6 90bc
00000080: 327e 12be 5398 d33d 67cc 303e 5c94 06be
00000090: adb1 1a3e 68fc 4ebe c264 42be 6411 febd
000000a0: 974e 0a3e 8946 cabd 8b9a 29bd 8be2 503d
000000b0: 6a33 4a3e e60d 52be 200a c0bc 1a31 d9bd
000000c0: 2b82 40be c81c b3bd 3b60 3f3e f6f0 f8bd
000000d0: ca6b 273d c2c5 8fbd dab0 4bbe 2bac 91bb
000000e0: c27d 4e3d 9ea5 11be 2952 1cbc 1411 a9bc
000000f0: a655 113d 395d 893d 1162 a9bd 112c 183c
00000100: 6849 51be b53e 12be 5a13 b6bd e6db 04be
00000110: 2ee2 7fbd 172b 593e efbd 3ebe 5edf f33d
00000120: 371a 65bb 65ca ba3d 739c 18bd fc49 38be
00000130: 84f6 3c3e 777e 0fbd 609d 33be d969 153e
00000140: 128e f8bd b095 36be f00a d3bd 8a53 003e
00000150: 7d45 a2bc f42c 46be e54e 8c3d fa7e 40be
00000160: 194f 2dbd 4e04 233e 3b79 133d e732 463e
00000170: 14dc a8bd f258 8abd 0ca1 23be 6d85 a1bd
00000180: e335 1f3e b72e f6bd 1a4a 68bc c651 04be
00000190: 40db 283e 47d6 6e3d 6062 443e 2161 583e
000001a0: 090a dd3d 779e f1bd 54e4 443d 159f dbbd
000001b0: 63aa 9ebd 8ff1 00be 0d21 0c3e a0f0 0a3e
000001c0: 37ff 403e 06bf 413e 7de9 a43d 5864 463e
000001d0: 3309 263e 6d23 a03d f99a d3bd 5952 eb3d
000001e0: 69d2 e23d cc3c c0bd e600 b6bb 47c3 06be
000001f0: 373f 413e d1cf 143e 035c cabd db19 9b3c
00000200: 2043 b7bd 383f 0f3e 4b98 4d3e 59b6 4b3e
00000210: ae66 fb3d c664 34be c16d 43be de85 e9bc
00000220: 61d5 4fbd 2247 0d3e c861 083e 9101 27be
00000230: de9f 01bd 8dc4 87bd 6ef4 10be d6f0 0e3e
00000240: 67b1 2e3e 0613 2dbe 031f 0bbd ba63 033e
00000250: f33f 2d3e 95a5 133e c33a 46be ae5d 1abe
00000260: 8652 e43d ed84 90bc 9f87 c23b 9f80 863d
00000270: 9553 fbbd 7ec8 d4bd edbe d0bd 957a ef3d
00000280: dd49 e33d 580d e83d 6a8e ce3c 541b 1b3d
00000290: 986a e1bd 403c 11bd ab66 bcbd a2b5 36be
000002a0: b03c e03c 21f4 55bd 0008 253e 77cb 8dbc
000002b0: c08e 20be 2ed9 f73d 274c 2ebd 4a3a a4ba
000002c0: 390f d7bd 786f d3bd c409 cd3d e146 d23d
000002d0: 4fa4 02be 7091 08bd 8c8b 3b3e b15c d8bd
000002e0: 2ef2 d53d 3d47 22bc bdcc e83d 8196 473b
000002f0: c2c6 05bd 6c68 2abe dd4d 173e 9913 50bd
00000300: 43c1 3d3e 5822 4dbe f673 15be 33b2 323e
00000310: 3c20 27be d6ee 44be 843b 533d f36f ad3d
00000320: e4d4 dbbc af64 1ebe 5ed7 303d 0406 bd3d
00000330: cb34 4cbc ac84 ff3d 2ce4 7f3d cb1e 4d3e
00000340: 8f45 973d 1366 3abd f2ab 56be cbe6 263d
00000350: e653 4c3e 3866 e83d cce3 0a3c e745 1a3e
00000360: 99b6 3dbe c9f0 593e 5a54 edbd 2b04 f4bb
00000370: a865 1dbe 2a57 38bd 53e1 abbc 4fb3 723d
00000380: f56a 9f3d 02a9 0cbe b9d5 17be c284 2abe
00000390: ca96 49bd d291 2bbe 8eba 15be a30a ef3d
000003a0: 6054 ffbd 8e21 36be e8d7 513e 47ae 34bd
000003b0: c811 b2bc a69f 23be e152 0e3e 24cd 513e
000003c0: 8357 aa3d c52d 4ebe b6d3 ebbb 53cd 6c3d
000003d0: cc55 ebb8 577c 203d 43a5 dfbd 1829 3c3c
000003e0: 8b76 183e 7cb9 d4bd 6f3c 4cbe 8db0 0b3e
000003f0: c178 143d 4843 1b3e 134a 393d 7c4e 85bd
-0.14090043 0.1484377 -0.19320877 -0.0372018 0.16367574 0.16808154 -0.17867216 0.13202074
0.14109086 -0.1147826 0.12669589 -0.03836074 -0.03968186 -0.10768664 -0.12018191 -0.08799265
0.15769388 -0.1856962 0.1967906 0.16365933 0.044947468 0.12584879 -0.021141512 0.196538
-0.121209554 0.13720568 -0.04110857 0.20268516 0.11294022 -0.046227235 -0.13339819 -0.017665
-0.14305952 0.10331788 0.17265473 -0.13142532 0.1510684 -0.20213473 -0.18983749 -0.12405661
0.13506542 -0.09876735 -0.04140715 0.0509973 0.19746175 -0.20513114 -0.023442328 -0.106050685
-0.18799655 -0.08745724 0.18689053 -0.12155335 0.04087428 -0.07020141 -0.19891682 -0.004445573
0.0504129 -0.14223334 -0.009541073 -0.020638026 0.03548207 0.06707234 -0.08270658 0.00928785
-0.20438159 -0.14281733 -0.0889041 -0.1297451 -0.06247156 0.21207844 -0.18627141 0.11907838
-0.0034958252 0.09120635 -0.037258577 -0.17996973 0.18453413 -0.035032716 -0.17540503 0.14591159
-0.12136473 -0.17830539 -0.103048205 0.12531868 -0.019808525 -0.19353086 0.068509854 -0.18798438
-0.04231176 0.15919611 0.036004286 0.19355355 -0.082451016 -0.06755246 -0.15979403 -0.07886777
0.155479 -0.12020629 -0.014177823 -0.12921819 0.16489887 0.05830982 0.19178152 0.21130802
0.1079293 -0.11797803 0.048069313 -0.10723702 -0.077473424 -0.12592147 0.13684483 0.13568354
0.18847357 0.18920526 0.08052347 0.19374216 0.16214447 0.07819257 -0.10332293 0.11490316
0.11075289 -0.09386596 -0.0055543063 -0.1316043 0.18871771 0.145324 -0.09880831 0.018933227
-0.0894835 0.1398896 0.20077626 0.19893779 0.12275444 -0.17616567 -0.19084837 -0.028506216
-0.050740603 0.13796666 0.1331855 -0.16309191 -0.0316466 -0.06629286 -0.14155743 0.13959059
0.17059861 -0.16901788 -0.033965122 0.12831011 0.16918926 0.14418633 -0.19358353 -0.15074798
0.111485526 -0.017641509 0.0059365775 0.06567501 -0.122718014 -0.10389803 -0.10192666 0.116933025
0.11098073 0.1133067 0.025214393 0.03786786 -0.11006659 -0.03545785 -0.0919927 -0.17842725
0.027372688 -0.052234773 0.16116333 -0.017308934 -0.15679455 0.121019706 -0.042553093 -0.0012529579
-0.1050095 -0.10323995 0.10011628 0.10267425 -0.12757991 -0.033341825 0.18314952 -0.105645545
0.10446583 -0.00990468 0.11367176 0.0030454698 -0.032660253 -0.16641396 0.14775796 -0.05079994
0.18530755 -0.20032632 -0.14595017 0.1745079 -0.1632089 -0.19231734 0.05157043 0.08468618
-0.026834913 -0.15468095 0.04317414 0.09229663 -0.012463759 0.12476477 0.06247346 0.20031278
0.07386314 -0.0455075 -0.2096403 0.040747445 0.1995388 0.11347622 0.008477163 0.15065728
-0.18526687 0.21283258 -0.115883544 -0.007446786 -0.1537081 -0.045005 -0.020981466 0.059253033
0.07784072 -0.13736346 -0.14827622 -0.16652206 -0.04921607 -0.16754845 -0.14621946 0.11671951
-0.12467265 -0.17786238 0.20492518 -0.044111516 -0.021736994 -0.1597887 0.13898803 0.20488411
0.08317473 -0.20134647 -0.007196869 0.057813 -0.00011221654 0.03918108 -0.10920193 0.011484407
0.1488897 -0.10386941 -0.19944929 0.13641568 0.036247972 0.15162385 0.04523666 -0.0650911

sage1.lin_l.weight f4 [128, 128]
00000000: d846 aabd bd7d a8bd 4f40 683c cdf7 0cbd
00000010: 1112 9d3c e466 81bd f7de 263c d400 0c3c
00000020: 73c8 80bd 6731 38bd c0ef afbd 4ab2 0fbd
00000030: f372 9a3d 1246 923d d431 b03d a35c a73d
00000040: 2bb0 61bd ad34 ac3d 6e97 c43c 6e71 7e3d
00000050: 4fce 3f3d 7eba b039 224c 9c3c aa18 91bd
00000060: f838 85bd 29d1 06bb 3b13 8b3d 6296 58bc
00000070: 0a52 b3bd 4404 56bb 8411 9a3d a166 97bd
00000080: 24fc 83bd 646b 473d dd97 48bd 6111 043d
00000090: 757d 56bc f4c5 863c b5e0 983d 42fe 713d
000000a0: c49b a5bd 27f6 843d 17e1 aabd 9bb1 a63d
000000b0: ad84 6abb 23da 92bd 4c8b b4bd f31d a5bd
000000c0: 11a2 873d 2374 d23c 1b02 573d 687b 6a3d
000000d0: eb01 5d3d 16cc 523d 5de8 193d 89f6 86bd
000000e0: 3f30 df3c 3d61 9abc cc87 753d f16e a33d
000000f0: ee44 52bd bffc c6bc 22ba 52bd 2424 143d
00000100: 8071 a3bc 83ce a53d facc b83c b9f8 8fbd
00000110: e6a9 ccbc 9227 7d3d 7c3b d3bc 3f92 ee3c
00000120: 6038 efbc 79b7 853d 4b07 49bd 3b8b 09bd
00000130: ddef 34bb 1d54 203d 04a7 563d 4819 a93d
00000140: 8d1f a3bd c0f0 a83a a045 bebc 8c13 59bd
00000150: cee7 65bd d978 0a3d 188a 6f3d 4f6a 4a3d
00000160: ea13 4abd bfe3 273d b792 663d 253b 23bd
00000170: 7624 7f3d 9d0f df3b 77b5 41bc 43b7 203d
00000180: 6165 a33d 98c9 803d bef2 9dbd e884 283d
00000190: d93f 523d fa93 dcbc a730 94bd 348b a4bd
000001a0: ee3a e7bc c25f 013d b014 8ebc b895 333c
000001b0: 135a 673d 59a6 2f3d 6306 813d e1ba f7bc
000001c0: 2a16 733d 0d45 a9bc e16b a0bd c27f 8d3c
000001d0: 094f 333c 66ec 9d3d 7103 853d c2f8 9a3c
000001e0: f4ae 783d 25e3 333d ce96 99bd 8b79 b4bc
000001f0: 77c4 333d 637e 093d 2d94 ce3c f823 b63d
00000200: fc2d f9bb 54a3 9fbd c91d c8bd 7641 923d
00000210: 486f d8ba 2a8e e4bc c55c aabd 1b90 97bd
00000220: 8cea 803d 22c5 aebd 96f0 0cba 51f3 143c
00000230: a4ef bdbc 229c 75bd 3014 d73c c6f4 893d
00000240: 6371 cebb eb9d 4bbc 4dca 503d 04eb 9dbd
00000250: 61c4 43bd 9aa8 4dbd 80d0 38bd 8f9e a13c
00000260: 8683 973c 4ba2 993d bf7e 41bd 70d3 013d
00000270: fa9c a3bd 63a9 3d3d 4ffe b63d 409a 88bc
00000280: 5206 6ebd c099 0b3d 957c 2dbd 1784 923d
00000290: 3846 02bd 4af6 033d d0da f83c 5536 5fbd
000002a0: 5ca6 913c d4bf 883d 3509 b1bd d223 8cbd
000002b0: c594 8ebb b03b 833d 18e1 a93d 28cf 86bd
000002c0: 7644 adb9 8712 9cbd 9a56 863d d180 aebd
000002d0: a87e 593d 3e34 823d 94ef df3c 03e4 7f3c
000002e0: cbd1 53bc 0e88 9738 82d6 b7bc a99b 8dbc
000002f0: 93a9 cabc 44e3 39bd c5a1 acbd c2a7 6a3c
00000300: 028c e33c 0986 d93c faff a23c 1cce 80bd
00000310: c55f 9abd 78bb c13d c2de efbc 65c1 6a3d
00000320: 6c48 72bd b674 26bd 0ae8 a03d 16cc a9bd
00000330: ccf8 7cbd 2b92 63bd b6ba 09bd a785 583d
00000340: 70a8 653d 23a8 8bbc b6af ad3c 1df2 51bd
00000350: d374 a3bb e4d6 0a3d 4d90 483c 5cd0 9f3d
00000360: 860e 5ebd 8983 573d c818 9c3d 1f26 8cbc
00000370: ebcc 1ebd f6d7 843c 3580 c2bb c430 bcbb
00000380: b2c2 643d 90cd a73d b4ec 4a3d 22a4 713d
00000390: 1c4a 7ebd 5d5f 683d 4419 60bd d296 823d
000003a0: 91db b6bb 8e54 9f3b e2db 013c a36a 74bd
000003b0: 1695 9d3d b6c1 e43b 6554 9b3d e9b8 303c
000003c0: acca 97bd 9a77 bc3c 05e5 943d 2e57 413d
000003d0: d36a d1bc 1b76 683d b326 183d 29d6 3e3d
000003e0: d1f1 093c 1f91 0dbd ee80 4b3d 01dc 4ebd
000003f0: f23a ac3d 2c3c ba3c 99b8 1d3d 1138 a4bd
-0.083142936 -0.08227108 0.014175489 -0.03441601 0.019173654 -0.06318453 0.010184995 0.008545119
-0.06288233 -0.04496899 -0.085906506 -0.03508214 0.07541456 0.07142271 0.08603254 0.08171966
-0.055099647 0.084084846 0.023997989 0.062119894 0.04682761 0.00033708283 0.019079272 -0.070847824
-0.065050066 -0.0020571447 0.06790777 -0.013219448 -0.08755882 -0.003265635 0.07522872 -0.07392622
-0.064445764 0.0486864 -0.048972953 0.032243136 -0.013091435 0.016451813 0.074647345 0.05908037
-0.080863506 0.06492262 -0.08343714 0.08139344 -0.0035784647 -0.071705125 -0.08815631 -0.08062353
0.066227086 0.025690144 0.052492242 0.057246596 0.053956907 0.051464163 0.037575115 -0.065899916
0.027244685 -0.018845195 0.05994396 0.07980145 -0.051335268 -0.02429044 -0.05144704 0.03616728
-0.019951582 0.080960296 0.022558678 -0.07029862 -0.024983358 0.061805315 -0.0257852 0.02912247
-0.029201686 0.06529135 -0.04907922 -0.033580046 -0.002760879 0.039142717 0.052405372 0.08256775
-0.07965002 0.0012889132 -0.02322656 -0.052997157 -0.05612927 0.033806656 0.058481306 0.04941779
-0.049335398 0.04098868 0.056292262 -0.039851326 0.06229063 0.006807281 -0.01182305 0.039237272
0.07978321 0.06288451 -0.07712315 0.041142374 0.05133042 -0.02692603 -0.07235842 -0.080343634
-0.028226342 0.031585462 -0.017343849 0.010960989 0.056482386 0.04288325 0.06300046 -0.030240478
0.05934731 -0.020662809 -0.07833076 0.017272834 0.010944136 0.07711105 0.06494797 0.018917445
0.060713723 0.043917794 -0.07499467 -0.022030612 0.043888535 0.033567797 0.02521714 0.08893579
-0.0076043587 -0.07794824 -0.09771306 0.07141392 -0.0016512657 -0.02789982 -0.08318476 -0.07400533
0.06294736 -0.08533694 -0.0005376426 0.009091214 -0.023185559 -0.059963353 0.026254743 0.0673614
-0.006300138 -0.012427787 0.05097418 -0.07710841 -0.047794703 -0.05020962 -0.045120716 0.019728927
0.018495332 0.07501658 -0.047240015 0.031695783 -0.07988925 0.046304118 0.08935224 -0.016675115
-0.058111496 0.034082174 -0.04235514 0.071541004 -0.031805247 0.0322173 0.030377775 -0.054495174
0.017779522 0.06677213 -0.08644334 -0.0684277 -0.004351231 0.06407869 0.08294886 -0.06582481
-0.0003304814 -0.07620721 0.06559487 -0.085206635 0.053099304 0.06357621 0.02733592 0.015618327
-0.0129284365 7.225583e-05 -0.022441152 -0.017286139 -0.024739062 -0.045382753 -0.084292926 0.014322223
0.027776722 0.02655317 0.01989745 -0.06289312 -0.07537798 0.09459585 -0.029281024 0.05731334
-0.059151098 -0.040638648 0.07856758 -0.082908794 -0.06176071 -0.05555932 -0.033625327 0.052861836
0.056068838 -0.017047947 0.02120195 -0.051256288 -0.0049882918 0.033896342 0.012241435 0.07803413
-0.05421307 0.052615676 0.07621914 -0.017108021 -0.038769644 0.01621626 -0.0059356936 -0.005743118
0.05584974 0.08193505 0.049542144 0.05899442 -0.062082395 0.05673157 -0.054711595 0.06376423
-0.0055803736 0.0048623746 0.007925959 -0.05967201 0.076944515 0.0069811 0.07584456 0.0107862735
-0.074117035 0.02300625 0.072702445 0.04720228 -0.025563633 0.05675326 0.03714628 0.046590958
0.00841947 -0.034562226 0.049683504 -0.05050278 0.084096804 0.02273377 0.038506124 -0.08018506

sage1.lin_l.bias f4 [128]
00000000: 5bb6 963d 6ab6 1ebc e0d6 a93d ee3e 45bd
00000010: cfec 9a3d 37be 9d3d 2d34 d93c c925 5e3d
00000020: 0882 04bd b7cb 25bc 7161 71bc e0bd b83d
00000030: d733 ee3c cc1d 9fbd 5c44 b63d ae3f 70bd
00000040: 8e10 66bd b8d3 63bc 82c8 fe3b c3b2 813d
00000050: 2020 953d 2c83 7f3d 5525 453d 0ea7 bfbc
00000060: 06e1 2f3d a382 943c 8159 933d 3a1b 703c
00000070: 1a8f 293d aa7d 5a3d ddf2 89bd c166 f9bc
00000080: d7f4 ddba 6240 a5bc 4fef 94bd 8335 5dbc
00000090: 34e6 5fbd cede a7bd 54de a13d 8f4c 1c3d
000000a0: 804e 94bd b045 55bd 0a08 18bc eac6 973d
000000b0: 034d 87bc 8db4 84bd 63f1 9dbd 5503 3dbb
000000c0: 802e 09bd 96b9 d13c 0568 2d3d 55c5 283d
000000d0: 5acd cfba 164b 6dbd 0e70 863b 5515 93bd
000000e0: 0d87 da3a 9e68 4a3d b4d1 8ebd f62f 3dbd
000000f0: 1b0e f03b 45fb 943d a19b 9ebd 662b 373d
00000100: 978f 343c 5126 3f3c 61aa 99bd f686 bfbd
00000110: c00f e0bc 36b4 8bbd d7f8 873b 96f2 83bd
00000120: b196 843b 57a7 513d 68fb a3bd 8325 253c
00000130: dc13 2c3c 03a7 3dbd d037 8cbd 311c 993c
00000140: eb07 b23d a8b5 d33c d9c4 d9bc 3bff b93d
00000150: 68dc c6bd 1aa7 acbd ce9d 7c3d 2130 9e3d
00000160: 4076 0fbc 8646 8fbd b05d 9d3d 4ed0 633d
00000170: 3c15 59bd 10d4 e1bc d88d 96bc a0a3 72bd
00000180: a00b f9bc 5700 073b e998 96bd c490 2a3d
00000190: 5f6b a3bc 81f9 bebd 9cdb 87bd 4588 813a
000001a0: 3bf8 99bd a585 5a3d eb53 a23d c539 be3b
000001b0: 00a0 313d 93c8 583d c971 fa3c 4434 eabc
000001c0: d0a3 0a3c 417c b1bd 5cbd e1bc 96ce 8abd
000001d0: 4a1e 993c 7eeb a43c 9afc 07bd b29e 633c
000001e0: 2eb3 f03c 157b 85bc 6562 2abd 80f9 95bd
000001f0: 5f25 d23c dab5 14bd a9fd 1a3c 9b5e 843c
0.07359 -0.009687046 0.08292937 -0.048155718 0.07564699 0.07702296 0.026514137 0.054235253
-0.03235057 -0.01011937 -0.0147327045 0.09020591 0.029077454 -0.07769355 0.08899757 -0.05865448
-0.05616813 -0.013905458 0.0077753672 0.06332924 0.07281518 0.062380955 0.048131306 -0.023395088
0.04293921 0.018128699 0.07194806 0.014654929 0.041396238 0.0533425 -0.067357756 -0.030444505
-0.001693393 -0.020172302 -0.07272207 -0.013501528 -0.0546629 -0.081967935 0.07903734 0.03815895
-0.07241535 -0.052068412 -0.00927926 0.07410987 -0.016516214 -0.0647975 -0.077120565 -0.0028841097
-0.03349161 0.02560119 0.04233553 0.041203815 -0.0015854046 -0.057932936 0.0041027134 -0.07181803
0.0016672328 0.049416177 -0.069735914 -0.046188317 0.0073259003 0.07274488 -0.077445276 0.044719122
0.011020563 0.01166685 -0.075032 -0.09351914 -0.02735126 -0.06821482 0.004149537 -0.06442754
0.004046284 0.05118498 -0.08006936 0.010079744 0.010502782 -0.046301853 -0.06846583 0.0186902
0.086929165 0.025843456 -0.026583122 0.090818845 -0.09710008 -0.084303096 0.06167393 0.077240236
-0.00875622 -0.06995873 0.07683885 0.055618577 -0.052998766 -0.02756694 -0.018378183 -0.059238076
-0.030401051 0.0020599568 -0.07353384 0.041641966 -0.01994866 -0.09324933 -0.06633684 0.000988253
-0.07518049 0.05335011 0.07926162 0.0058052265 0.04336548 0.052925657 0.030571835 -0.028589375
0.0084619075 -0.08666278 -0.027556114 -0.067776844 0.0186912 0.020131823 -0.033199884 0.013892816
0.029382315 -0.016294042 -0.041597743 -0.07322979 0.025652586 -0.03630624 0.009459891 0.016158393

sage1.lin_r.weight f4 [128, 128]
00000000: a1aa 9abd b7a9 95bc 0d26 2cbd c1ad a63d
00000010: 9ec7 9bbd 5a04 24bd aad6 1b3d 07de a6bb
00000020: 9905 593c bace 94bd e555 a53d 0265 63bd
00000030: ab9b 63bc 7245 683d a9c4 9fbd 597d f8bc
00000040: 47b7 753d fa9b 44bd a4bc 303d 538e 613d
00000050: 0e9e f2bc 89d7 80bc 5717 b3bd 3dd4 b1bd
00000060: 4caa 8abd 35d2 a93c 21af 83bc a099 99bd
00000070: ece8 3f3d f021 01bc e363 b03c 915b 843b
00000080: 0ab2 24bd 150f 94bd efb4 a93d 4fe1 76bd
00000090: 1256 bdbc 1e4b 21bd bb69 8d3c f819 d33a
000000a0: 596f 02bc a757 30bd b8cf ad3c 4fe4 73bd
000000b0: 64ce 083d 50a1 453d 8fce 6d3d 3e55 0e3c
000000c0: ed39 4c3c f00c 2b3d 7e0d fd3c 5a15 e0bc
000000d0: 56e1 cdbc b9c1 ae3c 9333 4a3d 607c 82bd
000000e0: 28ee 1c3d 37e7 75bd 9caf 87bd 9b2a a93c
000000f0: 7615 89bd 9648 0c3b 05a8 073c 88eb 203d
00000100: 11f3 b53c 63bc 043d e7c0 41bd 0764 353d
00000110: b947 8abd 8e6e 813d 0ee0 683d 16a1 39bd
00000120: 5110 5c3d dc5a 283c a203 2abd e79d a2bd
00000130: 8a6c 843d 4bcb 4a3d d66f fdbc af07 553d
00000140: 3b2e 50bc b479 9abd ab94 7e3d 130a 56bd
00000150: 7cb7 21bd 9e41 83bd 0418 97bd 0c61 97bd
00000160: e80d 36bd 1ded 1f3d 3e1f 88bd dede 99bc
00000170: 52ba 013d abfd 983d 398d 3cbc 4ca2 b53b
00000180: 9205 89bd a9cc 193d be57 e43c 2b00 4e3d
00000190: 4f60 2fbc 44ff 80bd 41b8 903b 3c55 97bd
000001a0: 9e41 e3bb 02d1 51bd 0cc4 993d 247b c03c
000001b0: 4015 213c 210c f0bc 8b83 a1bd 344a a639
000001c0: 8d53 04bd 5e42 6b3d bdc0 a0bc 70ce 933d
000001d0: 169a 5ebd 7b6c 13bd 2a23 d53c 732c 4ebd
000001e0: 06ba 5cbd 65be 213c 477c 7b3d 9a6e 273d
000001f0: 5eb9 b73d b9c3 8c3c 8a3d 18bc 1ee5 aabd
00000200: f01b 8fbd b87f ddbc af86 12bd 71fe a4bd
00000210: 5823 6f3d 03c9 5d3d 57f9 a43b 1965 31bd
00000220: 9f32 623c fac5 aabd f4a4 82bb 7449 da3c
00000230: 1f03 84bd 5494 3b3d 6c1a 943d c533 9e3d
00000240: f231 adbd f790 a43d 762b 9c3d 5110 893d
00000250: 8211 943d 1321 ab3d 5890 fb3c 9531 ba3d
00000260: 7bd6 a5bd c033 413d 2c05 923d 8397 6a3d
00000270: 1f02 fa3b 20f0 03bd 138b adbd 3fd4 963d
00000280: 1be4 93bd e517 5f3c 25b4 9d3c 812e 0a3b
00000290: 9ed9 74bc 71f4 bc3c b19a 48bc c421 083d
000002a0: a2de 7bbc 9999 6fbc c8c6 ac3d 8a7f 61bd
000002b0: 8fcb 4c3c 38d8 093d 2a49 34bd 3ff8 2d3d
000002c0: a4c1 9bbd a8bb 86bd cc4c a23d 6aa6 503d
000002d0: c04d cf3c cfab a3bd b7ec 95bc c077 a83d
000002e0: cd62 a6bd 2363 1e3d 485e 59bb f96c 70bd
000002f0: 86a6 9a3d 85f8 51bd 10a9 82bc d49c 83bc
00000300: 8c58 083d 76ca 033a 30df b1bd dc4c 093d
00000310: 9b41 8f3d 5805 cd3c 341d b3bd 276f 193d
00000320: 58cf c33c fbba 1fbd 0c04 12bd ef85 953d
00000330: 97f0 fb3c 157d 8fbc a8a6 44bd 7927 2f3d
00000340: 2e1e 1a3d 9090 2ebd cc49 6ebd 1bbc bf3c
00000350: 3467 82bd 9f96 adbd dd9e 44bd a8d1 35bd
00000360: 4985 9f3d d00b 81bd fdb1 7a3d 193f 97bd
00000370: cc1b 3d3d 57ec 89bd 3212 cabc ef1f 1bbd
00000380: f5c3 78bd 87c6 a43d 0cc9 83bb 0a4c 6b3d
00000390: 120c 593d 37bf 9d3d e0b3 173d 243b 193c
000003a0: 385a 463d 2dea 4bbd b205 9fbc 8751 13bd
000003b0: 7ef7 053b 50f2 0cbc 210f 873d 4b92 89bc
000003c0: 4a09 aabd d2df fe3c 9a38 79bd 6838 90bd
000003d0: 17ce 95bd 92b1 84bd d4de a6bc ca70 9cbd
000003e0: 0573 34bd 3f0f a33d d974 923d eff8 86bc
000003f0: 85a0 df3b f6de 6abd a9bb 81bd 554d a03d
-0.07552076 -0.018269403 -0.042028476 0.0813861 -0.07606433 -0.040043212 0.038046516 -0.0050923857
0.0132459635 -0.072659925 0.08073024 -0.05551625 -0.013892095 0.056706853 -0.07801182 -0.030333208
0.05998924 -0.048000313 0.04314865 0.05506737 -0.029616382 -0.015727775 -0.08744686 -0.08683059
-0.06770763 0.020730117 -0.016074719 -0.07500005 0.04685299 -0.0078816265 0.021532005 0.004039236
-0.040208854 -0.07229439 0.082864635 -0.060273465 -0.02311233 -0.039378278 0.01726233 0.0016105762
-0.007961118 -0.04305234 0.021217212 -0.059543904 0.033399954 0.048249543 0.058058318 0.0086873155
0.012464982 0.041760385 0.030890223 -0.027353931 -0.025131863 0.021332609 0.04936559 -0.06371379
0.03831306 -0.060034957 -0.06625292 0.020650199 -0.066935465 0.002140557 0.008279805 0.03928712
0.02221063 0.032406222 -0.047303107 0.044284847 -0.06751961 0.06319915 0.0568543 -0.04531964
0.053726498 0.010275569 -0.04150737 -0.07940274 0.06466015 0.04951028 -0.030937117 0.05200928
-0.012706335 -0.07542744 0.0621535 -0.0522557 -0.039481625 -0.06409 -0.073776275 -0.07391557
-0.044446856 0.03904449 -0.06646584 -0.01878303 0.03167183 0.07470258 -0.0115082795 0.005543029
-0.066905156 0.037548695 0.02787387 0.05029313 -0.010704114 -0.06298688 0.004416496 -0.07389304
-0.0069353124 -0.051224716 0.07508096 0.023496218 0.009831727 -0.029302659 -0.07886418 0.00031717273
-0.032306243 0.05743634 -0.019623155 0.07217109 -0.054346167 -0.035992127 0.026017744 -0.05033536
-0.053888343 0.009872054 0.061397817 0.040876962 0.08970903 0.017183172 -0.009292016 -0.08344482
-0.069877505 -0.02703844 -0.035772976 -0.08056343 0.058383316 0.054146778 0.0050346064 -0.043309305
0.013806014 -0.08338542 -0.003986949 0.026646353 -0.06445908 0.045795754 0.07231602 0.07724718
-0.08456792 0.08035462 0.07625477 0.06692565 0.07229902 0.08355918 0.030708477 0.09091488
-0.080975495 0.047168493 0.07129893 0.0572734 0.0076296474 -0.032211423 -0.08473792 0.073647015
-0.07221242 0.013616537 0.019250939 0.0021084847 -0.014944462 0.023065777 -0.012243913 0.033235326
-0.015372904 -0.014624023 0.08436352 -0.05505327 0.012499704 0.033653468 -0.044015087 0.042473074
-0.076052934 -0.06578761 0.07924804 0.050939955 0.025305629 -0.07991754 -0.018301351 0.082259655
-0.081243135 0.038668763 -0.0033167768 -0.058697674 0.07551293 -0.051262397 -0.015949756 -0.016065992
0.03328757 0.00050274224 -0.08685148 0.033520564 0.06994935 0.025026962 -0.087458044 0.03745952
0.02390258 -0.038996678 -0.03564839 0.073009364 0.03075437 -0.017515698 -0.0480105 0.042762253
0.037626438 -0.042618334 -0.058175847 0.023405125 -0.06367341 -0.08475994 -0.048003066 -0.044389397
0.07789094 -0.06301081 0.0612049 -0.07385082 0.046169087 -0.067345314 -0.02466688 -0.03787225
-0.060733754 0.080456786 -0.0040217694 0.057445563 0.052990027 0.07702487 0.037036777 0.009352479
0.048425883 -0.049783874 -0.019411895 -0.035966422 0.0020441706 -0.008602694 0.065946825 -0.01679339
-0.08302553 0.031112585 -0.060844995 -0.07042009 -0.07314699 -0.06479181 -0.020369925 -0.076387
-0.044055004 0.07961892 0.07151193 -0.016476123 0.0068245553 -0.05734154 -0.063346215 0.0782725

sagpool.gnn.lin_rel.weight f4 [1, 128]
00000000: 21f0 97bc 898e 82bc fec2 7fbd a1d2 87bd
00000010: 5c5d 133c ef4d 923c b74d 81bd eba3 3e3c
00000020: 78b8 20bd 4ac0 96bd ec0f 1d3d d867 6abd
00000030: f7db 3fbd 342a 9c3d d709 403b 4867 e73c
00000040: c012 9ebc a9ac 993d 223e 173b b876 dc3c
00000050: b0bc abbd e610 823d cc8f 913d 8b2d aebd
00000060: 4968 993d b137 8abc e305 d2bc 4767 3b3d
00000070: 4d3a 983c c2c6 983d e8b0 a4bd cd4b 51bd
00000080: dc5b 5b3d 5da0 abbd 2ef6 ff3c 352a aabc
00000090: 92a7 4d38 1b8e 993d dab9 073d 2320 0fbd
000000a0: 1138 9cbd 7936 713d c077 8e3d d025 ab3d
000000b0: e50b 4cbd 8d7c 2e3b b4a6 63bc 0673 843c
000000c0: 11f3 4cbd 2667 fbbc 038a 7f3d 4c45 8f3d
000000d0: 6716 87bd f6c0 05bd 6f18 993d ce5a a13d
000000e0: b8ed 8ebb 57b3 943b 82eb 02bd 67ba bb3c
000000f0: 7c19 0dbd 601a 19bc 346b 27bd 9e8a 6fbd
00000100: 5286 42bd 8d35 a2bd 9ff0 6fbd 7ba3 1c3d
00000110: f0ec da3c b933 073d 1abe 883c b221 80bd
00000120: a753 b4bd 1f09 623c 2b63 2cbd 9ef2 973d
00000130: b1b2 973c 24ee 203d 4b42 a03d 8f56 ed3c
00000140: 32c0 2f3d 7974 303d 3e51 a03d a0d3 353d
00000150: 3b68 28bd a4cc 873d 6e85 37bc be79 cfbc
00000160: 2b9d 6bbd df76 363d 1382 0abd 2569 f7bc
00000170: 26e4 a63d 6a01 5f3d 1c2a 9bbd 6583 30bb
00000180: 5e5a 9f3c 6bfd ba3c dbf4 e43c efa9 4b3d
00000190: 12e2 a43d 5a5f ad3c e983 273c d6e9 953d
000001a0: 60d2 c6bc 7c93 d13c af38 043d 5966 a03d
000001b0: 0659 dcbc 6559 99bd eba8 98bb faf3 063d
000001c0: 5c3c b3bb 6071 9bbb 0cf1 a5bb 85e1 a43c
000001d0: 6b31 8f3c 8264 3a3c 196a 8a3c 1b0c c83c
000001e0: 3d5e e2bc 0344 9dbd d5da 8c3d a5fe ebbb
000001f0: 8e5f 55bd 9ca6 c4bb 213c 14bd 6473 143d
-0.01854712 -0.015937107 -0.06244182 -0.06631971 0.008994427 0.017859427 -0.06313651 0.011635761
-0.039238423 -0.07360895 0.038345262 -0.05722794 -0.046840634 0.07625237 0.002930274 0.02824749
-0.01929605 0.075036354 0.0023077806 0.026912078 -0.08385599 0.06350879 0.07107505 -0.085047804
0.07490594 -0.016872259 -0.025637573 0.04575279 0.018582487 0.07459785 -0.08041555 -0.05109768
0.0535544 -0.08380196 0.031245317 -0.020772079 4.903187e-05 0.074978076 0.033136226 -0.034942757
-0.07627881 0.05888984 0.06956434 0.083568215 -0.04981603 0.002662453 -0.013894726 0.016168129
-0.050036494 -0.030688833 0.062387478 0.06995639 -0.0659607 -0.032654725 0.074753635 0.07878648
-0.0043618344 0.0045379805 -0.03196288 0.022916032 -0.034448132 -0.009344667 -0.04087372 -0.058481805
-0.04749138 -0.0792037 -0.058579084 0.038241845 0.026724309 0.03300831 0.01669221 -0.06256427
-0.08805018 0.01379612 -0.04208676 0.074193224 0.018517824 0.03928961 0.078251444 0.028971938
0.0429079 0.043079827 0.07827996 0.044391274 -0.041115027 0.06630829 -0.011201246 -0.025326606
-0.057522934 0.044546958 -0.033815455 -0.030201504 0.081489846 0.054444708 -0.07576391 -0.0026933786
0.01945227 0.022825917 0.027948787 0.04972261 0.08050932 0.021163631 0.010224321 0.07319991
-0.024270236 0.025583021 0.03228062 0.07832021 -0.026897918 -0.07487754 -0.0046588085 0.032947518
-0.005469842 -0.00474374 -0.0050641354 0.020127067 0.017479619 0.011376502 0.016896294 0.024419835
-0.027632827 -0.07678988 0.068776764 -0.007201987 -0.05209308 -0.0060013067 -0.036190156 0.036242858

sagpool.gnn.lin_root.weight f4 [1, 128]
00000000: dcac aebc b47c ae3c a98a 8dbd 0cfa 8c3d
00000010: ac7d 633d de61 b03b d509 17bd 6f7b aa3d
00000020: 8630 8b3d 0e69 6dbd 21ef 773d 9201 59bd
00000030: d677 723c 98a9 a9bd 9df9 a73c 2736 bbbc
00000040: 9cf5 9c3d bcf1 5d3d 93e0 0ebd 765c 8abc
00000050: 318f 9ebd 814b 933d 3a9c 9dbd 286e 76bd
00000060: 3142 aabd 484b 613d d1f0 a9bd 4d3c 31bb
00000070: 3f33 adbd 1999 9f3b 9505 ac3d 7f61 8dbc
00000080: ebe1 813d b405 953d 5482 9e3d a224 af3d
00000090: 81d4 d6bb 7419 833d 435e 82bd 9db0 283d
000000a0: 553e 0d3d 445a 1c3d da3e 5cbc 2d2f b53d
000000b0: 0fe1 e73b 5c95 4abd 8413 a93c e82b 16bd
000000c0: 9df6 55bd e287 053d 57bb 90bb 43bd 7dbd
000000d0: 98ce ad3d 031d b3bd 6146 ad3c f5e8 27bc
000000e0: fdb2 7abb f3ed 1ebd dbf2 a73d 284d 5d3c
000000f0: f84e e9bc 1ea5 77bb 65c7 bfbc 1e28 28bd
00000100: 2502 2b3d 3525 b83b aad9 b3bd 90d0 893d
00000110: eda7 7c3d 1f41 09b9 b86d 2fbd c220 d03c
00000120: 04a2 b13d a997 0e3c 3b38 ce3c 6043 9abd
00000130: 2f62 373d 8e3b 8c3d 7e5c 4abd 1c26 20bd
00000140: 422b 103d d6a3 363d 9767 513d 84ab 73bd
00000150: ad49 a2bd 0196 f33c 764e 0cbc 9e6c 04bd
00000160: 5c93 9c3d 01b3 9a3d 6877 c93c 0799 a13d
00000170: ab01 bc3c 6267 cc3c 911c 34bd 0123 043d
00000180: 1967 a8bd 8431 6e3d 14f1 a7bd 6a28 4d3d
00000190: fb40 2f3b f9b1 c53c 1db4 9b3d 0f17 1d3c
000001a0: b6bf 99ba 445d 99bd 0bf7 413d 1b0b 46bd
000001b0: a329 a9bd 14de 0fbd f523 d6ba 049e b53c
000001c0: 3245 9bbd 895f 393d 0145 893d 9eaa 15bc
000001d0: 1af8 243d 3592 51bd cbad 4e3d a331 dfbb
000001e0: 8b3a b63c ea9d 213d dd0f a7bc aafe f13c
000001f0: b7fc 523d 433f a9bd f55a 92bb b43d 483d
-0.02132266 0.021299697 -0.06911213 0.0688363 0.055539772 0.0053827604 -0.03687461 0.08324324
0.067963645 -0.057961516 0.060530785 -0.052980013 0.014799079 -0.082843006 0.020504767 -0.02285297
0.07664034 0.054185614 -0.03488214 -0.016889792 -0.07742155 0.071921356 -0.076958135 -0.060163647
-0.08313406 0.055003434 -0.08297885 -0.0027043999 -0.0845704 0.0048705456 0.08399502 -0.017258404
0.063419186 0.072764784 0.07739702 0.08551909 -0.006556094 0.06401339 -0.06365635 0.041184057
0.034483273 0.03817202 -0.013442719 0.08846889 0.0070763896 -0.049458846 0.020639189 -0.036662966
-0.052237142 0.03260029 -0.004416864 -0.061948072 0.0848667 -0.08745768 0.021151723 -0.010248412
-0.0038253658 -0.038801145 0.08200618 0.013507165 -0.028480038 -0.0037787626 -0.023410508 -0.041053884
0.041750092 0.00561967 -0.087817505 0.06729233 0.061683584 -0.00013089598 -0.042829245 0.025406245
0.0867348 0.008703151 0.025173297 -0.07532382 0.04477137 0.06847297 -0.049404614 -0.039098844
0.035197504 0.04458984 0.05112418 -0.059489742 -0.07924209 0.029734613 -0.008563628 -0.032330148
0.07645294 0.075536735 0.02459307 0.07890516 0.022950014 0.02495164 -0.043972556 0.032259945
-0.08222789 0.05815269 -0.08200279 0.05008737 0.0026741612 0.024132716 0.07602713 0.009588017
-0.0011730108 -0.07488492 0.04735474 -0.048350435 -0.08259895 -0.0351239 -0.001633762 0.022170074
-0.07581557 0.045257125 0.067026146 -0.009134917 0.04027567 -0.051164825 0.05045871 -0.006811337
0.022244712 0.03945724 -0.020393306 0.029540379 0.05151054 -0.08264019 -0.0044664093 0.04888697

lin.weight f4 [64, 128]
00000000: 259b b63c 4faa 523c b029 acbc 0f4c 84bc
00000010: 7eb8 15bd 0af5 16bd 3231 9cbd a4ca e33a
00000020: 6634 16bd 1573 c43d c475 163d 2f28 28bd
00000030: 2637 94bd 6e2e 7dbd 0a8d 093d 2b36 4bbc
00000040: f46c df3c 66b7 78bc 1581 683d 1a3e 4f3d
00000050: 54ef 85bd 2f33 193d 4b7c 61bd dbe4 b73b
00000060: 9759 d33c f549 54bd 9d8f 9dbc 5839 43bc
00000070: a501 95bd 7a8f 973d df64 42bd e35e 153d
00000080: 7231 52bd 6058 74bd 3c83 7abd 77a7 b13d
00000090: 67a0 783c c42f f7bb 3261 8c3d 812f 9dbd
000000a0: 4386 8abd 1478 3d3c 7585 6ebc 806f ac3c
000000b0: 86e7 a5bd f00d 8d3d 8023 b6bc ca5c 0b3d
000000c0: fee7 a3bb 32d5 9fbd a4f9 82bb 7208 c4bc
000000d0: 50d5 b2bd 173c b03d 4800 9f3d b17e 13bb
000000e0: 980f d23c cc3c 733c 3863 d13c 27a3 4d3d
000000f0: 9fb5 8bbd 414f 833d 1b93 61bd a7a2 1c3d
00000100: 4263 1dbd fbe8 11bc b91c a2bd b36b a2bd
00000110: 23ec 023d 3c9d 7f3d ed16 c13d 1b24 51bd
00000120: 3be2 8d3d dc7c 093d df00 9dbc b652 543d
00000130: f7e3 8f3d bb40 9a3c cc01 a33d 1e32 94bd
00000140: 7b2c b2bc c09f 84bd 9d1c 9ebd 8093 0dbc
00000150: 57d4 7f3d 0523 77bd 5b5b 12bc dba0 8c3c
00000160: ef81 5abc 9a03 6b3d 52e3 963d 7e5d 903d
00000170: 865a 053d 234b 9cbc 82b6 89bc 5c40 c4bd
00000180: 9df9 abbd 5e72 b7bc ba1c 30bd 1bee 3bbd
00000190: 1742 a03d 1697 0fbc 65f1 70bd 3aa4 a4bc
000001a0: 4757 533c e9ed 51bd 323a 41bd 8064 633c
000001b0: 0739 3e3d c6ad 20bd 989a 85bd 3c8b f9bc
000001c0: 575b 333d 170f edbc f897 80bc c270 05bd
000001d0: d87d 5fbd a8cb 8fbd f8ce fd3a 7e60 70bd
000001e0: fc01 20bd 3c63 99bd 878b ebbc 9202 713d
000001f0: 3a6e a13d 7374 9dbb ab67 423d ff98 81bc
00000200: ee8f cf3c ee8f 943c e984 adbc fb00 6f3d
00000210: 297f 8a3d 14ea b23d 87c8 2dbc 753b 083d
00000220: ada6 c0bb 50ee 823d 7725 943d 4698 03bd
00000230: 84cb a13d 26ad 6f3d f213 3bbd 6cf3 82bd
00000240: f394 2f3d 33e0 4abd 13e6 f13c 845f 14bd
00000250: da61 e3bc d9a6 9b3d 3535 84bd f69d 4b3d
00000260: 11fe 2dbd 9d3f 61bb 35a8 893d 8dd0 9abd
00000270: 2377 a5bc af82 9f3c cfbf 4bbd e5e9 92bd
00000280: 6e47 b93c cfd1 70bc 3c5f eb3a 236c 413d
00000290: 97b4 293b cb3c f7bb ffc3 7c3c c8df 973c
000002a0: 2df4 883d bf6f ba3d 21e2 763d e2f4 963d
000002b0: f2d7 08bd 8f4a 84bd 649a aa3d 4659 e43b
000002c0: c922 8d3d 83c9 1dbc 929e b73d 677f fdbc
000002d0: 9389 40bd fb13 66bd 0ada 5dba 3ef2 663d
000002e0: 4e1a 533d cb69 a3bc 37ea 253c 9b32 033d
000002f0: 2963 b03d 55ee 3a3c e644 093d cbb4 d4b9
00000300: dd6b 2abd 2c69 da3c 852c f13b 27f1 693d
00000310: 6f29 a0bd d42e a1bc aace f3bc df24 1f3c
00000320: 3093 9abd 18ae 43bd ed4b 86bd e957 1c3d
00000330: 94ba ca3b 0dd2 6d3d f7c8 10bc 42fe 75bd
00000340: b38f 81bd 608e 9dbb 8f39 993d 8e3e 84bd
00000350: 31fa 74bd 59d3 24bd 624f ae3d 6d21 0cba
00000360: 039b 913b fc29 1f3c cc34 803c c511 17bd
00000370: f32f 9abd 3b81 5abd 8f5d 51bd 4df8 c73c
00000380: 54b4 a73d 2af7 5f3c f7aa 08bd 7787 8c3d
00000390: 8aa0 9b3d f882 9abd ff1e 203d 3c3e 103d
000003a0: ef81 b53b 1b56 373d cfdb 8dbd f777 6b3c
000003b0: b321 ad3c 39b2 a33d ea50 3dbd ec31 1dbc
000003c0: 7dbf b1bd 1064 423d 0f34 30bd f715 6fbd
000003d0: fedc a23d 520b d23c b486 553d 6e3f 6fba
000003e0: 1b14 673c 93ae 7c3d 371c b8bb 948d 71bd
000003f0: 14b5 a63d 47eb 7b3c ba12 a2bb a689 93bd
0.022290776 0.012857988 -0.021015972 -0.016149549 -0.0365529 -0.03685478 -0.07626571 0.0017379117
-0.036671065 0.09592263 0.036733404 -0.041053947 -0.07237081 -0.061811857 0.03358177 -0.012403051
0.027273633 -0.015180444 0.056763727 0.050596334 -0.06539789 0.037402328 -0.055050176 0.0056119985
0.025799556 -0.051828343 -0.01923352 -0.011915527 -0.07275704 0.07400413 -0.04745948 0.036467444
-0.051316686 -0.059654593 -0.06116031 0.086745195 0.015174962 -0.007543536 0.06854476 -0.07675076
-0.0676389 0.011564273 -0.014558186 0.021049261 -0.081008 0.06887424 -0.022233725 0.034024037
-0.005002021 -0.07804336 -0.0039970446 -0.023929808 -0.087320924 0.08605211 0.077637255 -0.0022505934
0.025642201 0.014846038 0.025560006 0.050204422 -0.06821751 0.06411601 -0.05507193 0.038241055
-0.038424738 -0.0089056445 -0.07915635 -0.07930698 0.03196348 0.06240581 0.09428201 -0.051059823
0.06927916 0.03356634 -0.019165454 0.05183669 0.07025903 0.018829694 0.07959327 -0.072361216
-0.021749726 -0.064757824 -0.07720301 -0.008641124 0.062458362 -0.06033613 -0.008932914 0.017166546
-0.013336643 0.05737648 0.07367577 0.07049082 0.032557033 -0.019078797 -0.01681066 -0.09582588
-0.08397219 -0.022393402 -0.042996146 -0.045881372 0.07825106 -0.008764049 -0.05882396 -0.02009784
0.0128992265 -0.05125228 -0.04717464 0.013878942 0.046441104 -0.039228223 -0.06523627 -0.0304619
0.04378828 -0.02893786 -0.015697464 -0.032578237 -0.054563373 -0.07021266 0.001936405 -0.058685772
-0.039064392 -0.074896306 -0.028753055 0.058840342 0.07882352 -0.0048051416 0.047462147 -0.015820025
0.025337186 0.018135037 -0.02118154 0.058350544 0.06762535 0.08736053 -0.0106068915 0.033259828
-0.0058792443 0.06393111 0.07233708 -0.03212764 0.07900146 0.058514737 -0.04567332 -0.06394085
0.04286666 -0.04953022 0.029528653 -0.036223903 -0.02775662 0.07600183 -0.06455461 0.04971119
-0.042478625 -0.0034370192 0.06721536 -0.07559309 -0.02019841 0.019471494 -0.04974347 -0.07173518
0.022617068 -0.01469846 0.0017957459 0.047222268 0.0025894993 -0.007545089 0.0154275885 0.018539324
0.06687198 0.09103345 0.060274247 0.073709264 -0.033409066 -0.064595334 0.08330229 0.00696865
0.068914 -0.009630564 0.08965792 -0.03094454 -0.0470062 -0.0561714 -0.00084629713 0.056383364
0.051538758 -0.019947907 0.010126642 0.032030683 0.08612663 0.011409362 0.033512972 -0.00040570492
-0.041606773 0.026661478 0.0073600435 0.057114746 -0.07820403 -0.01967565 -0.029761631 0.009713381
-0.07547605 -0.04777345 -0.065574504 0.038169775 0.0061867926 0.05806165 -0.008836976 -0.060056932
-0.063262366 -0.004808232 0.074816816 -0.06457244 -0.059808914 -0.04024062 0.08511235 -0.0005345557
0.0044435277 0.0097146 0.015650176 -0.03688218 -0.07528677 -0.0533459 -0.051114615 0.024410391
0.08188692 0.013669768 -0.03336617 0.06861775 0.0759898 -0.075445116 0.03909206 0.0352156
0.005539171 0.04475985 -0.06926691 0.014371864 0.021134233 0.07992978 -0.046219744 -0.009594422
-0.086791016 0.04745871 -0.043018397 -0.058370557 0.07952307 0.025640164 0.052130416 -0.0009126578
0.014103915 0.061689924 -0.005618598 -0.05897291 0.08140007 0.015375919 -0.00494608 -0.07203989

lin.bias f4 [64]
00000000: b442 51bd 2f32 a1bd 66f6 8ebd 28cd 3b3d
00000010: c2ac 953d f4bb 9ebd ea27 4fbd 6d19 8f3c
00000020: ae0c 84bd 0f5e a03b 60f3 a6bd 26f3 9b3d
00000030: 500e e3bc 833d c23c 7b32 7f3d 0098 373d
00000040: 356d 013c 06db 123d df75 a9bd 78a7 2d3d
00000050: c3cc b43d 143f 5cbd d2de b03d c1d8 463d
00000060: ad68 64bd 434e aebd 271a 91bd 6c52 1abb
00000070: bde1 84bc 64a5 3ebd 547b 103d 4ae1 62bd
00000080: 7d58 193c 7e34 2bbd 1e16 423d 1fcd 4d3d
00000090: 0dfe 103d b6ad 9b3d e75c c53c 76ee 7a3d
000000a0: 27fb ac3d 0757 98bd 74a7 063d 6673 7bbd
000000b0: d2a9 bd3c af50 803d a8ab 56bd 78f3 94bd
000000c0: b2da 103c 0488 ae3c 9f09 7f3d 59d1 b7bc
000000d0: 4f0a 283d 2a9e 85bd c699 2a3d 82e7 5fbd
000000e0: 27d6 3cbd 8ca6 43bd c9f5 6bbd af1a 843d
000000f0: fa66 88bc 74f3 81bd de8a 643d 7cd0 a2bc
-0.051089004 -0.078709 -0.069805905 0.04584995 0.073083416 -0.07750693 -0.050575174 0.017468179
-0.06447731 0.004894025 -0.08151889 0.07614736 -0.027716786 0.023710972 0.062304 0.044822693
0.007899572 0.03585341 -0.08274435 0.04239604 0.08828118 -0.053771093 0.086362496 0.048546556
-0.05576389 -0.08511021 -0.07085066 -0.0023547662 -0.016220922 -0.046544448 0.035273865 -0.055390634
0.009359476 -0.041798107 0.047384374 0.050244447 0.03539853 0.07601492 0.02409215 0.06126257
0.08446341 -0.07438474 0.03287454 -0.06138935 0.023152266 0.06265389 -0.052409798 -0.072730005
0.0088412035 0.021305092 0.062265035 -0.022438692 0.041025456 -0.06524308 0.041650556 -0.054664142
-0.04610267 -0.047766253 -0.057607446 0.06450402 -0.016650666 -0.06345263 0.055796497 -0.019874804

fc.weight f4 [1, 64]
00000000: f6ce 043e 8747 ecbd 767f 073e 311e 60bd
00000010: 317e 033e 440a 653d d722 bbbd a787 8fbd
00000020: d2c0 d93d a882 debd 7b71 903d fe53 ffbc
00000030: 9a38 16be 79c5 4bbd 9f42 27bd 66d4 f4bd
00000040: 37ad e5bd 786e 633d 4c6f a1bd 3c4a 4d3c
00000050: 87c5 723c a129 14be 3bc3 8fbd fcee 98bd
00000060: 0132 fabd 5bf7 6b3d a05e a03d 7bfa f03d
00000070: bcca fa3d fab9 48bd 9b0c aa3d e28f f8bd
00000080: 67c6 c0bd a8d7 eebd 8140 c9bd 24e9 74bd
00000090: fb8e c1bd d7c9 053e c449 103d 0c15 21bd
000000a0: ee2b a5bd 8aad 3a3d 53f6 ecbd 869a e13c
000000b0: a0c9 9bbc 1b2e bd3d c976 66bd eeda e73d
000000c0: f71b 043e bf6d 0bbe 920e 4cbd 3d23 083e
000000d0: 24d1 913d 0d1c efbd 8ad0 e3bc 4df2 a4bd
000000e0: 8a45 ac3d 43d5 9dbd 87bb d93d 9f66 d53d
000000f0: d006 123e 45ec 123e 0427 cf3d 397f 0cbd
0.12969574 -0.1153708 0.13232216 -0.054716293 0.12841107 0.055917993 -0.091375045 -0.070082955
0.10632481 -0.108647645 0.07052895 -0.03116798 -0.1467003 -0.04974887 -0.04083502 -0.11954574
-0.11214679 0.055525273 -0.07882556 0.012529906 0.014817602 -0.14469005 -0.07019659 -0.07467458
-0.12216569 0.057608943 0.07830548 0.11766525 0.122457 -0.049005486 0.083031856 -0.121368185
-0.09412842 -0.11662227 -0.09826756 -0.059792653 -0.094510995 0.13065277 0.0352266 -0.039326712
-0.080650195 0.045575656 -0.1157042 0.027539503 -0.01901704 0.092373095 -0.056265626 0.113210544
0.12901293 -0.13616084 -0.049818583 0.13294692 0.071199685 -0.11675272 -0.0278094 -0.08054028
0.08411701 -0.07706692 0.10631471 0.10419964 0.14260411 0.14347942 0.101148635 -0.034301016

gcn_batch_norm.weight f4 [128]
00000000: 0000 803f 0000 803f 0000 803f 0000 803f
00000010: 0000 803f 0000 803f 0000 803f 0000 803f
00000020: 0000 803f 0000 803f 0000 803f 0000 803f
00000030: 0000 803f 0000 803f 0000 803f 0000 803f
00000040: 0000 803f 0000 803f 0000 803f 0000 803f
00000050: 0000 803f 0000 803f 0000 803f 0000 803f
00000060: 0000 803f 0000 803f 0000 803f 0000 803f
00000070: 0000 803f 0000 803f 0000 803f 0000 803f
00000080: 0000 803f 0000 803f 0000 803f 0000 803f
00000090: 0000 803f 0000 803f 0000 803f 0000 803f
000000a0: 0000 803f 0000 803f 0000 803f 0000 803f
000000b0: 0000 803f 0000 803f 0000 803f 0000 803f
000000c0: 0000 803f 0000 803f 0000 803f 0000 803f
000000d0: 0000 803f 0000 803f 0000 803f 0000 803f
000000e0: 0000 803f 0000 803f 0000 803f 0000 803f
000000f0: 0000 803f 0000 803f 0000 803f 0000 803f
00000100: 0000 803f 0000 803f 0000 803f 0000 803f
00000110: 0000 803f 0000 803f 0000 803f 0000 803f
00000120: 0000 803f 0000 803f 0000 803f 0000 803f
00000130: 0000 803f 0000 803f 0000 803f 0000 803f
00000140: 0000 803f 0000 803f 0000 803f 0000 803f
00000150: 0000 803f 0000 803f 0000 803f 0000 803f
00000160: 0000 803f 0000 803f 0000 803f 0000 803f
00000170: 0000 803f 0000 803f 0000 803f 0000 803f
00000180: 0000 803f 0000 803f 0000 803f 0000 803f
00000190: 0000 803f 0000 803f 0000 803f 0000 803f
000001a0: 0000 803f 0000 803f 0000 803f 0000 803f
000001b0: 0000 803f 0000 803f 0000 803f 0000 803f
000001c0: 0000 803f 0000 803f 0000 803f 0000 803f
000001d0: 0000 803f 0000 803f 0000 803f 0000 803f
000001e0: 0000 803f 0000 803f 0000 803f 0000 803f
000001f0: 0000 803f 0000 803f 0000 803f 0000 803f
1.0 1.0 1.0 1.0 1.0 1.0 1.0 1.0
1.0 1.0 1.0 1.0 1.0 1.0 1.0 1.0
1.0 1.0 1.0 1.0 1.0 1.0 1.0 1.0
1.0 1.0 1.0 1.0 1.0 1.0 1.0 1.0
1.0 1.0 1.0 1.0 1.0 1.0 1.0 1.0
1.0 1.0 1.0 1.0 1.0 1.0 1.0 1.0
1.0 1.0 1.0 1.0 1.0 1.0 1.0 1.0
1.0 1.0 1.0 1.0 1.0 1.0 1.0 1.0
1.0 1.0 1.0 1.0 1.0 1.0 1.0 1.0
1.0 1.0 1.0 1.0 1.0 1.0 1.0 1.0
1.0 1.0 1.0 1.0 1.0 1.0 1.0 1.0
1.0 1.0 1.0 1.0 1.0 1.0 1.0 1.0
1.0 1.0 1.0 1.0 1.0 1.0 1.0 1.0
1.0 1.0 1.0 1.0 1.0 1.0 1.0 1.0
1.0 1.0 1.0 1.0 1.0 1.0 1.0 1.0
1.0 1.0 1.0 1.0 1.0 1.0 1.0 1.0
