All_Benchmarking/DATA_6/Results/fold_1/best_model.pth (torch, 192098 bytes, 32 tensors)

gat1.att_src f4 [1, 4, 32]
0	0xbe96e23c	-0.29469478
1	0xbdd40b0e	-0.10353671
2	0xbd1d215b	-0.03836189
3	0xbe67b90f	-0.22629188
4	0xbe9a49f2	-0.3013454
5	0x3e8c5fd3	0.27416858
6	0x3e8d8fb7	0.27648708
7	0xbebfeb2d	-0.37484112
8	0x3e0530db	0.13006918
9	0x3e2a7a95	0.16648324
10	0x3ec68d77	0.38779804
11	0x3e6bfaf1	0.23044945
12	0x3ec005ea	0.37504512
13	0xbe1b763a	-0.15181819
14	0x3e8fc77a	0.28081876
15	0x3ea9d44a	0.33169776
16	0xbec6174f	-0.38689658
17	0xbea85ad9	-0.3288181
18	0x3dbe9ff1	0.0930785
19	0x3e6c8359	0.2309698
20	0xbe4bbc2f	-0.19896005
21	0x3d34aebd	0.044111956
22	0xba0fe755	-0.0005489488
23	0x3dd16594	0.102244526
24	0xbe7e3db0	-0.2482822
25	0x3e6b929e	0.23005149
26	0x3e8aa32b	0.27077612
27	0xbe908750	-0.28228235
28	0x3ba2b4d0	0.004965402
29	0xbb941f17	-0.0045203078
30	0x3df0a7cf	0.11750757
31	0x3ec2f312	0.38076073
32	0x3df1714f	0.1178919
33	0xbdb89502	-0.09012796
34	0x3ebacbd9	0.36483648
35	0xbe20ec93	-0.15715246
36	0xbdf74166	-0.12073021
37	0x3cd4ec8f	0.025991706
38	0xbe9fb8e6	-0.31195754
39	0x3d484aac	0.048899338
40	0xbe8a7b3c	-0.27047145
41	0x3d14a556	0.03629049
42	0x3d1f4c58	0.038891166
43	0x3d574e9c	0.052565202
44	0xbeaf1ae2	-0.34200197
45	0xbec7262a	-0.38896304
46	0x3e3d365e	0.1847777
47	0x3eb205d9	0.34770086
48	0xbebbd9f9	-0.36689737
49	0x3e185fbf	0.14880274
50	0xbe9c5233	-0.30531463
51	0x3ce64f65	0.02811403
52	0x3ec32b13	0.381188
53	0x3ea03569	0.3129075
54	0xbe9c06e8	-0.3047402
55	0x3e824da0	0.25449848
56	0x3e56a6f3	0.20962124
57	0x3aaa8cde	0.0013011952
58	0x3eca4925	0.3950893
59	0xbe23aa59	-0.15982951
60	0xbdadd92b	-0.08488687
61	0xbe55287b	-0.20816223
62	0x3d77a0fd	0.060456265
63	0x3de35886	0.11100869
64	0x3d16faef	0.036860403
65	0xbe6617b9	-0.22469987
66	0xbe40e998	-0.18839109
67	0x3e095973	0.13413028
68	0xbeb5daa3	-0.3551837
69	0xbd81e684	-0.063427955
70	0xbc518286	-0.012787467
71	0xbe260dfb	-0.1621627
72	0x3e1d1ac9	0.15342249
73	0x3d01f9d9	0.031732414
74	0x3e94d103	0.29065713
75	0xbd1da74d	-0.03848963
76	0xbe855def	-0.26048228
77	0x3e962b43	0.2932988
78	0x3d75a220	0.059969068
79	0xbde5b917	-0.11216944
80	0xbe892454	-0.2678553
81	0x3dbb7133	0.091524504
82	0xbec5ac4f	-0.38608024
83	0x3de67e9e	0.11254619
84	0x3e4a748f	0.19771026
85	0xbeb92c46	-0.3616659
86	0xbe8653f5	-0.2623593
87	0xbe97a703	-0.29619607
88	0x3eae8939	0.34089068
89	0x3eb3dc42	0.3512898
90	0x3cededf1	0.029044123
91	0x3ec1f710	0.37883806
92	0xbe06e9ce	-0.13175127
93	0xbecdbb7d	-0.40182105
94	0x3e158b90	0.1460402
95	0x3e1013a9	0.1407
96	0x3ecc1ee6	0.39867324
97	0xbad1e0fe	-0.0016012487
98	0x3ea01261	0.31264022
99	0x3e7f5e1b	0.24938242
100	0x3e96acfc	0.29428852
101	0xbeceedc5	-0.4041578
102	0x3eacb3a8	0.33730817
103	0xbeb41d3d	-0.35178557
104	0x3ebb523a	0.3658617
105	0xbc8f07ec	-0.017459832
106	0xbebd781f	-0.37005708
107	0x3deba73a	0.11506505
108	0xbda82c70	-0.08211601
109	0xbebcfbb3	-0.3691078
110	0xbe176c83	-0.14787488
111	0x3d2bd3f9	0.0419502
112	0x3ea43e57	0.32078812
113	0xbe011d40	-0.12608814
114	0x3e77ce0a	0.24199691
115	0x3d575bab	0.052577656
116	0x3c2a58bf	0.010397135
117	0x3d9e88f4	0.077409655
118	0xbe8f4574	-0.27982676
119	0xbeaeb625	-0.3412334
120	0xbe064eec	-0.13116044
121	0xbec33e5f	-0.38133523
122	0xbe439b2c	-0.19102162
123	0x3c98d28d	0.018655086
124	0xbe895bf3	-0.26827964
125	0xbe2dbe44	-0.16967112
126	0xbd922e05	-0.07137684
127	0xbd3f2b7c	-0.04667233

gat1.att_dst f4 [1, 4, 32]
0	0xbe66120d	-0.22467823
1	0x3c9d9029	0.01923378
2	0xbd686700	-0.056738853
3	0x3dee58cf	0.11638033
4	0x3c92aaf9	0.017903792
5	0xbe50427e	-0.20337865
6	0xbe0f71be	-0.14008233
7	0xbb8c90ee	-0.004289738
8	0xbe823d79	-0.25437525
9	0x3d0571e7	0.03257933
10	0xbcf021da	-0.029313017
11	0x3e2190d5	0.15777905
12	0x3dc643e3	0.09680917
13	0x3e9c1d19	0.3049095
14	0xbc66e786	-0.014093285
15	0xbe9a79fc	-0.30171192
16	0x3e3ac5f0	0.1823957
17	0xbe8d77eb	-0.27630553
18	0xbd639e62	-0.055570967
19	0xbe06d8ae	-0.13168594
20	0xbe1dfe8c	-0.15429133
21	0xbe1b59c8	-0.15170968
22	0x3ebfc10c	0.3745197
23	0x3e6eb11f	0.23309754
24	0x3de8d9da	0.11369677
25	0x3ec3f273	0.38270912
26	0xbebda605	-0.37040725
27	0x3d881885	0.06645302
28	0x3e86208c	0.26196706
29	0x3e8a8580	0.27054977
30	0xbea6ae0b	-0.3255466
31	0x3e143bff	0.14476012
32	0xbe6eacb4	-0.23308069
33	0xbc8149b1	-0.01578221
34	0xbdae74fa	-0.08518405
35	0xbeae857a	-0.3408621
36	0xbec7a674	-0.3899418
37	0xbe89c7f7	-0.26910374
38	0x3e3d8a5e	0.18509814
39	0x3e3f5e19	0.18688239
40	0xbeb5c087	-0.3549845
41	0xbe1d1e0e	-0.15343496
42	0x3bd8ee69	0.0066202176
43	0xbeb4caa7	-0.3531086
44	0x3e6c0977	0.23050486
45	0x3ebd2a26	0.3694622
46	0x3d936d4a	0.071985796
47	0xbe9b73ee	-0.30361885
48	0x3dc2a7ea	0.09504683
49	0x3e176dd8	0.14787996
50	0x3ea587da	0.3233021
51	0xbe5e6dff	-0.21721648
52	0xbebb2848	-0.3655417
53	0x3e37eb74	0.17960912
54	0x3cd01177	0.025398953
55	0xbe07dd96	-0.13268122
56	0xbe2f60b6	-0.17126736
57	0xbe572b9a	-0.21012726
58	0x3ea92690	0.33037233
59	0xbd8f8cd9	-0.070092864
60	0x3e96c601	0.2944794
61	0x3eba7f7f	0.36425397
62	0x3d559b0b	0.052149814
63	0x3db264eb	0.08710655
64	0xbd07d25d	-0.033159602
65	0x3e8f127f	0.279438
66	0xbebdf326	-0.3709957
67	0x3e2df993	0.16989736
68	0xbd808c67	-0.062767796
69	0x3e43315f	0.19061802
70	0xbba918ec	-0.0051604416
71	0xbe160603	-0.14650731
72	0xbd2df1c8	-0.04246691
73	0x3e65addf	0.22429608
74	0xbe90117e	-0.28138345
75	0xbe821570	-0.2540698
76	0xbdc27fec	-0.094970554
77	0xbe1faa42	-0.15592292
78	0x3e264038	0.16235435
79	0x3e87ffeb	0.26562437
80	0xbd410ad2	-0.04712946
81	0x3eca12bd	0.3946742
82	0xbe35dfb4	-0.17761117
83	0xbe6811fa	-0.22663108
84	0xbe3197bc	-0.17343038
85	0xbe8dad6d	-0.27671376
86	0xbe973ff5	-0.29540983
87	0xbeb82943	-0.3596898
88	0xbebb495b	-0.36579403
89	0x3dd8b309	0.10581023
90	0x3e79231c	0.243298
91	0x3ec7726e	0.3895449
92	0x3eae96cf	0.34099433
93	0xbcdb0835	-0.026737312
94	0x3da925d3	0.082591675
95	0xbe74cbd3	-0.23905878
96	0x3e225a24	0.15854698
97	0xbec7ea2d	-0.3904585
98	0x3e4629f3	0.1935194
99	0x3d9a215a	0.075258926
100	0x3e010a5f	0.12601613
101	0x3e1849a2	0.14871839
102	0xbe3f3f47	-0.18676482
103	0x3eb3def6	0.35131043
104	0x3e46f3f5	0.19429
105	0x3e88f7b8	0.26751494
106	0x3d5fc1aa	0.05462805
107	0x3e8309bf	0.25593373
108	0x3e8cdadd	0.2751073
109	0x3e3e1da5	0.18565996
110	0x3e9fa8a0	0.31183338
111	0xbd987fee	-0.07446276
112	0x3e890303	0.2676011
113	0x3dc21922	0.0947745
114	0x3e7ab262	0.2448211
115	0x3ecb3f6a	0.3969682
116	0x3dbf54cd	0.09342346
117	0xbe1a4740	-0.15066242
118	0xbd240239	-0.040041182
119	0x3ded16c2	0.11576606
120	0x3d8ed20f	0.06973659
121	0xbde56ebf	-0.11202764
122	0x3ea36a42	0.31917006
123	0x3e7a5d31	0.24449612
124	0xbe81773b	-0.25286278
125	0xbd0b645e	-0.034031264
126	0xbd23f45a	-0.040027954
127	0xbe82acca	-0.25522453

gat1.bias f4 [128]
0	0xb99ba163	-0.00029684146
1	0xba71e407	-0.0009227399
2	0xb8f6e6e6	-0.00011773202
3	0xb92b80ed	-0.0001635586
4	0x38c240c3	9.262704e-05
5	0xbb501a50	-0.0031753965
6	0x39b3676d	0.000342186
7	0xb9518137	-0.0001997993
8	0xb9c16b25	-0.00036891658
9	0xb99ba0a1	-0.00029683582
10	0xb9ab4ebf	-0.00032674332
11	0x3a46b805	0.00075805216
12	0x39ef1b4d	0.00045605973
13	0xb96b2db5	-0.00022428374
14	0xba36da54	-0.00069752824
15	0xba80b28c	-0.0009818836
16	0xb9cd4b0c	-0.0003915656
17	0xba5eabec	-0.0008494246
18	0xb764c217	-1.3635049e-05
19	0xb9aeb264	-0.00033320778
20	0xb9a6cfff	-0.00031816956
21	0xba77cac9	-0.00094525196
22	0xb68bcfab	-4.1666985e-06
23	0xb99605cf	-0.00028614557
24	0x39040aa9	0.00012592472
25	0xb99baf78	-0.00029694638
26	0xb7beac52	-2.2730008e-05
27	0x3942c33e	0.00018574015
28	0x33b18cc8	8.267813e-08
29	0x3a69b5fd	0.0008915363
30	0x3a6701b1	0.0008812203
31	0xb979a1c0	-0.00023806747
32	0x390d8bed	0.00013498934
33	0x3a0cd5b2	0.0005372419
34	0x37e1465a	2.685485e-05
35	0x3a705c28	0.0009169006
36	0xbaa4da85	-0.0012577331
37	0xba5a56d0	-0.0008328976
38	0x3a036490	0.00050122384
39	0x3a9de50a	0.0012046408
40	0x3a1ae071	0.0005908078
41	0x3a964ca7	0.0011466936
42	0xb942618e	-0.00018537624
43	0xba201c2c	-0.00061077136
44	0x39e08bc9	0.00042828757
45	0x394cb979	0.0001952405
46	0x39c8368d	0.00038187616
47	0x3a1fa1a6	0.0006089456
48	0x3965469c	0.00021865446
49	0xba8073e9	-0.0009800169
50	0x3911c2b6	0.00013900813
51	0xba141067	-0.0005648196
52	0xb98deae6	-0.0002706863
53	0x39eacf76	0.00044786528
54	0xba181d5d	-0.00058027153
55	0x39058504	0.0001273342
56	0x3a8f7bd7	0.0010946941
57	0xb95fb01d	-0.00021332545
58	0xba89c388	-0.0010510543
59	0x3967fe11	0.00022124524
60	0x39e5a9c5	0.00043804772
61	0x3987cb0f	0.00025900497
62	0xba00c582	-0.00049122435
63	0x3934976a	0.00017222544
64	0xba10c25e	-0.0005522127
65	0xba562c37	-0.00081700407
66	0xb9a1a199	-0.00030828713
67	0x398d1810	0.00026911544
68	0x39301956	0.00016794106
69	0x39f106db	0.0004597221
70	0x39daf2d2	0.00041761115
71	0x3a0b6032	0.00053167634
72	0xb985bdb8	-0.00025509088
73	0x3aa66ce8	0.0012697252
74	0xb8b248c9	-8.501259e-05
75	0x39a85b48	0.00032111467
76	0x3a7c1638	0.0009616348
77	0xb9f6f2e9	-0.00047101759
78	0x38e12a00	0.00010736659
79	0x3a95e676	0.001143648
80	0xbb10bf04	-0.002208651
81	0xba80efad	-0.0009837054
82	0xb9f1a6c9	-0.00046091367
83	0xbad9955f	-0.0016600302
84	0xb8ccd5e8	-9.767321e-05
85	0xba8149f9	-0.0009863965
86	0xb934886b	-0.00017216957
87	0x39319b59	0.00016937907
88	0x3a5f48c2	0.00085176167
89	0xb9deb7fe	-0.00042480225
90	0xb9b40600	-0.00034336746
91	0x39c223cb	0.0003702923
92	0x39f988cc	0.00047594903
93	0x39f6f2a8	0.0004710157
94	0xba316b7c	-0.00067680306
95	0x384bcce2	4.8589784e-05
96	0x3a239da3	0.0006241446
97	0xba17b3ab	-0.00057869655
98	0xba02dd51	-0.0004992085
99	0x3a1730ba	0.00057674537
100	0xb9d71764	-0.00041025423
101	0x39eda89d	0.0004532979
102	0xb7a3e241	-1.9536472e-05
103	0x3ada82ac	0.0016671023
104	0x39cedef1	0.00039457486
105	0x3a5dddf5	0.0008463555
106	0xba887388	-0.0010410408
107	0xb9ae1385	-0.0003320241
108	0xb638e740	-2.7552742e-06
109	0x3a43ccaa	0.0007469157
110	0xb91abff9	-0.000147581
111	0xb8dc8a8f	-0.00010516226
112	0x3a456032	0.0007529288
113	0xb9b75953	-0.00034971032
114	0xb9ceb55a	-0.000394265
115	0xba192d4c	-0.00058432366
116	0xb85281f1	-5.018892e-05
117	0x36512c1a	3.1169097e-06
118	0x38923684	6.971977e-05
119	0x38b1e979	8.4835054e-05
120	0x3a2bff2b	0.00065611553
121	0x3a33c2a8	0.0006857314
122	0xb954bb9a	-0.00020287783
123	0x3986ad16	0.0002568743
124	0x3988488f	0.00025994002
125	0x3a39e248	0.00070909085
126	0x3894a6e4	7.088276e-05
127	0x3a4f1ac4	0.0007900412

gat1.lin.weight f4 [128, 5]
0	0x3d3c578f	0.04598194
1	0xbe4b5b70	-0.198591
2	0x3e3bd1bd	0.18341728
3	0x3e0a8414	0.13526946
4	0xbe5cc13a	-0.21558085
5	0xbdc3d8dd	-0.09562848
6	0x3d7f028f	0.0622583
7	0xbd370093	-0.044678282
8	0xbccc3729	-0.024928646
9	0xbdf05a34	-0.11735955
10	0x3e29df26	0.1658903
11	0xbdddbf63	-0.1082752
12	0x3e3aa011	0.18225123
13	0x3b75b01c	0.0037489003
14	0x3d10909d	0.035294164
15	0x3e226ea1	0.15862514
16	0xbd002e51	-0.03129417
17	0xbe001302	-0.12507251
18	0xbceedf06	-0.02915908
19	0x3e339d02	0.17540362
20	0xbe171440	-0.14753819
21	0x3d51ca23	0.051218163
22	0xbe5cbdbf	-0.21556757
23	0x3dd26c24	0.102745324
24	0x3d8e73a7	0.06955653
25	0x3c6b2078	0.014351003
26	0x3d911c8e	0.070855245
27	0x3cb505d3	0.022097504
28	0x3dedc2d6	0.11609428
29	0xbe4be151	-0.1991017
30	0xbce0bb1b	-0.027432969
31	0x3dbc4bed	0.09194169
32	0x3e5b6f90	0.21429276
33	0x3dd5ad32	0.10433425
34	0xbe1bcb10	-0.15214181
35	0x3e2833a1	0.16425945
36	0xbd40ae85	-0.047041435
37	0xbd3c39ea	-0.04595367
38	0xbe3fe13e	-0.18738267
39	0xbd531d4d	-0.051541615
40	0x3e0d0248	0.13770401
41	0x3d1ec65a	0.03876338
42	0xbe00f791	-0.12594439
43	0x3d672c78	0.056438893
44	0xbdb8fe16	-0.09032838
45	0x3e3fa061	0.18713523
46	0xbe48a1b5	-0.19592936
47	0xbd79b50d	-0.06096368
48	0xbe441def	-0.19152044
49	0xbda6d0e9	-0.08145315
50	0x3da0f7b1	0.078597434
51	0x3e5479e6	0.20749626
52	0x3ce4cf2d	0.02793082
53	0x3e4e0856	0.20120367
54	0x3ca84750	0.020541817
55	0x3df83415	0.12119309
56	0x3e2813c4	0.1641379
57	0x3e3b7716	0.18307146
58	0xbde2f589	-0.11081988
59	0x3e3fab05	0.18717583
60	0x3df58662	0.11988522
61	0xbdc14577	-0.094370775
62	0xbdd7a37e	-0.105292305
63	0xbe3290f0	-0.17438102
64	0x3d9df827	0.07713347
65	0xbe2a1277	-0.16608606
66	0x3dbde5a0	0.09272313
67	0x3d82706e	0.063691005
68	0xbe3edb29	-0.1863829
69	0x3d9719e4	0.07377985
70	0xbd04f464	-0.03245963
71	0x3dc78c3b	0.09743544
72	0x3df9789a	0.12181206
73	0xbe43518d	-0.19074078
74	0x3e649834	0.22323686
75	0x3e3f3b11	0.18674876
76	0x3d8e4cc8	0.069482386
77	0xbe3f1af9	-0.18662633
78	0xbd99016f	-0.074709766
79	0xbdabd2e2	-0.08389832
80	0xbd4480c4	-0.047974363
81	0x3df5f399	0.12009353
82	0x3da0e247	0.07855659
83	0x3e1d4082	0.15356639
84	0xbddf0ed3	-0.10891499
85	0x3d8250cb	0.06363066
86	0x3da85b8b	0.082205854
87	0xbe37129f	-0.17878197
88	0xbe4e0169	-0.20117725
89	0xbdfc36a8	-0.12315112
90	0x3e17eff8	0.14837635
91	0xbe47c602	-0.19509128
92	0xbe414012	-0.18872097
93	0x3ddecc40	0.10878801
94	0x3e094a20	0.13407183
95	0x3e3ef381	0.18647577
96	0xbe1df3cf	-0.15425037
97	0xbe25ccfb	-0.16191475
98	0x3dd041b9	0.101687856
99	0x3e2bcd4e	0.16777536
100	0x3dfc08b6	0.12306349
101	0x3d010d9d	0.031507123
102	0x3d985ea9	0.0743993
103	0x3e3e8885	0.18606766
104	0xbe266f1c	-0.16253322
105	0xbdd457ed	-0.10368333
106	0x3e02b9fb	0.12766258
107	0xbe02c67e	-0.12771031
108	0xbe046011	-0.12927271
109	0x3e3a0c91	0.18168856
110	0x3d85d289	0.06534297
111	0x3daaf87f	0.08348178
112	0xbdc4c22e	-0.09607349
113	0xbc3f8f05	-0.011691813
114	0x3e384458	0.17994821
115	0xbe063217	-0.13105045
116	0x3c6681d5	0.01406904
117	0x3db1478f	0.08656227
118	0xbe212a7a	-0.1573886
119	0x3e6e0cd2	0.23247078
120	0xbdc8316b	-0.09775051
121	0xbd63f648	-0.055654794
122	0xbd7960b1	-0.060883228
123	0xbde9dd7c	-0.11419198
124	0xbe798717	-0.24367939
125	0x3e054c64	0.13017422
126	0x3d430d30	0.04762
127	0xbe48f06f	-0.19622968
128	0xbe13ee37	-0.1444634
129	0x3e47b36a	0.19502035
130	0x3db72697	0.08942907
131	0x3da08084	0.078370124
132	0xbdf9c06e	-0.12194906
133	0xbdd68ce2	-0.1047609
134	0xbc8a2e1c	-0.01686769
135	0xbd55bc55	-0.05218156
136	0xbe108577	-0.14113413
137	0x3c9e6d14	0.019339122
138	0x3cc21824	0.023693152
139	0xbccfbd60	-0.025358856
140	0x3d0a9c1f	0.033840295
141	0xbdc40c51	-0.09572662
142	0x3d5bd8c4	0.05367352
143	0x3da4e118	0.08050746
144	0xbdb66ea8	-0.08907825
145	0xbe4f5699	-0.20247878
146	0x3de848ee	0.11342035
147	0x3d47ef93	0.04881246
148	0xbdfb70d3	-0.12277379
149	0x3e449c1a	0.19200173
150	0xbdb6bcdf	-0.08922743
151	0x3e15c919	0.14627494
152	0x3dd4fbdb	0.103996
153	0xbe2f00a7	-0.17090093
154	0x3e218cee	0.15776417
155	0xbe40e712	-0.18838146
156	0xbe01174b	-0.12606542
157	0xbcf1e8bc	-0.029529922
158	0xbe099ea5	-0.13439424
159	0x3e4aca2e	0.19803688
160	0xbd6706e8	-0.05640307
161	0x3dbcb206	0.09213643
162	0xbe3841d2	-0.17993858
163	0x3e011a82	0.12607768
164	0xbd4399dc	-0.047754154
165	0xbe2d1e3c	-0.16906065
166	0x3d19af11	0.037520472
167	0x3dc5dba4	0.09661034
168	0x3e3ddd64	0.18541485
169	0xbddd5ed4	-0.10809103
170	0xbdba011c	-0.09082243
171	0x3d0af84b	0.033928197
172	0x3d83e559	0.06440229
173	0x3d97d16c	0.07412991
174	0x3e0e56e5	0.13900335
175	0xbd2e2bc9	-0.042522226
176	0x3de7e420	0.11322808
177	0x3e240e8e	0.16021177
178	0xbd4c2968	-0.049844176
179	0x3e2b22fa	0.16712561
180	0x3dc683f9	0.096931405
181	0x3e466dc3	0.19377808
182	0xbdf61032	-0.12014808
183	0xbdd40a4e	-0.10353528
184	0xbd8093e1	-0.06278206
185	0x3bc5fab9	0.0060418514
186	0x3e0a0943	0.13480096
187	0xbdf1fdb3	-0.118159674
188	0x3dd14d65	0.1021984
189	0xbd7b5b31	-0.061366264
190	0x3e06b4ce	0.13154909
191	0xbc9738ca	-0.018459696
192	0xbe2d711a	-0.16937676
193	0xbe004f51	-0.12530257
194	0xbe366704	-0.17812735
195	0x3dd7df49	0.10540635
196	0xbe11ac17	-0.14225803
197	0xbc9bceab	-0.019019445
198	0x3d4f1d08	0.050564796
199	0xbdda51f1	-0.1066016
200	0x3d5057b3	0.050864886
201	0xbe5bd186	-0.21466646
202	0xbe145e3a	-0.1448907
203	0xbe433c57	-0.19065987
204	0xbdab25c7	-0.08356815
205	0xbda005de	-0.07813619
206	0x3c7f3723	0.01557711
207	0xbcab0c83	-0.02087999
208	0x3da34475	0.079720415
209	0x3e691076	0.22760186
210	0x3daf9b4a	0.08574541
211	0xbdc0db50	-0.094168305
212	0xbe3df041	-0.18548681
213	0x3d95497e	0.07289408
214	0xbe0850a2	-0.13312009
215	0x3df5f6c2	0.12009956
216	0x3e14cd6a	0.14531484
217	0x3d99be37	0.07506984
218	0x3e4c1210	0.19928765
219	0x3e4938f0	0.19650626
220	0x3d0b7b3a	0.034053065
221	0xbe1b7e08	-0.15184796
222	0x3e463c84	0.19359022
223	0xbdc9c529	-0.098520584
224	0xbd89fb62	-0.067374006
225	0x3e2ad4f8	0.16682804
226	0x3e39bc9c	0.18138355
227	0x3d61119a	0.054948427
228	0x3c257323	0.0100982515
229	0xbe1e6550	-0.15468335
230	0xbd20d94e	-0.039269738
231	0x3e425f02	0.18981555
232	0x3d8a963c	0.06766936
233	0x3c822632	0.015887354
234	0xbcb75eb4	-0.022384025
235	0xbd917cb0	-0.071038604
236	0x3e0ef02b	0.13958804
237	0x3c1d79a8	0.009611525
238	0x3e015585	0.1263028
239	0xbd062418	-0.032749265
240	0x3d9f6e78	0.07784742
241	0x3d9dfe19	0.07714481
242	0x3d54b3fc	0.05192946
243	0x3e03839d	0.12843175
244	0x3e245a80	0.16050148
245	0x3e52f40e	0.20600912
246	0x3e21ca47	0.15799819
247	0xbd84b274	-0.0647935
248	0xbe2b7442	-0.16743568
249	0x3cc1f32e	0.023675527
250	0xbbb4d7a6	-0.0055188714
251	0xbd59ddef	-0.053190168
252	0xbd19339a	-0.037402727
253	0x3c903541	0.017603518
254	0x3e1ebfca	0.15502849
255	0x3d6a8cb4	0.05726309

sage1.lin_l.weight f4 [128, 128]
0	0x3d8eecb7	0.069787435
1	0xbc9c8cb7	-0.019110067
2	0x3ce634e8	0.0281014
3	0x3c532459	0.012887084
4	0xbd5ab4f9	-0.053395245
5	0xbd4933e5	-0.049121756
6	0x3d4e33bb	0.050342303
7	0xbd329daf	-0.04360741
8	0x3d908e18	0.07058352
9	0x3c4a9a8d	0.012365949
10	0x3c3e4236	0.011612466
11	0x3d622fcb	0.05522136
12	0xbd14d76e	-0.036338262
13	0xbc9a351f	-0.018824158
14	0x3cff4282	0.031159643
15	0x3cc2d5f8	0.023783669
16	0x3d4391e8	0.04774657
17	0x3d873708	0.06602293
18	0x3d7ed6b0	0.06221646
19	0x3d1d391b	0.03838454
20	0xbc0b0bc1	-0.008486689
21	0xbda0d6c9	-0.07853467
22	0xbd181904	-0.03713323
23	0xbc6060d5	-0.013694962
24	0x3cac73d6	0.021051329
25	0xbd611fda	-0.054962017
26	0xbce85193	-0.02835921
27	0x3d6deab3	0.058085155
28	0xbd5c78e3	-0.053826224
29	0x3be8c20b	0.00710321
30	0x3ccdfc7a	0.025144804
31	0xb9b1c160	-0.00033904146
32	0x3c65b15b	0.014019336
33	0x3d948ec4	0.07253793
34	0x3d5e77cd	0.05431347
35	0x3d3f0767	0.04663792
36	0xbce45130	-0.027870744
37	0xbd7fe51d	-0.06247436
38	0x3d8b26f6	0.067945406
39	0xbd854485	-0.0650721
40	0xbd47b8a8	-0.048760086
41	0xbd6c825b	-0.057741504
42	0x3b8322ac	0.004001936
43	0x3c80fde9	0.015746074
44	0x3ce62337	0.028092964
45	0x3cd0b430	0.025476545
46	0xbd8f88e9	-0.070085354
47	0x3cf4bc6e	0.029875007
48	0xbd7c3ec3	-0.06158329
49	0x3d32c03f	0.04364037
50	0xbdad1e2d	-0.08453021
51	0x3ca5e395	0.020250121
52	0xbdbb57e6	-0.09147625
53	0x3d7bff8d	0.06152301
54	0x3cdeef19	0.02721362
55	0xbc30a983	-0.010782602
56	0xbc008c7b	-0.007845993
57	0xbc1d5e08	-0.009604938
58	0xbd637a98	-0.055536836
59	0xbd884dd7	-0.06655472
60	0x3c30a4b2	0.010781454
61	0x3d5d571c	0.054038152
62	0x3d0d0889	0.034431968
63	0x3d43200c	0.047637984
64	0x3d97fb66	0.07420997
65	0x3d161184	0.036637798
66	0xbd74d929	-0.059777413
67	0x3c39053d	0.011292753
68	0xbd600f1e	-0.054701917
69	0xbcc82cb9	-0.024435388
70	0xbd5e76b8	-0.054312438
71	0x3d1e5357	0.038653698
72	0xbd318929	-0.043343697
73	0x3d85748e	0.06516372
74	0x3cec099d	0.028813178
75	0x3d11f5b3	0.035634708
76	0x3d443f75	0.04791208
77	0x3ca67a08	0.02032186
78	0xbd1d026a	-0.03833238
79	0x3d27f011	0.04100043
80	0x3d9a1cc4	0.07525018
81	0x3d4e5c77	0.05038115
82	0xbd81dd02	-0.06340982
83	0x3d3aba42	0.045587786
84	0xbd21d56f	-0.039510187
85	0x3d7c2cf5	0.061566312
86	0xbcf7d9f5	-0.030255297
87	0xbcab163d	-0.020884627
88	0x3ce83308	0.028344646
89	0xbd8462aa	-0.06464131
90	0x3c8e5e01	0.017378809
91	0x3d1567f0	0.036476076
92	0xbc176ddb	-0.0092425
93	0xbda4ff70	-0.08056533
94	0xbdc76cc1	-0.0973754
95	0xbd99963f	-0.0749936
96	0xbdaa46a8	-0.08314258
97	0x3d034aa6	0.032053612
98	0xbc9e1c24	-0.019300528
99	0xbcef2219	-0.029191064
100	0x3d671531	0.056416694
101	0x3c9cd7f4	0.019145943
102	0xbd59688e	-0.053078227
103	0x3ce7ac1c	0.02828031
104	0x3d09ccb6	0.033642493
105	0xbd39d874	-0.04537244
106	0x3bdc41db	0.006721718
107	0xbce4e1f3	-0.027939772
108	0xbd9acd78	-0.07558721
109	0xbd8ce331	-0.06879271
110	0xbd209bf2	-0.03921122
111	0x3d3373d7	0.043811645
112	0x3d9d85ef	0.076915614
113	0xbd89c8fc	-0.06727788
114	0x3d3bb91e	0.04583084
115	0xbceb72a1	-0.028741183
116	0xbc9b8b2f	-0.018987266
117	0x3b81e27f	0.003963768
118	0x3c13e9c4	0.009027902
119	0x3bf64656	0.007515709
120	0xbdba5ffe	-0.0910034
121	0x3c5e02be	0.0135504585
122	0xbdbeeae4	-0.093221456
123	0x3da49867	0.08036881
124	0x3dac3c03	0.08409884
125	0xbdade72d	-0.08491359
126	0x3d4cf99f	0.050042745
127	0x3d6b23ac	0.057407066
128	0xbd2e472b	-0.04254834
129	0x3c2de1f1	0.010612951
130	0xbd0364ee	-0.032078676
131	0xbd9c15fd	-0.076213814
132	0xbd55c2c1	-0.052187685
133	0xbcfe258b	-0.031023761
134	0xbd4092e9	-0.047015104
135	0xbc52cf18	-0.012866758
136	0x3da0da53	0.07854142
137	0x3c85f142	0.016350392
138	0xbc916fb2	-0.017753456
139	0xbdab94ae	-0.08377968
140	0x3cb843fd	0.022493357
141	0x3d9fc2d9	0.07800836
142	0xbc0307ab	-0.007997434
143	0x3d9320cd	0.07183991
144	0x3db9730a	0.09055145
145	0x3c9cea4a	0.019154686
146	0xbdb51fe0	-0.0884397
147	0xbd0739ee	-0.03301423
148	0xbced8c6a	-0.028997619
149	0xbc8191af	-0.015816538
150	0xbd51bfe5	-0.051208396
151	0xbcc21911	-0.023693593
152	0xbb3ca8c7	-0.0028787123
153	0xbccfb1cf	-0.02535334
154	0xbdb0c751	-0.086317666
155	0xbd23f16a	-0.040025152
156	0x3d04e216	0.032442175
157	0x3d5d7a73	0.054071855
158	0x3d95787f	0.072983734
159	0x3d95dd10	0.07317555
160	0xbdcce3a5	-0.10004357
161	0xbb144e37	-0.0022629627
162	0xbd095feb	-0.03353874
163	0x3d351d90	0.044217646
164	0x3d932225	0.07184247
165	0x3d34e1fd	0.04416083
166	0x3d41982e	0.04726427
167	0xbd48fc61	-0.049068812
168	0x3d886ead	0.06661735
169	0xbd9cf014	-0.07662979
170	0xbd906e9f	-0.07052349
171	0x3cbbd37b	0.02292799
172	0x3da3589f	0.079758875
173	0x3d2df1cc	0.042466924
174	0xbdce1989	-0.10063464
175	0x3d14fd6a	0.036374487
176	0xbd3ee9bb	-0.04660962
177	0x3b48c192	0.0030632955
178	0xbd483681	-0.048880104
179	0xbd3c2641	-0.04593492
180	0xbc4c1ac5	-0.012457554
181	0x3bf24315	0.0073932507
182	0x3d13788c	0.036003634
183	0xbcfc790c	-0.030819438
184	0xbd5840a4	-0.05279602
185	0x3d7acf1b	0.061232667
186	0xbd2f882e	-0.04285448
187	0xbd573879	-0.05254409
188	0x3ca624e4	0.020281263
189	0x3ccbde14	0.024886169
190	0xba09e220	-0.00052598305
191	0x3c1b88fb	0.009493108
192	0x3d831ab1	0.06401575
193	0x3cbbf78c	0.022945188
194	0xbc227ff8	-0.009918205
195	0x3d85e581	0.06537915
196	0xbc352b88	-0.011057742
197	0xbd20b4a5	-0.039234776
198	0x3c7ed764	0.015554283
199	0xbd54a2a1	-0.051912908
200	0x3cdd0033	0.026977634
201	0x3d56b982	0.052423008
202	0x3d119a25	0.035547394
203	0x3c886754	0.016650833
204	0x3d2879c1	0.04113174
205	0x3d281125	0.041031975
206	0x3d1e8862	0.038704284
207	0xbda603b2	-0.081061736
208	0x3ba04d93	0.00489206
209	0x3d5c6f5b	0.053817134
210	0x3d60764a	0.05480031
211	0x3db0dc4f	0.086357705
212	0xbd953b72	-0.07286729
213	0x3d9f9ad4	0.07793203
214	0x3be84a6b	0.0070889494
215	0xbd358340	-0.044314623
216	0xbdc1dda5	-0.094661035
217	0x3d46eb59	0.04856429
218	0x3d4e3584	0.050344005
219	0x3d8808f4	0.06642333
220	0x3d10555e	0.035237662
221	0xbd95cb6f	-0.073141925
222	0xbdaa0a25	-0.08302716
223	0xbc6f5b0f	-0.014609112
224	0xbd0b4a0c	-0.034006163
225	0xbd33a7c1	-0.043861154
226	0xbdbcde9b	-0.09222146
227	0x3d3c962b	0.04604165
228	0x3d22a3c8	0.039706975
229	0x3cf3f7ad	0.029781187
230	0xbd2dfda5	-0.042478222
231	0xbd5d9213	-0.054094385
232	0x3c94d213	0.018166577
233	0x3d5fedff	0.05467033
234	0x3c9d1d05	0.019178877
235	0x3c9f86fe	0.019473549
236	0xbd2862d4	-0.041109875
237	0xbc055ada	-0.0081393365
238	0xbc7c4140	-0.015396416
239	0x3d8ae71e	0.06782363
240	0x3d9530fb	0.07284733
241	0xbc304141	-0.010757745
242	0xbb52ded1	-0.0032176266
243	0x3d871daa	0.06597455
244	0xbd682b0e	-0.056681685
245	0x3bfab48d	0.007650918
246	0x3af841b5	0.0018940481
247	0xbc9fe4ef	-0.019518344
248	0x3c147858	0.009061895
249	0xbd4dadfc	-0.050214753
250	0x3c195cc0	0.009360492
251	0x3d5b3080	0.05351305
252	0x3d2f9777	0.042869058
253	0x3d9549b3	0.07289448
254	0x3cfa4bf7	0.030553801
255	0x3d868d38	0.06569904

sage1.lin_l.bias f4 [128]
0	0xbd8231c3	-0.063571475
1	0xbde79910	-0.11308491
2	0xbcbb9eeb	-0.022902926
3	0x3c1348e1	0.008989544
4	0xbc576c21	-0.0131483385
5	0xbc226bbb	-0.00991338
6	0xbdd833ce	-0.10556756
7	0xbd164d76	-0.036694966
8	0xbd9792b2	-0.07401027
9	0xbd25c5bd	-0.04047178
10	0xbd882581	-0.06647778
11	0xbb9c7bcf	-0.0047755013
12	0xbca2099b	-0.01977997
13	0xbd92d42c	-0.07169375
14	0x3d38571b	0.045004945
15	0x3cb1df53	0.021712935
16	0x3c806c3b	0.015676608
17	0x3cc8ae68	0.024497226
18	0x3b4fef80	0.0031728446
19	0x3bfcb524	0.0077120233
20	0xbda4db21	-0.08049608
21	0x3d38eec6	0.045149587
22	0x3d75a2d5	0.05996974
23	0xbc9e1ac6	-0.019299876
24	0x3d82f3de	0.0639417
25	0xbce62ec8	-0.028098479
26	0x3cc2df45	0.023788104
27	0xbd1d0c00	-0.038341522
28	0xbd7cf0d7	-0.06175312
29	0xbd0e5565	-0.034749407
30	0x3d5a5087	0.053299453
31	0xbcdf0aa7	-0.02722676
32	0xbd795e3f	-0.060880896
33	0x3c091f90	0.0083693415
34	0xbd4bb4d6	-0.049733005
35	0xbd7844e6	-0.06061258
36	0xbd84b836	-0.06480448
37	0xbd871696	-0.06596105
38	0xbdae2def	-0.08504855
39	0x3c702df2	0.014659392
40	0xbd5251ab	-0.051347416
41	0xbb8519cf	-0.0040619145
42	0x3da91c71	0.08257378
43	0xbb6f3182	-0.0036498015
44	0x3dbd13f9	0.09232325
45	0x3d256344	0.04037787
46	0xbc3d2cbe	-0.011546312
47	0x3d83a77b	0.06428429
48	0x3db81ba3	0.08989646
49	0xbd62e75a	-0.055396415
50	0xbd66f0a9	-0.056381855
51	0x3d48ddb9	0.049039576
52	0x3d3ef40d	0.046619464
53	0x3bbb18b4	0.005709732
54	0x3b64761c	0.0034860438
55	0xbd4971e8	-0.049180895
56	0x3c80b4c6	0.0157112
57	0xbc6a98ef	-0.014318689
58	0xbcacb229	-0.021081047
59	0x3d805192	0.06265558
60	0x3d292837	0.041298117
61	0xbc007728	-0.007840909
62	0xbc6161bc	-0.013756212
63	0xbd8a36f5	-0.067487635
64	0x3c970c77	0.01843856
65	0x3da540f5	0.0806903
66	0xbd74804a	-0.05969266
67	0xbd73ae9c	-0.059492692
68	0x3d1c62c4	0.038180128
69	0xbdb97c13	-0.090568684
70	0x3d82b10d	0.06381426
71	0x3c8fb790	0.017543584
72	0x3d5055c1	0.05086303
73	0xbb36a6d8	-0.0027870443
74	0x3c95653f	0.018236754
75	0xbd933ee5	-0.071897306
76	0xbcd2104b	-0.025642535
77	0x3d999c76	0.07500546
78	0xbd06a612	-0.03287322
79	0x3d664288	0.056215793
80	0xbc2828e5	-0.010263656
81	0xbd507007	-0.050888088
82	0xbd31a38c	-0.04336886
83	0xbd7d59e4	-0.061853305
84	0x3ba25865	0.004954385
85	0xbd3a1f9b	-0.045440298
86	0x3c5c0179	0.0134280855
87	0xbd2f7943	-0.042840254
88	0x3d51370d	0.05107789
89	0x3d3079d5	0.043084938
90	0xbd520704	-0.051276222
91	0xbd835d17	-0.0641424
92	0x3d2ae8a5	0.041725773
93	0xbcf6bb10	-0.030118495
94	0xbdbb75be	-0.09153317
95	0xbd084cf3	-0.03327651
96	0xbdba4e59	-0.09096975
97	0xbd8da6ae	-0.06916557
98	0xbcf0b4b4	-0.029383041
99	0x3d657aa1	0.05602515
100	0x3c1042bf	0.008804976
101	0x3bd34571	0.006447487
102	0x3b571768	0.0032820348
103	0xbd986e77	-0.074429445
104	0x3d07eb0a	0.033183135
105	0x3d37afc8	0.044845372
106	0x3cd944d3	0.026522076
107	0x3d60013c	0.054688677
108	0x3dadf930	0.08494794
109	0xbc51c495	-0.012803216
110	0xbd263ad9	-0.040583465
111	0x3d6e10e8	0.05812159
112	0xbbb575cf	-0.0055377255
113	0xbd07a0e3	-0.033112418
114	0xbc8bca8d	-0.017064357
115	0x3c991db5	0.018690923
116	0xbd69df35	-0.057097632
117	0x3d06d469	0.032917414
118	0xbd9584f3	-0.07300749
119	0xbbcae45d	-0.006191774
120	0xbd979ae5	-0.07402591
121	0x3d2014e2	0.039082415
122	0xbd68a0d1	-0.05679399
123	0x3c6e51ba	0.014545852
124	0x3d6c721c	0.05772601
125	0x3c457891	0.012052671
126	0xbc24b7c3	-0.010053578
127	0x3d654b8f	0.05598026

sage1.lin_r.weight f4 [128, 128]
0	0x3c4662df	0.012108534
1	0x3d8b61de	0.06805776
2	0x3c5b4948	0.013384171
3	0x3d300be1	0.04298008
4	0x3d6e0a4b	0.058115285
5	0xbbc681c1	-0.0060579483
6	0x3da319bc	0.07963893
7	0x3ca8b021	0.020591797
8	0x3d7f3ea0	0.062315583
9	0xbda63e7e	-0.08117388
10	0xbda65f24	-0.081236154
11	0x3d0a7f19	0.033812616
12	0x3c9a753a	0.018854726
13	0xbc8dbcf2	-0.01730201
14	0xbc31f49e	-0.010861544
15	0x3cc392ab	0.023873648
16	0x3db36cc5	0.087609805
17	0x3ce43dec	0.027861558
18	0x3d6464bc	0.05576013
19	0x3d7837e6	0.060600184
20	0x3c929a31	0.01789579
21	0x3c71311c	0.014721181
22	0xbcde3bcd	-0.027128125
23	0xbd659f9b	-0.056060415
24	0x3d8217bf	0.063521855
25	0xba3639c1	-0.0006951355
26	0xbcfbdc02	-0.030744556
27	0xbc92d8c3	-0.017925626
28	0xbd3fb6d4	-0.046805218
29	0xba51d06f	-0.00080037763
30	0x3d815a70	0.06316078
31	0x3d996720	0.07490373
32	0xbd560a73	-0.05225606
33	0x3c87ef39	0.016593562
34	0xbd18f30c	-0.037341163
35	0xbd9d0536	-0.076670095
36	0x3d6d7e3d	0.05798172
37	0x3d9d0bfc	0.076683015
38	0x3da48aa3	0.08034255
39	0x3d97aa66	0.07405548
40	0xbd181d3a	-0.037137248
41	0x3c1ded98	0.009639166
42	0x3cd90c3b	0.02649509
43	0xbd8f87f1	-0.07008351
44	0x3dadb27f	0.08481311
45	0xbd866435	-0.06562082
46	0x3c752a96	0.014963767
47	0xbca514cd	-0.02015152
48	0x3cd1ee97	0.025626464
49	0x3d9d5741	0.07682658
50	0xbbf201a6	-0.0073854504
51	0xbd328ea6	-0.04359307
52	0x3d9fead9	0.078084655
53	0xbda896b9	-0.08231873
54	0xbbf0136a	-0.007326533
55	0xbd989a5f	-0.07451319
56	0x3ad5bfc6	0.0016307763
57	0x3d900eb9	0.07034058
58	0x3d22b8ef	0.039727148
59	0xbd19177b	-0.03737591
60	0xbd041bb5	-0.032252986
61	0x3c91e04f	0.017807154
62	0xbd545fb0	-0.051849067
63	0xbda642fa	-0.081182435
64	0x3d9e76f8	0.07737535
65	0x3cf315d6	0.029673498
66	0xbd86d546	-0.065836474
67	0xbda85e1a	-0.082210734
68	0x3d04ab5a	0.032389976
69	0xbcd79c3e	-0.02631962
70	0xbd157d9d	-0.036496747
71	0x3dc1d796	0.09464948
72	0x3d1ade1c	0.037809476
73	0x3da4ea3f	0.080524914
74	0x3a80f5b8	0.0009838855
75	0xbb4471ab	-0.0029974978
76	0xbd52de8e	-0.051481776
77	0x3d304866	0.043037795
78	0xbcc7793b	-0.0243498
79	0xbb4591b5	-0.0030146663
80	0x3c762963	0.015024516
81	0x3d8fe236	0.07025568
82	0x3cfaa94d	0.030598307
83	0xbd9dcdb1	-0.07705248
84	0x3b7c7afc	0.0038525453
85	0x3d81ff70	0.06347549
86	0x3ae9c11b	0.0017834039
87	0x3daea082	0.08526708
88	0xbcdb31f3	-0.026757216
89	0xbd48d329	-0.049029503
90	0x3dadba63	0.08482816
91	0xbcf5d2f2	-0.030007813
92	0x3d93140f	0.0718156
93	0x3d97aaf8	0.074056566
94	0xbd825dbe	-0.06365536
95	0xbd9fd4b7	-0.07804244
96	0xbbe78a04	-0.0070660133
97	0xbd3e6344	-0.046481386
98	0x3d9aa51b	0.075510226
99	0x3d4df6eb	0.050284307
100	0x3daef8f2	0.08543576
101	0xbd3b809b	-0.045776945
102	0x3ceb5072	0.028724883
103	0x3c546ad0	0.012964919
104	0xbd72ccce	-0.05927735
105	0xbd1478e8	-0.036248118
106	0x3ce3e515	0.027819196
107	0x3b903b2a	0.004401584
108	0x3db01a2f	0.08598744
109	0xbbaee55b	-0.0053374
110	0x3d30ce4c	0.04316549
111	0x3d04cca0	0.032421708
112	0xbd8fa9dc	-0.0701482
113	0xbd87864a	-0.066174105
114	0xbd5c55a0	-0.053792596
115	0xbcd1e000	-0.025619507
116	0x3d0f60d8	0.035004467
117	0xbd21bb52	-0.039485283
118	0xbdae08b9	-0.084977575
119	0xbcca72a7	-0.024712874
120	0xbd93421a	-0.07190342
121	0xbb647b3f	-0.00348635
122	0xbda51480	-0.08060551
123	0xbbaa9133	-0.0052052974
124	0xbd7949bd	-0.060861338
125	0xbd99ca9f	-0.0750935
126	0x3d90fbcc	0.070792764
127	0x3dc576bb	0.09641787
128	0xbd4afad2	-0.049555607
129	0x3cd1329a	0.025536824
130	0xbd815fa2	-0.06317069
131	0xbd86ca35	-0.06581537
132	0xbd94cfb6	-0.0726618
133	0xbd4f3b91	-0.050593916
134	0x3dc1e51f	0.094675295
135	0x3cd6b7d8	0.02621071
136	0x3d41a8f2	0.04728026
137	0xbd3d1338	-0.046160907
138	0x3d313e17	0.043272104
139	0x3cf590a1	0.029976191
140	0x3ca85dbf	0.020552514
141	0xbb8dce6b	-0.0043275855
142	0xbd3df3d2	-0.046375103
143	0x3d2b1c47	0.041775014
144	0x3d9c37e0	0.07627845
145	0xbbaa962b	-0.0052058897
146	0x3d914c44	0.07094625
147	0x3c22a286	0.009926444
148	0x3d184037	0.037170615
149	0x3d885ebe	0.06658696
150	0xbc36abbc	-0.011149343
151	0x3c9ccb46	0.019139897
152	0x3ab9e016	0.0014181163
153	0xbd8d8b37	-0.06911319
154	0x3c8391db	0.01606076
155	0x3d106817	0.035255518
156	0x3c91335c	0.017724685
157	0x3bf6bf84	0.0075301547
158	0xbd004dbe	-0.03132414
159	0x3d95d5e9	0.07316191
160	0xbd847a22	-0.064686075
161	0x3bf6d448	0.00753263
162	0xbb31a5ea	-0.002710695
163	0x3cfb3b96	0.030668061
164	0xbc93106b	-0.017952165
165	0x3cd72f83	0.026267773
166	0xbd7cc427	-0.061710503
167	0x3d33712d	0.043809105
168	0xbcd66df8	-0.026175484
169	0x3d4d581c	0.050132856
170	0x3daf019c	0.08545229
171	0x3d92109a	0.07132073
172	0xbd224200	-0.039613724
173	0x3d5d3b7a	0.0540118
174	0xbd040d26	-0.0322391
175	0x3cb6c0e5	0.022308776
176	0x3cba0826	0.022708964
177	0xbd86c001	-0.065795906
178	0xbdcc9e88	-0.09991175
179	0x3c82dea1	0.015975298
180	0x3ca9ebde	0.020742353
181	0xbd37f0d2	-0.0449074
182	0x3cdac547	0.026705397
183	0x3d8605e9	0.06544096
184	0xbc54adc1	-0.012980879
185	0xbd8f002f	-0.06982457
186	0x3cfd87af	0.030948488
187	0xbd18fa60	-0.03734815
188	0x3bf784fa	0.007553694
189	0xbcc9562f	-0.024577228
190	0x3d618387	0.055057075
191	0x3d06ce80	0.032911777
192	0xbd56050c	-0.052250907
193	0xbd8af0ed	-0.06784234
194	0xbd60aaf5	-0.054850537
195	0xbda0aa7d	-0.07845018
196	0x3c45bdd8	0.012069188
197	0xbce9543e	-0.028482553
198	0xbcdac724	-0.026706286
199	0xbd887276	-0.06662457
200	0x3da43e39	0.080196805
201	0xbd24b9bc	-0.040216193
202	0xbd001a4e	-0.031275086
203	0x3d91aa9c	0.07112619
204	0xbc3e2371	-0.01160513
205	0xbc12c0c7	-0.0089570945
206	0x3d3a44a2	0.04547561
207	0xbcce7f43	-0.025207167
208	0x3d912882	0.070878044
209	0x3b4dfdff	0.003143191
210	0x3d435346	0.047686838
211	0x3cc7aecd	0.024375344
212	0xbd09bb2f	-0.033625778
213	0xbd02afa6	-0.031905793
214	0x3c677fdf	0.014129608
215	0xbc29d4fc	-0.010365721
216	0x3d8165e9	0.06318266
217	0x3d8de1b6	0.069278166
218	0xbd22aea9	-0.03971735
219	0xbd287bd5	-0.04113372
220	0xbbbcca13	-0.005761394
221	0x3d8dc586	0.0692244
222	0x3c2a99e1	0.010412664
223	0x3da57511	0.08078969
224	0x3d0e320c	0.034715697
225	0x3b9cf6b6	0.0047901524
226	0xbd8ca03f	-0.06866502
227	0x3bd87e94	0.006606886
228	0xbd41594c	-0.0472043
229	0xbd28ac53	-0.041179966
230	0x3d4e80f1	0.050415937
231	0xbd63d3f8	-0.05562207
232	0xbd0a15e1	-0.03371227
233	0x3da76947	0.08174377
234	0xbd635789	-0.055503402
235	0xbd70a682	-0.058752544
236	0xbc5fbddc	-0.013656106
237	0xbca7fb9c	-0.020505719
238	0xbd92133c	-0.07132575
239	0xbd95c8fd	-0.07313726
240	0xbd8ccc6d	-0.068749286
241	0xbb9d21f1	-0.004795306
242	0x3b6e7ae8	0.0036389176
243	0xbd945ae7	-0.07243901
244	0xbd840f29	-0.06448204
245	0xb858b01e	-5.1662435e-05
246	0xbdd82369	-0.10553629
247	0xbd3537b5	-0.04424258
248	0xbcf1c294	-0.029511727
249	0xbd98b8fc	-0.07457158
250	0xbb19b19e	-0.0023451815
251	0xbc893e7e	-0.016753431
252	0x3cba3298	0.022729203
253	0x3c87dae6	0.016583871
254	0x3d5548b6	0.052071296
255	0xbca6a52a	-0.020342428

sagpool.gnn.lin_rel.weight f4 [1, 128]
0	0xbdaa9a3e	-0.083302006
1	0x3d3033a5	0.043018002
2	0x3d48282a	0.04886643
3	0xbcd27f95	-0.025695601
4	0x3d0bf145	0.03416564
5	0x3d6ac9c7	0.057321336
6	0x3d82e683	0.06391623
7	0x3d9ffd5a	0.07811995
8	0xbcac3b0c	-0.02102425
9	0xbd0ddfc2	-0.03463722
10	0x3d747ce0	0.059689403
11	0x3d679acf	0.05654412
12	0xbda96588	-0.08271319
13	0xbda60ef6	-0.08108322
14	0xbda15ca8	-0.07879001
15	0x3d81c971	0.0633725
16	0x3c850f3b	0.016242614
17	0xbd30eeb9	-0.043196414
18	0x3c818f8f	0.015815524
19	0x3b595c4b	0.0033166583
20	0x3c63e318	0.013909124
21	0xbd0ae328	-0.03390804
22	0x3d117621	0.035513047
23	0xbd9f7490	-0.077859044
24	0x3d0dfb8b	0.03466372
25	0x3d619f9d	0.05508386
26	0x3d32d903	0.04366399
27	0xbd650596	-0.05591353
28	0xbd0a459c	-0.03375779
29	0x3d8a0f2f	0.06741177
30	0xbd5ec610	-0.054388106
31	0x3d9aa5fb	0.075511895
32	0xbd8eb71f	-0.06968521
33	0xbd587014	-0.05284126
34	0xbc3a4f7b	-0.011371489
35	0x3d08e6ac	0.03342311
36	0xbce4a230	-0.027909368
37	0xbcb065c0	-0.021532893
38	0x3d44c3ef	0.04803842
39	0x3d41dd5f	0.047330257
40	0x3b29e7ac	0.002592544
41	0x3b9cdfd4	0.0047874246
42	0x3dac935a	0.084265426
43	0x3d07b1d3	0.03312857
44	0xbd077fb2	-0.033080764
45	0xbda2b134	-0.07943955
46	0xbd3a270c	-0.045447394
47	0x3cc0eaea	0.023549516
48	0xbdb523d2	-0.08844723
49	0x3c032601	0.008004666
50	0xbcc832a3	-0.024438208
51	0xbd67609c	-0.05648862
52	0x3d3bcacf	0.04584771
53	0x3d10c7b4	0.0353467
54	0x3d8329cd	0.06404457
55	0xbdb1ccdd	-0.08681653
56	0xbd828323	-0.063726686
57	0x3d78a97d	0.06070851
58	0xbd88027e	-0.066411
59	0x3d9fde26	0.07806043
60	0x3d9a57a2	0.07536246
61	0xbcbcfe66	-0.023070525
62	0x3d832138	0.0640282
63	0x3ca1b01b	0.019737294
64	0xbc88cf2b	-0.016700348
65	0x3c18322b	0.009289305
66	0xbceb044c	-0.028688572
67	0xbc89a9f0	-0.016804665
68	0x3d836a59	0.064167686
69	0xbdbcb2ef	-0.092138164
70	0xbd3067fc	-0.043067917
71	0xbc892c5f	-0.01674479
72	0xbcf53a9c	-0.029935174
73	0xbd8ef8b7	-0.06981032
74	0x3acce1b4	0.001563123
75	0x3ca9ff25	0.020751545
76	0xbd966471	-0.073433764
77	0x3c9f0b76	0.019414645
78	0x3cca6c74	0.024709918
79	0xbccb28b3	-0.02479968
80	0x3d84e15c	0.064882964
81	0x3c3b7343	0.011441055
82	0xbcc4509d	-0.02396422
83	0x3d0b70a9	0.034042988
84	0x3d56c570	0.052434385
85	0xbd8f08cc	-0.069841
86	0xbb8bfb28	-0.0042718835
87	0x3c1b74aa	0.009488264
88	0xbca0ec45	-0.019643912
89	0x3d1b8539	0.037968848
90	0x3b5fd8f0	0.0034156404
91	0x3d8554cd	0.06510315
92	0xbceeea76	-0.029164534
93	0xbd5a64a3	-0.05331863
94	0x3d9b3ab6	0.075795576
95	0x3cb48644	0.02203668
96	0xbaf712a5	-0.0018850161
97	0x3da9276f	0.082594745
98	0xbd87d221	-0.06631876
99	0xbcf8498f	-0.030308513
100	0x3d83455f	0.06409716
101	0x3da406c4	0.08009103
102	0x3c610e28	0.013736285
103	0x3da5f5cc	0.08103523
104	0xbd1ba58e	-0.037999682
105	0x3d54e546	0.051976465
106	0xbdb42d1c	-0.087976664
107	0x3cbbbbdd	0.022916729
108	0x3d711a3d	0.058862913
109	0x3c1ed3f7	0.009694091
110	0x3d45a800	0.04825592
111	0x3b65c20c	0.0035058288
112	0x3d15e749	0.036597524
113	0xbdc18944	-0.094500095
114	0xbc235beb	-0.009970645
115	0x3cda72fd	0.026666159
116	0x3d056920	0.03257096
117	0xbca6b53d	-0.020350093
118	0xbccd0d6f	-0.02503082
119	0xbdb3e9e8	-0.087848485
120	0x3d38d982	0.045129307
121	0x3d08019c	0.03320466
122	0xbd120f2b	-0.035658997
123	0x3d650f67	0.055922892
124	0xbc43a041	-0.011940063
125	0x3c9c6ba3	0.019094294
126	0x3d296ba6	0.041362427
127	0x3d158cbd	0.03651117

sagpool.gnn.lin_root.weight f4 [1, 128]
0	0xbd988cb8	-0.07448715
1	0x3d9d5f69	0.07684214
2	0xbc831caa	-0.016004879
3	0x3db0c481	0.0863123
4	0x3c90148f	0.017587928
5	0x3b7ff1ae	0.0039053964
6	0xbc8d3b62	-0.01724023
7	0xbd99d5a2	-0.0751145
8	0x3cfe9c73	0.03108046
9	0x3d61b62a	0.055105366
10	0x3d01dff3	0.031707715
11	0xbda7f6d1	-0.08201373
12	0x3b985b4b	0.004649555
13	0xbcaef886	-0.02135874
14	0x3d848e52	0.06472458
15	0x3bcc2a37	0.0062306183
16	0xbcdbff4d	-0.026855135
17	0xbd91af26	-0.07113485
18	0x3cf5ce3f	0.030005572
19	0xbd85c863	-0.06532361
20	0xbd809bee	-0.06279741
21	0x3d1d701b	0.03843699
22	0xbd5beb2f	-0.053691085
23	0xbd2366b7	-0.03989288
24	0x3d702ae0	0.05863464
25	0x3da33f16	0.07971017
26	0x3d87a32c	0.066229194
27	0xbcbb0e28	-0.022833899
28	0x3af980c2	0.0019035565
29	0x3d93e92f	0.072222106
30	0xbcc6687d	-0.024219746
31	0x3d9d664d	0.07685528
32	0x3b68c460	0.003551744
33	0x3d95bc9b	0.07311364
34	0xbd821b6e	-0.06352888
35	0x3c465d32	0.01210718
36	0xbcd61848	-0.026134625
37	0xbd955d8a	-0.07293232
38	0xbd384dc8	-0.044996053
39	0x39772f2a	0.00023573326
40	0xbca3497a	-0.019932497
41	0xbd4ad2fa	-0.04951761
42	0x3daf89a7	0.08571177
43	0xbd511fbc	-0.051055655
44	0xbad3a597	-0.0016147372
45	0x3d849c39	0.064751096
46	0x3d3e81c0	0.046510458
47	0xbd9d6ba3	-0.07686546
48	0x3d6c99e4	0.05776395
49	0x3cfeb4cd	0.031092072
50	0xbdb281c7	-0.08716159
51	0xbd2498f4	-0.04018493
52	0x3c342814	0.0109958835
53	0x3ce42f61	0.027854623
54	0xbda5fb3b	-0.08104559
55	0xbd9964e1	-0.07489944
56	0x3c85276c	0.01625415
57	0xbc440592	-0.011964219
58	0x3d180bd5	0.03712066
59	0x3cd55cd9	0.02604525
60	0xbc38803f	-0.011261045
61	0xbd0961de	-0.0335406
62	0x3d88ef09	0.06686217
63	0x3d847687	0.0646792
64	0xbd912129	-0.07086403
65	0xba87260d	-0.0010311023
66	0x3d4e22d4	0.050326183
67	0xbd96f574	-0.07371035
68	0x3d3dbc25	0.046322007
69	0xbc7385e4	-0.014863465
70	0xbd9deee5	-0.07711581
71	0x3c38d442	0.011281075
72	0x3d770c29	0.06031433
73	0x3cf93095	0.030418674
74	0xbdabae46	-0.083828494
75	0x3d3287b5	0.04358645
76	0xbd9ba829	-0.076004334
77	0xbd87f08b	-0.06637677
78	0xbd18eaaa	-0.037333168
79	0x3bbe0429	0.005798836
80	0x3ceba69a	0.028765965
81	0x3d1a9fa0	0.037749887
82	0xbda3b4af	-0.07993447
83	0x3d441c89	0.047878776
84	0x3d08641b	0.033298593
85	0xbd9c9630	-0.076458335
86	0xbd8521e5	-0.065006055
87	0x3d7ae02f	0.061248954
88	0x3d0aab37	0.03385469
89	0xbd9ca33a	-0.076483205
90	0xbd725c25	-0.059169907
91	0x3ccd1b4d	0.025037432
92	0x3b1ca897	0.0023904198
93	0xbc8be9d1	-0.017079266
94	0xbc5a39c1	-0.013319434
95	0xbd1b01c4	-0.03784348
96	0x3d4fbcfb	0.050717335
97	0xbd0606d2	-0.032721348
98	0xbd70da52	-0.058801956
99	0x3d4ab8eb	0.049492758
100	0x3c22fba1	0.009947688
101	0xbd95b6cb	-0.073102556
102	0xbdaf68df	-0.085649244
103	0x3ca10148	0.019653931
104	0xbda68787	-0.081313185
105	0xbd23a8ef	-0.03995603
106	0x3d79f79e	0.06102716
107	0x3dc32a01	0.09529496
108	0xbd36f9fe	-0.044672005
109	0xbc72b66a	-0.014813999
110	0x3cf2f337	0.02965699
111	0x3d48b005	0.04899599
112	0x3cc990c7	0.024605168
113	0x3daf1a4e	0.08549939
114	0xbd3bc155	-0.045838673
115	0x3ad7812c	0.0016441694
116	0x3d9d8e5e	0.0769317
117	0xbd2efac5	-0.04271962
118	0xbdd0a74c	-0.10188159
119	0x3cd951a4	0.026528187
120	0xbd93a12b	-0.07208475
121	0xbd72a3c1	-0.0592382
122	0x3d815fd4	0.06317106
123	0x3d7324f7	0.059361424
124	0x3d57d77f	0.052695747
125	0x3d5933ff	0.053028103
126	0xbda1a799	-0.07893295
127	0x3cda4be6	0.02664752

lin.weight f4 [64, 128]
0	0x3d7cbcf8	0.061703652
1	0xbdd71e8a	-0.10503872
2	0xbd60033f	-0.054690596
3	0xbd226997	-0.03965148
4	0xbd8b2bd5	-0.0679547
5	0xbd5e847c	-0.054325566
6	0xbd5b8674	-0.05359502
7	0x3a80611a	0.0009794564
8	0x3d1a6924	0.037697926
9	0xbd974a0e	-0.07387172
10	0x3d24edd3	0.04026587
11	0x3d9a91fa	0.07547374
12	0xbc6011ba	-0.013676101
13	0xbcad7940	-0.02117598
14	0xbd6f52c5	-0.058428545
15	0x3db7be1d	0.08971808
16	0x3cc99fe4	0.024612375
17	0xbca4e5a7	-0.020129038
18	0x3d3872d9	0.045031402
19	0xbda898cc	-0.08232269
20	0xbd3c2032	-0.04592914
21	0x3d9549b0	0.072894454
22	0xbd48141c	-0.048847303
23	0x3dc9db89	0.09856326
24	0x3c88949e	0.016672429
25	0xbddb7a26	-0.10716657
26	0x3a6133a8	0.0008590766
27	0xbcb8cf4f	-0.02255979
28	0x3d2d80eb	0.042359274
29	0xbce3ac95	-0.027792254
30	0xbb812807	-0.003941539
31	0x3d4b83f7	0.0496864
32	0x3dd4834f	0.103766076
33	0x3d5bff57	0.053710308
34	0xbcc8d2bf	-0.024514554
35	0xbd270801	-0.040779117
36	0xbd5f5416	-0.05452355
37	0xbd22d2a3	-0.03975166
38	0xbc18b840	-0.009321272
39	0xbd1e745c	-0.038685188
40	0x3c9c2783	0.01906181
41	0x3d405ada	0.046961643
42	0x3c8fc44d	0.017549658
43	0xbccc9b39	-0.02497636
44	0x3d2d7de3	0.042356383
45	0xbca6d5b1	-0.020365568
46	0xbca68867	-0.020328714
47	0x3cd2d29d	0.025735194
48	0xbd33dc82	-0.043911465
49	0xbca46ab4	-0.020070411
50	0x3d1427f9	0.036170933
51	0xbd1a3703	-0.03765012
52	0xbd3993d6	-0.045307003
53	0xbdaa5029	-0.083160706
54	0x3dc9a08c	0.09845075
55	0xbd2884d8	-0.041142315
56	0xbcc1b328	-0.023644999
57	0xbd102469	-0.035190973
58	0xbdc33968	-0.09532434
59	0x3d02610c	0.031830832
60	0x3d9531c0	0.0728488
61	0x3b953959	0.0045539555
62	0xbc1f677d	-0.009729263
63	0xbd935333	-0.07193603
64	0xbd7a49b7	-0.061105456
65	0x3bfbefce	0.007688499
66	0xbc62da00	-0.013845921
67	0xbd0b3c85	-0.033993263
68	0xbd743e18	-0.05962953
69	0x3c982abf	0.01857507
70	0x3da957ba	0.08268686
71	0x3d8f37c3	0.069930576
72	0x3d0c47b9	0.034248088
73	0xbbbbabcc	-0.005727267
74	0xbdad0b71	-0.08449448
75	0xbd392653	-0.045202564
76	0x3d5f1921	0.054467324
77	0x3d131cc2	0.035916097
78	0xbb6f100b	-0.0036478068
79	0xbd0383e9	-0.03210822
80	0x3c9dd124	0.019264765
81	0xbd93733a	-0.07199712
82	0xbd8a10a1	-0.06741453
83	0xbd6ec32e	-0.058291607
84	0xbd6510fc	-0.0559244
85	0x3c9b95a5	0.018992255
86	0xbd5830f1	-0.05278105
87	0xbd34f69c	-0.044180498
88	0x3c94d710	0.018168956
89	0xbdcb410d	-0.09924517
90	0x3d9afe20	0.07568002
91	0xbce00f03	-0.027350908
92	0x3ac74df5	0.0015205728
93	0xbd0d7beb	-0.034542006
94	0xbd9d5878	-0.0768289
95	0xbd5936ba	-0.053030707
96	0x3db5cb24	0.088766366
97	0x3cf8e234	0.0303813
98	0x3cb3fe41	0.021971824
99	0xbce7399f	-0.028225718
100	0x3d8b9a95	0.068165936
101	0x3d487d43	0.048947584
102	0x3c28557e	0.010274289
103	0xbd954c67	-0.07289963
104	0xbd3faa4e	-0.046793275
105	0xbd07b00b	-0.033126872
106	0xbd0a5949	-0.033776555
107	0x3d6f2e66	0.05839386
108	0xbd0d3bbd	-0.0344808
109	0xbd116725	-0.035498757
110	0x3ddc6c79	0.10762877
111	0x3dd0f463	0.10202863
112	0x3d563ec9	0.05230597
113	0x3d095521	0.03352845
114	0xbd39a9b6	-0.045327865
115	0x3d18a52f	0.037266906
116	0xbcc07f10	-0.023498088
117	0xbc39ee81	-0.011348368
118	0xbd8baa65	-0.068196096
119	0xbd2583ae	-0.040408783
120	0x3d85e90c	0.06538591
121	0xbd80c1b3	-0.06286945
122	0x3d384a20	0.044992566
123	0x3cdaa77f	0.026691196
124	0x3d2ccc42	0.042186983
125	0xbd6ff638	-0.058584422
126	0x3cd9cd47	0.026587142
127	0xbc14ea84	-0.009089116
128	0x3cee0cf4	0.02905891
129	0x3d3b8f3a	0.04579089
130	0x3db5a52d	0.088693954
131	0xbd80069b	-0.0625126
132	0xbd836544	-0.06415799
133	0x3da28016	0.07934587
134	0x3d574cb6	0.05256339
135	0x3d53fb31	0.051753227
136	0x3b7dc965	0.0038724777
137	0x3d0eec61	0.034893397
138	0xbd1e6b3c	-0.038676485
139	0xbda82b54	-0.08211389
140	0x3c50dc5a	0.012747848
141	0x3cc2feb2	0.023803089
142	0xbd2a80c5	-0.04162671
143	0x3cfac0d0	0.030609518
144	0x3d85d20b	0.06534203
145	0xbcfcfd97	-0.03088264
146	0xbd31b6c2	-0.043387182
147	0x3d63a47d	0.05557679
148	0x3cd7c04c	0.026336811
149	0x3cfa3b4a	0.03054585
150	0x3dcd2fb9	0.10018868
151	0xbb0534aa	-0.002032558
152	0x3d540968	0.051766783
153	0x3d8afef0	0.06786907
154	0x3ce4bbe0	0.027921617
155	0xbd0cc273	-0.03436513
156	0x3d7bc050	0.0614627
157	0xbd4b2c45	-0.049602766
158	0xbd943480	-0.07236576
159	0xbc2b2e8e	-0.010448111
160	0xbcdddff9	-0.027084338
161	0xbd21c438	-0.03949377
162	0xbd37298a	-0.04471735
163	0x3da80bf1	0.08205403
164	0xbd6e8e59	-0.058241222
165	0x3c917102	0.017754082
166	0x3c297262	0.010342212
167	0x3c891fd1	0.016738804
168	0x3c549cb0	0.01297681
169	0x3d3c8eda	0.04603467
170	0x3cb0a8ba	0.02156483
171	0xbbf0cc77	-0.007348593
172	0x3d6343cb	0.055484574
173	0x3c4a596c	0.012350421
174	0x3c80bf65	0.015716264
175	0x3c78b22f	0.015179201
176	0xbd9f3d55	-0.0777537
177	0xbda8f2d7	-0.08249443
178	0xbd1ed984	-0.038781658
179	0x3d0b59ad	0.03402107
180	0xbbf30ef1	-0.0074175526
181	0x3cf87850	0.030330807
182	0xbd17ab97	-0.037028875
183	0xbc01a042	-0.007911744
184	0xbd817b7b	-0.0632238
185	0x3d1074a8	0.035267502
186	0xbc32527b	-0.010883923
187	0x3d97cdbd	0.07412288
188	0xbcb89c35	-0.022535423
189	0xbda0038c	-0.078131765
190	0x3a80ec82	0.000983611
191	0x3d5ee4c7	0.054417398
192	0x3d13f3b8	0.0361211
193	0x3d1746dd	0.036932815
194	0x3da6788b	0.081284605
195	0x3cd93dee	0.026518788
196	0x3dbbc6ed	0.091688015
197	0xbd5b9918	-0.0536128
198	0x3d722ec7	0.05912664
199	0xbd7d5742	-0.061850794
200	0xbce99418	-0.028513
201	0xbd72764f	-0.05919486
202	0x3d7a576f	0.06111854
203	0xbd9ae4ac	-0.07563147
204	0xbcf56c28	-0.0299588
205	0xbd03e081	-0.032196525
206	0x3d248c76	0.040173016
207	0xbc56a370	-0.01310049
208	0xbaafc7cc	-0.0013410985
209	0x3d447d07	0.047970798
210	0xbc92a3c5	-0.017900357
211	0xbd23ffa1	-0.04003871
212	0xbca98f02	-0.020698074
213	0xbd3f0471	-0.046635095
214	0x3cd21630	0.025645345
215	0xbd4c9367	-0.04994526
216	0x3cae63cf	0.021287827
217	0x3db6e4d4	0.08930364
218	0xb996004a	-0.00028610445
219	0xbccdac23	-0.025106495
220	0x3ccbb7ff	0.02486801
221	0xbc3d3e00	-0.0115504265
222	0xbd87fb80	-0.06639767
223	0xbd6fa217	-0.05850419
224	0xbd8d8abf	-0.06911229
225	0x3b046593	0.0020202145
226	0xbd2a6d99	-0.041608427
227	0x3c10c481	0.008835913
228	0xbd8c1ca6	-0.06841402
229	0xbcedc801	-0.029026033
230	0xbdb11831	-0.08647192
231	0x3d3a7414	0.045520857
232	0xbd8fb83f	-0.07017564
233	0x3db38947	0.08766418
234	0x3bd50923	0.0065013333
235	0xbd14d3b1	-0.036334697
236	0xbcb3747c	-0.02190613
237	0x3dc2b570	0.09507263
238	0xbdca8f8b	-0.0989066
239	0xbd48dded	-0.04903977
240	0x3dae3582	0.085062996
241	0xbb92a431	-0.0044751395
242	0x3b63ecce	0.0034778598
243	0x3ce16150	0.027512223
244	0x3d58280f	0.052772578
245	0xbcf74869	-0.030185895
246	0x3dba78d4	0.091050774
247	0x3d2ad24b	0.041704457
248	0xbb590bbe	-0.003311857
249	0x3b803684	0.003912749
250	0x3c307678	0.010770433
251	0x3b50b583	0.003184647
252	0xbd4ced36	-0.05003091
253	0xbc614ceb	-0.013751249
254	0xbcff8da0	-0.031195462
255	0xbb5c7727	-0.0033640356

lin.bias f4 [64]
0	0xbc04714e	-0.008083655
1	0x3d830b86	0.06398682
2	0x3c83d504	0.016092785
3	0x3d73b8d1	0.059502427
4	0x3cf5eec2	0.030021075
5	0x3d38cc8b	0.045116942
6	0xb9fc9bd1	-0.00048181278
7	0xbc96d339	-0.018411266
8	0x3d428f78	0.047500104
9	0xbd7cbb09	-0.061701808
10	0xbd9377a9	-0.07200558
11	0xbd550e45	-0.05201556
12	0x3cee7264	0.02910728
13	0x3d7b520b	0.06135754
14	0xbc025dfd	-0.007956979
15	0x3cfa75fc	0.030573837
16	0x3cefb200	0.029259682
17	0x3d0247f0	0.031806886
18	0x3d4682b4	0.048464492
19	0xbcd41304	-0.025887974
20	0x3dad4f4b	0.084623896
21	0x3db0d623	0.08634593
22	0x3cff8521	0.03119141
23	0x3d6687cf	0.05628186
24	0xbd7b6cf0	-0.061383188
25	0x3d58524a	0.052812852
26	0xbd3042e9	-0.04303256
27	0xbcc8eb62	-0.024526302
28	0xbd52a93c	-0.051430926
29	0x3d396be1	0.045268897
30	0xbc81e0ac	-0.015854202
31	0xbd779e76	-0.060453855
32	0xbd043fda	-0.032287456
33	0xbdab9c3a	-0.08379407
34	0xbd577da8	-0.05261007
35	0x3d8cbc27	0.06871825
36	0xbd92e261	-0.071720846
37	0x3be60961	0.007020161
38	0x3d219945	0.03945281
39	0xbda38b6e	-0.079855785
40	0x3cedd6b2	0.029033039
41	0x3da1f3a7	0.07907801
42	0xbd2bf887	-0.04198506
43	0x3d3835d4	0.04497321
44	0xbdab7beb	-0.08373245
45	0xbd5cbb3d	-0.0538895
46	0x3d9eef63	0.07760503
47	0x3d90f632	0.07078208
48	0xbd68232b	-0.056674164
49	0x3d9e0445	0.07715658
50	0xbcb2c87b	-0.021824112
51	0xbc786e40	-0.015163004
52	0x3d8e4629	0.06946976
53	0xbd9384ae	-0.07203041
54	0x3d00d27a	0.031450726
55	0x3da1b85b	0.07896491
56	0x3db157b0	0.08659303
57	0x3c96e1bf	0.018418191
58	0x3d3de5c3	0.046361696
59	0xbc949e98	-0.01814203
60	0x3bd3394f	0.0064460407
61	0xbcd61e87	-0.026137603
62	0x3c708ad8	0.01468154
63	0xbd095744	-0.03353049
