All_Benchmarking/P00720/Results/fold_1/best_model.pth (torch, 192098 bytes, 32 tensors)

gat1.att_src f4 [1, 4, 32]
-0.29627997 -0.1011827 -0.03975733 -0.22651759 -0.30089182 0.27513757 0.27634677 -0.36950284
0.13049576 0.16538316 0.38851786 0.23768252 0.3761836 -0.13227122 0.2866821 0.3328332
-0.38521627 -0.32683006 0.08180039 0.22241886 -0.20464335 0.04586862 0.00021772095 0.10303244
-0.21892753 0.23111163 0.27232206 -0.28417653 0.0029767572 0.0026549636 0.13286488 0.3798191
0.120239586 -0.09286302 0.3666114 -0.15585281 -0.11815524 0.028367901 -0.3105312 0.04398394
-0.2778544 0.042619184 0.03959628 0.057037786 -0.34476256 -0.38741842 0.18830194 0.35075685
-0.36179325 0.151499 -0.30086693 0.025766589 0.37912324 0.3092363 -0.29840323 0.2521138
0.21375471 -0.0010880514 0.39567718 -0.16252792 -0.09425246 -0.2064324 0.058367033 0.1081733
0.029876666 -0.23207362 -0.18411767 0.14162022 -0.3561264 -0.061275713 -0.010628964 -0.16379441
0.14798854 0.024027137 0.28748792 -0.03383651 -0.2596622 0.2857398 0.059073906 -0.11956872
-0.27139303 0.09802281 -0.39180017 0.10554237 0.20403793 -0.35554358 -0.26989773 -0.29112786
0.34097478 0.34448072 0.022984706 0.38596615 -0.13918464 -0.39479002 0.14421917 0.14724885
0.39997894 -0.00014163075 0.3129424 0.25005597 0.29496747 -0.40470362 0.33685005 -0.34907338
0.36621472 -0.017357042 -0.36220875 0.11387025 -0.08302591 -0.36641097 -0.1483317 0.042448357
0.31998667 -0.12500356 0.24234991 0.051280335 0.013419183 0.078288294 -0.26893798 -0.3395082
-0.12855591 -0.38069496 -0.19051352 0.018592453 -0.26882312 -0.16954854 -0.073023565 -0.047191627
00000000: 02b2 97be e038 cfbd 95d8 22bd 3af4 67be
00000010: 7e0e 9abe d5de 8c3e 537d 8d3e 7a2f bdbe
00000020: aea0 053e 345a 293e d0eb c63e 0c63 733e
00000030: 239b c03e 1b72 07be ffc7 923e 1d69 aa3e
00000040: 113b c5be 4556 a7be f686 a73d c5c1 633e
00000050: 078e 51be bce0 3b3d 064c 6439 ac02 d33d
00000060: 8a2e 60be 87a8 6c3e cc6d 8b3e 967f 91be
00000070: b315 433b e6fe 2d3b bb0d 083e a677 c23e
00000080: 2c40 f63d f82e bebd 7db4 bb3e e197 1fbe
00000090: 60fb f1bd cd63 e83c f2fd 9ebe 8128 343d
000000a0: ef42 8ebe 7491 2e3d b52f 223d 74a0 693d
000000b0: b884 b0be b55b c6be 39d2 403e 6796 b33e
000000c0: f73c b9be 8e22 1b3e 3b0b 9abe 7414 d33c
000000d0: 711c c23e 3854 9e3e 4fc8 98be 0f15 813e
000000e0: 84e2 5a3e f29c 8eba 3396 ca3e b86d 26be
000000f0: 6f07 c1bd 0463 53be 4512 6f3d f789 dd3d
00000100: e9bf f43c b5a4 6dbe 5889 3cbe e404 113e
00000110: 3356 b6be 3efc 7abd 1b25 2ebc b9b9 27be
00000120: 4f8a 173e 8fd4 c43c 9e31 933e 2798 0abd
00000130: 72f2 84be 7d4c 923e 7bf7 713d 72e0 f4bd
00000140: 07f4 8abe 2fc0 c83d 089a c8be 9926 d83d
00000150: 52ef 503e cf09 b6be 0930 8abe b60e 95be
00000160: 3f94 ae3e c75f b03e 6c4a bc3c 5b9d c53e
00000170: 6b86 0ebe eb21 cabe 31ae 133e 67c8 163e
00000180: 0aca cc3e b782 14b9 fc39 a03e 5607 803e
00000190: fa05 973e 5035 cfbe 9c77 ac3e bfb9 b2be
000001a0: 7f80 bb3e 5b30 8ebc 6d73 b9be ce34 e93d
000001b0: 7d09 aabd 389a bbbe 44e4 17be 54de 2d3d
000001c0: 4bd5 a33e ef00 00be 932a 783e 540b 523d
000001d0: 22dc 5b3c 9d55 a03d 3db2 89be 05d4 adbe
000001e0: 29a4 03be 73ea c2be fa15 43be 334f 983c
000001f0: 2fa3 89be 229e 2dbe 618d 95bd 024c 41bd

gat1.att_dst f4 [1, 4, 32]
-0.22561611 0.019854035 -0.05755265 0.1169386 0.018679585 -0.20405403 -0.1407731 -0.0049007367
-0.25490665 0.031712998 -0.028587347 0.15863836 0.09644715 0.30577445 -0.013212011 -0.30151838
0.18263352 -0.27567968 -0.05636088 -0.13243286 -0.15515392 -0.15078919 0.3753947 0.23393852
0.112926215 0.38357747 -0.36972725 0.0656284 0.2610987 0.27144495 -0.324656 0.14551623
-0.23238045 -0.015953967 -0.08526316 -0.34096065 -0.3893674 -0.26842156 0.18541718 0.18678588
-0.3550324 -0.15334524 0.006788823 -0.35299188 0.22997652 0.3698996 0.072197005 -0.30330354
0.09519119 0.14821674 0.32320693 -0.21714386 -0.3658835 0.17937891 0.02534369 -0.13312885
-0.17108326 -0.2106478 0.33057702 -0.07047496 0.2945019 0.36447158 0.051524077 0.086991295
-0.028216893 0.2804623 -0.36731333 0.16247882 -0.06670339 0.18637192 -0.001555209 -0.15189031
-0.044183597 0.21934628 -0.28332958 -0.25772652 -0.091462515 -0.14840853 0.16178626 0.27485117
-0.044358525 0.38512254 -0.16972469 -0.22944817 -0.18392713 -0.28096268 -0.2862619 -0.362879
-0.36169678 0.10644217 0.24902406 0.38345957 0.34720507 -0.02215394 0.07896186 -0.24410413
0.15800412 -0.3912302 0.19267873 0.075101055 0.12562153 0.14929107 -0.1873216 0.35046983
0.19480766 0.268111 0.05402721 0.2562435 0.27465785 0.1851215 0.31116572 -0.07406766
0.26829633 0.09414961 0.24556983 0.39742267 0.0926159 -0.1513313 -0.040516395 0.11512548
0.06900762 -0.11151999 0.3198122 0.24520028 -0.2535641 -0.03332501 -0.039382655 -0.25578418
00000000: e907 67be eea4 a23c 54bc 6bbd 817d ef3d
00000010: ee05 993c 8af3 50be d326 10be 5c96 a0bb
00000020: 2083 82be 7de5 013d 0330 eabc 1872 223e
00000030: 1586 c53d 788e 9c3e 3177 58bc 9e60 9abe
00000040: 4804 3b3e e325 8dbe abda 66bd 7b9c 07be
00000050: abe0 1ebe 7b68 1abe bc33 c03e 948d 6f3e
00000060: dc45 e73d 4464 c43e e44c bdbe 2f68 863d
00000070: bbae 853e d5fa 8a3e 5039 a6be 3502 153e
00000080: 24f5 6dbe e5b1 82bc 749e aebd 6592 aebe
00000090: 2a5b c7be 8d6e 89be 00de 3d3e cc44 3f3e
000000a0: cfc6 b5be 8906 1dbe c674 de3b 5abb b4be
000000b0: f77e 6b3e 7b63 bd3e 06dc 933d 9a4a 9bbe
000000c0: 99f3 c23d 21c6 173e 617b a53e f65a 5ebe
000000d0: 1555 bbbe 1baf 373e 929d cf3c ee52 08be
000000e0: 7330 2fbe 0fb4 57be 6441 a93e 2d55 90bd
000000f0: f4c8 963e 059c ba3e e90a 533d 7e28 b23d
00000100: 1d27 e7bc c198 8f3e 7e10 bcbe d960 263e
00000110: c99b 88bd 48d8 3e3e 28d8 cbba 2289 1bbe
00000120: dcf9 34bd 509c 603e 9310 91be bbf4 83be
00000130: b350 bbbd 68f8 17be 4cab 253e 4bb9 8c3e
00000140: 49b1 35bd c82e c53e 4fcc 2dbe 76f4 6abe
00000150: 6557 3cbe 57da 8fbe eb90 92be 47cb b9be
00000160: 5230 b9be 5afe d93d 2a00 7f3e d054 c43e
00000170: ddc4 b13e 2e7c b5bc c1b6 a13d 6ff6 79be
00000180: d5cb 213e 534f c8be 934d 453e 95ce 993d
00000190: eea2 003e c2df 183e 3cd1 3fbe c870 b33e
000001a0: a97b 473e d845 893e a34b 5d3d 5932 833e
000001b0: f49f 8c3e 7e90 3d3e 1d51 9f3e c9b0 97bd
000001c0: 235e 893e 83d1 c03d a876 7b3e fc7a cb3e
000001d0: 68ad bd3d 98f6 1abe 85f4 25bd e8c6 eb3d
000001e0: de53 8d3d 9864 e4bd 6dbe a33e c815 7b3e
000001f0: 27d3 81be ce7f 08bd b54f 21bd 25f6 82be

gat1.bias f4 [128]
9.716678e-05 -0.00030772784 -2.2406677e-05 3.572281e-05 6.32093e-05 -0.00011439049 -0.00032609265 -2.5013283e-05
0.00014704127 7.969319e-06 -1.6585894e-06 -2.2348257e-05 -0.00010091711 1.906662e-05 0.00018203791 0.000111252775
-2.4421419e-05 0.0002352358 -7.503961e-05 0.00036829905 -0.00030123585 -0.0002210487 0.00020633831 8.599606e-05
-5.5870463e-05 -1.0114692e-05 -1.1968525e-06 -0.0001742376 0.00010584209 -9.694095e-06 -0.00011541239 -5.3321495e-05
0.0002593841 -7.538931e-05 0.00020753611 -0.00015800135 9.9932775e-05 -0.0002997408 -0.00022037042 -3.1868644e-06
-5.0172777e-05 0.00013046902 0.00016249839 -0.00017170004 4.057517e-05 0.00014306436 8.206081e-05 0.0001252125
-0.00020791624 6.1014078e-05 0.00020220516 -7.302096e-05 -0.00015383321 1.9606909e-05 0.00020397393 -5.698886e-05
8.9405556e-05 9.213319e-05 0.00019310815 -5.523864e-05 -0.00028649496 0.000103635306 0.00012293085 0.00021576334
0.00011624333 -0.00024043364 -4.154588e-05 -0.00041222802 -0.00011250596 -0.00019936312 2.4779361e-05 -0.0001473324
0.00010782426 -0.00010131617 0.00016149523 8.0199046e-05 -0.00019002912 -5.4936623e-05 0.00023548037 0.00011376996
-4.504928e-05 0.00038572613 -4.117261e-05 -8.231046e-05 -8.031808e-05 7.529841e-05 4.8575566e-05 -7.43157e-05
0.00031494503 2.4822517e-05 0.00040856402 0.00023855947 0.00024053323 0.00013587055 0.00020625898 -0.00010302631
0.00022381532 -5.9988277e-05 -0.0003671626 -8.685321e-05 0.00011093092 -0.0004017794 -0.0003060485 -0.00027463655
7.8108016e-05 0.00015750577 0.00028226152 -0.0003397437 -0.00030835587 -0.00016800422 -1.1111162e-05 7.214138e-05
-0.00012746094 -2.5753585e-05 -0.00059524644 8.453936e-05 -9.75324e-06 -0.00023368876 -0.0002925152 5.6754267e-05
-2.0003998e-05 0.00033508826 -0.00023348135 0.00041348825 -6.459603e-05 0.0001383434 4.8048616e-05 8.298391e-05
00000000: 05c6 cb38 8856 a1b9 f9f5 bbb7 13d5 1538
00000010: 3c8f 8438 ede4 efb8 6af7 aab9 9ed3 d1b7
00000020: 172f 1a39 f7b3 0537 b39c deb5 8478 bbb7
00000030: 76a3 d3b8 41f1 9f37 6ee1 3e39 6150 e938
00000040: 99dc ccb7 a1a9 7639 955e 9db8 4318 c139
00000050: 31ef 9db9 4fc9 67b9 855c 5839 c858 b438
00000060: 7456 6ab8 45b2 29b7 8aa3 a0b5 8db3 36b9
00000070: 8af7 dd38 d2a3 22b7 8e09 f2b8 85a5 5fb8
00000080: f2fd 8739 541a 9eb8 0d9e 5939 2aad 25b9
00000090: 0093 d138 8726 9db9 3c13 67b9 eadd 55b6
000000a0: 9c70 52b8 83ce 0839 5464 2a39 610a 34b9
000000b0: 422f 2a38 8c03 1639 1018 ac38 794b 0339
000000c0: 1704 5ab9 5ee9 7f38 0907 5439 d422 99b8
000000d0: 4a4e 21b9 8479 a437 d6e1 5539 5307 6fb8
000000e0: 3e7f bb38 a137 c138 137d 4a39 0ab0 67b8
000000f0: b434 96b9 c856 d938 00e7 0039 883e 6239
00000100: aac7 f338 ea1c 7cb9 8d41 2eb8 4f20 d8b9
00000110: 2df1 ebb8 210c 51b9 46dd cf37 3d7d 1ab9
00000120: b51f e238 b479 d4b8 0c57 2939 8930 a838
00000130: 8e42 47b9 c06b 66b8 48eb 7639 c897 ee38
00000140: 4cf3 3cb8 493b ca39 c1b0 2cb8 179e acb8
00000150: 7170 a8b8 87e9 9d38 9ebd 4b38 f0d9 9bb8
00000160: 351f a539 f339 d037 8934 d639 d225 7a39
00000170: a637 7c39 7978 0e39 3947 5839 d40f d8b8
00000180: f8af 6a39 ec9b 7bb8 bb7f c0b9 f624 b6b8
00000190: 96a3 e838 eba5 d2b9 2275 a0b9 18fd 8fb9
000001a0: eccd a338 2228 2539 80fc 9339 a11f b2b9
000001b0: d3aa a1b9 4a2a 30b9 146a 3ab7 9c4a 9738
000001c0: 09a7 05b9 6709 d8b7 500a 1cba b94a b138
000001d0: d9a1 23b7 590a 75b9 ba5c 99b9 6e0b 6e38
000001e0: 42ce a7b7 c9ae af39 acd2 74b9 74c9 d839
000001f0: bb77 87b8 4610 1139 cf87 4938 a607 ae38

gat1.lin.weight f4 [128, 5]
0.04336489 -0.20019813 0.18685025 0.1318231 -0.20590834 -0.10407757 0.066669285 -0.041370682
-0.022709467 -0.094762795 0.17075855 -0.11963352 0.17619312 0.013925319 0.041759465 0.16622956
-0.03646638 -0.11882611 -0.035780642 0.17499729 -0.15985613 0.049475454 -0.20667456 0.10957169
0.08017822 0.0105209 0.09048656 -0.001456024 0.118768044 -0.16574362 -0.029816322 0.0945652
0.2113441 0.106200315 -0.15655059 0.16455239 -0.047913797 -0.04571261 -0.19119959 -0.03504146
0.15225504 0.027754566 -0.12090863 0.06442074 -0.07099274 0.1964517 -0.1818774 -0.06969282
-0.20256522 -0.086131714 0.06597512 0.20562671 0.036019366 0.20794766 0.038416952 0.12446781
0.168746 0.17848708 -0.119597055 0.19529086 0.13038364 -0.100565955 -0.1009684 -0.1772929
0.05028732 -0.16939479 0.092216276 0.0645864 -0.18664375 0.05880805 -0.014804458 0.095567726
0.12286786 -0.21253842 0.19634719 0.17713687 0.08559508 -0.19561541 -0.07457589 -0.062495153
-0.05272498 0.121739455 0.07528951 0.16845445 -0.07815756 0.07375637 0.07360803 -0.1788599
-0.20327719 -0.11060123 0.1430986 -0.20038842 -0.18431152 0.121119745 0.11722132 0.17794509
-0.1611521 -0.15486471 0.10573569 0.18222144 0.12643749 0.032277796 0.07092525 0.2015564
-0.13715295 -0.098485716 0.1475131 -0.14366215 -0.11660569 0.15738623 0.0658674 0.06988504
-0.089520246 -0.0037589734 0.19479078 -0.12812883 0.0031137601 0.09996565 -0.14912477 0.20351073
-0.1046161 -0.05336087 -0.055519283 -0.13802947 -0.20658252 0.12094998 0.054978028 -0.1999659
-0.1352788 0.21104884 0.08056379 0.086564444 -0.12563904 -0.095342785 -0.030454174 -0.040819943
-0.14422742 0.01944176 0.019612357 -0.029795038 0.032008085 -0.08531971 0.052549504 0.08046923
-0.11199271 -0.21124604 0.11151808 0.050361034 -0.10725039 0.20337749 -0.09597997 0.14156124
0.109806456 -0.18010847 0.1346206 -0.19356921 -0.11936351 -0.03319615 -0.14517705 0.20493509
-0.043795213 0.086133726 -0.18877922 0.12088271 -0.06483899 -0.16292639 0.032045025 0.102065414
0.18413602 -0.12979981 -0.10242048 0.0387013 0.059461463 0.0815438 0.11703524 -0.050313346
0.12108614 0.1536091 -0.057550304 0.14832528 0.10603682 0.18498807 -0.122664824 -0.10300821
-0.06297121 0.01116666 0.1276255 -0.12074549 0.10517182 -0.0778316 0.1302189 -0.012040563
-0.1841261 -0.11614147 -0.15499197 0.104393415 -0.1413235 -0.017256662 0.04447852 -0.119027205
0.06377208 -0.2047397 -0.1545921 -0.19168457 -0.06697761 -0.076234445 0.029473228 -0.039316215
0.10010372 0.19641897 0.07372495 -0.08152168 -0.2011618 0.07620639 -0.10263475 0.10834876
0.14188626 0.081914485 0.1987467 0.20221996 0.04609419 -0.15699767 0.18992513 -0.09967289
-0.097510114 0.17845644 0.16722079 0.061383165 0.015652023 -0.17553699 -0.022279095 0.2050065
0.054602634 0.016356317 -0.041308206 -0.075685605 0.12726009 0.014552918 0.13628581 -0.03601709
0.09220431 0.086136356 0.036336035 0.13309902 0.13429594 0.19556944 0.16450487 -0.05365169
-0.18075767 0.036218327 -0.004138535 -0.057459082 -0.033346213 0.007963713 0.15302512 0.06509624
00000000: 629f 313d bd00 4dbe ac55 3f3e a2fc 063e
00000010: a3d9 52be 9f26 d5bd e889 883d 4e74 29bd
00000020: 3409 babc ff12 c2bd 54db 2e3e 6b02 f5bd
00000030: f86b 343e 0527 643c f90b 2b3d 1538 2a3e
00000040: c55d 15bd 1b5b f3bd b98e 12bd 7d32 333e
00000050: 53b1 23be c6a6 4a3d 7fa2 53be 1f67 e03d
00000060: 7b34 a43d da5f 2c3c 0451 b93d 0fd8 beba
00000070: a93c f33d b2b8 29be 5c41 f4bc 66ab c13d
00000080: 966a 583e 8d7f d93d cc4e 20be 6c80 283e
00000090: 4241 44bd 253d 3bbd d3c9 43be a287 0fbd
000000a0: bfe8 1b3e 8b5d e33c f29e f7bd 05ef 833d
000000b0: a464 91bd a22a 493e 123e 3abe 1cbb 8ebd
000000c0: 426d 4fbe d365 b0bd f71d 873d cf8f 523e
000000d0: 0b89 133d 3bf0 543e 185b 1d3d fbe8 fe3d
000000e0: c0cb 2c3e 51c5 363e 4def f4bd 54fa 473e
000000f0: 4a83 053e 86f5 cdbd 85c8 cebd 458c 35be
00000100: 14fa 4d3d d475 2dbe e3db bc3d e045 843d
00000110: 8a1f 3fbe b6e0 703d 668e 72bc 03b9 c33d
00000120: 25a2 fb3d aca3 59be 3d0f 493e 5e63 353e
00000130: 794c af3d 684f 48be 3fbb 98bd ebfa 7fbd
00000140: 26f6 57bd 8952 f93d 6331 9a3d 537f 2c3e
00000150: 1211 a0bd 940d 973d cfbf 963d 0d27 37be
00000160: e527 50be e682 e2bd 7088 123e 9f32 4dbe
00000170: 29bc 3cbe a10d f83d bb11 f03d 3d37 363e
00000180: 0e05 25be db94 1ebe f48b d83d 4298 3a3e
00000190: d478 013e b935 043d 4241 913d cd64 4e3e
000001a0: d371 0cbe e1b2 c9bd ad0d 173e 2c1c 13be
000001b0: f7ce eebd db29 213e 7de5 863d e31f 8f3d
000001c0: 6456 b7bd 1c59 76bb 3c77 473e 3434 03be
000001d0: 3a10 4c3b caba cc3d 2ab4 18be 1e65 503e
000001e0: f740 d6bd ed90 5abd 3068 63bd 9957 0dbe
000001f0: 5e8a 53be a0b4 f73d a430 613d dcc3 4cbe
00000200: 8786 0abe 301d 583e a1fe a43d b348 b13d
00000210: 85a7 00be 1443 c3bd 087b f9bc d032 27bd
00000220: 5ab0 13be 5344 9f3c 18aa a03c b914 f4bc
00000230: e91a 033d 1abc aebd 263e 573d 0dcd a43d
00000240: 6f5c e5bd e250 58be 9763 e43d 5f47 4e3d
00000250: 18a6 dbbd 3042 503e 2691 c4bd 6ef5 103e
00000260: 35e2 e03d 5b6e 38be fcd9 093e 0237 46be
00000270: db74 f4bd b0f8 07bd 4ba9 14be 81da 513e
00000280: 9c62 33bd e166 b03d 574f 41be 5b91 f73d
00000290: 4eca 84bd 2dd6 26be a541 033d ac07 d13d
000002a0: 278e 3c3e 3eea 04be d4c1 d1bd 4185 1e3d
000002b0: dd8d 733d 7000 a73d 2cb0 ef3d 5e15 4ebd
000002c0: 03fc f73d b44b 1d3e deb9 6bbd 95e2 173e
000002d0: d529 d93d 836d 3d3e b237 fbbd f8f5 d2bd
000002e0: 0df7 80bd 5ef4 363c 42b0 023e 6949 f7bd
000002f0: 5364 d73d 2d66 9fbd 1a58 053e c845 45bc
00000300: 8d8b 3cbe 94db edbd 37b6 1ebe 37cc d53d
00000310: 1cb7 10be d85d 8dbc 1c2f 363d 89c4 f3bd
00000320: f09a 823d 49a7 51be 644d 1ebe f648 44be
00000330: 8f2b 89bd ce20 9cbd d771 f13c 0a0a 21bd
00000340: 2e03 cd3d 0e22 493e 1bfd 963d d7f4 a6bd
00000350: 5cfd 4dbe 1912 9c3d 2b32 d2bd f4e5 dd3d
00000360: a24a 113e c8c2 a73d 4184 4b3e c012 4f3e
00000370: 43cd 3c3d ffc3 20be bc7b 423e 4d21 ccbd
00000380: 62b3 c7bd 49bd 363e ed3b 2b3e ea6c 7b3d
00000390: ac38 803c f8bf 33be a682 b6bc 39ed 513e
000003a0: 03a7 5f3d affd 853c cb32 29bd 0e01 9bbd
000003b0: 7850 023e 5d6f 6e3c 828e 0b3e a886 13bd
000003c0: 9dd5 bc3d 4268 b03d 18d5 143d 1c4b 083e
000003d0: e084 093e 5b43 483e f773 283e e0c1 5bbd
000003e0: 8a18 39be ab59 143d 8c9c 87bb 375a 6bbd
000003f0: 0a96 08bd 3c7a 023c 9eb2 1c3e 2d51 853d

sage1.lin_l.weight f4 [128, 128]
0.07458614 -0.029644765 0.03309279 0.018616443 -0.057008646 -0.063383885 0.055546135 -0.038752418
0.06397407 0.014628734 0.0076557063 0.056290254 -0.02656193 -0.024164826 0.03228152 0.0179084
0.040902443 0.05870172 0.075645335 0.051330812 -0.0017638574 -0.07573129 -0.032736145 -0.008186608
0.007944401 -0.052523848 -0.033685997 0.063502654 -0.0491339 0.0067752497 0.020283427 0.0072190478
0.0077054356 0.08143469 0.06635634 0.05314396 -0.032893367 -0.068771414 0.059942305 -0.061159622
-0.043523304 -0.04946145 -0.003525722 0.022227095 0.033785027 0.016231706 -0.075948894 0.023139052
-0.052457243 0.04075422 -0.06876076 0.014395278 -0.08691684 0.06698579 0.03589808 -0.0046444885
-0.0040854695 -0.0037045833 -0.060456477 -0.060360443 0.0006773038 0.0608475 0.041710164 0.05890935
0.06755133 0.029795928 -0.056243133 0.023113107 -0.04439745 -0.01353861 -0.052685432 0.04406516
-0.050964326 0.052107565 0.038675938 0.046967395 0.051891647 0.013247938 -0.03578938 0.035856236
0.06911613 0.059505604 -0.059674524 0.031882793 -0.029118797 0.07310266 -0.03712492 -0.0141653195
0.027234 -0.08004662 0.016478762 0.047582224 -0.016636143 -0.07853015 -0.085164115 -0.0639341
-0.07571782 0.040546 -0.023774995 -0.02370448 0.060710754 0.014770789 -0.06461955 0.01897457
0.03916896 -0.0411001 0.018122645 -0.03531481 -0.07845681 -0.054852866 -0.047027677 0.05260396
0.07528354 -0.06276523 0.0517277 -0.03586414 -0.013167437 0.0077905706 0.024030248 0.015929727
-0.0824423 0.019692603 -0.086949036 0.08545595 0.08553198 -0.079455525 0.040111046 0.05986113
-0.054224037 0.01814279 -0.04174915 -0.062853254 -0.03891999 -0.038670976 -0.064255744 0.00017876572
0.08461575 0.021723025 -0.0035087136 -0.084226385 0.041039553 0.0791811 -0.009766338 0.08255471
0.08331587 0.03240678 -0.0785667 -0.022687329 -0.021925928 0.0028093357 -0.036241435 -0.031525828
-0.03144762 -0.0096440995 -0.07187368 -0.05029929 0.02319599 0.0708364 0.079121575 0.06278223
-0.086392395 -0.015954211 -0.035814837 0.037633836 0.08993608 0.058523096 0.05608679 -0.05045186
0.07801601 -0.062869295 -0.066713676 0.035183232 0.068621345 0.04991417 -0.08679265 0.046847
-0.032254245 0.021993874 -0.03628929 -0.04457932 -0.023284284 0.00047698797 0.040081352 -0.044670574
-0.03745865 0.047680505 -0.03483762 -0.06448526 -0.00032036108 0.039767757 -0.010618302 0.0055218353
0.08064115 0.03382033 0.006194917 0.063530184 -0.016721863 -0.043120477 0.03443539 -0.06816749
0.026928205 0.035826102 0.048655298 0.015525798 0.05846557 0.056711495 0.04988612 -0.065544195
0.015867842 0.041949235 0.0703984 0.07976225 -0.083395615 0.07648529 0.021417467 -0.049334705
-0.07548638 0.033438496 0.06689226 0.06284764 0.04935414 -0.06638229 -0.083805025 -0.017957754
-0.04156791 -0.05596286 -0.07801953 0.030894103 0.027708843 0.03879188 -0.049759723 -0.052046426
0.0025372393 0.050788037 0.034840576 0.02686924 -0.022477314 0.01573752 -0.031291015 0.057230532
0.064173646 0.0025373143 -0.008781926 0.07907448 -0.060666885 -0.003656297 0.017973661 -0.02751856
-0.0005292732 -0.056241315 0.0027674583 0.04590787 0.061814714 0.06451588 0.03804377 0.08544042
00000000: 9ec0 983d 94d9 f2bc 4e8c 073d 8381 983c
00000010: e681 69bd 69cf 81bd 5884 633d dbba 1ebd
00000020: d604 833d 5cad 6f3c b8dc fa3b 9c90 663d
00000030: 6898 d9bc 50f5 c5bc a139 043d a3b4 923c
00000040: 5289 273d 3771 703d f1eb 9a3d 4240 523d
00000050: 3c31 e7ba 0219 9bbd 5616 06bd 1f21 06bc
00000060: 3c29 023c 3f23 57bd 54fa 09bd ae0d 823d
00000070: a140 49bd ea02 de3b 6e29 a63c c38d ec3b
00000080: e17d fc3b 3bc7 a63d d5e5 873d 7bad 593d
00000090: 32bb 06bd 07d8 8cbd 1086 753d 8382 7abd
000000a0: 7e45 32bd 1798 4abd cd0f 67bb 9915 b63c
000000b0: 2b62 0a3d 5bf8 843c 188b 9bbd 1c8e bd3c
000000c0: 68dd 56bd e6ed 263d 71d2 8cbd 2cda 6b3c
000000d0: 7501 b2bd d92f 893d dd09 133d cb30 98bb
000000e0: 67df 85bb 98c8 72bb 36a1 77bd 833c 77bd
000000f0: 178d 313a 3a3b 793d 47d8 2a3d ee4a 713d
00000100: 5a58 8a3d 9716 f43c 335f 66bd b357 bd3c
00000110: 1ada 35bd 0cd1 5dbc aecc 57bd ab7d 343d
00000120: f8bf 50bd be6e 553d a96a 1e3d e260 403d
00000130: 568c 543d e10d 593c e397 12bd fddd 123d
00000140: c28c 8d3d 26bc 733d 466d 74bd 8897 023d
00000150: 8b8a eebc d9b6 953d 4d10 18bd a815 68bc
00000160: d619 df3c 7bef a3bd 78fe 863c 94e5 423d
00000170: 8548 88bc 6ad4 a0bd 866a aebd e2ef 82bd
00000180: f211 9bbd 9013 263d c7c3 c2bc e62f c2bc
00000190: d7ab 783d 2e01 723c 4157 84bd 8f70 9b3c
000001a0: a26f 203d 9458 28bd f175 943c 43a6 10bd
000001b0: f7ad a0bd 66ad 60bd 18a0 40bd 4077 573d
000001c0: 422e 9a3d 0f8b 80bd 6de0 533d 47e6 12bd
000001d0: 3cbc 57bc 0b48 ff3b 15db c43c 0f7f 823c
000001e0: 82d7 a8bd 6252 a13c 5612 b2bd 8703 af3d
000001f0: 642b af3d 94b9 a2bd 7b4b 243d f230 753d
00000200: 061a 5ebd 30a0 943c 2801 2bbd 35b9 80bd
00000210: 916a 1fbd 7565 1ebd 8498 83bd 0f73 3b39
00000220: 064b ad3d 7cf4 b13c 72f2 65bb e27e acbd
00000230: 1719 283d b329 a23d fe02 20bc 7212 a93d
00000240: 83a1 aa3d f9bc 043d 94e7 a0bd c7da b9bc
00000250: 019e b3bc d51c 383b e671 14bd 3a21 01bd
00000260: 38cf 00bd 4902 1ebc 8232 93bd a106 4ebd
00000270: 8405 be3c ad12 913d 7e0a a23d f893 803d
00000280: 7fee b0bd 68b2 82bc 94b2 12bd f025 1a3d
00000290: 6830 b83d eab5 6f3d 43bb 653d 9ca6 4ebd
000002a0: dcc6 9f3d 9ec1 80bd 2ea1 88bd 4b1c 103d
000002b0: 5989 8c3d cd72 4c3d 58c0 b1bd a4e2 3f3d
000002c0: 071d 04bd 7f2c b43c 14a4 14bd ce98 36bd
000002d0: afbe bebc 3e14 fa39 582c 243d 7ef8 36bd
000002e0: 3e6e 19bd a24c 433d e4b1 0ebd d910 84bd
000002f0: 23f6 a7b9 84e3 223d 63f8 2dbc 83f0 b43b
00000300: 3027 a53d 3087 0a3d bbfe ca3b 1d1c 823d
00000310: 4afc 88bc 199f 30bd 200c 0d3d 669b 8bbd
00000320: 8a98 dc3c 64be 123d c74a 473d eb5f 7e3c
00000330: 9879 6f3d 504a 683d 6355 4c3d 093c 86bd
00000340: 47fd 813c f6d2 2b3d 092d 903d 645a a33d
00000350: 52cb aabd 52a4 9c3d af73 af3c 3013 4abd
00000360: 9a98 9abd cef6 083d cffe 883d 43b6 803d
00000370: 9127 4a3d 70f3 87bd f8a1 abbd 241c 93bc
00000380: 1d43 2abd 5039 65bd b4c8 9fbd a115 fd3c
00000390: a8fd e23c 3ce4 1e3d dad0 4bbd a22e 55bd
000003a0: d047 263b 1e07 503d feb4 0e3d e11c dc3c
000003b0: 5822 b8bc f9eb 803c 022b 00bd 906a 6a3d
000003c0: 796d 833d 1249 263b 11e2 0fbc cdf1 a13d
000003d0: d77d 78bd 7c9e 6fbb 803d 933c 9a6e e1bc
000003e0: ecbe 0aba 4b5d 66bd 3f5e 353b e409 3c3d
000003f0: 6d31 7d3d e720 843d c9d3 1b3d 63fb ae3d

sage1.lin_l.bias f4 [128]
-0.044015348 -0.08625269 -0.029271733 0.008857955 0.007450665 -0.00037548787 -0.08647839 -0.026757013
-0.050499048 -0.022376433 -0.050345145 -0.0040986133 -0.01686059 -0.081378765 0.03915431 0.029030064
0.023701314 0.03389358 -0.004501827 0.016738914 -0.08513869 0.056657244 0.06717116 -0.035276234
0.07385762 -0.026850913 0.034413077 -0.033083502 -0.050468463 -0.04435925 0.06002971 -0.027101334
-0.06709123 0.013244437 -0.053493556 -0.05755385 -0.046765924 -0.055154257 -0.055920172 0.032983158
-0.031604942 0.022783903 0.07472392 0.01874116 0.09081137 0.069901295 0.008832004 0.040797975
0.08651357 -0.06522733 -0.05274602 0.061071366 0.047873728 0.02857972 0.016530763 -0.05125928
0.030665984 -0.0059898617 0.0021289017 0.07936174 0.046140317 0.0014735438 -0.01715663 -0.05341616
0.036794357 0.08504362 -0.04472783 -0.05838619 0.05681331 -0.07327377 0.0802521 0.013765218
0.073995866 0.0052964804 0.026730658 -0.08222789 -0.013385326 0.06698525 -0.034943037 0.06956106
-0.013369631 -0.04719503 -0.044922467 -0.06969768 0.02557993 -0.049318995 0.037956282 -0.023362447
0.0497462 0.061544415 -0.06502686 -0.05262648 0.060778342 -0.02182142 -0.071059406 -0.053116966
-0.08386004 -0.058035605 -0.0010952805 0.061724186 0.016112005 0.007643798 -0.00035161737 -0.053535473
0.044826128 0.05781944 0.02957544 0.072038166 0.085449874 0.00907636 -0.04815534 0.064671434
0.010620416 -0.015609582 -0.009522851 0.014886241 -0.040500402 0.050741833 -0.06840257 0.0052091107
-0.085852936 0.032883532 -0.041371565 -0.0043656956 0.065603904 0.018803038 0.0039575733 0.034927506
00000000: 7049 34bd 40a5 b0bd 46cb efbc f520 113c
00000010: b524 f43b 21dd c4b9 951b b1bd 8631 dbbc
00000020: 17d8 4ebd c84e b7bc b636 4ebd a94d 86bb
00000030: 381f 8abc e9a9 a6bd 4560 203d 75d0 ed3c
00000040: 4229 c23c ffd3 0a3d 1084 93bb 0c20 893c
00000050: 325d aebd 6d11 683d 0891 893d d07d 10bd
00000060: aa42 973d 72f6 dbbc baf4 0c3d 9182 07bd
00000070: 05b8 4ebd 0cb2 35bd b7e1 753d 9e03 debc
00000080: 2067 89bd 32ff 583c 0f1c 5bbd 96bd 6bbd
00000090: a08d 3fbd 6ee9 61bd 8d0c 65bd 5919 073d
000000a0: 2f74 01bd 4fa5 ba3c db08 993d 1087 993c
000000b0: 50fb b93d 6928 8f3d 1cb4 103c c71b 273d
000000c0: 072e b13d e895 85bd 360c 58bd f825 7a3d
000000d0: 3e17 443d 0420 ea3c 866b 873c 40f5 51bd
000000e0: 3b37 fb3c 9a46 c4bb 0b85 0b3b 6888 a23d
000000f0: a1fd 3c3d ed23 c13a 108c 8cbc e7ca 5abd
00000100: aeb5 163d 592b ae3d 8734 37bd 5c26 6fbd
00000110: 13b5 683d 8f10 96bd 375b a43d 8287 613c
00000120: 258b 973d 198e ad3b 41fa da3c 1967 a8bd
00000130: 204e 5bbc 902f 893d 6e20 0fbd 0776 8e3d
00000140: 4c0c 5bbc 934f 41bd 9f00 38bd a8bd 8ebd
00000150: 008d d13c b702 4abd 0c78 1b3d 9a62 bfbc
00000160: acc2 4b3d ff15 7c3d cd2c 85bd dd8e 57bd
00000170: b6f2 783d d6c2 b2bc 9887 91bd 2d91 59bd
00000180: d0be abbd beb6 6dbd 848f 8fba 80d2 7c3d
00000190: 53fd 833c d378 fa3b 4959 b8b9 0348 5bbd
000001a0: 9a9b 373d 14d4 6c3d 3148 f23c bf88 933d
000001b0: 5800 af3d 03b5 143c 893e 45bd 7572 843d
000001c0: 4101 2e3c 55bf 7fbc bb05 1cbc 6ce5 733c
000001d0: c0e3 25bd abd6 4f3d a616 8cbd 30b1 aa3b
000001e0: aad3 afbd e2b0 063d 3b75 29bd 1c0e 8fbb
000001f0: 575b 863d d408 9a3c 88ae 813b 2510 0f3d

sage1.lin_r.weight f4 [128, 128]
0.0080637075 0.055684272 0.00821291 0.056100126 0.057058483 -0.014095252 0.07628004 0.015753988
0.06432833 -0.08393175 -0.08431376 0.025184527 0.027032658 -0.030713256 -0.021177575 0.021239072
0.07719348 0.019345243 0.07227404 0.0767533 0.028589947 0.0063283728 -0.024414735 -0.061234877
0.05140508 -0.0001503691 -0.036887262 -0.020380756 -0.049685895 -0.006236674 0.05201059 0.073602125
-0.05827117 0.016662782 -0.032883313 -0.08123288 0.048498824 0.069645256 0.074362874 0.07556612
-0.031214917 0.017769726 0.029468294 -0.06242581 0.08009214 -0.07600644 0.001580384 -0.029814653
0.038063426 0.06748814 0.008558362 -0.040115513 0.06945278 -0.08591545 -0.0046805576 -0.0773866
-0.0038583886 0.06646317 0.041209154 -0.039898813 -0.04279603 0.029569741 -0.052498605 -0.07329782
0.068172954 0.025456311 -0.06592177 -0.08043667 0.030903196 -0.026531292 -0.048085958 0.090231575
0.044259563 0.06882422 0.013653524 -0.0023848375 -0.059273712 0.034352485 -0.029343592 -0.009705137
0.0031229614 0.069196165 0.03300013 -0.08688947 0.0039949203 0.06423798 -0.005945171 0.07408605
-0.038650986 -0.06365279 0.0793418 -0.03070364 0.064111955 0.0656058 -0.058326036 -0.07876062
-0.009352902 -0.046869677 0.06296394 0.045672726 0.07630783 -0.041109674 0.015562553 0.003078345
-0.062140133 -0.04384953 0.04115066 0.006061479 0.07737303 0.005566415 0.027997283 0.03407551
-0.06072466 -0.068118274 -0.05558869 -0.03234654 0.030305266 -0.044912774 -0.07104371 -0.024139214
-0.07291934 -0.007319164 -0.082786486 -0.01024317 -0.069408804 -0.08024125 0.06257619 0.084901996
-0.05933397 0.011277149 -0.07117951 -0.06316863 -0.081092425 -0.06710647 0.08663065 0.023533301
0.037418883 -0.04861529 0.03361371 0.032851458 0.026086299 0.0050163097 -0.041727193 0.030297475
0.06684233 -0.01933664 0.073328346 0.014903057 0.022792306 0.057957605 -0.014294421 0.021311987
-0.016179759 -0.075380266 0.0034998602 0.026555376 0.007027417 0.019311793 -0.020559806 0.07305199
-0.076617636 -0.00032278322 0.0038286613 0.03330014 -0.031309064 0.013823877 -0.07517729 0.034954794
-0.02533833 0.058885183 0.07483152 0.07551319 -0.048503973 0.03896957 -0.043632522 0.011325958
0.030673252 -0.078576 -0.0798514 0.0065749018 0.013250035 -0.05434887 0.04253674 0.057657044
-0.017562026 -0.07753608 0.022426022 -0.045897778 -0.009731397 -0.01992363 0.048884176 0.024098337
-0.064349145 -0.080306284 -0.045648664 -0.0842989 0.00069467054 -0.03779855 -0.03278094 -0.07933863
0.071630366 -0.05490669 -0.029752051 0.06418486 -0.017137589 -0.021633668 0.04546122 -0.037468843
0.059933394 -0.004807876 0.04388889 0.0038575365 -0.040375017 -0.03861814 0.0012361776 -0.021444082
0.05207544 0.05173461 -0.0494475 -0.048247695 -0.017389964 0.07350885 -2.6307694e-05 0.07331148
0.029101698 0.0011560736 -0.074154444 -0.0018679622 -0.05548444 -0.047932185 0.042227324 -0.052755944
-0.045619454 0.07273909 -0.03376517 -0.06880149 -0.026047826 -0.004034443 -0.07756973 -0.0844336
-0.07941288 -0.0023022487 -0.00568487 -0.085635625 -0.059021182 -0.0010002134 -0.07481627 -0.047493797
-0.029389337 -0.08271253 -0.011534183 -0.027301783 0.012734533 0.006309226 0.038042482 -0.0292591
00000000: a41d 043c 3115 643d 718f 063c 3fc9 653d
00000010: 28b6 693d c6ef 66bc b638 9c3d 820e 813c
00000020: 92be 833d 69e4 abbd b1ac acbd c84f ce3c
00000030: 9873 dd3c 5e9a fbbc 987c adbc 90fd ad3c
00000040: 9e17 9e3d ea79 9e3c 6904 943d d630 9d3d
00000050: 7735 ea3c 3d5e cf3b 6901 c8bc 6cd1 7abd
00000060: 228e 523d 66ac 1db9 1917 17bd 8bf5 a6bc
00000070: 7083 4bbd 035d ccbb 0e09 553d b6bc 963d
00000080: c0ad 6ebd 6380 883c a7b0 06bd 6d5d a6bd
00000090: b4a6 463d 2ca2 8e3d 904b 983d 69c2 9a3d
000000a0: 6db6 ffbc d191 913c 7e67 f13c 35b2 7fbd
000000b0: 5907 a43d 44a9 9bbd e324 cf3a dc3d f4bc
000000c0: 65e8 1b3d 3937 8a3d 5f38 0c3c 2a50 24bd
000000d0: 423d 8e3d 70f4 afbd 5d5f 99bb de7c 9ebd
000000e0: 05dd 7cbb d81d 883d eeca 283d f06c 23bd
000000f0: e44a 2fbd 3e3c f23c c708 57bd 2b1d 96bd
00000100: 439e 8b3d c189 d03c fe01 87bd fbbb a4bd
00000110: b328 fd3c 2758 d9bc c8f5 44bd 55cb b83d
00000120: 8449 353d b6f3 8c3d 08b3 5f3c ef4a 1cbb
00000130: fec8 72bd 31b5 0c3d f961 f0bc 4c02 1fbc
00000140: 99aa 4c3b b8b6 8d3d 252b 073d 1bf3 b1bd
00000150: d2e7 823b 348f 833d b6cf c2bb 6dba 973d
00000160: 7f50 1ebd 655c 82bd f47d a23d 3386 fbbc
00000170: 214d 833d 555c 863d 48e7 6ebd 3f4d a1bd
00000180: ea3c 19bc 6bfa 3fbd 3df3 803d 5313 3b3d
00000190: 4847 9c3d 9e62 28bd 14fa 7e3c 0fbe 493b
000001a0: a786 7ebd 919b 33bd 988d 283d 5f9f c63b
000001b0: c075 9e3d 7966 b63b 8f5a e53c c392 0b3d
000001c0: 6cba 78bd 9881 8bbd f7b0 63bd ce7d 04bd
000001d0: c042 f83c 75f6 37bd 5d7f 91bd 9abf c5bc
000001e0: bc56 95bd 99d5 efbb f68b a9bd f8d2 27bc
000001f0: 3426 8ebd 8655 a4bd f227 803d 19e1 ad3d
00000200: 2d08 73bd cbc3 383c 90c6 91bd 8e5e 81bd
00000210: c913 a6bd 1e6f 89bd 696b b13d e9c8 c03c
00000220: 8b44 193d d420 47bd 88ae 093d 408f 063d
00000230: efb2 d53c db5f a43b 22ea 2abd 6932 f83c
00000240: a2e4 883d e067 9ebc 2c2d 963d f42b 743c
00000250: eeb6 ba3c f464 6d3d 2633 6abc 7a96 ae3c
00000260: 6a8b 84bc f860 9abd e95d 653b a98a d93c
00000270: 3f46 e63b c433 9e3c 0a6d a8bc 489c 953d
00000280: b5e9 9cbd 3b3b a9b9 47ea 7a3b ba65 083d
00000290: ef3d 00bd 8b7d 623c 8df6 99bd c22c 0f3d
000002a0: 5492 cfbc 9731 713d 4541 993d a9a6 9a3d
000002b0: 1aac 46bd 8e9e 1f3d 04b8 32bd 8390 393c
000002c0: 7946 fb3c 74ec a0bd 2189 a3bd 4672 d73b
000002d0: ad16 593c ec9c 5ebd 013b 2e3d cb29 6c3d
000002e0: 3dde 8fbc 3ccb 9ebd c7b6 b73c 4fff 3bbd
000002f0: 7070 1fbc e136 a3bc c63a 483d e069 c53c
00000300: 7cc9 83bd 9f77 a4bd 18fa 3abd e7a4 acbd
00000310: 8d1a 363a a7d2 1abd 4f45 06bd 4b7c a2bd
00000320: f1b2 923d d6e5 60bd 93ba f3bc 5a73 833d
00000330: 2164 8cbc 1739 b1bc 8b35 3a3d ee78 19bd
00000340: b87c 753d 638b 9dbb d6c4 333d b9ce 7c3b
00000350: 4660 25bd 0e2e 1ebd 3d07 a23a 80ab afbc
00000360: 0e4d 553d ace7 533d 7689 4abd 609f 45bd
00000370: 6675 8ebc cf8b 963d 58af dcb7 5424 963d
00000380: af66 ee3c 6587 973a 49de 97bd 69d6 f4ba
00000390: a743 63bd 8a54 44bd 8ff6 2c3d 9e16 58bd
000003a0: 77db 3abd 3bf8 943d 594d 0abd cce7 8cbd
000003b0: 4062 d5bc 5c33 84bb e1dc 9ebd 86eb acbd
000003c0: 38a3 a2bd 53e1 16bb 2548 babb bb61 afbd
000003d0: 32c0 71bd 9819 83ba 4639 99bd db88 42bd
000003e0: e8c1 f0bc 3065 a9bd dff9 3cbc fda7 dfbc
000003f0: 81a4 503c a0bd ce3b 6fd2 1b3d c8b0 efbc

sagpool.gnn.lin_rel.weight f4 [1, 128]
-0.07821935 0.04339743 0.053758807 -0.0262637 0.035371657 0.05448394 0.064825304 0.07102882
-0.023070134 -0.027920809 0.06062436 0.066234395 -0.08680909 -0.070762016 -0.06743163 0.06162539
0.021801703 -0.04481825 0.016298437 0.0039096656 0.019319912 -0.032267563 0.03637598 -0.06665403
0.020007417 0.054909192 0.042494237 -0.04992183 -0.026211318 0.079996854 -0.043329764 0.07854124
-0.06955374 -0.0483772 0.0030027404 0.044942766 -0.028261617 -0.021552555 0.04568886 0.057888422
0.008924069 0.012348553 0.08212487 0.036912143 -0.028802317 -0.081742756 -0.043600354 0.025515512
-0.08423118 0.00743545 -0.012398629 -0.061540756 0.047588937 0.042274192 0.0782348 -0.08417925
-0.060361635 0.062833495 -0.06952025 0.08243476 0.066959605 -0.024738647 0.06873512 0.03069229
-0.016112102 0.0073619382 -0.02092809 -0.010089026 0.07127599 -0.08499734 -0.04033391 -0.015122138
-0.03336947 -0.0756412 0.008167919 0.028743392 -0.07042665 0.019311907 0.024014626 -0.02552082
0.06688198 0.014508877 -0.024230542 0.028280633 0.05608705 -0.06233033 -0.0050100805 0.012260488
-0.018741522 0.034633085 0.004051176 0.070833996 -0.028377887 -0.057341587 0.08572139 0.028190793
0.0031585027 0.087406866 -0.062370013 -0.02845842 0.0650939 0.08060209 0.017994095 0.0886602
-0.03397054 0.057853702 -0.07436842 0.02219707 0.058687422 0.020698916 0.052306205 0.011843499
0.038344663 -0.087160505 -0.0013723079 0.025486043 0.0459441 -0.010703794 -0.012514118 -0.08346454
0.048822314 0.039711602 -0.027950756 0.061938427 -0.011082294 0.024354732 0.04012416 0.03785265
00000000: 7731 a0bd 81c1 313d 3232 5c3d f926 d7bc
00000010: dfe1 103d 8d2a 5f3d 21c3 843d 8f77 913d
00000020: 94fd bcbc 2eba e4bc 4051 783d e6a5 873d
00000030: f7c8 b1bd adeb 90bd 9819 8abd e86a 7c3d
00000040: 7c99 b23c 5793 37bd 4d84 853c a71c 803b
00000050: cb44 9e3c fe2a 04bd fbfe 143d e881 88bd
00000060: 98e6 a33c 76e8 603d 700e 2e3d d57a 4cbd
00000070: 1eb9 d6bc 64d5 a33d 8d7a 31bd 3bda a03d
00000080: 3172 8ebd 2c27 46bd a0c9 443b e815 383d
00000090: e884 e7bc fc8e b0bc 3e24 3b3d 691c 6d3d
000000a0: 4236 123c 9651 4a3c 1531 a83d 3031 173d
000000b0: d6f2 ebbc bf68 a7bd 4996 32bd e805 d13c
000000c0: 6681 acbd 13a5 f33b 9f23 4bbc 2912 7cbd
000000d0: 9eec 423d b427 2d3d 9139 a03d 2c66 acbd
000000e0: c33d 77bd d9ae 803d a260 8ebd 8ed3 a83d
000000f0: 1e22 893d b4a8 cabc 00c5 8c3d 666e fb3c
00000100: 87fd 83bc 6a3c f13b 6371 abbc 714c 25bc
00000110: 25f9 913d 1613 aebd 2c35 25bd d8c2 77bc
00000120: 6dae 08bd c6e9 9abd bcd2 053c 4377 eb3c
00000130: d93b 90bd 0134 9e3c 52ba c43c 0a11 d1bc
00000140: 6bf9 883d a4b6 6d3c 217f c6bc c9ac e73c
00000150: 89bb 653d 174e 7fbd 9a2b a4bb 37e0 483c
00000160: d287 99bc 6cdb 0d3d babf 843b 6a11 913d
00000170: be78 e8bc 03df 6abd b28e af3d 61f0 e63c
00000180: e2fe 4e3b 5f02 b33d b377 7fbd a221 e9bc
00000190: f34f 853d b512 a53d 5a68 933c 7b93 b53d
000001a0: b124 0bbd 01f8 6c3d 784e 98bd a1d6 b53c
000001b0: 3962 703d c690 a93c 083f 563d 3c0b 423c
000001c0: 4b0f 1d3d 3581 b2bd 03df b3ba 1bc8 d03c
000001d0: e12f 3c3d f75e 2fbc 0408 4dbc 75ef aabd
000001e0: e8f9 473d a2a8 223d fcf8 e4bc 26b3 7d3d
000001f0: 8392 35bc 9383 c73c 3b59 243d 610b 1b3d

sagpool.gnn.lin_root.weight f4 [1, 128]
-0.06641983 0.07312109 -0.006903819 0.080277056 0.0132545205 -0.0043358137 -0.00984559 -0.08506291
0.023131523 0.06640593 0.027309632 -0.06907138 -0.0059635453 -0.0127197215 0.07642922 -0.0009857762
-0.02771083 -0.07749484 0.022287356 -0.07288653 -0.051828746 0.036098048 -0.057756405 -0.028939037
0.049408592 0.074564695 0.060119607 -0.014558795 0.008738257 0.082620434 -0.014191105 0.086856976
-0.0016105716 0.079831205 -0.058838237 0.021774324 -0.030993313 -0.07807516 -0.052555975 0.010631516
-0.010109257 -0.04625893 0.07760417 -0.052135617 0.0074310205 0.057919074 0.04503208 -0.07971569
0.057117537 0.026430069 -0.072265685 -0.050663207 0.021740604 0.03676251 -0.07305874 -0.06518734
0.015325723 -0.0022399607 0.02840352 0.03490059 -0.020781739 -0.04085793 0.076329306 0.073225275
-0.07506548 -0.008328638 0.05965633 -0.06540122 0.05417608 -0.00689867 -0.07689415 0.018448485
0.051378716 0.023046548 -0.07369936 0.05332185 -0.077117346 -0.07136714 -0.028457941 0.000111564885
0.026785696 0.04585514 -0.08524925 0.037192244 0.036457602 -0.06724277 -0.07078298 0.07000897
0.031355865 -0.08058415 -0.063410565 0.03333714 -0.0020212668 -0.013471901 -0.0041632922 -0.02999269
0.060507674 -0.023897076 -0.057371117 0.059467472 0.020342479 -0.078900196 -0.085167035 0.029357525
-0.072565444 -0.02849603 0.07028192 0.08860175 -0.049269784 -0.0057670213 0.03606372 0.059283912
0.022036897 0.08809716 -0.035257522 -0.0046101296 0.086183734 -0.03835835 -0.0861377 0.03680814
-0.06146661 -0.05002656 0.07240106 0.06786739 0.049412083 0.060746763 -0.085400425 0.025065158
00000000: 1f07 88bd 83c0 953d 6e39 e2bb 4c68 a43d
00000010: 7d29 593c 7113 8ebb 664f 21bc 7735 aebd
00000020: 527e bd3c d5ff 873d 73b8 df3c 4c75 8dbd
00000030: d869 c3bb 6166 50bc ec86 9c3d 2935 81ba
00000040: d301 e3bc 9db5 9ebd f993 b63c 8845 95bd
00000050: 614a 54bd 8cdb 133d fb91 6cbd 8f11 edbc
00000060: aa60 4a3d 60b5 983d fa3f 763d 0388 6ebc
00000070: e82a 0f3c e734 a93d cf81 68bc 12e2 b13d
00000080: d119 d3ba 8b7e a33d 5d00 71bd 1160 b23c
00000090: b0e5 fdbc dfe5 9fbd ef44 57bd cf2f 2e3c
000000a0: 4ca1 25bc 017a 3dbd efee 9e3d 288c 55bd
000000b0: eb7f f33b 8d3c 6d3d 8f73 383d fb41 a3bd
000000c0: 14f4 693d df83 d83c 0800 94bd 3984 4fbd
000000d0: 5a19 b23c 4994 163d d29f 95bd f180 85bd
000000e0: be18 7b3c 4ecc 12bb 80ae e83c ecf3 0e3d
000000f0: 773e aabc a55a 27bd 8a52 9c3d 22f7 953d
00000100: eebb 99bd d774 08bc 325a 743d 13f1 85bd
00000110: bde7 5d3d 3d0e e2bb ae7a 9dbd 4721 973c
00000120: 7d72 523d 1dcc bc3c b1ef 96bd 0368 5a3d
00000130: b3ef 9dbd ef28 92bd a120 e9bc f1f7 e938
00000140: ad6d db3c 99d2 3b3d 2997 aebd e556 183d
00000150: 9154 153d 94b6 89bd abf6 90bd dd60 8f3d
00000160: 026f 003d 4e09 a5bd 66dd 81bd 868c 083d
00000170: 3b77 04bb 40b9 5cbc 3a6c 88bb 3bb3 f5bc
00000180: e5d6 773d cdc3 c3bc fafd 6abd 2a94 733d
00000190: 45a5 a63c 6d96 a1bd 0e6c aebd 317f f03c
000001a0: 319d 94bd 8270 e9bc f8ef 8f3d d674 b53d
000001b0: 1dcf 49bd 48f9 bcbb 8db7 133d b0d3 723d
000001c0: b986 b43c 496c b43d 316a 10bd 9210 97bb
000001d0: 1981 b03d a51d 1dbd f668 b0bd 22c4 163d
000001e0: 69c4 7bbd a6e8 4cbd 0247 943d 0ffe 8a3d
000001f0: 5364 4a3d 99d1 783d 6be6 aebd 7255 cd3c

lin.weight f4 [64, 128]
0.08097277 -0.08707677 -0.028085956 -0.066525 -0.06175063 -0.06060657 -0.04615869 0.0123352595
0.05093655 -0.06888214 0.063440986 0.06627126 -0.039897542 -0.049346335 -0.065493695 0.08673813
0.0466071 -0.041074697 0.034781385 -0.06827865 -0.060374856 0.04769047 -0.019528206 0.085094415
-0.0101340525 -0.08296865 0.006629671 -0.0070351493 0.06501062 -0.020402139 -0.034399133 0.026253099
0.08621791 0.07083969 -0.06163343 -0.020154757 -0.04815695 -0.018280994 0.012010516 -0.017779514
0.040776312 0.06690399 -0.00663163 -0.008765588 0.058888134 0.0042829956 -0.011106703 0.00987806
-0.025701009 -0.042163007 0.040048458 -0.027280888 -0.07730247 -0.08967947 0.0871774 -0.06596252
-0.013347503 -0.029190207 -0.07990882 0.036681417 0.08335179 0.018130885 -0.039272763 -0.064202815
-0.04881889 0.024211759 -0.0019283806 -0.035853855 -0.0492677 0.012385756 0.06487234 0.057745222
0.043419532 0.019987592 -0.07667609 -0.0776494 0.07342032 0.04389791 0.005314433 -0.030726466
0.020836977 -0.052416325 -0.040418826 -0.05315325 -0.037807506 0.006253923 -0.038258996 -0.044772863
-0.0028822534 -0.0912755 0.08563551 -0.0019476743 0.02355438 -0.019120807 -0.07016023 -0.0835621
0.07261779 0.046725992 0.046905637 -0.029339897 0.080765784 0.068361215 -0.0196948 -0.055129465
-0.07572712 -0.026626112 -0.023063721 0.08401182 -0.053562537 -0.008999861 0.08734862 0.0861629
0.07338158 0.047256 -0.023280839 0.05258965 0.0009927446 0.004408316 -0.057643518 -0.008676993
0.059833724 -0.054317333 0.07935463 0.014523777 0.037610583 -0.052912146 0.0537014 -0.016434407
0.017350856 0.03425273 0.06456097 -0.049978722 -0.0787192 0.0796475 0.035182364 0.04365755
-0.0014472968 0.029400311 -0.053407747 -0.07497809 0.029774074 0.0451102 -0.034312595 0.053097628
0.05510236 -0.022310281 -0.039067864 0.04728178 0.035957422 0.0629397 0.07436054 0.017858518
0.07430789 0.044410437 0.02240051 -0.053043142 0.049195435 -0.058402285 -0.04836911 0.008655498
-0.011454019 -0.041539196 -0.019292647 0.061902992 -0.08236088 0.006108535 -0.0038208207 0.0013134796
-0.0006620999 0.0399143 0.0465405 -0.023185233 0.05479329 -0.0059608677 0.015919628 0.028972156
-0.08751563 -0.08230677 -0.03770184 0.029122079 0.016951023 0.021206252 -0.016496046 0.0045020143
-0.074846484 0.040331457 -0.02879629 0.08682293 -0.017612867 -0.084954344 0.023025215 0.048579052
0.0254102 0.025453297 0.07797826 0.044160854 0.0845179 -0.05775517 0.0884357 -0.054207437
-0.036856823 -0.08473317 0.061719142 -0.057647362 -0.034555115 -0.03557258 0.043201346 -0.005655843
-0.0057295053 0.029057488 -0.045753077 -0.0519791 -0.03937999 -0.038481195 0.015739555 -0.0618248
0.047127597 0.08234795 -0.005698284 -0.041150786 0.003859444 -0.033828538 -0.0814599 -0.044845402
-0.059902582 0.004645308 -0.058749933 0.015573502 -0.08113649 -0.03976434 -0.0700794 0.030393476
-0.047261816 0.08600256 -0.0067984113 -0.04854973 -0.015167411 0.07789538 -0.07594437 -0.038267914
0.07708318 -0.003513123 -0.017378082 0.024516284 0.04370611 -0.03914861 0.087719 0.020829007
0.009207912 0.0059588393 -0.0142536815 0.004657625 -0.04192763 -0.014701451 -0.047639057 -0.007162044
00000000: 0dd5 a53d 4e55 b2bd 8514 e6bc 423e 88bd
00000010: 3bee 7cbd 983e 78bd e510 3dbd d419 4a3c
00000020: d8a2 503d 1412 8dbd 59ed 813d 3ab9 873d
00000030: 9b6b 23bd 621f 4abd 8f21 86bd c3a3 b13d
00000040: 16e7 3e3d f13d 28bd ed76 0e3d add5 8bbd
00000050: a04b 77bd 1557 433d 9ef9 9fbc fb45 ae3d
00000060: 4c09 26bc 78eb a9bd b63d d93b 1c87 e6bb
00000070: 4a24 853d 6322 a7bc 1be6 0cbd bd10 d73c
00000080: 0493 b03d 6614 913d 5673 7cbd 971b a5bc
00000090: 3940 45bd 06c2 95bc c1c7 443c 58a6 91bc
000000a0: 1005 273d f604 893d 254e d9bb 8a9d 0fbc
000000b0: af34 713d 5f58 8c3b e4f8 35bc 96d7 213c
000000c0: ec8a d2bc 1eb3 2cbd da09 243d 2b7c dfbc
000000d0: c250 9ebd dfa9 b7bd 118a b23d 5c17 87bd
000000e0: 7caf 5abc 4d20 efbc 3ca7 a3bd 413f 163d
000000f0: 58b4 aa3d 3987 943c 7adc 20bd c47c 83bd
00000100: 51f6 47bd bd57 c63c b7c1 fcba 7edb 12bd
00000110: eecc 49bd a0ed 4a3c cadb 843d 4186 6c3d
00000120: aed8 313d 05bd a33c 5b08 9dbd a606 9fbd
00000130: 655d 963d 4bce 333d b224 ae3b 12b6 fbbc
00000140: 4fb2 aa3c 80b2 56bd 368e 25bd 39b7 59bd
00000150: 0bdc 1abd b5ed cc3b 77b5 1cbd c063 37bd
00000160: 30e4 3cbb a6ee babd ac61 af3d 1b49 ffba
00000170: 1df5 c03c 3da3 9cbc 2bb0 8fbd 9b22 abbd
00000180: a3b8 943d c163 3f3d 2020 403d 395a f0bc
00000190: 8868 a53d f700 8c3d fd56 a1bc 6fcf 61bd
000001a0: d216 9bbd 011f dabc 21f0 bcbc 640e ac3d
000001b0: 6464 5bbd 2774 13bc d5e3 b23d 2d76 b03d
000001c0: 1549 963d 828f 413d 75b7 bebc 3f68 573d
000001d0: fb1e 823a a373 903b 9c1b 6cbd f229 0ebc
000001e0: 3514 753d da7b 5ebd ae84 a23d 23f5 6d3c
000001f0: 8e0d 1a3d 68ba 58bd 00f6 5b3d 73a1 86bc
00000200: 6223 8e3c 974c 0c3d 8b38 843d 7db6 4cbd
00000210: 8837 a1bd 3a1e a33d 621b 103d 42d2 323d
00000220: 39b3 bdba ecd8 f03c 15c2 5abd 1d8e 99bd
00000230: c2e8 f33c 79c5 383d 5d8b 0cbd e67c 593d
00000240: 03b3 613d 0dc4 b6bc a005 20bd 8aaa 413d
00000250: 1748 133d 88e6 803d 574a 983d 074c 923c
00000260: bc2e 983d b8e7 353d 4681 b73c c443 59bd
00000270: 2781 493d 3c37 6fbd b01e 46bd cacf 0d3c
00000280: a3a9 3bbc 0125 2abd 9d0b 9ebc fe8d 7d3d
00000290: d2ac a8bd 1b2a c83b bc66 7abb 1029 ac3a
000002a0: c690 2dba 2d7d 233d 40a1 3e3d f5ee bdbc
000002b0: ee6e 603d 6253 c3bb e169 823c 0457 ed3c
000002c0: 653b b3bd 7490 a8bd 3f6d 1abd 6d91 ee3c
000002d0: dfdc 8a3c bcb8 ad3c b722 87bc a285 933b
000002e0: 1d49 99bd 9932 253d 32e6 ebbc 38d0 b13d
000002f0: dc48 90bc 8bfc adbd 609f bc3c d4fa 463d
00000300: 0d29 d03c 6f83 d03c 11b3 9f3d 03e2 343d
00000310: b917 ad3d af90 6cbd c71d b53d 9e08 5ebd
00000320: 2ef7 16bd 9688 adbd 36cd 7c3d a41f 6cbd
00000330: aa89 0dbd 8eb4 11bd e5f3 303d a654 b9bb
00000340: 93be bbbb f809 ee3c 9467 3bbd 09e8 54bd
00000350: ea4c 21bd 759e 1dbd 3df0 803c 003c 7dbd
00000360: de08 413d 0ba6 a83d acb8 babb ba8d 28bd
00000370: baee 7c3b cb8f 0abd 73d4 a6bd d0af 37bd
00000380: 695c 75bd ab37 983b c5a3 70bd 0028 7f3c
00000390: e32a a6bd efdf 22bd ca85 8fbd bdfb f83c
000003a0: 9b95 41bd 1c22 b03d 35c5 debb 15dc 46bd
000003b0: bc80 78bc 9d87 9f3d b988 9bbd d1be 1cbd
000003c0: c9dd 9d3d 6c3c 66bb 7b5c 8ebc 60d6 c83c
000003d0: 2e05 333d 4b5a 20bd 05a6 b33d 98a1 aa3c
000003e0: c8dc 163c 5e42 c33b 4688 69bc fe9e 983b
000003f0: 4ebc 2bbd 5bde 70bc 2c21 43bd 94af eabb

lin.bias f4 [64]
-0.00809238 0.06403412 0.016094087 0.059466124 0.030045765 0.045080837 -0.0004761742 -0.018436808
0.04748394 -0.061720286 -0.07200386 -0.052015964 0.02906131 0.061356995 -0.00794029 0.030552486
0.029277174 0.031835277 0.048462972 -0.02586709 0.08462754 0.086315654 0.03119407 0.056254968
-0.06130156 0.05285344 -0.04300811 -0.024511535 -0.051450662 0.045267746 -0.01585434 -0.060470678
-0.032325454 -0.08377738 -0.05261214 0.06871893 -0.071692616 0.0070196083 0.039406992 -0.07986955
0.029058538 0.079096735 -0.041987043 0.04497362 -0.08373173 -0.053890646 0.07764206 0.07074866
-0.0566764 0.07716607 -0.021861358 -0.015160877 0.06947215 -0.07204988 0.031434488 0.078907974
0.08658914 0.01838986 0.046446946 -0.018081909 0.0064243213 -0.02608219 0.014707874 -0.033488967
00000000: e795 04bc 5224 833d bfd7 833c c092 733d
00000010: 8922 f63c afa6 383d 05a7 f9b9 ca08 97bc
00000020: 857e 423d 69ce 7cbd c276 93bd b10e 55bd
00000030: fc11 ee3c 7951 7b3d fd17 02bc 3549 fa3c
00000040: afd6 ef3c b565 023d 1c81 463d 38e7 d3bc
00000050: 3451 ad3d 43c6 b03d b58a ff3c 9c6b 663d
00000060: 5817 7bbd d97c 583d 4629 30bd 6acc c8bc
00000070: eebd 52bd ac6a 393d f6e0 81bc 1ab0 77bd
00000080: b267 04bd 7a93 abbd d47f 57bd 83bc 8c3d
00000090: 94d3 92bd be04 e63b 3a69 213d a692 a3bd
000000a0: 2c0c ee3c 78fd a13d 9bfa 2bbd 4236 383d
000000b0: 8b7b abbd 70bc 5cbd cd02 9f3d ace4 903d
000000c0: 8325 68bd 3f09 9e3d 9716 b3bc 5465 78bc
000000d0: 6a47 8e3d e38e 93bd 73c1 003d 819a a13d
000000e0: a655 b13d 55a6 963c 273f 3e3d 8320 94bc
000000f0: 1d83 d23b 51aa d5bc 4bf9 703c ba2b 09bd

fc.weight f4 [1, 64]
-0.03492101 0.11109224 -0.09940411 -0.05828849 0.117047116 0.06962547 0.094215885 0.054763116
-0.062473677 0.07217898 0.0002729303 0.0016695277 -0.07427764 -0.06386426 0.1005624 0.058085322
-0.04601433 -0.072878644 0.0027893288 0.020597339 -0.013667227 0.1266888 0.00018378143 0.04884603
0.124707416 0.100107096 -0.08908416 -0.040086456 0.05389044 0.02707764 -0.0069383597 0.05626075
-0.071193166 -0.029328696 -0.11364401 -0.028967518 -0.08819478 -0.010580122 -0.097915776 0.07594454
-0.09545446 -0.0592969 -0.021712154 0.123942904 -0.0156718 -0.0031843304 0.11683138 -0.108239986
0.025294563 0.119256735 0.08277964 -0.06974288 0.008574228 0.053276382 0.021714024 -0.06932655
0.054256998 0.07660093 0.12619387 -0.09336669 0.063207015 -0.08292918 -0.07138694 -0.06251431
00000000: 5509 0fbd 5484 e33d 6294 cbbd e9bf 6ebd
00000010: 66b6 ef3d cc97 8e3d 42f4 c03d 4a4f 603d
00000020: 66e4 7fbd 93d2 933d 1618 8f39 0ed4 da3a
00000030: e01e 98bd 44cb 82bd a9f3 cd3d e0ea 6d3d
00000040: 8679 3cbd 6641 95bd 2ccd 363b c0bb a83c
00000050: 81ec 5fbc b5ba 013e 74b5 4039 c612 483d
00000060: 9a66 ff3d f304 cd3d c271 b6bd b231 24bd
00000070: 39bc 5c3d edd1 dd3c 2e5b e3bb ac71 663d
00000080: b9cd 91bd bc42 f0bc 31be e8bd 4a4d edbc
00000090: 779f b4bd 3f58 2dbc 1188 c8bd d088 9b3d
000000a0: a17d c3bd 4ee1 72bd b0dd b1bc c7d5 fd3d
000000b0: 2662 80bc 33b0 50bb 4a45 ef3d edac ddbd
000000c0: 8b36 cf3c e03c f43d 5f88 a93d 5bd5 8ebd
000000d0: eb7a 0c3c 5638 5a3d 9ce1 b13c 14fb 8dbd
000000e0: 963c 5e3d f3e0 9c3d f738 013e 0937 bfbd
000000f0: ae72 813d c6d6 a9bd 5133 92bd 8107 80bd

gcn_batch_norm.weight f4 [128]
1.0 1.0 1.0 1.0 1.0 1.0 1.0 1.0
1.0 1.0 1.0 1.0 1.0 1.0 1.0 1.0
1.0 1.0 1.0 1.0 1.0 1.0 1.0 1.0
1.0 1.0 1.0 1.0 1.0 1.0 1.0 1.0
1.0 1.0 1.0 1.0 1.0 1.0 1.0 1.0
1.0 1.0 1.0 1.0 1.0 1.0 1.0 1.0
1.0 1.0 1.0 1.0 1.0 1.0 1.0 1.0
1.0 1.0 1.0 1.0 1.0 1.0 1.0 1.0
1.0 1.0 1.0 1.0 1.0 1.0 1.0 1.0
1.0 1.0 1.0 1.0 1.0 1.0 1.0 1.0
1.0 1.0 1.0 1.0 1.0 1.0 1.0 1.0
1.0 1.0 1.0 1.0 1.0 1.0 1.0 1.0
1.0 1.0 1.0 1.0 1.0 1.0 1.0 1.0
1.0 1.0 1.0 1.0 1.0 1.0 1.0 1.0
1.0 1.0 1.0 1.0 1.0 1.0 1.0 1.0
1.0 1.0 1.0 1.0 1.0 1.0 1.0 1.0
00000000: 0000 803f 0000 803f 0000 803f 0000 803f
00000010: 0000 803f 0000 803f 0000 803f 0000 803f
00000020: 0000 803f 0000 803f 0000 803f 0000 803f
00000030: 0000 803f 0000 803f 0000 803f 0000 803f
00000040: 0000 803f 0000 803f 0000 803f 0000 803f
00000050: 0000 803f 0000 803f 0000 803f 0000 803f
00000060: 0000 803f 0000 803f 0000 803f 0000 803f
00000070: 0000 803f 0000 803f 0000 803f 0000 803f
00000080: 0000 803f 0000 803f 0000 803f 0000 803f
00000090: 0000 803f 0000 803f 0000 803f 0000 803f
000000a0: 0000 803f 0000 803f 0000 803f 0000 803f
000000b0: 0000 803f 0000 803f 0000 803f 0000 803f
000000c0: 0000 803f 0000 803f 0000 803f 0000 803f
000000d0: 0000 803f 0000 803f 0000 803f 0000 803f
000000e0: 0000 803f 0000 803f 0000 803f 0000 803f
000000f0: 0000 803f 0000 803f 0000 803f 0000 803f
00000100: 0000 803f 0000 803f 0000 803f 0000 803f
00000110: 0000 803f 0000 803f 0000 803f 0000 803f
00000120: 0000 803f 0000 803f 0000 803f 0000 803f
00000130: 0000 803f 0000 803f 0000 803f 0000 803f
00000140: 0000 803f 0000 803f 0000 803f 0000 803f
00000150: 0000 803f 0000 803f 0000 803f 0000 803f
00000160: 0000 803f 0000 803f 0000 803f 0000 803f
00000170: 0000 803f 0000 803f 0000 803f 0000 803f
00000180: 0000 803f 0000 803f 0000 803f 0000 803f
00000190: 0000 803f 0000 803f 0000 803f 0000 803f
000001a0: 0000 803f 0000 803f 0000 803f 0000 803f
000001b0: 0000 803f 0000 803f 0000 803f 0000 803f
000001c0: 0000 803f 0000 803f 0000 803f 0000 803f
000001d0: 0000 803f 0000 803f 0000 803f 0000 803f
000001e0: 0000 803f 0000 803f 0000 803f 0000 803f
000001f0: 0000 803f 0000 803f 0000 803f 0000 803f
