All_Benchmarking/DATA_17/Results/f1/best_model.pth (torch, 192098 bytes, 32 tensors)

gat1.att_src f4 [1, 4, 32]
0	0xbe9626d7	-0.29326507
1	0xbdcd1fd2	-0.10015835
2	0xbd1f4dae	-0.03889244
3	0xbe6cd7b8	-0.23129165
4	0xbe9ac051	-0.3022485
5	0x3e8eb1c3	0.27869996
6	0x3e8f7f08	0.28026605
7	0xbec02190	-0.37525606
8	0x3e052904	0.13003927
9	0x3e2aae28	0.16667998
10	0x3ec6396f	0.38715693
11	0x3e67bb5c	0.22630066
12	0x3ebcc324	0.3686763
13	0xbe0d3902	-0.13791278
14	0x3e8ed3cd	0.27895966
15	0x3ea9b8be	0.3314876
16	0xbec1fbec	-0.37887514
17	0xbea7f7d9	-0.3280628
18	0x3da22b4d	0.07918415
19	0x3e5f6865	0.21817167
20	0xbe45bc7d	-0.19310184
21	0x3d2ff6c3	0.04295994
22	0xbb79fdc9	-0.0038145653
23	0x3dcd1aab	0.10014852
24	0xbe562603	-0.20912938
25	0x3e68fa19	0.22751655
26	0x3e8a9652	0.2706781
27	0xbe905f3f	-0.28197667
28	0x3bdba255	0.006702701
29	0xbbfc80f8	-0.007705804
30	0x3dfb65db	0.12275287
31	0x3ec0bac7	0.376425
32	0x3df2f925	0.11863927
33	0xbdb585f8	-0.08863443
34	0x3ebbbe1d	0.36668482
35	0xbe1cc1ed	-0.15308352
36	0xbdf3f76c	-0.11912426
37	0x3cdd763e	0.027033921
38	0xbe9fa327	-0.31179163
39	0x3d351e1f	0.04421818
40	0xbe8fbf6b	-0.28075728
41	0x3d19e576	0.037572347
42	0x3d170179	0.03686664
43	0x3d509fbb	0.05093358
44	0xbeaf8b17	-0.34285805
45	0xbec5eeb7	-0.38658687
46	0x3e41b3c8	0.18916237
47	0x3eb37d50	0.35056543
48	0xbebbf9cc	-0.36714017
49	0x3e19d69e	0.15023276
50	0xbe9e6da9	-0.3094304
51	0x3cc0ffa1	0.023559393
52	0x3ec2f688	0.38078713
53	0x3e9ee54d	0.31034318
54	0xbe97121f	-0.29506013
55	0x3e826afe	0.25472254
56	0x3e5872b3	0.21137504
57	0x3a9bef4c	0.0011896878
58	0x3ec8f802	0.39251715
59	0xbe245d8d	-0.16051312
60	0xbdaf2a96	-0.085530445
61	0xbe5b1e7a	-0.21398345
62	0x3d737c6f	0.05944484
63	0x3ddb6b2e	0.10713802
64	0x3d1e2e2f	0.038618263
65	0xbe657f68	-0.22411883
66	0xbe3fd865	-0.18734892
67	0x3e07fb3a	0.13279429
68	0xbeb7712c	-0.3582853
69	0xbd89cfeb	-0.0672911
70	0xbc247c1a	-0.010039354
71	0xbe28bc64	-0.16478115
72	0x3e1c8707	0.15285884
73	0x3d038a55	0.032114346
74	0x3e941dea	0.28929073
75	0xbd28a908	-0.041176826
76	0xbe838e84	-0.25694668
77	0x3e96da5d	0.29463473
78	0x3d63fe64	0.055662528
79	0xbde34f4f	-0.11099111
80	0xbe87e925	-0.26545063
81	0x3db8ca81	0.090229996
82	0xbec4a8f0	-0.3841014
83	0x3de72582	0.11286451
84	0x3e4970cc	0.19671935
85	0xbeba4c63	-0.36386403
86	0xbe85d636	-0.26139992
87	0xbe986222	-0.2976237
88	0x3eb0f9f7	0.34565708
89	0x3eb4c1c8	0.35304093
90	0x3d000a2d	0.031259704
91	0x3ec124c5	0.37723365
92	0xbe057431	-0.13032605
93	0xbecd99b6	-0.40156335
94	0x3e132097	0.14367901
95	0x3e0e2818	0.13882482
96	0x3eca837f	0.3955345
97	0xba62b029	-0.0008647466
98	0x3ea1e5d7	0.31620666
99	0x3e8028fb	0.25031266
100	0x3e960760	0.29302502
101	0xbecf8901	-0.40534213
102	0x3eb0d2c8	0.34535813
103	0xbeb22483	-0.3479348
104	0x3ebd7897	0.37006065
105	0xbcad0b8d	-0.021123672
106	0xbebefba5	-0.37301365
107	0x3dec4b80	0.11537838
108	0xbda55f1b	-0.080747806
109	0xbebd8a73	-0.3701969
110	0xbe0e8d52	-0.13921097
111	0x3d35e37c	0.0444064
112	0x3ea58400	0.3232727
113	0xbdfd578f	-0.12370216
114	0x3e74b2f3	0.23896389
115	0x3d5da3f5	0.05411144
116	0x3c74ffc5	0.014953558
117	0x3dacfade	0.084462866
118	0xbe8f2e45	-0.27964988
119	0xbeb05d0a	-0.34445983
120	0xbe07bae6	-0.1325489
121	0xbec4ff82	-0.38476187
122	0xbe466cdc	-0.19377464
123	0x3c8d5bdd	0.017255718
124	0xbe88e5c0	-0.26737785
125	0xbe2f299c	-0.17105716
126	0xbd8b83fb	-0.06812283
127	0xbd3ac170	-0.045594633

gat1.att_dst f4 [1, 4, 32]
0	0xbe66e35e	-0.22547671
1	0x3ca26b50	0.019826561
2	0xbd6b8b41	-0.05750585
3	0x3def9490	0.11698258
4	0x3c98ddb2	0.0186604
5	0xbe509f0c	-0.20373172
6	0xbe10264c	-0.14077109
7	0xbb99f036	-0.004697825
8	0xbe825a74	-0.25459635
9	0x3d02a9b4	0.031900123
10	0xbcea62ac	-0.028611504
11	0x3e222bcb	0.15837018
12	0x3dc5ed1f	0.09664368
13	0x3e9c6cc1	0.30551723
14	0xbc5cf5cf	-0.01348634
15	0xbe9a473a	-0.30132467
16	0x3e3b27ff	0.18276976
17	0xbe8d1961	-0.27558425
18	0xbd65d2e5	-0.056109328
19	0xbe0758f4	-0.13217527
20	0xbe1ea392	-0.15492085
21	0xbe1a8f2e	-0.15093681
22	0x3ec0216e	0.37525505
23	0x3e6f3f92	0.23364094
24	0x3de7c868	0.11317521
25	0x3ec457f3	0.3834835
26	0xbebd476f	-0.36968562
27	0x3d86a3e1	0.06574226
28	0x3e85c473	0.2612644
29	0x3e8adb9c	0.27120674
30	0xbea65a97	-0.3249099
31	0x3e14b551	0.14522292
32	0xbe6e36c7	-0.23263083
33	0xbc82e954	-0.0159804
34	0xbdae6c6a	-0.08516772
35	0xbeae833d	-0.34084502
36	0xbec76697	-0.38945457
37	0xbe898a27	-0.26863214
38	0x3e3da22c	0.18518895
39	0x3e3f38e2	0.18674043
40	0xbeb5cde5	-0.35508648
41	0xbe1cfbca	-0.15330425
42	0x3bd935e8	0.0066287406
43	0xbeb4b6af	-0.35295627
44	0x3e6b90ae	0.2300441
45	0x3ebd49b5	0.36970297
46	0x3d93dc64	0.072197706
47	0xbe9b51e4	-0.30335915
48	0x3dc2f8b3	0.09520092
49	0x3e17c1f1	0.14820077
50	0x3ea5877d	0.32329932
51	0xbe5e7348	-0.21723664
52	0xbebb3817	-0.3656623
53	0x3e37aba3	0.17936568
54	0x3cd057dc	0.02543252
55	0xbe08328f	-0.13300537
56	0xbe2f2ab2	-0.1710613
57	0xbe57833f	-0.2104616
58	0x3ea93056	0.3304469
59	0xbd903cdb	-0.07042857
60	0x3e96ba90	0.2943921
61	0x3eba9a3b	0.36445794
62	0x3d54102c	0.051773235
63	0x3db21132	0.08694686
64	0xbd02a0f3	-0.031891774
65	0x3e906241	0.28199962
66	0xbebe04fc	-0.37113178
67	0x3e27781c	0.16354412
68	0xbd809369	-0.06278116
69	0x3e42b5c0	0.19014645
70	0xbbafdf99	-0.005367231
71	0xbe16c7ab	-0.14724605
72	0xbd27cf17	-0.04096898
73	0x3e658277	0.2241305
74	0xbe8f81dc	-0.28028762
75	0xbe823a7f	-0.25435254
76	0xbdc3b722	-0.09556414
77	0xbe1ad4cc	-0.15120238
78	0x3e2a0fad	0.16607542
79	0x3e8bbabf	0.27290913
80	0xbd442f14	-0.04789646
81	0x3ec6e809	0.38848904
82	0xbe31c549	-0.17360415
83	0xbe677b02	-0.22605518
84	0xbe3a520e	-0.18195364
85	0xbe8e3673	-0.27775916
86	0xbe92d688	-0.286793
87	0xbeb74ae5	-0.35799327
88	0xbebb0dc3	-0.36533937
89	0x3ddb78f0	0.10716426
90	0x3e7acaca	0.2449142
91	0x3ec5e819	0.3865364
92	0x3eafceba	0.34337407
93	0xbcd1580f	-0.025554685
94	0x3da8d4ad	0.0824369
95	0xbe767f08	-0.24071896
96	0x3e2170dc	0.15765709
97	0xbec87bee	-0.3915705
98	0x3e451783	0.1924725
99	0x3d995331	0.074865706
100	0x3e0062fb	0.12537758
101	0x3e1929dc	0.14957374
102	0xbe40011c	-0.18750423
103	0x3eb350fa	0.35022718
104	0x3e479734	0.19491273
105	0x3e895937	0.26825878
106	0x3d5c7415	0.053821642
107	0x3e834d2d	0.25644818
108	0x3e8ca63c	0.27470577
109	0x3e3d6157	0.18494163
110	0x3e9f2f86	0.31090945
111	0xbd978846	-0.07399039
112	0x3e897bf7	0.2685239
113	0x3dc07283	0.093968414
114	0x3e7b9dbd	0.24571891
115	0x3ecba7a4	0.39776337
116	0x3dbd1dfe	0.09234236
117	0xbe1b44a0	-0.15162897
118	0xbd26c350	-0.04071361
119	0x3deb1bbf	0.114799015
120	0x3d8cc196	0.06872861
121	0xbde442c4	-0.11145547
122	0x3ea3d004	0.3199464
123	0x3e7b4056	0.24536261
124	0xbe81df69	-0.2536576
125	0xbd07ea8a	-0.03318266
126	0xbd200781	-0.039069656
127	0xbe830a7d	-0.2559394

gat1.bias f4 [128]
0	0x382fa488	4.1876483e-05
1	0x3939badf	0.0001771259
2	0xb9d8892a	-0.00041300926
3	0x38f20346	0.00011540069
4	0x39058758	0.00012734288
5	0x39cfc7e3	0.00039631044
6	0x3973781d	0.00023219032
7	0x3914019a	0.00014114977
8	0xb9aeb7fa	-0.0003332494
9	0x398c8233	0.00026799887
10	0xb97dbcc4	-0.00024198281
11	0x39e4f779	0.0004367193
12	0x3a5e03ae	0.0008469176
13	0xba256358	-0.0006309054
14	0xba0aea33	-0.00052991806
15	0xb8a56076	-7.88578e-05
16	0x38891921	6.53735e-05
17	0x390eaa4b	0.00013605614
18	0x38b0a5c3	8.4232095e-05
19	0x39ade7de	0.00033169886
20	0xb9e38ed0	-0.00043403218
21	0x39ec06fb	0.0004501863
22	0xb8af77d0	-8.366967e-05
23	0xb8f36db8	-0.0001160758
24	0xb9971438	-0.00028816028
25	0xb9a9ce75	-0.00032388014
26	0xb9ef2f15	-0.0004562071
27	0x3986e0d8	0.00025725993
28	0x39e04820	0.00042778347
29	0xb98bff13	-0.0002670219
30	0x3871b347	5.7625843e-05
31	0xba7f582b	-0.0009740616
32	0x399b9bef	0.00029680083
33	0x388e6eeb	6.791748e-05
34	0x38aad5be	8.146044e-05
35	0x399c7c10	0.00029847072
36	0xb97bb7e0	-0.00024005724
37	0x398b36f2	0.00026553083
38	0xb984294a	-0.00025207765
39	0x3826efe6	3.9800907e-05
40	0x39159f6f	0.00014269141
41	0xb815b1d0	-3.568997e-05
42	0x3a36d830	0.00069749635
43	0xb91d50b6	-0.00015002754
44	0xb95b9558	-0.00020941102
45	0x3a2b2265	0.00065282575
46	0x392ae5c7	0.00016298062
47	0x3857ecdf	5.1480598e-05
48	0x3906125b	0.00012786074
49	0xb9472138	-0.00018990494
50	0xb94866de	-0.00019111807
51	0x39cc7631	0.00038997972
52	0xb9927a90	-0.00027938606
53	0xba45ab8e	-0.0007540517
54	0xb968930e	-0.00022180026
55	0x38edea70	0.00011344708
56	0x393a38e8	0.00017759542
57	0xba6a02f5	-0.0008926832
58	0x3a0bf334	0.0005338669
59	0x36e4e972	6.822106e-06
60	0xb81633a4	-3.581088e-05
61	0x394fa596	0.00019802744
62	0x399c07fe	0.00029760593
63	0x387ddef5	6.0527545e-05
64	0xb99e5438	-0.00030198856
65	0xb7bd4b76	-2.2565695e-05
66	0x39551743	0.00020321929
67	0xb9035041	-0.0001252303
68	0x390c86ad	0.00013401611
69	0xb8833dce	-6.258079e-05
70	0xba3020a2	-0.000671873
71	0xb9b19887	-0.00033873713
72	0x39796605	0.00023784496
73	0x3954a842	0.00020280576
74	0x38d9a084	0.00010377265
75	0xb8d5bf56	-0.000101922706
76	0x39c37a52	0.00037284434
77	0x38e0512a	0.0001069627
78	0xba6d50ab	-0.0009052853
79	0x398e5c76	0.0002715324
80	0xba3e9590	-0.00072702114
81	0x39cf48d2	0.00039536372
82	0x38e10956	0.00010730575
83	0xb9f74f21	-0.00047170467
84	0x38ec6634	0.00011272394
85	0x3a8f1d49	0.0010918762
86	0x391b786c	0.00014826813
87	0x3a1e0cf2	0.00060291507
88	0xb75af43a	-1.3050676e-05
89	0x3993a13f	0.00028158163
90	0x37ec0ffa	2.8140832e-05
91	0xb7cdb742	-2.452324e-05
92	0x399643ca	0.00028660736
93	0x38d03718	9.928475e-05
94	0x39dbdda0	0.0004193606
95	0xb98e1cc2	-0.00027105777
96	0x39ef4816	0.0004563934
97	0x384ac880	4.8347283e-05
98	0xb9a79f07	-0.00031971207
99	0xb9a20494	-0.0003090246
100	0xb9bf5f64	-0.0003650143
101	0x38ac3616	8.2116734e-05
102	0xb9ac4470	-0.00032857386
103	0x3a21ed47	0.00061770197
104	0xb940328a	-0.00018329374
105	0x39873529	0.00025788814
106	0x392a835e	0.00016261401
107	0xb8ae06dd	-8.298245e-05
108	0x38864b89	6.4036874e-05
109	0xb975e583	-0.0002345052
110	0xb7b78d4c	-2.1881096e-05
111	0xb9abad04	-0.00032744568
112	0x38a7d89f	8.0035294e-05
113	0x391a5e79	0.00014721778
114	0x39955113	0.000284799
115	0x378a8283	1.6511656e-05
116	0xb62f87c4	-2.6156058e-06
117	0xb8aba67f	-8.184928e-05
118	0xb9f6a80e	-0.00047045987
119	0xb798151f	-1.8129647e-05
120	0x39211661	0.00015362493
121	0xb9caedf6	-0.00038705737
122	0xb9654394	-0.00021864317
123	0x3a502c33	0.00079411565
124	0xb9d3380b	-0.0004028681
125	0x389fccc8	7.619854e-05
126	0x39566fce	0.00020450281
127	0x3a0d34ef	0.0005386611

gat1.lin.weight f4 [128, 5]
0	0x3d2b83ba	0.04187367
1	0xbe4704f2	-0.1943548
2	0x3e3da1c7	0.18518744
3	0x3e044762	0.12917855
4	0xbe5c1603	-0.21492772
5	0xbdcf7b3a	-0.101309255
6	0x3d89a2fc	0.0672054
7	0xbd2ea2c2	-0.042635687
8	0xbcc95aee	-0.024579491
9	0xbdc9aff1	-0.09848011
10	0x3e299d8f	0.1656401
11	0xbdf24325	-0.11829213
12	0x3e39061a	0.18068734
13	0x3c53c69a	0.012925768
14	0x3d16f93b	0.03685878
15	0x3e2b48c8	0.16726983
16	0xbd1687a9	-0.03675047
17	0xbdf4237c	-0.119208306
18	0xbd0ac908	-0.033883125
19	0x3e337b0e	0.1752741
20	0xbe1fe4ba	-0.15614596
21	0x3d4af76b	0.049552362
22	0xbe574d52	-0.21025589
23	0x3ddee8f4	0.10884276
24	0x3daaf254	0.08347002
25	0x3c0dd1c5	0.00865597
26	0x3db83f87	0.08996492
27	0x3ab2da41	0.0013645367
28	0x3df277eb	0.11839279
29	0xbe319d94	-0.17345268
30	0xbcf79470	-0.030222148
31	0x3dbcea8d	0.092244245
32	0x3e5b0d2c	0.21391743
33	0x3dde89ea	0.10866149
34	0xbe1e94fc	-0.1548652
35	0x3e235b49	0.15952791
36	0xbd3fb9a3	-0.046807896
37	0xbd365ff9	-0.04452512
38	0xbe475b41	-0.19468404
39	0xbcfa5aac	-0.030560814
40	0x3e162f80	0.14666557
41	0x3d0749bc	0.033029303
42	0xbe00baa4	-0.12571198
43	0x3d7d04cf	0.061772164
44	0xbd97b3fb	-0.074073754
45	0x3e448949	0.19192995
46	0xbe3c20a7	-0.18371831
47	0xbd890502	-0.06690408
48	0xbe51ba31	-0.20481183
49	0xbdc0e127	-0.094179444
50	0x3d8fa106	0.07013135
51	0x3e4e53cd	0.20149155
52	0x3d0a6105	0.03378393
53	0x3e58837a	0.21143904
54	0x3d0fab66	0.035075568
55	0x3dfcf03c	0.123505086
56	0x3e2d61d9	0.16931857
57	0x3e3631ba	0.17792407
58	0xbdea7714	-0.114484936
59	0x3e4997dd	0.19686837
60	0x3e01a5ee	0.12660953
61	0xbdce9225	-0.100864686
62	0xbdcc871f	-0.0998671
63	0xbe34c322	-0.17652562
64	0x3d708266	0.058718108
65	0xbe2e6375	-0.17030127
66	0x3db7821a	0.08960362
67	0x3d890e96	0.06692235
68	0xbe3ce7c8	-0.18447793
69	0x3d82054d	0.06348667
70	0xbc93c8dd	-0.018040115
71	0x3dc25c1c	0.09490225
72	0x3dfdff91	0.12402261
73	0xbe54f3fd	-0.20796199
74	0x3e40a0b0	0.18811297
75	0x3e32bbe0	0.17454481
76	0x3db35701	0.08756829
77	0xbe45511c	-0.19269222
78	0xbda1a6be	-0.07893132
79	0xbd93a1cd	-0.072085954
80	0xbd49c67d	-0.04926156
81	0x3df81cca	0.12114866
82	0x3d95e1d6	0.073184654
83	0x3e325c87	0.17418109
84	0xbd990456	-0.0747153
85	0x3d9b64ec	0.07587609
86	0x3d940473	0.07227411
87	0xbe36a1f0	-0.17835212
88	0xbe509b81	-0.2037182
89	0xbde2f299	-0.11081428
90	0x3e0ec813	0.1394351
91	0xbe4f9225	-0.20270593
92	0xbe39a6d1	-0.18130042
93	0x3df08541	0.11744166
94	0x3e00a647	0.1256343
95	0x3e39a0fa	0.18127814
96	0xbe217870	-0.157686
97	0xbe21e8a9	-0.15811409
98	0x3dd02078	0.10162443
99	0x3e368632	0.17824629
100	0x3df70fd5	0.120635666
101	0x3d1400a7	0.036133435
102	0x3d915206	0.07095723
103	0x3e47ff5a	0.19531003
104	0xbe17cb36	-0.14823613
105	0xbdc51c75	-0.096245684
106	0x3e189681	0.14901163
107	0xbe168735	-0.14700015
108	0xbdeaa681	-0.11457539
109	0x3e196785	0.14980896
110	0x3d7a6fb9	0.061141703
111	0x3d9b5fbf	0.075866215
112	0xbdb047dd	-0.08607457
113	0xbc148806	-0.009065634
114	0x3e45a2c1	0.19300367
115	0xbdfc72d8	-0.12326592
116	0x3a7f726d	0.0009744529
117	0x3dccce55	0.10000292
118	0xbe16fb0f	-0.14744209
119	0x3e597cf2	0.21239069
120	0xbdcfea31	-0.1015209
121	0xbd691504	-0.056904808
122	0xbd6021b1	-0.05471963
123	0xbe034ddd	-0.12822671
124	0xbe60b852	-0.21945313
125	0x3df42d65	0.11922721
126	0x3d647a84	0.055780903
127	0xbe4af882	-0.1982136
128	0xbe0a5d04	-0.13512045
129	0x3e549fbf	0.20764063
130	0x3da01ca6	0.07817964
131	0x3db35920	0.087572336
132	0xbe02620c	-0.12732714
133	0xbdbbfe4d	-0.091793634
134	0xbcec9984	-0.028881796
135	0xbd26ccd3	-0.04072268
136	0xbe135d88	-0.14391148
137	0x3c8456a2	0.016154591
138	0x3ccb6282	0.024827246
139	0xbc9283f7	-0.017885191
140	0x3ce85477	0.028360588
141	0xbdb3fb09	-0.087881155
142	0x3d6b3e76	0.057432614
143	0x3da36705	0.07978634
144	0xbddd6910	-0.10811055
145	0xbe549971	-0.20761658
146	0x3de8616d	0.113467075
147	0x3d452945	0.04813506
148	0xbdda0524	-0.10645512
149	0x3e5572e1	0.20844604
150	0xbdbd494a	-0.092424944
151	0x3e142ad3	0.14469461
152	0x3dd9bf7a	0.106322244
153	0xbe382c23	-0.17985587
154	0x3e05d271	0.13068558
155	0xbe4c4cd0	-0.19951177
156	0xbde4b48d	-0.1116725
157	0xbd30e89b	-0.04319058
158	0xbe0eca0a	-0.1394426
159	0x3e5c126c	0.21491402
160	0xbd2681d1	-0.040651146
161	0x3da45059	0.080231376
162	0xbe43e817	-0.19131504
163	0x3e01ccee	0.1267583
164	0xbd71e544	-0.059056535
165	0xbe1fa840	-0.15591526
166	0x3d085b55	0.033290226
167	0x3dcc5eb7	0.09979003
168	0x3e379182	0.179266
169	0xbe0ede68	-0.13952029
170	0xbdc9903f	-0.09841966
171	0x3d1d07e0	0.03833759
172	0x3d6d6e14	0.057966307
173	0x3daedfa1	0.085387476
174	0x3e01caa8	0.12674963
175	0xbd4a02ec	-0.049319193
176	0x3df11e63	0.11773374
177	0x3e1fb7c4	0.15597445
178	0xbd46e8cb	-0.048561852
179	0x3e251b0b	0.16123597
180	0x3dd78d06	0.10524945
181	0x3e3e8fa6	0.18609485
182	0xbe01a151	-0.12659194
183	0xbdca2cb9	-0.098718114
184	0xbd676451	-0.056492154
185	0x3c746cea	0.014918545
186	0x3e02c142	0.12769035
187	0xbe007367	-0.12544023
188	0x3dd15e18	0.10223025
189	0xbd945d0b	-0.07244309
190	0x3e050a80	0.12992287
191	0xbc485c0d	-0.012228978
192	0xbe39cbfd	-0.18144222
193	0xbdf3fe10	-0.11913693
194	0xbe25f2a1	-0.16205837
195	0x3dce5672	0.10075082
196	0xbe0f6808	-0.14004529
197	0xbc82fd74	-0.015989996
198	0x3d2ebed2	0.04266245
199	0xbe011293	-0.12604742
200	0x3d73b819	0.05950174
201	0xbe54c478	-0.20778072
202	0xbe1b10a3	-0.15143065
203	0xbe444a69	-0.1916901
204	0xbd891de0	-0.06695151
205	0xbd9f50fe	-0.0777912
206	0x3d050213	0.03247268
207	0xbd24cb1c	-0.040232763
208	0x3dc977bb	0.0983729
209	0x3e45d9a8	0.1932131
210	0x3d9bef6c	0.076140255
211	0xbda789d3	-0.08180585
212	0xbe4d15c8	-0.2002784
213	0x3d90966e	0.07059942
214	0xbde07347	-0.109594874
215	0x3de95ffe	0.11395262
216	0x3e0caf5f	0.13738774
217	0x3da4dab4	0.08049527
218	0x3e4fe3f8	0.20301807
219	0x3e4f115a	0.20221463
220	0x3d318716	0.04334172
221	0xbe1f7b01	-0.15574266
222	0x3e40994d	0.1880848
223	0xbdc378b5	-0.095445074
224	0xbdd9e570	-0.10639465
225	0x3e36ab2a	0.17838731
226	0x3e2acc9f	0.16679619
227	0x3d7c094a	0.061532296
228	0x3c82d472	0.015970442
229	0xbe3409c9	-0.17581858
230	0xbcca58c2	-0.024700526
231	0x3e4e81d7	0.20166717
232	0x3d65e30b	0.05612473
233	0x3c92e881	0.017933132
234	0xbd366d75	-0.04453798
235	0xbd92093d	-0.07130668
236	0x3e02dc93	0.12779455
237	0x3c2b420a	0.010452757
238	0x3e0f3ef8	0.13988864
239	0xbd234d18	-0.039868444
240	0x3dc30e2d	0.09524188
241	0x3dae8ec2	0.08523323
242	0x3d08a78a	0.033362903
243	0x3e0bc811	0.13650538
244	0x3e08bc43	0.13353066
245	0x3e4789a3	0.19486098
246	0x3e28bd08	0.1647836
247	0xbd58aea0	-0.05290091
248	0xbe39ccee	-0.1814458
249	0x3d104ffc	0.03523253
250	0xbab90016	-0.0014114405
251	0xbd743120	-0.05961716
252	0xbd0c426f	-0.034243044
253	0x3c95b53a	0.018274892
254	0x3e1c9f52	0.15295151
255	0x3d70d1ba	0.05879376

sage1.lin_l.weight f4 [128, 128]
0	0x3d9bd5cc	0.07609138
1	0xbcde713d	-0.027153606
2	0x3d03984f	0.032127675
3	0x3c80667f	0.015673874
4	0xbd67fa31	-0.056635085
5	0xbd78892f	-0.060677703
6	0x3d684f52	0.05671627
7	0xbd18ed8d	-0.03733592
8	0x3d81f764	0.06346014
9	0x3c892d2e	0.016745176
10	0x3c078a88	0.0082727745
11	0x3d5517b7	0.05202457
12	0xbce34cb7	-0.027746541
13	0xbcef0bcd	-0.029180432
14	0x3ce1ba81	0.027554752
15	0x3c971445	0.018442282
16	0x3d276742	0.04086996
17	0x3d79e9c5	0.061013956
18	0x3d92cdb2	0.071681395
19	0x3d41f4d4	0.047352627
20	0x3b20094c	0.0024419604
21	0xbd9739f4	-0.073841006
22	0xbd08763d	-0.033315886
23	0xbc70af3f	-0.014690219
24	0x3c5c810c	0.013458502
25	0xbd597adb	-0.05309568
26	0xbd03c956	-0.03217443
27	0x3d8131b6	0.0630831
28	0xbd3f988f	-0.04677635
29	0x3b85d367	0.004084039
30	0x3c81fd85	0.015867958
31	0xba425cb1	-0.0007414325
32	0x3c113e5c	0.008864965
33	0x3da8d7d7	0.08244293
34	0x3d6e520f	0.058183726
35	0x3d3e5112	0.046464033
36	0xbcfb9ba1	-0.030713858
37	0xbd89cd8b	-0.06728657
38	0x3d7c4927	0.0615932
39	0xbd702f4f	-0.058638867
40	0xbd35c368	-0.044375807
41	0xbd466028	-0.048431545
42	0xbb8d8f61	-0.0043200706
43	0x3cb6cb1d	0.022313649
44	0x3d0bacf9	0.034100506
45	0x3ca2f9af	0.019894449
46	0xbd9717b4	-0.07377568
47	0x3ccd75fb	0.025080672
48	0xbd5fb97e	-0.05462026
49	0x3d338c66	0.043835066
50	0xbda0a83d	-0.07844589
51	0x3c6cfcf0	0.014464602
52	0xbdb53c2e	-0.08849369
53	0x3d8c642b	0.06855043
54	0x3cf9e5eb	0.030505141
55	0xbb9981be	-0.004684656
56	0xbb131b14	-0.002244656
57	0xbb88ca76	-0.004174526
58	0xbd798869	-0.060921106
59	0xbd75f526	-0.060048245
60	0xba8ac4a0	-0.0010587163
61	0x3d6b88b6	0.057503425
62	0x3d1ed7e9	0.038780127
63	0x3d5c1dc6	0.05373933
64	0x3d8e3856	0.06944339
65	0x3d000e9d	0.031263936
66	0xbd5e01a9	-0.054200802
67	0x3c8df1e0	0.017327249
68	0xbd2acb1a	-0.0416976
69	0xbc64c64b	-0.013963292
70	0xbd4a1a1f	-0.049341317
71	0x3d4678a1	0.048454884
72	0xbd52978d	-0.05141406
73	0x3d524a0d	0.05134015
74	0x3d0bfbb1	0.03417558
75	0x3d2f312a	0.042771496
76	0x3d5c0348	0.053714067
77	0x3c7b002f	0.015319868
78	0xbd18675c	-0.037207946
79	0x3d1a2835	0.037636
80	0x3d92745f	0.07151102
81	0x3d7a71d7	0.061143722
82	0xbd7bc784	-0.06146957
83	0x3d164013	0.0366822
84	0xbce96a9c	-0.028493218
85	0x3d8cbbdc	0.06871769
86	0xbd0f5b28	-0.034999043
87	0xbc32a707	-0.01090408
88	0x3cf77a35	0.03020964
89	0xbda0b24d	-0.07846508
90	0x3c950208	0.018189445
91	0x3d34e31b	0.044161897
92	0xbc77f81e	-0.015134839
93	0xbdad3986	-0.08458237
94	0xbdb0b861	-0.086289175
95	0xbd88a3de	-0.0667188
96	0xbda485b0	-0.08033311
97	0x3d178162	0.036988623
98	0xbcb59583	-0.02216602
99	0xbcb9dfe9	-0.022689776
100	0x3d777235	0.06041165
101	0x3c4986c9	0.012300202
102	0xbd82aaee	-0.063802585
103	0x3c917436	0.017755609
104	0x3d30850d	0.043095637
105	0xbd24dd2d	-0.040249992
106	0x3c6e9732	0.014562415
107	0xbd126b8a	-0.03574709
108	0xbd9c6a68	-0.07637483
109	0xbd5c1724	-0.053733006
110	0xbd49276d	-0.049109865
111	0x3d5f1d90	0.054471552
112	0x3d98101e	0.07424949
113	0xbd7bdc6c	-0.061489508
114	0x3d53aef5	0.051680524
115	0xbd0b95e5	-0.034078497
116	0xbc990e7c	-0.018683665
117	0x3be6265c	0.0070236158
118	0x3c674cda	0.014117444
119	0x3c220769	0.009889462
120	0xbdb6fb75	-0.0893468
121	0x3c9421de	0.018082555
122	0xbdb20145	-0.086916484
123	0x3db539d9	0.08848924
124	0x3db35889	0.08757121
125	0xbd9dad7c	-0.07699105
126	0x3d2e01d6	0.04248222
127	0x3d826fea	0.06369002
128	0xbd504b65	-0.05085315
129	0x3c96054c	0.018313073
130	0xbd2c5236	-0.04207059
131	0xbd7b3305	-0.061327953
132	0xbd1aedd6	-0.037824474
133	0xbd1592d2	-0.036516972
134	0xbd77848e	-0.06042915
135	0xbab52ca9	-0.0013822514
136	0x3db596ef	0.08866679
137	0x3c9ac271	0.018891545
138	0xbb367978	-0.0027843397
139	0xbdb004d5	-0.08594672
140	0x3d1f6fdc	0.038925037
141	0x3d9fde98	0.07806128
142	0xbc34e821	-0.011041672
143	0x3dafde6a	0.08587344
144	0x3dab7084	0.0837107
145	0x3d0b4167	0.03399792
146	0xbda30bbe	-0.07961224
147	0xbcbd84fc	-0.023134701
148	0xbc8d0de7	-0.017218543
149	0x3b077977	0.0020671764
150	0xbd0deab7	-0.03464767
151	0xbd1257a0	-0.035728097
152	0xbcb5258f	-0.022112636
153	0xbc00fcdb	-0.007872785
154	0xbd8eea41	-0.06978274
155	0xbd482192	-0.04886014
156	0x3cddb61c	0.027064376
157	0x3d8c43ac	0.06848845
158	0x3d9ee7fd	0.07759092
159	0x3d6792b8	0.056536406
160	0xbdae921c	-0.08523962
161	0xbc2aab6b	-0.010416846
162	0xbd1fda6a	-0.039026655
163	0x3d0d83fa	0.03454969
164	0x3db790b2	0.08963145
165	0x3d73e92f	0.059548553
166	0x3d73b192	0.059495516
167	0xbd4911cb	-0.049089234
168	0x3d9933fb	0.074806176
169	0xbd7d3da7	-0.061826374
170	0xbd802540	-0.06257105
171	0x3d1ab48e	0.037769847
172	0x3d906026	0.07049589
173	0x3d4bb4f5	0.04973312
174	0xbdb5554c	-0.0885416
175	0x3d415df3	0.047208738
176	0xbd002b78	-0.031291455
177	0x3cb11eb3	0.021621084
178	0xbd451cca	-0.04812316
179	0xbd31fbcb	-0.04345302
180	0xbcc8e49a	-0.024523068
181	0x3af730f9	0.00188592
182	0x3d23728d	0.039904166
183	0xbd31ae01	-0.043378834
184	0xbd182b7f	-0.037150856
185	0x3d46442a	0.04840485
186	0xbd077c40	-0.03307748
187	0xbd7f1556	-0.062276207
188	0xba4567fa	-0.00075304473
189	0x3d1c226b	0.03811876
190	0xbc490b1d	-0.012270716
191	0x3b9971c3	0.004682751
192	0x3da30ae6	0.07961063
193	0x3d1798c4	0.037010923
194	0x3b89a882	0.004200996
195	0x3d726ee3	0.05918778
196	0xbc4ee34d	-0.012627435
197	0xbd2e4a38	-0.04255125
198	0x3d056f9f	0.032577153
199	0xbd76bf4e	-0.060241036
200	0x3ceea234	0.029130079
201	0x3d0c380e	0.034233145
202	0x3d3a1825	0.045433182
203	0x3c4b54c9	0.012410351
204	0x3d6ced03	0.05784322
205	0x3d68997e	0.056787007
206	0x3d37be32	0.04485912
207	0xbd82d18b	-0.063876234
208	0x3c76e368	0.015068866
209	0x3d3c9b8c	0.04604678
210	0x3d92f41e	0.07175468
211	0x3daa5b59	0.083182044
212	0xbda27968	-0.07933313
213	0x3d960868	0.07325822
214	0x3cbb636f	0.022874562
215	0xbd486a2a	-0.04892937
216	0xbd9dc5bd	-0.07703731
217	0x3cf9e5bb	0.030505052
218	0x3d8c4364	0.06848791
219	0x3d78f16d	0.060777117
220	0x3d47d955	0.04879125
221	0xbd93f0e7	-0.07223683
222	0xbda8ef9b	-0.08248826
223	0xbc9fe1e1	-0.019516887
224	0xbd3a5350	-0.04548961
225	0xbd699c12	-0.057033606
226	0xbda5c6bf	-0.080945484
227	0x3d08386c	0.033256933
228	0x3ce28327	0.027650429
229	0x3d2013ae	0.039081268
230	0xbd4e8dcf	-0.050428208
231	0xbd6072f1	-0.054797117
232	0x3c2734e3	0.01020548
233	0x3d4cd12f	0.05000418
234	0x3d32032c	0.043460056
235	0x3cec1370	0.028817862
236	0xbcb9e506	-0.022692215
237	0x3c866d41	0.016409518
238	0xbcfff54f	-0.031244902
239	0x3d827286	0.063695
240	0x3d8b563a	0.06803556
241	0x3b2824d9	0.0025656729
242	0xbc0c93c2	-0.00858015
243	0x3da56e1a	0.08077641
244	0xbd7995a8	-0.06093374
245	0xba822acf	-0.0009930971
246	0x3bc2ca19	0.005944502
247	0xbd070c85	-0.032970924
248	0xbbba5046	-0.005685839
249	0xbd6b98f6	-0.05751892
250	0x3b5ae0c1	0.0033398124
251	0x3d4823f6	0.04886242
252	0x3d7ace8d	0.06123214
253	0x3d89e4e9	0.06733114
254	0x3d21e05a	0.0395206
255	0x3dac352e	0.08408581

sage1.lin_l.bias f4 [128]
0	0xbd4dab97	-0.05021247
1	0xbdb3a9dd	-0.08772633
2	0xbcf69fc5	-0.03010548
3	0x3c08dd67	0.008353568
4	0x3bab053e	0.005219131
5	0x3a402ae5	0.00073306105
6	0xbdb96480	-0.09052372
7	0xbcc3891f	-0.023869095
8	0xbd4a7dfc	-0.049436554
9	0xbc9583a8	-0.018251255
10	0xbd5bbad9	-0.05364499
11	0xbbd88a4c	-0.006608283
12	0xbc8f499c	-0.017491154
13	0xbda76aec	-0.081746906
14	0x3d10d3a4	0.035358086
15	0x3cf9b2f3	0.030480837
16	0x3c98f550	0.018671662
17	0x3ce57759	0.028011011
18	0xbbd24fb6	-0.0064181937
19	0x3c1af606	0.009458071
20	0xbda8976b	-0.08232006
21	0x3d733217	0.05937394
22	0x3d85257f	0.065012924
23	0xbd0e22b9	-0.034701083
24	0x3d9bd35d	0.07608674
25	0xbce18a6b	-0.027531823
26	0x3cf7d56a	0.030253131
27	0xbcf78e35	-0.030219177
28	0xbd52dff8	-0.051483124
29	0xbd34d1e7	-0.04414549
30	0x3d7f4aa0	0.062327027
31	0xbd0125e7	-0.031530287
32	0xbd833f86	-0.064086005
33	0x3c3fbd99	0.011702918
34	0xbd49700e	-0.04917913
35	0xbd75f83d	-0.06005119
36	0xbd4be50c	-0.049778983
37	0xbd628300	-0.055300713
38	0xbd63f6df	-0.055655356
39	0x3d02aac8	0.03190115
40	0xbd18a320	-0.037264943
41	0x3c5d887e	0.013521312
42	0x3d92b79c	0.07163927
43	0x3cc48aa6	0.023991894
44	0x3dbcfa4f	0.0922743
45	0x3d88efc1	0.066863544
46	0x3c465152	0.012104349
47	0x3d32ff2d	0.043700386
48	0x3db5f327	0.08884268
49	0xbd76e483	-0.06027652
50	0xbd63cb8b	-0.055614036
51	0x3d89b792	0.067244664
52	0x3d3ed92d	0.046593834
53	0x3c90b50d	0.017664457
54	0x3c086819	0.0083256
55	0xbd545808	-0.051841766
56	0x3d051b36	0.032496653
57	0xbbdf3c14	-0.006812582
58	0x3a421adc	0.0007404515
59	0x3d97284e	0.073807344
60	0x3d2c820e	0.042116217
61	0xbb11cc92	-0.0022247178
62	0xbc966bf8	-0.01836203
63	0xbd5e4392	-0.05426366
64	0x3d1d5a55	0.038416225
65	0x3dac9bcb	0.08428153
66	0xbd3cc4a8	-0.046085984
67	0xbd820da2	-0.063502565
68	0x3d67e175	0.056611497
69	0xbd9f22ac	-0.07770285
70	0x3da51dd4	0.0806233
71	0x3c1b5ece	0.009483052
72	0x3d926ad2	0.071492806
73	0x3bc69452	0.0060601616
74	0x3cd3e214	0.025864638
75	0xbda7e29b	-0.081975184
76	0xbc3d7273	-0.011562931
77	0x3d897701	0.06712151
78	0xbd0e78e5	-0.034783263
79	0x3d8c1996	0.06840818
80	0xbc8362b0	-0.016038269
81	0xbd48b30d	-0.04899888
82	0xbd3ab74b	-0.045584958
83	0xbd876efd	-0.06612966
84	0x3cd1c06e	0.025604453
85	0xbd4d928a	-0.05018858
86	0x3ceaf8d3	0.028683102
87	0xbcb83c98	-0.02248983
88	0x3d320523	0.04346193
89	0x3d68fa21	0.056879167
90	0xbd90842b	-0.07056459
91	0xbd7200a4	-0.059082642
92	0x3d7b7e56	0.06139978
93	0xbca07f57	-0.01959197
94	0xbd93dd37	-0.07219928
95	0xbd46062a	-0.048345722
96	0xbdb2fa2c	-0.08739123
97	0xbd53f4d3	-0.051747154
98	0x3ad692a3	0.0016370605
99	0x3d72fc71	0.059322778
100	0x3c35456c	0.011063915
101	0x3c234ce2	0.009967061
102	0xbb28b486	-0.0025742366
103	0xbd681cd7	-0.05666813
104	0x3d3206c7	0.043463495
105	0x3d7c855b	0.061650615
106	0x3cf3c728	0.029758051
107	0x3d97afae	0.07406555
108	0x3daf0e24	0.08547619
109	0x3b3ce2bb	0.0028821665
110	0xbd3dad2f	-0.04630774
111	0x3d8cb208	0.06869894
112	0x3bac6b70	0.005261831
113	0xbcc0f088	-0.023552194
114	0xbc8b07ef	-0.016971556
115	0x3c8b2ad0	0.016988188
116	0xbd2cd7d6	-0.042198025
117	0x3d47d418	0.048786253
118	0xbd956dac	-0.07296309
119	0x3bbfdc0a	0.005855088
120	0xbdb3e585	-0.08784012
121	0x3cf165c4	0.029467471
122	0xbd347833	-0.044059943
123	0xbbf9347c	-0.0076051336
124	0x3d837988	0.064196646
125	0x3c4276b5	0.011869122
126	0xbb016154	-0.001974185
127	0x3d13535b	0.035968166

sage1.lin_r.weight f4 [128, 128]
0	0x3bd05a26	0.006358403
1	0x3d724b72	0.05915398
2	0x3bb9a74e	0.005665696
3	0x3d56e47a	0.052463986
4	0x3d695aa1	0.056971196
5	0xbc50b8c9	-0.012739369
6	0x3d9273cf	0.07150995
7	0x3c898d5f	0.016791044
8	0x3d7f06aa	0.062262215
9	0xbda88dd8	-0.082301795
10	0xbdac35fb	-0.084087335
11	0x3cbb906e	0.022896018
12	0x3cd67da2	0.026182953
13	0xbd05d562	-0.0326742
14	0xbcc65a40	-0.024212956
15	0x3ca8bdf9	0.020598399
16	0x3da1b24f	0.07895338
17	0x3ca8a500	0.02058649
18	0x3d8a8424	0.06763485
19	0x3d93e20a	0.07220848
20	0x3cd7a980	0.026325941
21	0x3c0cc805	0.00859261
22	0xbcd00d9d	-0.025397116
23	0xbd892621	-0.06696726
24	0x3d594ada	0.0530499
25	0xba89388e	-0.0010469125
26	0xbd1506ae	-0.036383323
27	0xbcbfd22b	-0.023415646
28	0xbd4e0cbc	-0.050305113
29	0xbc00307c	-0.00782406
30	0x3d4d8a08	0.050180465
31	0x3d891cf7	0.06694978
32	0xbd6c8169	-0.057740603
33	0x3c3f8419	0.011689209
34	0xbd22866a	-0.03967897
35	0xbdb16ad0	-0.08662951
36	0x3d4ee037	0.050506797
37	0x3d907bf5	0.07054893
38	0x3d98662f	0.07441365
39	0x3d9c881c	0.07643148
40	0xbd003565	-0.03130092
41	0x3c9bdb55	0.019025484
42	0x3ce124f2	0.027483437
43	0xbd8188f5	-0.063249506
44	0x3da00923	0.07814243
45	0xbd9561b5	-0.07294027
46	0x3bbeb70a	0.00582016
47	0xbce08518	-0.027407214
48	0x3d16303d	0.036667097
49	0x3d8e4e62	0.06948544
50	0x3ae6b95b	0.0017602848
51	0xbd2bf162	-0.041978247
52	0x3d884267	0.0665329
53	0xbdaf57bb	-0.08561655
54	0xbc1a9905	-0.009435897
55	0xbda6a305	-0.08136562
56	0xba8e69bc	-0.0010865252
57	0x3d80aacb	0.06282576
58	0x3d1f07df	0.038825866
59	0xbd2e0b71	-0.04249138
60	0xbd25eee6	-0.040511034
61	0x3cd42b3a	0.025899518
62	0xbd6ab24b	-0.05729894
63	0xbda025cd	-0.0781971
64	0x3d8ff76a	0.07029612
65	0x3cccf3bb	0.025018563
66	0xbd7f0800	-0.06226349
67	0xbdaefc28	-0.08544189
68	0x3d01bdb2	0.03167505
69	0xbce83805	-0.028347025
70	0xbd31f2a5	-0.043444294
71	0x3dbbb655	0.091656365
72	0x3d279c47	0.040920522
73	0x3d900a7d	0.070332505
74	0x3c15bb1d	0.00913885
75	0xbba4cf6b	-0.005029609
76	0xbd653ef2	-0.055968232
77	0x3d134c49	0.035961423
78	0xbce7ba93	-0.028287208
79	0xbc192828	-0.009347953
80	0x3be0c02c	0.006858846
81	0x3d87439d	0.06604693
82	0x3cf97f29	0.030456143
83	0xbdae159e	-0.08500217
84	0xb8b6a1b6	-8.708557e-05
85	0x3d79c4e4	0.060978785
86	0xbbabbced	-0.0052410276
87	0x3d9b1659	0.07572622
88	0xbd0ea1ca	-0.034822263
89	0xbd7653c8	-0.060138494
90	0x3da3ed33	0.080042265
91	0xbd0bd7e9	-0.034141455
92	0x3d85ecea	0.065393284
93	0x3d833303	0.06406214
94	0xbd76f6c1	-0.060293917
95	0xbda7690e	-0.081743345
96	0xbc6bb9be	-0.014387546
97	0xbd572cee	-0.052533083
98	0x3d8a62fe	0.067571625
99	0x3d2f2e9f	0.04276907
100	0x3d97baeb	0.07408699
101	0xbd3122ff	-0.043246266
102	0x3c9ce192	0.019150529
103	0x3b51780e	0.0031962427
104	0xbd80aba5	-0.062827386
105	0xbd30bb56	-0.043147407
106	0x3d206ed0	0.03916818
107	0x3ba546ee	0.005043856
108	0x3da24499	0.0792324
109	0x3be162b8	0.0068782233
110	0x3ccdbb19	0.02511363
111	0x3cfe0461	0.031007947
112	0xbd81a5a7	-0.06330424
113	0xbd87bd82	-0.066279426
114	0xbd66f7ed	-0.056388784
115	0xbd01d35a	-0.0316957
116	0x3cd58e63	0.026068872
117	0xbd48407b	-0.04888962
118	0xbd9f02da	-0.07764216
119	0xbcf9d352	-0.030496273
120	0xbda182e2	-0.07886292
121	0xbc0f4d77	-0.008746496
122	0xbdab4dd2	-0.083644524
123	0xbc0f5050	-0.008747175
124	0xbd89812f	-0.06714093
125	0xbda202d8	-0.07910699
126	0x3d834035	0.06408731
127	0x3db8654c	0.09003696
128	0xbd75dbeb	-0.060024183
129	0x3c419f14	0.011817712
130	0xbd96fe3c	-0.0737271
131	0xbd753213	-0.059862208
132	0xbda08545	-0.07837919
133	0xbd80acc9	-0.06282956
134	0x3daba45b	0.08380958
135	0x3cc92642	0.024554376
136	0x3d2cfa39	0.04223082
137	0xbd46381e	-0.04839336
138	0x3d13e3b3	0.036105823
139	0x3cdb586f	0.026775567
140	0x3ce7f5d1	0.028315457
141	0x3abb56f5	0.0014292883
142	0xbd3f720e	-0.04673963
143	0x3d091b23	0.033473145
144	0x3d8aa16e	0.067690715
145	0xbc8a0896	-0.016849797
146	0x3d9ca34c	0.07648334
147	0x3c93c978	0.018040404
148	0x3cce0218	0.025147483
149	0x3d70b73c	0.058768496
150	0xbc4d8bf6	-0.012545576
151	0x3c7e2be4	0.015513394
152	0xbc6849c1	-0.014177741
153	0xbd963e70	-0.07336128
154	0x3bc3b0ce	0.0059720045
155	0x3ccaa77d	0.024738068
156	0x3bfaff5a	0.007659835
157	0x3c7095a4	0.014684115
158	0xbccd223a	-0.025040735
159	0x3d87f0ab	0.06637701
160	0xbd98263a	-0.07429166
161	0xbad45c79	-0.0016201875
162	0xb9e78c92	-0.00044164486
163	0x3ce69c4d	0.028150702
164	0xbcf4202b	-0.029800495
165	0x3c82712a	0.015923101
166	0xbd93b556	-0.072123215
167	0x3d126654	0.03574212
168	0xbccdfeb9	-0.025145875
169	0x3d765224	0.06013693
170	0x3da30427	0.07959776
171	0x3d9e7c4b	0.07738551
172	0xbd4db36b	-0.050219934
173	0x3d29b179	0.041429017
174	0xbd33f2e5	-0.043932814
175	0x3c4b3aa6	0.01240412
176	0x3d0900af	0.033447918
177	0xbd9e51c3	-0.077304386
178	0xbdb8692b	-0.09004434
179	0x3c32684a	0.010889122
180	0x3c1c9fd2	0.0095595885
181	0xbd5e9a18	-0.054346174
182	0x3d1df8a3	0.038567197
183	0x3d5e30b3	0.054245662
184	0xbc88788b	-0.016659042
185	0xbda5ab27	-0.08089285
186	0x3cd86f4b	0.026420256
187	0xbd442239	-0.0478842
188	0xbc185366	-0.0092972275
189	0xbc8f4533	-0.017489051
190	0x3d363f59	0.044494007
191	0x3cc31d5e	0.023817714
192	0xbd81af19	-0.06332225
193	0xbd9ed2f5	-0.077550806
194	0xbd512031	-0.05105609
195	0xbdb51339	-0.08841557
196	0x3b385f25	0.0028132882
197	0xbd1e3599	-0.038625333
198	0xbd090484	-0.033451572
199	0xbd9bd195	-0.07608334
200	0x3d9d8cbc	0.076928586
201	0xbd69a3fe	-0.05704116
202	0xbcec5d6f	-0.028853146
203	0x3d7e3708	0.0620642
204	0xbc8873b3	-0.016656732
205	0xbca4e321	-0.020127835
206	0x3d38effa	0.045150734
207	0xbd10ea16	-0.03537949
208	0x3d743c2b	0.059627693
209	0xbbd699b4	-0.0065490846
210	0x3d399bad	0.04531448
211	0x3be47db3	0.0069729923
212	0xbd2b703c	-0.041855082
213	0xbd299de0	-0.041410327
214	0x3b568ffd	0.0032739632
215	0xbcafb143	-0.02144683
216	0x3d548d8a	0.051892795
217	0x3d4d7379	0.05015895
218	0xbd435971	-0.04769272
219	0xbd51e03e	-0.051239245
220	0xbc823bee	-0.015897717
221	0x3d8d9132	0.069124594
222	0x3af52b1b	0.0018704863
223	0x3d911823	0.07084682
224	0x3cc3bb11	0.023892911
225	0xbb5e6ca9	-0.0033939278
226	0xbd9a186d	-0.0752419
227	0xbb952c26	-0.004552382
228	0xbd6f1f28	-0.058379322
229	0xbd34482b	-0.044014137
230	0x3d26ce2e	0.040723972
231	0xbd6b4f11	-0.05744845
232	0xbd33f224	-0.043932095
233	0x3d942705	0.07234005
234	0xbcf39461	-0.029733839
235	0xbd85e745	-0.06538252
236	0xbcc96405	-0.024583826
237	0xbb5f23d5	-0.0034048457
238	0xbda2c88c	-0.079484075
239	0xbdabcf2d	-0.08389125
240	0xbd97389e	-0.07383846
241	0xbaea76b4	-0.001788816
242	0xbbc3077a	-0.005951819
243	0xbdaa855b	-0.08326217
244	0xbd7cca92	-0.061716624
245	0xbad23485	-0.001603738
246	0xbdadb20f	-0.084812276
247	0xbd5c9119	-0.053849313
248	0xbd109193	-0.03529508
249	0xbdacf23e	-0.084446415
250	0xbc43924b	-0.011936734
251	0xbcd87d3e	-0.026426908
252	0x3c5f190e	0.013616813
253	0x3bdfcad1	0.0068295975
254	0x3d26916f	0.04066604
255	0xbcef5834	-0.029216863

sagpool.gnn.lin_rel.weight f4 [1, 128]
0	0xbda83bb1	-0.0821451
1	0x3d29862d	0.041387726
2	0x3d4d7c8f	0.050167616
3	0xbce48b30	-0.027898401
4	0x3d0bd760	0.034140944
5	0x3d599b3a	0.05312655
6	0x3d8111b4	0.06302205
7	0x3d8cb251	0.06869949
8	0xbcc8c88a	-0.024509687
9	0xbd069c79	-0.032864068
10	0x3d730951	0.059335057
11	0x3d868de4	0.06570032
12	0xbdb6dc97	-0.08928793
13	0xbd96853d	-0.07349632
14	0xbd8bc58d	-0.06824789
15	0x3d76fd1e	0.060299985
16	0x3ca0a25d	0.01960867
17	0xbd3d2e7e	-0.046186917
18	0x3c5a2017	0.013313315
19	0x3a992b71	0.001168592
20	0x3c6fa979	0.014627808
21	0xbd0ae7e6	-0.03391256
22	0x3d0fed66	0.03513851
23	0xbd88c4ca	-0.066781595
24	0x3c885769	0.016643243
25	0x3d5bad19	0.053631876
26	0x3d287c8f	0.041134413
27	0xbd5ba713	-0.05362613
28	0xbcfd1319	-0.030892896
29	0x3d9ead33	0.07747879
30	0xbd3c0be1	-0.045909766
31	0x3da06343	0.07831433
32	0xbd91259c	-0.070872515
33	0xbd4f583a	-0.05062125
34	0x3b16ec39	0.0023028983
35	0x3d34f4a6	0.044178627
36	0xbcf35edc	-0.029708318
37	0xbcbbd19f	-0.022927104
38	0x3d35d751	0.044394795
39	0x3d54d273	0.051958513
40	0x3b9a4076	0.0047073914
41	0x3c30bf9d	0.010787872
42	0x3da58030	0.080810905
43	0x3d124ecb	0.035719674
44	0xbd049f49	-0.03237847
45	0xbdaa52cb	-0.08316573
46	0xbd3b95ab	-0.04579703
47	0x3cc24ba0	0.023717701
48	0xbdae9d02	-0.085260406
49	0x3bc6ddf4	0.0060689393
50	0xbc7cf607	-0.015439517
51	0xbd825e21	-0.0636561
52	0x3d3c8110	0.04602152
53	0x3d17e261	0.037081126
54	0x3d9b5e3d	0.07586334
55	0xbdb119f9	-0.08647532
56	0xbd7e8c5e	-0.062145583
57	0x3d77b462	0.06047476
58	0xbd91d598	-0.07120818
59	0x3da2821e	0.07934974
60	0x3d827747	0.063704066
61	0xbcdba0c7	-0.026810063
62	0x3d87ed3c	0.06637046
63	0x3ce392c9	0.027779954
64	0xbc920b61	-0.017827692
65	0x3bc9a6cf	0.0061539183
66	0xbcbb12a0	-0.02283603
67	0xbc52377c	-0.012830611
68	0x3d883c14	0.06652084
69	0xbdb66fa7	-0.08908015
70	0xbd2d43ea	-0.042301096
71	0xbc94f5b5	-0.018183568
72	0xbd11207b	-0.035431366
73	0xbda15e51	-0.078793176
74	0x3b8e1d6b	0.004337003
75	0x3cc7b9d1	0.024380596
76	0xbd942948	-0.07234436
77	0x3c91617e	0.017746683
78	0x3ca52def	0.020163504
79	0xbcdb7d6e	-0.026793208
80	0x3d8413f9	0.06449122
81	0x3c4e87f9	0.012605661
82	0xbccfad8f	-0.025351314
83	0x3cdca6a8	0.026934937
84	0x3d5d856c	0.05408232
85	0xbd87acfd	-0.06624792
86	0xbbcfd627	-0.0063426676
87	0x3c0283bd	0.007965979
88	0xbca8379d	-0.020534331
89	0x3d0561a0	0.032563806
90	0x3b2d0a21	0.0026403742
91	0x3d8a6976	0.06758396
92	0xbcf56109	-0.029953497
93	0xbd70ebd8	-0.058818668
94	0x3da5177c	0.0806112
95	0x3cc9ca94	0.02463273
96	0x3a1a1a0a	0.0005878514
97	0x3db0551a	0.08609982
98	0xbd848a42	-0.06471683
99	0xbcfc4e86	-0.030799162
100	0x3d81bd4d	0.063349344
101	0x3da307c0	0.079604626
102	0x3c79878e	0.015230073
103	0x3db0feb8	0.08642334
104	0xbd190d30	-0.037366092
105	0x3d573f8c	0.052550837
106	0xbd9aa1aa	-0.07550366
107	0x3cac63f9	0.021043764
108	0x3d6a9140	0.057267427
109	0x3c9c260a	0.019061107
110	0x3d4aa1d9	0.049470756
111	0x3c1213e4	0.008915875
112	0x3d18fabd	0.037348498
113	0xbdb67f1a	-0.089109614
114	0xbbd6cf26	-0.0065554557
115	0x3cc5e68c	0.024157785
116	0x3d33a695	0.043860037
117	0xbc614015	-0.0137481885
118	0xbc807366	-0.015680026
119	0xbdae080c	-0.084976286
120	0x3d463013	0.04838569
121	0x3d0f9457	0.035053577
122	0xbd06ebe3	-0.032939803
123	0x3d679786	0.05654099
124	0xbc4f3771	-0.012647496
125	0x3c9e5242	0.019326333
126	0x3d1e9bc2	0.03872276
127	0x3d13ad1d	0.036053766

sagpool.gnn.lin_root.weight f4 [1, 128]
0	0xbd875fb9	-0.066100545
1	0x3d96ecbb	0.073693715
2	0xbc201ad7	-0.009772024
3	0x3d9bdd44	0.076105624
4	0x3c523d95	0.012832065
5	0xbb955c37	-0.004558112
6	0xbc60ded5	-0.013725002
7	0xbdba0b37	-0.0908417
8	0x3caa4cfc	0.020788662
9	0x3d6e39fe	0.058160774
10	0x3cdd1a8c	0.026990198
11	0xbd9db9cc	-0.077014536
12	0xbc4acb49	-0.0123775685
13	0xbc6b6134	-0.014366437
14	0x3d8c4b90	0.0685035
15	0xbb2428cf	-0.0025048738
16	0xbcd9e853	-0.026600039
17	0xbda06ade	-0.07832883
18	0x3c806009	0.015670793
19	0xbda25e74	-0.07928172
20	0xbd6f4a78	-0.05842063
21	0x3d13df86	0.03610184
22	0xbd7142df	-0.058901664
23	0xbd10760e	-0.035268836
24	0x3d4b9643	0.049703848
25	0x3d95d0eb	0.073152386
26	0x3d728ab7	0.05921432
27	0xbc82803f	-0.015930293
28	0x3bc34395	0.005958984
29	0x3da7455b	0.081675254
30	0xbc7ce2ab	-0.015434901
31	0x3da713cf	0.08158075
32	0xbaf846d2	-0.0018942005
33	0x3d993432	0.074806586
34	0xbd8209d5	-0.063495316
35	0x3c67e1c7	0.014152951
36	0xbcfe5742	-0.031047467
37	0xbda047c0	-0.07826185
38	0xbd5c0289	-0.053713355
39	0x3b13c9b7	0.0022550651
40	0xbc8c5336	-0.017129522
41	0xbd3efe54	-0.046629265
42	0x3d9ae1a3	0.07562568
43	0xbd58988e	-0.052879862
44	0x3bdcbf81	0.006736696
45	0x3d6c3cc5	0.05767514
46	0x3d3a4d39	0.0454838
47	0xbda2aa4c	-0.07942638
48	0x3d651405	0.055927295
49	0x3cd5d8fd	0.026104445
50	0xbdae20d9	-0.08502359
51	0xbd60f01f	-0.054916497
52	0x3ca55f3b	0.020187011
53	0x3cf1ae03	0.02950192
54	0xbd987efe	-0.07446097
55	0xbd883587	-0.066508345
56	0x3c7b1765	0.015325402
57	0xbb6e5a91	-0.00363699
58	0x3ccacfea	0.024757344
59	0x3d0d2dad	0.034467388
60	0xbc932728	-0.017963007
61	0xbd3d2d81	-0.046185974
62	0x3d973f66	0.07385139
63	0x3d8bd645	0.06827978
64	0xbd9965c7	-0.074901156
65	0xbc1907a4	-0.009340201
66	0x3d6df131	0.058091346
67	0xbd907e59	-0.07055349
68	0x3d467661	0.04845274
69	0xbc5a8791	-0.013337986
70	0xbd9d285d	-0.07673714
71	0x3ca86569	0.020556169
72	0x3d4114f5	0.047139127
73	0x3cd31511	0.025766881
74	0xbda571fa	-0.0807838
75	0x3d341462	0.04396475
76	0xbd9ddfdc	-0.077087134
77	0xbd91f582	-0.07126905
78	0xbd178ea7	-0.03700128
79	0xb9dab8be	-0.00041717844
80	0x3cdf07d0	0.027225405
81	0x3d2df584	0.04247047
82	0xbdb271df	-0.087131254
83	0x3d16a1a7	0.036775257
84	0x3d04bdd6	0.032407604
85	0xbd9b8ae7	-0.07594853
86	0xbd919501	-0.07108498
87	0x3d779e09	0.06045345
88	0x3d018bf7	0.03162762
89	0xbda1ad72	-0.0789441
90	0xbd824579	-0.06360907
91	0x3ceb4e21	0.028723778
92	0xbafdaff0	-0.0019354802
93	0xbcc90ef2	-0.02454326
94	0xbc5397f6	-0.012914648
95	0xbd11bd1c	-0.03558074
96	0x3d6a6a49	0.057230268
97	0xbcea3fcc	-0.028594874
98	0xbd69ec14	-0.057109907
99	0x3d70e53a	0.058812357
100	0x3ca22c23	0.019796437
101	0xbda44e3f	-0.08022737
102	0xbdabe28e	-0.08392821
103	0x3cee56c8	0.029094115
104	0xbd94ca73	-0.072651766
105	0xbd1e0ffc	-0.038589463
106	0x3d872052	0.065979615
107	0x3db39215	0.08768097
108	0xbd4a3712	-0.049368925
109	0xbbc9313a	-0.0061399015
110	0x3d054276	0.032534085
111	0x3d644b2d	0.055735756
112	0x3ca356b9	0.019938814
113	0x3db43032	0.08798255
114	0xbd324613	-0.04352386
115	0xbba9548e	-0.0051675504
116	0x3da7def4	0.08196822
117	0xbd289a58	-0.04116282
118	0xbdcdfe09	-0.10058219
119	0x3d01cdc1	0.031690363
120	0xbd878518	-0.066171825
121	0xbd6dabed	-0.05802529
122	0x3d84ef24	0.06490925
123	0x3d79faa6	0.061030053
124	0x3d4a5591	0.04939801
125	0x3d620808	0.05518344
126	0xbdaf174f	-0.08549368
127	0x3cce0340	0.025148034

lin.weight f4 [64, 128]
0	0x3da1f068	0.07907182
1	0xbdade055	-0.084900536
2	0xbd12f5a3	-0.03587879
3	0xbd6f3930	-0.058404148
4	0xbd5e5923	-0.054284226
5	0xbd69f378	-0.057116956
6	0xbd5c0c21	-0.053722505
7	0x3c567955	0.013090451
8	0x3d4ed6f6	0.05049797
9	0xbd88ea77	-0.066853456
10	0x3d6ba185	0.057527084
11	0x3d9219e7	0.07133847
12	0xbd0e9abe	-0.034815542
13	0xbd39b942	-0.04534269
14	0xbd96eef0	-0.073697925
15	0x3db6e3b2	0.08930148
16	0x3d2f540e	0.04280477
17	0xbcfd0f39	-0.030891048
18	0x3d2c93c8	0.042133123
19	0xbd9076a8	-0.07053882
20	0xbd5d81a5	-0.054078717
21	0x3d57c2ab	0.052675884
22	0xbcb38ac5	-0.021916756
23	0x3dbba82e	0.09162937
24	0xbb77d876	-0.003781823
25	0xbdb68255	-0.089115776
26	0x3b5d62e0	0.0033780858
27	0xbbac6ef1	-0.0052622487
28	0x3d81c910	0.06337178
29	0xbc911008	-0.01770784
30	0xbcbc6fd3	-0.02300254
31	0x3c8bfda8	0.017088726
32	0x3dc16047	0.094421916
33	0x3d9c4701	0.076307304
34	0xbd5c83db	-0.053836685
35	0xbc52333c	-0.012829598
36	0xbd39c17d	-0.04535054
37	0xbcaf3198	-0.021385953
38	0x3c0b3ed4	0.008498866
39	0xbccba05e	-0.024856742
40	0x3d21344b	0.03935651
41	0x3d718d82	0.058972843
42	0xbc470733	-0.0121477125
43	0xbbf55efa	-0.0074881287
44	0x3d88b99e	0.06676029
45	0x3bb33900	0.0054694414
46	0xbab3d0b7	-0.0013718818
47	0x3c1bd877	0.009512058
48	0xbcf2d040	-0.029640317
49	0xbd265917	-0.040612306
50	0x3d08f36b	0.033435266
51	0xbcdc5bd7	-0.026899261
52	0xbda28124	-0.07934788
53	0xbdc30680	-0.09522724
54	0x3dbe1b26	0.09282522
55	0xbd7b812b	-0.06140248
56	0xbc6abbbb	-0.014326985
57	0xbce66844	-0.02812589
58	0xbda493d8	-0.080360115
59	0x3d0d02ad	0.03442638
60	0x3da63627	0.081157975
61	0x3c80e1da	0.015732694
62	0xbd2832b3	-0.041063976
63	0xbd845ea9	-0.064633675
64	0xbd3fefb8	-0.046859473
65	0x3caca18b	0.021073123
66	0x3a39a1b2	0.00070812844
67	0xbd404c31	-0.04694766
68	0xbd2d31d8	-0.042283863
69	0x3c90694d	0.017628336
70	0x3d8a188f	0.067429654
71	0x3d8c3572	0.068461314
72	0x3d23fe1a	0.040037252
73	0x3cc03684	0.023463495
74	0xbd89bd2b	-0.06725534
75	0xbd882d83	-0.06649306
76	0x3d8e16e0	0.06937957
77	0x3d3a893a	0.045541026
78	0xb9d37759	-0.00040333977
79	0xbcd4ea59	-0.025990652
80	0x3d00c62a	0.031438984
81	0xbd6b7536	-0.057484828
82	0xbd2f7b57	-0.042842235
83	0xbd6078da	-0.054802753
84	0xbd132612	-0.03592498
85	0x3c227ffe	0.009918211
86	0xbd420d7b	-0.047376137
87	0xbd382a1a	-0.044962026
88	0xbbda0819	-0.0066537973
89	0xbdb85e14	-0.09002319
90	0x3dab502c	0.08364901
91	0xbbcf1341	-0.006319434
92	0x3ce6ac5f	0.028158365
93	0xbc76ae00	-0.015056133
94	0xbd897703	-0.06712153
95	0xbdade06a	-0.08490069
96	0x3d8cc5d5	0.06873671
97	0x3d5414e8	0.05177775
98	0x3d47b266	0.04875412
99	0xbd04f780	-0.032462597
100	0x3da6a87c	0.081376046
101	0x3d9bdec4	0.076108485
102	0xbc96997c	-0.018383734
103	0xbd5caccd	-0.053875733
104	0xbd8a6389	-0.06757266
105	0xbcc52864	-0.024067111
106	0xbc7edf84	-0.01555622
107	0x3dae5197	0.08511656
108	0xbd632fd3	-0.05546553
109	0xbc91c6cb	-0.017794987
110	0x3dbe2717	0.092847995
111	0x3db7942b	0.08963808
112	0x3d934642	0.07191135
113	0x3d2f2482	0.042759426
114	0xbcff0b56	-0.031133335
115	0x3d6971f1	0.05699343
116	0x3b9b6e95	0.004743407
117	0xbb7a8e5f	-0.0038231832
118	0xbd6000dd	-0.054688323
119	0xbc8daf44	-0.017295487
120	0x3d703be8	0.05865088
121	0xbd59c5c4	-0.05316712
122	0x3d9d851d	0.07691405
123	0x3c7bf9ba	0.015379364
124	0x3d380020	0.044921994
125	0xbd47e659	-0.04880366
126	0x3d33ab45	0.043864507
127	0xbc931303	-0.017953401
128	0x3c8a5516	0.016886275
129	0x3d04d5d1	0.032430474
130	0x3d8e850d	0.06958971
131	0xbd6523b7	-0.055942263
132	0xbdaa0309	-0.0830136
133	0x3d944247	0.07239204
134	0x3d1b410b	0.037903827
135	0x3d302747	0.043006208
136	0xbb82cd96	-0.003991793
137	0x3cf08659	0.029360937
138	0xbd453cb3	-0.04815359
139	0xbd9e6564	-0.077341825
140	0x3cc9a9ee	0.024617162
141	0x3d24a1a6	0.040193222
142	0xbcdcf6a3	-0.026973074
143	0x3d4a412a	0.04937855
144	0x3d727041	0.059189085
145	0xbd00f783	-0.031486046
146	0xbd35da92	-0.044397898
147	0x3d44a7e8	0.04801169
148	0x3d0079a2	0.031365998
149	0x3d6fa75e	0.058509223
150	0x3d9334c7	0.07187801
151	0x3c37ab4a	0.011210272
152	0x3d8aa4b1	0.06769694
153	0x3d481241	0.048845533
154	0x3cbf5bdc	0.023359232
155	0xbd53b2a9	-0.051684055
156	0x3d4e7147	0.050401
157	0xbd67d87a	-0.056602933
158	0xbd6cda8a	-0.057825603
159	0x3c851fe8	0.016250566
160	0xbc886469	-0.016649442
161	0xbd35fda7	-0.044431355
162	0xbce18e5e	-0.027533706
163	0x3d605f90	0.054778636
164	0xbdaab97b	-0.08336159
165	0x3c1f2f39	0.009715849
166	0xb96b7819	-0.00022456086
167	0x3bfe7615	0.0077655413
168	0x3aa0ef39	0.0012278325
169	0x3d32a7df	0.043617126
170	0x3d4e8843	0.050422918
171	0xbcb9ac25	-0.022665093
172	0x3d42cc1f	0.047557946
173	0xbbdbfaa0	-0.0067132264
174	0x3c06f82f	0.0082378825
175	0x3ce35d80	0.027754545
176	0xbdad273e	-0.084547505
177	0xbda5af87	-0.0809012
178	0xbd00bae2	-0.031428225
179	0x3cf05230	0.029336065
180	0x3ca7edb2	0.020499084
181	0x3cc29dc7	0.023756875
182	0xbca8168b	-0.020518562
183	0x3b19b0f9	0.0023451431
184	0xbd95d462	-0.073158994
185	0x3d13ea03	0.036111843
186	0xbcdd0c68	-0.026983455
187	0x3dacc148	0.08435303
188	0xbc8d34e1	-0.017237129
189	0xbdabc9e1	-0.08388115
190	0x3cb0c6fe	0.021579262
191	0x3d4eef89	0.050521407
192	0x3ccb42b2	0.024812076
193	0x3ce67772	0.028133128
194	0x3d9b14e4	0.07572344
195	0x3d575eba	0.052580573
196	0x3da26a35	0.07930414
197	0xbd8047db	-0.06263705
198	0x3dad78cd	0.084703065
199	0xbd80efe5	-0.06295756
200	0xbd130116	-0.035889708
201	0xbdaf2034	-0.08551064
202	0x3d56e2b0	0.05246228
203	0xbd892971	-0.066973574
204	0xbd052a62	-0.032511123
205	0xbd0da521	-0.034581307
206	0x3d3c5cd6	0.045986973
207	0xbc189c34	-0.0093145855
208	0xbc655408	-0.013997085
209	0x3cfdfb66	0.031003665
210	0xbd3f4490	-0.046696246
211	0xbd4bbd5c	-0.049741134
212	0xbd20e794	-0.03928335
213	0xbd26251b	-0.04056273
214	0x3cb46021	0.022018494
215	0xbd7f02fa	-0.062258698
216	0x3d464563	0.048406016
217	0x3d9abf6a	0.075560406
218	0xbb2388d4	-0.0024953382
219	0xbd1cea9d	-0.038309682
220	0x3928c1df	0.00016093951
221	0xbd12ebb7	-0.035869326
222	0xbda5df9d	-0.080992915
223	0xbd2fbc6b	-0.0429043
224	0xbd69a5b7	-0.057042804
225	0xbb353e9d	-0.0027655729
226	0xbd715f56	-0.05892881
227	0x3c7015de	0.014653651
228	0xbdad66a6	-0.08466844
229	0xbd3d0274	-0.046144918
230	0xbd922e32	-0.07137717
231	0x3cfe5fe1	0.031051578
232	0xbd5768d5	-0.05259021
233	0x3daa5a4f	0.08318006
234	0xbc59d7b5	-0.0132960575
235	0xbd432845	-0.047645826
236	0xbc3095a4	-0.010777865
237	0x3dacbfce	0.08435021
238	0xbda11bae	-0.078666076
239	0xbd270c40	-0.040783167
240	0x3d9eafbf	0.07748365
241	0xbaf41c4b	-0.0018624155
242	0xbc36f551	-0.011166886
243	0x3c95ed03	0.018301493
244	0x3d29183e	0.041282885
245	0xbd0929de	-0.033487193
246	0x3daf6340	0.08563852
247	0x3ce479b8	0.027890071
248	0x3c02e89e	0.007990031
249	0x3af595bd	0.0018736642
250	0xbc4edfbd	-0.012626586
251	0x3bbbce12	0.0057313526
252	0xbd462596	-0.04837569
253	0xbc8c6089	-0.017135875
254	0xbd23b3c4	-0.03996636
255	0xbba0b265	-0.004904079

lin.bias f4 [64]
0	0xbc04a48e	-0.0080958735
1	0x3d82b483	0.06382086
2	0x3c83e057	0.016098185
3	0x3d73c113	0.0595103
4	0x3cf5dc85	0.030012378
5	0x3d388ed2	0.04505808
6	0xb9f5d48b	-0.00046888398
7	0xbc971064	-0.018440433
8	0x3d42addf	0.047529098
9	0xbd7cda9e	-0.061731927
10	0xbd93746c	-0.0719994
11	0xbd550cd3	-0.052014183
12	0x3cee14e2	0.029062692
13	0x3d7b5bc1	0.0613668
14	0xbc01af46	-0.007915324
15	0x3cfa5672	0.030558798
16	0x3cefa9f6	0.029255848
17	0x3d021786	0.031760715
18	0x3d467d97	0.048459616
19	0xbcd413cb	-0.025888344
20	0x3dad541a	0.08463307
21	0x3db0ac08	0.08626562
22	0x3cff8f86	0.031196367
23	0x3d666c11	0.056255404
24	0xbd7b4439	-0.06134436
25	0x3d586bcf	0.05283719
26	0xbd302aef	-0.043009695
27	0xbcc90f53	-0.02454344
28	0xbd52742b	-0.051380318
29	0x3d397135	0.04527398
30	0xbc81e4ae	-0.015856113
31	0xbd77d084	-0.06050159
32	0xbd047b16	-0.032343946
33	0xbdab9181	-0.08377362
34	0xbd5748e8	-0.052559763
35	0x3d8cb6aa	0.06870778
36	0xbd92d5be	-0.07169674
37	0x3be6535b	0.0070289797
38	0x3d215317	0.03938588
39	0xbda393ab	-0.0798715
40	0x3cee3cae	0.029081669
41	0x3da21a2c	0.07915148
42	0xbd2c0915	-0.04200085
43	0x3d381188	0.044938594
44	0xbdab7f33	-0.08373871
45	0xbd5cbab2	-0.053888984
46	0x3d9f0109	0.07763869
47	0x3d90f4bc	0.070779294
48	0xbd681e33	-0.056669425
49	0x3d9e1bbf	0.07720136
50	0xbcb2f583	-0.021845585
51	0xbc77f054	-0.015132982
52	0x3d8e4418	0.069465816
53	0xbd938210	-0.07202542
54	0x3d00baf1	0.03142828
55	0x3da1a09e	0.078919634
56	0x3db17f37	0.086668424
57	0x3c96e08d	0.018417621
58	0x3d3e3a7d	0.046442498
59	0xbc94cfea	-0.018165547
60	0x3bd3dce5	0.0064655417
61	0xbcd5c337	-0.026094062
62	0x3c701696	0.014653822
63	0xbd093c43	-0.033504736
