All_Benchmarking/DATA_12/Results/f1/best_model.pth (torch, 192098 bytes, 32 tensors)

gat1.att_src f4 [1, 4, 32]
00000000: ee4f 97be 3c4a d1bd 97c3 1fbd 032e 68be
00000010: d24d 9abe 4b7b 8c3e d8ac 8d3e 890e bebe
00000020: 901f 053e 8bee 293e d1a2 c63e 3730 723e
00000030: 757e c03e fc7c 09be e46d 923e a80d aa3e
00000040: e29b c5be 71cb a7be b56a ab3d ca70 653e
00000050: 8e2f 50be c4b6 383d 86b8 95b9 51b4 d33d
00000060: 10cf 62be 1d07 6c3e 6f07 8b3e 3b10 91be
00000070: 5cbc 783b 4c1d ca3a e80c 063e 7cd3 c23e
00000080: 7e9f f83d 8b07 c4bd 9127 ba3e 75c5 21be
00000090: 4665 efbd 1db1 f13c 631f 9ebe 2e67 333d
000000a0: 0380 8cbe 409b 333d 70aa 293d 207d 703d
000000b0: e123 b1be cfde c5be 12f3 403e d3af b33e
000000c0: 2750 b8be b3ce 1c3e f22b 98be e252 ed3c
000000d0: 30b3 c13e 30e9 9d3e 422c 9bbe 7331 803e
000000e0: 3fe0 5b3e 5b21 27bb b60b cc3e bb07 28be
000000f0: 37d5 c9bd 634c 4fbe 7206 693d 41ff d93d
00000100: fbcb 0b3d 3d88 69be 58d1 3dbe 2e1b 0c3e
00000110: 3509 b7be fc8b 83bd 58c3 1fbc 9c34 27be
00000120: 498a 193e 5a9a f23c 3c05 933e cb60 1abd
00000130: 5920 84be f299 943e 395c 683d 076b ecbd
00000140: 502a 89be 35ed c33d 076e c7be 807e e03d
00000150: 4a7a 4e3e f43d b8be 96f6 87be b667 96be
00000160: e5de af3e 315c b33e 9510 d83c cd5c c33e
00000170: f018 0abe e221 ccbe a566 123e 2d8a 123e
00000180: ff57 cc3e 6592 b6ba c71e a13e 728b 7e3e
00000190: f58d 963e 2299 cebe 8893 ac3e f099 b0be
000001a0: ff4c ba3e dd5d 97bc d5ea b6be a92a eb3d
000001b0: 8c28 a7bd 3b6d babe 3c3f 1abe d405 253d
000001c0: 34ce a23e 050e fdbd 58ad 763e bb90 563d
000001d0: 7973 563c fbed 9b3d 8944 88be ee32 aebe
000001e0: f3e9 03be be82 c3be e390 44be 03d6 8a3c
000001f0: ffcf 88be 1c33 2fbe bd26 94bd 5453 39bd
-0.2955317 -0.10219237 -0.03900489 -0.22673802 -0.30137497 0.27437815 0.27670932 -0.37120464
0.13000321 0.16594903 0.38796094 0.23651205 0.3759648 -0.13426584 0.28599465 0.33213544
-0.38595492 -0.327724 0.08369962 0.22406307 -0.2033064 0.045096174 -0.00028556975 0.10337127
-0.221493 0.23049589 0.2715411 -0.28332695 0.0037954068 0.0015420108 0.13090861 0.38051975
0.12139796 -0.09571751 0.36358312 -0.1579798 -0.11689238 0.0295034 -0.3088332 0.04379957
-0.27441415 0.04384923 0.041422307 0.05871308 -0.34597686 -0.38646552 0.18842724 0.3509508
-0.3599865 0.15313224 -0.29721028 0.028970186 0.37832022 0.3084197 -0.30307204 0.25037727
0.21472262 -0.002550206 0.39852685 -0.16409199 -0.09855121 -0.20243983 0.056890912 0.10644389
0.034130078 -0.22805877 -0.1853689 0.13682243 -0.35749212 -0.06423184 -0.009751163 -0.16328663
0.14994158 0.029614616 0.2871493 -0.037689965 -0.2580593 0.290237 0.056728575 -0.11543851
-0.26790094 0.09566728 -0.38951132 0.10961628 0.20163837 -0.35984766 -0.26555318 -0.29376
0.34349743 0.35031274 0.026375094 0.3815674 -0.13486075 -0.398696 0.14296968 0.14310522
0.39910886 -0.0013929127 0.31468794 0.24857882 0.2940518 -0.40351206 0.33706307 -0.34492445
0.36386868 -0.018477375 -0.35726038 0.11482746 -0.081620306 -0.3641146 -0.15063184 0.04028876
0.31797945 -0.1235619 0.24089563 0.05238412 0.013089054 0.076137505 -0.26614788 -0.3402323
-0.12882213 -0.38185686 -0.19195895 0.016947752 -0.26721188 -0.1710934 -0.07233951 -0.045245484

gat1.att_dst f4 [1, 4, 32]
00000000: eee1 66be b9b2 a13c 5449 6bbd 0953 ef3d
00000010: 9345 983c e6bf 50be 460b 10be 28da 9cbb
00000020: bd6d 82be 4d7d 023d 9901 ebbc bc3f 223e
00000030: 1fbe c53d 5d76 9c3e 2398 5bbc 3665 9abe
00000040: f709 3b3e dc32 8dbe c018 66bd 9a6b 07be
00000050: 3ab2 1ebe 3b8f 1abe 7821 c03e 865a 6f3e
00000060: 3893 e73d 8752 c43e df5a bdbe 64ae 863d
00000070: 00c3 853e f2e3 8a3e 5151 a6be 48d1 143e
00000080: e73f 6ebe d99c 83bc 6410 aebd c466 aebe
00000090: 9356 c7be be8a 89be 3e77 3d3e 0a05 3f3e
000000a0: 22e6 b5be c3d3 1cbe d20e d23b 61a3 b4be
000000b0: ec6f 6b3e 713d bd3e 0a38 943d 5043 9bbe
000000c0: 3f2f c33d 8ee9 173e 4093 a53e 8ea2 5ebe
000000d0: d82d bbbe b17a 373e ba1e d23c 2f29 08be
000000e0: 71fc 2ebe 937d 57be c016 a93e 387b 90bd
000000f0: 12aa 963e 7587 ba3e 2d25 543d 58ba b13d
00000100: ff87 e0bc 25c9 8f3e 0daf bcbe 7fb5 253e
00000110: 6e4c 87bd 7f28 3f3e 4cad 17bb 8b0b 1abe
00000120: 8d93 32bd 17df 623e a304 91be a41e 84be
00000130: 4605 bcbd f4fd 16be 0ce9 233e 60ce 8c3e
00000140: 6bf2 32bd 49e8 c53e 1e3a 2fbe 1be7 69be
00000150: 2a81 3abe 9c18 90be b43a 92be c659 babe
00000160: 2971 b9be b4b3 da3d 8aeb 7e3e da12 c43e
00000170: 9b64 b23e 7a28 c9bc b137 a33d e742 7abe
00000180: 3aa3 213e a669 c8be d92b 453e 6692 993d
00000190: a17e 003e 770c 193e d0ef 3fbe f45c b33e
000001a0: 678a 473e 6650 893e 10d8 5c3d d241 833e
000001b0: 7fa3 8c3e 6c77 3d3e 853a 9f3e 7794 97bd
000001c0: 5571 893e 019e c03d c58e 7b3e 3e8f cb3e
000001d0: 3955 bd3d e126 1bbe 685f 26bd af6d eb3d
000001e0: c8fb 8c3d 9254 e4bd 13c9 a33e 682e 7b3e
000001f0: 57da 81be 682a 08bd da9c 20bd 3602 83be
-0.22547123 0.019738542 -0.057442978 0.116857596 0.018587863 -0.20385703 -0.140668 -0.0047867484
-0.2547435 0.031857777 -0.028687285 0.15844625 0.09655403 0.30559054 -0.013402971 -0.30155343
0.1826552 -0.27577865 -0.056175947 -0.1322464 -0.15497676 -0.150937 0.37525535 0.23374376
0.113073766 0.38344213 -0.36983392 0.06576231 0.26125336 0.27127033 -0.32483914 0.1453296
-0.23266564 -0.016066002 -0.0849922 -0.3406278 -0.38933238 -0.26863664 0.18502519 0.18654266
-0.3552714 -0.15315156 0.006410458 -0.35280898 0.22991914 0.3696094 0.07237251 -0.30324793
0.09530496 0.14835188 0.32338905 -0.21741697 -0.36558414 0.17917897 0.025649417 -0.1329696
-0.17088486 -0.21043997 0.3302517 -0.07054752 0.29426628 0.3643147 0.051793266 0.086781204
-0.027408598 0.2808315 -0.36852303 0.16182517 -0.06606375 0.18667792 -0.0023144064 -0.15043466
-0.043597747 0.22155415 -0.2832385 -0.25804627 -0.09180693 -0.14745313 0.16006869 0.27501202
-0.04368822 0.38653782 -0.17112014 -0.22842066 -0.18213335 -0.28143775 -0.28560412 -0.36396617
-0.36219147 0.10678807 0.24894539 0.38295633 0.3484238 -0.024555434 0.07969607 -0.24439584
0.15784922 -0.39143103 0.19255008 0.074986264 0.12548305 0.14946161 -0.18743825 0.35031855
0.1948639 0.26819152 0.05391699 0.25636154 0.27468488 0.18502587 0.31099334 -0.07401364
0.26844278 0.09405137 0.24566181 0.39757723 0.092447706 -0.1515155 -0.04061833 0.1149553
0.06883961 -0.11148943 0.31989345 0.24529421 -0.25361893 -0.033243567 -0.039212085 -0.25587624

gat1.bias f4 [128]
00000000: 0b5e bf39 375f 9939 e223 16b9 79f7 5bb9
00000010: 2046 66b7 1ab5 f438 be0c bb39 5afe 0939
00000020: f2ab fcb9 f118 fb39 d014 86b9 9e31 02b9
00000030: ca25 6438 7865 8139 fe41 9bb9 4aa6 7938
00000040: 1f77 8639 1c30 16b9 af34 2c3a 782a a8b8
00000050: 1827 b939 9a7b 9cb8 daa6 c138 9e28 8b38
00000060: ef22 2139 45bf 58b8 5ada 3fb8 0ff0 ef39
00000070: 73b4 c1b8 4578 02b9 8a7c 1039 001a b438
00000080: aebc 7b39 23af e339 8dbf 1f3a 38e6 e237
00000090: 4160 3ab9 c3ff cf39 6867 dd38 0db0 b138
000000a0: 91a0 3f39 d090 2bb8 e0b2 d739 7d28 f839
000000b0: c71e 5db9 9bbe bfb8 be1b 2db9 767f 3c39
000000c0: ad30 f938 64b0 4b37 aa21 103a 93f7 dd39
000000d0: 8614 c7b6 b907 31b8 6dbc 9f37 f7ab 6e38
000000e0: 2db3 9b39 eda7 2eb9 7b04 9439 49d0 17b9
000000f0: 3ed6 9db7 2f6d 3a39 9d25 cb39 857b fbb8
00000100: 78bb d1b9 d018 d5b8 2706 c439 f3aa de38
00000110: 41d6 88b9 b356 a238 70b4 9638 7734 8439
00000120: 2885 07b8 5d9d 59b9 131d a7b8 f381 9239
00000130: 0a5a c3b9 a7a7 bc38 1000 9bb9 e397 b3b9
00000140: 5123 33b9 72ab 9f39 3b6f 00b9 5fda 62b9
00000150: df69 d338 4ad0 d238 e73e db38 37b2 9438
00000160: 6c63 ab38 0c4d 7cb8 e2fb fe38 d258 9db8
00000170: 9955 45b8 4e21 9039 a83f a939 e4be 9b38
00000180: 724f f9b8 d794 2b38 10a6 40b9 c359 60b9
00000190: 379b 8d38 9628 bcb9 d8ff b5b9 1f17 1bb9
000001a0: 2a9e 3bb9 f3ed e839 a70a ddb9 3fa0 cf39
000001b0: 7021 dbb7 d0ae cfb9 20a5 a5b9 d25c 75b7
000001c0: db24 afb9 82ee 85b8 803d 8eb9 6190 e337
000001d0: 3457 71b8 d9c4 8eb9 674d b638 fcf7 bc39
000001e0: c6cf f4b9 2583 65b9 7ad6 8838 a272 27b9
000001f0: 4c91 fb39 058e c3b8 d9da e1b8 6512 5bb9
0.00036500426 0.00029253375 -0.00014318482 -0.00020977658 -1.3725396e-05 0.000116685595 0.00035676913 0.00013160091
-0.00048193295 0.00047893033 -0.00025573978 -0.0001241625 5.439463e-05 0.00024680397 -0.00029613072 5.9521095e-05
0.00025647224 -0.00014323037 0.000656913 -8.018775e-05 0.00035315077 -7.461682e-05 9.234036e-05 6.635602e-05
0.0001536717 -5.1676547e-05 -4.5741304e-05 0.0004576449 -9.2365684e-05 -0.0001244257 0.00013779305 8.587912e-05
0.00024007514 0.000434273 0.0006093912 2.7048503e-05 -0.000177742 0.00039672674 0.00010557362 8.47281e-05
0.00018274995 -4.0904444e-05 0.00041141268 0.00047332412 -0.00021087668 -9.143093e-05 -0.000165089 0.0001797656
0.00011882312 1.2140812e-05 0.00054981804 0.00042336862 -5.9330514e-06 -4.220728e-05 1.904202e-05 5.6903777e-05
0.000296974 -0.0001665649 0.00028232098 -0.00014478074 -1.8815623e-05 0.00017779016 0.000387472 -0.0001199162
-0.00040003262 -0.00010161253 0.00037388617 0.00010617627 -0.00026099573 7.740911e-05 7.1861665e-05 0.0002521609
-3.231052e-05 -0.00020753355 -7.968596e-05 0.0002794411 -0.00037260383 8.995766e-05 -0.0002956395 -0.00034254705
-0.00017083927 0.0003045458 -0.00012248468 -0.00021634389 0.00010080984 0.00010052377 0.0001045445 7.090385e-05
8.172434e-05 -6.0153237e-05 0.00012158581 -7.5028875e-05 -4.704818e-05 0.00027490634 0.0003228162 7.426532e-05
-0.00011888043 4.0908195e-05 -0.0001837241 -0.00021395744 6.752315e-05 -0.00035888393 -0.0003471363 -0.00014790565
-0.0001789263 0.00044427774 -0.0004216034 0.0003960151 -2.6122405e-05 -0.00039612362 -0.0003159428 -1.4624749e-05
-0.0003340606 -6.38636e-05 -0.00027130172 2.712774e-05 -5.754009e-05 -0.00027231014 8.6928536e-05 0.00036042917
-0.0004669411 -0.00021887997 6.524935e-05 -0.00015969065 0.00047982705 -9.324778e-05 -0.000107695996 -0.0002089232

gat1.lin.weight f4 [128, 5]
00000000: 666e 323d c12a 4cbe 3d6f 3d3e 1cea 0a3e
00000010: 6fd6 53be 73bd ccbd 0272 8b3d 1066 36bd
00000020: 5510 babc 7c60 ccbd ee59 2f3e 6a4e f3bd
00000030: 893f 343e cdf3 5a3c d8ed 1e3d c7aa 263e
00000040: 6aef 02bd 5e39 fdbd 1288 08bd 63e8 2f3e
00000050: 7b51 1dbe 2bed 423d 0ba7 57be 50eb e33d
00000060: 0263 a43d 5248 0d3c 6397 bd3d 7830 c0b4
00000070: fcf8 ef3d e93c 2bbe e4b5 d9bc 296d c33d
00000080: 1f22 593e d69c d23d cde6 20be 20b0 253e
00000090: 8480 42bd 9e2c 36bd 1d54 47be 3065 0dbd
000000a0: 858c 193e 18bf e93c f2f7 fbbd 8ac0 873d
000000b0: 9573 91bd eb2d 483e 0e16 3bbe 6996 8dbd
000000c0: b288 4fbe 446a b0bd 065f 893d 920f 543e
000000d0: c1e6 0f3d 0a1b 543e e744 163d 64f5 003e
000000e0: 3d8d 2c3e beae 353e 8a62 f5bd 0e0f 483e
000000f0: 2ae1 033e 7e0b d0bd f661 cdbd f292 35be
00000100: 098c 6e3d c698 32be e6df b63d ab85 8a3d
00000110: 9ca3 3bbe 4397 593d fbd0 a5bc d77d c53d
00000120: 52bb fb3d 4c7d 55be e400 483e d312 363e
00000130: e747 ae3d 0bbc 45be 35bd 9ebd 822f 8abd
00000140: 28b6 50bd fcc7 fa3d 8c3d 993d c233 2b3e
00000150: 4d45 aabd 88ad 913d 3319 9c3d eff6 34be
00000160: ac6a 53be 5027 dfbd 70a4 163e 8b0b 4abe
00000170: ed23 40be b689 f13d f6ff e53d c701 323e
00000180: 2b4d 27be e3ce 1bbe ab30 dc3d 516c 433e
00000190: 004c 043e 4666 193d 3dc7 883d 42fc 4a3e
000001a0: 7597 12be fbdd c0bd 590b 153e 9ab6 16be
000001b0: 2c0b edbd df6d 223e 3e39 853d ac17 923d
000001c0: 5274 bebd 4eee 28bb 76f2 433e 1fcc 02be
000001d0: 1d46 83b9 6c7a d23d 6322 15be 07a1 513e
000001e0: 23ee d4bd d36e 5ebd 754d 6abd 7b4d 07be
000001f0: 1b53 5bbe 4729 f73d 7161 663d 92ae 4abe
00000200: 20cc 0dbe eed2 553e de24 ab3d 11e1 a83d
00000210: 774a 03be 7ad1 bbbd ce12 d8bc 9329 0bbd
00000220: f076 16be dc15 823c 2a31 b33c fcf2 e4bc
00000230: 9605 053d bdb5 a2bd 1073 553d dbaf a53d
00000240: 0ab8 efbd 072a 5abe 709c e33d e9a8 4d3d
00000250: 6ed7 d6bd 5b9e 573e 0c2e c6bd 04b9 113e
00000260: efc5 de3d 922c 35be a81b 103e da9d 48be
00000270: f39a eabd e766 12bd 80ea 16be b7c7 523e
00000280: 66aa 21bd 8c83 a43d f7c9 45be c3ce 003e
00000290: 6f02 7abd c9a5 25be 8ea2 e93c c4aa d33d
000002a0: 67e7 3e3e e74b ffbd b0fa c9bd f2cc 343d
000002b0: abdc 5e3d ad43 a23d afe4 fa3d 0dd2 42bd
000002c0: 773f ea3d e36b 243e 61e1 63bd 5cf6 173e
000002d0: f61c d03d 56fd 403e 3f24 f5bd c786 d6bd
000002e0: a25e 84bd 3abc 493c e72e 023e 3e88 fdbd
000002f0: becb da3d a86b 92bd 4955 003e 3fb4 20bc
00000300: 943a 3ebe bd72 ecbd df5e 21be 6406 d53d
00000310: 19d7 13be 6aff 82bc 74c2 353d cb70 e8bd
00000320: 7baf 7e3d 4d43 52be 28ab 1dbe 11cc 42be
00000330: 74c2 8bbd 9f22 95bd d134 133d 568d 36bd
00000340: 6208 c53d 18a0 423e 1bc2 9b3d 711b acbd
00000350: e3cc 4abe baf8 9c3d bff2 dfbd 3be6 dc3d
00000360: 5e61 133e d88f a63d 2e5a 493e 3dee 4e3e
00000370: 0ebc 2f3d 933a 20be 0f0a 443e 8825 cabd
00000380: e1ef d2bd 01bb 353e a678 293e bbff 833d
00000390: 7bda 3d3c 149c 33be b261 cabc e7a5 4f3e
000003a0: af44 623d 8bd0 a23c 0c22 23bd 2909 8ebd
000003b0: 6742 023e b612 083c 0548 123e fd79 19bd
000003c0: c776 bc3d b493 b03d 11bd 163d ec94 083e
000003d0: 1f67 0c3e 4872 4a3e 4c06 263e 7654 59bd
000003e0: bf99 39be 41c5 183d aeeb 10bb d0e1 59bd
000003f0: f859 17bd 47df 233c 4d92 1c3e 85dd 853d
0.043562315 -0.19938184 0.18499465 0.13565868 -0.20687269 -0.09997072 0.06808855 -0.044530928
-0.022712866 -0.099793404 0.17124149 -0.11880191 0.17602362 0.013363791 0.038801044 0.16276084
-0.031966604 -0.123644575 -0.03333289 0.17178492 -0.15363114 0.047589462 -0.21059816 0.11128867
0.08026697 0.0086232 0.0925739 -3.5798053e-07 0.11717412 -0.16722454 -0.02657599 0.09542305
0.21204422 0.1028382 -0.15713044 0.16180468 -0.047485843 -0.044476144 -0.1946568 -0.034520328
0.1499501 0.028533503 -0.12303151 0.06628521 -0.07102124 0.19548766 -0.18270132 -0.06913454
-0.20266989 -0.086140186 0.067075774 0.20709065 0.035132173 0.2071344 0.036686804 0.12593609
0.16850753 0.1774244 -0.119816855 0.19536993 0.12878862 -0.10158442 -0.1002845 -0.17731836
0.058239017 -0.17441091 0.08929424 0.067637764 -0.18324131 0.05312277 -0.020241251 0.09643143
0.12291588 -0.20848578 0.1953159 0.17780618 0.08509808 -0.19310014 -0.07750932 -0.06747343
-0.050954968 0.12245175 0.07482442 0.16718963 -0.08313999 0.071131766 0.07621994 -0.17672323
-0.20646161 -0.1089617 0.14711165 -0.19730966 -0.18763705 0.117938444 0.11230461 0.1738349
-0.16338031 -0.1521564 0.1075147 0.19084288 0.12919617 0.03745105 0.06678627 0.19822791
-0.14315589 -0.094173394 0.1455511 -0.14718094 -0.115743965 0.15862225 0.06505059 0.07133421
-0.0929953 -0.0025776806 0.1913546 -0.12773179 -0.00025038506 0.10277256 -0.14563899 0.20471583
-0.103969835 -0.05430491 -0.057202775 -0.1321315 -0.21418421 0.1206842 0.05624527 -0.19793156
-0.13847399 0.20881245 0.08356641 0.08246053 -0.12821375 -0.09170814 -0.026376154 -0.033975195
-0.14693809 0.015879564 0.02187403 -0.027947895 0.03247603 -0.0794482 0.052111685 0.080901824
-0.117050245 -0.21305095 0.111138225 0.050209913 -0.10490309 0.21056502 -0.096767515 0.14230734
0.108775966 -0.17692783 0.1407305 -0.19591466 -0.114553355 -0.035742667 -0.14737892 0.20583998
-0.039469145 0.08032903 -0.19315325 0.12578873 -0.061037477 -0.16176523 0.028519895 0.10335305
0.1864296 -0.12465649 -0.09862268 0.044140764 0.054409664 0.079230644 0.12250649 -0.0475636
0.11437886 0.1605678 -0.05563486 0.14840072 0.10161774 0.1884664 -0.11969804 -0.104749255
-0.06463362 0.012312943 0.12713204 -0.12379502 0.10683392 -0.0714944 0.12532534 -0.009808599
-0.18577033 -0.11545322 -0.15758847 0.104016095 -0.14437522 -0.015990932 0.044374898 -0.113496386
0.06217907 -0.20533486 -0.15397322 -0.19023158 -0.06824198 -0.07281994 0.03593904 -0.044568382
0.096207395 0.19006383 0.07605382 -0.084036715 -0.1980472 0.07664628 -0.10934972 0.107861005
0.14392611 0.08132905 0.19663307 0.20208068 0.042903952 -0.15647344 0.19144462 -0.0987044
-0.102996595 0.17747118 0.1654993 0.06445261 0.011587734 -0.17540008 -0.024704788 0.2027813
0.055241283 0.019874832 -0.03982739 -0.06935341 0.12720643 0.008305242 0.14285286 -0.037469853
0.092023425 0.08621922 0.0368014 0.13338059 0.13711213 0.19770157 0.1621334 -0.053059064
-0.18125056 0.03729749 -0.0022113132 -0.053193867 -0.036951035 0.010001964 0.15290184 0.06536392

sage1.lin_l.weight f4 [128, 128]
00000000: 1860 943d 9ba9 bbbc 5774 0f3d 6773 533c
00000010: 40c0 78bd aabe 75bd 8e30 513d eb49 25bd
00000020: d9a8 6d3d f2e8 553c b449 9a3b 5a49 5a3d
00000030: dea4 f2bc bfb7 bebc 5909 053d a9c7 523c
00000040: 05ce 3f3d bd3a 6f3d d1e1 933d bf01 473d
00000050: f5e9 2ebb 8cb3 9abd 41e4 1dbd 4084 9dbb
00000060: 5332 413c 19b5 6fbd 5d9b 1abd 5bbc 823d
00000070: 5750 5abd fcd6 2f3c 4f24 ad3c 0572 343c
00000080: 208b ea3b 4a91 a03d be7f 903d 2f78 673d
00000090: 89b7 02bd 5915 8bbd fe4b 763d 201d 81bd
000000a0: 5e22 33bd 1b2b 32bd de23 18bc 6f65 c73c
000000b0: 9d5e 083d 4268 a93c 5194 8ebd 6490 f43c
000000c0: 637d 64bd a417 203d f9f9 85bd 73aa 2f3c
000000d0: 9ba3 b0bd 151a 863d d0ae 263d 587e a5bb
000000e0: 9d74 c639 4e68 4dbb cd8a 84bd fdf2 76bd
000000f0: 00fd 633b 6503 6a3d 835f 363d c802 813d
00000100: e467 923d e607 c83c 265d 7ebd c7d8 db3c
00000110: f313 46bd debb 40bc c4cf 58bd 3ea3 1a3d
00000120: 4594 67bd c0e4 6d3d 17f8 163d 8380 513d
00000130: 497d 533d f760 593c eb56 1dbd b9d4 f73c
00000140: 7aa8 9b3d b851 613d f9bc 85bd c3c5 143d
00000150: e485 03bd f9e3 9d3d 7598 2bbd 2d74 78bc
00000160: d79c f93c 7f73 98bd 7d2e 2c3c 8ee5 4f3d
00000170: 434a 79bc 17af abbd b595 a9bd c532 79bd
00000180: d8e0 93bd dab9 2f3d 18c4 a8bc 88b2 cfbc
00000190: e44e 793d 4f48 213c da2c 73bd 4603 803c
000001a0: 2cb1 073d cf3a 29bd 378d c73c 87f1 24bd
000001b0: d014 a2bd ba76 42bd f7cb 4abd b185 493d
000001c0: 7406 a63d c850 5fbd 5c68 573d 07d3 12bd
000001d0: 0f74 1ebc fb70 bf3b 0edd df3c 9f5d a33c
000001e0: c331 a1bd 3dbc b53c 78bd b0bd cc8a a73d
000001f0: f742 ad3d efb6 a9bd 43e7 2f3d 3043 703d
00000200: b32d 49bd b476 c03c 7225 17bd 0f29 85bd
00000210: f97b 32bd 3247 1fbd bfa7 73bd c373 f6b9
00000220: 7e6c a53d 7525 ae3c 4d0a 08bc 9b35 aabd
00000230: f425 283d c420 ac3d 160d dabb 28aa a13d
00000240: 0912 b13d 00d5 043d 6051 a1bd c2d4 b1bc
00000250: f535 abbc e334 41bb d1ee 26bd a496 e4bc
00000260: ec25 c3bc b11a 6abc 3f99 9bbd d1d6 37bd
00000270: 9ce8 e23c 165d 983d f88d aa3d 2bbc 863d
00000280: 32b2 b9bd 9c41 21bc edfe f8bc 39e5 2b3d
00000290: 3ae4 b03d 8b10 603d 91c4 693d f9c1 3ebd
000002a0: 37a8 9d3d 40c9 82bd 4f38 90bd b6d4 053d
000002b0: 929c 973d e1ef 573d 9926 abbd 0974 483d
000002c0: 6568 11bd 80b4 a83c 5683 0cbd cf27 39bd
000002d0: c588 a2bc 35c7 bd3b 15f3 3a3d bcbb 21bd
000002e0: 8776 25bd 4693 583d db29 13bd 74c0 70bd
000002f0: 3e48 b63b 8fee 243d 916a b0bb a661 2b3c
00000300: 6c94 9d3d f90e f43c 7a2d ef3a 8d2e 8d3d
00000310: 2a14 3dbc 2612 18bd 3536 023d 3293 84bd
00000320: 6bbc b73c 5dd5 303d ab89 4a3d 227a b23c
00000330: 2def 583d 892c 533d db1f 473d 49d9 91bd
00000340: d3b2 9f3c 7965 433d 5996 8c3d aacf a93d
00000350: 2629 9dbd 642f a93d 5d1a 833c f1c4 3cbd
00000360: b777 98bd 8005 1c3d 12db 783d c2b6 8c3d
00000370: 17d1 373d a18b 8ebd 38dc a0bd dc74 44bc
00000380: dc36 16bd fd1c 4fbd 077b a2bd 13f0 123d
00000390: 36ce 003d d893 0e3d f5ae 3dbd 4010 4fbd
000003a0: 2ee0 e63b 3727 5f3d 5146 2f3d 394a b93c
000003b0: 7d1a e4bc 6e61 873c e50f cebc 4e6e 7f3d
000003c0: f314 843d 3946 923b a1df 34bb 6098 9b3d
000003d0: 9703 61bd 6c5e 073b 731d a53c f82e bfbc
000003e0: b6d4 373b e1bd 4ebd c87a 103c c18a 4d3d
000003f0: afd2 653d 211d 8d3d 7f31 1a3d 9570 aa3d
0.07244891 -0.022908023 0.03502306 0.012905932 -0.06073022 -0.059996285 0.051071696 -0.040353697
0.058022354 0.013056027 0.004708493 0.05329261 -0.02961963 -0.023280976 0.032479618 0.0128649855
0.046827335 0.058405627 0.072208054 0.04858565 -0.0026689742 -0.07553777 -0.038547758 -0.004807025
0.011791783 -0.058522318 -0.037745822 0.06383582 -0.053299274 0.010732409 0.021135477 0.0110135125
0.0071576983 0.07840212 0.07055615 0.0565111 -0.031913314 -0.06791181 0.060131066 -0.06304383
-0.043733947 -0.04349814 -0.009285895 0.02434036 0.033293355 0.020679597 -0.06961883 0.029854007
-0.05578364 0.039085045 -0.06541819 0.010721791 -0.08624955 0.065479435 0.040694058 -0.0050504617
0.00037852387 -0.0031342688 -0.06471787 -0.060290325 0.003478825 0.057132144 0.04452468 0.062993586
0.07148722 0.024417829 -0.062100552 0.026836766 -0.04835887 -0.011763541 -0.052932516 0.037753336
-0.056537885 0.05807948 0.03685769 0.05114795 0.051633153 0.013267747 -0.03841297 0.030252801
0.07600494 0.055009574 -0.06530184 0.036321413 -0.03211011 0.07709498 -0.04189344 -0.015164417
0.030470295 -0.07443904 0.010509131 0.05075603 -0.015215459 -0.08383005 -0.082805075 -0.060839433
-0.0722062 0.04290185 -0.020601317 -0.025353685 0.06086625 0.0098439 -0.059368946 0.01562656
0.03312795 -0.04131585 0.024359329 -0.0402694 -0.07914126 -0.047476508 -0.049510922 0.049199764
0.081066996 -0.0545204 0.05258976 -0.035845783 -0.009671225 0.0058423257 0.027327087 0.019942103
-0.078708194 0.022184486 -0.08629888 0.0818077 0.08460038 -0.08286845 0.042945158 0.058657825
-0.049115848 0.023494102 -0.036900945 -0.06501972 -0.04357526 -0.038886257 -0.059486147 -0.00047007026
0.08077334 0.021258095 -0.008303237 -0.08311006 0.04105182 0.08404687 -0.006654392 0.07893783
0.08646018 0.032429695 -0.07876849 -0.021707896 -0.020899752 -0.0029480986 -0.040755097 -0.027903862
-0.023821793 -0.01428859 -0.07597589 -0.0448826 0.027698807 0.0743963 0.0832786 0.06578859
-0.09067191 -0.009842303 -0.030394996 0.04196665 0.08637281 0.054703277 0.057072226 -0.046571705
0.076981 -0.06386042 -0.0704199 0.03267356 0.0740291 0.052719 -0.08356971 0.048938785
-0.03549995 0.020593882 -0.03430494 -0.04520398 -0.019840607 0.0057915696 0.045641977 -0.039485678
-0.04039624 0.052874826 -0.03592859 -0.058777288 0.005562811 0.04026657 -0.0053837975 0.010460293
0.07694325 0.029792296 0.0018247806 0.068936445 -0.011540452 -0.037126683 0.031789977 -0.06473388
0.022428712 0.04317223 0.049447697 0.021786753 0.05296247 0.051556144 0.048614364 -0.07121522
0.01949445 0.047704194 0.06864614 0.08291562 -0.07673864 0.08260992 0.016003782 -0.046086255
-0.07444709 0.038091183 0.060755797 0.06870796 0.044877138 -0.06960226 -0.078545034 -0.011990752
-0.03667341 -0.050564755 -0.07933622 0.035873484 0.031446658 0.034808964 -0.04630943 -0.050552607
0.0070457673 0.054480758 0.04279167 0.0226184 -0.027844662 0.01652595 -0.025154063 0.062361054
0.06449308 0.0044639376 -0.0027599114 0.075974226 -0.054935064 0.0020655645 0.020155644 -0.023337826
0.002805037 -0.05047405 0.008818336 0.050181154 0.056109127 0.068903215 0.03764486 0.083222546

sage1.lin_l.bias f4 [128]
00000000: 729c 23bd ef76 adbd ac96 c1bc 084b 1f3c
00000010: 6802 a43b a712 97ba e6f6 babd 93dd aabc
00000020: 3eba 5bbd 3a05 a9bc 193d 4fbd dc6e 79bb
00000030: 10b5 8dbc dad3 a4bd e6e0 203d ed60 db3c
00000040: 3972 ba3c 1acc e63c 768c 4bbb 58db a43c
00000050: 32a5 b1bd b6a4 5d3d 1579 8d3d cfd3 14bd
00000060: 975b 983d 7ac2 cfbc dbd4 073d 6738 0ebd
00000070: 35c5 46bd 8922 49bd d33e 613d 584e c7bc
00000080: ce47 85bd 637b 153c 3c53 51bd 151e 6ebd
00000090: 3a2e 47bd afd0 5dbd 3b58 4ebd 3b84 013d
000000a0: 7bd2 ebbc 34cd c73c 44a7 923d 0a95 923c
000000b0: cf06 ad3d 3667 8f3d 728e 1b3c 44c3 203d
000000c0: 8c0c ab3d aaec 8abd e540 64bd 6978 8b3d
000000d0: 265a 2b3d 2bf8 af3c a534 143c 1e6f 4ebd
000000e0: 806b 143d 7b6e 3ebb e37e e63b b048 a53d
000000f0: e58b 323d 27e3 fb3a 4825 99bc a5c8 51bd
00000100: 56f6 203d 4aaf a83d 8978 21bd 3a37 80bd
00000110: 2a0f 713d 9cc3 97bd af4e a53d 7a46 d93b
00000120: c481 a63d 8769 183c cb16 f63c aee8 b1bd
00000130: 249e 35bc e691 7d3d 6834 03bd 0076 9c3d
00000140: 2776 3dbc 540b 2bbd 7e23 34bd 3f4f 96bd
00000150: b549 fc3c bb42 4bbd 60af 213d 9c5e debc
00000160: 75a9 393d 7f7f 8b3d 8489 87bd 85c0 54bd
00000170: 74e3 6e3d 9d8b d1bc 546f 9abd 1d28 4ebd
00000180: cc12 adbd 03f1 56bd 732a 48bb 4579 823d
00000190: b8d3 a63c bffb 4d3c c77b c5bb 161b 56bd
000001a0: 1226 273d a4bb 7a3d 254d be3c da67 993d
000001b0: 68f1 ac3d a3cf 363c 1358 5ebd b3cf 733d
000001c0: 37d4 3b3c 91dd 57bc 9d43 0cbc 8abc 223c
000001d0: 2877 44bd 9af7 723d 1b3e 86bd 53b1 2b3c
000001e0: a429 b4bd 0d59 1d3d 7a9c 24bd 8112 c2bb
000001f0: 8eda 8e3d 409f 653c 9a4d 313c ede2 053d
-0.03994412 -0.084699504 -0.023631416 0.009722479 0.0050051697 -0.0011525945 -0.091291234 -0.020857608
-0.05364441 -0.020632375 -0.050595377 -0.0038060462 -0.017298251 -0.0804822 0.03927698 0.026779616
0.022759544 0.028173495 -0.0031059063 0.020124123 -0.08674087 0.05411216 0.0690786 -0.03633481
0.074393444 -0.025361288 0.03316198 -0.03472176 -0.048527915 -0.0491052 0.054991554 -0.02432935
-0.06507836 0.009123656 -0.05110477 -0.058134157 -0.04862807 -0.054154094 -0.050377112 0.031620245
-0.028786888 0.02438984 0.0716081 0.017893333 0.08448564 0.07002108 0.009494411 0.03924872
0.083520025 -0.06783421 -0.05572595 0.06810076 0.04183402 0.02148064 0.009045755 -0.05039894
0.036235332 -0.002905755 0.007034169 0.08070505 0.043590445 0.0019217477 -0.018694535 -0.05121674
0.039297424 0.08236559 -0.039421592 -0.06260534 0.058852352 -0.074103564 0.08071648 0.006630716
0.081302196 0.009302503 0.030040165 -0.08686958 -0.011085067 0.061906718 -0.0320324 0.07639694
-0.011563814 -0.04175885 -0.04397916 -0.07339334 0.030796865 -0.049624186 0.03947389 -0.027144723
0.045327622 0.06811427 -0.06618026 -0.051941413 0.058322385 -0.025579268 -0.075407654 -0.050331224
-0.08450851 -0.05247594 -0.003054288 0.063707866 0.020364627 0.012572228 -0.0060267183 -0.052271925
0.04080779 0.061214104 0.023230145 0.07490511 0.08444482 0.011157903 -0.054283213 0.05952425
0.01146417 -0.013175384 -0.008561042 0.0099326465 -0.0479652 0.059318163 -0.065548144 0.010479289
-0.08797005 0.038415004 -0.04018829 -0.005922616 0.0697528 0.014015019 0.010821724 0.032687116

sage1.lin_r.weight f4 [128, 128]
00000000: a8cf 0e3b 7286 673d 6522 793b b0b8 533d
00000010: 0285 5d3d e866 9bbc d91d 8d3d 4b0d 743c
00000020: 6429 733d b6c7 adbd 25dd b1bd 353c a53c
00000030: 2d89 c83c 36bf 15bd 0845 ddbc 2cd2 8a3c
00000040: 2f95 973d 1bcf 843c e5e2 8a3d 55b2 943d
00000050: 14c7 ac3c f66d ec3b b9a7 dcbc 5b18 89bd
00000060: 3140 473d 5ab8 73bb 23f9 25bd 10d9 d1bc
00000070: da10 64bd 1999 cabb 42eb 3e3d b882 8e3d
00000080: 072d 77bd 7b02 1c3c 5b74 04bd e9a7 b2bd
00000090: 2afd 463d 3633 8b3d 6e5a 903d aca7 943d
000000a0: 159f 09bd 23f6 b03c 6009 c83c adf3 6fbd
000000b0: 644e 993d b82a 9dbd 8b99 ba3b cb61 e7bc
000000c0: 3d2a 1d3d dca6 8b3d f988 643c 9b77 38bd
000000d0: 4852 843d 4c3c b8bd ca95 c5bb 8716 abbd
000000e0: 312e 0aba ebb9 783d 1bb9 163d 33ee 3abd
000000f0: 5239 48bd af60 d53c 1c7a 6bbd 5e8e 9fbd
00000100: 5827 8f3d ee82 b13c e83d 92bd 3758 a9bd
00000110: a44f d73c 9a46 f7bc 31ef 30bd 22ea a93d
00000120: ae71 1e3d ea8a 923d 224e 213c 8052 50bb
00000130: 532e 62bd a326 0e3d ae3d fabc 2a45 3bbc
00000140: 6350 de3b 9d40 7e3d 2dcf f43c eed3 b9bd
00000150: a636 53bb 855d 803d 7dff 00bc e620 913d
00000160: 7130 0dbd 27cf 74bd e0a1 a33d fd54 0bbd
00000170: 8f4d 843d e12d 7f3d d5a6 80bd 56c2 a7bd
00000180: d5cd 59bc e9bd 58bd c3e9 8b3d 9325 213d
00000190: 4030 913d bf2a 38bd 6779 9a3c 7255 b1ba
000001a0: 04c9 8ebd d862 3ebd 4b03 3d3d cd67 f33a
000001b0: f141 a03d f94f 223c 94ee b13c 9b9a da3c
000001c0: c40d 87bd 7359 83bd 0f64 72bd 17b9 0ebd
000001d0: 494e c73c d17a 54bd 08f0 84bd 2173 e4bc
000001e0: 759a 9fbd 9f64 2bbc 8669 b1bd 2deb 70bc
000001f0: dcf9 88bd 8008 aebd e470 753d f0a2 b53d
00000200: 776f 86bd 2db9 713c 1830 a1bd 9875 7cbd
00000210: e285 9fbd 2254 85bd 8e8a b03d 7f35 bc3c
00000220: 7f08 203d 1d45 59bd e406 173d 4274 f43c
00000230: c93c d03c d70a 183c ba63 32bd e36a 043d
00000240: c258 903d fb5e 89bc 2fcd 953d 17f0 793c
00000250: b3b5 923c 29ee 7d3d 1f0d 34bc eb5d 9f3c
00000260: b0b8 40bc 470e 95bd c0ce c43b 546e a73c
00000270: 8d88 963a 5cf0 c83c 21f5 8ebc 7cae 913d
00000280: e123 96bd 8264 8d36 3e5d ee3b 272a 073d
00000290: fe28 e1bc e5d9 8c3c c540 95bd 346a ed3c
000002a0: 349e f1bc 40a0 823d a816 9d3d 99c0 a43d
000002b0: ad8e 61bd dc0f 2f3d cb63 1cbd ce62 763c
000002c0: df57 0d3d a940 98bd f8ff a3bd 03fd ca3b
000002d0: 5007 e93b 7212 79bd a295 403d 74ec 5a3d
000002e0: 44ce 50bc 4df7 a9bd d1f6 bf3c 2b91 51bd
000002f0: 6625 e7bb 4f5b 9fbc d543 343d eaf3 c43c
00000300: 18c6 77bd 3b5d 9fbd e9e1 48bd 9fb8 b3bd
00000310: ce11 25bb b026 2abd e105 dabc 389a a1bd
00000320: 61d9 913d 988a 4abd dad6 01bd 8279 743d
00000330: b523 44bc c65b 94bc 19f5 2b3d 275e 0cbd
00000340: 8279 843d c7f7 96bb 05fa 3d3d 7f38 c23b
00000350: 12ad 20bd 11c1 30bd 6d15 8f3b 91be d0bc
00000360: f8d9 6c3d c65a 6a3d 752c 3bbd 47f7 59bd
00000370: f8bb 63bc 5da2 893d a2a1 1abb 5f6c 8c3d
00000380: 5aad b73c 2e6f 4439 a1de 8abd 6761 c1bb
00000390: 1fc8 78bd 37d7 38bd 46e3 453d 41c3 53bd
000003a0: e374 40bd a025 883d 5926 05bd 5120 87bd
000003b0: 1680 b4bc 3323 843a 1661 94bd a816 aebd
000003c0: 75c1 a0bd ba16 3f3b 223b 3bbc c8e2 a8bd
000003d0: b993 62bd ca92 763b 91ad 9abd c020 55bd
000003e0: af0f 00bd 433c b7bd 7ea1 8dbc 4349 09bd
000003f0: e6f5 8d3c 80bd 30b9 a6c1 273d 5bfc c1bc
0.0021791253 0.0565247 0.0038014886 0.051689804 0.054081924 -0.018969968 0.068904586 0.014895747
0.059365645 -0.084853575 -0.08684758 0.02017031 0.024479473 -0.036559306 -0.027010456 0.01694592
0.074015014 0.016212037 0.06781558 0.07260577 0.021091022 0.007215257 -0.026935445 -0.066940986
0.048645202 -0.003718874 -0.0405208 -0.025616199 -0.055680133 -0.0061828014 0.046611078 0.069585264
-0.060345676 0.009522076 -0.032337528 -0.087234326 0.04858128 0.06796877 0.07048498 0.07258543
-0.033598978 0.021601742 0.024418533 -0.058581997 0.07485655 -0.076741636 0.0056945733 -0.028244874
0.03837036 0.06818935 0.013948672 -0.04503594 0.064610064 -0.08995876 -0.006029819 -0.08353906
-0.0005271165 0.06072418 0.036797624 -0.04563732 -0.04888279 0.026047079 -0.0574895 -0.07790826
0.06989926 0.021668877 -0.07140714 -0.08268779 0.026283093 -0.030185033 -0.04319686 0.082966104
0.038682632 0.07155402 0.0098452885 -0.0031787455 -0.05521996 0.034704816 -0.03054699 -0.011430064
0.006784485 0.06207334 0.029883945 -0.090736255 -0.0032228618 0.062678374 -0.007873413 0.07086353
-0.034470025 -0.05976787 0.079898596 -0.034016598 0.06460106 0.062299613 -0.06281821 -0.081913635
-0.013293703 -0.052915487 0.06831696 0.039342474 0.07089281 -0.04496264 0.018856717 -0.0013529493
-0.069719344 -0.046480983 0.04614572 0.0018570364 0.07825077 0.009906762 0.021720208 0.02668505
-0.065944225 -0.064135455 -0.059177455 -0.034844484 0.024329321 -0.05187494 -0.06491095 -0.027886929
-0.07793132 -0.010461002 -0.08662705 -0.014704508 -0.06688282 -0.08497715 0.059922114 0.088689685
-0.06564229 0.014753622 -0.07870501 -0.061635584 -0.07789208 -0.06510188 0.08620177 0.022974728
0.039070603 -0.053044427 0.036871806 0.029840592 0.02541961 0.009279928 -0.043552138 0.032328498
0.07048179 -0.016768923 0.07314526 0.015254996 0.017908907 0.061994705 -0.010989456 0.019453963
-0.011762783 -0.07278114 0.006006092 0.02043835 0.0011484787 0.024528675 -0.017450871 0.071133584
-0.07331062 4.213828e-06 0.007274299 0.032999184 -0.027485367 0.017193744 -0.072877444 0.028981306
-0.029494382 0.063782215 0.07670337 0.080445476 -0.055067707 0.042739734 -0.038181107 0.015038205
0.03450763 -0.07434208 -0.080078065 0.006194712 0.0071114674 -0.060808606 0.0470177 0.053448156
-0.01274449 -0.08299122 0.02343312 -0.051163834 -0.007054019 -0.019452719 0.044010002 0.024042089
-0.06049165 -0.07781454 -0.04904357 -0.08775448 -0.0025187614 -0.0415408 -0.026614131 -0.07890743
0.0712154 -0.04944858 -0.03169904 0.05968619 -0.011971404 -0.018110167 0.04198179 -0.03426948
0.06468488 -0.004607174 0.046381015 0.005927145 -0.039227553 -0.043152872 0.004366568 -0.025481494
0.05782506 0.057215475 -0.045696694 -0.053214338 -0.013899796 0.067204215 -0.0023594876 0.06856608
0.022421528 0.00018733434 -0.06780744 -0.005901504 -0.060737725 -0.04512712 0.048312448 -0.05169988
-0.04698647 0.066478014 -0.032507274 -0.06597961 -0.022033732 0.0010081291 -0.0724508 -0.08500415
-0.07849399 0.0029157833 -0.011427673 -0.0824638 -0.05531666 0.0037624114 -0.075526364 -0.052033186
-0.031264957 -0.08947041 -0.01728892 -0.033517133 0.017329168 -0.00016855262 0.040956162 -0.023679903

sagpool.gnn.lin_rel.weight f4 [1, 128]
00000000: 6a2f adbd 7b9e 2d3d df05 453d c435 e3bc
00000010: 74fb 0b3d a331 5c3d 19ea 763d 1d2b 8f3d
00000020: 6c9e c5bc 15df f1bc 3768 733d dbf6 823d
00000030: ca26 b4bd 623c 96bd c220 8ebd 86ec 773d
00000040: 0f64 aa3c 3715 3cbd 8c72 6b3c cc05 f13a
00000050: adbd 903c 0895 09bd ef35 0f3d 3f45 8ebd
00000060: 0b7d 903c ea70 5b3d ab79 293d e9c3 69bd
00000070: a3e2 05bd 6642 a03d 5c1b 3cbd f393 943d
00000080: 95be 90bd 0aeb 5cbd 15bf eaba 3dd9 2c3d
00000090: 7a4c f1bc 77aa b9bc 983f 373d aafd 573d
000000a0: 3c99 063c a0e0 303c 3637 a63d 5882 103d
000000b0: be1e 0cbd 051b a9bd 5dc7 37bd b679 c73c
000000c0: 429c afbd 4513 cc3b e360 91bc f22e 7fbd
000000d0: cb3c 383d 35f2 123d a4de 9b3d b2c3 b7bd
000000e0: ca69 7dbd 6b5b 6b3d 3a73 90bd 826a 9b3d
000000f0: 1bcf 8a3d d23f d6bc f803 7c3d 5ca5 da3c
00000100: 68a5 8dbc aa56 d03b 595b b9bc f03c 8dbc
00000110: df64 863d e851 bbbd b3da 2abd ec77 a8bc
00000120: 9395 0bbd 4224 9fbd f3ff ba3b 352f b43c
00000130: 415d 93bd b616 953c b41b bb3c 4e6e dabc
00000140: e585 863d ba79 0b3c 35c5 d1bc 08d8 e13c
00000150: 54c0 4e3d 63b3 8dbd cb57 c7bb f3e6 253c
00000160: c23e a3bc 708d 053d 5a70 363b dd61 823d
00000170: 92b7 f1bc 3abb 70bd 8c83 a73d 9839 ad3c
00000180: ecc2 76bb e1bd a53d 72d2 82bd ebad 06bd
00000190: d423 803d f7a8 a23d 0043 893c 1f26 af3d
000001a0: 6210 24bd 53a4 5b3d a1ab 9ebd fd27 ad3c
000001b0: 5a47 6b3d 269a 9c3c 65d1 4a3d 9749 ed3b
000001c0: 18f8 173d 6b86 b5bd 15e0 04bc 9c2b c83c
000001d0: d629 2f3d 1c27 6dbc 8917 9ebc f74c bbbd
000001e0: d18d 2f3d 8fb0 073d 436e 0ebd 8aff 663d
000001f0: 0de1 4bbc 8d08 9d3c d9ba 203d 89ff 153d
-0.08456309 0.042387467 0.048101302 -0.027735598 0.03417535 0.053758275 0.060281847 0.06990645
-0.024123393 -0.02952532 0.05942556 0.0639474 -0.08796461 -0.07335736 -0.06939842 0.0605283
0.020799665 -0.04591867 0.014370572 0.0018388568 0.01766857 -0.033589393 0.034963544 -0.069468014
0.01763775 0.05357448 0.041375797 -0.0570716 -0.03268684 0.078251645 -0.04592453 0.072547816
-0.07067601 -0.05393509 -0.001790973 0.042199362 -0.029455412 -0.022664292 0.044738382 0.052732147
0.008215245 0.010795742 0.081159994 0.035280555 -0.034209006 -0.08257107 -0.044867862 0.024350028
-0.08574726 0.006227883 -0.017746395 -0.06230063 0.04497985 0.035875518 0.07610825 -0.08972873
-0.061868466 0.05746023 -0.07053228 0.07588674 0.067777835 -0.026153479 0.061527222 0.026690178
-0.017290786 0.0063579874 -0.022626566 -0.017240971 0.065622084 -0.09146482 -0.041712474 -0.020564996
-0.034078192 -0.077705875 0.005706781 0.021995166 -0.07195521 0.018199306 0.022840358 -0.026663925
0.06568507 0.008512909 -0.025606731 0.027568832 0.050476387 -0.06918981 -0.006083464 0.010125863
-0.019927386 0.03260559 0.0027837963 0.06366322 -0.029506478 -0.058772303 0.081793875 0.021145627
-0.0037652804 0.08092857 -0.063877955 -0.032880705 0.06256834 0.07942384 0.01675558 0.08552193
-0.040054686 0.05362351 -0.07747579 0.021137232 0.057441093 0.019116472 0.0495161 0.0072414386
0.037101835 -0.08863529 -0.008110066 0.024434857 0.042764507 -0.014474656 -0.019298332 -0.09145539
0.042859856 0.033127364 -0.034773123 0.056396045 -0.012443793 0.019169116 0.03924069 0.03662065

sagpool.gnn.lin_root.weight f4 [1, 128]
00000000: e36e 72bd 713b 933d 948d 58ba 0058 9d3d
00000010: b60d 2d3c 0846 cebb 02c6 54bb ccfb b1bd
00000020: f75b a73c d98f 813d 6025 ca3c 47f8 92bd
00000030: f743 32bc 6679 78bc 54a7 983d a121 66bb
00000040: 1941 e1bc 2fa8 a2bd dd05 a43c 2f73 9abd
00000050: e142 54bd 2029 0a3d 7106 79bd 672e edbc
00000060: 4ca3 403d 5bd9 923d d16d 6c3d ef10 f9bb
00000070: d3e5 773c c726 a43d 17aa 8abc 531b be3d
00000080: dacb 84bb 6fb3 b13d b85f 62bd 2161 af3c
00000090: f8d5 06bd dfb6 a4bd 052e 60bd 0de6 703c
000000a0: 667f 5cbc af58 49bd 34a3 993d e901 63bd
000000b0: 5fbf 623c 87ec 6a3d b463 343d 4375 a7bd
000000c0: efb1 5c3d aa55 cc3c 26dd 98bd 1d56 59bd
000000d0: 7c93 9d3c b7cd 2e3d 6524 9ebd 2fef 6dbd
000000e0: 122e 513c 3cf7 8f3b 234b d33c e87a 2c3d
000000f0: 9286 95bc 3474 39bd f4fd aa3d 60a7 9d3d
00000100: 7be3 9cbd f7bd 24bc fd2d 723d ebcf 73bd
00000110: 4e50 753d cb5c 9aba 6a10 a0bd c3e2 d43c
00000120: 24fe 493d 1a75 cc3c 99b4 9abd 1f0d 6f3d
00000130: 5c0a a2bd ca51 95bd 1a3b 03bd 2d1d d9ba
00000140: 3f23 d13c 403e 5b3d b889 b3bd 4d11 153d
00000150: 6f99 343d 13a5 7dbd 2f5e 94bd 106f 853d
00000160: d9c3 f73c 8b5f a5bd ecf9 85bd e3f2 213d
00000170: 960d 77bb f41e 8abc 9b58 11b9 0be7 c4bc
00000180: 2a61 893d 9600 88bc 35a4 6ebd a1c8 853d
00000190: 368e 933c 44ca a6bd 23d9 adbd bf7c e33c
000001a0: c6dc 84bd 91f8 d7bc 2a7f 883d 0424 b03d
000001b0: af0c 52bd eb52 10bc 4493 093d 2a8d 843d
000001c0: 82be b23c a846 af3d 8ab0 f6bc 92a5 e0bb
000001d0: 3735 ae3d 9e1c 19bd e105 b3bd 78d4 343d
000001e0: ce21 62bd de91 34bd 4258 9f3d 7989 973d
000001f0: 7ab7 413d bbb1 883d 2a00 b3bd 027c c63c
-0.05918778 0.07189072 -0.0008260843 0.076828 0.010562351 -0.0062949695 -0.0032466655 -0.086906046
0.020429594 0.06326265 0.024676025 -0.071762614 -0.010880462 -0.015165662 0.0745379 -0.003511526
-0.027496861 -0.07942235 0.020022327 -0.07541501 -0.051821593 0.033730626 -0.06079716 -0.02895279
0.047030732 0.071703635 0.057721917 -0.0076008956 0.015130478 0.08015209 -0.016926808 0.092825554
-0.0040526213 0.08676802 -0.055267066 0.02140862 -0.0329189 -0.080426924 -0.054731388 0.014703286
-0.0134581085 -0.04915684 0.07501832 -0.055421744 0.013839572 0.057354476 0.044040397 -0.08176663
0.05388063 0.024943192 -0.07464056 -0.05306064 0.019235365 0.042676654 -0.077217855 -0.05808943
0.012767332 0.0043934863 0.025792664 0.0421094 -0.018252645 -0.045276836 0.08349219 0.0769794
-0.07660576 -0.010055057 0.05912589 -0.059524458 0.059891038 -0.0011776922 -0.07815631 0.025987035
0.049314633 0.024958182 -0.075539775 0.058362123 -0.07912132 -0.07290991 -0.032038786 -0.0016564481
0.025529502 0.053526163 -0.08766502 0.036393452 0.04409164 -0.061925005 -0.072445266 0.06515324
0.030244755 -0.08074864 -0.065418094 0.039538275 -0.0037697307 -0.016860463 -0.00013861286 -0.024035951
0.06707986 -0.016601842 -0.05826207 0.065324076 0.018012147 -0.08144048 -0.08488681 0.027769445
-0.06487422 -0.026363643 0.066648796 0.086006194 -0.051281627 -0.008808832 0.03358771 0.064722374
0.021819357 0.085583985 -0.030113477 -0.006855675 0.08506244 -0.037380807 -0.08741356 0.04414794
-0.05520802 -0.044084422 0.07780506 0.07399268 0.047294118 0.066745244 -0.08740266 0.024229053

lin.weight f4 [64, 128]
00000000: 07ff a03d db2f b5bd 64f7 d9bc f095 91bd
00000010: 0d3b 6dbd f45c 51bd 245a 42bd 522a 7c3c
00000020: 5b02 613d 03c9 75bd a580 8f3d 1ad8 8d3d
00000030: 37fd 0bbd f07e 24bd c3d9 81bd eaf0 b73d
00000040: af10 4f3d d273 26bd 24a4 053d 066c 90bd
00000050: 14cc 63bd d1cc 653d f4d9 ccbc 67d8 be3d
00000060: 5688 79bc 2095 99bd c236 633c 26a6 24bc
00000070: 6206 823d 4046 cebc e962 c8bc 7b56 ff3c
00000080: c6e2 b83d e305 863d d858 57bd 8490 9dbc
00000090: 3c28 28bd 9669 cabc 8bad 193c 14e6 5fbc
000000a0: cce0 2f3d ca33 903d e51f 53ba 3602 aabb
000000b0: e5ab 7a3d 69d7 77b9 37ac 3ebc 6314 9c3c
000000c0: 52a1 03bd 670b 14bd 7fbd 3c3d 6c61 e4bc
000000d0: 415f a6bd 142a b9bd 4e00 b03d 122e 6fbd
000000e0: 0e7d 6fbc 04d2 a9bc 5cfd 9abd 3efd f73c
000000f0: 039a ac3d 18fc c63c 0368 f2bc 3a69 90bd
00000100: 32a4 2dbd b4e3 f73c 96eb 28bc 696e 1bbd
00000110: debb 60bd adda af3c 6a5f 9b3d fa54 833d
00000120: 7382 263d 148a dc3c ed66 a2bd 3fd0 94bd
00000130: c655 a23d 76e7 503d e249 2a3c fbcd ffbc
00000140: 3464 823c b8b7 40bd a39f 3bbd 7438 49bd
00000150: de56 15bd 9de7 c83b 0c88 35bd 7259 0ebd
00000160: cfa9 7b3b 0509 bcbd 3e40 bf3d 4adc 113b
00000170: 9838 b33c 4d59 e1bc 5c0f 81bd fd76 a0bd
00000180: 58c4 a23d dd67 2d3d a219 5c3d 9510 f1bc
00000190: 55e7 9f3d 8ec0 833d 9760 a6bc b342 4cbd
000001a0: 239c 98bd 37d3 cbbc 4be2 b8bc 7bd9 9d3d
000001b0: 2251 77bd c7f9 fabb ba64 c03d c38c b33d
000001c0: f125 8b3d ca71 2b3d daae 79bc 85fb 5b3d
000001d0: 132b edbb 028c 09bb 7099 47bd 462e 22bc
000001e0: 3f2f 8b3d 2327 72bd 158a 9e3d a887 a23c
000001f0: ca5c 1c3d 8e34 40bd c5c7 503d 0fc8 29bc
00000200: 8e03 8d3c 26ab 1d3d 85dd 7b3d 44f4 44bd
00000210: 5344 9fbd c8e4 933d edeb 183d 8130 2e3d
00000220: d26e 60bb cba1 bc3c f513 74bd 5831 93bd
00000230: c233 f23c 7c57 1c3d 957a 0ebd 1411 573d
00000240: 214f 593d cdab b6bc 047b 0bbd 09ea 433d
00000250: 5494 123d 550a 633d 778d a13d ed24 1e3c
00000260: d869 a03d 3c73 203d 6c06 7e3c 2415 43bd
00000270: d7b7 4e3d 104e 51bd 505e 65bd 02a2 9e3b
00000280: ec57 50bc 227e 1dbd 5b10 e4bc 2cdc 783d
00000290: de67 adbd 94b6 4f3c 2a90 02ba 90e7 8cba
000002a0: ea0d 2fbb 4b30 213d 2bac 313d 6e4b afbc
000002b0: bf7f 563d 4f80 14bb 1059 9b3c a120 a63c
000002c0: 61d0 a7bd 1dbb b4bd 7b14 21bd 0192 063d
000002d0: 8db6 af3c 23bf bb3c 0056 50bc 4538 9e3a
000002e0: 5707 95bd 498f 033d fb93 f2bc cd5f c03d
000002f0: 64be 9ebc 94fb b5bd d0df 763c 6d1a 563d
00000300: 7223 ac3c 9320 a03c cc03 aa3d df2b 3d3d
00000310: 9a5e b63d 9a2a 83bd c9ff a03d 8abb 66bd
00000320: a7a3 04bd 9e96 b6bd 2df2 813d 3305 73bd
00000330: 6891 1abd ac93 23bd 56cb 263d 2ecc 67bb
00000340: 77b9 95ba d97c d53c 183c 28bd 8d7a 60bd
00000350: d00d 14bd aad6 0ebd d7ac a43c 1d8c 90bd
00000360: c5e4 2f3d 13e5 a93d 30c9 48bc 8093 3dbd
00000370: 3b03 863b 873b d3bc 8748 afbd d6da 36bd
00000380: 6fba 83bd 0b34 fb3b c1f2 81bd 6564 933c
00000390: b96f a4bd ffaf 12bd f18e 8abd 8174 e73c
000003a0: a202 36bd 82d5 b43d bbe8 08bc 39ca 2ebd
000003b0: 3d54 06bc 3c01 9f3d c430 a9bd cb48 12bd
000003c0: 3fdd a43d 83e0 b13a cee4 cabc ae06 b73c
000003d0: e1dd 4e3d 2f64 fabc 425e a23d 87ef b73c
000003e0: 8291 0a3b c5e3 f43b c549 1cbc c8a0 7b3b
000003f0: 617a 23bd 0e73 97bc f8a2 3cbd 36e8 48bc
0.078611426 -0.08847018 -0.026607223 -0.071086764 -0.057917643 -0.051114038 -0.047449246 0.015390949
0.054933887 -0.060006153 0.07006959 0.06925984 -0.03417703 -0.04016012 -0.06340363 0.089814976
0.05055302 -0.0406378 0.03262724 -0.07051854 -0.055614546 0.05610353 -0.025006272 0.09318619
-0.015230259 -0.074991465 0.013868036 -0.0100493785 0.06348874 -0.025179982 -0.024461227 0.031169167
0.090276286 0.065440916 -0.052574962 -0.01923395 -0.041053995 -0.02470855 0.009379755 -0.013665695
0.042938992 0.07041128 -0.0008053764 -0.005188252 0.061199088 -0.00023636002 -0.011637739 0.01905269
-0.03213627 -0.036143687 0.046079155 -0.027878486 -0.08123637 -0.09041229 0.08593808 -0.058393545
-0.014617218 -0.020730026 -0.07567856 0.030272122 0.08427813 0.02429013 -0.029590612 -0.070513204
-0.042392917 0.030259944 -0.010310074 -0.037947092 -0.054866664 0.021466577 0.07586558 0.06412692
0.04065175 0.02692131 -0.07929788 -0.07266282 0.07926516 0.05100199 0.010393592 -0.031226149
0.015916921 -0.047050208 -0.04580654 -0.049126104 -0.036459796 0.006131126 -0.044319198 -0.03475327
0.0038400774 -0.09181408 0.09338425 0.0022256547 0.021877572 -0.027508402 -0.06301758 -0.07835195
0.07947606 0.04233538 0.053735383 -0.029426852 0.07807795 0.06433211 -0.02030973 -0.049868297
-0.07451656 -0.024880989 -0.022568842 0.07707497 -0.06038011 -0.0076591703 0.09394212 0.087670825
0.06794346 0.041856565 -0.015239442 0.053706665 -0.007237801 -0.0020987992 -0.048730314 -0.009898728
0.06796121 -0.059119355 0.07741181 0.019840077 0.038174428 -0.04692512 0.050971765 -0.010362639
0.01721361 0.038493298 0.061490554 -0.048084512 -0.07776704 0.07221371 0.03733437 0.042526726
-0.0034245742 0.023026368 -0.059589345 -0.07187146 0.029565696 0.03816937 -0.034784872 0.05250652
0.05305398 -0.022298718 -0.034052864 0.047830615 0.035785988 0.055429775 0.078883104 0.0096523585
0.07832688 0.039172396 0.015504461 -0.047627583 0.050468292 -0.051099837 -0.055998147 0.00484109
-0.012716275 -0.038450368 -0.02783983 0.060756847 -0.08467077 0.012677807 -0.00049805886 -0.0010750163
-0.0026711174 0.039352696 0.043377083 -0.021398272 0.052367922 -0.0022659486 0.018963367 0.02027923
-0.08194042 -0.088247515 -0.039326172 0.032854084 0.021449352 0.02291829 -0.0127158165 0.0012071213
-0.072767906 0.03211907 -0.029611578 0.093932725 -0.019377895 -0.08885875 0.0150680095 0.052271295
0.021012995 0.019546783 0.083015054 0.046184417 0.089047626 -0.0640461 0.07861287 -0.056331195
-0.032382634 -0.08915447 0.063450195 -0.05933113 -0.037736326 -0.039935753 0.04072126 -0.0035369503
-0.0011423071 0.026060509 -0.041072935 -0.054804374 -0.036145985 -0.03487269 0.020101948 -0.070579745
0.04294278 0.082956456 -0.012254998 -0.046283245 0.0040897406 -0.02578522 -0.08558755 -0.044642292
-0.06432044 0.007666116 -0.0634513 0.017992208 -0.08029122 -0.035812374 -0.06765545 0.028253796
-0.044436105 0.08829786 -0.0083562685 -0.042673323 -0.008198795 0.07763907 -0.082612544 -0.035713952
0.08050012 0.0013570938 -0.024767306 0.022342052 0.05050457 -0.03056535 0.079281345 0.022453083
0.0021143858 0.0074734413 -0.009539072 0.0038395394 -0.03991163 -0.01848748 -0.046053857 -0.012262395

lin.bias f4 [64]
00000000: a6b6 04bc 5507 833d 1b52 833c 456c 733d
00000010: 4fdd f53c 96cd 383d 6598 05ba 95e1 96bc
00000020: ef78 423d 71a7 7cbd ef76 93bd 0c0d 55bd
00000030: 5e6a ee3c da66 7b3d 0539 03bc 174e fa3c
00000040: d860 ef3c 1e44 023d dd81 463d 6c04 d4bc
00000050: 134c ad3d 39ef b03d f088 ff3c a263 663d
00000060: 99e1 7abd 5584 583d a040 30bd 32db c8bc
00000070: 4aa7 52bd 207f 393d b3db 81bc f5b7 77bd
00000080: e54f 04bd 03a3 abbd 5c25 57bd c1ac 8c3d
00000090: 3cf0 92bd 3f10 e63b ef7a 213d 5c80 a3bd
000000a0: d001 ee3c 6109 a23d cf04 2cbd 8d12 383d
000000b0: 437c abbd 7bb9 5cbd 5bfe 9e3d 1409 913d
000000c0: 1b0f 68bd 251d 9e3d 3de1 b2bc a386 77bc
000000d0: 3144 8e3d 5672 93bd 1acb 003d 2994 a13d
000000e0: 5740 b13d 3167 963c 9f52 3e3d 4b96 94bc
000000f0: e0fe d23b 375d d5bc 0727 703c 4656 09bd
-0.008100187 0.06397883 0.016030362 0.059429426 0.030012755 0.045117937 -0.0005096256 -0.018418113
0.047478613 -0.061683122 -0.07200419 -0.052014396 0.029103454 0.061377384 -0.0080092 0.030554814
0.029220983 0.031803243 0.04846369 -0.025881015 0.08461776 0.08639378 0.031193227 0.05624736
-0.061250303 0.052860577 -0.04303038 -0.024518583 -0.05142907 0.04528725 -0.015851831 -0.06047817
-0.032302756 -0.083807014 -0.052525863 0.06868888 -0.07174727 0.0070209797 0.03942388 -0.07983467
0.029053599 0.07911945 -0.041996773 0.044939566 -0.083733104 -0.053887825 0.07763358 0.0708181
-0.05665503 0.07720403 -0.021835918 -0.0151077835 0.069466 -0.07199542 0.031443693 0.078895874
0.0865485 0.018359752 0.046465512 -0.018138072 0.006439075 -0.026045425 0.014657742 -0.033529542

fc.weight f4 [1, 64]
00000000: 104a 16bd 205b ee3d 5347 cfbd 4116 83bd
00000010: d337 fd3d dedb 9b3d 1765 c83d 6ccc 823d
00000020: d170 81bd 58e4 9a3d 8ab9 4dbb f3ab bbbb
00000030: a406 a2bd 3f68 85bd 9ff9 d43d 444e 813d
00000040: 853a 60bd 840a 9abd 5b8d 79ba ef8e da3c
00000050: 3435 99bc d401 fa3d fca9 f0bb 4c2f 6a3d
00000060: 8def 053e 322f d53d 2ed9 babd 8c3a 51bd
00000070: 36fa 683d 4106 e13c bc1e 1bbc 6295 723d
00000080: ee3b a4bd 0131 17bd 325c febd 70e4 f1bc
00000090: e9cf bfbd 8a35 82bc d3c2 d2bd f664 ad3d
000000a0: 4f43 d7bd 5a89 88bd 7cf5 c3bc ff08 043e
000000b0: 3b4c c9bc 1ce5 42bc 0492 f83d 1017 ebbd
000000c0: d842 143d 03db 023e a399 b93d f237 9dbd
000000d0: b4d2 333c 2c30 803d 1e12 7e3c 8a1d 9abd
000000e0: 8934 6d3d 2367 b13d 81a0 063e 398c c6bd
000000f0: 24b2 8c3d 6ce2 b8bd 3756 a0bd ea6a 93bd
-0.036691725 0.116384745 -0.10121026 -0.06400729 0.12364163 0.07610296 0.09784906 0.06386647
-0.06320346 0.07563084 -0.0031391107 -0.005727285 -0.07911423 -0.06514024 0.10399174 0.06313756
-0.05474331 -0.07521537 -0.000951966 0.026679484 -0.018702127 0.1220738 -0.0073444825 0.057174012
0.13079663 0.104093924 -0.09123455 -0.051081225 0.056879245 0.027468802 -0.009467777 0.059224494
-0.08019243 -0.03691197 -0.124199286 -0.029527873 -0.093658276 -0.01589467 -0.10291066 0.084665224
-0.10510885 -0.06666823 -0.023920767 0.12894057 -0.024572482 -0.011895444 0.12137225 -0.11479008
0.03619656 0.12778859 0.09062507 -0.07676686 0.0109755285 0.06259188 0.015507249 -0.075251654
0.05791143 0.0866225 0.13147165 -0.09694714 0.06869915 -0.090275615 -0.07828944 -0.071981266

gcn_batch_norm.weight f4 [128]
00000000: 0000 803f 0000 803f 0000 803f 0000 803f
00000010: 0000 803f 0000 803f 0000 803f 0000 803f
00000020: 0000 803f 0000 803f 0000 803f 0000 803f
00000030: 0000 803f 0000 803f 0000 803f 0000 803f
00000040: 0000 803f 0000 803f 0000 803f 0000 803f
00000050: 0000 803f 0000 803f 0000 803f 0000 803f
00000060: 0000 803f 0000 803f 0000 803f 0000 803f
00000070: 0000 803f 0000 803f 0000 803f 0000 803f
00000080: 0000 803f 0000 803f 0000 803f 0000 803f
00000090: 0000 803f 0000 803f 0000 803f 0000 803f
000000a0: 0000 803f 0000 803f 0000 803f 0000 803f
000000b0: 0000 803f 0000 803f 0000 803f 0000 803f
000000c0: 0000 803f 0000 803f 0000 803f 0000 803f
000000d0: 0000 803f 0000 803f 0000 803f 0000 803f
000000e0: 0000 803f 0000 803f 0000 803f 0000 803f
000000f0: 0000 803f 0000 803f 0000 803f 0000 803f
00000100: 0000 803f 0000 803f 0000 803f 0000 803f
00000110: 0000 803f 0000 803f 0000 803f 0000 803f
00000120: 0000 803f 0000 803f 0000 803f 0000 803f
00000130: 0000 803f 0000 803f 0000 803f 0000 803f
00000140: 0000 803f 0000 803f 0000 803f 0000 803f
00000150: 0000 803f 0000 803f 0000 803f 0000 803f
00000160: 0000 803f 0000 803f 0000 803f 0000 803f
00000170: 0000 803f 0000 803f 0000 803f 0000 803f
00000180: 0000 803f 0000 803f 0000 803f 0000 803f
00000190: 0000 803f 0000 803f 0000 803f 0000 803f
000001a0: 0000 803f 0000 803f 0000 803f 0000 803f
000001b0: 0000 803f 0000 803f 0000 803f 0000 803f
000001c0: 0000 803f 0000 803f 0000 803f 0000 803f
000001d0: 0000 803f 0000 803f 0000 803f 0000 803f
000001e0: 0000 803f 0000 803f 0000 803f 0000 803f
000001f0: 0000 803f 0000 803f 0000 803f 0000 803f
1.0 1.0 1.0 1.0 1.0 1.0 1.0 1.0
1.0 1.0 1.0 1.0 1.0 1.0 1.0 1.0
1.0 1.0 1.0 1.0 1.0 1.0 1.0 1.0
1.0 1.0 1.0 1.0 1.0 1.0 1.0 1.0
1.0 1.0 1.0 1.0 1.0 1.0 1.0 1.0
1.0 1.0 1.0 1.0 1.0 1.0 1.0 1.0
1.0 1.0 1.0 1.0 1.0 1.0 1.0 1.0
1.0 1.0 1.0 1.0 1.0 1.0 1.0 1.0
1.0 1.0 1.0 1.0 1.0 1.0 1.0 1.0
1.0 1.0 1.0 1.0 1.0 1.0 1.0 1.0
1.0 1.0 1.0 1.0 1.0 1.0 1.0 1.0
1.0 1.0 1.0 1.0 1.0 1.0 1.0 1.0
1.0 1.0 1.0 1.0 1.0 1.0 1.0 1.0
1.0 1.0 1.0 1.0 1.0 1.0 1.0 1.0
1.0 1.0 1.0 1.0 1.0 1.0 1.0 1.0
1.0 1.0 1.0 1.0 1.0 1.0 1.0 1.0
