All_Benchmarking/DATA_9/Results/fold_5/best_model.pth (torch, 192098 bytes, 32 tensors)

gat1.att_src f4 [1, 4, 32]
00000000: e6f6 a53e f88f 49be e063 87be 1678 bb3e
00000010: 2d98 26be 0284 a83e 58de 8bbe be6b 61be
00000020: 3cbe 733d 0e2b 113e 44ba 253e a327 1abe
00000030: 4481 12be 25fe 52be bf2d 063e a407 b6bd
00000040: ab95 20be 71ca e9bd 5c74 34be f9c7 703d
00000050: f215 3a3e f533 c43c 7d4e 6a3e b31b 8c3e
00000060: bc94 9d3e 134f 64bd 9ae7 c33e ac94 c0be
00000070: 3d83 23be 60d7 b13e 37fb abbd 0142 183e
00000080: 0d4a aa3d 7c28 af3e aec2 15be 9cf0 493e
00000090: 26ff 8bbe 670f ab3e bda0 363e f446 adbd
000000a0: 448f ad3e d99d 0e3e d8dc 96bc b167 db3d
000000b0: 1848 0dbd 6c3c 68bc 4689 f13d 8c3a 03be
000000c0: 1254 bf3d c465 813d 434d 89be 438b 413e
000000d0: b20d 8bbe 5021 b0bc 186e 2e3e 8672 713e
000000e0: 1f6f 553c 344c 72be cf5c ebbd 082c afbe
000000f0: edb0 28be 17db 0a3e 5b70 a33e 3fcd 2abe
00000100: 289c 143d 2e0b 92be d161 f5bd c9d9 9b3e
00000110: e9a0 86be 0460 abbd 51ac ef3d 07b3 ee3d
00000120: 337d 97be 8848 c7be 4347 f3bc 89f1 10bd
00000130: cfd1 5cbe ee75 96be 00ec 98be c0d8 023e
00000140: 3a19 bf3e e39f c6be 28e0 fdbd bb8a 35bd
00000150: b7fb 933e 25ec 5f3d 1587 49be 8bf6 a63c
00000160: fc05 743e cab1 f1bd d769 2e3e 45f8 233e
00000170: b9ae ccbe 1c02 b3be 92ab 693e d2a8 0fbe
00000180: 723e 973e 13ab adbe 0793 963e 9579 8bbe
00000190: 9879 cfbe 7093 213e 003c 333e bcc0 8b3e
000001a0: 74be 8a3b ca08 4cbe 9278 8fbd 9888 d3bd
000001b0: 8065 8a3e 746c 163c 70fb b8be 62eb 61bc
000001c0: 7e7f 293c 6765 823e b402 27be 20dd 56be
000001d0: 0671 6d3d 6e44 643e 6905 c7be 58da 2c3e
000001e0: 79c9 a8be ae6c 49be 4595 bc3e f5bf 2ebe
000001f0: 08ff 2dbd f381 023e f2a7 b5bb 3ede adbc
0.3241493 -0.19683826 -0.26443386 0.36615056 -0.16268988 0.32913214 -0.27318072 -0.22013757
0.059507594 0.1417658 0.16184336 -0.15054183 -0.14307123 -0.20604761 0.13103388 -0.08888176
-0.15682094 -0.11415566 -0.17622513 0.05878446 0.18172434 0.023950556 0.22881503 0.27364883
0.30777538 -0.055739474 0.38262635 -0.37613428 -0.15968032 0.3473463 -0.08397525 0.14868928
0.08314905 0.34210575 -0.14625046 0.19720691 -0.273431 0.3341019 0.17834754 -0.08460799
0.33898365 0.13927402 -0.018415853 0.10713137 -0.034492582 -0.014174562 0.11793761 -0.12815303
0.09342207 0.063182384 -0.2681676 0.1890078 -0.27158886 -0.02150026 0.17034185 0.23578843
0.013026982 -0.23661882 -0.11492311 -0.3421328 -0.16473742 0.13560139 0.31921658 -0.16679858
0.036281735 -0.28524154 -0.119815476 0.30439594 -0.2629464 -0.08367923 0.117027886 0.116552405
-0.29587707 -0.38922524 -0.029697066 -0.035386596 -0.2156441 -0.29386848 -0.29867554 0.12777996
0.37323934 -0.3879386 -0.1239627 -0.044321757 0.2890298 0.054668564 -0.19680436 0.020381233
0.23830408 -0.11801489 0.17032562 0.16012676 -0.39977053 -0.34962547 0.22819355 -0.14029244
0.2953983 -0.33919582 0.29409048 -0.27241197 -0.40522456 0.15778899 0.17503357 0.27295482
0.0042341296 -0.19925228 -0.07005419 -0.103287876 0.27030563 0.009181131 -0.36129332 -0.01378903
0.010345338 0.2546799 -0.16309625 -0.2098279 0.057969116 0.22291729 -0.38871315 0.16880167
-0.3296621 -0.19670364 0.36832634 -0.17065413 -0.042479545 0.12744884 -0.0055437023 -0.021224137

gat1.att_dst f4 [1, 4, 32]
00000000: 84b6 383e 4406 ce3d a063 92be cd7c 773d
00000010: b0c8 25bd 2597 67be 88e2 6a3e 2096 b23d
00000020: 1eef 97bd 0fc4 6dbe a203 6dbe 5bb8 c03e
00000030: f15c 313d 7175 d4bd 7935 233e 6b40 9ebe
00000040: 6878 21be 4de2 873e 98d4 f2bd 3931 8a3e
00000050: 5a36 bebd 1754 88be 1010 15be f9cb 8dbe
00000060: 42f7 8abe 1f1f 743e 5bd5 cd3e 9381 993d
00000070: edec 79be 0cbf 0d3e 673c 563e 5d5c 31be
00000080: 2b8d 50bd f9b7 cf3e 1d93 debc 14d1 a33e
00000090: 7578 813e 533c 5cbe e5ed aabd e52e a4be
000000a0: d6bf bdbd 52f4 61be 3830 3abe 76fd c13e
000000b0: a8f8 263e dbc4 b6be 13e0 7abc eb39 1b3e
000000c0: 9b72 883d 5879 bf3e d76d 41bb 09dc cb3d
000000d0: acb7 8d3e 153a 84be dce5 a43e fffd f83d
000000e0: b78b 203e 0c60 773e cfd7 ebbd 0295 d43d
000000f0: 1778 cd3e 6a71 6e3e a3ba bd3d a4c1 6bbe
00000100: bbd8 813e 39d0 c63c bb1a 6ebe ebd0 68be
00000110: 7949 cabe 6884 2dbe 3e27 8b3e e89b 333e
00000120: ecb9 89bd 52d2 a5bd c19f 303e 2bcb 1cbd
00000130: cd33 ccbe 94d5 b93e 79bd 48bd c64b cc3d
00000140: da61 7ebe 7766 82be a8ce dbba f964 a6be
00000150: aa4e 15bc b645 91be e631 a6be 606c b83d
00000160: 44e8 acbe 6baf a43e 06c5 babe 51c4 3a3e
00000170: 88c6 aa3e a2e5 273d 55c3 6abd 3f55 c0bc
00000180: 4a05 443d 01a9 a5be 2d1a 4c3e d261 8bbe
00000190: c8f4 bfbe c05d 303e 9c7f 353e 9fe7 7b3e
000001a0: 40e8 58be 1acc 163e ec37 92bd a1e6 a13d
000001b0: e9a2 173d 7c60 0ebe 2a3d 273d 6971 373e
000001c0: 34cd 8abe 1d08 fcbc e974 b93d 63fc a2be
000001d0: df32 a03e cfd6 973d f6ea 8bbe 432d 6d3e
000001e0: 445b bfbe 261e b23d 6469 56be 03f0 6ebe
000001f0: d637 583e 859b 75be 1f62 853e cc45 65be
0.18038374 0.10059789 -0.28591633 0.060421754 -0.040474594 -0.22616251 0.22937977 0.0872004
-0.07418655 -0.23219322 -0.23145917 0.37640652 0.043301526 -0.10373963 0.15938367 -0.30908522
-0.15768588 0.2653984 -0.11856955 0.2699068 -0.092877105 -0.26626655 -0.14556909 -0.2769468
-0.27141768 0.23839997 0.4020184 0.074954174 -0.24406786 0.1384241 0.20921479 -0.1732039
-0.05091588 0.40570047 -0.027169758 0.3199545 0.25287214 -0.21507387 -0.08346156 -0.32067028
-0.092651054 -0.22065857 -0.18182456 0.37888688 0.16305792 -0.35697064 -0.0153122125 0.15158813
0.06662484 0.37397265 -0.0029514933 0.09954078 0.27679193 -0.25825563 0.3220662 0.12157821
0.15678297 0.24157733 -0.115157716 0.103799835 0.40130684 0.23285452 0.09264114 -0.23023087
0.25360665 0.02426921 -0.23252384 -0.22735946 -0.3950918 -0.1694504 0.27178377 0.17539942
-0.06724915 -0.08096756 0.17248441 -0.038279694 -0.3988327 0.3629576 -0.04900882 0.0997539
-0.24842015 -0.254688 -0.0016769962 -0.3249891 -0.009112993 -0.28373498 -0.32459944 0.09005046
-0.33770955 0.32165083 -0.36478442 0.18238951 0.33354592 0.04099048 -0.05731519 -0.023478149
0.047856607 -0.32355502 0.1993186 -0.27223068 -0.3749144 0.17223263 0.1772446 0.24600075
-0.21182346 0.14726296 -0.071395725 0.07905317 0.037020598 -0.13903993 0.040829815 0.17914356
-0.27109683 -0.030765587 0.09055502 -0.3183318 0.31288812 0.07414018 -0.27327698 0.23161797
-0.37374318 0.086971566 -0.20938641 -0.23333745 0.2111505 -0.23985107 0.26051423 -0.22389907

gat1.bias f4 [128]
00000000: d5e4 4bb9 1a42 18b9 45c6 d939 7950 be3a
00000010: 2f85 ec39 5a76 44ba cd05 0f3a e427 8ab5
00000020: 476d a539 a5e3 8fb9 9743 93b9 2464 e939
00000030: 6d59 77ba 6c1f afb8 4dc9 dbb9 2018 d6ba
00000040: 2fa3 b839 f766 1fba dc2a a3b9 6971 a8b8
00000050: 7aa6 4eba 699a 8bb9 71b0 87ba f1ce 5eba
00000060: 6411 3c3a 6eba a4b9 a954 9bb9 81a4 7a39
00000070: 6c15 af3a 3755 07b8 2e37 54b9 bb4d d039
00000080: a12e ed39 be93 2739 03c3 d7b8 cbd4 5dba
00000090: 50d3 46b9 b2c0 1dba 43ce b739 6dd8 0e3a
000000a0: ae74 a13a e7a3 16ba 9859 abb9 4ea2 0bba
000000b0: 3bde 7639 95bc 02ba 4ced 9e38 978a 43ba
000000c0: b451 ae3a a878 6f39 781c 05ba 6a20 8236
000000d0: 3507 38b9 6fa6 2fb9 4088 27ba d804 5339
000000e0: 1d12 61ba e879 133a 73df 08ba 65ca c038
000000f0: 5a21 ea39 ca9f 96b9 6266 2c3a ad9e bb3a
00000100: 90c6 113a ede6 3fba 989d b638 06ff cdb9
00000110: a32e f838 ad3c 5a3a bd32 acb9 9015 ec39
00000120: 70be f0b9 4435 9aba 33ee 013a 8b6b 84b9
00000130: 676c c9b9 a0a5 33ba ccdb 3339 7226 ffb9
00000140: 0117 9fb9 acc1 eeb7 f1d8 2d3a 938c 1d3a
00000150: 411f 4a3a db9e 80b9 d81c a639 fcc8 ec39
00000160: fb07 b038 636d 8eb9 fe84 24ba 0dbd 2738
00000170: ac06 4eba 834d 2839 49d4 f839 6756 8ab9
00000180: 30ba 4b3a dce9 8bb9 d5ec 123a c44c 76ba
00000190: 8650 103a 6fde 203a 61f5 af3a ad80 11b9
000001a0: ad24 8839 906e 2039 936e ba39 b0b0 9039
000001b0: ea43 263a e40c d9b8 4849 26b9 b716 20bb
000001c0: c1a3 5aba ef68 48b9 140d ae37 fbb9 e238
000001d0: 0bf9 233a 353b c639 f971 d538 3ea8 23b8
000001e0: 4642 2738 7214 273a 472d 98b9 23d6 9539
000001f0: c552 1cba c246 353a ef67 a1ba af2a 673a
-0.00019444835 -0.00014520474 0.00041537188 0.0014519832 0.00045112657 -0.00074944424 0.00054558815 -1.0293411e-06
0.0003155267 -0.00027444694 -0.00028088383 0.00044515834 -0.0009435628 -8.350503e-05 -0.00041920916 -0.0016334094
0.00035216796 -0.00060807116 -0.00031121715 -8.0319885e-05 -0.00078830833 -0.0002662719 -0.0010352266 -0.00084994646
0.0007174222 -0.00031419419 -0.0002962698 0.0002390314 0.0013357825 -3.226587e-05 -0.00020238452 0.00039730765
0.00045238904 0.000159814 -0.00010288323 -0.00084621896 -0.00018961472 -0.00060177885 0.00035058157 0.000544912
0.0012318098 -0.0005746469 -0.00032682414 -0.00053266145 0.00023543175 -0.00049872074 7.578227e-05 -0.0007459311
0.0013299496 0.00022837764 -0.00050777895 3.8780754e-06 -0.00017550292 -0.00016751302 -0.0006390847 0.00020124333
-0.0008585768 0.00056257704 -0.0005221285 9.192972e-05 0.00044656807 -0.00028729282 0.00065765355 0.0014314257
0.0005560899 -0.00073204824 8.7077904e-05 -0.00039290654 0.00011834248 0.00083250814 -0.000328442 0.00045029493
-0.00045918254 -0.0011765142 0.0004956454 -0.00025257128 -0.00038418474 -0.0006852988 0.00017152651 -0.00048666034
-0.00030343983 -2.8461996e-05 0.0006631753 0.0006010022 0.00077103457 -0.0002453242 0.00031683478 0.00045163173
8.3938205e-05 -0.0002716585 -0.0006275921 3.999197e-05 -0.00078592706 0.00016050604 0.0004746041 -0.00026385786
0.00077715795 -0.00026686385 0.0005604749 -0.0009395594 0.0005505163 0.0006136661 0.0013424569 -0.00013876213
0.00025967267 0.00015299977 0.0003555907 0.00027597463 0.00063425174 -0.000103497674 -0.00015858293 -0.0024427602
-0.0008340441 -0.00019112577 2.0748506e-05 0.00010811161 0.0006255067 0.00037809616 0.000101778605 -3.9018916e-05
3.9877625e-05 0.0006373591 -0.00029025433 0.0002857904 -0.00059632614 0.0006915146 -0.00123143 0.0008818311

gat1.lin.weight f4 [128, 5]
00000000: 354a f13d ac1f 77bd 767d d8bd aa62 953b
00000010: f0d5 26bd 1b05 3dbc d92a 02bd aa54 4a3e
00000020: 32e0 11be e794 febd 23eb 13be fbc9 8c3d
00000030: fa0d 3f3e 4c00 23bd 260b ac3d 5119 8c3d
00000040: 3b61 bf3d 5569 c5bd 0859 31be 392a 823c
00000050: d9c0 093e 8296 c23d 6858 1dbe fad8 d4bd
00000060: a193 87bd 70cf 9f3d 1862 38bb 7e38 823d
00000070: f25f 38be ae58 213e d956 e83d 24c5 a1bd
00000080: 5ea9 c2ba 3eae ea3c 35e1 d73c a3bb 283e
00000090: 7f2f 3a3d 314e 343e bbcc 4fbe 8fd7 2c3c
000000a0: 8bce ddbb c6db 25be 2896 d63d 0daf 8d3d
000000b0: ed45 c6bd 6af7 253d d32e 2bbe a751 a83d
000000c0: 8204 d7bd 0334 e33c e060 1b3e a43a 15be
000000d0: 881e d8bd fe9a 283e 0266 013e 1999 3c3e
000000e0: 3faf 23be fc3b cf3d 91cb 58be 500c 13be
000000f0: 26bf 7a3d bca4 e6bd 2ca5 12bd 42cd 5cbd
00000100: a847 263e 0d09 31be e13e d5bd de5c 5a3d
00000110: 8f8d 21bd d4b0 d43c d57e e63d 4e11 0f3e
00000120: 9c83 e63d d9c9 df3d 6906 f5bc 5187 583d
00000130: 21be 8a3d f64c 22bd 657d 9dbd b6a9 903d
00000140: 9e6a 9dbd 3534 18be 36da e43d c450 973d
00000150: 514c 54be c3c3 0a3d fe6a c53d 62a4 0d3e
00000160: 54f8 30be ce9a 9d3d 2383 3cbe a864 303d
00000170: 9f95 8ebd 714a 5abd 007a 213d 0586 16be
00000180: da92 e8bd 6e11 c93d 2ee6 f4bc d7ac d23d
00000190: 6150 dbbd 085f ca3c 7f3c a43d 0bdb e73d
000001a0: 30af 39be 8cc9 51bd ed1d 223e 204f 2d3e
000001b0: d265 3b3e 55d1 3cbe 7254 09be b032 1b3e
000001c0: 5c78 4cbd 150f ecbd 5fb4 aebd 2dc6 a73d
000001d0: ae13 33be 43f6 51be 0875 0f3c 1b91 55be
000001e0: 6dbe 35be c126 313c d4f0 92bd 574f 0dbd
000001f0: 182a 073e 1277 e3bd 9264 cfbd 1e5a d4bd
00000200: 1ff3 a03d 9199 fb3d 5d6c 4dbe aa05 d93d
00000210: 4bb5 553c 6f59 843d dc75 173e 93ac 953c
00000220: 1991 19be d609 063e c447 d83d 68bf 2d3d
00000230: f33d d63c e49d 2b3d ac79 a1bd b736 2ebd
00000240: da88 64bd 93ea 593d 37cb 7fbd 5149 c73d
00000250: 1640 98bd 3140 4abe 7778 d73c b537 f5bd
00000260: 6f24 1b3e ca76 4f3e 9abf 49be 1b38 0e3d
00000270: 00cb f93d 4f58 48bd 5cf3 0a3e 8b6f 1f3c
00000280: f0ae 7c3d c3fb 8e3d 6748 473e e83d 18be
00000290: 2301 6f3c ae32 1d3e 3dc7 2fbe 1ec8 10be
000002a0: 2c15 04bd 2424 163e 2c70 133e e8f6 8cbb
000002b0: 01b5 263e 9ea7 b43b e62f 19be 3a29 2e3e
000002c0: 8d4c b5bd 4014 21bd e983 91bd 2720 ddbc
000002d0: d6f1 423e 29ba 1ebe 0cbb 1abd 5fd7 bebd
000002e0: d24c 633e 4c2d 09be 9d0f 1f3e aa40 153d
000002f0: 6756 e4b8 6c98 473e 27af 2a3e d79c 163c
00000300: d148 3d3e f292 b53c be8f 24bd 0d8d b73d
00000310: fafe 253e 86e9 5f3d c245 333e e2e6 9bbd
00000320: 032e a13d 31bf 09be 8a2f 233b b509 2f3e
00000330: 79c9 043e 0fd9 b7bd e8cf 1dbd 9a14 bbbd
00000340: 0f78 b73d 7779 0dbe 78d4 203e 8ad8 23be
00000350: 4e47 0dbe ab2f b5bd a7e2 623e e8f2 1d3e
00000360: fca5 13bd 2401 df3d b308 9dbd d2a6 1dbe
00000370: ff99 4b3e 7739 3d3d 7cc7 0a3e ab99 003e
00000380: a12c 78bd c181 d93d 9455 9d3d f39d fd3c
00000390: 610b 7dbd 2072 353e dc37 633c 4654 b1bd
000003a0: 45bf ab3d 565e 6abd 349b 99bd 1f00 08be
000003b0: 1446 29be 7b28 1b3d a297 863d 845c 56bc
000003c0: 54f5 f0bb 1fb6 273e 94cf 4ebe 041a 9a3d
000003d0: d9c2 493e 02f8 99bd 1396 2cbd 0192 323e
000003e0: 5180 bebc 2231 4fbd a304 5dbe 9dc7 bcbc
000003f0: 66f1 36be 624a 21be e2a1 443e 4698 023e
0.11781732 -0.06033294 -0.10570805 0.004558881 -0.04073137 -0.011536862 -0.031779144 0.1975886
-0.1424568 -0.124307446 -0.14445166 0.06874462 0.18657675 -0.039795205 0.08400564 0.06840766
0.09344717 -0.09639231 -0.17319119 0.015889274 0.13452472 0.09501363 -0.15365756 -0.103929475
-0.06619955 0.078032374 -0.002813464 0.06358431 -0.1800535 0.15756485 0.1134469 -0.0789893
-0.0014851501 0.028647538 0.026352504 0.16477828 0.045455452 0.17607953 -0.20292942 0.01054944
-0.0067690066 -0.16197118 0.10477859 0.06918154 -0.09681306 0.040519156 -0.16717081 0.08218699
-0.10498907 0.027734762 0.15173674 -0.14573151 -0.105526984 0.16465375 0.12636569 0.18417777
-0.1598482 0.10118863 -0.21171404 -0.14360166 0.06121745 -0.11261889 -0.03580205 -0.053906687
0.16238272 -0.17288609 -0.10412384 0.05331122 -0.03944164 0.025963224 0.1125466 0.13971445
0.11255571 0.10927171 -0.029910283 0.052863423 0.067745455 -0.039624177 -0.07689933 0.0706362
-0.07686351 -0.14863665 0.11174433 0.07388452 -0.20732237 0.0338781 0.09639548 0.13832238
-0.1728223 0.07695542 -0.184094 0.043064743 -0.06962132 -0.05329365 0.03942299 -0.14699562
-0.11356135 0.098177776 -0.029894914 0.10286873 -0.107086904 0.024703518 0.08019351 0.11321076
-0.18133235 -0.0512176 0.15831728 0.16924715 0.1830056 -0.18439229 -0.1341112 0.15156054
-0.04991947 -0.11526314 -0.08530497 0.08192096 -0.17487976 -0.20504098 0.00875593 -0.20856135
-0.17748423 0.010812462 -0.071748406 -0.034499492 0.13199651 -0.11106695 -0.10126604 -0.10368751
0.07858872 0.1228515 -0.20060869 0.105967835 0.013043712 0.064623706 0.14791054 0.018270766
-0.14996757 0.1308969 0.10560563 0.042418867 0.026152587 0.041898623 -0.07884535 -0.04253265
-0.055794574 0.053202223 -0.06244966 0.09730781 -0.074340984 -0.1975105 0.02630256 -0.11973516
0.15150617 0.20260158 -0.19701996 0.034721475 0.12196922 -0.048912343 0.13569397 0.009731184
0.06169027 0.069816135 0.19461213 -0.14867365 0.014587673 0.15351364 -0.17165847 -0.14138839
-0.032246754 0.14662224 0.14398259 -0.0043018945 0.16279985 0.0055131456 -0.14959678 0.17007914
-0.088524915 -0.039325953 -0.07105238 -0.02699287 0.19037566 -0.15500702 -0.037776038 -0.093184225
0.22197273 -0.13396186 0.155333 0.03643862 -0.00010887981 0.19491738 0.16668378 0.009192667
0.18484809 0.022164796 -0.040176146 0.0896245 0.16210547 0.054666065 0.17507079 -0.07612397
0.07870104 -0.1345184 0.0024900162 0.17093547 0.1296748 -0.089769475 -0.038528353 -0.09134789
0.08958446 -0.13815866 0.1570605 -0.16000572 -0.13796732 -0.088469826 0.22156774 0.15424693
-0.036046967 0.108888894 -0.07667675 -0.15395668 0.19882964 0.04619738 0.1355266 0.1255862
-0.060589436 0.10620452 0.07682338 0.030959105 -0.06177843 0.17719316 0.013868298 -0.08658652
0.08386091 -0.057218872 -0.07500306 -0.13281296 -0.16530639 0.037880402 0.065718904 -0.013083581
-0.007353464 0.16378067 -0.20196372 0.07524493 0.19703235 -0.07518007 -0.04213531 0.17438509
-0.023254545 -0.050583966 -0.215838 -0.023044402 -0.17865524 -0.15751031 0.19202378 0.127534

sage1.lin_l.weight f4 [128, 128]
00000000: ca89 413d 1a93 01bd b738 253d 6e17 a13d
00000010: dcb4 c83b 8eef 35bd ebec edbb 97e3 babc
00000020: 2b43 55bd bc15 c8bc 3492 33bd c9cc 4bbd
00000030: 0e7e 1e3c deba 653d 1a92 113c 1c39 d7bc
00000040: cbbc 0c3d 6273 a0bd 65b6 acba 2f14 2dbc
00000050: 209c a53d 8e18 b7bc 091f 04bd bbad 103d
00000060: 7db8 a7bd fb4c 8abd 36f6 83bd dbe3 82bd
00000070: 61bb 6a3d 5927 963d 6cc9 80bd ce28 aebd
00000080: d4c0 acbd f7e9 adbd 8129 bfbd ba3f 8a3d
00000090: 6944 703d 3db9 b0bc 24ab 523d fd8e 9cbc
000000a0: 4d39 96bc c0f6 8abd 267a 7bbd f307 8b3d
000000b0: 44d3 a3bd 12c0 4ebd 5f5c 103d 2d6c 36bd
000000c0: 7956 83bc a34f cc39 27f2 55bd 1f8f 123d
000000d0: e91b 623d 01b6 c03c de58 6ebd d123 8abc
000000e0: b3b4 963d 981f 4bbb 97ef d23c b15e 99bc
000000f0: 778e 29bd 35a2 d3bc 31e3 75bd 7252 423d
00000100: 5b04 1c3c 24b9 8f3d 292a 70bd d9b8 76bd
00000110: 045d 753d 90a0 6ebd 22bf 843d 4b8b 3d3d
00000120: 9899 d73c 092b a43d 4a24 ff3c 1f2f 66bd
00000130: 5b11 893c d6a1 95bd 2979 953d 53e1 fe3c
00000140: 2f72 f43c 73cc 3a3d aaff bdbd 9e82 49bd
00000150: 1429 853d f110 9cbc d258 bbbc 0728 42bd
00000160: bb1f 8dbd 4b58 b73d bf85 113d b056 a03d
00000170: 66b6 b53d 0275 72bd 4e93 433c 0a69 82bc
00000180: 09b5 7abd da4b c63d ecd6 583d 4060 3b3d
00000190: 7f06 ea3b 6d3d 2c3d 5be0 bc3d e45d febc
000001a0: cd7a 183c acaa aabd dec4 b0bd a20f 58bd
000001b0: 3399 013d 3c55 803d a7e3 6ebd cfea e7bc
000001c0: b450 da3b 7d2f 7aba c189 373c d329 823d
000001d0: a3c7 0fbd ea79 253d d3fc 073d 928c b3bd
000001e0: cd98 14bd 5878 603d cf6d 243c 6adc c43d
000001f0: ad96 8ebd aeea 3abd 4677 0d3b 825c 6a3c
00000200: 41eb c13c f6cd b9bc 5ef0 9d3d c3b8 a03d
00000210: 49d4 a4bd 1f4f 7dbc d6d9 64bd 3537 683d
00000220: 46d0 b93c 51b8 61bc b51f 93bc 4434 41bd
00000230: 8275 2b3c 9e1e 193c 91f1 9a3b efd8 26bd
00000240: 69a7 873b a32a 7f3d 0a21 33bd 10a4 553d
00000250: 03dd d63b 1eaf b63d f3a3 903d 7562 2b3d
00000260: cb47 75bd f666 393c 9309 8e3d b98d 6e3d
00000270: de40 3fbd 4114 9fbd 465d 95bd b281 6abd
00000280: d3c2 a63d 30ec 83bb 2298 f33c d795 abbd
00000290: 48a2 99bd 8b72 2b3a fdf5 f2bc 8518 f03b
000002a0: e522 37bd 0f9a 53bd 870b 343d 0971 a0bd
000002b0: d5fb dcbb 17ab 303c 6ace 563d a889 893d
000002c0: 9e75 a73d 2eb1 99bd 4dbb 9ebb 0dbf 80bc
000002d0: 1a74 abbb 84f0 933c a2ec c93c c710 97bd
000002e0: 9cde e73c 8c8c 443d e4d7 4dbd c712 a43d
000002f0: 88e0 3f3d f69d 383d 90ec 9e3b 02d6 f9bb
00000300: c00d 1ebd fcd2 aa3d 940c 203d ef0d 95bd
00000310: a278 97bd d64a 6abc a0b1 8cbd 525e 9e3b
00000320: b5a0 b4bb 9948 67bd d78d b239 071e b0bd
00000330: b849 a73d f4ef d13b 36d5 cfbb deaa ca3c
00000340: 4249 ecbc eacf eebc 4c46 7fbd b8b6 453d
00000350: 8812 78bd 69d4 31bc 5a8e a9bd ea58 c13d
00000360: c7a7 2f3d 41dc 9ebd da65 b63d 483a 42bd
00000370: 6db2 3e3d a84f 02bd 6d7d edbc 3d52 d3bc
00000380: 9e30 183d 8d7d 7cbd 4dbd 97bd c3ee 343c
00000390: 358b 8fbd 88b4 76bd 323e d9bc e7c1 86bd
000003a0: cf34 5b3d 58dc 2a3d 4d2d 1a3d f644 0b3d
000003b0: 2a1c a73d 221e 2bbd 011c 9e3c f513 edbc
000003c0: d71a 923d f82a 93bb f251 6d3c 4a5c 903b
000003d0: 1e99 ab3d bfb2 973c 9d35 0d3d 4b14 4c3d
000003e0: 9d5f 9cbd 14de 34bd 5840 52ba c3aa 0ebd
000003f0: 04cf 243c 8818 813d de0f 833d de9f 8d3d
0.047250547 -0.031634428 0.04033729 0.07865797 0.0061250757 -0.04441791 -0.007260909 -0.022813601
-0.05206601 -0.024424426 -0.043840602 -0.049755845 0.0096736085 0.056086414 0.008884931 -0.026272349
0.034359735 -0.078345075 -0.0013176916 -0.010563894 0.08086419 -0.022350576 -0.03225616 0.035321932
-0.08189485 -0.06752964 -0.064434454 -0.06391116 0.057307605 0.07331724 -0.06288418 -0.085038766
-0.084352165 -0.08491891 -0.09334088 0.06750436 0.05865899 -0.021572703 0.051432744 -0.01911115
-0.01833787 -0.06785345 -0.061395787 0.067886256 -0.0799928 -0.05047614 0.035244342 -0.04453676
-0.016032444 0.00038969246 -0.052232888 0.035781022 0.0552024 0.023524286 -0.05819022 -0.016862782
0.073586844 -0.0030994173 0.025749011 -0.01872191 -0.04139563 -0.025834182 -0.06003112 0.047441907
0.009522523 0.07017735 -0.058633957 -0.06023488 0.05990316 -0.058258593 0.06481768 0.04627542
0.026318356 0.08016021 0.031145234 -0.056197282 0.016731909 -0.073062584 0.072985 0.031113302
0.029839603 0.045605134 -0.0927728 -0.049196832 0.06501976 -0.019051047 -0.022869501 -0.047401454
-0.06890818 0.089523874 0.03552794 0.07829034 0.0887268 -0.05919362 0.011936976 -0.015919227
-0.061207805 0.09682436 0.05293934 0.045746088 0.0071418877 0.042050768 0.0922248 -0.03105063
0.009306622 -0.08333334 -0.086312994 -0.052749284 0.031640243 0.06266257 -0.058322575 -0.028310208
0.0066624526 -0.00095438195 0.011202277 0.063556336 -0.035102498 0.04039947 0.033200096 -0.08767046
-0.036278535 0.05480227 0.010035946 0.09612353 -0.06962333 -0.045633964 0.0021585985 0.014304282
0.023671748 -0.022681218 0.07711862 0.078477405 -0.08048303 -0.0154607585 -0.055871807 0.056693275
0.02268232 -0.013776855 -0.017959455 -0.047168985 0.010465028 0.009345679 0.004728504 -0.040734228
0.00413983 0.06229652 -0.04373268 0.052158415 0.0065571084 0.0892012 0.07062521 0.041841943
-0.05988292 0.011316052 0.0693542 0.058240626 -0.04669272 -0.07767535 -0.07293181 -0.057252593
0.081426285 -0.0040259585 0.029735629 -0.08378189 -0.07501656 0.00065402006 -0.029658312 0.0073271417
-0.044711012 -0.051660594 0.043956306 -0.0783406 -0.006743888 0.0107829785 0.052442946 0.06715709
0.081767306 -0.075044975 -0.0048441053 -0.0157161 -0.0052323462 0.018059023 0.024648968 -0.07376247
0.02830439 0.0479856 -0.050254717 0.08011394 0.04684499 0.04507252 0.004849978 -0.0076243887
-0.03858733 0.08341023 0.039074495 -0.07278048 -0.07396056 -0.014300069 -0.06869817 0.004833021
-0.005512322 -0.05646572 0.00034056485 -0.08599477 0.081683576 0.0064067785 -0.0063425554 0.024739679
-0.028843526 -0.029151876 -0.0623229 0.048269957 -0.060564548 -0.010853865 -0.082791045 0.09440787
0.042884614 -0.07756854 0.089061454 -0.047418863 0.04655688 -0.031814247 -0.028990472 -0.02579605
0.03715574 -0.061643172 -0.07409153 0.011043253 -0.070089735 -0.06023076 -0.026518915 -0.06579953
0.05351716 0.041714042 0.03764086 0.034001313 0.08159669 -0.041776784 0.019300463 -0.02894018
0.071340255 -0.0044912063 0.014484869 0.004405533 0.08378814 0.01851785 0.034474958 0.04982404
-0.07635424 -0.044157103 -0.0008020452 -0.03483082 0.010059122 0.06303507 0.06399511 0.06915258

sage1.lin_l.bias f4 [128]
00000000: 26ff 5dbc 7f93 02bb aa8d 21bd 39cc a53d
00000010: 78b1 70bd 285f 6a3d d3e2 393d d061 d2b8
00000020: 5ac9 793c 3bb6 2fbd 4a84 923d 3afd 983d
00000030: f646 53bd 56c6 553d 7848 3cbd b317 12bd
00000040: a445 cf3c 6e05 e5bc b201 2e3c 5f33 b6bd
00000050: 34f7 91bd 4e5c 50bd 601d ecbb 6bee 2cbd
00000060: 5ffb a0bd 56bc 36bd 0c09 60bd 9601 25bd
00000070: ed27 bc3d 9f0b f8bc 8103 16bc 9bb5 bd3d
00000080: 2c19 723d 83f5 a63d d62d 12bd 025b b5bd
00000090: ceca a3bd 78fb b8bc 9117 bebc 562f 33bd
000000a0: 1ab4 2fbd 3b26 73bd 2f74 59bd b612 853d
000000b0: 9b20 d5bb 6a5e 233d e7be 8e3d 3b7a 233d
000000c0: 914c 8d3d ad0e aebd 6464 6b3d 5488 24bd
000000d0: 00e3 ae3d 55d3 f0bb 3a37 57bd 764e 0e3d
000000e0: 4106 803c 483c 1ebd fb87 93bd 4de3 83bd
000000f0: 863c 413c cf5b 52bd 587c 82bd c1b6 d2bc
00000100: 7c8b 14bd 88fe 28bb 6483 253d 1973 a23c
00000110: deb1 efbc 6f7f 7b3d c71b 60bd bae9 2ebd
00000120: 5075 5dbc 3b20 f4bc c498 a1bd dfa0 013d
00000130: 20f2 0a37 3d8c 7c3c 3cae a23b 6c0d bc3d
00000140: a12d 873d 5402 61bd e555 473d 0bb2 89bd
00000150: fd95 94bd 6d81 c0bc 1371 4a3d 7812 4c3d
00000160: 6258 0cbd 70e3 5abd aab1 c8bc ccf0 593c
00000170: 5b6b 273d ab0b 29bd 2fa7 5c3d 4df7 953d
00000180: 6d7c 49bd 9f29 6c3d 61f3 5cbd d6ff 17bd
00000190: e867 f5bc 66cf e83b 7db9 b53c 261c b0bd
000001a0: a022 273d 74a8 ad3c aac8 81bd 38ca f03b
000001b0: 02c1 723d 6a74 b8bd 864c 84bd f42d a33d
000001c0: 61f0 4cbb 8511 283d 9576 f3ba 24c8 233d
000001d0: 8cf3 babb 6d13 6bbc 89a4 be3c 59cd a3bc
000001e0: ff2e 873d 505d 8d3c 2c97 bebc f618 babd
000001f0: 8a56 98bd 38b4 76bd 2acb a0bd 3831 1a3d
-0.013549602 -0.001992434 -0.039441742 0.08095593 -0.058762997 0.057219654 0.045382332 -0.00010031799
0.01524576 -0.042898398 0.071541384 0.07470174 -0.051581345 0.0521911 -0.04596755 -0.035667133
0.025301762 -0.02795669 0.010620521 -0.08896517 -0.071272284 -0.05086928 -0.00720565 -0.04221956
-0.07860445 -0.044613205 -0.054696128 -0.040284716 0.09187303 -0.030278979 -0.009156109 0.09263154
0.059106037 0.081522964 -0.035688244 -0.08855249 -0.07997666 -0.022580847 -0.023204597 -0.043746315
-0.042896368 -0.05936263 -0.053089317 0.064977095 -0.006504131 0.039884962 0.069700055 0.03991149
0.068993695 -0.08498893 0.057468787 -0.040169075 0.085393906 -0.0073494115 -0.052542903 0.034742795
0.015627982 -0.038631707 -0.072036706 -0.064398386 0.011794215 -0.051357087 -0.06371373 -0.02572191
-0.036265835 -0.0025786478 0.040408507 0.019830273 -0.029259618 0.061400827 -0.05471399 -0.042703368
-0.013516739 -0.029800525 -0.07890466 0.03164756 8.281815e-06 0.015414295 0.004964618 0.091822475
0.066005 -0.05493386 0.0486659 -0.06723412 -0.072551705 -0.023499215 0.049424242 0.0498223
-0.034263976 -0.053439558 -0.02449878 0.013302039 0.040873867 -0.041270893 0.053870376 0.073225595
-0.049190927 0.05765688 -0.05394304 -0.03710922 -0.029956773 0.007104802 0.022183174 -0.08599119
0.040804505 0.021198489 -0.06337102 0.007348325 0.059266098 -0.09006579 -0.06459908 0.07967749
-0.0031271207 0.041032333 -0.0018574769 0.03998579 -0.0057053026 -0.014347893 0.023271816 -0.019995378
0.06600761 0.017256409 -0.023265444 -0.09086792 -0.07438381 -0.060230464 -0.078512505 0.037644595

sage1.lin_r.weight f4 [128, 128]
00000000: fd9a fe3c 915c aa3c 1536 b8bc fe1a c83c
00000010: 47fb 2fbd 10a3 7f3c f7d9 303d eeaf 87bb
00000020: 0324 283d 3172 86bd c757 02ba 6a67 04bd
00000030: 3261 4238 b4c4 a0bd 65b0 413d 1958 abbd
00000040: 2882 6fbd 5f62 cc3c 6fac b23d b76d 85bd
00000050: 36ba a53c be57 8abd a888 a83b 1a60 bb3d
00000060: 51f0 8dbd 854e 14bd e8ac df3b a486 a0bd
00000070: 32ea 93bd c71d 583d adfd c13c 42f0 6d3d
00000080: 2992 a2bd cde3 503d 68f1 2abd 0f5b 54bc
00000090: c470 c1bd c7af a5bd a91c 4cbd 8ac4 acbd
000000a0: 2fdc 6c3d f33d 1cbb f112 a0bd 7dfd 0bbb
000000b0: 84d7 00bd 8785 363d 871f 7cbd 66b2 933d
000000c0: 4121 293d 96ee 2fbb bb91 593d d133 53bd
000000d0: 7857 e73b 77dc 653d a0d1 9ebd 9195 713c
000000e0: 9e29 b6bc d3c1 1e3d bc83 e63c df94 8bbd
000000f0: 694d 973d fd9a d5bb 8d0b 2d3d 4202 9abc
00000100: 1fde 803b 4771 a5bd 27c5 823d 2f94 063d
00000110: 41f4 333d a04e 2e3d 7915 a23d 343e 723d
00000120: 5af5 43bd df51 8bbd c85a 8abd ea27 863c
00000130: 5deb d9bc 63ab 39bc 103e b5bd 0483 813d
00000140: bb09 913d ef4a 29bd 308c 8b3c f8e8 fb3c
00000150: 768a 7cbc 57d1 85bd 268e 65bd 9fa8 aa3d
00000160: 7700 503d f0e4 763d 10ce f3bc 8aca 23bd
00000170: 8a3c 243d 8b87 bfbc de00 303d cf5d 623d
00000180: 6359 893d a472 85bd 1384 d5bc 1e21 84bd
00000190: fb9e 463d 23ce 5f3c 08cc 573c fea5 4c3d
000001a0: b8d8 58bd 9365 8cbd af9c 503d 5993 9cbd
000001b0: 2612 f83c 62df 6b3c 938a 22bd 9f7a 33ba
000001c0: 361a 4abd 9162 a2bd 8d3c 8f3d 2c7d 8a3d
000001d0: fece c9bc 1414 76bd 1a7f 7d3b 8888 95bd
000001e0: da95 bfbd 9762 723d e7be a43d fd8b 71bb
000001f0: 3bec 4fbd db19 0f3c c64c 13bc e176 b03c
00000200: 3c7b 3a3a ef43 bebc 5449 97bd 014c 15bd
00000210: c920 38bd fc5f b7ba 0bf1 a43c a16f 153d
00000220: bef6 8f3d 2d09 a3bd 65f4 51bd 89c4 093d
00000230: 6823 3cbd 5c16 933d 5cdc ac3c 2976 e8bc
00000240: 3372 d83c 9e45 9bbd 1a29 00bd 561e a7bd
00000250: d2f3 b53d 0280 8dbb 127f f33c 6c4a 603d
00000260: 5efe ae3d 29cb 913c 11e1 6d3d 2d9a 693d
00000270: c050 b5bc 5807 4f3c 17a8 8ebd e9b9 21bd
00000280: 10db 773c beae 04bd 6b10 853d 5221 e1bb
00000290: 3a73 c03c 11b4 a43d 1f0c 73bd 3aaa 57bd
000002a0: 1ecf b73d de47 9d3d 63a5 a0bc e12c 7c3d
000002b0: 9e14 11bd e0de a1bb 7e43 e0bb 02ff 81bd
000002c0: 653d 613d ccf3 dd3c 23d3 d6bb 4635 883b
000002d0: 4af7 b13d 6533 8d3d 8cf5 6ab8 2d29 913d
000002e0: f402 713d ea7b b1ba 6b56 623c dfae 343c
000002f0: be23 843d 80b0 fa3b 30f4 093c b9cb e73b
00000300: c030 7b3d 536c 1abc 58eb ff3c f3cd 103d
00000310: e706 8cbd 26e4 7dbc f0e0 9ebd 92e8 23bd
00000320: 4923 c03d c9cf a03b 2b59 8a3c 597a 68bd
00000330: 6533 64bd 9d13 033d f3b3 2bbd 0402 c5ba
00000340: 8e73 413c 4a56 dcba dd67 c1bc 9e07 0cbd
00000350: 4907 483d f119 25bb e554 58bd 33c3 fbbc
00000360: f9f7 923d 38b5 ae3c 9ed9 38bd f147 4e3d
00000370: 9783 ef3c d2b1 2abc c151 7c3d 3bc9 77bc
00000380: f773 283d 83e4 95bd 43e7 8fbd ca5f a3bc
00000390: cdb5 b0bb c797 c4bc bd73 80bd 03fe d137
000003a0: 185b 8dbd f139 fabc 3590 74bd ea80 9d3b
000003b0: e37d 93bd c772 e73c 4c76 1ebc 0604 a0bc
000003c0: b9d8 bfbd 7183 1e3d 3e45 c6ba 971e aa3d
000003d0: 6f97 8abd 357c e53b 2cd6 b0ba 8fc0 16bd
000003e0: bec6 8ebd ed70 683d 6c1a abbc f78a 50bd
000003f0: 114c aabd 7697 5d38 9a68 743d 663e 1cbd
0.031079764 0.020796092 -0.022486726 0.024426933 -0.042964246 0.015602842 0.043176617 -0.0041408455
0.04104997 -0.06564749 -0.0004972186 -0.032325186 4.6343725e-05 -0.07850018 0.047287364 -0.08366413
-0.058473736 0.02494925 0.08724295 -0.06515067 0.020230394 -0.06755017 0.005143244 0.09149189
-0.06930602 -0.036207695 0.006826032 -0.07838181 -0.072224036 0.052762773 0.023680532 0.058090456
-0.07938034 0.050998498 -0.04173413 -0.012961163 -0.094453365 -0.080901675 -0.04983202 -0.08435924
0.05782717 -0.0023840636 -0.07816113 -0.0021360808 -0.03145553 0.044560935 -0.061553504 0.07211761
0.04129148 -0.002684509 0.053117495 -0.051563088 0.0070599876 0.056118455 -0.077548265 0.014745132
-0.022236641 0.038759064 0.028138988 -0.06815504 0.07387812 -0.00651872 0.042247344 -0.018799905
0.003932729 -0.080782466 0.0638526 0.032856163 0.04393411 0.04255545 0.07914252 0.059141353
-0.047841407 -0.06802725 -0.067555964 0.016376454 -0.026601488 -0.011332366 -0.08849728 0.06323817
0.07081934 -0.041331228 0.01703462 0.030750737 -0.015413871 -0.06534069 -0.056043766 0.08332943
0.050781693 0.060276926 -0.029761344 -0.03998808 0.040096797 -0.023380062 0.042969577 0.055265244
0.06706502 -0.065160066 -0.026063954 -0.06451629 0.04849146 0.013659987 0.013171203 0.04996299
-0.052941054 -0.06855311 0.050930675 -0.07645292 0.030282091 0.01439652 -0.039682936 -0.000684658
-0.049341403 -0.07928956 0.06993971 0.06762156 -0.024634834 -0.06007774 0.0038680495 -0.07301432
-0.09354754 0.059176054 0.08044224 -0.003685712 -0.050762396 0.008734192 -0.008990472 0.02154106
0.00071137 -0.023225753 -0.07387033 -0.036449436 -0.04495314 -0.0013990398 0.02013447 0.03648341
0.07029484 -0.079607345 -0.051258463 0.033634696 -0.045932204 0.07181999 0.02110117 -0.028376656
0.026421642 -0.07581638 -0.031289198 -0.08160083 0.08884396 -0.0043182382 0.029723678 0.054758474
0.085446104 0.01779707 0.05807597 0.0570318 -0.022133231 0.012636028 -0.06965654 -0.03948394
0.015127912 -0.03239321 0.06497272 -0.006870427 0.023492444 0.080421574 -0.05933773 -0.052652575
0.08975051 0.07679723 -0.019610113 0.061566237 -0.035420053 -0.004939899 -0.006843983 -0.06347467
0.05499019 0.02709379 -0.006555931 0.0041567413 0.08689745 0.06894568 -5.601863e-05 0.07087932
0.058840707 -0.0013540958 0.013814549 0.011028021 0.0645213 0.007650435 0.008420035 0.007073846
0.06132579 -0.009425241 0.03124015 0.03535266 -0.06837254 -0.015496289 -0.07757747 -0.04001672
0.0938173 0.0049075824 0.016888222 -0.056757305 -0.055713076 0.032001127 -0.04191966 -0.0015030508
0.011807336 -0.0016810384 -0.023609096 -0.03418695 0.048835073 -0.0025192464 -0.052815337 -0.030732727
0.07176203 0.021326646 -0.04512941 0.050361577 0.029237552 -0.010418372 0.061601404 -0.015123661
0.041126218 -0.07318976 -0.070265315 -0.019943137 -0.005392766 -0.023998154 -0.06272075 2.5033025e-05
-0.069021404 -0.030545207 -0.05970784 0.0048066275 -0.07201745 0.028252972 -0.009671759 -0.019533169
-0.093675084 0.03869957 -0.0015126837 0.08306616 -0.06767165 0.007003332 -0.0013491563 -0.036804732
-0.06971501 0.05674832 -0.020886622 -0.050913777 -0.0831529 5.2831565e-05 0.05967007 -0.038145445

sagpool.gnn.lin_rel.weight f4 [1, 128]
00000000: 1cfc b2bd 2ce5 3c3d ebe0 9c3d c82c 833c
00000010: b421 ea3c 7def 39bd bf1f d1bc de0b a0bd
00000020: 74d8 b1bc 92a0 aabd a81d 233d 479a 78bd
00000030: b329 e0bc 50c3 abbd caab aebd e547 82bc
00000040: f2a9 7d3d 8847 0e3d 6565 b6bd 1eb9 14bd
00000050: 7f9f a1bd 7aa0 fb3b 86af f1bb 09aa 25bd
00000060: 9493 1d3d 5fe7 7c3d bf11 a93d 37a2 8dbd
00000070: cd36 2c3c b484 643d 08e5 343c c7c7 9dbd
00000080: 9dea e93c dfce a33d 7b38 39bd f754 883d
00000090: 2e55 25bd e089 7dbd 7b48 36bd 829b e73c
000000a0: edca a2bd 18ff 4bbd 6df6 1ebd ab3b a23d
000000b0: fcc2 a0bd 0611 a0bd 6bc2 90bd ef2a 0dbd
000000c0: 75be b23b 7d3f 28bd 4634 0dba 5817 3d3d
000000d0: 0695 48bd c59c a3bd e705 ae3d a94a 9bbd
000000e0: c3fe d63c f847 ad3d 5338 03bd 2546 31bd
000000f0: 21c2 e53c 468e 86bd 581b 973b 7084 973b
00000100: b92b 623d 69f8 9ebd b61c 5ebc b995 d0bc
00000110: 6d40 393d 1bb0 ee3c fefb 9dbd b9a5 a5bd
00000120: d5db a13d 7d56 77bb f8f9 92bd 50bd 99bb
00000130: 6a30 52bc 3899 9fbc c71b 5b3d 99d8 59bd
00000140: 0eaf abbd 61c6 9dbb 3125 8c3d 4a58 9d3d
00000150: 8281 0c3d 202b 13bd 479e 923c 886b 043d
00000160: 1eb1 10bd eddf 9cbd acf4 2a3c b21a a4bd
00000170: baf4 7c3d a913 9cbd c998 8e3d bef9 84bd
00000180: e70f a73c 2a4a 1c3d 3617 623d 231a 963d
00000190: 4829 713d 86ca 42bd 4c24 fc3c 08dd 7f3d
000001a0: 3d7e a43d a6a0 663d 8fbb c03a 3e87 6a3d
000001b0: 3786 473d 5758 bbbc 38cb 4b3d 7168 81bb
000001c0: 473d 68bc ed6c 5d3d c35f 89bd fffa 47bd
000001d0: 7f75 243c d27b a43b 261c 9cbd 6a8f e13c
000001e0: 39f3 6fbd 6652 2c3d 3df4 f2bc f3e4 6f3c
000001f0: 1697 40bd ecb1 6e3d 93c6 aebc 5659 863c
-0.08739492 0.046116993 0.07660087 0.016012564 0.028580524 -0.04539441 -0.025527833 -0.078147635
-0.021709658 -0.083314076 0.039823204 -0.060694005 -0.027363634 -0.08386862 -0.0852886 -0.015903423
0.06192965 0.034736186 -0.08906058 -0.036309354 -0.078917496 0.0076790424 -0.0073756604 -0.04044536
0.03847082 0.06174409 0.08255338 -0.06915706 0.010511112 0.055790618 0.011040933 -0.0770412
0.028554255 0.07998442 -0.04521988 0.06656831 -0.040364437 -0.061899066 -0.044502717 0.028272394
-0.07948861 -0.049803823 -0.03880923 0.07921537 -0.0784969 -0.07815747 -0.07068332 -0.034464773
0.005454833 -0.041076172 -0.00053865125 0.04616484 -0.048970245 -0.07988886 0.084972195 -0.075826
0.026244527 0.084609926 -0.032036137 -0.043279786 0.02804667 -0.06570105 0.004611414 0.004623942
0.05521748 -0.07762224 -0.01355665 -0.025462018 0.045227457 0.029136708 -0.07714079 -0.0808825
0.07903258 -0.003774076 -0.07176584 -0.0046917573 -0.012828926 -0.01948224 0.053493287 -0.05318508
-0.083829984 -0.0048149084 0.06843031 0.076828554 0.034303196 -0.0359298 0.017897738 0.032329112
-0.035325162 -0.07659898 0.010434311 -0.08012904 0.061756827 -0.076209374 0.06962735 -0.06492947
0.020393325 0.038156666 0.055197917 0.07329204 0.05887726 -0.047556423 0.030779026 0.06246665
0.080318905 0.05630555 0.0014704334 0.057257883 0.04871198 -0.022869272 0.04975435 -0.003949218
-0.014174766 0.054058958 -0.06707718 -0.048823353 0.010037779 0.0050196433 -0.076225564 0.027534205
-0.058581565 0.04207077 -0.029657478 0.014641988 -0.047019087 0.05827515 -0.021334922 0.01640002

sagpool.gnn.lin_root.weight f4 [1, 128]
00000000: 2bce 95bd f1a8 1a3c 5b9e f9bc 5f2a 4c3d
00000010: e090 093d 2672 3cbd 5cc4 b43d 8eb1 313b
00000020: 7de9 b43d b6c3 913d 2ed5 2bbd c266 80bd
00000030: d2c9 8fbc 0ed3 4fbd b507 61bd 99d4 9bbb
00000040: 83e7 483d 8597 12bd 6646 82b9 5714 613d
00000050: f0d3 5c3b 0841 68bd 0612 9e3d b671 9dbd
00000060: 4cde 1dbc 634a bb3b 5ae3 943d 5e53 b83d
00000070: d2a9 9dbc 099f 23bd 0b94 95bd 78bd 1abd
00000080: 0d29 1b3d 7a1c 2f3d d5f2 2a3d de35 943d
00000090: 97c0 013d 0ed0 763d e114 2a3d 6671 e63c
000000a0: 2b3c 37bd d27f b2bc 2f54 b93b 490c c63c
000000b0: e3db 4d3d 3e98 a83a cdc2 773d 5481 59bd
000000c0: deb3 483d 9acf 9c3d 6b73 863b 83e1 5dbd
000000d0: 2767 cc39 b44a 143c c46c a4bd 4d40 88bd
000000e0: 4ba3 80ba c920 943d 54d3 483d da45 f6bc
000000f0: dd2d 1b39 cf76 e73c 7f07 5f3d 6905 a4bc
00000100: f47b 73bd 3b70 5cbd 23ba 183c 466e 8d3d
00000110: 3661 03bd c8eb 05bd 2ac4 05bd a195 9fbd
00000120: a990 9e3c b90a db3c b93e 943d 076d a7bc
00000130: 0749 2a3d 1557 d23c 78fb 5c3d 0c86 2e3c
00000140: 6ecb e7bc c33f babc 3b2a 46bd 413d af3d
00000150: 6663 be3c 8260 1abc 7da6 ef3c 4843 91bd
00000160: a208 13bd 31ae ccbc 115f 383d 9a1e 4c3d
00000170: f80e 223b 3402 9d3d 2f3d a4bc fc73 253c
00000180: b1d1 693d 8127 b63d 93c0 8f3c ff25 da3b
00000190: 09ef 66bd 7a2a 08bd d0d2 31bd 860f 20bc
000001a0: c0c0 c939 2810 54bd 3544 1d3d 19cd f83c
000001b0: ebee 063d 6615 0bbd 3f7a 893d dade 1c3d
000001c0: de77 923d d104 973d 0e52 17bd dc63 ccbc
000001d0: 5e66 17bd dbef a13d 71d5 28bb 39fa a73d
000001e0: df42 28bc 78fb 543d fc34 c23c 443f 85bb
000001f0: 015d ab3d d62a 4bbd 6ea6 6b3a 5c5b 58bd
-0.07314714 0.009439693 -0.030471018 0.049845096 0.03358543 -0.046007298 0.08826515 0.0027113887
0.08833597 0.07117407 -0.04195135 -0.062695995 -0.01755229 -0.050738387 -0.05493899 -0.004755568
0.04904891 -0.03578903 -0.00024847983 0.05495104 0.003369566 -0.056702644 0.077182814 -0.07687704
-0.009635519 0.0057156547 0.07269926 0.09000276 -0.019246016 -0.03994659 -0.073036276 -0.037778348
0.037880946 0.042751767 0.04173549 0.07236837 0.03167781 0.06025701 0.041523818 0.028130244
-0.044735115 -0.021789465 0.0056557874 0.02417578 0.05025853 0.0012862755 0.06048851 -0.053101853
0.04899966 0.07656784 0.0041031144 -0.054170143 0.00038986767 0.009051014 -0.08028558 -0.066528894
-0.000981429 0.07232816 0.049029663 -0.030062605 0.00014799037 0.028254895 0.05445051 -0.020022111
-0.059444383 -0.05381797 0.009321722 0.069057986 -0.03207513 -0.03269556 -0.03265778 -0.07792211
0.019356089 0.026738511 0.07238526 -0.02043773 0.04157355 0.02567629 0.053950757 0.010652076
-0.028295245 -0.022735482 -0.048380118 0.08556605 0.023240756 -0.009422423 0.029254192 -0.07092911
-0.035896905 -0.024985405 0.045012537 0.04983387 0.002472816 0.07666436 -0.020048706 0.010098454
0.057084743 0.088942535 0.017547881 0.0066573615 -0.056380305 -0.033243634 -0.043413937 -0.009769326
0.00038481317 -0.05177322 0.038395125 0.030371236 0.032942694 -0.033955954 0.0671277 0.038298465
0.07151769 0.073739655 -0.036943488 -0.02494996 -0.03696286 0.07907077 -0.0025761987 0.08202023
-0.01026985 0.05199763 0.023706906 -0.0040663797 0.083673485 -0.0496014 0.00089893385 -0.052821502

lin.weight f4 [64, 128]
00000000: c14e c1bd b7f5 4c3c cb6d 30bd a929 8cbc
00000010: d570 c1bc 7c32 1d3c 1293 04bd 6930 aabd
00000020: d76a 9c3c 9173 213d fb86 083d b296 89bd
00000030: 5f7b 1f3c 84aa 60bd 8dff 1dbd fc23 a8bd
00000040: e90a 993c 6538 aa3d e2ca 20bd c8ed 3fbc
00000050: 421b 573c e931 87bd db9f 893d 8561 b73d
00000060: 84a1 3dbc 5971 553d 0b2e d53c c799 1a3d
00000070: 6c4b 47bd 1c05 773d eac7 b9bd 6dee 0d3d
00000080: 29a2 35bc e98b 173d f9d6 b93d bef0 813d
00000090: 5c95 3cbc e54f 9abd 81df 733c 3642 0ebd
000000a0: 15ed f53c e391 a63a 4907 12bd 977b a2bd
000000b0: fdfb 473d 5781 8b3c 8991 8e3d 177c 9abc
000000c0: f376 b5bd 1543 b93d ce7f 493d 0a2c 86bd
000000d0: 0089 09bd 0aeb 803d 67ce 96bd 0301 6dbc
000000e0: 81d9 9e3c 9d65 9bbd 51af 413d 086e 9dbd
000000f0: 4713 783c a088 8bbd 7a61 9abd 2fed c7bc
00000100: a90b 22bd 5621 d03c 6d03 8a3d 655e 1a3d
00000110: 07b1 d73c aa0b 853d dfac 69bd cc78 183c
00000120: 9e1a 2ebc e953 b83d b90e 143d 9891 b63d
00000130: cbbe 3f3d 0975 743d 3358 9c3d 0333 ef3c
00000140: a678 eebc 41fa bcbc 6f5e 1bbd 6b25 8dbd
00000150: 68a6 8a3c 4388 38bd b62b f73b ab84 6cbd
00000160: a6e0 46bd c2ca 16bd 2a42 63bd edc8 10bd
00000170: d5cc 08bd 0dad 89bb 59d6 e4bc 05d0 04bd
00000180: c1b4 f43c 421e 13bd ecd1 9e3d db27 903d
00000190: bb0f f4bc af58 a4bd a52d 863d 2a2e bebc
000001a0: bc61 863d 21a2 8f3d 555a c8bc 8bab a1bd
000001b0: 456f 81bd b69a 933c 66ca 383d 1e71 a43c
000001c0: f695 10bd aec4 62bd 4e1a 8b3d aed7 fa3c
000001d0: b6f9 953d 3a51 b73d ec6f f13c cb84 883d
000001e0: c67e 273d 0dc5 99bd d4fc 943d 8824 c33d
000001f0: cf0e 9f3a 62c4 a8bc b379 2c3d 9e4d 943d
00000200: cb49 8b3c d7a4 a33c f97f ee3c 685e 803d
00000210: 85ae 153d 59f3 12bd 3a09 c33c 760f c2bc
00000220: 8cf5 4ebd b28a 863d 03be db3c b640 6bbd
00000230: 3f6b b83c 33aa 83bb 1cc5 9dbd 9a88 7cbd
00000240: e949 6d3b 5797 98bc 3879 c5bd 002f 6d3d
00000250: 654d 70bd bd31 283d b3ea 85bc c270 91bd
00000260: 8453 843d 4696 693b 9dae 40bd 83ca 913d
00000270: c5bd ca3c 7034 59bd 41b2 8a3d bbc8 a7bd
00000280: 0ccf c63c 0f2f 35bd 4103 473d e5d1 1abd
00000290: 36a7 40bb ed73 063d 195e 9fbc c1c9 aa3c
000002a0: 7625 873d ef56 b33d 3a70 d8bc 6f35 cbbc
000002b0: b277 6dbd 76b7 c5bc d426 393d 4607 9b3c
000002c0: 4dac aabd 3b0b 013d e548 073d bb0f b1bd
000002d0: ab37 f43c 41af a9bd dbdf f1bc 8776 0f3c
000002e0: efe4 86bd a801 843d 6603 713d 3e82 21bd
000002f0: 0870 90bd 455d b4bd b427 ca3c 60d5 7b3d
00000300: 3bd5 9ebd 5e13 6ebd 3155 e33b 0f0f 5bbd
00000310: 41d0 fc3c f24d cbbb 6e3b 30bd 8efe 0b3d
00000320: 2333 a3bd 0eaf c03d 270e abbc eea5 943c
00000330: d2c5 bc3c 6334 3b3d 0924 08bd c1d6 773d
00000340: 5158 4f3d 56be 86bd 078d 343c 2044 7e3d
00000350: fb21 4abd d274 0e3d 792e 323d 4b46 d3bc
00000360: af24 e43c 6c7d 993c f693 80bd 56cd 9e3d
00000370: a486 353d 55ae 00bc 9ccd af3c 093e bb3c
00000380: 6109 ff3c 17a6 5a3d 7f69 06bd a27f 073d
00000390: 7b1e 8d3d 7c6a 99bd c507 cabd f558 35bb
000003a0: 5b63 e1bc 3721 c03c e06f ba3c b10f 31bd
000003b0: 825c 95bd 3bc2 823d f4cb 9a3d 097f 8bba
000003c0: 6bdf bbbd 5754 9e3c 7436 a3bd 6a26 ffbc
000003d0: 3205 863d cb8b 8d3d 04ab 1abc f004 863d
000003e0: d0a8 263d 8909 acbd 3100 aabc 479b 0d3d
000003f0: b50d 973d 21b4 4fbd 6415 313d 5d04 113c
-0.09438849 0.012509755 -0.043073457 -0.017109709 -0.023613373 0.009594556 -0.03236682 -0.08310015
0.019093914 0.039416853 0.033331852 -0.06718196 0.009734004 -0.054850116 -0.03857379 -0.082099885
0.01868196 0.08311538 -0.039255984 -0.011714406 0.013129057 -0.066013165 0.06719943 0.08954147
-0.011574153 0.05211005 0.026022932 0.03774431 -0.048655912 0.060307607 -0.09071334 0.03465121
-0.011086025 0.036998663 0.09074206 0.06344746 -0.011510219 -0.0753477 0.01488483 -0.034731112
0.030020276 0.0012708273 -0.03565148 -0.07933729 0.0488243 0.017029447 0.069613524 -0.018857999
-0.088605784 0.09045998 0.04919415 -0.065513685 -0.03357792 0.0629483 -0.07363587 -0.014465573
0.019390823 -0.075877406 0.047286335 -0.076870024 0.015141315 -0.068131685 -0.075381234 -0.02440509
-0.0395619 0.02540652 0.06738935 0.037687678 0.02632953 0.06496365 -0.05704963 0.009306144
-0.010626463 0.090003796 0.036146853 0.089144886 0.046812814 0.059681926 0.0763401 0.029199129
-0.029110264 -0.02306855 -0.037931856 -0.068919025 0.016925052 -0.045051824 0.0075430525 -0.05774371
-0.048554085 -0.03681446 -0.05548302 -0.035347868 -0.033398468 -0.0042015375 -0.02793424 -0.032424945
0.029871346 -0.035917528 0.07754883 0.07038852 -0.029792657 -0.080247276 0.06551675 -0.023215372
0.0656161 0.070133455 -0.024457136 -0.07894047 -0.06320051 0.018018108 0.045114897 0.02007347
-0.035299264 -0.05536335 0.067921266 0.030620422 0.07323019 0.089510396 0.029472314 0.06665953
0.040892385 -0.075082876 0.07274786 0.09528452 0.0012135151 -0.020601455 0.04210825 0.07241367
0.01700296 0.019976063 0.029113756 0.062680066 0.036543388 -0.035876606 0.02380811 -0.023689013
-0.05052714 0.06569423 0.026824003 -0.05743476 0.022512076 -0.004018092 -0.07703611 -0.06165371
0.0036207384 -0.018626852 -0.09642261 0.05790615 -0.05866756 0.04106306 -0.016347265 -0.07101585
0.06461242 0.0035642548 -0.047041524 0.07118704 0.024748692 -0.053028524 0.067722805 -0.08192583
0.02426865 -0.04423433 0.048587088 -0.037797827 -0.002939654 0.0328254 -0.019454049 0.020848157
0.06598942 0.08756816 -0.026420701 -0.024805753 -0.05797548 -0.024135333 0.045203045 0.018924367
-0.08333645 0.03150485 0.033028502 -0.086455785 0.0298117 -0.0828538 -0.029525688 0.008756286
-0.06586634 0.064456284 0.05884113 -0.03943085 -0.07052618 -0.08806852 0.024677135 0.061482787
-0.07755514 -0.05812394 0.006937646 -0.053481158 0.030861022 -0.00620436 -0.043025427 0.03417831
-0.07968738 0.09408389 -0.020880772 0.018145528 0.023043547 0.045704257 -0.03323749 0.06050754
0.050621334 -0.065792724 0.011019952 0.062076688 -0.049348813 0.034779377 0.04350135 -0.025790354
0.027849523 0.018736564 -0.06278221 0.077540085 0.044317856 -0.007854064 0.021460347 0.02285673
0.031132402 0.053381052 -0.032815453 0.033080705 0.06890579 -0.074910134 -0.09864763 -0.002767143
-0.027513197 0.023453338 0.022758424 -0.043227855 -0.07293035 0.06384703 0.07558432 -0.0010642718
-0.09173473 0.019327326 -0.079693705 -0.031146247 0.0654396 0.06911429 -0.009440187 0.065439105
0.040688336 -0.08400256 -0.020752044 0.034571912 0.07375661 -0.050708894 0.04323329 0.008851138

lin.bias f4 [64]
00000000: 80b9 a8bd bb80 e13b 628b 983b 5fea 153d
00000010: 2997 2cbd b894 e3bc 96ef 23bd 0101 9ebd
00000020: e838 893d 26cf 0dbc c671 333d 4c3f 91bd
00000030: be6d 643d b147 343d faf8 3ebd e84d 7a3d
00000040: cf00 4dbd d76a 7abd 306f 083d 4789 a5bd
00000050: 6d32 c1bb f074 46bd 11f8 3cbd 0f28 e03c
00000060: 51ec 923d 34ab 783d cb78 b6bb 1a6e a53c
00000070: 06eb 86bd 5eba 3ebd 388f ae3d 8eea b1bc
00000080: 7f0a 9bbc 8031 11bc 28a0 22bc 63a4 f2bc
00000090: a11a 923d 51c2 16bd 15ad 223d 18da 5abd
000000a0: e4e8 5b3d de0d 823d 6016 96bc be0c b0bc
000000b0: 171b 993c 7314 dabc ba9c 3d3d 8b5d 4fbc
000000c0: 48f5 0f3d acac af3d 5ad5 21bd 1e3c 863b
000000d0: 8267 98bd 4f74 fabc 1273 813d 51ed 6d3c
000000e0: 4e50 6a3d 6fbf 19bd 58f0 82bd 2339 dcbc
000000f0: 0f8b 34bd c3d0 91bd 39fe 733d 81df 6d3d
-0.08238506 0.006881801 0.0046552876 0.036600467 -0.042136345 -0.027780876 -0.04002341 -0.07715035
0.06700307 -0.008655345 0.043809675 -0.07092151 0.05576872 0.044013683 -0.04662416 0.061109453
-0.0500496 -0.061137047 0.03330916 -0.08082824 -0.005895904 -0.048451364 -0.046135012 0.027362851
0.0717398 0.060710147 -0.005568599 0.020194102 -0.06587796 -0.046564452 0.085234106 -0.02171829
-0.018925903 -0.008861899 -0.00992588 -0.029619401 0.07133985 -0.03680641 0.039715845 -0.053430647
0.0536889 0.06350301 -0.018321216 -0.021490451 0.018689675 -0.02662108 0.046292044 -0.01265658
0.035146028 0.085778564 -0.03951011 0.004096522 -0.074416175 -0.030573038 0.06320776 0.014521913
0.05720549 -0.03753608 -0.06393498 -0.026882714 -0.04407793 -0.07119896 0.059568617 0.058074478

fc.weight f4 [1, 64]
00000000: d3d1 4d3d 400c b83d 3550 c1bd cb5e 0f3d
00000010: df20 a23c 5f6a 9c3d a46f d3bc bf9c 11be
00000020: 237b cd3d 2a1c f0bd 89ef d5bd 0bc5 13be
00000030: ca2a e9bd 366c 413d 62f5 40bd 06f7 00be
00000040: 1894 c73c c4fd f5bd 006a 113e 89ec 613d
00000050: 95f3 09be 04ec fb3d 0d43 d63d 97d5 093e
00000060: 6c19 9f3d 6246 b13d c90f 9fbc 950a 023e
00000070: 3d5b c9bd fed1 0b3e 091c 70bd 1564 b33c
00000080: f784 aebd f872 e73d e8bb 023e 4d35 083d
00000090: 9696 1cbd 9db6 fbbd 394c 223d 5e34 dc3d
000000a0: e54d e6bd 937f ba3d 6f55 023d 5810 d33d
000000b0: 011b 21bd 4ec4 033e 1aa0 d5bd e377 123e
000000c0: 5346 d03c 9423 8cbd b00e 06bd 6d01 a33d
000000d0: 26ae 163e 0863 123e 43b8 19be 94d4 813d
000000e0: e696 92bd 7af9 c4bc 9c73 293d 32b7 c1bd
000000f0: 03e0 df3d 45fa c63d a8fe 8bbd 6711 e5bd
0.050248932 0.089867115 -0.094391264 0.03500251 0.019791065 0.07637476 -0.02581007 -0.1421995
0.10033252 -0.11724122 -0.10446078 -0.14430635 -0.113851145 0.04722234 -0.047109015 -0.12594232
0.024362609 -0.120112926 0.14200592 0.055157218 -0.13471825 0.12300876 0.10462008 0.13460384
0.07768521 0.086560026 -0.019416707 0.12699349 -0.098318554 0.13654324 -0.058620486 0.021898309
-0.08521455 0.113012254 0.12766993 0.033253957 -0.038229547 -0.1229069 0.039623473 0.10752176
-0.11245326 0.09106364 0.031819757 0.10305852 -0.039332394 0.12867853 -0.104309276 0.14303546
0.025424158 -0.068427235 -0.03272885 0.07959256 0.1471487 0.1429559 -0.15011697 0.06339374
-0.07157688 -0.024044741 0.04137002 -0.0945877 0.10931399 0.09715704 -0.06835681 -0.1118496

gcn_batch_norm.weight f4 [128]
00000000: 0000 803f 0000 803f 0000 803f 0000 803f
00000010: 0000 803f 0000 803f 0000 803f 0000 803f
00000020: 0000 803f 0000 803f 0000 803f 0000 803f
00000030: 0000 803f 0000 803f 0000 803f 0000 803f
00000040: 0000 803f 0000 803f 0000 803f 0000 803f
00000050: 0000 803f 0000 803f 0000 803f 0000 803f
00000060: 0000 803f 0000 803f 0000 803f 0000 803f
00000070: 0000 803f 0000 803f 0000 803f 0000 803f
00000080: 0000 803f 0000 803f 0000 803f 0000 803f
00000090: 0000 803f 0000 803f 0000 803f 0000 803f
000000a0: 0000 803f 0000 803f 0000 803f 0000 803f
000000b0: 0000 803f 0000 803f 0000 803f 0000 803f
000000c0: 0000 803f 0000 803f 0000 803f 0000 803f
000000d0: 0000 803f 0000 803f 0000 803f 0000 803f
000000e0: 0000 803f 0000 803f 0000 803f 0000 803f
000000f0: 0000 803f 0000 803f 0000 803f 0000 803f
00000100: 0000 803f 0000 803f 0000 803f 0000 803f
00000110: 0000 803f 0000 803f 0000 803f 0000 803f
00000120: 0000 803f 0000 803f 0000 803f 0000 803f
00000130: 0000 803f 0000 803f 0000 803f 0000 803f
00000140: 0000 803f 0000 803f 0000 803f 0000 803f
00000150: 0000 803f 0000 803f 0000 803f 0000 803f
00000160: 0000 803f 0000 803f 0000 803f 0000 803f
00000170: 0000 803f 0000 803f 0000 803f 0000 803f
00000180: 0000 803f 0000 803f 0000 803f 0000 803f
00000190: 0000 803f 0000 803f 0000 803f 0000 803f
000001a0: 0000 803f 0000 803f 0000 803f 0000 803f
000001b0: 0000 803f 0000 803f 0000 803f 0000 803f
000001c0: 0000 803f 0000 803f 0000 803f 0000 803f
000001d0: 0000 803f 0000 803f 0000 803f 0000 803f
000001e0: 0000 803f 0000 803f 0000 803f 0000 803f
000001f0: 0000 803f 0000 803f 0000 803f 0000 803f
1.0 1.0 1.0 1.0 1.0 1.0 1.0 1.0
1.0 1.0 1.0 1.0 1.0 1.0 1.0 1.0
1.0 1.0 1.0 1.0 1.0 1.0 1.0 1.0
1.0 1.0 1.0 1.0 1.0 1.0 1.0 1.0
1.0 1.0 1.0 1.0 1.0 1.0 1.0 1.0
1.0 1.0 1.0 1.0 1.0 1.0 1.0 1.0
1.0 1.0 1.0 1.0 1.0 1.0 1.0 1.0
1.0 1.0 1.0 1.0 1.0 1.0 1.0 1.0
1.0 1.0 1.0 1.0 1.0 1.0 1.0 1.0
1.0 1.0 1.0 1.0 1.0 1.0 1.0 1.0
1.0 1.0 1.0 1.0 1.0 1.0 1.0 1.0
1.0 1.0 1.0 1.0 1.0 1.0 1.0 1.0
1.0 1.0 1.0 1.0 1.0 1.0 1.0 1.0
1.0 1.0 1.0 1.0 1.0 1.0 1.0 1.0
1.0 1.0 1.0 1.0 1.0 1.0 1.0 1.0
1.0 1.0 1.0 1.0 1.0 1.0 1.0 1.0
