All_Benchmarking/ADGRL1/Results/fold_4/best_model.pth (torch, 192098 bytes, 32 tensors)

gat1.att_src f4 [1, 4, 32]
0	0x3ea76384	0.32693112
1	0x3eb753fd	0.35806265
2	0x3d73d033	0.059524726
3	0x3df48cea	0.1194094
4	0x3d1c0507	0.038090732
5	0xbe64d2eb	-0.22346084
6	0xbec180da	-0.37793618
7	0xbe9312e5	-0.28725353
8	0x3d70b563	0.058766734
9	0xbec10a7f	-0.3770332
10	0x3ea699ae	0.32539123
11	0x3e99d3d3	0.30044422
12	0xbdecafe7	-0.11556988
13	0xbe27f3f4	-0.16401654
14	0x3e1d34ea	0.15352216
15	0xbe5bdeb3	-0.21471672
16	0x3d854be4	0.065086156
17	0xbe95b955	-0.2924296
18	0x3e0bb88d	0.1364462
19	0xbd83b0aa	-0.0643018
20	0xbe2634a3	-0.16231017
21	0x3e1c2942	0.15250114
22	0x3eb907bf	0.36138722
23	0x3e95d430	0.2926345
24	0x3e0c85e7	0.13722955
25	0xbe988276	-0.29787034
26	0x3e406870	0.1878984
27	0xbecc3355	-0.39882913
28	0x3db02b1b	0.08601972
29	0x3e469721	0.19393589
30	0xbe758e17	-0.23979984
31	0xbe1457a1	-0.14486553
32	0x3cc6ca28	0.024266317
33	0x3e308e8b	0.17241876
34	0x3e84a7ee	0.2590937
35	0x3b4d4cfc	0.0031326404
36	0xbe5856f9	-0.21126927
37	0xbec82791	-0.39092687
38	0xbe416acf	-0.188884
39	0xbe871001	-0.26379398
40	0x3d5da6e4	0.054114237
41	0xbe81a159	-0.2531841
42	0xbea89c44	-0.3293172
43	0xbe293e37	-0.1652764
44	0xbe625890	-0.22104096
45	0xbeb4a660	-0.35283184
46	0x3e57f6fd	0.21090312
47	0x3ea07b52	0.31344086
48	0xbea3b0cd	-0.31970826
49	0xbe3eed33	-0.18645172
50	0xbebbfc57	-0.36715958
51	0xbed08b4b	-0.40731272
52	0x3d8bd867	0.06828385
53	0xbdc4c8f6	-0.09608643
54	0xbe9df699	-0.30852202
55	0xbdd96a9d	-0.10616038
56	0xbe08d0da	-0.1336092
57	0xbe569957	-0.20956932
58	0x3e20d569	0.1570641
59	0x3ecd8720	0.40142155
60	0x3e9e98a2	0.30975825
61	0xbe9860bd	-0.29761305
62	0xbbacfcb8	-0.00527915
63	0xbd37a497	-0.0448347
64	0x3e4cabbf	0.19987391
65	0xbd845c9d	-0.06462977
66	0x3d71088d	0.058846045
67	0xbe8ce776	-0.2752034
68	0xbd8f393e	-0.0699334
69	0xbda7cca3	-0.08193328
70	0xbec08910	-0.3760457
71	0xbe730045	-0.23730572
72	0x3eb63c2d	0.35592785
73	0x3ec19ab8	0.37813354
74	0x3e9579f9	0.2919462
75	0x3e976aa0	0.29573536
76	0x3e6dfeca	0.23241726
77	0x3e2e68d5	0.17032178
78	0xbe6471e4	-0.22309071
79	0xbe88393c	-0.26606166
80	0xbe8e7e02	-0.2783051
81	0xbec0341e	-0.37539762
82	0x3dc80de2	0.09768273
83	0xbe1dd494	-0.15413123
84	0xbe22ca72	-0.1589754
85	0x3e2b6a88	0.16739857
86	0x3d479083	0.0487218
87	0x3e94068e	0.2891125
88	0x3ebb55c9	0.36588886
89	0xbe7fbdff	-0.24974822
90	0xbcba3e55	-0.0227348
91	0xbec63238	-0.3871019
92	0xbd0f828a	-0.0350366
93	0xbe94f733	-0.29094848
94	0x3e9082b9	0.28224733
95	0x3e4784e9	0.19484295
96	0x3e5f1b95	0.21787865
97	0xbe441e54	-0.19152194
98	0xbd3ee286	-0.04660275
99	0xbe2c5f4e	-0.16833231
100	0x3d295c3d	0.04134773
101	0xbd37c27a	-0.0448632
102	0x3e0ef388	0.13960087
103	0xbe8554aa	-0.26041156
104	0xbe48fcc0	-0.19627666
105	0xbe9bf995	-0.30463853
106	0xbd82e3ce	-0.063911065
107	0x3eb4c99c	0.35310066
108	0xbe86304e	-0.2620873
109	0x3ecd36cf	0.40080878
110	0xbeb4fccc	-0.3534912
111	0x3eb083c6	0.34475535
112	0xbeac9054	-0.33703864
113	0x3e2d9a7c	0.16953462
114	0x3e049477	0.1294726
115	0x3eb1073c	0.34575832
116	0x3e38e14e	0.18054697
117	0x3d8bfecf	0.0683571
118	0xbe65a7e9	-0.22427334
119	0xbec9d4fd	-0.3942031
120	0xbe05ff23	-0.13085608
121	0x3ed04796	0.40679616
122	0xbe35f766	-0.17770156
123	0x3e9137f9	0.28363016
124	0xbe9a10de	-0.30090994
125	0x3e84ad6f	0.2591357
126	0xbe391f6b	-0.18078391
127	0xbe0bd68b	-0.1365606

gat1.att_dst f4 [1, 4, 32]
0	0x3ece2f02	0.4027024
1	0x3e625b6c	0.22105187
2	0x3e8300a0	0.25586414
3	0x3eb9725a	0.36220056
4	0x3e4f9aec	0.20273942
5	0xbebcab4b	-0.36849436
6	0x3e86e119	0.2634361
7	0x3e484399	0.19557036
8	0x3e706ed6	0.2347978
9	0xbdade88c	-0.084916204
10	0x3dcf6856	0.101273224
11	0x3d981ff7	0.07427972
12	0xbd8a6ed4	-0.0675942
13	0xbe974973	-0.29548225
14	0x3e7b18cf	0.24521182
15	0x3d36be07	0.044614818
16	0xbdaf2b4b	-0.08553179
17	0x3e9d5c68	0.30734563
18	0xbe330cec	-0.17485398
19	0xbe47278d	-0.19448681
20	0xbd4ab790	-0.049491465
21	0xbe946e10	-0.2899022
22	0xbdff1105	-0.12454418
23	0xbe764bdf	-0.2405238
24	0xbdc519aa	-0.09624036
25	0xbe15d2da	-0.14631215
26	0x3dbe6b2b	0.092977844
27	0xbe26705c	-0.16253799
28	0xbe2f84d6	-0.17140517
29	0xbd7350bc	-0.059403166
30	0xbb97adc8	-0.0046288706
31	0x3ec3641a	0.3816231
32	0x3e72b590	0.23702073
33	0x3e9df52a	0.30851108
34	0x3df239fe	0.118274674
35	0x3e6de538	0.23231971
36	0xbe538906	-0.20657739
37	0xbe1cb8ed	-0.15304919
38	0xbe35dfd5	-0.17761166
39	0xbe920b46	-0.28524226
40	0xbe51a64d	-0.20473595
41	0xbe956bf1	-0.29183915
42	0x3bc80b9e	0.0061049005
43	0x3ec5e6d1	0.3865266
44	0xbcd716bc	-0.026255958
45	0xbea8a9d1	-0.3294206
46	0x3ea59a74	0.323444
47	0xbe9085bd	-0.28227034
48	0xbe18c41e	-0.14918563
49	0xbead9fe7	-0.33911058
50	0x3ea9fae4	0.33199227
51	0xbeafae48	-0.34312654
52	0xbeb8fcd6	-0.361304
53	0x3e7c0d26	0.2461439
54	0xbc8953d3	-0.016763603
55	0xbeaf9523	-0.3429347
56	0x3e359a6e	0.17734692
57	0xbe358462	-0.17726281
58	0xbeb65d20	-0.35617924
59	0x3e438465	0.19093473
60	0xbe9a0a18	-0.30085826
61	0xbec16bc9	-0.37777546
62	0x3e173e68	0.147699
63	0x3e23b469	0.1598679
64	0xbcc1bbc2	-0.0236491
65	0xbec7d785	-0.39031616
66	0xbe925d7a	-0.28586942
67	0xbd989af8	-0.07451433
68	0x3e7cabf6	0.24674973
69	0xbd046986	-0.032327197
70	0xbe45e83b	-0.1932687
71	0x3e645619	0.22298469
72	0xbda35f68	-0.07977182
73	0xbeae03f5	-0.33987394
74	0x3e7a2fe8	0.24432337
75	0xbe73678a	-0.23769966
76	0x3e78b680	0.24288368
77	0x3cc8fc0b	0.024534246
78	0xbd19d27c	-0.03755425
79	0x3e80da80	0.25166702
80	0x3d958b3e	0.07301949
81	0x3e02a609	0.1275865
82	0x3d3cc4a2	0.04608596
83	0xbd30e7b6	-0.043189727
84	0xbe55c809	-0.20877089
85	0x3e23ed68	0.16008532
86	0x3e4e74bc	0.20161718
87	0x3d155341	0.03645635
88	0xbe81b3da	-0.25332528
89	0xbe8c1d49	-0.27366093
90	0x3eca3f00	0.3950119
91	0xbe41d528	-0.18928969
92	0x3e0b540a	0.13606277
93	0x3e83c3ac	0.25735223
94	0x3e8f662d	0.2800764
95	0xbd94f175	-0.07272617
96	0x3da503c8	0.08057362
97	0xbe56d6bb	-0.2098035
98	0xbd3228af	-0.04349583
99	0xbe735bc7	-0.23765479
100	0x3e4cc458	0.19996774
101	0x3e9353f3	0.28774986
102	0x3eccdcdc	0.40012252
103	0x3dfa52e3	0.12222841
104	0x3ca2cf84	0.019874342
105	0xbe8121fe	-0.25221246
106	0xbdab5558	-0.083658874
107	0xbc579f8a	-0.013160596
108	0xbe4c1be7	-0.19932519
109	0xbd3c28b1	-0.045937244
110	0xbe2a08d3	-0.16604929
111	0xbeb1ec47	-0.34750578
112	0xbd0d0517	-0.034428682
113	0xbeb0b11f	-0.34510133
114	0x3e0ac3be	0.13551232
115	0x3e8f6d2a	0.28012973
116	0x3dc14f26	0.094389245
117	0x3c1dbe63	0.009627911
118	0x3e8745fe	0.26420587
119	0xbecc1db6	-0.39866418
120	0x3c8b4f89	0.017005699
121	0xbe69782c	-0.22799748
122	0xbd50c081	-0.050964836
123	0x3eab28f5	0.33429685
124	0xbe6ff572	-0.23433474
125	0x3e0146f2	0.1262472
126	0x3ce36216	0.027756732
127	0xbd872974	-0.065997034

gat1.bias f4 [128]
0	0xb8cfba18	-9.905192e-05
1	0x3990ea95	0.00027640598
2	0xb91abb97	-0.00014756467
3	0x388d8205	6.747622e-05
4	0xb8f19812	-0.00011520101
5	0xb9525ebb	-0.0002006245
6	0x37b8ce95	2.2030707e-05
7	0x38c5f86e	9.439966e-05
8	0xb98c3838	-0.00026744767
9	0xb9648351	-0.00021792694
10	0x3860e92d	5.3622924e-05
11	0x38b13ada	8.45098e-05
12	0x3913fc9c	0.00014113117
13	0xb8856b69	-6.361941e-05
14	0x390847f6	0.00012996778
15	0xb8397744	-4.4218512e-05
16	0xb8f47ab0	-0.00011657679
17	0xb8d5f2e7	-0.000102018756
18	0x38d5fab6	0.0001020333
19	0xb861d008	-5.3837924e-05
20	0x3948fc62	0.00019167506
21	0xb8cc9740	-9.7556505e-05
22	0x38d9683a	0.0001036678
23	0x37b0fd9c	2.1098931e-05
24	0xb9b14ca5	-0.00033817175
25	0xb8f7a737	-0.00011809024
26	0x391ebcfb	0.00015138455
27	0xb906bc1b	-0.0001284931
28	0x39728a3b	0.00023130413
29	0xb8a54613	-7.8808655e-05
30	0xb933e8fb	-0.00017157562
31	0x37d9e7ea	2.597641e-05
32	0xb85b754e	-5.2322917e-05
33	0x39880c30	0.00025949022
34	0x38d49d8a	0.00010138292
35	0x39551c88	0.00020323892
36	0xb8f47d0d	-0.00011658119
37	0x3901add6	0.00012367158
38	0xb69447bf	-4.419096e-06
39	0xb802cf32	-3.118738e-05
40	0x39505989	0.0001986978
41	0xb88a5e60	-6.5979315e-05
42	0xb8fd03ec	-0.000120647106
43	0xb91801c0	-0.00014496502
44	0xb8b32168	-8.5416075e-05
45	0x3916e025	0.00014388615
46	0x37cad397	2.4178806e-05
47	0x39307d46	0.00016831336
48	0xb88e171b	-6.7753914e-05
49	0xb8b76fd5	-8.74695e-05
50	0x3721a566	9.634858e-06
51	0x38b62432	8.685178e-05
52	0xb9b96ef0	-0.00035368605
53	0x37f8fbe9	2.9681209e-05
54	0xb91690cc	-0.00014359056
55	0x38bd1c3a	9.01748e-05
56	0x38960c54	7.154854e-05
57	0xb989f2dc	-0.0002631162
58	0x378d1351	1.6817505e-05
59	0xb989d5a9	-0.00026289865
60	0xb94e5da9	-0.00019680582
61	0x3885913a	6.368985e-05
62	0xb7d8c383	-2.5840249e-05
63	0x3885cf37	6.380531e-05
64	0xb8def3a1	-0.00010631164
65	0xb920d0b4	-0.00015336537
66	0x38969e96	7.182096e-05
67	0xb7cbabb9	-2.427945e-05
68	0xb75b4b2d	-1.307092e-05
69	0xb8896de2	-6.553136e-05
70	0xb9264541	-0.00015856793
71	0xb8cc31e5	-9.7367716e-05
72	0x38f2fbaa	0.00011586335
73	0xb96627f0	-0.00021949387
74	0xb856464a	-5.1087038e-05
75	0x39314b6b	0.00016908131
76	0x367d2a12	3.7724426e-06
77	0xb892d2fa	-7.00112e-05
78	0x386f5176	5.7057907e-05
79	0xb8963561	-7.1625e-05
80	0xb85eb14f	-5.3094056e-05
81	0x392c2260	0.00016416004
82	0x39086999	0.00013009309
83	0xb68ffe95	-4.2913694e-06
84	0x36ee13b3	7.095246e-06
85	0x38311731	4.2221687e-05
86	0x38163f26	3.58216e-05
87	0xb80904e8	-3.2667915e-05
88	0x38aef9f5	8.343525e-05
89	0xb9080d5d	-0.00012974949
90	0x3948bf10	0.00019144663
91	0xb8028d22	-3.1125855e-05
92	0xb94e95fa	-0.00019701562
93	0x397c9384	0.00024087547
94	0xb7ac44a2	-2.0535957e-05
95	0x38e8260b	0.00011069708
96	0x3840fde0	4.6012807e-05
97	0x395adb8d	0.00020871889
98	0x382f1ffb	4.1753035e-05
99	0xb89a810d	-7.36733e-05
100	0x38be5f39	9.0776426e-05
101	0xb96e04b1	-0.00022699196
102	0x3989e40d	0.00026300587
103	0xb711d8e6	-8.693174e-06
104	0xb8990fdd	-7.298563e-05
105	0x38831777	6.2509374e-05
106	0x373d71b9	1.1291756e-05
107	0x38e88781	0.00011087862
108	0x3813b5cc	3.5216843e-05
109	0x39787163	0.00023693363
110	0xb82c9423	-4.114596e-05
111	0xb9009335	-0.0001226187
112	0xb9ab7d07	-0.00032708814
113	0x3840b7e8	4.5947643e-05
114	0xb79b9d49	-1.8550681e-05
115	0xb96066fe	-0.00021400672
116	0xb88ac07c	-6.616206e-05
117	0x38971fc5	7.2061586e-05
118	0xb82be001	-4.0978197e-05
119	0x386dd545	5.6703826e-05
120	0x37567a54	1.2783876e-05
121	0x388fbfac	6.854473e-05
122	0x390708c3	0.00012877867
123	0xb831cfe8	-4.2393716e-05
124	0xb894c911	-7.0946415e-05
125	0x373102a0	1.0550633e-05
126	0x396bc656	0.00022485232
127	0x37420bc5	1.1566041e-05

gat1.lin.weight f4 [128, 5]
0	0xbe4d824a	-0.20069233
1	0x3e40c636	0.18825611
2	0x3d143272	0.03618092
3	0xbdd67e13	-0.104732655
4	0x3e4dd4b3	0.2010067
5	0x3d90ae31	0.070644744
6	0x3c8f3a03	0.017483717
7	0xbd925009	-0.07144172
8	0xbc1e8a2d	-0.009676498
9	0x3db80d0a	0.08986862
10	0x3bf9c1af	0.007621966
11	0x3e0b11c7	0.13581
12	0xbe3eb63f	-0.18624209
13	0x3e043639	0.1291131
14	0xbdcf6d36	-0.10128252
15	0xbd8e5b03	-0.06950953
16	0xbe29bec5	-0.16576679
17	0xbcae8292	-0.021302495
18	0x3e10d984	0.14145476
19	0x3d4a309d	0.049362767
20	0xbe4c0736	-0.19924626
21	0xbd79addd	-0.060956825
22	0x3e3190b7	0.1734036
23	0xbdcf16e7	-0.1011179
24	0xbe4d707c	-0.2006244
25	0xbdebb95c	-0.11509964
26	0x3dafccd9	0.085839935
27	0xbdccad78	-0.09994024
28	0x3e169fd3	0.14709406
29	0x3cb10fbf	0.021613954
30	0xbafedf4f	-0.0019445213
31	0x3e27280f	0.16323875
32	0xbbfb733a	-0.007673648
33	0x3de0d64f	0.10978376
34	0xbd977674	-0.0739564
35	0xbe3f4bda	-0.18681279
36	0xbe162b30	-0.14664912
37	0x3e4d1b82	0.20030025
38	0x3e48c9c9	0.19608225
39	0xbe07944e	-0.13240167
40	0xbdb6f516	-0.08933465
41	0x3e36d565	0.17854841
42	0x3e44be38	0.19213188
43	0xbe4cafe8	-0.19988978
44	0x3df44a52	0.11928238
45	0xbe50588e	-0.20346281
46	0x3c91c9d3	0.017796433
47	0x3d602d33	0.054730605
48	0xbcd04b0f	-0.025426416
49	0x3d22c5af	0.039739307
50	0x3db5df88	0.08880526
51	0xbe1907a3	-0.1494432
52	0x3e2fea9d	0.17179342
53	0xbe36451b	-0.17799799
54	0xbe0d2b7f	-0.13786124
55	0x3d59eaeb	0.05320255
56	0xbc6b62d6	-0.014366826
57	0x3b88f3d9	0.0041794595
58	0xbd7b2e88	-0.061323673
59	0x3d55fe85	0.052244682
60	0xbdd56567	-0.104197316
61	0x3dc58695	0.0964481
62	0x3e18bb0d	0.14915104
63	0x3d92581f	0.07145714
64	0x3cd4e591	0.025988372
65	0xbd03b4b4	-0.032154754
66	0xbdfcd907	-0.12346082
67	0xbe560d8e	-0.20903608
68	0x3e2d44ce	0.16920778
69	0x3e010fa9	0.1260363
70	0x3d0d33ab	0.034473103
71	0x3b3ecfbe	0.0029115523
72	0xbe380d63	-0.17973857
73	0xbcfc9837	-0.0308343
74	0xbd65ef53	-0.05613644
75	0x3e227081	0.1586323
76	0xbc337fd3	-0.010955769
77	0x3c314492	0.010819571
78	0xbe412525	-0.18861826
79	0xbe2a8013	-0.16650419
80	0x3e2b0fbb	0.1670522
81	0x3e47f72f	0.19527887
82	0x3d8f7842	0.07005359
83	0xbda52f86	-0.08065705
84	0xbe4a3658	-0.19747293
85	0x3e279603	0.16365819
86	0xbe4f9ea0	-0.20275354
87	0x3d8ed313	0.06973853
88	0x3dd83878	0.105576456
89	0x3e0d7b99	0.1381668
90	0xbe29abd5	-0.16569455
91	0xbe1dad46	-0.1539813
92	0x3d21f188	0.039536983
93	0x3e02220b	0.12708299
94	0xbe410f41	-0.18853475
95	0xbe224de8	-0.15850031
96	0xbd34df86	-0.04415848
97	0x3d07b18e	0.033128314
98	0x3d8c5049	0.06851251
99	0xbde15e06	-0.11004262
100	0xbd9fcefa	-0.078031495
101	0x3d6891e7	0.05677977
102	0x3b99e1f6	0.004696126
103	0xba5db378	-0.0008457224
104	0xbe4637a1	-0.19357158
105	0xbd20ef07	-0.039290454
106	0xbe1ab00c	-0.15106219
107	0x3d16765f	0.03673398
108	0x3d9be792	0.07612528
109	0xbcc27ca6	-0.023741078
110	0x3da429b5	0.080157675
111	0x3da9869c	0.08277628
112	0xbdd9cdf2	-0.10634984
113	0x3e3d789d	0.18503042
114	0x3e48ae9c	0.19597858
115	0xbe06d44f	-0.13166927
116	0xbe269bad	-0.16270323
117	0xbd4230f4	-0.047409967
118	0xbc1024d2	-0.008797841
119	0xbbc6ed22	-0.006070749
120	0x3e1cf422	0.15327504
121	0xbe3603e5	-0.17774923
122	0xbe530a7d	-0.2060947
123	0xbd4131af	-0.047166523
124	0x3c195558	0.009358726
125	0x3c11545b	0.00887021
126	0xbcd2c911	-0.025730642
127	0x3d98226a	0.07428439
128	0xbe3e3d12	-0.18577984
129	0x3d8b698a	0.06807239
130	0x3e59b34d	0.21259804
131	0x3e548b93	0.20756368
132	0xbe083192	-0.1330016
133	0xbd56f5e9	-0.052480612
134	0x3c8f0358	0.01745765
135	0xbd82eb9d	-0.06392596
136	0x3e1924a4	0.14955384
137	0x3dec6f88	0.115447104
138	0x3e3cf797	0.18453823
139	0xbe2d224f	-0.16907619
140	0xbcb26782	-0.021777872
141	0x3e2d3573	0.1691492
142	0x3e2dd76e	0.16976711
143	0x3d8e2dac	0.06942305
144	0x3e31b661	0.17354728
145	0x3e06272c	0.1310088
146	0x3e46f106	0.1942788
147	0x3e4b96db	0.19881766
148	0xbe3f06ab	-0.18654887
149	0xbe321d60	-0.17394018
150	0x3d144bd0	0.036205113
151	0x3d7d24db	0.061802726
152	0x3cde4328	0.027131632
153	0x3dc61b7d	0.09673212
154	0x3e24fe3a	0.16112605
155	0x3e2cadf6	0.16863236
156	0xbd015c82	-0.031582363
157	0xbe088b2e	-0.13334343
158	0xbe3dc247	-0.18531142
159	0xbd6aee51	-0.057356182
160	0xbe2cfff8	-0.1689452
161	0x3e1512c2	0.14557937
162	0x3d9cc24b	0.07654246
163	0xbe1ccde3	-0.15312915
164	0x3e255976	0.16147408
165	0xbe097d1d	-0.13426633
166	0xbe159da0	-0.1461091
167	0x3e39fd70	0.18163085
168	0xbddaa642	-0.106762424
169	0xbac0f96a	-0.0014722769
170	0xbd90fe5e	-0.07079767
171	0xbdd70032	-0.10498084
172	0x3e0edc98	0.13951337
173	0x3cf1ad18	0.029501483
174	0xbd47d3a8	-0.048785836
175	0xbe4a74e7	-0.19771157
176	0xbe092510	-0.13393044
177	0xbccb7f20	-0.024840891
178	0xbdca60fe	-0.09881781
179	0x3cc04b31	0.023473354
180	0xbe4f33f7	-0.20234667
181	0x3c31fd00	0.010863543
182	0x3dd2bff5	0.10290519
183	0x3c832de1	0.016013088
184	0x3e56c9a0	0.20975351
185	0xbc337d37	-0.0109551465
186	0xbd6bca57	-0.057566013
187	0x3c44c285	0.012009268
188	0xbe55ed94	-0.2089141
189	0x3dba35b6	0.09092276
190	0x3e0b567e	0.13607213
191	0xbdc965b5	-0.09833852
192	0xbe1b4c26	-0.15165767
193	0xbe38ebcb	-0.18058698
194	0x3d11b3ca	0.03557185
195	0x3d072a39	0.03299925
196	0xbe541c92	-0.20714024
197	0xbe425e50	-0.1898129
198	0x3d71b507	0.05901053
199	0xbdf4b737	-0.11949008
200	0x39f69057	0.00047028318
201	0x3dc5d5ff	0.09659957
202	0xbe41162c	-0.18856114
203	0xbe1725df	-0.1476054
204	0xbd2a177b	-0.0415263
205	0xbe5429f9	-0.20719136
206	0x3e11bec9	0.14232935
207	0x3e20e72f	0.1571319
208	0xbe2bd2fd	-0.16779704
209	0x3e4b4fc8	0.19854653
210	0x3d1cb591	0.038259093
211	0x3d3c4ea1	0.045973424
212	0xbe09f10f	-0.13470863
213	0x3dfcf7d2	0.123519555
214	0xbc88e17e	-0.016709086
215	0xbdd0b48e	-0.10190688
216	0xbe576410	-0.21034265
217	0xbd9608b8	-0.07325882
218	0xbe53169a	-0.2061409
219	0xbe4630ba	-0.19354525
220	0xbe1a320f	-0.15058158
221	0xbcfe1588	-0.031016126
222	0x3e48e6c5	0.19619282
223	0xbdbc705f	-0.092011206
224	0xbd0bffec	-0.034179613
225	0x3dd927b3	0.10603275
226	0xbd83473c	-0.06410071
227	0xbe0566a1	-0.13027431
228	0xbd850ae6	-0.06496219
229	0x3e2c33e6	0.16816673
230	0x3e39ec0a	0.18156448
231	0x3e09c60c	0.13454455
232	0x3dce2e0d	0.10067377
233	0xbe46fbdd	-0.19432016
234	0x3dcbdd8d	0.09954367
235	0xbcc04db5	-0.023474554
236	0x3e08938f	0.13337539
237	0x3ddbb283	0.10727408
238	0x3e209f3c	0.15685743
239	0x3dd7f3c4	0.105445415
240	0xbde7fa29	-0.11327011
241	0xbd17e1a5	-0.037080426
242	0xbe1bc0e9	-0.15210308
243	0xbe190d82	-0.14946559
244	0x3dc6c70c	0.09705934
245	0xbe283bfe	-0.16429135
246	0xbe0cf131	-0.13763882
247	0xbdc21b80	-0.094779015
248	0x3d6d052c	0.05786626
249	0xbdcbd051	-0.099518426
250	0xbe2493e5	-0.16072042
251	0xbe1d7809	-0.15377821
252	0x3dbf169e	0.09330486
253	0xbce4a767	-0.027911855
254	0xbdce42c8	-0.10071331
255	0xbe34abe2	-0.17643693

sage1.lin_l.weight f4 [128, 128]
0	0x3d398d40	0.045300722
1	0x3dabc674	0.08387461
2	0xbd9ef6c7	-0.07761913
3	0x3d41480e	0.047187857
4	0x3ceb8fe6	0.02875514
5	0x3d3ea285	0.04654171
6	0xbc913f36	-0.017730337
7	0xbbb78fbd	-0.0056018517
8	0x3cb1f0c3	0.02172125
9	0x3d5b0eec	0.053481027
10	0xba9dd6e2	-0.001204219
11	0x3d471c8a	0.0486112
12	0xbdabdae6	-0.08391361
13	0xbd8d69da	-0.06904955
14	0x3d466b3e	0.048442118
15	0x3d911a10	0.07085049
16	0x3c2bf060	0.010494322
17	0xbcd243cb	-0.025667092
18	0xbcc4bf66	-0.024017047
19	0x3d94d7ba	0.07267709
20	0x3d809243	0.06277897
21	0xbc7c580d	-0.015401852
22	0x3d34ba58	0.044123024
23	0x3c95d734	0.018291093
24	0xbd9d66c2	-0.07685615
25	0xbcbcc01d	-0.023040826
26	0x3cf0e0a7	0.029403998
27	0x3d24792e	0.04015463
28	0xbcb5027a	-0.022095907
29	0x3d83870f	0.06422245
30	0x3d64337a	0.055713154
31	0xbd052042	-0.032501467
32	0x3b8a2d7e	0.004216849
33	0xbce187b9	-0.027530538
34	0x3d6ecd13	0.058301043
35	0x3c9e8c64	0.019354053
36	0x3cc14e97	0.023597045
37	0xbd7f7743	-0.062369596
38	0x3d09ec6d	0.03367274
39	0xbcdf0f6b	-0.027229032
40	0x3d94f983	0.07274153
41	0x3d9f1f9f	0.07769703
42	0xbd829a24	-0.06377056
43	0xbd93159b	-0.07181855
44	0xbd9bff84	-0.07617095
45	0x3bd38bdb	0.006455881
46	0x3d4dec9c	0.050274476
47	0x3d44e020	0.048065305
48	0x3d22b7af	0.039725956
49	0x3d87997c	0.06621072
50	0x3d21a486	0.039463542
51	0x3d90cf9a	0.07070847
52	0xbd979bfd	-0.07402799
53	0xbd1f9053	-0.038955998
54	0xbd93cc6f	-0.07216727
55	0xbb3c2284	-0.0028707096
56	0x3d2692fd	0.040667523
57	0x3da5f15c	0.08102676
58	0x3d148be1	0.03626621
59	0xbd09cbb0	-0.033641517
60	0xbcb492e7	-0.022042705
61	0x3c1c4543	0.009537998
62	0xbd403c3c	-0.046932444
63	0xbce0e954	-0.02745501
64	0x3da5ba7b	0.08092209
65	0xbd060b8e	-0.032725863
66	0xbc7a279a	-0.015268231
67	0xbd8ee4e5	-0.06977252
68	0x3d82e5ca	0.06391485
69	0xbd5d99fc	-0.05410193
70	0xbdace5a2	-0.084422365
71	0xbcf47ab4	-0.029843666
72	0x3d546436	0.05185338
73	0x3d5dcffc	0.054153427
74	0x3da05da8	0.078303635
75	0xbd8caa87	-0.06868463
76	0xbda63605	-0.08115772
77	0xbd4c7b90	-0.049922526
78	0x3d833002	0.06405641
79	0xbccf68dd	-0.025318557
80	0xbd670ed8	-0.05641064
81	0x3ca234a8	0.0198005
82	0xbcb837ea	-0.0224876
83	0xbd0809ef	-0.0332126
84	0x3d6f4ea7	0.058424618
85	0xbcfda94a	-0.030964512
86	0x3c73125b	0.014835919
87	0x3d6e2047	0.05813625
88	0x3ce3a366	0.027787875
89	0xbd941f3c	-0.0723252
90	0x3d09d188	0.03364709
91	0x3c8e5dff	0.017378805
92	0xbd92904c	-0.07156429
93	0x3d8d9680	0.06913471
94	0x3d998714	0.07496467
95	0xbd0a0493	-0.03369577
96	0xbd979b3a	-0.07402654
97	0xbd89bdc0	-0.06725645
98	0xbdb22c7a	-0.086998895
99	0xbd3bd9fb	-0.04586218
100	0xbd0d54ca	-0.03450469
101	0xbc755b0d	-0.0149753215
102	0xbd269bbc	-0.040675864
103	0x3d3fb394	0.04680212
104	0xbd2fbe1e	-0.04290592
105	0xbcdaf59f	-0.02672845
106	0xbcb42844	-0.021991856
107	0x3d02f080	0.03196764
108	0x3cd1ca93	0.02560929
109	0xbd4ce9bc	-0.050027594
110	0x3d896842	0.06709339
111	0xbc0c8cee	-0.008578522
112	0x3d2f2b1e	0.04276573
113	0xbca90341	-0.020631434
114	0xbd2902cc	-0.041262433
115	0xbcfa3a58	-0.030545399
116	0x3cdb0d96	0.026739877
117	0xbc80d098	-0.015724465
118	0xbdb0d8f2	-0.08635129
119	0xbbde4903	-0.006783606
120	0x3c97f375	0.018548707
121	0x3d4246d4	0.04743083
122	0x3da15d83	0.07879164
123	0xbd96bcf8	-0.07360262
124	0x3d8750a9	0.066071816
125	0xbb99c1f9	-0.004692313
126	0xbd7d4566	-0.06183376
127	0xbda8acc5	-0.08236078
128	0x3c9258c7	0.017864598
129	0x3d3f882f	0.046760734
130	0xbb39ca12	-0.0028349203
131	0xbd62bb76	-0.055354558
132	0x3d8c40e3	0.06848314
133	0x3d61fb5e	0.055171363
134	0xbbd34f6b	-0.0064486763
135	0xbda396cc	-0.079877466
136	0x3c29dbc0	0.010367334
137	0xbd2c643d	-0.042087782
138	0xbd687ba2	-0.05675853
139	0x3c65f270	0.014034852
140	0x3c434bc2	0.011919918
141	0x3b7da899	0.0038705228
142	0x3c00ea79	0.007868403
143	0xbd38956a	-0.045064367
144	0xbaa62c23	-0.0012677949
145	0xbd48fa5c	-0.049066886
146	0xbce96274	-0.028489329
147	0x3b6766b4	0.0035309019
148	0xbd737ad3	-0.059443306
149	0x3d63aaa6	0.055582665
150	0xbd776b9d	-0.060405362
151	0xbd8d612d	-0.069033004
152	0xbd3a18d7	-0.045433845
153	0x3da7f290	0.08200562
154	0xbd1404c3	-0.036137354
155	0x3d1d302e	0.038376026
156	0xbd8810a2	-0.066437975
157	0x3d1938ac	0.037407562
158	0x3da25353	0.07926049
159	0xbd72c591	-0.059270445
160	0xbd5214a5	-0.05128922
161	0xbcb4300f	-0.021995572
162	0xbd9c40bf	-0.07629537
163	0xbd7a0465	-0.061039347
164	0x3d55f27d	0.052233208
165	0x3d7c2797	0.061561193
166	0x3db505fc	0.08839032
167	0x3d0692c2	0.032854803
168	0x3db28e70	0.08718574
169	0xbcd4cc9a	-0.025976468
170	0xbc1226c4	-0.008920375
171	0xbd249ace	-0.040186696
172	0x3b3fbaa0	0.0029255524
173	0x3d93c061	0.07214428
174	0xbb4c7d31	-0.003120255
175	0x3b0b9980	0.002130121
176	0x3ce03036	0.027366739
177	0xbd74c312	-0.059756346
178	0xbd9b136e	-0.07572065
179	0xbc2a0d3c	-0.010379132
180	0x3b8d0115	0.0043031075
181	0xbce34264	-0.027741618
182	0xbd77e9d9	-0.06052575
183	0xbda21512	-0.07914175
184	0xbcb1f8fe	-0.021725174
185	0x3ca7c040	0.020477414
186	0x3d9a9e9e	0.07549785
187	0x3d9df6f1	0.07713116
188	0xbc2a03a1	-0.010376842
189	0xbc90a108	-0.01765491
190	0xbda889da	-0.08229418
191	0x3cc818ef	0.024425952
192	0xb9817ae3	-0.00024696355
193	0x3d66d845	0.056358594
194	0xbd0f9843	-0.035057317
195	0xbd130885	-0.035896797
196	0xbbcb6852	-0.0062075043
197	0x3d3e1d20	0.046414495
198	0x3d69208b	0.0569158
199	0xbd42c93b	-0.04755519
200	0xbd9408fa	-0.07228275
201	0x3c69f4a3	0.014279517
202	0xbcb98eeb	-0.022651156
203	0x3d84a79d	0.06477282
204	0xbd6dc23f	-0.058046576
205	0x3d05a460	0.032627463
206	0xbc76eb98	-0.015070818
207	0xbbedff6a	-0.0072631137
208	0xbd8ed261	-0.0697372
209	0xbd483d3f	-0.048886534
210	0xbc21ba71	-0.009871111
211	0xbbf21922	-0.00738825
212	0x3d5a2405	0.053257007
213	0x3d26a290	0.040682375
214	0x3c690e1f	0.014224558
215	0x3c88e8f6	0.016712647
216	0xbd11f4f0	-0.03563398
217	0x3d2ab481	0.04167605
218	0xbd1ab8bc	-0.037773833
219	0x3cb4672e	0.022021856
220	0xbd2aa66a	-0.04166261
221	0xbd35314c	-0.044236466
222	0xbd438b1d	-0.04774009
223	0xbd32ae3f	-0.043623205
224	0x391d13f4	0.0001498012
225	0x3d3a9553	0.045552563
226	0xbcae46dd	-0.021274025
227	0x3c7885bb	0.015168603
228	0xbc8eeac4	-0.01744593
229	0x3d995915	0.07487694
230	0x3d462cb9	0.048382495
231	0x3d835f11	0.06414617
232	0xbd452635	-0.04813214
233	0xbc4a2159	-0.012337052
234	0x3d7896a2	0.06069053
235	0x3da9269c	0.08259317
236	0xbd77ae4f	-0.060468968
237	0x3ca673e5	0.020318935
238	0xbd7dcf60	-0.061965346
239	0xbd8ea488	-0.069649756
240	0x3d5597e2	0.0521468
241	0x3d84c007	0.06481939
242	0xbc0eaec4	-0.00870866
243	0xbc4ecf8e	-0.012622727
244	0x3d6b1ac8	0.057398587
245	0x3d868e7f	0.06570148
246	0xbd8ebb8f	-0.06969368
247	0x3c8a33df	0.016870437
248	0x3c854755	0.016269365
249	0xbd2cf3b8	-0.042224616
250	0xbd65e235	-0.05612393
251	0x3d449acb	0.047999185
252	0x3d84b247	0.06479316
253	0x3c3eedd0	0.011653379
254	0xbd90bde5	-0.070674695
255	0xbd5c0b7d	-0.053721894

sage1.lin_l.bias f4 [128]
0	0x3d7727af	0.06034058
1	0x3d288991	0.04114682
2	0xbd668339	-0.056277487
3	0xbd804875	-0.0626382
4	0x3d45de1f	0.048307534
5	0xbcace3f6	-0.021104794
6	0x3d43fefb	0.04785059
7	0xbbd0666e	-0.006359867
8	0xbd8c194e	-0.06840764
9	0x3daf2e7f	0.0855379
10	0x3d9e426c	0.07727513
11	0xbd86098a	-0.06544788
12	0x3cca72b7	0.024712903
13	0x3da73db2	0.08166064
14	0x3d8e362d	0.06943927
15	0xbd5cb616	-0.05388459
16	0x3dabd55b	0.08390304
17	0xbca33816	-0.019924205
18	0xbd8b1177	-0.067904405
19	0x3daf3b6d	0.085562564
20	0xbd8fcf95	-0.07022015
21	0x3db026b9	0.08601136
22	0xbdad2cab	-0.08455785
23	0x3cd6788b	0.026180526
24	0x3dac5bb8	0.084159315
25	0xbcb38704	-0.021914966
26	0x3da45e27	0.08025771
27	0xbd661db7	-0.056180682
28	0xbd7e9f95	-0.062163908
29	0xbd1af139	-0.037827704
30	0xbd71843f	-0.05896401
31	0xbd4992f3	-0.049212407
32	0x3d21f96d	0.03954451
33	0xbd435354	-0.04768689
34	0x3d5fe510	0.05466181
35	0x3d986bbc	0.07442424
36	0xb9e0de3e	-0.00042890193
37	0xbc7a150b	-0.015263806
38	0x3d4bcfcb	0.049758714
39	0xbd820baa	-0.06349881
40	0xbcfadb3d	-0.03062212
41	0xbd9490af	-0.07254159
42	0xb9cd2e2d	-0.0003913505
43	0x3d4563d9	0.048190925
44	0x3d630134	0.05542107
45	0xbd08365c	-0.033254966
46	0xbcac65f9	-0.021044718
47	0x3d42e3d5	0.04758056
48	0xbc37ec7a	-0.011225814
49	0xbd6ae4f2	-0.057347246
50	0x3daa8e6d	0.08327947
51	0xbcb7224a	-0.022355217
52	0x3d90f97c	0.07078835
53	0x3b785c59	0.003789684
54	0x3c90678f	0.017627506
55	0xbcf8c142	-0.03036559
56	0x3da364f0	0.07978237
57	0xbd3ea85c	-0.04654728
58	0xbb249532	-0.0025113341
59	0x3d2aeda0	0.041730523
60	0xbca3b1e6	-0.01998229
61	0x3c88d658	0.01670377
62	0x3d69a85f	0.057045337
63	0x3d605417	0.054767694
64	0x3d89c96e	0.06727873
65	0x3aa71a44	0.0012748917
66	0x3d326f67	0.043563273
67	0xbc9bb508	-0.01900722
68	0xbc9e0bab	-0.019292673
69	0xbdaa5184	-0.08316329
70	0xbd94a0fe	-0.07257269
71	0x3da5630d	0.08075533
72	0x3d207719	0.03917608
73	0x3d203126	0.03910937
74	0x3d8f6111	0.07000936
75	0xbd27a1d5	-0.04092582
76	0xbbd701a9	-0.006561477
77	0x3c31d27a	0.010853404
78	0xbbd391eb	-0.0064566038
79	0xbd94bda4	-0.072627336
80	0xbd0e8554	-0.03479512
81	0x3d8dd858	0.0692603
82	0x3cb3c4f8	0.021944508
83	0xbd93687f	-0.071976654
84	0x3d0f93ae	0.035052948
85	0x3d1a169f	0.03761923
86	0x3c95bd8d	0.018278861
87	0xbd84e889	-0.06489665
88	0xbd968b9d	-0.07350848
89	0xbba94a44	-0.005166324
90	0x3d105f32	0.035247035
91	0xbd21a6cd	-0.039465714
92	0x3d207468	0.039173514
93	0xbcaab365	-0.020837495
94	0xbdb0521a	-0.0860941
95	0x3d1ad3c1	0.0377996
96	0xbb598ddd	-0.003319613
97	0x3d28c65d	0.0412048
98	0x3d629724	0.05531992
99	0xbc2e2455	-0.010628779
100	0xbd5d5d39	-0.054043982
101	0xbd242702	-0.040076263
102	0xbcffe486	-0.031236898
103	0x3d5cb967	0.05388775
104	0xbbbfb23b	-0.005850104
105	0xbd92048d	-0.07129774
106	0xbd240039	-0.040039275
107	0xbdaadcfe	-0.08342932
108	0xbda8105d	-0.08206246
109	0xbcfc81e0	-0.030823648
110	0xbd5c9113	-0.05384929
111	0xbbb63ecd	-0.0055616857
112	0xbd8f3e13	-0.069942616
113	0xbd64d5e7	-0.055868056
114	0x3d895903	0.06706431
115	0x3c55655a	0.013024652
116	0xbdad6bc2	-0.08467819
117	0x3d95cdce	0.07314645
118	0xbcb8f99d	-0.022579962
119	0xbd1de172	-0.03854508
120	0xbcf0d400	-0.029397964
121	0x3d422e62	0.047407515
122	0x3cd694f7	0.026194079
123	0xbc1c8239	-0.009552532
124	0xbb212ca7	-0.0024593265
125	0xbd51370d	-0.05107789
126	0x3bb59acb	0.0055421344
127	0xbd4a9936	-0.04946252

sage1.lin_r.weight f4 [128, 128]
0	0xbd4840f3	-0.048890065
1	0x3d9d6fa6	0.07687311
2	0xbdaa94d7	-0.0832917
3	0xbd9b8729	-0.07594139
4	0xbda3ec53	-0.0800406
5	0x3d24ea2a	0.04026238
6	0x3d7f51a5	0.06233372
7	0xbd5bba75	-0.053644616
8	0x3daecbc7	0.08534961
9	0xbda8dece	-0.082456216
10	0xbaddd422	-0.0016924182
11	0xbda1a2cb	-0.078923784
12	0xbc43aa6b	-0.011942486
13	0xbd458762	-0.048224814
14	0xbca6c7a5	-0.02035887
15	0xbd80e072	-0.062928095
16	0xbab34862	-0.0013678188
17	0x3d47a9ca	0.048745908
18	0xbd9338d4	-0.071885735
19	0xbd6523d6	-0.05594238
20	0xbd30959b	-0.043111425
21	0x3d2a3a18	0.04155931
22	0xbd47d0a8	-0.048782974
23	0x3d2652dd	0.04060637
24	0xbcfceac0	-0.030873656
25	0xbd91c7bc	-0.071181744
26	0xbd89f294	-0.06735721
27	0xbd06c649	-0.032903943
28	0x3db11d85	0.086482085
29	0x3bd61f25	0.0065344744
30	0x3d4a2978	0.049355954
31	0x3d1a9003	0.037734997
32	0xbd4476c5	-0.04796483
33	0x3d8c93e5	0.06864146
34	0x3d8877dc	0.06663486
35	0x3d429714	0.04750736
36	0xbdab0973	-0.08351412
37	0xbcf0993a	-0.02936994
38	0x3d467e4c	0.04846029
39	0x3d8ad153	0.06778207
40	0x3d36b0ad	0.044602085
41	0xbd18fb7e	-0.037349217
42	0x3db33644	0.08750585
43	0x3da31b3f	0.07964181
44	0xbd716b83	-0.05894042
45	0x3d8609f1	0.06544865
46	0x3db2579d	0.08708117
47	0x3d4575c4	0.048208013
48	0x3cdf0784	0.027225263
49	0xbd603268	-0.05473557
50	0xbd1b160e	-0.03786283
51	0xbc90ef53	-0.017692244
52	0xbcbed672	-0.023295615
53	0xbce4382f	-0.027858822
54	0xbc0a09e8	-0.008425213
55	0x3ce9fdfa	0.028563488
56	0x3db43ece	0.088010415
57	0x3da11a37	0.07866328
58	0x3c4a8e19	0.01236298
59	0x3c418f28	0.011813916
60	0x3c12f0fd	0.008968589
61	0xbdada1d7	-0.08478134
62	0x3d989143	0.074495815
63	0xbc98022a	-0.01855572
64	0xbb204f61	-0.0024461376
65	0x3d6d5132	0.057938762
66	0x3dac040d	0.0839921
67	0xbd98d520	-0.07462525
68	0x3d03979a	0.032127
69	0xbc060a4f	-0.008181169
70	0xbd1bb70c	-0.038016364
71	0xbc05f58f	-0.0081762215
72	0x3dabbc89	0.083855696
73	0xbd8f639f	-0.07001423
74	0x3d96b84a	0.07359369
75	0x3d1c2a6c	0.038126394
76	0xbb81abf6	-0.003957267
77	0xbd54b711	-0.0519324
78	0x3d539cbc	0.051663145
79	0xbd2b4032	-0.04180927
80	0x3d0d78fc	0.034539208
81	0x3da4346b	0.080178104
82	0xbd70c506	-0.058781646
83	0x3daa3459	0.08310766
84	0x3d74e379	0.059787247
85	0xbd8a7fa6	-0.06762628
86	0x3cafaecc	0.021445654
87	0xbd97a783	-0.07404997
88	0x3d99275e	0.07478212
89	0x3cae90b9	0.021309244
90	0x3d6063c0	0.05478263
91	0x3c2b0d1f	0.01044014
92	0xbd0867e5	-0.033302207
93	0x3d96f864	0.073715955
94	0xbba4f188	-0.0050336756
95	0xbd530ca7	-0.051525738
96	0x3d83accf	0.06429445
97	0xbdab4d56	-0.0836436
98	0x3be9915a	0.007127923
99	0xbd8af618	-0.0678522
100	0x3b9fa0b6	0.004871453
101	0x3d1f2f6c	0.038863584
102	0xbd3519b7	-0.044213977
103	0xbd58fe14	-0.052976683
104	0xbd2bf0ba	-0.04197762
105	0xbdaefb59	-0.085440345
106	0xbd8ce8a8	-0.06880313
107	0xbd132d00	-0.035931587
108	0x3b9e48ac	0.0048304405
109	0xbd126904	-0.035744682
110	0xbcd3250e	-0.025774505
111	0x3d286e89	0.04112104
112	0x3cb4a57f	0.022051571
113	0xbdb3975e	-0.087691054
114	0xbc68b037	-0.014202169
115	0xbbe2fe0f	-0.006927259
116	0xbd02f2a3	-0.031969678
117	0x3d22ee6c	0.039778158
118	0x3c9d07cb	0.019168755
119	0xbcf52fc9	-0.029930012
120	0xbc1fdc53	-0.009757119
121	0x3da6614d	0.081240274
122	0xbd82ef90	-0.06393349
123	0xbc8f48c7	-0.017490758
124	0xbc16f0ae	-0.009212656
125	0x3cd84cf7	0.026403887
126	0xbcb02370	-0.021501273
127	0xbbca0f23	-0.006166355
128	0xbcccfb54	-0.025022186
129	0x3cfe2320	0.031022608
130	0x3c8db711	0.017299207
131	0xbd9cce82	-0.07656576
132	0xbcffa705	-0.03120757
133	0xbcbf3a98	-0.02334337
134	0x3d981422	0.07425715
135	0x3d15db5c	0.03658615
136	0x3c8bd538	0.017069444
137	0xbd8f5ae3	-0.06999757
138	0x3b6afa7e	0.0035854871
139	0x3cbe18da	0.02320521
140	0x3d9252f4	0.07144728
141	0x3d3712ec	0.04469578
142	0x3d837040	0.06417894
143	0x3d35b960	0.04436624
144	0x3d916a21	0.071003206
145	0x3da82fa3	0.08212211
146	0x3cdc0638	0.026858434
147	0xbb0ba494	-0.0021307813
148	0xbd6ab6b4	-0.057303146
149	0x3db1b1f8	0.08676523
150	0x3b30ad13	0.002695863
151	0x3d3a3d56	0.04546865
152	0xbd126981	-0.035745148
153	0x3c69b88d	0.014265192
154	0x3bc0ae1f	0.005880132
155	0x3d9b1a04	0.075733215
156	0xbd917720	-0.071027994
157	0xbd86239a	-0.06549759
158	0x3d8b10c8	0.0679031
159	0xbcbc8fd8	-0.023017809
160	0xbd88b277	-0.066746645
161	0x3d7f0cc8	0.06226805
162	0x3cc9b84a	0.024624009
163	0xbcb39077	-0.021919472
164	0x3d8eb6a3	0.06968429
165	0xbd79378e	-0.060843997
166	0xbd151720	-0.036399007
167	0x3d91b910	0.07115376
168	0xbd0ff58c	-0.03514628
169	0xbd78cb1b	-0.06074057
170	0x3cdc91d2	0.026925001
171	0x3ae7d58b	0.0017687542
172	0xbce752a0	-0.02823764
173	0x3cd479e8	0.025937036
174	0xbcca53fa	-0.024698246
175	0xbdb06411	-0.08612836
176	0x3bca49c3	0.006173344
177	0xbd7f5684	-0.062338367
178	0x3db3a6e5	0.08772067
179	0x3c9f9903	0.019482141
180	0x3d2b301e	0.041793935
181	0x3d9b5d3c	0.075861424
182	0x3d8f6729	0.07002098
183	0xbd935771	-0.071944125
184	0x3db52510	0.0884496
185	0xbd7917ce	-0.060813718
186	0x3b8d2f1a	0.0043085935
187	0x3ca67116	0.020317595
188	0xbd93807b	-0.0720224
189	0xbc124ecc	-0.008929919
190	0x3cf79b9f	0.030225573
191	0x3c36eab8	0.01116436
192	0x3b363227	0.002780089
193	0xbaa06d29	-0.0012239564
194	0x3d96bf20	0.07360673
195	0x3d6d0937	0.057870116
196	0x3d8129ff	0.06306838
197	0xbcfce5c1	-0.030871274
198	0xbcb12bd5	-0.021627346
199	0xbd0d2182	-0.034455784
200	0x3d3173c6	0.0433233
201	0xbdb059d8	-0.08610886
202	0xbda07995	-0.0783569
203	0xbb2cef83	-0.0026387877
204	0xbb52222d	-0.0032063827
205	0x3d0ad169	0.033891115
206	0x3d6e98ca	0.05825118
207	0x3bd2d1e2	0.0064337114
208	0x3d3310e3	0.043717276
209	0xbd3b7a55	-0.04577096
210	0x3b856236	0.0040705455
211	0x3d9e969b	0.077435695
212	0x3d96762e	0.0734676
213	0xbda2dd96	-0.079524204
214	0xbda541ae	-0.08069168
215	0xbd67ce80	-0.056593418
216	0x3da7da0f	0.08195888
217	0xbc803435	-0.015649894
218	0xbdab3097	-0.08358877
219	0xbda90a12	-0.08253874
220	0x3d1028f4	0.035195306
221	0x3c8b0261	0.016968908
222	0x3d5f9ec3	0.054594766
223	0xbd7d9605	-0.061910648
224	0x3d9ae38f	0.075629346
225	0x3c43f4c1	0.011960209
226	0x3b3528e9	0.0027642793
227	0xbd60da8b	-0.05489592
228	0x3c56214e	0.013069464
229	0xbd23d30e	-0.0399962
230	0xbca7f44f	-0.020502238
231	0x3c8e94e4	0.017404981
232	0xbd62a1f0	-0.055330217
233	0xbce20770	-0.027591437
234	0xbc9b2793	-0.018939769
235	0xbced1d39	-0.028944599
236	0xbd10944d	-0.03529768
237	0xbd29e81a	-0.041481115
238	0x3ca71d44	0.020399697
239	0x3d57f059	0.052719448
240	0xbd7f8b0f	-0.062388476
241	0xbd360100	-0.044434547
242	0x3d964ad0	0.07338488
243	0xbc910d58	-0.017706558
244	0x3d76df67	0.060271647
245	0xbd84f963	-0.06492879
246	0xbce41370	-0.0278413
247	0x3d1292de	0.035784595
248	0xbaa47a8f	-0.0012548732
249	0xbca14f44	-0.019691117
250	0x3db1ae65	0.08675841
251	0x3d3206f5	0.043463666
252	0xbd92fa37	-0.07176631
253	0xbda0428e	-0.07825194
254	0xbc94db07	-0.018170847
255	0xbd13ebbb	-0.036113482

sagpool.gnn.lin_rel.weight f4 [1, 128]
0	0x3bf641de	0.007515176
1	0x3ce7bbb7	0.028287752
2	0xbc3b59c4	-0.011434976
3	0xbd0a9a06	-0.033838294
4	0xbd54229d	-0.051790822
5	0x3dad9d4d	0.08477268
6	0x3c1f37ab	0.009717862
7	0x3d9a1a82	0.07524587
8	0x3c2523d9	0.0100793475
9	0xbd0a3f4a	-0.033751763
10	0xbd64e61b	-0.05588351
11	0xbd87aa92	-0.066243306
12	0xbd30a3c0	-0.043124914
13	0x3d30fce8	0.04320994
14	0x3d21593a	0.039391734
15	0x3cf21e05	0.02955533
16	0x3b66d67e	0.0035223062
17	0x3c84ce2a	0.016211588
18	0xbc152d65	-0.009105061
19	0x3db23460	0.08701396
20	0xbd5bb694	-0.053640917
21	0x3d044e21	0.032301072
22	0xbca0708e	-0.01958492
23	0x3d02083c	0.031746134
24	0x3c9db725	0.01925237
25	0x3cb0c64b	0.021578928
26	0x3d3f4983	0.046700966
27	0x3d3e406e	0.046448164
28	0xbbecd4cd	-0.0072275163
29	0x3d5e5dec	0.05428879
30	0x3d88830f	0.066656224
31	0x3db0c7ad	0.08631835
32	0x3d646b19	0.0557662
33	0xbd3f05ec	-0.046636507
34	0xbc9f8121	-0.019470753
35	0x3d123992	0.035699435
36	0x3d45948e	0.048237376
37	0xbc6afd14	-0.014342565
38	0xbdb3b52d	-0.08774791
39	0xbd67c768	-0.056586653
40	0x3dadc2ba	0.08484407
41	0x3cb065d2	0.021532927
42	0xbd79b599	-0.0609642
43	0x3ae3aeb0	0.0017370787
44	0x3c3cdb1a	0.011526847
45	0x3ba6e60b	0.005093341
46	0x3cd23b84	0.025663145
47	0xbd7a54ee	-0.06111615
48	0xbc4a336b	-0.012341361
49	0xbd30bf3c	-0.043151125
50	0x3ba3f8ea	0.005004038
51	0xbd0251e9	-0.031816397
52	0xbcf81d5c	-0.030287437
53	0xbd196e68	-0.037458807
54	0xbc25d07c	-0.010120507
55	0x3d692ace	0.056925587
56	0xbd7fc7f7	-0.06244656
57	0x3a469734	0.00075756316
58	0xbcb966c9	-0.02263202
59	0x3b687b8c	0.003547403
60	0x3c896624	0.016772337
61	0xbb8550f6	-0.004068489
62	0xbd970ab5	-0.07375089
63	0xbd98bc5a	-0.074578
64	0x3cd6f4d3	0.026239788
65	0xbd65a2ce	-0.056063466
66	0x3a019638	0.0004943344
67	0x3d1ffaf8	0.0390577
68	0xbda0cc4f	-0.07851469
69	0xbd4ae636	-0.049535953
70	0x3ba2bd9d	0.0049664513
71	0xbd6624f0	-0.05618757
72	0x3d9e91c6	0.07742648
73	0x3d193b68	0.03741017
74	0x3d5af648	0.05345753
75	0xbd2af86e	-0.041740827
76	0x3d099df5	0.033597905
77	0x3db160e8	0.086610615
78	0x3d532c2a	0.05155579
79	0xbdad5006	-0.08462529
80	0xbd80b41c	-0.06284353
81	0x3ce34fb3	0.027747964
82	0xbd59391d	-0.053032983
83	0x3d882af4	0.06648818
84	0xbd20ea36	-0.03928586
85	0x3c830b10	0.015996486
86	0x3d309b01	0.043116573
87	0xbc8128b9	-0.015766488
88	0x3cb528f4	0.022114255
89	0xbd68c493	-0.056828093
90	0xbd1618a8	-0.036644608
91	0xbc724101	-0.014786006
92	0xbc19d2a2	-0.009388598
93	0xbd7d4d7b	-0.06184147
94	0x3d5587d3	0.052131485
95	0xbd8096de	-0.06278776
96	0x3d198c82	0.037487514
97	0x3c38e7ab	0.011285703
98	0x3da2629f	0.07928967
99	0x3da19ec8	0.07891613
100	0xbd73e8fa	-0.059548356
101	0x3d694485	0.05695011
102	0xbd400cce	-0.04688721
103	0xbcf9665f	-0.030444322
104	0x3d8dd620	0.06925607
105	0x3d5aa8e7	0.053383734
106	0x3d2422c9	0.040072236
107	0xbd6eb9cf	-0.05828267
108	0xbd93e332	-0.072210684
109	0xbd30e9b4	-0.043191627
110	0x3d301190	0.0429855
111	0xbd8a1daa	-0.06743939
112	0x3d0cede7	0.03440657
113	0xbd92fbcf	-0.07176935
114	0xbd80ca26	-0.06288557
115	0x3cd02950	0.025410324
116	0x3cce2726	0.025165152
117	0xbd0f0370	-0.034915388
118	0x3d521cb8	0.05129692
119	0xbdac269e	-0.08405803
120	0xbda233a6	-0.079200074
121	0x3c51a06b	0.012794594
122	0xbd06ddd5	-0.0329264
123	0x3d5a35e4	0.05327405
124	0x3dae1b8b	0.08501347
125	0x3c2f0669	0.010682681
126	0xbda967f4	-0.082717806
127	0xbd9ba7e9	-0.07600386

sagpool.gnn.lin_root.weight f4 [1, 128]
0	0xbdb463a1	-0.08808065
1	0x3c1fd5cd	0.009755564
2	0xbbffd880	-0.0078077912
3	0x3d9f226b	0.077702366
4	0x3cdd9bf3	0.027051901
5	0xbd593feb	-0.053039473
6	0xbd2dce01	-0.04243279
7	0x3da418ea	0.080125645
8	0x3d9b0a78	0.07570356
9	0x3dabda9a	0.08391304
10	0x3d9ed1e5	0.07754878
11	0xbd469db6	-0.04849025
12	0xbb5081a2	-0.0031815548
13	0xbd2f005a	-0.042724945
14	0x3d9e1e5f	0.077206366
15	0xbda3eedc	-0.08004543
16	0xbd10a261	-0.035311107
17	0xbd3f6ac4	-0.04673268
18	0xbb54a215	-0.0032445241
19	0x3dae7f7c	0.085204095
20	0x3c8925c6	0.016741645
21	0xbceee7c2	-0.029163245
22	0xbd8065d6	-0.06269424
23	0x3c30d0af	0.010791942
24	0x3b728bf9	0.00370097
25	0x3d703cd3	0.058651756
26	0xbda3961b	-0.07987615
27	0x3d8fc35d	0.070196845
28	0x3d880760	0.06642032
29	0xbd97aebe	-0.07406376
30	0xbc23bc31	-0.009993599
31	0xbd530498	-0.051518053
32	0xbd60cbb8	-0.05488178
33	0xbd84e2a6	-0.06488542
34	0x3d6129c7	0.054971483
35	0x3a90ce7b	0.0011047864
36	0xbcad8d29	-0.021185474
37	0xbd0355a1	-0.032064084
38	0x3d46af4d	0.048507024
39	0xbc85d45d	-0.016336614
40	0xbda91064	-0.082550794
41	0x3d52c640	0.051458597
42	0xbda1a46c	-0.07892689
43	0xbd9c4efb	-0.07632252
44	0xbd8f3034	-0.06991616
45	0xbc80913f	-0.015694259
46	0xbd64112e	-0.055680446
47	0xbd88323d	-0.06650207
48	0xbd9ced75	-0.07662479
49	0xbd8da713	-0.069166325
50	0x3d043ce0	0.032284617
51	0x3dab9cf7	0.08379548
52	0x3d90cdb7	0.07070487
53	0xbd053167	-0.032517817
54	0xbd9e4ac9	-0.07729108
55	0xbd4ef153	-0.050523113
56	0x3d8d2171	0.06891144
57	0x3d34a87b	0.044105988
58	0xbb60c256	-0.003429552
59	0xbd67779a	-0.056510545
60	0x3d2e7e3f	0.042600866
61	0x3cc907f0	0.024539918
62	0x3d4a56d5	0.049399216
63	0xbc1a06fe	-0.009401081
64	0xbdaca49d	-0.08429835
65	0x3da44eb5	0.08022825
66	0xbccfead8	-0.025380537
67	0xbd2570f9	-0.040390942
68	0xbdafd836	-0.08586161
69	0x3dac1cc1	0.08403922
70	0x3dad3ae3	0.084584974
71	0xbcbafcb8	-0.022825584
72	0x3cc26612	0.023730312
73	0x3db3aa6f	0.08772742
74	0xbcaf8a1f	-0.021428166
75	0xbd8e7f14	-0.06957832
76	0xbd34cda7	-0.044141438
77	0xbc6a8df8	-0.014316075
78	0xbd0a331c	-0.033740148
79	0xbd662b28	-0.0561935
80	0xbd7c9f40	-0.06167531
81	0x3d734466	0.0593914
82	0x3d011a9d	0.03151952
83	0xbd21909f	-0.039444562
84	0x3cdd933e	0.02704775
85	0xbd4e0894	-0.05030115
86	0xbcad3edf	-0.021148143
87	0xbd7732a0	-0.060351014
88	0xbbb0d48b	-0.005396431
89	0xbd84e1c8	-0.06488377
90	0x3d4dea8e	0.050272517
91	0x3cc9336f	0.024560658
92	0x3c65eac5	0.014033024
93	0x3c81d23d	0.01584732
94	0xbc931d7c	-0.017958395
95	0xbd8e4e0b	-0.06948479
96	0xba08d36a	-0.00052194914
97	0x3d1845f6	0.037176095
98	0x3d8fc88d	0.07020674
99	0x3da5677d	0.080763794
100	0x3cb5de48	0.022200719
101	0xbd802046	-0.06256156
102	0x3c6e7421	0.0145540545
103	0xbd9130fe	-0.07089423
104	0x3da9ada6	0.08285074
105	0xbc05982a	-0.0081539545
106	0x3b9c77b7	0.0047750133
107	0x3d51b994	0.05120237
108	0xbd8abedd	-0.067746855
109	0x3d55d773	0.05220742
110	0x3d806dcd	0.06270943
111	0xbd87ba40	-0.06627321
112	0xbca4f2ba	-0.020135272
113	0x3d9631c2	0.07333709
114	0xbd839423	-0.06424739
115	0x3d91419d	0.07092593
116	0xbcb967b7	-0.022632463
117	0xbdab6a17	-0.083698444
118	0xbda34e55	-0.07973925
119	0xbcda25d4	-0.026629366
120	0xbdabee7c	-0.08395097
121	0xbda66d47	-0.08126312
122	0xbd968312	-0.073492184
123	0x3aeeb1e6	0.0018210977
124	0x3d341862	0.043968566
125	0xbc2cc7a8	-0.010545649
126	0xbc968b0c	-0.01837685
127	0x3d31263f	0.043249365

lin.weight f4 [64, 128]
0	0x3cb87b4f	0.022519736
1	0xbc0c7722	-0.008573325
2	0xbd597978	-0.053094357
3	0x3d48d784	0.049033657
4	0x3d8ea8a7	0.06965762
5	0x3d4da48f	0.050205763
6	0xbd0b59bb	-0.03402112
7	0xbb56fd8b	-0.0032804932
8	0xbc000c20	-0.007815391
9	0xbd6bc818	-0.05756387
10	0xbcd1817a	-0.025574435
11	0xbdac556e	-0.08414732
12	0x3ca06810	0.01958087
13	0x3d5629e5	0.052286047
14	0x3d98f227	0.07468062
15	0xba44f84c	-0.0007513806
16	0xbc2507cd	-0.010072661
17	0x3a44dfe2	0.0007510168
18	0x3d4cb90b	0.04998116
19	0xbd9105b3	-0.07081165
20	0x39004a68	0.0001223475
21	0x3da9f512	0.082986966
22	0xbd9c2677	-0.07624524
23	0xbca7769e	-0.020442303
24	0xbd60517b	-0.054765206
25	0xbd9fbeee	-0.07800089
26	0xbc92b5fe	-0.017909046
27	0xbc869f75	-0.016433457
28	0x3d1ed598	0.038777918
29	0x3dab6ec2	0.08370735
30	0xbcbd5d14	-0.023115672
31	0xbd6c541a	-0.057697393
32	0xbd0d5216	-0.03450211
33	0x3d9afed7	0.07568138
34	0xbda36e02	-0.07979967
35	0xbd8930cc	-0.066987604
36	0x3d41927d	0.047258843
37	0x3d87623a	0.06610532
38	0x3d89bae4	0.067251
39	0xbc703f91	-0.014663593
40	0x3c393cfa	0.011306042
41	0x3a9455d4	0.0011317083
42	0x3d298730	0.04138869
43	0xbd9ac04a	-0.075562075
44	0x3cd15962	0.025555316
45	0xbd00b056	-0.031418167
46	0x3c442258	0.011971079
47	0x3d9f53e8	0.07779676
48	0x3c9f9ad3	0.019483006
49	0xbca3f043	-0.020012027
50	0xbd1ca949	-0.03824738
51	0x3c9f15e6	0.019419622
52	0xbd604665	-0.054754633
53	0x3d030023	0.031982552
54	0xbd9aa6c9	-0.07551343
55	0xbda18b0c	-0.07887849
56	0xbd9f85d0	-0.077891946
57	0xbce6e8c5	-0.028187165
58	0x3d693ff4	0.056945756
59	0x3c622197	0.013801954
60	0x3cf56395	0.029954711
61	0x3d161a48	0.036646158
62	0xbd133f09	-0.035948787
63	0xbd6721a9	-0.056428585
64	0xbd24ed18	-0.040265173
65	0xbd8aaefc	-0.06771657
66	0x3d7d9bad	0.061916042
67	0xbda05e1c	-0.0783045
68	0x3c150e19	0.009097599
69	0xbcf7f2a0	-0.03026706
70	0xbda26519	-0.07929439
71	0x3d09e88f	0.03366905
72	0xbd9b43fa	-0.07581325
73	0x3cd33cf3	0.025785899
74	0x3d9b9b1d	0.07597945
75	0xbd8a0304	-0.067388564
76	0xbd6f5f65	-0.058440585
77	0xbd22f02a	-0.03977982
78	0x3d49bb3d	0.04925083
79	0xbd1447af	-0.036201175
80	0xbd6cbcda	-0.05779729
81	0xbca1c453	-0.019746935
82	0x3bdc9730	0.00673189
83	0x3d2de997	0.042459097
84	0xbd4e72c9	-0.050402436
85	0x3db247d7	0.087051086
86	0x3b6b8ade	0.0035940926
87	0x3daacc82	0.08339788
88	0x3d9a5e21	0.07537485
89	0xbd74fe10	-0.059812605
90	0xbd78bf98	-0.060729593
91	0x3da6db05	0.081472434
92	0x3d986a29	0.074421234
93	0xbcfb0038	-0.030639753
94	0x3cde1d0e	0.027113464
95	0x3bee9712	0.0072811926
96	0xbd9021f8	-0.07037729
97	0xbd2c65e5	-0.04208936
98	0x3d8425fa	0.06452556
99	0x3d63c736	0.055609904
100	0x3d7e0771	0.062018815
101	0xbcfee0ea	-0.031113107
102	0xbd0da03f	-0.03457665
103	0xbc4903f1	-0.012269006
104	0xbd272f9d	-0.040816892
105	0xbca6a3eb	-0.020341834
106	0xbcb134cf	-0.021631626
107	0xbd61a438	-0.05508825
108	0x3d968504	0.073495895
109	0xbdb1a423	-0.08673885
110	0x3c8eafb9	0.017417775
111	0xbd5d5d6b	-0.05404417
112	0x3c945ac8	0.018109694
113	0x3db0701d	0.08615134
114	0xbd2b6bba	-0.041850783
115	0x3d980ce1	0.074243315
116	0xbd855469	-0.065102406
117	0x3d830ae9	0.06398565
118	0x3db2265f	0.08698725
119	0xbc01b7ad	-0.007917327
120	0xbcdee16f	-0.027207104
121	0x3d56d643	0.05245043
122	0x3d357ddb	0.04430948
123	0x3d9c6706	0.07636838
124	0xbc40a2b1	-0.011757539
125	0xbd58872d	-0.05286329
126	0x3d8531f1	0.06503666
127	0x3d3f6483	0.046726715
128	0x3cca90cb	0.024727246
129	0xbd83adfa	-0.06429668
130	0x3cbfe7d3	0.023425972
131	0xbd5713da	-0.052509166
132	0x3cecfd82	0.028929476
133	0xbc93a6fe	-0.018023964
134	0x3c0199fa	0.007910246
135	0xbd4b20be	-0.049591772
136	0xbc6a583b	-0.014303262
137	0xbd2fd4e6	-0.042927645
138	0xba967fe3	-0.0011482205
139	0x3cc4e23e	0.024033662
140	0x3ce08a11	0.027409585
141	0x3d5ae75d	0.0534433
142	0xbd5cd264	-0.05391158
143	0xba7b727e	-0.0009591951
144	0x3d79bb32	0.06096954
145	0x3d83254b	0.064035974
146	0xbd9d8f92	-0.076933995
147	0xbd0a1d5f	-0.033719417
148	0xbdacf64a	-0.084454134
149	0xbd8c9ec4	-0.0686622
150	0x3d9e58b2	0.07731761
151	0x3d90293c	0.07039115
152	0x3d808c07	0.06276708
153	0x3cf72a54	0.03017155
154	0x3d813361	0.06308628
155	0x3d92fa96	0.07176702
156	0x3da48e76	0.08034985
157	0x3ca923f3	0.020647025
158	0x3b50f966	0.0031886934
159	0x3d90bfff	0.0706787
160	0x3cca05a7	0.024660898
161	0x3d9bb1ef	0.076022975
162	0x3d0001a2	0.031251557
163	0xbd8f9c14	-0.070121914
164	0xbd72a9f5	-0.059244115
165	0x3d0a83c7	0.03381708
166	0x3d5580fe	0.05212497
167	0xbc9989f9	-0.018742548
168	0xbca76f7a	-0.020438898
169	0x3dabf84f	0.083969705
170	0xbd3fd8c2	-0.046837576
171	0xbc7abb7d	-0.01530349
172	0xbdb29d4d	-0.08721409
173	0x3bd01321	0.0063499366
174	0xbd690aac	-0.056894943
175	0xbd9402a6	-0.07227068
176	0xbcef2a02	-0.029194836
177	0xbd903107	-0.07040601
178	0xbd0c595e	-0.034264915
179	0x3cde20d2	0.02711526
180	0x3bbee6a2	0.0058258334
181	0xbd1b1541	-0.037862066
182	0x3d991a47	0.07475715
183	0x3da70692	0.0815555
184	0xb96829e1	-0.00022140845
185	0x3ca4cacd	0.020116234
186	0xbd74f5ec	-0.059804842
187	0xbc0fec76	-0.008784404
188	0xbd6788ad	-0.05652683
189	0xbd3f0b9a	-0.046641923
190	0x3db44134	0.08801499
191	0xbcce2d89	-0.025168197
192	0xbd8f041d	-0.069832064
193	0xbb869e3b	-0.004108218
194	0x3d5d6f19	0.05406103
195	0xbb979a90	-0.0046265796
196	0xbd9bdeee	-0.0761088
197	0xbd972e53	-0.073818825
198	0x3d04003d	0.03222679
199	0xbd6d1e55	-0.057890255
200	0xbc252c58	-0.010081373
201	0x3d666347	0.056247022
202	0x3d0d436e	0.034488134
203	0xbd4a2e1a	-0.049360372
204	0x3dab078d	0.083510496
205	0x3d225e0e	0.03964048
206	0xbd7939c0	-0.06084609
207	0xbcaf0d5d	-0.021368677
208	0xbda2faae	-0.079579696
209	0xbc97f1b2	-0.018547866
210	0xbd92bdb2	-0.07165088
211	0x3da13ef6	0.07873337
212	0x3d96c17f	0.07361125
213	0xbd7ad4af	-0.061237987
214	0x3d3f244d	0.04666548
215	0xbce7f540	-0.028315187
216	0x3d2a49e0	0.04157436
217	0xbcd7eda4	-0.026358433
218	0xbd7cebb0	-0.061748207
219	0x3d2fc47b	0.042911988
220	0xbcb5441b	-0.022127202
221	0x3d707562	0.058705695
222	0x3da14610	0.078746915
223	0x3dae97aa	0.085250214
224	0xbd5aa0cc	-0.053376004
225	0xbc9cdc0a	-0.019147892
226	0xbd0836ff	-0.033255573
227	0x3d220765	0.039557833
228	0x3d94ddf7	0.07268899
229	0xbd323921	-0.043511514
230	0x3da818de	0.08207868
231	0xbd8670e2	-0.065644994
232	0xbd187d2d	-0.037228752
233	0xbd4a4c70	-0.049389303
234	0xbc8ec866	-0.017429542
235	0x3d9de15b	0.07708999
236	0xbca6bf6e	-0.020354953
237	0x3b51fbda	0.0032040984
238	0x3b9d678c	0.0048036035
239	0xbc88a45f	-0.01667994
240	0x3d3d9fe1	0.04629505
241	0xbd1be83c	-0.038063273
242	0x3cbc9b3b	0.023023238
243	0x3d85779f	0.065169565
244	0x3db55692	0.088544026
245	0xbd4447f8	-0.047920197
246	0xbcfb054f	-0.03064218
247	0xbd99c22f	-0.07507741
248	0x3dab92e0	0.083776236
249	0xbd32e8a4	-0.043678895
250	0xbcbc7e82	-0.023009542
251	0xbc2c8cc4	-0.010531608
252	0xbdaedd13	-0.0853826
253	0xbd49fd1d	-0.049313653
254	0xb973322f	-0.00023192981
255	0xbdaa44b8	-0.08313888

lin.bias f4 [64]
0	0x3d6a0182	0.057130344
1	0xbcbd7662	-0.023127738
2	0x3a860770	0.0010225605
3	0xbda4d1a8	-0.08047801
4	0x3ce5a1d0	0.02803126
5	0xbdac54fb	-0.08414646
6	0xbcaf831c	-0.021424823
7	0xbd43df4b	-0.04782037
8	0x3d045f92	0.032317705
9	0x3bd73134	0.0065671448
10	0x3c8f1bf4	0.017469384
11	0x3ca46ba1	0.020070853
12	0xbc593acc	-0.013258647
13	0x3a80e25f	0.0009833089
14	0xbce1469e	-0.027499493
15	0x3cb35e72	0.021895621
16	0xbd51b686	-0.05119946
17	0x3d8812b1	0.0664419
18	0xbd2492b9	-0.040178988
19	0x3d0e23f7	0.034702267
20	0x3d51b887	0.05120137
21	0x3d096d97	0.03355178
22	0xbd5d2e54	-0.05399926
23	0x3db2b5fc	0.08726117
24	0x3d473756	0.048636757
25	0xbd3b2293	-0.04568727
26	0x3d410ef7	0.047133412
27	0x3d393a3d	0.045221556
28	0xbc9a2e74	-0.018820979
29	0xbdb07bfb	-0.086173974
30	0x3b64d26c	0.003491546
31	0x3d0dad58	0.03458914
32	0xbcb7cefe	-0.022437569
33	0xbc5517c5	-0.013006155
34	0x3d0770c4	0.033066526
35	0x3d27770d	0.04088502
36	0xbca033b0	-0.019555897
37	0x3db09aa7	0.086232476
38	0x3d0adfe8	0.03390494
39	0x3d23d060	0.039993644
40	0x3a5ba988	0.0008379449
41	0x3c5ba4e4	0.013406012
42	0xbda72dad	-0.08163009
43	0x3c757ca0	0.014983326
44	0xbd789aaf	-0.060694393
45	0xbda62292	-0.081120625
46	0x3c653ff5	0.013992299
47	0xbcce9af8	-0.02522038
48	0x3d7267f3	0.059181165
49	0xbca40ca5	-0.02002556
50	0xbd2a02d6	-0.04150661
51	0x3c4e8c2d	0.012606663
52	0xbd8e651e	-0.0695288
53	0x3d2cb5ef	0.042165693
54	0xbcf7ed94	-0.030264653
55	0x3cc1d117	0.023659272
56	0x3c6e7c79	0.014556044
57	0xbc647b28	-0.013945378
58	0xbda17023	-0.078827165
59	0x3d87105b	0.065949164
60	0xbd936e85	-0.07198814
61	0xbd593df7	-0.05303761
62	0x3d5a6db4	0.053327277
63	0xbd5e92d3	-0.05433924
