All_Benchmarking/DATA_21/Results/f1/best_model.pth (torch, 192098 bytes, 32 tensors)

gat1.att_src f4 [1, 4, 32]
-0.29573157 -0.10019596 -0.040019374 -0.22887944 -0.30087632 0.27655232 0.27799678 -0.37489605
0.13023809 0.16393219 0.38853395 0.23314351 0.37016174 -0.13132718 0.28425747 0.33241054
-0.38127062 -0.32709914 0.07805342 0.21834625 -0.20051882 0.04538686 -0.00095463684 0.10239932
-0.21332894 0.2299268 0.2719159 -0.2838885 0.0036482364 0.002502228 0.13202147 0.37908134
0.12536325 -0.09343219 0.3595869 -0.16158813 -0.11292809 0.033656936 -0.30511037 0.03956974
-0.28280863 0.041496098 0.04449021 0.055750065 -0.34935215 -0.3807297 0.19430028 0.356559
-0.36158055 0.15609361 -0.31049532 0.031648185 0.3737082 0.3046721 -0.30463064 0.24825715
0.21738021 -0.0055396995 0.3997473 -0.16690078 -0.08506575 -0.21151969 0.0530288 0.10243761
0.031031758 -0.23366818 -0.18084899 0.14143378 -0.3589847 -0.06332815 -0.0073308814 -0.16496015
0.14435801 0.02388464 0.28265336 -0.03617674 -0.25687912 0.28599802 0.05389664 -0.120247535
-0.26810908 0.10048814 -0.3934761 0.10386071 0.20733313 -0.35721165 -0.270578 -0.29410878
0.3435236 0.34678596 0.023487559 0.38540184 -0.13851179 -0.39398557 0.1407315 0.1461596
0.40000835 0.0008708963 0.310875 0.25287676 0.29747215 -0.4079108 0.3390069 -0.35189852
0.37012094 -0.015214784 -0.37087977 0.11197128 -0.08435343 -0.37234908 -0.14099552 0.044682603
0.3178376 -0.12908977 0.24386212 0.050498277 0.013917154 0.08290542 -0.2763085 -0.34048837
-0.12990825 -0.37962902 -0.18899159 0.021448832 -0.27087283 -0.16687587 -0.07263693 -0.049329177
00000000: 216a 97be 8a33 cdbd 5beb 23bd 5f5f 6abe
00000010: 760c 9abe 4498 8d3e 9855 8e3e 60f2 bfbe
00000020: 225d 053e d7dd 273e eced c63e 2cbd 6e3e
00000030: d785 bd3e a27a 06be 328a 913e b731 aa3e
00000040: e735 c3be 8a79 a7be 79da 9f3d 2996 5f3e
00000050: ce54 4dbe 92e7 393d 9840 7aba bcb6 d13d
00000060: e772 5abe ee71 6b3e 9038 8b3e d559 91be
00000070: 4017 6f3b 6bfc 233b a330 073e f316 c23e
00000080: 395f 003e 6059 bfbd c61b b83e 5c77 25be
00000090: d846 e7bd dbdb 093d 6d37 9cbe e113 223d
000000a0: 4bcc 90be d0f7 293d 5e3b 363d 2e5a 643d
000000b0: 49de b2be 01ef c2be a7f6 463e e78e b63e
000000c0: 1621 b9be 01d7 1f3e 3ef9 9ebe 87a1 013d
000000d0: ae56 bf3e fbfd 9b3e 8cf8 9bbe 1f37 7e3e
000000e0: eb98 5e3e 5e86 b5bb aeab cc3e 0ae8 2abe
000000f0: f436 aebd 9e98 58be ba34 593d cfca d13d
00000100: 5036 fe3c b646 6fbe 7a30 39be 04d4 103e
00000110: d8cc b7be 30b2 81bd e437 f0bb 50eb 28be
00000120: 96d2 133e b8a9 c33c f1b7 903e 102e 14bd
00000130: a985 83be 556e 923e b9c2 5c3d 5744 f6bd
00000140: 9845 89be bacc cd3d b375 c9be edb4 d43d
00000150: 234f 543e 72e4 b6be 3389 8abe 6d95 96be
00000160: 53e2 af3e ee8d b13e fb68 c03c 6453 c53e
00000170: 09d6 0dbe 7ab8 c9be eb1b 103e ddaa 153e
00000180: e5cd cc3e dd4c 643a 022b 9f3e 1079 813e
00000190: 454e 983e afd9 d0be 5092 ad3e 0b2c b4be
000001a0: 7e80 bd3e 6e47 79bc f4e3 bdbe 3351 e53d
000001b0: 7ec1 acbd 8aa4 bebe 2161 10be 1b05 373d
000001c0: 9cbb a23e 1c30 04be feb6 793e 48d7 4e3d
000001d0: c604 643c 51ca a93d 4f78 8dbe 7e54 aebe
000001e0: ab06 05be bc5e c2be 0387 41be 76b5 af3c
000001f0: d8af 8abe 82e1 2abe acc2 94bd 640d 4abd

gat1.att_dst f4 [1, 4, 32]
-0.22562781 0.01983462 -0.057489842 0.11673998 0.01861033 -0.20423652 -0.14064111 -0.005078302
-0.2551457 0.03161489 -0.028640402 0.15876877 0.096233256 0.305911 -0.013071699 -0.30184275
0.1825098 -0.2758871 -0.05650583 -0.13260143 -0.15526435 -0.1507584 0.37539318 0.2341088
0.11280671 0.38353387 -0.36990586 0.06563677 0.2610579 0.27156928 -0.32452857 0.14569269
-0.23263471 -0.016208915 -0.08479965 -0.3404059 -0.3891679 -0.26858747 0.1848713 0.18629701
-0.35549685 -0.15293412 0.0062179957 -0.35260695 0.2297208 0.36948755 0.07258397 -0.30307364
0.09547974 0.14854856 0.3235326 -0.21761376 -0.3655135 0.17893377 0.025895093 -0.13300434
-0.17064029 -0.21048345 0.33005393 -0.07072237 0.29408526 0.36422822 0.051784497 0.08660035
-0.025301548 0.2790801 -0.36424014 0.16090846 -0.07037998 0.18284817 0.0022475165 -0.15314803
-0.047978792 0.21996255 -0.28842592 -0.2620055 -0.08764519 -0.1467814 0.15553392 0.27499148
-0.03924738 0.3870022 -0.1705921 -0.23094037 -0.18122351 -0.28459883 -0.28617615 -0.36744303
-0.35789993 0.11072248 0.2508313 0.38133797 0.3494019 -0.021644456 0.07490367 -0.24692695
0.15765564 -0.39160272 0.1924634 0.07483114 0.12540528 0.14958243 -0.18752813 0.3502185
0.19487743 0.26826417 0.0538439 0.25643185 0.27471974 0.18495773 0.31088057 -0.074017964
0.2685184 0.093967 0.24572065 0.3977611 0.09232244 -0.15166211 -0.040689792 0.11479448
0.06871553 -0.11146057 0.3199406 0.24536164 -0.25364447 -0.03318824 -0.039060313 -0.25592598
00000000: fa0a 67be 377c a23c 787a 6bbd 5f15 ef3d
00000010: b174 983c 6123 51be 3904 10be e367 a6bb
00000020: 75a2 82be 9d7e 013d 479f eabc 4894 223e
00000030: f115 c53d 5ea0 9c3e ae2a 56bc 228b 9abe
00000040: d9e3 3a3e 1341 8dbe a872 67bd abc8 07be
00000050: 9efd 1ebe 6960 1abe 8933 c03e 38ba 6f3e
00000060: 3407 e73d 8d5e c43e 4d64 bdbe 926c 863d
00000070: 62a9 853e 210b 8b3e 9c28 a6be 7730 153e
00000080: cb37 6ebe 8fc8 84bc 70ab adbd af49 aebe
00000090: 0441 c7be 4c84 89be e74e 3d3e a5c4 3e3e
000000a0: af03 b6be c39a 1cbe 54c0 cb3b e688 b4be
000000b0: ee3b 6b3e 792d bd3e e8a6 943d 782c 9bbe
000000c0: e28a c33d 1d1d 183e 11a6 a53e 24d6 5ebe
000000d0: 9624 bbbe 6a3a 373e f221 d43c 4a32 08be
000000e0: 54bc 2ebe f988 57be d4fc a83e e4d6 90bd
000000f0: 5892 963e 1f7c ba3e fb1b 543d 865b b13d
00000100: 3145 cfbc 96e3 8e3e af7d babe 30c5 243e
00000110: 6123 90bd 8d3c 3b3e 124b 133b d6d2 1cbe
00000120: 6985 44bd dd3d 613e 90ac 93be 9625 86be
00000130: 527f b3bd dd4d 16be 4944 1f3e afcb 8c3e
00000140: dcc1 20bd 2725 c63e b2af 2ebe a27b 6cbe
00000150: a892 39be f0b6 91be ae85 92be 7e21 bcbe
00000160: a93e b7be 78c2 e23d f66c 803e bb3e c33e
00000170: cee4 b23e b74f b1bc 1867 993d 6bda 7cbe
00000180: 7b70 213e 2780 c8be 2015 453e 1241 993d
00000190: 3e6a 003e 232c 193e 6007 40be d74f b33e
000001a0: f38d 473e ec59 893e 6c8b 5c3d 094b 833e
000001b0: 11a8 8c3e 8f65 3d3e bd2b 9f3e bb96 97bd
000001c0: 3e7b 893e c571 c03d 329e 7b3e 58a7 cb3e
000001d0: 8c13 bd3d 504d 1bbe 57aa 26bd 5e19 eb3d
000001e0: baba 8c3d 7045 e4bd 41cf a33e 1540 7b3e
000001f0: b0dd 81be 64f0 07bd b5fd 1fbd bb08 83be

gat1.bias f4 [128]
-0.0003665962 0.00012249398 -1.2104337e-05 -0.0002199358 -0.00014599321 9.9986195e-05 -4.0010487e-05 -0.00012972194
0.00017360214 0.000157813 0.00024153844 -6.442795e-05 7.6738856e-05 -9.628057e-05 -0.0003165376 0.00036255055
5.2438027e-05 0.00073729595 0.00020418294 0.00048733002 0.00036138177 0.00035543792 0.00039116954 2.5869773e-05
-0.0003103412 -0.00028029815 -0.0003010853 -0.00026433548 -3.0312756e-05 -0.00024390082 4.0364535e-05 -0.00037339333
-0.000116914016 -0.00033026998 -0.00011609819 0.00013800786 0.00022713907 -0.00038345356 7.067862e-06 -8.961634e-05
1.8129125e-05 9.0609385e-05 0.00026045545 -0.0004065346 -0.000101442936 -0.000502537 -7.329747e-05 -4.101959e-05
-6.3131316e-05 -0.0003163644 1.7570892e-05 -0.0005165192 0.0002478527 0.000416253 8.532247e-05 -0.00013010135
0.00061495765 0.000119230666 -0.0005314273 0.0002862409 0.000477307 8.737042e-05 -0.00050295144 -0.00025098206
1.7243912e-05 0.00042958296 0.00023236811 -0.000320526 0.00017513454 -0.00028304727 -0.00016895891 4.711629e-05
-8.586362e-05 0.00015025702 1.6436179e-05 -0.00020031836 -5.30416e-05 0.00019527672 -0.00028495333 -0.0002908659
9.147194e-05 0.00036563055 -0.00016194458 -0.0002820743 0.00012327112 0.00011628542 0.00012979317 -0.00015021286
-0.00015118993 -9.959946e-05 5.490374e-05 0.00028220925 -0.00028963413 -0.0002920025 0.00024171447 -0.00017805083
-9.4713636e-05 0.00017324339 -0.00039546896 0.00053329446 -0.00021480599 -0.00049196 0.00012333544 0.00031346982
0.0002026601 1.7536964e-06 -0.0005344598 -5.608451e-05 0.00010684963 -0.0005519671 0.00031942353 0.00010210303
-0.0001241839 7.536329e-05 0.00052157446 -0.00042499352 -0.00014251434 -0.00032932725 -0.00022177186 4.314763e-06
-9.5852556e-05 0.00033308502 0.0003601968 0.00027569875 0.0003285824 0.00024634096 -6.714057e-05 0.00014821421
00000000: b633 c0b9 ba71 0039 bb13 4bb7 919e 66b9
00000010: c115 19b9 aeaf d138 efd0 27b8 f805 08b9
00000020: f808 3639 9b7a 2539 7b45 7d39 7e1d 87b8
00000030: dcee a038 3dea c9b8 f5f4 a5b9 b614 be39
00000040: e7f0 5b38 1847 413a f119 5639 5480 ff39
00000050: d777 bd39 125a ba39 e315 cd39 ea02 d937
00000060: 4ab5 a2b9 fbf4 92b9 fcda 9db9 8296 8ab9
00000070: 2648 feb7 a1bf 7fb9 174d 2938 01c4 c3b9
00000080: bc2f f5b8 1628 adb9 be79 f3b8 34b6 1039
00000090: 2e2c 6e39 440a c9b9 7928 ed36 68f0 bbb8
000000a0: 0014 9837 8b05 be38 bd8d 8839 2624 d5b9
000000b0: c3bd d4b8 b0bc 03ba 48b7 99b8 730c 2cb8
000000c0: 5e65 84b8 b6dd a5b9 3465 9337 0467 07ba
000000d0: 3af2 8139 883c da39 27ef b238 d16b 08b9
000000e0: 1c35 213a 7a0b fa38 7b4f 0bba 9a12 9639
000000f0: 103f fa39 a33a b738 80d8 03ba 3e96 83b9
00000100: 05a7 9037 a639 e139 d7a7 7339 460c a8b9
00000110: 52a4 3739 f665 94b9 902a 31b9 bb9e 4538
00000120: ae11 b4b8 508e 1d39 6de0 8937 8d0c 52b9
00000130: fc78 5eb8 32c3 4c39 ca65 95b9 5c7f 98b9
00000140: a0d4 bf38 1ab2 bf39 abcf 29b9 5fe3 93b9
00000150: 5742 0139 42de f338 1719 0839 7582 1db9
00000160: bd88 1eb9 0ee0 d0b8 7148 6638 7cf5 9339
00000170: 09da 97b9 ea17 99b9 bc74 7d39 28b3 3ab9
00000180: ffa0 c6b8 aba8 3539 f256 cfb9 c9cc 0b3a
00000190: 8b3d 61b9 e0f6 00ba 9b53 0139 3559 a439
000001a0: 2881 5439 8d60 eb35 fd1a 0cba 493c 6bb8
000001b0: 7514 e038 e3b1 10ba 4d78 a739 2620 d638
000001c0: 5d37 02b9 5c0c 9e38 45ba 083a aad1 deb9
000001d0: e76f 15b9 8ea9 acb9 6e8b 68b9 88c7 9036
000001e0: 7304 c9b8 eaa1 ae39 ccd8 bc39 a98b 9039
000001f0: 9545 ac39 5327 8139 d2cd 8cb8 f369 1b39

gat1.lin.weight f4 [128, 5]
0.045289315 -0.2010379 0.18432456 0.13673401 -0.20117386 -0.10402705 0.071049444 -0.042177014
-0.024985487 -0.09111805 0.17060909 -0.11314586 0.1788064 0.007843515 0.045504563 0.16331364
-0.03408206 -0.12053304 -0.036760084 0.17935804 -0.15638766 0.04945867 -0.20865871 0.106531136
0.08555262 0.010013433 0.09186206 0.0020005137 0.1119986 -0.1728183 -0.030761186 0.094506964
0.21099855 0.10808257 -0.16015 0.16129488 -0.047246996 -0.044786885 -0.19359589 -0.026858864
0.14598237 0.03131488 -0.124008186 0.06778685 -0.07604022 0.1904583 -0.18487807 -0.06468908
-0.20967375 -0.090912834 0.067124024 0.20485392 0.035225436 0.20818706 0.04334154 0.11827785
0.16909647 0.1793656 -0.11260975 0.20036222 0.12478721 -0.10198342 -0.096925214 -0.18283577
0.048425775 -0.16754143 0.08912086 0.067258574 -0.18844917 0.06481318 -0.019020148 0.09851663
0.12068175 -0.20845024 0.20002244 0.17624514 0.083905004 -0.19383745 -0.073712416 -0.069420524
-0.05054672 0.11887006 0.07542485 0.17187428 -0.08507969 0.071856804 0.07411579 -0.17449576
-0.20830281 -0.11457877 0.14173107 -0.2034192 -0.18116087 0.11968678 0.1203465 0.17992137
-0.15839933 -0.15814765 0.10588085 0.17909051 0.124402426 0.03451612 0.07088481 0.19597338
-0.1444614 -0.09922067 0.14228985 -0.14085193 -0.117558345 0.16193444 0.06286514 0.0739526
-0.09285265 -0.0070516434 0.1895336 -0.123148024 -0.0006797768 0.10380331 -0.15121494 0.19962436
-0.107310146 -0.049914237 -0.05889638 -0.13366888 -0.21659929 0.11956859 0.054190744 -0.19740158
-0.13330097 0.21730262 0.08479333 0.08272188 -0.12969105 -0.09069998 -0.025546858 -0.036749776
-0.14695545 0.01967833 0.016475393 -0.02390638 0.03238396 -0.08879655 0.05945936 0.074472606
-0.1081 -0.20969597 0.11229063 0.04970515 -0.10833012 0.20215201 -0.092565835 0.14682601
0.103996314 -0.17928816 0.14320663 -0.1995033 -0.1155655 -0.039397277 -0.13786112 0.21126886
-0.04245437 0.08437948 -0.19305997 0.12614395 -0.060063038 -0.15992768 0.031854074 0.10116766
0.18463948 -0.13638839 -0.09856335 0.041265707 0.05468386 0.08688534 0.12299676 -0.051037993
0.11998491 0.15457529 -0.05319522 0.15145755 0.10115141 0.18714769 -0.11620086 -0.10681651
-0.06842404 0.014562909 0.12938704 -0.12318383 0.10089241 -0.08115027 0.13000324 -0.0139435865
-0.18078391 -0.11750744 -0.1595189 0.10261569 -0.1408558 -0.01772884 0.047905244 -0.12309276
0.065575495 -0.20259778 -0.15671632 -0.19116992 -0.069803886 -0.07113394 0.022521473 -0.033569254
0.09425506 0.20378079 0.07454488 -0.083657674 -0.19902243 0.0796471 -0.1045444 0.1097653
0.14142314 0.08226961 0.19766062 0.20363148 0.0488865 -0.15798979 0.19180936 -0.101935185
-0.09337289 0.17946103 0.16287546 0.06310931 0.015385182 -0.17766331 -0.02458936 0.20130788
0.05660992 0.01647713 -0.04589506 -0.07423071 0.12955351 0.011033602 0.13880022 -0.030829705
0.09105026 0.09050958 0.036604885 0.1273689 0.13835561 0.19839 0.16295385 -0.05722064
-0.17673372 0.04522103 -0.0013627406 -0.055047832 -0.035966676 0.010157674 0.16266131 0.06349704
00000000: 4a81 393d e1dc 4dbe 94bf 3c3e 0004 0c3e
00000010: 8500 4ebe 220c d5bd 5f82 913d cec1 2cbd
00000020: 5dae ccbc 1a9c babd 26b4 2e3e 04b9 e7bd
00000030: 0619 373e 1682 003c fe62 3a3d b13b 273e
00000040: a199 0bbd 07da f6bd be91 16bd a2a9 373e
00000050: 1624 20be 2d95 4a3d a1aa 55be ff2c da3d
00000060: 3636 af3d 620f 243c 2d22 bc3d 0d1b 033b
00000070: 865f e53d 48f7 30be e2fe fbbc de8c c13d
00000080: 0110 583e 655a dd3d 5dfe 23be 7c2a 253e
00000090: 1186 41bd 7472 37bd 003e 46be 1f07 dcbc
000000a0: 677c 153e 0844 003d 01f8 fdbd d5d3 8a3d
000000b0: faba 9bbd 8007 433e ad50 3dbe b57b 84bd
000000c0: b7b4 56be 8230 babd 5278 893d 3ac5 513e
000000d0: 8c48 103d fd2e 553e e686 313d a83b f23d
000000e0: a027 2d3e 9eab 373e f19f e6bd c12b 4d3e
000000f0: 7090 ff3d afdc d0bd ba80 c6bd 4d39 3bbe
00000100: 1b5a 463d fb8f 2bbe ff84 b63d ddbe 893d
00000110: d2f8 40be c6bc 843d 24d0 9bbc 16c3 c93d
00000120: fe27 f73d fb73 55be afd2 4c3e 9b79 343e
00000130: 63d6 ab3d 537d 46be 89f6 96bd 592c 8ebd
00000140: 140a 4fbd 2572 f33d 5878 9a3d d0ff 2f3e
00000150: 433e aebd a929 933d 05ca 973d 04af 32be
00000160: 554d 55be 46a8 eabd f321 113e 1f4d 50be
00000170: 3c82 39be 581e f53d 3a78 f63d 4f3d 383e
00000180: 6f33 22be 75f1 21be 0fd8 d83d 8163 373e
00000190: b3c6 fe3d c660 0d3d 0e2c 913d 3fad 483e
000001a0: b0ed 13be 3534 cbbd 6eb4 113e 7d3b 10be
000001b0: 6ec2 f0bd 24d2 253e 70bf 803d 7674 973d
000001c0: 8829 bebd 7911 e7bb 1915 423e 0835 fcbd
000001d0: 0c33 32ba d496 d43d 17d8 1abe 546a 4c3e
000001e0: 6cc5 dbbd df72 4cbd 553d 71bd 7fe0 08be
000001f0: 34cc 5dbe 60e0 f43d 1df7 5d3d a423 4abe
00000200: 0d80 08be 9484 5e3e 20a8 ad3d 176a a93d
00000210: bbcd 04be e9c0 b9bd a547 d1bc ef86 16bd
00000220: 7d7b 16be 7334 a13c 67f7 863c 50d7 c3bc
00000230: 0ba5 043d f7da b5bd a88b 733d 1885 983d
00000240: 8863 ddbd 8aba 56be a1f8 e53d a197 4b3d
00000250: 2fdc ddbd f000 4f3e 2893 bdbd 8f59 163e
00000260: 05fc d43d 5197 37be c2a4 123e 984a 4cbe
00000270: 9bad ecbd 0a5f 21bd 772b 0dbe dd56 583e
00000280: a2e4 2dbd 26cf ac3d 83b1 45be e12b 013e
00000290: a904 76bd 15c4 23be 6b79 023d fd30 cf3d
000002a0: 2212 3d3e 66a9 0bbe 95db c9bd 3b06 293d
000002b0: 2ffc 5f3d f1f0 b13d bae5 fb3d 370d 51bd
000002c0: a6ba f53d fc48 1e3e 3be3 59bd b017 1b3e
000002d0: 7828 cf3d a5a3 3f3e b7fa edbd 9dc2 dabd
000002e0: e721 8cbd 4499 6e3c 097e 043e ce47 fcbd
000002f0: aea0 ce3d 1d32 a6bd 921f 053e a473 64bc
00000300: 6b1f 39be bea7 f0bd ec58 23be 2d28 d23d
00000310: 813c 10be 123c 91bc 4a38 443d 0f18 fcbd
00000320: 724c 863d cb75 4fbe 3e7a 20be 0cc2 43be
00000330: 57f5 8ebd acae 91bd f47e b83c ea7f 09bd
00000340: cc08 c13d e9ab 503e fcaa 983d b754 abbd
00000350: 89cc 4bbe 051e a33d 601b d6bd a1cc e03d
00000360: 3ad1 103e f87c a83d 8c67 4a3e c584 503e
00000370: 363d 483d 13c8 21be ac69 443e 65c3 d0bd
00000380: 493a bfbd a2c4 373e d3c8 263e 743f 813d
00000390: 2112 7c3c 5fed 35be a06f c9bc a723 4e3e
000003a0: cedf 673d 0cfb 863c 75fc 3bbd 4506 98bd
000003b0: ada9 043e 48c6 343c a521 0e3e 948e fcbc
000003c0: 8f78 ba3d 165d b93d 01ef 153d fe6c 023e
000003d0: 18ad 0d3e c026 4b3e 60dd 263e 3160 6abd
000003e0: aff9 34be b039 393d fd9d b2ba d679 61bd
000003f0: cb51 13bd 5f6c 263c b090 263e bc0a 823d

sage1.lin_l.weight f4 [128, 128]
0.07433634 -0.023652548 0.03259773 0.016591813 -0.05348957 -0.0566371 0.052672304 -0.036839306
0.067473345 0.018807152 0.010898016 0.050562877 -0.02510245 -0.028218558 0.026374638 0.020141765
0.048644155 0.06099798 0.07722281 0.050744213 0.0035429662 -0.075964816 -0.034831956 -0.01291592
0.01325377 -0.05375999 -0.031806782 0.063058496 -0.04879623 0.003432387 0.015468775 0.002950646
0.011629029 0.08013775 0.06370326 0.04809176 -0.030363074 -0.064964004 0.06290971 -0.058769718
-0.03943028 -0.052167006 0.0007559716 0.01960225 0.032393552 0.020389909 -0.07258709 0.028443951
-0.05518422 0.041533723 -0.07432862 0.01758869 -0.08937561 0.06692059 0.0336371 -0.0074571436
-0.004883876 -0.006140391 -0.058934785 -0.062064495 0.007054042 0.059817754 0.039230607 0.057305023
0.071694724 0.03228259 -0.062205687 0.021169847 -0.045374416 -0.014734701 -0.054537296 0.041479856
-0.047034755 0.05976025 0.042699818 0.046243265 0.051570825 0.017405802 -0.032781504 0.037924442
0.074259184 0.05619799 -0.06162625 0.036982004 -0.031710062 0.071957 -0.03382393 -0.014330255
0.027968543 -0.074320085 0.017605843 0.04596669 -0.011955417 -0.07879818 -0.085060075 -0.065332875
-0.07790501 0.03676869 -0.024469176 -0.026590405 0.057983942 0.01848201 -0.0577453 0.013939765
0.037674543 -0.04048252 0.012840187 -0.030999308 -0.07706343 -0.057547424 -0.050323453 0.051590867
0.08296388 -0.060402837 0.05151497 -0.032826245 -0.016578538 0.0059420587 0.02084547 0.012600695
-0.08688631 0.019147446 -0.08744541 0.08528075 0.085358866 -0.08002406 0.045448165 0.057294913
-0.04966894 0.021883158 -0.03781148 -0.06593917 -0.04190723 -0.034032136 -0.059190527 0.0029435751
0.08347931 0.025109498 -0.006922904 -0.086221814 0.042756226 0.079814084 -0.01054839 0.0805312
0.087295495 0.030705938 -0.07924958 -0.02413577 -0.016334468 -0.0045701503 -0.040778097 -0.03005611
-0.02344476 -0.013849882 -0.07488836 -0.046207264 0.027518507 0.06783499 0.07743844 0.064090975
-0.08838106 -0.010457228 -0.034359366 0.039075665 0.086604334 0.056757126 0.0553878 -0.045912113
0.08129831 -0.06821065 -0.06723641 0.030710919 0.07322275 0.05221851 -0.086019374 0.048542496
-0.036483612 0.018115064 -0.044322558 -0.04328509 -0.020871704 0.004600134 0.040998057 -0.03933846
-0.042675152 0.052298427 -0.036203146 -0.060140003 0.008342714 0.038478047 -0.0076051136 0.006920302
0.07985488 0.031878527 0.00088588084 0.06632664 -0.012131671 -0.03929096 0.028552273 -0.060941357
0.026167275 0.04398067 0.051322784 0.018522503 0.053094283 0.056042943 0.05279794 -0.06881687
0.017019985 0.04733881 0.067099005 0.08311026 -0.077871166 0.07962566 0.019642323 -0.04472139
-0.078227825 0.036462016 0.061803363 0.06668713 0.048943244 -0.06659966 -0.08007243 -0.014153563
-0.039080612 -0.052720323 -0.08149483 0.03651695 0.030759232 0.036418267 -0.047665693 -0.05578078
0.008887165 0.05443873 0.030868953 0.025362462 -0.027601965 0.010087049 -0.02752213 0.061982647
0.06922434 0.0003384906 -0.0049964655 0.07705252 -0.057597656 0.0013116386 0.011231194 -0.026588876
0.0009860423 -0.05252669 0.0066767517 0.050269846 0.05490253 0.06903924 0.040808097 0.07970878
00000000: a73d 983d fdc2 c1bc 3385 053d 8eeb 873c
00000010: e117 5bbd 4efc 67bd eabe 573d d0e4 16bd
00000020: 772f 8a3d 7511 9a3c 988d 323c 051b 4f3d
00000030: a7a3 cdbc 9b2a e7bc a00f d83c 5800 a53c
00000040: 183f 473d 05d9 793d fe26 9e3d 2ad9 4f3d
00000050: 1c31 683b 7193 9bbd f4ab 0ebd 4b9d 53bc
00000060: 5726 593c 6f33 5cbd d447 02bd d024 813d
00000070: 8ede 47bd e6f1 603b bf70 7d3c a05f 413b
00000080: af87 3e3c 431f a43d db76 823d defb 443d
00000090: fbbb f8bc d90b 85bd ced6 803d 84b8 70bd
000000a0: a581 21bd 12ad 55bd 652c 463a e694 a03c
000000b0: 1aaf 043d bd08 a73c 8aa8 94bd 4a03 e93c
000000c0: d908 62bd 441f 2a3d 9b39 98bd 2816 903c
000000d0: 8f0a b7bd aa0d 893d 0ec7 093d 0e5b f4bb
000000e0: ec08 a0bb 5535 c9bb 9a65 71bd 5737 7ebd
000000f0: 9825 e73b 7603 753d 46b0 203d acb8 6a3d
00000100: afd4 923d c03a 043d 64cb 7ebd 636c ad3c
00000110: 86da 39bd d169 71bc 8062 5fbd c8e6 293d
00000120: 84a7 40bd 2ac7 743d 01e6 2e3d 9469 3d3d
00000130: ee3b 533d 9d96 8e3c e645 06bd a956 1b3d
00000140: 3315 983d dd2f 663d cf6b 7cbd 717a 173d
00000150: 69e2 01bd 315e 933d f68a 0abd 72c9 6abc
00000160: 491e e53c 2135 98bd 213a 903c 9147 3c3d
00000170: a7e0 43bc f160 a1bd fa33 aebd 3ecd 85bd
00000180: a98c 9fbd c49a 163d 9573 c8bc 1fd4 d9bc
00000190: 9280 6d3d 9667 973c 5686 6cbd 9d63 643c
000001a0: 9f50 1a3d 00d1 25bd a65f 523c 43f2 fdbc
000001b0: 6ed3 9dbd d9b6 6bbd f71f 4ebd f250 533d
000001c0: f7e8 a93d f768 77bd 5c01 533d d074 06bd
000001d0: b7cf 87bc 9ab5 c23b 1ec4 aa3c 2573 4e3c
000001e0: 73f1 b1bd 1bdb 9c3c 9416 b3bd ada7 ae3d
000001f0: a1d0 ae3d a8e3 a3bd db27 3a3d 12ae 6a3d
00000200: a971 4bbd 4f44 b33c 36e0 1abd 1e0b 87bd
00000210: eaa6 2bbd 4865 0bbd c471 72bd ffe8 403b
00000220: 33f7 aa3d 6fb2 cd3c 87d9 e2bb 1095 b0bd
00000230: 2721 2f3d 9175 a33d 28d3 2cbc 8bed a43d
00000240: fbc7 b23d 058b fb3c 9b4d a2bd 61b8 c5bc
00000250: ddcf 85bc 33c1 95bb ef06 27bd 3b38 f6bc
00000260: 3a0f c0bc 9eea 62bc 125f 99bd d443 3dbd
00000270: 7e6e e13c 12ed 8a3d 0b98 9e3d 2142 833d
00000280: 2101 b5bd cb54 2bbc 68bc 0cbd ce0d 203d
00000290: 9d5d b13d 297a 683d 51de 623d 570e 3cbd
000002a0: ba7f a63d 06b2 8bbd 3eb3 89bd 7795 fb3c
000002b0: cff5 953d 14e3 553d ed2a b0bd 7fd4 463d
000002c0: d76f 15bd 0b66 943c 928b 35bd b54b 31bd
000002d0: 23fb aabc b9bc 963b 94ed 273d 5d21 21bd
000002e0: 24cc 2ebd e036 563d c049 14bd 5d55 76bd
000002f0: e1af 083c 289b 1d3d 5134 f9bb b3c3 e23b
00000300: f58a a33d 0f93 023d 753a 683a 43d6 873d
00000310: ebc3 46bc 8fef 20bd 75e6 e93c a59d 79bd
00000320: c15c d63c 1325 343d d737 523d 81bc 973c
00000330: 6479 593d 498d 653d a742 583d dcef 8cbd
00000340: 7f6d 8b3c 57e6 413d 346b 893d b635 aa3d
00000350: eb7a 9fbd c712 a33d f0e8 a03c c72d 37bd
00000360: e935 a0bd 3259 153d 8625 7d3d 4393 883d
00000370: b678 483d 6765 88bd 04fd a3bd 59e4 67bc
00000380: fe12 20bd 44f1 57bd c3e6 a6bd cc92 153d
00000390: c9fa fb3c 522b 153d 1a3d 43bd 637a 64bd
000003a0: 799b 113c 25fb 5e3d e3e0 fc3c f0c4 cf3c
000003b0: 841d e2bc 2644 253c 1776 e1bc 84e1 7d3d
000003c0: 7ec5 8d3d 7077 b139 64b9 a3bb b6cd 9d3d
000003d0: 85eb 6bbd 4aeb ab3a 0b03 383c ead0 d9bc
000003e0: 173e 813a 3a26 57bd a7c8 da3b c1e7 4d3d
000003f0: 7ae1 603d 7264 8d3d 6426 273d 5b3e a33d

sage1.lin_l.bias f4 [128]
-0.045607258 -0.086696 -0.025404809 0.011008796 0.0032449479 -0.0024672241 -0.08846929 -0.02384924
-0.049108688 -0.016616197 -0.04708459 -0.0054795933 -0.013439631 -0.08072298 0.03607244 0.023891374
0.02495243 0.03738319 -0.007381913 0.011057835 -0.090472184 0.06122079 0.0657414 -0.03518597
0.07178393 -0.02999407 0.034173783 -0.03791126 -0.05153612 -0.04640989 0.0634842 -0.029620677
-0.07141816 0.014263247 -0.053002495 -0.054173417 -0.05491972 -0.055440214 -0.055000916 0.027098952
-0.033195082 0.019811189 0.07614076 0.02447136 0.08285086 0.07575787 0.0077727726 0.045742568
0.08175982 -0.06143074 -0.0590567 0.06621289 0.042358212 0.024389936 0.013096016 -0.048031643
0.03231246 -0.011806898 0.0030630734 0.0745791 0.04461188 -0.0031615742 -0.017537815 -0.054307077
0.036042932 0.086319916 -0.04526753 -0.06350908 0.055449706 -0.0740487 0.08645836 0.015051069
0.0754665 0.007290993 0.023338916 -0.077363566 -0.014180659 0.06295095 -0.037900873 0.07662245
-0.011339938 -0.046691295 -0.047565613 -0.06615513 0.029046504 -0.045207113 0.03681538 -0.022404652
0.04304096 0.06013648 -0.06527839 -0.056500934 0.05675765 -0.02379715 -0.074503265 -0.04956492
-0.084056474 -0.06070674 0.0007961917 0.06192181 0.015139195 0.009105956 0.0032334614 -0.054330647
0.0379188 0.06093878 0.032514386 0.07003622 0.084198706 0.011443296 -0.048526313 0.06021561
0.007605311 -0.018062282 -0.014992465 0.00808906 -0.040784482 0.048770487 -0.06465631 0.011184753
-0.08301175 0.031749498 -0.042290814 -0.0060270303 0.06855582 0.016868707 0.0024824555 0.037677765
00000000: adce 3abd ac8d b1bd bf1d d0bc 3d5e 343c
00000010: 31a9 543b 27b1 21bb 632f b5bd 7b5f c3bc
00000020: 3126 49bd b11e 88bc c5db 40bd 298e b3bb
00000030: e631 5cbc 1752 a5bd b2c0 133d d8b7 c33c
00000040: 0a69 cc3c 1e1f 193d f9e3 f1bb ec2b 353c
00000050: 7b49 b9bd a7c2 7a3d 6da3 863d 2a1f 10bd
00000060: 7403 933d 20b6 f5bc cff9 0b3d d648 1bbd
00000070: 8a17 53bd 4c18 3ebd 0104 823d 10a7 f2bc
00000080: af43 92bd 65b0 693c 2519 59bd f2e4 5dbd
00000090: 80f3 60bd 4715 63bd a448 61bd 9ffe dd3c
000000a0: 91f7 07bd 134b a23c b0ef 9b3d 2978 c83c
000000b0: b6ad a93d f126 9b3d beb2 fe3b 8f5c 3b3d
000000c0: b171 a73d cd9e 7bbd 70e5 71bd a09a 873d
000000d0: ce7f 2d3d 67cd c73c ac90 563c d4bc 44bd
000000e0: 125a 043d b871 41bc d8bd 483b edbc 983d
000000f0: f2ba 363d 6a32 4fbb 77ab 8fbc 1971 5ebd
00000100: c1a1 133d 7fc8 b03d 726a 39bd 0c11 82bd
00000110: 3b1f 633d d8a6 97bd 1511 b13d c298 763c
00000120: 2e8e 9a3d 48e9 ee3b 4131 bf3c ca70 9ebd
00000130: ff55 68bc 6dec 803d f23d 1bbd 3bec 9c3d
00000140: 26cb 39bc 5f3f 3fbd 29d4 42bd 577c 87bd
00000150: eff2 ed3c 182b 39bd b9cb 163d f689 b7bc
00000160: b84b 303d ab51 763d adb0 85bd 866d 67bd
00000170: b67a 683d 3ef2 c2bc 2b95 98bd 9604 4bbd
00000180: cd25 acbd a1a7 78bd 85b7 503a b9a1 7d3d
00000190: 630a 783c 2631 153c 7be8 533b d089 5ebd
000001a0: be50 1b3d f19a 793d ce2d 053d 266f 8f3d
000001b0: 5f70 ac3d aa7c 3b3c 87c3 46bd a5a4 763d
000001c0: f935 f93b 5af7 93bc f5a2 75bc fa87 043c
000001d0: a10d 27bd 90c3 473d 876a 84bd 4140 373c
000001e0: 1002 aabd c30b 023d 2239 2dbd 657e c5bb
000001f0: fe66 8c3d 3e30 8a3c b1b0 223b 0054 1a3d

sage1.lin_r.weight f4 [128, 128]
0.0070372364 0.060132973 0.0039375736 0.051902734 0.056073952 -0.009904351 0.075456694 0.019745663
0.0647959 -0.08062286 -0.08492745 0.020832019 0.028100688 -0.03314653 -0.02674906 0.022151511
0.08366388 0.021707006 0.06726258 0.071533665 0.032380566 0.005998894 -0.027413929 -0.06588203
0.05589249 -0.0019470151 -0.03576357 -0.021817194 -0.04883135 -0.006674619 0.04815719 0.06952173
-0.057218324 0.017561764 -0.034295674 -0.08527042 0.050460424 0.07109914 0.076801024 0.075924285
-0.02812266 0.0134726 0.030212486 -0.06630414 0.07642224 -0.071746565 0.005028138 -0.026912939
0.034296528 0.06877123 0.0023215695 -0.037543975 0.06357344 -0.08809695 -0.005652859 -0.080247045
-0.0049714716 0.06275222 0.042300005 -0.04199358 -0.037522305 0.026831198 -0.055084635 -0.07276738
0.070331335 0.026709083 -0.06434351 -0.08427212 0.032135908 -0.028212432 -0.047293644 0.091927476
0.045711976 0.074394986 0.01061041 -0.0053207153 -0.05959996 0.036525957 -0.026388105 -0.008806014
0.0070102187 0.06922416 0.030664057 -0.082611494 0.004224239 0.061057497 -0.0041762996 0.07342539
-0.0366571 -0.059169043 0.07905363 -0.034130573 0.065882094 0.06348003 -0.056618597 -0.081875235
-0.014114925 -0.048983805 0.06403716 0.0420204 0.07045914 -0.042916507 0.021815827 0.0015013668
-0.060914956 -0.04574003 0.034409318 0.006294882 0.07856608 0.0012454381 0.025294585 0.03497822
-0.055304285 -0.06777201 -0.05728534 -0.030473994 0.027621761 -0.044725385 -0.07596614 -0.027871974
-0.07694471 -0.010676535 -0.08456105 -0.012372043 -0.069036365 -0.0831414 0.0659211 0.08588987
-0.05921731 0.015491886 -0.07281178 -0.06458421 -0.08108204 -0.060094457 0.0888257 0.02720418
0.042175863 -0.047144577 0.03389929 0.0328257 0.029281173 0.007362585 -0.040567126 0.034116417
0.07124215 -0.014894218 0.07196566 0.0124803465 0.02716971 0.057659376 -0.016698113 0.020093521
-0.010790189 -0.07636595 0.006463881 0.025160052 0.008204656 0.02044353 -0.018974658 0.070043564
-0.074337006 0.0015697238 0.00098313 0.032785818 -0.028679006 0.01640604 -0.0696096 0.035521828
-0.02329717 0.054919075 0.07994244 0.07214601 -0.04878832 0.04555066 -0.041179884 0.012999594
0.027588049 -0.07677326 -0.09029168 0.0116217835 0.012148921 -0.054363724 0.04167311 0.057092503
-0.018665077 -0.07841678 0.026721291 -0.046956796 -0.0019070726 -0.01894997 0.046054535 0.020985845
-0.062027156 -0.07718541 -0.046685234 -0.0890378 0.0030524048 -0.038943656 -0.032720126 -0.07438572
0.076695375 -0.04787611 -0.029846244 0.06119868 -0.017631415 -0.018870257 0.046455633 -0.035646886
0.06246473 -0.0024300015 0.04231007 0.010871914 -0.038117383 -0.041790724 0.0041328077 -0.021124605
0.053449787 0.056001175 -0.04941012 -0.05095745 -0.015225493 0.070576616 0.00014266708 0.07094432
0.025335945 9.675098e-05 -0.073866755 -0.0015827009 -0.0558974 -0.04794576 0.045748517 -0.052143153
-0.041947357 0.07194093 -0.04396994 -0.06643986 -0.02446327 -0.008142679 -0.07399859 -0.084019095
-0.0769445 -0.003785966 -0.006357354 -0.08192321 -0.057590958 0.0030628801 -0.08411164 -0.052332543
-0.0321641 -0.084256664 -0.0123026315 -0.025911234 0.013016702 0.007042848 0.043385003 -0.028798457
00000000: 9e98 e63b fe4d 763d c306 813b f697 543d
00000010: cdad 653d dc45 22bc 0a89 9a3d a8c1 a13c
00000020: b6b3 843d 991d a5bd 71ee adbd e9a7 aa3c
00000030: 6a33 e63c a8c4 07bd d820 dbbc 1677 b53c
00000040: f857 ab3d e4d2 b13c f7c0 893d 3e80 923d
00000050: 7ca1 043d 5f92 c43b 2d93 e0bc 28ed 86bd
00000060: 86ef 643d fc32 ffba d27c 12bd f9b9 b2bc
00000070: 6203 48bd c3b6 dabb 7940 453d 6961 8e3d
00000080: c35d 6abd b0dd 8f3c 9f79 0cbd 42a2 aebd
00000090: 97af 4e3d 6d9c 913d db49 9d3d 317e 9b3d
000000a0: 7e61 e6bc 2ebc 5c3c 2d80 f73c 77ca 87bd
000000b0: 4383 9c3d ddef 92bd 14c3 a43b 8678 dcbc
000000c0: 847a 0c3d eed7 8c3d 7925 183b b6c7 19bd
000000d0: cb32 823d 2c6c b4bd 9e3b b9bb 9058 a4bd
000000e0: bae7 a2bb 3c84 803d c542 2d3d 7601 2cbd
000000f0: fdb0 19bd 1acd db3c 6da0 61bd 1007 95bd
00000100: e009 903d 02cd da3c 88c6 83bd dc96 acbd
00000110: f1a0 033d c21d e7bc fbb6 41bd 7944 bc3d
00000120: 7b3c 3b3d 665c 983d 49d7 2d3c 6559 aebb
00000130: 161f 74bd 3e9c 153d de2b d8bc 1a47 10bc
00000140: fab5 e53b 65c5 8d3d 3033 fb3c 3730 a9bd
00000150: 7c6b 8a3b 6d17 7a3d 57d9 88bb 0d60 963d
00000160: c125 16bd 3d5b 72bd dfe6 a13d 80cc 0bbd
00000170: 31ed 863d d101 823d e7e8 67bd 34ae a7bd
00000180: 4942 67bc 3ea3 48bd ea25 833d 951d 2c3d
00000190: e24c 903d 38c9 2fbd 1bb7 b23c 83c9 c43a
000001a0: f681 79bd e659 3bbd c9f0 0c3d 4c45 ce3b
000001b0: 41e7 a03d f83d a33a 9736 cf3c 5245 0f3d
000001c0: bf86 62bd 0dcc 8abd 08a4 6abd 99a4 f9bc
000001d0: 0847 e23c f731 37bd 2394 9bbd c453 e4bc
000001e0: 3095 9dbd a2ec 2ebc 582e adbd 1cb4 4abc
000001f0: f062 8dbd 0a46 aabd a401 873d 07e7 af3d
00000200: da8d 72bd aed1 7d3c 581e 95bd ba44 84bd
00000210: 570e a6bd 9b25 76bd 40ea b53d 4ddb de3c
00000220: 99c0 2c3d ac1a 41bd fbd9 0a3d 3e74 063d
00000230: 12df ef3c d741 f13b b729 26bd a8bd 0b3d
00000240: 68e7 913d e106 74bc bb62 933d 5e7a 4c3c
00000250: 0393 de3c 3d2c 6c3d 7bca 88bc 2b9b a43c
00000260: 55c9 30bc c065 9cbd f7ce d33b 741c ce3c
00000270: d26c 063c 3179 a73c be70 9bbc 0073 8f3d
00000280: 003e 98bd 31bf cd3a 5edc 803a 6c4a 063d
00000290: 3cf0 eabc f665 863c 7a8f 8ebd 567f 113d
000002a0: b5d9 bebc d3f2 603d ddb8 a33d 4ac1 933d
000002b0: 43d6 47bd 5493 3a3d 3dac 28bd 40fc 543c
000002c0: 5500 e23c 4d3b 9dbd d8ea b8bd 4b69 3e3c
000002d0: 450c 473c 7fac 5ebd 6cb1 2a3d d4d9 693d
000002e0: 81e7 98bc fa98 a0bd 9ce6 da3c c555 40bd
000002f0: bdf6 f9ba f83c 9bbc aea3 3c3d 82ea ab3c
00000300: 3010 7ebd 6213 9ebd 0439 3fbd 7359 b6bd
00000310: db0a 483b 6283 1fbd 8a05 06bd 8a57 98bd
00000320: 7712 9d3d bd19 44bd 1c80 f4bc 78ab 7a3d
00000330: c26f 90bc cc95 9abc 4348 3e3d 7802 12bd
00000340: 04db 7f3d a940 1fbb 534d 2d3d 1d20 323c
00000350: f920 1cbd c02c 2bbd 816c 873b 820d adbc
00000360: 2aee 5a3d 7d61 653d 4462 4abd c2b8 50bd
00000370: 5974 79bc 798a 903d e798 1539 414b 913d
00000380: 548d cf3c c9e6 ca38 7447 97bd a172 cfba
00000390: acf4 64bd c662 44bd cc62 3b3d 0f94 55bd
000003a0: fed0 2bbd c455 933d d319 34bd 9f11 88bd
000003b0: 3267 c8bc df68 05bc 938c 97bd 3412 acbd
000003c0: 1495 9dbd f81d 78bb 5a51 d0bb 5bc7 a7bd
000003d0: 7fe4 6bbd 9aba 483b b942 acbd a65a 56bd
000003e0: 81be 03bd c28e acbd fa90 49bc cc43 d4bc
000003f0: 0144 553c b1c7 e63b 79b4 313d beea ebbc

sagpool.gnn.lin_rel.weight f4 [1, 128]
-0.08136327 0.043216784 0.049944483 -0.02651824 0.035378322 0.05460571 0.06359836 0.06908234
-0.023081567 -0.030697623 0.060573924 0.062343273 -0.08829641 -0.07211811 -0.07083212 0.061375182
0.022282848 -0.04526969 0.016015701 0.0035774177 0.019532178 -0.0326793 0.036124293 -0.07015209
0.017698174 0.054556992 0.042134635 -0.05301445 -0.029024966 0.07973556 -0.04514451 0.07526296
-0.06965479 -0.047619313 0.0038652853 0.04230353 -0.028673083 -0.02170673 0.045402728 0.05577124
0.0072667883 0.01223071 0.08220603 0.036807783 -0.032464914 -0.08223099 -0.04399259 0.025475953
-0.08424014 0.006839106 -0.015354473 -0.06177755 0.042805757 0.03935177 0.0786144 -0.0873734
-0.060573872 0.05918258 -0.069843635 0.07947303 0.067162305 -0.025564393 0.06564824 0.030632412
-0.016383018 0.0070328745 -0.023129517 -0.012840132 0.06904154 -0.08748451 -0.04112625 -0.016049631
-0.03326015 -0.07582138 0.0073639425 0.026082642 -0.070778385 0.019038973 0.021083381 -0.025873164
0.06659956 0.013876614 -0.024674287 0.028007658 0.056531683 -0.06514158 -0.0053130453 0.008340487
-0.019444894 0.033187196 0.0037535133 0.067815565 -0.02854415 -0.061513033 0.08443152 0.02528952
-0.0005679991 0.085753225 -0.06295727 -0.032050513 0.060353644 0.08084088 0.017851785 0.08680296
-0.034979302 0.054451067 -0.07439829 0.022262909 0.058249358 0.020585485 0.049989548 0.011734159
0.03963548 -0.08717102 -0.004105209 0.02521545 0.044748094 -0.010500635 -0.016076872 -0.08682851
0.04546464 0.036464114 -0.030758794 0.058964595 -0.01154449 0.021145983 0.0400138 0.036924854
00000000: c9a1 a6bd 1504 313d 9692 4c3d c83c d9bc
00000010: dce8 103d 3daa 5f3d db3f 823d 0b7b 8d3d
00000020: 8e15 bdbc 9579 fbbc 5d1c 783d a95b 7f3d
00000030: c0d4 b4bd a9b2 93bd 6e10 91bd 8b64 7b3d
00000040: 858a b63c b66c 39bd 5c33 833c 1c73 6a3b
00000050: f201 a03c bbda 05bd 11f7 133d e6ab 8fbd
00000060: c3fb 903c 2777 5f3d 5e95 2c3d ae25 59bd
00000070: c4c5 edbc 664c a33d 73e9 38bd 7723 9a3d
00000080: 2ca7 8ebd 780c 43bd ba50 7d3b 7746 2d3d
00000090: d0e3 eabc 50d2 b1bc 36f8 393d 6270 643d
000000a0: 3d1e ee3b 5163 483c a35b a83d c2c3 163d
000000b0: eef9 04bd b968 a8bd 9331 34bd f2b2 d03c
000000c0: 1886 acbd 941a e03b 5491 7bbc 750a 7dbd
000000d0: 1755 2f3d 522f 213d 9600 a13d d3f0 b2bd
000000e0: 4f1c 78bd 6f69 723d 2e0a 8fbd c2c2 a23d
000000f0: 648c 893d 6b6c d1bc 9672 863d d3f0 fa3c
00000100: ae35 86bc 0774 e63b 1d7a bdbc 6b5f 52bc
00000110: a765 8d3d 142b b3bd 0074 28bd 847a 83bc
00000120: cc3b 08bd 3d48 9bbd 3a4d f13b 44ab d53c
00000130: 42f4 90bd 9ff7 9b3c 0eb7 ac3c f5f3 d3bc
00000140: 5a65 883d bd5a 633c bb21 cabc 5170 e53c
00000150: c48d 673d f368 85bd 0e19 aebb 8aa6 083c
00000160: e64a 9fbc 4cef 073d 81fd 753b e3e2 8a3d
00000170: 6cd5 e9bc 17f5 7bbd 6fea ac3d f82b cf3c
00000180: c6e5 14ba 639f af3d beef 80bd 6647 03bd
00000190: 6235 773d e78f a53d e83d 923c c0c5 b13d
000001a0: 7546 0fbd 1508 5f3d 215e 98bd b460 b63c
000001b0: e196 6e3d e4a2 a83c d7c1 4c3d a140 403c
000001c0: d058 223d b886 b2bd fd84 86bb a290 ce3c
000001d0: c749 373d db0a 2cbc a5b3 83bc 25d3 b1bd
000001e0: 2139 3a3d 655b 153d def9 fbbc dc84 713d
000001f0: 1a25 3dbc 573a ad3c 83e5 233d 843e 173d

sagpool.gnn.lin_root.weight f4 [1, 128]
-0.068952635 0.07408776 -0.01108551 0.07937749 0.014117116 -0.0028286164 -0.012253421 -0.08803075
0.023339132 0.062130343 0.028159598 -0.07465589 -0.008625242 -0.01715766 0.071099676 -0.0005625472
-0.025668375 -0.07695688 0.020725686 -0.074545085 -0.05408024 0.03662084 -0.057494696 -0.033572745
0.046121377 0.074750595 0.060650025 -0.017097017 0.006142137 0.07989508 -0.019058274 0.08307913
-0.0007158989 0.08097785 -0.06044839 0.016964726 -0.030245947 -0.0771836 -0.051997878 0.006446776
-0.012613062 -0.045564614 0.07804689 -0.051675644 0.0038637787 0.058753252 0.045578226 -0.078730784
0.057441402 0.026824314 -0.0772749 -0.051789578 0.01694635 0.032204866 -0.07601753 -0.06783994
0.015786361 -0.0053491527 0.027614875 0.032593664 -0.01793223 -0.042827263 0.074145384 0.07808122
-0.07418038 -0.0076505686 0.055393163 -0.06831509 0.050837796 -0.0106299175 -0.076956846 0.01705292
0.050989345 0.025638005 -0.07614966 0.0476326 -0.07663109 -0.070415035 -0.033251278 0.00087067
0.027689103 0.04459758 -0.085230894 0.038375024 0.036246173 -0.07240948 -0.069882356 0.06401547
0.031804726 -0.08175934 -0.06267382 0.029158272 -0.000996752 -0.019297643 -0.0032320127 -0.03441568
0.05692221 -0.026068572 -0.057369128 0.05640119 0.015855106 -0.07802509 -0.08428933 0.024216538
-0.072577104 -0.034395345 0.069141924 0.08946726 -0.048608303 -0.00513926 0.031698123 0.063632414
0.024333486 0.08921511 -0.03978563 -0.0038459331 0.081420064 -0.041948177 -0.09250273 0.03438944
-0.06492991 -0.05483463 0.068246126 0.06325179 0.049984396 0.056411494 -0.08430867 0.02521015
00000000: 0a37 8dbd 53bb 973d 00a0 35bc aa90 a23d
00000010: 7a4b 673c 4f60 39bb 93c2 48bc 7749 b4bd
00000020: b531 bf3c 637c 7e3d f5ae e63c 30e5 98bd
00000030: e350 0dbc 398e 8cbc b59c 913d e777 13ba
00000040: 7c46 d2bc 929b 9dbd eac8 a93c 18ab 98bd
00000050: 3e83 5dbd bcff 153d 8f7f 6bbd 9383 09bd
00000060: c5e9 3c3d d716 993d 296c 783d 0b0f 8cbc
00000070: fb43 c93b 08a0 a33d 1920 9cbc 6425 aa3d
00000080: 29ab 3bba b7d7 a53d bb98 77bd 9cf9 8a3c
00000090: 59c6 f7bc 6f12 9ebd bafb 54bd 7a3f d33b
000000a0: 04a7 4ebc f6a1 3abd 0cd7 9f3d d7a9 53bd
000000b0: 7337 7d3b 40a7 703d 3cb0 3a3d 9b3d a1bd
000000c0: ad47 6b3d aabe db3c 4e42 9ebd 4f21 54bd
000000d0: 12d3 8a3c 40e9 033d 14af 9bbd abef 8abd
000000e0: 6652 813c f247 afbb 9738 e23c ef80 053d
000000f0: 9de6 92bc a46b 2fbd 89d9 973d 0ce9 9f3d
00000100: e2eb 97bd 9fb1 fabb f1e3 623d c8e8 8bbd
00000110: 4b3b 503d 1b29 2ebc 8d9b 9dbd 91b2 8b3c
00000120: 34da 503d cb06 d23c 5af4 9bbd 671a 433d
00000130: c3f0 9cbd c235 90bd 7e32 08bd ad3d 643a
00000140: 42d4 e23c f4ab 363d 898d aebd 212f 1d3d
00000150: de76 143d 6c4b 94bd 7b1e 8fbd 8b1a 833d
00000160: ac45 023d 7171 a7bd 225b 80bd 54dd ee3c
00000170: 72a5 82ba 1716 9ebc 2dd0 53bb 75f7 0cbd
00000180: 4327 693d c28d d5bc e4fb 6abd ef04 673d
00000190: 91e2 813c 9ecb 9fbd e29f acbd c361 c63c
000001a0: 4ea3 94bd 22e2 0cbd 489a 8d3d 9c3a b73d
000001b0: 8019 47bd 3d67 a8bb e4d5 013d b651 823d
000001c0: 0557 c73c 69b6 b63d 42f6 22bd 0d0c 7cbb
000001d0: 90bf a63d dad1 2bbd 1272 bdbd f1db 0c3d
000001e0: f9f9 84bd 479a 60bd a0c4 8b3d 288a 813d
000001f0: 70bc 4c3d bd0f 673d 06aa acbd 8485 ce3c

lin.weight f4 [64, 128]
0.07819309 -0.08443843 -0.032804135 -0.06066984 -0.05954915 -0.05275494 -0.043434322 0.01619457
0.05080479 -0.06160386 0.06977728 0.06750162 -0.034227453 -0.043623883 -0.061931416 0.09228741
0.047409374 -0.034820713 0.041322388 -0.07335272 -0.0629257 0.05452887 -0.025224762 0.09035793
-0.013859575 -0.07856928 0.013842696 -0.012331559 0.065964505 -0.024200387 -0.024515588 0.032183375
0.09096169 0.069681495 -0.051610578 -0.023261173 -0.05317715 -0.022955637 0.0059462227 -0.013065542
0.0352075 0.065379225 0.00092582917 -0.004042865 0.057295356 0.0010910394 -0.0036835978 0.016430678
-0.03239388 -0.037271075 0.044931762 -0.026270598 -0.07071119 -0.08992408 0.095060654 -0.06475438
-0.012157237 -0.029921625 -0.07860693 0.042351115 0.082002 0.017189944 -0.02938513 -0.062143996
-0.043478634 0.028507615 0.0032338367 -0.030779595 -0.046111505 0.022082197 0.07480743 0.06474266
0.0511342 0.016346898 -0.074743174 -0.070150666 0.06977848 0.043154642 0.006438661 -0.026907409
0.028727777 -0.050203595 -0.04591842 -0.051509075 -0.033004597 0.007947018 -0.035501406 -0.036849678
0.0024985971 -0.09481682 0.086834066 -0.001580557 0.022678602 -0.021285933 -0.065471336 -0.07725273
0.07785236 0.043868043 0.0492333 -0.02502204 0.078420065 0.07447317 -0.009784099 -0.052663006
-0.06895768 -0.0280985 -0.016006764 0.08134089 -0.0486073 -0.011897205 0.09394584 0.0934074
0.06600277 0.054215737 -0.026497584 0.05018668 0.0019302251 -0.0051556462 -0.05039775 -0.013747074
0.06885806 -0.052248366 0.07728225 0.022984905 0.037378784 -0.053383503 0.05724907 -0.015415078
0.020389847 0.036700916 0.070473626 -0.050404426 -0.07481041 0.07533082 0.037990864 0.04451905
-0.000114219 0.029066864 -0.052882224 -0.07354383 0.030339291 0.040875275 -0.036020443 0.04760446
0.058940843 -0.02400796 -0.043388046 0.050945494 0.03871738 0.060815696 0.08125475 0.014168487
0.077740364 0.04173256 0.0150973005 -0.04921007 0.050572064 -0.051413365 -0.05008164 0.0060632713
-0.013964664 -0.040376406 -0.029329484 0.06677496 -0.07819969 0.010990768 0.001090155 -0.0021014123
0.0038225502 0.04388468 0.041386995 -0.021520019 0.05768326 -0.0020143343 0.009970649 0.02277506
-0.0811286 -0.080267906 -0.042249564 0.03189819 0.01238217 0.023329055 -0.023981292 0.0070252526
-0.072518684 0.040448975 -0.024053097 0.08329781 -0.017418932 -0.08256274 0.01394161 0.052184574
0.027128417 0.027727755 0.07683274 0.040008027 0.08493544 -0.06286626 0.08202903 -0.059032973
-0.042251967 -0.07915659 0.06087215 -0.058217317 -0.029199278 -0.030607067 0.04258322 -0.0056503606
-0.011465318 0.026356582 -0.04017795 -0.047730736 -0.037092656 -0.03582778 0.016090048 -0.063322015
0.042759594 0.08454484 -0.0011355157 -0.04061199 0.0074276184 -0.028757125 -0.07912415 -0.043663155
-0.060907688 0.007177864 -0.05519843 0.011856645 -0.08027001 -0.041406773 -0.07797683 0.034807064
-0.05302161 0.08890432 -0.00950864 -0.04545347 -0.01710963 0.08329225 -0.07729847 -0.04581157
0.08329602 -0.009004866 -0.014327889 0.026843563 0.043827586 -0.030468674 0.087319836 0.02700432
0.0013749421 0.0040453435 -0.009849436 -0.00046694907 -0.03902542 -0.013226016 -0.049838804 -0.0032913438
00000000: b323 a03d 0eee acbd a15d 06bd f080 78bd
00000010: cfe9 73bd 9015 58bd 30e8 31bd 7aaa 843c
00000020: af18 503d 5454 7cbd 64e7 8e3d 4a3e 8a3d
00000030: 1632 0cbd f5ae 32bd ccab 7dbd 2e01 bd3d
00000040: 5530 423d 2aa0 0ebd aa41 293d f339 96bd
00000050: 30df 80bd aa59 5f3d 29a4 cebc 940d b93d
00000060: 4513 63bc eee8 a0bd 7acc 623c 4f0a 4abc
00000070: 6618 873d e43f c6bc ead4 c8bc b7d2 033d
00000080: 1f4a ba3d 2cb5 8e3d 9d65 53bd 378e bebc
00000090: 49d0 59bd 760d bcbc 88d8 c23b db10 56bc
000000a0: bd35 103d 8be5 853d 58b3 723a 027a 84bb
000000b0: 89ae 6a3d 3501 8f3a 8468 71bb a199 863c
000000c0: 72af 04bd 8ea9 18bd 5e0a 383d 7035 d7bc
000000d0: 07d1 90bd 1e2a b8bd 29af c23d f29d 84bd
000000e0: 262f 47bc 321e f5bc acfc a0bd 5d78 2d3d
000000f0: aaf0 a73d edd1 8c3c 16b9 f0bc b48a 7ebd
00000100: a716 32bd cd88 e93c c7ee 533b 7d25 fcbc
00000110: 6bdf 3cbd b9e5 b43c a334 993d cd97 843d
00000120: 1872 513d eee9 853c f312 99bd 27ab 8fbd
00000130: 05e8 8e3d ecc2 303d 67fb d23b ed6c dcbc
00000140: 8456 eb3c 49a2 4dbd f414 3cbd 2efb 52bd
00000150: d42f 07bd 3634 023c ec69 11bd b0ef 16bd
00000160: 81bf 233b 522f c2bd 0fd6 b13d b12a cfba
00000170: 7ac8 b93c d65f aebc d615 86bd ae36 9ebd
00000180: 0f71 9f3d faae 333d dba8 493d 05fb ccbc
00000190: b39a a03d 6485 983d 7c4d 20bc 2ab5 57bd
000001a0: af39 8dbd d32e e6bc 9e20 83bc 0d96 a63d
000001b0: 7318 47bd 7fec 42bc ad66 c03d 614c bf3d
000001c0: 762c 873d 5211 5e3d 7611 d9bc 8c90 4d3d
000001d0: 9bff fc3a b2f0 a8bb df6d 4ebd 683b 61bc
000001e0: 7405 8d3d 6202 56bd 2846 9e3d d74a bc3c
000001f0: 7f1a 193d a9a8 5abd 007e 6a3d 868f 7cbc
00000200: 9c08 a73c b353 163d 7a54 903d df74 4ebd
00000210: 3336 99bd 0c47 9a3d 4f9c 1b3d 9b59 363d
00000220: dc88 efb8 a21d ee3c 089b 58bd 269e 96bd
00000230: 1b8a f83c d56c 273d 2c8a 13bd e5fc 423d
00000240: f46b 713d 57ac c4bc aab7 31bd 39ac 503d
00000250: 1e96 1e3d e119 793d e468 a63d f122 683c
00000260: 5736 9f3d c3ef 2a3d ab5a 773c 8090 49bd
00000270: a724 4f3d d296 52bd 6822 4dbd 68ae c63b
00000280: 0ccc 64bc bb61 25bd 6344 f0bc 4fc1 883d
00000290: 2927 a0bd 9f12 343c 88e3 8e3a d9b7 09bb
000002a0: c083 7a3b 6cc0 333d 6985 293d c04a b0bc
000002b0: 4845 6c3d ec02 04bb ef5b 233c c392 ba3c
000002c0: c026 a6bd 8063 a4bd e10d 2dbd ada7 023d
000002d0: 96de 4a3c 931c bf3c 6a74 c4bc 1734 e63b
000002e0: ad84 94bd d3ad 253d 000b c5bc 0b98 aa3d
000002f0: 26b2 8ebc a716 a9bd 5a6b 643c 7ebf 553d
00000300: 6a3c de3c 5125 e33c 7c5a 9d3d 75df 233d
00000310: a2f2 ad3d 07c0 80bd d6fe a73d 8fcc 71bd
00000320: 6610 2dbd da1c a2bd 1355 793d 4875 6ebd
00000330: 5333 efbc acbb fabc be6b 2e3d a926 b9bb
00000340: 07d9 3bbc c2e9 d73c a291 24bd 4e81 43bd
00000350: 78ee 17bd 26c0 12bd 47cf 833c f9ae 81bd
00000360: af24 2f3d d825 ad3d 96d5 94ba c258 26bd
00000370: 6163 f33b 1094 ebbc d80b a2bd 23d8 32bd
00000380: 577a 79bd 4a34 eb3b c017 62bd 6042 423c
00000390: 9a64 a4bd 269a 29bd 51b2 9fbd da91 0e3d
000003a0: 302d 59bd 7813 b63d 20ca 1bbc 6b2d 3abd
000003b0: 7f29 8cbc 2195 aa3d a94e 9ebd eaa4 3bbd
000003c0: 1b97 aa3d 2589 13bc 86bf 6abc 08e7 db3c
000003d0: 8e84 333d 7199 f9bc bed4 b23d 2a38 dd3c
000003e0: 6737 b43a cd8e 843b 875f 21bc d8d0 f4b9
000003f0: 1ed9 1fbd efb1 58bc c623 4cbd 96b3 57bb

lin.bias f4 [64]
-0.008107059 0.06392448 0.01607019 0.05948167 0.030013187 0.045102544 -0.0005020666 -0.018452775
0.04748938 -0.061692603 -0.07200423 -0.05200981 0.029050626 0.061399657 -0.0079613235 0.030582735
0.029274179 0.031752992 0.048464675 -0.02586638 0.08461307 0.086289465 0.031195698 0.056250043
-0.0612563 0.052815832 -0.04298953 -0.02447218 -0.05143958 0.045278747 -0.01585141 -0.06047612
-0.032331992 -0.083756246 -0.052550256 0.068730846 -0.071780354 0.0070217466 0.03942497 -0.079859026
0.029094368 0.07908909 -0.041986935 0.044993374 -0.08374594 -0.053887583 0.077660695 0.070766985
-0.056664377 0.07712676 -0.021834202 -0.015162914 0.069469824 -0.07204275 0.031451635 0.07894402
0.08658133 0.01838291 0.046556138 -0.018139714 0.006423829 -0.026108827 0.01468058 -0.03352789
00000000: 78d3 04bc d6ea 823d a2a5 833c 0da3 733d
00000010: 37de f53c 72bd 383d 1f9d 03ba 462a 97bc
00000020: 3984 423d 62b1 7cbd f476 93bd 3d08 55bd
00000030: 94fb ed3c 357e 7b3d 3670 02bc a588 fa3c
00000040: 67d0 ef3c 6d0f 023d e582 463d bbe5 d3bc
00000050: 9e49 ad3d 88b8 b03d 1f8e ff3c 7266 663d
00000060: e3e7 7abd 6a55 583d ca15 30bd e279 c8bc
00000070: 4fb2 52bd 3576 393d d1da 81bc cfb5 77bd
00000080: 8d6e 04bd 6588 abbd f03e 57bd c2c2 8c3d
00000090: 9401 93bd ae16 e63b 147c 213d 218d a3bd
000000a0: 5057 ee3c 76f9 a13d 7efa 2bbd f94a 383d
000000b0: fe82 abbd 3ab9 5cbd 920c 9f3d 48ee 903d
000000c0: e818 68bd a2f4 9d3d a4dd b2bc df6d 78bc
000000d0: 3246 8e3d 268b 93bd 6ed3 003d 67ad a13d
000000e0: 8d51 b13d c297 963c a6b1 3e3d bd99 94bc
000000f0: fc7e d23b 2ee2 d5bc d186 703c 8a54 09bd

fc.weight f4 [1, 64]
-0.03995779 0.1169933 -0.104848266 -0.06386268 0.12205726 0.07142835 0.09546765 0.06296351
-0.0631409 0.0668406 -0.0034829406 -0.007958753 -0.07815418 -0.070601225 0.10584106 0.06648232
-0.054703347 -0.079094745 0.0037419074 0.026755396 -0.023093756 0.13184927 -0.010173442 0.05640354
0.13153903 0.09834508 -0.09393894 -0.049730916 0.058715057 0.028360283 -0.01304199 0.053116526
-0.07845444 -0.023729246 -0.12404457 -0.021770274 -0.093034446 -0.014284743 -0.105068274 0.08400055
-0.103548534 -0.056397595 -0.025521407 0.12948236 -0.023238787 -0.008757616 0.1203683 -0.10635499
0.028639972 0.12729898 0.08921686 -0.07619099 0.0043734233 0.06333958 0.016612908 -0.07216264
0.05424729 0.079338424 0.13086918 -0.0893446 0.06979635 -0.08708261 -0.07342121 -0.062034983
00000000: c8aa 23bd 2f9a ef3d b0ba d6bd 70ca 82bd
00000010: 28f9 f93d 0749 923d 8b84 c33d 03f3 803d
00000020: 0450 81bd b9e3 883d 0c42 64bb 6e65 02bc
00000030: 4c0f a0bd 6097 90bd 33c3 d83d e227 883d
00000040: 9e10 60bd 6dfc a1bd ca3a 753b 222e db3c
00000050: 1e2f bdbc 7f03 073e 82ae 26bc 6607 673d
00000060: 2bb2 063e 2569 c93d 0f63 c0bd a5b2 4bbd
00000070: 337f 703d d353 e83c 12ae 55bc b790 593d
00000080: b9ac a0bd d663 c2bc 140b febd 9357 b2bc
00000090: d888 bebd 8e0a 6abc 092e d7bd 7b08 ac3d
000000a0: 4111 d4bd 2a01 67bd 4512 d1bc 0697 043e
000000b0: 455f bebc 1b7c 0fbc a883 f63d a5d0 d9bd
000000c0: 609e ea3c aa5a 023e 54b7 b63d 060a 9cbd
000000d0: ef4e 8f3b 2fb8 813d cb17 883c 02ca 93bd
000000e0: 6832 5e3d 2f7c a23d 9202 063e 4dfa b6bd
000000f0: 64f1 8e3d 5e58 b2bd dc5d 96bd 6518 7ebd

gcn_batch_norm.weight f4 [128]
1.0 1.0 1.0 1.0 1.0 1.0 1.0 1.0
1.0 1.0 1.0 1.0 1.0 1.0 1.0 1.0
1.0 1.0 1.0 1.0 1.0 1.0 1.0 1.0
1.0 1.0 1.0 1.0 1.0 1.0 1.0 1.0
1.0 1.0 1.0 1.0 1.0 1.0 1.0 1.0
1.0 1.0 1.0 1.0 1.0 1.0 1.0 1.0
1.0 1.0 1.0 1.0 1.0 1.0 1.0 1.0
1.0 1.0 1.0 1.0 1.0 1.0 1.0 1.0
1.0 1.0 1.0 1.0 1.0 1.0 1.0 1.0
1.0 1.0 1.0 1.0 1.0 1.0 1.0 1.0
1.0 1.0 1.0 1.0 1.0 1.0 1.0 1.0
1.0 1.0 1.0 1.0 1.0 1.0 1.0 1.0
1.0 1.0 1.0 1.0 1.0 1.0 1.0 1.0
1.0 1.0 1.0 1.0 1.0 1.0 1.0 1.0
1.0 1.0 1.0 1.0 1.0 1.0 1.0 1.0
1.0 1.0 1.0 1.0 1.0 1.0 1.0 1.0
00000000: 0000 803f 0000 803f 0000 803f 0000 803f
00000010: 0000 803f 0000 803f 0000 803f 0000 803f
00000020: 0000 803f 0000 803f 0000 803f 0000 803f
00000030: 0000 803f 0000 803f 0000 803f 0000 803f
00000040: 0000 803f 0000 803f 0000 803f 0000 803f
00000050: 0000 803f 0000 803f 0000 803f 0000 803f
00000060: 0000 803f 0000 803f 0000 803f 0000 803f
00000070: 0000 803f 0000 803f 0000 803f 0000 803f
00000080: 0000 803f 0000 803f 0000 803f 0000 803f
00000090: 0000 803f 0000 803f 0000 803f 0000 803f
000000a0: 0000 803f 0000 803f 0000 803f 0000 803f
000000b0: 0000 803f 0000 803f 0000 803f 0000 803f
000000c0: 0000 803f 0000 803f 0000 803f 0000 803f
000000d0: 0000 803f 0000 803f 0000 803f 0000 803f
000000e0: 0000 803f 0000 803f 0000 803f 0000 803f
000000f0: 0000 803f 0000 803f 0000 803f 0000 803f
00000100: 0000 803f 0000 803f 0000 803f 0000 803f
00000110: 0000 803f 0000 803f 0000 803f 0000 803f
00000120: 0000 803f 0000 803f 0000 803f 0000 803f
00000130: 0000 803f 0000 803f 0000 803f 0000 803f
00000140: 0000 803f 0000 803f 0000 803f 0000 803f
00000150: 0000 803f 0000 803f 0000 803f 0000 803f
00000160: 0000 803f 0000 803f 0000 803f 0000 803f
00000170: 0000 803f 0000 803f 0000 803f 0000 803f
00000180: 0000 803f 0000 803f 0000 803f 0000 803f
00000190: 0000 803f 0000 803f 0000 803f 0000 803f
000001a0: 0000 803f 0000 803f 0000 803f 0000 803f
000001b0: 0000 803f 0000 803f 0000 803f 0000 803f
000001c0: 0000 803f 0000 803f 0000 803f 0000 803f
000001d0: 0000 803f 0000 803f 0000 803f 0000 803f
000001e0: 0000 803f 0000 803f 0000 803f 0000 803f
000001f0: 0000 803f 0000 803f 0000 803f 0000 803f
