All_Benchmarking/DATA_2/Results/fold_2/best_model.pth (torch, 192098 bytes, 32 tensors)

gat1.att_src f4 [1, 4, 32]
000000 84 07 b0 3e 9a 07 c6 3e 29 c0 8b 3e a8 8c 76 be
       0.34380734 0.38677675 0.27295044 -0.24077094
000010 0c 1f 12 3e a6 3c c8 bd b0 56 00 be 81 f9 70 3e
       0.14269656 -0.09777193 -0.12533069 0.23532678
000020 99 8c 52 3e 91 05 9b 3e 05 0e 12 bd 84 59 bc 3c
       0.20561446 0.30277684 -0.0356579 0.022991903
000030 65 44 9f be ee 25 d6 3d 89 ba ac 3e 88 f3 8b 3d
       -0.31106868 0.10456453 0.33736065 0.06833559
000040 e2 0a f3 3d ad be c7 be a8 9d b6 be 37 dd 61 3e
       0.1186731 -0.39012662 -0.35667157 0.22057043
000050 7e 59 07 bc d9 89 4d 3d 81 41 61 bd 64 92 82 be
       -0.008261083 0.05018029 -0.05499411 -0.25502312
000060 0b 85 df bd a8 1e 0d be 51 82 d0 3e 0c f6 a7 be
       -0.10914048 -0.13781226 0.40724424 -0.32804906
000070 b1 5b 5b 3e 45 2f 88 3d e0 df 60 3e a3 c3 2c 3e
       0.21421696 0.06649641 0.21960402 0.16871504
000080 de e5 cc be d3 e4 6b be 0c 0a aa be c6 02 97 be
       -0.40019125 -0.23036508 -0.3321079 -0.29494303
000090 ea 9c be 3e 6a 25 82 3e f8 2b 92 be bf 84 db b9
       0.3722909 0.2541917 -0.2854917 -0.0004186984
0000a0 7a b9 a3 ba 7e 80 c6 bd df 51 9e 3e 91 4a b7 bd
       -0.0012491189 -0.09692477 0.30921838 -0.08949769
0000b0 d9 aa 60 be fd eb e6 bd 7c 59 18 3e 45 de ab 3e
       -0.21940173 -0.1127548 0.14877886 0.33568016
0000c0 d8 aa 71 bd 53 26 25 3e ab ef b3 be 81 cc 17 bd
       -0.05900082 0.16127901 -0.3514379 -0.037060264
0000d0 7b aa 9a 3e 94 76 b6 3d 3e 0a 9c be 07 44 b4 3e
       0.3020819 0.08909336 -0.30476564 0.3520815
0000e0 42 d0 91 be bd 1e bf be d0 e2 84 be 02 6f eb bc
       -0.284792 -0.3732814 -0.25954294 -0.028739456
0000f0 78 39 aa be dd 86 ca 3e de b8 ae 3e 04 ad 17 3e
       -0.3324697 0.39556018 0.34125417 0.14812094
000100 8f f7 43 be 5d 3c 9b 3e a6 2f 67 be 2e 68 2b be
       -0.19137405 0.3031949 -0.2257677 -0.1673896
000110 37 2b b5 3e 77 03 bf 3e 91 d4 9b 3e 70 7c b8 3e
       0.35384533 0.3730733 0.30435613 0.36032438
000120 e6 bd d0 3e 90 4f 89 be ff 92 24 3e 98 e8 91 3e
       0.4076988 -0.26818514 0.160717 0.28497767
000130 ea 7c 15 3e 21 dd 73 3e d1 54 b4 3e 89 b4 1a 3e
       0.14598432 0.23814823 0.3522096 0.15107931
000140 1a c4 9f be 0a f1 b9 3e 8b b2 97 be fb 0e c2 3b
       -0.312043 0.3631671 -0.29628405 0.005922196
000150 13 90 63 3e f5 49 c1 be ec 92 70 3e 1b 7c cc be
       0.22222929 -0.37751737 0.23493546 -0.39938435
000160 38 64 5d be 17 b3 cd 3d 46 80 27 3e 74 4c a4 be
       -0.21620262 0.10043924 0.16357526 -0.3208958
000170 27 46 cd 3e 7e 0a ba 3e 9a 92 36 3e 62 72 47 be
       0.40092584 0.3633613 0.17829362 -0.19477227
000180 cc 32 20 3e 5f 00 b0 be 67 28 90 3e 7c 4d 57 3e
       0.15644377 -0.34375283 0.28155825 0.21025652
000190 16 89 b3 be 5a c9 8c 3e 1b b5 cc bd 27 4e 9a bd
       -0.35065526 0.2749737 -0.099954806 -0.075344376
0001a0 a0 6d e8 bb a5 56 4d 3e fc 1e 6d 3e d9 45 8f be
       -0.0070931464 0.20052584 0.23156351 -0.27982977
0001b0 98 0f 25 be 00 20 c5 be 84 bf 55 be 0c 39 af 3e
       -0.1611923 -0.38500977 -0.20873839 0.3422321
0001c0 e5 6a f3 3d 70 04 07 bd 1d 4b 89 3e ae 55 95 3e
       0.11885623 -0.032963216 0.2681512 0.2916693
0001d0 12 59 87 3d 0b b5 02 be 67 f1 85 be ed 4c 54 be
       0.06608786 -0.12764375 -0.26160738 -0.2073247
0001e0 80 2b 5f be 14 c6 0e bd e6 fb a8 be 5f a9 ec 3d
       -0.21793938 -0.03485687 -0.33004683 0.115557425
0001f0 6e a6 e4 bd 2a 83 46 3e f4 6d 84 be eb af ae be
       -0.111645564 0.19385973 -0.25865138 -0.3411859

gat1.att_dst f4 [1, 4, 32]
000000 08 d1 18 bc cf 3a 53 be cd de 9e 3e 17 b2 be 3e
       -0.009327181 -0.20627902 0.31029359 0.37245247
000010 9d 44 b2 be 69 c7 71 3d 31 8a bb 3e 39 dd 2b 3e
       -0.34817973 0.059028063 0.3662887 0.16783608
000020 d3 10 af 3e ed f2 73 be 0d ba 81 be 2a cd 6c be
       0.34192523 -0.23823138 -0.25337258 -0.23125139
000030 b4 cc 6a 3d ae b5 40 3e 29 7d eb 3d 95 ab aa 3e
       0.057324126 0.18819305 0.11498482 0.33334032
000040 93 f7 7c bd e3 bf 59 3e c3 e9 45 3e 45 c4 83 3e
       -0.061759543 0.21264605 0.19327454 0.2573568
000050 6b 73 8b 3e fc 40 3d bc 46 4b 68 3e 40 ed a7 3e
       0.27236494 -0.011551138 0.22684965 0.32798195
000060 23 2b 97 3e b5 5b c1 be 33 df 96 3e cd 2a a2 be
       0.29525098 -0.3776528 0.29467162 -0.3167328
000070 12 f4 34 be 52 32 0d 3e 95 a9 60 be 82 71 62 be
       -0.1767123 0.13788727 -0.2193969 -0.22113612
000080 cf ad 8a bc b8 83 97 bd 9f c1 bb 3d 7f 8b 3f 3d
       -0.016928582 -0.0739817 0.0916779 0.046763893
000090 3c 0e 33 be 56 0c 19 be fc b9 c5 bd e7 9c 00 be
       -0.17485899 -0.14946112 -0.09654614 -0.12559853
0000a0 23 4b 07 3e e9 fa aa 3d 7a 2a 82 3c 43 85 5d 3e
       0.13212256 0.083486386 0.015889395 0.21632867
0000b0 19 0f c1 3e 16 26 fd 3c 78 d1 93 bc d7 21 31 be
       0.3770683 0.03090195 -0.018044218 -0.17298065
0000c0 89 04 fe 3d bf 1f 84 be 39 75 15 3e 93 09 8b be
       0.12403209 -0.2580547 0.14595498 -0.27155742
0000d0 b6 dd 88 3e 10 3c b1 bd 75 ce 80 bd be 78 94 3d
       0.26731652 -0.08654034 -0.062893786 0.07249592
0000e0 b9 2e bc 3e ff d4 2a 3e b6 19 74 3e 29 c7 20 3d
       0.36754397 0.16682814 0.23837933 0.039252434
0000f0 17 87 77 be d1 b7 bb 3e c0 ab 9a 3e 9f 82 87 be
       -0.24172626 0.36663678 0.3020916 -0.26466843
000100 33 f3 ab bd 35 c3 cc 3e 8c fa c8 be dc 2d 25 bc
       -0.08395996 0.3999268 -0.39253652 -0.0100817345
000110 db 29 70 3e 42 4f c7 be 72 f7 98 be 07 cf 82 be
       0.23453467 -0.38927656 -0.29876286 -0.25548574
000120 e6 7c 63 be 06 08 ad be 66 05 4e 3e 3b ef 7e 3e
       -0.22215614 -0.33795184 0.20119247 0.24895947
000130 4e 8d b5 be 47 ad c1 be fe 36 4b 3e ad b5 3a 3d
       -0.3545937 -0.37827513 0.19845197 0.045583416
000140 10 48 74 be b9 0e 14 3e e0 3b 97 3e 27 2b b5 3e
       -0.23855615 0.14458741 0.29537868 0.35384485
000150 f2 58 a8 3e fe ec 51 3e 9f 70 cd be e4 69 b3 bd
       0.3288036 0.20500562 -0.40124986 -0.087604314
000160 86 78 73 be 8c e4 33 be 71 ce 88 be 8b 48 d9 3d
       -0.23776445 -0.17567652 -0.26720002 0.106095396
000170 58 38 58 be 54 a4 ae be 1a 66 29 be 37 63 cf 3d
       -0.21115243 -0.34109747 -0.16542855 0.101263456
000180 13 c5 54 3e 8b d2 55 3e b0 dc ef bd f1 d7 9a be
       0.20778303 0.20881097 -0.11712015 -0.30242875
000190 5d d8 9d be b2 72 ac 3e 69 5a e8 3d 52 98 31 3e
       -0.30829135 0.33681256 0.11345369 0.17343262
0001a0 5a a2 e6 3c 18 18 cf bd 54 a1 71 be 18 2b 26 be
       0.028153587 -0.101120174 -0.23596698 -0.16227376
0001b0 7e a4 76 be e6 7c f1 3d bb fd cc be 50 66 08 bd
       -0.24086186 0.117914006 -0.4003733 -0.033300698
0001c0 ea a3 a4 3e 7e 6b 38 3e 5a 24 92 3d 5e 8e 81 be
       0.32156307 0.18009755 0.0713584 -0.2530393
0001d0 cd f0 1e be 35 8b 2a 3e 66 21 a0 3d f4 84 cf 3e
       -0.15521546 0.16654666 0.0781887 0.40531123
0001e0 20 c1 42 be 38 4b 72 bd 8f c6 79 be d2 d3 50 3e
       -0.19018984 -0.059153765 -0.2439215 0.20393303
0001f0 be fa e6 bd 6f c4 a6 3d 6a d4 cd bc b2 54 86 be
       -0.11278294 0.081429355 -0.025125701 -0.26236492

gat1.bias f4 [128]
000000 b7 9d 5b 39 04 78 94 39 87 41 1a b7 5b 08 cc b8
       0.00020944221 0.00028318178 -9.194372e-06 -9.729034e-05
000010 9c 0c 2a 38 7a e6 b6 39 e8 c5 35 39 7e 11 ab 39
       4.0542902e-05 0.00034885464 0.00017335231 0.00032628694
000020 43 ef 3d 39 78 05 3f b9 c6 d9 6e b8 db 4d df b8
       0.00018113577 -0.00018217217 -5.694644e-05 -0.0001064797
000030 6f 96 83 39 3e 81 6c 39 54 69 84 39 c0 c7 d9 b9
       0.0002509835 0.0002255486 0.00025255478 -0.0004153829
000040 96 9a 02 b8 1d 52 09 3a f9 b0 a8 b8 8e 8e 70 39
       -3.1138385e-05 0.0005238371 -8.043828e-05 0.0002294129
000050 6c 1d a7 39 1c 67 3b b9 98 9e 04 3a 80 f3 97 39
       0.00031874643 -0.00017872121 0.00050590327 0.00028982386
000060 76 40 6f 39 a3 61 cb 38 6e 87 81 b9 4b 23 c2 39
       0.0002281683 9.6979806e-05 -0.000247057 0.0003702886
000070 aa 1e 8f 39 1b 93 00 b9 5f 63 7b 39 43 ae a6 b8
       0.00027297932 -0.00012261832 0.00023974244 -7.9479556e-05
000080 2d 23 08 ba 0a 9c cd b9 e5 b3 38 39 2b a1 8b b9
       -0.000519323 -0.00039216905 0.00017614623 -0.00026632225
000090 bb 79 e4 b9 24 74 a4 37 3f 7e c8 38 de be 03 b8
       -0.00043578245 1.9604406e-05 9.560258e-05 -3.1410593e-05
0000a0 70 d5 0d 3a cf af c3 39 40 f5 52 b9 4a 0d 1a 39
       0.0005410528 0.00037324286 -0.00020118523 0.00014691535
0000b0 86 50 0a 39 38 a4 8e 39 ef 64 15 b9 35 b4 8d b8
       0.00013190703 0.00027206703 -0.00014247348 -6.75697e-05
0000c0 de 3c 05 b9 9a b2 c8 b7 f5 4d 51 39 1a 25 d2 39
       -0.00012706543 -2.3925026e-05 0.00019960834 0.00040081964
0000d0 b6 aa 7b 39 de 81 92 39 ee 78 d1 39 0c cf 02 3a
       0.0002400082 0.0002794405 0.00039953686 0.0004989959
0000e0 ff 41 19 b9 a0 f0 4e 38 02 36 d6 b9 2f 56 d0 38
       -0.00014615803 4.9338327e-05 -0.000408575 9.934266e-05
0000f0 dd 51 95 39 d7 8e a2 b9 e6 f6 d3 37 b6 66 44 39
       0.00028480488 -0.00031005472 2.5268131e-05 0.0001873028
000100 6d 7f 55 39 14 d6 4e b9 68 5e 35 b9 c3 f0 39 b9
       0.00020360733 -0.00019725441 -0.00017296674 -0.00017732666
000110 e4 af 9e 38 53 21 87 b9 ed 6f c0 b9 5e c0 b0 39
       7.566789e-05 -0.00025774035 -0.00036704485 0.0003371266
000120 e3 a8 b5 38 ea f2 f4 b9 2c 15 fc b8 a3 fc 05 ba
       8.66221e-05 -0.00046720292 -0.0001202024 -0.0005111193
000130 78 9c 79 39 e8 2f 45 b9 0c 56 71 b8 a4 99 b2 39
       0.0002380478 -0.0001880523 -5.7539015e-05 0.00034065277
000140 89 a4 46 b9 ff 2e 51 38 a7 41 9c b8 96 6f 7f b8
       -0.00018944046 4.987325e-05 -7.4508884e-05 -6.090066e-05
000150 a2 a9 dc 38 3a 36 89 39 a0 82 2e 3a dd 59 a2 38
       0.00010522014 0.00026171078 0.0006657038 7.7415e-05
000160 b8 dc 52 b8 af 73 bd 38 54 96 fb 37 54 4f 2b 39
       -5.0273462e-05 9.03377e-05 2.9991534e-05 0.00016337383
000170 05 06 d6 38 f5 18 c1 38 b6 8e 3f 3a 8d 97 1c b9
       0.000102054364 9.207606e-05 0.00073073374 -0.00014933776
000180 99 75 b8 b8 7c f0 8a 39 0c c3 84 38 a8 03 25 b9
       -8.795708e-05 0.00026500586 6.330581e-05 -0.00015736988
000190 94 5f b0 b9 4a e2 ce b8 c9 73 d0 38 b9 4c d6 39
       -0.00033640547 -9.864995e-05 9.9397796e-05 0.00040874424
0001a0 72 58 7c 39 3d 04 c5 39 2e ff e5 38 6a e3 97 b9
       0.00024065541 0.00037577926 0.00010967102 -0.000289704
0001b0 5f 51 ac b8 b4 b9 00 39 1e 2f 1d ba 48 17 13 b9
       -8.216756e-05 0.00012276211 -0.0005996096 -0.00014027685
0001c0 ee ab 2e 39 2d 2c 87 b8 43 ad c3 38 11 e9 c6 b9
       0.00016657982 -6.44553e-05 9.330597e-05 -0.0003793915
0001d0 4f 16 68 b9 ba 71 0f b8 2a 4a cf 37 19 f7 ba b8
       -0.00022133555 -3.4199773e-05 2.4710858e-05 -8.915197e-05
0001e0 0f 70 12 39 53 8d ad b8 d9 83 15 b7 0b 1c 2d 39
       0.0001396539 -8.2756065e-05 -8.91179e-06 0.00016509012
0001f0 36 7f ce b9 9e fe 12 38 c4 81 8c b8 7a ca 66 b9
       -0.0003938616 3.5046243e-05 -6.699891e-05 -0.00022009938

gat1.lin.weight f4 [128, 5]
000000 9f 98 4d 3d 2f 1c f2 3d 81 b4 15 be 03 04 f7 bc
       0.05019438 0.11821782 -0.14619638 -0.03015328
000010 a3 b7 fc 3c 45 83 07 3e b1 4a 1a be 66 7a ac 3d
       0.030849284 0.13233669 -0.15067555 0.08421783
000020 2a 86 c9 3d 09 bb 50 be d8 99 25 bd 82 99 a0 3d
       0.09840043 -0.20383848 -0.04042992 0.07841779
000030 92 bc 82 3d a6 af de bc ea ec 3d bc f6 55 86 bd
       0.06383623 -0.027183365 -0.011592129 -0.065593645
000040 01 c3 26 be 8a a4 b4 bd b1 ff 53 be 9a bc 10 bd
       -0.16285326 -0.08820446 -0.20703007 -0.035336114
000050 5a b0 17 3e c5 b1 7a 3d 41 dc 8a 3d b4 3f 5b 3d
       0.14813367 0.06120469 0.06780291 0.05352755
000060 73 7d a8 bd eb 9a dc 3d 09 b3 0a be cb 7b c3 bd
       -0.082270525 0.10771736 -0.13544859 -0.09545096
000070 4f 13 f2 bd 28 c8 19 bd f8 46 d5 3d 40 2e 52 3e
       -0.11820089 -0.0375444 0.10413927 0.20525455
000080 8f 78 90 3d 0c 57 66 3d d3 ab 55 3d 4e f6 94 bd
       0.07054245 0.056235358 0.052165817 -0.072735414
000090 38 ae 0f be f5 35 35 3e bd 3c 2d ba 2e e4 e9 3d
       -0.14031303 0.17696364 -0.0006608477 0.11420475
0000a0 2b 16 ad bd 7a 33 1e be f0 7a 6b bd 31 3d e0 3d
       -0.08451494 -0.15449324 -0.05749029 0.10949171
0000b0 68 55 bb 3d 1f 2b 2c bc 21 13 98 bc 1b 9b e1 bc
       0.09147149 -0.010508328 -0.018563809 -0.02753978
0000c0 1f 9f 33 be a9 aa be bd a0 f7 e0 3d 17 90 b5 bd
       -0.17541169 -0.093098946 0.10984731 -0.088653736
0000d0 af cd bf 3d 57 f2 fc bd 5e eb cf 3d e4 bd 83 3d
       0.09365403 -0.1235091 0.101523146 0.06432703
0000e0 fc a7 46 3e be c1 3a 3e 4c 63 13 bc 18 56 b0 bd
       0.19400018 0.1823797 -0.008995842 -0.08610171
0000f0 e4 ea 2c 3d ce 73 83 bd 4e a2 9c bd 4e 66 0b 3d
       0.042216197 -0.06418572 -0.07648145 0.034033112
000100 0f 8a 7d 3d be 84 39 bd d2 49 2a 3e d4 e0 09 be
       0.06189924 -0.04529261 0.16629723 -0.13464671
000110 1a bb 4a 3d ea 51 0a 3e d8 75 0f 3e c6 29 db 3d
       0.04949484 0.1350781 0.14009798 0.10701327
000120 0b 52 15 be 8e 7b 6d 3d a9 87 93 3c db c2 29 3d
       -0.14582078 0.05797916 0.018009024 0.041445594
000130 e4 7d 32 be d7 1e ff 3c 1f bc 37 ba b7 28 ef 3c
       -0.17430836 0.031142635 -0.0007008928 0.029194219
000140 77 4b 73 bd b6 00 c8 bb 49 1e 46 3d 62 fc 8d 3d
       -0.05939814 -0.0061036004 0.048368726 0.06932904
000150 5f 93 c8 bb 4f c1 c6 3c 6f 15 92 3d 03 57 4d be
       -0.0061210836 0.024262099 0.071329944 -0.20052724
000160 62 6b a3 bd 17 ce 9c bd 3f 3b b2 bd b5 d5 1d be
       -0.07979466 -0.07656496 -0.087027065 -0.15413554
000170 28 11 a9 bd 37 b1 df 3d 2a e0 08 be 1b 7d ea bd
       -0.082552254 0.10922473 -0.13366762 -0.11449643
000180 cf 30 32 3e 6a 2a 1a 3e 7d 31 9f 3c 2d 69 0c 3e
       0.17401432 0.15055242 0.019432778 0.13711996
000190 a7 cc e4 bc 56 06 c9 3c 52 3b 04 be be 2c 01 3e
       -0.027929617 0.024539154 -0.12913254 0.12614724
0001a0 ce 6d bb 3d 8f 53 4e be bf 05 33 be 41 2b 4c 3d
       0.09151803 -0.20149063 -0.1748266 0.049845938
0001b0 32 73 50 3e 07 60 30 3d 4d 1f 67 3d 1b ae a0 bd
       0.20356444 0.04306033 0.056426335 -0.07845708
0001c0 19 5e 05 be 97 e9 b6 3c 4d 2d 81 3d 68 97 13 3b
       -0.13024177 0.022328181 0.063074686 0.0022520665
0001d0 aa c1 d5 bb b5 94 e9 3c 3b f1 3f be 6b 7b 2e 3e
       -0.0065233307 0.028513292 -0.18744366 0.17039268
0001e0 00 8b 3b 3d 80 d4 b0 3d 94 fa 44 3d 62 12 0f bd
       0.045786858 0.08634281 0.048090532 -0.03492964
0001f0 98 9b 53 be 7d b0 35 3d 3c 6c bb 3d f0 ff 1b 3d
       -0.20664823 0.044357765 0.091515034 0.038085878
000200 55 a3 0a 3e 50 43 d7 bc b3 4d f3 bd 7b 1f ac 3c
       0.13538869 -0.026277214 -0.11880054 0.021011105
000210 08 2e 41 be 21 aa f6 bd 5f 64 26 be 29 2a 28 3e
       -0.18865216 -0.12044168 -0.16249226 0.16422333
000220 59 84 4c 3e ca aa ed bd f6 71 bd bd 0b ba 45 3e
       0.19972362 -0.11604841 -0.09250252 0.19309251
000230 9e df eb 3a 9f 30 c4 3d e2 a1 cb bd 2d 65 2f be
       0.001799572 0.09579586 -0.09942986 -0.17128439
000240 de 73 2f be a3 47 ff bc a1 76 1d 3e 5f b2 3c 3e
       -0.17134044 -0.031162089 0.15377285 0.18427418
000250 4a 68 d1 3d 94 b1 00 bd fd 92 08 bc 93 11 27 be
       0.1022497 -0.03141935 -0.008335826 -0.16315298
000260 e3 45 c8 bd 55 1b 38 be a7 83 5b bd 82 c9 19 3d
       -0.09778955 -0.17979176 -0.05359235 0.03754569
000270 0c 81 e5 3c 51 a2 ad bd d2 2c f5 bd 1f 2d 21 3e
       0.028015636 -0.08478225 -0.119714394 0.15739869
000280 32 b0 b6 3d b6 7f a9 bc 91 f7 56 be 9d 71 f1 3d
       0.08920325 -0.02069078 -0.20992877 0.11789248
000290 0c e1 a4 3b c8 f0 4b be 0d 55 25 be 2d 5f 2c 3e
       0.0050317105 -0.1991607 -0.16145726 0.16833182
0002a0 d4 39 22 3e 02 6e 04 be d9 c3 5a bd ad e7 83 bd
       0.15842372 -0.1293259 -0.05340943 -0.06440673
0002b0 97 6f e9 3d 08 ba c9 bd e1 f4 54 bd 2f 75 3c be
       0.11398237 -0.09849936 -0.051991347 -0.18404077
0002c0 26 f9 37 be b5 88 4a be 81 20 50 3e b6 bb 37 be
       -0.17966136 -0.19778712 0.203249 -0.179427
0002d0 ac 37 5b 3d 82 07 47 3d 5e 95 4e 3e 20 c8 5a 3c
       0.05351989 0.048591144 0.20174167 0.013353378
0002e0 99 21 4f 3e d4 d4 4a be 16 db 09 3e f5 a6 71 3d
       0.2022766 -0.1980775 0.13462481 0.058997113
0002f0 77 bd c4 3d 3d b8 28 be 2c fb c3 3b 84 2f f4 bd
       0.0960645 -0.16476531 0.0059808698 -0.119231254
000300 6d 38 8b 3d 10 c8 34 3d c2 9c 28 be ed cb 1c be
       0.06797872 0.044136107 -0.16466048 -0.15312167
000310 34 09 45 be 27 16 9c bd 85 39 47 3e 56 25 68 bd
       -0.19241792 -0.07621413 0.19455536 -0.05667623
000320 5e ba fd 3d 8f 3b fa bd f5 af 0d be b1 70 fb bc
       0.12389062 -0.12218391 -0.13836654 -0.030693384
000330 fc 0a 11 be ad 91 c6 3d 19 de 0b 3e 32 4a b1 bd
       -0.14164346 0.09695754 0.13658942 -0.0865673
000340 98 9a 0c be 01 bd c0 3d 41 8f 49 be 18 b5 a0 3d
       -0.13730848 0.0941105 -0.19683553 0.07847041
000350 18 9a 0a be 7d 94 5a bd 15 33 aa bd e5 16 da 3d
       -0.13535345 -0.053364266 -0.083105244 0.10648898
000360 53 38 20 be b1 1b 46 be ca 45 4f be 62 b1 19 3e
       -0.15646486 -0.19346501 -0.20241466 0.15009072
000370 14 25 ed 3d 1c e0 52 bd 64 8c 87 3d b3 80 57 be
       0.11579338 -0.05148326 0.06618574 -0.21045189
000380 35 12 90 3d 8a d2 bd 3c 4b 84 c4 bd b0 81 95 bd
       0.07034723 0.023171682 -0.095955454 -0.073001266
000390 0f 00 d4 3d d5 39 1e 3d 3d 48 a1 3d f0 f8 93 bd
       0.10351574 0.03862937 0.078751065 -0.072252154
0003a0 42 7c 4b be 77 00 1d be 06 9e 13 be e2 cf af 3d
       -0.1987162 -0.15332209 -0.1441575 0.085845724
0003b0 d1 f9 36 3e a0 2a 2f 3b b6 43 fa 3c 4f a9 f2 bd
       0.17868735 0.0026728287 0.030549865 -0.11848699
0003c0 c1 bc 77 3d 9f 42 cf bc 36 9c e0 bd a1 02 02 3e
       0.060482744 -0.025300322 -0.10967295 0.12696315
0003d0 bf 72 c8 bb 0a ed f2 3c 19 ce 86 3d e7 9c d5 3d
       -0.0061171944 0.029654045 0.06582279 0.10430317
0003e0 49 9e 88 bd 4e 32 64 3c 2a bb 46 3e 44 ca 17 be
       -0.066708155 0.013928009 0.19407335 -0.14823252
0003f0 b5 72 89 3d b0 1d 55 be e4 c8 03 3e 4d cc 4d 3e
       0.06711332 -0.20812106 0.12869602 0.20097466

sage1.lin_l.weight f4 [128, 128]
000000 73 df ab bd 78 ce 9b bd 1a 82 99 3d 19 f8 1c 3d
       -0.08392229 -0.0760774 0.07495518 0.038322542
000010 01 95 1a bd 69 ed 02 3b 6b 36 8b bb 10 b4 13 3d
       -0.037739757 0.0019977933 -0.0042484305 0.036060393
000020 85 e0 3a ba dc f8 a7 3d 24 b2 73 3c e7 67 b7 3c
       -0.0007128793 0.08201763 0.014874015 0.022388412
000030 38 38 a4 bd f2 50 a9 bb 5b ca bf 3c ce 5f 58 bd
       -0.080185354 -0.00516712 0.02341192 -0.05282574
000040 e7 e1 a8 bb a3 6d 34 bd 62 a6 17 3d 51 7f 58 3d
       -0.005153883 -0.04404987 0.03702391 0.052855793
000050 62 4e 84 bd de 7e 4e 3d 7c 5d 86 3c ae e7 0a bd
       -0.06460263 0.05041396 0.016401999 -0.033912353
000060 4c 30 2a 3d 3d 73 8e 3c 4d 0e 37 3d 3a f9 1a 3d
       0.041549966 0.017388934 0.044691373 0.037835337
000070 81 43 96 3c a0 38 c5 bc ac ef 47 bd 4d a0 08 3d
       0.018342735 -0.024074852 -0.048812553 0.033356
000080 4d 6b 06 3d 61 20 6b 3d 72 68 86 bd f7 b7 9b 3d
       0.032817174 0.057403926 -0.0656289 0.07603448
000090 3f 76 8a bc 71 cd 68 3d 29 9f 84 3d 0a 61 43 3c
       -0.016902087 0.05683655 0.0647567 0.011924991
0000a0 b7 e4 2b bd 74 81 b6 3d d7 a3 9c bd 2b f8 f9 bc
       -0.041966166 0.0891141 -0.076484375 -0.030513844
0000b0 22 e1 d5 bc 82 37 89 3d 9e f0 5c 3d a3 a8 80 3b
       -0.026108328 0.067000404 0.053940408 0.003926353
0000c0 87 8f ba bc e1 fa 7d bd cd 80 12 3d 9e 14 85 3d
       -0.022773517 -0.062006835 0.035767365 0.06498073
0000d0 92 ec 44 bc 10 58 09 bd 5b 59 fb bc c0 48 6f bd
       -0.012019293 -0.03353125 -0.030682256 -0.05841899
0000e0 45 95 62 3d 42 1b a5 3d 8b 35 05 3d 55 2e d8 3c
       0.055318136 0.0806184 0.032521766 0.02638928
0000f0 12 c4 74 bc ae 92 07 3d ee 35 b3 bc e9 1a ae 3d
       -0.014939325 0.03309887 -0.021876302 0.085012265
000100 6a d6 29 3d 89 49 ac bd 1a ff 8a 3d 99 4c 36 bd
       0.041464247 -0.08412463 0.06786938 -0.044506643
000110 dc 12 67 3d 0c 42 96 bd bc fa 08 bd a6 8d a7 3d
       0.05641447 -0.07336816 -0.033442244 0.08181314
000120 e7 4e 47 bd b4 6b 7e 3b e2 d4 a9 3d d2 23 23 3d
       -0.04865923 0.003882152 0.08292557 0.039829083
000130 20 4c 14 3d 19 fd da 3b 15 d8 c9 3b 69 8f 9d bd
       0.03620541 0.0066830036 0.006159792 -0.07693369
000140 14 02 35 bd dc c2 30 3d f4 84 49 3d 23 4e d2 bc
       -0.044191435 0.043154582 0.04919906 -0.025672024
000150 b4 f4 42 3d 60 14 09 3d c5 34 a2 3d b6 91 ec bc
       0.04759665 0.033466697 0.07920221 -0.028878074
000160 88 1c b1 bd 43 65 4a bc 06 11 37 3d 9d a5 07 b9
       -0.0864802 -0.012353244 0.04469397 -0.00012936299
000170 fb 30 af bd fa 38 94 3b 87 78 5f bd 7e 72 63 bd
       -0.08554264 0.0045233937 -0.054558303 -0.05552911
000180 6d 8b d9 3c d1 b2 a6 3c a8 c8 91 bd e9 3d b6 3d
       0.026555741 0.020348938 -0.0711835 0.08898527
000190 c3 26 7f 3d b7 f4 22 3d 57 8f 57 bd db 68 b0 3d
       0.062292825 0.03978416 -0.052626934 0.086137496
0001a0 a8 4f 6d 3d 2a 2f a0 bd 14 4b b2 bd cb 2b 8b bc
       0.057937294 -0.07821496 -0.08705726 -0.016988656
0001b0 d7 2d 05 3d 55 45 da 3c 8e 56 3c 3d 88 ff 1b bc
       0.03251442 0.026644388 0.045980982 -0.009521373
0001c0 27 36 ac 3d 6c 35 9d 3d 1c cd 68 3d 9d 8a 9a 3d
       0.08408766 0.07676205 0.056836233 0.0754597
0001d0 c5 91 7a 3b 7e a6 9b bd d4 27 02 3d 66 12 40 bd
       0.0038233858 -0.07600115 0.031776264 -0.046892546
0001e0 59 5c 85 ba 2c d1 f1 3b fa 90 82 3d 60 2e 9c bd
       -0.0010174616 0.0073796716 0.06375308 -0.07626033
0001f0 71 9c 68 bd 54 66 b8 b9 0a 1b be 3b 8f 8a 07 3c
       -0.05678982 -0.00035171455 0.005801563 0.008272781
000200 e4 e0 44 bd ba 11 e4 ba cf ae a9 bd 4e 0b ac 3d
       -0.048066035 -0.0017400302 -0.08285295 0.08400594
000210 90 a5 b0 3d 1f 08 fe 3c ec e1 5e bd d4 d3 f2 bb
       0.086253285 0.031009732 -0.054414675 -0.007410506
000220 f1 47 55 bd 2a 12 62 3c 58 11 8a bc ab bb 9d 3d
       -0.05207056 0.013798276 -0.016853973 0.077018104
000230 0a 95 77 3d ba 60 10 3c 54 3e 7c bd 1c 51 7a 3d
       0.06044487 0.008812124 -0.06158288 0.06111251
000240 36 85 87 3b cd 9e 8d bd ae 8d 78 bd 09 88 8a bd
       0.004135753 -0.069150545 -0.06068199 -0.06764228
000250 93 d3 94 bd 38 37 5c bd d5 3a 58 bd cd 9b a0 3d
       -0.07266917 -0.0537636 -0.05279048 0.07842217
000260 1d 3e 58 3d e9 85 48 3d 57 86 59 3d 5a 4c a6 bd
       0.05279361 0.04895583 0.053106632 -0.08120032
000270 ac d4 70 3d 7f 47 87 3d 29 88 e4 3c 81 a2 59 3c
       0.05879657 0.06605434 0.027896957 0.013283373
000280 27 58 a6 bc 11 b5 82 bd c7 e1 81 bd 5a 73 22 3d
       -0.020305706 -0.06382192 -0.06341892 0.03966079
000290 4e fa 65 3d e6 7e 91 bd 9e 61 06 3b d8 67 3b 3d
       0.056146912 -0.07104282 0.0020504962 0.04575333
0002a0 11 f8 ab 3d 58 5e 00 bd fb 4b 3b bd 24 49 b3 bd
       0.08396924 -0.031339973 -0.045726757 -0.08754185
0002b0 44 a2 96 bc 71 7f e6 3c 16 32 7e 3d 29 a1 db 3b
       -0.018387921 0.02813694 0.062059484 0.0067025614
0002c0 1f 8e a3 bd ef 4f 01 bc 27 d6 9e 3d f9 38 05 bb
       -0.07986092 -0.007892593 0.0775569 -0.0020328148
0002d0 c0 4a 8b 3d c8 7b 9c bd 6e 24 24 bd 62 23 b0 bd
       0.06801367 -0.07640797 -0.040073805 -0.08600499
0002e0 ee 5d ad 3d 8e 9e 83 bd 79 b7 3b 3d 30 8c 67 bd
       0.08465181 -0.06426726 0.04582927 -0.056530178
0002f0 3a eb 4f 3d d1 d2 24 3d 30 d4 f9 3c 87 9c 05 bd
       0.05076144 0.040240113 0.030496687 -0.03261998
000300 4d f4 a9 3d 00 10 f7 3b d6 8d b5 3d 3e aa ac 3b
       0.0829855 0.007539749 0.08864944 0.005269318
000310 fe c5 02 bd ce 4d 12 3d 02 d0 78 bd 9c 76 2b 3d
       -0.0319271 0.03571873 -0.060745247 0.04186116
000320 06 b7 17 bd b9 64 13 3d cb 25 b3 3d d5 08 c4 ba
       -0.03703978 0.03598473 0.08747443 -0.0014956245
000330 c2 a6 06 bc 7e 08 70 3d e2 0b 8a bc 1d da 11 bb
       -0.008218469 0.05860185 -0.01685137 -0.002225525
000340 6e 15 b0 3c 71 5d 52 bd 43 0f a2 bd 3c 51 f3 bc
       0.021494593 -0.051358644 -0.07913067 -0.029701822
000350 c7 41 51 bd 7e af 4c 3d 67 dc 78 bd 01 da 9b 3d
       -0.05108812 0.04997205 -0.060757067 0.0760994
000360 17 34 f6 bc 8d 24 b2 3d 94 a6 6f bd 0c 8e 80 bd
       -0.030054135 0.08698378 -0.05850847 -0.06277093
000370 b6 e6 9c 3d f6 f2 1b 3d 11 aa 9f 3d 63 9a 5a bc
       0.07661192 0.038073502 0.077961095 -0.013342473
000380 98 2f 10 bc 5d 1d 05 ba be e9 f2 3c 20 f9 00 bd
       -0.00880041 -0.0005077923 0.029652473 -0.031487584
000390 32 30 58 bd 61 60 65 bd db d2 fe bb 43 f5 f2 bc
       -0.052780338 -0.056000117 -0.007776601 -0.029657966
0003a0 0c f5 04 3d 71 1a 79 3d f4 08 9f bc 0e 56 51 bd
       0.032460257 0.060816232 -0.019413449 -0.05110746
0003b0 7b 9a 3d bd 64 1f 85 3d 04 9d 8c bd 6e 1d ed 3c
       -0.046289902 0.06500128 -0.06865886 0.028944697
0003c0 fc 8b 90 bc 77 d5 70 3d cb 5f 48 bd 3b 90 18 3c
       -0.017644875 0.058797326 -0.04891948 0.009311731
0003d0 0c fe 4c 3d a6 14 7f bd 93 0f 9d bc 91 3c cd 3b
       0.050046965 -0.06227555 -0.019172465 0.0062633236
0003e0 ea 47 6b 3b 7f ea d6 3b 95 18 c7 bc 4d 05 65 3d
       0.0035901018 0.006558716 -0.024303714 0.05591326
0003f0 88 6c 81 3d 65 ca 28 bd 9d 52 1d 3d e6 1b 9d 3d
       0.06319529 -0.041208643 0.038408864 0.07671337

sage1.lin_l.bias f4 [128]
000000 e0 76 77 38 a2 29 ad 3d fb de 10 3d ed 31 14 3d
       5.90001e-05 0.084552065 0.0353689 0.036180425
000010 c1 21 52 bc e9 5f 03 3d 82 8a 05 bd 62 e9 8f bd
       -0.01282543 0.03207389 -0.032602794 -0.07026936
000020 35 a9 a5 bd f4 88 b7 3d fb 2c 7c bd 85 00 9a 3d
       -0.08088914 0.089616686 -0.061566334 0.0751963
000030 0b c5 6a 3b 78 34 d5 3a 34 98 db 3c 42 75 14 bc
       0.0035823013 0.0016266247 0.026805975 -0.00906116
000040 1d c4 a4 3c b7 a0 75 bd ab fd 6d 3c bf ae 06 bb
       0.020113045 -0.059967723 0.014525811 -0.0020550934
000050 ea d1 a8 3d 88 70 a7 3d 6f f7 8c bd d1 e9 0a bd
       0.08243163 0.081757605 -0.06883132 -0.03391439
000060 05 f5 38 3d 8f f6 6b bc 61 8f 9d bc 4f b9 a2 bc
       0.045155544 -0.014402046 -0.019233407 -0.019863753
000070 82 d8 52 bd a1 f4 85 3d d3 23 35 bd e6 c5 8a 3d
       -0.05147601 0.065408 -0.044223618 0.067760274
000080 fc f1 69 3d 8e 4b 2f 3d 6e 86 b4 bc 16 41 aa bd
       0.05711554 0.042796664 -0.022036757 -0.083131954
000090 6b 49 88 bd 92 26 92 bd 98 73 be 3b e0 8f 87 bd
       -0.06654628 -0.07136263 0.0058121197 -0.06619239
0000a0 51 60 95 3d 71 68 89 3d 84 5f a6 bd 62 47 39 bd
       0.072937615 0.06709374 -0.08123687 -0.04523409
0000b0 01 0d b2 3b 85 83 b5 3c 58 ff 6f 3d ca a5 55 3d
       0.005433679 0.02215744 0.058593124 0.052160062
0000c0 83 d4 74 bd 42 dc 99 3d 37 5a 9b 3d eb f8 7b bd
       -0.05977298 0.07512714 0.075855665 -0.061516684
0000d0 42 3f 8b bd e4 24 0e bd f5 62 82 bd c9 83 24 bd
       -0.06799175 -0.03470315 -0.06366531 -0.040164743
0000e0 59 e3 43 3d ff c7 92 3c bc c9 29 bd 28 6a 0f 3c
       0.047824237 0.017917631 -0.041452155 0.008753337
0000f0 3b 1d 58 bd d1 c9 6f 3d d3 53 9f 3c 00 ca a7 3d
       -0.05276225 0.058542076 0.01944915 0.08192825
000100 34 1a 2c bc 7a 0a b0 bd 1b ef cc bc a3 81 e4 bc
       -0.010504294 -0.08595748 -0.025016358 -0.027893847
000110 2d 0c 0d 3c 54 73 06 3c a6 eb 3d bd 5f c3 57 3d
       0.00860886 0.008206207 -0.04636731 0.052676555
000120 28 c5 8a 3d af 36 ba bc cc c9 a2 bd 88 a9 39 3d
       0.06775886 -0.022731153 -0.07948646 0.045327693
000130 c0 77 ed bc 71 dc 84 bd bc 02 21 bd e0 c1 90 bd
       -0.028987765 -0.06487358 -0.03930925 -0.07068229
000140 af 7e aa bd 71 f0 17 bd 91 a4 66 bc f0 51 17 bd
       -0.08324944 -0.037094537 -0.014077322 -0.036943376
000150 84 32 2b 3d 75 a2 22 3d 70 93 8c 3c f7 1c 04 3b
       0.041796222 0.039705712 0.017160147 0.0020158866
000160 25 0a 6d 3d 11 ed a9 3d 18 be 95 3d 31 66 76 3c
       0.057871003 0.0829717 0.07311648 0.015039013
000170 b6 6b 66 bc b0 fa 90 bd 2c fc 55 bd 55 3f 36 3d
       -0.014063766 -0.07079065 -0.052242443 0.044493992
000180 09 b7 87 3d dd df aa 3d c7 7f 2b 3d 67 46 9f 3d
       0.06626708 0.0834348 0.041869905 0.077771
000190 f5 0b 0c bd 37 fb 34 3c 8a f6 8b 3d 9a 9f 9c 3c
       -0.03419109 0.011046222 0.06834133 0.019119073
0001a0 d8 bd 6c bb 4d ea 79 3d e4 22 51 3d f0 86 a5 3d
       -0.0036123898 0.061014462 0.051058665 0.08082378
0001b0 46 5b 0c 3d d8 8a 44 3d ea 15 75 bd 41 57 94 bd
       0.034266733 0.047983974 -0.059835352 -0.07243205
0001c0 2a 51 56 3c ed 2c 5a 3d 6d e7 de bc 75 aa a2 bd
       0.013080874 0.0532655 -0.027209962 -0.07942668
0001d0 1d 0c ef 3c b8 8e cc bc 0a 6e b4 3d 4b 09 3c bd
       0.02918058 -0.024970397 0.08810051 -0.0459073
0001e0 d3 d4 86 bd 40 9d 0b 3d 41 12 78 bc 6d 72 99 3d
       -0.06583562 0.034085512 -0.015141071 0.07492528
0001f0 2c 2d 9a 3d 09 42 ca 3c 35 20 07 bc 32 91 6d 3d
       0.07528147 0.024689691 -0.008247425 0.057999797

sage1.lin_r.weight f4 [128, 128]
000000 e9 05 7e 3c 64 f0 c6 bc a9 6e 7f 3d c7 1d 09 bc
       0.015504339 -0.024284549 0.062361393 -0.008368916
000010 8d 97 e5 3c 8e c9 78 3a 72 a9 48 3d 5d f9 02 3d
       0.028026367 0.0009490483 0.04898972 0.031976093
000020 f9 e0 42 3d cf a9 11 bc 8c d6 2a 3d 80 2b 68 3d
       0.047577832 -0.008890583 0.041708514 0.05668211
000030 5a 73 41 bd a2 ea 80 3d 22 89 1f 3c 42 a1 2d 3d
       -0.04722915 0.06294753 0.009737285 0.042390116
000040 26 9f a6 3d 61 af 61 3d 11 a5 a1 3d b6 a6 a3 3c
       0.08135824 0.055098895 0.07892812 0.019976955
000050 b8 c7 42 3d 32 0b 1e bd 27 0f 5a 3d fd 2b 74 bc
       0.047553748 -0.038584895 0.053237107 -0.014903066
000060 3d 5d 32 bd 86 63 18 3c f7 90 3c 3d ba c4 12 bb
       -0.04354595 0.009301072 0.046036687 -0.002239509
000070 6e 05 0c 3d 94 05 22 3d 1a 6b f7 3c ae 93 95 3d
       0.034184866 0.0395561 0.030202437 0.07303558
000080 01 bc b8 3c 9b 24 60 3d c4 02 f3 bc 7b 63 22 3d
       0.022550585 0.05472241 -0.029664405 0.039645653
000090 77 3a 12 bd 64 f3 90 bb fc 6f 84 bd 60 c3 6b bd
       -0.035700288 -0.0044235457 -0.06466672 -0.05755937
0000a0 ac 57 4b 3d fd 31 1d 3c ce 2a 96 bd ea 79 b5 bb
       0.049644157 0.009594438 -0.07332383 -0.005538215
0000b0 4c ee 58 bd b2 f6 f7 bc 90 9a a4 3c b7 05 b3 bd
       -0.052961633 -0.030269 0.020093232 -0.087413244
0000c0 6c 24 25 3d 31 4d ef 3c a6 c2 2e b9 9c 9d b5 bd
       0.040317938 0.029211612 -0.00016666445 -0.08867952
0000d0 70 d3 ea 3c 48 6d a8 bc 8d 6e ee 3c d6 59 ad bd
       0.028665274 -0.020559922 0.02910545 -0.084644005
0000e0 ee 40 f3 3c a6 21 11 bd 05 24 05 bb 60 97 81 bd
       0.029694047 -0.03543248 -0.0020315659 -0.063277006
0000f0 bb 8f 6e bd 03 ef 68 bd 17 f4 a6 3c 70 bb ac 3d
       -0.05824254 -0.056868564 0.020380063 0.08434188
000100 56 07 cf 3c 76 9f 44 bc 21 77 9f 3d fd 9a 97 bd
       0.025272053 -0.012000909 0.07786394 -0.074026085
000110 86 cb 17 3c a1 02 a8 bd 5e a5 c2 bb 10 f4 af bd
       0.009264832 -0.082036264 -0.0059401235 -0.08591473
000120 a2 fc c7 bb a7 20 e6 3c 53 bc 82 3d d8 db aa 3d
       -0.006103114 0.028091742 0.06383576 0.08342713
000130 9d ad 79 3d 21 30 a3 bd 76 d2 de 3c 77 6e 98 3c
       0.060956586 -0.07968164 0.027199965 0.018607361
000140 25 6b dd bc dd af 6c bd ec 0a 38 3c 2e bc 4a bd
       -0.02702863 -0.057784904 0.011233073 -0.04949587
000150 70 73 89 bd 6a 0f 9a 3d 14 ab 83 3d 32 2b 24 3d
       -0.06711471 0.07522471 0.06429115 0.040080257
000160 43 b9 ce bc 07 f3 2f bd 5a 53 9f bd ac f2 ba bb
       -0.025234824 -0.04295638 -0.0777957 -0.0057051983
000170 76 53 30 bd d1 c1 17 bd a3 d9 f9 bc 10 09 89 bd
       -0.043048345 -0.037050072 -0.030499285 -0.06691182
000180 86 25 f6 bc b9 2a 65 3d 06 44 de 3b f2 68 11 bd
       -0.03004719 0.055948947 0.0067830114 -0.035500474
000190 48 9d af 3d cf 64 3e bd 6b 91 a5 bd d3 24 85 bd
       0.08574921 -0.046482857 -0.08084377 -0.06501164
0001a0 75 ac 6d bd 65 66 20 3d 2a db 03 3d 52 ab f3 3b
       -0.058025796 0.03916015 0.032191433 0.0074361945
0001b0 34 8b 8e bc 6e 35 6b bd 52 aa 7a 3d 29 2d a0 bc
       -0.017400362 -0.057424 0.061197586 -0.019552784
0001c0 c8 ce 87 bd e3 ce 4e 3d cf 2a 91 3d 0e 1e 40 bd
       -0.06631237 0.05049027 0.07088243 -0.046903662
0001d0 62 9d 99 3c 24 01 78 3d 85 25 4a 3d 7f c3 a9 bd
       0.018751804 0.060547963 0.049352188 -0.08289241
0001e0 51 9b 38 3c df 29 9e bd a0 dd b5 bd f4 ac 5b bd
       0.011267499 -0.0772283 -0.08880162 -0.053631738
0001f0 b1 e9 98 bd e1 e6 46 3c 97 8e fb 3c 5c 17 0e 3c
       -0.07466448 0.012140007 0.03070764 0.0086725615
000200 a1 da ab bd ff 60 61 bd 6b ba 5a bd 27 9f 8c 3d
       -0.083913095 -0.055024143 -0.05340044 0.068662934
000210 ea 61 b4 3c c5 e0 56 bd 46 f2 eb bc 78 10 b7 bd
       0.022019345 -0.05246045 -0.028802048 -0.08938688
000220 f7 0f 31 bd 6e 45 6b 3d 8f 1f 27 bd 19 6a 74 3d
       -0.043228116 0.05743926 -0.04080158 0.059671495
000230 f3 db af bd 37 50 be bc 86 94 a3 3d 0f f8 26 3d
       -0.08586874 -0.023231609 0.07987313 0.04076391
000240 c5 7a 48 bd 9e 5a 93 bd 4f c3 42 3a 77 1b ad 3d
       -0.048945207 -0.07195018 0.0007429616 0.08452504
000250 bc 1f 0e bd 36 2a ff bc 75 77 3b bc 7a 5b 8a bb
       -0.034698233 -0.031148057 -0.011442055 -0.0042223306
000260 3a 63 98 bd c1 b9 20 bd 6e f4 ab bd 83 ec 6e 3b
       -0.07440801 -0.03923965 -0.08396231 0.003645689
000270 4b 82 8f bd f5 69 fd 3b a6 90 90 bd 5b 9b 95 bd
       -0.07007273 0.0077335783 -0.070588395 -0.07305022
000280 20 15 20 3d d5 29 1f bd f7 d3 88 bd 5e 79 a1 bd
       0.039082646 -0.038858254 -0.06681054 -0.07884477
000290 3e 38 92 bd 5d 9c 73 3c 02 bf e4 3c 44 79 01 3b
       -0.071396336 0.014868823 0.02792311 0.0019756118
0002a0 db 14 92 bd ca fc 12 bd 32 c5 e5 3c e2 79 91 3d
       -0.07132884 -0.03588561 0.028048132 0.071033254
0002b0 0e 79 52 3d 24 3a ab bd b2 97 a1 bd f3 7c 13 bd
       0.051384978 -0.08360699 -0.07890262 -0.036007833
0002c0 58 3d b6 3d 8c 1f e9 3c b9 4f 51 3c b3 e2 f2 3c
       0.08898419 0.028457426 0.012775355 0.029649114
0002d0 d1 1e 07 3c 3f 20 80 bd de 1a 40 bc e8 39 9f 3d
       0.008247093 -0.062561505 -0.011725156 0.077747166
0002e0 55 17 6c bd 77 9f a5 bd 7d 38 8c 3d fa 2f 41 bd
       -0.05763944 -0.08087056 0.06846712 -0.047164895
0002f0 42 84 ac bd b1 fa a2 bd 95 3c 8d 3d 27 2c 3c bd
       -0.08423664 -0.07957972 0.06896321 -0.045940544
000300 88 64 48 3c 32 b3 ec bc ba bb 94 3d 9a c6 94 bd
       0.012231 -0.02889404 0.072623685 -0.07264443
000310 3a 29 92 bc 7d 7d 4b bc f7 be 1a 3b 95 b4 62 3c
       -0.017841924 -0.012420055 0.002361236 0.013836999
000320 1d bf c3 bc 8c 5b 6a bd 4a f1 89 bd 70 db 27 bd
       -0.02389484 -0.057216212 -0.06735475 -0.040980756
000330 3b 2e 8c 3c ee ab 9b 3d 33 f8 0b 3d 54 8b b5 3d
       0.017111888 0.07601152 0.034172248 0.08864465
000340 c2 42 85 3d 17 67 7a bd 7a 6d e9 bb c0 32 9e bd
       0.06506874 -0.06113347 -0.0071236463 -0.077245235
000350 e6 1e b9 3d 51 04 71 bd 0e 70 c6 3b ac 91 7e 3d
       0.090390965 -0.058842007 0.0060558384 0.062150642
000360 3f 14 ec bc b3 05 8d bd ae 7f ab bd e1 52 b2 bc
       -0.028818248 -0.06885853 -0.08373962 -0.021768035
000370 25 2b b5 bc a7 cd 6f bd 32 fc 54 ba f0 2c 19 3d
       -0.0221153 -0.058545735 -0.0008124738 0.03739637
000380 cf 38 1a 3d ff f2 a3 bd 70 4b 98 3c ee 92 a3 bd
       0.037651833 -0.08005332 0.018590659 -0.07987009
000390 59 c4 87 3d 51 29 2b 3a 5b d6 8c 3d 80 ff 68 3c
       0.06629247 0.0006529289 0.068768226 0.014221072
0003a0 30 12 33 3d e8 c8 5a bd e3 6d 6d bc 4d 07 c3 ba
       0.043718517 -0.053414255 -0.014491531 -0.0014879495
0003b0 15 db 07 3d 81 70 2b bd b6 21 d7 bc 2d 84 30 bd
       0.033167917 -0.04185534 -0.026261192 -0.043094803
0003c0 4b 15 33 3c 18 38 52 3b a6 94 ba ba 91 24 80 bd
       0.01093037 0.0032076892 -0.0014234975 -0.062569745
0003d0 3e 33 ab bd f0 13 f3 bc 25 b8 20 bc 1d 96 87 3d
       -0.08359383 -0.029672593 -0.0098095285 0.06620429
0003e0 f8 72 02 3c 15 a9 71 3d ef 49 f6 3c 6e d9 a1 bb
       0.007961981 0.05899914 0.030064551 -0.0049392497
0003f0 1f ca 43 bd ac 62 9a 3c e0 ae 7f 3c 78 04 f9 bc
       -0.04780018 0.018845879 0.015605658 -0.030397639

sagpool.gnn.lin_rel.weight f4 [1, 128]
000000 33 0e ce bc bd 7c 34 3d d9 f3 b1 3d e4 69 c4 ba
       -0.025153255 0.044064272 0.086890884 -0.0014985171
000010 5b e4 10 3d f3 c7 7b bc 29 52 75 bd 43 9a f6 3c
       0.035374027 -0.015367496 -0.059892807 0.030102855
000020 b0 12 88 3d 38 db 25 3d fa c0 a5 bd b2 97 5d 3d
       0.06644189 0.040492266 -0.08093448 0.054099746
000030 60 9a 00 bb 7b 9f 24 3d 0b bc 9e bc fc 00 e8 3b
       -0.0019623265 0.040191155 -0.019376775 0.0070801955
000040 18 4d 4a 3d aa df 7a bd c2 fa e5 bc 82 dd c0 3c
       0.04938993 -0.06124846 -0.028073672 0.023543123
000050 f7 93 97 bd bb ac 68 bc e0 76 9c bd aa c8 99 3d
       -0.07401269 -0.014201338 -0.07639861 0.07508977
000060 06 fa b3 3c 7f be 86 bd f1 bd e0 3c 6c bc ae bd
       0.021969806 -0.06579303 0.027434321 -0.08532032
000070 82 14 59 bd ba cf 09 bc c0 0f 0c bd be f4 07 3d
       -0.052998073 -0.008411342 -0.034194708 0.03319239
000080 44 d6 64 3d ea d1 59 bc 40 41 48 3d 01 6c c1 3a
       0.055868402 -0.013294676 0.048890352 0.0014756919
000090 f7 57 a1 3d 0e f7 2d 3d 44 cd a1 3d a2 e1 33 bc
       0.07878106 0.042471938 0.079004794 -0.010979088
0000a0 8f 8a cd bc 72 e5 ac bd a3 4c bd bc cd 53 91 3d
       -0.025090484 -0.08442201 -0.023107832 0.07096062
0000b0 2f bd 1e 3d 94 22 57 bd 2d 33 1b 3d 13 e2 92 3d
       0.03875464 -0.05252321 0.037890602 0.071720265
0000c0 66 ea c7 3c f2 38 53 3d da 83 ca 3c 9e bf 9d bb
       0.024403762 0.05156798 0.024721075 -0.0048141023
0000d0 35 01 cf bb a5 71 aa ba e0 b5 c2 3c 17 fa 76 bd
       -0.0063172826 -0.0013003839 0.023768365 -0.060297098
0000e0 7f 5a 3e 3d 90 e8 30 3c 2b 3c 07 3d 97 91 5d bd
       0.046473023 0.010797635 0.033016365 -0.054093923
0000f0 cc 88 ac 3d 0e d3 1c 3d 15 55 89 3d 26 14 af bd
       0.084245294 0.038287215 0.06705681 -0.08548765
000100 84 14 f2 3c be a1 8f 3d 99 85 e1 3b 90 30 d6 3c
       0.029550798 0.07013272 0.006882381 0.026146203
000110 12 b0 e2 3b 8d 5c 0a bd ff 4d 02 3d 4a f8 15 bd
       0.006917962 -0.03377967 0.031812664 -0.03661374
000120 2b 0a 1d 3d 08 34 82 3c fd 0c f0 3c b9 3a 4a 3d
       0.038339775 0.015893951 0.029303068 0.04937241
000130 e7 82 9c bd 01 48 97 3d 15 b8 45 3d 52 3d 18 bd
       -0.07642155 0.073867805 0.048271257 -0.037167855
000140 33 14 29 3c d6 73 9d bc 2a 34 e8 3c 7e 0e a6 3d
       0.010319757 -0.019220274 0.028345186 0.08108233
000150 d3 00 52 3c 14 03 a1 bd a1 7a 89 bd 8c 5d c0 3c
       0.012817579 -0.07861915 -0.06712843 0.023482107
000160 a2 b8 29 bd a2 59 b2 3d b5 64 a6 bc cb 4c a9 bd
       -0.041435845 0.08708502 -0.020311693 -0.082666
000170 bb 02 99 3d 3b 8f 2e bd e9 36 8e bd a3 00 e0 bb
       0.07471224 -0.042617064 -0.06944067 -0.0068360134
000180 a7 1d 71 3b 0d c3 6f bd 2f 64 bf bc 9c 5b 9e 3d
       0.0036791356 -0.058535624 -0.023363201 0.07732317
000190 87 8c e3 3c 6c f4 fa bc 3d 5c 51 3d e6 0a 34 bd
       0.02777697 -0.030634128 0.051113356 -0.043955706
0001a0 f2 1b 6d bb 5c ea 63 3d 07 89 49 bd a0 99 9c 3d
       -0.0036179987 0.055643424 -0.049202945 0.07646489
0001b0 27 32 61 bd ff 35 a9 bd 2a 80 84 3d c1 05 7a 3d
       -0.05497947 -0.08262252 0.06469758 0.061040644
0001c0 4d 61 97 bc a7 f8 96 bd 29 58 2a 3d ef d3 66 3d
       -0.018479014 -0.073716454 0.041587982 0.05635446
0001d0 77 02 5c 3d d9 62 82 bd ad 3e ed bc d0 3b 21 3d
       0.05371329 -0.0636651 -0.02896055 0.039363682
0001e0 3d 76 69 bd 76 06 0f bd ed b9 12 bd 07 34 03 bd
       -0.056997526 -0.03491827 -0.035821844 -0.03203204
0001f0 39 90 26 bd 4d 3a 7f 3c 15 38 1e 3d 0d bf 16 3d
       -0.040664885 0.015577865 0.038627703 0.036803294

sagpool.gnn.lin_root.weight f4 [1, 128]
000000 56 20 65 3d 9f 70 40 bd 1b ab 02 bb fc 7f 88 bd
       0.05593904 -0.046982404 -0.0019938413 -0.06665036
000010 8b 49 b2 bd 4f 28 3d 3c 72 c0 8b 3d 85 2d a9 bd
       -0.087054335 0.011545255 0.068238154 -0.08260635
000020 da c6 44 3a 5b c3 2e bd 8f 5a dd bc 8a 97 b0 3d
       0.0007506438 -0.042666774 -0.02702072 0.08622654
000030 b3 ad 8c 3d 51 6a 04 3d d6 a9 00 3b bd f2 c8 b7
       0.06869068 0.032327954 0.001963248 -2.3954892e-05
000040 03 e5 b1 bd 35 e8 85 bd 99 7f 82 bc 1d 3f ad 3d
       -0.08686259 -0.065384306 -0.015929984 0.084593035
000050 26 69 67 3d 53 75 57 3d d9 99 b3 3c 05 ac a9 3d
       0.05649676 0.052602123 0.021923946 0.08284763
000060 60 8f 4d bd 96 27 5f bc 69 03 1e bc b9 6b 60 bd
       -0.05018556 -0.013620278 -0.009644368 -0.054790232
000070 92 b0 8e bd 4f 2e aa bb 01 ff 9a bd 7b 3e 8a bd
       -0.06967272 -0.0051935087 -0.075681694 -0.067501985
000080 62 31 6d 3c f8 a3 30 bc 54 18 bb 3c a0 c3 12 3d
       0.014477106 -0.010781281 0.022838749 0.035831094
000090 d1 72 9e 3d 3e 6d 19 3d a5 43 4a bd 3d 5a b3 3d
       0.07736743 0.037457697 -0.049380917 0.08757446
0000a0 c0 c8 a4 3d bf fc 31 3d ac e1 ca 3c cc c8 ed 3c
       0.080461025 0.043453928 0.024765812 0.029026411
0000b0 c8 93 2c 3d 37 ed 82 3c 2d ab ba 3c 0a f6 dc bc
       0.042133123 0.015982253 0.022786701 -0.02697279
0000c0 6d 7c d2 3c 8a 71 74 bd 16 58 85 3d b2 60 9c 3b
       0.025694096 -0.05967859 0.06510942 0.004772269
0000d0 04 70 70 bc 74 c3 80 bd ff 5b 2c 3d 13 d8 be 3c
       -0.014675144 -0.0628728 0.04207992 0.023296392
0000e0 fb 73 c9 3b 2b 88 d5 bc fc f7 40 bd 07 c3 1c 3d
       0.006147859 -0.026065907 -0.047111496 0.03827193
0000f0 1a b5 fb 3b 18 36 71 bd a9 42 b2 3d a8 f8 9c bd
       0.007681501 -0.05888948 0.08704121 -0.07664615
000100 b9 28 3f 3c 92 33 78 bd 7f cb 21 bd 6d bb 6e bd
       0.011667424 -0.060596056 -0.03950071 -0.058284212
000110 84 38 8b bd dc 72 85 bd ef e2 35 bc fb 4a 5f 3d
       -0.06797889 -0.06516048 -0.0111014685 0.054514866
000120 7a 42 78 3d e7 ee 16 3d 81 20 7f 3d 44 26 82 bd
       0.060610272 0.03684893 0.062286858 -0.06354955
000130 d2 1a 06 bd db 7a ff 3b a7 b7 9f bc 35 45 0b 3d
       -0.03274042 0.007796628 -0.019496752 0.034001548
000140 74 e5 9a bd 7e b5 9b bd 05 9e dc 3b b6 9d b4 3d
       -0.07563296 -0.07602976 0.0067327046 0.088191435
000150 86 95 1a bd 2b 6c 90 bc 88 33 5d 3d 8d d6 86 3d
       -0.037740253 -0.017629704 0.054004222 0.06583891
000160 3e 97 92 3d 18 fa 8c 3d 4d f1 af bb 0c 48 88 3d
       0.071577534 0.06883639 -0.0053693415 0.06654367
000170 0c 8d 58 3d 83 a2 0f bd 60 55 26 3d 09 ac b0 bd
       0.052868888 -0.035067093 0.040608764 -0.08626563
000180 aa d2 a0 3d 44 ef 34 3d be 6b 97 3d 02 71 92 bd
       0.07852681 0.044173494 0.07393597 -0.07150461
000190 37 db f5 3b 45 28 7c 3d be 6a e7 bc 1a 5c 0f 3d
       0.007502939 0.06156184 -0.02824914 0.034999944
0001a0 6b 03 a8 bd 62 d3 c0 3c a1 9a 73 bd e3 cb 06 bd
       -0.08203777 0.023538295 -0.059473637 -0.032909285
0001b0 23 b5 51 bd 15 6c 9b bc 33 f5 2e bd 81 86 8a bd
       -0.051198136 -0.018972436 -0.04271431 -0.06763936
0001c0 93 c9 f5 bb ae c4 65 3d eb be 34 bd e0 7e cf bc
       -0.007500836 0.05609577 -0.044127386 -0.025329053
0001d0 d0 0b 92 3d dc 94 25 3d b7 76 ec 3c 1b 98 b2 bd
       0.07131159 0.040425166 0.028865201 -0.08720418
0001e0 a7 48 89 bd b9 59 1e 3d 5c d6 50 3d ae e2 37 bd
       -0.067033105 0.038659785 0.05098568 -0.044893913
0001f0 5c 7c 8d bc 85 36 7c bc 4a 80 28 3d 01 8e 16 bb
       -0.017271213 -0.015393858 0.04113797 -0.0022972825

lin.weight f4 [64, 128]
000000 8c 11 b2 3b f4 5d f4 bc 19 2a ab bd 22 fa cb bc
       0.0054342207 -0.029829957 -0.08357639 -0.024899546
000010 01 3a 85 3c 43 03 8b bd c5 d5 8f 3d 95 e4 03 bd
       0.01626301 -0.067877315 0.07023195 -0.032200415
000020 85 87 cb bc 12 75 4b 3a 3b 3b 9e bd f7 36 03 3d
       -0.024844894 0.000776128 -0.07726141 0.03203484
000030 6a 4a c8 bb 54 14 b5 bd 6f d3 ad bc 94 7f d4 3c
       -0.0061123865 -0.08841768 -0.021218983 0.02593974
000040 b5 18 00 3d 1e e7 49 bd e0 bd 7b b9 d0 5b 93 bd
       0.031273562 -0.049292676 -0.0002400796 -0.07195246
000050 e9 af 7e bd 4a fd fb bc 75 61 ad 3a 9c 20 98 3d
       -0.06217948 -0.030760426 0.0013227897 0.07428095
000060 31 cb aa bc ba b7 a4 3d 27 7a ce bc 91 79 e8 3a
       -0.020848842 0.080428556 -0.025204731 0.0017736425
000070 34 26 a6 bc 26 9f 13 bd 08 df 3e bd 59 4e 3d 3b
       -0.020281889 -0.036040448 -0.046599418 0.002888581
000080 06 6d 93 bd 96 63 d2 b9 19 cb 98 bd e7 da c3 bc
       -0.07198529 -0.0004012852 -0.07460613 -0.023908092
000090 f7 19 d3 bc 5c 4a 0a 3d 72 75 96 bd e9 d9 7e 3d
       -0.025769217 0.03376232 -0.0734662 0.062219534
0000a0 64 2e b7 3c 0f b6 f4 3c 3a ae 1c 3c de 81 3f bd
       0.022360988 0.029871969 0.009563023 -0.04675471
0000b0 17 1c 8b ba fd 53 04 3d 66 6e ad 3d 2a 0e 1b 3d
       -0.001061323 0.03230666 0.084683225 0.037855305
0000c0 fe 92 10 3d 51 93 46 bd 58 40 6b bd 26 c3 22 3d
       0.035296433 -0.048480336 -0.05743441 0.03973689
0000d0 1f d4 4d bc 16 9b a5 bd 35 5f 87 3d f0 78 c0 3c
       -0.012562781 -0.08086221 0.06609956 0.023495167
0000e0 21 fb 0b 3d 29 81 10 bd 16 4d 75 3d fb d8 b4 3b
       0.034175042 -0.035279427 0.059887968 0.00551903
0000f0 3d ae aa bd 4a e7 d5 3c 19 94 bd 3c ec b3 d1 3c
       -0.083340146 0.026111264 0.023141908 0.025598489
000100 fe 03 8f 3d 6e 14 8d bd 7c 05 47 bd d4 24 0c 3d
       0.06983183 -0.06888662 -0.048589215 0.03421481
000110 0a d4 2e 3d 9b 6b 59 bd da c1 ad 3d e8 3d a7 bd
       0.042682685 -0.053081136 0.0848424 -0.081661046
000120 37 6c 17 bd 66 5d 88 bd 09 81 89 3d bf 62 de bc
       -0.036968436 -0.06658439 0.06714065 -0.027146695
000130 70 ba 59 bd 46 ee 5e 3c 74 df 7a 3d 95 a0 c2 3a
       -0.053156316 0.0136066135 0.061248258 0.0014848883
000140 e9 50 13 bd 00 10 94 bd 7b 5a 26 3d 85 0c 52 3d
       -0.035965834 -0.07229614 0.040613633 0.05128147
000150 2b 6a 28 bd ef c4 48 bd 7a 8f 97 3d 5c 07 a3 3d
       -0.041116875 -0.049015936 0.07400413 0.07960388
000160 3a a5 a9 bd 1f 3e b4 3d d7 6f 6b 3d 02 ad 33 bd
       -0.082834676 0.08800911 0.057479706 -0.043866165
000170 05 32 03 bd 7f 37 86 3d 48 08 b5 bb 0c 40 32 bd
       -0.032030124 0.06553554 -0.005524669 -0.04351811
000180 17 4f 73 bd b6 ac 8e bd b4 30 85 bd 80 df 9c bc
       -0.059401598 -0.06966536 -0.0650343 -0.019149542
000190 09 7f 08 bd 26 af 0d 3c bd c2 01 3a 7e e7 30 3d
       -0.033324275 0.008647716 0.0004949978 0.04318952
0001a0 bd d7 93 3c a4 01 a3 bd 43 20 08 3d 1a 17 00 bd
       0.018047208 -0.07959297 0.033233892 -0.03127203
0001b0 38 16 ba 3b 46 dd b3 bc 56 17 82 bd 9e 6d 02 bd
       0.005678918 -0.021956097 -0.06352107 -0.03184282
0001c0 12 8f b6 bb d9 9c 7f 39 af 26 ac bd 76 c6 a3 bd
       -0.0055712545 0.00024377125 -0.08405816 -0.07996838
0001d0 49 a4 a9 3d 84 28 dd bc d4 81 46 bd 93 66 a5 bd
       0.08283288 -0.026996858 -0.048463657 -0.08076205
0001e0 5f ba 3f bd ce 2c 29 bd 97 49 b9 3d 2d 58 79 3d
       -0.046808597 -0.041302495 0.09047239 0.060875107
0001f0 6f a0 a4 ba 6a f6 d3 bb 3f c3 6c 3d 5e 8f 41 3d
       -0.001256002 -0.006468584 0.05780339 0.047255866
000200 a6 e2 0e 3d 5d 11 97 bd 79 79 cf 3c ff c2 b0 bd
       0.034884118 -0.07376359 0.025326477 -0.086309426
000210 eb 0a 83 ba e4 f9 aa 3d d8 24 80 3d ae 3f 8a 3d
       -0.0009997761 0.08348444 0.062570274 0.06750427
000220 a0 12 8f bc a8 f2 50 bd a6 31 42 bc 33 09 a2 bd
       -0.017464936 -0.051012665 -0.011852657 -0.07911911
000230 50 ed 9f 3d 69 d5 12 bd 82 3f 21 3d b7 b9 a2 bb
       0.07808936 -0.035848055 0.039367206 -0.0049659866
000240 ab 4a 00 3d 4d 58 2c bd 12 92 19 bd ce cc 4a 3d
       0.03132121 -0.042076398 -0.03749282 0.049511723
000250 27 21 63 3d 1f d1 47 bd 5d 85 d7 bc 98 3f 41 bd
       0.05545154 -0.048783418 -0.02630871 -0.04717979
000260 65 2a 65 3d b3 cc a9 bd 44 2a a0 3d 84 a0 00 3b
       0.055948634 -0.082909964 0.078205615 0.0019626925
000270 e6 1c fa bc 56 ad 16 bd 52 e9 97 3d ae e7 d5 3c
       -0.030531358 -0.0367864 0.07417549 0.02611145
000280 33 a9 5d 3d 70 a7 89 bc 7d be 22 3d 87 c3 b1 bd
       0.05411644 -0.016803473 0.039732445 -0.08679872
000290 96 60 90 bd 15 bf 88 bd f2 f8 5f bb c4 3b 0e bc
       -0.07049672 -0.06677071 -0.0034175483 -0.008681241
0002a0 62 7c 8e 3d 42 d0 6c 3d ad 62 ba 3d ef 25 a9 3c
       0.06957318 0.057815798 0.09100852 0.020647971
0002b0 39 2c ee bc 9c 37 a9 bd f8 fe 4d 3d 01 37 b4 bd
       -0.029073821 -0.0826256 0.050291985 -0.08799554
0002c0 04 1d 03 bd ac 86 19 3d dd b0 b3 3c 69 b3 1a 3d
       -0.032010093 0.03748195 0.02193492 0.037768755
0002d0 e5 04 53 3b 11 05 91 bd 99 70 44 3d 37 0c 21 bd
       0.0032198962 -0.070810445 0.047958944 -0.03931829
0002e0 57 f0 b3 bd d1 40 51 bc 8b c2 9b 3d 42 9b 81 3c
       -0.087860756 -0.012771801 0.076054655 0.015821103
0002f0 01 d1 78 bb 11 0d 1e bd 4b ff ad 3d 3f 92 c1 bc
       -0.0037966373 -0.03858668 0.08495959 -0.023629306
000300 34 78 ad 3d 2f 95 de bc 0b 7a 7d bc f1 c8 30 3d
       0.084701926 -0.027170746 -0.015470992 0.043160383
000310 08 75 12 3d ef 9b 87 3d cf d5 3f 3d d9 17 83 3d
       0.03575614 0.06621539 0.046834763 0.06401033
000320 1e dd a5 3d 38 a0 2b 3b 73 21 b6 3d 78 bc 04 bd
       0.080988154 0.0026188027 0.08893099 -0.0324063
000330 d8 60 3c bc 12 2d c6 3c 74 9d 8d 3d 91 0d a2 3d
       -0.011497699 0.024191413 0.069147974 0.07912744
000340 86 d5 89 bd cc 4e 44 3d 60 e7 d9 bc a3 54 b4 3d
       -0.067301795 0.04792671 -0.026599586 0.08805206
000350 3f ab 65 3d c9 75 54 3d 5f cc 26 3d 20 25 bf 3c
       0.056071516 0.05187014 0.040722247 0.023333132
000360 06 64 79 3d c8 26 88 bd e5 77 9a 3d 5c 7a 24 bd
       0.060886405 -0.06648022 0.07542399 -0.040155753
000370 01 9b 02 3c 0f 75 59 bd 57 c1 ad bd fd 8e 8c bc
       0.007971526 -0.05309015 -0.08484142 -0.017158026
000380 5b 45 90 3c a0 9b b6 3d ac f2 e1 bc 7b b7 59 bd
       0.017611196 0.08916402 -0.027581535 -0.053153496
000390 8c 6a 50 bd 7f dc a3 3c 19 b7 92 3c af 08 a1 bc
       -0.05088286 0.020002602 0.017909573 -0.019657461
0003a0 57 83 9c bd 29 5c 5a bd ee e1 9e 3d d5 de a6 bd
       -0.076422386 -0.053310547 0.077579364 -0.081479706
0003b0 54 05 ae 3b e5 65 af 3d 87 fb 82 3d 91 a6 e6 3c
       0.0053106938 0.08564357 0.06395631 0.028155597
0003c0 31 67 80 bc ea 2b 74 bd 3e d3 92 3d 7f 22 9d bd
       -0.015674205 -0.059612192 0.071691975 -0.07672595
0003d0 e4 e7 e2 bc 69 90 d6 b9 ec ad 8e 3d 54 78 18 bc
       -0.027698465 -0.00040924855 0.06966767 -0.009306032
0003e0 27 8c c4 3c e8 d8 75 3b c3 f6 93 bc cf b8 12 bd
       0.023992611 0.003751332 -0.018062001 -0.03582078
0003f0 d2 e0 6f 3d ab 92 38 3d 20 58 bb bd ec a8 a3 3d
       0.058564015 0.04506175 -0.09147668 0.07991204
