All_Benchmarking/P00644/Results/fold_2/best_model.pth (torch, 192098 bytes, 32 tensors)

gat1.att_src f4 [1, 4, 32]
-0.15000238 -0.32293475 -0.31334764 0.353392 -0.13878563 0.20735146 -0.2880969 -0.36389217
0.33724976 -0.07040135 -0.018123489 0.101304024 -0.11254982 -0.2387508 0.23847145 -0.36453122
0.12748317 -0.07223836 -0.051027574 -0.014945657 -0.25127912 -0.29426703 0.25951692 0.15396969
0.35937765 0.020419363 -0.272421 -0.16081265 0.21586646 0.20595454 0.22087508 -0.2227018
0.2345595 0.01329053 0.077082604 -0.32458958 0.15252653 0.14004473 0.15802519 -0.265863
0.1294504 0.035811827 0.24431327 -0.0130648445 0.28213638 -0.100112274 -0.20808902 0.12183976
0.3733868 0.039437305 0.3026437 -0.06303386 0.29653546 0.22842741 0.24417885 0.39313748
0.07474379 -0.40339583 0.31576842 -0.2435746 0.037720095 0.37590134 0.2914377 0.22755742
-0.04429906 0.10637598 -0.32537568 0.3560261 0.07698496 0.227942 0.19111398 -0.3075437
0.32384965 0.15498248 0.118332036 -0.16990398 -0.08301455 -0.32710987 -0.26836908 0.26061645
-0.28020573 0.38507634 -0.40710992 -0.10916681 0.07919439 -0.25095946 0.31146923 -0.22985248
0.24971867 0.36917517 -0.25337258 -0.0042273994 -0.39440095 -0.027585547 -0.013029509 0.38568142
-0.050442867 0.2591175 0.15658584 -0.13272382 -0.31408754 -0.31413144 -0.23966551 -0.027496671
-0.23111136 -0.2923648 -0.018067785 0.1970468 0.19475007 -0.07989701 0.07764171 0.30156443
0.3889427 0.010076314 0.36794424 0.12694344 -0.3238353 -0.3581377 0.4085579 0.27641645
0.3215445 0.2961498 0.046281613 0.19807787 -0.09946527 0.16375573 0.27314913 0.24271265
00000000: 399a 19be b457 a5be 1a6f a0be ccef b43e
00000010: d21d 0ebe f153 543e 7081 93be 1350 babe
00000020: 00ac ac3e 952e 90bd b677 94bc 7c78 cf3d
00000030: 8580 e6bd 177b 74be dc31 743e d6a3 babe
00000040: f38a 023e b5f1 93bd 4a02 51bd a1de 74bc
00000050: a8a7 80be 2baa 96be 67df 843e 3baa 1d3e
00000060: 5900 b83e 8246 a73c c47a 8bbe 12ac 24be
00000070: 190c 5d3e bfe5 523e 142d 623e f10b 64be
00000080: 5e30 703e 86c0 593c 7cdd 9d3d 9b30 a6be
00000090: ea2f 1c3e e367 0f3e 5bd1 213e 321f 88be
000000a0: a58e 043e 6caf 123d 422d 7a3e ee0d 56bc
000000b0: 2e74 903e aa07 cdbd 4a15 55be 2087 f93d
000000c0: 8e2c bf3e 0389 213d 1df4 9a3e e517 81bd
000000d0: 7fd3 973e e0e8 693e 050a 7a3e 5149 c93e
000000e0: 4613 993d e689 cebe 66ac a13e 9f6b 79be
000000f0: 6380 1a3d 2476 c03e 5237 953e d004 693e
00000100: ee72 35bd a6db d93d a497 a6be 0e49 b63e
00000110: 4aaa 9d3d a169 693e 62b3 433e 5e76 9dbe
00000120: 9fcf a53e bab3 1e3e 1158 f23d 4ffb 2dbe
00000130: 8803 aabd f27a a7be ac67 89be 856f 853e
00000140: 2077 8fbe ba28 c53e b670 d0be d992 dfbd
00000150: ab30 a23d c27d 80be e578 9f3e 735e 6bbe
00000160: 40b6 7f3e 8704 bd3e 0dba 81be ff85 8abb
00000170: ecee c9be 16fb e1bc b979 55bc 0978 c53e
00000180: 2e9d 4ebd 0dab 843e 0a58 203e c1e8 07be
00000190: 15d0 a0be d6d5 a0be e06a 75be b340 e1bc
000001a0: 75a8 6cbe d7b0 95be e402 94bc a3c6 493e
000001b0: 906c 473e 0ba1 a3bd 9e02 9f3d a766 9a3e
000001c0: 7f23 c73e 2017 253c 3063 bc3e 76fd 013e
000001d0: becd a5be d35d b7be 802e d13e 7586 8d3e
000001e0: 7ba1 a43e f2a0 973e ca91 3d3d edd4 4a3e
000001f0: 73b4 cbbd 95af 273e 34da 8b3e aa89 783e

gat1.att_dst f4 [1, 4, 32]
-0.08958892 0.12048246 0.3969655 -0.0803396 -0.2586327 0.35323623 0.20759232 0.39154157
-0.15377162 0.09420179 -0.2578344 -0.3130826 -0.068380155 -0.26027477 0.36140543 0.08970589
-0.1235366 0.345794 0.0009034049 -0.08248797 0.16513908 0.21336956 -0.3659325 -0.3657219
-0.25346413 -0.27600285 -0.22311816 0.26354405 -0.382975 -0.20286451 -0.08080497 0.014112603
0.037356317 0.21499711 0.22506072 -0.18216307 -0.24361382 -0.27105203 0.13551919 0.16256168
-0.110287234 -0.30297992 0.34330726 0.080017276 -0.21632 0.32328483 0.38146356 -0.0186819
-0.37280327 -0.2665474 0.2505534 0.15350342 -0.26261118 -0.06671606 -0.10678942 0.1164209
-0.1767403 -0.37302068 -0.10228665 -0.3240672 -0.26896694 -0.3060019 -0.10065113 -0.3972999
0.24969624 0.02393466 0.20629984 0.37248808 0.18428867 0.37255692 -0.2984927 0.039340787
0.39713725 0.17517966 0.16601932 0.30973166 -0.28311276 -0.29597107 0.28155446 0.06909818
0.2309142 0.28531903 0.3619916 -0.14663774 -0.18376684 0.07400149 0.3983848 0.10355973
-0.15983693 0.11794317 -0.19379012 0.090408154 0.042336874 -0.35388386 -0.10942441 -0.3176096
-0.34724757 0.1196661 0.34817788 -0.119398415 -0.001265801 0.3166099 -0.2572454 -0.31094342
-0.24584909 0.29197973 -0.36021343 -0.16512984 0.31962496 -0.39302307 -0.018508684 -0.11954079
-0.27606595 -0.3373299 -0.28324407 -0.1301291 0.1213694 -0.014402018 0.109056346 -0.3469834
0.30451322 -0.16874178 -0.33813316 -0.27498105 0.088571385 0.3188969 0.014667175 0.051968798
00000000: 657a b7bd 82bf f63d 103f cb3e 1789 a4bd
00000010: 816b 84be 61db b43e 1593 543e 2378 c83e
00000020: 4f76 1dbe deec c03d df02 84be 5d4c a0be
00000030: e50a 8cbd bc42 85be 220a b93e b9b7 b73d
00000040: c200 fdbd e90b b13e 7ad2 6c3a 74ef a8bd
00000050: 381a 293e 8d7d 5a3e 815b bbbe e73f bbbe
00000060: 0dc6 81be 3f50 8dbe 1679 64be 3fef 863e
00000070: 4d15 c4be b7bb 4fbe 137d a5bd 8c38 673c
00000080: f002 193d 3428 5c3e 5176 663e f588 3abe
00000090: e775 79be 55c7 8abe 8bc5 0a3e 9276 263e
000000a0: 46de e1bd 2f20 9bbe f8c5 af3e 19e0 a33d
000000b0: fd82 5dbe 9785 a53e 314f c33e c90a 99bc
000000c0: 12e0 bebe e778 88be 8948 803e 0030 1d3e
000000d0: f974 86be 6ea2 88bd 69b4 dabd 156e ee3d
000000e0: 69fb 34be 91fc bebe aa7b d1bd 23ec a5be
000000f0: 09b6 89be 48ac 9cbe 2e22 cebd e46a cbbe
00000100: 5fb0 7f3e 9f12 c43c 4440 533e c2b6 be3e
00000110: 2bb6 3c3e c8bf be3e 09d4 98be ce23 213d
00000120: 9355 cb3e 4c62 333e f800 2a3e 2695 9e3e
00000130: 28f4 90be 8589 97be e827 903e 5983 8d3d
00000140: c674 6c3e 5615 923e f756 b93e 3428 16be
00000150: 602d 3cbe 188e 973d 18f9 cb3e 2017 d43d
00000160: 4bac 23be 308c f13d eb70 46be e927 b93d
00000170: 6e69 2d3d 4430 b5be e819 e0bd ba9d a2be
00000180: 6fca b1be 8013 f53d 5f44 b23e 2887 f4bd
00000190: 3ce9 a5ba b11a a23e abb5 83be fa33 9fbe
000001a0: ddbf 7bbe 5e7e 953e e56d b8be cc17 29be
000001b0: e2a5 a33e 523a c9be 869f 97bc cdd1 f4bd
000001c0: 8458 8dbe 81b6 acbe 5e05 91be 9040 05be
000001d0: 8590 f83d 71f6 6bbc ef58 df3d cfa7 b1be
000001e0: 28e9 9b3e a5ca 2cbe ca1f adbe 51ca 8cbe
000001f0: ea64 b53d 7446 a33e 974e 703c 3cdd 543d

gat1.bias f4 [128]
-0.00047315223 -0.00091923843 -0.00014822303 0.00024124805 -0.00082218007 -0.00055579026 -0.00069492793 -0.00022793315
-0.00078837643 0.00044310192 -0.00039979 -0.00024450067 -0.0006963195 0.0003946584 -0.00051138765 0.00010495251
-0.00039344857 -0.0005936121 -0.0014449509 0.0007051625 -0.0006115209 0.00076866127 -0.00027486595 -0.0007073162
-0.00016807826 0.0007351809 0.0010048918 0.0006549958 1.4743572e-05 -0.0003276374 -0.0003622513 0.00089437835
0.0013129866 -0.00057632435 -0.00021426856 0.00081532385 -0.0005596852 -7.757269e-05 -0.00053218054 -0.00073626643
0.0003366551 0.0011214252 0.00030208565 0.00048392266 -0.0003640059 0.0008404845 0.0013491065 -0.0009040264
-1.5962607e-05 -0.00076934777 0.00088206 0.000997044 -0.00023388075 0.0002024994 -0.00094505725 0.0008136726
0.00047277394 -0.00054176955 0.0010384741 0.00034396694 0.0008720664 0.00012813706 0.0006089591 -0.0008559962
-0.0010242226 -0.0009949673 -0.0006037289 -0.0008249552 0.0007256854 -0.0007202929 0.00024250119 0.000612442
-0.00023459477 0.00035531475 -8.040483e-05 -6.73078e-05 -0.0010900147 -0.00013946545 -0.0010376297 -0.00017301006
-0.000490945 0.000107082305 -0.0005829834 2.1775422e-05 0.00040136688 0.0009835432 0.00028277247 0.0010994396
-0.00012957686 -7.503386e-05 0.00061147695 -0.00012372821 -0.00015994537 -0.00065863784 -1.487638e-06 -0.00038762996
-0.00037350747 0.00027143265 -0.0007540519 -0.0006916222 -0.00063025503 -0.00029346114 0.00046092982 3.7772024e-05
-0.00086390367 0.000473707 -0.00080760644 0.00047372008 0.00019524698 -0.0006173395 0.0007400731 0.00034484226
-0.0004623504 -0.0002656187 0.0010495455 -0.0005237142 0.0005964482 0.0012625421 0.00059475855 0.00038950003
0.0002574311 -0.00044724974 -0.00025872217 -0.00078043464 -0.0006304692 -0.00066435995 -0.00087459607 -0.0004067531
00000000: 6b11 f8b9 0cf9 70ba 516c 1bb9 88f7 7c39
00000010: 9287 57ba 74b2 11ba d32b 36ba 5701 6fb9
00000020: 0cab 4eba 2250 e839 e89a d1b9 5330 80b9
00000030: 3689 36ba 27ea ce39 a50e 06ba f319 dc38
00000040: c647 ceb9 a29c 1bba 8264 bdba a8da 383a
00000050: 794e 20ba fc7f 493a e21b 90b9 306b 39ba
00000060: 2a3e 30b9 28b9 403a 93b6 833a 06b4 2b3a
00000070: 295b 7737 bfc6 abb9 8cec bdb9 b774 6a3a
00000080: 8518 ac3a 7914 17ba 47ad 60b9 75bb 553a
00000090: d7b7 12ba 85ae a2b8 0882 0bba 0102 41ba
000000a0: 1581 b039 c9fc 923a 4061 9e39 00b7 fd39
000000b0: 0bd8 beb9 f653 5c3a 81d4 b03a 2ffc 6cba
000000c0: 70e7 85b7 0eae 49ba 0b3a 673a 3faf 823a
000000d0: e33d 75b9 0556 5439 b8bd 77ba a54c 553a
000000e0: a5de f739 8a05 0eba 691d 883a 7656 b439
000000f0: 639b 643a 885c 0639 8ea2 1f3a ef64 60ba
00000100: 353f 86ba 9069 82ba 9043 1eba ce41 58ba
00000110: ec3b 3e3a 0ad2 3cba eb47 7e39 498c 203a
00000120: 8efd 75b9 8a49 ba39 049f a8b8 9a27 8db8
00000130: d3de 8eba 793d 12b9 1301 88ba 096a 35b9
00000140: c3b2 00ba 6091 e038 5bd3 18ba 5daa b637
00000150: 8d6e d239 3cea 803a 1441 9439 121b 903a
00000160: 06df 07b9 7f5b 9db8 864b 203a 0abd 01b9
00000170: 02b7 27b9 70a8 2cba daaa c7b5 d03a cbb9
00000180: 53d3 c3b9 134f 8e39 91ab 45ba fb4d 35ba
00000190: b337 25ba b0db 99b9 f4a8 f139 676d 1e38
000001a0: 9877 62ba e15b f839 8db5 53ba a25d f839
000001b0: 36bb 4c39 f4d4 21ba 7701 423a f2cb b439
000001c0: 9f67 f2b9 bd42 8bb9 e790 893a dd49 09ba
000001d0: f65a 1c3a e27b a53a 92e9 1b3a cf35 cc39
000001e0: d1f7 8639 d87c eab9 1aa5 87b9 1596 4cba
000001f0: 1246 25ba 7128 2eba 2645 65ba 7a41 d5b9

gat1.lin.weight f4 [128, 5]
-0.10914358 -0.1610593 0.09628173 0.11959149 0.113786526 0.0028932923 -0.15382768 -0.17216998
0.17484756 0.07785388 0.09224668 0.11172299 0.18128653 -0.123897254 0.106648006 -0.011386995
-0.082896695 0.11328195 0.037502114 0.026797526 -0.15024832 0.015805503 0.102451466 0.10802615
-0.069879785 0.15011992 0.00030855025 0.0020099813 0.04529371 0.115454406 -0.045395464 0.097714126
0.14382604 0.098533034 -0.18761827 0.17739205 0.06882389 0.19290453 -0.012896852 -0.13061392
0.17720485 0.15798616 -0.049798105 -0.07124362 -0.10511841 -0.14783731 -0.061050184 0.15406233
-0.123932 0.19497299 0.07438001 0.14240682 -0.008381432 -0.16970688 -0.19506991 0.2110647
-0.06006188 0.19014134 0.070118494 -0.20875835 -0.1365703 0.030890483 -0.013043097 0.14860164
-0.15257639 -0.048571352 -0.061036408 -0.16376024 0.15248759 0.1068284 0.13935666 -0.19103241
0.1697913 -0.1158471 -0.11249301 0.19532187 0.041207362 0.10226376 -0.18734105 0.18826218
-0.014494571 0.022053251 -0.19852865 0.17634007 0.1340348 -0.09574547 -0.0020850427 -0.14990318
0.01337796 0.18347561 0.05623052 0.099950865 -0.031718396 -0.07650678 0.0021660607 -0.17522319
-0.0055610794 0.13685033 -0.11072619 0.19828366 0.16235667 -0.0003528676 0.18072921 0.18537648
0.013637551 0.07842464 0.13730523 -0.13605103 -0.057056077 -0.04315237 0.14819795 -0.039452918
0.11816758 0.106065966 -0.07038651 -0.15590504 0.09208351 -0.120151795 0.17546768 -0.11124983
0.16772531 -0.11083053 -0.03281963 0.059034113 0.21407732 0.023800077 -0.1740311 0.1612216
0.04372774 0.049438458 0.14946344 0.026726518 0.13360049 -0.012317267 0.12906629 0.107921526
0.18896344 0.03948192 0.050185688 -0.0947099 0.15394798 -0.15510675 0.11367662 -0.044937253
0.16147882 -0.043147787 0.00021240197 0.013970428 0.10280648 -0.0019895448 0.21248306 -0.096962765
0.1895504 -0.095156394 -0.13573839 -0.04734522 0.049118705 -0.12065665 -0.18746969 0.02869256
0.025923248 0.17083986 -0.15460087 0.19070105 -0.021594187 -0.018798202 0.02224994 -0.13726172
0.04443747 0.18572305 -0.18545344 0.064189784 0.12529954 0.0111870915 -0.07023344 0.017505113
0.023417067 -0.120677024 -0.15770163 0.15952447 0.08506791 0.15425399 0.031141741 0.05026739
0.12413502 -0.013989015 -0.07683671 -0.15283772 -0.055850584 -0.060469262 -0.19473986 -0.04809202
0.05503874 -0.17622286 0.11912292 0.20197552 -0.11069661 0.18051878 -0.19863518 -0.053200234
-0.11573769 0.013110883 0.11032688 0.16977543 0.0720674 0.07183029 0.20448777 -0.16443527
-0.17965035 0.16201676 -0.014378755 -0.15107097 0.009210327 -0.07597734 -0.028414749 0.12442708
0.045447182 -0.014447929 0.14040196 -0.09828152 -0.17030394 0.17744328 -0.10325322 -0.018320665
-0.12892626 0.11028068 0.07274092 -0.172719 -0.18289195 -0.07148171 -0.14687032 -0.18396647
0.18428034 0.14862582 0.15225148 0.008631188 0.15005955 0.08376434 0.15254723 -0.025557283
0.07180246 -0.019639304 0.19657654 0.012249817 -0.15037893 0.12212758 0.005888405 -0.18706332
0.18169375 -0.11850359 -0.19295375 0.105721824 -0.09130247 -0.10062774 -0.05568233 0.13616748
00000000: ab86 dfbd bbec 24be 5b2f c53d 62ec f43d
00000010: e908 e93d 649d 3d3b 0185 1dbe 544d 30be
00000020: 3d0b 333e db71 9f3d d4eb bc3d 06cf e43d
00000030: 2da3 393e d8bd fdbd 456a da3d 8590 3abc
00000040: bec5 a9bd 5e00 e83d d19b 193d 7c86 db3c
00000050: b2da 19be 8b7a 813c 13d2 d13d d03c dd3d
00000060: 221d 8fbd 09b9 193e eac4 a139 e4b9 033b
00000070: e685 393d 5c73 ec3d 98f0 39bd 581e c83d
00000080: 2247 133e b0cb c93d 011f 40be 43a6 353e
00000090: 8af3 8c3d c488 453e 514d 53bc a8bf 05be
000000a0: 3075 353e 20c7 213e 19f9 4bbd 2de8 91bd
000000b0: 5248 d7bd aa62 17be c20f 7abd 84c2 1d3e
000000c0: 0fd0 fdbd 00a7 473e 8c54 983d 18d3 113e
000000d0: 4652 09bc a4c7 2dbe 68c0 47be 5821 583e
000000e0: 7203 76bd 69b4 423e 499a 8f3d c0c4 55be
000000f0: 16d9 0bbe 0a0e fd3c b7b2 55bc 072b 183e
00000100: fc3c 1cbe c1f2 46bd 5001 7abd c4b0 27be
00000110: b525 1c3e d9c8 da3d 83b3 0e3e 009e 43be
00000120: c5dd 2d3e 3f41 edbd bc62 e6bd 7502 483e
00000130: 0dc9 283d aa6f d13d 55d6 3fbe cdc7 403e
00000140: a37a 6dbc 05a9 b43c 184b 4bbe 7e92 343e
00000150: 6b40 093e 3316 c4bd 36a5 08bb 3880 19be
00000160: 3b2f 5b3c 08e1 3b3e f951 663d 0ab3 cc3d
00000170: 26eb 01bd 96af 9cbd 78f4 0d3b b56d 33be
00000180: b739 b6bb 7e22 0c3e 6ac4 e2bd df0a 4b3e
00000190: d440 263e 1601 b9b9 1411 393e 55d3 3d3e
000001a0: 0970 5f3c 199d a03d be99 0c3e f650 0bbe
000001b0: a2b3 69bd 8ac0 30bd 34c1 173e 6299 21bd
000001c0: d801 f23d 1d39 d93d cd26 90bd 92a5 1fbe
000001d0: 4796 bc3d 2512 f6bd cdad 333e f3d6 e3bd
000001e0: 2fc0 2b3e 1efb e2bd e06d 06bd c1cd 713d
000001f0: 1637 5b3e 61f8 c23c 3535 32be 4617 253e
00000200: dc1b 333d fb7f 4a3d f20c 193e 92f1 da3c
00000210: 91ce 083e 5dce 49bc f429 043e f605 dd3d
00000220: a27f 413e cbb7 213d 828f 4d3d 44f7 c1bd
00000230: 8aa4 1d3e 4ed4 1ebe 4acf e83d 2010 38bd
00000240: b45a 253e bcbb 30bd 38b8 5e39 39e4 643c
00000250: 348c d23d 0663 02bb 2995 593e 6a94 c6bd
00000260: 8019 423e 5be1 c2bd 01ff 0abe 10ed 41bd
00000270: b230 493d d51a f7bd 0ef8 3fbe a90c eb3c
00000280: fe5c d43c a5f0 2e3e b14f 1ebe 2347 433e
00000290: 4be6 b0bc b0fe 99bc 8245 b63c 568e 0cbe
000002a0: 1104 363d 2f2e 3e3e 82e7 3dbe ef75 833d
000002b0: 864e 003e 104a 373c 8dd6 8fbd e266 8f3c
000002c0: 26d5 bf3c 8425 f7bd 897c 21be 625a 233e
000002d0: 1638 ae3d c2f4 1d3e f71c ff3c 2ee5 4d3d
000002e0: 803a fe3d 2e32 65bc 915c 9dbd 7e81 1cbe
000002f0: 95c3 64bd 9eae 77bd e369 47be 23fc 44bd
00000300: 4d70 613d c473 34be b8f6 f33d acd2 4e3e
00000310: e7b4 e2bd ead9 383e 0567 4bbe 7de8 59bd
00000320: e207 edbd 07cf 563c 0ff3 e13d 9cd9 2d3e
00000330: 1398 933d c21b 933d 3e65 513e b861 28be
00000340: 43f6 37be b9e7 253e df94 6bbc 59b2 1abe
00000350: e9e6 163c 029a 9bbd 0cc6 e8bc a0d3 fe3d
00000360: d326 3a3d 02b7 6cbc 88c5 0f3e d247 c9bd
00000370: 2864 2ebe b1b3 353e 6d76 d3bd 3815 96bc
00000380: 3f05 04be d6da e13d 31f9 943d 40dd 30be
00000390: 0748 3bbe 0165 92bd 2c65 16be b561 3cbe
000003a0: fcb3 3c3e 5e31 183e d0e7 1b3e d469 0d3c
000003b0: 36a9 193e a38c ab3d 5735 1c3e 825d d1bc
000003c0: 2b0d 933d 9be2 a0bc 5c4b 493e 75b3 483c
000003d0: effc 19be 061e fa3d 85f3 c03b 878d 3fbe
000003e0: ed0d 3a3e 03b2 f2bd ab95 45be af84 d83d
000003f0: cafc babd eb15 cebd 2813 64bd 7d6f 0b3e

sage1.lin_l.weight f4 [128, 128]
0.077856414 0.034214087 -0.0034657172 0.03472881 0.040932085 -0.015483291 0.0015702705 0.02441208
-0.0029239487 0.07529294 -0.021147849 -0.013502948 -0.035148215 -0.026315184 0.08068353 -0.06510998
-0.030096494 0.002098211 0.0065800003 -0.010878809 -0.012821198 0.053540714 0.018269239 -0.0054163425
-0.0052010594 -0.058790646 -0.05773454 -0.07484704 -0.083882645 -0.012167635 0.0357992 -0.04271473
-0.022278856 -0.020053195 0.04864245 0.07714446 -0.015578231 0.038919862 0.02064758 -0.039759032
0.06291601 0.023682656 0.064302325 0.022878388 -0.06598739 -0.06393259 -0.078880794 0.08099848
-0.009268012 0.04470758 0.072180316 -0.022785425 -0.051880952 0.033561025 -0.053908512 0.056824498
0.076331295 -0.012083288 0.021533187 0.057288647 -0.07934635 0.010990362 0.03616314 0.020463487
-0.029444175 -0.023949394 0.083514035 0.027977217 0.044628836 0.016566765 -0.0063828686 0.03075352
0.04502792 -0.023788558 -0.024666345 -0.053666078 -0.016061025 -0.053841315 -0.06997403 0.026215281
0.04789303 0.055547778 -0.0013060222 0.05592233 0.07594852 0.053011164 -0.040347017 0.069404215
-0.0112474235 0.08399681 0.07014264 -0.015098823 0.08508579 -0.082301915 -0.08844095 -0.04516101
-0.07556601 -0.0036028153 -0.02925447 -0.079669744 -0.06511176 -0.028561646 -0.019819213 0.068955556
-0.062292118 0.041051965 0.032654285 0.08789521 0.04322405 0.07060706 -0.03254733 0.07271258
0.033531487 0.04099138 0.011510296 -0.048407365 0.05889338 -0.067236125 -0.056702763 -0.08387973
-0.039750718 0.07123181 0.08651132 -0.024463711 -0.08111952 0.041735318 0.049323276 0.084131375
-0.067554735 -0.08483341 -0.0016505216 -0.0011357224 -0.08699992 -0.059282888 0.054762572 0.013784205
-0.032196965 0.047643673 0.05568249 0.07931762 0.04213552 -0.0071890815 0.04758042 0.06385085
-0.00048151455 -0.039172087 -0.06267255 0.005488394 -0.00602052 -0.053746678 -0.085475005 0.056706913
-0.09369127 -0.091356464 0.07987086 0.00095211534 0.030978493 -0.06721466 -0.06428814 -0.0065247538
-0.07808551 0.08489729 0.027824653 0.036719877 0.083235 0.0052632433 0.013246909 0.035604592
0.063833065 0.028211268 0.00840331 -0.03851096 0.078152254 0.0797815 -0.009213838 -0.06468374
0.07487034 0.06697911 -0.057260618 0.081457354 -0.00085825106 -0.07601695 0.03791421 0.026254585
0.074641496 0.00973726 -0.08085629 -0.042503055 0.018495696 -0.051031414 -0.052251726 0.06548005
0.05777946 -0.039512314 0.04317416 -0.037263572 -0.027121367 0.020818623 0.038855962 0.019482404
-0.02899572 -0.048091188 0.034400042 -0.017595576 0.019536238 0.018045103 0.023331605 0.05027888
0.060511865 0.050887927 0.05398257 -0.0629036 -0.07302945 0.0701996 0.08265807 -0.04908243
0.04588241 0.07069911 0.032377936 -0.05923623 0.03844169 0.0017317813 -0.0023463268 0.010811211
-0.039832965 0.0690582 -0.065535195 0.07149845 0.08668037 -0.078449145 0.028073745 -0.03460834
-0.03154898 0.04720402 0.0043597003 -0.026205674 0.00021343383 -0.047744107 -0.012295472 -0.0620312
-0.008148202 -0.032524083 -0.025758764 -0.04908324 0.08247645 0.055442933 0.025719823 -0.031192876
0.032944486 0.048966568 0.049129486 0.031519342 0.04318601 -0.020006439 0.03970911 -0.06397983
00000000: 2f73 9f3d 1224 0c3d 1621 63bb cc3f 0e3d
00000010: 67a8 273d a1ad 7dbc 89d1 cd3a d8fb c73c
00000020: b89f 3fbb 2f33 9a3d 413e adbc 783b 5dbc
00000030: 93f7 0fbd f192 d7bc 683d a53d 6258 85bd
00000040: ec8c f6bc 2482 093b 0b9d d73b 083d 32bc
00000050: 0110 52bc 824d 5b3d 5fa9 953c 937b b1bb
00000060: a66d aabb 76ce 70bd 0e7b 6cbd 6849 99bd
00000070: aaca abbd c35a 47bc 2fa2 123d a4f5 2ebd
00000080: 2682 b6bc 9946 a4bc 4e3d 473d eafd 9d3d
00000090: d63b 7fbc 6f6a 1f3d 1d25 a93c 5eda 22bd
000000a0: 1cda 803d 2102 c23c f0b0 833d 756b bb3c
000000b0: 6624 87bd 17ef 82bd 418c a1bd 88e2 a53d
000000c0: dcd8 17bc 4c1f 373d 46d3 933d 80a8 babc
000000d0: 1f81 54bd 4977 093d 2ccf 5cbd cec0 683d
000000e0: 9553 9c3d fcf8 45bc 5e66 b03c 80a7 6a3d
000000f0: 5780 a2bd eb10 343c cd1f 143d 0ba3 a73c
00000100: e934 f1bc 8531 c4bc 6809 ab3d 7a30 e53c
00000110: bacc 363d 06b7 873c 6227 d1bb ceee fb3c
00000120: 326f 383d 39e0 c2bc 1311 cabc f6d0 5bbd
00000130: 6992 83bc b688 5cbd 8b4e 8fbd 6ec1 d63c
00000140: 7b2b 443d 1186 633d d52e abba d00e 653d
00000150: e68a 9b3d 3c22 593d ea42 25bd cc23 8e3d
00000160: 1d47 38bc 8506 ac3d f2a6 8f3d 0e61 77bc
00000170: 7541 ae3d e88d a8bd 8720 b5bd c0fa 38bd
00000180: 5ac2 9abd 361d 6cbb 12a7 efbc e429 a3bd
00000190: 5059 85bd 1dfa e9bc e75b a2bc 9238 8d3d
000001a0: 0526 7fbd 1b26 283d 80c0 053d 6702 b43d
000001b0: b40b 313d 6f9a 903d 5950 05bd 55ea 943d
000001c0: 5058 093d 94e6 273d ae95 3c3c cd46 46bd
000001d0: 2f3a 713d 18b3 89bd 2841 68bd 23c9 abbd
000001e0: a6d1 22bd fce1 913d d92c b13d 1f68 c8bc
000001f0: fe21 a6bd a7f2 2a3d 3407 4a3d 124d ac3d
00000200: 235a 8abd 24bd adbd 5156 d8ba 85dc 94ba
00000210: 042d b2bd 9dd2 72bd b84e 603d 25d7 613c
00000220: f7e0 03bd 0326 433d 5313 643d 4771 a23d
00000230: 4c96 2c3d 6392 ebbb b0e3 423d 3cc4 823d
00000240: ca73 fcb9 e972 20bd 775a 80bd fcd7 b33b
00000250: c847 c5bb 7a25 5cbd 850d afbd 8245 683d
00000260: 35e1 bfbd 1919 bbbd 5593 a33d 6197 793a
00000270: 9cc6 fd3c d7a7 89bd 80a9 83bd 9acd d5bb
00000280: 4ceb 9fbd a1de ad3d 87f0 e33c 9567 163d
00000290: 1d77 aa3d 4977 ac3b 9009 593c 1fd6 113d
000002a0: e9ba 823d 511b e73c 09ae 093c abbd 1dbd
000002b0: 4a0e a03d 7c64 a33d a3f5 16bc e978 84bd
000002c0: 9f55 993d 582c 893d 1c8a 6abd 1dd3 a63d
000002d0: 41fc 60ba c6ae 9bbd ee4b 1b3d db13 d73c
000002e0: a4dd 983d 0789 1f3c fc97 a5bd af17 2ebd
000002f0: 4984 973c 5106 51bd e805 56bd 681a 863d
00000300: 28aa 6c3d aad7 21bd 63d7 303d b0a1 18bd
00000310: a12d debc d18b aa3c 6e27 1f3d 9099 9f3c
00000320: 6f88 edbc 44fb 44bd 0fe7 0c3d 9924 90bc
00000330: 760a a03c 53d3 933c ec21 bf3c 3af1 4d3d
00000340: 4adb 773d dc6f 503d d41c 5d3d 9ad3 80bd
00000350: 7790 95bd cfc4 8f3d a248 a93d a80a 49bd
00000360: 32ef 3b3d b2ca 903d ba9e 043d b0a1 72bd
00000370: 0975 1d3d f0fc e23a d5c4 19bb 8121 313c
00000380: e427 23bd 636e 8d3d 5137 86bd c86d 923d
00000390: 7a85 b13d f2a9 a0bd e9fa e53c 7ac1 0dbd
000003a0: 8139 01bd 0159 413d d1db 8e3b 48ad d6bc
000003b0: 35cd 5f39 538f 43bd f372 49bc 6d14 7ebd
000003c0: 0980 05bc f937 05bd 0b04 d3bc 820b 49bd
000003d0: 6ae9 a83d 2118 633d 61b2 d23c 3488 ffbc
000003e0: ccf0 063d 2b91 483d 003c 493d 6d1a 013d
000003f0: d0e3 303d 8be4 a3bc 05a6 223d db07 83bd

sage1.lin_l.bias f4 [128]
0.044341687 -0.046329472 -0.086225025 -0.058732074 -0.06284443 -0.021697728 0.06873832 0.0068252403
0.06714617 0.06426356 -0.030434653 -0.008383749 0.01614448 0.059688367 -0.010168001 0.030940007
0.083183594 0.08553509 -0.088248074 -0.029090187 -0.06557298 -0.085191876 -0.003031938 -0.066666864
0.04524421 0.06778153 0.0070979465 0.008839522 0.06963559 0.0040247636 -0.08213008 -0.05810385
-0.06494349 -0.07520359 -0.05472527 -0.04500774 0.0088515 -0.019025378 0.07035555 0.08779728
0.024401218 0.073056355 -0.012260371 -0.064452745 0.033182904 -0.0073945615 -0.07316234 -0.07394482
-0.067085154 0.046122093 -0.056487616 -0.053898737 0.028549891 -0.06835953 -0.02657533 -0.060831018
0.008371685 -0.067360185 0.0071633267 0.061857212 0.05271927 0.047315545 0.052725196 -0.06270253
0.08406528 -0.01548856 -0.0016088807 -0.060037542 -0.06666845 0.05684687 -0.0184593 0.049549185
-0.07683575 0.060547873 -0.05645043 0.06550291 -0.015472199 0.070229195 -0.034427118 0.0030014133
-0.06710476 -0.015005269 -0.08011504 0.06225263 0.026807457 0.05945046 0.021896409 -0.005096027
0.045573357 0.0114323115 -0.077342406 -0.014047798 0.0075984877 -0.070672 -0.0048178635 0.06908927
0.0669164 -0.019394957 0.02167775 -0.02555595 0.04113485 -0.08909916 -0.030390156 -0.014046364
0.026240423 0.06660835 -0.0006599447 0.018140126 -0.043940198 -0.054798525 0.00091258716 0.051010285
-0.054954275 0.07990522 0.01822202 -0.07771718 -0.053002466 0.07773785 0.026167938 -0.027725594
-0.04856707 0.049015995 -0.075038746 -0.078305624 0.020129481 -0.0865234 -0.028579636 -0.03260739
00000000: a19f 353d f9c3 3dbd bf96 b0bd 0b91 70bd
00000010: 95b4 80bd 6fbf b1bc adc6 8c3d 44a6 df3b
00000020: ee83 893d 9d9c 833d 1852 f9bc fe5b 09bc
00000030: 6e41 843c ca7b 743d b097 26bc e675 fd3c
00000040: 295c aa3d 052d af3d 68bb b4bd 8b4e eebc
00000050: 204b 86bd 1479 aebd 7bb3 46bb a388 88bd
00000060: fe51 393d 0bd1 8a3d e495 e83b a4d3 103c
00000070: 1b9d 8e3d 2ae2 833b d133 a8bd 4dfe 6dbd
00000080: 1801 85bd 5704 9abd 9b27 60bd 095a 38bd
00000090: e205 113c 1cdb 9bbc 9216 903d 0fcf b33d
000000a0: 10e5 c73c 929e 953d b9df 48bc cdff 83bd
000000b0: ccea 073d 144e f2bb 23d6 95bd 6270 97bd
000000c0: f163 89bd 85ea 3c3d 8f5f 67bd ecc4 5cbd
000000d0: 76e1 e93c 1500 8cbd 82b4 d9bc f229 79bd
000000e0: 6429 093c 23f4 89bd 57ba ea3b fd5d 7d3d
000000f0: 29f0 573d f2cd 413d 60f6 573d 2f6a 80bd
00000100: 6b2a ac3d bbc3 7dbc 14e1 d2ba ede9 75bd
00000110: 7889 88bd 43d8 683d f537 97bc 16f4 4a3d
00000120: 105c 9dbd 0c01 783d 9138 67bd 6426 863d
00000130: 1b7f 7dbc 53d4 8f3d 7303 0dbd 5cb3 443b
00000140: 386e 89bd a9d8 75bc 5b13 a4bd 9dfc 7e3d
00000150: 509b db3c 5382 733d 1960 b33c 93fc a6bb
00000160: 21ab 3a3d 974e 3b3c b265 9ebd bc28 66bc
00000170: bcfc f83b 7bbc 90bd 2bdf 9dbb ad7e 8d3d
00000180: 770b 893d 2ce2 9ebc 8995 b13c b65a d1bc
00000190: 047d 283d 9f79 b6bd c7f4 f8bc b922 66bc
000001a0: 28f6 d63c f569 883d 2400 2dba 9a9a 943c
000001b0: a3fa 33bd 6b74 60bd b03a 6f3a 29f0 503d
000001c0: bc17 61bd 59a5 a33d 5846 953c 2f2a 9fbd
000001d0: 1d19 59bd 0635 9f3d 255e d63c c920 e3bc
000001e0: 44ee 46bd ffc4 483d eaad 99bd b35e a0bd
000001f0: 95e6 a43c 2e33 b1bd d71f eabc 548f 05bd

sage1.lin_r.weight f4 [128, 128]
-0.059115764 0.0791754 -0.022768077 -0.056745958 -0.0049522943 0.043228608 -0.04020988 0.026521798
0.052515 0.0821162 0.021202894 -0.018663276 -0.025366448 0.010304579 0.0071434886 -0.05038351
0.08103525 0.053503267 0.0061075655 -0.005619775 -0.08627743 0.012770406 -0.06459797 -0.069915555
-0.073903404 -0.019094743 0.026042609 -0.06596879 0.042475075 0.030856648 0.014978451 0.048618287
-0.08193685 0.039776526 -0.042582814 -0.02322135 0.04655568 -0.029292138 -0.06770833 -0.049467582
-0.06388113 -0.06105041 -0.071280085 0.06490974 0.045073546 -0.04963946 0.08720426 0.056480363
-0.05917648 -0.046959512 -0.018310318 0.002698754 0.024078203 0.06301698 -0.018876657 0.008272078
0.08239793 -0.02556139 0.027240407 -0.07806407 0.027371261 -0.05476219 -0.053943235 0.08261942
-0.05905333 0.05839387 6.197926e-05 -0.08816456 -0.04259761 0.029190771 0.062750354 -0.02662932
0.07273669 0.034502156 0.022718776 -0.08511441 -0.037170246 0.016260562 0.013161221 0.03673139
-0.084173895 -0.031388573 0.07813032 -0.04371553 0.045251563 0.037308514 0.0030174141 0.008258893
-0.0876135 -0.06273956 -0.07498385 -0.0354916 0.087230735 -0.031709895 -0.04356253 0.010783268
-0.04503085 0.0084229885 0.0065245284 0.006903519 -0.046809006 0.08190993 -0.07831936 0.033010837
0.01929402 0.04937808 0.0706412 0.06522678 0.04495466 -0.08423728 0.026383085 0.060404446
0.06967492 -0.066768706 -0.03544966 -0.0776799 0.030625643 -0.051855613 0.05502449 0.012382799
0.04974558 0.046373557 -0.057965957 0.036263302 -0.04679338 -0.08600982 0.036584627 0.018656181
-0.032541502 0.07173156 -0.046842977 0.056621373 -0.02162568 -0.011543464 -0.06932698 0.06789759
0.08374363 -0.057736546 -0.002764525 0.040243726 0.05027441 0.050633937 0.06520776 0.0434429
-0.01685769 -0.055256158 -0.007730128 -0.0235701 0.0778341 0.03182359 0.017073618 -0.0605481
0.04148386 -0.063926965 0.028558502 0.0500049 0.039353706 -0.06241146 -0.051260296 -0.025952687
0.0835774 0.022678465 0.0027981156 0.041201554 -0.037508182 -0.08546841 -0.06683121 0.06986414
-0.016731532 0.04136344 -0.07166775 0.07432515 0.010445228 0.03992414 -0.053730853 0.058419164
0.02784008 -0.063562624 0.030910319 -0.067128226 -0.015584793 0.05428369 0.049212188 0.008703103
0.017578082 0.05888206 0.02954396 0.0316726 0.008081387 0.053663734 -0.00758844 -0.023916801
-0.029212702 -0.010587886 0.028377159 0.0763795 0.057261903 0.043270558 0.06673624 -0.024940157
-0.038989253 -0.012907571 -0.046612635 0.06295132 0.02725583 0.029973885 0.034520708 0.046572257
-0.08202674 -0.007375366 -0.01090507 0.075960174 -0.04534322 -0.028713359 0.013226752 0.048616227
-0.0025173228 -0.030859806 -0.054487176 0.08233955 0.060351547 0.046834778 0.0056089396 0.086248934
0.07084318 0.034298122 0.018116103 -0.06328095 -0.024259359 -0.016648779 0.0824512 0.07572063
-0.023640668 -0.014120132 0.054394267 -0.083099745 0.06998881 0.0035663808 0.007383045 -0.012701086
0.0012507484 -0.033420984 0.033917323 -0.026426459 0.0053910166 -0.018648684 0.08277 -0.06339514
-0.06352595 -0.07427055 -0.07750911 -0.014484797 -0.033664938 -0.076603144 0.052231185 -0.031198086
00000000: 5f23 72bd b626 a23d 1e84 babc 736e 68bd
00000010: db46 a2bb 7b10 313d 1db3 24bd 3e44 d93c
00000020: f819 573d 8a2c a83d b1b1 ad3c bae3 98bc
00000030: 4ccd cfbc 89d4 283c ed13 ea3b f05e 4ebd
00000040: cff5 a53d 3e26 5b3d f921 c83b 1726 b8bb
00000050: 39b2 b0bd f73a 513c f14b 84bd e32f 8fbd
00000060: ab5a 97bd 946c 9cbc 4f57 d53c a51a 87bd
00000070: 58fa 2d3d 15c7 fc3c 2d68 753c f823 473d
00000080: 82ce a7bd b6ec 223d 516b 2ebd b33a bebc
00000090: 2bb1 3e3d 11f6 efbc aaaa 8abd 859e 4abd
000000a0: 1cd4 82bd ff0f 7abd 4bfb 91bd 66ef 843d
000000b0: 0a9f 383d bf52 4bbd 2698 b23d f457 673d
000000c0: 0963 72bd 9e58 40bd 85ff 95bc 94dd 303b
000000d0: a73f c53c 0c0f 813d 38a3 9abc 9c87 073c
000000e0: 3fc0 a83d 1f66 d1bc 4627 df3c 0ee0 9fbd
000000f0: b239 e03c 514e 60bd 95f3 5cbd 5f34 a93d
00000100: e8e1 71bd 692e 6f3d ddfa 8138 9f8f b4bd
00000110: d57a 2ebd 7c21 ef3c 4283 803d bb25 dabc
00000120: f9f6 943d 2252 0d3d ba1c ba3c 7750 aebd
00000130: d43f 18bd df34 853c 29a2 573c a773 163d
00000140: 5d63 acbd 4e91 00bd ca02 a03d 0e0f 33bd
00000150: b459 393d d0d0 183d cfbf 453b 4f50 073c
00000160: b56e b3bd 997d 80bd 2291 99bd a45f 11bd
00000170: 07a6 b23d 3ce2 01bd a06e 32bd 4eac 303c
00000180: 4572 38bd 9300 0a3c b6cb d53b ea36 e23b
00000190: cdba 3fbd 65c0 a73d e765 a0bd 5f36 073d
000001a0: 7e0e 9e3c ab40 4a3d 55ac 903d 9e95 853d
000001b0: 6122 383d 9884 acbd 5721 d83c a76a 773d
000001c0: b9b1 8e3d 08be 88bd aa33 11bd a416 9fbd
000001d0: a1e2 fa3c 8d66 54bd 5c61 613d 39e1 4a3c
000001e0: 05c2 4b3d 33f2 3d3d b66d 6dbd d488 143d
000001f0: 6aaa 3fbd eb25 b0bd c3d9 153d d9d4 983c
00000200: 3d4a 05bd ffe7 923d 6cde 3fbd d0eb 673d
00000210: 5728 b1bc cc20 3dbc 4efb 8dbd e40d 8b3d
00000220: c881 ab3d 287d 6cbd 082d 35bb 9bd6 243d
00000230: 8aec 4d3d 8865 4f3d a58b 853d 2ff1 313d
00000240: 2319 8abc 4854 62bd 034d fdbb 1516 c1bc
00000250: 7c67 9f3d 7459 023d f9dd 8b3c 4901 78bd
00000260: fbea 293d 24ec 82bd 85f3 e93c f0d1 4c3d
00000270: 5a31 213d 29a3 7fbd 51f6 51bd bb9a d4bc
00000280: a12a ab3d 30c8 b93c 9760 373b f6c2 283d
00000290: 2ea2 19bd 100a afbd cdde 88bd ee14 8f3d
000002a0: 9110 89bc b66c 293d 8bc6 92bd c937 983d
000002b0: 7622 2b3c 7f87 233d e214 5cbd ef48 6f3d
000002c0: e110 e43c 1f2d 82bd a337 fd3c 867a 89bd
000002d0: 5c57 7fbc 9358 5e3d b892 493d 7697 0e3c
000002e0: e9ff 8f3c 512e 713d 2d06 f23c 21bb 013d
000002f0: cb67 043c 81ce 5b3d 73a8 f8bb 2bed c3bc
00000300: 7a4f efbc d078 2dbc 3777 e83c db6c 9c3d
00000310: 758b 6a3d 783c 313d 03ad 883d 4d4f ccbc
00000320: 32b3 1fbd 477a 53bc e4ec 3ebd 9fec 803d
00000330: 9e47 df3c cb8b f53c 9665 0d3d 8dc2 3e3d
00000340: a3fd a7bd 0ead f1bb 2eab 32bc 0291 9b3d
00000350: d0b9 39bd 4738 ebbc 05b5 583c cf21 473d
00000360: abf9 24bb b4cd fcbc f22d 5fbd a3a1 a83d
00000370: 2f33 773d d3d5 3f3d 32cb b73b 48a3 b03d
00000380: 3b16 913d 307c 0c3d 3968 943c 7199 81bd
00000390: 90bb c6bc 0563 88bc 2ddc a83d 6b13 9b3d
000003a0: 13aa c1bc 2058 67bc 86cc 5e3d 3330 aabd
000003b0: 4b56 8f3d f1b9 693b 78ed f13b 3718 50bc
000003c0: 27f0 a33a 71e4 08bd e4ec 0a3d 4d7c d8bc
000003d0: 20a7 b03b 20c5 98bc 5183 a93d 50d5 81bd
000003e0: e519 82bd 281b 98bd 19bd 9ebd a451 6dbc
000003f0: 3fe4 09bd 1ce2 9cbd 5ef0 553d 2193 ffbc

sagpool.gnn.lin_rel.weight f4 [1, 128]
-0.08426963 -0.04706517 0.040475048 -0.08584914 -0.006349754 -0.023939585 -0.027819792 -0.029952353
-0.04124267 0.01908495 -0.056233447 -0.053511083 -0.06055715 0.04271819 -0.08693227 0.06521296
-0.011406939 -0.04578513 -0.05055761 0.06281096 -0.008257352 0.083364666 -0.058808234 -0.086500436
-0.06113565 0.01835497 0.024931293 0.08768795 0.07992153 -0.010801649 -0.03420507 0.010560559
0.010881718 -0.033312447 -0.05952995 0.024167815 -0.079672754 -0.0038715967 -0.012078183 -0.069917925
0.014989344 0.023637824 0.07760715 0.081649594 -0.044933263 0.070768505 0.009033471 -0.027071716
0.07266538 -0.028315404 0.019831266 0.030215096 0.0013287116 0.014056364 -0.08555717 0.019184407
0.05218316 -0.0004528561 0.0070564426 0.06422683 0.008828755 -0.0020400241 0.06418796 -0.06003306
-0.022318104 -0.042559452 -0.067918725 -0.018479548 0.056307934 -0.07061221 0.037675902 0.042919334
-0.08375317 0.052141193 0.06143965 -0.0004936321 -0.0314343 0.0012467903 -0.010904128 -0.076753795
-0.011141913 -0.08694835 -0.033837795 -0.035097435 0.044005413 0.0125639 0.033908293 0.061507106
-0.06882887 -0.076624356 0.010561158 0.05886218 -0.0468778 -0.06251572 0.004130706 -0.0068910206
-0.07615364 0.07294223 -0.06730634 -0.047060326 -0.049577627 -0.03724779 0.020516241 0.054862533
-0.024074165 0.046897806 -0.03308259 0.051186647 0.0009951233 -0.04334619 0.006606026 0.073921934
-0.045457132 -0.053377695 0.06176707 -0.06306919 0.07105893 0.01829401 -0.084431216 0.0691983
0.0010883152 -0.025598234 -0.086249664 -0.049802218 -0.06795635 -0.064010344 -0.035972156 -0.06390405
00000000: 8e95 acbd 68c7 40bd 2ac9 253d add1 afbd
00000010: 9911 d0bb f31c c4bc 55e6 e3bc a35e f5bc
00000020: 13ee 28bd 0b58 9c3c 0b55 66bd 702e 5bbd
00000030: c60a 78bd 45f9 2e3d 8c09 b2bd 5f8e 853d
00000040: 2be4 3abc 3089 3bbd 7f15 4fbd 08a3 803d
00000050: d849 07bc 18bb aa3d e7e0 70bd 2427 b1bd
00000060: 6069 7abd 295d 963c b63c cc3c bd95 b33d
00000070: e6ad a33d 66f9 30bc 9e1a 0cbd 3206 2d3c
00000080: 3c49 323c a272 08bd add5 73bd 95fb c53c
00000090: 782b a3bd 9dba 7dbb 92e3 45bc 2131 8fbd
000000a0: de95 753c 1ca4 c13c 7ff0 9e3d e737 a73d
000000b0: f10b 38bd 14ef 903d 2001 143c 81c5 ddbc
000000c0: 96d1 943d b5f5 e7bc 2e75 a23c a685 f73c
000000d0: 2a28 ae3a aa4c 663c 9938 afbd 9e28 9d3c
000000e0: 02be 553d 516d edb9 bb39 e73b 5b89 833d
000000f0: 7ba6 103c edb1 05bb fa74 833d 3ae5 75bd
00000100: 75d4 b6bc d252 2ebd f918 8bbd 6c62 97bc
00000110: 26a3 663d 229d 90bd 0c52 1a3d 2fcc 2f3d
00000120: c886 abbd 0192 553d 24a8 7b3d 1767 01ba
00000130: 41c1 00bd 576b a33a 3aa7 32bc 1831 9dbd
00000140: 928c 36bc fa11 b2bd 8099 0abd 54c2 0fbd
00000150: 053f 343d d1d8 4d3c 6ce3 0a3d e0ee 7b3d
00000160: 27f6 8cbd 3bed 9cbd b508 2d3c 7819 713d
00000170: f002 40bd 3e08 80bd e05a 873b 12ce e1bb
00000180: 71f6 9bbd bc62 953d e8d7 89bd 54c2 40bd
00000190: e911 4bbd 2391 18bd ad11 a83c 89b7 603d
000001a0: 2f37 c5bc ea17 403d 9c81 07bd 17a9 513d
000001b0: cc6e 823a c68b 31bd 5d77 d83b 6264 973d
000001c0: 4231 3abd 92a2 5abd 78ff 7c3d 6b2a 81bd
000001d0: 5887 913d 52dd 953c 46ea acbd d7b7 8d3d
000001e0: cca5 8e3a 63b3 d1bc aaa3 b0bd 69fd 4bbd
000001f0: b32c 8bbd db17 83bd 8a57 13bd 20e0 82bd

sagpool.gnn.lin_root.weight f4 [1, 128]
0.052167173 0.083262436 -0.047330026 0.020065827 0.017938359 0.05604282 -0.051724203 -0.047790673
0.018475963 -0.073353335 -0.080887586 0.045486648 0.015942024 -0.009699836 0.010992054 0.07115323
-0.040810257 -0.058414668 -0.023682853 -0.0058749737 0.053361006 -0.007060712 0.04786499 -0.034147028
-0.04455752 0.031168403 -0.011900871 0.08114886 0.061443955 -0.07732297 0.083508626 -0.075874776
-0.046656135 0.07936035 0.006929168 0.022176662 0.083501846 0.046817236 0.06041149 -0.060145088
-0.036680613 -0.006134664 0.013857192 0.061126743 0.03480834 -0.057848174 -0.043495998 -0.009183023
0.007914372 0.0734738 -0.08635759 -0.035743177 -0.06708742 0.078732066 -0.078068726 0.015060483
0.029378708 0.066120066 -0.03643025 0.062330674 -0.06939744 0.018441677 0.004461538 -0.04365411
0.016593123 -0.06264122 0.013714571 0.07014407 -0.02829253 -0.05913324 0.07481997 0.0153574655
-0.019675631 -0.06823973 0.029397635 -0.003992602 -0.04106765 0.039584745 -0.068006285 0.033270333
-0.056590054 0.028685695 -0.077634215 0.03476841 -0.07338513 0.045821697 -0.082487285 0.0035829565
0.0684937 0.012924856 0.07597129 0.03731935 0.05580942 0.05181534 0.022674374 0.011567122
-0.066753455 0.04832268 0.07382176 -0.003004706 0.01513884 0.03304707 -0.08598676 -0.08199038
-0.044665664 -0.018132005 -0.020277528 0.05389983 0.08436174 -0.07615149 -0.03367141 -0.017893966
-0.04846257 -0.033725936 0.0047082556 -0.07288246 -0.03483379 -0.045203224 0.01916602 0.00048201738
0.037359405 0.042681176 -0.015258077 0.02430261 -0.020084264 0.08202556 0.08387032 -0.012642056
00000000: 3fad 553d 7f85 aa3d 21dd 41bd 1761 a43c
00000010: 77f3 923c 288d 653d c2dc 53bd 27c0 43bd
00000020: e75a 973c 463a 96bd 64a8 a5bd 3550 3a3d
00000030: d998 823c 10ec 1ebc 0418 343c c9b8 913d
00000040: a828 27bd 3844 6fbd 8b02 c2bc da82 c0bb
00000050: 1291 5a3d 8c5d e7bb 140e 443d c1dd 0bbd
00000060: f281 36bd e154 ff3c dffb 42bc 6031 a63d
00000070: a8ac 7b3d 815b 9ebd 9206 ab3d 3c64 9bbd
00000080: 811a 3fbd ae87 a23d 130e e33b d5ab b53c
00000090: 0403 ab3d 6ec3 3f3d 0a72 773d b25a 76bd
000000a0: 693e 16bd 4b05 c9bb 4709 633c 0960 7a3d
000000b0: 3193 0e3d 35f2 6cbd dc28 32bd 6474 16bc
000000c0: 48ab 013c 6f79 963d 40dc b0bd 7067 12bd
000000d0: 2165 89bd 473e a13d 7fe2 9fbd 3ec0 763c
000000e0: 9eab f03c f569 873d e337 15bd 734e 7f3d
000000f0: 3f20 8ebd 0013 973c 1832 923b a7ce 32bd
00000100: 4dee 873c 0a4a 80bd 14b3 603c b2a7 8f3d
00000110: bcc5 e7bc b235 72bd 363b 993d e19d 7b3c
00000120: ca2e a1bc 46c1 8bbd 4fd3 f03c 60d4 82bb
00000130: 8d36 28bd 9d23 223d e146 8bbd 7946 083d
00000140: f9ca 67bd 43fe ea3c b0fe 9ebd 5269 0e3d
00000150: f14a 96bd 88af 3b3d 18ef a8bd 09d0 6a3b
00000160: 6d46 8c3d c6c2 533c d696 9b3d 2ddc 183d
00000170: 6b98 643d 523c 543d 9cbf b93c 0784 3d3c
00000180: 09b6 88bd 01ee 453d dd2f 973d 9aea 44bb
00000190: e608 783c 5d5c 073d d419 b0bd 93ea a7bd
000001a0: 58f3 36bd 9289 94bc 0f1d a6bc 11c6 5c3d
000001b0: d9c5 ac3d 50f5 9bbd 08eb 09bd 5e96 92bc
000001c0: b080 46bd 3524 0abd b647 9a3b 6643 95bd
000001d0: e0ad 0ebd 0427 39bd 0f02 9d3c 47b7 fc39
000001e0: 2d06 193d 75d2 2e3d 03fd 79bc 4416 c73c
000001f0: c187 a4bc 04fd a73d 34c4 ab3d a020 4fbc

lin.weight f4 [64, 128]
0.013424462 0.0115027465 -0.06316657 0.06935098 -0.063185 0.08522093 -0.015058504 -0.031586252
0.008628262 0.03389407 0.03698214 -0.0053264336 0.045313217 -0.05973577 0.02879978 0.06360219
0.035301425 0.078932375 0.017057754 0.071534716 0.040468756 -0.061876845 0.023093954 -0.0033048817
0.047921933 0.045105472 0.058736276 -0.007161558 -0.020590141 -0.049922507 0.089667454 0.014932742
0.050916813 -0.08693939 0.06327754 -0.05912259 -0.035086717 0.039825767 0.07042108 0.047874372
0.010229126 -0.0053174393 0.0062376754 0.058604542 0.014597832 -0.059359655 -0.0531328 -0.041104548
0.03362486 0.009411849 -0.080867276 0.05757408 0.08842099 0.07711758 -0.08377259 0.00063430984
0.061828483 -0.05676927 -0.07056483 -0.003448715 -0.065731585 0.03714745 0.047206204 -0.0712519
0.04866179 0.012202784 0.003709214 0.00028693373 0.03476366 -0.036431167 0.02522802 0.015714219
0.016080888 0.040443894 0.030387415 0.07263197 0.052569404 0.06448023 0.028745063 0.046465117
0.084202334 0.052869465 -0.08877554 -0.006723342 0.027173072 -0.08851891 0.08520644 -0.030740218
-0.026003383 0.014549097 -0.044325124 -0.0337729 -0.03632496 -0.012316064 0.079489045 0.01692194
-0.038932733 -0.07659349 0.07825116 -0.041591417 -0.0060979067 0.083373114 -0.018919958 -0.021488028
0.06080738 0.017343644 -0.014672381 0.070197985 0.064563975 -0.008771641 0.07274766 0.010367685
-0.012910805 0.05601801 0.01986794 0.038177818 0.008492281 -0.07624655 -0.033501435 -0.010185555
0.008296132 -0.059472594 -0.042885724 -0.04654286 -0.015109704 0.054379415 0.039645936 -0.022151714
-0.052974477 -0.03751898 0.037594065 -0.06963648 -0.013181024 -0.076340914 -0.013195272 -0.08731274
-0.07825794 -0.053290702 0.051916163 -0.04169926 0.04819435 -0.041650943 -0.05969879 -0.048938595
0.08772372 0.06838706 -0.080816254 -0.072528586 0.026187412 0.052278373 0.002789663 0.0634507
-0.0018482909 0.07280239 -0.08333562 -0.07215698 0.078194454 0.06674863 -0.0054610698 -0.0634107
-0.071166076 0.06576654 0.064797714 0.08225212 -0.0076705986 0.0015036467 -0.000298495 0.06646718
-0.019398537 -0.028605897 0.05958002 0.020884125 -0.06967605 0.042766247 0.011065843 -0.02599557
-0.0039154077 0.066166356 0.0713993 0.05243314 -0.07233443 0.06771886 0.08785971 0.07618201
0.007117657 0.07220704 0.009322335 0.02457768 0.011047524 0.057733994 -0.044360165 0.026290335
0.051490154 -0.061911974 0.0012133714 -0.021393541 0.06485127 -0.058643762 -0.016296716 -0.033706244
0.057101812 0.023798324 0.08393566 0.09284519 0.050082393 0.07343128 0.028807783 0.064076565
-0.054597914 -0.025064481 -0.08390371 0.02046358 0.05102126 -0.028617434 0.04583846 0.009558048
-0.05304195 -0.008307199 0.060073275 -0.06336965 -0.008250306 -0.01567468 0.0263111 0.057441164
0.02158718 0.07401241 0.022474885 -0.013621948 0.022283759 -0.006966933 0.07348432 -0.041128337
-0.07132835 -0.07114739 0.028065793 0.006025073 0.030034918 0.011798146 0.038931556 -0.036186114
-0.08926058 -0.09238425 -0.05827913 0.053202312 -0.004936855 0.015333754 -0.020370081 -0.008624065
-0.008608828 -0.032904807 -0.03787108 0.04669731 0.001466966 0.03445044 -0.061561953 -0.0056674657
00000000: 46f2 5b3c 0476 3c3c 7a5d 81bd e307 8e3d
00000010: 2367 81bd 5088 ae3d f2b7 76bc 9660 01bd
00000020: 8e5d 0d3c 82d4 0a3d 967a 173d 5d89 aebb
00000030: 5a9a 393d 7fad 74bd 84ed eb3c dd41 823d
00000040: 3a98 103d 4ca7 a13d b4bc 8b3c cb80 923d
00000050: 91c2 253d 9372 7dbd 882f bd3c b796 58bb
00000060: ca49 443d 84c0 383d 7395 703d 81ab eabb
00000070: a8ac a8bc 8b7b 4cbd 92a3 b73d 76a8 743c
00000080: 268e 503d 470d b2bd a897 813d 872a 72bd
00000090: 17b7 0fbd 5820 233d ed38 903d eb17 443d
000000a0: 1098 273c ea3d aebb 6a65 cc3b 510b 703d
000000b0: bf2b 6f3c 1c23 73bd c7a1 59bd 3e5d 28bd
000000c0: 39ba 093d 2834 1a3c be9d a5bd ccd2 6b3d
000000d0: 1016 b53d d2ef 9d3d f790 abbd d047 263a
000000e0: dd3f 7d3d e586 68bd 4b84 90bd d603 62bb
000000f0: 489e 86bd ed27 183d 4b5b 413d 84ec 91bd
00000100: 9651 473d 30ee 473c 4916 733b 986f 9639
00000110: 5764 0e3d d938 15bd feaa ce3c 1bbb 803c
00000120: 11bc 833c 7fa8 253d 07ef f83c 12c0 943d
00000130: 0453 573d 360e 843d c47a eb3c 3552 3e3d
00000140: 4672 ac3d a78d 583d f3cf b5bd 7b4f dcbb
00000150: 109a de3c 6749 b5bd b780 ae3d e9d2 fbbc
00000160: 0c05 d5bc 565f 6e3c 438e 35bd 7455 0abd
00000170: 7bc9 14bd 51c9 49bc 27cb a23d e19f 8a3c
00000180: ee77 1fbd 0cdd 9cbd 2542 a03d c35b 2abd
00000190: f3d0 c7bb 86bf aa3d 07fe 9abc a907 b0bc
000001a0: 2911 793d 4214 8e3c 6d64 70bc f6c3 8f3d
000001b0: 1e3a 843d eeb6 0fbc bafc 943d 39dd 293c
000001c0: d787 53bc 2473 653d 17c2 a23c 5860 1c3d
000001d0: 3523 0b3c 2727 9cbd cd38 09bd 50e1 26bc
000001e0: 80ec 073c 8999 73bd f1a8 2fbd baa3 3ebd
000001f0: b18e 77bc f3bc 5e3d c763 223d 8377 b5bc
00000200: c4fb 58bd 81ad 19bd 3cfc 193d 929d 8ebd
00000210: 39f5 57bc a058 9cbd fb30 58bc 06d1 b2bd
00000220: b345 a0bd 5a47 5abd 0ba6 543d d8cc 2abd
00000230: 7067 453d 2e9a 2abd b886 74bd d673 48bd
00000240: 7ea8 b33d 840e 8c3d fe82 a5bd de89 94bd
00000250: fc86 d63c d921 563d c7d2 363b 71f2 813d
00000260: 5a42 f2ba 6b19 953d deab aabd 0ac7 93bd
00000270: 6a24 a03d 81b3 883d c6f2 b2bb 78dd 81bd
00000280: 85bf 91bd 9cb0 863d aab4 843d cd73 a83d
00000290: a559 fbbb 0316 c53a 527f 9cb9 f21f 883d
000002a0: aee9 9ebc ea56 eabc 2e0a 743d 2f15 ab3c
000002b0: 51b2 8ebd a92b 2f3d 824d 353c a9f4 d4bc
000002c0: d24c 80bb 3a82 873d cc39 923d 22c4 563d
000002d0: 1324 94bd 30b0 8a3d cbef b33d 5005 9c3d
000002e0: 3c3b e93b 49e1 933d b5bc 183c 2157 c93c
000002f0: ad00 353c 7b7a 6c3d 01b3 35bd d45e d73c
00000300: 57e7 523d 6997 7dbd fd09 9f3a 8241 afbc
00000310: bed0 843d 7134 70bd b180 85bc 8f0f 0abd
00000320: 97e3 693d b4f4 c23c 76e6 ab3d 9e25 be3d
00000330: 3223 4d3d 2463 963d 4dfe eb3c 933a 833d
00000340: 10a2 5fbd 0754 cdbc b5d5 abbd 3da3 a73c
00000350: abfb 503d 1c6f eabc 1cc1 3b3d 5c99 1c3c
00000360: 8442 59bd eb1a 08bc 650f 763d f2c7 81bd
00000370: 4b2c 07bc 3068 80bc 608a d73c 6d47 6b3d
00000380: 99d7 b03c d293 973d 401d b83c 972e 5fbc
00000390: 6e8c b63c df4a e4bb f27e 963d 3076 28bd
000003a0: 9914 92bd b9b5 91bd 3cea e53c fa6d c53b
000003b0: ca0b f63c 034d 413c b276 1f3d e437 14bd
000003c0: 40ce b6bd f433 bdbd 19b6 6ebd abea 593d
000003d0: 57c5 a1bb 6d3a 7b3c 28df a6bc f34b 0dbc
000003e0: 0b0c 0dbc 31c7 06bd b51e 1bbd ae45 3f3d
000003f0: 3647 c03a e81b 0d3d 6328 7cbd 26b6 b9bb

lin.bias f4 [64]
-0.039129116 -0.043013558 0.0472209 -0.0006559088 0.07146847 0.038452614 -0.039775733 -0.061320774
0.07628183 0.07245036 -0.03595524 -0.022053177 0.08511561 0.05353541 -0.06288961 0.011202512
0.074827835 -0.024652975 -0.056886982 -0.00780032 0.07724983 -0.03266967 0.015222008 -0.015476505
0.0741018 0.04064058 -0.043378383 0.08811641 0.008254193 0.013360859 -0.033706233 0.017036075
-0.06610163 0.018656723 0.08030888 0.06908955 0.032285877 -0.032398123 -0.07110294 0.00090476044
0.04903981 -0.018635193 -0.0041068746 0.057602927 0.0473812 0.067217775 -0.008129238 0.051771235
-0.056984358 -0.050347842 -0.043694098 0.03521545 -0.0033442534 -0.014400219 0.08014143 0.039658163
-0.0063822814 0.037061613 -0.054916155 0.04114009 0.033036713 -0.06383307 -0.040643577 0.08147725
00000000: da45 20bd fc2e 30bd b46a 413d 4bf1 2bba
00000010: 105e 923d 7d80 1d3d e1eb 22bd 7e2b 7bbd
00000020: a639 9c3d db60 943d cd45 13bd dda8 b4bc
00000030: 1851 ae3d f247 5b3d 45cc 80bd be8a 373c
00000040: 563f 993d 09f5 c9bc 5302 69bd d499 ffbb
00000050: 2935 9e3d a2d0 05bd bb65 793c 2b91 7dbc
00000060: afc2 973d bd76 263d 88ad 31bd 6076 b43d
00000070: 983c 073c 81e7 5a3c 8c0f 0abd 3d8f 8b3c
00000080: 4b60 87bd fcd5 983c fb78 a43d d27e 8d3d
00000090: 323e 043d e5b3 04bd 6b9e 91bd 722d 6d3a
000000a0: f8dd 483d d5a8 98bc f692 86bb 0cf1 6b3d
000000b0: ca12 423d 79a9 893d 7f30 05bc 130e 543d
000000c0: 6e68 69bd 8a39 4ebd 95f8 32bd 133e 103d
000000d0: 432b 5bbb e5ee 6bbc 3121 a43d 9970 223d
000000e0: 7522 d1bb ebcd 173d c3ef 60bd 8382 283d
000000f0: 8151 073d eaba 82bd e179 26bd 8bdd a63d

fc.weight f4 [1, 64]
0.12138084 0.108105905 0.121408075 -0.11654221 0.08721833 0.071902335 -0.017808648 -0.016200691
-0.06268311 -0.0116089275 0.10991479 -0.057195574 -0.056028187 0.0932876 -0.0657953 0.0048024044
-0.0726413 0.042995226 0.12237717 0.05545 0.0008761864 0.10536755 0.036355086 0.114352964
-0.09105386 0.104850136 -0.028837059 -0.06466309 -0.0792824 -0.042957924 0.05308061 -0.026377264
-0.122652374 -0.11832093 -0.034206074 -0.11583806 0.051352832 -0.034634277 0.054649927 -0.017997056
-0.12368784 -0.062497184 0.034046326 -0.060623996 0.07740039 -0.005251666 -0.030320773 0.11350957
0.11195651 -0.033507783 -0.020774266 -0.026319029 0.015275826 0.09507636 0.115413584 0.0051229014
-0.12471314 0.06787229 0.07073324 -0.03652034 0.0789766 0.027664693 -0.08266544 0.050995845
00000000: 8596 f83d a166 dd3d cca4 f83d afad eebd
00000010: 869f b23d 8841 933d 71e3 91bc 50b7 84bc
00000020: 0160 80bd 5f33 3ebc 011b e13d e845 6abd
00000030: d07d 65bd 920d bf3d b0bf 86bd 7d5d 9d3b
00000040: f6c4 94bd c31b 303d e2a0 fa3d 8a1f 633d
00000050: e0af 653a f1ca d73d 12e9 143d e331 ea3d
00000060: 727a babd abbb d63d b23b ecbc 156e 84bd
00000070: d05e a2bd a6f4 2fbd 0e6b 593d 2215 d8bc
00000080: 2b31 fbbd 3e52 f2bd ab1b 0cbd 813c edbd
00000090: 5957 523d acdc 0dbd 9ad8 5f3d 906e 93bc
000000a0: 0d50 fdbd 0cfd 7fbd 2974 0b3d de50 78bd
000000b0: 1884 9e3d 2b16 acbb 4563 f8bc b577 e83d
000000c0: 7449 e53d 753f 09bd cb2e aabc 019b d7bc
000000d0: 7547 7a3c 65b7 c23d f55d ec3d 03de a73b
000000e0: 9a69 ffbd a100 8b3d 97dc 903d 5a96 15bd
000000f0: 7cbe a13d 11a1 e23c 804c a9bd 05e1 503d

gcn_batch_norm.weight f4 [128]
1.0 1.0 1.0 1.0 1.0 1.0 1.0 1.0
1.0 1.0 1.0 1.0 1.0 1.0 1.0 1.0
1.0 1.0 1.0 1.0 1.0 1.0 1.0 1.0
1.0 1.0 1.0 1.0 1.0 1.0 1.0 1.0
1.0 1.0 1.0 1.0 1.0 1.0 1.0 1.0
1.0 1.0 1.0 1.0 1.0 1.0 1.0 1.0
1.0 1.0 1.0 1.0 1.0 1.0 1.0 1.0
1.0 1.0 1.0 1.0 1.0 1.0 1.0 1.0
1.0 1.0 1.0 1.0 1.0 1.0 1.0 1.0
1.0 1.0 1.0 1.0 1.0 1.0 1.0 1.0
1.0 1.0 1.0 1.0 1.0 1.0 1.0 1.0
1.0 1.0 1.0 1.0 1.0 1.0 1.0 1.0
1.0 1.0 1.0 1.0 1.0 1.0 1.0 1.0
1.0 1.0 1.0 1.0 1.0 1.0 1.0 1.0
1.0 1.0 1.0 1.0 1.0 1.0 1.0 1.0
1.0 1.0 1.0 1.0 1.0 1.0 1.0 1.0
00000000: 0000 803f 0000 803f 0000 803f 0000 803f
00000010: 0000 803f 0000 803f 0000 803f 0000 803f
00000020: 0000 803f 0000 803f 0000 803f 0000 803f
00000030: 0000 803f 0000 803f 0000 803f 0000 803f
00000040: 0000 803f 0000 803f 0000 803f 0000 803f
00000050: 0000 803f 0000 803f 0000 803f 0000 803f
00000060: 0000 803f 0000 803f 0000 803f 0000 803f
00000070: 0000 803f 0000 803f 0000 803f 0000 803f
00000080: 0000 803f 0000 803f 0000 803f 0000 803f
00000090: 0000 803f 0000 803f 0000 803f 0000 803f
000000a0: 0000 803f 0000 803f 0000 803f 0000 803f
000000b0: 0000 803f 0000 803f 0000 803f 0000 803f
000000c0: 0000 803f 0000 803f 0000 803f 0000 803f
000000d0: 0000 803f 0000 803f 0000 803f 0000 803f
000000e0: 0000 803f 0000 803f 0000 803f 0000 803f
000000f0: 0000 803f 0000 803f 0000 803f 0000 803f
00000100: 0000 803f 0000 803f 0000 803f 0000 803f
00000110: 0000 803f 0000 803f 0000 803f 0000 803f
00000120: 0000 803f 0000 803f 0000 803f 0000 803f
00000130: 0000 803f 0000 803f 0000 803f 0000 803f
00000140: 0000 803f 0000 803f 0000 803f 0000 803f
00000150: 0000 803f 0000 803f 0000 803f 0000 803f
00000160: 0000 803f 0000 803f 0000 803f 0000 803f
00000170: 0000 803f 0000 803f 0000 803f 0000 803f
00000180: 0000 803f 0000 803f 0000 803f 0000 803f
00000190: 0000 803f 0000 803f 0000 803f 0000 803f
000001a0: 0000 803f 0000 803f 0000 803f 0000 803f
000001b0: 0000 803f 0000 803f 0000 803f 0000 803f
000001c0: 0000 803f 0000 803f 0000 803f 0000 803f
000001d0: 0000 803f 0000 803f 0000 803f 0000 803f
000001e0: 0000 803f 0000 803f 0000 803f 0000 803f
000001f0: 0000 803f 0000 803f 0000 803f 0000 803f
