All_Benchmarking/DATA_13/Results/f2/best_model.pth (torch, 192098 bytes, 32 tensors)

gat1.att_src f4 [1, 4, 32]
000000 58 17 63 be 9d 07 85 be c8 ef 36 bd 14 52 57 3e
       -0.22176874 -0.2598237 -0.044662267 0.21027404
000010 54 e9 7b be 4a 4f 2c be 21 ee b5 3b 7f 95 4c 3e
       -0.24600726 -0.16827121 0.005552069 0.19978903
000020 cc 54 06 be 28 cb 09 3e 59 0c 3d 3e f8 a8 aa be
       -0.13118285 0.13456404 0.18461742 -0.33332038
000030 e9 ec c1 3e 29 dc ad bd 7e 6d 63 be 98 bb 92 be
       0.3787606 -0.08489258 -0.22209737 -0.28658748
000040 92 fc ee 3d 14 a0 b5 be fe 75 ce 3e 39 76 41 be
       0.11669268 -0.35473692 0.40324396 -0.18892755
000050 5a e5 12 be a1 8d 37 be 2c 40 2f be dd e9 11 3e
       -0.14345303 -0.17925121 -0.17114323 0.14249368
000060 b9 0a 05 be 65 fe c3 3e 7e 22 63 bd 9b 5a 55 be
       -0.12992372 0.38280025 -0.055452816 -0.20835344
000070 b2 91 ba 3e 43 bf cc 3e 5e 1d 93 3d dc 0f 56 3d
       0.36439282 0.3998967 0.07183336 0.05226122
000080 4d a5 d0 be 73 33 39 3e 53 8b b0 3d 0c 92 cb be
       -0.40751114 0.18086033 0.08620324 -0.39759862
000090 7a 10 92 3d 7d 35 e0 bd 84 cc 88 be 13 a1 98 be
       0.07132049 -0.10947702 -0.26718533 -0.2981039
0000a0 e4 95 bc bc aa 2e 0b be 56 fa a3 be 12 95 7b be
       -0.023020692 -0.1359202 -0.3202693 -0.24568585
0000b0 81 1e 11 3e a7 d4 5d 3e 86 f2 ea 3d 6a 9c e3 bc
       0.14171793 0.21663152 0.11472039 -0.027784545
0000c0 d4 bd af 3e 9f 40 c2 3e ea 76 53 3e 3e 5b 06 be
       0.34324515 0.37939927 0.20650831 -0.13120744
0000d0 81 f1 c4 bd 79 a8 3c be 4b 9a 5b 3e 59 1a 86 3e
       -0.09616376 -0.18423642 0.21445577 0.26191977
0000e0 b6 d8 f2 bd 24 f0 ef 3d 2b a0 91 3e 65 1c 8d 3e
       -0.118577406 0.11715725 0.2844251 0.27560726
0000f0 1f 7e a5 be c9 15 b5 3e d6 2a 91 3e 6c ae 82 3e
       -0.32322785 0.35368183 0.28352994 0.25523698
000100 1a f0 90 3e 36 80 b8 be a2 4c 94 3e ff 99 5b 3e
       0.28308183 -0.36035317 0.28964716 0.21445464
000110 35 a3 26 be b7 85 89 be 2a 9c 79 3e 00 26 2c be
       -0.16273196 -0.2685983 0.24375978 -0.16811371
000120 9f c2 72 3e 59 75 24 be eb ed 49 3e 58 53 6f bd
       0.23707055 -0.1606039 0.19719665 -0.058429092
000130 c9 12 c3 3e 6f 64 be 3e ac 18 8e 3e 5f 7e 8c 3e
       0.3810027 0.37186 0.27753198 0.27440163
000140 35 62 be be 2b 7e 38 be 4c f4 c3 bc f5 5e af 3e
       -0.371843 -0.1801688 -0.0239202 0.34252134
000150 30 dc cc bd 36 0c 71 be 6a 77 b6 be d7 a8 0d 3e
       -0.10002935 -0.23539814 -0.3563798 0.13833939
000160 ee b1 c7 be 24 b0 94 bd cf 41 e1 bd 9d d5 b7 3e
       -0.39002937 -0.07260159 -0.1099888 0.35905161
000170 f1 bc b3 be fe 7e cf 3e 14 c5 cc be d0 12 d0 be
       -0.35105088 0.40526575 -0.3999411 -0.40639353
000180 6d 08 8d 3e 1a 41 49 3e d5 dd cf 3d 58 a4 bd bd
       0.2754549 0.1965374 0.10149733 -0.09259862
000190 0d 0e fa 3c fe b9 86 3d 7a 08 51 bc 8b 97 65 3e
       0.030524278 0.06578444 -0.012758369 0.2242109
0001a0 f6 03 c2 be dc 62 81 be 16 79 a6 3e c3 56 cd 3d
       -0.37893647 -0.25270736 0.32514256 0.10026314
0001b0 b3 f8 48 be c2 49 8b 3e e7 3b ca be d0 f5 9d 3d
       -0.19626121 0.2720471 -0.39498827 0.07712901
0001c0 f2 35 ee bd 00 42 be bd 87 7b 64 3e 59 3b a2 bd
       -0.11631383 -0.09289932 0.22312747 -0.07921476
0001d0 ea f1 b8 3e 9c 14 7a be 9b b5 be 3e 5c 80 4b 3e
       0.36122066 -0.24421924 0.3724793 0.19873184
0001e0 a7 74 78 3e 2e 41 27 be 80 3a 37 3e 17 3f 04 3e
       0.2426325 -0.16333458 0.1789341 0.12914692
0001f0 4c e7 79 be 99 b7 72 be 5f 67 1d 3e f7 63 b0 bb
       -0.24404639 -0.2370285 0.15371464 -0.0053830105

gat1.att_dst f4 [1, 4, 32]
000000 85 50 39 3e cf d6 98 3e a5 e7 16 be 95 b2 b8 3d
       0.18097122 0.29851386 -0.14736803 0.09018437
000010 d1 ad a9 be 7a d0 ae 3d 95 e5 1b 3c f8 f8 7e be
       -0.33140424 0.085358575 0.009515186 -0.24899662
000020 89 4a 3d 3e c3 6c 73 be 81 52 17 3e 50 27 e7 3d
       0.18485464 -0.23771958 0.14777566 0.11286795
000030 aa f0 94 3e 79 99 aa bd 9f 3b c9 bd d0 c8 8b be
       0.29089862 -0.08330054 -0.09825825 -0.27301645
000040 9b 35 97 3e 13 98 7c 3e 3b 96 86 be d3 59 62 be
       0.29533085 0.24667387 -0.26286492 -0.22104578
000050 78 36 8d 3e 59 c3 0d be cd 11 f2 bd 6f f0 16 be
       0.2758062 -0.1384405 -0.118198015 -0.14740156
000060 5a 4e 96 be c6 b6 ff bd fe 67 d5 3d a3 bc c3 3d
       -0.29356652 -0.12486033 0.104202256 0.09557464
000070 df 1e be bd 02 6a 17 bd 25 5f 5a 3e 17 c7 09 bd
       -0.09283232 -0.03696633 0.21325357 -0.033637132
000080 14 30 34 be 9f a3 a0 3e 7b 19 84 3e 19 82 4b bc
       -0.17596465 0.31374833 0.2580069 -0.012421154
000090 c1 3a 8d be cf f5 d4 3d c8 8c 04 be c2 a3 0c be
       -0.27583888 0.10398447 -0.12944329 -0.13734344
0000a0 d2 de 09 be 82 30 1a be da 6b c4 3d fc da 69 3e
       -0.13463905 -0.15057567 0.095908836 0.22837442
0000b0 4b 33 8f be a0 ac 7c bd 59 91 5d 3d ea ea 80 3e
       -0.2796882 -0.061688066 0.054093692 0.25179225
0000c0 e1 98 94 be c8 96 26 3e b9 7a 45 3e 0f bd c5 be
       -0.29022887 0.16268456 0.19285096 -0.38620803
0000d0 cd 91 ab bd f2 66 1c 3e 05 77 f7 3d 34 42 41 bd
       -0.08377419 0.15273646 0.12083248 -0.047182277
0000e0 1f 49 7b bc 54 87 02 be 11 39 a0 be b6 2a 2c be
       -0.015337258 -0.12746936 -0.31293538 -0.16813168
0000f0 11 9f cc be 93 25 99 bd dc ce 90 3e ad 3d ec 3d
       -0.39965108 -0.0747787 0.2828282 0.11535201
000100 ff 0f 04 3e 15 e6 e1 3d b5 68 18 be ba 3a 55 3e
       0.12896727 0.11030213 -0.14883693 0.20823184
000110 2e 43 85 be 45 0c 3c be 54 12 69 be 15 ab 85 bd
       -0.26027817 -0.18364055 -0.22760898 -0.06526772
000120 ff 6e 4e 3e 9f bd c9 3e 7a d2 06 3e c3 c2 e0 3d
       0.20159529 0.39402482 0.13166228 0.10974648
000130 1a 14 d1 3d be 2a 12 be 0c a2 8a be 04 b7 ad 3e
       0.10208912 -0.14274117 -0.27076757 0.33928692
000140 fc 40 56 3b dd e8 60 3e a7 c6 28 be 6c 89 95 be
       0.0032692542 0.2196383 -0.1648203 -0.29206407
000150 a3 59 ed bd 2d ba 5c 3e 8d e7 35 3e b6 f1 d5 bc
       -0.115893625 0.21555395 0.17764111 -0.026116233
000160 37 f4 24 bd e4 6d 48 bd a1 13 ac be ea d6 2d be
       -0.040271964 -0.048932925 -0.33608726 -0.16976514
000170 8e 8a 5a 3e 2c 12 2d be 1b 09 38 3e 06 2c 77 be
       0.21341917 -0.16901463 0.17972223 -0.24137887
000180 97 dd 45 3e 17 61 00 3e 0a 84 bf 3e 12 c7 b2 3e
       0.19322811 0.12537037 0.37405425 0.34917504
000190 cc 7a 99 bc 08 5d 2e be 24 15 aa 3d 2e 63 f6 bd
       -0.018735312 -0.17027676 0.083048135 -0.12030636
0001a0 f9 e4 19 be 0a 8c 82 3d 98 31 e4 3d 78 2b b5 bd
       -0.15028752 0.063743666 0.11142272 -0.08846182
0001b0 0c f0 a2 3e d5 e7 84 be b9 3a ca 3d f5 f0 85 3e
       0.31823766 -0.25958124 0.09874482 0.26160398
0001c0 77 53 8b 3e fa ab 50 3e 72 58 8f be 4b 3f df 3d
       0.27212116 0.20378104 -0.27997166 0.10900744
0001d0 6e c0 07 3d ab b8 a0 3d 96 4f ac be 50 3d 6a 3d
       0.0331425 0.078477226 -0.3365447 0.05718738
0001e0 d7 d8 61 3b d7 a6 66 3d f6 f1 e8 bd 5e 91 40 bc
       0.0034461522 0.056311455 -0.113742754 -0.011753408
0001f0 4c af c2 3d 4d 43 06 3e 69 f9 98 bb ea b3 53 3d
       0.095060915 0.1311161 -0.004668404 0.05168525

gat1.bias f4 [128]
000000 cb 76 18 39 cd 36 40 b6 7c ff a8 b9 91 7b 0d b9
       0.00014540103 -2.8642128e-06 -0.00032233808 -0.0001349284
000010 62 e5 9c b9 f4 d2 f0 b9 57 4e ac b9 f5 fd 2b b8
       -0.00029925542 -0.0004593354 -0.00032864764 -4.1006093e-05
000020 e1 14 9f b9 5f a8 2b b9 10 c4 51 b7 e5 35 ff 38
       -0.000303424 -0.00016370554 -1.250302e-05 0.00012169386
000030 fd fd bd b8 11 0b eb 38 cb 26 b7 b9 00 6e c8 38
       -9.059531e-05 0.000112077345 -0.00034933383 9.557232e-05
000040 b1 ce c6 b9 3a 82 ef b8 e7 b0 96 39 61 e0 ad 39
       -0.000379195 -0.00011420665 0.00028742032 0.00033164307
000050 3c 02 95 b9 af a0 26 39 65 71 2d b7 ac ff b2 39
       -0.0002842116 0.00015890853 -1.0338005e-05 0.00034141296
000060 cf db 31 ba b1 a8 0f 39 bc 15 d0 b9 e5 60 db 38
       -0.0006784768 0.00013700385 -0.00039689045 0.00010460782
000070 07 eb cb b8 02 0e 90 39 54 25 71 39 57 e4 38 38
       -9.7235716e-05 0.00027476257 0.00022997457 4.4081677e-05
000080 a1 69 75 b9 99 24 13 ba 90 7a 0f b8 61 17 7c b9
       -0.0002340437 -0.00056130585 -3.4208002e-05 -0.00024041302
000090 ca 72 2b b8 13 5a 93 38 34 90 33 b9 03 09 1b b9
       -4.0876483e-05 7.026284e-05 -0.0001712449 -0.00014785309
0000a0 aa 0e 82 b9 8b 75 02 ba 6a 4c 2f b9 fa 3e 13 3a
       -0.00024806458 -0.0004976622 -0.00016717767 0.0005616989
0000b0 5d 2c 44 b9 36 c1 53 b9 34 74 98 39 dc 36 dd b9
       -0.00018708543 -0.00020194505 0.00029078277 -0.00042193278
0000c0 ac 7a a2 38 d2 af 0e 39 c0 98 6b b8 e8 4d 0c ba
       7.7476114e-05 0.00013607673 -5.6170626e-05 -0.0005352185
0000d0 c5 f8 c9 b9 56 78 04 39 53 6a 07 3a 6b 81 77 b9
       -0.00038523055 0.0001263333 0.0005165685 -0.00023603968
0000e0 f3 d4 0f ba 6b d8 29 39 82 6c bb b9 e1 f5 f3 39
       -0.0005486749 0.00016197718 -0.00035748264 0.00046531766
0000f0 8b b5 ef b8 0a d8 31 ba ac ac 7e 39 12 a9 69 38
       -0.00011430223 -0.00067842065 0.00024287653 5.5708988e-05
000100 7f d0 14 3a 86 34 c3 39 08 bd 04 3a 7b 86 91 b9
       0.00056768203 0.0003723243 0.0005063568 -0.0002775675
000110 d1 72 9e b9 b0 76 38 38 75 5e c6 b9 9e 1e 14 b9
       -0.00030221653 4.3979555e-05 -0.0003783588 -0.00014125786
000120 6f f2 03 b9 6f eb 8d 39 4b f9 82 b9 37 f2 5d 38
       -0.00012583447 0.00027069027 -0.0002498127 5.2916086e-05
000130 73 8a 97 39 e9 c2 02 ba b2 4d f1 39 0c 09 2c 3a
       0.00028904117 -0.00049881503 0.0004602499 0.00065626274
000140 78 c1 34 b8 cd d8 bd 39 9f 7e 56 ba e2 a1 16 38
       -4.3095526e-05 0.00036210418 -0.000818232 3.5913552e-05
000150 f9 71 33 ba b7 bf e7 b9 2c 1c ec b7 95 d3 c5 b9
       -0.00068452914 -0.00044202592 -2.814651e-05 -0.0003773241
000160 74 30 08 ba ec 36 99 36 09 03 a1 36 a8 ab 8d 38
       -0.00051952084 4.566149e-06 4.7985272e-06 6.7553774e-05
000170 e2 71 4c b8 a1 85 3a b8 02 73 9d b9 37 00 c4 39
       -4.874345e-05 -4.4470307e-05 -0.0003003106 0.00037384193
000180 52 97 48 39 98 28 89 39 9f fa de b9 50 f9 0d 39
       0.00019129858 0.0002616092 -0.00042529867 0.00013539684
000190 e3 dd e6 39 d7 94 14 ba 1e fc 0d 3a a5 75 63 b9
       0.00044034337 -0.0005667931 0.00054162915 -0.00021692233
0001a0 3d e5 54 b9 bd c7 2e 39 59 65 9c 39 ba ab 28 39
       -0.00020303293 0.00016668341 0.0002983015 0.00016085702
0001b0 e9 90 61 b9 94 5b 47 38 84 1d 16 37 e9 34 fe 39
       -0.00021511655 4.7530586e-05 8.947569e-06 0.00048486076
0001c0 36 49 80 ba fa a0 1a 39 fd a9 b4 b9 3c aa af b8
       -0.0009787444 0.00014746553 -0.00034458927 -8.376359e-05
0001d0 ed df 80 39 73 65 b0 b9 84 e6 b9 b8 7d 1b 99 b8
       0.000245809 -0.00033644921 -8.864424e-05 -7.3007286e-05
0001e0 d9 6c 0e ba 06 c3 43 b9 13 71 aa 39 82 91 77 b9
       -0.00054330897 -0.00018669301 0.00032509174 -0.00023609961
0001f0 66 70 b8 b8 58 77 43 b9 a9 72 c7 b9 df ea bf 39
       -8.7947396e-05 -0.00018641108 -0.00038041666 0.00036605351

gat1.lin.weight f4 [128, 5]
000000 f7 8b 04 be b7 9b 0c 3e 88 d0 4f 3e 04 79 db bd
       -0.12944017 0.13731275 0.20294392 -0.10716441
000010 4f 77 b8 3d fe 7b 19 bc 7d 5a f9 bd 78 35 ef 3c
       0.09007131 -0.009367941 -0.121754624 0.0292003
000020 23 70 0a be c4 ce 5c 3e bb 74 8c bd 62 71 e3 bd
       -0.1351934 0.2156325 -0.06858202 -0.111056104
000030 06 e1 4c be 54 b9 20 3d a2 59 ac 3d 90 72 2f 3e
       -0.20007715 0.039239243 0.084155336 0.17133546
000040 7e 95 04 3e d2 80 0b 3e 20 17 e2 3d ba 9a 9a 3d
       0.12947652 0.1362336 0.11039567 0.07549043
000050 60 05 e5 bd bb ec 0a be 2c 25 42 3d 32 4b 03 3c
       -0.11182666 -0.13566868 0.04739873 0.008013533
000060 35 c7 9d 3d 74 1a 06 3e 8c 59 f9 bd 4b 0f 33 bd
       0.07704011 0.13096029 -0.12175283 -0.043715756
000070 f0 df 80 3b cb 65 17 bc f2 c7 27 be eb 0d 23 3e
       0.0039329454 -0.009240578 -0.16384867 0.15923278
000080 dc 84 03 3e be 5c 14 be f2 9f 0a 3d 2e 15 bf 3c
       0.1284365 -0.14488503 0.033843942 0.023325529
000090 c1 b6 05 3e ef a7 2d 3e 5f 79 bb 3d 29 c0 13 3e
       0.13057996 0.16958593 0.09154009 0.14428772
0000a0 69 d7 4b 3e 67 99 41 be 6a 72 09 be 51 eb 96 3d
       0.19906391 -0.18906175 -0.13422552 0.07369102
0000b0 33 bf 06 3e 05 91 62 bb 32 34 39 3e 36 0b 8d 3d
       0.13158874 -0.0034571302 0.18086317 0.06886904
0000c0 34 b5 4a 3e b8 0b 5e 3c c4 0c a8 3d 4e 8c d0 3c
       0.19795686 0.013552599 0.0820556 0.025457527
0000d0 e7 e7 55 3e 6f 58 44 3e e4 8a 1f 3d 0d bf f0 bd
       0.20889245 0.1917436 0.038950816 -0.1175519
0000e0 a4 0f 8d bd fe 46 23 3e c8 7d b0 bc 3e ad 19 3e
       -0.06887749 0.1594505 -0.021544352 0.15007493
0000f0 f0 1f a4 3d 72 97 a6 bd 1c b7 43 3e 47 f7 3f 3e
       0.08013904 -0.08134355 0.1911282 0.18746673
000100 8a a4 e3 3d 74 02 81 bb af b0 5b 3e c9 34 b7 bd
       0.11115368 -0.00393706 0.21454118 -0.08945615
000110 8d 83 1f 3e 0f 1d 1b be b2 d2 83 bd 9c ad de bd
       0.15577526 -0.15147804 -0.06436671 -0.10872957
000120 e3 b9 d5 3c 3c b3 08 3e 2b 1d 99 3b 05 89 56 3d
       0.026089614 0.13349622 0.0046726665 0.052376766
000130 b2 d2 0e be 5a ef dd bd 08 fc 47 3d e2 70 3b 3e
       -0.13947561 -0.10836668 0.04882434 0.1830478
000140 a2 d6 23 be 17 79 8f bd c5 a2 22 3e 5e a5 01 3e
       -0.15999845 -0.07005518 0.15882404 0.12660739
000150 bf 59 4e be 3d 4f 16 3e fb 32 c6 3d c1 c6 30 3e
       -0.20151423 0.14678665 0.096776925 0.17263319
000160 a9 c4 e8 3b 5e 65 ab 3d ca 9e bb bd 86 74 e7 bd
       0.007103522 0.08368944 -0.09161146 -0.11301522
000170 48 f2 39 3e 3e 4c a1 3d 36 a4 54 be d9 94 de 3d
       0.18158829 0.0787587 -0.20765767 0.10868234
000180 2f 95 31 bd 68 17 01 3d 8a 8a 52 3e 76 d0 50 be
       -0.043355163 0.031516463 0.20560661 -0.20392022
000190 92 46 17 be b6 44 04 be 10 eb e2 bd ad 51 a5 3d
       -0.14773014 -0.12916836 -0.11079991 0.08072219
0001a0 18 df 39 3d 85 b1 50 bd fc fd ac 3d 9e 5e ba bd
       0.045378774 -0.050950546 0.08446881 -0.09100078
0001b0 86 bd 4f 3e ba 45 4d bd d3 ea 0e 3d e3 64 45 bd
       0.20287141 -0.050115325 0.034891915 -0.048191916
0001c0 7c e3 42 be 24 7d 9a 3d fb 27 45 bd d2 b7 0a be
       -0.19032091 0.075434 -0.04813383 -0.13546684
0001d0 b5 32 58 3d d7 c0 52 3e 27 a0 18 3d a2 94 b9 3d
       0.052782733 0.20581375 0.03726211 0.090615526
0001e0 c0 77 fc bc b1 5d 45 3e d1 26 f1 bd 65 3d 98 3c
       -0.03081882 0.19274022 -0.11774982 0.018583963
0001f0 77 0c 01 3d d8 31 da bd ce da 53 3e 98 2c 6a bd
       0.031506028 -0.10654038 0.20688936 -0.057171434
000200 15 69 4a 3d 61 43 34 3d 2e 93 3a 3e c9 ec 84 3d
       0.04941662 0.04400957 0.18220207 0.06490476
000210 b6 ee 1d be 46 ae 2f be d8 7e 30 be 92 89 fe bc
       -0.15423092 -0.17156324 -0.17235887 -0.031071458
000220 f9 51 0b 3e 90 9c d6 3d 95 c0 46 3e cd 94 28 3e
       0.13605489 0.10479081 0.19409402 0.16463013
000230 db 5a 76 3c 33 65 45 3e ba a3 87 bd f0 36 54 3e
       0.01503631 0.19276886 -0.06623025 0.20724082
000240 85 92 1d be fa b9 20 3e 87 f7 4a 3e 6e 7d 04 3e
       -0.15387924 0.15695944 0.19820987 0.12938473
000250 1b 85 8f bc 19 3a 2e bd e1 a0 90 bb 29 67 4f be
       -0.017519524 -0.042535875 -0.0044137095 -0.20254196
000260 a0 90 41 bd b6 3e 43 be 63 0b 62 3d d2 dd e6 3d
       -0.047257066 -0.19066891 0.05518664 0.112727776
000270 fb de 54 be 09 21 0c 3e 77 c4 2b be f2 40 e4 bd
       -0.20788185 0.13684477 -0.16774164 -0.111452
000280 cb 3a a6 bd 5c 18 5a be 0a 9d 17 3c 97 68 6a 3d
       -0.081166826 -0.21298355 0.00925375 0.05722865
000290 5a 01 0c bd 1f 7f 54 be d0 1d 03 3e 5e 84 38 3e
       -0.034180976 -0.20751618 0.12804341 0.18019244
0002a0 04 fc 3f be 47 b4 17 bd f7 4c 33 3e f0 d9 2a bd
       -0.1874848 -0.03703716 0.17509829 -0.041711748
0002b0 09 82 fc 3b 5b f7 92 bc d4 6b 55 3e 9a dc 15 be
       0.007705931 -0.017940214 0.20841914 -0.14634934
0002c0 47 e6 6d 3d 70 cb fa 3d 61 95 52 3e 99 c2 d5 bc
       0.058080938 0.12245834 0.20564796 -0.026093768
0002d0 7f 84 c0 bc 33 e4 ca 3d 9d ac 55 bd 06 6c 4c bd
       -0.023500679 0.09906807 -0.05216657 -0.049907707
0002e0 3f 3c e8 bd 14 8e 0f be ce 98 2f be 6f 16 64 3d
       -0.11339616 -0.14019042 -0.17148134 0.055685457
0002f0 04 bb 5d bc f1 b3 49 bc 20 79 cb 3d 50 d0 40 be
       -0.0135333575 -0.012310968 0.09935212 -0.18829465
000300 fb 11 c5 bd b1 10 68 3b eb 5a 56 be 75 48 81 3d
       -0.0962257 0.003541034 -0.2093312 0.06312648
000310 df da c1 3d ba 61 2d 3e ab 4a 79 3c 14 f6 30 3e
       0.094655745 0.16931811 0.015215556 0.17281371
000320 d2 de 05 3e a3 3d cd 3d 60 84 3c be a2 f8 4f bd
       0.1307328 0.10021522 -0.18409872 -0.050774224
000330 7a 83 97 bc e9 eb 96 bc 7a 3a f1 bd 41 e1 1f be
       -0.01849531 -0.018423038 -0.11778732 -0.15613271
000340 54 ca f8 3d 96 1f 58 3d 67 9d 19 be 62 fd 21 be
       0.12147966 0.052764498 -0.1500145 -0.15819314
000350 7b f1 fc 3c a6 99 d6 bd 92 84 fb 3d 8a 05 45 3e
       0.030876866 -0.10478525 0.12281145 0.19240394
000360 34 ee aa bd 86 09 1c 3e fb fc a0 3d 24 e7 37 be
       -0.08346215 0.15238008 0.07860752 -0.17959267
000370 ac 11 db 3d b4 15 86 3c 76 26 71 bc 69 04 5f bd
       0.1069673 0.01636777 -0.014718642 -0.054447565
000380 ee 64 b8 3c a4 49 3e bc 89 ba 36 be 30 d5 90 3d
       0.022509065 -0.011614237 -0.17844595 0.07071912
000390 4d 26 3f 3e b4 70 15 3e f0 07 94 bc 79 f2 ee 3d
       0.18666954 0.14593774 -0.018070191 0.11667342
0003a0 6d 89 9c 3c 18 91 8f 3d 88 f1 4f 3e 9b ff 14 3d
       0.019108498 0.07010096 0.2030698 0.036376577
0003b0 d9 b1 fb bb 77 73 46 3e 96 ea 04 be 55 1d 33 be
       -0.007681113 0.19379984 -0.12980112 -0.17491658
0003c0 3e ab 2f 3e 4c 69 22 bd f0 f2 0e 3e 1d 74 46 3d
       0.17155167 -0.0396512 0.13959861 0.048450578
0003d0 5b 9a f7 bd 2b c5 4a 3e d9 e8 82 bd 92 6e 76 bd
       -0.12089988 0.19801776 -0.063920684 -0.06016404
0003e0 12 b6 42 3e 1f bb b3 bd 4d c0 c8 bd 4a 96 db bd
       0.19014767 -0.08775925 -0.098023035 -0.10722025
0003f0 f6 b8 37 3d 32 c9 a6 3d 5b 93 58 be 1b 72 be 3b
       0.044854127 0.08143844 -0.21149962 0.0058119423

sage1.lin_l.weight f4 [128, 128]
000000 13 ae 80 bd ba cf 9f 3d 30 2b 5c bd 21 ac 35 bd
       -0.06283202 0.078032926 -0.053752124 -0.044353608
000010 72 36 41 bc 5c 50 91 bd 1c 26 32 bd e9 96 13 bd
       -0.011792766 -0.070954055 -0.043493375 -0.03603259
000020 a5 38 10 39 ba dd 8c bd 3e c9 86 bd 3b 65 c4 3c
       0.00013754012 -0.068782285 -0.06581353 0.023974052
000030 ee 66 7e bd 5e 07 26 bd 24 02 f4 3c da 26 2a 3c
       -0.06210988 -0.04053437 0.029786177 0.0103852395
000040 a4 d3 87 bd 38 c7 de 3c b6 3b 06 bd f5 9e 28 3d
       -0.06632164 0.027194604 -0.03277179 0.04116722
000050 d1 66 27 bd b2 aa 84 3d 7a 1f af 3d e2 3e 94 bd
       -0.040869538 0.0647787 0.085509256 -0.072385564
000060 b8 90 0f 3c 09 ff a7 bb 4f 56 f8 3b d6 90 42 3d
       0.008762531 -0.005126838 0.007578648 0.047501408
000070 c8 81 76 bd 3a 07 d8 3c 68 60 fa bc 30 ec 44 3d
       -0.060182363 0.026370633 -0.030563548 0.04807681
000080 13 53 51 bd 67 23 0f 3c 89 6c 2f 3d 3b 81 86 3d
       -0.051104616 0.008736468 0.042828117 0.065676175
000090 ba f0 65 bd f6 12 15 3d b4 51 82 3b 28 aa 25 3d
       -0.056137778 0.036395036 0.003977025 0.040445477
0000a0 d7 9f b1 bd 54 48 1a bd c3 93 1f 3d f7 43 95 bd
       -0.08673065 -0.037666634 0.038959276 -0.07288354
0000b0 67 cc 8b 3d 3c fe a6 3c 9a 02 88 bd 67 6d 8d bd
       0.06826096 0.0203849 -0.06641121 -0.069056325
0000c0 b7 01 bc 3c f9 d1 ac 3c d4 38 4e 3d fc 60 b2 3d
       0.022950036 0.021096217 0.050347164 0.087099046
0000d0 f9 84 96 3d 53 75 63 3b 10 da c7 3c 4e a0 a8 3d
       0.07349581 0.0034707382 0.024395972 0.08233701
0000e0 64 a5 b3 bd e8 5f d0 3b a7 4c 3e bd ec 27 9a bb
       -0.0877178 0.006359089 -0.04645982 -0.004704466
0000f0 c1 f4 85 3d 78 26 34 bd 08 ee 8d 3d c2 a5 77 3c
       0.06540824 -0.043982 0.069301665 0.015115203
000100 01 9a a3 3d 1a de a2 bd 29 08 ea 3c 4a 62 81 3d
       0.07988358 -0.07952519 0.028568344 0.06317575
000110 cc 19 c7 bc cb eb 90 bc 78 01 1d bd 02 58 86 bd
       -0.024304293 -0.01769056 -0.03833148 -0.06559755
000120 a6 ae f6 bc 95 95 d3 3c 27 80 5a 3d b9 ff 81 3d
       -0.030112576 0.025828162 0.05334487 0.06347603
000130 3f ff 05 3d 49 fc 66 3d d7 f0 ab bd bc 9b a5 3d
       0.032714125 0.05639294 -0.08395546 0.080863446
000140 6c 05 ae bd c2 53 9d bd 7f 6f 8e bd 69 41 98 3d
       -0.08497128 -0.07681991 -0.0695486 0.07434351
000150 94 c2 3b 3c cc 46 30 bd b3 ae 71 3b f2 c4 3f bd
       0.011459965 -0.043036267 0.003687781 -0.04681868
000160 04 16 71 3c e5 a0 31 bd aa a4 b3 bd 52 7a 80 3c
       0.014714722 -0.04336633 -0.087716416 0.015683327
000170 96 61 f0 3c b3 6d 3a 3c d4 7a 8f 3b b4 a5 94 3d
       0.029343408 0.011378693 0.004378656 0.07258168
000180 a4 fd 1a 3d 9f 6d 27 bd 99 92 23 bd 48 56 8c 3c
       0.037839547 -0.040876027 -0.03993473 0.017130986
000190 cd 7c 66 bd 67 f4 85 3c ed 1b 14 bd 44 ca 75 bd
       -0.056271363 0.016351892 -0.036159445 -0.06000735
0001a0 80 e3 99 bd f3 bc 9a 3d 5e 2d 8f bd e3 cc a4 3c
       -0.07514095 0.075555705 -0.06991075 0.020117229
0001b0 6f 65 ee bc 54 0e 51 3d 2d b4 e2 bc 14 0b 6b 3d
       -0.029101102 0.051039055 -0.027673805 0.05738361
0001c0 aa 6c 92 3d d7 ea 78 bd ba 45 33 3d 0e 95 ca 3c
       0.07149632 -0.060770836 0.04376767 0.024729278
0001d0 ca 50 5f bd 0d 0e 94 3d f4 16 91 3d 95 f0 a1 bd
       -0.054520406 0.072292425 0.07084456 -0.079072155
0001e0 df 34 9a 3d 0f a9 b1 bd 2c de 30 3c 1e 57 b8 3b
       0.075296156 -0.086748235 0.010795157 0.0056256196
0001f0 aa ee 84 3d f0 d0 ca bc a3 9c 51 3d 31 33 03 bd
       0.06490834 -0.024757832 0.05117477 -0.03203124
000200 cc 17 6b 3c cb e2 b2 3c 9c c7 f7 bc ab 69 a6 3d
       0.014348935 0.021836659 -0.030246548 0.08125623
000210 16 8d 39 3d d5 5a 21 3d 9c e4 90 bd 3c 15 ac 3d
       0.045300566 0.039393265 -0.07074854 0.08402488
000220 bc 24 b2 bd fd 62 28 bc 3c 9f dd bb 71 1e 1c 3c
       -0.08698413 -0.010277507 -0.006763367 0.009528742
000230 9e d8 9c 3d 36 f7 78 3c 52 56 9a 3d 8f ab 29 b8
       0.07658504 0.015195658 0.075359955 -4.0452516e-05
000240 cc 9d 2d bd 1a 91 a9 bd fe 80 17 bd a1 a9 12 bd
       -0.042386815 -0.08279629 -0.03698825 -0.035806302
000250 4f 67 81 3d 5a f0 6a 3d 6c f1 a6 bd 13 54 63 3c
       0.06318533 0.057358123 -0.08151516 0.013875025
000260 25 95 17 3d 6e 05 73 3d ff 8a 88 bb eb 6c 7c bd
       0.03700747 0.05933135 -0.0041669603 -0.06162731
000270 98 e8 b0 bc 44 64 90 bd fc 5f 43 3d 14 94 95 bd
       -0.021595284 -0.07050374 0.04769896 -0.07303634
000280 7f 38 07 bc 21 11 06 bd 58 4e ba bd 4c ca 6f bd
       -0.008253216 -0.03273118 -0.09096974 -0.058542535
000290 88 af 24 3d 64 3c a6 3d 70 85 6b 3d 60 c9 85 3d
       0.040206462 0.08116987 0.057500303 0.0653255
0002a0 17 75 78 3d cd db 27 bd f0 30 91 bd 42 72 4c bd
       0.06065854 -0.040981103 -0.07089412 -0.049913652
0002b0 42 5c 84 bd e4 7e 9d 3d 67 58 76 bd ce 84 61 bd
       -0.06462909 0.07690218 -0.0601429 -0.055058293
0002c0 81 9e 2b 3d f7 d9 30 3d c0 4d 81 bc ec 1a 41 3c
       0.041899208 0.043176617 -0.015784144 0.011786204
0002d0 41 e2 8d bd e3 c5 1c bd 64 c4 5a 3d 7e 8e 8f 3d
       -0.0692792 -0.038274657 0.05340995 0.070096
0002e0 bf 10 4c 39 09 6c 97 3d c3 e5 51 3a 23 c5 ab 3d
       0.00019461194 0.07393653 0.00080069544 0.0838721
0002f0 38 01 9a bd 2c 1b bc bd 8a b8 b6 3d f5 7d ec 3c
       -0.07519764 -0.0918487 0.08921917 0.028868655
000300 7f 91 22 bb a6 d2 67 3d f6 ae 87 3d b3 39 0f 3d
       -0.002480596 0.056597374 0.06625168 0.034967136
000310 60 61 96 3c 92 42 62 bd a7 11 5f bd 31 2a 99 bd
       0.018356979 -0.055239268 -0.054460194 -0.074787505
000320 72 17 47 bd 50 00 c0 3c de 5c d4 3c 85 bc 72 bd
       -0.048606344 0.023437649 0.025923189 -0.059261817
000330 b2 4c 26 3c fb 77 21 3d 2a 5f 99 bd 77 87 35 3d
       0.0101501215 0.039421063 -0.07488854 0.044318642
000340 3d da 6c bd a1 0c 66 3b 37 8b 08 3d 75 98 94 3d
       -0.057825316 0.0035102742 0.03333589 0.07255641
000350 90 11 4b bd 05 8b b2 bd 5b 68 94 bd 91 f6 fb 3c
       -0.049577296 -0.08717922 -0.07246467 0.03075722
000360 e8 80 d0 3b 2a 2c d2 bb 2f 90 bb 39 29 4c 26 3d
       0.006363023 -0.006413956 0.00035774845 0.040599976
000370 25 26 b3 bd 1a c6 5b 3d 06 dd 37 bd 8a ae ae bc
       -0.0874751 0.05365572 -0.04488852 -0.021323461
000380 06 df b6 3d ec 41 81 ba 09 ac 8f bc e7 96 af bd
       0.08929257 -0.0009861565 -0.017538087 -0.08573704
000390 73 74 be bc 79 86 4d bd 62 08 9e bd 7d 7f c0 3c
       -0.023248887 -0.05017707 -0.07716443 0.023498291
0003a0 1d 51 30 3d 7c 3b f9 3c d0 ff 00 3d 7e 1a 8f bd
       0.043046106 0.030423872 0.03149396 -0.06987475
0003b0 3e 46 9b bd 20 f8 13 3d 74 0d 28 bd b9 ba 95 bc
       -0.07581757 0.036125302 -0.041028455 -0.018277513
0003c0 dd 13 f3 bc fa 3c a9 bd 6f d3 96 3d 93 d0 22 bb
       -0.029672557 -0.082635835 0.073645465 -0.0024843558
0003d0 12 b4 9a 3c 7f 78 b1 bc dc 47 76 bd e8 c3 8d bc
       0.018884692 -0.021663902 -0.060127124 -0.01730533
0003e0 07 b7 42 3d aa 13 e8 bc 0b 4c 8f 3d 24 7a a8 bb
       0.04753783 -0.028329689 0.06996926 -0.0051415134
0003f0 70 44 c7 3c 81 35 95 bd 80 9a ab 3c 1f 95 1f bd
       0.024324626 -0.07285596 0.020947695 -0.038960572

sage1.lin_l.bias f4 [128]
000000 d6 6c 24 bd 26 7d 5e bb d4 8b 2e 3d ad 10 98 3d
       -0.040142857 -0.0033949106 0.04261382 0.07425056
000010 3f 2b 29 bd c4 05 70 bd 7e 4a 80 bd ca 12 82 bd
       -0.04130101 -0.05859925 -0.06264208 -0.0635124
000020 d9 a8 1e 3d 6b de 4b bd 78 3d 75 bd 0f 84 0d bd
       0.038735244 -0.04977266 -0.059873074 -0.03454977
000030 d5 12 68 3d db 3a 67 3d ff b6 66 bd 0d 99 f3 3b
       0.056658585 0.056452613 -0.056326862 0.0074340166
000040 0c 10 75 bc ad 9c 89 3d b8 22 82 3c fe 92 8a 3d
       -0.014957439 0.06719337 0.015885696 0.06766318
000050 23 e2 fc bc 07 8f 84 3d 64 00 38 bc f3 87 db 3c
       -0.03086955 0.06472593 -0.011230562 0.026798224
000060 5f 40 83 3d 43 e5 79 bd 1b 67 08 3d 49 22 1e 3d
       0.06408762 -0.061009657 0.033301454 0.038606916
000070 32 89 7d bd 0f 86 aa bd f3 3f f2 3c 82 a2 4b bc
       -0.061898418 -0.08326351 0.029571509 -0.012428882
000080 da 24 0a bd 1d 31 2d 3c 19 b7 89 bd da dd 4c 3c
       -0.03372655 0.010570792 -0.06724376 0.012504065
000090 40 28 53 3d cf f3 6b 3d a9 95 01 bc e2 ae ed 3c
       0.051552057 0.05760556 -0.007909217 0.029014055
0000a0 29 0d 8c bd 1d 23 03 bb e6 5e ad 3d 70 d0 8d bd
       -0.068384476 -0.0020009943 0.08465366 -0.06924522
0000b0 e7 e5 9a bc 5a a8 9e 3d 54 ce 6d 3d 76 65 53 bd
       -0.018908454 0.07746954 0.058058098 -0.051610433
0000c0 08 c1 91 bc 6e 10 81 bd e0 40 bf bc a4 14 ae 3c
       -0.01779224 -0.06301962 -0.023346364 0.021250077
0000d0 70 8b a2 bc 61 74 56 bd 73 3d 09 3d 1a 0b 78 bd
       -0.01984188 -0.05235708 0.03350587 -0.060557462
0000e0 b5 6d 10 bd ef 25 14 bc a1 bf 7c bd 8f b4 b0 3c
       -0.035260875 -0.009042247 -0.06170619 0.021570472
0000f0 57 f4 2b bd 88 c2 b2 3d c8 fe 28 bd fb 20 1a bc
       -0.041981068 0.0872851 -0.041258603 -0.009407277
000100 5a 4f 60 bd e6 6d c2 3c af 2e 99 3d 8f a7 f8 3c
       -0.054763176 0.023734044 0.07479607 0.030353336
000110 72 b3 f6 bb d1 e3 01 bd d4 9e 94 3d 3c ec 99 3d
       -0.0075287158 -0.031711403 0.072568566 0.07515761
000120 8a be 8c 3c 74 b5 4f bd 08 1e b7 3d ab 2f ae bc
       0.0171807 -0.050710157 0.08941275 -0.021262964
000130 29 02 5d 3d ff 23 8a 3d 3a 5b 90 bd 72 ce 16 3c
       0.05395714 0.06745147 -0.0704865 0.009204494
000140 0b b3 73 3d 23 35 8c 3d af 76 85 3a 18 e7 5e 3d
       0.05949692 0.068460725 0.0010182465 0.054419607
000150 b0 68 9b 3b 3a e7 99 bc 8b 21 53 3d 99 cd 9d 3c
       0.0047427043 -0.018787015 0.05154566 0.019263076
000160 a1 75 19 bd 82 00 35 bd 21 11 73 3d 6a f6 2b 3c
       -0.037465695 -0.044189937 0.059342507 0.010495761
000170 90 de a0 3c 90 65 86 3d dd 90 4f 3d 81 cc a9 3c
       0.019637376 0.0656234 0.05067526 0.020727398
000180 a7 7c 5b bc 4e 4c b1 3d 99 a2 91 bd be e0 fc bc
       -0.013396419 0.08657132 -0.07111091 -0.030868884
000190 3e e1 cf 3c 9e fa 9d 3d 5f 76 92 3d 27 8b 16 bd
       0.025375959 0.07713817 0.07151484 -0.0367538
0001a0 df d1 82 3c 13 41 95 3d 07 7f 87 3d 94 83 46 3d
       0.015969215 0.072878025 0.066160254 0.048465326
0001b0 57 95 87 bd 1a ed af 3d 00 a7 41 3d b4 6e 69 3a
       -0.06620281 0.085901454 0.047278404 0.00089047407
0001c0 34 86 96 3c 80 64 5f bd 5e 79 6b 3d 66 9f a9 3d
       0.01837454 -0.054539204 0.05748879 0.08282356
0001d0 19 0e 03 3d 9f 4f 53 3d f5 da 86 3d b7 e4 a2 3d
       0.031995866 0.051589604 0.065847315 0.0795378
0001e0 e3 1c b2 3d d1 00 d3 ba fb 91 c5 3c ba 09 3e 3c
       0.08696916 -0.0016098266 0.02411746 0.011598999
0001f0 93 38 59 3d 0f b0 8b bc 96 55 07 bd aa 2f 53 bd
       0.05303247 -0.017051725 -0.033040605 -0.051559128

sage1.lin_r.weight f4 [128, 128]
000000 7d 62 40 bb 1c a3 06 bd 2a 7f ae bd 18 0a 79 3d
       -0.0029355579 -0.032870397 -0.08520348 0.06080064
000010 04 8b 97 bd 04 d2 9b 3c ed d4 9f bd a5 db 63 3d
       -0.07399562 0.019021042 -0.07804284 0.05562939
000020 cb ba 80 3b 60 e3 8b 3c 1e c6 8a 3c ad 46 8f 3d
       0.0039285175 0.017076194 0.016940173 0.06995902
000030 35 c7 80 bc 45 78 85 bd ab 66 65 bd 6f 84 61 3d
       -0.01571999 -0.0651708 -0.056006115 0.05505794
000040 1c 13 da 3b 98 eb 2b bd 63 cc e2 3b 1a b8 f2 3b
       0.00665511 -0.041972727 0.0069213375 0.0074072005
000050 39 4f 82 3d 34 31 91 3d 3a 2a 60 3b e3 28 9c bc
       0.06362767 0.07089463 0.0034204856 -0.019062465
000060 fc 6d ac 3d d4 6e ad 3d 18 17 1c bc c5 76 9a 3d
       0.08419415 0.084684044 -0.00952699 0.07542185
000070 64 e8 40 3d f7 95 06 bd 7a c8 45 bc 7a fb 43 3d
       0.047096625 -0.03285786 -0.012071723 0.04784725
000080 19 c4 a3 bd 6b 26 35 bd 6e 62 e9 3a 9e dd 91 3d
       -0.07996387 -0.04422609 0.0017805824 0.07122348
000090 db 45 45 3d 6d da bf 3c 4c fd f4 3b ac ec 7d 3c
       0.048162322 0.023419583 0.0074764844 0.0154983215
0000a0 ce 09 3c 3c 4d af 84 bd 69 c8 21 bc e9 b6 4c bd
       0.011476947 -0.064787485 -0.009874442 -0.049979124
0000b0 f9 bc 8f 3d df 75 47 bd b6 95 78 3d 95 3c b1 3b
       0.070184655 -0.048696395 0.06068965 0.0054088333
0000c0 77 5d 31 3d 6e 81 e9 b9 08 c1 a2 3d 4d 47 9f 3d
       0.043302026 -0.00044537656 0.07946974 0.077772714
0000d0 47 11 9e bd d0 b0 55 bc 60 2f 3f 3d 61 c7 a7 3c
       -0.07718139 -0.013042644 0.04667604 0.020480813
0000e0 34 6d 40 3b 97 3e 79 bd 22 c5 88 3d 81 8c ab 3d
       0.0029361965 -0.060850706 0.06678225 0.08376408
0000f0 9a c2 68 bd 9b 16 a6 3d e0 1d 9a bc c1 b6 ae bc
       -0.05682621 0.081097804 -0.018813074 -0.021327378
000100 30 ba 63 3d c4 05 4c bd da d2 96 bd 9d be 93 bd
       0.055597484 -0.049810186 -0.073644355 -0.07214091
000110 89 40 8c 3d 9c 11 dd 3c 5e cc a8 3d 98 6d ba 3a
       0.068482466 0.026985936 0.08242105 0.0014223335
000120 82 d7 45 3d dd b3 46 3d be 4c 63 bd 92 b5 a5 bd
       0.048301227 0.048511375 -0.05549311 -0.080912724
000130 a0 37 52 3d 91 bd 8f 3d 66 c4 01 3d d0 6a a7 bd
       0.05132258 0.07018579 0.03168144 -0.0817467
000140 59 88 25 bd 10 06 9b bd 3c 08 cd bc be f3 ae 3c
       -0.040413234 -0.07569516 -0.02502834 0.02135646
000150 cd c0 bc 3c 71 44 4f bd 7a 17 17 3c ee a3 ed 3c
       0.023041153 -0.05060238 0.009221906 0.029008832
000160 5f 14 39 bd 85 fb b8 3c 59 3b a1 bc 5c 94 21 3d
       -0.045185443 0.022580871 -0.01968162 0.039448127
000170 19 49 93 3d eb bd 8f bd 2c 48 44 3d fb 8d 24 3d
       0.07191677 -0.07018646 0.04792039 0.040174466
000180 a4 ca 70 bd f3 ac 19 bc a6 5c cd 3c 33 8c 53 bb
       -0.058787003 -0.009379613 0.025068592 -0.003227961
000190 a2 fc 80 bd 32 9f bf 3a fa 92 4a 3b 45 97 11 3d
       -0.06298186 0.0014619587 0.0030910359 0.035544652
0001a0 97 da 83 bd b5 45 95 3a 70 bc 55 bd a5 cc a7 bd
       -0.06438177 0.0011388572 -0.05218166 -0.0819333
0001b0 ae 92 cc bc 09 1f ad bd 34 b9 98 3d 4f b8 8e 3c
       -0.024972286 -0.08453185 0.074572 0.01742187
0001c0 a4 39 73 3d 37 59 22 3d b4 ba af bd d9 94 d2 bc
       0.059381142 0.039635863 -0.08580533 -0.025705742
0001d0 27 b4 02 bd 14 9f 57 bd 1b 41 87 bd bc a1 d6 bc
       -0.031910088 -0.052641943 -0.06604215 -0.026200168
0001e0 f4 bb af 3d 2c 10 73 3d ef 9f 8b bd 1b 68 1d 3d
       0.08580771 0.059341595 -0.06817614 0.03842936
0001f0 2e 50 5c 3d ae c4 ad 3d f5 04 ae bd b1 69 3d bd
       0.053787403 0.08484779 -0.08497039 -0.046243373
000200 71 e7 9f 3d 40 a0 04 bd 95 a3 c5 3c c9 98 9b bd
       0.07807816 -0.03237939 0.024125854 -0.07597501
000210 2c b0 ab 3d a3 04 a0 3c e4 25 77 3d ec 2f 14 bc
       0.083832115 0.019533461 0.06033887 -0.009044629
000220 34 d3 a5 3d 85 3d 3f bd b4 5f 38 3c a9 ce 61 bd
       0.080969244 -0.04668953 0.011253286 -0.055128727
000230 fd 7b 96 3d 6b 94 a3 bc 89 73 0d 3d 71 7b 0b 3d
       0.07347868 -0.019968232 0.03453401 0.03405327
000240 8b 22 a0 3d 6f e8 3b bd 5e 9e a7 3d 98 35 a3 3d
       0.078190885 -0.045875963 0.08184503 0.079692066
000250 f7 62 36 3d eb 0c 63 3d c4 00 ae 3c af f8 7c bd
       0.044527974 0.05543224 0.0212406 -0.0617606
000260 3c a4 91 3d 8f 9c 17 bd 49 5a ea 3c ef 5b 43 ba
       0.07111403 -0.03701454 0.028607504 -0.0007452359
000270 a8 b2 e3 3c d0 45 22 3d aa 11 b7 3c 0c 4c c9 bc
       0.02779515 0.03961736 0.02234729 -0.024572395
000280 8a d1 92 bc 37 b5 a7 bd b2 94 56 bd e5 9b be bd
       -0.017922182 -0.08188861 -0.0523879 -0.09307078
000290 02 82 ba bb 29 b7 97 3d f9 66 9b 3b 53 fb 9f bd
       -0.0056917677 0.07407982 0.0047425 -0.07811608
0002a0 b9 20 af bd 9b 65 c9 bc 9e 74 3c bc 85 ad 0b bd
       -0.08551163 -0.024584582 -0.011502413 -0.034101028
0002b0 5c 46 6e bd 49 bb 5e 3c a1 ec 41 3d a5 5b 05 bd
       -0.05817257 0.013594457 0.047344808 -0.032558102
0002c0 5c 6f 25 bd 64 dc 98 bd df ef 49 bd fd 75 6c 3d
       -0.040389404 -0.07463911 -0.049301025 0.05772971
0002d0 79 c0 91 bd 2b 7d 80 bc 2b 0e 13 bc de f4 8d bc
       -0.07116789 -0.015684685 -0.008975546 -0.017328676
0002e0 b8 11 78 3b 5d 04 8e bd 19 1a 83 bc 20 0e 78 3c
       0.0037852358 -0.06934426 -0.016003655 0.015140086
0002f0 41 13 1f 3c 6f 18 81 bc 8b 5b 82 3c d4 2e 07 3d
       0.00970918 -0.015758721 0.015912792 0.033003643
000300 e0 fc 59 bd 55 06 98 3c 4d 9c 8d bd b8 c9 a4 bd
       -0.053219676 0.018557707 -0.06914578 -0.08046287
000310 25 ec a8 3d d9 ef 12 bc ec 97 1c 3d fc 58 04 3d
       0.08248166 -0.008968317 0.03823082 0.032311425
000320 3f 80 88 3c 7c 40 0f 3d e7 11 a0 bd 72 12 9f bd
       0.016662715 0.034973606 -0.078159146 -0.0776719
000330 0b 77 5d bd b7 89 32 bd ab 9e 94 3d c6 01 76 bd
       -0.054068606 -0.043588366 0.07256826 -0.060060285
000340 85 aa 7d bd f6 24 1e 3d eb c0 8e 3d 29 7a 39 3d
       -0.0619302 0.038609467 0.0697039 0.045282517
000350 4f 32 63 bd 13 81 b0 3d 32 4b 52 3d ac ee 43 bd
       -0.0554679 0.08618369 0.051341243 -0.047835037
000360 33 37 c2 b9 1e 1c 1b bd 16 73 8d bd 00 93 3a bd
       -0.0003704369 -0.03786861 -0.069067165 -0.045550346
000370 a4 ef 90 bd 65 61 d3 bc 96 2e f7 3c 66 2d 37 bd
       -0.07076958 -0.025803277 0.030173581 -0.04472103
000380 f3 0b 96 bd 06 57 80 3b e4 fd 87 3d 0d f8 4a bd
       -0.07326498 0.003916624 0.06640223 -0.049552966
000390 f0 c2 9b bc d6 4e 7c bd e4 60 66 3c f2 2f 70 3d
       -0.019013852 -0.06159862 0.014061186 0.058639474
0003a0 55 d4 3b bd 6c dd 74 3c 72 17 8a 3d 14 9a dc 3c
       -0.045856792 0.014945369 0.06742753 0.026928939
0003b0 11 f2 30 3d 1a df 36 bc b1 3c 90 3d bd 4c 91 bd
       0.043199603 -0.01116159 0.07042826 -0.07094715
0003c0 a3 82 94 bd d4 fe 3e 3d eb a3 98 3d 1a 61 32 bd
       -0.072514795 0.04662974 0.0745314 -0.043549635
0003d0 5a a2 c0 3b 81 df 3f 3c 83 3a 87 3c dd 01 81 3c
       0.005878729 0.011711002 0.016507393 0.015747959
0003e0 aa f8 28 3d 66 d2 41 3d 03 2a 00 3b a1 f4 04 bc
       0.04125277 0.047319792 0.001955629 -0.008114965
0003f0 9f d1 01 3d 08 97 8e 3d b5 3e 8e bd 46 18 50 bd
       0.03169405 0.06962401 -0.06945554 -0.0508044

sagpool.gnn.lin_rel.weight f4 [1, 128]
000000 e8 f9 fd bc fa 5c 74 bd 8a 1e 0b 3d 32 0f 9e 3d
       -0.031002954 -0.05965898 0.03396467 0.07717742
000010 db 94 1f bd f2 7e a7 3d 3e a4 4c bd 70 06 7d bd
       -0.03896032 0.0817851 -0.04996132 -0.061773717
000020 0f 36 7d bd 38 46 94 3d 93 e3 07 bd c3 47 96 bd
       -0.061819132 0.07239956 -0.033176016 -0.07337906
000030 9d fe f3 bc 8a cd 9b bd 19 9b 66 bd c6 a6 82 bd
       -0.029784495 -0.07607563 -0.056300256 -0.06379466
000040 5c df 83 3d 30 33 04 3b b0 7c 71 bc db a8 36 bc
       0.06439087 0.0020172112 -0.0147392005 -0.011148657
000050 1c b5 5e bd 58 ef a9 bd 8b 70 67 bd bc 6d 88 3c
       -0.054371938 -0.08297604 -0.056503814 0.016653888
000060 fd 12 46 bd 3b f5 72 bd 4d 5c 63 bd 26 a9 56 bd
       -0.048357952 -0.0593159 -0.055507947 -0.052407406
000070 46 cf 08 3b 2c e6 81 bd 09 e2 8a 3d c6 66 88 bd
       0.0020875498 -0.0634273 0.06781394 -0.066602275
000080 28 99 85 bc 4e bc 99 bd 8c 44 df bc 72 9c 87 bd
       -0.016308382 -0.075066194 -0.027254365 -0.066216365
000090 56 14 32 3a d7 c0 26 3d 1a 07 46 3d 20 47 42 bd
       0.00067931914 0.04071125 0.048346616 -0.04743111
0000a0 d9 91 35 3c cf 0a af 3d 04 11 41 bd b1 1f 99 bc
       0.011082136 0.085469835 -0.047135368 -0.01869187
0000b0 85 61 7c 3d c5 73 60 3c a2 0f 6d bd ab 90 f1 3c
       0.06161644 0.013699477 -0.057876237 0.029487928
0000c0 39 b3 8b 3d 53 55 2d bd 89 14 a1 bd 40 c9 20 bd
       0.068212934 -0.0423177 -0.07865245 -0.039254427
0000d0 61 05 6f 3d 4b 7e 9c bd da b4 7f 3c 6a c9 89 ba
       0.05835474 -0.07641276 0.015607083 -0.0010512297
0000e0 a4 9d 58 bd a5 33 5c bc 5f 8e 95 bd b2 bd 0e 3c
       -0.052884713 -0.013440047 -0.07302546 0.008712219
0000f0 32 5e 84 3d 2b db 76 bd e3 d5 49 3d c7 f2 f5 bc
       0.06463279 -0.06026761 0.049276244 -0.030022992
000100 db ee 80 bd fd fc 2e 3d f2 91 7f bd 61 90 03 3c
       -0.06295558 0.042721737 -0.062395044 0.008030028
000110 81 23 40 3d 88 15 ae bc 5d 78 b3 bc 74 d9 0c 3d
       0.04690886 -0.021250501 -0.02190798 0.034387067
000120 43 d9 d2 3c 16 68 ee 3c 66 22 f7 3c 28 29 96 3c
       0.025738364 0.029102366 0.03016777 0.018330172
000130 f4 f9 f7 3c 07 9c 9b 3c 83 4a c4 3c 29 b5 2b 3c
       0.030270554 0.018995298 0.023961311 0.010480204
000140 66 14 95 3d e1 69 4a 3d 37 73 35 3d 4b e7 0a 3d
       0.07279281 0.04941738 0.04429933 0.033911984
000150 64 a5 82 bd 6e d3 8c bc c6 06 e7 3c 16 33 84 3d
       -0.06379202 -0.017190661 0.028201472 0.06455056
000160 97 bc a3 3d be 41 15 3d 73 7c 90 3d d1 45 4e bd
       0.07994955 0.03643965 0.07054987 -0.05035955
000170 8c 62 21 bd 91 25 57 3d a9 3b e7 3c bc b3 5f 3d
       -0.039400622 0.05252606 0.02822669 0.054614767
000180 72 6a 7e bd dd 28 b9 3a 36 35 82 bd a0 c4 ac bd
       -0.062113233 0.0014126558 -0.063578054 -0.08435941
000190 bf f1 ba 3b bf 99 32 bd 7a bf 8f bd 11 28 4d bd
       0.005705088 -0.043603655 -0.07018943 -0.05008704
0001a0 20 ec 9c 3d 5a ac 60 3d 5d 4b d4 bc 6c 21 34 bd
       0.07662225 0.054851867 -0.025914842 -0.043977186
0001b0 8d 32 8b bd 30 ec a6 3c 95 4e a7 3d 75 b7 8b bd
       -0.06796751 0.020376295 0.08169285 -0.06822101
0001c0 1b 91 93 3d 4f da 85 bd 04 16 92 3d 77 8a fa bb
       0.07205411 -0.0653578 0.071331054 -0.007645901
0001d0 e8 ef 62 3d 6c 6e b1 bd bd d8 35 bc 2d 33 a1 3c
       0.055404574 -0.086636394 -0.011099038 0.019677723
0001e0 5d a9 42 3d 1b fe 90 3d d5 f9 8d 3d 68 7c 75 bd
       0.0475248 0.07079717 0.06932417 -0.059933096
0001f0 f0 45 a3 bd 4d 8a 80 3d 34 8d cd bc 82 5e 55 3d
       -0.07972324 0.06276379 -0.025091745 0.052092083

sagpool.gnn.lin_root.weight f4 [1, 128]
000000 06 45 3f bd 37 73 63 3d 32 df 85 3d 9f b1 41 3d
       -0.046696685 0.0555298 0.06536712 0.047288533
000010 63 e6 b5 bc f2 d7 8e 3d 73 12 27 bd 29 3f 5b 3b
       -0.022204584 0.06974782 -0.04078908 0.0033454394
000020 32 ca 72 bc a6 38 09 3d 74 23 e2 bc b6 29 10 bd
       -0.014818715 0.03350129 -0.027604796 -0.03519603
000030 0f f5 8f 3d fb 6c 6d 3d ef 2e 89 3d a6 1b 23 3d
       0.07029163 0.05796526 0.06698405 0.03982129
000040 bb 71 7c 3d 89 f3 94 3d 05 45 a0 bd c6 b3 4d 3d
       0.0616319 0.07273013 -0.078256644 0.050220273
000050 d5 af 99 bd b3 21 51 bd 40 e7 9a bc 04 af 3a 3d
       -0.075042404 -0.05105753 -0.018909097 0.045577064
000060 31 76 30 3c 59 1e 6f 3c 1b 56 f1 3c e5 c7 8f bc
       0.0107703665 0.014594638 0.029460004 -0.017551372
000070 fa af 93 3d 75 a1 be bd b8 a3 ad 3d b0 90 73 bd
       0.07211299 -0.09308139 0.084784925 -0.059464157
000080 57 5e e6 bb c6 87 92 bd f4 b2 78 bc e2 05 91 bd
       -0.007030289 -0.07154803 -0.0151793845 -0.070812
000090 9f 8b c6 3b c8 ad 5d bd 3e e9 09 bd 41 62 95 3d
       0.0060591246 -0.05412081 -0.033669703 0.07294131
0000a0 42 9a 82 bd 24 23 c9 3c d1 4e 73 3d ea 3d 3a 3d
       -0.063770786 0.02455289 0.059401337 0.045469202
0000b0 c7 c9 c6 3c 86 22 26 3d e9 38 a0 3c 30 49 3d bd
       0.024266137 0.040560268 0.019558387 -0.046212375
0000c0 9d ba 32 bd cb f7 81 bc 2c a6 b2 3d 0c cb 8a bc
       -0.043635 -0.015865227 0.08723101 -0.016942523
0000d0 0b cf 82 3d 00 d3 a9 3c 05 4f a4 3d 20 4f 77 3c
       0.063871466 0.020730495 0.08022884 0.015094548
0000e0 08 e7 6c 3d 2e 1e 5b bc 5b e2 2e 3d 3a e4 6c bd
       0.057837516 -0.013373895 0.04269634 -0.05783484
0000f0 4d 96 8a bd 28 1b 97 bd e4 d2 93 3d af 53 f1 bc
       -0.06766949 -0.073782265 0.072179586 -0.029458849
000100 43 68 a9 3c e8 2e b6 3c a2 e9 23 3d af bb cc bc
       0.020679599 0.022239164 0.04001773 -0.024991838
000110 09 31 75 bd d3 8d 94 3d ce d4 15 bd c1 93 c3 3c
       -0.059861217 0.07253613 -0.0365799 0.023874165
000120 1a fa fe bc bb 82 78 bd 20 6a c9 bc 8d b4 8e bc
       -0.031125117 -0.06067155 -0.024586737 -0.017420078
000130 85 79 2b 3d d8 44 14 3d ce 29 8c bc 18 05 9c bd
       0.041863937 0.036198467 -0.017109778 -0.07618159
000140 70 90 ac bd 3f 3d 7d 3d 22 d5 a1 bc f9 56 80 bd
       -0.08425987 0.061825987 -0.01975495 -0.06266589
000150 d9 c3 04 3d 70 8f 86 bd f0 70 f7 3c 64 15 89 bd
       0.032413337 -0.06570327 0.03020522 -0.06693533
000160 e1 df a8 bd 68 37 a4 bc 6d 6a 96 3d b7 3d 89 3d
       -0.082458265 -0.020045951 0.07344518 0.06701224
000170 c3 0c 58 bd 19 3f ab bb d2 70 73 3d 10 ff 08 bc
       -0.052746546 -0.0052260277 0.059433766 -0.008361593
000180 a2 3f 74 3d c3 ba df 3c 72 c1 3a bd 3f b9 44 bd
       0.059630997 0.027310735 -0.04559464 -0.048028227
000190 2a 8b 67 bb 6d e4 0b 3d 9d ae 65 bd 4f 63 25 3d
       -0.003533075 0.03415339 -0.056074727 0.04037791
0001a0 63 3a 92 3d 68 a5 85 3d 50 9c 86 bd ac 9c 45 3d
       0.07140043 0.06525689 -0.06572783 0.048245117
0001b0 0b 57 37 3c 7c 70 8c 3d 14 35 7d bd 40 ea 31 bd
       0.011190186 0.06857392 -0.061818197 -0.04343629
0001c0 c9 28 8b bd a7 b5 4e 3d 10 93 91 3d 52 b7 5e 3c
       -0.067948885 0.050466206 0.07108128 0.013593512
0001d0 b4 fc 62 ba 29 9c 37 3d b4 fd b4 3d 3d 8d ba 3c
       -0.00086588715 0.04482666 0.088374525 0.022772426
0001e0 21 87 09 3d e3 bb b1 3d 1d a0 1b 3d b4 bd 97 3d
       0.033576135 0.08678415 0.037994493 0.0740923
0001f0 05 8c 12 3d fe b7 63 3c be ec d7 bc 16 35 0e 3d
       0.035778064 0.013898848 -0.026358005 0.034718595

lin.weight f4 [64, 128]
000000 42 03 27 bd 6a c1 be 3b ed 69 67 bd 95 4f 76 bd
       -0.04077459 0.0058213966 -0.056497503 -0.06013449
000010 ae bd 95 3d 95 64 40 bd 0f d2 99 bd 58 4a 0d bd
       0.07311569 -0.046970922 -0.075107686 -0.034494728
000020 c8 b6 45 3c 03 30 ef 3c 1d b8 0b 3d e0 2f 9e bc
       0.012067504 0.029197698 0.03411113 -0.019309938
000030 b9 e1 25 3d 3e 5f cf 3c 08 fe 12 3c c0 77 9c bd
       0.04049847 0.02531397 0.008971699 -0.07640028
000040 d8 bc 41 bd d2 d2 b5 3d 4b 2e 75 bb 6c 67 8d bd
       -0.047299236 0.088781014 -0.0037411626 -0.06904492
000050 2f a8 71 bd 92 2b 40 3d 5f 8a 2e bd 04 ca dd 3c
       -0.058998283 0.046916552 -0.04261243 0.027073868
000060 3f 6e d1 3c 17 4e 5a bc bf a1 c6 3c 03 10 8e bd
       0.025565265 -0.013324282 0.024247048 -0.06936648
000070 09 2a 0b 3d fb a4 1a bd b2 0e b8 3d a7 bf 86 3d
       0.033975635 -0.037754994 0.08987178 0.065795235
000080 0f b9 f9 bc c0 91 9d 3d 96 a4 8b 3c a6 c5 da 3c
       -0.03048375 0.07693815 0.017046254 0.026705574
000090 a1 90 83 bd 94 6d 2a 3d 22 cc 98 bd ec 91 2a 3d
       -0.0642407 0.041608408 -0.0746081 0.04164307
0000a0 34 c2 0b 3d 16 58 39 3d b2 38 1b bd af 88 a1 3d
       0.034120753 0.04525002 -0.037895866 0.078873985
0000b0 4b 2e b9 3d d7 0b 81 3d 9c fa a4 3b 75 e2 e3 bc
       0.09042033 0.063010864 0.005034758 -0.027817944
0000c0 85 e9 8f bd c4 85 41 bd c0 5c d7 bc bd bd b3 bd
       -0.07026962 -0.04724671 -0.026289344 -0.08776424
0000d0 0c 0f 54 3d 66 0e 52 3d 75 82 0e 3c 05 76 a6 3d
       0.051772162 0.051283263 0.008698096 0.08127979
0000e0 67 42 ad 3d c5 82 8c 3d 4e a5 94 3d 05 8e fe 3c
       0.08459931 0.0686088 0.07258092 0.03107358
0000f0 cd 02 83 bd 1e d6 9b bd 68 80 a0 bd bd ff b1 3c
       -0.063970186 -0.07609199 -0.078369915 0.02172839
000100 4c b0 02 3d 4d 6c ba 3d 5c f7 93 3d 99 52 85 bd
       0.03190641 0.09102688 0.072249144 -0.06509895
000110 1c 4d 0c bd 04 81 8b 3d 6a 34 68 bd 0c 65 b5 bc
       -0.034253225 0.06811717 -0.05669061 -0.02214291
000120 68 a7 ba 3c f4 4f af 3d 45 f6 45 bd 55 eb a8 bd
       0.022784904 0.08560172 -0.048330564 -0.08248011
000130 bb 75 24 bd ec 77 2c bc 02 26 11 3d 04 5c 1e bd
       -0.04015134 -0.0105266385 0.035436638 -0.03866197
000140 cb 52 90 bd ec 65 7e 3d 5f 2e 81 3d f5 6a e0 bb
       -0.070470415 0.06210892 0.06307673 -0.006848688
000150 2a 7f 94 bd f0 c6 9d 3d cd 44 98 3c 0c 2e 3a bc
       -0.07250817 0.0770396 0.018587494 -0.0113635175
000160 b9 ee 34 3c 5b 14 9e bc 1d e3 a1 bd 08 26 8b bd
       0.011043244 -0.019296816 -0.079046465 -0.06794363
000170 8a 53 8a bd 81 77 b4 bd b6 82 b7 3d ee 89 91 bd
       -0.06754215 -0.08811856 0.08960478 -0.07106386
000180 ac de 11 bd fe 2b 3a bd ff b8 9e bd 2e 38 81 3d
       -0.035612747 -0.04545211 -0.07750129 0.063095436
000190 23 4c 91 3d d1 8f 93 bd 76 10 30 3d 15 b6 a3 bd
       0.070946 -0.07205165 0.04298445 -0.07993714
0001a0 aa e9 e3 3c f5 fe e6 3c 13 1e 70 bd c3 88 2a b9
       0.02782138 0.028197745 -0.05862243 -0.00016263411
0001b0 d1 ca 29 3d 1a 41 11 bc bc cc 0f bc 89 15 3f bd
       0.041453186 -0.008865619 -0.00877684 -0.046651397
0001c0 16 7e ee 3b 4b b3 4e bd 2e c0 16 3d c5 eb 68 bd
       0.007278214 -0.050463956 0.03680437 -0.056865472
0001d0 72 86 72 bd 23 2f a3 3d a6 9e b6 3d ed 49 a9 3d
       -0.05921025 0.07967975 0.089169785 0.08266053
0001e0 f7 a2 5d bc ca 61 14 3d a0 16 bc bd cd 6e 5a bd
       -0.013527623 0.03622607 -0.09184003 -0.053328324
0001f0 36 87 82 3d 17 c8 5e bc 1d a4 b6 3c 7d d2 84 bc
       0.06373446 -0.01359751 0.022295052 -0.01621365
000200 09 a2 70 bc fe 1f 46 3c 16 c3 2e bd 4a ad e5 bc
       -0.01468707 0.0120925885 -0.042666517 -0.028036732
000210 03 43 98 3d c8 11 33 bc 1f 45 41 bd 85 c7 bc bc
       0.074346565 -0.010929532 -0.04718506 -0.023044357
000220 fd df 93 bd e2 f9 96 bd fe 21 8e bd 58 c4 90 3d
       -0.07220457 -0.0737188 -0.06940077 0.070686996
000230 14 e2 8c bb 23 6a 3a bd fb b9 6c bd 43 dc 95 3d
       -0.0042994116 -0.045511376 -0.057794552 0.07317402
000240 97 5e 17 3d 70 2a 27 3d 4c 32 4e bd 3f 46 52 3c
       0.036955442 0.040811956 -0.050340936 0.012834131
000250 d9 42 e9 bc 2c 83 74 bd 9f f3 1f bd 10 8e 57 3d
       -0.028474258 -0.059695408 -0.039050695 0.052625716
000260 51 e2 c5 3c 0b 53 2b 3a 07 5f 7e bc 4f 2c 87 bd
       0.024155768 0.00065355067 -0.015525586 -0.06600248
000270 ff d9 02 bc 23 5b 57 3b 5f 9a 8b 3d fb d5 3d 3d
       -0.007986545 0.0032860718 0.06816553 0.046346646
000280 ce ee 28 3d 03 54 84 3d c0 a6 2b bd 19 3f 7f 3d
       0.041243367 0.064613365 -0.041907072 0.062316034
000290 7a be 42 3d ef 8a 92 3c 1b 37 98 bd 8a 71 7e bc
       0.047544934 0.017888514 -0.074323855 -0.0155299995
0002a0 3c 01 a6 bd ba 2d 87 3d de a1 9e bd f4 06 a9 bd
       -0.08105704 0.066005185 -0.077457175 -0.08253279
0002b0 4c 04 8d bd 7f 8a 89 3d 42 b1 82 3d c4 bb d1 3c
       -0.06885585 0.06715869 0.063814655 0.025602229
0002c0 89 05 85 3d 6f 51 7c 3c be 70 33 bd 2a 55 47 bc
       0.06495196 0.015400275 -0.04380869 -0.012166301
0002d0 a8 ce 0a bd 91 95 83 3d 98 ea 7c bd b1 6a c5 bc
       -0.03388849 0.06425012 -0.061747164 -0.024098726
0002e0 28 c3 a4 bd 65 54 d9 bb dc 9e a6 3d 13 a2 42 bd
       -0.080450356 -0.006632375 0.08135769 -0.047517847
0002f0 69 63 05 3d 83 f5 7f bd 63 62 ca 3b 1d 1d 86 3d
       0.032565508 -0.062489998 0.0061762794 0.06548522
000300 88 db 51 bd 90 a3 ed bb 64 13 d7 3c a9 19 80 bd
       -0.051234752 -0.007252164 0.026254363 -0.06254894
000310 f5 b4 83 bc 57 1d 26 3d 56 fd a2 bc c8 90 f4 bb
       -0.016077498 0.040555324 -0.01989619 -0.0074635483
000320 60 d7 20 bd d9 77 16 3b de fe 1d bb bf c5 9c 3d
       -0.039267898 0.0022959618 -0.0024108212 0.076549046
000330 af e9 91 3d c2 3a 7e 3c c4 ec 20 3d ed 9d 24 3d
       0.0712465 0.015516939 0.039288297 0.040189672
000340 ae fe 53 bd 0d b8 d3 3b be 4e ab 3c 84 2e 00 3d
       -0.051756553 0.0064611495 0.02091157 0.03129436
000350 4a 64 28 3d ea ed 0a bd 85 f5 ac b9 4b bb e0 3c
       0.041111268 -0.0339183 -0.00032989323 0.027433058
000360 8a 20 c6 bc f1 d5 8d bd 99 10 9d bd 9d 3b ad bd
       -0.024185438 -0.06925572 -0.076691814 -0.08458636
000370 0c 9e 08 3d 86 23 29 bd 34 fe 53 bd c1 c1 b2 bc
       0.03335385 -0.041293643 -0.0517561 -0.021820905
000380 2e 74 32 bc cc c3 84 3d 69 02 e7 3c fc f2 83 3d
       -0.010891957 0.06482658 0.028199391 0.0644283
000390 fd 4b 19 bd 69 30 78 3d 22 3d 64 bd f6 13 a3 3c
       -0.037425984 0.060593043 -0.055722363 0.019906979
0003a0 38 c2 8a 3d a3 33 75 3d d4 7f b6 3d 8c 4b 0f bd
       0.067753255 0.059863698 0.089111 -0.034984156
0003b0 77 cb 9c bd c8 db 28 bd 6e 0b a6 bc 30 ef 6a 3d
       -0.07655995 -0.041225225 -0.020269122 0.057357013
0003c0 94 c3 f1 bc 94 15 04 bd fb 0d 96 3c 08 95 46 3c
       -0.029512204 -0.03224714 0.018317213 0.012120493
0003d0 aa 5c c7 bc d3 9f bb 3d c6 88 6a 3c a9 34 bc 3c
       -0.024336178 0.091613434 0.014314836 0.02297433
0003e0 76 3b b3 bd 6c 84 5e 3c bc b5 75 3d 5a fc fb 3c
       -0.08751576 0.0135813765 0.05998777 0.030759979
0003f0 b6 b3 b6 3d 98 24 b4 bd 0a 50 51 bd 43 ed ca bb
       0.08920996 -0.08796042 -0.05110172 -0.0061928346
