All_Benchmarking/DATA_5/Results/fold_4/best_model.pth (torch, 192098 bytes, 32 tensors)

gat1.att_src f4 [1, 4, 32]
000000 72 09 e3 bd 53 4b d0 3c ca 28 cc be f3 e3 33 3e
       -0.11085786 0.025426542 -0.3987487 0.17567424
000010 09 4d 85 3e 6a 64 41 be 2c fb 94 be 2c e5 b0 be
       0.26035336 -0.18885961 -0.2909788 -0.34549844
000020 79 4c 8c 3d 8d b2 82 3d 2d 4e cb be df e2 bb be
       0.068505235 0.06381712 -0.3970808 -0.36696526
000030 53 21 e9 3d 5e aa 6b be 9d 99 f8 3a b9 6b 3c 3e
       0.11383309 -0.23014209 0.0018966679 0.18400468
000040 df 15 bb be a7 f7 91 be 77 7d a4 bd 5a 0c cc be
       -0.36540124 -0.28509256 -0.08031743 -0.39853173
000050 66 21 8c 3e 86 8b 9a 3e 27 d9 a5 be 30 30 c3 3e
       0.2736923 0.30184573 -0.32392237 0.38122702
000060 83 17 9b 3d a6 d4 b3 3d d5 65 83 be f2 13 71 3e
       0.07572844 0.08780794 -0.2566363 0.23542765
000070 0c 28 09 bd ea b2 4a be 54 d9 cf be 5f 99 0d be
       -0.033485457 -0.19794813 -0.40595496 -0.13828038
000080 94 8e cc be 28 99 bf be 6f ba 92 be 74 5f 6f bd
       -0.39952528 -0.37421536 -0.28657863 -0.05844064
000090 09 50 c2 3e a4 60 35 be d4 87 83 bd 8a 6b 4f 3e
       0.37951687 -0.17712647 -0.064223915 0.20255867
0000a0 f3 fd f6 bd c5 21 82 be 28 6b fa bd 65 44 a5 3e
       -0.12060156 -0.2541639 -0.1222747 0.32278743
0000b0 fa 17 b5 3e 2e cb 83 3e d4 0e 48 3e 1e 9d bd be
       0.35369855 0.2574095 0.19536906 -0.37033933
0000c0 7e b4 43 3e 3e 48 35 bd 12 0e 83 3e 33 64 50 3e
       0.19111821 -0.04425835 0.25596672 0.20350723
0000d0 76 b4 99 3e ae 18 4a 3e b5 4c 5d be 30 37 92 bd
       0.30020493 0.19735977 -0.21611293 -0.071394324
0000e0 68 cb 93 be e7 a4 93 be 48 3d 44 3e af 51 a1 be
       -0.28866124 -0.28836748 0.19164002 -0.31507632
0000f0 93 94 87 be c7 d5 37 be d1 38 db 3d cd 15 41 be
       -0.2648054 -0.17952643 0.10704196 -0.18855973
000100 c5 1c 9d be bd d0 98 be 94 cd 36 3e 17 49 65 bd
       -0.30686012 -0.29846755 0.1785186 -0.055977907
000110 9f 5c 46 be c2 3a af be 93 5b 73 bd fb f6 3b be
       -0.1937127 -0.34224516 -0.059413504 -0.18355934
000120 19 e0 39 3e 62 81 ed bb 4e 9b 33 be e5 ef 23 bd
       0.18151893 -0.0072480896 -0.17539713 -0.040023703
000130 d7 bc 67 be be 1f a6 be 3c 30 53 3c da 34 7b be
       -0.2263063 -0.32446092 0.012889918 -0.2453188
000140 87 c7 c1 3e fd 96 55 3e b1 e0 a2 3d 02 b1 8a 3c
       0.3784754 0.20858379 0.07953013 0.016930107
000150 c8 c6 b2 3e 45 e0 1b be f5 03 8e 3d 11 df 7a be
       0.34917283 -0.15222271 0.069343485 -0.24499156
000160 8e 8c a5 be fc 12 db 3c 49 e2 2c 3e 02 82 81 be
       -0.32333797 0.02674245 0.16883196 -0.252945
000170 d6 c0 36 3e d8 47 99 3e aa 92 10 be 44 0b ba be
       0.17846999 0.29937625 -0.14118448 -0.3633672
000180 da 12 47 be d8 78 9f 3e 29 d8 1a 3e 8e da 24 be
       -0.19440785 0.31146884 0.15121521 -0.16098997
000190 79 87 38 be e6 cf 43 bd 33 97 8a 3d 81 05 2e 3e
       -0.18020429 -0.04780569 0.0676712 0.16994287
0001a0 27 22 d0 be 2c 68 9c bd 98 92 82 3e 81 af 4e 3e
       -0.40651056 -0.07637057 0.25502467 0.20184137
0001b0 c1 1c 63 be f7 a0 ce be ef 2b 17 3e 49 13 b6 bd
       -0.22178937 -0.4035718 0.14762853 -0.08890397
0001c0 95 92 0b 3c 47 af 50 3e 1b 5d a4 3e 92 7e 03 3e
       0.008518835 0.20379363 0.32102284 0.12841251
0001d0 4c ed 44 3e 11 70 ad 3e 95 8a 02 3c ea 90 84 be
       0.19231147 0.33874562 0.007967611 -0.2589181
0001e0 fd 81 56 3e 2c ed 0b be 40 86 80 be 79 4d bb be
       0.20948024 -0.13664693 -0.25102425 -0.36582544
0001f0 7e bf 33 3e 34 6f 70 be 5d 02 bf 3e 7f c1 53 3e
       0.17553517 -0.2347992 0.3730649 0.20679282

gat1.att_dst f4 [1, 4, 32]
000000 8c 32 84 3e a4 4a d4 3c 7b 18 12 bd af 0a 97 be
       0.25819814 0.025914498 -0.035667878 -0.29500338
000010 98 9c 4d be cb 07 10 be 88 cb 4b bd 9d 44 24 be
       -0.20079267 -0.14065473 -0.04975465 -0.16041799
000020 5e bc c5 bd 1f 7a 4e be 6e 41 82 3e 63 95 a9 be
       -0.09655069 -0.20163773 0.25440544 -0.33121786
000030 4d a8 8f bd 41 29 a8 bc 6e 85 b0 3e 85 f3 37 be
       -0.07014523 -0.020527484 0.344768 -0.17963989
000040 16 98 cf be cd 21 13 3e 56 58 b5 be 4f dc c3 be
       -0.4054572 0.14368363 -0.35418957 -0.3825402
000050 a3 b3 cf be 33 ac 47 be 67 75 10 3d 95 a1 91 be
       -0.4056674 -0.19499283 0.035268214 -0.2844359
000060 b9 a9 c3 be 35 e1 1c 3e 02 5d b4 be 0f 66 ac be
       -0.38215426 0.15320285 -0.3522721 -0.33671615
000070 17 ff ba be d9 0a 9c bd e5 3f 59 3e 42 ee 54 be
       -0.36522743 -0.076192565 0.2121578 -0.20794013
000080 54 8b 15 be 03 c2 17 3e 54 41 00 be d1 dd 67 be
       -0.1460393 0.14820103 -0.1252492 -0.2264321
000090 73 3b 7f 3e db 0b 15 be 41 48 94 be ea a0 bc 3e
       0.24925022 -0.14555304 -0.28961375 0.36841518
0000a0 6a c3 46 bc 9f da 08 bd 66 ea ba 3e f9 b8 ca 3d
       -0.012131551 -0.03341162 0.36506957 0.09898562
0000b0 23 83 ca be 85 76 c7 bd eb ce 08 be b6 fd 21 3e
       -0.39553174 -0.09739403 -0.13360183 0.1581944
0000c0 b7 e0 21 3e 2a b1 92 be a5 21 a9 3e 2b 8f aa 3e
       0.15808378 -0.2865079 0.3303348 0.33312353
0000d0 c2 50 7c 3e 59 dc b1 3e f7 93 8d 3e eb 4b be 3d
       0.24640182 0.34738424 0.2765195 0.09291824
0000e0 18 7c 9d be 8e 36 95 3e dc f8 b2 bd f9 7b 14 3c
       -0.3075874 0.29143184 -0.087388724 0.0090627605
0000f0 82 f2 bf be c8 be 97 bd 9d d8 64 3e 1d 69 13 3e
       -0.37489706 -0.074094355 0.22348256 0.14395566
000100 77 7e 7e be 26 0d 53 be cb 7d 9d be 49 48 87 3e
       -0.2485293 -0.20610484 -0.30760035 0.26422337
000110 f4 1b 90 3d ea 95 d5 bc 4a 07 b4 bd 6f 18 a9 be
       0.07036582 -0.026072461 -0.08790453 -0.33026454
000120 47 c3 b9 be 6b d0 95 3e e2 29 07 be c2 e3 93 3e
       -0.36281797 0.29260573 -0.13199571 0.28884703
000130 b9 b7 66 be 78 20 30 be db ee 24 3e c4 36 dc 3d
       -0.22531022 -0.17199886 0.16106741 0.10752633
000140 4c 7f 80 bd b9 16 59 3e d7 0e 66 be 28 71 7d be
       -0.0627428 0.21200074 -0.22466598 -0.24750197
000150 74 ae ca 3e d5 40 59 3e fb 4c 84 be c1 67 20 bd
       0.39586222 0.21216138 -0.2583998 -0.039161447
000160 aa ad 04 bc 58 f6 1e be eb 8f 05 3e c3 0f 10 be
       -0.008098045 -0.1552366 0.13043182 -0.14068513
000170 7e a0 9c be 22 5b 34 3e 90 12 b0 be f0 ec 12 be
       -0.30591196 0.1761289 -0.34389162 -0.14348197
000180 e4 cb 34 be 60 24 66 3e 9b 9f b3 3e 23 e9 c5 be
       -0.17655903 0.22474813 0.35082707 -0.38654432
000190 60 c0 01 3e 14 8f 8a be 4c ce 9e be 9c db ba 3e
       0.12671041 -0.27062285 -0.31016767 0.36495674
0001a0 0c e6 2e be f9 47 7e be c5 d6 fa 3d a0 f3 be be
       -0.17079943 -0.24832143 0.12247995 -0.37295246
0001b0 e3 57 0a be 96 8d 43 3e e3 b6 96 3e 25 99 0b 3d
       -0.13510089 0.1909698 0.29436406 0.034081597
0001c0 bb a2 bc 3e bd 79 5a bd 69 2c b0 be 81 b7 37 be
       0.36842903 -0.053338755 -0.34408882 -0.17941095
0001d0 a4 14 cd 3e ae 1d 9b be a9 ca c4 3e 14 d0 aa 3d
       0.4005481 -0.3029608 0.38435867 0.08340469
0001e0 1a 14 03 3d 4f 80 55 3e 55 d6 71 be e3 dd 40 be
       0.032001592 0.20849727 -0.23616917 -0.18834643
0001f0 09 22 92 be 7d aa 5f 3d 20 aa 45 be 0d b9 c4 3e
       -0.28541592 0.05460595 -0.19303179 0.38422433

gat1.bias f4 [128]
000000 df 47 59 b9 29 3c a9 b8 4f cd 5f 39 5f 4d 7e 38
       -0.00020721507 -8.069754e-05 0.0002134342 6.0630377e-05
000010 e4 69 91 b9 f4 2f 99 39 92 ca 66 b9 4b c8 cb b9
       -0.0002773545 0.00029218162 -0.00022009973 -0.00038868407
000020 39 b8 90 b9 cc 6e f2 b7 81 17 55 b8 c0 df c0 38
       -0.00027603077 -2.8900242e-05 -5.0805047e-05 9.19695e-05
000030 ca 0b f4 b8 95 5a 9c b9 68 3c 21 b8 f9 3e 33 b8
       -0.000116370225 -0.00029822128 -3.844165e-05 -4.2735574e-05
000040 e2 5d 5d 38 17 3f ba b8 1f e2 18 b8 fd e2 1c 39
       5.277794e-05 -8.8809225e-05 -3.6450216e-05 0.00014961879
000050 78 e5 46 b9 bb 55 47 39 4f 5c a7 b8 82 7c c7 39
       -0.00018968235 0.00019010056 -7.980374e-05 0.00038049003
000060 f9 b8 54 39 71 32 21 b8 82 15 64 b7 ab 9d 19 b8
       0.00020286803 -3.843237e-05 -1.3594867e-05 -3.6624882e-05
000070 62 e4 9a 39 5e 19 ae 38 69 92 4d 39 dc c8 be b8
       0.00029543327 8.3016916e-05 0.00019604866 -9.097319e-05
000080 0a 6a 31 b7 b3 ed 6e 36 0b a1 e0 b9 b4 a8 fb 38
       -1.0574711e-05 3.5603123e-06 -0.00042844596 0.00012000036
000090 c0 84 26 38 28 70 05 35 c7 41 3d 39 e2 8a e2 39
       3.9701117e-05 4.970957e-07 0.00018048949 0.00043209555
0000a0 30 8d 0a 39 f9 d7 8f 38 97 2c ba 39 9b ae d1 39
       0.00013213302 6.8589994e-05 0.00035509907 0.00039993678
0000b0 f6 4f 2b 39 25 15 d8 38 45 4e c2 b8 9f c3 31 39
       0.00016337619 0.00010303621 -9.26522e-05 0.0001695291
0000c0 9d 0a 9c 38 f5 f3 2f 36 c4 5f f6 39 c0 38 99 39
       7.4406365e-05 2.6219034e-06 0.00046992127 0.00029224716
0000d0 54 23 e4 39 63 a6 1e 39 59 29 46 39 ea 9c 99 b8
       0.0004351387 0.00015130038 0.00018898155 -7.324836e-05
0000e0 78 a6 33 39 e6 38 d6 b7 b9 e3 1a 39 2c e3 b2 b7
       0.00017132785 -2.5537283e-05 0.00014771418 -2.1325039e-05
0000f0 f3 69 3c b9 65 a6 14 b9 dc 91 b0 38 c3 78 28 39
       -0.00017968546 -0.00014176367 8.4195024e-05 0.00016066716
000100 bb 53 b4 b9 51 de 6b 39 1d d2 07 39 90 69 51 39
       -0.0003439466 0.00022494166 0.00012952877 0.00019971118
000110 97 9d 16 39 eb df 38 39 82 80 69 39 a8 cc a1 b9
       0.00014363822 0.00017631023 0.00022268484 -0.00030860794
000120 80 1f 64 39 59 d8 d0 38 ac 19 31 b9 c4 2e 1b 39
       0.00021755509 9.958511e-05 -0.00016889599 0.00014799373
000130 ec d0 ac b9 6b 67 67 b9 69 bf f0 38 53 b2 56 b8
       -0.00032962055 -0.00022068403 0.00011479745 -5.1187653e-05
000140 8d 55 a9 39 d2 ea 78 39 f4 93 93 39 c1 28 b0 b9
       0.00032297932 0.000237386 0.0002814826 -0.000335997
000150 37 4c 17 b9 8a 06 b7 b8 c7 f4 7f 39 c6 dc 98 b7
       -0.00014428874 -8.727338e-05 0.00024409882 -1.8222618e-05
000160 99 54 01 39 a0 24 8d 36 e0 2a 2d 39 4b 02 08 b9
       0.00012333914 4.206391e-06 0.00016514538 -0.00012970825
000170 f4 58 0a 39 43 4e 88 b9 f5 13 a1 b9 b1 ba 65 39
       0.00013193843 -0.0002599825 -0.00030723182 0.0002190869
000180 d9 05 62 39 40 38 02 39 07 9d 3d 39 8d a1 92 b8
       0.00021555218 0.00012418721 0.00018082942 -6.991914e-05
000190 1a a1 27 ba a4 05 a8 38 1d d7 dc 36 0b c8 10 b9
       -0.00063945504 8.011915e-05 6.5815534e-06 -0.00013807432
0001a0 2b 00 0e 39 f4 e3 99 b7 44 1c 86 38 22 48 ad 39
       0.00013542238 -1.834517e-05 6.394883e-05 0.00033050874
0001b0 fc 09 8f 39 6a d0 8f 39 2d fd 45 b6 d5 05 99 38
       0.00027282524 0.00027430366 -2.9502655e-06 7.296695e-05
0001c0 ff 84 65 36 6a 66 11 39 7a ab c6 38 d6 83 97 b9
       3.4201073e-06 0.0001386643 9.473316e-05 -0.0002889919
0001d0 5c 20 14 39 d2 9a 50 b8 2c 67 78 b9 58 84 02 39
       0.00014126435 -4.9735252e-05 -0.00023689558 0.00012447068
0001e0 3e 05 f6 b9 49 ee 68 39 a6 20 73 b6 91 45 2f b9
       -0.00046924682 0.00022214012 -3.6228826e-06 -0.00016715216
0001f0 bc aa 92 39 b1 dd e9 38 d8 e8 ff 34 43 ef 2c 39
       0.00027974497 0.00011151599 4.7666867e-07 0.0001649233

gat1.lin.weight f4 [128, 5]
000000 fe 96 c0 bd a3 fc c1 3d 9c be f0 3d b3 3f 10 3e
       -0.094037995 0.09472015 0.11755106 0.140868
000010 47 a1 26 3e bb e5 f0 bd 1b 2f 63 3d 04 a2 9f 3d
       0.1627246 -0.117625676 0.055464845 0.07794574
000020 94 95 bc 3c 57 d3 40 3e 17 ce 57 3e 33 d6 83 bc
       0.023020543 0.1883062 0.21074711 -0.01609335
000030 2a 75 84 bd 5a 8d 05 be a2 f2 34 3e ef ff d7 bc
       -0.0646766 -0.13042203 0.17670682 -0.026367156
000040 14 ed bd bd 2e 3f 36 3e 9a 7f 43 3e 48 7e 27 3d
       -0.09273735 0.17797539 0.19091645 0.040891916
000050 ea d4 93 3d b2 9a 9b 3c d0 ab 2f be 71 f2 de bd
       0.072183445 0.018994663 -0.17155385 -0.10886086
000060 b6 c0 70 3d 71 6d ba 3d 63 d3 37 be d7 11 bd bd
       0.058777533 0.091029055 -0.17951731 -0.09231918
000070 a7 86 be bd ce 9b 9d 3c e6 2f 1b be b8 a8 ff 3d
       -0.09303027 0.019239333 -0.1515499 0.124833524
000080 df 3b 07 3e 42 29 24 be 6b 32 4b 3e e6 66 8a bd
       0.13206433 -0.16031364 0.19843452 -0.067579076
000090 59 46 2e be 86 b9 2c bb cd a7 88 bd d0 37 14 3e
       -0.17019023 -0.0026355698 -0.066726305 0.14474416
0000a0 8c 47 3d be 2c 74 ff 3d 17 b9 3f 3e 6b db 11 3e
       -0.18484324 0.1247333 0.1872295 0.14243858
0000b0 02 81 cf bd 74 75 30 be ee a9 45 bd 2d a9 38 be
       -0.10132028 -0.17232305 -0.04825776 -0.18033285
0000c0 f4 08 2d 3d af e0 c4 3d 69 6a 5a bc e7 13 e8 bd
       0.042244866 0.096131675 -0.013331034 -0.11331921
0000d0 0c 46 00 3a 99 0a 1f bb 2b 09 29 3e 69 bd 16 be
       0.00048932503 -0.0024267791 0.16507404 -0.14720692
0000e0 24 8a 46 3d e8 bf 0e 3d 12 88 9d 3d 68 1e ef bd
       0.048471585 0.034850985 0.07691969 -0.116757214
0000f0 c9 58 24 3e 7b 7d f7 bd 3c ec a6 3d 82 d7 07 be
       0.16049494 -0.120844804 0.08150527 -0.13265803
000100 42 9b 02 3e c0 d2 17 be 4a ca e0 bd e9 69 f5 3d
       0.12754539 -0.14826488 -0.109760836 0.119830914
000110 16 ca 4b 3e 85 75 24 b9 cd 4d e3 bd bd b0 21 be
       0.19901308 -0.00015684038 -0.11098824 -0.15790077
000120 c9 3f ac bd 4d fb 13 3e 1a c9 0a be d8 f5 c6 bd
       -0.084106036 0.14451332 -0.13553277 -0.0971486
000130 ec 44 20 be c7 31 83 3d 92 58 2d be a3 3f 26 be
       -0.15651292 0.06405979 -0.16928318 -0.16235213
000140 fb 16 4e bd 0c 13 8e bc d9 58 d9 bd cf 27 50 3e
       -0.050314885 -0.017343067 -0.106126495 0.20327686
000150 fe d7 51 be 4c 65 34 3e c2 20 b0 bd 3a dc 3d be
       -0.2049255 0.17616767 -0.08599998 -0.18541041
000160 f2 ee 54 bd 90 da f6 3d 5d bb a7 3d 99 0d f5 3d
       -0.05198569 0.12053406 0.081900336 0.11965484
000170 5c 74 18 3d 34 95 89 bd 43 c4 d5 3d d2 29 bc 3d
       0.037220344 -0.06717911 0.104378246 0.09187664
000180 fe 49 85 3d 90 28 3a be 61 8f 31 3d 63 cf b5 bd
       0.065082535 -0.18179536 0.043349627 -0.088774465
000190 01 db 14 be 28 ba 4d be 32 24 50 3e 2e c3 9e bd
       -0.14536668 -0.20090544 0.20326307 -0.07752071
0001a0 5a a3 4b 3e e0 7f 28 be 25 fe 92 bd 46 56 e6 bd
       0.19886532 -0.1645503 -0.071773805 -0.11246924
0001b0 a0 e4 18 3e ca f9 0b be c2 74 03 be a3 78 08 be
       0.14930964 -0.13669506 -0.12837508 -0.1332727
0001c0 1e 8b 55 be 0b 39 d1 3c 3c f7 bf 3d 19 5b 8b 3d
       -0.2085385 0.025539896 0.09373328 0.06804485
0001d0 35 a9 09 3e 8e 5f 36 bd 0b 64 53 3d 63 37 a5 bc
       0.13443454 -0.04452472 0.05160908 -0.020168012
0001e0 3a 63 f1 bc cd 58 5a be 94 93 cc bd 61 3a 50 3e
       -0.02946626 -0.21322937 -0.09989086 0.2033477
0001f0 dc f7 33 3e 0e 13 36 3d 78 87 28 3c 1b 4b 40 3e
       0.1757502 0.044451766 0.0102862045 0.1877865
000200 c4 9a 98 bd d9 43 8b bd 27 fe ae bc b8 b0 8f bd
       -0.07451394 -0.0680005 -0.021361424 -0.07016128
000210 09 b5 3f 3d 74 09 4d bb 71 0a 3d 3e c8 c8 0c 3d
       0.046803508 -0.0031286152 0.18461014 0.034371167
000220 cb 33 47 3e c9 31 86 3d 16 02 1a 3e 03 39 9f bc
       0.19453351 0.065524645 0.15039858 -0.019436365
000230 4d d6 3e be 1e 5e 40 3e c8 91 02 be e8 01 a4 bc
       -0.18636437 0.18785903 -0.12750924 -0.02002044
000240 5c 24 0c 3e 53 8a c2 bd b6 f3 55 be 43 42 f4 3c
       0.13685745 -0.094990395 -0.2089375 0.029816752
000250 12 95 6a 3d 81 d1 18 be 54 fa f9 bd 32 63 2f 3e
       0.05727107 -0.1492367 -0.122059494 0.17127684
000260 4e 13 31 be 68 a3 bd bd ee d4 8a bd 43 d5 d9 bd
       -0.1729252 -0.09259683 -0.06778894 -0.106363796
000270 87 ee 3e be 98 ba 29 3e 06 89 2c bd 57 c1 03 3d
       -0.18645678 0.16575086 -0.042122863 0.032166805
000280 0b c8 32 3e f8 6d a4 3c 7f 87 1f 3e 8b 0d 54 3d
       0.17459123 0.020071968 0.15579031 0.051770728
000290 d4 55 4e be f6 e0 ba 3d fd 3d 46 be a8 2b 1e bd
       -0.20149928 0.09124939 -0.19359584 -0.038615853
0002a0 5c 4b 4b bd f1 25 83 bd 90 37 09 3e ed f6 48 3e
       -0.049632415 -0.06403721 0.13400102 0.19625445
0002b0 07 e9 f7 3b 49 7f 44 3d f7 00 b8 3d 46 88 f0 bd
       0.007565621 0.04797295 0.08984559 -0.11744742
0002c0 e1 a5 22 3e 3d 72 e7 3d 7d 15 9d 3d 2d 06 44 3e
       0.1588359 0.11301086 0.07670114 0.19142981
0002d0 7b 96 82 bd 4e e4 78 3d fb 75 37 be db ad 93 3d
       -0.06376358 0.060764603 -0.179161 0.07210895
0002e0 19 cf 3d bd 05 b2 16 be 6f f2 24 3c 13 35 df bd
       -0.04634008 -0.14716347 0.010067566 -0.10898795
0002f0 96 93 ec bd 56 b5 3e be 3c 82 05 be c7 86 19 3e
       -0.11551587 -0.18623862 -0.13037962 0.1499282
000300 da 97 51 bd 7a 4c c3 bd 4a 27 15 3e 12 09 2b 3d
       -0.051170208 -0.09536071 0.14565769 0.041756697
000310 47 73 24 3d ff fe f7 bc cf cb 49 bc eb 65 46 bd
       0.040149 -0.030272959 -0.012316658 -0.04843704
000320 b3 17 dc bd d1 fe db 3d 9c 4d b7 bd b0 77 4c 3e
       -0.10746708 0.10741962 -0.0895035 0.19967532
000330 1a b6 54 be 41 5f 00 bd 0c 1b 20 bc 6b aa de 3d
       -0.20772591 -0.03134084 -0.0097720735 0.108723484
000340 ae a8 83 3d 2d 83 b2 bc 96 d9 ef 3d 9a 41 8c 3d
       0.064286575 -0.021791065 0.11711423 0.0684845
000350 50 81 13 bc 44 67 0f be 60 0f 31 be f6 59 07 be
       -0.0090029985 -0.14004236 -0.17291021 -0.13217911
000360 17 77 34 be 62 66 4c bd c4 fb 65 3c 71 9a 22 3d
       -0.17623554 -0.049902327 0.014037076 0.039698068
000370 35 46 30 be f9 c6 ef 3c 81 55 42 be 64 c7 0e be
       -0.17214282 0.029269682 -0.1897793 -0.13943249
000380 cb a2 bc bc 84 2c dc 3d c0 24 a6 bc bb 99 45 be
       -0.023026844 0.10750678 -0.020281196 -0.19296925
000390 3d 9e ab bc ed a4 56 be 97 d8 8f bd 74 cc fc 3d
       -0.020949477 -0.20961352 -0.07023733 0.12343684
0003a0 8a d2 10 3e 15 51 58 3e f6 bd 3b 3e 3e 50 f2 3d
       0.14142814 0.2112468 0.18334183 0.11831711
0003b0 7f 25 4c 3e 32 5b 5f 3d 2f b8 b8 3d 69 35 0d 3e
       0.19936179 0.05453033 0.09019505 0.13789906
0003c0 f5 9c 2c be 22 13 93 bd cf 72 b5 3d f8 1b 0f be
       -0.1685675 -0.07181384 0.088597886 -0.13975513
0003d0 41 69 e7 3d d8 71 42 be a2 47 b6 bd c2 9c bb bd
       0.112993725 -0.1898874 -0.089003816 -0.091607586
0003e0 df 69 f9 bb 54 67 cc bc ed 48 4d ba 9b 07 b3 bb
       -0.007611498 -0.024951614 -0.0007830996 -0.005463553
0003f0 0f 20 09 3e 38 45 06 be 1b 74 09 3e a4 27 b0 bd
       0.13391136 -0.13112342 0.13423197 -0.08601311

sage1.lin_l.weight f4 [128, 128]
000000 22 de 40 bd 3b ce 97 3c 13 7e 12 bd 2f 5d 68 bd
       -0.047086842 0.018530956 -0.035764765 -0.05672949
000010 50 3b b5 bc 62 53 3c 3d 03 1f a5 3c 81 83 67 3d
       -0.022123009 0.045977958 0.02015639 0.056521896
000020 ef 70 5f 3c b7 53 b0 bd b9 d5 e5 bc f2 d9 28 3b
       0.013637765 -0.08609717 -0.028056012 0.002576467
000030 64 55 ce 3c f3 1c 91 3b 0c 80 30 3d 09 79 8a bd
       0.025187202 0.0044285 0.043090865 -0.06761367
000040 37 7c 5a bc a2 04 9e 3d 08 70 aa bd 5a 02 2c 3c
       -0.013335279 0.077157274 -0.083221495 0.0104986075
000050 48 ae 0f 3c 89 e7 96 bb f4 85 68 bd 68 f2 d7 bc
       0.008769579 -0.004605238 -0.056768373 -0.026360705
000060 29 eb 3c 3d 70 1e 6d 3b b7 a0 10 3c bb 7a a1 3d
       0.046122704 0.0036181472 0.00882738 0.07884737
000070 91 91 a9 bd 19 fc 3f 3d ef 86 22 bd d4 dc 9b bd
       -0.08279718 0.04687128 -0.039679464 -0.07610479
000080 8e f3 9a 3d ed 48 71 bd 8b bc 9f 3d ec 6c 93 3d
       0.075659856 -0.058907438 0.077996336 0.071985096
000090 28 bf ad bd c7 7b cb bc 9a 8a 7a 3d 56 b2 80 3d
       -0.08483726 -0.024839295 0.061167337 0.06284015
0000a0 5d 20 0d bd 5c a8 c8 3c 45 2f 51 bd 98 f2 95 bd
       -0.034454692 0.024494343 -0.05107047 -0.07321662
0000b0 ac 83 d2 bb 9a 4d bb bd 94 f1 01 3c c7 97 88 3d
       -0.006424388 -0.09145661 0.007931132 0.06669574
0000c0 a2 70 94 bc 1e d7 96 3d dd d9 0f bd 16 d0 c6 3c
       -0.018120114 0.07365249 -0.03511988 0.024269145
0000d0 5c 01 18 bd d0 51 f8 3c 8f 6a 60 3c 3a e1 9b bc
       -0.03711067 0.030312449 0.013697281 -0.019028295
0000e0 bf 53 4d 3d 71 c7 9f 3c 78 d6 91 3d 81 3c b2 bc
       0.050128695 0.01950428 0.07120985 -0.021757366
0000f0 a2 7a 29 bd 33 cc 2f 3c b9 97 59 3d 3b f6 92 bd
       -0.041376717 0.010729837 0.05312321 -0.07175871
000100 b1 87 2d bd bd 26 9b bd 74 02 8e 3d bc 33 60 bd
       -0.042365734 -0.07575748 0.06934062 -0.054736838
000110 50 e1 0c bd 96 e3 11 3d 0f 8c 9c bd b8 a5 79 bd
       -0.034394562 0.035617433 -0.076439016 -0.060949057
000120 c3 b4 6d bc 82 9e 4f bd e6 8b 6e 3d 31 93 4b bc
       -0.014508429 -0.050688274 0.058238886 -0.01242523
000130 4b 58 70 bd b1 e8 15 bd 49 25 b6 bd bc bb b4 3d
       -0.058677953 -0.036598865 -0.0889383 0.0882487
000140 4a d8 a9 bd d6 9a 10 bd c7 3d 7e bd e2 d7 0a 3d
       -0.08293207 -0.035303913 -0.062070634 0.03389729
000150 2c 46 32 3d d9 52 23 3c a7 c9 18 bd 98 8b ba 3b
       0.043523952 0.009968483 -0.037301686 0.0056929104
000160 dc ff a6 bc 62 ff ac 3d fb 26 fa bb 63 29 2e bc
       -0.020385675 0.08447148 -0.0076340414 -0.010629985
000170 32 e3 a1 bd e4 9b e4 3c 1c 5f 75 3d a4 f2 0f 3d
       -0.07904662 0.027906366 0.059905156 0.03514351
000180 ef 62 a3 3c ec d7 9b 3d c3 8a 87 bd 80 f7 f2 3b
       0.019944636 0.07609543 -0.066182636 0.007414758
000190 ea ef 2b bd aa 8d 37 bc 24 79 5a 3d dc 80 80 bb
       -0.041976847 -0.011203209 0.053338185 -0.0039216112
0001a0 01 89 31 bc 76 ba 38 3d dd c0 a1 3d 62 a2 28 bd
       -0.010835887 0.045099698 0.07898114 -0.041170485
0001b0 fb c2 e3 bc 83 26 3e bd c7 b4 3f bd 9d a7 1e bd
       -0.027802935 -0.046423446 -0.046803262 -0.038734067
0001c0 ef fd ab bd f2 d6 4e 3d 7e 37 c2 bc f1 1e 5a 3d
       -0.08398043 0.050497957 -0.023708101 0.053252164
0001d0 16 b0 57 3d 6e e2 91 bc 0e ed 23 3d e9 4d 4c bd
       0.052658163 -0.017808165 0.040020995 -0.04987899
0001e0 23 a0 3d 3d 72 f3 6f bd cd 7f 88 3d 78 81 da 3c
       0.046295296 -0.058581777 0.06665001 0.026673064
0001f0 10 34 77 bd 0b 17 2e bc 26 4e 66 bd 3d d6 9a bd
       -0.060352385 -0.010625611 -0.056226872 -0.07560394
000200 34 ef 3c 3d 7c 5e 2d bb ce d5 c8 3c 01 80 a4 3c
       0.04612656 -0.0026454022 0.024516013 0.020080568
000210 a8 1d 23 3d 5d 20 49 3b 4d 4e ad bd 31 2c 9f 3d
       0.039823204 0.0030689456 -0.084622 0.07772101
000220 7d 05 8a 3d 4a d5 df bc 75 ff 21 3d 14 5b 43 bd
       0.06739328 -0.027323384 0.039550263 -0.04769428
000230 d5 75 ca bb 77 83 4e 3d 1e 9c 71 bd 30 42 99 3d
       -0.0061785975 0.050418343 -0.058986776 0.074833274
000240 a1 94 96 3d cc 34 c4 3c 78 44 a4 bc be 74 1a bd
       0.073525675 0.023950957 -0.02005218 -0.03770899
000250 1b 7d 8a 3d a3 de 7f bd 1d 71 a4 bc 77 b3 4d bc
       0.06762143 -0.062468182 -0.020073468 -0.012554995
000260 d1 09 a4 bd 6c 77 d7 3b e4 73 87 3d 13 07 84 3d
       -0.08009685 0.0065755155 0.06613901 0.06446662
000270 ba 33 3b bc 50 fd 96 bd fd 40 30 bd 0f a9 c8 3c
       -0.011425907 -0.07372534 -0.043030728 0.024494676
000280 dc 91 81 bc 2c 2f 97 bc 27 ea a7 bd 58 10 6e 3d
       -0.015816621 -0.01845511 -0.08198958 0.058121055
000290 81 a1 90 bd 7b 74 15 bd e9 00 06 3d 88 8f 4c bd
       -0.070620544 -0.036488038 0.03271571 -0.04994157
0002a0 02 b6 0e bd 10 7c ee b9 54 a2 21 3d 5b 9e 93 bc
       -0.034841545 -0.0004548733 0.03946145 -0.018019846
0002b0 78 3f 9d bc 5d a0 b4 bd 30 2f 4e 3d 24 9b b0 bc
       -0.019195303 -0.08819649 0.05033797 -0.021558352
0002c0 2b b1 75 bd 96 bc 86 3c 61 02 b0 3b 48 16 9c bd
       -0.059983414 0.016447347 0.0053713773 -0.07621437
0002d0 ef b8 b8 3d fd 13 9f bd 2e d1 50 bd 43 27 ce bc
       0.09019648 -0.07767484 -0.05098074 -0.025165206
0002e0 ba 3c 82 3d da 57 74 3d 9b b3 83 3d 0a 4c 17 bd
       0.06359239 0.059654094 0.064307414 -0.03693775
0002f0 3c 41 32 3d c8 7f 98 bd 08 82 3e 3d ae b4 8e 3d
       0.043519244 -0.07446247 0.046510726 0.06968056
000300 35 b6 c9 3c 07 e1 d9 3c bd a5 80 bb e3 9f 3b 3d
       0.024623016 0.02659656 -0.0039260075 0.045806777
000310 a1 0e 94 3d 2e ac d8 3c 34 03 a8 bd 3e dd 47 3c
       0.07229353 0.02644929 -0.08203736 0.012198744
000320 79 10 92 bd fa 6e 16 3d 26 7c a2 bc 93 5a 3b 3c
       -0.07132048 0.03672693 -0.01983459 0.011435169
000330 54 f0 9a 3d dc 5b 5d 3d 7d f8 91 bd 9c fa 4a bd
       0.0756537 0.054042682 -0.071274735 -0.049555406
000340 cf 02 99 bd 40 b4 d0 bc 4b 51 b2 bd 54 97 b1 bb
       -0.07471239 -0.025476575 -0.08706912 -0.005419651
000350 83 e5 7a bd 44 5a 72 3d 2a a2 6b 3d a4 ea c8 3b
       -0.061254036 0.059168115 0.0575277 0.006131487
000360 a9 2a e8 3c a5 d4 38 bb 02 76 11 bd ed 39 8f 3c
       0.028340654 -0.0028202918 -0.03551293 0.017483676
000370 e1 65 0a 3d 9d f3 24 bd 27 cf 48 bd 5d 7f 1e 3d
       0.033788566 -0.04027139 -0.04902568 0.03869568
000380 32 b9 2c bd cc 5a 4a 3d 78 71 a6 3b 73 f5 44 3d
       -0.042168804 0.049402997 0.0050794445 0.04808564
000390 39 2b 60 3d f5 70 a2 bd e4 1c dc 3c dd ff b5 bc
       0.05472872 -0.07931701 0.026869245 -0.022216732
0003a0 db 64 a3 bc 05 63 66 3d 90 5e 45 3c e4 59 89 3c
       -0.019945553 0.056246776 0.012046471 0.016766496
0003b0 d8 82 81 ba 28 97 54 3d 67 72 3c 39 4f f3 a1 3d
       -0.0009880913 0.051901966 0.00017971695 0.079077356
0003c0 98 a7 a1 3d 60 42 21 bd cb 00 6e bd d7 89 9e bd
       0.07893294 -0.03936994 -0.058106225 -0.077411346
0003d0 fb 00 2b 3d e9 82 c9 3c 70 75 6c 3d 60 9a 5f 3d
       0.041748982 0.024598556 0.057729185 0.054590583
0003e0 fa 2d 73 bc b5 67 b6 3a e2 66 ae bd 13 d4 b3 3c
       -0.014842505 0.0013916405 -0.08515717 0.02195171
0003f0 b5 7a 87 bb 96 40 b9 bd e0 07 dd 3c 03 5e 79 3d
       -0.004134501 -0.09045522 0.026981294 0.060880672

sage1.lin_l.bias f4 [128]
000000 9c f7 37 bd 8e 6b 47 bd df e6 7d 3a 58 9c 4a 3d
       -0.044913873 -0.048686557 0.00096855866 0.049465507
000010 14 b6 af 3c 59 d7 2e bd b1 67 c9 bc c3 92 26 bd
       0.021449126 -0.04268584 -0.024585577 -0.040667307
000020 9e 45 68 bd 34 d5 81 3d e2 d8 a0 bd ca b2 30 3d
       -0.056707017 0.063394934 -0.07853867 0.043139257
000030 ca aa 30 bd 97 07 42 3c f6 c2 53 bc 65 08 ac bd
       -0.043131627 0.01184263 -0.0129249 -0.08400039
000040 eb bf ae bd 3e 85 85 bd 4e 54 69 3c 3e 1d 06 3d
       -0.08532699 -0.065195546 0.014241291 0.03274273
000050 8b b7 6d 3d 3f 28 a1 3c 66 c6 10 bd 3f d6 2a 3c
       0.05803637 0.019672511 -0.035345457 0.010427057
000060 24 87 b0 bd 1f 78 d0 bc b2 25 59 3d 36 4c 21 bd
       -0.08619526 -0.025447903 0.053014465 -0.03937932
000070 58 03 49 3c e1 06 cc 3c e8 15 7d 3d 6a db de bc
       0.012268864 0.024905624 0.06178847 -0.027204234
000080 ed df c3 bc be 86 d2 bc f7 9f 09 bd 1c fe e8 bb
       -0.023910487 -0.025699016 -0.03359982 -0.0071103703
000090 c5 25 fa bc 45 4a 11 3d 20 f2 33 bd 4f 3b 55 3d
       -0.030535588 0.03547122 -0.04393208 0.052058514
0000a0 36 ec 27 bd a7 e7 05 3d f9 78 8d bd 8c 41 a8 bb
       -0.040996753 0.032691624 -0.06907839 -0.005134767
0000b0 3f 17 97 bc 7d d1 9b 3d a7 ba cc 3c 34 32 d5 3c
       -0.018443702 0.07608316 0.024991347 0.026024915
0000c0 ca 0e a1 bd 62 7a 99 bd 7a 0b 0f bd 54 47 94 3d
       -0.07864149 -0.07494046 -0.034923054 0.07240167
0000d0 d7 f0 4c bd 38 37 87 bd 52 0c a8 bd e0 63 92 3d
       -0.05003437 -0.06602329 -0.08205475 0.07147956
0000e0 1a ba 12 bc b4 e2 a3 bd 5d 55 b3 bd 24 c5 20 bd
       -0.008955503 -0.080022246 -0.08756516 -0.039250508
0000f0 d5 14 93 bd ea 4c a3 3d d5 2b d6 bc 3a 3b 76 bd
       -0.07181708 0.079736546 -0.026143948 -0.060115077
000100 25 d5 af bd c2 0b ed bc c8 c7 31 3c 26 bb 2e 3d
       -0.08585576 -0.02893627 0.010850854 0.042658947
000110 db a4 d3 3c e6 59 a2 bd ff 14 65 3d f7 dc 07 bd
       0.025835445 -0.07927303 0.055928227 -0.033169713
000120 09 30 61 bd be 22 a4 bd ab fe ad bc 36 29 86 3c
       -0.05497745 -0.08014439 -0.0212396 0.016377073
000130 07 c2 99 3d a8 d0 01 bc dd 38 82 bd ab f9 9d bd
       0.07507711 -0.007923283 -0.06358502 -0.07713636
000140 6c 7a a5 bd c7 16 c6 bc c6 c5 fb 3c 69 de 84 bd
       -0.08079991 -0.024180783 0.030733954 -0.06487734
000150 1b 9a 09 bd 09 4a 2a bd 04 e2 00 3c 96 f6 a4 bd
       -0.033594232 -0.04157451 0.007866386 -0.08054845
000160 4b ff 11 bd 2e bf 97 3d b3 db 0d bd 1f e7 b2 bd
       -0.035643857 0.074095115 -0.03463335 -0.08735489
000170 ef 02 92 bc dd 0f 74 bd 2d 1e ff 3c 68 46 a3 bd
       -0.017823664 -0.05958544 0.031142319 -0.07972413
000180 62 1a 57 3d ee e1 07 bc 26 6d 8e 3d 30 9c b5 3d
       0.052515395 -0.008293612 0.06954412 0.08867681
000190 f7 92 3c bd b3 e1 69 3d d0 41 7a bc f5 05 6f bd
       -0.046038594 0.05710001 -0.01527448 -0.05835529
0001a0 ce 9f 08 3d 14 30 b6 3c 04 da 9c 3b a3 93 4b 3c
       0.033355527 0.022239722 0.0047867317 0.012425336
0001b0 5f e5 e9 bc cb a3 48 3c c9 49 e6 3c fe dc 39 bd
       -0.028551755 0.012246083 0.028111355 -0.04537677
0001c0 7f 36 76 3d 52 93 9a 3c c0 1c ae 3d 55 17 80 bd
       0.060110565 0.018869076 0.085015774 -0.0625445
0001d0 a3 82 e2 bc 15 85 c6 3c 3d 82 b9 3b 3b be cc bc
       -0.027650183 0.02423338 0.0056612776 -0.024993053
0001e0 ba 34 c2 3a 44 37 24 3d 51 db 81 3d 83 11 8d 3d
       0.0014816739 0.040091768 0.063406594 0.06888106
0001f0 43 be b5 3d a8 f6 8e 3d 88 91 fe bc b9 e6 86 bd
       0.0887418 0.0698064 -0.031075254 -0.065869756

sage1.lin_r.weight f4 [128, 128]
000000 08 6f 36 bd bf d0 89 bd 10 06 64 3c 90 d8 50 bd
       -0.04453948 -0.06729268 0.013917461 -0.05098778
000010 04 e5 89 3d c7 b2 ab 3c a9 75 a9 3d 09 07 79 bd
       0.067331344 0.020959271 0.08274395 -0.060797725
000020 43 86 ae 3d eb ae 2b 3d 29 58 bd bb 11 d0 96 bd
       0.08521702 0.04191486 -0.005778332 -0.07363904
000030 01 6d 87 3d 3d de 38 3d c1 3e 1c 3d 49 be d2 3c
       0.06612588 0.045133818 0.038145784 0.0257255
000040 88 ac 05 3d c4 b8 77 bd a8 f4 61 3d 39 8f 01 bd
       0.03263524 -0.06047894 0.055164963 -0.03163073
000050 ac 3e 6f bc e2 aa aa 3d d8 20 b1 3d e0 a9 e1 bc
       -0.0146023445 0.083333746 0.086488426 -0.027546823
000060 d5 dc 9b bd f0 8c 19 bd f7 bc 4d bd 99 e2 1e 3d
       -0.0761048 -0.037487924 -0.05022904 0.03879032
000070 2d d2 a3 bc f0 b9 6f bd af 74 71 bd 5b 1e 1d bc
       -0.01999768 -0.058526933 -0.05894917 -0.009589757
000080 28 d6 3f 3c 68 2c 47 3c ae 08 a7 bd 79 16 13 3c
       0.011708774 0.012156583 -0.081559524 0.008977526
000090 a1 e7 56 3d 46 05 93 bd ba 44 15 bd 8c b4 bd bc
       0.052466992 -0.0717874 -0.036442496 -0.02315738
0000a0 93 72 99 3d 08 75 5d 3d 6a 1f c4 bc 8d b1 0a bc
       0.074925564 0.054066688 -0.02394076 -0.008465183
0000b0 a9 a0 fa 3c d0 6c ec bc ff 48 48 3d af 9a 90 bd
       0.030594187 -0.02886048 0.04889774 -0.070607536
0000c0 eb c8 58 bd e4 7f 5c bd 7d 1b 12 bd bd a5 95 3c
       -0.052925985 -0.053832904 -0.035670746 0.018267507
0000d0 d7 a7 f5 bc 3a ad 02 bd 2f da 87 bd ec c1 a6 3d
       -0.029987259 -0.031903483 -0.06633412 0.081424564
0000e0 24 67 50 bc 52 ce 04 3d bd 88 06 3d ac 3d 45 3d
       -0.012719903 0.032423325 0.032845248 0.048154518
0000f0 68 a6 7e 3d 30 6e b2 3d 9d 6f 82 bd 33 36 90 bd
       0.062170416 0.08712423 -0.06368945 -0.07041588
000100 43 cd 79 3d a2 39 3b bd f5 15 24 bd 08 cc a8 3c
       0.06098677 -0.04570926 -0.040060002 0.020605102
000110 43 2d 44 3c 76 ac 8b 3d b1 d0 34 bd 25 b5 a9 bd
       0.011973682 0.06820004 -0.044144336 -0.08286504
000120 1e fc 0c bc 28 67 16 3d 8f 04 15 3d da 6f 83 bd
       -0.008605031 0.03671947 0.0363813 -0.06417818
000130 87 59 a1 bd 65 8c 17 3d 87 f7 4d 3d d9 ea de 3c
       -0.07878404 0.036999125 0.05028489 0.027211593
000140 af f6 a9 3d a6 47 b8 bc 66 f3 a9 3d 1e f6 2c bd
       0.08299004 -0.022495102 0.08298378 -0.042226903
000150 06 66 13 3d 09 62 b1 bd 06 0d 41 3c a7 f5 f2 3c
       0.03598597 -0.08661277 0.01178289 0.029658152
000160 46 89 7f 3d 5a c8 f8 bb 4d 1d 9d bd 33 ec 86 bd
       0.062386774 -0.007592243 -0.07671604 -0.0658802
000170 b3 92 74 bd b9 b2 83 bd 95 17 b1 3c 31 36 35 3c
       -0.059710216 -0.06430573 0.02161769 0.0110602835
000180 5c cf 7e bb dd 83 12 3c 88 96 73 3a 78 d8 11 3d
       -0.003888092 0.0089425715 0.0009292145 0.03560683
000190 c5 c6 91 bd 62 c3 9b 3d e9 98 6d 3b 52 7a b1 bc
       -0.071179904 0.07605626 0.0036254472 -0.021664772
0001a0 cd 32 12 3c 58 46 91 bd 59 87 0d 3d 5f 1b 3a bd
       0.008923245 -0.07093495 0.034552906 -0.04543626
0001b0 d0 37 ae bb 27 e1 22 bb 35 e7 8f 3d 45 14 47 3d
       -0.005316712 -0.002485344 0.07026521 0.048603315
0001c0 9b 6f 9a 3d 4c 19 a8 3d 8a dc 94 3d 26 d6 9d bd
       0.07540818 0.0820795 0.07268627 -0.07706861
0001d0 09 3b 36 3c dc 8e 99 bd 4c 9d 5e bd 91 9d 44 3d
       0.0111224735 -0.074979514 -0.05434923 0.04800183
0001e0 aa cc d1 bc 6f 28 91 3d 3b e1 ad bc 7b 29 89 3d
       -0.025610287 0.0708779 -0.021225562 0.06697365
0001f0 83 ac 53 3d ac 42 56 3d 20 76 70 3d d4 0a 6e 3d
       0.051678192 0.052309677 0.058706403 0.058115795
000200 27 9e 8f bb 54 9b 13 bc df d8 9d 3d 9b 3d 9b 3d
       -0.004382867 -0.009009201 0.077073805 0.0758011
000210 dc 39 a4 3d f7 f8 64 3d 3f 2f 86 bc 03 5d 3a 3c
       0.08018848 0.055901494 -0.01637995 0.011374715
000220 be 2f 02 bd 14 0e eb bc 3a c7 66 bc c3 92 4b bd
       -0.03178381 -0.028693236 -0.014085585 -0.04970051
000230 48 4d 8f bd ba 3d 93 bd ce 1a 84 bc 82 7f 8f 3c
       -0.06997162 -0.07189508 -0.016126063 0.017516855
000240 95 96 60 bd dd 79 06 bd 97 6f 22 3d 76 c9 98 3d
       -0.054831106 -0.03283106 0.0396572 0.074603006
000250 8b 30 90 bc dd cc 62 3a a4 bc 3a bd 39 79 0f bd
       -0.017601272 0.0008651743 -0.045590058 -0.035027716
000260 ad 95 39 bd a5 73 0a bc a1 0d 55 3a 70 98 a4 3c
       -0.045308758 -0.008450423 0.0008127336 0.02009222
000270 1f 42 09 3c 23 9a e8 3c 6d 8c 01 bc c6 33 a1 3c
       0.008377581 0.02839381 -0.007907015 0.019678008
000280 b9 91 88 bd 82 a7 27 bd cd bd 2e 3d 2c 37 a1 3c
       -0.066684194 -0.040931232 0.042661477 0.019679628
000290 90 08 4c 3c 1e be 57 bd 09 32 0a 3c bc fd 20 3d
       0.012453213 -0.052671544 0.008434781 0.03930448
0002a0 c2 50 2f bd 97 d1 95 bd 6c ec db 3c d9 85 a0 3d
       -0.042801626 -0.07315367 0.026846133 0.078380294
0002b0 dc ce b6 bd b4 5f d1 bc c5 b1 91 3d 7b 19 a2 3d
       -0.08926174 -0.02555833 0.07113985 0.07915016
0002c0 52 33 a2 3d 84 42 ab bd a8 be 8f 3d ea ac 52 bc
       0.07919945 -0.08362296 0.07018787 -0.012858609
0002d0 9c 1c 2f 38 19 ba 4b 3d d9 ec e7 bc 2a 77 99 3c
       4.1749896e-05 0.049738023 -0.02831118 0.01873358
0002e0 6a 40 89 3d bd e1 52 bd 9c 93 5a bd 0d 94 5d 3d
       0.06701739 -0.051484812 -0.053363428 0.05409627
0002f0 c0 4a 3d 3b 3b a8 06 bd 3d fd 8d bd 5c 6a 40 bc
       0.0028883666 -0.03287528 -0.06933067 -0.011744108
000300 f2 bd 75 bc 47 6a 1d 3d 23 7a a2 3d c0 61 9c 3c
       -0.0149989 0.038431432 0.07933452 0.01908958
000310 f9 e5 96 bd e5 5c 99 3d 78 d1 1a 3c 2c 0d df 3c
       -0.073680826 0.07488421 0.009449355 0.02722796
000320 cb 1a 01 bd 41 a7 3f bd ed 48 96 bd b5 4a 4e 3d
       -0.031519692 -0.046790365 -0.07338128 0.050364215
000330 1c 45 90 3d a0 09 68 3d 43 cc 09 3d b1 4a 8e 3d
       0.070444316 0.056649804 0.033642065 0.0694784
000340 9c d3 a2 3d 2b 26 99 3d 21 45 1e bd a6 a4 99 3d
       0.079505175 0.07477983 -0.038640145 0.07502107
000350 4d 69 b1 bd c9 ac 4e bd 70 4c 32 bd 63 f5 a4 3d
       -0.08662663 -0.05045775 -0.043529928 0.08054616
000360 b8 d5 6d bd c5 5b 9d 3d 42 0e 98 bd a5 db 37 bc
       -0.058065146 0.07683519 -0.074245945 -0.011221801
000370 43 50 ad 3d bd 3c 74 bd 1c eb 65 bd 7c 0a 57 bd
       0.08462574 -0.059628237 -0.05613242 -0.052500233
000380 4a 27 78 bd 98 4d 4c 3d a2 b6 64 3d 78 2c a4 bc
       -0.060584344 0.049878687 0.055838235 -0.020040736
000390 72 96 47 bc a1 7b 7b 3d 3d 03 42 bd 5b 2c 83 b9
       -0.012181865 0.0613972 -0.04736637 -0.00025019314
0003a0 b7 88 5f bd 19 ed cd 3c ec ab 15 3d dc f0 85 bd
       -0.05457374 0.025137471 0.03654091 -0.06540081
0003b0 12 bf 18 3d b0 78 9b bd e1 79 af bd 14 ab 59 3d
       0.037291594 -0.07591379 -0.085681684 0.05314167
0003c0 ff e0 53 bd 31 e2 9d bd e0 24 10 bd f2 0d 97 bd
       -0.051728245 -0.07709158 -0.035191417 -0.07375707
0003d0 f8 7f a8 3d 75 62 a2 3c 57 f6 3e bd 59 74 3d 3d
       0.08227533 0.019822339 -0.046621647 0.046253536
0003e0 fa 49 b8 bd f1 c4 2b bd d9 70 14 bc 99 5f 22 3d
       -0.08998485 -0.041935865 -0.009060108 0.03964195
0003f0 1c 26 f7 3c e1 5f 6f 3d b8 e3 ac 3c 8d 3a ad 3c
       0.03016954 0.058441047 0.021104679 0.021146083

sagpool.gnn.lin_rel.weight f4 [1, 128]
000000 9a 0a e7 ba ae 6c 59 3b 20 7c a6 bd 04 95 b5 3c
       -0.0017627061 0.003317635 -0.08129144 0.022165783
000010 e2 ae ee 3c 8c d2 b2 ba 60 e5 07 bc e2 71 66 3d
       0.029136125 -0.001364307 -0.008294433 0.05626095
000020 24 df 2a bd d1 59 81 3c 18 d1 1e bd fa 6d 8a 3d
       -0.04171671 0.015789898 -0.038773626 0.067592576
000030 48 b7 23 3d c7 ef 9d bc c6 df b3 bd fa 40 8a bd
       0.039969712 -0.019279374 -0.08782916 -0.067506745
000040 fb 38 f9 3c 8e 0e 98 bc c8 6c 8a 3d 1f 77 28 bd
       0.030422678 -0.018561628 0.067590296 -0.041129228
000050 42 4d 43 bd 43 36 ff 3c 62 5d 89 bc b6 4a 18 3d
       -0.0476811 0.031153804 -0.016768161 0.037180625
000060 9f cf 48 bd 16 fd a9 3d 0c 80 98 3d 29 02 84 bc
       -0.049026128 0.083002254 0.07446298 -0.016114311
000070 46 6f 41 bc 3c 6b 2b 3d 35 c3 ab 3c 69 a8 66 3c
       -0.011806315 0.041850314 0.020967105 0.014078238
000080 4e 61 65 bc a1 5d ab 3d c9 96 66 bd 4b 83 3f 3b
       -0.01400025 0.08367468 -0.056296144 0.0029222544
000090 3d 83 70 3b fa ad 8c bd e5 46 b8 3d 55 cc a1 bd
       0.0036699318 -0.06869121 0.08997897 -0.07900301
0000a0 4c cb 4a bd b7 66 80 bd c1 d5 ba bc 8a 59 59 3c
       -0.049510285 -0.06269591 -0.022807004 0.013265977
0000b0 6d 14 e8 3c f4 35 0f bd e4 1f 56 bd d9 75 86 bc
       0.028330052 -0.034963563 -0.052276507 -0.016413616
0000c0 93 1c 96 bd 84 3a 8c 3c d8 93 f7 3c a6 71 6d bd
       -0.07329669 0.017117746 0.030221865 -0.05796971
0000d0 b9 d5 73 bd 32 75 35 3d ee ea a1 bd ba 08 34 bd
       -0.059529994 0.04430122 -0.079061374 -0.043953635
0000e0 0c 6b 07 3d 0b 18 8e 3d 4b a9 fa 3c 44 40 9d 3d
       0.033061072 0.069381796 0.030598303 0.07678273
0000f0 66 2e c7 3c 56 e7 b4 3d 6a 14 a1 3d 06 74 0c bd
       0.024314117 0.08833186 0.07865222 -0.034290336
000100 bf 1c 9a 3c d9 59 ad 3d 4f fa 08 bd 76 31 2f bc
       0.018812535 0.08464403 -0.033441838 -0.010692945
000110 11 05 d9 bc 72 71 a2 bd 98 c4 3b bd 16 20 44 bd
       -0.026491674 -0.07931794 -0.045841783 -0.047882162
000120 27 09 0e bd cf 98 9d bd 36 2d e7 bc a1 fd a3 bd
       -0.034676697 -0.076951616 -0.0282198 -0.0800736
000130 70 47 6f 3c 4b 70 51 bd 74 47 64 bd 64 99 f9 bc
       0.014604434 -0.05113248 -0.055732206 -0.03046865
000140 b5 ee 47 bd a3 ce 75 3d b4 e4 97 bd 8f b8 b2 bd
       -0.048811633 0.060011517 -0.074166685 -0.08726608
000150 c3 f9 9a bc 9a 3a a7 bc 3c 6e 11 bd 17 14 ab 3d
       -0.018917924 -0.020413686 -0.03550552 0.08353441
000160 a4 80 a1 3d 1f ff 4e bc 22 b2 0d 3d fc 34 54 3b
       0.078858644 -0.012634068 0.03459371 0.0032380214
000170 80 45 d0 3c 55 e2 19 3d 91 fb 62 3d 62 e4 b0 bc
       0.025423765 0.037569363 0.055415694 -0.021593276
000180 83 59 68 3d 09 7d 1a bc d5 0b a0 3d 62 ce 33 3b
       0.05672599 -0.009429225 0.07814757 0.0027436246
000190 5e 09 5d 3d 80 0a 64 bc 2b a5 28 bd 87 1f 06 bd
       0.05396401 -0.013918519 -0.04117314 -0.03274491
0001a0 f6 0c 84 3d 29 58 1c 3d 49 cc 0b bc 9d c6 20 3d
       0.064477846 0.038170014 -0.008532592 0.039251912
0001b0 14 a4 79 bd 05 e9 b3 bc b5 11 a7 bd 03 35 0d bd
       -0.060947493 -0.021961698 -0.08157674 -0.034474384
0001c0 d4 3e 01 3d 59 cf 34 3d 72 98 09 bd 35 4b b2 bd
       0.03155406 0.044143055 -0.03359265 -0.08705751
0001d0 b9 a4 89 3d a9 a6 47 3d 5e 57 98 3d 60 6d a3 bd
       0.067208715 0.048742924 0.07438539 -0.07979846
0001e0 44 a7 17 bd 01 79 2b bd 3a 88 a8 3d c7 eb 81 bd
       -0.03702475 -0.041863445 0.08229108 -0.06343799
0001f0 a9 62 59 bb 00 35 a4 bd 7c b3 48 bd 65 cb 20 bd
       -0.0033170378 -0.080179214 -0.048999295 -0.039256472

sagpool.gnn.lin_root.weight f4 [1, 128]
000000 1d 61 19 bd 57 83 b3 3d 7d e9 3d 3d 5a 8b de bc
       -0.03744613 0.087652855 0.04636525 -0.027166057
000010 1a c2 14 bd 1f 64 44 bb 38 d0 81 3c df 43 0a 3d
       -0.036317922 -0.0029966903 0.015846357 0.033756133
000020 26 97 84 bd 8b 62 2f bd bc f5 80 bd 4d 28 20 bd
       -0.06474142 -0.042818587 -0.0629687 -0.039100934
000030 fe c7 9c bd f5 8a 85 bd 35 a5 a3 bd d0 32 09 3d
       -0.07655333 -0.065206446 -0.07990495 0.033495724
000040 73 c8 a3 bd 8d 5f c9 3c 03 07 8d bd 7c 26 2d 3d
       -0.07997217 0.024581695 -0.06886103 0.04227303
000050 e7 00 95 bd a1 1d 39 bd 58 47 86 3d e5 ec a1 bc
       -0.07275563 -0.045194272 0.065565765 -0.01976628
000060 bc f9 45 bd ec 53 1a 3d d4 f0 7b bd ff 35 95 bd
       -0.04833387 0.03767769 -0.06150897 -0.072856896
000070 cb e2 72 3d 14 09 2f bd b9 ad 9b 3c 56 fb ab bc
       0.059298318 -0.042733267 0.019003736 -0.02099387
000080 81 8a f0 bc 9a 52 9c 3d d6 b3 3a 3c db ed 51 3a
       -0.029362919 0.076329425 0.011395415 0.00080081605
000090 92 cf ce 3b 64 c0 f2 b9 d2 6b a1 bd fa 60 70 bb
       0.0063113654 -0.0004630118 -0.07881893 -0.0036678896
0000a0 ed ef 08 bc 80 d0 88 bc b9 e3 6f bd 45 35 75 bc
       -0.008357984 -0.016700983 -0.058566783 -0.014966314
0000b0 d5 b6 46 3c 74 c7 9e bd 8f 79 a2 3d c6 ad 5a 3d
       0.0121285515 -0.077528864 0.07933342 0.05338838
0000c0 f2 14 30 3d ac 4a df 3a bc ae 79 bd 39 b3 91 bd
       0.042988725 0.0017035804 -0.060957655 -0.07114262
0000d0 03 94 a3 3c e3 f8 3d bd 5b d1 46 3c d1 a2 0f bd
       0.019968038 -0.046379935 0.012134875 -0.035067383
0000e0 77 39 df ba 8d a8 69 3b 73 46 ae bd 35 8a 01 3d
       -0.0017030676 0.0035653443 -0.08509531 0.031625945
0000f0 27 ea 6d bd 6b c0 e4 3c a2 9d 44 bd 68 db 9f bd
       -0.058084633 0.027923783 -0.048001893 -0.0780552
000100 d0 17 a1 3d e1 13 08 bd 6a ec 9d 3b a8 a2 68 3d
       0.0786587 -0.033222083 0.0048194425 0.056795746
000110 f0 c1 86 bd 7c eb 18 bd 81 50 af bd b5 42 5d bc
       -0.065799594 -0.03733395 -0.08560277 -0.013504674
000120 2c 99 47 3d cc 88 68 bd 30 80 39 3d 7c 3b 85 3d
       0.04873006 -0.056771085 0.045288265 0.06505486
000130 4a 48 ae 3d f7 77 f0 bc 11 39 7c bc 73 76 3e bc
       0.08509882 -0.029354079 -0.015394465 -0.01162492
000140 bf 50 d7 bc d8 5b 9f bd 4d d3 b7 3c 95 55 1b 3c
       -0.02628362 -0.0778119 0.022439623 0.009480854
000150 f3 bf 4a bd 57 51 7a 3d ab 93 19 bb 0d 8f 74 3d
       -0.049499463 0.061112728 -0.0023433964 0.059706736
000160 73 20 42 bd 3a 6f 2c bd 76 d7 6d bd 52 3f 61 3d
       -0.047394227 -0.04209826 -0.058066808 0.054992028
000170 8f e8 3e 3d cb 3d 55 bc f9 80 11 3d cf 10 86 bc
       0.046608504 -0.013015221 0.03552339 -0.016365437
000180 75 7a ae 3d 02 87 c8 3c 57 92 5c 3c 82 6c a0 bd
       0.085194506 0.02447844 0.0134626245 -0.07833196
000190 83 fd 9a bd 41 a8 48 bd b2 20 ad bc 4c 69 4e 3d
       -0.07567885 -0.048988584 -0.021133754 0.050393388
0001a0 87 63 ac bd b2 43 a4 3d 31 63 0e 3d b1 70 84 3d
       -0.08417421 0.08020724 0.034762565 0.06466807
0001b0 05 6b ad 3d ce 5e a3 bd 37 7f 8c 3d ad 04 d6 3c
       0.08467678 -0.07977067 0.06860202 0.026125276
0001c0 91 41 ee 3b 27 83 3c 3d 68 51 4d 3d 2e 6c 0b bd
       0.0072709997 0.046023514 0.050126463 -0.034038715
0001d0 db 61 1c bd 8b 24 19 3d 63 18 12 bd 6e 44 9b 3c
       -0.03817926 0.037388366 -0.03566779 0.018953528
0001e0 49 32 70 bd 8d ae 46 bd e0 d9 8c 3c 72 74 aa 3d
       -0.058641706 -0.04850631 0.017193735 0.083229914
0001f0 23 8e 2d 3d da da 98 bd 97 62 2d 3c 25 d7 00 bd
       0.04237188 -0.074636176 0.010582588 -0.031455178

lin.weight f4 [64, 128]
000000 8e 7d 17 ba cc 8f 0e bd 51 8c 24 3d 6c 9d 2a 3d
       -0.0005778902 -0.034805104 0.04017288 0.041654035
000010 80 b1 77 3a 3f 31 bb 3c 19 3b dc bc fc 64 b7 bd
       0.0009448752 0.02285063 -0.026883649 -0.08954808
000020 d0 cc 7b bd d0 c5 37 bd f8 2e 52 bd 8f 6e b1 3d
       -0.06147462 -0.044866383 -0.051314324 0.086636655
000030 32 aa 8a bc 23 c6 27 3d 7d 6c b1 bb 4f cc b3 3d
       -0.016926859 0.040960442 -0.005414544 0.08779203
000040 79 65 a5 3d 7b 0d 95 bd 8b a6 8e 3c 32 20 b6 bd
       0.08075995 -0.07277962 0.017413398 -0.088928595
000050 56 a3 91 bd 25 78 df 3c 50 2f 25 bd 53 95 4b 3d
       -0.07111232 0.027278969 -0.040328324 0.049702954
000060 25 02 45 bb 4e 5f 8f 3d 7c 9c a6 3d 34 c1 e4 3c
       -0.0030061093 0.070006 0.08135316 0.027924158
000070 ec d8 ad bc 90 97 35 3b 99 ce 45 3d 59 a8 a2 bd
       -0.0212216 0.0027708746 0.04829273 -0.07942266
000080 12 fc 7f 3d a1 6f 40 3c 91 61 03 3c 8c c7 ef bc
       0.062496252 0.011745364 0.008018867 -0.029269956
000090 3f 13 68 3d b3 0c 96 3d 06 de 3f 3d 29 2a 6a 3d
       0.05665898 0.07326641 0.046842597 0.057169113
0000a0 48 be 9f 3c 7b 2a 68 3d 4e 8d b3 bd d4 fb ac 3d
       0.019499913 0.056681138 -0.08767186 0.0844647
0000b0 a5 2d 98 3c 77 b0 b5 3b 3e ca ec 3c b6 52 1f 3d
       0.018576453 0.005544718 0.02890503 0.03889724
0000c0 aa 2a 25 bd c9 d2 be 3c 91 c1 b9 bc 66 2c 12 3b
       -0.04032389 0.02329387 -0.022675307 0.0022304296
0000d0 e4 0e f5 bc 90 51 83 bc 1b 2f 04 bd 30 aa 05 3d
       -0.029914327 -0.016030103 -0.032271486 0.032633007
0000e0 62 b2 1f 3d d8 a4 af bd de bd a5 bd f1 bc 8f 3c
       0.03898848 -0.08576363 -0.08092855 0.017546149
0000f0 72 61 bb bd f8 be 99 3d 41 34 1c bd 63 f4 49 bd
       -0.091494456 0.075071275 -0.03813577 -0.04930533
000100 49 fd 94 bc e8 55 a9 bd 89 0a bf bc 7b c0 41 3d
       -0.018187182 -0.082683384 -0.023320453 0.047302704
000110 97 11 3c 3d b5 6c fc bc 23 a2 91 bc 59 13 aa 3d
       0.045915212 -0.030813554 -0.017777508 0.083044715
000120 63 ce dc bc 21 16 9a 3d 9d 20 71 bd 48 98 f9 bc
       -0.026953882 0.07523752 -0.058868993 -0.030468121
000130 ec 6e 05 bb ae 26 51 3d fe 80 58 3d 87 f3 ca bb
       -0.0020360304 0.05106228 0.05285739 -0.0061935815
000140 aa 05 0f 3d 87 f8 c5 3c 31 5d af bd d8 74 63 3d
       0.03491751 0.024166359 -0.08562697 0.055531353
000150 3a c0 34 3c e9 f9 bd 3d 90 94 2a bd 4b c2 03 bd
       0.0110321585 0.09276182 -0.041645586 -0.032167714
000160 91 2e 14 bd 1a 89 75 3d 93 39 59 3c fb dc 4a bd
       -0.03617722 0.059945203 0.013258356 -0.04952715
000170 32 80 98 bd c5 0d e2 3c 45 f0 b3 bd 41 0d 72 3d
       -0.07446326 0.027594456 -0.08786062 0.05909467
000180 54 c4 8e 3d c4 7c 6d 3d 16 5b 5a bc 16 4c 78 3d
       0.0697104 0.057980314 -0.013327381 0.060619436
000190 53 5b 2b 3c 23 c3 6a bd 18 be 9d 3d cb 8d a6 bc
       0.010458785 -0.057315003 0.07702273 -0.020331284
0001a0 4f 93 8c bd f6 2f b2 3d 62 4a c1 3c cb 91 89 3d
       -0.068640344 0.08700554 0.023595039 0.06717261
0001b0 f6 3b 29 bc 63 0d a6 bb ca 23 18 3c cf 0a 8c bd
       -0.010329237 -0.005067514 0.0092858765 -0.06837999
0001c0 ce a5 1b 3d cb 62 46 bc e1 96 35 3d 6b cd 0f 3d
       0.03799992 -0.012108515 0.044333342 0.03510801
0001d0 a4 83 80 3d 6b b4 41 3d 41 fd a1 bc 42 3d d2 3c
       0.062751085 0.0472912 -0.019774081 0.025663976
0001e0 ff 4f 1b 3b d6 b5 39 bd c5 da 4c 3b c3 f1 0c bd
       0.0023698804 -0.045339428 0.0031258326 -0.03441025
0001f0 cb 12 b1 3d 7c ed 14 3d 14 b4 85 bd 14 42 02 bd
       0.086461626 0.036359295 -0.06528488 -0.0318013
000200 e8 83 15 3c 52 24 52 bd 03 fe 3f bd 07 2f 3b bd
       0.009125687 -0.05130417 -0.046873104 -0.045699146
000210 06 d0 e3 3b 48 39 94 bd f0 85 b8 3d 3e 07 8b 3c
       0.0069522886 -0.07237488 0.090099216 0.016971227
000220 a4 33 62 3d 27 d7 90 bc 66 f7 38 3d dc d8 b2 bd
       0.05522503 -0.017680718 0.045157813 -0.08732769
000230 d9 8c a1 bc 44 60 83 3d c2 22 6a 3d 8d eb ad bc
       -0.019720482 0.064148456 0.057162054 -0.021230483
000240 24 0e 9f bd a3 9c 88 bc 09 68 25 3d 28 bc 77 3d
       -0.07766369 -0.016676253 0.04038242 0.060482174
000250 40 15 5e 3d f2 d9 a5 3d 2c 73 09 3d bf 09 a1 3d
       0.054219484 0.080982104 0.033557102 0.07863187
000260 a4 ea 8e bb 79 5a 92 bd fa 46 66 3d 0b 2a 0c 3c
       -0.0043614674 -0.071461625 0.056220032 0.008554946
000270 50 44 2a bd 04 07 bd 3c 60 e9 b2 bd 03 51 98 bd
       -0.041569054 0.023074634 -0.08735919 -0.07437327
000280 33 07 84 bd 66 78 8a bd b3 b9 8d bd f9 3f 75 3d
       -0.06446686 -0.067612454 -0.06920185 0.059875462
000290 56 a3 16 bd da 80 1d bd 6b ef 72 bd 38 f6 8c bd
       -0.036776863 -0.03845296 -0.059310358 -0.068829
0002a0 9d 7b 09 3d 89 ab 8d bd 4d 9f bd 3c 3d e8 4d bd
       0.033565152 -0.06917483 0.02314725 -0.050270308
0002b0 25 bc 27 bd c6 ba 96 bc a0 84 86 bd b5 7c 2e 3d
       -0.040950913 -0.018399607 -0.06568265 0.0425994
0002c0 0e ac 39 bd 6b be a2 bd 28 f6 9a bd 30 38 aa bd
       -0.0453301 -0.079464756 -0.07566482 -0.08311498
0002d0 b1 83 ac bb 56 84 b0 bb 3e 32 6f bd 74 5f 17 bd
       -0.0052647223 -0.0053868694 -0.058397524 -0.036956266
0002e0 ec 80 92 3c b1 2f 3b bd e7 4d 7f bd d6 49 3e bd
       0.01788374 -0.04569978 -0.062330153 -0.046457134
0002f0 11 6e 3a bd cd 92 89 bd 10 d1 2b bd f8 35 6e 3a
       -0.045515124 -0.06717453 -0.041947424 0.00090870215
000300 e8 5c 8a bd e6 e9 2d 3d d2 2f d8 bc 7c 61 67 bd
       -0.06756002 0.04245939 -0.02638999 -0.056489453
000310 8a 89 e9 3b 7f 47 c1 3c d6 e0 ec bb 1e 2a f9 bc
       0.0071269916 0.023593662 -0.007228951 -0.03041559
000320 8f 08 5b bd f9 ae ad 3d fb 28 6e 3c b1 88 a1 3d
       -0.05347496 0.08480639 0.014536138 0.078874
000330 ac 9c 67 3c f1 b7 1b bd 5d 11 56 bd 38 ca 87 bd
       0.014136475 -0.038017217 -0.052262653 -0.06630367
000340 ef 1b 31 bd ca 44 27 3d 93 dc 29 3d a5 2a da 3c
       -0.04323953 0.040837087 0.04147012 0.026631663
000350 21 cd ef 3b 9d 00 2a 3c 04 9c 19 bc 9a 5c ad 3d
       0.0073181544 0.010376123 -0.009375576 0.08464928
000360 17 8b 6c bd 94 ee f7 3c 22 71 c5 bc b5 08 12 3d
       -0.057749834 0.03026513 -0.024101797 0.035652835
000370 44 28 9a 3c 0d c7 d6 3c b0 dd 4d 3d bf 4f 40 3d
       0.018818028 0.026217962 0.050260246 0.04695105
000380 2c 21 d4 bb 3f f5 70 3d e0 f3 8c 3d ac b2 b5 3d
       -0.006473681 0.058827635 0.06882453 0.088719696
000390 18 8d 58 3d 22 d9 35 bd 06 16 6d bc 85 c3 11 3d
       0.052868932 -0.044396527 -0.014470583 0.035586853
0003a0 09 b6 4e 3d aa f1 92 bc 8e e2 b5 bd db 5c 6a bd
       0.05046657 -0.0179375 -0.088811025 -0.05721746
0003b0 2f e4 ad 3d e5 8d cd 3c 2c 45 6c bd 10 9e 87 ba
       0.08490788 0.025092075 -0.057683155 -0.0010346789
0003c0 9a 7f 46 3c 88 f2 00 3c 84 c9 f9 3c 82 61 6e bd
       0.0121153835 0.007870324 0.030491598 -0.05819846
0003d0 78 fd 1b bc a6 d7 22 bd d3 f1 b3 3b f8 f9 0f bd
       -0.009520881 -0.03975644 0.005491474 -0.0351505
0003e0 18 12 ff bc 28 7d 20 bd f4 e5 ae bb 1d a1 77 3d
       -0.031136557 -0.03918186 -0.005337471 0.060456384
0003f0 15 cf 73 bd 52 01 91 3b ed 30 ba bc b4 25 c9 3b
       -0.05952366 0.004425206 -0.022728408 0.0061385278
