All_Benchmarking/DATA_18/Results/f2/best_model.pth (torch, 192098 bytes, 32 tensors)

gat1.att_src f4 [1, 4, 32]
-0.39405853 -0.3336723 0.21338046 0.14638002 0.18185592 0.041653756 -0.25711274 0.15787426
-0.018395483 0.23949648 -0.3878119 0.4025764 0.013593774 -0.032180883 0.180941 0.15157208
-0.026107563 0.3785097 -0.33620018 -0.181284 -0.24023774 -0.17267701 -0.15285996 -0.3781344
-0.06294027 0.2800268 -0.2529004 0.07871587 0.09579342 -0.2132175 0.21548204 0.15904635
-0.0659083 -0.23984148 -0.3325536 -0.15437254 -0.19764265 -0.19788483 0.1936033 0.19726707
-0.04884458 -0.17173328 -0.30300897 -0.16831994 -0.36061433 -0.39865527 -0.259103 0.19212742
-0.29530084 -0.2393327 -0.24684191 0.10482836 -0.22686239 -0.12966436 -0.08326251 0.2620138
-0.08216917 0.06609592 -0.3098112 0.04700448 -0.023999283 0.22835436 0.22320543 0.36951423
-0.26755917 0.36233246 0.19897148 -0.041128956 0.22024405 -0.17902826 0.35756835 0.2531101
0.009032012 -0.00044420338 0.082607575 0.25387716 -0.11850399 -0.040464155 0.32023352 0.34239694
-0.24670924 -0.035755012 -0.12701117 0.2814324 -0.4056424 -0.19271128 0.080789216 0.07382659
-0.26063436 0.18290985 0.14496185 0.32219803 0.34847003 0.3408231 -0.4067254 -0.15515782
-0.08767963 0.10318334 0.0045848307 -0.34342122 0.39923382 -0.3680653 -0.007641935 -0.36251473
0.3788013 -0.37328714 0.1304386 0.054423496 -0.4026721 0.13980946 0.21692686 0.28018978
-0.052134197 0.3610668 0.2047867 0.19607101 0.006744808 0.3590239 0.02812673 -0.24155246
-0.08490168 -0.13384986 -0.113055 -0.29689258 -0.24281253 0.17872755 -0.011716128 -0.074741654
00000000: 0ac2 c9be 19d7 aabe 6880 5a3e a5e4 153e
00000010: 7038 3a3e 219d 2a3d 48a4 83be caa9 213e
00000020: 20b2 96bc 913e 753e 488f c6be 7e1e ce3e
00000030: 6cb8 5e3c 1ad0 03bd 9948 393e b635 1b3e
00000040: 87df d5bc 06cc c13e 6e22 acbe 83a2 39be
00000050: e200 76be 3ed2 30be 5287 1cbe d59a c1be
00000060: d4e6 80bd ac5f 8f3e 297c 81be c935 a13d
00000070: 572f c43d b055 5abe 53a7 5c3e 0cdd 223e
00000080: eefa 86bd 0199 75be 7744 aabe d613 1ebe
00000090: d662 4abe 52a2 4abe f23f 463e 6100 4a3e
000000a0: 4111 48bd d9da 2fbe fe23 9bbe 105c 2cbe
000000b0: 71a2 b8be 8b1c ccbe 26a9 84be 0dbd 443e
000000c0: ac31 97be a213 75be 20c4 7cbe 40b0 d63d
000000d0: 9d4e 68be bcc6 04be 8985 aabd ac26 863e
000000e0: 4f48 a8bd 4c5d 873d 939f 9ebe c587 403d
000000f0: 259a c4bc bad5 693e f78f 643e f830 bd3e
00000100: 84fd 88be a483 b93e 2ebf 4b3e d676 28bd
00000110: a887 613e 2f53 37be 3313 b73e a697 813e
00000120: 01fb 133c f8e3 e8b9 292e a93d 30fc 813e
00000130: 38b2 f2bd bebd 25bd a6f5 a33e a74e af3e
00000140: 59a1 7cbe d973 12bd 370f 02be e817 903e
00000150: 5cb0 cfbe 1b56 45be d174 a53d 6532 973d
00000160: de71 85be b84c 3b3e e170 143e 24f7 a43e
00000170: aa6a b23e 5e80 ae3e 503e d0be b1e1 1ebe
00000180: 6191 b3bd c951 d33d 593c 963b e8d4 afbe
00000190: 6068 cc3e 0e73 bcbe 3269 fabb 889b b9be
000001a0: 3ef2 c13e 7e1f bfbe b291 053e 2ceb 5e3d
000001b0: 0a2b cebe 362a 0f3e 1322 5e3e 0975 8f3e
000001c0: ab8a 55bd bfdd b83e 9bb3 513e d7c6 483e
000001d0: 8d03 dd3b fbd1 b73e 076a e63c 8759 77be
000001e0: efe0 adbd f00f 09be 6189 e7bd 4e02 98be
000001f0: d9a3 78be 5b04 373e 01f5 3fbc 2712 99bd

gat1.att_dst f4 [1, 4, 32]
-0.20828846 0.17639397 0.10500954 0.17912109 -0.08342383 0.013519343 -0.22937097 0.182065
0.0103173405 -0.3591452 -0.14441964 0.37122574 0.022170458 -0.13415778 -0.021775654 0.021953816
0.39698097 0.22440371 0.053129274 -0.19503576 -0.30222118 0.1535872 -0.3473799 -0.3688623
-0.15869226 -0.16114447 -0.041594304 -0.29479703 0.084583774 -0.08174641 -0.3284094 -0.029198464
-0.3307477 -0.13529353 -0.18229033 0.30186504 -0.1919293 0.048116405 0.14216997 0.082334734
0.28227612 0.16306035 0.005699127 -0.113809355 0.044797778 0.22975244 -0.3972091 -0.0330178
0.31219497 -0.12063155 0.19788411 -0.3643452 -0.23916094 -0.40198714 -0.08832331 -0.27642983
0.19950639 -0.092573896 -0.083187416 0.40342015 -0.36371782 0.0037002491 0.082543425 0.36216787
-0.22270848 -0.18897675 0.23445497 -0.33140266 -0.25077438 0.30027446 -0.102893546 -0.2530124
0.3278047 0.06263205 -0.29703477 0.31632122 -0.3527815 0.2323058 0.0935155 0.2444989
-0.04830353 -0.24380289 0.39871666 -0.3488491 -0.12033669 0.36651376 -0.013098956 -0.12199531
-0.17189062 -0.13418855 -0.19242509 0.34342387 -0.20384827 0.29954848 0.050269246 -0.20156687
-0.3370397 0.014355093 -0.13851881 0.2116245 0.2690212 -0.23002301 0.36422628 -0.0050142077
0.32242376 0.2325714 -0.18218659 -0.019160489 -0.31701744 0.14852941 0.004726862 -0.107897766
0.06645903 0.33638597 -0.21644947 -0.35126168 -0.25452173 -0.40259227 -0.33325067 0.28444284
0.1506508 0.1148554 -0.02704427 -0.06472589 0.23474799 -0.22591037 -0.13005604 0.2605504
00000000: 9249 55be 9fa0 343e 3e0f d73d 856b 373e
00000010: 1dda aabd 3c80 5d3c 39e0 6abe 3f6f 3a3e
00000020: 100a 293c e1e1 b7be bee2 13be 4d11 be3e
00000030: d29e b53c a860 09be db62 b2bc 7dd8 b33c
00000040: 1741 cb3e 16ca 653e 159e 593d 74b7 47be
00000050: bcbc 9abe f745 1d3e c7db b1be 85db bcbe
00000060: 3980 22be 0e03 25be ca5e 2abd a3ef 96be
00000070: 423a ad3d a96a a7bd 4725 a8be 9e31 efbc
00000080: c357 a9be 638a 0abe 51aa 3abe 0e8e 9a3e
00000090: 1d89 44be b515 453d 0195 113e 1d9f a83d
000000a0: 7f86 903e 4bf9 263e bebf ba3b e114 e9bd
000000b0: e07d 373d 3944 6b3e fe5e cbbe ac3d 07bd
000000c0: 05d8 9f3e ad0d f7bd 22a2 4a3e 748b babe
000000d0: 9be6 74be 42d1 cdbe dae2 b4bd 3688 8dbe
000000e0: 674b 4c3e 6297 bdbd 2a5e aabd 168d ce3e
000000f0: 3939 babe e17f 723b 870c a93d 116e b93e
00000100: b10d 64be 1f83 41be f714 703e 9cad a9be
00000110: 8065 80be 93bd 993e dab9 d2bd d78a 81be
00000120: 05d6 a73e 3b45 803d f114 98be dbf4 a13e
00000130: c79f b4be 92e1 6d3e 0e85 bf3d eb5d 7a3e
00000140: ecd9 45bd 77a7 79be 9724 cc3e 599c b2be
00000150: 1573 f6bd b1a7 bb3e 019d 56bc add8 f9bd
00000160: 1804 30be b968 09be 150b 45be 41d5 af3e
00000170: 9abd 50be 6b5e 993e 20e7 4d3d 8c67 4ebe
00000180: 7890 acbe a031 6b3c e0d7 0dbe 18b4 583e
00000190: 26bd 893e 278b 6bbe de7b ba3e 394e a4bb
000001a0: ba14 a53e 3227 6e3e 1f8f 3abe 75f6 9cbc
000001b0: 1c50 a2be 1818 183e cbe3 9a3b 81f9 dcbd
000001c0: ac1b 883d c83a ac3e eea4 5dbe 92d8 b3be
000001d0: ac50 82be 9320 cebe d59f aabe 7ea2 913e
000001e0: 3444 1a3e 4f39 eb3d f28b ddbc 028f 84bd
000001f0: c761 703e 0c55 67be 692d 05be dd66 853e

gat1.bias f4 [128]
0.00013791764 0.00039811575 -0.00027323875 0.0003735354 0.0003910508 -0.00016319788 0.0001747059 -0.00016523307
-0.00020071508 -0.00043086143 0.0006517408 0.0005115893 -0.00012311463 0.00034715614 7.631271e-05 -4.997507e-05
-1.4313136e-05 0.00018435225 -5.832338e-05 -0.00028020423 7.0729155e-05 0.00023202114 -7.014465e-05 0.00022176701
-4.618741e-05 -0.00014968251 -0.00020059405 -0.00017045792 0.00030524674 0.0004247903 3.689504e-05 0.000504255
-0.00015164904 -0.00036637497 -4.0415947e-05 -3.8309827e-05 -0.00017394178 -0.000270395 -0.00010038003 3.0276098e-05
9.295421e-05 -0.00018562161 -7.404419e-05 0.0003888954 0.0004436742 -0.0007295747 -8.726927e-05 0.0002371507
0.00025901615 -0.00021041455 -0.0002886587 -0.0005536836 0.0005823672 0.0004957303 6.7425666e-05 9.710852e-05
-0.00017724633 -3.290778e-05 0.0002574296 0.00033125372 0.0001292646 0.000100891506 -0.00014557363 5.429944e-05
-0.00037944646 -0.00029247286 -2.7314507e-05 0.0007499775 -4.0721352e-05 -3.4701625e-05 0.00019100473 -9.535092e-05
0.00011150366 0.00025114595 0.00022801911 -0.00011711247 0.0001860968 -0.0001161103 0.00012768907 -0.00054005324
-0.00012190669 6.965727e-05 -0.00028892394 6.2902574e-05 -0.00017150617 -0.00011943451 -0.0003725529 0.0004134328
-3.1377254e-05 0.00010684736 -7.660829e-05 -0.00022799273 5.2261374e-05 -0.00083960406 -9.515322e-06 -2.8218894e-05
3.507881e-05 -0.00043915457 -0.00029770815 9.384418e-05 -0.0005124921 0.00026841747 -0.0004798685 -0.00020023168
-0.00027428643 -0.00023156992 0.0002104437 -0.00050814153 -0.00024006017 2.0975931e-05 0.00035381204 0.00019088098
0.00016954112 0.00016083015 -0.00015748471 -0.0002901567 -1.8519511e-05 0.00039026447 -0.00018345204 -0.0003031454
0.00039633544 -3.2935757e-05 -0.00028314584 -0.0002684531 -0.0002597564 -0.0001395965 -0.00047964373 -6.8845395e-05
00000000: fc9d 1039 31ba d039 7c41 8fb9 13d7 c339
00000010: f305 cd39 1920 2bb9 4231 3739 6a42 2db9
00000020: 0b77 52b9 3ee5 e1b9 96d9 2a3a 2d1c 063a
00000030: 5518 01b9 8202 b639 130a a038 539c 51b8
00000040: 7322 70b7 ae4e 4139 41a0 74b8 60e8 92b9
00000050: 6d54 9438 b34a 7339 9f1a 93b8 218a 6839
00000060: 5bb9 41b8 18f4 1cb9 8e56 52b9 f3bc 32b9
00000070: 8609 a039 64b6 de39 bfbf 1a38 fb2f 043a
00000080: fb03 1fb9 0416 c0b9 4b84 29b8 ddae 20b8
00000090: 2464 36b9 cdc3 8db9 1e83 d2b8 6df9 fd37
000000a0: 69f0 c238 6ca3 42b9 2c48 9bb8 a8e4 cb39
000000b0: f19c e839 ee40 3fba 5504 b7b8 a8ab 7839
000000c0: 8fcc 8739 baa2 5cb9 1d57 97b9 1425 11ba
000000d0: 00aa 183a e6f3 013a e166 8d38 bda6 cb38
000000e0: 33db 39b9 7606 0ab8 9ef7 8639 1fac ad39
000000f0: 348b 0739 b795 d338 20a5 18b9 94bf 6338
00000100: 71f0 c6b9 0b57 99b9 7521 e5b7 239a 443a
00000110: 38cc 2ab8 968c 11b8 7148 4839 23f7 c7b8
00000120: 12d7 e938 3dac 8339 6a18 6f39 479a f5b8
00000130: fb22 4339 3e80 f3b8 46e4 0539 5c92 0dba
00000140: 28a8 ffb8 f614 9238 b77a 97b9 90ea 8338
00000150: 56d6 33b9 ea78 fab8 3453 c3b9 03c2 d839
00000160: 129b 03b8 3d13 e038 c3a8 a0b8 5511 6fb9
00000170: 3933 5b38 e018 5cba ffa3 1fb7 9db7 ecb7
00000180: 9621 1338 543e e6b9 b615 9cb9 36ce c438
00000190: c358 06ba 62ba 8c39 dc96 fbb9 48f5 51b9
000001a0: 1ace 8fb9 94d1 72b9 8daa 5c39 cd34 05ba
000001b0: a9b8 7bb9 78f5 af37 d97f b939 3927 4839
000001c0: d9c6 3139 84a4 2839 7b22 25b9 2c20 98b9
000001d0: 595a 9bb7 699c cc39 085d 40b9 7def 9eb9
000001e0: 3ecb cf39 8024 0ab8 3173 94b9 2abf 8cb9
000001f0: ea2f 88b9 a660 12b9 b178 fbb9 1761 90b8

gat1.lin.weight f4 [128, 5]
-0.18741788 0.1255385 0.03413243 -0.17485936 0.010289989 0.016217902 -0.1303186 -0.016982825
-0.024501855 -0.093479864 0.047836114 0.18819284 -0.0077115544 -0.17773159 0.063646965 0.15826379
-0.044841252 0.07610931 -0.20392045 0.18182926 0.14228213 0.0120434705 0.16874851 0.1988336
-0.071737334 0.19668111 -0.061192922 0.15513174 0.13110931 0.16504715 -0.008748562 0.20629692
-0.086791754 -0.049283694 -0.21068043 0.0579373 -0.19600023 -0.13731247 0.08694756 -0.07338226
0.027909368 0.12605582 0.08931133 -0.100667134 0.13642997 -0.04485632 -0.08401213 -0.07194987
-0.02704748 0.091560565 0.008515588 -0.21004304 0.14552537 -0.044492483 0.020704446 -0.18273656
0.15655972 0.11433916 0.06613656 0.18292783 0.02815617 0.05841992 -0.15782462 0.062468003
0.2092624 0.03831063 0.11489579 -0.055405308 0.027835483 -0.19354883 -0.12262194 -0.07105593
-0.05088452 0.0034171597 -0.16015694 -0.003783187 -0.14293471 0.1809014 0.10555781 -0.089886144
0.043691322 0.18528353 0.054895043 0.14118753 0.19703627 0.087876335 -0.10868758 0.14897162
0.18463972 0.031401917 0.2119224 0.014851509 -0.1563293 -0.20304595 -0.037151042 -0.17516734
0.1771906 0.15989946 -0.07446336 -0.14780243 -0.1288374 -0.20602933 -0.20117576 0.20738894
0.05681595 0.13175786 0.19995609 -0.13872209 -0.013351891 -0.19475093 -0.16178396 -0.07373831
0.06444732 -0.17798673 0.08125533 -0.10496104 0.19010693 -0.044677835 -0.051906325 -0.0036984717
0.16306268 0.04295652 -0.11338967 0.20637932 0.09922221 0.18243107 -0.19861124 0.046495162
0.2010413 -0.039206125 0.07663854 -0.06855162 -0.060022727 -0.05018711 0.16451949 -0.1915925
0.18904045 0.040667854 -0.16756965 -0.011882434 -0.08560568 0.049104292 0.14920214 0.048858754
0.18107434 0.1028901 0.18176544 0.057180926 -0.021863267 0.07345397 -0.17841245 0.052255403
-0.096614935 0.15194753 0.19107933 0.11544709 0.17395012 0.08798046 -0.0837449 -0.106718846
0.1085015 -0.13673109 -0.05685641 0.015312054 0.08893465 -0.06947507 -0.14176416 -0.070546694
-0.079020314 -0.0354204 0.16576837 0.042333197 0.1960261 0.08684172 0.06700093 -0.21107681
-0.17701592 0.08158083 -0.15974128 0.10354823 -0.11187459 0.15532832 -0.016863734 0.11385704
-0.0023835404 -0.16538075 0.16845338 -0.083945446 0.12871224 0.044445835 -0.05424397 -0.16431592
0.11379989 -0.2062191 0.18352252 0.012338777 0.17827532 -0.014970685 -0.031023627 -0.13002482
-0.17459123 0.097910956 -0.21827419 0.14144067 -0.16265118 0.018469833 0.015780302 0.15574571
-0.16369957 -0.008748185 -0.1156065 -0.10947672 -0.09119891 -0.047835827 0.20556673 -0.004534777
-0.03104904 0.13410112 0.059460606 0.19754632 0.024161542 0.02831151 0.14467919 -0.020845644
-0.07807542 0.17261308 0.09005808 0.1464423 0.14259642 -0.14710285 0.18965106 -0.07089871
0.102145754 -0.0056343563 -0.029579395 -0.045814455 0.15903163 0.10079071 0.18359593 0.15551248
0.13929 -0.13628587 -0.0646616 0.11376825 -0.102519535 -0.045894496 -0.18990466 0.100918956
-0.12208484 -0.14073557 -0.08762858 -0.035122234 -0.023186903 0.10225616 0.052846484 0.00017920602
00000000: 79ea 3fbe 2a8d 003e 72ce 0b3d 550e 33be
00000010: 5897 283c 68db 843c 3d72 05be 911f 8bbc
00000020: 1db8 c8bc 5f72 bfbd cdef 433d a0b5 403e
00000030: 35b1 fcbb 45ff 35be 5759 823d e70f 223e
00000040: 76ab 37bd 33df 9b3d 86d0 50be 7331 3a3e
00000050: 68b2 113e fa51 453c 69cc 2c3e 099b 4b3e
00000060: 06eb 92bd c666 493e 6ea5 7abd dbda 1e3e
00000070: 8541 063e 1f02 293e 2156 0fbc 803f 533e
00000080: e0bf b1bd b3dd 49bd 9cbc 57be aa4f 6d3d
00000090: 49b4 48be a49b 0cbe 9011 b23d 7049 96bd
000000a0: 30a2 e43c c714 013e dce8 b63d 922a cebd
000000b0: 4cb4 0b3e 43bb 37bd 8d0e acbd 745a 93bd
000000c0: ad92 ddbc 1b84 bb3d f784 0b3c 8615 57be
000000d0: 9a04 153e c03d 36bd 5f9c a93c 4b1f 3bbe
000000e0: 3151 203e a62a ea3d 9b72 873d 6f51 3b3e
000000f0: c5a7 e63c ba49 6f3d c79c 21be 73de 7f3d
00000100: e248 563e 9beb 1c3d 7c4e eb3d adf0 62bd
00000110: 3d07 e43c aa31 46be 3621 fbbd c585 91bd
00000120: 496c 50bd 6df2 5f3b 2e00 24be 58ef 77bb
00000130: 7a5d 12be 373e 393e b12e d83d 3a16 b8bd
00000140: acf5 323d f7ba 3d3e a0d9 603d 7793 103e
00000150: e0c3 493e 82f8 b33d 9897 debd 048c 183e
00000160: 3212 3d3e 4c9f 003d 3002 593e be53 733c
00000170: ca14 20be 47eb 4fbe b12b 18bd 115f 33be
00000180: 7471 353e afbc 233e 3f80 98bd 8559 17be
00000190: f4ed 03be 5af9 52be 0501 4ebe c45d 543e
000001a0: d7b7 683d 88eb 063e 4ac1 4c3e 2a0d 0ebe
000001b0: e4c1 5abc ca6c 47be b2aa 25be 1c04 97bd
000001c0: f5fc 833d 2742 36be 3269 a63d d0f5 d6bd
000001d0: 64ab 423e 1b00 37bd ba9b 54bd 0f62 72bb
000001e0: e7f9 263e 2df3 2f3d d838 e8bd 1a55 533e
000001f0: 0435 cb3d 36cf 3a3e bf60 4bbe b671 3e3d
00000200: c5dd 4d3e 9a96 20bd abf4 9c3d cb64 8cbd
00000210: 64da 75bd 0091 4dbd cc77 283e d330 44be
00000220: d293 413e 5693 263d 6197 2bbe 8aae 42bc
00000230: 0852 afbd 9521 493d 72c8 183e 1e20 483d
00000240: 8d6b 393e 0bb8 d23d b820 3a3e 8c36 6a3d
00000250: 981a b3bc 096f 963d c1b1 36be c309 563d
00000260: 0dde c5bd 2298 1b3e 4daa 433e 866f ec3d
00000270: fb1f 323e 192f b43d 7282 abbd 698f dabd
00000280: 0936 de3d 3c03 0cbe 44e2 68bd 69df 7a3c
00000290: 5f23 b63d f248 8ebd a02a 11be c97a 90bd
000002a0: 67d5 a1bd fb14 11bd 2fbf 293e 9365 2d3d
000002b0: 11bb 483e 12da b13d c937 893d 8524 58be
000002c0: a943 35be da13 a73d 3893 23be 1811 d43d
000002d0: 811e e5bd 630e 1f3e d025 8abc e12d e93d
000002e0: 2c35 1cbb 9259 29be 0b7f 2c3e 97eb abbd
000002f0: 24cd 033e d60c 363d ed2e 5ebd 6f42 28be
00000300: eb0f e93d 1a2b 53be 54ed 3b3e 9528 4a3c
00000310: ce8d 363e 9b47 75bc 4325 febc 3a25 05be
00000320: 0bc8 32be 8a85 c83d 4583 5fbe d3d5 103e
00000330: 088e 26be 0c4e 973c b145 813c ce7b 1f3e
00000340: dca0 27be 8c54 0fbc 1ac3 ecbd 5535 e0bd
00000350: 7ec6 babd 80ef 43bd 1680 523e 7798 94bb
00000360: 8e5a febc ce51 093e f78c 733d 9549 4a3e
00000370: 6dee c53c 8aed e73c c826 143e 7cc4 aabc
00000380: 01e6 9fbd 7cc1 303e 5f70 b83d f8f4 153e
00000390: cc04 123e 21a2 16be e333 423e 5833 91bd
000003a0: cb31 d13d 68a0 b8bb 7d50 f2bc f0a7 3bbd
000003b0: 30d9 223e 5c6b ce3d 9200 3c3e aa3e 1f3e
000003c0: 0aa2 0e3e 868e 0bbe 4d6d 84bd 54ff e83d
000003d0: c3f5 d1bd defb 3bbd 5e76 42be 99ae ce3d
000003e0: 9e07 fabd fc1c 10be 9d76 b3bd 55dc 0fbd
000003f0: 76f2 bdbc ad6b d13d 8e75 583d 40e9 3b39

sage1.lin_l.weight f4 [128, 128]
-0.03332299 -0.0403342 0.06857084 -0.042430647 -0.002632081 -0.014364121 0.06057429 0.054862585
-0.06965668 0.04626107 0.053148065 -0.071157694 -0.033545315 -0.0028151046 -0.0901226 0.05664901
0.05675425 -0.006190231 0.003282897 -0.03395897 -0.046460036 0.022946922 -0.023619223 0.07399934
0.005927775 -0.041999668 -0.067197636 -0.055759992 -0.040282913 0.0059798313 -0.06813881 -0.014622033
0.03569431 -0.017859975 0.0022367225 -0.08439379 -0.08620661 0.022221537 -0.081675164 -0.0695158
-0.041585624 -0.058345024 -0.016313067 0.076450825 0.02459213 -0.05470005 -0.05270631 -0.07307886
-0.06856287 0.05077083 -0.031142108 0.01558007 -0.011504544 -0.06682023 0.037300985 -0.08872446
0.033736058 -0.03309896 -0.025747037 -0.07816892 -0.020566564 0.008410917 0.0327543 0.027657684
-0.060960975 0.06392995 0.014341405 0.070123844 0.079754815 -0.017668633 -0.084192336 -0.013582718
-0.012029476 -0.001236128 0.051123094 0.038691077 0.04975841 -0.065096244 0.08553742 -0.08577938
0.04147252 -0.05858934 -0.039758563 0.086435534 0.023393344 -0.0495358 -0.04556392 -0.02568395
-0.06881643 -0.037409768 -0.01787045 0.0056841387 0.063875645 0.053443767 0.012584743 -0.08335697
-0.06934148 0.07420658 0.005080628 -0.0030710523 -0.001011659 0.07254214 -0.051572494 -0.004702501
-0.032393698 0.057585396 -0.03697912 0.079417914 0.043193202 -0.07379727 -0.046586923 -0.06303786
0.03193809 -0.010964381 -0.022114376 -0.05818684 -0.07763411 0.08836594 -0.078478314 -0.07215325
0.008272276 -0.07229656 0.070035055 -0.014782172 -0.029956434 0.028783623 -0.04575392 -0.04475837
0.058289003 -0.049079936 0.029569563 0.051868726 0.027351648 -0.045586377 0.005025134 0.012467308
-0.0531262 -0.05597435 0.028017571 -0.051634952 0.0027022718 0.03132289 0.015432396 -0.06029158
0.06018855 -0.02944169 0.05177622 -0.08075887 0.00981574 0.07860239 0.034863684 0.055746928
-0.011805221 0.01903371 0.013925421 -0.011155842 0.046121906 0.069086626 -0.08005679 0.05780716
-0.003264138 0.015311818 0.036237653 -0.05535064 0.025990147 -0.07637105 0.045100715 -0.047969703
0.02358136 -0.06802082 -0.046827212 -0.061582737 0.07307834 -0.08861884 -0.043354265 0.07598475
-0.085491486 0.03540463 0.00061387627 -0.016498236 -0.07214361 0.054721497 0.0659687 -0.033433385
0.0068472386 -0.06692891 -0.014432445 0.084712975 -0.06469653 -0.04121005 0.048178427 -0.018833058
0.052149907 0.064641975 0.009592507 -0.040097274 -0.07665616 0.070563845 -0.027941173 0.036483604
0.055639166 0.088115245 -0.034592956 0.034487832 0.08704688 -0.029855128 0.008385638 -0.022828808
-0.055975787 0.016585656 0.013172877 0.052052733 -0.029501447 -0.026066791 0.080910616 0.057531085
-0.06991853 0.007869055 -0.062079538 -0.021401627 -0.026953734 -0.05912542 -0.040143736 0.08709475
-0.07224325 -0.048562963 -0.004939306 -0.0882064 0.0043739555 0.009105268 -0.07710789 0.05504375
-0.08707041 -0.033222385 0.056517925 0.06297231 -0.046499103 -0.05465153 -0.07970625 -0.013409296
0.026830314 -0.039584845 -0.008250249 -0.06464493 0.02066966 0.011133353 -0.014477876 -0.05730321
-0.05447204 0.026989503 -0.037179418 -0.064187184 -0.020329343 -0.056168728 0.012243381 0.0725383
00000000: b07d 08bd 7935 25bd de6e 8c3d c2cb 2dbd
00000010: fe7e 2cbb 7d57 6bbc bf1c 783d 97b7 603d
00000020: 29a8 8ebd 3f7c 3d3d c9b1 593d 20bb 91bd
00000030: d066 09bd 9e7d 38bb 3392 b8bd cb08 683d
00000040: 2577 683d 6cd7 cabb df25 573b 9018 0bbd
00000050: e14c 3ebd 2ffb bb3c 1a7d c1bc f78c 973d
00000060: c83d c23b d807 2cbd ea9e 89bd 9764 64bd
00000070: b2ff 24bd 76f2 c33b 5c8c 8bbd 4091 6fbc
00000080: 3234 123d 154f 92bc fa95 123b a7d6 acbd
00000090: 178d b0bd f109 b63c 4f45 a7bd 4d5e 8ebd
000000a0: b055 2abd 31fb 6ebd fba2 85bc 4092 9c3d
000000b0: 6f75 c93c 290d 60bd 92e2 57bd 5faa 95bd
000000c0: b16a 8cbd 13f5 4f3d bc1d ffbc 8d43 7f3c
000000d0: 8e7d 3cbc 0bd9 88bd ebc8 183d 2bb5 b5bd
000000e0: d22e 0a3d c692 07bd 73eb d2bc 0717 a0bd
000000f0: 367b a8bc f1cd 093c 5f29 063d 5e92 e23c
00000100: 37b2 79bd b5ed 823d 36f8 6a3c 179d 8f3d
00000110: 7e56 a33d cfbd 90bc 086d acbd 0c8a 5ebc
00000120: 4817 45bc 9305 a2ba 7366 513d 897a 1e3d
00000130: 79cf 4b3d 2e51 85bd 3e2e af3d 19ad afbd
00000140: 17df 293d 60fb 6fbd e0d9 22bd 1d05 b13d
00000150: 66a3 bf3c 0de6 4abd 3ca1 3abd 2667 d2bc
00000160: a1ef 8cbd fc3a 19bd 0d65 92bc 0342 ba3b
00000170: 3cd1 823d dae7 5a3d 3d30 4e3c 0fb7 aabd
00000180: e802 8ebd 9ff9 973d 667b a63b b543 49bb
00000190: a599 84ba f990 943d ae3d 53bd 7017 9abb
000001a0: 41af 04bd aade 6b3d 6b77 17bd dca5 a23d
000001b0: 5beb 303d 0623 97bd eed1 3ebd fe19 81bd
000001c0: 84d1 023d f2a3 33bc 3529 b5bc 5355 6ebd
000001d0: a2fe 9ebd 34f9 b43d 3db9 a0bd 15c5 93bd
000001e0: 7188 073c 3810 94bd 8a6e 8f3d ec30 72bc
000001f0: 3267 f5bc a2cb eb3c 7668 3bbd 8d54 37bd
00000200: 73c0 6e3d 0b08 49bd de3b f23c 4d74 543d
00000210: 9010 e03c c8b8 3abd e1a9 a43b ae43 4c3c
00000220: dc9a 59bd 5c45 65bd 1b85 e53c 2c7f 53bd
00000230: 9918 313b 6e4c 003d 29d8 7c3c 4ef4 76bd
00000240: 4588 763d b32f f1bc 4d13 543d e864 a5bd
00000250: 33d2 203c 4afa a03d 39cd 0e3d e456 643d
00000260: b06a 41bc 95ec 9b3c 7327 643c fec6 36bc
00000270: 53ea 3c3d 4a7d 8d3d d0f4 a3bd 33c7 6c3d
00000280: 26eb 55bb 6bde 7a3c ef6d 143d 5ab7 62bd
00000290: 4ae9 d43c 6d68 9cbd 87bb 383d e17b 44bd
000002a0: b22d c13c 804e 8bbd e4cd 3fbd 2e3e 7cbd
000002b0: 19aa 953d cb7d b5bd 3e94 31bd e59d 9b3d
000002c0: 2916 afbd 7204 113d 8aec 203a 4f27 87bc
000002d0: 07c0 93bd a623 603d 991a 873d 72f1 08bd
000002e0: cd5e e03b 0612 89bd 1076 6cbc ff7d ad3d
000002f0: 9d7f 84bd dfcb 28bd be56 453d c947 9abc
00000300: 249b 553d 0363 843d e429 1d3c 0a3d 24bd
00000310: e8fd 9cbd c783 903d e3e4 e4bc d56f 153d
00000320: e5e5 633d c475 b43d 58b1 0dbd 1d43 0d3d
00000330: a245 b23d be92 f4bc ea63 093c 7b03 bbbc
00000340: de46 65bd a4de 873c 0dd3 573c 3f35 553d
00000350: 05ad f1bc 068a d5bc 77b4 a53d b7a5 6b3d
00000360: 7231 8fbd 35ed 003c 1d47 7ebd 7752 afbc
00000370: 14ce dcbc 7f2d 72bd c26d 24bd bb5e b23d
00000380: 45f4 93bd f5e9 46bd e7d9 a1bb 8fa5 b4bd
00000390: 6653 8f3b 432e 153c beea 9dbd 8e75 613d
000003a0: f951 b2bd 3214 08bd 577f 673d a0f7 803d
000003b0: d875 3ebd 48da 5fbd 083d a3bd aab2 5bbc
000003c0: 3fcb db3c b823 22bd 0d2c 07bc 9064 84bd
000003d0: 6b53 a93c ab68 363c 9d34 6dbc c5b6 6abd
000003e0: 131e 5fbd 1719 dd3c 7249 18bd 9274 83bd
000003f0: b989 a6bc 2e11 66bd 7698 483c f68e 943d

sage1.lin_l.bias f4 [128]
0.03460551 -0.051198892 -0.026534365 -0.08892125 -0.067196466 -0.061142944 0.042732436 -0.048925523
-0.041478533 0.058852192 0.074985676 0.07847456 0.002835924 -0.086427085 0.08159561 0.025746167
0.04290285 0.02945771 -0.08290817 0.06342301 0.077248044 -0.03484051 0.04357557 -0.08019626
-0.018709099 -0.0072827204 -0.02100264 -0.037348993 -0.08173387 0.00013734626 0.0742995 -0.04571509
-0.033001162 -0.03690062 0.015797915 -0.080056444 0.067758955 0.050275035 0.04465228 0.024883011
0.07293775 -0.065727055 -0.016113548 0.017174259 0.04491202 0.052025862 0.050803572 -0.07602026
0.038582794 -0.08381273 -0.044181637 0.028676 -0.01734133 0.007866268 0.013068323 0.022182131
0.016529555 -0.006566846 -0.03199951 0.032721397 -0.010332137 -0.025184989 -0.05526248 0.06691014
0.08223209 -0.06512995 -0.059253562 0.021476805 0.05116867 0.06149568 -0.0359425 0.023816202
0.04678903 -0.030019958 -0.013124684 0.04787375 -0.05341057 0.05580671 0.013065122 0.07740654
-0.057179146 0.08876481 0.04757354 -0.060199384 -0.026558932 0.08484704 -0.07395239 0.05563445
-0.016113754 0.079950966 0.08019892 -0.028016329 0.074898265 0.019783879 -0.054565098 -0.023565277
0.08527505 -0.04667013 -0.05322907 0.07333097 0.079034396 0.07066034 0.03952842 -0.07261633
-0.050791375 0.021013958 -0.05067029 -0.024740584 0.036470134 0.017065194 0.013683988 -0.0073494893
-0.06936952 0.064752206 -0.019320788 0.04017099 -0.043981224 -0.04916397 -0.045737777 -0.049661446
0.04155211 -0.04855788 -0.035476808 -0.015916212 -0.024475088 0.014960796 0.06385553 0.07754374
00000000: 82be 0d3d eeb5 51bd 995e d9bc 581c b6bd
00000010: 4d9e 89bd 0671 7abd 3508 2f3d 2166 48bd
00000020: 65e5 29bd ff0e 713d 1792 993d 45b7 a03d
00000030: e9da 393b af00 b1bd 991b a73d a0e9 d23c
00000040: e6ba 2f3d 4c51 f13c c2cb a9bd ece3 813d
00000050: 3934 9e3d ecb4 0ebd 4c7c 323d f03d a4bd
00000060: d343 99bc e3a3 eebb ba0d acbc 42fb 18bd
00000070: 1664 a7bd 9b04 1039 562a 983d bf3f 3bbd
00000080: 3a2c 07bd 1b25 17bd a16a 813c a2f4 a3bd
00000090: 35c5 8a3d 32ed 4d3d 4fe5 363d 75d7 cb3c
000000a0: 6360 953d e89b 86bd 8f00 84bc 08b1 8c3c
000000b0: abf5 373d 1219 553d 6817 503d 83b0 9bbd
000000c0: fe08 1e3d 02a6 abbd cef7 34bd eee9 ea3c
000000d0: 680f 8ebc 85e1 003c 851c 563c 4db7 b53c
000000e0: fd68 873c b22e d7bb eb11 03bd df06 063d
000000f0: 2048 29bc c050 cebc e95a 62bd 2f08 893d
00000100: 4c69 a83d da62 85bd ddb3 72bd 20f0 af3c
00000110: 3d96 513d e5e2 7b3d 7138 13bd 321a c33c
00000120: dba5 3f3d 6aec f5bc ea08 57bc 4417 443d
00000130: 0bc5 5abd 9495 643d 180f 563c 5287 9e3d
00000140: ae34 6abd 53ca b53d 79dc 423d a193 76bd
00000150: 1e92 d9bc 49c4 ad3d 5a74 97bd f3e0 633d
00000160: fe00 84bc 55bd a33d 553f a43d 8082 e5bc
00000170: 4364 993d cd11 a23c a77f 5fbd f80b c1bc
00000180: afa4 ae3d 2e29 3fbd ba06 5abd 8c2e 963d
00000190: c9dc a13d 5eb6 903d 8de8 213d dfb7 94bd
000001a0: 9e0a 50bd 7725 ac3c a68b 4fbd c4ac cabc
000001b0: b561 153d 4ecc 8b3c ce32 603c fcd3 f0bb
000001c0: 9b11 8ebd ce9c 843d a146 9ebc 568a 243d
000001d0: a825 34bd 2960 49bd 8957 3bbd cd69 4bbd
000001e0: 8c32 2a3d a1e4 46bd 2150 11bd b762 82bc
000001f0: fb7f c8bc 201e 753c b0c6 823d 41cf 9e3d

sage1.lin_r.weight f4 [128, 128]
0.07378489 -0.029079223 -0.018810084 0.06857584 0.080572195 -0.05769374 0.03615592 0.0074811047
0.06753295 0.07346882 -0.06209578 -0.012191591 0.0003384402 0.046273384 0.07748486 0.07955431
-0.07446139 -0.042701337 0.031471763 -0.05270705 -0.082837015 0.057559825 -0.05628121 -0.018683556
0.01825282 -0.06863696 0.063137665 -0.06777229 -0.0027421915 0.0733981 0.04294576 -0.025654243
-0.0046884506 -0.06502141 0.055606022 0.03308358 0.058917813 0.012606664 0.038614582 0.07912893
-0.0022740245 -0.011262516 0.011790135 -0.025704423 -0.046428856 0.050648544 0.03418064 0.028217332
0.00120632 0.020658864 -0.052882217 0.0009529705 -0.059860963 0.07071156 -0.02746075 -0.084207326
-0.02802027 0.03636119 -0.013629832 0.0143143665 0.043594774 0.036988553 0.026148457 0.07005367
0.042458735 -0.042949934 -0.060917635 0.04718281 0.05342263 0.092595935 0.009619214 0.059538074
-0.063806735 0.0020481888 -0.011180429 -0.0341573 -0.07646505 -0.03223544 0.013318939 -0.07735153
0.030584186 -0.007825865 -0.033771582 -0.07923054 -0.030064533 -0.06938582 0.04497109 0.07604155
0.07822567 0.002414969 -0.08068188 -0.085280634 0.058357496 -0.044147555 0.079756886 -0.022848075
-0.025076294 -0.0049353787 0.03013085 0.009104319 -0.083419085 -0.03146453 0.084310174 -0.062512755
0.0152647365 -0.050324686 -0.018434124 0.042666994 -0.076151736 0.037209854 -0.027842995 -0.06712134
0.06587576 -0.042439558 -0.021043748 0.07209826 -0.002360292 0.08953005 -0.038007442 -0.010159845
-0.0054959175 -0.008493539 -0.07294151 0.008128136 0.03770058 0.053458426 0.049802072 0.017869186
-0.018466141 0.04141633 0.0008259798 0.051018782 0.028133871 -0.04292979 -0.050014112 0.052994568
0.03994805 -0.082867794 0.073607616 0.014858321 -0.057661008 -0.085051715 0.03987879 0.08768405
0.057562858 -0.047090497 -0.017941149 -0.07611482 0.05511886 0.022301046 -0.028768135 -0.028263738
-0.043083545 -0.045773324 -0.051322844 -0.020673444 0.054505814 0.0014796834 0.03449799 0.068770476
-0.072698586 0.05054599 -0.07116919 -0.035730727 -0.019892892 0.048340656 -0.06946428 -0.05492428
0.032594405 -0.07624883 0.07336556 -0.066681005 0.036372133 -0.015438101 -0.03509484 -0.0019101311
-0.080233045 0.022705002 0.023853324 -0.017315771 -0.026071545 -0.03205094 0.05991145 0.05244918
0.036273785 0.010556458 -0.08457223 -0.029985068 0.07362434 -0.025289588 -0.036155954 0.035088554
0.05264372 -0.064877205 0.0558139 -0.04720465 -0.028538547 -0.07544447 -0.082837895 -0.048630737
0.021868441 -0.06849347 0.028949982 -0.008309782 -0.033041608 0.051858887 0.070333764 -0.086946264
-0.07008196 0.014037099 0.027032655 -0.07447757 0.07725487 0.04123299 0.054682627 -0.054745954
0.07200804 0.020707756 -0.0095175225 0.0046516745 -0.015009108 0.06703664 -0.05128047 0.0047178348
0.04078673 -0.03380087 -0.08340662 -0.0060912506 -0.0467145 -0.06630008 -0.043706622 -0.040710334
0.055333216 -0.07099687 -0.0021922437 -0.029593535 0.025398806 0.041720383 -0.052254763 -0.02816301
-0.005975077 0.04644853 0.0011993374 0.06753127 0.03680852 -0.07259171 -0.07347221 0.016898403
0.012330592 0.054701455 -0.074681655 0.028743774 -0.048847403 0.02738673 0.06728761 0.06901729
00000000: 881c 973d 8d37 eebc 9b17 9abc 7d71 8c3d
00000010: 0903 a53d 4550 6cbd 3b18 143d 0e24 f53b
00000020: b74e 8a3d d276 963d 2558 7ebd 3dbf 47bc
00000030: ad70 b139 2989 3d3d 62b0 9e3d 5fed a23d
00000040: 377f 98bd 99e7 2ebd 89e8 003d 59e3 57bd
00000050: 74a6 a9bd dac3 6b3d 2087 66bd 420e 99bc
00000060: f086 953c 8991 8cbd 524e 813d 33cc 8abd
00000070: 57b6 33bb be51 963d e5e7 2f3d d928 d2bc
00000080: 93a1 99bb f229 85bd 24c3 633d a682 073d
00000090: ce53 713d 2e8c 4e3c 532a 1e3d 590e a23d
000000a0: cd07 15bb 6a86 38bc 692b 413c 1592 d2bc
000000b0: 2f2c 3ebd d974 4f3d 0001 0c3d 0928 e73c
000000c0: 621d 9e3a c73c a93c 069b 58bd c5d0 793a
000000d0: c530 75bd 39d1 903d 5ef5 e0bc e474 acbd
000000e0: c48a e5bc 79ef 143d a94f 5fbc ce86 6a3c
000000f0: 6f90 323d 4f81 173d 4a35 d63c 4c78 8f3d
00000100: 36e9 2d3d 45ec 2fbd c584 79bd c342 413d
00000110: b0d1 5a3d f0a2 bd3d e899 1d3c 32de 733d
00000120: 1bad 82bd e83a 063b 1e2e 37bc 86e8 0bbd
00000130: b599 9cbd 4f09 04bd ae37 5a3c 7b6a 9ebd
00000140: b08b fa3c 0f38 00bc 1254 0abd 9f43 a2bd
00000150: e549 f6bc 271a 8ebd 9b33 383d acbb 9b3d
00000160: c834 a03d 7544 1e3b 8b3c a5bd 9da7 aebd
00000170: 4508 6f3d 11d4 34bd 9457 a33d e32b bbbc
00000180: cd6c cdbc f5b8 a1bb f9d4 f63c 482a 153c
00000190: a0d7 aabd f3e0 00bd d0aa ac3d b006 80bd
000001a0: f218 7a3c 4221 4ebd 2903 97bc 96c3 2e3d
000001b0: 71f5 9bbd 5c69 183d fe16 e4bc ea76 89bd
000001c0: dfe9 863d 1ad5 2dbd f063 acbc 41a8 933d
000001d0: 21af 1abb 885b b73d b1ad 1bbd 7b75 26bc
000001e0: 1917 b4bb 7c28 0bbc 5c62 95bd e02b 053c
000001f0: ec6b 1a3d 39f7 5a3d 42fd 4b3d 6662 923c
00000200: 4e46 97bc 2ba4 293d 9186 583a 12f9 503d
00000210: 0179 e63c 26d7 2fbd 99db 4cbd d510 593d
00000220: 91a0 233d 97b6 a9bd 97bf 963d 5170 733c
00000230: f32d 6cbd 982f aebd f157 233d b293 b33d
00000240: 08c7 6b3d f7e1 40bd 51f9 92bc 16e2 9bbd
00000250: 50c4 613d afb0 b63c 27ab ebbc 5b89 e7bc
00000260: 5f78 30bd cf7c 3bbd e737 52bd 5b5b a9bc
00000270: 7d41 5f3d f0f1 c13a c44d 0d3d 89d7 8c3d
00000280: ffe2 94bd 5009 4f3d 27c1 91bd 625a 12bd
00000290: 6bf6 a2bc da00 463d 4a43 8ebd 48f8 60bd
000002a0: b681 053d 5928 9cbd af40 963d 0d90 88bd
000002b0: f2fa 143d 17f0 7cbc 9bbf 0fbd 5d5d faba
000002c0: 3951 a4bd d7ff b93c 0c68 c33c ced9 8dbc
000002d0: fe93 d5bc d947 03bd b565 753d f4d4 563d
000002e0: d293 143d fef4 2c3c 3534 adbd 3fa3 f5bc
000002f0: 5cc8 963d 1c2c cfbc 4418 14bd 04b9 0f3d
00000300: f1a0 573d 57de 84bd 1e9d 643d aa59 41bd
00000310: acc9 e9bc a182 9abd eaa6 a9bd 0631 47bd
00000320: 7225 b33c 4e46 8cbd 8328 ed3c c025 08bc
00000330: a356 07bd fc69 543d 260b 903d e210 b2bd
00000340: 2187 8fbd dcfb 653c 9673 dd3c b287 98bd
00000350: cd37 9e3d ece3 283d e4fa 5f3d 4b3d 60bd
00000360: f478 933d 50a3 a93c 62ef 1bbc 136d 983b
00000370: c3e8 75bc 824a 893d 780b 52bd 1198 9a3b
00000380: fc0f 273d c872 0abd 17d1 aabd 1d99 c7bb
00000390: b457 3fbd 56c8 87bd b705 33bd e1bf 26bd
000003a0: 15a5 623d cf66 91bd bfab 0fbb 246e f2bc
000003b0: 2811 d03c fee2 2a3d 1709 56bd 1db6 e6bc
000003c0: 94ca c3bb d040 3e3d 1633 9d3a d64d 8a3d
000003d0: 88c4 163d f6aa 94bd 9978 96bd 856e 8a3c
000003e0: 4006 4a3c a20e 603d b2f2 98bd 1078 eb3c
000003f0: 3714 48bd 235a e03c 16ce 893d f058 8d3d

sagpool.gnn.lin_rel.weight f4 [1, 128]
-0.0009714836 0.07753143 -0.06886884 -0.053547125 0.030541131 -0.023967147 -0.044981338 0.061777093
-0.06696154 0.056875877 0.079993546 0.08210044 0.00094538246 -0.06610082 -0.004689287 0.04598713
0.026443701 -0.000212288 0.0452035 -0.07969101 0.059268348 -0.009390849 -0.018612089 -0.024050161
-0.03881087 -0.07054741 -0.021292942 0.0055765514 0.08403694 0.05314183 -0.07067821 0.028943682
-0.0037356503 -0.05160867 0.034116715 0.022901718 0.043679968 -0.06985377 0.037023056 0.081068166
-0.035602268 -0.011967072 -0.039912395 -0.024802305 0.030018693 0.039069448 -0.019851763 0.057230454
-0.035724327 -0.047171343 -0.038295146 -0.017997835 0.06315131 -0.08052311 -0.06573256 -0.04192646
-0.0396401 0.035632547 -0.030288568 -0.05181751 0.010975922 -0.056414053 0.08088454 -0.07998923
-0.08029699 -0.058906846 0.005363653 0.05713994 -0.0022413142 -0.04600575 0.015441076 -0.038557712
0.07954558 -0.07142346 0.017671006 0.016547553 0.022103136 -0.038330127 0.0140280835 -0.031122688
-0.028434617 -0.021165289 0.038656868 0.032178894 -0.06222962 0.028723428 -0.015582228 -0.035779793
0.065573275 0.020196848 -0.03541261 0.07634308 -0.020076253 0.0843872 -0.08746803 0.056034368
-0.011586328 -0.054265533 -0.070292816 0.07063815 0.07217833 -0.016992325 0.071048506 -0.044486288
-0.02499754 0.06890631 0.028767154 0.074160114 -0.05569869 0.05096734 -0.026853716 -0.026065161
0.08377565 0.065040186 -0.025368078 0.03289087 0.0416455 -0.054705154 -0.0539169 0.03702318
-0.01981953 0.05010049 0.03477447 0.025454253 0.08224798 -0.07127803 -0.00731565 0.052174818
00000000: 29ab 7eba ccc8 9e3d 1b0b 8dbd 3b54 5bbd
00000010: 6531 fa3c c056 c4bc 5a3e 38bd fa09 7d3d
00000020: 2223 89bd aef6 683d a8d3 a33d 4724 a83d
00000030: 8bd3 773a de5f 87bd 97a8 99bb 005d 3c3d
00000040: 76a0 d83c a099 5eb9 4e27 393d 0a35 a3bd
00000050: 5ec3 723d 13dc 19bc 6178 98bc d804 c5bc
00000060: 26f8 1ebd 297b 90bd 896e aebc 81bb b63b
00000070: 8f1b ac3d 3fab 593d bdbf 90bd 4d1b ed3c
00000080: d0d1 74bb 9d63 53bd f8bd 0b3d 629c bb3c
00000090: c4e9 323d 7e0f 8fbd 7da5 173d 1107 a63d
000000a0: afd3 11bd 8a11 44bc 2e7b 23bd 342e cbbc
000000b0: c3e9 f53c 4907 203d 2aa0 a2bc 7b6a 6a3d
000000c0: ac53 12bd bd36 41bd 5fdb 1cbd 3270 93bc
000000d0: 7955 813d 4de9 a4bd cb9e 86bd 14bb 2bbd
000000e0: a85d 22bd 6ff3 113d bb1f f8bc 993e 54bd
000000f0: 5bd4 333c 6c12 67bd cba6 a53d 65d1 a3bd
00000100: c072 a4bd 4e48 71bd 95c1 af3b 920b 6a3d
00000110: 03e3 12bb 8670 3cbd 91fc 7c3c b1ee 1dbd
00000120: cbe8 a23d 7746 92bd c9c2 903c bc8e 873c
00000130: a311 b53c 0d00 1dbd 0cd6 653c 02f5 febc
00000140: b7ef e8bc d462 adbc aa56 1e3d 04ce 033d
00000150: 7ce4 7ebd 654d eb3c 9a4c 7fbc d58d 12bd
00000160: 484b 863d dc73 a53c d00c 11bd c359 9c3d
00000170: f476 a4bc 32d3 ac3d 7022 b3bd 4b84 653d
00000180: 95d4 3dbc 8945 5ebd aef5 8fbd bcaa 903d
00000190: 3bd2 933d 7d33 8bbc e181 913d 4137 36bd
000001a0: a4c7 ccbc c01e 8d3d 18a9 eb3c 42e1 973d
000001b0: 4f24 64bd 21c3 503d 53fc dbbc 9b86 d5bc
000001c0: 9192 ab3d ca33 853d b7d0 cfbc 94b8 063d
000001d0: 7994 2a3d 8312 60bd f8d7 5cbd 9ea5 173d
000001e0: 915c a2bc 2c36 4d3d ad6f 0e3d 7085 d03c
000001f0: a171 a83d 37fa 91bd 1fb8 efbb 43b5 553d

sagpool.gnn.lin_root.weight f4 [1, 128]
0.07098242 -0.024895936 -0.009022436 0.06401888 -0.06076964 0.06995226 -0.035708614 -0.08229011
-0.030908113 -0.009537306 0.055094995 0.05047481 -0.0026797147 0.06519971 -0.042560454 0.06929137
0.06073206 0.036691662 -0.008720392 -0.014188332 0.05291567 0.08373909 -0.08481485 -0.05813882
-0.026738835 0.070223056 0.060608566 -0.029931773 0.07855414 -0.061471432 0.088399224 0.03709261
0.01149053 0.03892467 -0.0024841803 0.016470192 0.07814074 0.0848531 0.04478318 0.049888916
0.068064645 0.047570515 0.05613757 0.012912546 -0.06037065 0.072334595 0.06170868 -0.04839608
0.04915296 -0.08662842 -0.06860169 0.03862736 -0.08036663 0.03145035 0.066713676 -0.06555126
-0.024725378 -0.06874202 -0.07170292 0.06632614 -0.03600284 0.015220589 -0.013058171 -0.07130861
-0.035025265 0.051295448 0.052002054 -0.026877405 0.01931443 0.08124109 0.046320803 -0.008256654
0.017168434 0.07405688 -0.03212179 0.06654535 -0.07370537 -0.03391215 0.0819607 0.020310564
-0.07778867 0.031031014 -0.020781575 0.0059668603 -0.0676123 0.08145503 0.08273253 0.061031494
0.06938763 -0.06953747 -0.005518663 0.085446306 -0.018840084 -0.06315825 -0.0060208337 0.0879766
-0.010350549 0.08250598 0.0030816789 0.006142489 0.03421553 -0.028567398 0.049190387 -0.05929169
-0.057463516 0.037807524 0.03697109 0.00787269 -0.04507458 0.06085259 -0.07170035 -0.06518924
-0.03750853 0.021289902 0.07180891 -0.023970097 -0.05847552 -0.045794476 0.010316466 0.04093353
0.0067888713 0.031726178 -0.031109542 -0.01891647 -0.035400137 0.08913974 0.029832872 0.013852689
00000000: 3b5f 913d 90f2 cbbc d7d2 13bc 551c 833d
00000010: 96e9 78bd 2143 8f3d 3243 12bd b887 a8bd
00000020: 0333 fdbc 5c42 1cbc 4aab 613d adbe 4e3d
00000030: 279e 2fbb 6d87 853d df53 2ebd a2e8 8d3d
00000040: 2ec2 783d ff49 163d fadf 0ebc 2d76 68bc
00000050: 1abe 583d 667f ab3d 68b3 adbd f922 6ebd
00000060: 670b dbbc 1bd1 8f3d b040 783d 7a33 f5bc
00000070: fee0 a03d 78c9 7bbd a70a b53d 6cee 173d
00000080: c742 3c3c 7a6f 1f3d a1cd 22bb 7fec 863c
00000090: 4108 a03d 76c7 ad3d 916e 373d 5258 4c3d
000000a0: 7a65 8b3d 4dd9 423d 82f0 653d 258f 533c
000000b0: 3747 77bd 2924 943d 3ec2 7c3d f83a 46bd
000000c0: 9d54 493d 3e6a b1bd 0b7f 8cbd b937 1e3d
000000d0: 4297 a4bd 15d2 003d 2ea1 883d bd3f 86bd
000000e0: e08c cabc 9ec8 8cbd fbd8 92bd 00d6 873d
000000f0: b777 13bd c75f 793c f0f1 55bc 400a 92bd
00000100: a776 0fbd 2d1b 523d 1b00 553d 012e dcbc
00000110: 4c39 9e3c bb61 a63d e2ba 3d3d eb46 07bc
00000120: d1a4 8c3c 22ab 973d 2392 03bd ee48 883d
00000130: d7f2 96bd 77e7 0abd 03db a73d 5762 a63c
00000140: ab4f 9fbd c134 fe3c 1f3e aabc a785 c33b
00000150: 5178 8abd e5d1 a63d ac6f a93d 29fc 793d
00000160: 1a1b 8e3d a969 8ebd e7d5 b4bb 79fe ae3d
00000170: 8556 9abc 1d59 81bd 6a4a c5bb 132d b43d
00000180: 5995 29bc e5f8 a83d fef5 493b ef46 c93b
00000190: 9525 0c3d 2d06 eabc dc7b 493d d8db 72bd
000001a0: dd5e 6bbd 10dc 1a3d ff6e 173d 75fc 003c
000001b0: 1fa0 38bd 9140 793d a2d7 92bd f081 85bd
000001c0: 8ba2 19bd 2968 ae3c 8d10 933d f05c c4bc
000001d0: 0784 6fbd fd92 3bbd 6506 293c eba9 273d
000001e0: 2e75 de3b 4ff3 013d 70d9 febc b7f6 9abc
000001f0: bcff 10bd e58e b63d 1164 f43c 64f6 623c

lin.weight f4 [64, 128]
-0.013170582 -0.020698112 -0.054972775 -0.061464522 -0.0055010803 0.02228803 -0.0030323837 -0.054667156
-0.080540754 0.0008948315 0.07712183 0.08422348 0.019797944 -0.072242275 -0.07888825 0.02125497
0.070064366 -0.011969704 0.07035832 -0.06318059 0.031767633 -0.005795582 -0.08015157 0.055755135
-0.009297305 -0.081815034 -0.0056615607 0.047907908 -0.042057008 0.05468284 -0.0625356 0.07221511
0.07095811 0.07249652 -0.0002657162 0.008241312 0.04344114 0.07757213 -0.04007867 0.024931094
0.055295214 -0.06932177 -0.048236772 -0.019202203 0.026211552 -0.003948486 0.0772974 -0.046866298
0.05194841 -0.023071736 0.021034036 0.026286416 -0.067333125 0.053689 0.026909849 -0.066302605
-0.020389806 0.011699425 -0.04486398 -0.05824534 -0.05934758 0.009892751 -0.02364543 -0.033432648
0.019103533 -0.056052636 0.069394864 -0.016318154 0.05309334 -0.057853978 -0.051781874 0.042871416
-0.013258719 0.07286622 -0.017770851 0.05023766 -0.07174699 -0.016092673 -0.02838082 -0.055899102
0.031619783 0.0790109 -0.02481938 -0.033921774 0.029545432 -0.07684716 -0.07639088 -0.044597283
-0.044338644 -0.053235583 -0.014523892 0.078474455 -0.009285754 0.031792693 0.039111476 0.0044317264
-0.08811868 -0.014154961 -0.046903394 0.040664677 0.030890914 0.051407907 -0.01747664 -0.06540739
-0.086619526 -0.032953646 0.026625667 -0.053120352 0.0026047141 0.04688145 -0.08250926 0.075425215
-0.060576595 0.027205063 -0.05512058 -0.018953761 0.084026635 0.053685553 0.007241549 0.041567933
-0.088312104 0.034237 0.07342663 0.0390989 0.024683006 0.09142355 0.08045555 0.06986925
-0.001465006 -0.05220301 0.07659351 0.0469047 0.013157681 0.013449512 -0.079876274 0.056481026
-0.058484048 0.03503127 -0.04848731 0.07481338 0.06273825 0.065602385 0.04538717 -0.06269656
-0.0033495284 -0.04391588 0.05133229 -0.06336335 0.07340589 0.054149136 -0.030663887 0.062272392
0.00716021 -0.031285215 -0.049222767 0.05777645 0.06897001 -0.069869384 0.048734196 0.08441175
-0.03389967 -0.012598809 0.029176073 -0.057603087 -0.07234776 0.08484233 -0.015457258 0.08466973
-0.025526512 -0.031664908 -0.02134383 -0.07426464 -0.053564787 -0.026917502 0.059200235 0.08098554
-0.07035075 -0.05399811 0.0035182592 -0.05215844 0.08947315 0.0852331 0.06065596 -0.08841337
0.082823746 -0.09185437 0.018988695 -0.08757267 -0.06571834 0.08607201 -0.050907426 -0.012589739
-0.07778009 -0.064546116 0.08394731 -0.039320767 -0.07725897 0.056529112 0.048112996 -0.06500087
-0.05105493 -0.07806136 -0.020133713 -0.07909476 -0.018968493 -0.026734019 0.029454928 0.013234172
-0.073362574 0.037232365 -0.003028522 0.051039618 0.073008515 -0.079001434 0.054617144 -0.039792594
0.07898109 0.05052918 -0.085184835 0.004263382 -0.04278901 0.037146065 -0.070453964 0.040904135
0.075873114 -0.06654259 0.013453655 0.057103414 0.07663005 0.0034820538 0.048468284 -0.018370671
-0.020780552 -0.049754865 0.07866041 0.0689985 -0.036157507 -0.08626236 -0.04819863 0.008520367
0.061869357 -0.03555952 -0.080284126 -0.017517308 0.076187596 -0.06254344 -0.035574887 0.0062249764
0.029225284 -0.028455572 -0.03306425 0.05821979 -0.045454167 0.010826283 0.06143768 -0.046286643
00000000: 6dc9 57bc 168f a9bc 222b 61bd 39c2 7bbd
00000010: 6842 b4bb 6395 b63c f5ba 46bb abea 5fbd
00000020: 8df2 a4bd 2093 6a3a 0df2 9d3d 5c7d ac3d
00000030: 4c2f a23c c2f3 93bd 2a90 a1bd e71e ae3c
00000040: e87d 8f3d 941c 44bc 0618 903d d364 81bd
00000050: c71e 023d dee8 bdbb 8226 a4bd 7f5f 643d
00000060: b953 18bc a48e a7bd 9d84 b9bb 153b 443d
00000070: f843 2cbd 1dfb 5f3d aa12 80bd 84e5 933d
00000080: 7c52 913d 0e79 943d d34f 8bb9 9106 073c
00000090: 56ef 313d 23de 9e3d 8829 24bd 4b3c cc3c
000000a0: 3c7d 623d 92f8 8dbd ec93 45bd f04d 9dbc
000000b0: 9cb9 d63c 4d62 81bb 194e 9e3d e0f6 3fbd
000000c0: dbc7 543d f000 bdbc 924f ac3c 9c56 d73c
000000d0: f3e5 89bd ffe8 5b3d 0b72 dc3c a9c9 87bd
000000e0: 8608 a7bc f2ae 3f3c 4bc3 37bd aa92 6ebd
000000f0: 7316 73bd 3515 223c 10b4 c1bc acf0 08bd
00000100: 037f 9c3c 7397 65bd e51e 8e3d a6ad 85bc
00000110: 6778 593d 4bf8 6cbd 3b19 54bd f099 2f3d
00000120: 193b 59bc e23a 953d 2d94 91bc 01c6 4d3d
00000130: 16f0 92bd c8d4 83bc e57e e8bc 75f6 64bd
00000140: bf83 013d 77d0 a13d 0352 cbbc 8ff1 0abd
00000150: 4309 f23c 0b62 9dbd d272 9cbd a4ab 36bd
00000160: 709c 35bd 8e0d 5abd 9ef5 6dbc 37b7 a03d
00000170: 4623 18bc 0e39 023d 5b33 203d 0438 913b
00000180: 9177 b4bd 36ea 67bc c61d 40bd 0190 263d
00000190: f10e fd3c 1991 523d 2c2b 8fbc 4ff4 85bd
000001a0: 9465 b1bd 67fa 06bd 121e da3c ba94 59bd
000001b0: dab3 2a3b c306 403d 9dfa a8bd 8978 9a3d
000001c0: 2a1f 78bd 27dd de3c 1ec6 61bd eb44 9bbc
000001d0: 2816 ac3d 62e5 5b3d 844a ed3b 2343 2a3d
000001e0: fadc b4bd 193c 0c3d b360 963d 2b26 203d
000001f0: 0434 ca3c 453c bb3d e1c5 a43d 9c17 8f3d
00000200: 7205 c0ba d3d2 55bd 0fdd 9c3d 251f 403d
00000210: 5093 573c 585b 5c3c 2c96 a3bd a658 673d
00000220: f88c 6fbd f37c 0f3d a19a 46bd c237 993d
00000230: e97c 803d 8b5a 863d e6e7 393d 0e67 80bd
00000240: c383 5bbb 23e1 33bd cf41 523d a5c4 81bd
00000250: d455 963d 7ccb 5d3d d532 fbbc 5611 7f3d
00000260: 32a0 ea3b ed24 00bd d09d 49bd 00a7 6c3d
00000270: 2640 8d3d ae17 8fbd 829d 473d 11e0 ac3d
00000280: 61da 0abd 3c6b 4ebc a902 ef3c 37f1 6bbd
00000290: 102b 94bd d1c1 ad3d 7040 7dbc 5367 ad3d
000002a0: fa1c d1bc 10b3 01bd 41d9 aebc 0f18 98bd
000002b0: c066 5bbd 1882 dcbc f27b 723d bfdb a53d
000002c0: 0e14 90bd 1f2d 5dbd 9892 663b 17a4 55bd
000002d0: b33d b73d b18e ae3d 6272 783d 1212 b5bd
000002e0: 7f9f a93d 251e bcbd 2e8e 9b3c 4d59 b3bd
000002f0: 5697 86bd 8646 b03d 4e84 50bd 3145 4ebc
00000300: 2b4b 9fbd c130 84bd 91ec ab3d d00e 21bd
00000310: f339 9ebd 128b 673d 2212 453d 2d1f 85bd
00000320: f91e 51bd a2de 9fbd 75ef a4bc 6ffc a1bd
00000330: d063 9bbc 4d01 dbbc 764b f13c 24d4 583c
00000340: 1e3f 96bd f780 183d 2b7a 46bb eb0e 513d
00000350: 7d85 953d 81cb a1bd 3ab6 5f3d 8ffd 22bd
00000360: d6c0 a13d aff7 4e3d 6375 aebd d7b3 8b3b
00000370: 8743 2fbd 7926 183d 2b4a 90bd 188b 273d
00000380: 5d63 9b3d 7b47 88bd b86c 5c3c 45e5 693d
00000390: 37f0 9c3d 2b33 643b ae86 463d 177e 96bc
000003a0: fa3b aabc c2cb 4bbd b618 a13d 164f 8d3d
000003b0: e519 14bd 52aa b0bd ed6b 45bd 0299 0b3c
000003c0: b96a 7d3d dca6 11bd 016c a4bd 7580 8fbc
000003d0: 3e08 9c3d c616 80bd f9b6 11bd e3fa cb3b
000003e0: dd69 ef3c a91b e9bc 616e 07bd e077 6e3d
000003f0: 262e 3abd b960 313c 14a6 7b3d 1097 3dbd

lin.bias f4 [64]
0.03738488 0.084786825 -0.0075680036 0.046069346 -0.07026452 -0.07428514 -0.048516344 -0.013293978
-0.025912868 -0.06416146 -0.07147495 -0.08016743 0.049605172 -0.058895856 0.023822285 -0.05666535
-0.058744363 0.011181081 -0.012810989 0.047968112 0.030344011 0.016048465 -0.08619627 0.083086155
0.02817478 -0.02582627 0.0053827376 -0.017725302 -0.03853626 -0.08435897 -0.025403073 0.08221036
0.08651612 0.07314935 0.016807592 -0.06219424 -0.073435634 0.016215095 0.045153443 0.012826786
0.065425135 0.0444559 -0.056168202 -0.054579552 -0.0800946 0.048653398 -0.06699353 -0.01271649
0.05840196 -0.020256018 -0.02333152 0.086498156 0.0010656728 -0.027171278 0.01140353 -0.07904155
-0.02646147 -0.061139025 0.0033392482 0.029309075 0.020657763 -0.045015723 -0.019678954 -0.020865524
00000000: e320 193d b7a4 ad3d 04fd f7bb 36b3 3c3d
00000010: d8e6 8fbd cf22 98bd 13b9 46bd fcce 59bc
00000020: 3947 d4bc 1567 83bd 7561 92bd d22e a4bd
00000030: cb2e 4b3d c83c 71bd f426 c33c ed19 68bd
00000040: ee9d 70bd da30 373c 2fe5 51bc 367a 443d
00000050: 0194 f83c 1278 833c ac87 b0bd 1329 aa3d
00000060: ccce e63c 9d91 d3bc ad61 b03b a734 91bc
00000070: 33d8 1dbd 65c4 acbd 1b1a d0bc e85d a83d
00000080: 5d2f b13d 54cf 953d 13b0 893c 63bf 7ebd
00000090: 6c65 96bd 85d5 843c d1f2 383d 7127 523c
000000a0: 9dfd 853d 6417 363d a110 66bd cf8e 5fbd
000000b0: a308 a4bd c948 473d e733 89bd d358 50bc
000000c0: e536 6f3d f3ef a5bc be21 bfbc f225 b13d
000000d0: 0cae 8b3a 4d96 debc dfd5 3a3c 89e0 a1bd
000000e0: bac5 d8bc ea6c 7abd 4ad7 5a3b 9619 f03c
000000f0: 783a a93c 6862 38bd c235 a1bc 2dee aabc

fc.weight f4 [1, 64]
0.050390374 -0.10735278 0.1303339 0.10950671 -0.008091608 -0.09802605 -0.059658244 -0.03482933
-0.12858981 -0.038685538 -0.11944473 0.12936766 -0.11312437 -0.053771496 -0.11105529 0.07372576
0.07806139 -0.033941682 -0.07578047 0.04787609 -0.00918218 -0.11571121 -0.062587634 -0.11928732
0.12241938 -0.11056752 -0.0011745532 -0.00024412163 0.08609719 0.106632516 -0.109102674 0.09890518
0.121586576 -0.061524436 -0.10822386 0.03870808 0.103547044 0.008416227 -0.095700435 -0.08355591
-0.101778276 0.113826886 -0.057775483 0.08069694 -0.09698513 0.071311586 0.003756462 -0.06850693
0.059451055 0.08684173 0.025429342 0.057171285 -0.05404186 0.095712915 -0.06392715 -0.106450655
0.06424244 -0.06012574 0.10963506 -0.0128353555 0.027268995 0.00476781 -0.017517311 -0.0075643803
00000000: 2366 4e3d c6db dbbd 4076 053e 0e45 e03d
00000010: aa92 04bc e2c1 c8bd 345c 74bd 33a9 0ebd
00000020: 0cad 03be ba74 1ebd 709f f4bd f578 043e
00000030: c0ad e7bd 803f 5cbd f570 e3bd 88fd 963d
00000040: a6de 9f3d 6f06 0bbd cb32 9bbd b819 443d
00000050: db70 16bc 00fa ecbd f22d 80bd e94c f4bd
00000060: 03b7 fa3d 3971 e2bd 77f3 99ba e7fa 7fb9
00000070: b953 b03d 2662 da3d 3971 dfbd cd8e ca3d
00000080: 6202 f93d 0c01 7cbd 79a4 ddbd 5d8c 1e3d
00000090: 7910 d43d 37e4 093c 97fe c3bd 5c1f abbd
000000a0: 2171 d0bd 121e e93d fca5 6cbd 7044 a53d
000000b0: 24a0 c6bd cf0b 923d f92e 763b 5c4d 8cbd
000000c0: f382 733d 14da b13d 3251 d03c 702c 6a3d
000000d0: ff5a 5dbd 2205 c43d 3dec 82bd cd02 dabd
000000e0: 8a91 833d 6846 76bd 5988 e03d 624b 52bc
000000f0: 3a63 df3c 4a3b 9c3b 7780 8fbc 9fde f7bb

gcn_batch_norm.weight f4 [128]
1.0 1.0 1.0 1.0 1.0 1.0 1.0 1.0
1.0 1.0 1.0 1.0 1.0 1.0 1.0 1.0
1.0 1.0 1.0 1.0 1.0 1.0 1.0 1.0
1.0 1.0 1.0 1.0 1.0 1.0 1.0 1.0
1.0 1.0 1.0 1.0 1.0 1.0 1.0 1.0
1.0 1.0 1.0 1.0 1.0 1.0 1.0 1.0
1.0 1.0 1.0 1.0 1.0 1.0 1.0 1.0
1.0 1.0 1.0 1.0 1.0 1.0 1.0 1.0
1.0 1.0 1.0 1.0 1.0 1.0 1.0 1.0
1.0 1.0 1.0 1.0 1.0 1.0 1.0 1.0
1.0 1.0 1.0 1.0 1.0 1.0 1.0 1.0
1.0 1.0 1.0 1.0 1.0 1.0 1.0 1.0
1.0 1.0 1.0 1.0 1.0 1.0 1.0 1.0
1.0 1.0 1.0 1.0 1.0 1.0 1.0 1.0
1.0 1.0 1.0 1.0 1.0 1.0 1.0 1.0
1.0 1.0 1.0 1.0 1.0 1.0 1.0 1.0
00000000: 0000 803f 0000 803f 0000 803f 0000 803f
00000010: 0000 803f 0000 803f 0000 803f 0000 803f
00000020: 0000 803f 0000 803f 0000 803f 0000 803f
00000030: 0000 803f 0000 803f 0000 803f 0000 803f
00000040: 0000 803f 0000 803f 0000 803f 0000 803f
00000050: 0000 803f 0000 803f 0000 803f 0000 803f
00000060: 0000 803f 0000 803f 0000 803f 0000 803f
00000070: 0000 803f 0000 803f 0000 803f 0000 803f
00000080: 0000 803f 0000 803f 0000 803f 0000 803f
00000090: 0000 803f 0000 803f 0000 803f 0000 803f
000000a0: 0000 803f 0000 803f 0000 803f 0000 803f
000000b0: 0000 803f 0000 803f 0000 803f 0000 803f
000000c0: 0000 803f 0000 803f 0000 803f 0000 803f
000000d0: 0000 803f 0000 803f 0000 803f 0000 803f
000000e0: 0000 803f 0000 803f 0000 803f 0000 803f
000000f0: 0000 803f 0000 803f 0000 803f 0000 803f
00000100: 0000 803f 0000 803f 0000 803f 0000 803f
00000110: 0000 803f 0000 803f 0000 803f 0000 803f
00000120: 0000 803f 0000 803f 0000 803f 0000 803f
00000130: 0000 803f 0000 803f 0000 803f 0000 803f
00000140: 0000 803f 0000 803f 0000 803f 0000 803f
00000150: 0000 803f 0000 803f 0000 803f 0000 803f
00000160: 0000 803f 0000 803f 0000 803f 0000 803f
00000170: 0000 803f 0000 803f 0000 803f 0000 803f
00000180: 0000 803f 0000 803f 0000 803f 0000 803f
00000190: 0000 803f 0000 803f 0000 803f 0000 803f
000001a0: 0000 803f 0000 803f 0000 803f 0000 803f
000001b0: 0000 803f 0000 803f 0000 803f 0000 803f
000001c0: 0000 803f 0000 803f 0000 803f 0000 803f
000001d0: 0000 803f 0000 803f 0000 803f 0000 803f
000001e0: 0000 803f 0000 803f 0000 803f 0000 803f
000001f0: 0000 803f 0000 803f 0000 803f 0000 803f
