All_Benchmarking/DATA_9/Results/fold_3/best_model.pth (torch, 192098 bytes, 32 tensors)

gat1.att_src f4 [1, 4, 32]
00000000: b718 aebe ba43 c43e 4873 aebe 1759 863e
00000010: da07 33be 08e3 6d3e df42 61be dbb0 6abe
00000020: 7fa8 c8be 44b6 9a3c ce84 9bbc 1351 80be
00000030: 99c4 ccbd ae87 063e 9ca9 c3bc 53de fdbd
00000040: 3b2b a83e d789 86be 10a3 383e 7d90 88bd
00000050: 00b3 fabd 5bc0 313e d469 acbd 70b0 ce3e
00000060: 7844 dcbd ac8b 49bd f7ef 9abd e819 9e3e
00000070: 2557 29bd 5557 113d 4be0 813d c06e f63d
00000080: cdde c83e 882f 9dbe d29c d53d d9dd ba3d
00000090: c806 0ebe 02f5 cbbe 76f9 4e3e a6b2 83be
000000a0: 9b23 a83d 40f4 1f3e 3ab6 3d3e f6e6 db3d
000000b0: 009c 3cbe 94a1 90be 7c90 a8bc 80ab 2abe
000000c0: bf0e b43e ca40 bfbd e6c1 67bd 02d9 74bd
000000d0: e295 373e 41ca a83e 33d1 ea3d 1019 a33e
000000e0: 53ab 7abe 3176 efbc 020f b23d 9bea 653e
000000f0: 84c1 b63e 2295 8abd bb4a babe 7f7c 13be
00000100: e694 a73e 0aad ae3e 95d7 1d3e 6c38 27be
00000110: 177a b8be f0bd efbd f1cc 91be 5b2c adbe
00000120: ce4d 53be cc29 a7be d892 86be ae14 563e
00000130: d109 36be 0c13 c13e 65a9 863e b991 db3d
00000140: 47bf 5dbe 47ef 9a3e 1e33 1abe 781f acbc
00000150: 666e 47be a02a 62be 460b d93d c5c4 9ebe
00000160: 7068 a73e 571f 56be 67f9 08be 6035 573e
00000170: 0468 bf3e 4ce9 693d c635 83be 5e48 863e
00000180: 2785 b93e 5f8d bcbd f2d4 203e 6873 903e
00000190: 61ec 533e 7328 ee3d 3cd2 1a3e 5c10 27be
000001a0: 4daa 9a3e a89a 0e3e 4e83 09be cbc6 2dbe
000001b0: 6572 26bd cf95 963d 8816 42be 66dd 01bb
000001c0: fa14 8bbe 2f63 c7be 45a2 aabd 2cf0 73bd
000001d0: 914e 1e3e 7047 cabd 7a67 af3d 1ad4 6abd
000001e0: a451 1a3e d534 86bc 73e9 afbc b87d c03c
000001f0: b823 ca3d ec5c aabe ebc6 283d 56b5 72be
-0.3400323 0.3833292 -0.34072328 0.26239845 -0.17483464 0.23231137 -0.21998166 -0.22919028
-0.39191052 0.01888574 -0.018984225 -0.25061855 -0.099984355 0.13137695 -0.023884587 -0.123959206
0.32845482 -0.26277038 0.18030953 -0.06668184 -0.12241173 0.17358534 -0.084186226 0.40368986
-0.10755247 -0.049205467 -0.07565301 0.3087914 -0.041342873 0.035483677 0.063416086 0.12032843
0.39232484 -0.30700326 0.10430302 0.09124345 -0.13869774 -0.39835364 0.2021235 -0.25722235
0.08209916 0.15620518 0.18526545 0.10737412 -0.18418884 -0.28248274 -0.020576708 -0.16666985
0.351675 -0.093385294 -0.0565814 -0.059777267 0.1792827 0.32966807 0.11465683 0.3185506
-0.24479418 -0.029231163 0.08694269 0.22452776 0.35694516 -0.06766726 -0.3638514 -0.1440296
0.32730788 0.34116393 0.1541427 -0.16330117 -0.36030647 -0.117061496 -0.2847667 -0.33822903
-0.20635149 -0.32649076 -0.26283908 0.20906326 -0.17777182 0.37709844 0.26301113 0.10721154
-0.21654998 0.3026068 -0.15058562 -0.0210111 -0.19475707 -0.22086573 0.10597853 -0.31009498
0.32696867 -0.20910393 -0.1337639 0.21016455 0.37384045 0.057107255 -0.25626963 0.26227087
0.362344 -0.09206652 0.15706232 0.28213048 0.2069564 0.11628809 0.1511926 -0.16314834
0.30208054 0.13926184 -0.13428995 -0.16970365 -0.04063644 0.073527925 -0.18953907 -0.0019815802
-0.2716444 -0.3894286 -0.08331732 -0.059555218 0.15459658 -0.09876907 0.085646585 -0.057331182
0.15070206 -0.016382614 -0.021473622 0.023497447 0.09870094 -0.3327402 0.041205328 -0.23701987

gat1.att_dst f4 [1, 4, 32]
00000000: 2f98 f9bb 9251 bdbe ac2b 363e 1e47 35bc
00000010: 8615 cc3d 7359 bcbe 8e9f acbc 16d7 d53c
00000020: 3550 193d 9c47 9a3e 6d4d c83e a8de c53e
00000030: 2d7d 993d ffd4 163e 1920 803e 9d87 92be
00000040: 2708 7c3e 5c72 33bd 36d1 c6bd dde7 0fbe
00000050: 4e36 96be 223d 963e 55d0 01be 36fa 89be
00000060: 80c9 c1be c73e 38be d0be 753d c347 78be
00000070: 23a8 6e3e 9728 4bbe 2db0 ba3e 47be 85bd
00000080: fd5e c6be 9ae5 85be c012 fcbd c750 e0bd
00000090: 68f1 86be 2c22 c43e 46bf dcbd 4c51 933d
000000a0: 1bae cf3e ddf6 83be b672 a5bd b1c9 fbba
000000b0: 058c f53d d789 9bbe f69b 4a3e cc01 dcbd
000000c0: b4d2 a1bc 6d9b 7dbd 1261 f83d b121 243a
000000d0: f5d7 a1be b69f 9bbe 9015 b7be 793f c9bd
000000e0: 01fe 98be af37 44be 152c cdbe db44 873e
000000f0: 852b 423d 587a b5bc b4ce 593d be19 8c3e
00000100: 69ab 52be 6444 973e 3304 f1b9 5e3c 1d3e
00000110: c6b4 dd3d d604 28bd d81a 2b3d 9779 73be
00000120: 93e4 e6bc 241a 913e 6238 81be 1368 5ebe
00000130: 1edd 8f3d b75c a43e 8d04 babe e770 813e
00000140: db61 a03e 41b5 3ebe 92d7 c6be d51b aabe
00000150: 42f6 513e 19ec 813d 3d27 6cbe da13 08be
00000160: 17fe cf3e 2c43 753e b3b7 c53e c424 a93e
00000170: 675f 963e 9d10 533e e6cb ad3e cd27 753b
00000180: 8dda b5be aa33 91be e464 b93e eb0e ce3e
00000190: 795b 3cbe 61bc 0abd ba14 733e dbd5 a8be
000001a0: 406a 26be 1587 853e cc11 5e3e 939d 643e
000001b0: f75b adbc 4d7e 193d 7144 a8bd 6c9e 9dbe
000001c0: ed58 cabe 4346 233e ba7f 0abe 5ac0 8fbb
000001d0: de40 8c3d 0a79 a03e 6bfb c93d b95b 453e
000001e0: 6a6a 5f3e 491a b13d b26c b43d 3087 bcbe
000001f0: c379 a83e f80b babe 50d3 a83e 9abb be3e
-0.0076170187 -0.36976296 0.17790097 -0.011064319 0.09965043 -0.36786994 -0.021072175 0.026103538
0.037430007 0.3013276 0.3912157 0.38646436 0.074945785 0.14729689 0.2502449 -0.2861909
0.24612485 -0.043810233 -0.097078726 -0.14053293 -0.29338306 0.29343516 -0.12677129 -0.26948708
-0.37849045 -0.17992698 0.059996426 -0.24246125 0.23306327 -0.19839703 0.36462536 -0.06530433
-0.38744345 -0.26151735 -0.12308264 -0.10952907 -0.26356053 0.3830732 -0.1077867 0.071932405
0.4056252 -0.2577428 -0.0807852 -0.0019209889 0.11989597 -0.303786 0.19786057 -0.1074253
-0.019753791 -0.061915804 0.1212789 0.0006261124 -0.31610075 -0.30395287 -0.35758638 -0.098265596
-0.2988129 -0.19161867 -0.40072694 0.2641972 0.047404785 -0.022153065 0.053175643 0.2736339
-0.205732 0.29544365 -0.0004597023 0.1535506 0.108254954 -0.041020237 0.041773647 -0.23776852
-0.028185165 0.28340256 -0.2523833 -0.21719389 0.07024597 0.32101986 -0.36331597 0.2528145
0.31324658 -0.1862383 -0.38836342 -0.3322436 0.20504096 0.0634386 -0.23061843 -0.13288823
0.40623543 0.23951405 0.38616714 0.33035862 0.2936966 0.20611806 0.33944625 0.0037407756
-0.35518304 -0.2835973 0.36209786 0.40245757 -0.18394269 -0.03387106 0.23738375 -0.3297566
-0.16251469 0.26079622 0.21686476 0.22325735 -0.021162016 0.037473965 -0.08216179 -0.3078493
-0.3952097 0.15944771 -0.13525286 -0.0043869438 0.0684831 0.31342345 0.09862407 0.1927327
0.21817937 0.086475916 0.088097945 -0.3682189 0.32905397 -0.36337256 0.3297372 0.37252504

gat1.bias f4 [128]
00000000: e6a4 2f38 bc71 9fb8 b90c 7438 5bea b537
00000010: 26eb 88b7 3c46 a0b5 6583 9538 ad14 d5b7
00000020: 51b7 0bb8 5ae0 b537 afbd eb38 194b c6b7
00000030: 2d7f bdb8 c374 1db8 557a 5bb8 88c4 48b8
00000040: 1ff7 b0b8 3202 4ab8 63a9 76b8 420d d138
00000050: 863e 5137 accc 30b8 5bcb c837 45dc 6e38
00000060: 5317 6438 caac 3f38 cc2b 79b8 d01e 3537
00000070: 3268 9bb7 ec77 1bb9 f6a5 54b7 3cc7 e438
00000080: 76c9 e136 3357 6db8 07f1 0538 ab6a 0bb6
00000090: 4c4f fc36 2462 79b7 84ee 82b7 2091 7538
000000a0: 47cf dc37 2d69 01b8 247f 57b8 5413 95b7
000000b0: e519 8938 0cbf 4a38 cb69 a3b8 20ab 49b8
000000c0: 7372 6eb8 1b2e adb7 c4a0 4fb8 d5ff 4238
000000d0: ade0 7138 bf8a 30b6 41e9 50b7 2382 9bb8
000000e0: 5b13 54b7 ecb5 feb7 080d c6b6 aa4f dc38
000000f0: ba82 7838 6463 21b8 6baf a438 554b e838
00000100: 8b29 8237 f8dd 89b6 f9fc e938 0c3f d336
00000110: 7ec6 9838 d7ea b3b8 f9ef 0e38 d1b4 feb8
00000120: 6134 9837 855c afb6 9cc8 a5b7 a2bd 03b7
00000130: a0fe 73b7 6e9c 0038 4a73 91b7 524c 6fb6
00000140: 32b4 7738 1031 ea38 be33 28b8 ec66 a737
00000150: 8687 74b8 59fd 19b7 1826 ca38 945e b337
00000160: 9fcc bfb7 e027 5438 c6e9 fe37 903b cfb5
00000170: d9ac c5b8 1c29 00b9 2015 0838 f809 4cb8
00000180: a869 c9b7 4278 cf38 8712 32b8 0afd dab6
00000190: 6446 a238 f250 3d38 2d9b 39b6 d384 a138
000001a0: 81fa ab38 ea81 1637 2b30 99b8 b8ef 57b5
000001b0: be23 6b37 bb44 e438 04a5 3a36 9e0a e938
000001c0: 070c 67b7 b1fc cab8 dc01 aeb7 50ee 41b6
000001d0: 4f17 4837 b5fe 0cb9 be0d a8b6 ac25 5a38
000001e0: 3f4a 56b8 91d8 4db8 c8c0 7938 7024 f138
000001f0: f228 2d38 0bc8 ab38 e006 7d38 1b4f a437
4.1876825e-05 -7.6028955e-05 5.8185982e-05 2.1686012e-05 -1.6321963e-05 -1.194137e-06 7.129348e-05 -2.5401207e-05
-3.331091e-05 2.1681353e-05 0.000112410045 -2.363841e-05 -9.0359106e-05 -3.754046e-05 -5.23276e-05 -4.786675e-05
-8.438364e-05 -4.8162598e-05 -5.8808724e-05 9.968366e-05 1.2471928e-05 -4.2152285e-05 2.3936553e-05 5.6948764e-05
5.438116e-05 4.569887e-05 -5.9407015e-05 1.0795615e-05 -1.852596e-05 -0.00014826626 -1.26748255e-05 0.000109089975
6.7289757e-06 -5.6586414e-05 3.1934145e-05 -2.0774703e-06 7.5194166e-06 -1.4864407e-05 -1.5608275e-05 5.854771e-05
2.6322565e-05 -3.085395e-05 -5.1378403e-05 -1.7771185e-05 6.537492e-05 4.833848e-05 -7.792151e-05 -4.8081507e-05
-5.685021e-05 -2.0644677e-05 -4.950237e-05 4.6491466e-05 5.7668123e-05 -2.6306805e-06 -1.2452075e-05 -7.415216e-05
-1.2640691e-05 -3.0363874e-05 -5.902377e-06 0.00010505256 5.9249556e-05 -3.8477956e-05 7.8528035e-05 0.00011076654
1.5516553e-05 -4.1087587e-06 0.000111574256 6.2956296e-06 7.284897e-05 -8.5791275e-05 3.407893e-05 -0.000121453435
1.8144203e-05 -5.226177e-06 -1.9762949e-05 -7.852361e-06 -1.4543213e-05 3.0663265e-05 -1.7339033e-05 -3.56582e-06
5.905721e-05 0.00011167128 -4.010251e-05 1.9955878e-05 -5.830035e-05 -9.178498e-06 9.639206e-05 2.1382504e-05
-2.2864258e-05 5.0581875e-05 3.0388019e-05 -1.5440037e-06 -9.4258874e-05 -0.00012222346 3.24446e-05 -4.8646674e-05
-2.4010267e-05 9.892929e-05 -4.2455762e-05 -6.526364e-06 7.737873e-05 4.5136498e-05 -2.7657472e-06 7.701819e-05
8.2005754e-05 8.970945e-06 -7.3045805e-05 -8.044258e-07 1.4015413e-05 0.00010884689 2.7812212e-06 0.000111122834
-1.3771473e-05 -9.679178e-05 -2.0743282e-05 -2.8897957e-06 1.1926356e-05 -0.00013446326 -5.00839e-06 5.2010335e-05
-5.1090723e-05 -4.9077502e-05 5.9545768e-05 0.000114985625 4.1284547e-05 8.191176e-05 6.0326303e-05 1.958716e-05

gat1.lin.weight f4 [128, 5]
00000000: ef8c 413d 222a 393e 98d2 f53d f2a1 f03d
00000010: 4b43 56be 1480 30be 1fed 58be 9142 373e
00000020: 14e0 0bbe af44 4ebe 8fcb b33d e3ee d03d
00000030: 3905 c13d dcd5 9d3d 3c16 47be 5f64 d33d
00000040: 08ae 133c 9b3f 513d c839 8a3d dfa1 013e
00000050: 07e5 d7bc cc57 433e e038 2e3d b660 24be
00000060: b673 da3c 808a 1bbe acaa 063d 490c e1bc
00000070: 7b5d a33b 4cbb 15be 84c1 8f3d fe7c 26bd
00000080: fb88 d8bb dc9d 0dbe 9d79 02be 1fb2 183e
00000090: 1853 553e 5832 393e 25b9 6b3c a407 4abe
000000a0: f5e3 e93d 70df 733d 3357 bcbd 20c3 453e
000000b0: edfb 323e 614b 0ebd 054f 13be 6895 973d
000000c0: 8889 5cbd 9a82 6abc 74d0 04be ae4b 543e
000000d0: 874d 1d3c 903b 7e3c 40b6 d1bd e29b 40be
000000e0: 155d 20be 7dde 0e3d 2374 ddbd afc2 61bd
000000f0: 88df 5d3d ca03 bfbd c680 c13d e06b 9b3d
00000100: 2368 83bc 45e1 573e 90ef bfbd 2191 1bbe
00000110: 5410 3a3e fbb2 343e 29b0 84bd 7dff cb3d
00000120: 5439 4fbb a4ca 82bd d4b1 223e cee8 cd3c
00000130: 41d9 b73b 6441 67bc 8c6f fcbd 3a32 febb
00000140: fa2c 59be 04e3 fd3c 2c68 1a3e fd17 2fbe
00000150: 2c26 a2bd caeb 423d a556 3fbe 13da 933d
00000160: d4a6 3e3e 1129 5fbc 05ae 3fbe f141 273b
00000170: 680a e53d b5fe 4bbe 698c 2dbe 0776 623d
00000180: 8f7f 03bd 3c1a 28be dac0 2c3e 06ca ff3d
00000190: 11b4 15be 4e49 1ebe 2629 553e 3ec4 553e
000001a0: a6fa 2e3e 65ed 4a3c 7c19 503d a818 f63d
000001b0: a4ec 56be e301 0ebb 42bb acbd 2806 333e
000001c0: ee6d 07be eadb b6bd 2248 c8bd 9176 113e
000001d0: d2e6 36bd 71a3 3abe 744d 083e 59f9 2d3e
000001e0: 02f2 78bc 7f8d 3e3e 34dd 6ebc 5ff1 35bd
000001f0: 2154 fabd 9e7a ec3d 7799 d5bd 6f4e 8d3d
00000200: 8842 4abe e56d 163e c085 ce3d f904 36be
00000210: 5be0 c4bd f48e 573e ad7b 403e 15c7 95bd
00000220: aab2 333e 5bd3 87bd 2ae8 95bd 42ce ce3c
00000230: 2d1f db3d 88dd a73a f85c f8bd 7eba 4b3d
00000240: 6d9b a93d 5af3 56be 6ee2 283e 9262 ce3c
00000250: 2413 003e 0924 ce3d 29fe 243e 8310 803d
00000260: 0368 e13d 540e afbc fb10 ccbd e24a d3bd
00000270: 5bc8 09bd 5c96 323c 11f6 013e 3232 3cbe
00000280: 38c0 213e e1b4 57be 9d15 a53d 0f07 3a3e
00000290: 4450 593e 1e95 f9bc 7c29 573e f47e 433d
000002a0: c8dc ff3d 9bd5 cfbd fbba 76bc 158f 54be
000002b0: 098e c83d 396f a23d 5760 693d 7b57 313e
000002c0: 73cb 5abd 9849 a03d 235f 52be b4c4 4e3d
000002d0: 1744 a23d 5688 ad3d a090 57bc 3c0a 013e
000002e0: 3679 fd3d 993a 2f3e 46d5 033e 6bca 453e
000002f0: a824 e53d 8ca3 a4bd 3a1d aa3d fb45 023e
00000300: 2b05 393d d6b5 46be 46ca 31bd 8a04 fdbc
00000310: 4e7c 883d 0666 bcbd db18 babd 3802 d23d
00000320: ea01 acbd e90a 0abc 2988 293e 7c15 59be
00000330: 10d0 2b3c 3dc0 383e ae38 8bbd 507d 0d3d
00000340: 8e7b ecbd a568 9b3d cd4d 20be 6d5c c13d
00000350: 24dd 193e 9164 033e 6f19 8fbd 9915 383d
00000360: 2a03 42be 6870 dd3d 2a42 7c3d 674a 86bd
00000370: fb06 48be 3213 663b c20d 48be 4101 5fbd
00000380: 2600 4bbe 96f6 01be acee 3d3e 703a 893d
00000390: 0902 9cbd ab03 abbd 5e91 223e a96c 963d
000003a0: ed2b 2b3e 45d9 cc3d 56ed 3a3d 9e54 02be
000003b0: 8cc3 19be acdc 013e 618a 4fbe 6357 ec3d
000003c0: aab1 f33c bdbd babd 045a 44be 0bf4 103d
000003d0: 3d4c a6bd 9ea6 c9bd a269 58bd 00ae 08be
000003e0: ba02 473b 2317 6a3b dca3 db3d 259c 0cbe
000003f0: c70e 1fbe ec3c 1bbe 9568 3abe 9b16 e8bd
0.047253545 0.18082479 0.12003058 0.117496386 -0.20924108 -0.17236358 -0.21184205 0.17896487
-0.13659698 -0.20143388 0.0877906 0.10201814 0.09424824 0.07706806 -0.19442075 0.10321879
0.00901366 0.05108605 0.06749302 0.12659405 -0.026354326 0.1907646 0.04253471 -0.16052517
0.026666503 -0.15189552 0.03287761 -0.027471678 0.004985509 -0.1462223 0.07019332 -0.040646546
-0.006608126 -0.1382975 -0.12741704 0.14911698 0.20832479 0.18085611 0.014387404 -0.19729477
0.114204325 0.05953926 -0.091963194 0.19312716 0.17478915 -0.034739856 -0.14385612 0.07401544
-0.053842098 -0.014313364 -0.12970144 0.20731995 0.0096010035 0.0155171305 -0.102398396 -0.18809465
-0.15660508 0.03488015 -0.10813167 -0.055117305 0.054168254 -0.093268946 0.0944839 0.07588935
-0.016040867 0.21082027 -0.09371865 -0.15192081 0.18170291 0.176464 -0.064789124 0.0996084
-0.0031619864 -0.06386307 0.15888149 0.025135424 0.0056106155 -0.014114711 -0.123259634 -0.0077574523
-0.21208563 0.030992039 0.15078801 -0.17098995 -0.07917437 0.047588147 -0.18685396 0.07219329
0.18618327 -0.013620631 -0.18718727 0.0025521482 0.111836255 -0.19921382 -0.16948093 0.05528834
-0.03210407 -0.16416258 0.16870442 0.12489705 -0.14619471 -0.15457651 0.20816478 0.20875642
0.17087802 0.012385701 0.050805554 0.120164216 -0.20988709 -0.0021668605 -0.08434154 0.17482817
-0.13225529 -0.08928664 -0.09779383 0.14205386 -0.04465372 -0.1822641 0.13310796 0.1698965
-0.015194418 0.18608664 -0.014579106 -0.044419643 -0.122230776 0.11546825 -0.10429662 0.06899726
-0.19751942 0.14690359 0.100841045 -0.17775334 -0.09613105 0.21050626 0.18797179 -0.073133625
0.17548624 -0.0663211 -0.073196724 0.025244836 0.10699306 0.001280711 -0.121271074 0.0497384
0.08281598 -0.20991269 0.16492626 0.025193486 0.12507302 0.10065467 0.1611258 0.06253149
0.11006167 -0.021369137 -0.09964176 -0.10317017 -0.03363834 0.010900106 0.12691523 -0.18378523
0.15795982 -0.21065094 0.08060763 0.18166755 0.21222025 -0.030466612 0.21011919 0.047728494
0.124932826 -0.10148164 -0.015059228 -0.20757706 0.09792716 0.0793137 0.056976642 0.17318527
-0.05341668 0.07826537 -0.20544104 0.05048056 0.07923143 0.0847327 -0.01315704 0.1260156
0.12376635 0.17112197 0.12874326 0.19315498 0.11188632 -0.080390066 0.08306356 0.12722008
0.045170944 -0.19405302 -0.043405794 -0.030885953 0.06664334 -0.09199147 -0.09086772 0.102543294
-0.083988026 -0.008425453 0.16555847 -0.21199602 0.010486618 0.18042083 -0.0679792 0.034543335
-0.11547004 0.07588319 -0.15654679 0.09441457 0.15025765 0.12831332 -0.06987273 0.044942472
-0.1894652 0.108124554 0.061586536 -0.0655716 -0.19533913 0.0035106656 -0.19536498 -0.054444555
-0.19824275 -0.12691721 0.18548077 0.06700599 -0.07617576 -0.08350309 0.15875766 0.07344944
0.16715975 0.100023784 0.045636497 -0.12727591 -0.15016001 0.12681836 -0.20267631 0.11540105
0.029747803 -0.09118221 -0.19174963 0.035388988 -0.0812001 -0.09846233 -0.052835114 -0.13347626
0.0030366615 0.0035719357 0.10724613 -0.1373144 -0.15532981 -0.15159959 -0.18203957 -0.11332437

sage1.lin_l.weight f4 [128, 128]
00000000: e1e4 c1bc a3a1 ac3d d5ed 8dbd 5c28 b33d
00000010: 6db6 22bb 4d24 5b3c 7eb2 99ba 21b8 c8bc
00000020: dbdc 3e3c e6f3 d63c 2f48 0fbd 802e 993d
00000030: 1f23 11bd 4a0f 783a 7c9b 6f3d 3534 1abd
00000040: bac1 9abd ac95 ecbc 7a8e 543d 0e51 9b3d
00000050: 097a 92bd 72b6 0a3d 5e50 07bc 61c4 953d
00000060: 8104 943d 0a70 61bb a847 b03d 73a0 183d
00000070: bb97 203c 16ca 35bd 45f2 b2bd 9e21 25bd
00000080: e08d 22bd f763 db3c 1b06 84bd 3a6e 4b3d
00000090: 6d5d 4cbd 139d 1dbd 874d 46bd d418 3cbc
000000a0: d029 75bd 2f87 853d 51bf 14bd 09ce 783d
000000b0: cbc0 8b3d 10a8 b23d e098 313d d3d3 bebb
000000c0: d654 aabb e956 87bc 3df1 3fbd dd8d 54bc
000000d0: ffd1 8c3d 162c 80bd 3037 2dbd 3b95 743d
000000e0: 4e03 29bd 4be7 553d 7e40 a0bd 4ce9 abbc
000000f0: 30e7 0fbd ad2b 69bd f95b a93d 3d49 a4bd
00000100: 1565 22bd f905 debc 8922 e23a 2a48 2e3d
00000110: 17d1 b23d bb97 933d 068a cdbc 428e 1dbd
00000120: e3bb 5a3d c720 1d3c 7259 393d 5943 83bd
00000130: 7a99 33bd fad8 a73d fac8 14bd 3623 033b
00000140: 43f1 9e3c 5f70 e9bc bf1e 33bd 1198 463c
00000150: 66eb 493d 2b84 a13d 5f7f 65bd 8b67 263d
00000160: 97fa 833d daf1 a83d d558 983d f93d 82bd
00000170: 3dec 27bd e8e3 9c3d 765b 7a3d 9c5f 95bd
00000180: df08 47bd 55e4 423a a2b7 513c 3541 3e3d
00000190: 0c2d 503d 1d77 20bd 170f 9d3d 289c 643d
000001a0: 9515 9f3c d6a7 dabc 6cfa 963c 37ca 3a3c
000001b0: 8b31 80bd d2f1 ad3d 2f38 c0bc 43d4 7b3d
000001c0: 691a 433d 5d3e 86bd 2461 ab3d 9b53 84bd
000001d0: 3942 b0bd 3aef 0dbd 0173 643d f406 af3d
000001e0: 3d64 75bd 92b1 89bd df89 0ebc adca 713c
000001f0: cd7b f7bc 3098 2bbd bfa2 40bd f077 863c
00000200: 3417 2d3a 0362 8d3d cead 7ebd f480 373d
00000210: a444 8d3d e5c9 6ebd 76aa 54bd 4bf3 a83d
00000220: e88e 13bb 9d4e 813d 65cb 92bd d8c3 963d
00000230: 51ae af3d 9391 cd3c a354 a63d f2b8 b33d
00000240: 1e00 913d e7bb 0d3d 29c9 8cbd 0552 46bd
00000250: 14b6 533d 082c 78bd ead5 90bd a252 41bd
00000260: 21fe a43d ace0 cbba 3b22 913d 3507 893d
00000270: bf5e b43d b462 fb3c a88b 04bd 0b5f 3cbd
00000280: 2d41 443d f09d 893d 80c2 a1bd 26ae 54bd
00000290: cd5c dbbc 6509 90bd 037e 70bd bc85 efbb
000002a0: 0918 803c ca3e 63bd 5f6c a1bd 1bb7 6abd
000002b0: 7995 73bd 5a7f 0a3d d706 26bd 01d2 34bc
000002c0: 39db 033d 5365 33bd 53ae 523d 8089 25bb
000002d0: a0fb 6bbc 9e87 a83d eae6 b03c d5e3 1cbd
000002e0: 61e1 3abc f4b5 82bd 540c 8bbd 2dc0 883d
000002f0: e106 953d 1605 833d 2a55 953d 837c 803c
00000300: 2534 81bc 8f0f 91bd 69f4 babc fe23 64bd
00000310: e73f a03c 3352 a83d 14ae 9cbc 754c 90bd
00000320: 425b 4dbd 0431 1ebd cfac 60bd a9e5 9bbc
00000330: f4db 8b3d 14c6 2abd d5be 12bd 6a1d fe3c
00000340: 4be2 523d 1137 843d e750 0e3d aad4 17bd
00000350: 1488 b8bc 8bf4 5ebd 4a07 903d 5398 843c
00000360: 7e4e 803c e780 94bd 01a4 91bd ec4a efbc
00000370: a534 7bbc c20a 653c a9eb 633d 0a73 fe3c
00000380: 6045 13bd 2237 32bd f83e 79bc 31d6 85bd
00000390: 6835 4f3b 8da9 af3d 42d8 883d 042a 413d
000003a0: 7a04 99bd 876b 87bc 401e 90bb 1eea 893d
000003b0: 01a5 9abd 14f7 963d e242 28bd d1d3 87bc
000003c0: de92 a93d 0f18 91bd f438 ea3c 85ce ae3d
000003d0: b99c f03c a5ae a53d 02fb 5b3c 9559 2fbd
000003e0: 85d7 33bc 8f4c 0ebd 3eeb 063d a536 97bd
000003f0: bf90 05bb da4b 07bd 068e 9e3d 3a33 223d
-0.023668708 0.08429267 -0.069301285 0.08747932 -0.0024827973 0.013375354 -0.0011726168 -0.024501862
0.011649336 0.026239347 -0.03498095 0.07479572 -0.035433885 0.00094627275 0.05849789 -0.037647445
-0.07556482 -0.028879963 0.05189369 0.07583819 -0.071521826 0.0338654 -0.008258907 0.07312847
0.072274216 -0.0034399056 0.08607417 0.03726239 0.0098018 -0.044382177 -0.087376155 -0.040315263
-0.039686084 0.026781065 -0.06446477 0.049665667 -0.049893785 -0.038479876 -0.04841378 -0.011480529
-0.05985433 0.06519925 -0.036315266 0.060743365 0.06823882 0.08723462 0.043358684 -0.0058235913
-0.0051981015 -0.016520934 -0.046860922 -0.012973276 0.06875991 -0.06258409 -0.04228896 0.05971263
-0.041262917 0.05222253 -0.07824801 -0.020985268 -0.035132587 -0.056926418 0.082694955 -0.080217816
-0.03964718 -0.027102457 0.0017252724 0.04254929 0.08731287 0.07206675 -0.025090229 -0.038465746
0.05340184 0.009590334 0.045251317 -0.0640933 -0.04384754 0.08195682 -0.03632448 0.002001
0.019402152 -0.028495966 -0.043730494 0.012121216 0.04929676 0.07886537 -0.056029674 0.04062609
0.064442806 0.082492545 0.07438818 -0.063594766 -0.04099678 0.07660657 0.06112238 -0.07293627
-0.048592445 0.0007434537 0.012800129 0.046448905 0.05082421 -0.039176095 0.07668894 0.055812985
0.01941947 -0.026691359 0.018429957 0.011400751 -0.062594496 0.08493389 -0.02346429 0.061481725
0.04763261 -0.065548636 0.083681375 -0.06461259 -0.08606381 -0.034651972 0.05577374 0.08546248
-0.059910048 -0.06723322 -0.008699863 0.014757794 -0.0302104 -0.041893184 -0.047030207 0.016414613
0.0006602884 0.0690346 -0.06217747 0.044800714 0.06897858 -0.05829801 -0.051920377 0.082495295
-0.0022515599 0.063138224 -0.07167701 0.07361573 0.0857817 0.02509383 0.08121612 0.0877551
0.070801005 0.034603026 -0.06874306 -0.048418064 0.051687315 -0.060588866 -0.07072051 -0.047197945
0.08056284 -0.0015554628 0.07086607 0.06690828 0.08807134 0.030686714 -0.03235975 -0.045989078
0.04791372 0.06719577 -0.07898426 -0.051923893 -0.02677765 -0.07033042 -0.058713924 -0.0073096436
0.01563646 -0.055479802 -0.07881998 -0.05730353 -0.05946872 0.03381286 -0.040533867 -0.011036397
0.03219149 -0.043797802 0.05143578 -0.0025258958 -0.014403254 0.08228992 0.021594483 -0.038303215
-0.011406274 -0.06382361 -0.06789461 0.066772796 0.07276703 0.063974544 0.072916344 0.015684372
-0.015771935 -0.07083046 -0.022821622 -0.055698387 0.019561721 0.08218803 -0.019125976 -0.07045833
-0.05013586 -0.038620964 -0.054852303 -0.019030409 0.06829062 -0.04169281 -0.035826523 0.031019885
0.05148534 0.064558156 0.034745123 -0.037068047 -0.022525825 -0.054432433 0.0703264 0.016185915
0.015662428 -0.07251149 -0.071113594 -0.02921053 -0.015332376 0.013979616 0.055644665 0.031060714
-0.035954833 -0.04350961 -0.015212767 -0.065349944 0.0031617526 0.08577261 0.06681873 0.04715921
-0.07471557 -0.016530765 -0.0043981373 0.067341074 -0.07551003 0.07371345 -0.04107941 -0.016580494
0.08279966 -0.07084667 0.02859161 0.08535484 0.029371606 0.080899514 0.013426544 -0.04281004
-0.010976677 -0.03474098 0.03293919 -0.073834695 -0.0020380465 -0.033031322 0.077419326 0.039599635

sage1.lin_l.bias f4 [128]
00000000: f81e 4e3c ac97 68bd e3ba 8ebd 4f7e baba
00000010: d09c 3039 c2c6 ac3d fa0b ec3c 7927 0cbb
00000020: 39bc 473d 6545 8abd 04d4 b63b 2f1f 0dbd
00000030: 4b2c 223d b95d 2fbd 54be f1bc 9c83 30bd
00000040: e3b2 ae3d a478 a23d 9be8 c43c a96f 813d
00000050: 0ae9 abbd 9aa6 323d d58b b13c 05ca a53d
00000060: 9aee 2dbd 9224 733b bc39 8dbd f511 3d3d
00000070: 6d53 bbbc 01a2 26bc 935d 8fbd c82c 58bd
00000080: f675 483d a8fa aa3d 1111 53bd c01d 323d
00000090: f9dc 91bd 2192 5fbc 88c0 b23d 8b48 4f3d
000000a0: 5591 73bd 03d5 b03d 9776 9bbc 7a00 3e3d
000000b0: 0f1f ae3d d4c3 a7bd fed1 39bd f302 233b
000000c0: a8db babc c03f 81bd 77d0 40bb 402b 973c
000000d0: 8a68 2d3d fd0c 68bd a2be 72bd c07b 0fbd
000000e0: e5f0 653c a017 63bc 95e9 a93b 31bd aa3d
000000f0: 55fd 9c3d cab2 86bb 2b6c ec3a d1f6 1f3d
00000100: 1262 803c a849 2c3c 98a3 233d 4ea7 24bd
00000110: d543 6abd cba3 7e3d 3020 673d 3f3e 4c3d
00000120: 5f38 303c 8735 f8bc 56f0 273b 11fe a3bc
00000130: 04b4 4b3d a009 013d 445d 17bd c65b 45ba
00000140: 95ef 26bd f3fd 433d e77b 2c3d fa75 8cbd
00000150: 1edd a83d cc60 0a3d 72e7 153c d134 0f3d
00000160: 1a56 d7bc 76ea 9b3b bc93 133d 45ff 3b3d
00000170: 4f6b b3bc 3c25 07bc b8f5 543c 85fe 74bd
00000180: a6da 4b3d b174 563d b3f3 923d 9edd 7c3d
00000190: 2fde cd3a 6d54 273c 1d45 2f3d 2c0f 2bbd
000001a0: ae1e a9bd 8f28 f8bc b233 8f3c 6fe6 b73b
000001b0: fad0 913d 9b21 5ebd 932c adbd 6d99 0f3d
000001c0: ef7d a5bc 50a3 ea3b 84f9 22bd 8989 00bd
000001d0: ce4f ab3d d0ab 4abc c540 903d b7d0 a33d
000001e0: b4cb 363d feba 97bb 3549 c33c 7672 823d
000001f0: 76e8 2d3d 9179 173d 729c 0f3d 09ef eb3c
0.012580626 -0.05678527 -0.069692396 -0.0014228317 0.00016843085 0.084363475 0.028814305 -0.0021385832
0.048763487 -0.06751517 0.0055794735 -0.034453567 0.039593022 -0.04281399 -0.0295097 -0.043094262
0.08530214 0.079331666 0.024036696 0.063201256 -0.08394058 0.043615915 0.021673122 0.08095173
-0.042463876 0.0037100655 -0.068957776 0.046159703 -0.022866929 -0.010170461 -0.0700027 -0.05277708
0.04894062 0.0834859 -0.051529948 0.043485403 -0.07122225 -0.01364568 0.08728129 0.05060629
-0.05946477 0.08634379 -0.018977446 0.046387173 0.08502018 -0.08191648 -0.04536628 0.0024873584
-0.022809818 -0.063109875 -0.002942113 0.01845324 0.042336024 -0.05665301 -0.059263833 -0.035030127
0.0140344845 -0.013860613 0.005185316 0.08336867 0.07665507 -0.004110669 0.0018037608 0.03905374
0.015671764 0.010515608 0.039950937 -0.040198617 -0.057193596 0.062167924 0.05642718 0.04986405
0.010755627 -0.030298961 0.002562543 -0.02001861 0.049732223 0.03150332 -0.03695418 -0.0007528629
-0.040755827 0.047849607 0.04211035 -0.0685844 0.082453 0.03378372 0.009149419 0.03496248
-0.026286174 0.0047581745 0.036029562 0.04589774 -0.021901755 -0.008248623 0.012998037 -0.05981304
0.049769066 0.05235738 0.07175388 0.061734788 0.0015706475 0.010213 0.04279052 -0.041762516
-0.08257805 -0.030292777 0.017480705 0.0056121866 0.07119937 -0.054231267 -0.084557675 0.035058428
-0.020201651 0.0071605816 -0.039788738 -0.031381164 0.08364831 -0.012370065 0.07043604 0.079987936
0.04462786 -0.0046304455 0.023838619 0.06369488 0.04245802 0.03698117 0.035061307 0.028800504

sage1.lin_r.weight f4 [128, 128]
00000000: 5c75 d5ba ab70 ab3d f86d b43d cb0c 8e3c
00000010: d7ae 2abd 1a41 a4bd 2ef9 8a3d da2b 1c3d
00000020: 4011 97bd 7d2c 8cbd d683 a03d 5794 803d
00000030: e755 a0bc 5347 993d a346 98bc 305a 0abd
00000040: b744 49bd da1d 6fbc 858e 133d 09c6 923d
00000050: fe79 a2bc 2b52 03bd f019 863d 8b02 6a3c
00000060: e20f 9f3c 9316 4f3d b472 07bc 31a3 aebc
00000070: 4d4f bd3c c526 81bd 33de 6fbc c6eb 69bd
00000080: d07a 733d efbd 9d3d 55f1 0bbd 912d b23d
00000090: 90b0 673d c08f 7ebd ef8c 0f3d 0cce 73ba
000000a0: 35a0 543d 337f 263c 7af1 f13a fd4c a13c
000000b0: 614d 593d d5f9 5c3c 13d8 f0bc 7ce2 1c3c
000000c0: d8d6 04bd cc74 99bb f2b7 97bd 1960 19bd
000000d0: 229e 54bd a08a 96bd a3b7 1abd 3bee bd3c
000000e0: d164 f03c 08df 293b a18a 82bd 99d2 963d
000000f0: 21e1 6f38 21e9 6d3c 7905 bd3c 9d4a 7f3d
00000100: c9bc 243d 585c c33c 3815 833d 0726 ce3c
00000110: 47db 1e3d 08bb 66bd df78 e4bc 49a6 d83c
00000120: 6fab 973d f5cc c03c 8340 9f3d 3cb9 18bd
00000130: c66e 973c 2afc 87bc 3334 553d b9ff 09bd
00000140: 772b 03bd e427 2a3d 2bb5 c43c d163 f03b
00000150: 4250 1cbb a0bd 8ebd a029 873d 221c 9a3d
00000160: e93b aabd f7e0 3ebd d728 023c 7837 9bbd
00000170: 2019 44bc c9db 30bc a99a af3c 5985 953d
00000180: acbd 2f3d 9e2d a0bd b0a0 2abd b48c 8cbd
00000190: b62c 49bd eac2 8f3d a5e5 04bc 6662 3fbd
000001a0: b77a b03c fbfb 89bd 4edd b53c f14e c3bb
000001b0: 7bfa 8ebd 3971 9c3d 5d65 9a3d 673b 93bc
000001c0: 3db0 0ebd 4c49 f73c 8304 e3ba 5b45 323d
000001d0: ea2f a63d b145 643d ff43 763d df92 55bd
000001e0: 1de6 763d f21a 213c 40dd 2cbd cb15 55bd
000001f0: db8f e63b 31ae a3bd 95a7 0fbd f676 8cbc
00000200: 5c3c 8fbd bf31 9bbd 6da9 3c3d b7ef 8cbd
00000210: 08e9 80bc e9a7 8e3d f9f2 2fbb b91f 213d
00000220: 5ec2 993d 408c 89bd 6b79 1ebd 5b3a a33d
00000230: 3b9e a43c 4308 c33b 2e62 a73d e9cb 693d
00000240: 6bc7 d1bc cb51 123d 7f87 e93b f6c6 00bd
00000250: 6be1 7b3b 0361 333d fb4f c73c 0e7f 21bd
00000260: b405 abbd a283 033c b648 f33b e4f5 2a3c
00000270: ca30 b4bd 66e6 783d 0dd0 953d 324e b23a
00000280: f76e 7c3c 8e83 25bd 598a acbd 3ae7 673d
00000290: 1b8c 793c 72fe 213d eb9a 1bbd b3c6 45bd
000002a0: e79b abbd e1e5 82bd 8c26 793d bcab 26bc
000002b0: 9ec2 433d b6ff 9dbd 19a0 56bd e010 933d
000002c0: 81dc 2ebd c4cd 9abd edac 74bd 80ba 8e3d
000002d0: c4be 323d 54a5 02bd 0098 3cbd eebe abbd
000002e0: 0d80 dbbb e4a3 2d3d 8f2e f93c e5fe 403d
000002f0: 17cc 17bd 016f ae3d a09d b5bc b88b 3e3d
00000300: 9b53 78bd 21d2 a83d 0b04 44bd acad 60bd
00000310: cf00 8f3d 09fc 12bd 882c 9cbd 0256 1dbd
00000320: 79f3 473d 09a2 34bd 0e7f 003b cf0f 9fbd
00000330: a525 bcbc adff c5bc 0406 303d 3322 933d
00000340: e8a8 4ebc 7d79 7abd bf9d 3f3d da7f 1abd
00000350: 79ac 163d ee57 943d 6772 783c 8712 acbd
00000360: 383d b4bc 45fc 1fbd bd52 7b3d 1166 45bd
00000370: 4350 c43b 9ec7 503d d7dd 983c af78 153d
00000380: 4df7 eb3c 3385 09bd 2299 9fbd 7b62 c0bc
00000390: 359b 663d 90a4 abbc b060 0cbd ef6a 69bd
000003a0: 97bb 2f3d 2f70 a4bd 6e37 23bd 1a0b 8dbc
000003b0: c037 9cbd 890e 75bc 00a9 a63d 49fe 0bbc
000003c0: fda5 933d 0590 98bd fa75 763d 9356 863d
000003d0: d11a 2cbd 0aee fc3c 5e13 4fbd ace2 bebc
000003e0: 3b41 4e3d ab72 283d 0912 8cbc 2376 b2bd
000003f0: d81a 203d 80c7 96bc 8051 edba 5259 9abd
-0.0016285586 0.08371099 0.088100374 0.017340085 -0.041670647 -0.0802023 0.067858085 0.038127758
-0.07376337 -0.06844423 0.07837646 0.062782936 -0.019572211 0.07484307 -0.01858837 -0.033777416
-0.049137797 -0.0145945195 0.03602459 0.071666785 -0.019833561 -0.032060783 0.06547916 0.014282833
0.019416753 0.050558638 -0.008267093 -0.02131805 0.023109103 -0.06306223 -0.014640379 -0.057109617
0.059443295 0.077022426 -0.0341657 0.08700097 0.056564867 -0.06214881 0.035046514 -0.0009300418
0.051910598 0.010162163 0.0018458806 0.019690031 0.05305231 0.013487299 -0.029399907 0.009575482
-0.032431453 -0.0046831127 -0.07408132 -0.03744516 -0.05190862 -0.07350659 -0.037772786 0.023184886
0.029344948 0.002592029 -0.063740976 0.07364387 5.7191708e-05 0.014520914 0.023073899 0.062327016
0.040219102 0.023847744 0.064005315 0.025164617 0.038783338 -0.05633071 -0.027889667 0.026446478
0.07405745 0.023535231 0.077759765 -0.03728603 0.018485438 -0.016599733 0.052051734 -0.03369114
-0.032023873 0.04154195 0.024012169 0.007336118 -0.0023851548 -0.06969762 0.06599736 0.07524897
-0.08312208 -0.046601262 0.007944307 -0.07578939 -0.011968881 -0.010794588 0.021436052 0.07300825
0.042905495 -0.07821201 -0.04165715 -0.068627745 -0.049114905 0.07019599 -0.008111392 -0.0467247
0.02154289 -0.067375146 0.022200253 -0.0059603383 -0.06981369 0.07638783 0.07538865 -0.017972661
-0.034836043 0.030186318 -0.001732007 0.043523174 0.08114608 0.055730525 0.06012344 -0.05214202
0.060278047 0.009833084 -0.042203188 -0.052022737 0.007036192 -0.07992209 -0.035071928 -0.017146569
-0.069939345 -0.07577848 0.046060015 -0.068816595 -0.015736118 0.0696562 -0.0026847704 0.039336894
0.07507776 -0.06716204 -0.038690012 0.07970115 0.020094981 0.0059519126 0.08173023 0.05707923
-0.025607785 0.035722535 0.007126748 -0.031439744 0.003843392 0.04379369 0.02433013 -0.03942781
-0.08350697 0.008026989 0.0074244393 0.010434601 -0.08798368 0.0607666 0.07315073 0.0013603626
0.015407315 -0.040408663 -0.08424825 0.056617 0.015231158 0.0395493 -0.03798954 -0.048285197
-0.083793454 -0.06391502 0.060827777 -0.010172781 0.047793023 -0.077147886 -0.052398775 0.07180953
-0.042690758 -0.07558778 -0.059735227 0.06969166 0.04363896 -0.03189595 -0.046043396 -0.08386026
-0.0066986145 0.042392626 0.030417709 0.047118086 -0.03705987 0.08517266 -0.022169888 0.046519965
-0.060626607 0.08243204 -0.04785542 -0.054853126 0.06982576 -0.03588489 -0.07625681 -0.0384121
0.048816178 -0.04409984 0.001960698 -0.07766687 -0.022967169 -0.024169767 0.042974487 0.07184257
-0.012613513 -0.061151017 0.046781298 -0.037719585 0.036785576 0.07243334 0.015163994 -0.08401971
-0.022001848 -0.039058942 0.061358202 -0.04819304 0.0059910133 0.05097162 0.018660469 0.036492046
0.028804446 -0.033574294 -0.0779288 -0.02348446 0.05630036 -0.020952493 -0.034271896 -0.056986745
0.04290351 -0.0802921 -0.039847784 -0.017217208 -0.07627821 -0.014957079 0.08137703 -0.008544513
0.07209394 -0.074493445 0.060171105 0.065594815 -0.04201776 0.030875225 -0.05055558 -0.023301445
0.050355177 0.04112498 -0.017098444 -0.08713939 0.0390881 -0.018405676 -0.0018105954 -0.07536568

sagpool.gnn.lin_rel.weight f4 [1, 128]
00000000: 242b 93bd 75e6 ad3d 91f0 7bbd 3bef 96bd
00000010: 44f6 883d 3daf 8b3c 6afa 713c ea23 f03b
00000020: a319 88bb c8ec 9fbb 78c4 2fbd 50b3 a7bd
00000030: a9c7 84bd cc47 ad3c e49b babc ce1e 8dbd
00000040: 8b59 9b3d f49e 3abd 3302 37bd 7915 933d
00000050: 20aa 63bd ca46 6e3d 28d2 a23d 729b a1bd
00000060: bfc6 5a3d 873a 4bbd 6a77 dfbc 77e5 b2bd
00000070: 5362 7bbd d2bc b03d ca44 0abd 7ae2 01bc
00000080: bb9d 8f3d 4092 45bd 0d3d b9bc a0a8 2dbc
00000090: 528b 953b f430 beba 6e5a ab3d fcce 833c
000000a0: fd9d ccba c835 373d 9f72 9ebd 1a5b 2fbc
000000b0: 817e 61bc 2dfa 08bd b8f2 18bd acb6 a9bd
000000c0: a2e8 dc3c 01f2 acbd a1b1 5abd 1e50 83bd
000000d0: f977 063d bc74 e5bb 832d b43d 5262 3bbd
000000e0: dfad ff3b 3a34 3f3d 8577 91bd 256b 7ebd
000000f0: bbf5 66bc 5db5 fe3b dbdf 4ebd eb26 29bd
00000100: c46e af3d 3e09 71bc baad 963d cc79 d13c
00000110: 8085 02bd ba73 10bd 7dd4 f63c 7ec4 2abc
00000120: ccac 45bd dd01 80bd 08b0 533d d077 8ebb
00000130: 2af0 82bd 6bf1 2fbd e912 273c 62b6 05bb
00000140: 1df1 46bd 01ef 66bd 44dc 30bd 52e0 34bd
00000150: f884 833c 4719 4f3d 6970 613d 1471 7cbd
00000160: e417 14bb f4ef 943d f4de 183a 9689 1d3b
00000170: 97bb 2f3b eaeb 773c 6f6a 79bc ae6c e4bc
00000180: 599b af3d c839 973d 0c54 333b 1f52 80bd
00000190: 2a3f 0abd 4414 ecbc 6ee7 8e3d 7e7b 753c
000001a0: 8ade a3bd 181c 98bd e53d af3d 5dee d83c
000001b0: 2bb4 7d3d 3d72 9ebd f4c2 893d d5b4 893c
000001c0: a230 a33d 886a e53c 35b6 b2bd d0b0 28bc
000001d0: 934e 363c c618 9dbc 2633 21bd 2f6c a7bd
000001e0: cb66 9a3d d3ae 7f3b fbe8 83bd 37e9 9bbd
000001f0: 056b 5ebd d8e4 b13c 7430 52bd f68b e63c
-0.07185963 0.08491222 -0.06150872 -0.07369848 0.066875964 0.017051334 0.014769176 0.0073285
-0.0041534468 -0.0048805214 -0.042911977 -0.08188498 -0.06483395 0.0211524 -0.022779413 -0.06890641
0.07585438 -0.045561746 -0.04467983 0.0718183 -0.055582166 0.05817298 0.079502404 -0.07890977
0.053412195 -0.049616363 -0.02727862 -0.08735173 -0.061373066 0.086297646 -0.03375701 -0.007927531
0.070125066 -0.048235178 -0.02261212 -0.010599285 0.0045637274 -0.0014510439 0.083668575 0.016089909
-0.0015611049 0.044729024 -0.07736706 -0.010702873 -0.013763071 -0.03344171 -0.03734085 -0.08286795
0.026966397 -0.08444596 -0.053392056 -0.064117655 0.03282926 -0.007002441 0.08797743 -0.045748062
0.0078027095 0.046680667 -0.07102875 -0.0621139 -0.014096673 0.007773085 -0.050506454 -0.04129688
0.08566049 -0.014711676 0.073573545 0.025570773 -0.031865597 -0.035266615 0.03013062 -0.010422824
-0.048260495 -0.062503554 0.05168155 -0.004347779 -0.06393464 -0.042954843 0.01019738 -0.0020402898
-0.048569787 -0.056380276 -0.04317881 -0.04415924 0.016054615 0.050561216 0.055038843 -0.061631277
-0.0022597248 0.0727233 0.00058315624 0.0024038306 0.0026814693 0.01513193 -0.01522313 -0.027883854
0.08574552 0.07384068 0.0027363328 -0.06265663 -0.033751644 -0.028818257 0.069777355 0.014983056
-0.0800143 -0.074272335 0.08556727 0.026480848 0.0619394 -0.07736633 0.067266375 0.01680986
0.0796826 0.0280049 -0.087261595 -0.010296062 0.011127132 -0.019176852 -0.03935542 -0.08174931
0.075391375 0.0039014115 -0.06440922 -0.076128416 -0.05430128 0.021715567 -0.05131574 0.02814291

sagpool.gnn.lin_root.weight f4 [1, 128]
00000000: e27b b53c c24d a7bd f7a3 b33d bc9b 823d
00000010: 0806 d33c d9be 8f3d baf4 8cbc a56c 1b3d
00000020: 7d9f 95bd efb0 263d 510e 4f3c 5495 a53d
00000030: 1771 9fbc 1048 193d a93c 6fbd 8fe1 06bd
00000040: a6f9 dbbc b611 93bd 3c3b 493d b3a1 5fbd
00000050: 2c09 31bd cf6e 9abd ee1c 463d 721b a5bc
00000060: 52f9 11bc dce7 8c3d aff1 823d ddb0 e13c
00000070: c0f6 393c 3c91 97bd 308b 8f3d 3200 a23d
00000080: d246 a8bd d3eb 80bc 7d54 61bd 6f01 c1bb
00000090: 8639 8a3c fd39 9cbd bd98 acbd 6b45 183c
000000a0: e64f 57bd 26cd 26bd 8630 b4bd 073e a3bd
000000b0: 3cec 4ebd 3849 9bbd d5d3 0e3d f59d 17bd
000000c0: fe4d 903d d399 3ebc 601d 71bd 6b22 97bc
000000d0: 4437 4a3d 14ac 863c c226 b1bd 0e1f de3c
000000e0: fd58 a93d e070 433d 7502 813d 33de 82bc
000000f0: 7606 a3bd 5e28 1abd 6941 8fbd 13d4 b13d
00000100: 2216 4abc 4166 49bc de21 a9bd 5409 ab3d
00000110: 18a7 46bb 80ab 81bc 9136 2c3d f6f1 3ebd
00000120: 43fa 8fbc afc3 2b3d ab08 4b3d 9e88 10bc
00000130: 8903 9cbc 0df2 4ebc e003 80bd 7ecc 59bd
00000140: 0b19 32bd c72a a93d 5b6f 963d 3eca 143d
00000150: 550b 8ebd c6e1 b1bc 8e93 16bc 25cd bd3c
00000160: ce40 3dbd 0b26 803d c8c5 a03d 2a83 7dbd
00000170: 3209 863d ea7b 893d 419a 823d ec94 303d
00000180: 799e 0abc 0f74 65bc a6c8 8fbd 6f35 aebd
00000190: 4f0b f2bc d331 aa3d 5dac 87bd e077 9e3c
000001a0: 8be9 dfbc b51a b9bb 48cd 363d a08d 503d
000001b0: 52d3 bebc 4921 2d3d 2763 88bb 3034 12bc
000001c0: 2a7c ec3c 7d75 883c 9e95 2abd 877a 443c
000001d0: be86 2dbd 95f0 9abb 8fa9 a53d 1102 9abd
000001e0: a7fc 0fbd fdf7 09bc 81af 79bd 936d 73bd
000001f0: 3b5e a63d 77a6 99bd 37ba 13bd 5fbc 753d
0.022153798 -0.08169128 0.08771508 0.0637736 0.025759712 0.07018823 -0.017206538 0.03794541
-0.073058106 0.04069608 0.012637691 0.08085123 -0.019463105 0.03742224 -0.05840746 -0.032929953
-0.02685244 -0.071811125 0.049128756 -0.054597568 -0.043221638 -0.07540666 0.048367433 -0.020154689
-0.00890954 0.06880161 0.06393754 0.027550155 0.011350334 -0.07400748 0.0700897 0.079101935
-0.08216633 -0.01573745 -0.055012215 -0.0058900635 0.016873132 -0.07628248 -0.0842757 0.009293894
-0.05256643 -0.04072299 -0.087983176 -0.07970815 -0.05051826 -0.07582325 0.034869988 -0.037015874
0.07046126 -0.011633354 -0.058865905 -0.018449029 0.04936911 0.016439475 -0.086499706 0.027114417
0.08268926 0.047715068 0.06299297 -0.015975093 -0.07960217 -0.037636153 -0.06994898 0.08683028
-0.012334378 -0.012292446 -0.08258413 0.083513886 -0.0030311998 -0.015828848 0.042044226 -0.04661747
-0.017575389 0.041934665 0.049568813 -0.008821635 -0.019044654 -0.012630952 -0.06250739 -0.053173535
-0.043480914 0.08260112 0.07345458 0.036325686 -0.06935755 -0.021714102 -0.009190453 0.02316911
-0.04620438 0.06257256 0.07850224 -0.061892666 0.065447226 0.06713088 0.06377078 0.043110773
-0.008460634 -0.014004721 -0.070206925 -0.085062854 -0.029546408 0.083102845 -0.066246726 0.01934427
-0.027333042 -0.0056489357 0.044629365 0.050916314 -0.023294125 0.04226807 -0.0041622105 -0.008923575
0.0288678 0.016657585 -0.041646592 0.011992103 -0.04236483 -0.0047283866 0.08088981 -0.075199254
-0.035153057 -0.008420941 -0.06095839 -0.05943067 0.08123442 -0.07502454 -0.03606626 0.059994098

lin.weight f4 [64, 128]
00000000: 504a 963d 7bc7 f43c 80be 65bc 7087 acbd
00000010: 12e1 753d aa95 9ebd 202e 26bd 6d11 153d
00000020: 6c60 993d 6598 07bd 564e 13bd 8a7d b2bd
00000030: dacf ac3d 824f 4dbd 55f3 87bb 3fad ca3c
00000040: e93a d13c 1eb8 3e3d 2c19 4d3b e1a9 85bd
00000050: 48fe 9ebb 96b7 573d 4c69 003d 4929 ef3c
00000060: 7199 c7bc 303b 0bbc 2071 993d 6e55 843d
00000070: 337a 84bd 57a2 8fbd d4fb b23d c135 00bd
00000080: 63e2 4a3d 2c4d 9ebd 7d9b 773c a3c6 a93c
00000090: 5d67 83bd 1c47 113d 2328 5d3d 0c9c 7a3d
000000a0: 48ac 84bc ce27 b73b 0317 953d f0da 603d
000000b0: 8b64 63bd 4f0f 6c3d 71e9 33bd 86a7 8c3d
000000c0: f35b 81bd d677 8bbd 542c 063c 90cf 19bd
000000d0: ff5e e6bc 06b5 b7bc 21dc 14bd 537e 8d3d
000000e0: 4e84 bdbc 1791 a83a 94ce e63c 17a3 8e3d
000000f0: 0fd7 91bd 0033 9d3d 9808 9ebc a9e1 93bd
00000100: bbf4 713d a206 50bc 884c 213d 53fb 20bd
00000110: f946 283c a421 bf3c 6afe b13d 752f f53c
00000120: d421 643d 0c10 d63c 8a08 4ebd cc41 dc3c
00000130: 498f 6abd 56c9 8e3d cf9b 953d b5fe 943d
00000140: 2c1e 4b3d e681 d2bc c49b 92bd d1dc c23c
00000150: 43c0 d6b9 faa7 b3bd 7c39 a33d cd37 a73d
00000160: 19b3 ea3c e89a ae3d 63f0 043d d9c7 f6bc
00000170: d82e 913c 8ae8 89bd e175 eb3c a95e 36bd
00000180: e10f 9e3d dd5e 17bd b471 733d 686e a03d
00000190: 6280 2f3d fda3 33bd 8abe 8dbd 4033 1c3d
000001a0: 0bd6 6c3d c669 ae3d 5e59 1f3d 347c b3bd
000001b0: 6d46 0fbd b54c f03c f368 513c c8fe 833d
000001c0: 25ee b03d 46bd 0e3d 097a 193d 175e c23b
000001d0: eaf5 afbd 02cf c73c 87a7 37bd 7d82 bd3c
000001e0: ec3f 043d 1409 f7bc afd0 79bd 6c9d 863d
000001f0: c7fb e7bb bb55 253d 9abd abbc 63b3 173a
00000200: e274 a9bc 0c97 bb3c 715f 4f3d 8ea2 693c
00000210: c654 69bd ac44 643c cdbd afbd ef42 0f3d
00000220: 8cd8 993d 5f20 0c3d 9ee2 a53d 4473 313d
00000230: 92ea 9dbc 0de9 4c3d 503f b13d aa72 0abd
00000240: df42 963d be0d 763b 6833 873d 03ef 71bd
00000250: 84c5 18bc d266 3b3d b8ca 22bd 43ca 19bd
00000260: 6357 823d 9af1 80bd 2a0c 7a3c 8bc8 47bd
00000270: a9b6 65bd 3e6d 643d 26c6 0fbb 3515 8e3d
00000280: 633b 673d 2e23 4c3d 8f62 873d 7aea c63c
00000290: c938 87bd c08b 2c3c 783e 9b3d 4c1f 05bd
000002a0: 32de b33d 75f3 e1bc 405d 4cbd c304 9a3d
000002b0: 3aeb 4f3d 0dc5 9cbd ed50 52bd 1978 853d
000002c0: f4d2 2cbc 3cc5 dc3c 63de 93bd 4a60 953c
000002d0: 3374 463c dd3e f53c 6b90 99bd 58e0 6cbc
000002e0: ab3b 50bd cd86 4a3d 9f78 08bd 6ecf a1bd
000002f0: c0d0 a73d 7f4f 0a39 1553 803d 2aac dd3c
00000300: b5e2 82bd 692e 8b3d 31cb a4bd 86d8 82bc
00000310: e2a6 a6bd f942 39bd a8e3 e3bc 6f2a 82bc
00000320: 0067 25bc 982d 5a3c a70c 08bc 12e3 bbbc
00000330: 3cfc 58bd d036 3c3d a14c 7f3d ff09 cc3c
00000340: c8c2 e838 0c55 8fbd c101 e7bb 0760 123d
00000350: 98fb 58ba 4a63 3e3d 5879 9938 e1bb 9a3c
00000360: af7f 993d 0f6a 7c39 1e1f 55bd c759 63bc
00000370: 4cf2 25bd 5fa8 9cbc ac7d 90bd e2dc 11bd
00000380: f6a3 a8bd 8b7e 2cbd aaa5 1ebd bf04 933c
00000390: 813d c6bc 7664 6fbc 5081 903d 7625 103d
000003a0: d29f a93d da38 873d f904 5ebd 10c7 a4bd
000003b0: c456 85bd dc73 2b3d 9fd0 4f3b 5c61 973c
000003c0: a4d0 7b3d 0d80 3fbd f4c7 52bd 7e48 78bd
000003d0: 4cf8 3dbc 0ba8 1bbd 8f1d 0e3d 719c 033c
000003e0: f976 a03d 17ab 56bd 242c 0fbc 79d6 893d
000003f0: 224f a83d 4246 1c3c 92f2 55bd 0412 773b
0.07338393 0.029880276 -0.0140224695 -0.0842427 0.060029097 -0.0774339 -0.040571332 0.03639357
0.07489094 -0.03310432 -0.03596338 -0.08715351 0.08438082 -0.050124653 -0.0041488805 0.024740813
0.025540786 0.046562307 0.0031295521 -0.065265425 -0.00485209 0.052665316 0.03135042 0.029194491
-0.024365159 -0.008497998 0.0749228 0.06461607 -0.0646862 -0.07013386 0.08739439 -0.031301264
0.049532305 -0.07729563 0.015112755 0.0207246 -0.06416199 0.035468206 0.053993355 0.061183974
-0.016195431 0.005589462 0.0727978 0.054896295 -0.055515807 0.057631787 -0.0439238 0.0686789
-0.06316366 -0.06809966 0.00818928 -0.037551463 -0.02812147 -0.022425186 -0.036342744 0.0690886
-0.023134377 0.0012860623 0.028174676 0.06964701 -0.07121097 0.07675743 -0.019291207 -0.07220776
0.059071284 -0.012696894 0.039379627 -0.03930218 0.010270827 0.02333147 0.08691104 0.029929856
0.055696324 0.026130699 -0.050301112 0.026886843 -0.057265554 0.069719955 0.07305109 0.07275144
0.04958932 -0.025696706 -0.07158616 0.023786934 -0.00040960507 -0.08772273 0.07969949 0.0816494
0.028649854 0.0852564 0.032455813 -0.030124592 0.017722532 -0.067338064 0.028742732 -0.04452387
0.077178724 -0.036955703 0.059434608 0.07833558 0.042847045 -0.043857563 -0.06921108 0.038134813
0.057821315 0.085162684 0.038903587 -0.08763924 -0.034979273 0.029333452 0.0127813695 0.0644508
0.086391725 0.034848474 0.037469897 0.0059316265 -0.08591826 0.024390701 -0.0448375 0.02313351
0.032287523 -0.030155696 -0.06099003 0.065729946 -0.0070795747 0.040364962 -0.020964433 0.00057869236
-0.020685617 0.022899173 0.05062813 0.014259947 -0.056965612 0.013932388 -0.085811235 0.034975942
0.07512006 0.03421056 0.080998644 0.043322816 -0.01927689 0.050026942 0.08654654 -0.03380076
0.073369734 0.0037544812 0.06601602 -0.05906583 -0.009324435 0.045752354 -0.03974411 -0.037546407
0.06364324 -0.06296082 0.015261689 -0.048775237 -0.0560824 0.055768244 -0.0021938174 0.06937639
0.05645312 0.049838237 0.066105954 0.024281729 -0.06602628 0.010531366 0.07580274 -0.03250055
0.08782615 -0.02758191 -0.049893618 0.075204395 0.05076144 -0.07654772 -0.051346708 0.065170474
-0.010548342 0.026949517 -0.07220151 0.01823439 0.012112665 0.029937202 -0.07498249 -0.014457785
-0.050838154 0.049444962 -0.03331816 -0.07900892 0.08194113 0.0001319032 0.06265847 0.027059633
-0.06390897 0.067959614 -0.08046568 -0.015972387 -0.08137299 -0.045229886 -0.027818516 -0.015889375
-0.010095358 0.013316534 -0.008303798 -0.022935424 -0.052974924 0.04595071 0.06232894 0.02490711
0.00011098903 -0.06998643 -0.0070497696 0.03573611 -0.00082772365 0.04648141 7.3182106e-05 0.018888416
0.07495057 0.00024072103 -0.05203163 -0.013876385 -0.040514275 -0.019123254 -0.0705522 -0.03561104
-0.08234398 -0.04211287 -0.03873221 0.017946599 -0.02419925 -0.014611354 0.070559144 0.035191976
0.082824364 0.066026405 -0.05420396 -0.08045781 -0.0651069 0.04185854 0.0031710041 0.018479042
0.061478272 -0.046752978 -0.05146022 -0.06061601 -0.011594843 -0.038002055 0.034696158 0.008032904
0.07835192 -0.052409258 -0.008738551 0.067303605 0.082182184 0.009538235 -0.052233286 0.0037699947

lin.bias f4 [64]
00000000: f2d2 673d 6e33 7ebc f13c 043d 9b7d 03bd
00000010: 7cb6 953d df11 ac3d ef1e 83bd b7fb 1f3d
00000020: 44ae 2fbd 77de a3bc cd96 d0bc a815 573b
00000030: 9ae6 513d a53c a0bc e262 803c 6084 b4bd
00000040: 0f7c f9bc 2c77 993c 0e60 253d b05e e83b
00000050: 4a89 923d f7fd 073d 95e9 483c 861a 793d
00000060: bf62 13bd 9c30 7d3c de6c 6f3d d4c1 68bc
00000070: 4618 8e3d 1aac a63d 566d 55bd 7594 543d
00000080: 1af5 833d 9118 ccbc f30d 9cbd 6e3f 903d
00000090: fbbc 0abd 98d4 a0bd 8285 12bd a0a1 763d
000000a0: f142 a0bc 46c8 f63b 334e 653d 22a4 0b3d
000000b0: a043 9b3d b8a9 5c3d fe93 ad3c 5e57 583d
000000c0: a195 443d 24e9 833d 4686 9d3d 3945 5ebd
000000d0: fe16 853d 4397 25bd f698 29bd 808b d7bc
000000e0: 698c 67bd e70f b33d 9ab5 b43d c847 813c
000000f0: 617d 833d fee0 75bc f030 423d d80e 9f3d
0.056597658 -0.0155151915 0.03228468 -0.03210221 0.07310197 0.08401846 -0.064023845 0.039058413
-0.042890802 -0.02000354 -0.025462532 0.0032819305 0.05124531 -0.019560168 0.015672151 -0.08814311
-0.030454664 0.018733583 0.040374808 0.0070913658 0.07155092 0.033201184 0.012262722 0.06081631
-0.035982843 0.015453484 0.058453433 -0.0142063685 0.069382235 0.081382945 -0.052106224 0.051899392
0.06443234 -0.024914058 -0.07619848 0.07043348 -0.033871632 -0.07853049 -0.035771854 0.06021273
-0.01956317 0.0075311987 0.05598278 0.034092076 0.07581258 0.053872794 0.021188732 0.052817695
0.04799426 0.064409524 0.07691626 -0.054265235 0.06498526 -0.040427458 -0.04140564 -0.026311636
-0.05653039 0.087432675 0.088237 0.015781298 0.064203985 -0.015007256 0.04740995 0.07766503

fc.weight f4 [1, 64]
00000000: 5982 11bc 22ec aa3d d77b 603c 54a0 bcbd
00000010: f8b5 573d c901 693d 6d3d a73c e9ed eb3d
00000020: 2c19 1dbd 1a42 16bd b2ee e43d ec9f ecbd
00000030: 7a2e 92bd 7d86 67bd 2217 75bc 2be9 c3bd
00000040: a915 10bd 64c8 e83d bdcc 46bd 776d 373d
00000050: 4620 19bd 5d13 2c3d d832 72bd 8b3c e23d
00000060: 20dc fc3b d44d 7d3c 0776 dbbd 6557 1cbc
00000070: b9bd 983d 1203 4cbd afc3 28bd f86a 36bd
00000080: db36 debc 0c96 da3d d759 05bd e824 d93d
00000090: 7c4f c6bd 1560 efbb 35b1 843d 0b36 5d3c
000000a0: 8220 a73d 65fd bd3d e0ed e0bc 57c5 f23d
000000b0: a34f 5d3d 0103 7e3c e02e f63d 5823 c4bd
000000c0: 0244 87bd ce3e 223d e157 8bbd 4b4c c0bb
000000d0: b717 15bd 370f 8fbd c093 e73d d544 33bd
000000e0: 1556 f83d ccdf 78bd 3ed2 a1bd 9169 723c
000000f0: 05fd b6bd bb14 09bd 30eb a5bd e836 c0bd
-0.008881175 0.0834582 0.013701401 -0.09210268 0.052663773 0.056886468 0.020415032 0.11519987
-0.038354084 -0.036684133 0.1117834 -0.1155394 -0.07137771 -0.056524742 -0.014959129 -0.09565958
-0.035176907 0.113663465 -0.048535097 0.04478213 -0.037384294 0.042010654 -0.05913052 0.11046704
0.0077166706 0.01546045 -0.10715871 -0.009542321 0.07458062 -0.049807616 -0.041202243 -0.044535607
-0.027125767 0.106731504 -0.03255638 0.106027424 -0.09683129 -0.007305155 0.06479112 0.013501654
0.08160497 0.09276847 -0.027457178 0.11854046 0.054031026 0.015503646 0.120206594 -0.09577054
-0.06604768 0.039610676 -0.06803871 -0.00586847 -0.03639957 -0.06985324 0.11307478 -0.043766815
0.12125794 -0.060760304 -0.07901429 0.014795677 -0.089349784 -0.033467036 -0.08101499 -0.093854725

gcn_batch_norm.weight f4 [128]
00000000: 0000 803f 0000 803f 0000 803f 0000 803f
00000010: 0000 803f 0000 803f 0000 803f 0000 803f
00000020: 0000 803f 0000 803f 0000 803f 0000 803f
00000030: 0000 803f 0000 803f 0000 803f 0000 803f
00000040: 0000 803f 0000 803f 0000 803f 0000 803f
00000050: 0000 803f 0000 803f 0000 803f 0000 803f
00000060: 0000 803f 0000 803f 0000 803f 0000 803f
00000070: 0000 803f 0000 803f 0000 803f 0000 803f
00000080: 0000 803f 0000 803f 0000 803f 0000 803f
00000090: 0000 803f 0000 803f 0000 803f 0000 803f
000000a0: 0000 803f 0000 803f 0000 803f 0000 803f
000000b0: 0000 803f 0000 803f 0000 803f 0000 803f
000000c0: 0000 803f 0000 803f 0000 803f 0000 803f
000000d0: 0000 803f 0000 803f 0000 803f 0000 803f
000000e0: 0000 803f 0000 803f 0000 803f 0000 803f
000000f0: 0000 803f 0000 803f 0000 803f 0000 803f
00000100: 0000 803f 0000 803f 0000 803f 0000 803f
00000110: 0000 803f 0000 803f 0000 803f 0000 803f
00000120: 0000 803f 0000 803f 0000 803f 0000 803f
00000130: 0000 803f 0000 803f 0000 803f 0000 803f
00000140: 0000 803f 0000 803f 0000 803f 0000 803f
00000150: 0000 803f 0000 803f 0000 803f 0000 803f
00000160: 0000 803f 0000 803f 0000 803f 0000 803f
00000170: 0000 803f 0000 803f 0000 803f 0000 803f
00000180: 0000 803f 0000 803f 0000 803f 0000 803f
00000190: 0000 803f 0000 803f 0000 803f 0000 803f
000001a0: 0000 803f 0000 803f 0000 803f 0000 803f
000001b0: 0000 803f 0000 803f 0000 803f 0000 803f
000001c0: 0000 803f 0000 803f 0000 803f 0000 803f
000001d0: 0000 803f 0000 803f 0000 803f 0000 803f
000001e0: 0000 803f 0000 803f 0000 803f 0000 803f
000001f0: 0000 803f 0000 803f 0000 803f 0000 803f
1.0 1.0 1.0 1.0 1.0 1.0 1.0 1.0
1.0 1.0 1.0 1.0 1.0 1.0 1.0 1.0
1.0 1.0 1.0 1.0 1.0 1.0 1.0 1.0
1.0 1.0 1.0 1.0 1.0 1.0 1.0 1.0
1.0 1.0 1.0 1.0 1.0 1.0 1.0 1.0
1.0 1.0 1.0 1.0 1.0 1.0 1.0 1.0
1.0 1.0 1.0 1.0 1.0 1.0 1.0 1.0
1.0 1.0 1.0 1.0 1.0 1.0 1.0 1.0
1.0 1.0 1.0 1.0 1.0 1.0 1.0 1.0
1.0 1.0 1.0 1.0 1.0 1.0 1.0 1.0
1.0 1.0 1.0 1.0 1.0 1.0 1.0 1.0
1.0 1.0 1.0 1.0 1.0 1.0 1.0 1.0
1.0 1.0 1.0 1.0 1.0 1.0 1.0 1.0
1.0 1.0 1.0 1.0 1.0 1.0 1.0 1.0
1.0 1.0 1.0 1.0 1.0 1.0 1.0 1.0
1.0 1.0 1.0 1.0 1.0 1.0 1.0 1.0
