All_Benchmarking/DATA_9/Results/fold_1/best_model.pth (torch, 192098 bytes, 32 tensors)

gat1.att_src f4 [1, 4, 32]
00000000: 100b 99be 3161 c4bd c418 38bd 6c43 61be
00000010: 78b4 97be 9c09 933e 3e5e 8a3e 3512 b5be
00000020: 78bf 103e 17b7 323e 6e8b c93e 06a2 5e3e
00000030: c80d c73e 6e84 1bbe 924c 893e 600e af3e
00000040: dc1a c3be de09 a3be 2cbe c33d 044f 6f3e
00000050: 708d 3cbe a5f8 433d 7944 203b becb b43d
00000060: 055d 4cbe 2cb9 713e 0752 8f3e f9a3 93be
00000070: 11af 1c3b 512a 9ebc 8fcf e43d 99ac ba3e
00000080: cbf1 fb3d 4254 c6bd 71a8 b53e f2af 27be
00000090: 8733 ebbd c980 003d a56b 9cbe 9d6b 3a3d
000000a0: 8535 89be 5a2c 253d 96ae 363d b2b0 5a3d
000000b0: f690 b1be df6c c3be 12a8 423e aa3a b43e
000000c0: 211b b9be ebcd 1e3e ba90 a0be fb99 163d
000000d0: 16f1 c03e 6c0c 9e3e 4cb1 a1be 6aee 7e3e
000000e0: 21b3 5a3e 6681 85bb 295f ce3e 9641 29be
000000f0: 9e29 a8bd 2172 4cbe c06a 5e3d 9f18 d23d
00000100: d2aa f03c d1b1 6bbe 9c18 3dbe 781f 103e
00000110: 30db b5be e574 71bd c775 3dbc 0a7c 26be
00000120: 3fbe 183e d31a d83c 6393 933e dd66 00bd
00000130: afa2 85be 78bc 923e 3857 763d 8b78 f2bd
00000140: f837 8cbe 1179 c63d 88b7 c8be c829 dc3d
00000150: ec90 4f3e 1752 b5be 3172 89be 17f1 93be
00000160: 9842 ad3e 820a af3e 809e b63c 3496 c53e
00000170: 41f1 0dbe e2f2 cabe 8d5d 143e 6dc5 173e
00000180: e5b4 c83e 97b1 03bc bf80 a23e e6cc 793e
00000190: 9961 933e 1fd0 cbbe 22b1 b03e 33dd b7be
000001a0: 01e2 b93e 210c bcbc e6fe c0be 6818 f83d
000001b0: 8d9a 9cbd 6473 babe 18c4 1abe 2510 1b3d
000001c0: 8f26 a93e edbd f8bd d43c 723e 8708 713d
000001d0: e106 613b a6a1 963d f3eb 90be 6c4f b2be
000001e0: c3c6 0dbe 755f c6be d368 49be f21d 683c
000001f0: abca 86be 69f4 32be 4d25 84bd e17e 2dbd
-0.29891253 -0.0958885 -0.044945493 -0.21998376 -0.29629874 0.2871827 0.27025026 -0.35365453
0.1413554 0.17452656 0.3936419 0.21741495 0.38877702 -0.15187237 0.2681623 0.34190655
-0.3810643 -0.31843466 0.09557757 0.23369986 -0.18413329 0.047844548 0.0024454875 0.08827923
-0.19957359 0.23605794 0.2799227 -0.2883604 0.0023908059 -0.019307287 0.11172401 0.36459807
0.12301978 -0.0968404 0.35480073 -0.16375712 -0.114844374 0.03137282 -0.30550876 0.045512784
-0.26798645 0.0403255 0.044600092 0.053391166 -0.3468091 -0.38169 0.19009426 0.35201007
-0.3615351 0.15508239 -0.31360418 0.03676794 0.37683934 0.30868852 -0.3158058 0.24895635
0.21357395 -0.0040742634 0.40306976 -0.16528925 -0.08211063 -0.19965412 0.054301023 0.10258602
0.029378328 -0.2301705 -0.18466419 0.14074504 -0.3551879 -0.05894937 -0.011563725 -0.16258255
0.14916323 0.026379978 0.28823385 -0.031348098 -0.2610068 0.28659415 0.060141772 -0.11839398
-0.2738645 0.0969106 -0.39202523 0.10750157 0.20270127 -0.35414192 -0.26844934 -0.28894874
0.3383987 0.34187704 0.022292376 0.38591158 -0.13861562 -0.3963843 0.14488812 0.14821406
0.39200512 -0.008037946 0.3173885 0.24394569 0.287854 -0.3980722 0.34510142 -0.3591095
0.3630524 -0.022955002 -0.37694472 0.1211403 -0.07646666 -0.3641616 -0.15113866 0.037857193
0.3303723 -0.121456005 0.23656017 0.058846023 0.0034336376 0.07355051 -0.28305015 -0.3482622
-0.13845353 -0.38744703 -0.19668894 0.014167296 -0.26326498 -0.17476048 -0.06452427 -0.04235733

gat1.att_dst f4 [1, 4, 32]
00000000: 8b38 66be 61e4 9c3c 2d80 68bd a94a ee3d
00000010: c4bd 923c 2e78 50be 936b 0fbe a236 8fbb
00000020: 3d52 82be afda 043d c950 f0bc 03c1 213e
00000030: 6460 c63d 8735 9c3e 7a6f 63bc df91 9abe
00000040: 5e95 3a3e f67d 8dbe 3332 64bd 35fd 06be
00000050: 0e29 1ebe 7234 1bbe 57cd bf3e 7cec 6e3e
00000060: 879c e83d 39fc c33e d0ac bdbe 9cf9 873d
00000070: 6a11 863e fb9e 8a3e d093 a6be 4864 143e
00000080: f1ec 6dbe 925f 81bc 192d afbd f2bb aebe
00000090: 646d c7be 6f6d 89be e21e 3e3e 7693 3f3e
000000a0: cba1 b5be 9845 1dbe 82c3 e83b e8db b4be
000000b0: 9aa8 6b3e fd79 bd3e 655b 933d f05e 9bbe
000000c0: 299c c23d c592 173e 4f65 a53e 7e14 5ebe
000000d0: 3769 bbbe 96f7 373e aae6 cc3c 4e57 08be
000000e0: 1977 2fbe bfb9 57be 0367 a93e 87fb 8fbd
000000f0: 30e4 963e 0eaf ba3e a50a 533d d59d b23d
00000100: b544 fdbc ac7c 8e3e 16fc bbbe d7dc 273e
00000110: 0da9 86bd ce1a 403e cf82 fdba bcbd 18be
00000120: 4a1b 3abd adca 633e b2d0 91be a47a 83be
00000130: 00f0 bebd ceaf 1abe 4495 293e 0354 8b3e
00000140: 88f2 39bd c41b c73e 8734 31be b473 6bbe
00000150: 382f 39be ae30 8fbe aede 93be 582d b7be
00000160: af7d b9be b505 e33d 66a4 7b3e a477 c53e
00000170: c716 b03e 0100 aebc e984 a03d 56ee 77be
00000180: b49d 213e b789 c8be 56bc 443e 9bd5 993d
00000190: 5560 003e d434 193e af46 40be fe29 b33e
000001a0: b3d8 473e 0f80 893e 48b7 5b3d 144d 833e
000001b0: ee79 8c3e bf27 3d3e ac13 9f3e 712b 97bd
000001c0: bf99 893e 5be9 bf3d b2fc 7b3e bd90 cb3e
000001d0: 2ea0 bc3d d66c 1bbe 6c30 27bd e40e eb3d
000001e0: 2766 8c3d daa3 e3bd 98fa a33e 9d95 7b3e
000001f0: 3c10 82be cc7f 06bd 26f0 1fbd 6a2c 83be
-0.22482507 0.019151868 -0.056762863 0.11635334 0.017912753 -0.20358345 -0.1400588 -0.0043705264
-0.25453368 0.032435115 -0.029335396 0.15796284 0.09686354 0.30509588 -0.013881559 -0.30189416
0.18221042 -0.27635163 -0.055711936 -0.13182528 -0.15445349 -0.15156725 0.3746135 0.23332399
0.1135798 0.38278368 -0.37045908 0.06639406 0.2618516 0.27074417 -0.32534647 0.1449138
-0.23234917 -0.015792642 -0.085535236 -0.34127766 -0.38950646 -0.26841304 0.18566468 0.18708596
-0.35475 -0.15358579 0.0071033845 -0.35324025 0.23013535 0.37007132 0.071951665 -0.3034587
0.095024414 0.14802082 0.32303855 -0.21687505 -0.3660371 0.1796554 0.025012333 -0.13314554
-0.17135276 -0.2106695 0.33086404 -0.07030397 0.29470968 0.3646168 0.051523823 0.0872151
-0.030916551 0.27829492 -0.36715764 0.16392837 -0.06575213 0.18760225 -0.0019341352 -0.14916128
-0.04543618 0.22245283 -0.28479534 -0.25679505 -0.0932312 -0.15106127 0.16560847 0.27212533
-0.04539731 0.3888837 -0.17305194 -0.22993356 -0.18084419 -0.27966827 -0.2888083 -0.35776782
-0.362287 0.11085073 0.24574432 0.3856784 0.34392378 -0.021240236 0.078378506 -0.24212012
0.15782815 -0.39167568 0.1921247 0.07511445 0.12536748 0.14961559 -0.18776964 0.34992975
0.19516258 0.26855513 0.053641587 0.25644743 0.27436775 0.18472193 0.31069696 -0.07381333
0.2687511 0.09370681 0.24608114 0.39758864 0.09210239 -0.15178236 -0.040817663 0.114774495
0.068554215 -0.111152366 0.32027125 0.24568792 -0.2540301 -0.03283672 -0.039047383 -0.25619823

gat1.bias f4 [128]
00000000: 736b eeb8 7e08 a537 7776 c839 3124 cfb8
00000010: ebaa 9eb9 ee04 8eba 94e7 46ba 8082 54b9
00000020: c7d9 9c38 e91d a7b9 fbaa 93b9 0f84 f1b8
00000030: c75d 57b9 1f01 ab38 5268 263a cea1 3539
00000040: 02a7 e1b9 bd1f 4739 a164 0bba 7061 5f38
00000050: a938 af39 ce13 5f3a cbb2 6d39 1eb5 0138
00000060: 8618 51b9 16b5 233a 04b5 9b39 a692 6539
00000070: 442d 8a39 9cd2 0e3a f429 e939 94b7 ac39
00000080: 7d05 0d3a 7642 113a 9ee8 7c39 00b3 f6b9
00000090: e1e8 c3b9 ef85 483a 540f db39 6c6d e4b9
000000a0: cd16 eeb8 5cd4 03b9 c765 f038 40e4 a7b9
000000b0: d7e0 11b9 7826 00ba aeaa 633a a248 acb9
000000c0: 7bc4 b4b9 431b 1d39 d48f f7b6 586c 7038
000000d0: 49da b8b9 7e59 d536 b901 9e39 f303 03ba
000000e0: 56cb cbb9 0c72 9b38 2181 1db9 e13d 98b9
000000f0: 8227 f239 19fd 3dba bec5 66b9 9b58 01b9
00000100: 96b0 d738 738b fcb8 b1df e938 52b7 263a
00000110: 6ab2 d8b8 20db 1f3a e12e 47b9 2297 5f39
00000120: c921 b23a 2265 913a 277a 7839 ed1c 11ba
00000130: 0f41 b9b9 da89 153a cbef ee39 0dc8 84b9
00000140: 9c08 4eba b01a 10b9 0363 c7b9 0d67 2739
00000150: 5784 ceb8 af90 d139 0235 973a 7581 bfb9
00000160: 83bf a9b9 d100 9fb8 3282 c338 1a2c 443a
00000170: 0636 27b8 561e 67ba e79a b6b8 e872 48b9
00000180: 8ad9 80b9 9039 113a 1353 7eb9 7c0f 5839
00000190: 6046 b0b9 1dc9 b43a 47db aa37 6b12 bab9
000001a0: 5e6c a1b9 de54 d939 f82d a23a 1f03 7fb9
000001b0: e442 da39 6d15 e539 f3b3 c539 4903 33b9
000001c0: 7757 6b38 7adf c338 13e7 cdb8 c15a 95b9
000001d0: 3b93 a83a 0079 e838 528b 7338 ec7c 9438
000001e0: 9661 5cba 7227 b9b7 e65b 6c39 525f d039
000001f0: 7a10 0139 8b38 29b9 94f3 423a d9cc 2fb8
-0.00011368738 1.9673487e-05 0.00038235236 -9.87727e-05 -0.00030263452 -0.0010835209 -0.00075876084 -0.0002026651
7.479224e-05 -0.00031875007 -0.00028165415 -0.00011516373 -0.00020538933 8.154124e-05 0.00063479424 0.00017321782
-0.00043039775 0.00018989942 -0.0005317424 5.325809e-05 0.00033420816 0.0008509726 0.00022668687 3.0924675e-05
-0.00019940929 0.00062449405 0.0002969877 0.00021893773 0.00026355137 0.00054482534 0.0004447248 0.00032943173
0.0005379541 0.00055412145 0.0002411925 -0.00047054142 -0.00037366807 0.0007649352 0.00041782355 -0.00043569074
-0.00011352971 -0.00012572244 0.00011463049 -0.00032022782 -0.00013912037 -0.0004888545 0.0008684796 -0.00032860512
-0.00034478665 0.00014982843 -7.3779174e-06 5.7321362e-05 -0.0003525785 6.358313e-06 0.00030137392 -0.0004997842
-0.00038870674 7.412219e-05 -0.00015020791 -0.00029037803 0.00046187273 -0.00072474923 -0.00022008174 -0.00012335407
0.000102848906 -0.00012042271 0.000111519716 0.00063597143 -0.00010332915 0.0006098021 -0.00018995583 0.00021323239
0.0013590391 0.0011092762 0.00023696628 -0.00055356213 -0.00035334422 0.00057044404 0.00045573557 -0.0002532605
-0.0007859559 -0.00013742852 -0.00038030007 0.0001596475 -9.847496e-05 0.00039971384 0.0011536183 -0.00036526812
-0.0003237688 -7.581863e-05 9.322575e-05 0.0007483378 -3.9866216e-05 -0.0008816471 -8.707289e-05 -0.00019116292
-0.00024576142 0.00055398885 -0.00024254275 0.00020605134 -0.0003362177 0.0013792847 2.0367688e-05 -0.00035490407
-0.00030789053 0.00041452696 0.0012373319 -0.00024319858 0.00041630038 0.00043694247 0.0003770884 -0.00017071994
5.6109824e-05 9.33995e-05 -9.818203e-05 -0.00028487112 0.0012861261 0.0001108516 5.8065467e-05 7.0804585e-05
-0.00084068754 -2.2072087e-05 0.00022540949 0.0003974387 0.00012308537 -0.0001613816 0.00074368087 -4.191403e-05

gat1.lin.weight f4 [128, 5]
00000000: f51e 0c3d bbb7 4abe d325 433e b47f 063e
00000010: 416f 5dbe e825 e4bd e7b6 693d c652 0dbd
00000020: 4410 9ebc 5d54 c6bd 45e5 2a3e a85a ffbd
00000030: a015 373e 2765 943c 2f60 0e3d 735d 243e
00000040: 9a62 09bd 1da1 f7bd 601d 08bd 3c68 363e
00000050: ea3e 27be cc5b 383d 9a9d 4dbe d959 df3d
00000060: feea b13d acd5 273c 0da0 bb3d 5b85 f0bb
00000070: bf47 ff3d 2b72 2ebe 5556 b6bc 6be9 ad3d
00000080: 237f 5e3e d6d6 ed3d 2059 12be f1b6 1a3e
00000090: f338 47bd b0cf 25bd ecb1 4abe 68b7 36bd
000000a0: af46 113e 918d 293d 0a5a 09be 089f 603d
000000b0: ae42 a8bd d74f 413e 8e9c 3abe 249f 84bd
000000c0: 07c5 57be c6db d3bd 4d43 a43d cd62 563e
000000d0: 9f76 c73c 9c4a 513e 4ce9 0e3d 7ae2 ea3d
000000e0: e586 283e e875 3c3e c5b1 f0bd 290e 413e
000000f0: 3d5e fb3d 1299 d3bd 8a90 c9bd f172 30be
00000100: ae3c 763d 38ac 28be 556e b13d f215 8d3d
00000110: 3a4c 3ebe 70e8 903d 88ef 14bc ad51 c53d
00000120: 9140 f53d 0038 55be 3356 4f3e 22df 3f3e
00000130: 811f ab3d 399e 4bbe a47a 9cbd f4f6 a4bd
00000140: 0ed7 4bbd 59aa fe3d c01d 993d a365 213e
00000150: ecfc b1bd 43d7 a33d e491 833d 8b89 2dbe
00000160: 467c 4fbe 3da3 e6bd e749 1b3e 6839 4cbe
00000170: ac4d 3cbe 2331 d83d 8486 053e 335a 3c3e
00000180: 9f9d 1bbe 7b58 27be c02a c43d 2474 3a3e
00000190: 75a5 ed3d e1f2 093d dd12 963d 0114 493e
000001a0: 77bf 23be be5b a6bd 9941 123e 6ddb 1fbe
000001b0: 6687 f4bd 3185 1c3e 9d2d 6c3d 2a6f a33d
000001c0: 6251 a8bd 6057 36bc 6be2 4a3e 7299 ffbd
000001d0: e49e b53b 6047 bd3d 8be8 12be 84a7 5c3e
000001e0: 2a67 babd d0ac 58bd 032d 72bd 24b4 0fbe
000001f0: e830 6bbe 5438 f93d 6ab6 7c3d 5d0e 55be
00000200: dcad 06be 09f5 4a3e bdca a93d 141a b73d
00000210: 5be4 0abe e073 babd f40d f1bc e710 43bd
00000220: 89db 11be 5483 ac3c bf2c cd3c 825d 01bd
00000230: d991 e83c c2fa c5bd 805c 7d3d cacf a63d
00000240: 8a12 cabd bce1 52be a136 e33d c6a0 4b3d
00000250: 3c66 dbbd ebd1 5e3e fb3c bdbd 6967 133e
00000260: b2af da3d a832 35be 5256 0b3e 636b 40be
00000270: ae91 dbbd 783b 5fbd b8b6 06be e44d 6d3e
00000280: bb5c 4bbd 98d7 ad3d cbdc 3cbe 0ae9 003e
00000290: d7a8 97bd 087c 23be 453f 1c3d 59ae c03d
000002a0: b1b8 403e 4ac2 14be 8cf0 babd f037 133d
000002b0: 403f 753d c9bf ad3d e5af 083e 47a7 28bd
000002c0: c735 fa3d e28e 183e b139 5fbd 0fe0 263e
000002d0: 59c1 c43d 7957 423e a0db ffbd 6b4d c3bd
000002e0: c1db 93bd 5e16 ac3c 7b69 043e 6cff 07be
000002f0: ed83 c93d 5b7a 84bd 34ab fc3d 510f 00bc
00000300: 3047 37be bc15 01be 0c99 25be 574e c83d
00000310: dd9f 0abe 4f51 a3bc a66c 553d ad1f 0bbe
00000320: fa81 6e3d 7dd4 53be 4d55 1bbe 9b98 45be
00000330: e739 a6bd 7c57 8cbd 71e1 083d cf80 43bd
00000340: 0829 d73d f799 413e 3c44 9e3d 63e8 b0bd
00000350: c066 48be bbc5 a13d 59ab eabd a821 c53d
00000360: a78e 003e 7c2a c93d 7057 4d3e 3b4a 5b3e
00000370: 7302 443d c0ce 21be 6c50 433e 7be5 cfbd
00000380: c157 c1bd b3f9 2d3e 0d8a 2d3e 6610 853d
00000390: 1734 423c 27e9 34be 213a a7bc 8997 523e
000003a0: d283 593d f91a 8b3c 3747 2fbd 2ae6 90bd
000003b0: e083 083e 0b8e 253c 27ce 063e 7c96 3cbd
000003c0: b1cb cb3d 614b b83d fa10 033d db5c fe3d
000003d0: eebb 0b3e 08d3 493e 4e80 2d3e cfe5 83bd
000003e0: 297d 2ebe 5049 f23c 561f 2ebc 55a1 6cbd
000003f0: 3073 09bd 8506 a43c bd8d 2b3e 401f 5a3d
0.03420921 -0.1979665 0.19057398 0.13134652 -0.21624471 -0.111400425 0.057059195 -0.034502767
-0.019294865 -0.0968406 0.16689022 -0.12468463 0.17879343 0.01811464 0.034759697 0.16051273
-0.0335413 -0.12091277 -0.03323114 0.178132 -0.16332594 0.04500942 -0.20079651 0.10905809
0.08687399 0.010243814 0.09161387 -0.007340116 0.12464856 -0.17035739 -0.022257963 0.084917866
0.21728186 0.11613242 -0.14291811 0.15108849 -0.048638295 -0.04048127 -0.19794434 -0.044608504
0.1418712 0.041394774 -0.13413253 0.054839164 -0.08215843 0.18878113 -0.18223783 -0.06475666
-0.21071254 -0.10344653 0.08020649 0.20936127 0.024348555 0.20438617 0.034890458 0.11468978
0.16457708 0.18404353 -0.11752657 0.18853058 0.12273834 -0.1033193 -0.09842022 -0.17231347
0.060116462 -0.16471946 0.08663622 0.06888951 -0.18583766 0.07075584 -0.009090312 0.09634719
0.11975206 -0.20822144 0.20247726 0.18737462 0.08355618 -0.19884576 -0.07640579 -0.08054915
-0.04976564 0.12434835 0.074763775 0.15761428 -0.08690819 0.08000042 0.06424311 -0.16947
-0.2026225 -0.11261604 0.1516491 -0.19943774 -0.18389004 0.10556247 0.13039595 0.18393783
-0.15196846 -0.16342346 0.095784664 0.18208367 0.11603824 0.033678893 0.07327817 0.19636537
-0.15991007 -0.08122967 0.14282836 -0.15611048 -0.11939888 0.15285183 0.057660688 0.07980187
-0.082186475 -0.01112923 0.19812934 -0.12480439 0.005542623 0.09242129 -0.1434652 0.21548277
-0.09101708 -0.05289918 -0.059124958 -0.14033562 -0.22967875 0.12168947 0.0616974 -0.2080626
-0.1315226 0.19820036 0.082906224 0.08940521 -0.13563673 -0.09104133 -0.029425599 -0.04762354
-0.14243902 0.021058716 0.02504575 -0.031583317 0.028389858 -0.09666969 0.061855793 0.08145101
-0.09866817 -0.20593923 0.11094404 0.049713872 -0.10712859 0.21759765 -0.09240147 0.14394917
0.106780425 -0.17695105 0.13607147 -0.18790965 -0.107211456 -0.054500073 -0.13155639 0.23174244
-0.04964898 0.08488387 -0.18443601 0.12588897 -0.074052505 -0.15965283 0.038146276 0.09408254
0.18820454 -0.1452724 -0.09127912 0.035942018 0.059874773 0.08483846 0.13348348 -0.041175153
0.122172885 0.14898255 -0.05449838 0.16296409 0.09607191 0.1897868 -0.12493062 -0.09536251
-0.07219649 0.02100676 0.12930863 -0.1328103 0.09839616 -0.0646865 0.12337342 -0.007816152
-0.1789825 -0.12605947 -0.16171664 0.09780567 -0.13537546 -0.019936232 0.05210557 -0.13586302
0.058229424 -0.20686527 -0.15169258 -0.19296496 -0.08116513 -0.06852624 0.033418123 -0.047730263
0.10505873 0.18906389 0.077278584 -0.08638074 -0.19570446 0.07899042 -0.11458463 0.0962556
0.12554418 0.098225564 0.20052886 0.21415035 0.0478539 -0.15801525 0.19073647 -0.10151192
-0.09440566 0.16989784 0.16947193 0.064972684 0.0118532395 -0.17667066 -0.02041346 0.20565619
0.05310423 0.016980635 -0.042792525 -0.0707515 0.13331556 0.010104666 0.13164578 -0.04604195
0.099509604 0.089987524 0.031998612 0.124200545 0.13645908 0.19709408 0.16943476 -0.06440317
-0.17039932 0.029575974 -0.010627588 -0.057771046 -0.033557117 0.02002264 0.16753288 0.05325246

sage1.lin_l.weight f4 [128, 128]
00000000: 04a7 9b3d a3a8 ddbc 340d 043d c188 3b3c
00000010: 9537 68bd 30f9 74bd 65aa 673d e480 0bbd
00000020: dd06 833d d631 923c aa63 0b3c f3bf 2d3d
00000030: 7223 f4bc 3742 e0bc d20f a03c e8ce 993c
00000040: 2820 253d dc6f 783d 1f2c 933d ae42 303d
00000050: 1e7d 3e3c ff8c 96bd ffdb 07bd 1f98 8cbc
00000060: 2ef6 a33c da28 59bd e17c 05bd 2709 823d
00000070: 7332 40bd 9340 143c 9f48 8a3c b4c6 26bb
00000080: 95e4 183c 6b4f a83d 18e4 623d b181 2f3d
00000090: 7027 f8bc 112b 89bd c2f7 7e3d 2c99 6cbd
000000a0: e2e9 1cbd 2812 31bd 2734 45bb 96b6 e93c
000000b0: 5785 093d 0095 a33c 1e0f 93bd b0b1 de3c
000000c0: ddd0 56bd 7789 333d 28d1 a6bd f142 903c
000000d0: 130b b8bd 07ad 8b3d 4e70 0a3d df95 c1bb
000000e0: eac4 af3a 8757 a7bb 61e7 77bd 9c1b 79bd
000000f0: b4ee 5dbb f2c7 5b3d 885c 1e3d fc34 693d
00000100: 0c4a 923d 438e f93c 2880 3ebd 6d01 b43c
00000110: d2a0 26bd 8208 45bc fd75 3dbd 43c6 543d
00000120: 592b 52bd f5f5 903d d357 243d 0cf8 403d
00000130: 8faf 6d3d fade 863c af74 0dbd 1ce3 193d
00000140: d93b 973d 4048 803d e48c 79bd 253b 123d
00000150: 08d7 d9bc a45a 953d ef2f 0fbd f95b 41bc
00000160: 33d8 033d 48d4 96bd 4734 983c 8f35 433d
00000170: 285e 55bc 1a61 b9bd f914 aabd ac11 82bd
00000180: 4628 a2bd cdff 113d 95c6 92bc b25f c4bc
00000190: c6cd 6f3d 4fe7 6b3c a327 7fbd 4926 bc3c
000001a0: efae 2e3d 21c8 26bd caee 043d 2836 0ebd
000001b0: 6275 9bbd 1877 44bd 48ef 35bd 0676 5b3d
000001c0: 2881 9e3d e4c6 66bd cce5 553d c268 0bbd
000001d0: a64b b0bc 882b fa3b 5493 3d3c c142 343c
000001e0: 88b6 babd b214 9c3c aeaa b1bd d8c8 b33d
000001f0: ab1f b53d c9bd 9fbd a9b8 2e3d b334 863d
00000200: 70b8 4bbd 065c 453c 6a10 26bd c8e4 86bd
00000210: 927c 25bd b135 1abd fe89 66bd 72d4 b73b
00000220: 8d70 b03d 028a d23c 8b27 abbb 5837 b8bd
00000230: f862 283d 6d5c 9e3d e1f9 62bc e54d ab3d
00000240: 7f51 a53d 1348 023d f101 9dbd 1574 babc
00000250: 728c 30bc 5b54 0cbb 2978 1bbd 2ad9 0dbd
00000260: dc6a 72bc 9054 2dbc 1d5b 95bd cf09 46bd
00000270: 7f31 e33c 720d 8c3d 63ee 9a3d ffeb 643d
00000280: 17f0 b3bd 6a07 51bc 4cb5 24bd b68e 0d3d
00000290: ee44 b03d 14d6 673d 7d4f 6a3d ef37 40bd
000002a0: d09d a53d 3c99 6dbd add9 83bd 3679 323d
000002b0: 022e 913d 7b17 493d 2766 bebd e105 363d
000002c0: 048e 02bd 7092 9e3c 2566 53bd fbfa 1fbd
000002d0: 5244 b5bc fad7 2a3b fcd2 133d 7742 2ebd
000002e0: 7122 17bd ce1a 4a3d 898d 03bd 110d 81bd
000002f0: c8c9 77bb f5b9 213d fcea 57bc 6766 b63a
00000300: 305e 9e3d 843d 0d3d ed70 123c 3e48 743d
00000310: c71e 5abc f66c 30bd 1919 033d 605b 6dbd
00000320: 5300 033d 4cb7 5b3d 505b 453d f196 5b3c
00000330: c7fa 6d3d 797e 5e3d feb4 533d c095 88bd
00000340: d164 393c 626a 433d ec41 933d 5deb a83d
00000350: 9d20 a3bd 8396 973d 6283 a23c df91 32bd
00000360: 007b a2bd 4747 053d 833f 853d 69cd 7b3d
00000370: d34c 423d 7d67 8fbd 516c acbd 53ba 9bbc
00000380: 2552 39bd b298 6abd 87a2 a7bd eeb6 0f3d
00000390: 30a6 f73c f0bc 213d 6b86 5dbd c325 59bd
000003a0: 6738 1f3c 74d4 563d 0662 593d 3176 e23c
000003b0: 54aa d7bc 592d a73c 04b3 aebc 5a3c 733d
000003c0: 3a9a 913d 7194 9c3b 7d16 09bc 240b 9f3d
000003d0: 3eb5 7abd 9cf4 07ba 9803 763b 2c64 09bd
000003e0: 2ec7 e3bb f884 67bd 794a 583b 1782 4b3d
000003f0: 8986 6b3d 1689 8a3d 1492 173d b98f aa3d
0.07600215 -0.027057951 0.032239154 0.011446179 -0.056693632 -0.059807956 0.056558985 -0.034058467
0.063977934 0.01784603 0.0085076485 0.042419385 -0.029802058 -0.027375324 0.019538794 0.018775418
0.04031387 0.060653552 0.0718615 0.04303234 0.01162651 -0.073511116 -0.03316879 -0.01716238
0.020014849 -0.053017475 -0.032589797 0.06349402 -0.046923112 0.009048599 0.016880332 -0.0025448026
0.009331842 0.08218273 0.05539331 0.042848293 -0.030292243 -0.066976674 0.062248 -0.057763264
-0.038308986 -0.043230206 -0.00300909 0.028529447 0.03357443 0.01996851 -0.07180618 0.027184337
-0.05244528 0.04383227 -0.08145362 0.017610045 -0.08986487 0.06820112 0.03379851 -0.0059077586
0.0013410125 -0.0051068696 -0.060523394 -0.060817346 -0.0033864202 0.05365748 0.038662463 0.056935295
0.071430296 0.030463343 -0.046508938 0.021973336 -0.040680714 -0.012025954 -0.0462551 0.05194689
-0.05131087 0.070781626 0.04012282 0.047111556 0.058028754 0.016463745 -0.034535106 0.037570104
0.07384462 0.062637806 -0.06092538 0.035700936 -0.026591793 0.07292679 -0.034957822 -0.011801713
0.032188606 -0.07364708 0.018579615 0.0476585 -0.013022937 -0.09051724 -0.083047815 -0.06351027
-0.07917838 0.03564434 -0.017916957 -0.023971412 0.05854585 0.01439841 -0.06229366 0.022967475
0.0426473 -0.0407182 0.03245429 -0.034719616 -0.07590748 -0.04796514 -0.04441765 0.053579353
0.07739478 -0.05634202 0.052221105 -0.03403545 -0.021520447 0.007634584 0.01157077 0.0110022435
-0.09116846 0.019052837 -0.08675133 0.08778542 0.08843931 -0.077998705 0.042656574 0.0655302
-0.04973644 0.012045866 -0.040542997 -0.06586605 -0.040402003 -0.03764886 -0.056283943 0.0056100423
0.08615217 0.025700573 -0.0052232197 -0.08994931 0.04111001 0.077324726 -0.013853521 0.083644666
0.08072185 0.031807017 -0.07666386 -0.02276043 -0.010775672 -0.0021412584 -0.03795639 -0.034630932
-0.014795985 -0.010579243 -0.07292769 -0.048349198 0.027733563 0.06838502 0.07565 0.055889126
-0.08786028 -0.012758115 -0.04021196 0.034559928 0.08606897 0.056600645 0.057204712 -0.046928342
0.08086741 -0.058007464 -0.06438003 0.043572627 0.070888534 0.04909466 -0.09296828 0.0444392
-0.031873718 0.019356936 -0.051611084 -0.039057713 -0.022127304 0.0026068673 0.036089882 -0.042543855
-0.03689808 0.04934197 -0.0321174 -0.0630132 -0.003780948 0.039483983 -0.013178583 0.0013916016
0.077328086 0.034482494 0.008938056 0.059639208 -0.013313002 -0.043072663 0.032006357 -0.05794847
0.03198273 0.053641602 0.048182786 0.013402686 0.058100488 0.054319832 0.05168628 -0.066691875
0.01131554 0.047708876 0.07190308 0.08248017 -0.07965205 0.07401755 0.019838039 -0.043596145
-0.07933617 0.03253868 0.065062545 0.06147519 0.047436547 -0.07002161 -0.08419097 -0.019009745
-0.045244355 -0.057274528 -0.081852965 0.035086565 0.030230612 0.039486825 -0.05408327 -0.053014528
0.009718037 0.052448705 0.053071998 0.027644249 -0.026326336 0.020407366 -0.021325596 0.059383728
0.071094945 0.004778438 -0.008367178 0.07765797 -0.061208002 -0.0005186291 0.0037538763 -0.033542797
-0.0069512343 -0.056523293 0.0033003374 0.04968461 0.05750135 0.06764428 0.037004545 0.08328194

sage1.lin_l.bias f4 [128]
00000000: c894 5abd f473 c3bd 9177 01bd df32 273c
00000010: ae3b 0b3c e9e2 a33b 9f66 b7bd c9d2 0dbd
00000020: 6bdb 49bd e000 b0bc b9ba 59bd 5673 8abc
00000030: e482 a8bc ff32 93bd 9837 353d 49df 183d
00000040: ff5a 703c aa1b 233d c8a6 29bc 9b6a 813b
00000050: fddb b8bd 2aba 843d 2575 853d aa63 efbc
00000060: a41e 923d a9e2 f8bc e5c4 1c3d 7b32 0bbd
00000070: 5003 5ebd 6a45 4bbd 7979 893d 05a1 d1bc
00000080: 1953 71bd 2174 783c ba5f 5ebd 8f8f 82bd
00000090: 4104 59bd 87f0 64bd 0720 75bd 4a79 9d3c
000000a0: 3278 12bd dfbf 153c 34e5 983d be4b ab3c
000000b0: d726 d53d 4a23 6b3d 2595 023c 6f2a 2f3d
000000c0: e0c4 9b3d e96d 80bd aae8 8abd b3f5 8a3d
000000d0: a35c 463d fabe 873c a473 233c 2e37 41bd
000000e0: 2610 073d f4d5 62bc e690 57bb 2f55 a33d
000000f0: 5df1 5f3d 48cc 1abc ce92 25bc 009c 68bd
00000100: fa1c 153d 8734 a93d 179d 66bd 0346 7ebd
00000110: abe7 503d 9e77 abbd 8c6f ba3d 9f85 af3c
00000120: 16a8 853d a12b c23b f18a d23c 6438 89bd
00000130: 8a84 3cbc 78ef 7f3d 1179 26bd 2002 973d
00000140: d765 84ba 8df7 4cbd 578a 64bd 6638 95bd
00000150: fb11 613c 1a0d 53bd 937e d73c cdb4 c7bc
00000160: 869d 5f3d a7f7 653d d462 99bd 0737 6cbd
00000170: d48a 7d3d ca4b f4bc 7081 93bd be63 43bd
00000180: 365a b4bd 457c 55bd c0c3 dcbb 391f 813d
00000190: 793a 843c 5fe4 833c c5d0 183c 476a 7cbd
000001a0: 34b2 593d ed46 703d 4daa e63c aaa4 a93d
000001b0: 0ab7 a83d d986 403b 0abd fdbc ecf3 833d
000001c0: c255 15bb 4bb8 03bd 6275 a0bc fe08 923c
000001d0: 6ca6 21bd 0683 433d 90fa 88bd 624a b339
000001e0: 9ce4 9ebd 2f02 233d b0c1 5fbd d742 4dbc
000001f0: da39 893d c2dc 053d d0ee 8cbb a66c 293d
-0.053364545 -0.09543601 -0.031608168 0.010205 0.008498115 0.005001415 -0.0895512 -0.03462485
-0.04928152 -0.021484792 -0.05315659 -0.0169007 -0.020570226 -0.07187461 0.04424247 0.037322316
0.014670133 0.039821304 -0.010354705 0.003949476 -0.090263344 0.064808205 0.06516484 -0.029222328
0.071347505 -0.030381517 0.03827371 -0.03398369 -0.054202378 -0.049626745 0.06712622 -0.025589475
-0.05891714 0.015164406 -0.05429051 -0.06375038 -0.052982572 -0.055893447 -0.059844997 0.019222874
-0.03575916 0.009139984 0.07465592 0.02091014 0.10407799 0.0574067 0.007970129 0.042765077
0.0760591 -0.06270964 -0.067826584 0.06785145 0.04842819 0.016570557 0.009976301 -0.047171764
0.032974385 -0.013844956 -0.0032892763 0.07975232 0.05467354 -0.0094481185 -0.010105802 -0.0567894
0.036404587 0.08261972 -0.056302156 -0.062078487 0.051002186 -0.083724245 0.09103307 0.02142602
0.065262005 0.005925611 0.025701018 -0.06700209 -0.011506209 0.062484235 -0.0406428 0.07373452
-0.0010101151 -0.05004077 -0.055795994 -0.07286148 0.013737197 -0.051526166 0.026305472 -0.024378205
0.054593585 0.056144383 -0.07489553 -0.057669666 0.061899975 -0.029821295 -0.072024226 -0.047702543
-0.08806269 -0.052120466 -0.0067372024 0.063047834 0.016141163 0.016100107 0.009327118 -0.06162479
0.053148463 0.05866139 0.028157378 0.0828336 0.08238037 0.002937725 -0.03097393 0.06443009
-0.0022786711 -0.032158177 -0.019587222 0.017826553 -0.039465353 0.047732376 -0.06688416 0.0003419696
-0.077584475 0.039797004 -0.054628074 -0.012528143 0.067004874 0.032681234 -0.0043009296 0.04136338

sage1.lin_r.weight f4 [128, 128]
00000000: d01d 9a3c e5cb 6b3d fcf3 7a3c a979 4f3d
00000010: 03f8 653d 29ec 7ebc 7184 ae3d 71f8 963c
00000020: 4f62 7a3d 9ec3 94bd abf6 adbd c1ac 7b3c
00000030: fe09 bf3c a2a5 fdbc 8a62 00bd 0ddc 9c3c
00000040: 167b a43d 4dc1 913c 26d4 833d c7b0 893d
00000050: 6dff 233d 4b31 f23b 6d21 cabc 05bb 86bd
00000060: fea8 753d 31f4 b7ba 3ed2 1cbd a133 41bc
00000070: 8956 1dbd 2647 b0ba f7a2 543d 475c 883d
00000080: 630b 71bd a704 dc3c 848d 0dbd 2623 b1bd
00000090: b456 473d 49e4 8d3d 27af 943d f0b8 b03d
000000a0: 5e53 b8bc 5bd1 9b3c 0ea4 d93c b377 77bd
000000b0: df68 b53d 1b85 9ebd efec 683b 7909 e8bc
000000c0: 337d 1d3d 75d1 8a3d a64a 74bb 9af1 2bbd
000000d0: ddad 953d 26f7 9abd b90f b5ba 40a9 8fbd
000000e0: b574 05bb 3200 963d 61b0 1d3d 1064 01bd
000000f0: 123b 19bd 53e7 be3c 506c 47bd fea4 8ebd
00000100: d92d 8c3d f6d7 c13c d3c4 79bd 424b a0bd
00000110: 63c3 2a3d e8d2 9abc c921 3abd 3894 d23d
00000120: c8fc 223d 41bd aa3d d010 743c 33a4 1a3b
00000130: b36e 6bbd c296 0b3d f8bb c6bc 37ba 2bbc
00000140: 6bb9 a53b 766a a13d 1070 013d 233f b7bd
00000150: f7a8 523c 50dd 8b3d 03ff dfbb f130 ac3d
00000160: 84d5 18bd 2d2b 83bd 60ad a23d 212e d4bc
00000170: 9a14 833d 387f 653d 6aa2 52bd 04cd 95bd
00000180: 5ecf 09bc 413b 31bd 7e01 873d 9e8f 5c3d
00000190: 68c6 a63d a2da 2fbd cefb 983c dabd bb3b
000001a0: c9bf 4cbd b8c7 0abd 5fad 443d f2b9 933b
000001b0: da77 9f3d 2dff e43b 64ba fe3c bbc0 303d
000001c0: 8609 81bd 0e80 86bd 26b3 40bd ae20 08bd
000001d0: d8c1 d73c f311 22bd 4e32 adbd f30f cebc
000001e0: 751a a0bd 8cdb 7436 cc0f 98bd 2398 ce3a
000001f0: b646 8bbd 3514 8ebd a45f 7b3d 4d42 b33d
00000200: 991f 50bd 9dea 853c bd31 85bd 4862 72bd
00000210: db71 96bd 2aa0 73bd 9718 c53d 0aaa f23c
00000220: f534 343d ebdc 2cbd 638b 2a3d 5e39 003d
00000230: 6ca0 dd3c f069 db3b 86b9 2fbd ab53 1c3d
00000240: d4dd 893d 5472 30bc ae26 923d 3f97 4b3c
00000250: 078f f63c 792e 873d 6944 c7bb b42a a63c
00000260: 84be dfba e60b 8abd 50ea 403c a5c1 083d
00000270: 3799 813c 9235 a13c b66b 9ebc 91d5 8a3d
00000280: aebb 8bbd 226d 093c c1b9 d6ba 3f6f 003d
00000290: feb4 babc 9489 b63c b852 88bd a61a 293d
000002a0: 64ee acbc 4b69 883d e3cc a73d 0150 af3d
000002b0: f63e 2cbd b47f 433d aa6c 18bd bb1e 8d3c
000002c0: 48c1 213d f4d9 8fbd f4f7 c3bd 6b35 273c
000002d0: bb1b 953c 7b12 42bd d677 223d e695 823d
000002e0: 2bee 18bc d8f8 92bd 0eb6 e53c b2c8 21bd
000002f0: 2923 77bb 327f 94bc 1b8a 533d 4cd2 d63c
00000300: 9f80 68bd 9d89 93bd 4b7e 29bd 58a6 abbd
00000310: 741f 0d3c 8919 06bd 1bed cdbc 84b1 89bd
00000320: 1728 9a3d 51b5 18bd 6a58 febc 8fdf 873d
00000330: a313 14bc be7e 5fbc e035 483d 51e5 eebc
00000340: c96f 853d 0fda 803b eb01 533d 41db 483c
00000350: 2c1a 05bd acfd 16bd d4e0 1b3c 2a28 68bc
00000360: 4e51 753d bdc3 6c3d eb0c 29bd 271a 3abd
00000370: d345 22bc 2c10 893d 3dce ae3b 8ef3 9c3d
00000380: 4403 f63c a5ce 643b 7f33 8bbd ac62 af3b
00000390: 84fe 4abd 84bc 25bd bbac 313d 57ac 50bd
000003a0: f8be 0abd acb6 a03d edc6 b8bc 6c49 78bd
000003b0: 37dd 8ebc 7d21 733b 1c8f 8cbd ee08 9cbd
000003c0: f7bd 9ebd 3acb 2b3b 23e4 bfb8 0f45 9dbd
000003d0: 09a6 74bd 9c9f ab3b 3dd3 babd a5c3 46bd
000003e0: 6bb8 07bd 1e0c a0bd b56c bebb 5481 9cbc
000003f0: afdc ad3c 3269 643c 1023 3e3d b87a afbc
0.018813044 0.057567496 0.0153169595 0.050653134 0.056144726 -0.015559235 0.08521355 0.018429013
0.06112891 -0.072638735 -0.08494314 0.015361012 0.023320194 -0.030962769 -0.031343974 0.019147897
0.08031289 0.017792368 0.064369485 0.06723171 0.040038515 0.00739113 -0.024674142 -0.0657864
0.059975617 -0.0014034567 -0.03828644 -0.011792094 -0.038412604 -0.0013448938 0.051913228 0.066582255
-0.05884875 0.026857687 -0.034558788 -0.08649282 0.04866667 0.069283076 0.0725997 0.08629024
-0.02250069 0.019020727 0.026567485 -0.06041689 0.08857893 -0.077402316 0.0035541614 -0.02832483
0.038449477 0.06778232 -0.003727594 -0.041978456 0.073085524 -0.07566671 -0.001381389 -0.07014704
-0.0020363752 0.07324256 0.038498286 -0.031589568 -0.03740985 0.023303663 -0.04868728 -0.069650635
0.06844682 0.023662549 -0.06097872 -0.07826854 0.04169024 -0.018899396 -0.045442376 0.10282177
0.039791852 0.083368786 0.014896587 0.0023596406 -0.057478618 0.03407932 -0.024259552 -0.010481409
0.005057504 0.07881634 0.03160101 -0.08947589 0.012857667 0.068293214 -0.0068358197 0.08407772
-0.037313 -0.064047195 0.07943225 -0.025900902 0.06400414 0.05602953 -0.05142442 -0.07314494
-0.008411257 -0.0432694 0.065920815 0.0538479 0.08143312 -0.042933114 0.018674757 0.005729419
-0.049987588 -0.033881873 0.048016902 0.0045082504 0.07786532 0.006988427 0.031094737 0.043152552
-0.063006446 -0.06567393 -0.04704585 -0.03323429 0.02633755 -0.0395679 -0.084568605 -0.02515409
-0.07817546 3.6486626e-06 -0.07424888 0.0015761893 -0.068005964 -0.06937448 0.061370507 0.0875288
-0.050811384 0.016347224 -0.065036274 -0.05917576 -0.07345935 -0.059478916 0.09623831 0.029622097
0.043995816 -0.04220287 0.041636836 0.03130471 0.027054034 0.0066959783 -0.04290154 0.03816573
0.067317635 -0.010769445 0.07136284 0.012426197 0.030097498 0.06600661 -0.006081153 0.020284034
-0.0017070328 -0.06740551 0.011774614 0.0333878 0.015820129 0.019678865 -0.01933847 0.06779016
-0.068229064 0.008387836 -0.0016382263 0.031356093 -0.022791382 0.0222824 -0.06656402 0.04128518
-0.021109767 0.06660708 0.08193376 0.085601814 -0.04205223 0.04772921 -0.037213005 0.017226567
0.039490968 -0.07023993 -0.09568778 0.010205607 0.0182017 -0.047380906 0.039665066 0.06376247
-0.009334127 -0.071763694 0.028040912 -0.03949804 -0.0037710166 -0.018127058 0.05164538 0.026223324
-0.056763288 -0.07203982 -0.041380208 -0.08381337 0.008613456 -0.032739196 -0.025137475 -0.067233115
0.07527178 -0.03728229 -0.031048018 0.06634437 -0.009037885 -0.013641058 0.048879504 -0.029162081
0.06515462 0.0039322446 0.0515155 0.012259305 -0.032495663 -0.036863014 0.009514052 -0.014169732
0.05989199 0.057803858 -0.041272085 -0.045435097 -0.009904343 0.06692538 0.005334644 0.07663642
0.030030854 0.0034913209 -0.067969315 0.005352339 -0.04955913 -0.040462986 0.04337762 -0.050945606
-0.03387353 0.07847342 -0.022555793 -0.060616896 -0.017439468 0.0037098818 -0.068632334 -0.07618891
-0.07751077 0.0026213662 -9.1500835e-05 -0.076791875 -0.059728656 0.005237533 -0.09122322 -0.048526425
-0.03313486 -0.07814811 -0.0058112987 -0.019104637 0.021223394 0.013941096 0.046420157 -0.021420822

sagpool.gnn.lin_rel.weight f4 [1, 128]
00000000: 9fa3 aebd 3b9f 313d 28e3 403d e4d8 e0bc
00000010: 02d9 0f3d 3002 5d3d f22c 633d c2c8 8f3d
00000020: 38ae c4bc a94c febc 3ef7 763d e2eb 7d3d
00000030: 7bf4 b4bd fb05 99bd daaf 93bd 15a6 783d
00000040: 82b1 ba3c 3d35 3bbd 50f6 653c fab3 ff3a
00000050: 9f68 5b3c 4fb4 05bd 5c5b 123d 4792 95bd
00000060: 22ce 9d3c eb6c 5d3d 519a 2a3d 004f 6abd
00000070: b5f1 04bd 956c a03d 32b7 44bd 9290 933d
00000080: 3342 8fbd 8aee 6bbd 5882 06bb 6996 1f3d
00000090: b979 ecbc da33 b4bc 9073 373d e347 593d
000000a0: f6a8 9f3b 593f 523c 807f a63d 8c87 183d
000000b0: e00f 13bd 1b3a a9bd cafa 32bd d35e d23c
000000c0: 0c0a adbd a8c4 d93b 992b 8abc ab40 81bd
000000d0: d8ac 293d 4240 163d 2de1 a03d 6089 bdbd
000000e0: dce0 76bd 7fbc 603d 46dd 90bd 380a 993d
000000f0: 5858 893d 265b d7bc fc47 773d 6ca2 bf3c
00000100: 91db 85bc 177a d83b b608 bebc c53d 81bc
00000110: f3cf 873d d4bc b8bd 3f76 26bd edbd afbc
00000120: 977c 0dbd 6dd4 99bd 533a 4f3b 4269 c43c
00000130: 711f 90bd 552e 9b3c 1cf8 b23c 5fce d5bc
00000140: d352 893d ee3e eb3b d212 cdbc 519a e03c
00000150: e7c9 483d 3d18 8abd 9f9e b5bb 06f6 113c
00000160: f01b 9dbc 7c83 093d 4fbd 703b 1c8e 853d
00000170: 329c e9bc 4726 70bd e3ca a53d fc3c ba3c
00000180: 176a 8ebb 2147 a03d 5f34 7fbd d69e 15bd
00000190: 2596 713d 6e72 a43d 23fa 943c ffc5 ad3d
000001a0: 3af9 2dbd 45bf 593d 126b 91bd 5f94 b13c
000001b0: ce0f 6e3d b5d9 ad3c 27de 363d aac3 5f3b
000001c0: d36a 1c3d dae7 b0bd f9d1 e7bb bf22 cb3c
000001d0: 31bd 233d 0a6a 98bc 4282 70bc 1d15 bcbd
000001e0: 8d25 2a3d 4e45 0a3d 88e3 0abd 1c8e 673d
000001f0: e62d 3cbc d0e7 973c a463 223d 4baf 183d
-0.08527302 0.043364745 0.047091633 -0.027447172 0.035119064 0.053957164 0.055462785 0.070207134
-0.024008855 -0.031042414 0.060294382 0.061992534 -0.088356934 -0.07471844 -0.072112754 0.060705263
0.02278972 -0.04570507 0.014035776 0.0019508593 0.013391643 -0.03264266 0.03573166 -0.07303291
0.01926333 0.05405895 0.041651074 -0.057204247 -0.032457072 0.078332104 -0.04802627 0.07205309
-0.069950484 -0.057600535 -0.0020524468 0.0389618 -0.028866636 -0.021997381 0.044787943 0.053047072
0.0048724366 0.012832486 0.081297874 0.037238643 -0.03590381 -0.08263036 -0.043696202 0.025679981
-0.08449182 0.0066457577 -0.016866492 -0.063111626 0.041424602 0.036682375 0.07855449 -0.09254718
-0.060273036 0.054867264 -0.070734546 0.07472652 0.06706303 -0.02628858 0.060371384 0.023392878
-0.016340049 0.006606351 -0.023197513 -0.015776524 0.0663146 -0.09020391 -0.040640112 -0.021452868
-0.034542646 -0.0751122 0.0031620457 0.023975972 -0.07037247 0.018942991 0.021846823 -0.026099382
0.067052506 0.0071791327 -0.025033388 0.027417334 0.049020674 -0.06742904 -0.0055425907 0.008908754
-0.01917836 0.03357266 0.003673393 0.06521246 -0.028516863 -0.058630254 0.08095338 0.022734158
-0.004346143 0.07826067 -0.062305804 -0.03652843 0.05898108 0.08029638 0.01818568 0.084850304
-0.04247401 0.053160924 -0.071005 0.021677194 0.05812054 0.021221975 0.044645455 0.0034143724
0.038187813 -0.08637972 -0.0070745912 0.024796842 0.03997535 -0.01860525 -0.014679493 -0.091837145
0.041539717 0.0337575 -0.033908397 0.05653201 -0.011485552 0.018543154 0.039645806 0.037276547

sagpool.gnn.lin_root.weight f4 [1, 128]
00000000: 4d3f 90bd 0128 9c3d 8143 47bc 601b a23d
00000010: 9033 883c 44db 42ba 0aeb 37bc 7553 bdbd
00000020: 86c7 c53c 3787 713d 2d3f fa3c 13b5 9bbd
00000030: 66ba 64bc 8da5 84bc acb4 8e3d 3235 893a
00000040: e182 b4bc edae 99bd 9384 593c 05a8 a4bd
00000050: a54c 7cbd 363a 203d fcb2 61bd 93a3 0abd
00000060: e795 843d ee3f 9d3d f51f 803d c86b 9bbc
00000070: a3f7 843b cc6f ad3d d031 8abc 772f a73d
00000080: 2545 be3a 89a6 a23d 8af8 81bd f914 8a3c
00000090: 789a e6bc b9d7 99bd d896 4dbd bb03 5b3b
000000a0: c0c5 9bbc 82e5 2dbd d21c a23d 1e76 46bd
000000b0: b099 353b 4487 773d e081 453d 3fb6 9bbd
000000c0: 754a 763d 5a88 ec3c ef8d a7bd 2252 64bd
000000d0: 2a41 8e3c b209 fc3c 7e93 9bbd 270d 8cbd
000000e0: a961 993c 3497 c1bb 48f0 da3c a4ed fe3c
000000f0: 62fb 5dbc 9449 3abd 117b 943d 1a68 8b3d
00000100: c380 93bd 5f99 c8bb 120c 763d 9fb6 92bd
00000110: 29eb 443d 8631 58bc 068f 97bd f350 8b3c
00000120: 9b64 473d 4d62 023d d4ad aebd 0d9d 3b3d
00000130: 570d 97bd bb37 8cbd aab7 15bd 1d23 2e3b
00000140: 8513 f83c c361 3b3d 4985 aabd deda 213d
00000150: 2a25 173d 8155 98bd cb9f 8bbd 20f1 803d
00000160: 34dd 0b3d f67c a1bd 0d4b 78bd 6802 df3c
00000170: d0d0 a13a e24e a6bc 6b33 40bc 8e54 14bd
00000180: c846 633d 3cd5 d4bc 3fe0 5dbd 760d 673d
00000190: 7edd 823c f3a4 9abd bbb4 a5bd 9e40 ed3c
000001a0: b233 97bd 92d0 13bd e5e2 963d 99e2 bb3d
000001b0: 7d39 3ebd 4db0 00bb 10fc 073d 81d2 673d
000001c0: 85c8 bb3c 3509 bd3d e887 2abd bd61 f8ba
000001d0: 5d98 a53d c869 29bd f357 c5bd 62a4 063d
000001e0: 6eab 85bd 6ec6 66bd 244b 883d b942 7e3d
000001f0: 6a7f 563d dcaf 613d 4ed0 a8bd 5f1f e33c
-0.07043324 0.07624818 -0.01216209 0.079153776 0.01662615 -0.0007433186 -0.011225471 -0.09244434
0.024142992 0.05896684 0.030547703 -0.076028965 -0.0139604565 -0.016192222 0.06968054 0.0010468124
-0.022035064 -0.075040676 0.013276237 -0.0803986 -0.06159653 0.039118014 -0.055102333 -0.033847403
0.06473904 0.07678209 0.06256095 -0.018972293 0.004057841 0.08468589 -0.016869456 0.0816335
0.0014516456 0.0794192 -0.06346233 0.016855704 -0.028149828 -0.07511849 -0.050192684 0.0033418972
-0.019015193 -0.042455204 0.07915653 -0.04845249 0.0027710013 0.060431734 0.04821956 -0.0760312
0.0601296 0.028873611 -0.081813686 -0.05574239 0.017365057 0.030766342 -0.07596491 -0.06838446
0.018723326 -0.0059079174 0.026725903 0.031119175 -0.013548704 -0.045480326 0.072500356 0.06806965
-0.07202294 -0.006121799 0.060070105 -0.071637385 0.04807583 -0.013195401 -0.074003264 0.017006373
0.04867993 0.03183203 -0.08529249 0.045804072 -0.07375591 -0.06846567 -0.03655211 0.0026571222
0.030282745 0.04574753 -0.083262034 0.03951537 0.036900677 -0.074381836 -0.068175875 0.06295991
0.034146503 -0.078851625 -0.06061845 0.027222827 0.0012345556 -0.020301286 -0.011731009 -0.03621345
0.055487424 -0.025980584 -0.054168936 0.05640932 0.015974756 -0.07550993 -0.08091112 0.028961476
-0.07382907 -0.03608758 0.073674954 0.091740794 -0.046441544 -0.0019636333 0.03319937 0.056597237
0.022922764 0.09230272 -0.041633517 -0.0018950027 0.080857016 -0.041360646 -0.096359156 0.03287161
-0.06526838 -0.05634158 0.06654957 0.06207535 0.052367605 0.055099353 -0.08242856 0.02772492

lin.weight f4 [64, 128]
00000000: 2c4a 8e3d f66d 9dbd d1fc 39bd 544f 59bd
00000010: 7ea7 57bd 0c24 5bbd c769 52bd e017 9f3b
00000020: 5ef3 393d 3ef2 6fbd 8e3d 553d 3c35 853d
00000030: d651 10bd c331 0abd 8fb3 96bd 038c b93d
00000040: 44c2 3d3d 7454 cabc da07 193d 3b4c 98bd
00000050: f8f7 3dbd 13f7 823d f594 a5bc d946 c13d
00000060: 44c9 bb3a 1216 c6bd a079 093c 81cb 2dbc
00000070: ba59 833d 75a5 b7bc db21 afbc 1fb0 5e3c
00000080: 5a02 c13d 61b3 8f3d dd07 2ebd 2002 73bc
00000090: 33ac 13bd c657 a8bc 03b8 ba3b e845 07bd
000000a0: 4160 123d 7f03 7d3d 91b8 c3bb d4ae 7abb
000000b0: c698 933d 5651 bdbb 8223 4cbc 015e c33b
000000c0: b6f3 1abd c4b0 00bd 4f11 d73c edc6 e8bc
000000d0: 2277 90bd 83a0 cebd ca27 cc3d b013 61bd
000000e0: 9888 2abc 834e efbc da15 b0bd 8c43 eb3c
000000f0: 7754 8d3d 13ec fc3b 959c d0bc e650 8abd
00000100: 6621 26bd 0cdf e33c eac8 633b ad77 63bd
00000110: 62a9 30bd 5b6a ad3c be44 9b3d fa14 993d
00000120: 6e4b 4d3d 03b1 ed3c 7b1c 8abd 1199 7abd
00000130: c52d 8f3d 1e3e 6e3d bc37 19bc 0b94 21bd
00000140: 68d4 103d 4606 89bd d5ef 58bd 283a 48bd
00000150: cd86 ffbc df69 d23b 3823 52bd 45a1 2bbd
00000160: a470 3cba acf4 cfbd 0d5a b53d 3706 80bc
00000170: 2335 183d 3fb8 bfbc f819 88bd dd80 9ebd
00000180: 8815 8a3d 5018 4b3d 73ef 4a3d 2af8 b6bc
00000190: 276c a43d f441 a13d 7be5 00bc 066d 46bd
000001a0: 344c 83bd d90c b3bc d327 dabc a92b 903d
000001b0: 37d5 4dbd 190b 78bc 143c cc3d 27c4 b93d
000001c0: 56b9 8f3d ea96 0c3d 9511 19bd 3389 853d
000001d0: 0f60 193b b301 55bc 2815 3ebd a305 2dbb
000001e0: cf00 883d d011 67bd 43d0 9a3d 7c7b be3c
000001f0: 219d 173d 3139 50bd 5ef2 163d 592c a7bb
00000200: 6198 c03c d643 143d 0144 a73d 32ac 78bd
00000210: 748b 94bd 62a8 8b3d c540 3b3d bf6a 4a3d
00000220: 243e 123b 4791 f93c d2e8 2cbd 00b2 8abd
00000230: fa99 fe3c b0fe f33c 653d babc 5892 2c3d
00000240: d730 5e3d 08db 1ebd 4156 fabc 8127 693d
00000250: bc22 e93c e70b 403d 9243 8f3d d83f 7d3c
00000260: 4d57 7f3d 7e03 6c3d 2db7 ca3c 6b02 38bd
00000270: 6056 533d 02f5 66bd a58c 44bd a195 a13c
00000280: fac3 a9bc 1d59 46bd 9ecb 16bd 19d6 793d
00000290: c4b2 b8bd 3c5f 2d3c bc3c 8d3b c61e 853c
000002a0: 85e4 573b 263b 303d 0596 423d b1c3 94bc
000002b0: 4d35 1e3d 4f98 a23b ac31 aa3c ca35 c53c
000002c0: 9028 98bd afc5 a0bd 65d3 adbc 6bcb 033d
000002d0: 047f 913c de02 053d 1bd7 04bd d802 ed3b
000002e0: 3ef9 90bd ccdd 0f3d cd9a 9fbc 2420 b13d
000002f0: fe30 54bc 2222 90bd 459c 113c 467d 603d
00000300: f007 db3c b0d1 f03c ca16 a43d 7107 7e3d
00000310: 7875 9b3d 914d 5bbd bbdc ac3d 899b 8abd
00000320: 6127 0abd a9b3 aebd 37eb 4a3d 2660 96bd
00000330: bea2 e3bc 09b7 46bd c5b1 693d 7189 963b
00000340: 8c1e 97bc 8cac 283d 3e0a 0bbd bddc 3fbd
00000350: 2baf 09bd dd27 28bd 6376 ef3c e69a 6bbd
00000360: b310 133d e7f8 bc3d ad85 f3ba 394e d4bc
00000370: 8f46 0fbc b71c d0bc 678b a1bd e701 24bd
00000380: 5a98 48bd 320b 09bb 11d0 5abd 5ea4 873c
00000390: fb50 b6bd adb4 61bd 85c2 a5bd 2bfb 133d
000003a0: 5e7e 4bbd cba4 ad3d fa7b 3cbc d415 2abd
000003b0: 7ecc f5bb 5fb5 aa3d b21c acbd 0cf9 0cbd
000003c0: ccf7 a13d 70a4 ca3b fd7a 39bb 67f4 0c3c
000003d0: 262d 3c3d 28d6 abbc f9b1 b03d 578b db3c
000003e0: d829 9cba e9fd 173a 336f 11bc 2c84 b73b
000003f0: fcd6 23bd 3559 adbc f968 f4bc c9f7 45bc
0.06947741 -0.07686989 -0.04540712 -0.05305417 -0.052649967 -0.053501174 -0.05137041 0.004855141
0.04539811 -0.05858063 0.052060656 0.06504294 -0.035234295 -0.033738863 -0.07358467 0.09059908
0.046327844 -0.024698474 0.037361003 -0.07436415 -0.04637906 0.06394782 -0.02021263 0.09437341
0.001432695 -0.09672178 0.008390814 -0.010607601 0.06413598 -0.022417763 -0.021378448 0.013591795
0.09424277 0.07016636 -0.042487968 -0.01483205 -0.036052894 -0.020549666 0.0056982054 -0.033025652
0.035736326 0.061770912 -0.0059729298 -0.0038251178 0.072068736 -0.0057775183 -0.012459638 0.005962134
-0.037830077 -0.031418577 0.02625337 -0.028415168 -0.07053973 -0.10089209 0.09968527 -0.054950416
-0.010408543 -0.029212242 -0.08597918 0.028718732 0.06900876 0.007718572 -0.02546529 -0.067537114
-0.040559195 0.027816318 0.0034757205 -0.055534054 -0.043130286 0.021168878 0.07581471 0.07474704
0.050120763 0.02901507 -0.067437135 -0.06118113 0.06991152 0.05816471 -0.009351667 -0.039447825
0.035358816 -0.0669065 -0.052963097 -0.048883587 -0.031192208 0.006421312 -0.05130312 -0.041901845
-0.00071884156 -0.10154089 0.088550664 -0.015627963 0.03716005 -0.023403285 -0.06645578 -0.077394225
0.06742388 0.049583733 0.049544763 -0.02233513 0.08028441 0.07873908 -0.007867212 -0.048443817
-0.06411019 -0.021856712 -0.026630318 0.070395775 -0.050252166 -0.015139365 0.099723965 0.09070616
0.07017772 0.03432361 -0.037370283 0.06520309 0.0023403203 -0.013000893 -0.046406895 -0.0026401065
0.06640779 -0.05641347 0.07559254 0.023252241 0.037015084 -0.050835792 0.036852233 -0.005101722
0.02351016 0.036197506 0.081672676 -0.060711093 -0.07253161 0.06819226 0.045716066 0.049418207
0.002231487 0.030464781 -0.042214222 -0.06772232 0.031079281 0.02978453 -0.022734353 0.04213175
0.054245796 -0.038783103 -0.030558707 0.05692244 0.028458945 0.04688635 0.0699531 0.015457116
0.062339116 0.057620518 0.024745548 -0.04492418 0.051596045 -0.056386 -0.04798569 0.019724669
-0.020723332 -0.04842483 -0.03681528 0.060995195 -0.09018472 0.010581788 0.0043102186 0.016250025
0.0032942605 0.04302516 0.04750635 -0.01815972 0.03862505 0.0049620043 0.020775639 0.0240735
-0.07429612 -0.07850205 -0.021218965 0.032176416 0.017760761 0.032473437 -0.032431703 0.007233005
-0.07078789 0.03512363 -0.019482994 0.086487085 -0.012951134 -0.0703776 0.008887355 0.05480697
0.026737183 0.029396862 0.08012159 0.062018815 0.07590765 -0.05354077 0.084405385 -0.06767947
-0.03372896 -0.08530361 0.049540725 -0.073425576 -0.027787562 -0.0485144 0.0570543 0.004594021
-0.018447183 0.04118018 -0.033945315 -0.04684137 -0.03361432 -0.04105364 0.029231256 -0.05752077
0.035904597 0.09227162 -0.0018579267 -0.025916206 -0.00874485 -0.025404317 -0.07887917 -0.040040877
-0.04897342 -0.0020911214 -0.053421084 0.016557869 -0.089021645 -0.055103946 -0.08093742 0.036128204
-0.04968106 0.084786974 -0.011504168 -0.041524723 -0.007501184 0.08335375 -0.08403911 -0.034417197
0.07908592 0.0061841533 -0.0028302066 0.008603192 0.045941494 -0.020976141 0.086276956 0.02679984
-0.0011914326 0.00057980284 -0.00887661 0.005600473 -0.039999947 -0.021160701 -0.029835211 -0.012083002

lin.bias f4 [64]
00000000: 13f7 04bc 6808 833d c4c8 833c 7c6b 733d
00000010: c22c f53c d7c0 383d 8e14 fdb9 c2cb 96bc
00000020: ce77 423d 48f5 7cbd c476 93bd 0410 55bd
00000030: bc7c ee3c 824a 7b3d 5f7e 03bc 8668 fa3c
00000040: 0ab2 ef3c a247 023d 5a80 463d f8dd d3bc
00000050: 7751 ad3d aabb b03d a98b ff3c 054d 663d
00000060: 72f1 7abd 4217 583d fb3e 30bd 8a64 c9bc
00000070: 48c7 52bd 755d 393d 89e4 81bc e891 77bd
00000080: 1e25 04bd 5f95 abbd 7c52 57bd 25b9 8c3d
00000090: f1dc 92bd ac28 e63b b4a5 213d 1b83 a3bd
000000a0: 6c15 ee3c 4a13 a23d 2df7 2bbd 1ff8 373d
000000b0: 7180 abbd 77b5 5cbd 0716 9f3d bdd8 903d
000000c0: 3008 68bd 0b28 9e3d 0011 b3bc cbcf 78bc
000000d0: b846 8e3d 508c 93bd e7c9 003d b6d8 a13d
000000e0: 824e b13d 9c73 963c 3014 3e3d 0bdf 94bc
000000f0: 77d4 d43b 4313 d6bc ceed 6f3c ed23 09bd
-0.008115548 0.06398088 0.016086943 0.059428677 0.029928569 0.04510578 -0.00048271235 -0.018407706
0.047477536 -0.061757356 -0.07200387 -0.052017227 0.029112212 0.061350353 -0.008025735 0.030567419
0.0292597 0.031806596 0.04846225 -0.025862679 0.08462804 0.08629544 0.031194525 0.056225795
-0.061265416 0.052756555 -0.043028813 -0.024584074 -0.05145958 0.045255143 -0.015856044 -0.06044188
-0.03226196 -0.083781 -0.052568898 0.06871251 -0.071710475 0.0070238914 0.039464667 -0.07983991
0.02906295 0.07913835 -0.041983772 0.04491436 -0.08374108 -0.053883996 0.07767873 0.070725895
-0.056648433 0.07722481 -0.021858692 -0.01518626 0.06947082 -0.07204497 0.03144255 0.079026625
0.08657552 0.018365674 0.04640597 -0.018172761 0.0064950543 -0.026132232 0.014644099 -0.033481527

fc.weight f4 [1, 64]
00000000: b13d 61bd 3a2b 063e 9878 f2bd ccac a6bd
00000010: 186d 0e3e 7e36 bb3d 3b8c ec3d 3e13 9e3d
00000020: 1c5b a8bd 8cd6 9a3d 9d06 a83c 36a7 c8bc
00000030: ba55 bfbd ddbe 92bd d4ce f63d b3d0 a03d
00000040: 9db7 8dbd 55dc c0bd 98d9 e53c 8770 313d
00000050: 2b24 1abd 7e77 153e 4cdd d1bc 892d 883d
00000060: 3c1b 153e af71 f03d d6d2 e3bd 1912 80bd
00000070: 11ed 9b3d c1fb 503d 99fa f6bc 501a 8e3d
00000080: ba9a c1bd f018 ddbc d54b 0cbe 9ca0 35bd
00000090: 8012 e0bd f6ef 09bd 5cdb edbd 710c c83d
000000a0: 58bc f4bd c480 98bd 764c 7dbc 5404 123e
000000b0: 94b1 1bbd 5c60 cbbc d076 0a3e a1ea 03be
000000c0: 530c 203d c228 0c3e 7b35 d13d 5943 bcbd
000000d0: 3b15 f93c 5a46 9c3d c182 313d ee33 b6bd
000000e0: b708 a23d 6cf2 cb3d ab5b 153e 35b0 cbbd
000000f0: 1c12 af3d a974 d4bd 6b42 c0bd debd abbd
-0.054990474 0.13102427 -0.11839408 -0.08138427 0.13908803 0.09141253 0.11550184 0.07718514
-0.08220503 0.07560453 0.020510966 -0.024493795 -0.09342523 -0.071653105 0.12051168 0.07852306
-0.06919787 -0.09417025 0.028057858 0.043320205 -0.03763215 0.14596364 -0.025618218 0.0664931
0.1456117 0.117404334 -0.11124198 -0.06253452 0.07613576 0.05102134 -0.030148791 0.069386125
-0.0945334 -0.02698943 -0.13700803 -0.044342622 -0.109410286 -0.03367611 -0.11614105 0.09767998
-0.11949986 -0.07446435 -0.015460124 0.14259464 -0.03801115 -0.024826221 0.13521886 -0.12882473
0.039074253 0.13687423 0.10215279 -0.09192533 0.030405631 0.07630606 0.043337587 -0.088966236
0.079118185 0.09958348 0.1458575 -0.09945718 0.08548376 -0.10373814 -0.09387668 -0.08385824

gcn_batch_norm.weight f4 [128]
00000000: 0000 803f 0000 803f 0000 803f 0000 803f
00000010: 0000 803f 0000 803f 0000 803f 0000 803f
00000020: 0000 803f 0000 803f 0000 803f 0000 803f
00000030: 0000 803f 0000 803f 0000 803f 0000 803f
00000040: 0000 803f 0000 803f 0000 803f 0000 803f
00000050: 0000 803f 0000 803f 0000 803f 0000 803f
00000060: 0000 803f 0000 803f 0000 803f 0000 803f
00000070: 0000 803f 0000 803f 0000 803f 0000 803f
00000080: 0000 803f 0000 803f 0000 803f 0000 803f
00000090: 0000 803f 0000 803f 0000 803f 0000 803f
000000a0: 0000 803f 0000 803f 0000 803f 0000 803f
000000b0: 0000 803f 0000 803f 0000 803f 0000 803f
000000c0: 0000 803f 0000 803f 0000 803f 0000 803f
000000d0: 0000 803f 0000 803f 0000 803f 0000 803f
000000e0: 0000 803f 0000 803f 0000 803f 0000 803f
000000f0: 0000 803f 0000 803f 0000 803f 0000 803f
00000100: 0000 803f 0000 803f 0000 803f 0000 803f
00000110: 0000 803f 0000 803f 0000 803f 0000 803f
00000120: 0000 803f 0000 803f 0000 803f 0000 803f
00000130: 0000 803f 0000 803f 0000 803f 0000 803f
00000140: 0000 803f 0000 803f 0000 803f 0000 803f
00000150: 0000 803f 0000 803f 0000 803f 0000 803f
00000160: 0000 803f 0000 803f 0000 803f 0000 803f
00000170: 0000 803f 0000 803f 0000 803f 0000 803f
00000180: 0000 803f 0000 803f 0000 803f 0000 803f
00000190: 0000 803f 0000 803f 0000 803f 0000 803f
000001a0: 0000 803f 0000 803f 0000 803f 0000 803f
000001b0: 0000 803f 0000 803f 0000 803f 0000 803f
000001c0: 0000 803f 0000 803f 0000 803f 0000 803f
000001d0: 0000 803f 0000 803f 0000 803f 0000 803f
000001e0: 0000 803f 0000 803f 0000 803f 0000 803f
000001f0: 0000 803f 0000 803f 0000 803f 0000 803f
1.0 1.0 1.0 1.0 1.0 1.0 1.0 1.0
1.0 1.0 1.0 1.0 1.0 1.0 1.0 1.0
1.0 1.0 1.0 1.0 1.0 1.0 1.0 1.0
1.0 1.0 1.0 1.0 1.0 1.0 1.0 1.0
1.0 1.0 1.0 1.0 1.0 1.0 1.0 1.0
1.0 1.0 1.0 1.0 1.0 1.0 1.0 1.0
1.0 1.0 1.0 1.0 1.0 1.0 1.0 1.0
1.0 1.0 1.0 1.0 1.0 1.0 1.0 1.0
1.0 1.0 1.0 1.0 1.0 1.0 1.0 1.0
1.0 1.0 1.0 1.0 1.0 1.0 1.0 1.0
1.0 1.0 1.0 1.0 1.0 1.0 1.0 1.0
1.0 1.0 1.0 1.0 1.0 1.0 1.0 1.0
1.0 1.0 1.0 1.0 1.0 1.0 1.0 1.0
1.0 1.0 1.0 1.0 1.0 1.0 1.0 1.0
1.0 1.0 1.0 1.0 1.0 1.0 1.0 1.0
1.0 1.0 1.0 1.0 1.0 1.0 1.0 1.0
