All_Benchmarking/DATA_8/Results/fold_2/best_model.pth (torch, 192098 bytes, 32 tensors)

gat1.att_src f4 [1, 4, 32]
0	0x3d8e801d	0.069580294
1	0xbddab060	-0.10678172
2	0xbe8cfbdd	-0.27535906
3	0xbe957cb2	-0.29196697
4	0xbcd9f69e	-0.026606854
5	0xbe1036a4	-0.14083344
6	0xbea1f5ac	-0.31632745
7	0xbe7c7f27	-0.2465788
8	0x3e0d47d7	0.13796936
9	0x3e5ee074	0.2176531
10	0x3df082c8	0.117436945
11	0xbce24159	-0.02761905
12	0x3eaf769b	0.34270176
13	0x3ebd07a0	0.3691988
14	0x3e54b407	0.207718
15	0xbe11a70b	-0.14223878
16	0xbdcac130	-0.09900129
17	0xbe3a6f68	-0.1820656
18	0x3e5f4a37	0.21805654
19	0x3e86f595	0.2635924
20	0xbdec1fc9	-0.115295
21	0x3de38cb1	0.11110819
22	0x3e8aa368	0.27077794
23	0x3e8c4d13	0.27402553
24	0xbea96db7	-0.33091518
25	0x3eb150cf	0.34631965
26	0x3e9276c2	0.2860623
27	0x3e81b552	0.2533365
28	0x3e930a20	0.28718662
29	0xbebaa960	-0.36457348
30	0x3e92d379	0.28676966
31	0x3e5e9b3b	0.21738903
32	0xbe230a49	-0.15921892
33	0xbe8a1038	-0.269655
34	0x3e747674	0.23873311
35	0xbe2f1147	-0.17096435
36	0x3e70ff75	0.23534949
37	0xbe26e5d6	-0.16298613
38	0x3e4b724f	0.19867824
39	0xbd60f105	-0.054917354
40	0x3ec4a84f	0.3840966
41	0x3ebfa3f1	0.37429765
42	0x3e8eaa72	0.27864414
43	0x3e8b3873	0.27191505
44	0xbec0da03	-0.3766633
45	0xbe380a96	-0.17972788
46	0xbcd7687f	-0.026294945
47	0x3eb06224	0.34449875
48	0xbdc9d4bc	-0.09855029
49	0xbe6cd401	-0.23127748
50	0xbeb80841	-0.35943797
51	0x3e13b7ad	0.14425536
52	0xbec72c2d	-0.3890089
53	0xbd9216df	-0.071332686
54	0xbddf226d	-0.10895238
55	0x3eba1d7c	0.3635062
56	0xbeb3f171	-0.35145143
57	0x3ed120ad	0.40845242
58	0xbeccdf55	-0.4001414
59	0xbecf065c	-0.4043454
60	0x3e8ac736	0.2710511
61	0x3e3ca512	0.18422344
62	0x3dcfaa35	0.10139886
63	0xbdb85d8c	-0.09002218
64	0x3cfaedb8	0.030630931
65	0x3d8c4665	0.06849364
66	0xbc4a86f1	-0.012361274
67	0x3e5871c8	0.21137154
68	0xbebdc9a1	-0.37067893
69	0xbe7fa798	-0.24966276
70	0x3ea49267	0.32142946
71	0x3dd7c90f	0.10536396
72	0xbe519dc0	-0.20470333
73	0x3e8be165	0.273204
74	0xbec53f71	-0.38524964
75	0x3d9fc7d6	0.078017876
76	0xbdf16e2b	-0.11788591
77	0xbdb6961d	-0.089153506
78	0x3e659bf9	0.2242278
79	0xbdb6f7a5	-0.08933953
80	0x3eb7decb	0.35912165
81	0xbe70c7ca	-0.23513713
82	0x3ebde334	0.37087405
83	0x3e50290d	0.2032816
84	0x3e7b4dcc	0.24541396
85	0xbe267d95	-0.16258843
86	0x3e390474	0.18068105
87	0x3e0398f0	0.1285131
88	0xbe81f525	-0.25382343
89	0xbe772fc0	-0.24139309
90	0x3e1d20aa	0.15344492
91	0xbb4e6d9f	-0.0031498445
92	0x3e37c720	0.17947054
93	0x3e99ab0c	0.3001331
94	0xbe18b666	-0.1491333
95	0x3db527d5	0.08845488
96	0xbeaa6962	-0.33283526
97	0x3dac2c48	0.084068835
98	0x3c0c89a8	0.008577742
99	0xbe7e872c	-0.24856251
100	0x3e3c3b0c	0.183819
101	0xbe749e33	-0.23888473
102	0x3e161b5a	0.14658871
103	0x3de4c870	0.11171043
104	0x3e94481e	0.2896127
105	0xbdacdeaf	-0.08440911
106	0xbdcba1f4	-0.099429995
107	0xbe8b2131	-0.2717376
108	0x3e97cd34	0.29648745
109	0x3e7b5e8c	0.24547786
110	0xbe873c8c	-0.2641338
111	0xbe611336	-0.21979985
112	0x3e8c8dc6	0.27451915
113	0xbe0dc670	-0.13845229
114	0xbdefb75b	-0.11704894
115	0xbe15a9a7	-0.14615498
116	0xbe95affc	-0.29235828
117	0xbdfcfdbc	-0.123530835
118	0x3dd829cd	0.10554848
119	0x3dc1dcab	0.09465917
120	0xbdc03423	-0.09384944
121	0xbd12dbf6	-0.035854302
122	0x3e59393d	0.21213241
123	0xbd0f4845	-0.03498103
124	0xbe33149e	-0.17488334
125	0x3ea15465	0.315097
126	0x3e84cf4d	0.25939408
127	0xbc3a0959	-0.011354768

gat1.att_dst f4 [1, 4, 32]
0	0xbe8d3403	-0.27578744
1	0x3dd4c7b5	0.103896536
2	0xbe04b484	-0.12959486
3	0xbe0ca342	-0.13734153
4	0xbe09ca81	-0.13456155
5	0xbe1a34f0	-0.15059257
6	0x3dc4494c	0.09584293
7	0x3e69c092	0.22827366
8	0xbe8f2c97	-0.27963707
9	0xbd7cd9e3	-0.06173123
10	0x3d5def15	0.054183085
11	0x3e80dd21	0.25168708
12	0xbe94b70e	-0.2904591
13	0x3e268876	0.16262993
14	0x3e456497	0.19276653
15	0xbec5c3bc	-0.38625896
16	0xbdab5fbf	-0.083678715
17	0x3e1c73df	0.15278576
18	0x3df7979a	0.120894626
19	0xbd40fe18	-0.047117323
20	0xbc7ac310	-0.015305296
21	0xbe029bdc	-0.12754768
22	0xbea03987	-0.3129389
23	0xbe2c164a	-0.16805378
24	0xbecc9e43	-0.39964494
25	0xbd996075	-0.07489101
26	0x3e90d3cd	0.2828659
27	0x3dec4c91	0.115380414
28	0x3e04d9eb	0.12973754
29	0x3de0377b	0.10948082
30	0xbe19479e	-0.14968726
31	0x3e55e8d3	0.20889597
32	0xbe84c373	-0.25930366
33	0xbe3cb4ca	-0.1842834
34	0xbe6a2dd8	-0.2286905
35	0xbd87c4bb	-0.0662932
36	0x3e4f248a	0.20228782
37	0x3ec94ff1	0.39318803
38	0x3e078f2f	0.13238214
39	0x3de2efb4	0.11080876
40	0x3dd29201	0.10281754
41	0xbe1121ec	-0.14173096
42	0xbe8a1a41	-0.26973155
43	0x3eae08a6	0.33990973
44	0x3b2077a4	0.0024485374
45	0x3e61b8ec	0.22043198
46	0xbe29733b	-0.16547863
47	0xbe95071f	-0.29106995
48	0xbdeb9ed4	-0.115049034
49	0x3e5daaed	0.21647234
50	0x3e353171	0.17694642
51	0xbccdb068	-0.025108531
52	0xbd20c92f	-0.039254364
53	0xbd447f39	-0.04797289
54	0xbeab9489	-0.3351176
55	0xbe2d0aae	-0.16898605
56	0x3e599e42	0.21251777
57	0xbe2c4dd3	-0.16826563
58	0x3e371cf7	0.17882143
59	0xbe762246	-0.24036512
60	0x3e454bb1	0.19267155
61	0x3dffe820	0.12495446
62	0x3ebfba2c	0.37446725
63	0x3eb28621	0.34867957
64	0xbc9a52e9	-0.018838363
65	0xbe2e314f	-0.17010997
66	0x3daf5b9d	0.08562396
67	0xbdfba047	-0.1228643
68	0xbe1b8384	-0.15186888
69	0x3d866208	0.06561667
70	0x3de23100	0.11044502
71	0xbdb1bcaf	-0.08678567
72	0x3ea39cbf	0.31955525
73	0xbe84c0aa	-0.2592824
74	0x3dcabb44	0.09898999
75	0x3e86ef81	0.26354602
76	0x3e8c4e62	0.2740355
77	0x3e51b9cf	0.20481037
78	0xbe8e20a9	-0.27759293
79	0x3dda2fc6	0.10653643
80	0x3d0c15e3	0.03420056
81	0x3da5007a	0.080567315
82	0xbeab9f0c	-0.3351978
83	0x3d71de2f	0.05904978
84	0x3bb9a92c	0.005665919
85	0x3d5d4bd9	0.054027412
86	0xbde5b784	-0.112166435
87	0xbc6dacfa	-0.014506573
88	0x3dc2cc6a	0.09511645
89	0x3e049df0	0.12950873
90	0xbbe31f6d	-0.0069312365
91	0x3d5b54eb	0.05354778
92	0x3e08ae9e	0.13347861
93	0xbec4b39d	-0.38418284
94	0xbe210827	-0.15725766
95	0xbe1e5424	-0.15461785
96	0xbe2db7d3	-0.16964655
97	0xbe974c5e	-0.2955045
98	0xbe21fc54	-0.15818912
99	0x3e57e756	0.21084341
100	0xbe866e8b	-0.26256213
101	0xbe5d0ec7	-0.21587668
102	0x3eac619f	0.3366823
103	0x3e93a1b2	0.288343
104	0x3d043bbc	0.03228353
105	0x3e82c9e3	0.25544652
106	0xbd4dc2a4	-0.050234452
107	0x3d4813b1	0.048846904
108	0xbe81e0f1	-0.2536693
109	0x3e740310	0.23829293
110	0x3e2dac28	0.16960204
111	0xbec48e6b	-0.38389906
112	0xbeaedc0b	-0.34152254
113	0x3dd08aa5	0.10182694
114	0x3ec55341	0.3854008
115	0x3db305cb	0.08741339
116	0x3de2426e	0.11047827
117	0xbe179baf	-0.14805482
118	0xbe8177e6	-0.25286788
119	0x3d19343c	0.03740333
120	0x3de93267	0.113865666
121	0x3a7b9e7c	0.0009598506
122	0xbc807415	-0.015680352
123	0x3d71a216	0.058992468
124	0xbeb69e8c	-0.35667837
125	0x3ea61773	0.32439765
126	0x3db45500	0.08805275
127	0x3e26a6c3	0.16274552

gat1.bias f4 [128]
0	0xb90043c5	-0.00012232277
1	0x390cfbd0	0.00013445248
2	0xb7c0680d	-2.2936636e-05
3	0x392f2356	0.00016702464
4	0xb7654179	-1.3664708e-05
5	0x38b76f62	8.746867e-05
6	0xb7a76456	-1.9954674e-05
7	0x3896bc1b	7.187595e-05
8	0xb760ac2a	-1.33915255e-05
9	0xb92f6172	-0.00016725602
10	0xb8ffadd2	-0.00012191724
11	0xb9b0810a	-0.00033665478
12	0x373227d8	1.0618904e-05
13	0x38bbb1ef	8.9499976e-05
14	0x38e0ab9c	0.00010713117
15	0x389a3bd4	7.354436e-05
16	0x38141e21	3.531401e-05
17	0xb7492de2	-1.19912165e-05
18	0xb2568a80	-1.2487931e-08
19	0x36cab328	6.0409257e-06
20	0xb8dc34b3	-0.000105002335
21	0x394c6887	0.00019493896
22	0xb8bb8404	-8.941445e-05
23	0x390a2fad	0.00013178466
24	0xb94837b4	-0.00019094237
25	0x394a14a2	0.00019271908
26	0x39628aca	0.00021604743
27	0xb94dcee0	-0.0001962739
28	0xb8e814ee	-0.000110665205
29	0x38f13ebb	0.0001150346
30	0x371f80bd	9.507113e-06
31	0x3950030d	0.00019837562
32	0x377484e2	1.45744725e-05
33	0xb8617a83	-5.375828e-05
34	0x38d25980	0.00010030251
35	0x3830f3fa	4.218889e-05
36	0x37a1c44c	1.9284103e-05
37	0xb8ca70f0	-9.653147e-05
38	0x3901f9c3	0.00012395442
39	0xb8aa88c5	-8.131707e-05
40	0x38ea6e80	0.00011178572
41	0x380d5cc9	3.3703433e-05
42	0x3984a1f0	0.00025297655
43	0xb8fe2f76	-0.00012120504
44	0xb8afc815	-8.3819185e-05
45	0x38d5355c	0.000101665704
46	0x397bb693	0.0002400524
47	0x3932d37a	0.00017054184
48	0xb8a963c7	-8.077133e-05
49	0x393db1bd	0.00018090657
50	0xb7bb3425	-2.2316419e-05
51	0x38898588	6.557541e-05
52	0xb835f8f9	-4.3385637e-05
53	0x387288d7	5.7824738e-05
54	0xb7791fde	-1.4848976e-05
55	0x387606e8	5.8657402e-05
56	0x3949f224	0.00019259058
57	0x3995b6c0	0.00028555654
58	0xb9745376	-0.00023300745
59	0x3951b904	0.00020000717
60	0x391310fd	0.00014025341
61	0xb8c1c929	-9.240426e-05
62	0xb8e3692b	-0.000108437926
63	0xb8c8ed68	-9.5809635e-05
64	0x38ad223f	8.255662e-05
65	0x38b8043a	8.774591e-05
66	0x39862d95	0.00025592433
67	0x39322b8f	0.0001699163
68	0x395e95aa	0.00021227324
69	0x38490676	4.792815e-05
70	0x392f8285	0.00016737923
71	0xb8f05a7d	-0.000114609466
72	0xb7e4ae22	-2.7260805e-05
73	0xb8ce41ff	-9.835138e-05
74	0x397d7fd5	0.00024175581
75	0x37d04bc8	2.483082e-05
76	0xb98455a8	-0.0002524082
77	0xb82d411b	-4.130705e-05
78	0x38e51e6e	0.00010925239
79	0x377ff5fe	1.5256459e-05
80	0x38a3b4f9	7.8061545e-05
81	0x3904a48c	0.000126498
82	0x36055ed6	1.9873746e-06
83	0x39416bf2	0.00018446127
84	0xb87a1156	-5.962079e-05
85	0xb991a4a3	-0.0002777922
86	0x38a37c51	7.7956014e-05
87	0xb7819bc7	-1.5450538e-05
88	0x38649d10	5.4505712e-05
89	0x37364d12	1.086599e-05
90	0x39667252	0.00021977097
91	0x37d139f4	2.4941728e-05
92	0x3863e3d0	5.4333184e-05
93	0x390d5e88	0.00013482023
94	0xb81c54b4	-3.7272184e-05
95	0xb95ac695	-0.00020864078
96	0x3927d6c9	0.00016006375
97	0xb8c31a40	-9.303214e-05
98	0x3914171e	0.00014122992
99	0xb9b23b86	-0.00033995154
100	0x39592c22	0.00020711173
101	0x390bdd51	0.0001333852
102	0x38df7558	0.000106553256
103	0x398fe962	0.0002744897
104	0xb9373ac2	-0.00017474129
105	0x39748968	0.00023320841
106	0xb9736077	-0.00023210222
107	0xb911c3a4	-0.0001390116
108	0xb98d6532	-0.00026969012
109	0xb683d942	-3.9293964e-06
110	0x39caa076	0.00038647995
111	0xb931aee7	-0.00016945192
112	0xb968ee6d	-0.00022214065
113	0xb8efa577	-0.00011427228
114	0xb91f5c48	-0.00015197799
115	0xb992a971	-0.00027973534
116	0xb907959e	-0.0001293034
117	0x39709d7a	0.00022946848
118	0xb90ef558	-0.00013633573
119	0xb8f16531	-0.00011510624
120	0x395bb9cf	0.00020954687
121	0xb8478073	-4.7564925e-05
122	0x3860d2ec	5.3602198e-05
123	0xb8c3147a	-9.302139e-05
124	0xb6853892	-3.9702945e-06
125	0x38b44771	8.596376e-05
126	0x38d7229a	0.00010258444
127	0xb78397df	-1.5687137e-05

gat1.lin.weight f4 [128, 5]
0	0x3e02642a	0.12733522
1	0x3e31da6f	0.17368482
2	0x3dc3294b	0.095293604
3	0x3e0b3b75	0.135969
4	0x3e4c4bb5	0.19950755
5	0xbe3e7610	-0.18599725
6	0xbe0c198c	-0.1368162
7	0x3d97b803	0.07408144
8	0x3e01fd5d	0.12694307
9	0xbc00fd32	-0.0078728665
10	0x3e3c04b9	0.18361177
11	0x3d949a02	0.07255937
12	0x3e467182	0.19379237
13	0x3ca8fcd2	0.020628367
14	0x3da772ce	0.08176194
15	0x3ce23fea	0.027618367
16	0x3e54a174	0.20764714
17	0x3e4496dd	0.19198175
18	0x3d14f933	0.036370467
19	0xbdea8721	-0.11451555
20	0xbd941bcf	-0.072318666
21	0x3e292e41	0.1652155
22	0xbcbb1381	-0.022836449
23	0x3e19c161	0.15015174
24	0x3d9f4b00	0.07777977
25	0xbd9bec02	-0.07613374
26	0x3e400e75	0.18755515
27	0x3e4193c9	0.18904032
28	0x3dec12ee	0.11527048
29	0xbb2295b9	-0.002480848
30	0x3e581801	0.21102907
31	0xbdb868f0	-0.0900439
32	0x3e213e0d	0.15746327
33	0xbe158f33	-0.14605407
34	0xbd8cc62a	-0.06873734
35	0xbde1362b	-0.1099666
36	0x3ce81b1c	0.02833324
37	0x3e08842e	0.13331673
38	0x3c382568	0.011239387
39	0x3d53b46d	0.05168574
40	0xbe0f7994	-0.14011222
41	0xbddc7e5d	-0.107662894
42	0x3d529013	0.05140693
43	0x3e31778a	0.17330757
44	0xbe2679cc	-0.162574
45	0xbd91dbd2	-0.071220055
46	0x3e2257ba	0.15853778
47	0x3e020197	0.12695919
48	0xbe44ce3d	-0.19219299
49	0x3e13678b	0.14394967
50	0x3dbfa4e5	0.09357623
51	0x3e331068	0.17486727
52	0x3c343c41	0.011000694
53	0x3d94eb8d	0.0727149
54	0xbdc67d08	-0.096918166
55	0xbdda470e	-0.10658084
56	0x3e367260	0.17817068
57	0x3d9b53e5	0.07584361
58	0xbe55a4bc	-0.20863622
59	0x3ded7832	0.11595191
60	0xbd300d05	-0.042981166
61	0x3ce7e26c	0.028306209
62	0x3e5103f6	0.20411667
63	0xbe551c4b	-0.20811574
64	0xbe1a240e	-0.15052816
65	0xbe030889	-0.12796225
66	0xbde624f2	-0.112375155
67	0x3da85bf8	0.08220667
68	0x3d592275	0.053011376
69	0xbd5d7791	-0.054069106
70	0x3da9b030	0.08285558
71	0xbdb61425	-0.08890561
72	0x3e50e23c	0.20398802
73	0xbd5e8e8c	-0.054335162
74	0x3d0a6d69	0.033795748
75	0xbd44937d	-0.04799222
76	0xbe43ce84	-0.19121748
77	0x3d988bda	0.074485496
78	0xbd18179a	-0.037131883
79	0xbe0b61e2	-0.13611558
80	0x3d6dcdad	0.058057476
81	0x3e4ce7ef	0.2001035
82	0x3d0952d2	0.03352625
83	0x3dc20e8e	0.09475432
84	0xbd0f7551	-0.03502399
85	0x3e419183	0.18903165
86	0xbdf0ffea	-0.11767562
87	0x3cb79d06	0.022413742
88	0x3cd54cb9	0.02603756
89	0xbdda3201	-0.10654069
90	0x3e580a1c	0.21097606
91	0xbd70bf5c	-0.058776245
92	0x3d4f1c29	0.050563965
93	0x3d3a7fac	0.045531914
94	0x3e3db925	0.18527658
95	0x3d85bc59	0.06530065
96	0xbe1fc826	-0.15603694
97	0xbe2f58b5	-0.17123683
98	0xbe282520	-0.16420412
99	0xbcce87b0	-0.025211185
100	0x3e0b9179	0.13629712
101	0x3dd321e3	0.10309198
102	0x3e4ae317	0.1981319
103	0x3e23c8a0	0.15994501
104	0x3c6e1f88	0.014533885
105	0x3e4d4102	0.2004433
106	0xbd97cb99	-0.0741188
107	0x3e555de9	0.20836605
108	0xbe132931	-0.14371182
109	0x3e212163	0.15735392
110	0x3e4b40b7	0.19848906
111	0x3e020d25	0.12700327
112	0xbc99ea0b	-0.018788358
113	0xbd3d3b60	-0.046199203
114	0x3a706f3c	0.00091718487
115	0xbe4ecc37	-0.2019509
116	0xbd4a51d8	-0.04939446
117	0xbe42dacf	-0.19028781
118	0x3d67369e	0.05644857
119	0x3dd93707	0.10606199
120	0xbe52b41e	-0.20576522
121	0x3e124f94	0.14288169
122	0xbe2e5aec	-0.17026871
123	0xbdd33800	-0.103134155
124	0xbda5ef2d	-0.0810226
125	0xbe58f50d	-0.2118723
126	0x3c1c3d7e	0.009536145
127	0x3d6fcc2b	0.05854432
128	0xbd0c71c1	-0.03428817
129	0xbe55960b	-0.20858018
130	0x3e03f759	0.12887324
131	0x3e34a2b9	0.17640199
132	0xbe3ebb73	-0.18626194
133	0xbcf05272	-0.029336188
134	0x3e35d0e6	0.1775547
135	0xbd18fca4	-0.037350312
136	0x3bb622a5	0.005558329
137	0xbcc099c5	-0.023510823
138	0x3e575afa	0.21030799
139	0xbe149f39	-0.14513864
140	0x3d712dd7	0.058881607
141	0x3df13835	0.11778299
142	0x3e556da2	0.20842603
143	0xbcdf9741	-0.027293803
144	0xbc945e3d	-0.018111343
145	0x3dd75a15	0.10515229
146	0xbd64c5d0	-0.05585271
147	0xbd514bf8	-0.05109784
148	0xbdd50bc0	-0.10402632
149	0xbe0fba1f	-0.14035843
150	0xbe30c1e0	-0.17261457
151	0x3d4e7227	0.050401833
152	0xbc040020	-0.00805667
153	0xbbfb8223	-0.0076754256
154	0x3dd42c8a	0.10360058
155	0xbe44cb86	-0.19218263
156	0xbdc61a01	-0.096729286
157	0x3c09f899	0.008421087
158	0xbe48f9ac	-0.19626492
159	0x3d9117f4	0.07084647
160	0x3dba6176	0.091006204
161	0x3e2cb64e	0.16866419
162	0x3c872b37	0.016500099
163	0x3e2d10e9	0.16900982
164	0x3e0bf5bb	0.13667957
165	0x3dc2b993	0.09508052
166	0xbe3bcfa6	-0.1834093
167	0xbd4fa0ed	-0.05069058
168	0xbce76601	-0.028246881
169	0xbc682a54	-0.014170248
170	0xbdee8c8b	-0.116479
171	0xbe208217	-0.15674625
172	0x3df9552f	0.121744506
173	0x3d2be6c5	0.041968126
174	0xbe17f54f	-0.14839672
175	0xbe24ce9e	-0.16094443
176	0x3cf4cfd1	0.02988425
177	0xbdda0a49	-0.10646493
178	0x3defbbb6	0.11705725
179	0x3e458710	0.19289804
180	0xbda6fe88	-0.08154017
181	0x3e1b011e	0.15137145
182	0x3da09305	0.07840542
183	0xbe3a40a2	-0.18188718
184	0x3dd85bff	0.10564422
185	0x3c5c6e92	0.013454096
186	0xbc577d6a	-0.01315246
187	0xbd635676	-0.055502377
188	0x3d05a5a9	0.03262869
189	0xbc85c4cb	-0.01632919
190	0xbe36f707	-0.17867671
191	0x3d952983	0.07283308
192	0x3e3e852b	0.18605487
193	0x3e10f655	0.14156468
194	0xbc857279	-0.016289936
195	0x3dea0e5c	0.1142852
196	0x3c9536b4	0.018214561
197	0x3d96b92e	0.07359539
198	0x3e49797f	0.19675253
199	0x3d1f92e9	0.038958464
200	0xbbbafa28	-0.0057060905
201	0x3e472105	0.1944619
202	0xbe088658	-0.13332498
203	0xbe31f3d6	-0.17378172
204	0x3e2c5cb4	0.16832238
205	0xbd1abfab	-0.037780445
206	0x3e11adfe	0.14226529
207	0x3d3a0d2d	0.04542272
208	0xbdfa8b10	-0.12233555
209	0x3e4649b3	0.19364052
210	0xbd82529a	-0.06363411
211	0xbd618761	-0.055060748
212	0x3e3d0dd2	0.18462303
213	0xbdc7a764	-0.09748724
214	0xbdce3970	-0.10069549
215	0xbde03364	-0.10947302
216	0x3d49b6d5	0.049246628
217	0x3da1826b	0.078862034
218	0xbe500849	-0.2031566
219	0x3b33f317	0.0027458125
220	0xbe1703eb	-0.14747588
221	0xbe0cc5f3	-0.13747387
222	0x3cf27235	0.029595474
223	0xbe1f9022	-0.15582326
224	0x3d32d9c0	0.043664694
225	0x3dc50b6f	0.096213214
226	0xbe348407	-0.1762849
227	0x3da93476	0.08261959
228	0x3d2ff494	0.042957857
229	0xb907f2c2	-0.00012965038
230	0x3e4635fb	0.1935653
231	0xbdbe07e6	-0.0927885
232	0xbe1f929c	-0.15583271
233	0x3d735c66	0.05941429
234	0xbe16ca47	-0.147256
235	0x3de2dc7b	0.110772096
236	0xbd5df444	-0.054188028
237	0x3bd272fe	0.0064223995
238	0xbd90b527	-0.07065802
239	0x3dbe9223	0.09305217
240	0x3def40dc	0.11682293
241	0x3e11acce	0.14226076
242	0x3e50cc93	0.20390539
243	0x3d2dad06	0.042401336
244	0xbd89a387	-0.067206435
245	0xbcca7716	-0.024714988
246	0xbe032d8c	-0.12810344
247	0xbdb55b66	-0.088553235
248	0x3e4986ee	0.19680378
249	0xbd994080	-0.074830055
250	0xbdb5b7a6	-0.08872919
251	0xbdbee29b	-0.09320565
252	0xbd03246a	-0.03201715
253	0xbd07eef3	-0.033186864
254	0x3d62c0e7	0.055359747
255	0xbd9fb172	-0.07797517

sage1.lin_l.weight f4 [128, 128]
0	0xbd65fbb3	-0.056148242
1	0x3d1431c1	0.03618026
2	0x3bc46f62	0.005994723
3	0x3d1597cf	0.03652173
4	0xbdafd708	-0.08585936
5	0xbd1cebbb	-0.038310748
6	0x3d179dba	0.037015654
7	0xbd93f004	-0.07223514
8	0x3d902405	0.0703812
9	0x3c898e79	0.01679157
10	0xbd8f6d46	-0.07003264
11	0xbd94ac8e	-0.07259475
12	0x3cb05ec9	0.021529572
13	0x3cb97f42	0.022643689
14	0x3d4adeb7	0.049528804
15	0x3db31dfb	0.08745953
16	0x3d927d58	0.07152814
17	0x3b54f56a	0.003249491
18	0x3cc46f73	0.023978924
19	0x3da03967	0.07823449
20	0xbdafdbb8	-0.0858683
21	0x3bbc39da	0.005744201
22	0xbd4073e3	-0.04698552
23	0xbbc1a00a	-0.0059089707
24	0x3d83a0c4	0.06427148
25	0xbd2b6e36	-0.041853152
26	0x3d8d46e6	0.068982884
27	0x3c661d7f	0.014045118
28	0x3da070c1	0.07834006
29	0xbda79e06	-0.081844375
30	0x3ce05ea3	0.027388876
31	0x3d7ecaf3	0.062205266
32	0xbcbe6822	-0.023243014
33	0xbc974b08	-0.018468395
34	0xbd247bec	-0.040157244
35	0xbd86f0ec	-0.06588921
36	0xbd042f2d	-0.032271553
37	0x3cca0c2e	0.02466401
38	0x3d5a8414	0.053348616
39	0x3d855558	0.06510419
40	0x3d091ffc	0.03347777
41	0x3d545ab4	0.051844314
42	0xbdad8311	-0.084722646
43	0x3da35e00	0.079769135
44	0xbdab3a60	-0.083607435
45	0xbd9ec10c	-0.077516645
46	0xbd8e0b96	-0.069358036
47	0x3d984aa2	0.0743611
48	0x3c1ada85	0.009451513
49	0xbd2a7725	-0.04161753
50	0x3b9a961e	0.0047176024
51	0xbd538e17	-0.05164918
52	0x3c8d1b37	0.017224891
53	0xbd38f3e2	-0.04515446
54	0xbdb2fc50	-0.08739531
55	0x3c678f12	0.014133232
56	0x3cceb9a4	0.025235005
57	0x3c54fee1	0.013000221
58	0x3a8ded24	0.001082812
59	0x3d8cef19	0.06881542
60	0x3d1ca711	0.038245264
61	0xbd1ffe47	-0.039060857
62	0xbd20db5e	-0.039271705
63	0x3c878dec	0.016547166
64	0xbd697606	-0.05699732
65	0x3c83f603	0.016108518
66	0xbd243d9d	-0.04009782
67	0xbd6dceba	-0.058058478
68	0xbd98a87a	-0.07454009
69	0x3d92dab1	0.07170618
70	0xbd8f6bc3	-0.07002976
71	0x3ca13711	0.019679578
72	0xbce93b5d	-0.02847069
73	0x3d47ac3f	0.04874825
74	0xbce9fdf1	-0.028563472
75	0x3d654565	0.055974383
76	0x3d94e346	0.072699115
77	0xbd7f4788	-0.062324077
78	0x3d21c713	0.039496493
79	0x3cd6ce77	0.026221497
80	0xbd5b782c	-0.0535814
81	0x3d928bdb	0.071555816
82	0x3d8b2964	0.06795004
83	0xbda4b12a	-0.08041604
84	0x3d9b7f5d	0.07592652
85	0xbdb79498	-0.08963889
86	0x3be8a305	0.0070995116
87	0x3b7b7a1e	0.0038372348
88	0x3d881afd	0.066457726
89	0xbcb654c2	-0.022257213
90	0x3d4ecf04	0.050490394
91	0xbd0702a5	-0.032961506
92	0x3c4db029	0.012554207
93	0x3ca3d4ad	0.019998873
94	0xbd07ce5c	-0.033155784
95	0x3db4f64f	0.08836042
96	0x3d3f7c78	0.046749562
97	0x3d2dbe30	0.042417705
98	0xbda1d336	-0.079016134
99	0x3da340f2	0.07971372
100	0xbdad7b26	-0.08470754
101	0xbc394473	-0.0113078235
102	0xbb18cf87	-0.0023317055
103	0x3c223c34	0.009902049
104	0x3da48ed5	0.080350555
105	0x3c269b27	0.010168827
106	0x3da8be01	0.08239365
107	0x3b9c9767	0.0047787908
108	0xbd16c238	-0.036806315
109	0xbdb05cc9	-0.08611447
110	0xbd0c323e	-0.034227602
111	0xbce36ad2	-0.027760897
112	0x3d8093eb	0.06278213
113	0x3d680617	0.056646433
114	0xbdab9f8a	-0.08380039
115	0x3c8287e8	0.015933946
116	0x3d08b697	0.033377256
117	0x3d726921	0.05918229
118	0xbbf9f72c	-0.007628342
119	0xbd84bcb7	-0.06481307
120	0xbcd78d53	-0.026312506
121	0xbd9e0bde	-0.07717107
122	0x3d503115	0.05082806
123	0xbd9340c5	-0.07190088
124	0xbb0fa38b	-0.0021917548
125	0xbd1518bf	-0.036400553
126	0xbda7cfad	-0.08193908
127	0xbd619722	-0.055075772
128	0x3d0f2202	0.03494454
129	0x3daaa180	0.08331585
130	0x3d62e8a8	0.05539766
131	0x3d7a1a28	0.0610601
132	0x3d6baf38	0.05754015
133	0xbd2fe007	-0.04293826
134	0xbd916b9d	-0.07100604
135	0xbd3e24ca	-0.046421804
136	0xbd8fa47e	-0.07013796
137	0x3da9b7eb	0.08287033
138	0xbd64f30f	-0.05589586
139	0xbd60cba9	-0.054881725
140	0x3d3659be	0.04451918
141	0x3d1fb982	0.038995273
142	0xbc32fee2	-0.010925027
143	0x3bd50829	0.006501217
144	0xbd92770d	-0.071516134
145	0xbd2e2d71	-0.042523805
146	0x3d50268d	0.050818015
147	0x3d9de374	0.07709399
148	0x3ac03910	0.0014665443
149	0x3d8ef0bd	0.06979511
150	0xbb20184e	-0.002442855
151	0x3da64c55	0.08120028
152	0xbd9dbdd7	-0.07702225
153	0xbdb29e48	-0.08721596
154	0x3daa2c90	0.08309281
155	0x3cc797b9	0.02436434
156	0xbbe1f443	-0.0068955733
157	0x3d4dfc72	0.05028958
158	0x3d95ecbc	0.07320544
159	0x3ce0e6a9	0.027453737
160	0x3c86e5e0	0.016467035
161	0xbd67f92f	-0.056634124
162	0xbd6fad3f	-0.05851483
163	0xbd97ddeb	-0.07415374
164	0xbd4e31a8	-0.050340325
165	0x3c8ff8f9	0.017574774
166	0x3cf38b46	0.029729497
167	0xbd670389	-0.056399856
168	0x3bd0872b	0.0063637695
169	0x3d15aa03	0.03653909
170	0xbda11526	-0.07865362
171	0x3d1c9e73	0.038237046
172	0xbd7b6d49	-0.06138352
173	0xba6fe149	-0.00091506966
174	0x3d092451	0.0334819
175	0x3d8d5932	0.06901778
176	0xbd69e6c5	-0.057104845
177	0xbdb37da0	-0.087641954
178	0xbd99a09c	-0.07501337
179	0x3cdcd5a4	0.02695734
180	0x3b58b828	0.003306875
181	0xbc29945d	-0.010350314
182	0xba13d082	-0.0005638675
183	0x3d2d38d8	0.04229054
184	0xbdae3fb2	-0.08508243
185	0x3d57554a	0.052571572
186	0xbd162c36	-0.036663257
187	0xbcc2d056	-0.023780983
188	0x3daeda72	0.08537759
189	0xbb9bb52f	-0.0047518234
190	0xbc9a7354	-0.01885382
191	0xbda40eac	-0.08010611
192	0xbcd37fa9	-0.025817709
193	0xbd31ca01	-0.043405537
194	0xbda1eeba	-0.079068616
195	0x3c91c439	0.017793762
196	0x3d12e58c	0.035863444
197	0x3d0ce594	0.03439863
198	0x3d114841	0.035469297
199	0xbd96c5b2	-0.07361926
200	0xbda6d68b	-0.081463896
201	0x3d040d23	0.03223909
202	0xbd306ec6	-0.04307439
203	0xbcc38d66	-0.023871135
204	0xbd093da6	-0.03350606
205	0xbdacd19b	-0.084384166
206	0x3d94362a	0.072368935
207	0xbbd0fa3b	-0.006377486
208	0x3c479809	0.012182244
209	0xbcc64957	-0.024204893
210	0xbd6cf7b6	-0.057853423
211	0xbca2392f	-0.019802658
212	0x3d441ce3	0.04787911
213	0xbcaa38c6	-0.020779025
214	0x3d9faf39	0.07797093
215	0xba98dc56	-0.0011662345
216	0x3ca0008c	0.01953151
217	0xbd9db559	-0.07700605
218	0x3cb4464a	0.022006173
219	0xbd090839	-0.033455107
220	0x3d40ff3a	0.047118403
221	0x3d9a89b6	0.075457975
222	0x3d739e5d	0.0594772
223	0x3d846617	0.064647846
224	0x3cbe5f74	0.023238875
225	0x3da082bd	0.07837436
226	0xbda2a0d8	-0.07940835
227	0xbdb17072	-0.08664025
228	0x3d8953ee	0.067054614
229	0x3d7e3c14	0.062069014
230	0xbd547d31	-0.051877204
231	0x3d233ccd	0.039852906
232	0x3d67a5a7	0.056554463
233	0x3d007b2c	0.031367466
234	0xbd8a9924	-0.067674905
235	0x3d1b7b2b	0.03795926
236	0x3cd94519	0.026522206
237	0x3d4ab4b4	0.04948874
238	0xbd8e2b4e	-0.069418535
239	0xbd94e3b8	-0.072699964
240	0xbab7a166	-0.0014009892
241	0x3cd82912	0.026386771
242	0x3d8c63d9	0.06854982
243	0x3d617f62	0.055053122
244	0xbda14c2e	-0.07875858
245	0x3d600a06	0.05469706
246	0x3d2f8f5b	0.042861324
247	0xbd890470	-0.066902995
248	0x3c5836c1	0.013196648
249	0xbc11d7ce	-0.0089015495
250	0xbda3cd0b	-0.07998093
251	0x3ce3f12a	0.027824957
252	0x3d6f0755	0.0583566
253	0xbbf21aef	-0.0073884646
254	0xbdaee0a7	-0.08538943
255	0xbd98bc03	-0.074577354

sage1.lin_l.bias f4 [128]
0	0x3d44b6f0	0.048026025
1	0x3d6fe7c6	0.058570646
2	0xbc452117	-0.012031815
3	0x3ce32fb2	0.027732704
4	0xbd92a17c	-0.07159707
5	0xbb9455a5	-0.004526811
6	0x3da9d7d8	0.08293122
7	0xbd98bcba	-0.07457872
8	0xbcaf9efa	-0.02143811
9	0x3da29ef3	0.079404734
10	0x3d73a1d0	0.05948049
11	0xbd5ed466	-0.054401778
12	0xbc97151b	-0.018442681
13	0xbd89350b	-0.0669957
14	0xbc9cf077	-0.019157631
15	0x3c85a912	0.01631597
16	0xbc9b0116	-0.018921416
17	0xbd622d1c	-0.0552188
18	0x3ce69415	0.028146783
19	0xbd7949c1	-0.060861353
20	0xbcec2163	-0.028824514
21	0xbc575f01	-0.013145209
22	0xbd71d3b2	-0.05903978
23	0x3cc41bea	0.023939092
24	0xbd3758df	-0.04476249
25	0x3db2261a	0.086986735
26	0xbd37de81	-0.04488993
27	0xbc44aa88	-0.012003548
28	0xbd55d272	-0.05220265
29	0x3cbf5441	0.023355605
30	0x3d9871ec	0.07443604
31	0x3cdf9d7e	0.027296778
32	0xbbb1a465	-0.0054212087
33	0xbcefeb1a	-0.02928691
34	0x3d9d6917	0.0768606
35	0x3d9cc6c3	0.07655098
36	0x3c57abfa	0.013163561
37	0xbd492c8b	-0.049114745
38	0x3db3e87d	0.08784578
39	0xbc9d28d7	-0.019184513
40	0x3d5fa3fb	0.054599743
41	0x3d858bff	0.06520843
42	0xbd8ab059	-0.06771917
43	0x3c11b775	0.008893837
44	0x3d7276f6	0.05919548
45	0x3d972a2a	0.07381089
46	0x3aa5efaa	0.0012659926
47	0x3d608568	0.054814726
48	0x3b3bb229	0.0028640127
49	0xbc741ad2	-0.014898973
50	0x3d6279de	0.055292003
51	0x3cace736	0.021106344
52	0xbd2cd3bb	-0.04219411
53	0xbd2c8000	-0.042114258
54	0x3d79b812	0.06096656
55	0x3c1cad01	0.009562732
56	0x3cb24cd3	0.021765148
57	0x3d811cd1	0.063043244
58	0x3d512660	0.051061988
59	0x3c944ea6	0.018103909
60	0xbbbe2f17	-0.0058039534
61	0x3db5a67f	0.08869647
62	0xbd9b903e	-0.075958714
63	0xbcd6e61c	-0.026232772
64	0x3cbf3fa7	0.023345781
65	0x3d9313ff	0.07181548
66	0x3d8bc4ee	0.06824671
67	0xbd0c45ee	-0.034246378
68	0x3c38c666	0.011277771
69	0x3da2dc02	0.079521194
70	0x3d93d5ac	0.07218489
71	0x3d46fa1b	0.048578363
72	0xbd96d090	-0.07363999
73	0x3db1333d	0.08652351
74	0x3d33c228	0.043886334
75	0x3ac9c192	0.0015392771
76	0x3c8f3167	0.017479612
77	0xbd624988	-0.055245906
78	0x3d67481b	0.05646525
79	0x3da6a32c	0.08136591
80	0x3d0d234d	0.034457494
81	0x3d5f1068	0.054459006
82	0x3d836425	0.064155854
83	0x3da5f658	0.08103627
84	0x3dab9e22	0.08379771
85	0x3b3a1958	0.0028396454
86	0x3cc7b4ff	0.024378298
87	0x3c3c06f7	0.01147627
88	0x3d78e358	0.060763687
89	0xbc8aac86	-0.016927969
90	0xbd06677b	-0.03281353
91	0xbd5fa353	-0.054599117
92	0xbae7008f	-0.0017624068
93	0xbd0393c0	-0.032123327
94	0xbdb21e07	-0.086971335
95	0x3d83232b	0.06403192
96	0xbd940e30	-0.072292686
97	0x3caa0085	0.0207522
98	0xbd9a3354	-0.07529321
99	0x3d6a8aa9	0.057261143
100	0x3bc140dc	0.0058976244
101	0x3c68ee42	0.014216961
102	0x3c9e2386	0.019304048
103	0x3d920e70	0.0713166
104	0xbc779017	-0.015110037
105	0xbd90510d	-0.07046709
106	0xbd6409c2	-0.05567337
107	0x3d6788d0	0.05652696
108	0x3c202be0	0.009776086
109	0xbd202152	-0.039094277
110	0x3c0f96a7	0.008763946
111	0x3bcdabec	0.006276598
112	0x3d80562c	0.06266436
113	0x3d895308	0.0670529
114	0x3b721c35	0.0036943082
115	0xbc8f5279	-0.01749538
116	0x3da36957	0.07979076
117	0x3da4d14b	0.08047732
118	0xbc223c97	-0.009902141
119	0x3d97232b	0.07379755
120	0x3d33b0f6	0.043869935
121	0xbd0d561e	-0.034505956
122	0xbc3278d1	-0.010893063
123	0x3d4e1b4e	0.05031901
124	0xbd9f947e	-0.077919945
125	0xbd255279	-0.040361855
126	0x3bdd3b0e	0.0067514246
127	0x3d9580f0	0.072999835

sage1.lin_r.weight f4 [128, 128]
0	0x3d3b3ac4	0.04571034
1	0x3cdaaddd	0.026694233
2	0x3c18aa39	0.009317928
3	0x3c8317e6	0.016002607
4	0x3c1a7345	0.009426896
5	0xbd83c91c	-0.06434843
6	0xbbe1a802	-0.006886483
7	0xbd42fc6d	-0.047604013
8	0x3d934dbb	0.0719256
9	0xbd4b51d9	-0.049638603
10	0x3d68b4a3	0.056812894
11	0x3bed0807	0.007233623
12	0x3d3a6334	0.045504764
13	0x3a97d4c0	0.001158379
14	0x3daa0f79	0.083037324
15	0x3da11ead	0.07867179
16	0xbda4f5ac	-0.08054671
17	0xbc6deb3c	-0.014521416
18	0x3d3af6a1	0.04564536
19	0x3c9b1bfc	0.018934242
20	0x3b8a30bd	0.004217236
21	0xbd79262e	-0.060827427
22	0x3d875152	0.066073075
23	0x3da3b252	0.07992996
24	0xbd717ae6	-0.058955096
25	0x3dad9296	0.08475225
26	0xbca23afb	-0.019803515
27	0xbcba557b	-0.022745838
28	0x3d65bddc	0.056089267
29	0xbd5651fa	-0.052324273
30	0xbd926e74	-0.071499735
31	0xbd8b9f27	-0.06817465
32	0x3d8a0856	0.06739871
33	0x3ce75f3f	0.028243659
34	0x3db190df	0.0867021
35	0x3b9c5f84	0.0047721285
36	0x3d418bee	0.047252588
37	0x3d3e7774	0.046500638
38	0xbd5ec79c	-0.05438958
39	0xbda1d789	-0.07902438
40	0x3d48929b	0.04896794
41	0x3d876027	0.066101365
42	0x3d00eb23	0.031474244
43	0xbda8732c	-0.08225092
44	0xbd1d09de	-0.03833949
45	0xbd92be00	-0.07165146
46	0xbccc3c8e	-0.024931218
47	0x3ca43643	0.020045405
48	0x3ccff0fb	0.025383463
49	0xbd5062c1	-0.05087543
50	0x3c2e5911	0.010641352
51	0x3cc03909	0.023464696
52	0xbd356fbd	-0.044296015
53	0x3ca84fec	0.020545922
54	0xbca20fd7	-0.019782944
55	0x3d10c864	0.035347357
56	0x3d9262a4	0.071477205
57	0xbd8aaf60	-0.067717314
58	0x3d422417	0.0473977
59	0x3d1d2980	0.038369656
60	0xbd7b8cf5	-0.061413724
61	0xbbf4ce76	-0.007470901
62	0x3cce183e	0.025158044
63	0xbb6f2564	-0.0036490792
64	0xbd85d60e	-0.06534968
65	0x3b837f7c	0.004013
66	0xbab926b3	-0.0014125913
67	0x3d1afa09	0.03783611
68	0xbd772762	-0.060340293
69	0x39a939c0	0.0003227722
70	0xbd4cc82e	-0.049995594
71	0xbda04a2d	-0.07826648
72	0xbcd022b8	-0.02540718
73	0xbdb6abc1	-0.08919478
74	0x3d9ac17e	0.07556437
75	0x3c7403d7	0.014893494
76	0x3d7a4e30	0.06110972
77	0x3d235f7c	0.039885983
78	0xbdb6720b	-0.08908471
79	0xbcc90c9d	-0.024542147
80	0xbd019aaa	-0.03164164
81	0xbd4b7025	-0.049667496
82	0xbd85a822	-0.065262094
83	0xbcc7eed9	-0.024405884
84	0x3daebe6c	0.08532414
85	0x3d6e9c07	0.058254268
86	0xbd8dedb6	-0.069301054
87	0x3d26c9af	0.040719684
88	0x3d5e31ce	0.054246716
89	0x3dadd912	0.084886685
90	0xbda91960	-0.08256793
91	0xbd344f16	-0.044020735
92	0x3da32272	0.07965554
93	0xbd085275	-0.033281762
94	0x3ccaed45	0.024771342
95	0xbd929fbb	-0.071593724
96	0x3dac3396	0.08408277
97	0x3c974460	0.01846522
98	0x3d72c40b	0.059268992
99	0xbbf8166f	-0.0075710337
100	0x3daba4e6	0.08381061
101	0xbd4d046e	-0.050053053
102	0x3c4e3baf	0.012587472
103	0xbd61d532	-0.05513496
104	0x3d97ce6f	0.07412421
105	0xbcbf0729	-0.023318844
106	0x3d195c8a	0.037441768
107	0x3d1ffbe8	0.039058596
108	0x3da7e1cf	0.081973664
109	0xbd46add3	-0.048505615
110	0x3da7f9ba	0.082019284
111	0x3dabea8e	0.08394347
112	0x3d37936d	0.04481833
113	0x3d63da48	0.05562809
114	0x3cb2e78d	0.021838928
115	0xbd6e6e36	-0.058210574
116	0x3d8f38b0	0.06993234
117	0xbd1a8319	-0.03772268
118	0x3ce0fe35	0.027464965
119	0xbb8f196e	-0.004367045
120	0x3ccc2f54	0.024924912
121	0x3d187eee	0.037230425
122	0x3cb5ae61	0.022177877
123	0xbcd75159	-0.026283907
124	0xbc630e84	-0.013858441
125	0xbda62f5f	-0.08114504
126	0xbd44d8b9	-0.048058245
127	0xbdb15b0e	-0.086599454
128	0xbc056208	-0.008141048
129	0x3d99c68b	0.07508572
130	0x3ae1f37d	0.0017238703
131	0xbda14286	-0.078740165
132	0xbdaff996	-0.085925266
133	0xbccb2830	-0.024799436
134	0xbc3699d8	-0.011145078
135	0xbd0e26ad	-0.034704853
136	0xbd781096	-0.060562693
137	0x3c82d0cd	0.015968705
138	0x3d3d8ff0	0.046279848
139	0xbd0b261d	-0.033971895
140	0xbd2b86a6	-0.041876458
141	0xbd9ab72d	-0.07554469
142	0xbd441f5e	-0.047881477
143	0x3d63f810	0.055656493
144	0xbd92553a	-0.07145162
145	0xbc9a6037	-0.018844707
146	0xbc4a8382	-0.0123604555
147	0xbc2be0b3	-0.010490584
148	0x3b8531b7	0.0040647644
149	0xbd91c22e	-0.07117115
150	0xbc9c0609	-0.019045847
151	0x3c6a7929	0.014311113
152	0x3c2c5ff5	0.010520925
153	0xbc5d1ff6	-0.01349639
154	0x3c4c7dab	0.012481133
155	0x3cf3bab9	0.029752122
156	0xbd6fcae3	-0.058543097
157	0x3c5156cf	0.012777044
158	0xbd83db98	-0.064383686
159	0xbda991aa	-0.08279736
160	0x3da9edf1	0.08297337
161	0xbbf9c38b	-0.0076221875
162	0x3d0cd448	0.034382135
163	0x3d020e3b	0.031751852
164	0x3c81b8df	0.015835224
165	0x3cf85aa2	0.030316655
166	0xbd9abf5e	-0.07556032
167	0xbd9d695f	-0.076861136
168	0xbd66bc20	-0.056331754
169	0xbd3a1a72	-0.045435376
170	0x3d9043b4	0.07044163
171	0xbd859be0	-0.065238714
172	0xbd8a2a2b	-0.06746324
173	0x3d1d2844	0.03836848
174	0x3d8ca4c7	0.06867366
175	0x3d32690e	0.04355722
176	0xbd728fee	-0.059219293
177	0x3db1a0cf	0.0867325
178	0x3d5636de	0.05229842
179	0xbd50ac4c	-0.050945565
180	0xbac1ca3a	-0.0014785
181	0xbd2acd82	-0.041699894
182	0xbd8fdb79	-0.07024283
183	0xbd3ad8c3	-0.045616876
184	0xbd8cbb08	-0.06871611
185	0xbce990fe	-0.02851152
186	0x3d10f569	0.03539029
187	0xbd421e3c	-0.047392115
188	0xbd97296d	-0.07380948
189	0x3b465ed1	0.0030268917
190	0x3d7fa58b	0.062413733
191	0xbd3b983e	-0.045799486
192	0xbc9ee609	-0.019396799
193	0xbd6c4d45	-0.057690877
194	0x3c58624e	0.013207031
195	0x3d5af89c	0.05345975
196	0xbd3d5ed2	-0.046233006
197	0x3c89dda6	0.016829323
198	0x3d89e9a6	0.06734018
199	0x3ce0c553	0.027437842
200	0x3d19ae0d	0.037519503
201	0xbc66aaf2	-0.0140788425
202	0x3d94106f	0.07229697
203	0xbd9817ca	-0.074264124
204	0xbd96aac6	-0.07356791
205	0x3d3fe80b	0.046852153
206	0x3d96e233	0.07367363
207	0xbd35cead	-0.044386555
208	0x3aa553f8	0.0012613526
209	0x3c39ef8c	0.011348616
210	0x3c990b2b	0.018682083
211	0x3c65074f	0.013978793
212	0x3d262ba9	0.04056898
213	0x3d53c1f5	0.051698644
214	0x3bd59fc2	0.0065192888
215	0xbbe63492	-0.00702531
216	0x3cf64f12	0.030067
217	0x3d8a9a95	0.067677654
218	0xbd8f6e48	-0.07003456
219	0xbd470cf9	-0.048596356
220	0xbcbf7ab0	-0.023373932
221	0xbd86563f	-0.06559419
222	0x3d52ae7d	0.051435936
223	0x3d964327	0.07337027
224	0xbd956c1d	-0.072960116
225	0xbd94ae20	-0.07259774
226	0x3d55c38b	0.052188437
227	0x3d764fb4	0.060134605
228	0xbd5ca38f	-0.05386692
229	0xbc828bc7	-0.015935792
230	0xbd5f687e	-0.05454301
231	0x3ca68cbc	0.02033078
232	0xbd797ef4	-0.060912088
233	0x3da5eb1b	0.081014834
234	0xbd8064af	-0.06269204
235	0xbc3f4671	-0.011674509
236	0xbd4dff02	-0.050292023
237	0xbd3599b6	-0.044336043
238	0xbd9bbe00	-0.07604599
239	0x3d9400fe	0.07226752
240	0xbcbdc8cb	-0.023167035
241	0xbdadfdd7	-0.08495682
242	0x3da5dd20	0.08098817
243	0x3c943145	0.0180899
244	0xbc9a2c1b	-0.01881986
245	0x3da1b962	0.07896687
246	0x3d913d46	0.07091765
247	0x3d0f70ee	0.035019808
248	0xbd4c948b	-0.04994635
249	0xbc836a7d	-0.016041989
250	0x3d663444	0.056202188
251	0x3d75d8d6	0.060021244
252	0x3d70248d	0.058628608
253	0x3c061c70	0.008185491
254	0xbd69600e	-0.05697637
255	0xbda7e83e	-0.081985936

sagpool.gnn.lin_rel.weight f4 [1, 128]
0	0x3a8d7e43	0.0010795075
1	0x3d1eb84a	0.03874997
2	0x3d49b8b7	0.049248423
3	0xbd48383d	-0.048881758
4	0x3c398263	0.0113225905
5	0x3daf8832	0.08570899
6	0xbd488d39	-0.048962805
7	0xbca456e2	-0.02006096
8	0x3d803965	0.06260947
9	0x3c439083	0.01193631
10	0xbd6e6764	-0.05820407
11	0x3ce2a31a	0.027665664
12	0x3d88f5a5	0.06687478
13	0xbd2a5287	-0.04158261
14	0xbda4c90d	-0.0804616
15	0xbd1d36f1	-0.038382474
16	0x3d6f7474	0.058460668
17	0xbd9b1dc3	-0.07574036
18	0x3c85c133	0.016327476
19	0xbb1b9092	-0.0023737294
20	0xbd5844ce	-0.052799992
21	0xbc50cc89	-0.0127440775
22	0xbd942441	-0.072334774
23	0x3c10c6c9	0.008836457
24	0x3d84d8ca	0.06486662
25	0xbd73a8cc	-0.05948715
26	0x3d540b40	0.05176854
27	0xbcee2fd7	-0.029075546
28	0xbd7c7137	-0.061631408
29	0x3d31d7a6	0.04341855
30	0xbd8472e3	-0.064672254
31	0x3c152769	0.009103634
32	0x3d401cae	0.04690235
33	0xbcab30bb	-0.02089726
34	0xbcbcdf05	-0.023055563
35	0x3d05479e	0.032539003
36	0x3ccc4a4f	0.024937777
37	0x3cf55ebb	0.029952398
38	0x3cf3ffa1	0.02978498
39	0x3c93d102	0.018043999
40	0x3cfde28f	0.03099182
41	0x3c9ce513	0.0191522
42	0x3cc7835d	0.024354631
43	0x3c3f4ffe	0.0116767865
44	0x3d95de35	0.07317773
45	0x3d4902dc	0.049074993
46	0x3d3743a5	0.044742245
47	0x3d0d5a97	0.03451022
48	0xbd791b12	-0.060816832
49	0xbc905dbd	-0.017622823
50	0x3cea8a49	0.028630393
51	0x3d83e035	0.064392485
52	0x3da4bcf1	0.0804385
53	0x3d179956	0.037011467
54	0x3d908cdc	0.07058117
55	0xbd4e0030	-0.050293148
56	0xbd2adc51	-0.041714016
57	0x3d56ca3a	0.052438952
58	0x3cd913b4	0.026498653
59	0x3d6045be	0.05475401
60	0xbd7cc66e	-0.061712675
61	0x3b1aabb8	0.0023600888
62	0xbd80b454	-0.06284395
63	0xbdb0320b	-0.08603295
64	0x3bc5b41f	0.006033435
65	0xbd3c4bbb	-0.04597066
66	0xbd8fb5cc	-0.07017097
67	0xbd485dd3	-0.048917603
68	0x3da1f48d	0.079079725
69	0x3d578b5c	0.052623138
70	0xbcdd4773	-0.027011609
71	0xbd3a0cda	-0.045422412
72	0xbd8aaf6f	-0.067717426
73	0x3cabba6a	0.020962913
74	0x3da38c5c	0.07985756
75	0xbd8a44e9	-0.06751425
76	0x3d958663	0.07301023
77	0xbd81c042	-0.063354984
78	0x3d918799	0.07105941
79	0xbbe5ddba	-0.0070149573
80	0x3d68da97	0.05684909
81	0xbdad1356	-0.08450954
82	0xbc34fe5e	-0.011046974
83	0x3c9198fb	0.017773142
84	0x3d441dd2	0.04788
85	0x3d8e8119	0.06958217
86	0x3d8a2e98	0.06747168
87	0xbd7c7513	-0.06163509
88	0xbda1e15a	-0.079043105
89	0x3d81d420	0.06339288
90	0xbcd9bfdb	-0.026580742
91	0x3d4f939b	0.050677877
92	0xbdaed29b	-0.085362636
93	0xbd517ad5	-0.051142532
94	0x3d597de8	0.05309859
95	0x3d843526	0.0645545
96	0x3d49d9e0	0.049280047
97	0xbccd9b03	-0.02509833
98	0x3d8e22c9	0.069402285
99	0xbd3c60a1	-0.04599059
100	0xba331a9f	-0.0006832275
101	0xbc7f070f	-0.015565648
102	0x3d02c6de	0.031927936
103	0xbcf94431	-0.030428024
104	0xbd1cffa2	-0.038329728
105	0x3d8a0001	0.06738282
106	0x3d6aca5e	0.0573219
107	0x3d848726	0.0647109
108	0x3d1f4462	0.038883574
109	0x3d6fe81b	0.058570962
110	0x3d8f6237	0.07001155
111	0xbda54582	-0.08069898
112	0x3d494ccd	0.04914551
113	0xbd9d7c3a	-0.0768971
114	0xbd5385d2	-0.051641293
115	0xbc9d978d	-0.019237304
116	0x3d2d6b9d	0.042338956
117	0x3c2fc88b	0.0107289655
118	0x3c6b1c97	0.014350078
119	0x3cf661e0	0.030075967
120	0xbc9ecc59	-0.01938455
121	0x3d93405c	0.0719001
122	0xbdb4feec	-0.08837685
123	0x3da92143	0.08258297
124	0xbd7c1976	-0.06154772
125	0xbc18d88b	-0.009328972
126	0xbd9af483	-0.07566168
127	0xbc6baa29	-0.014383831

sagpool.gnn.lin_root.weight f4 [1, 128]
0	0x3c061e13	0.008185881
1	0xbd6af031	-0.05735797
2	0xbd05a4f8	-0.03262803
3	0x3d8f582f	0.069992416
4	0xbd7fc3b5	-0.0624425
5	0x3cc0719e	0.023491677
6	0x3d660cf3	0.056164693
7	0x3d31896e	0.043343954
8	0x3cce81a9	0.025208311
9	0x3d1be2ec	0.038058206
10	0x3c9f2518	0.019426867
11	0xbd44c5d3	-0.048040222
12	0xbd3af756	-0.045646034
13	0xbc88b998	-0.01669006
14	0x3daca083	0.08429053
15	0xbc8ddf3a	-0.017318357
16	0x3d8462ae	0.06464134
17	0x3ca88bdb	0.0205745
18	0x3da1a2a9	0.07892353
19	0x3c5285da	0.0128492955
20	0x3d65fe53	0.056150746
21	0xbc689657	-0.014196
22	0x3d3ee0d7	0.046601143
23	0xbd6961db	-0.056978088
24	0xbd89703f	-0.06710862
25	0xbd97b8c3	-0.074082874
26	0x3da38971	0.07985199
27	0xbcc997c3	-0.024608498
28	0x3cb97961	0.022640886
29	0x3cd31c4b	0.025770327
30	0x3d1c032d	0.038088966
31	0xbcf0b15c	-0.029381447
32	0xbd7269ce	-0.059182934
33	0x3d911f1e	0.07086013
34	0xbd2129ef	-0.03934663
35	0x3cba6b81	0.02275634
36	0xbd043035	-0.032272536
37	0xbd623632	-0.055227466
38	0xbce5e9d7	-0.028065605
39	0xbc9bbdb6	-0.01901136
40	0x3d399029	0.045303497
41	0x3d17d6f0	0.037070215
42	0xbc926a43	-0.017872935
43	0xbd9442b4	-0.07239285
44	0xbda71103	-0.081575416
45	0x3d69ea60	0.057108283
46	0xbc8cb903	-0.017178064
47	0xbd81fc1c	-0.06346914
48	0x3cfec5b5	0.031100133
49	0xbd89fb65	-0.06737403
50	0x3ced76ef	0.028987376
51	0xbd8adf69	-0.06780893
52	0xbdaad65b	-0.08341666
53	0xbcac2d46	-0.021017682
54	0x3d92c330	0.07166135
55	0x3d88686d	0.06660543
56	0xbd5f6997	-0.054544058
57	0xbbe0a103	-0.0068551316
58	0x3d6d4ddd	0.057935584
59	0xbc1d2a0a	-0.009592542
60	0x3d7ad143	0.061234724
61	0x3cdd5254	0.027016796
62	0xbd3e438e	-0.046451144
63	0xbd4860a5	-0.048920292
64	0xbafd3ff2	-0.0019321425
65	0x3d060b3a	0.03272555
66	0xbd64dc78	-0.055874318
67	0x3d2f14d7	0.042744484
68	0x3d85cc67	0.06533127
69	0x3d82ebe3	0.06392648
70	0xbd8aa3a9	-0.06769497
71	0x3d349908	0.044091254
72	0x3c9b0b35	0.018926242
73	0x3d90dc34	0.070732504
74	0xbd82e644	-0.06391576
75	0xbd246f4b	-0.0401452
76	0xbd8a0c67	-0.06740647
77	0x3d63e409	0.055637393
78	0x3d90f79f	0.0707848
79	0x3c4e660c	0.012597572
80	0x3b15a2e5	0.0022832688
81	0x3d35ef3b	0.0444176
82	0x3db26024	0.087097436
83	0x3c9a144e	0.01880851
84	0x3d037e12	0.032102652
85	0x3db07743	0.08616497
86	0x3d16f1fd	0.03685187
87	0x3d928990	0.07155144
88	0x3d0eb2c3	0.03483845
89	0x3c586371	0.013207302
90	0xbcec9d95	-0.028883735
91	0x3d03f1a5	0.032212872
92	0xbd4a8ce8	-0.049450785
93	0xbd1e5207	-0.038652446
94	0x3c6126f8	0.013742201
95	0xbd55f9aa	-0.05224005
96	0xbd83a90a	-0.06428726
97	0x3d992a03	0.07478716
98	0xbd3a9b40	-0.045558214
99	0xbd9ce485	-0.07660774
100	0xbd096564	-0.03354396
101	0x3c6b35b6	0.014356067
102	0x3d0b93b3	0.034076404
103	0x3d1ea1c4	0.03872849
104	0xbc5265e1	-0.012841673
105	0x3d270fdf	0.04078662
106	0x3ca39307	0.019967569
107	0x3bc1f06c	0.005918553
108	0xbda02e06	-0.07821278
109	0xbd2c0e5d	-0.042005885
110	0x3db5c532	0.08875503
111	0xbbfc4dfa	-0.007699725
112	0xbd84915d	-0.06473038
113	0xbd83d1bc	-0.06436488
114	0x3d26d4f7	0.040730443
115	0xbd1a994c	-0.03774385
116	0x3cc91a17	0.024548573
117	0x3ceb9b41	0.028760554
118	0xbc4b43af	-0.012406274
119	0x3d039fd3	0.032134842
120	0xbd8746e0	-0.06605315
121	0x3d02897d	0.0318694
122	0xbd1805e0	-0.037114978
123	0x3db6a009	0.08917243
124	0x3d8cd735	0.06876985
125	0xbd022fb1	-0.031783763
126	0x3da01ebb	0.07818361
127	0x3c3877f9	0.011259072

lin.weight f4 [64, 128]
0	0xbd85d7b8	-0.06535286
1	0x3d0edf1f	0.034880754
2	0xbda1d8a4	-0.07902649
3	0x3d38e65c	0.045141563
4	0x3cf7d354	0.030252136
5	0x3d35b002	0.044357307
6	0xbd179721	-0.037009362
7	0x3da300d1	0.0795914
8	0x3dac9705	0.08427242
9	0x3d874753	0.06605401
10	0x3bb59faa	0.005542715
11	0xbd0a52c0	-0.033770323
12	0xbd950655	-0.07276598
13	0xbd381d02	-0.04494954
14	0xbd14fa98	-0.036371797
15	0xbdb62aea	-0.08894904
16	0x3d48aa08	0.04899028
17	0x3d58f417	0.052967157
18	0x3c17a359	0.009255254
19	0x3d9e7e74	0.07738963
20	0x3da2dcce	0.079522714
21	0x3d946509	0.072458334
22	0x3d9b4e6e	0.07583319
23	0x3d1062da	0.035250522
24	0xbd886460	-0.0665977
25	0xbda16f50	-0.07882559
26	0xbd9cd2fb	-0.07657429
27	0x3ce28ede	0.027656015
28	0x3cf08bc1	0.029363515
29	0x3db61116	0.08889978
30	0x3d9b7199	0.075900264
31	0xbd851f8c	-0.06500158
32	0xbd11f7e4	-0.035636798
33	0x3d8b5a5e	0.068043455
34	0xbd4bacd7	-0.04972538
35	0xbcd787cf	-0.026309876
36	0x3cddaee4	0.027060933
37	0x3dae70f1	0.085176356
38	0xbd405ca8	-0.046963364
39	0xbda1dc98	-0.07903403
40	0xbd398df7	-0.045301404
41	0xbc530277	-0.012879006
42	0x3ce6bb4e	0.028165486
43	0xbd23bc85	-0.039974708
44	0xbd909f75	-0.07061664
45	0x3d852bb7	0.065024786
46	0x3d8131dd	0.06308339
47	0xbbd80b9c	-0.006593181
48	0xbd98a875	-0.07454006
49	0x3da62260	0.08112025
50	0x3c7a42d1	0.015274719
51	0xbb332ec7	-0.0027341114
52	0x3c1bbcd5	0.00950547
53	0xbc79e6b6	-0.01525276
54	0xbda72ada	-0.0816247
55	0xbd8d175f	-0.06889223
56	0xbd8e1038	-0.06936687
57	0xbdaa1b6e	-0.08306013
58	0x3db36ef5	0.08761398
59	0xbd941f2d	-0.07232509
60	0xbd2e5d2b	-0.04256932
61	0xbd421226	-0.04738059
62	0xbd99117d	-0.07474039
63	0x3d8733d5	0.06601683
64	0x3d8d6ec1	0.0690589
65	0xbd9d9bfb	-0.076957665
66	0x3d3d15b1	0.046163265
67	0xbd9ddeee	-0.07708536
68	0x3cd4dd85	0.025984535
69	0x3d04b40c	0.03239827
70	0xbd624581	-0.055242065
71	0xb9624f25	-0.00021582523
72	0x3d2a6d32	0.041608043
73	0xbb8891fd	-0.004167794
74	0xbbf57618	-0.0074908845
75	0xbd4b2baa	-0.04960219
76	0x3c2a690a	0.01040102
77	0xbd51b709	-0.051199947
78	0x3d0df941	0.034661535
79	0xbd58ec60	-0.0529598
80	0xbd607b30	-0.05480498
81	0x3db6f258	0.08932942
82	0x3db04c84	0.08608344
83	0x3daa9d2a	0.08330758
84	0xbcc0b330	-0.023522943
85	0x3d162afa	0.03666208
86	0xbdad731f	-0.08469223
87	0xbd4a1642	-0.049337633
88	0x3d8ca999	0.06868286
89	0xbc260ffb	-0.010135646
90	0x3cd72e08	0.026267067
91	0xbcab4bae	-0.02091011
92	0xbc690cdb	-0.014224256
93	0x3bbd8519	0.0057836887
94	0xbd479165	-0.048722643
95	0xbcc9f55e	-0.024653133
96	0x3da2f345	0.07956556
97	0xbc8801e2	-0.01660246
98	0xbd3a2b68	-0.04545155
99	0xbcda3e5c	-0.026641063
100	0xbd9d111d	-0.0766928
101	0xbda58f26	-0.08083944
102	0xbd9bb386	-0.07602601
103	0x3d837ff3	0.06420889
104	0x3a198b8f	0.00058572827
105	0xbd208cb0	-0.03919667
106	0xbd66aecb	-0.05631904
107	0x3d94e5af	0.07270371
108	0x3d05541b	0.032550912
109	0x3d401ac7	0.046900537
110	0xbd43e641	-0.04782701
111	0x3b462f34	0.0030240538
112	0xbcea78da	-0.02862208
113	0xbd57abe7	-0.052654173
114	0xbd494943	-0.049142133
115	0x3d6d414f	0.05792361
116	0x3ce2c337	0.027680976
117	0xbb3c26b9	-0.0028709604
118	0xbcc7fe6a	-0.024413306
119	0xbd96ea70	-0.07368934
120	0xbc23684d	-0.009973598
121	0x39b14cd6	0.00033817318
122	0x3d8ad2d8	0.067784965
123	0x3d2a217a	0.041535832
124	0x3d4114dd	0.047139037
125	0x3d719263	0.058977496
126	0xbd12a447	-0.0358012
127	0x3d94ad33	0.07259598
128	0x3d6780ec	0.056519434
129	0x3c93c519	0.01803832
130	0xbd8f703b	-0.07003828
131	0xbc63099e	-0.013857273
132	0xbd95f3e9	-0.07321913
133	0x3d8f7e39	0.07006497
134	0xbda3bd67	-0.0799511
135	0xbdafc7ca	-0.085830286
136	0xbd6b883f	-0.05750298
137	0x3d7e81b6	0.06213542
138	0x3d8c2dc7	0.06844669
139	0x3cfd9def	0.030959098
140	0x3d8916b3	0.06693783
141	0x3c3e12a8	0.011601128
142	0xbd12ce03	-0.035841
143	0xbcaa700e	-0.020805385
144	0xbd1cf787	-0.038321998
145	0x3d8104f4	0.06299773
146	0xbd6ff0ea	-0.058579363
147	0xbca71e34	-0.020400144
148	0xbd95566a	-0.07291873
149	0xbc84e6f3	-0.016223406
150	0x3da2b5cf	0.079448335
151	0xbd62bee9	-0.055357847
152	0x3d102215	0.035188753
153	0xbd74ff2a	-0.059813656
154	0x3b4cc48f	0.0031245088
155	0x3d9199c7	0.07109409
156	0xbd36f9df	-0.04467189
157	0xbb63d80e	-0.003476623
158	0x3cb27301	0.021783354
159	0xbd86e639	-0.0658688
160	0xbc7adcfd	-0.015311477
161	0x3d25b953	0.040459942
162	0xbcd8bc45	-0.026456961
163	0xbc0c79b9	-0.008573943
164	0xbd2b61b8	-0.04184124
165	0x3c171876	0.009222141
166	0xbb390fc7	-0.0028238164
167	0x3d85a758	0.06526059
168	0x3d9140e5	0.07092456
169	0x3c811903	0.015758997
170	0x3d31a72d	0.043372322
171	0x3d358548	0.04431656
172	0xbd59ea7d	-0.05320214
173	0x3ad4b641	0.0016228632
174	0x3cd22025	0.025650093
175	0x3cc8a763	0.024493879
176	0x3d2ca87a	0.04215286
177	0xbd254f10	-0.040358603
178	0xbb0105f2	-0.0019687382
179	0x3c8740ec	0.01651045
180	0xbd026f53	-0.03184445
181	0xbda3aa8e	-0.07991515
182	0xbda2b9f4	-0.07945624
183	0xbdb2b408	-0.087257445
184	0x3cdd7cb3	0.027037
185	0xbd430cbb	-0.047619563
186	0xbd57dc64	-0.052700415
187	0xbc88a2bd	-0.016679162
188	0xbb93698d	-0.0044986666
189	0x3d76d7fe	0.06026458
190	0x3ccea5d1	0.025225552
191	0x3d75d8ad	0.06002109
192	0xbd1106d8	-0.035406917
193	0x3d86a634	0.065746695
194	0xbd47792b	-0.04869954
195	0x3c5b8a57	0.013399682
196	0x3d9ccc05	0.07656101
197	0x3d59935f	0.05311906
198	0x3da210ef	0.07913386
199	0xbd143ad8	-0.03618893
200	0xbda33e32	-0.07970847
201	0xbd41bb60	-0.047297835
202	0xbc8f312d	-0.017479504
203	0x3d8a4db2	0.067531005
204	0xbd174286	-0.036928676
205	0xbd071dca	-0.032987393
206	0x3cbace83	0.02280355
207	0x3c18d7f1	0.009328828
208	0xbcf55881	-0.029949429
209	0x3db30f69	0.08743174
210	0x3c2d9018	0.010593437
211	0x3cbfde0f	0.023421315
212	0xbda6650d	-0.08124743
213	0x3b82ff0e	0.00399769
214	0x3d471850	0.04860717
215	0x3cd74a05	0.026280412
216	0x3da77d26	0.08178167
217	0xbdac3959	-0.08409376
218	0xbd649e73	-0.05581517
219	0xbbae655d	-0.005322142
220	0x3d5e7843	0.05431391
221	0xbd6111e0	-0.054948688
222	0x3c6cedff	0.01446104
223	0x3d1f3483	0.03886844
224	0xbd2876ad	-0.041128803
225	0xbcef197d	-0.029186958
226	0x3d49648a	0.049168147
227	0xbd366866	-0.044533156
228	0x3db84802	0.089981094
229	0xbd2647b2	-0.040595718
230	0xbce64f90	-0.02811411
231	0xbd767212	-0.06016738
232	0xbd13e0d6	-0.036103092
233	0xbcd83cef	-0.026396243
234	0xbd9f8d3f	-0.077906124
235	0x3d3f4576	0.046697102
236	0x3d1c863a	0.038213946
237	0xbb902394	-0.0043987725
238	0xbd237ceb	-0.039914053
239	0xbd31bd64	-0.043393508
240	0x3d9fc8f8	0.078020036
241	0xbdb40590	-0.087901235
242	0x3d3cc6a3	0.046087872
243	0x3d712202	0.058870323
244	0xbda0c123	-0.07849338
245	0xbd75bf37	-0.05999681
246	0xbd530174	-0.051515058
247	0xbcf28b33	-0.029607391
248	0x3d7b27a5	0.061317105
249	0xbda90612	-0.08253111
250	0x3dadacc5	0.08480219
251	0xbc4174f3	-0.011807668
252	0x3d541a2b	0.05178277
253	0xbc37910c	-0.011204015
254	0x3d29e9d0	0.041482747
255	0x3d95b642	0.073101535

lin.bias f4 [64]
0	0x3bcc5aaf	0.0062363963
1	0xbda6a260	-0.08136439
2	0x3da76062	0.081726804
3	0xbce6d480	-0.0281775
4	0x3d4f783c	0.050651774
5	0x3d118e99	0.035536382
6	0xbd8565e1	-0.065135725
7	0xbc0cdc33	-0.008597421
8	0x3d4262fa	0.047457673
9	0x3d745cb9	0.05965874
10	0x3d9b4808	0.07582098
11	0xbce8a4dd	-0.028398925
12	0xbda77eeb	-0.081785046
13	0x3db159c5	0.086597
14	0x3d5f516a	0.054521002
15	0xbc902d1f	-0.01759964
16	0xbd0fa8a9	-0.035072956
17	0x3c73a2c8	0.014870353
18	0xbd278f3f	-0.040908094
19	0x3d559471	0.052143518
20	0xbc88c723	-0.016696518
21	0x3da31c06	0.079643294
22	0xbc6ecf90	-0.014575854
23	0x3c33c024	0.010971103
24	0xbcaa34ec	-0.020777188
25	0x3d120d62	0.035657294
26	0x3ca37959	0.019955324
27	0xbd756820	-0.059913754
28	0xbd8ed254	-0.06973711
29	0x3cc44634	0.023959257
30	0xbc39a0a0	-0.0113298
31	0x3d3588d8	0.044319957
32	0xbdb4646c	-0.088082165
33	0x3ca32757	0.01991622
34	0x3d7f423e	0.062319033
35	0xbca0667f	-0.019580124
36	0xbcace667	-0.021105958
37	0x3c267060	0.010158628
38	0xbc36f6a5	-0.011167203
39	0xbc851ab0	-0.016248077
40	0xbd1235a7	-0.035695698
41	0x3d626bc4	0.055278555
42	0x3d1832d4	0.03715785
43	0xbc3c4f55	-0.011493524
44	0xbce4a376	-0.027909975
45	0x3c94eb14	0.0181785
46	0x394f5728	0.00019773527
47	0xbd7c37b5	-0.061576564
48	0xbd03cd69	-0.032178316
49	0x3d1095c8	0.035299093
50	0x3d759745	0.059958715
51	0x3cba0734	0.022708513
52	0xbdb211ed	-0.08694825
53	0xbd980b2b	-0.07424005
54	0xbd87d574	-0.0663251
55	0xbcec73a2	-0.028863732
56	0xbd44d9bf	-0.04805922
57	0x3d05f3f2	0.032703348
58	0xbd972e67	-0.073818974
59	0xbdb2c0d7	-0.087281875
60	0x3d8bd310	0.06827366
61	0xbd043084	-0.03227283
62	0x3d73431d	0.059390176
63	0x3d0d5499	0.034504507
