All_Benchmarking/DATA_19/Results/f5/best_model.pth (torch, 192098 bytes, 32 tensors)

gat1.att_src f4 [1, 4, 32]
-0.32567635 0.34069145 -0.05735052 0.07299136 0.0038112614 0.14129974 0.31828317 -0.3123109
0.117127955 -0.08499196 -0.12822433 0.3481829 -0.26113734 -0.24703461 0.012903325 -0.40225002
0.331963 -0.30417004 0.32741448 0.24450982 0.18623666 0.39193165 0.0050667045 -0.0546388
0.38681284 -0.09207715 0.28821886 0.12604006 0.23134696 -0.1029107 -0.3218214 -0.32485145
-0.1672098 0.0712079 0.24975982 0.02093525 -0.010042837 -0.31925777 0.31823215 -0.046253383
0.21350685 -0.3594905 -0.16764727 0.18463743 0.38293418 0.31410652 0.33011946 0.031591225
-0.17468154 0.16626082 -0.36837336 -0.12193834 -0.39396033 0.3869763 0.1996745 -0.4045072
0.3431427 -0.062498365 -0.12259911 -0.2986951 0.3363745 0.2250576 0.071934715 -0.20902467
0.25827459 0.2695745 -0.20187956 -0.0034535155 -0.02603464 -0.009506112 -0.3821993 -0.4072858
-0.24170364 -0.15031138 -0.39353773 0.19550207 -0.3802458 0.08660343 0.31086326 -0.30044535
0.2269913 0.031488217 0.37567148 0.3804297 -0.0743617 -0.13711515 0.026333284 -0.12527728
0.30692124 0.29104266 0.2659172 -0.384259 -0.39336216 -0.12900586 0.19384435 -0.14616661
0.0654563 -0.038338725 0.22757103 -0.37882486 -0.086295195 -0.38402694 -0.17571375 -0.34750485
0.06837595 0.12694031 -0.37559015 0.13577989 0.053985305 -0.03146731 -0.068669684 -0.18079588
0.3498734 -0.33650255 0.38058904 0.36682233 0.18544953 -0.0025062845 -0.2674805 -0.097446755
0.32847217 -0.028046058 0.0789383 0.31765336 -0.06734548 -0.32100585 0.2643624 -0.31910196
00000000: 0dbf a6be 1c6f ae3e 61e8 6abd 7f7c 953d
00000010: 5bc6 793b e1b0 103e 03f6 a23e 37e7 9fbe
00000020: c8e0 ef3d 4410 aebd 3d4d 03be 0745 b23e
00000030: cbb3 85be a4f6 7cbe 7868 533c b7f3 cdbe
00000040: 0ef7 a93e 2dbc 9bbe dfa2 a73e c860 7a3e
00000050: d3b4 3e3e 44ab c83e 9906 a63b efcc 5fbd
00000060: 550c c63e f292 bcbd 6c91 933e a510 013e
00000070: 38e6 6c3e d8c2 d2bd c6c5 a4be ee52 a6be
00000080: 0c39 2bbe 73d5 913d 0ac1 7f3e 6780 ab3c
00000090: b68a 24bc c175 a3be 53ef a23e 3074 3dbd
000000a0: 8aa1 5a3e 240f b8be baab 2bbe 9811 3d3e
000000b0: f30f c43e 92d2 a03e 6b05 a93e cd65 013d
000000c0: b8df 32be 4740 2a3e 6f9b bcbe cfba f9bd
000000d0: 2bb5 c9be c221 c63e 7977 4c3e 911b cfbe
000000e0: 66b0 af3e 49fe 7fbd 3e15 fbbd 90ee 98be
000000f0: 4739 ac3e 8075 663e 8252 933d 900a 56be
00000100: 913c 843e ab05 8a3e 84b9 4ebe 6054 62bb
00000110: 9946 d5bc 86bf 1bbc a0af c3be c487 d0be
00000120: 2981 77be 3aeb 19be c77d c9be b231 483e
00000130: 94af c2be 245d b13d 7829 9f3e f9d3 99be
00000140: 6870 683e caf9 003d 0358 c03e aec7 c23e
00000150: f24a 98bd ea67 0cbe e6b8 d73c b048 00be
00000160: c824 9d3e 8b03 953e 4d26 883e 98bd c4be
00000170: c466 c9be 1d1a 04be 227f 463e b3ac 15be
00000180: f40d 863d 1109 1dbd 6108 693e 55f5 c1be
00000190: 89bb b0bd 2e9f c4be 4eee 33be 28ec b1be
000001a0: b108 8c3d a4fc 013e 5a4d c0be e209 0b3e
000001b0: b21f 5d3d dee3 00bd b1a2 8cbd 8e22 39be
000001c0: 9b22 b33e 104a acbe 91dc c23e 23d0 bb3e
000001d0: 7be6 3d3e 7a40 24bb 34f3 88be 2a92 c7bd
000001e0: 812d a83e d9c0 e5bc 67aa a13d 76a3 a23e
000001f0: 6dec 89bd e15a a4be 825a 873e 5561 a3be

gat1.att_dst f4 [1, 4, 32]
0.106916346 -0.051643677 0.22598365 -0.28047314 -0.3340581 0.34069607 -0.33869797 -0.27405724
-0.18190105 -0.2419668 0.20205088 0.35537156 -0.30541915 -0.35204113 0.05369977 -0.31424594
-0.19539161 0.021769801 0.1727355 0.3978962 0.31581488 -0.25786012 -0.03224711 -0.25651386
-0.16907333 -0.26464346 -0.10583599 0.33531043 -0.21143816 0.27696568 -0.2230003 -0.1522525
0.017205685 -0.18279804 0.36879402 -0.27155674 0.13861777 0.013312444 0.085787974 0.3662504
0.19095007 0.02262031 -0.06749705 0.05168792 -0.0814334 0.3097831 -0.27234438 -0.12772886
-0.2916455 0.3223308 -0.291294 -0.39124393 -0.07219516 0.15718858 -0.023783185 0.07601085
0.26764005 0.35504112 -0.11764712 0.12048249 0.31081027 0.24156778 0.35692585 -0.015867673
-0.15430471 -0.24054265 0.32297736 -0.40333658 -0.08989503 -0.24759373 -0.15853205 0.30788523
-0.06758566 0.126118 0.03845407 0.051908538 0.3383275 -0.22629751 -0.31817904 0.1207682
0.25547183 0.07987935 -0.1842071 -0.34604138 -0.19303945 -0.0117571745 -0.19279085 -0.30186355
-0.29069844 0.25608727 -0.29922077 -0.3625409 -0.40508476 0.01450927 0.19267301 0.098483086
0.038387578 0.35635382 -0.026450256 -0.24374521 0.08095774 -0.10361731 -0.08271732 -0.08241552
-0.12129351 -0.107927494 -0.3302493 0.070002206 -0.075686395 -0.1412643 -0.35194522 -0.0013411075
0.31726047 0.38901997 -0.22386038 0.03942018 -0.16515103 0.017400114 -0.24212407 -0.058061752
0.070976004 -0.39975724 0.15367688 0.3777281 -0.09430734 -0.37721467 0.377582 -0.22099467
00000000: f5f6 da3d 5288 53bd 4268 673e 2d9a 8fbe
00000010: aa09 abbe b76f ae3e d269 adbe 3b51 8cbe
00000020: 4544 3abe 25c6 77be 6de6 4e3e 43f3 b53e
00000030: e65f 9cbe bc3e b4be 4af4 5b3d d8e4 a0be
00000040: bd14 48be 9556 b23c 93e1 303e 0db9 cb3e
00000050: 7db2 a13e 3e06 84be 8c15 04bd c955 83be
00000060: 8f21 2dbe 597f 87be 8ac0 d8bd cfad ab3e
00000070: 3f83 58be 72ce 8d3e 315a 64be 14e8 1bbe
00000080: f0f2 8c3c 692f 3bbe 92d2 bc3e 7c09 8bbe
00000090: d1f1 0d3e 701c 5a3c 9bb1 af3d 2c85 bb3e
000000a0: 6a88 433e 3a4e b93c e53b 8abd b6b6 533d
000000b0: 8ec6 a6bd e49b 9e3e b970 8bbe 5bcb 02be
000000c0: 8f52 95be 8b08 a53e 7d24 95be 2051 c8be
000000d0: 0edb 93bd 0bf6 203e f4d4 c2bc 94ab 9b3d
000000e0: 1e08 893e f3c7 b53e f9f0 f0bd 86bf f63d
000000f0: 8622 9f3e 8b5d 773e fcbe b63e ecfc 81bc
00000100: 0e02 1ebe d050 76be 4a5d a53e 2282 cebe
00000110: e31a b8bd 3689 7dbe 3a56 22be 22a3 9d3e
00000120: 5a6a 8abd 1425 013e 0482 1d3d 0c9e 543d
00000130: 4339 ad3e 89ba 67be 5de8 a2be 5155 f73d
00000140: 34cd 823e c997 a33d c9a0 3cbe 562c b1be
00000150: 22ac 45be 2aa1 40bc f76a 45be dc8d 9abe
00000160: 6dd6 94be df1d 833e 7733 99be f69e b9be
00000170: 4567 cfbe 4ab8 6d3c 134c 453e 80b1 c93d
00000180: 4b3c 1d3d 0274 b63e 35ae d8bc 5898 79be
00000190: 2ccd a53d 5035 d4bd b367 a9bd 78c9 a8bd
000001a0: bb68 f8bd 1709 ddbd 7016 a9be 515d 8f3d
000001b0: 7801 9bbd 97a7 10be 2a32 b4be 1ac8 afba
000001c0: f76f a23e a02d c73e a83b 65be 0e77 213d
000001d0: 5a1d 29be af8a 8e3c 5fef 77be 29d2 6dbd
000001e0: de5b 913d fbac ccbe 795d 1d3e 9465 c13e
000001f0: 3524 c1bd 4822 c1be 6e52 c13e 6d4c 62be

gat1.bias f4 [128]
4.7527912e-05 9.467513e-05 -2.8047329e-05 2.6108315e-05 -0.00011222973 2.5153991e-05 0.0001208682 8.79132e-05
-0.00011460624 0.00010613713 -5.551019e-05 -1.9355606e-05 2.2529253e-05 4.2879983e-05 5.0512408e-05 1.14639315e-05
9.627043e-05 -5.6683846e-05 0.00011292374 -1.30653925e-05 -4.8156664e-05 7.714777e-05 3.238382e-05 6.368902e-05
6.3570165e-05 -4.128272e-05 1.7804447e-05 -0.0001280764 -6.812102e-05 0.00013826032 0.00011699509 2.2587142e-06
6.560088e-05 3.8079965e-05 -0.0001581959 -4.647697e-05 -3.166865e-05 -3.061934e-05 0.00016949364 -2.3055058e-05
3.7959988e-05 5.2019186e-05 2.0563857e-05 -7.0809997e-06 -0.00014044957 6.797091e-05 -5.6012457e-05 -4.906674e-05
2.010223e-05 -6.655469e-05 4.8905094e-05 7.921215e-06 -0.00017699374 1.40429875e-05 -0.00014668354 -1.5079059e-05
4.5500783e-06 0.00016678004 -0.00013331456 -2.6098534e-05 9.8818426e-05 -4.2559215e-05 6.9951944e-05 -2.96237e-05
9.619493e-05 -5.8499834e-05 -1.2336506e-05 6.721422e-05 -1.0208831e-05 2.8090767e-06 0.0001276366 -0.00012433456
-6.594071e-05 3.310823e-05 -7.552129e-05 -5.0143804e-05 9.19629e-05 7.1710247e-07 4.352855e-05 -9.296214e-05
0.00015999799 -9.8670665e-05 0.00016237418 6.5054825e-05 5.9496742e-05 -4.1064104e-05 -3.6780122e-05 -7.299706e-05
6.3234875e-05 6.0373663e-05 4.1637166e-05 -0.0002072946 0.00018093675 3.5409703e-05 2.033067e-05 6.379251e-05
-0.00012447248 -2.9608125e-05 6.473084e-05 5.2427395e-06 9.4106064e-05 4.6603334e-05 0.00012023622 -3.057256e-05
-0.00012614968 -2.2831017e-07 -0.00012256502 0.00011918788 0.00012937923 5.1646555e-05 -1.7782368e-05 -0.00017489206
0.00012367185 -4.8486518e-06 -3.0916846e-05 -0.00018835049 0.00010978783 -5.8355832e-05 1.393725e-05 9.7367134e-05
-3.520091e-05 6.931778e-05 -0.00018733589 -2.2914013e-05 5.7523284e-05 -1.5339108e-05 -0.000104245526 1.2152862e-05
00000000: b558 4738 538c c638 2e47 ebb7 2e03 db37
00000010: e15c ebb8 c901 d337 9f7a fd38 0a5e b838
00000020: c258 f0b8 f095 de38 9dd3 68b8 d95d a2b7
00000030: 34fd bc37 08da 3338 49dd 5338 3655 4037
00000040: cbe4 c938 d1bf 6db8 79d1 ec38 6f33 5bb7
00000050: d3fb 49b8 65ca a138 ddd3 0738 c890 8538
00000060: f950 8538 fc26 2db8 c25a 9537 3f4c 06b9
00000070: 32dc 8eb8 f9f9 1039 435b f538 6a94 1736
00000080: 3493 8938 0db8 1f38 63e1 25b9 44f0 42b8
00000090: f4d3 04b8 446d 00b8 1aba 3139 5c66 c1b7
000000a0: 3a37 1f38 2d2f 5a38 8c80 ac37 5399 edb6
000000b0: a545 13b9 9b8b 8e38 ebee 6ab8 03cd 4db8
000000c0: 36a1 a837 4793 8bb8 721f 4d38 5ce5 0437
000000d0: 6597 39b9 2c9a 6b37 10cf 19b9 11fc 7cb7
000000e0: e0ac 9836 ade1 2e39 5bca 0bb9 2dee dab7
000000f0: bd3c cf38 9c81 32b8 2ab3 9238 6980 f8b7
00000100: 43bc c938 b85d 75b8 e4f8 4eb7 5cf5 8c38
00000110: 9846 2bb7 9283 3c36 30d6 0539 ce5f 02b9
00000120: a649 8ab8 b1dd 0a38 2f61 9eb8 8051 52b8
00000130: 35dc c038 e87e 4035 6d92 3638 abf4 c2b8
00000140: 22c5 2739 69ed ceb8 fd42 2a39 0b6e 8838
00000150: 248c 7938 3f3c 2cb8 5b44 1ab8 0016 99b8
00000160: f79c 8438 ba39 7d38 91a3 2e38 385d 59b9
00000170: d7b9 3d39 e184 1438 c88b aa37 58c8 8538
00000180: d484 02b9 f75e f8b7 1bc0 8738 caea af36
00000190: cf5a c538 f377 4338 5427 fc38 093b 00b8
000001a0: 0c47 04b9 6c25 75b4 cc84 00b9 81f4 f938
000001b0: f9a9 0739 119f 5838 582b 95b7 3b63 37b9
000001c0: e9ad 0139 9ab1 a2b6 b6ac 01b8 f37f 45b9
000001d0: e43d e638 19c3 74b8 08d4 6937 9531 cc38
000001e0: b0a4 13b8 b35e 9138 986f 44b9 7837 c0b7
000001f0: 2845 7138 7cac 80b7 649e dab8 25e4 4b37

gat1.lin.weight f4 [128, 5]
0.060782168 0.19006227 0.039608568 0.03911225 -0.14200541 0.052380014 -0.12585028 -0.13986138
0.08247161 -0.15054527 0.07425115 -0.13890912 -0.19460626 0.01331546 0.023046607 0.16351141
-0.121555515 0.04466951 -0.10453792 -0.04692081 0.110338055 0.04119065 0.05514281 -0.08695092
-0.19207227 -0.085258566 0.11759188 -0.05994525 0.15129037 0.12517178 -0.14549707 0.08202198
-0.11236247 0.04304624 -0.04963093 0.18487716 -0.16065992 0.18006945 0.20418704 0.10475542
-0.03632362 0.1976442 0.030277336 -0.027169738 0.067421265 -0.13702697 -0.03398243 -0.18565248
0.066066094 0.054506537 0.01710916 -0.13678536 0.06962575 0.16873835 -0.011955387 0.18788967
-0.20230399 0.00062560313 -0.20740844 0.10548803 0.06427245 0.14141606 0.17438345 0.036288273
0.09679444 0.19786248 0.18169458 -0.12735927 0.043968853 0.17095806 0.12434564 -0.015795195
0.19042479 -0.05391489 -0.01553543 -0.008576423 -0.1751568 0.2117619 0.0044905893 -0.1566154
0.05122676 0.16072023 0.019142274 -0.19156812 0.1580862 -0.09188128 0.010256702 0.099126406
-0.1389531 0.16828185 -0.17236596 0.16226321 0.021645743 0.08702531 -0.013609553 -0.04487681
-0.07796242 -0.037843555 0.07695044 0.007122837 -0.09171535 0.02907345 -0.12245988 -0.026760675
-0.067251615 -0.1683101 -0.12994644 -0.051674135 0.1940528 -0.16910118 -0.11377059 -0.18713963
-0.21073078 0.20152768 -0.08798599 0.07060968 -0.051002465 0.09597297 0.057424225 -0.022009894
-0.12049721 -0.05287127 -0.10604621 -0.09180662 0.108347714 0.071878664 -3.7717713e-05 0.07414912
0.20355439 0.051370587 0.06514908 -0.10504641 -0.053416073 -0.021482322 0.087235354 0.17699115
-0.076909035 0.15954804 -0.14589183 0.02364298 -0.06421638 -0.081310794 -0.15855448 -0.19055568
-0.054608542 -0.011812657 0.16624606 -0.20589477 0.03749028 0.18825658 -0.103775635 0.0065347804
0.05552649 -0.0018913378 -0.022544658 -0.12527204 0.14122437 0.15291622 -0.03590995 -0.048772562
-0.20868026 -0.14818402 -0.11149851 -0.08375264 0.19579512 -0.08208977 -0.016730709 0.002154218
0.062043883 -0.14221828 -0.14447497 0.009485818 0.023411965 -0.0971795 0.043469403 -0.12964863
-0.18521194 -0.18704312 -0.026816087 0.111384325 0.046692442 -0.0043617534 0.20922996 -0.19587266
0.027147379 0.18905301 0.14751975 0.18182954 -0.06734714 -0.05462079 -0.029363552 -0.16964734
-0.13779828 0.19765979 -0.15175292 0.20787577 -0.20686215 0.13729875 0.00029797552 0.06163563
0.08053815 -0.13833559 0.0074998587 0.09385662 0.07624569 -0.063700795 0.15044996 -0.04416819
0.16109821 0.20977288 0.079143666 -0.03399662 0.05814784 -0.1724385 -0.17380866 0.033609875
-0.13177773 0.028196359 -0.013188538 0.19351937 0.032127835 -0.0752899 0.122843206 0.059383858
0.13576028 0.068736315 -0.19030312 -0.0265452 0.06130179 -0.043607615 0.13328536 0.03443687
0.21154755 -0.17407529 0.0698467 0.14124665 -0.12610452 0.014687479 -0.13633214 0.20445415
-0.110192 0.15738474 -0.07487573 0.12725353 -0.04425153 -0.19632488 0.17628643 -0.08769781
-0.10812483 -0.06503297 -0.20906112 -0.0017463997 -0.16486692 -0.0012349442 -0.051775847 0.07220568
00000000: b9f6 783d af9f 423e 983c 223d 2b34 203d
00000010: de69 11be 6d8c 563d e5de 00be d237 0fbe
00000020: e0e6 a83d 8a28 1abe fd10 983d 313e 0ebe
00000030: dd46 47be 1629 5a3c 3dcc bc3c 896f 273e
00000040: 19f2 f8bd 60f7 363d fa17 d6bd 0930 40bd
00000050: ebf8 e13d 87b7 283d 6ddd 613d 5313 b2bd
00000060: 98ae 44be 0b9c aebd 03d4 f03d 2789 75bd
00000070: ddeb 1a3e 082d 003e 2ffd 14be 24fb a73d
00000080: 4b1e e6bd 4151 303d cd49 4bbd 7050 3d3e
00000090: 0984 24be 2064 383e 6816 513e 028a d63d
000000a0: 13c8 14bd 3e63 4a3e 2d08 f83c 1293 debc
000000b0: 2914 8a3d cc50 0cbe 2931 0bbd af1b 3ebe
000000c0: a94d 873d 3f42 5f3d 8228 8c3c 7611 0cbe
000000d0: f297 8e3d bfc9 2c3e 87e0 43bc 2666 403e
000000e0: c728 4fbe 84ff 233a e162 54be 1c0a d83d
000000f0: 46a1 833d 5fcf 103e 9391 323e 03a3 143d
00000100: 2a3c c63d 769c 4a3e 250e 3a3e 786a 02be
00000110: af18 343d a10f 2f3e eda8 fe3d ed64 81bc
00000120: b7fe 423e dcd5 5cbd 5188 7ebc 2084 0cbc
00000130: 4e5c 33be 1dd8 583e cb25 933b ca5f 20be
00000140: 27d3 513d d893 243e 42d0 9c3c 6f2a 44be
00000150: 59e1 213e 412c bcbd ba0b 283c c902 cb3d
00000160: b949 0ebe 1452 2c3e b480 30be 5428 263e
00000170: 6a52 b13c 533a b23d 9afa 5ebc bfd0 37bd
00000180: c3aa 9fbd d801 1bbd 3198 9d3d b066 e93b
00000190: 42d5 bbbd 722b ee3c 3fcc fabd 3439 dbbc
000001a0: 37bb 89bd 7c59 2cbe ae10 05be 42a8 53bd
000001b0: c7b5 463e dc28 2dbe 8e00 e9bd 88a1 3fbe
000001c0: cfc9 57be 465d 4e3e 0032 b4bd cf9b 903d
000001d0: f6e7 50bd 7a8d c43d aa35 6b3d 184e b4bc
000001e0: 3ec7 f6bd 8b8f 58bd c12e d9bd 1c05 bcbd
000001f0: 68e5 dd3d 1f35 933d 1633 1eb8 7edb 973d
00000200: 9070 503e f769 523d e16c 853d 9222 d7bd
00000210: d0ca 5abd b2fb afbc 73a8 b23d 2b3d 353e
00000220: 7c82 9dbd 9060 233e ab64 15be ecae c13c
00000230: e183 83bd 4686 a6bd 1b5c 22be 0721 43be
00000240: 35ad 5fbd e089 41bc 683c 2a3e 14d6 52be
00000250: 688f 193d 55c6 403e 5288 d4bd b621 d63b
00000260: bf6f 633d c4e6 f7ba 93af b8bc 5047 00be
00000270: 1f9d 103e 1296 1c3e 5016 13bd bdc5 47bd
00000280: 47b0 55be 8dbd 17be 5559 e4bd 8186 abbd
00000290: 847e 483e ae1e a8bd d70e 89bc c82d 0d3b
000002a0: ba21 7e3d aba1 11be 3ff1 13be 686a 1b3c
000002b0: 73ca bf3c 0c06 c7bd f90c 323d 9cc2 04be
000002c0: 33a8 3dbe 3b88 3fbe 69ad dbbc 771d e43d
000002d0: 9340 3f3d 0aed 8ebb 6140 563e d892 48be
000002e0: 2e64 de3c 1d97 413e 6b0f 173e 8631 3a3e
000002f0: 4ced 89bd 0dba 5fbd d58b f0bc 08b8 2dbe
00000300: fe1a 0dbe 5467 4a3e 1e65 1bbe 63dd 543e
00000310: acd3 53be 0b98 0c3e 9939 9c39 a475 7c3d
00000320: 30f1 a43d d8a7 0dbe 60c1 f53b e637 c03d
00000330: b326 9c3d 9075 82bd 8e0f 1a3e b4e9 34bd
00000340: eef6 243e b4ce 563e 1316 a23d 0a40 0bbd
00000350: 6e2c 6e3d b893 30be e6fa 31be 82aa 093d
00000360: bef0 06be 0dfc e63c bd14 58bc f129 463e
00000370: 7a98 033d 9731 9abd 3895 fb3d 7d3c 733d
00000380: be04 0b3e a0c5 8c3d d2de 42be 5275 d9bc
00000390: 9617 7b3d e69d 32bd f57b 083e ad0d 0d3d
000003a0: ec9f 583e cb40 32be c90b 8f3d f6a2 103e
000003b0: 8b21 01be c0a3 703c a79a 0bbe 6e5c 513e
000003c0: 58ac e1bd 7729 213e 7258 99bd c04e 023e
000003d0: 1841 35bd 6409 49be 6e84 343e e99a b3bd
000003e0: 8d70 ddbd 0130 85bd 1e14 56be 73e7 e4ba
000003f0: e0d2 28be dadd a1ba e912 54bd 92e0 933d

sage1.lin_l.weight f4 [128, 128]
-0.04814631 0.08650059 -0.055027578 -0.061535377 0.06291767 -0.08379369 -0.025935946 -0.050451174
0.08713612 0.06110574 0.044250194 -0.028128482 -0.07725397 0.028091246 0.045795687 -0.048295483
-0.02512058 -0.051302444 -0.08588298 -0.0862364 -0.046600174 -0.048366964 0.05100814 -0.027970385
0.073294185 -0.031620316 0.0034735096 -0.08785987 -0.029711124 -0.005598697 0.0115414765 -0.047839083
0.026617939 0.075619094 -0.058794864 -0.039013542 -0.08625082 -0.036611035 -0.060366172 -0.004192001
0.055353712 0.023704698 -0.011066391 -0.042286735 -0.022151282 -0.009913208 0.03615034 0.008374213
0.03588771 0.054228447 -0.030956212 0.07231922 -0.05465762 0.05158026 -0.0651248 -0.003653626
0.08097917 -0.031142771 -0.060464595 -0.045078453 0.07654816 -0.054304503 0.013906825 0.02761998
0.005788727 -0.07063491 0.015986534 0.08311678 0.06839325 -0.0835138 -0.026451988 0.076827295
-0.08547062 -0.015488771 -0.07670097 0.029962901 0.041173708 0.006236685 0.085659906 -0.015249508
-0.0063580335 -0.054814924 0.04078735 0.03929262 0.0053244038 0.03370869 -0.008510987 -0.05146011
0.036181357 0.07657908 -0.020855986 0.024577478 -0.012834937 0.01604883 0.05893978 -0.08517974
0.06822589 0.05965918 0.085172705 0.06930597 -0.026139218 -0.075390905 0.05003149 0.03158252
0.06717741 -0.0074009965 0.036628164 -0.06673608 -0.06423806 0.076241516 0.027323967 0.08096201
-0.005207859 0.082726054 0.06052727 0.0012879629 0.0687344 -0.057609756 0.03044682 0.004739573
-0.010348273 0.08646314 -0.021493994 -0.027032893 0.041886732 -0.08129815 0.053283397 -0.06980421
-0.02425869 -0.05906853 0.023959927 0.028462557 0.072715506 -0.045923878 0.009230903 -0.08858718
0.057935763 -0.063293405 -0.00049860374 -0.009973603 -0.06331089 0.00065126375 0.08731824 0.0089029735
0.010197547 0.058290668 0.0404941 0.020714285 0.07134888 -0.003347879 -0.051663257 -0.0803912
-0.025601408 -0.07441129 0.07736808 0.023404378 0.049142662 0.014715205 0.0014253918 0.020584498
-0.08106882 -0.029865831 -0.07674955 0.038453877 -0.016512206 0.04419062 -0.036493022 0.012073023
-0.013696846 -0.067788474 0.08300034 0.04313166 0.05284819 -0.08093192 -0.049065273 -0.018164849
0.052963603 -0.029850505 0.04793001 -0.011955204 -0.062018685 0.04669436 -0.05510412 -0.014864278
-0.06423086 -0.07335401 -0.040438082 -0.027000714 0.01958748 0.07868002 -0.072046585 -0.02735751
-0.013914772 0.055285834 0.07643373 -0.02704473 0.08462504 0.07049565 -0.024129717 0.00072611077
-0.017209988 0.08254603 -0.061721817 0.08152292 -0.057905614 -0.024806641 0.021038972 -0.06500385
0.063699394 -0.050850898 -0.007279937 0.05056801 -0.06791629 0.019010156 0.08158241 0.037764188
-0.030880086 0.05810065 0.06548578 -0.024723083 -0.058855277 -0.018214567 0.03468376 -0.048077952
0.0725863 -0.016060267 0.085600086 -0.0052066226 -0.0064867795 0.019093579 -0.07767148 -0.0030042827
0.048418507 -0.07616252 -0.06256258 8.0294936e-05 0.01368571 -0.049192008 -0.07986946 -0.08374353
-0.050602548 0.08740017 -0.086403385 -0.0019491876 -0.036214303 0.0001959071 0.042043515 -0.027328998
0.06160687 0.028825037 -0.073877595 -0.07068173 -0.05909577 -0.04763308 -0.045774356 0.037873045
00000000: 1135 45bd 3927 b13d 9964 61bd 850c 7cbd
00000010: fbda 803d 079c abbd 9f77 d4bc e4a5 4ebd
00000020: 6c74 b23d 034a 7a3d b13f 353d b46d e6bc
00000030: 5437 9ebd 9d1f e63c 4294 3b3d 7cd1 45bd
00000040: adc9 cdbc 8322 52bd 6ae3 afbd b69c b0bd
00000050: d3df 3ebd 701c 46bd e9ed 503d 2622 e5bc
00000060: 431b 963d 4e84 01bd d2a3 633b e0ef b3bd
00000070: be64 f3bc 4675 b7bb 7618 3d3c eaf2 43bd
00000080: dd0d da3c 2fde 9a3d e2d2 70bd aacc 1fbd
00000090: 45a4 b0bd 74f5 15bd 8542 77bd 0e5d 89bb
000000a0: 93ba 623d 5b30 c23c cf4f 35bc db34 2dbd
000000b0: 9b76 b5bc 026b 22bc 6112 143d ff33 093c
000000c0: fefe 123d a61e 5e3d e297 fdbc 191c 943d
000000d0: abe0 5fbd d345 533d 2760 85bd ac71 6fbb
000000e0: 68d8 a53d 201f ffbc b9a9 77bd 2fa4 38bd
000000f0: 48c5 9c3d 666e 5ebd 74d9 633c 4c43 e23c
00000100: 5daf bd3b 09a9 90bd 31f6 823c 2139 aa3d
00000110: c311 8c3d 4809 abbd d7b1 d8bc a157 9d3d
00000120: 380b afbd 9dc4 7dbc 6615 9dbd c274 f53c
00000130: c3a5 283d 1b5d cc3b 766e af3d 13d9 79bc
00000140: 0d57 d0bb 9d85 60bd a310 273d 4cf1 203d
00000150: 5678 ae3b 2012 0a3d ab71 0bbc d6c7 52bd
00000160: e732 143d 7ed5 9c3d 2cda aabc b556 c93c
00000170: a149 52bc d678 833c d76a 713d b772 aebd
00000180: 04ba 8b3d 2f5d 743d 076f ae3d 4af0 8d3d
00000190: ea21 d6bc 8c66 9abd d2ed 4c3d ac5c 013d
000001a0: 4f94 893d 0f84 f2bb 6a07 163d edac 88bd
000001b0: 3e8f 83bd 8324 9c3d 83d6 df3c 69cf a53d
000001c0: b0a6 aabb 476c a93d 71eb 773d ddd0 a83a
000001d0: 9fc4 8c3d 35f8 6bbd 9c6b f93c 6c4e 9b3b
000001e0: ce8b 29bc 9613 b13d 2c14 b0bc 1674 ddbc
000001f0: 6c91 2b3d a57f a6bd b13f 5a3d 82f5 8ebd
00000200: 29ba c6bc d8f1 71bd 9c47 c43c 4f2a e93c
00000210: deeb 943d ad1a 3cbd 373d 173c 326d b5bd
00000220: 0d4e 6d3d f99f 81bd bbb4 02ba 5368 23bc
00000230: 24a9 81bd 92b9 2a3a e8d3 b23d c7dd 113c
00000240: 9d13 273c 32c2 6e3d 24dd 253d 01b1 a93c
00000250: 5d1f 923d 1768 5bbb da9c 53bd 24a4 a4bd
00000260: 0bba d1bc f264 98bd 2873 9e3d 8aba bf3c
00000270: d149 493d 0b18 713c 36d4 ba3a d2a0 a83c
00000280: 6907 a6bd 30a9 f4bc de2e 9dbd d081 1d3d
00000290: 9b44 87bc 3901 353d b579 15bd eecd 453c
000002a0: bc68 60bc afd4 8abd 15fc a93d d3aa 303d
000002b0: 5877 583d a2bf a5bd abf8 48bd 73ce 94bc
000002c0: 5df0 583d 0c89 f4bc 4252 443d c3df 43bc
000002d0: 4e07 7ebd 9642 3f3d dcb4 61bd 4d89 73bc
000002e0: 788b 83bd a13a 96bd 67a2 25bd 9a30 ddbc
000002f0: ec75 a03c fe22 a13d 298d 93bd db1c e0bc
00000300: c9fa 63bc 6673 623d 4a89 9c3d e98c ddbc
00000310: e54f ad3d 0660 903d afab c5bc 7858 3e3a
00000320: f6fb 8cbc e50d a93d 04d0 7cbd 7df5 a63d
00000330: 702e 6dbd 4c37 cbbc ec59 ac3c bd20 85bd
00000340: d474 823d 0849 50bd 8a8c eebb 6720 4f3d
00000350: b217 8bbd 30bb 9b3c ae14 a73d 9fae 1a3d
00000360: 3cf8 fcbc f2fa 6d3d 691d 863d 1088 cabc
00000370: 3b12 71bd b736 95bc 8f10 0e3d 63ed 44bd
00000380: 20a8 943d d290 83bc 194f af3d 519c aabb
00000390: 0d8f d4bb 236a 9c3c 3a12 9fbd 80e3 44bb
000003a0: 7c52 463d 18fb 9bbd cf20 80bd 0464 a838
000003b0: 073a 603c 8f7d 49bd 9992 a3bd ba81 abbd
000003c0: 9e44 4fbd dcfe b23d 42f4 b0bd e27b ffba
000003d0: 7355 14bd 696c 4d39 d235 2c3d 10e1 dfbc
000003e0: 7c57 7c3d 7c22 ec3c 234d 97bd 95c1 90bd
000003f0: 680e 72bd e81a 43bd e47d 3bbd c420 1b3d

sage1.lin_l.bias f4 [128]
0.015011431 0.060540047 0.015197669 -0.07283947 -0.03018287 -0.015273421 -0.06228094 -0.06159833
-0.041034177 0.059820667 0.035649687 -0.040389705 0.07404765 0.019699644 -0.07186443 -0.08809252
0.014169376 0.07618645 0.02536395 0.028089326 -0.008752912 0.067710206 0.052406482 -0.054565486
0.07955359 0.0817613 0.042080764 0.026949499 -0.00523916 0.028689146 -0.0413109 0.016231412
-0.08342577 -0.060697608 0.0072666192 -0.0032759758 0.07034802 0.04148737 0.027956802 -0.041226845
0.068316825 0.06782759 -0.033059027 -0.048230294 -0.08838962 0.08240941 -0.070164874 -0.06780037
0.06312757 0.019652408 -0.04814392 -0.07632535 0.070106044 -0.032957807 -0.026544299 -0.030687127
0.034075666 -0.05778982 0.005886443 0.03311583 0.023352671 -0.060558334 -0.043902 0.05684555
0.055909477 0.012038507 0.02769146 0.06902974 -0.04825213 0.04363689 0.0126151545 0.013934896
0.04797834 -0.036098078 0.0020045529 -0.05553078 0.06801634 -0.07393931 -0.0076028733 0.0098650465
-0.04652129 0.011230903 0.05145215 -0.07971552 0.009105116 -0.051877424 0.06506806 0.040917955
-0.067287594 0.035402697 -0.06426808 0.0022982345 0.05907501 -0.0732109 0.04430604 -0.06252201
0.07285313 -0.08036153 0.0106097795 0.00071183895 -0.06280357 -0.0055910526 0.0057655484 0.07518525
-0.075663 0.05584253 0.07409683 -0.077185914 -0.053282857 0.06932881 -0.07552006 0.046160694
-0.059346713 -0.0696905 0.074296616 0.06312037 0.0016306798 0.005000032 0.04394281 0.017377775
-0.075933985 -0.048977703 0.0034753508 -0.08264824 0.020313937 0.085983664 -0.0019121298 -0.023033336
00000000: 81f2 753c d7f8 773d a5ff 783c dc2c 95bd
00000010: 1142 f7bc 5f3d 7abc 4d1a 7fbd 884e 7cbd
00000020: 7413 28bd 8406 753d 6805 123d ad6f 25bd
00000030: 4ba6 973d 2661 a13c a92d 93bd da69 b4bd
00000040: ac26 683c a407 9c3d 0fc8 cf3c 961b e63c
00000050: 6068 0fbc a6ab 8a3d 2ea8 563d 0f80 5fbd
00000060: feec a23d 7872 a73d e15c 2c3d 32c5 dc3c
00000070: 42ad abbb 8005 eb3c 9e35 29bd bdf7 843c
00000080: 21db aabd 0e9e 78bd d21c ee3b c1b1 56bb
00000090: 9f12 903d a9ee 293d aa05 e53c 7bdd 28bd
000000a0: b1e9 8b3d 31e9 8a3d e768 07bd 218d 45bd
000000b0: 9e05 b5bd 44c6 a83d 9ab2 8fbd ecda 8abd
000000c0: 0749 813d 16fe a03c 8f32 45bd 7750 9cbd
000000d0: c293 8f3d c4fe 06bd 6e73 d9bc 9263 fbbc
000000e0: ed92 0b3d 05b5 6cbd 10e3 c03b 77a4 073d
000000f0: 1a4e bf3c 040c 78bd 95d2 33bd e1d6 683d
00000100: 5601 653d 283d 453c 33d9 e23c 775f 8d3d
00000110: 07a4 45bd 98bc 323d cbaf 4e3c 314f 643c
00000120: f084 443d 94db 13bd d15e 033b 3e74 63bd
00000130: 274c 8b3d 7e6d 97bd 8621 f9bb 01a1 213c
00000140: 1c8d 3ebd d201 383c 7dbf 523d e441 a3bd
00000150: a02d 153c 6c7d 54bd 6742 853d 9699 273d
00000160: 14ce 89bd 6b02 113d fc9e 83bd fa9d 163b
00000170: a3f8 713d 99ef 95bd 407a 353d 8a0b 80bd
00000180: 0634 953d 9694 a4bd a4d4 2d3c b49a 3a3a
00000190: 289f 80bd 2635 b7bb edec bc3b b9fa 993d
000001a0: 34f5 9abd 23bb 643d 14c0 973d a613 9ebd
000001b0: 203f 5abd 43fc 8d3d 43aa 9abd ff12 3d3d
000001c0: 8a15 73bd e5b9 8ebd d328 983d 4145 813d
000001d0: 89bc d53a 4fd7 a33b 60fd 333d d65b 8e3c
000001e0: 4783 9bbd d89c 48bd b6c2 633b 7b43 a9bd
000001f0: 6a69 a63c 3418 b03d 6ea0 faba 68b0 bcbc

sage1.lin_r.weight f4 [128, 128]
-0.061247822 0.027969265 0.029795943 -0.08699403 -0.07854652 0.024256518 0.064704426 0.029646952
0.0048165605 0.03178615 -0.03617886 0.02196842 0.033990532 0.07984812 0.037435535 0.009277625
-0.018522749 0.033077367 0.08507533 0.047898747 -0.056205332 0.077900834 -0.087498434 -0.031063577
-0.035475798 0.001951646 0.058379754 -0.0146133 0.042982105 -0.037643377 0.0441238 0.056282643
-0.084515676 0.017041525 0.07445707 0.024167093 0.057266038 -0.015813224 0.071179345 -0.045741927
-0.08262807 -0.045043252 -0.0007568217 0.049304936 -0.024158532 0.070818365 -0.07184716 -0.081068695
-0.0123245185 -0.08739604 -0.0034344683 -0.08282944 0.028387684 -0.050184656 -0.032014016 -0.046572052
-0.07585592 -0.03411375 0.07074344 0.015023177 -0.026816411 -0.08180583 -0.04402158 -0.081183285
0.05105161 0.07424929 0.017966272 -0.025082046 0.08765169 0.020283025 0.0822518 -0.008371323
-0.042355716 -0.08718874 -0.07515386 0.058367103 -0.046106815 0.06542177 -0.004458289 0.02177296
-0.067561045 -0.0007881069 0.055330284 0.06730838 -0.084771916 0.015483796 0.041547164 -0.034327716
0.078350924 0.018142497 -0.0027804952 0.06185564 0.06770909 0.023532204 -0.046365242 0.051960573
0.061008077 0.08201 -0.083938904 0.06333784 0.06737994 0.08778358 0.038426973 0.08602071
-0.074167855 0.028686855 0.03793687 0.045873906 -0.06372905 -0.011402856 -0.042926934 0.022149567
-0.06799499 0.016247135 -0.030585047 0.027644403 0.05177568 0.064686246 0.02871568 -0.05242884
-0.009730667 0.020659875 0.07943389 -0.05470776 -0.050950725 -0.048995256 0.068899244 -0.017884992
-0.07174961 0.0753024 -0.032996792 0.054623183 -0.013402289 0.062852 0.018658912 -0.005561496
0.068503454 0.046562843 -0.002546451 -0.08285605 -0.055020522 -0.08005672 -0.05574772 0.019871105
0.055329517 -0.04327256 -0.016021945 0.024475373 0.07265658 0.050176382 0.03909807 -0.085775636
0.0314468 0.08145298 -0.044395927 -0.081185035 0.04362351 0.03830358 -0.008367818 0.079238676
0.031513825 -0.013770095 -0.061878227 -0.017844118 0.055878665 0.056265928 0.08091083 -0.012569644
-0.08808118 -0.022747707 -0.046953566 -0.004291835 -0.017103514 -0.0771639 0.045334145 0.074883305
-0.0076778475 0.047381956 -0.052470785 0.08700154 0.052871294 0.06624261 -0.04148344 0.018788576
0.060307313 -0.0180276 -0.08219685 0.025159433 -0.01683136 -0.058867805 0.039848555 0.013923908
0.009204551 -0.05063455 -0.043524764 0.046236534 0.019268533 0.01035022 0.045059025 0.053266943
0.032998715 0.026836587 -0.050117906 0.035159964 0.04560942 0.015019274 0.06995741 0.08511393
0.032613896 -0.02531659 -0.0023249504 0.042153902 -0.08737092 0.03314696 0.08451098 -0.005180543
0.011731213 0.029383274 0.010275274 0.020226227 0.07583783 0.07773153 0.04427025 -0.040924612
0.07021611 0.035654224 0.064945616 -0.015641402 -0.083550796 0.06511135 -0.05892738 0.046005283
0.01850113 0.081369035 -0.08593693 -0.0061444514 -0.04625398 -0.011556638 -0.06514732 0.027093368
0.07377485 0.04138841 -0.06834608 0.022358008 -0.060959533 0.05784115 -0.064031444 0.044521958
0.03875682 -0.008597331 0.0065172752 -0.07472551 0.02572482 0.011719635 -0.08308514 -0.047728755
00000000: ffde 7abd cd1f e53c 9f16 f43c ed29 b2bd
00000010: ffdc a0bd 9bb5 c63c c183 843d 2ade f23c
00000020: 3dd4 9d3b 3232 023d 4930 14bd 1ef7 b33c
00000030: a839 0b3d 6987 a33d 0156 193d 2e01 183c
00000040: 05bd 97bc 227c 073d fa3b ae3d 7a31 443d
00000050: 9037 66bd 798a 9f3d 6132 b3bd 0b79 febc
00000060: 124f 11bd 5fce ff3a 9c1f 6f3d 9f6c 6fbc
00000070: 010e 303d f12f 1abd 28bb 343d a188 663d
00000080: 8e16 adbd ab9a 8b3c f37c 983d 11fa c53c
00000090: cb8f 6a3d bc8a 81bc 7ac6 913d e35b 3bbd
000000a0: e838 a9bd 467f 38bd 7265 46ba f9f3 493d
000000b0: 1de8 c5bc 3809 913d 9b24 93bd 5807 a6bd
000000c0: c7ec 49bc b2fc b2bd d114 61bb 7ba2 a9bd
000000d0: 4a8d e83c 6d8e 4dbd 2121 03bd 56c2 3ebd
000000e0: 595a 9bbd dcba 0bbd f0e1 903d c523 763c
000000f0: 17ae dbbc d189 a7bd f94f 34bd 6c43 a6bd
00000100: 7e1b 513d 0310 983d 012e 933c dd78 cdbc
00000110: bb82 b33d 9628 a63c a273 a83d e027 09bc
00000120: 307d 2dbd 0390 b2bd 44ea 99bd 5812 6f3d
00000130: 80da 3cbd d9fb 853d d716 92bb 355d b23c
00000140: 725d 8abd f598 4eba 02a2 623d fad8 893d
00000150: e69c adbd bfaf 7d3c 5c2d 2a3d 389b 0cbd
00000160: 7376 a03d 939f 943c f838 36bb 575c 7d3d
00000170: 10ab 8a3d 9cc6 c03c 7be9 3dbd 9cd4 543d
00000180: 9be3 793d dcf4 a73d 29e8 abbd 45b7 813d
00000190: 7efe 893d e1c7 b33d 9a65 1d3d a02b b03d
000001a0: 51e5 97bd b200 eb3c b163 1b3d 47e6 3b3d
000001b0: 6084 82bd 0bd3 3abc 27d4 2fbd 0273 b53c
000001c0: f540 8bbd b618 853c 7e8d fabc 8476 e23c
000001d0: bc12 543d 397a 843d 253d eb3c a0bf 56bd
000001e0: 606d 1fbc e63e a93c 3cae a23d 3f15 60bd
000001f0: b5b1 50bd 40af 48bd 0c1b 8d3d 8c83 92bc
00000200: 76f1 92bd 2538 9a3d a527 07bd 8fbc 5f3d
00000210: 4695 5bbc 8db8 803d 93da 983c 363d b6bb
00000220: 8a4b 8c3d aeb8 3e3d 5ce2 26bb 6fb0 a9bd
00000230: 335d 61bd c7f4 a3bd b957 64bd bac8 a23c
00000240: 34a1 623d 913e 31bd 7440 83bc 9480 c83c
00000250: f9cc 943d c085 4d3d 4c25 203d 23ab afbd
00000260: 5cce 003d d2d0 a63d 81d8 35bd 5744 a6bd
00000270: 91ae 323d 37e4 1c3d 2c19 09bc e347 a23d
00000280: a414 013d f79b 61bc 0674 7dbd d42d 92bc
00000290: 07e1 643d 1a77 663d 94b4 a53d e8f0 4dbc
000002a0: e863 b4bd 6659 babc 6252 40bd 85a2 8cbb
000002b0: ab1c 8cbc 1b08 9ebd 4cb0 393d 6b5c 993d
000002c0: 7496 fbbb 9513 423d 9beb 56bd dd2d b23d
000002d0: 928f 583d 35aa 873d 8aea 29bd 80ea 993c
000002e0: cd04 773d 9eae 93bc d256 a8bd 281b ce3c
000002f0: ece1 89bc 5e1f 71bd 3d38 233d 1a21 643c
00000300: afce 163c 2d66 4fbd 0647 32bd 8562 3d3d
00000310: 0bd9 9d3c f893 293c d08f 383d 702e 5a3d
00000320: a929 073d 67d8 db3c 6f48 4dbd e503 103d
00000330: f1d0 3a3d 6713 763c d545 8f3d 3650 ae3d
00000340: 2696 053d bd64 cfbc 325e 18bb 92a9 2c3d
00000350: 86ef b2bd 1bc5 073d 1814 ad3d 8bc1 a9bb
00000360: 4634 403c 31b5 f03c 9f59 283c 79b1 a53c
00000370: dd50 9b3d b531 9f3d b954 353d 91a0 27bd
00000380: 77cd 8f3d 2a0a 123d 3502 853d 6622 80bc
00000390: ae1c abbd 1959 853d d65d 71bd 0970 3c3d
000003a0: af8f 973c cfa4 a63d b3ff afbd 6557 c9bb
000003b0: d074 3dbd 0e58 3dbc f56b 85bd e9f2 dd3c
000003c0: 4517 973d e586 293d 08f9 8bbd 2428 b73c
000003d0: b4b0 79bd d7ea 6c3d eb22 83bd a85c 363d
000003e0: 79bf 1e3d d2db 0cbc de8e d53b b009 99bd
000003f0: dcbc d23c b603 403c 8b28 aabd 3a7f 43bd

sagpool.gnn.lin_rel.weight f4 [1, 128]
-0.062386837 0.02552659 -0.041096516 -0.049680125 -0.033693723 0.043941904 -0.07778222 -0.032785498
-0.082222 0.08835327 0.060775198 0.055447735 0.047338787 0.07709308 0.024954569 0.08067946
-0.08079461 -0.08712019 -0.051263403 -0.081565484 0.04229355 0.057841968 0.008731719 -0.051168974
0.013803156 0.054750267 -0.026796514 0.014650432 -0.002768641 -0.05672251 -0.06514062 -0.037008382
0.07791964 0.027472422 0.028411964 -0.04036576 -0.0791456 0.08017868 0.007172212 0.080258876
0.087105244 0.01162651 -0.037802093 -0.03933243 0.0026609378 -0.08193129 0.03604299 -0.08729753
-0.028280137 -0.03859453 -0.05510234 0.050245974 -0.040138982 -0.007952833 0.033819985 0.07096054
0.060434792 -0.056701846 -0.04769094 -0.008487501 0.054004148 0.04387309 0.03438629 -0.054580435
0.026668206 -0.059919327 0.044328947 0.047540132 -0.010206041 0.070598595 -0.08346142 -0.0027390127
-0.043135557 -0.07266128 0.07381418 -0.0791088 -0.04330807 -0.032442976 -0.014537072 0.06806571
0.079351485 -0.022947803 0.085683316 -0.018318418 -0.04196125 -0.07441022 0.031439118 0.004465983
-0.0040554265 -0.06412442 0.01336096 0.0551018 -0.053190082 -0.06357909 0.08281958 0.021008717
-0.05218426 0.08070427 0.07861419 -0.07462869 -0.01822126 -0.012064256 0.068279035 0.041529685
-0.08695533 -0.068358526 -0.02498215 0.06075776 0.039929204 -0.07296632 -0.029806394 -0.07939134
-0.033364452 0.034082334 0.0050773663 -0.031464577 0.05624754 0.044946995 0.08254169 0.0065540555
-0.029080635 -0.05076967 0.014658979 0.06451693 -0.044676363 -0.024795381 -0.007566588 -0.08623278
00000000: 5789 7fbd 241d d13c d254 28bd 637d 4bbd
00000010: 6e02 0abd 6dfc 333d 494c 9fbd 164a 06bd
00000020: 0264 a8bd 8ff2 b43d 6aef 783d 2a1d 633d
00000030: 51e6 413d fae2 9d3d 866d cc3c 463b a53d
00000040: a577 a5bd 126c b2bd 93f9 51bd ce0b a7bd
00000050: 003c 2d3d b3eb 6c3d 7c0f 0f3c 8f96 51bd
00000060: a226 623c d141 603d 5d84 dbbc 5e08 703c
00000070: 1772 35bb dd55 68bd 7268 85bd 1a96 17bd
00000080: 5594 9f3d d80d e13c 35c0 e83c 9156 25bd
00000090: 1717 a2bd b834 a43d e004 eb3b c45e a43d
000000a0: 3c64 b23d 1e7d 3e3c 5ed6 1abd 0b1b 21bd
000000b0: 2163 2e3b 98cb a7bd d0a1 133d 0cc9 b2bd
000000c0: bfab e7bc 4c15 1ebd feb2 61bd b9ce 4d3d
000000d0: c668 24bd 994c 02bc d386 0a3d c253 913d
000000e0: 798a 773d 3240 68bd 9357 43bd 290f 0bbc
000000f0: 7433 5d3d 45b4 333d a3d8 0c3d bc8f 5fbd
00000100: 4877 da3c f86d 75bd 4592 353d 71b9 423d
00000110: 3d37 27bc ff95 903d d2ed aabd 0281 33bb
00000120: e9ae 30bd 70cf 94bd e42b 973d cb03 a2bd
00000130: ce63 31bd ede2 04bd e62c 6ebc 0966 8b3d
00000140: 0883 a23d 08fd bbbc bc7a af3d 8210 96bc
00000150: 8fdf 2bbd 6364 98bd 4ec6 003d 6157 923b
00000160: 62e3 84bb aa53 83bd eee7 5a3c 6db2 613d
00000170: d8dd 59bd c135 82bd 509d a93d 791a ac3c
00000180: 2abf 55bd 4848 a53d 7a00 a13d edd6 98bd
00000190: c044 95bc 28a9 45bc e1d5 8b3d 081b 2a3d
000001a0: a315 b2bd 8eff 8bbd 5ea7 ccbc 21dd 783d
000001b0: ce8c 233d 5e6f 95bd 8a2c f4bc ed97 a2bd
000001c0: 2aa9 08bd eb99 0b3d 0960 a63b 00e1 00bd
000001d0: d263 663d 571a 383d 9e0b a93d 67c3 d63b
000001e0: 833a eebc dcf3 4fbd 372c 703c 7421 843d
000001f0: 90fe 36bd af1f cbbc 24f1 f7bb d09a b0bd

sagpool.gnn.lin_root.weight f4 [1, 128]
-0.031697813 0.059590306 -0.026571833 0.032340888 -0.035598014 -0.04688922 -0.0650457 0.020112555
0.02435065 0.039192744 -0.005000453 -0.059377845 -0.068663605 0.032866698 0.043684162 -0.06467219
0.082549535 0.011246049 0.02939042 0.07014174 0.017330537 -0.06298392 0.023849586 -0.085709736
0.08090037 -0.072451405 -0.06105148 -0.045753367 0.03136503 -0.0668354 -0.07105576 0.025074193
-0.0035565125 0.052332487 0.06296934 -0.032371998 0.025413508 -0.004295371 -0.011445085 -0.0053341254
0.04325009 -0.07405276 0.075337864 0.078514256 -0.06727264 0.009132815 0.08666249 0.05215785
-0.08566184 -0.030221006 0.026573248 -0.07456154 -0.023457944 -0.06409872 0.016185703 -0.045143407
0.012296862 0.05440808 0.056714647 0.054036498 -0.071112916 -0.05238359 -0.072368085 0.005753358
0.030248456 -0.052168835 0.07696606 0.060260013 -0.056202203 0.018189853 -0.06365597 0.07392245
0.020444574 -0.001264534 0.053038448 5.0558054e-05 -0.0017706795 -0.017347615 0.08749922 -0.08807803
0.040677745 0.011568794 -0.028295865 0.07107022 -0.031208789 0.040739633 0.085634254 0.07177091
0.027534349 -0.05976337 -0.03748247 -0.03608009 -0.08681292 -0.051884286 -0.03296935 0.063031726
-0.008967731 -0.054407388 -0.0018305633 -0.04729179 -0.04887824 -0.02092133 -0.0009928402 0.040985763
-0.051872097 0.07894948 -0.07704313 -0.06196951 -0.07965204 -0.054401837 -0.082407035 0.013863898
-0.017991029 -0.027115664 -0.081551015 0.03185344 -0.038222574 -0.08748761 -0.06508021 -0.02699588
0.07133622 0.019415032 0.05399014 0.017350424 -0.07408461 -0.012567993 -0.06594248 0.0023808195
00000000: 91d5 01bd f714 743d 2cad d9bc e177 043d
00000010: 39cf 11bd e90e 40bd ae36 85bd 16c3 a43c
00000020: 047b c73c 9288 203d d7da a3bb 2f36 73bd
00000030: 819f 8cbd 3b9f 063d 2aee 323d da72 84bd
00000040: bb0f a93d 5941 383c 2ec4 f03c 79a6 8f3d
00000050: c5f8 8d3c b7fd 80bd 3560 c33c 9688 afbd
00000060: 18af a53d 6761 94bd 1e11 7abd e267 3bbd
00000070: 9e78 003d 00e1 88bd af85 91bd 6568 cd3c
00000080: 6114 69bb 975a 563d 12f6 803d 8098 04bd
00000090: fd2f d03c 2fc0 8cbb 2a84 3bbc e3c9 aebb
000000a0: 0227 313d f9a8 97bd bd4a 9a3d 15cc a03d
000000b0: 3dc6 89bd cda1 153c 1b7c b13d 78a3 553d
000000c0: 7a6f afbd 0b92 f7bc 24b0 d93c b8b3 98bd
000000d0: e02a c0bc 3146 83bd e197 843c 4be8 38bd
000000e0: c778 493c 02db 5e3d 9e4d 683d 6055 5d3d
000000f0: a6a3 91bd 2d90 56bd b835 94bd aa86 bc3b
00000100: 9ccb f73c fdae 55bd 62a0 9d3d 34d3 763d
00000110: 4834 66bd e302 953c 105e 82bd a764 973d
00000120: 617b a73c b8be a5ba d83e 593d 4c0e 5438
00000130: 2516 e8ba 961c 8ebc cb32 b33d 4162 b4bd
00000140: b59d 263d 0a8b 3d3c bbcc e7bc 438d 913d
00000150: 93a9 ffbc 9ade 263d 0361 af3d a0fc 923d
00000160: b78f e13c 6fca 74bd 3887 19bd b7c8 13bd
00000170: f9ca b1bd 9e84 54bd df0a 07bd c716 813d
00000180: 64ed 12bc 48da 5ebd 83ef efba 09b5 41bd
00000190: 8d34 48bd 3663 abbc 3022 82ba b0e0 273d
000001a0: d677 54bd 44b0 a13d cac8 9dbd bed3 7dbd
000001b0: 9c20 a3bd 76d4 5ebd 05c5 a8bd 6725 633c
000001c0: ec61 93bc ab21 debc 3804 a7bd c178 023d
000001d0: 468f 1cbd b42c b3bd c648 85bd 7726 ddbc
000001e0: b918 923d 460c 9f3c c424 5d3d 7a22 8e3c
000001f0: acb9 97bd fce9 4dbc da0c 87bd 8607 1c3b

lin.weight f4 [64, 128]
0.026125686 0.031595558 0.08308902 -0.031146467 -0.05484923 0.008025519 0.065169446 -0.07539094
-0.06603291 0.0018048891 0.07315132 -0.033261433 0.04318519 0.042428195 -0.0003645572 0.013004995
-0.04825538 -0.07150163 -0.058472894 -0.041579567 -0.06663756 0.04747773 -0.058545418 -0.08800348
0.03899818 -0.07884291 0.087256156 0.07528185 -0.05626398 -0.084585175 0.08140088 0.07725556
0.017221194 -0.013347722 0.08380361 -0.041996717 0.06868171 -0.006203026 -0.035172403 0.043691076
-0.0113554355 0.01995438 0.06348279 -0.02016439 -0.08668398 -0.012533385 -0.086814396 0.05872425
-0.074625105 -0.07027966 -0.053521708 0.07746624 0.0020632502 -0.0026769612 -0.05177279 0.08747146
-0.0372814 -0.061858345 0.056124423 0.036632635 -0.018711021 0.08581125 -0.08501157 -0.07589012
-0.012171875 0.02302944 0.07277385 -0.073076636 -0.021538546 0.025552966 0.016391361 -0.0052982667
-0.0015959285 -0.05162025 0.007701944 -0.0035273298 -0.0005663627 -0.04493901 -0.04038355 0.07451385
0.040102948 -0.068597585 -0.060664054 -0.082686 0.032794405 0.06909627 0.06412283 0.027543355
-0.03129095 -0.030295948 0.080393925 -0.008471338 0.014729309 -0.085141085 -0.07299303 -0.019070195
0.065330416 -0.006782286 -0.07124154 -0.036806107 0.035562735 -0.06981098 0.07526151 0.052261952
-0.00933611 -0.08493238 -0.00058749906 -0.07627759 -0.046943925 0.03285773 -0.010442773 -0.0019988501
-0.02333791 -0.04491332 0.0051816427 -0.008908262 -0.06729978 0.025320377 -0.03482046 -0.057606332
0.06314413 -0.056951474 0.037538018 0.078294955 0.021046944 -0.050970454 -0.06107993 0.05069198
0.023168579 -0.0029808013 0.08619328 0.08428997 -0.028595299 0.075563505 0.055714697 -0.056157358
-0.08620398 0.051152367 -0.022240436 -0.08212824 0.0327232 -0.050083406 0.0820189 0.08167511
-0.03731304 0.040485878 0.081532024 0.042606797 0.045232642 0.011791847 0.041186675 -0.013709779
-0.06732577 -0.04683236 0.01613665 -0.018020742 -0.0018084871 0.044804636 0.03372106 0.062302493
0.039211567 -0.030545823 0.012030638 0.07704407 -0.018974826 0.08665197 0.08504501 0.07174111
0.0641117 0.015162753 -0.014029487 0.06216493 -0.005750525 0.033160355 -0.07449992 0.028909575
0.05682733 0.0052492977 -0.023878546 0.022797126 0.06957306 0.05583729 -0.015861541 -0.055370543
0.053065952 0.005227962 -0.06741073 0.081432424 -0.052069023 0.00086492725 0.062038 -0.042068727
0.00864798 0.06588853 -0.025953103 0.050690662 0.0013407357 -0.018624308 -0.039915424 0.05438005
-0.02622009 -0.031126373 -0.032785874 0.015892452 0.029559044 0.05042923 0.010429622 0.06715556
0.019578729 -0.08276057 0.041660633 0.05864813 0.08516247 -0.039623503 -0.07110126 0.0030169764
-0.038961347 -0.009702323 -0.04259179 0.0675383 0.06971188 -0.041024145 0.043270297 0.020670295
0.027101696 -0.024581436 0.033610303 0.08051653 0.06818803 -0.0843822 -0.0733794 -0.022402784
-0.0074603036 0.04190804 -0.049520377 -0.009231731 0.007899472 -0.060227465 0.064477935 0.004189568
-0.033946097 0.08634111 0.010310954 0.019686362 0.038684297 0.06644759 0.0162926 0.060208347
-0.030601565 -0.057209563 -0.06711054 0.050420754 -0.058347583 0.0530617 0.05520481 0.031503256
00000000: 8905 d63c 586a 013d 932a aa3d e026 ffbc
00000010: 96a9 60bd 777d 033c 8f77 853d 9166 9abd
00000020: 433c 87bd 0792 ec3a 5cd0 953d 243d 08bd
00000030: f4e2 303d 30c9 2d3d 0a22 bfb9 e712 553c
00000040: 6fa7 45bd 726f 92bd 4681 6fbd 564f 2abd
00000050: 4679 88bd 0278 423d 52cd 6fbd 2b3b b4bd
00000060: 8ebc 1f3d 6478 a1bd 5bb3 b23d 5f2d 9a3d
00000070: 0f75 66bd fe3a adbd 81b5 a63d 2a38 9e3d
00000080: 7613 8d3c 67b0 5abc 3aa1 ab3d c004 2cbd
00000090: ffa8 8c3d c142 cbbb f010 10bd 6af5 323d
000000a0: 260c 3abc 5e77 a33c 4403 823d ca2f a5bc
000000b0: 5f87 b1bd d458 4dbc bfcb b1bd d788 703d
000000c0: 0cd5 98bd c8ee 8fbd 9439 5bbd 9fa6 9e3d
000000d0: 9837 073b f56f 2fbb b40f 54bd 3d24 b33d
000000e0: 62b4 18bd 2d5f 7dbd b9e2 653d 1a0c 163d
000000f0: db47 99bc cfbd af3d 8c1a aebd 476c 9bbd
00000100: 8b6c 47bc 3ca8 bc3c 750a 953d 34a9 95bd
00000110: 9b71 b0bc 7454 d13c 2d47 863c 159d adbb
00000120: 792e d1ba c16f 53bd 9760 fc3b c62a 67bb
00000130: f577 14ba f811 38bd 3969 25bd b89a 983d
00000140: fd42 243d e47c 8cbd df7a 78bd 4757 a9bd
00000150: 6d53 063d 5882 8d3d d552 833d 9aa2 e13c
00000160: f02a 00bd 352f f8bc 92a5 a43d 5ecb 0abc
00000170: 3353 713c 735e aebd 5f7d 95bd 1939 9cbc
00000180: f4cb 853d f03d debb 16e7 91bd 00c2 16bd
00000190: 3baa 113d 0ff9 8ebd b522 9a3d a110 563d
000001a0: 7cf6 18bc 07f1 adbd 6502 1aba 6d37 9cbd
000001b0: 4648 40bd d495 063d 2a18 2bbc 24ff 02bb
000001c0: 252f bfbc 08f7 37bd c5ca a93b f5f3 11bc
000001d0: 78d4 89bd ae6c cf3c e69f 0ebd 9ef4 6bbd
000001e0: b651 813d f345 69bd 77c1 193d 1b59 a03d
000001f0: a46a ac3c 65c6 50bd f32e 7abd 65a2 4f3d
00000200: 08cc bd3c 8c59 43bb 1a86 b03d 38a0 ac3d
00000210: b040 eabc 0ac1 9a3d 1835 643d 4205 66bd
00000220: b68b b0bd 2585 513d 9331 b6bc da32 a8bd
00000230: c308 063d 4224 4dbd 86f9 a73d 4845 a73d
00000240: 8fd5 18bd 85d4 253d 43fa a63d 7784 2e3d
00000250: dd45 393d 9732 413c 5cb3 283d fb9e 60bc
00000260: 18e2 89bd 4ad3 3fbd 0231 843c 3ca0 93bc
00000270: c20a edba 1185 373d 181f 0a3d e630 7f3d
00000280: 4f9c 203d 3c3b fabc 271c 453c 48c9 9d3d
00000290: 1871 9bbc 9776 b13d 142c ae3d 01ed 923d
000002a0: ff4c 833d 326d 783c efdb 65bc a7a0 7e3d
000002b0: e66e bcbb 27d3 073d 6a93 98bd c6d3 ec3c
000002c0: c6c3 683d 4d02 ac3b f19c c3bc 0ac1 ba3c
000002d0: 527c 8e3d a4b5 643d 10f0 81bc 39cc 62bd
000002e0: af5b 593d 534f ab3b a30e 8abd 0bc6 a63d
000002f0: 5446 55bd 49bc 623a 8f1b 7e3d 4250 2cbd
00000300: 42b0 0d3c 91f0 863d 9a9b d4bc 03a1 4f3d
00000310: a0bb af3a 0192 98bc 5b7e 23bd 9ebd 5e3d
00000320: 84cb d6bc bcfc febc 7b4a 06bd e330 823c
00000330: cf25 f23c e18e 4e3d 01e1 2a3c db88 893d
00000340: 9263 a03c 607e a9bd 57a4 2a3d 0639 703d
00000350: a969 ae3d 414c 22bd 8a9d 91bd 77b8 453b
00000360: ef95 1fbd 7ef6 1ebc bb74 2ebd 8551 8a3d
00000370: 1ac5 8e3d ef08 28bd 323c 313d c054 a93c
00000380: 6004 de3c 025f c9bc f5aa 093d dae5 a43d
00000390: 2aa6 8b3d 93d0 acbd f047 96bd 0b86 b7bc
000003a0: 9075 f4bb c4a7 2b3d e1d5 4abd b040 17bc
000003b0: c96c 013c 13b1 76bd 020d 843d a548 893b
000003c0: 100b 0bbd 9cd3 b03d 47ef 283c 4b45 a13c
000003d0: 6d73 1e3d ad15 883d 0f78 853c 079d 763d
000003e0: 22b0 fabc 9354 6abd 4071 89bd fe85 4e3d
000003f0: e0fd 6ebd 3a57 593d 701e 623d 8f09 013d

lin.bias f4 [64]
0.031182015 -0.045299836 0.032270566 0.07754255 0.034208596 -0.018964007 -0.055051237 -0.042543583
0.0736177 0.05920617 0.057077147 -0.014766768 -0.044888433 -0.014094655 -0.023027178 -0.019633662
-0.048738517 -0.018125467 -0.079403386 -0.04219738 0.020746484 -0.04779714 0.0804623 0.023697373
0.04890326 -0.02021993 0.05664785 0.06352996 0.024314309 0.05100186 0.078772604 0.045118254
-0.057364207 0.038705595 -0.072853684 0.03221891 -0.08326569 0.07534609 -0.08543057 0.07547144
0.059641466 0.08161567 0.0060910834 0.016432308 -0.04802951 -0.05762034 0.055162568 0.06837735
-0.079711646 0.0068994346 -0.043565873 -0.008403529 0.08261345 -0.03275083 0.07610037 -0.033404954
-0.024744924 0.054265555 0.017896034 -0.0046613016 0.020078596 -0.036781613 -0.051864695 -0.037562788
00000000: 6d71 ff3c 528c 39bd 242e 043d a1ce 9e3d
00000010: 501e 0c3d 685a 9bbc 687d 61bd 2e42 2ebd
00000020: e0c4 963d 2b82 723d bac9 693d 50f0 71bc
00000030: efdc 37bd 45ed 66bc 7ea3 bcbc c6d6 a0bc
00000040: 0aa2 47bd dc7b 94bc 3e9e a2bd 29d7 2cbd
00000050: 88f4 a93c efc6 43bd 6bc9 a43d fe20 c23c
00000060: c94e 483d 44a4 a5bc 9307 683d ff1b 823d
00000070: cd2e c73c 54e7 503d 8853 a13d ebcd 383d
00000080: bbf6 6abd c289 1e3d 5034 95bd faf7 033d
00000090: 3487 aabd 0d4f 9a3d 39f6 aebd c590 9a3d
000000a0: 9c4a 743d 1e26 a73d b697 c73b 0c9d 863c
000000b0: 97ba 44bd 4e03 6cbd 25f2 613d 6d09 8c3d
000000c0: dc3f a3bd a714 e23b 2172 32bd f5ae 09bc
000000d0: 3e31 a93d bc25 06bd 83da 9b3d a2d3 08bd
000000e0: deb5 cabc 8f45 5e3d b49a 923c d5bd 98bb
000000f0: de7b a43c 51a8 16bd 1370 54bd 70db 19bd

fc.weight f4 [1, 64]
0.12405095 -0.07213495 0.11966424 0.08843932 -0.030162204 -0.07461043 -0.065146275 -0.007327088
-0.08994104 -0.08781149 0.12151221 0.068469785 -0.048396803 0.05648483 0.03387556 -0.016351612
0.07643713 -0.026362844 -0.037155256 0.09494537 0.012209891 -0.046521842 -0.07429953 0.03210724
-0.067866765 -0.09441122 -0.05759576 0.0975415 0.08415472 -0.107875235 -0.06858162 0.06541293
-0.12126638 0.005218679 0.082559355 0.10734392 -0.055219937 -0.095210716 -0.053950865 0.077756
-0.050481427 0.10962377 0.09454682 0.047706738 0.003303911 0.093754746 -0.028798744 0.12249577
0.0919528 -0.046605837 0.05695749 -0.013619322 0.07407572 -0.03051983 0.07147668 0.09519189
-0.06780705 0.025792738 0.019946083 -0.06547038 -0.0735426 -0.123567574 0.018415367 -0.013702077
00000000: 6d0e fe3d 7dbb 93bd 8612 f53d ad1f b53d
00000010: ba16 f7bc 5acd 98bd 696b 85bd 1218 f0bb
00000020: 0233 b8bd 83d6 b3bd 65db f83d e339 8c3d
00000030: ba3b 46bd a35c 673d 19c1 0a3d d1f3 85bc
00000040: 128b 9c3d e4f6 d7bc 1c30 18bd b872 c23d
00000050: ff0b 483c b08d 3ebd 5a2a 98bd e282 033d
00000060: bbfd 8abd ab5a c1bd 88e9 6bbd d7c3 c73d
00000070: 4f59 ac3d b1ed dcbd 8574 8cbd 37f7 853d
00000080: 825a f8bd 7401 ab3b e114 a93d 21d7 db3d
00000090: 4d2e 62bd d6fd c2bd 95fb 5cbd 8a3e 9f3d
000000a0: 9dc5 4ebd 6d82 e03d c3a1 c13d 2468 433d
000000b0: 6e86 583b 7d02 c03d 58eb ebbc 10df fa3d
000000c0: c051 bc3d c3e5 3ebd 424c 693d 9423 5fbc
000000d0: 03b5 973d b904 fabc 5e62 923d f7f3 c23d
000000e0: 6cde 8abd 4b4b d33c f865 a33c 5615 86bd
000000f0: 819d 96bd ff10 fdbd d3db 963c ad7e 60bc

gcn_batch_norm.weight f4 [128]
1.0 1.0 1.0 1.0 1.0 1.0 1.0 1.0
1.0 1.0 1.0 1.0 1.0 1.0 1.0 1.0
1.0 1.0 1.0 1.0 1.0 1.0 1.0 1.0
1.0 1.0 1.0 1.0 1.0 1.0 1.0 1.0
1.0 1.0 1.0 1.0 1.0 1.0 1.0 1.0
1.0 1.0 1.0 1.0 1.0 1.0 1.0 1.0
1.0 1.0 1.0 1.0 1.0 1.0 1.0 1.0
1.0 1.0 1.0 1.0 1.0 1.0 1.0 1.0
1.0 1.0 1.0 1.0 1.0 1.0 1.0 1.0
1.0 1.0 1.0 1.0 1.0 1.0 1.0 1.0
1.0 1.0 1.0 1.0 1.0 1.0 1.0 1.0
1.0 1.0 1.0 1.0 1.0 1.0 1.0 1.0
1.0 1.0 1.0 1.0 1.0 1.0 1.0 1.0
1.0 1.0 1.0 1.0 1.0 1.0 1.0 1.0
1.0 1.0 1.0 1.0 1.0 1.0 1.0 1.0
1.0 1.0 1.0 1.0 1.0 1.0 1.0 1.0
00000000: 0000 803f 0000 803f 0000 803f 0000 803f
00000010: 0000 803f 0000 803f 0000 803f 0000 803f
00000020: 0000 803f 0000 803f 0000 803f 0000 803f
00000030: 0000 803f 0000 803f 0000 803f 0000 803f
00000040: 0000 803f 0000 803f 0000 803f 0000 803f
00000050: 0000 803f 0000 803f 0000 803f 0000 803f
00000060: 0000 803f 0000 803f 0000 803f 0000 803f
00000070: 0000 803f 0000 803f 0000 803f 0000 803f
00000080: 0000 803f 0000 803f 0000 803f 0000 803f
00000090: 0000 803f 0000 803f 0000 803f 0000 803f
000000a0: 0000 803f 0000 803f 0000 803f 0000 803f
000000b0: 0000 803f 0000 803f 0000 803f 0000 803f
000000c0: 0000 803f 0000 803f 0000 803f 0000 803f
000000d0: 0000 803f 0000 803f 0000 803f 0000 803f
000000e0: 0000 803f 0000 803f 0000 803f 0000 803f
000000f0: 0000 803f 0000 803f 0000 803f 0000 803f
00000100: 0000 803f 0000 803f 0000 803f 0000 803f
00000110: 0000 803f 0000 803f 0000 803f 0000 803f
00000120: 0000 803f 0000 803f 0000 803f 0000 803f
00000130: 0000 803f 0000 803f 0000 803f 0000 803f
00000140: 0000 803f 0000 803f 0000 803f 0000 803f
00000150: 0000 803f 0000 803f 0000 803f 0000 803f
00000160: 0000 803f 0000 803f 0000 803f 0000 803f
00000170: 0000 803f 0000 803f 0000 803f 0000 803f
00000180: 0000 803f 0000 803f 0000 803f 0000 803f
00000190: 0000 803f 0000 803f 0000 803f 0000 803f
000001a0: 0000 803f 0000 803f 0000 803f 0000 803f
000001b0: 0000 803f 0000 803f 0000 803f 0000 803f
000001c0: 0000 803f 0000 803f 0000 803f 0000 803f
000001d0: 0000 803f 0000 803f 0000 803f 0000 803f
000001e0: 0000 803f 0000 803f 0000 803f 0000 803f
000001f0: 0000 803f 0000 803f 0000 803f 0000 803f
