All_Benchmarking/DATA_23/Results/f2/best_model.pth (torch, 192098 bytes, 32 tensors)

gat1.att_src f4 [1, 4, 32]
000000 1a f1 7f 3d 8d c3 64 3e 8f 08 73 bd 2a 3c cc be
       0.06248579 0.22340222 -0.059334334 -0.39889652
000010 d8 48 b3 bd 5c 4c 07 be d9 30 8d 3e 03 2d cd 3d
       -0.08754128 -0.13212723 0.2757633 0.10018351
000020 61 fa ac be 0a 67 c9 3e e5 a5 9a be 36 a0 b3 be
       -0.33784774 0.39336425 -0.30204692 -0.3508317
000030 c1 2e 86 be b7 92 89 3e aa 89 a5 3d 76 a2 9c 3e
       -0.26207545 0.26869747 0.08082898 0.30592698
000040 56 28 96 3d 27 38 b3 3e 63 5e c4 be e1 35 f6 3d
       0.07331912 0.35003778 -0.3835326 0.12021995
000050 e4 7a 95 be fd 74 39 be bd 01 b1 be a1 d9 b6 be
       -0.2919532 -0.18111034 -0.3457164 -0.35712913
000060 66 dd 3f 3e 10 fb 5a 3e c1 2f 73 be 0e 8a 74 3d
       0.187368 0.21384835 -0.23748685 0.05970197
000070 91 54 cd 3e d4 39 38 3e 77 a7 91 bd f9 5d a9 be
       0.40103582 0.1799081 -0.071120195 -0.33079508
000080 e4 ea 24 bd 18 f6 6b 3e e9 70 ba 3d 91 26 ff bd
       -0.04026307 0.23043096 0.09103567 -0.12458528
000090 ce a4 98 be b3 59 9b 3e 9e e0 b5 3e 09 d2 bb bd
       -0.29813236 0.30341873 0.35522932 -0.091709204
0000a0 56 09 25 3e 44 5c f1 bd b0 87 37 be 22 b0 2e 3e
       0.16116843 -0.117851764 -0.17922854 0.17059377
0000b0 a4 29 28 be c6 8b 96 3e b5 76 3a 3e 60 2c a8 bd
       -0.16422135 0.29403514 0.18209346 -0.08211589
0000c0 da 7b 01 3e e3 e6 07 3d d6 bd c7 3e ed a6 a6 be
       0.12644902 0.033179175 0.3901202 -0.3254923
0000d0 46 9f bd 3e 44 e5 2d be cb dc be 3e 58 4c b9 3e
       0.37035578 -0.16981989 0.37277827 0.36191058
0000e0 38 8f 8b be 85 b3 aa 3e 93 91 3a 3e fa f7 df 3d
       -0.27257705 0.33340088 0.18219595 0.1093597
0000f0 66 0c 67 be b7 28 87 be 1a 48 27 bd de c9 51 3e
       -0.22563323 -0.2639825 -0.040840246 0.20487162
000100 62 07 80 be 05 ac 30 be 13 b1 85 3b 61 94 48 3e
       -0.25005633 -0.1725312 0.004079947 0.19587852
000110 d0 85 09 be 63 f7 0d 3e e6 d7 38 3e 6e b9 ac be
       -0.13429952 0.13863902 0.18051109 -0.33735222
000120 0e cd bf 3e 03 8d a5 bd a5 78 67 be 82 40 95 be
       0.37461132 -0.080835365 -0.22604616 -0.29150778
000130 9d 22 e7 3d 83 ba b7 be 01 71 cc 3e c6 68 45 be
       0.11285899 -0.35884485 0.39929965 -0.19278249
000140 2d 4e 17 be 2a 68 33 be cb 25 2b be 1c dd 0d 3e
       -0.14775915 -0.17520204 -0.16713636 0.13853878
000150 01 d7 00 be b1 0e c6 3e 51 89 52 bd 0d bb 51 be
       -0.12582017 0.38683084 -0.051400486 -0.2048151
000160 3e aa bc 3e e3 d4 ce 3e 3c 8b 8a 3d 6f 81 45 3d
       0.36848634 0.40396795 0.06764838 0.04821914
000170 3b e1 d0 be 2b 98 41 3e 81 b9 a4 3d 37 b2 c8 be
       -0.40796837 0.18905704 0.080431946 -0.39198467
000180 92 c5 91 3d 2c a1 dd bd 88 c3 8d be 74 03 96 be
       0.07117762 -0.10821757 -0.2768824 -0.2929951
000190 02 cd cc bc 6f 62 11 be 38 bb a2 be 5a f7 7d be
       -0.0250001 -0.14197706 -0.31783462 -0.24801388
0001a0 50 b8 0b 3e 86 f5 5d 3e 24 7d f3 3d 91 21 db bc
       0.13644528 0.21675691 0.11889103 -0.026749404
0001b0 df af ae 3e 26 44 bc 3e 8a 2d 53 3e 73 47 13 be
       0.34118554 0.36770743 0.2062284 -0.14382724
0001c0 cd 86 c7 bd 73 f4 3b be 90 e3 5d 3e ff 94 87 3e
       -0.09742508 -0.18354969 0.2166884 0.26480862
0001d0 dc 44 ef bd c3 3f e0 3d dd 5e 8b 3e 08 16 8d 3e
       -0.11683056 0.109496616 0.27220812 0.2755587
0001e0 33 ac a8 be 86 99 b0 3e c7 36 93 3e 8d 8d 82 3e
       -0.32943878 0.3449213 0.2875273 0.2549862
0001f0 06 43 92 3e 4a 3c ba be 51 5a 93 3e 76 17 5d 3e
       0.2856676 -0.36374122 0.28779843 0.21590981

gat1.att_dst f4 [1, 4, 32]
000000 0f 4c 24 be c4 ea 89 be b0 e5 75 3e a5 68 2f be
       -0.16044639 -0.26936924 0.240134 -0.17129762
000010 fa ff 72 3e 50 e3 28 be 09 b7 4d 3e b1 a4 5d bd
       0.2373046 -0.16492963 0.20089354 -0.05411214
000020 15 fe c3 3e a4 fb bf 3e a7 7e 8f 3e 97 6e 8c 3e
       0.38279787 0.37496674 0.28026316 0.27428123
000030 99 fd bf be e8 e9 36 be cd 58 eb bc 12 a8 b0 3e
       -0.37498167 -0.17862666 -0.028728867 0.34503227
000040 ef d4 c6 bd 53 c2 6e be de 1c b7 be 17 b7 10 3e
       -0.097085826 -0.23316316 -0.3576421 0.14132343
000050 4a 83 c6 be 8c 7e 8e bd 3e 0b dc bd 5f 38 b9 3e
       -0.3877204 -0.06957731 -0.10744332 0.3617582
000060 f7 fa b4 be 4b d0 d0 3e 97 c6 cd be b9 6b ce be
       -0.3534772 0.40783915 -0.40190575 -0.4031656
000070 c8 ef 89 3e e8 d4 3d 3e 36 5d d3 3d 95 e5 ba bd
       0.2694075 0.18538249 0.10320513 -0.091258205
000080 03 8d e9 3c 77 8c 88 3d ac 13 64 bc 42 4c 5a 3e
       0.028509622 0.066674165 -0.013920706 0.21318153
000090 3e e8 bc be ba ab 80 be 35 79 a5 3e d4 b9 db 3d
       -0.36895937 -0.25131017 0.32319036 0.10728803
0000a0 31 96 53 be 51 12 8b 3e 6f b5 c6 be 8e 55 9c 3d
       -0.20662762 0.27162412 -0.38810298 0.07633506
0000b0 18 36 f4 bd c1 d5 b3 bd 67 06 64 3e 79 46 b3 bd
       -0.1192438 -0.08781005 0.22268067 -0.08753676
0000c0 29 bc b8 3e 65 4f 72 be 6d 33 bd 3e a7 8b 4e 3e
       0.36081055 -0.23663099 0.36953297 0.2017046
0000d0 c6 bf 79 3e c9 3c 28 be 94 57 37 3e 77 6a 05 3e
       0.24389562 -0.16429438 0.17904502 0.13028894
0000e0 5d ff 80 be db 90 75 be 4e 07 1f 3e a1 e7 9c bb
       -0.25194827 -0.23981039 0.1553013 -0.0047883545
0000f0 0c 62 39 3e 04 e0 98 3e 0f f2 16 be dd d6 b8 3d
       0.18103808 0.2985841 -0.14740776 0.09025357
000100 98 b0 a9 be 8b cd ae 3d 90 6d 1d 3c b7 f3 7e be
       -0.33142543 0.08535298 0.009608641 -0.24897657
000110 2b 48 3d 3e fb 6c 73 be ca 39 17 3e 31 56 e7 3d
       0.18484561 -0.23772041 0.14768139 0.112957366
000120 c5 e2 94 3e 49 97 aa bd 9f 3d c9 bd df c7 8b be
       0.2907926 -0.083296366 -0.098262064 -0.27300927
000130 c0 34 97 3e 2f 9c 7c 3e ba a3 86 be ce 59 62 be
       0.29532433 0.24668954 -0.26296788 -0.2210457
000140 06 33 8d 3e 33 e1 0d be d8 37 f2 bd dd eb 16 be
       0.2757799 -0.13855438 -0.118270576 -0.14738412
000150 3c 40 96 be 7e a5 ff bd 03 4f d5 3d 85 e5 c3 3d
       -0.29345882 -0.12482737 0.10415461 0.09565262
000160 f4 ea bd bd 1a 1f 17 bd 6e 5b 5a 3e 6b c5 09 bd
       -0.092733294 -0.036894895 0.2132394 -0.033635538
000170 e5 46 34 be 73 ab a0 3e fe 25 84 3e a0 3c 4b bc
       -0.17605169 0.31380805 0.25810236 -0.012404591
000180 3f 36 8d be fd ce d4 3d fd 94 04 be 9b 9e 0c be
       -0.2758045 0.103910424 -0.1294746 -0.13732378
000190 64 cf 09 be 57 32 1a be a6 49 c4 3d 5f ca 69 3e
       -0.1345802 -0.15058266 0.0958436 0.22831105
0001a0 bc 29 8f be 61 dc 7c bd 73 d5 5d 3d 7e dc 80 3e
       -0.27961528 -0.061733607 0.05415864 0.25168222
0001b0 9f 9e 94 be ad 91 26 3e e4 69 45 3e 90 c0 c5 be
       -0.29027268 0.16266508 0.19278675 -0.38623476
0001c0 f5 6c ab bd 2f 76 1c 3e 12 87 f7 3d c6 0b 41 bd
       -0.08370391 0.15279458 0.120863095 -0.04713037
0001d0 78 85 7a bc 35 8b 02 be 10 3d a0 be 31 1d 2c be
       -0.0152906105 -0.12748416 -0.31296587 -0.1680801
0001e0 ba 9d cc be 8e 2e 99 bd 93 cf 90 3e 62 44 ec 3d
       -0.39964086 -0.07479583 0.28283367 0.115364805
0001f0 9b e2 04 3e 88 2c e0 3d 28 49 19 be b9 f3 55 3e
       0.12977068 0.10945994 -0.14969313 0.20893754

gat1.bias f4 [128]
000000 4c 21 89 37 30 92 16 b8 f3 e2 a1 37 5b 99 65 b7
       1.6347178e-05 -3.5898935e-05 1.9298377e-05 -1.36851695e-05
000010 a6 6a 5f 36 01 a8 b8 37 62 c4 09 38 36 db c6 37
       3.3291667e-06 2.2012742e-05 3.284624e-05 2.3705517e-05
000020 bf e0 67 b7 fc 60 24 38 b4 45 5e 38 37 43 c5 37
       -1.3821001e-05 3.919097e-05 5.299384e-05 2.351553e-05
000030 90 73 bb 34 ae 6e db 37 14 82 21 b8 dd 5c 23 38
       3.4915547e-07 2.6158374e-05 -3.8506536e-05 3.8948714e-05
000040 b8 fe 97 37 d5 56 84 38 90 60 7b b7 6d c2 05 b8
       1.8119215e-05 6.310424e-05 -1.4983249e-05 -3.1890744e-05
000050 3a 4b 8d b8 83 56 ca b7 5c 45 31 38 f1 8f f7 b5
       -6.737416e-05 -2.4120562e-05 4.2264684e-05 -1.8444827e-06
000060 83 45 e3 b7 65 8e 7e b6 68 97 c3 b7 53 c1 86 b8
       -2.7092878e-05 -3.7931834e-06 -2.3316315e-05 -6.425627e-05
000070 8e 30 bd b6 92 75 1f 38 a6 a6 8c 37 f6 90 6b b8
       -5.6382914e-06 3.801805e-05 1.6766902e-05 -5.616337e-05
000080 68 cc 28 38 bd 8c 9e 37 a1 11 cc 37 35 c0 7f 38
       4.024469e-05 1.8900604e-05 2.4326904e-05 6.0975744e-05
000090 11 00 8a 37 4b 52 03 36 c8 7c 8c 37 56 70 ad b6
       1.6450913e-05 1.9568422e-06 1.6747406e-05 -5.1688794e-06
0000a0 92 76 9e b7 02 c0 8e 38 c0 0e 6e 38 35 d1 08 b8
       -1.8890281e-05 6.806852e-05 5.675736e-05 -3.2619766e-05
0000b0 77 ae da 37 30 28 e7 37 a8 2a 82 36 cb 99 6c 38
       2.6068867e-05 2.755606e-05 3.8792678e-06 5.6410016e-05
0000c0 33 46 6d b8 9c 88 b8 37 e8 01 98 b7 5b ba d7 37
       -5.657058e-05 2.1998123e-05 -1.81207e-05 2.5716776e-05
0000d0 8c 40 8d b7 f6 ac fe b7 ee fe 91 37 52 70 81 b5
       -1.6838567e-05 -3.03597e-05 1.7404058e-05 -9.643938e-07
0000e0 04 d9 c3 b7 07 a8 4c 37 95 48 cf b7 d0 f6 14 b7
       -2.3346867e-05 1.2198469e-05 -2.4710122e-05 -8.878953e-06
0000f0 c7 11 c8 37 f3 ff 01 b8 3b c3 71 36 90 e6 ec b4
       2.3850136e-05 -3.0994368e-05 3.6025438e-06 -4.4126182e-07
000100 53 9d 26 b8 32 f1 62 37 05 4a 6e 37 d3 0a b8 36
       -3.9724004e-05 1.3526807e-05 1.42031395e-05 5.4848874e-06
000110 a4 a3 71 b8 8a 8c a2 b7 19 98 01 b8 d2 7e 18 b8
       -5.761128e-05 -1.9377349e-05 -3.089765e-05 -3.6357735e-05
000120 e4 68 4b b6 a7 0d 11 38 1b 67 6a b7 7f 2a be 37
       -3.0310412e-06 3.458341e-05 -1.3971493e-05 2.2669554e-05
000130 70 9b bf b7 df d6 36 b8 a1 bd c1 37 2e c6 3c 38
       -2.2841356e-05 -4.3592296e-05 2.3095696e-05 4.5007262e-05
000140 01 78 dc 37 9b 15 fd b7 b8 2f 8d b7 c2 98 ad 37
       2.6281925e-05 -3.0170011e-05 -1.683073e-05 2.069434e-05
000150 c3 4e 10 b6 c1 57 09 b8 0d 64 f2 b7 5b 37 c2 b7
       -2.1503517e-06 -3.2745073e-05 -2.8895238e-05 -2.3152379e-05
000160 b3 81 74 38 5b ee 84 37 dc 06 64 b5 ef e0 0a 38
       5.8294925e-05 1.584662e-05 -8.49466e-07 3.311125e-05
000170 ce 9f 02 37 56 76 74 36 5e 14 14 b8 af 77 67 b8
       7.785811e-06 3.6427714e-06 -3.5304918e-05 -5.5186156e-05
000180 23 d1 f6 36 68 81 b9 37 7c 51 11 b7 4c 0f d6 37
       7.355718e-06 2.2113978e-05 -8.661646e-06 2.5517911e-05
000190 b2 0b 92 b7 2c 48 69 b8 68 ab 18 b8 c7 83 a6 37
       -1.7410002e-05 -5.5618744e-05 -3.639926e-05 1.9850106e-05
0001a0 ed bc 69 b8 2d b8 28 b8 4f af 05 38 21 3b 6b b8
       -5.572748e-05 -4.022585e-05 3.187294e-05 -5.6083434e-05
0001b0 97 65 48 b8 6d c2 d9 b7 b6 e0 1c 37 c5 59 f5 37
       -4.777833e-05 -2.5958952e-05 9.350644e-06 2.9248078e-05
0001c0 66 e5 69 38 18 e7 4c 38 05 22 f7 b7 8a 3f 01 b8
       5.5765173e-05 4.8852613e-05 -2.9460536e-05 -3.0815172e-05
0001d0 2a 6a 9b 37 45 80 01 b8 07 7d 1b 38 03 01 3e b8
       1.8526876e-05 -3.0875457e-05 3.707132e-05 -4.5300472e-05
0001e0 11 36 ce b7 fc 60 3f 38 f5 25 5d b8 c3 6c 5d 38
       -2.458229e-05 4.5628272e-05 -5.2725856e-05 5.27918e-05
0001f0 d1 a4 b9 b6 9f 04 03 b7 eb b2 40 b8 a9 60 14 38
       -5.532617e-06 -7.809284e-06 -4.5942998e-05 3.537597e-05

gat1.lin.weight f4 [128, 5]
000000 14 90 89 bd 80 84 ef bd 2a 33 40 3d 6c 49 57 3c
       -0.06716934 -0.11695194 0.046923794 0.013140064
000010 1c b9 e2 3d d8 df 9a 3d 43 c4 52 3e 91 9c fb bd
       0.11070463 0.07562226 0.2058268 -0.12285722
000020 fb 55 1d 3e 12 78 50 3e 9b ff f3 3d c1 1c 13 3d
       0.1536483 0.20358303 0.11913987 0.035916094
000030 de 25 1e 3e 70 36 0e be 88 60 81 3d ec 7e 9a bd
       0.15444133 -0.13887954 0.0631724 -0.0754374
000040 6f 47 43 bd 16 08 51 be e6 a2 e3 3d f8 6f 3c be
       -0.047675546 -0.20413241 0.11115055 -0.18402088
000050 15 7f 20 3e 26 d6 73 3d 91 53 88 bd 52 44 26 bc
       0.15673478 0.0595304 -0.06656564 -0.010148125
000060 4a ed 13 be 2c 48 2b 3e f0 ea 73 bd 35 ae 37 3d
       -0.14445987 0.1672675 -0.059550226 0.04484387
000070 44 75 44 be 9e b4 fd bc 81 81 11 3c b0 9c 1c bd
       -0.19185358 -0.030969914 0.008880974 -0.038235366
000080 0d 38 50 be bb 98 13 3d 19 19 0f 3e 7b 74 70 bd
       -0.20333882 0.036034327 0.13974418 -0.058704834
000090 bb a0 1c 3e 88 9b 7a 3d 10 07 85 3d 5d 71 23 bd
       0.15295689 0.061183482 0.06495488 -0.039903034
0000a0 1c f4 50 3e 78 7a f7 bd 3c bc 72 3d 3a a9 1b be
       0.2040562 -0.12083906 0.059261546 -0.15201274
0000b0 72 fb 56 3e 30 bc 04 be f2 bf cb 3d 1e d2 3b bc
       0.20994356 -0.12962413 0.0994872 -0.01146367
0000c0 b5 5a ed bd 06 0c 24 be 4f c6 03 bc 36 0d 68 bd
       -0.115895666 -0.16020212 -0.008042886 -0.056653224
0000d0 cb a3 04 be 73 b3 cc 3d ef 2a 1f 3e 37 0e cc 3d
       -0.12953107 0.09995165 0.15543722 0.09963649
0000e0 6d ed cf bd 45 81 80 bd 61 6a 1d 3d f4 fb 67 3d
       -0.10152707 -0.06274656 0.03843153 0.056636766
0000f0 80 71 08 be 9f 19 0d 3e 04 02 50 3e 0f bb d9 bd
       -0.13324547 0.13779305 0.20313269 -0.10631382
000100 2e 06 aa 3d ef d5 80 bb d5 c3 00 be fe 9f fe 3c
       0.0830196 -0.003931753 -0.12574704 0.03108215
000110 95 05 0b be 8a 62 54 3e 56 78 80 bd fe 4c e2 bd
       -0.13576348 0.20740715 -0.06272952 -0.11049841
000120 1b 10 4e be 86 7f 06 3d 34 36 bb 3d 8c c8 2c 3e
       -0.20123331 0.03283646 0.09141198 0.16873378
000130 30 61 03 3e 66 e2 0b 3e 61 20 ec 3d 65 3b a0 3d
       0.12830043 0.13660583 0.11529613 0.078238286
000140 f6 17 e3 bd 55 f1 0e be 2b c3 48 3d e0 55 28 3c
       -0.110885546 -0.13959248 0.04901425 0.01027438
000150 0d 97 92 3d 43 3e 05 3e ef 54 fb bd ca 8c 30 bd
       0.07157717 0.13012032 -0.12272059 -0.043103017
000160 a2 c5 9f 3b 86 f6 6a bc 3c f7 28 be 9e db 24 3e
       0.0048758546 -0.014341002 -0.16500562 0.16099402
000170 b6 e2 01 3e 31 6e 13 be 3a 27 0e 3d 08 1b b2 3c
       0.1268414 -0.14397503 0.034705378 0.021741405
000180 9a e3 02 3e f1 92 30 3e 9f d7 c3 3d 20 9c 0b 3e
       0.12782136 0.17243554 0.09562611 0.13633776
000190 ea a6 4d 3e a1 96 3f be 9f 99 0b be 84 f7 97 3d
       0.20083204 -0.18709804 -0.1363282 0.07420257
0001a0 12 45 02 3e df 2d d0 bb 32 70 3a 3e 22 1c 91 3d
       0.1272166 -0.0063531245 0.18206862 0.07085444
0001b0 e1 bb 48 3e d1 1c a6 3c 09 9b a1 3d 62 fb ec 3c
       0.1960292 0.020277413 0.07890899 0.028928462
0001c0 a6 bd 54 3e e1 6a 44 3e 18 a1 11 3d aa 00 ef bd
       0.2077547 0.19181396 0.03555402 -0.116700485
0001d0 cb 2a 93 bd 9b ad 27 3e da d3 b5 bc ee 8f 19 3e
       -0.071858965 0.16374819 -0.022195745 0.14996311
0001e0 04 91 a4 3d 06 1b 9e bd 54 4b 40 3e c3 80 41 3e
       0.08035472 -0.07719998 0.18778735 0.18896775
0001f0 8f d0 eb 3d 7f f5 08 bb 5e a2 58 3e 40 5a bc bd
       0.11514389 -0.002089828 0.21155688 -0.09196901
000200 d2 23 22 3e 25 56 14 be 16 e6 88 bd e9 e2 de bd
       0.15833977 -0.14485987 -0.066845104 -0.108831234
000210 4f c7 db 3c 63 34 0a 3e 8f 60 3f 3c a8 d6 4f 3d
       0.026828436 0.13496546 0.011680736 0.05074182
000220 02 79 11 be 1b 92 da bd 12 e8 58 3d 84 41 30 3e
       -0.14206317 -0.10672399 0.052955694 0.17212492
000230 af 09 24 be f5 3d 8f bd c6 9b 23 3e 26 c3 00 3e
       -0.16019319 -0.06994239 0.15977392 0.12574443
000240 7d 5c 45 be dc 3b 14 3e f3 5c c1 3d 94 88 35 3e
       -0.19273563 0.1447596 0.09441557 0.17727882
000250 5b e5 07 3c 99 0f 9a 3d 41 92 c0 bd 12 7d de bd
       0.008294429 0.07522506 -0.09402896 -0.10863699
000260 50 30 37 3e 82 85 9a 3d 33 00 54 be 23 19 e9 3d
       0.17889524 0.07544996 -0.20703201 0.113817476
000270 4b 0a 2c bd 9b 29 f3 3c f4 53 4f 3e a1 8f 56 be
       -0.042002004 0.029682925 0.2024687 -0.20953228
000280 53 20 19 be 1c 40 02 be 2a b2 e4 bd 30 1a a4 3d
       -0.14953737 -0.12719768 -0.111667946 0.08012807
000290 08 87 62 3d ff 70 54 bd dd ec a9 3d a6 35 b5 bd
       0.055304557 -0.051865574 0.08297131 -0.08848123
0002a0 df 2a 4f 3e cb 56 58 bd 38 6b 11 3d dc 1e 46 bd
       0.20231198 -0.052817147 0.035502642 -0.048369274
0002b0 1f 3d 42 be 7b ea 98 3d 29 41 1e bd e6 1e 0e be
       -0.18968628 0.074665986 -0.03863636 -0.13878974
0002c0 e3 03 68 3d 12 a8 4e 3e fc 99 0f 3d 05 cb bf 3d
       0.05664433 0.20181301 0.03505896 0.09364895
0002d0 63 23 06 bd bd 41 41 3e 8a da ef bd 0d 5b b7 3c
       -0.03274859 0.18872733 -0.11711605 0.022382284
0002e0 d1 6b d4 3c e5 ff de bd fe 1b 57 3e 73 1b 6d bd
       0.025930317 -0.10888652 0.21006772 -0.057887506
0002f0 1a 6e 4e 3d 1b 02 3b 3d 24 d7 3f 3e 5a 09 84 3d
       0.05039797 0.045656305 0.18734413 0.06447096
000300 ff 01 20 be a2 63 2f be dd 21 27 be d6 c2 e2 bc
       -0.15625761 -0.1712785 -0.16321512 -0.027680796
000310 4b 9c 0b 3e 62 06 d1 3d 44 c0 49 3e e1 7a 25 3e
       0.1363384 0.102062955 0.1970225 0.16160156
000320 46 44 8b 3c e8 36 4b 3e 6e 79 93 bd a5 53 55 3e
       0.017000329 0.19845164 -0.07200895 0.20832689
000330 ca 38 13 be 4d e0 23 3e 38 08 4a 3e 79 8d 03 3e
       -0.14377132 0.16003533 0.19729698 0.12846936
000340 f3 23 92 bc a0 2c 44 bd 5a 92 e6 ba e9 43 4f be
       -0.017839408 -0.04789412 -0.0017591224 -0.2024075
000350 3e 1f 4f bd 51 e0 41 be 22 78 6a 3d 04 03 de 3d
       -0.050566904 -0.18933226 0.057243474 0.10840419
000360 66 fe 53 be 56 8f 10 3e b1 57 2c be af 55 d6 bd
       -0.20702514 0.14117178 -0.16830327 -0.104655616
000370 0c 5f ab bd 17 56 59 be 44 90 2f 3c d8 a5 69 3d
       -0.08367738 -0.21224247 0.010715548 0.057042927
000380 8f 6a 0a bd fe 60 57 be 31 ba 05 3e 49 75 36 3e
       -0.03379303 -0.21033093 0.13059308 0.17818178
000390 94 9c 40 be 66 0b 00 bd 6c 68 33 3e 48 bc 20 bd
       -0.1880973 -0.03126087 0.17520303 -0.03924206
0003a0 7d fb e2 3b 65 d0 b7 bc e9 f9 54 3e cc ea 16 be
       0.0069269524 -0.022438237 0.20798458 -0.14738005
0003b0 fa be 79 3d ad b0 f4 3d 45 2e 53 3e 5e 57 f5 bc
       0.060973145 0.11947761 0.20623119 -0.029948886
0003c0 3d b2 a7 bc 3d df d7 3d 97 17 64 bd b1 49 50 bd
       -0.020470733 0.10540626 -0.05568656 -0.050851528
0003d0 5d 8e d8 bd dd 38 0e be 43 5c 32 be c1 01 4e 3d
       -0.10574029 -0.13888879 -0.17418008 0.05029464
0003e0 3e b4 f2 bb 4c af 07 bc 3c 9d ce 3d 55 27 43 be
       -0.0074067404 -0.00828154 0.10088584 -0.19057973
0003f0 6b 9f c4 bd 5f e2 f9 3b 2a 08 4b be 1b 7e 8c 3d
       -0.09600719 0.0076258625 -0.19827333 0.0685999

sage1.lin_l.weight f4 [128, 128]
000000 ad 7a 33 bd 56 b6 04 bd 6a a0 99 bc d2 0b 05 3d
       -0.043818165 -0.03240045 -0.01875325 0.032481976
000010 3f 4d 7d bd 99 07 1d bd e7 66 a3 3c ad 6a 80 bc
       -0.061841246 -0.038337324 0.019946529 -0.015675867
000020 fa 3c 3e 3d 12 d1 87 bd f4 4b a2 3c 8d 73 a1 3d
       0.04644487 -0.06631674 0.019811608 0.07883368
000030 ee 1b 1a bd 5f 6a 5f bc 2e be f0 bb 0b b3 c7 3b
       -0.037624292 -0.013636201 -0.00734689 0.0060943416
000040 e5 30 aa 3d 60 f4 81 3b 7a 0c 80 bc 57 d1 a1 bc
       0.08310107 0.0039658993 -0.01563095 -0.019753141
000050 38 16 8d bd de 1f 9e 3d 10 51 30 3d f3 ae 59 bd
       -0.068890035 0.07720922 0.043046057 -0.05314536
000060 b3 5b 20 bb 53 d0 9f 3c fe f0 57 3d 63 a4 28 3d
       -0.002446872 0.019508516 0.052720062 0.041172396
000070 52 e6 fe bc 75 43 11 3c 7a f0 73 bd 33 70 69 bd
       -0.031115685 0.008866181 -0.05955551 -0.056991767
000080 eb 4e 73 3d 9f c8 7f bd be 4d 11 3c 10 4f 05 bd
       0.059401434 -0.062447187 0.008868633 -0.032546103
000090 3f 44 34 3d c4 5c 2f bd 74 2f 28 bd 32 6e ab bd
       0.044010397 -0.042813078 -0.04106088 -0.083706275
0000a0 66 03 b5 bd b7 b9 6d 3c 7d 97 4e bd eb 0e 12 3d
       -0.08838539 0.01450961 -0.05043744 0.035658758
0000b0 68 fb 5d bd d9 72 12 bd 15 be 9a 3d c7 53 62 bc
       -0.054194838 -0.03575406 0.075557865 -0.013813919
0000c0 46 2f a4 3c d5 ab 18 3d 13 66 23 3d f6 47 96 bd
       0.020042073 0.037273247 0.039892267 -0.07337944
0000d0 88 5f 99 bd d6 11 92 3d 59 2b f0 bc 62 d0 89 ba
       -0.07488924 0.07132308 -0.029317545 -0.0010514373
0000e0 08 f3 93 bd ee ad bf bc 12 cc 70 3b a1 2a 00 bd
       -0.07224089 -0.023398366 0.003674273 -0.031290654
0000f0 99 b7 83 bd 3d c7 9c 3d 89 5a 5e bd 64 49 2b bd
       -0.06431503 0.07655189 -0.05428556 -0.041818038
000100 09 d3 60 bc 48 50 8c bd 8b 66 38 bd 61 21 1b bd
       -0.01372219 -0.0685125 -0.045019668 -0.03787363
000110 3e 10 04 3b 29 b3 92 bd 26 8c 8a bd 9b 43 b6 3c
       0.0020151283 -0.07163078 -0.067650124 0.022249034
000120 47 e3 82 bd ef ff 2d bd d9 8f e3 3c 21 63 41 3c
       -0.06391006 -0.042480405 0.027778553 0.011803419
000130 3b dc 8a bd 34 84 d0 3c f0 38 0c bd 92 b4 2a 3d
       -0.06780287 0.025453664 -0.034233987 0.04167611
000140 16 3c 2e bd 06 65 7f 3d cc f0 ad 3d b4 ea 97 bd
       -0.04253777 0.062352203 0.08493194 -0.07417813
000150 ac f9 fb 3b de 1c f6 bb ae 20 e5 3b 1f 26 3f 3d
       0.0076896753 -0.0075107655 0.006992421 0.046667214
000160 ac 8c 7f bd 7c e2 cc 3c e9 06 01 bd 02 62 40 3d
       -0.062390015 0.02501034 -0.03150073 0.046968468
000170 94 fd 57 bd 3e 4f ed 3b 0a e4 3b 3d 42 e4 85 3d
       -0.052732065 0.0072421124 0.045871772 0.06537677
000180 16 38 6e bd b7 8e 0e 3d 9f b4 a6 3b a9 e3 1c 3d
       -0.058158956 0.034804072 0.0050874497 0.03830305
000190 92 5e b1 bd 5e 21 1d bd 26 a9 17 3d cc c4 96 bd
       -0.08660616 -0.0383619 0.037026547 -0.07361755
0001a0 6f a6 8e 3d f2 fc 95 3c d5 d8 8a bd 20 d3 91 bd
       0.069653384 0.01830909 -0.06779639 -0.07120347
0001b0 27 b3 b5 3c c4 2c b1 3c 7a b7 47 3d 16 a8 b2 3d
       0.022180153 0.021627791 0.04875896 0.08723466
0001c0 ae d7 94 3d 9b b4 6a 3b 57 5b b6 3c cb a1 a3 3d
       0.072677 0.0035813216 0.022260351 0.07989844
0001d0 e0 0e b2 bd df c6 a0 3b 84 0f 3a bd df 7b e6 bb
       -0.086942434 0.00490652 -0.045424953 -0.0070338096
0001e0 92 17 86 3d a6 e0 28 bd 94 92 8b 3d e4 8a 6f 3c
       0.065474644 -0.041229866 0.06815067 0.014620516
0001f0 3d 1d a1 3d 9c 81 a2 bd e8 18 db 3c c5 91 7b 3d
       0.07866905 -0.07934877 0.026745275 0.061418314
000200 ac d0 cb bc 09 fc 99 bc 92 34 26 bd 23 4d 8a bd
       -0.024879776 -0.018796938 -0.04057748 -0.06752994
000210 e7 5f fb bc db 59 c8 3c 00 46 55 3d 57 b2 81 3d
       -0.030685378 0.024456909 0.05206871 0.06332844
000220 a7 c1 03 3d 3d dc 58 3d eb 4b ad bd 3c 81 a6 3d
       0.032167103 0.05294441 -0.08461746 0.08130118
000230 1b bc ac bd 2a 66 a0 bd c7 ce 89 bd 58 74 95 3d
       -0.08434316 -0.07831986 -0.06728893 0.072975814
000240 1b 25 2f 3c b3 59 2e bd 9d 89 34 3b 36 f9 48 bd
       0.010689999 -0.042566013 0.0027547844 -0.04906579
000250 a1 e1 81 3c 53 b4 3e bd 16 56 b4 bd a7 48 56 3c
       0.015854659 -0.04655869 -0.08805482 0.013078845
000260 28 f1 e1 3c 95 5c 2d 3c 2e 92 23 3b bd 68 90 3d
       0.027580813 0.010581155 0.0024958956 0.07051227
000270 97 d3 1c 3d a1 2e 24 bd b2 4d 27 bd 61 16 7b 3c
       0.038287725 -0.04008353 -0.04084558 0.01532516
000280 59 ec 61 bd d3 bc 70 3c 64 43 19 bd 13 22 72 bd
       -0.05515704 0.014693457 -0.037417784 -0.059114527
000290 e7 97 9c bd 5c 86 97 3d f6 f7 90 bd 3c 49 94 3c
       -0.076461606 0.07398674 -0.07078545 0.018101327
0002a0 51 be f7 bc 1e f5 51 3d 95 14 f4 bc 2a e1 61 3d
       -0.030242117 0.051259153 -0.02979497 0.055146374
0002b0 10 92 95 3d 6d 5f 7e bd 54 58 2c 3d 9f 3c cd 3c
       0.0730325 -0.062102724 0.042076424 0.02505332
0002c0 5c e7 61 bd 9d 62 91 3d b0 06 8f 3d d1 8f a5 bd
       -0.055152282 0.07098887 0.069836974 -0.080840714
0002d0 a7 f0 9a 3d 81 34 b4 bd e8 13 0f 3c a5 6b 7c 3b
       0.07565432 -0.08799077 0.008732773 0.003851631
0002e0 49 4e 85 3d bc af c8 bc 1a 94 4c 3d 4d 99 08 bd
       0.06509072 -0.02449786 0.04994593 -0.033349324
0002f0 16 00 29 3c a1 6b b8 3c e7 85 03 bd 18 89 b1 3d
       0.010314962 0.022512259 -0.03211012 0.08668727
000300 31 f1 48 3d 77 53 32 3d af f2 9f bd 5b bc a6 3d
       0.049058143 0.04353663 -0.0780996 0.08141395
000310 87 09 b1 bd ab 07 32 bc 0d 98 15 bb 99 f7 37 3c
       -0.08644395 -0.010866086 -0.0022826225 0.0112284655
000320 b2 fb a5 3d 9c 05 35 3c fc 2f a8 3d cf 43 49 3b
       0.08104648 0.011048701 0.08212277 0.0030710583
000330 78 eb 1a bd fb 59 ad bd 38 9f 06 bd 5f 97 f0 bc
       -0.037822217 -0.08464428 -0.032866687 -0.029369054
000340 5e ef 83 3d 6b fc 5f 3d c6 4d ae bd 54 dd 70 3c
       0.0644214 0.054684084 -0.08510928 0.014701206
000350 b7 7c 0a 3d af 8a 6c 3d e9 9b 20 bc 64 34 87 bd
       0.033810344 0.057749446 -0.009802797 -0.066017896
000360 1a a9 d0 bc f6 46 9d bd d8 c4 4b 3d f6 95 8f bd
       -0.025471259 -0.0767955 0.04974827 -0.07011025
000370 b3 fb 2d bb 60 9b 1c bd df 98 aa bd fe 1d 62 bd
       -0.002654773 -0.038234115 -0.08329939 -0.055204384
000380 55 85 0a 3d 2e f3 ac 3d e1 67 67 3d 88 1c 7c 3d
       0.03381856 0.0844482 0.05649555 0.061550647
000390 68 e0 67 3d d2 5b 2d bd ab 19 8f bd 92 65 39 bd
       0.056610495 -0.042323895 -0.06987318 -0.04526288
0003a0 44 3e 8d bd 77 1a a9 3d 9c 8e 67 bd 3d f9 62 bd
       -0.06896642 0.08257001 -0.056532487 -0.055413473
0003b0 b6 a5 3b 3d 93 f0 24 3d 06 a2 1f bc 68 7e fa 3b
       0.04581233 0.040268492 -0.009743219 0.0076444633
0003c0 08 f3 93 bd 10 6f 2b bd 8c 2e 50 3d 2a d6 9b 3d
       -0.07224089 -0.041853964 0.05082564 0.07609208
0003d0 36 4c 2f 3b 32 ff 90 3d 22 84 56 bb 16 d2 a3 3d
       0.0026748306 0.07079925 -0.0032732566 0.07999055
0003e0 17 e9 9e bd 19 42 b0 bd 83 d3 a7 3d 7b 51 c1 3c
       -0.07759302 -0.08606357 0.081946395 0.023598423
0003f0 05 c1 b9 bb 19 ee 52 3d e9 ca 94 3d 9b b9 ea 3c
       -0.0056687617 0.0514966 0.072652645 0.028652957

sage1.lin_l.bias f4 [128]
000000 04 fe 87 bd 30 83 8f bc aa 30 e5 bc 30 fe 8e 3d
       -0.066402465 -0.01751861 -0.027977306 0.06982076
000010 b2 f3 1a 3d 05 f6 5d 3d 25 87 3d bd 94 2d 18 3d
       0.037830062 0.0541897 -0.046271462 0.03715284
000020 55 e1 84 3d ec b2 9c 3d 78 a5 53 bd c8 8e 4e 3d
       0.06488291 0.07651314 -0.051671475 0.050429136
000030 27 54 aa bd 45 62 e6 bc 7a 26 38 3c 8f ce 3b bd
       -0.08316832 -0.02812303 0.011239642 -0.045851287
000040 9a 15 b1 3c f9 34 ba 3c 27 79 82 bc 44 17 44 bd
       0.021616746 0.022730337 -0.01592691 -0.04787375
000050 4e 64 c1 bc 93 66 84 bd 92 f8 e8 b9 d5 46 95 bd
       -0.0236074 -0.06464877 -0.00044435688 -0.07288901
000060 0c fe 65 bd 05 d5 65 bc 87 0d 68 bc d4 3f dc 3c
       -0.05615048 -0.014027839 -0.014163381 0.026885904
000070 b9 d3 7f bd e2 2e 01 3d 61 b1 59 3d c6 6e 19 3d
       -0.062457774 0.03153885 0.053147677 0.037459157
000080 92 14 a4 3d 78 b0 a0 3d cf c0 75 3d ac 00 98 3c
       0.08011736 0.07846159 0.05999833 0.018555008
000090 1b 48 71 bd 35 10 8b bd 52 25 21 3d c6 cd 95 3d
       -0.058906656 -0.067902006 0.039342232 0.07314639
0000a0 92 e1 e9 bc 2e fc 24 3c 5d c4 17 bc 01 18 ba 3c
       -0.028549943 0.01006989 -0.009263125 0.022716524
0000b0 2b 8a 26 bd 61 a2 a3 3d 51 8d 29 bd b8 69 cf 3c
       -0.04065911 0.07989956 -0.041394535 0.025318965
0000c0 dc 41 a6 3c 90 d2 ae 3d 69 a0 85 39 c5 1e bd bc
       0.020295076 0.08536255 0.00025487252 -0.023085961
0000d0 24 9b e9 3c 15 b9 48 bd c4 31 aa 3d 67 53 43 3d
       0.02851636 -0.049004633 0.08310273 0.04768696
0000e0 e3 69 ac 3d 99 c8 96 3d d1 18 92 bd 10 b4 2e 3d
       0.08418634 0.0736248 -0.071336396 0.04265219
0000f0 36 09 27 bd 5e e9 c0 bb 1a 9f 2b 3d 98 9a 99 3d
       -0.04078027 -0.0058871945 0.041899778 0.075001895
000100 45 01 32 bd 57 80 66 bd eb b9 81 bd ce f8 87 bd
       -0.043458242 -0.05627474 -0.06334289 -0.066392526
000110 51 60 21 3d c3 03 4b bd ff ff 7d bd 69 f2 ee bc
       0.039398495 -0.049564134 -0.062011715 -0.029168325
000120 0c de 5a 3d 6f 98 6a 3d 2c 02 6d bd 39 91 1f 3c
       0.053434417 0.05727428 -0.0578634 0.009739214
000130 59 38 3f bc 08 17 8e 3d c1 25 7c 3c cc 8d 8b 3d
       -0.011671149 0.069379866 0.015389861 0.06814155
000140 27 59 d7 bc f7 00 87 3d 67 ee e1 bb f5 6a e0 3c
       -0.026287628 0.06591981 -0.006894875 0.027394751
000150 e0 71 84 3d 49 5d 6b bd f1 3a 11 3d 60 47 0f 3d
       0.064670324 -0.05746201 0.0354566 0.034980178
000160 d5 c8 7e bd b6 3c a4 bd 97 83 05 3d f8 9b 51 bc
       -0.062203247 -0.08019392 0.032596197 -0.0127935335
000170 cb ee 04 bd d2 b1 28 3c 3c 8f 7d bd 37 85 5d 3c
       -0.032454293 0.010296302 -0.061904177 0.01352053
000180 29 b9 47 3d 4b f6 6f 3d 08 b5 35 bc 13 f2 e6 3c
       0.048760567 0.058584493 -0.0110905245 0.028191602
000190 ba 32 93 bd 55 ec 81 bb 80 b0 ac 3d 17 29 96 bd
       -0.0718741 -0.0039649406 0.08432102 -0.07332056
0001a0 12 5e b0 bc d8 3c a0 3d c4 4c 6c 3d 6e 89 5d bd
       -0.021529231 0.07824105 0.057690397 -0.05408614
0001b0 af db 9b bc 02 d0 8a bd 63 30 93 bc 7d 77 91 3c
       -0.019025652 -0.067779556 -0.017967409 0.017757172
0001c0 89 18 9f bc 09 c9 5d bd 48 5e f2 3c 19 56 77 bd
       -0.019420879 -0.0541468 0.029585972 -0.060384843
0001d0 c9 bf f0 bc 66 93 2f bc ca 64 76 bd b5 69 bb 3c
       -0.029388325 -0.010716295 -0.060154714 0.022877553
0001e0 f2 2c 30 bd 9d 55 b2 3d 18 30 33 bd 95 64 38 bc
       -0.043011613 0.08707736 -0.043747038 -0.011254449
0001f0 74 58 59 bd c6 1e cb 3c 35 a7 97 3d 57 36 ed 3c
       -0.05306287 0.024794947 0.07404939 0.028956575

sage1.lin_r.weight f4 [128, 128]
000000 57 1a c3 bb 91 55 f2 bc e3 98 9e 3d 96 0f 9a 3d
       -0.0059540677 -0.029581817 0.077440046 0.07522504
000010 4c c2 60 3c cc 7b 4d bd 7b 5d b2 3d 71 be a2 bc
       0.013718199 -0.05016689 0.08709236 -0.0198662
000020 1c b7 5b 3d e0 16 86 3d e2 cc 8c bd b8 e2 25 3c
       0.053641424 0.06547332 -0.06875016 0.010124855
000030 de c3 7a 3d 40 d1 95 3d 53 8d d9 3a 40 4d 5e 3d
       0.06122195 0.07315302 0.0016597904 0.05427289
000040 b1 0e 92 3b 95 14 69 bc d5 1c 64 3d bb c3 a5 3c
       0.0044573178 -0.014226099 0.05569156 0.020234933
000050 ce b5 31 bd 5b 27 2e bd 1c 6d 7d 3d 53 2c 10 3c
       -0.043386273 -0.042518 0.061871633 0.00879963
000060 ca e3 a7 3c 4f 67 80 3d ae 9b 4c 3d af eb 98 3c
       0.02049436 0.062697046 0.049953155 0.01866707
000070 53 82 f0 bb b9 f5 b4 3d 75 57 9c bd fe ac e6 bc
       -0.0073397546 0.088359304 -0.076338686 -0.028158661
000080 ba a1 c4 3c 96 d9 94 3d b0 e9 8c 3d 18 f0 0d bd
       0.024002898 0.07268064 0.0688051 -0.0346528
000090 a3 e2 51 3c e9 79 9f 3d 2d 99 90 3d fa b7 42 3d
       0.012810382 0.077869244 0.07060466 0.047538735
0000a0 4c dd 93 bd ea e3 b0 3d 9d e1 37 3d 41 03 ca 3a
       -0.072199434 0.08637221 0.044892896 0.0015412347
0000b0 a8 26 9a 3c 01 a9 60 bd 3c c7 63 3d c1 1f a7 3d
       0.01881726 -0.054848675 0.055609927 0.081603535
0000c0 8d 9e 09 3d e0 92 62 3d 13 13 84 3d 0f b6 a8 3d
       0.03359847 0.055315852 0.064489506 0.0823785
0000d0 6e 35 ab 3d a7 34 09 3b 44 9e d1 3c 32 71 29 3c
       0.083598 0.0020935924 0.025588162 0.010341929
0000e0 a7 6e 75 3d ec 2b 8b bc 33 16 04 bd 34 0d 60 bd
       0.05991998 -0.016988717 -0.032247733 -0.05470009
0000f0 ed 2c eb b9 71 00 03 bd 36 4c b0 bd 15 0b 7f 3d
       -0.00044856165 -0.031982843 -0.08608286 0.062266428
000100 80 88 95 bd 01 88 ad 3c 95 d2 9a bd 06 fc 6a 3d
       -0.07301426 0.021183016 -0.075596966 0.057369255
000110 3d 19 b4 3b ac 8b 64 3c 84 69 91 3c e8 7a 92 3d
       0.0054961727 0.013949316 0.01775051 0.07152349
000120 d4 62 77 bc 89 72 8d bd e0 5b 62 bd d9 c8 65 3d
       -0.015099246 -0.069066115 -0.0552634 0.056099746
000130 9a 65 0e 3c 5e e4 25 bd b6 d5 0a 3c 53 5c e2 3b
       0.008691216 -0.04050099 0.008473804 0.0069079786
000140 9c d0 81 3d 0a b0 8a 3d ca 31 e5 3a 81 14 8a bc
       0.06338617 0.06771858 0.0017486152 -0.01685548
000150 0a 8a a4 3d bb 73 a5 3d 75 0f 39 bc cd b5 99 3d
       0.08034141 0.080787145 -0.011295189 0.07505379
000160 e0 3b 31 3d 38 eb 08 bd 0d a8 36 bc 55 99 48 3d
       0.043269992 -0.033427447 -0.011148465 0.048974354
000170 b3 86 a2 bd e7 1d 2a bd 6b e8 a0 3b 9f 76 94 3d
       -0.07935848 -0.041532423 0.004910519 0.07249188
000180 94 29 36 3d 84 d3 cd 3c ed 7a 02 3c 16 0c 8e 3c
       0.044473246 0.025125273 0.007963878 0.017339747
000190 f5 ff 1f 3c 96 e0 85 bd ae 42 06 bc d7 0b 49 bd
       0.009765615 -0.06536977 -0.008194609 -0.049083557
0001a0 45 1c 90 3d 84 b4 45 bd 9e ca 70 3d 4d bd 06 3c
       0.07036642 -0.048267856 0.05878698 0.008223844
0001b0 13 f1 34 3d ac c4 e7 b9 c9 17 a7 3d 58 20 9e 3d
       0.04417522 -0.00044206285 0.081588335 0.07721013
0001c0 0f e9 a1 bd fc 56 82 bc aa e8 34 3d 27 e1 a9 3c
       -0.079057805 -0.015910618 0.0441672 0.020737244
0001d0 6f 2a 35 3b 2d 87 7e bd 93 07 8b 3d ec 1b a3 3d
       0.00276437 -0.062140632 0.06788554 0.0796431
0001e0 3f 4c 6b bd eb 30 ab 3d 94 cb 98 bc 76 bd b1 bc
       -0.05744576 0.0835894 -0.018651761 -0.021696787
0001f0 ec 52 60 3d 9b c5 4b bd 56 71 94 bd 0b a1 8e bd
       0.05476658 -0.049748998 -0.072481796 -0.0696431
000200 72 36 89 3d ef 25 db 3c dd 66 ae 3d 4e ae 6b 3b
       0.06699838 0.026751487 0.08515713 0.0035962048
000210 c7 df 46 3d 93 b4 41 3d b0 ee 64 bd cc d4 a5 bd
       0.048553254 0.04729135 -0.055891693 -0.080972284
000220 c0 b6 4c 3d 73 c0 87 3d 73 bc f6 3c b5 a9 a7 bd
       0.04997897 0.06628504 0.030119156 -0.08186666
000230 68 08 23 bd 98 f4 95 bd 6b bb bd bc e5 69 98 3c
       -0.03980294 -0.07322043 -0.023160657 0.018605182
000240 72 c2 c6 3c 7e 1c 4f bd c3 80 14 3c 73 d3 d4 3c
       0.02426264 -0.05056428 0.009063902 0.025979733
000250 b1 74 3b bd 9e 71 9c 3c 29 ef ae bc f2 dc 13 3d
       -0.045765582 0.019097146 -0.021354275 0.03609938
000260 6f d0 96 3d 96 3c 8f bd a6 ef 48 3d e4 f7 1a 3d
       0.07363974 -0.06993978 0.04905667 0.037834063
000270 1d 7b 75 bd 33 0f 14 bc 65 f8 c1 3c a3 14 2d bb
       -0.059931863 -0.009036827 0.023678014 -0.0026410006
000280 6d 4b 82 bd dd 6d 50 3b 20 34 8e 3a 9d 94 14 3d
       -0.063620426 0.0031803765 0.0010849275 0.03627454
000290 31 b5 7d bd b7 09 22 3b 68 f8 51 bd 16 95 a3 bd
       -0.061940376 0.0024725029 -0.05126229 -0.0798742
0002a0 51 be cc bc d3 c7 b1 bd 2e e4 9c 3d 86 4f 76 3c
       -0.024993094 -0.086806916 0.07660709 0.015033608
0002b0 5b 94 74 3d 78 de 25 3d 9b 5f b1 bd 03 a3 d5 bc
       0.059711795 0.040495366 -0.086608134 -0.026078707
0002c0 4b 6e 07 bd dc d3 52 bd 83 2d 87 bd 62 30 c7 bc
       -0.033064168 -0.051471576 -0.066004775 -0.024315063
0002d0 5c 94 ab 3d ea ce 76 3d b4 cc 8a bd 83 e1 20 3d
       0.08377907 0.060255922 -0.06777325 0.039277565
0002e0 b4 e9 57 3d 13 91 aa 3d 68 29 ac bd b1 60 3a bd
       0.05271311 0.08328452 -0.08406335 -0.04550237
0002f0 1e 90 9f 3d 7d 0f 00 bd e8 2d c3 3c 38 d2 95 bd
       0.0779116 -0.03126477 0.0238256 -0.07315487
000300 4c 55 b0 3d 4e ed a5 3c ba 0a 74 3d 8e e5 d8 bb
       0.08610019 0.020254757 0.059580542 -0.006619162
000310 b8 06 ab 3d 57 58 46 bd 0a bf 5c 3c 1d f9 5a bd
       0.08350891 -0.04842409 0.013473282 -0.05346023
000320 99 0c 9b 3d a0 f4 b6 bc f5 df 1c 3d 73 fa 19 3d
       0.07570762 -0.022333443 0.03829952 0.037592363
000330 41 fe a4 3d db 3e 3f bd b7 1c ab 3d 7c cd a8 3d
       0.080563076 -0.046690803 0.08355086 0.08242318
000340 a2 de 3e 3d 71 7c 5d 3d a9 2d a6 3c c4 d9 74 bd
       0.046599038 0.054073755 0.020285444 -0.05977799
000350 b0 45 8d 3d ad 2b 20 bd 9e 54 d4 3c 1e 7f 94 bb
       0.068980575 -0.039104152 0.025919255 -0.004531755
000360 cd 9f d4 3c 5f 44 13 3d c7 39 ba 3c 69 05 c7 bc
       0.025955105 0.035953876 0.022732629 -0.024294572
000370 80 40 7b bc 49 4d a9 bd dc 7a 4b bd 70 46 b4 bd
       -0.015335202 -0.08266694 -0.049677715 -0.088024974
000380 49 e7 1b bc a7 e6 9b 3d 67 c1 41 3b c3 b6 9e bd
       -0.009515592 0.07612353 0.002956474 -0.07749703
000390 d5 21 b2 bd 6d 1e c2 bc ff 7d 23 bc 45 c2 08 bd
       -0.08697859 -0.023696149 -0.00997877 -0.033388395
0003a0 44 23 74 bd 82 3f 8c 3c 79 2a 3b 3d cd af 0a bd
       -0.059603944 0.017120127 0.045694802 -0.033859063
0003b0 da b1 25 bd a1 48 98 bd d6 d2 3e bd be a6 68 3d
       -0.040452816 -0.07435728 -0.046587788 0.056799643
0003c0 5c 82 93 bd 47 4b 96 bc cb b8 47 bc 47 27 3b bc
       -0.072025985 -0.018346442 -0.012190054 -0.011422939
0003d0 46 da ab 3b 58 73 8f bd 63 6b a3 bc 43 7a 55 3c
       0.005244526 -0.07004422 -0.019948667 0.013029638
0003e0 13 8e 23 3c 18 58 44 bc a7 33 3a 3c dc fc f0 3c
       0.009982604 -0.011983894 0.011364854 0.029417448
0003f0 72 49 6a bd 9a 6a 61 3c 16 b2 85 bd 97 c7 a6 bd
       -0.05719895 0.013758326 -0.06528108 -0.081435375

sagpool.gnn.lin_rel.weight f4 [1, 128]
000000 82 31 00 3c 40 b5 c7 bc d2 53 a9 bd 2e 4e 5c bd
       0.007824304 -0.024378419 -0.082679406 -0.053785495
000010 85 c9 20 bb 0b 4c 69 3d e3 cf 30 3d 22 80 16 3c
       -0.0024534178 0.056957286 0.043167006 0.009185823
000020 47 be 62 bd 01 80 49 bb 5e cd a8 3d fe 53 1d bd
       -0.055357244 -0.0030746462 0.08242296 -0.03841018
000030 d4 19 92 3d 8a 65 a8 3c f3 e3 e8 bc c7 a4 44 bd
       0.071338326 0.02055623 -0.028429007 -0.048008706
000040 8e 1a fc bc af ea 8d bd d2 89 84 bd 74 cb 8f 3d
       -0.030774381 -0.06929528 -0.064716 0.070212275
000050 00 8a 65 3d 47 9b db bc fa 26 4d 3d fb 44 db 3c
       0.05603981 -0.02680744 0.050086 0.02676629
000060 20 4e 52 ba ab 84 8f bd ae 4f 00 3d f2 b7 ee 3c
       -0.0008022506 -0.07007726 0.03132599 0.029140446
000070 6b 39 86 3c 37 e9 ce 3c f8 25 7b 3d f0 ca 88 bd
       0.0163848 0.02525769 0.061315507 -0.06679332
000080 9d 1e 37 3d 08 07 7c 3c cd 11 c7 bb 14 e6 d6 bc
       0.04470693 0.015382536 -0.00607512 -0.026232757
000090 2b 95 89 bd 94 27 cd bc 47 1f 21 3d 30 cd 87 3c
       -0.06717905 -0.025043286 0.03933647 0.016577333
0000a0 2c f4 73 3d fa f6 60 3d 6d f0 04 3d 31 c0 ae 3d
       0.059559032 0.054923035 0.03245585 0.08532751
0000b0 f1 06 8b bd eb bb d6 3c 52 d3 21 3d e8 ea a4 bd
       -0.06788433 0.026212653 0.03950817 -0.08052617
0000c0 ea 6b ae 3c aa ed 80 bc 09 1c b8 bc b1 e9 9d bd
       0.021291692 -0.015738327 -0.022474306 -0.07710589
0000d0 77 08 b4 bd e6 05 ae 3d bc cc 9d 3d 61 7b 5f bd
       -0.08790677 0.08497219 0.077050656 -0.054561023
0000e0 9a 1b 17 3d 62 23 fc 3c 97 c4 2b 3d 65 23 a7 3d
       0.036891557 0.03077859 0.04193553 0.08161048
0000f0 5d 8e 02 bd dd 48 7a bd 03 2d 0d 3d 0c d4 a0 3d
       -0.03187405 -0.061104644 0.034466755 0.07852945
000100 de 08 26 bd a5 fa a8 3d c0 e9 42 bd d0 4c 81 bd
       -0.0405358 0.08250932 -0.047586203 -0.06313479
000110 98 c1 78 bd af 8b 95 3d 70 2b 0e bd 98 ae 99 bd
       -0.0607315 0.07302033 -0.034709394 -0.07504004
000120 06 13 ff bc 96 40 9a bd 57 f3 6b bd ae e8 80 bd
       -0.031137 -0.0753185 -0.057605114 -0.0629438
000130 6f 68 80 3d 1e 38 49 3a 96 f1 86 bc 33 b0 28 bc
       0.06269919 0.00076759036 -0.016472619 -0.010295915
000140 6d 98 5d bd 89 a9 a8 bd d0 b6 64 bd 81 53 75 3c
       -0.054100443 -0.08235461 -0.055838406 0.014973522
000150 c9 25 43 bd 5f 98 6f bd 2e 42 5f bd 43 8f 56 bd
       -0.047643457 -0.05849492 -0.054506473 -0.05238272
000160 3a 5e 3c 3b 67 ac 7b bd c3 82 88 3d c7 0c 8b bd
       0.0028742687 -0.061443713 0.06665566 -0.067895465
000170 3d df 91 bc 84 05 99 bd f8 2a d5 bc 83 f2 87 bd
       -0.017806644 -0.07471755 -0.026021466 -0.06638052
000180 e3 9b e8 3a 3b dd 1f 3d 3e 15 4a 3d fe d7 46 bd
       0.0017746653 0.03902934 0.049336664 -0.04854583
000190 d3 51 43 3c 24 7d b0 3d d9 d3 47 bd a8 5a a2 bc
       0.011921364 0.08617619 -0.048786018 -0.019818619
0001a0 d2 a9 80 3d be 27 4b 3c f2 5a 6c bd ea 7e e6 3c
       0.06282391 0.012399612 -0.05770392 0.02813669
0001b0 3a 53 89 3d 72 5f 29 bd 18 5f a4 bd 55 aa 1c bd
       0.06705327 -0.04135079 -0.0802595 -0.03824838
0001c0 37 d4 71 3d 1a be 9a bd 37 53 87 3c d2 65 da ba
       0.059040274 -0.0755579 0.016519172 -0.0016662425
0001d0 b9 5f 57 bd 47 eb 4f bc a4 1d 93 bd 38 e1 19 3c
       -0.052581523 -0.012690372 -0.07183388 0.009392075
0001e0 c6 fa 85 3d d4 42 72 bd ef 4b 56 3d 11 f2 e6 bc
       0.06541972 -0.059145764 0.05231851 -0.028191598
0001f0 6a bd 7b bd 29 5a 34 3d 84 95 82 bd b1 28 18 3c
       -0.061459936 0.044031296 -0.06376174 0.009287045

sagpool.gnn.lin_root.weight f4 [1, 128]
000000 28 ba a9 bc c4 d6 ba bc c4 d7 07 3d 94 d5 cf 3c
       -0.020718649 -0.022807486 0.033164755 0.025370397
000010 3b 33 fc 3c 9e f9 f5 3c 62 ea 96 3c f1 90 01 3d
       0.030786147 0.030026253 0.01842231 0.031632368
000020 8e 57 a1 3c 42 43 c9 3c 60 18 43 3c 2d 10 96 3d
       0.01969507 0.024568204 0.011907667 0.07327304
000030 41 d8 49 3d c0 c5 3a 3d 37 6c 0d 3d dc a8 78 bd
       0.0492785 0.045598745 0.03452703 -0.06070791
000040 39 42 87 bc 37 bc eb 3c 1c 58 85 3d 34 ea a4 3d
       -0.01651107 0.028776271 0.06510946 0.08052483
000050 18 15 18 3d a5 52 91 3d f3 8a 4c bd 95 5e 28 bd
       0.03712949 0.07095841 -0.0499372 -0.041105825
000060 fa 5e 5b 3d c6 ca de 3c 98 61 61 3d cd 90 7a bd
       0.053557374 0.0271963 0.055024713 -0.06117325
000070 a7 0f 24 3b d1 7b 80 bd 02 0b af bd 52 6c d5 3b
       0.0025033744 -0.06273616 -0.085470214 0.006513157
000080 12 9a 39 bd 76 94 8e bd 53 5f 47 bd 2e 66 a2 3d
       -0.04531295 -0.069619104 -0.048674893 0.079296455
000090 23 80 5a 3d 10 fc db bc 7a 1f 39 bd 72 70 89 bd
       0.053344857 -0.026853591 -0.045196034 -0.067109
0000a0 1a 8c af 3c 8f d7 a4 3d 6c 01 89 bd cf ea 95 3d
       0.02142911 0.08048927 -0.06689724 0.07320177
0000b0 db bb 81 bd 6c f7 92 3d 01 0f e1 bb 5c 5f 69 3d
       -0.06334659 0.07176098 -0.0068682437 0.056975707
0000c0 e4 3c ac bd 7d bd 31 bc 58 e8 97 3c 61 32 45 3d
       -0.084100515 -0.0108484 0.018543407 0.04814375
0000d0 61 a5 8f 3d 3d a1 8b 3d e9 e7 7b bd fe 9a a1 bd
       0.070139654 0.06817863 -0.061500464 -0.078908905
0000e0 aa 2b 82 3d 54 a3 d8 bc a4 8f 50 3d b5 0f ae bd
       0.063559845 -0.026445068 0.050918236 -0.0849909
0000f0 7b 72 4d bd 14 46 5a 3d d0 92 84 3d 8f cf 4b 3d
       -0.050158005 0.053289488 0.06473315 0.04975849
000100 89 54 c8 bc eb 69 8f 3d b8 b7 3a bd 57 f3 cc b8
       -0.024454372 0.07002624 -0.045585364 -9.7728036e-05
000110 a1 d2 74 bc 35 bc 05 3d 6f b8 f4 bc 2f 39 1a bd
       -0.014942796 0.03265019 -0.029873101 -0.03765219
000120 fe ad 8b 3d 88 69 6d 3d 7d ff 84 3d d7 3a 20 3d
       0.06820296 0.05796197 0.06494043 0.039118614
000130 11 d2 72 3d 02 d3 90 3d dd f5 a4 bd 9e c1 4b 3d
       0.059282366 0.070714965 -0.08054707 0.049745195
000140 ad c1 9a bd 05 e2 52 bd a0 15 9c bc 9d 9a 2e 3d
       -0.07556472 -0.05148508 -0.01905328 0.04262792
000150 12 64 31 3c 66 88 6d 3c 83 cf fa 3c 22 7b 99 bc
       0.010827081 0.014497852 0.030616527 -0.018735472
000160 b2 b8 93 3d 50 b0 b3 bd 47 2b aa 3d 95 3a 7b bd
       0.07212962 -0.08773863 0.08309036 -0.061335165
000170 65 ff 16 bc 07 91 9a bd b4 dd 68 bc 1f 6a 97 bd
       -0.009216164 -0.07547193 -0.014213014 -0.07393288
000180 64 28 eb 3b 82 87 67 bd 26 ab 03 bd 7d 86 8f 3d
       0.007176446 -0.056525715 -0.03214564 0.070080735
000190 d8 d5 81 bd fd f9 c3 3c be 9a 68 3d 0c 9a 33 3d
       -0.063396156 0.023922915 0.0567882 0.043848082
0001a0 76 68 d5 3c e7 7c 1d 3d 87 18 97 3c 85 ce 46 bd
       0.026050787 0.038449194 0.018444313 -0.048536796
0001b0 8c ab 39 bd c6 7d 83 bc 5e fa ad 3d 94 a8 88 bc
       -0.045329615 -0.016051184 0.084950194 -0.016681947
0001c0 6b 84 82 3d a8 81 b0 3c 83 07 a4 3d 06 d9 4b 3c
       0.06372913 0.0215462 0.08009245 0.012441879
0001d0 fa 07 69 3d 66 da 5f bc 2e fb 3a 3d ef 6c 6d bd
       0.056892373 -0.01366291 0.0456497 -0.057965215
0001e0 b3 52 8b bd e5 c4 96 bd 3c 81 a1 3d fb c8 c9 bc
       -0.06802883 -0.073617734 0.078859776 -0.024631968
0001f0 ed d8 bb 3c 2f a2 d2 3c 08 cb 19 3d aa 3c ee bc
       0.022930587 0.0257121 0.03754714 -0.029081661

lin.weight f4 [64, 128]
000000 f5 9d 93 3d 67 a1 1e bd 07 b8 b2 3c 61 56 03 bd
       0.07207862 -0.038728144 0.021816267 -0.0320648
000010 d3 ec 64 bd b3 f7 e1 bc f8 d2 8b bc a8 81 35 3d
       -0.055889916 -0.027583933 -0.017068371 0.044313103
000020 8a c6 13 3d 17 cc 8e bc 7f 1b 94 bd ea 4d a6 bd
       0.036078013 -0.017431302 -0.07231807 -0.0812033
000030 ed 48 6d 3d 9c 36 8c bc d0 9b 80 bd c1 61 00 3d
       0.057930876 -0.017115884 -0.06279719 0.031343225
000040 1e 72 85 bd 1c 27 f3 3c 41 38 8a bd c3 33 a9 bd
       -0.06515907 0.029681735 -0.06749011 -0.08261826
000050 da 23 a7 bc 20 d8 94 3d 90 fa 86 3d 6d ba 62 bd
       -0.020402838 0.07267785 0.0659076 -0.05535357
000060 f8 0a da bb 8f 62 69 3d 30 80 15 bc a0 cb 76 3d
       -0.0066541396 0.05697876 -0.009124801 0.060252786
000070 fa 97 e3 3c 00 a1 3c bd 1b 06 4c bd b7 30 37 bb
       0.027782429 -0.04605198 -0.04981051 -0.002795262
000080 87 65 02 3d bf 99 68 bd c5 ac 31 3d 9e dd 87 3d
       0.031835105 -0.05678725 0.043377656 0.06634067
000090 dd 2e 81 3d b3 5f 89 bd d6 63 38 3d 81 1c 93 3c
       0.063077666 -0.06707706 0.045017086 0.017957928
0000a0 37 2e 8f 3d ed ed 84 bd 42 cd 27 bd 84 3c 88 bd
       0.06991237 -0.06490693 -0.040967233 -0.066521674
0000b0 27 71 60 3d 4a 60 8f 3d 3d d5 59 3c 37 37 4a 3b
       0.05479541 0.070007876 0.013295469 0.0030855665
0000c0 9e 56 3c 3d f0 b5 b3 3d dc 78 ab 3c 35 b4 09 3d
       0.045981042 0.08774936 0.020931654 0.033619124
0000d0 5e ce ae 3d 09 1d 14 3d a7 22 93 3d a3 92 12 3d
       0.08535455 0.036160503 0.07184344 0.035784375
0000e0 6d e2 67 3c 00 d0 e7 bc e0 6e 06 3d 84 f2 46 bd
       0.014153105 -0.028297424 0.032820582 -0.048571125
0000f0 1b c2 1d bd 08 e4 63 3c d5 02 52 bd ce 3e 85 bd
       -0.03851519 0.013909347 -0.051272232 -0.0650612
000100 29 6c 97 3d fe 42 3e bd b1 ac 9c bd 28 31 0d bd
       0.07393677 -0.046450607 -0.07650126 -0.034470707
000110 5a 1e 5b 3c 11 71 09 3d 48 e0 1a 3d 14 52 5d bc
       0.013373936 0.033555094 0.037811548 -0.0135083385
000120 a0 d5 24 3d 3f 9b 9c 3c 9b d1 db 3b 2d 0d 9f bd
       0.04024279 0.019116996 0.0067083365 -0.07766185
000130 8f 97 2f bd 96 d2 b3 3d 12 c1 e6 bb 95 7d 86 bd
       -0.042869147 0.087804005 -0.0070420587 -0.065669216
000140 cf b9 81 bd c7 b8 28 3d a4 15 18 bd b3 74 cc 3c
       -0.06334268 0.041191842 -0.037130013 0.02495799
000150 e0 f0 ef 3c 40 b1 3c bc fc ad fe 3c e2 48 87 bd
       0.029289663 -0.011516869 0.031088822 -0.06605698
000160 b5 19 04 3d 70 28 1c bd 97 d9 b4 3d 82 32 8e 3d
       0.03225108 -0.0381245 0.088305645 0.06943227
000170 11 30 ff bc 75 94 a1 3d 0b 04 46 3c f5 db b3 3c
       -0.03115085 0.07889644 0.012085925 0.02195547
000180 e9 ef 8a bd c8 26 17 3d e7 fd 9e bd 3c 17 32 3d
       -0.067840405 0.03690222 -0.07763272 0.04347919
000190 83 7f e8 3c 95 0e 2e 3d 7c fb 20 bd 16 a0 a2 3d
       0.028381115 0.042494375 -0.039302334 0.0794069
0001a0 4b 27 a8 3d db 23 89 3d 2e 7d a9 3b ec 3a 09 bd
       0.082106195 0.06696292 0.0051723933 -0.033503458
0001b0 38 8e 99 bd 3c a8 41 bd 41 ed 13 bd cf 2a b1 bd
       -0.07497829 -0.04727958 -0.036114935 -0.08650743
0001c0 1d 0b 50 3d 85 d9 4d 3d 59 9c e7 3b 1f 84 a2 3d
       0.05079185 0.05025627 0.0070681986 0.07935356
0001d0 14 b4 9f 3d 66 1a 98 3d 81 a7 9a 3d 1c 46 17 3d
       0.07798019 0.0742691 0.0755148 0.036932096
0001e0 c4 95 8c bd af 4d a5 bd a0 1a 9e bd 8d 0b cd 3c
       -0.06864503 -0.080714576 -0.07719922 0.025029922
0001f0 c6 d1 db 3c 24 0f b2 3d 97 33 98 3d 92 c9 84 bd
       0.026833426 0.08694294 0.07431715 -0.06483759
000200 79 ca 16 bd 3f 5e 8e 3d 73 98 55 bd 82 ba cf bc
       -0.036814187 0.0695157 -0.05214734 -0.025357489
000210 88 1d d4 3c 95 2b ae 3d 27 0d 4b bd e4 8b 9c bd
       0.025892988 0.08504406 -0.04957309 -0.076438695
000220 85 f1 2e bd 38 bc 40 bc 09 06 f3 3c 90 91 2c bd
       -0.0427108 -0.011763625 0.029665964 -0.042131007
000230 58 05 96 bd ad 9e 82 3d 92 c5 7b 3d 9c f0 a5 bb
       -0.07325238 0.06377921 0.061467715 -0.0050640833
000240 e7 76 94 bd 71 e5 a2 3d ff 19 86 3c e2 ed 39 bb
       -0.07249241 0.07953919 0.016369818 -0.002837055
000250 f7 63 3d 3c cc 40 76 bc f2 6f a8 bd 7e 67 8d bd
       0.011559478 -0.015030097 -0.08224477 -0.06904505
000260 40 e6 8a bd 2d 3a ac bd 2e 41 b3 3d d8 7f 92 bd
       -0.06782198 -0.08409534 0.087526664 -0.071532905
000270 0e c0 31 bd b8 75 3b bd d8 70 9d bd 6d 5d 88 3d
       -0.04339605 -0.045766562 -0.07687539 0.066584446
000280 89 a1 89 3d 6d 7f a1 bd d6 bb 33 3d f3 33 a1 bd
       0.067202635 -0.07885633 0.043880306 -0.07871237
000290 f1 b6 c7 3c 54 80 ff 3c 9d 7d 57 bd e5 c7 43 ba
       0.024379225 0.031189121 -0.05261003 -0.0007468446
0002a0 44 12 24 3d 73 8d c5 bb 8b d1 24 bc c1 b2 4d bd
       0.040056482 -0.006028825 -0.010059725 -0.0502193
0002b0 b4 f5 4a 3c 9c dd 5b bd dc 19 0a 3d c9 67 5a bd
       0.012387682 -0.05367814 0.033716068 -0.053321633
0002c0 52 21 6b bd 61 3c b3 3d dd 06 b5 3d 22 e9 a7 3d
       -0.057404824 0.08751751 0.088392 0.081987634
0002d0 05 f0 ae bc aa f0 1f 3d 0c bd a9 bd 56 0a 4e bd
       -0.021354685 0.039047875 -0.08288011 -0.050302826
0002e0 9d ef 8a 3d ef b7 4f bc f5 fb cd 3c 4e 16 a5 bc
       0.06783984 -0.0126781305 0.025144557 -0.020152237
0002f0 a0 44 83 bc f5 62 8c 3b 36 e6 48 bd 8a dd b8 bc
       -0.016023934 0.0042842575 -0.04904767 -0.022566576
000300 12 a2 a3 3d 4e a4 86 bc e8 80 38 bd d4 41 e2 bc
       0.07989897 -0.016435768 -0.04504481 -0.02761928
000310 24 8e a0 bd e9 d0 a0 bd 05 93 9c bd c0 b9 80 3d
       -0.07839611 -0.078523465 -0.07645229 0.06285429
000320 35 e0 e7 ba 9e 41 29 bd b8 4f 6f bd 29 f2 98 3d
       -0.001769072 -0.041322343 -0.058425635 0.074680634
000330 b6 11 fa 3c f7 f8 46 3d 3d b9 4a bd 0e 3f 6a 3b
       0.030526023 0.048577275 -0.049493063 0.003574315
000340 57 ac d8 bc c3 6f 5c bd ec 2a 41 bd 5b a1 61 3d
       -0.026449366 -0.05381752 -0.047160074 0.05508552
000350 78 66 dc 3c eb 7a 89 ba 66 15 be bc fc 6d 96 bd
       0.02690433 -0.0010488903 -0.023203563 -0.073451966
000360 7a 0a 04 bc d5 23 2c ba 4e 00 90 3d 44 70 23 3d
       -0.008059138 -0.00065666187 0.07031308 0.039901987
000370 9f 48 3a 3d 65 3d 71 3d 68 7e 14 bd fa 30 8f 3d
       0.045479413 0.05889644 -0.036253363 0.069917634
000380 66 81 5d 3d 71 cc a0 3c 63 c1 8b bd 96 76 75 bc
       0.054078482 0.019628735 -0.06823995 -0.014981886
000390 1f 9d 99 bd 13 25 8a 3d 51 40 a6 bd 78 e6 b1 bd
       -0.075006716 0.067453526 -0.08117736 -0.086865366
0003a0 37 83 6f bd e8 6e 83 3d e6 0e 8a 3d da 6c f4 3c
       -0.058474746 0.06417638 0.06741123 0.02983706
0003b0 8b 40 85 3d 19 88 27 3c 32 a6 0b bd eb 12 96 bc
       0.06506451 0.010225319 -0.034094043 -0.018319568
0003c0 e7 cf 15 bd 34 5c 77 3d f1 da 78 bd df 90 98 bc
       -0.036575224 0.060390666 -0.060755674 -0.018623767
0003d0 0f f6 95 bd e6 88 6a bc 49 2d a1 3d d5 c9 5a bd
       -0.073223226 -0.014314866 0.078699656 -0.05341514
0003e0 95 2e 09 3d 6b 5d 79 bd b0 e2 4a 3b 00 31 8c 3d
       0.03349169 -0.060880106 0.003095787 0.068452835
0003f0 37 a0 3f bd ab c8 5b bb 18 fd b5 3c aa ef 88 bd
       -0.046783652 -0.0033536355 0.022215411 -0.06686337
