All_Benchmarking/DATA_20/Results/f2/best_model.pth (torch, 192098 bytes, 32 tensors)

gat1.att_src f4 [1, 4, 32]
0	0x3eb6cb75	0.357021
1	0xbe26829b	-0.1626076
2	0xbec6ecf3	-0.38852653
3	0xbc85debc	-0.01634156
4	0x3d583f68	0.052794844
5	0xbde9dc85	-0.11419014
6	0xbe278a8f	-0.1636145
7	0xbe864b28	-0.26229215
8	0x3e8185ac	0.25297296
9	0xbebe4fef	-0.3717036
10	0xbe968b55	-0.29403177
11	0xbe4e69da	-0.20157567
12	0xbebf567f	-0.3737068
13	0xbce5b417	-0.028039975
14	0xbebd2945	-0.3694555
15	0x3dda9169	0.10672266
16	0xbd52a7ef	-0.051429685
17	0x3dcec845	0.10096792
18	0xbe0e2d6c	-0.13884515
19	0x3d098158	0.033570617
20	0xbcba25e7	-0.022723151
21	0xbdfde8e7	-0.12397938
22	0xbe53f7c1	-0.2069998
23	0xbd64d2c3	-0.05586506
24	0xbe7e5c39	-0.24839868
25	0x3c734ec1	0.014850319
26	0xbe88cba6	-0.2671787
27	0xbd55c3f5	-0.052188832
28	0xbeb1ef72	-0.34752995
29	0x3e8461c8	0.2585585
30	0xbe902e58	-0.28160357
31	0x3e77567c	0.24154085
32	0xbdcc7a4f	-0.09984266
33	0xbe81fd23	-0.2538844
34	0xbe58e9e5	-0.21182974
35	0xbe1b8a3c	-0.15189451
36	0xbd98ee55	-0.07467333
37	0x3df0bc8b	0.11754712
38	0x3d71f565	0.059071917
39	0xbd60cab0	-0.054880798
40	0xbe4d0d41	-0.20024587
41	0x3e767a6f	0.24070142
42	0xbecc7a3c	-0.39937007
43	0x3e9f15c5	0.31071296
44	0xbeb482a8	-0.35255933
45	0xbe7410ab	-0.23834483
46	0xbda5bd3d	-0.08092735
47	0x3e313616	0.17305788
48	0x3ec42f0c	0.38317144
49	0x3ebe01fe	0.37110895
50	0x3eccbd0e	0.39987987
51	0xbcfaf927	-0.030636383
52	0x3e8bc79f	0.27300736
53	0x3ec0b9f1	0.37641862
54	0xbe64443a	-0.22291651
55	0x3e247df7	0.16063677
56	0x3ccbc22a	0.024872858
57	0x3db76e80	0.08956623
58	0xbecb3245	-0.3968679
59	0xbe9c8583	-0.3057061
60	0x3c96ba0c	0.018399261
61	0xbc24ed81	-0.010066391
62	0x3d87cfce	0.066314325
63	0xbe5c5846	-0.21518049
64	0xbd14f59e	-0.03636705
65	0x3eb2c7a3	0.34917936
66	0x3eaf77ea	0.34271175
67	0x3e9e07bb	0.30865273
68	0x3ec09545	0.37613884
69	0x3c2f7891	0.010709898
70	0xbdee81e4	-0.116458684
71	0x3e8d897e	0.2764396
72	0x3e983d7b	0.29734406
73	0x3ec0b060	0.37634563
74	0x3e4e2549	0.2013141
75	0xbe35b4ff	-0.17744826
76	0x3eb331d9	0.34998968
77	0xbea65769	-0.32488564
78	0xbe47721b	-0.19477122
79	0xbe2d5ffa	-0.16931143
80	0x3d238836	0.039924823
81	0x3d8f6cea	0.070031956
82	0x3ea2d35d	0.31801882
83	0xbe94200b	-0.28930697
84	0x3ce264ba	0.02763592
85	0xbe92ca1f	-0.2866983
86	0x3e8d9440	0.27652168
87	0x3d85fece	0.06542741
88	0x3e9f3c96	0.3110091
89	0x3eb2b88f	0.34906432
90	0x3ea4021a	0.32032853
91	0xbea2fbe8	-0.31832814
92	0xbe3e20da	-0.1856722
93	0x3ea9960f	0.33122298
94	0xbea67c73	-0.32516822
95	0xbdf223f5	-0.118232645
96	0x3ec64d77	0.38730976
97	0xbebbcc9a	-0.36679536
98	0x3ea7a603	0.32743844
99	0xbe0e2c34	-0.1388405
100	0x3d960578	0.07325262
101	0xbed0359f	-0.4066591
102	0x3d34752f	0.044057067
103	0x3e875a35	0.2643601
104	0xbe2b9720	-0.16756868
105	0xbe87db1c	-0.26534355
106	0xbe5f3ac5	-0.21799763
107	0x3c7b93f8	0.015355103
108	0xbe2c5ed3	-0.16833048
109	0x3d8d751f	0.06907105
110	0xbcecc312	-0.02890161
111	0x3ddc3b74	0.10753527
112	0x3e9bb300	0.30410004
113	0xbed0a95d	-0.40754214
114	0x3dbf0402	0.09326936
115	0x3ebf276a	0.37334758
116	0x3e2eceb9	0.17071046
117	0x3df0b2f4	0.117528826
118	0x3eb5733f	0.35439488
119	0x3d03bd3f	0.0321629
120	0x3de83b36	0.113394186
121	0x3e01b964	0.12668377
122	0x3e90fc62	0.28317553
123	0x3ec05777	0.3756673
124	0x3eb498c1	0.35272792
125	0xbe9806cc	-0.29692686
126	0xbe931ec2	-0.28734404
127	0x3e07d9f5	0.13266738

gat1.att_dst f4 [1, 4, 32]
0	0xbebdd7d1	-0.37078717
1	0xbe6874a7	-0.2270075
2	0xbe985c50	-0.2975793
3	0xbe373d43	-0.17894463
4	0x3c83bdd8	0.016081735
5	0x3cabc84e	0.020969536
6	0xbece818e	-0.40333217
7	0x3e48adb0	0.19597507
8	0xbeb16ba8	-0.34652448
9	0x3d809748	0.062788546
10	0x3ec7b817	0.39007637
11	0x3e042d03	0.12907796
12	0xbe03f893	-0.12887792
13	0x3ead0a56	0.33796948
14	0x3ea3a5cc	0.3196243
15	0x3eac37d5	0.33636346
16	0x3eb379b0	0.35053778
17	0xbdb03d45	-0.08605436
18	0xbea25ee1	-0.31713012
19	0x3eca86da	0.3955601
20	0x3ed00f5e	0.40636724
21	0x3e8479cd	0.25874177
22	0x3e194e72	0.14971331
23	0x3c3611b0	0.0111126155
24	0x3e8f46ed	0.279838
25	0x3e17a5a0	0.14809275
26	0xbc500378	-0.0126961395
27	0x3de05dc0	0.109553814
28	0x3ecdb992	0.4018064
29	0x3e926d4b	0.2859901
30	0x3ec966f0	0.39336348
31	0xbe1a4ac1	-0.15067579
32	0xbea93e39	-0.33055285
33	0xbe1bbdda	-0.15209141
34	0xbe8bd4a8	-0.2731068
35	0xbd4c0ada	-0.049815036
36	0x3eb3d94c	0.35126722
37	0x3eaa81fe	0.333023
38	0x3dc3f4d1	0.095681794
39	0x3d8b2087	0.067933135
40	0x3e91294b	0.28351817
41	0x3dd3e2c4	0.103459865
42	0x3e928456	0.2861659
43	0x3d3f7b08	0.04674819
44	0x3be9a58c	0.0071303304
45	0xbdac041b	-0.083992206
46	0x3e8444c2	0.25833708
47	0xbdb6a35c	-0.08917877
48	0x3ecb5a98	0.39717555
49	0xbd29dab1	-0.041468326
50	0xbe4c9e0d	-0.19982167
51	0x3eb4c034	0.3530289
52	0x3e6d6ac1	0.23185255
53	0x3e2b649c	0.16737598
54	0xbeb7dade	-0.3590917
55	0xbbba2f60	-0.005681917
56	0x3e253350	0.16132855
57	0xbea8b0d5	-0.32947412
58	0x3d28d4ee	0.04121869
59	0xbaf9c742	-0.0019056576
60	0x3d166bf8	0.03672406
61	0xbe4de910	-0.20108438
62	0x3e02cbb7	0.12773024
63	0x3e62f5c5	0.22164066
64	0x3e442dd3	0.19158106
65	0x3dcc707c	0.09982392
66	0xbe692c95	-0.22770913
67	0x3e369805	0.17831428
68	0x3d3c3515	0.04594906
69	0xbebd2d01	-0.36948398
70	0x3d1235d4	0.035695866
71	0x3e193763	0.14962535
72	0xbd9d7a8b	-0.07689389
73	0x3e809922	0.2511683
74	0x3d63e7b0	0.055640876
75	0xbc0560b8	-0.008140735
76	0xbe6f0da0	-0.23345041
77	0xbde9342c	-0.11386904
78	0x3dd5f5e4	0.104472905
79	0xbec69bd6	-0.38790768
80	0x3e8133ed	0.2523493
81	0x3cbfa93b	0.023396125
82	0x3eb856b7	0.36003658
83	0xbe5b27a9	-0.21401848
84	0xbd4f7482	-0.05064822
85	0xbe3db5d0	-0.18526387
86	0xbb664b37	-0.0035140046
87	0x3e73b3c9	0.23799051
88	0x3bc32887	0.005955759
89	0x3e809e37	0.25120708
90	0x3e47910c	0.19488925
91	0x3ea870e8	0.3289864
92	0x3e0aa135	0.13538058
93	0x3e98889b	0.29791722
94	0x3c97f4b3	0.018549299
95	0xbde1c0a6	-0.11023073
96	0x3eba3a64	0.36372674
97	0x3e4c8c1e	0.19975325
98	0x3e1b5f15	0.1517299
99	0xbe2e3c59	-0.17015208
100	0xbe457ad3	-0.19285135
101	0x3e5fd34f	0.21857952
102	0xbe768b62	-0.24076608
103	0x3d9a8c9f	0.075463526
104	0x3d560ace	0.052256398
105	0xbe2f394f	-0.17111705
106	0xbe24d4e5	-0.16096838
107	0x3ebc1067	0.36731264
108	0x3e0c6a33	0.13712387
109	0xbccfe834	-0.025379278
110	0x3e06cd8c	0.13164347
111	0xbe0192e7	-0.12653695
112	0xbe73ad8b	-0.2379667
113	0x3e4d5c6c	0.20054787
114	0xbecca067	-0.39966127
115	0x3d8749ca	0.06605871
116	0xbdc3ffdf	-0.09570288
117	0xbdc38bb8	-0.095481336
118	0xbea7441b	-0.32669148
119	0xbeb2b84e	-0.34906238
120	0xbe97854b	-0.29593882
121	0x3ea09df0	0.31370497
122	0x3ec0c0fb	0.37647232
123	0xbce496d8	-0.02790396
124	0x3e341736	0.1758698
125	0xbda7fafb	-0.082021676
126	0x3eafea69	0.34358528
127	0xbe59d720	-0.2127347

gat1.bias f4 [128]
0	0xb7fd313b	-3.0182875e-05
1	0x393c9f87	0.00017988506
2	0x38240ac4	3.9110673e-05
3	0x38985816	7.264332e-05
4	0x3920ab19	0.00015322528
5	0x39b20c63	0.00033960034
6	0x392de9b1	0.00016585623
7	0xb92bf4c4	-0.00016399013
8	0x39ae04f3	0.00033191554
9	0xb9aaad2f	-0.0003255396
10	0x39a1d070	0.0003086361
11	0xb972f014	-0.00023168355
12	0xb7c6dc97	-2.370616e-05
13	0x37bdf266	2.2643431e-05
14	0x3a0cfbc5	0.0005378093
15	0x38d195fe	9.993835e-05
16	0xb818d603	-3.6438938e-05
17	0x371e1c14	9.424071e-06
18	0xb995e965	-0.00028593387
19	0x37bcccd1	2.2506722e-05
20	0x38334f6c	4.2750893e-05
21	0xb7512238	-1.2465338e-05
22	0xb9cfe177	-0.000396501
23	0x39666118	0.0002197068
24	0xb9834697	-0.0002503886
25	0xb8d7d402	-0.000102914884
26	0xb811b5fd	-3.4740184e-05
27	0xb916cab6	-0.0001438063
28	0x3925774d	0.00015780069
29	0xb9417c66	-0.00018452256
30	0x39b1b30b	0.00033893468
31	0x38c404ec	9.346925e-05
32	0x393d9bfc	0.00018082553
33	0xb91f20e3	-0.00015175673
34	0xb8055fd6	-3.1798925e-05
35	0x39ede31f	0.0004537338
36	0xb83df186	-4.5286048e-05
37	0x39acd45d	0.0003296462
38	0xb80af496	-3.3129552e-05
39	0x36f0e52d	7.179237e-06
40	0xb9f066a0	-0.0004585283
41	0xb9a0a9e6	-0.00030644162
42	0xb9d6fae8	-0.000410042
43	0xb90944f9	-0.00013091032
44	0xb90a6cdb	-0.00013201257
45	0xb8ef359f	-0.00011406396
46	0xb8ae49d2	-8.310717e-05
47	0xb9b2a8bf	-0.0003407653
48	0xb9358fa0	-0.0001731501
49	0xb9c1e4dc	-0.00036982342
50	0xb881730e	-6.17263e-05
51	0x384d6952	4.8973896e-05
52	0xb9408b1a	-0.00018362366
53	0xb9d9b21d	-0.0004152217
54	0x39b68f27	0.00034820402
55	0x39dc0c24	0.00041970715
56	0x396f63c3	0.0002282998
57	0xb91e9766	-0.00015124455
58	0x3810ce17	3.452421e-05
59	0x37918f45	1.7352062e-05
60	0x39d08e3b	0.00039778822
61	0xb89b652b	-7.40982e-05
62	0xb951303d	-0.00019949763
63	0x3935891e	0.00017312585
64	0x39becfa8	0.0003639434
65	0x38c3fcc8	9.345409e-05
66	0x39157710	0.00014254102
67	0xb590cf92	-1.0789247e-06
68	0xb6e8654e	-6.925932e-06
69	0xb9fa1eb0	-0.0004770658
70	0x3811c529	3.4754314e-05
71	0x3917ba4c	0.00014469883
72	0xb7638e57	-1.3563395e-05
73	0xb939ef35	-0.00017732086
74	0xb8df9493	-0.00010661143
75	0x37a71deb	1.9921883e-05
76	0x3959f648	0.0002078648
77	0xb98d4d65	-0.0002695128
78	0x39dc5edc	0.00042032346
79	0xb8f8ef2f	-0.00011870113
80	0x380ef16c	3.408028e-05
81	0x39b98803	0.00035387286
82	0xb926b68e	-0.00015899
83	0x39d9fce9	0.00041577898
84	0xb9f88db2	-0.00047407817
85	0x39620d1c	0.00021557923
86	0x38796c45	5.946706e-05
87	0xb6d3c406	-6.31111e-06
88	0x39239d41	0.00015603473
89	0x3989e3cd	0.000263004
90	0x3921d62e	0.00015433945
91	0x38633ff9	5.4180597e-05
92	0xb9389e3e	-0.00017606557
93	0xb9e75616	-0.00044123892
94	0xb9b8eac7	-0.00035270138
95	0xb96fe81b	-0.00022879282
96	0x3a1ee85e	0.0006061847
97	0xb9ddfe7e	-0.00042342016
98	0xb9259fde	-0.00015795181
99	0xb9c62023	-0.00037789447
100	0xb9435383	-0.0001862776
101	0xb97bf4b5	-0.00024028386
102	0x389167da	6.933483e-05
103	0xb9627421	-0.00021596301
104	0x390ea747	0.00013604491
105	0x38d0cf05	9.956773e-05
106	0x3815bf57	3.5702567e-05
107	0x382d021e	4.1248386e-05
108	0xb8141739	-3.5307577e-05
109	0x397c6ab5	0.00024072344
110	0x397acfea	0.00023919312
111	0x394dbfef	0.00019621824
112	0x390caf15	0.00013416664
113	0xb9f6a304	-0.00047042232
114	0x39bbda6c	0.00035830156
115	0xba23df06	-0.00062511896
116	0xb8f7ab11	-0.000118097414
117	0xb8017787	-3.0867315e-05
118	0xb99f892e	-0.0003042905
119	0x39812001	0.00024628642
120	0xb97e3424	-0.00024242752
121	0xb914e45b	-0.00014199449
122	0xba21a078	-0.00061655743
123	0x3a10d1fd	0.0005524455
124	0x39b1d383	0.0003391766
125	0xb9477213	-0.00019020615
126	0xb981f211	-0.0002478515
127	0x39f22485	0.00046185046

gat1.lin.weight f4 [128, 5]
0	0xbe13e0e0	-0.14441252
1	0xbd8abe7c	-0.06774613
2	0xbd52e093	-0.051483702
3	0xbe49e4db	-0.19716208
4	0xbd779e3c	-0.06045364
5	0x3e3e3172	0.1857355
6	0x3d05d6f6	0.032675706
7	0x3e1ddd66	0.15416488
8	0xbe2d9d85	-0.1695462
9	0xbd524074	-0.051331
10	0x3db60a9c	0.08888742
11	0xbd646d48	-0.05576828
12	0xbe027680	-0.12740517
13	0xbe367b6d	-0.1782052
14	0xbd8780f1	-0.066163905
15	0xbd4a5770	-0.049399793
16	0x3dff6c1e	0.124717936
17	0xbcd6c794	-0.026218213
18	0xbd84a2c8	-0.064763606
19	0x3e518b62	0.20463327
20	0x3e280051	0.1640637
21	0xbd824bc5	-0.06362108
22	0xbe35d7f5	-0.17758162
23	0xbd8d82ec	-0.06909737
24	0xbe1438bb	-0.14474766
25	0xbe356391	-0.17713763
26	0xbda9baa1	-0.0828755
27	0x3dfc328b	0.12314328
28	0xbd87b13b	-0.06625601
29	0x3c5ad4e3	0.01335642
30	0xbc81b72b	-0.015834412
31	0x3de76c6c	0.11299977
32	0x3db054ff	0.08609962
33	0xbe37075b	-0.178739
34	0xbe2c2877	-0.16812311
35	0x3e542ec3	0.20720963
36	0xbd8eb9ae	-0.06969009
37	0xbe33b948	-0.17551148
38	0xbdac5830	-0.08415258
39	0xbd345770	-0.0440287
40	0x3e0fb9ca	0.14035717
41	0x39eaa6bd	0.00044756188
42	0xbc7252ca	-0.014790246
43	0xbd7c3d02	-0.06158162
44	0x3e20b890	0.15695405
45	0xbe257e01	-0.16161348
46	0x3e4adcd0	0.19810796
47	0x3d5670ba	0.0523536
48	0x3d00e0f5	0.031464536
49	0x3d896654	0.06708971
50	0xbd8142e8	-0.063115895
51	0x3dc41d60	0.09575915
52	0x3ca48702	0.020083908
53	0x3dab3d62	0.08361317
54	0xbe1dd591	-0.154135
55	0xbe2f9c8a	-0.17149559
56	0xbd932304	-0.07184413
57	0xbc14d192	-0.009083169
58	0x3d224cd4	0.03962405
59	0x3cb41da7	0.021986796
60	0x3e193571	0.14961793
61	0x3d0a158b	0.03371195
62	0xbdaa4ebd	-0.083157994
63	0x3d1fd62c	0.03902261
64	0xbe4f0e88	-0.20220387
65	0xbba8d5ac	-0.005152425
66	0x3e481738	0.19540107
67	0xbe0855ae	-0.13313934
68	0xbd0c8423	-0.034305703
69	0x3dfb8383	0.12280943
70	0x3e0185c9	0.12648691
71	0x3e402dc7	0.18767463
72	0xbde3ad1a	-0.11117001
73	0xbe358581	-0.17726709
74	0xbdca40cc	-0.0987564
75	0x3c07af55	0.0082815485
76	0xbd0bab46	-0.034098886
77	0x3c2139e2	0.0098404605
78	0xbe3ba704	-0.1832543
79	0xbe4e5458	-0.20149362
80	0x3e48b4c5	0.19600208
81	0x3dca4679	0.09876723
82	0xbcfa8be0	-0.030584276
83	0x3e370e92	0.17876652
84	0x3e303353	0.17207079
85	0xbcd5398b	-0.026028415
86	0xbdce516b	-0.10074123
87	0x3d6b06c6	0.057379507
88	0xbd8440ca	-0.0645767
89	0x3cebcc7f	0.028784035
90	0xbdcb48c3	-0.099259876
91	0xbe3c840b	-0.18409745
92	0xbe3215bb	-0.17391102
93	0xbe2a5d63	-0.16637187
94	0xbccdb6ed	-0.02511164
95	0x3cb7845c	0.022401981
96	0x3e20cc5f	0.15702961
97	0xbd8b48b5	-0.06800977
98	0xbe0a3283	-0.13495831
99	0xbd0f1562	-0.0349325
100	0xbe3d1c85	-0.1846791
101	0x3e1b2386	0.1515027
102	0x3e200cc2	0.15629867
103	0xbe43cba8	-0.19120657
104	0xbe49b584	-0.19698149
105	0xbe54a2d0	-0.20765233
106	0x3e01e9b4	0.12686807
107	0xbe356e6f	-0.17717908
108	0xbda5e412	-0.081001416
109	0x3d8f629a	0.07001229
110	0xbe057b2c	-0.13035268
111	0xbde6430b	-0.11243256
112	0xbde8c678	-0.1136598
113	0xbd559a87	-0.052149322
114	0x3e2b3425	0.1671911
115	0x3d89cd6a	0.06728633
116	0xbcc07897	-0.023495002
117	0xbd88decc	-0.0668312
118	0x3dd06702	0.10175897
119	0x3d4585c0	0.048223257
120	0xbdce76f4	-0.10081282
121	0xbda63508	-0.08115584
122	0xbe13c48e	-0.14430448
123	0x3e41b917	0.18918262
124	0x3e0563b6	0.13026318
125	0x3de2a6fd	0.11067007
126	0x3db740fa	0.0894794
127	0xbd4ce947	-0.050027158
128	0x3e14ef79	0.14544477
129	0xbb720a48	-0.0036932398
130	0x3e192e01	0.14958955
131	0xbd66e8e7	-0.056374457
132	0x3e3b24c7	0.18275748
133	0xbe3c8295	-0.18409188
134	0x3e3b17da	0.18270817
135	0xbdcc819e	-0.0998566
136	0x3e16e9a5	0.14737566
137	0x3de8b1bd	0.11362026
138	0xbcce95b7	-0.025217874
139	0xbe2992b4	-0.16559869
140	0xbe13f519	-0.14448966
141	0xbe415cbb	-0.1888303
142	0x3e13d9ec	0.144386
143	0x3dfd635f	0.12372469
144	0xbd60b88f	-0.05486351
145	0xbe32bb18	-0.17454183
146	0x3d0087f8	0.03137967
147	0x3e2f6b3d	0.17130752
148	0xbd8d32ff	-0.06894492
149	0xbe2044c4	-0.15651232
150	0xbda5ec61	-0.08101726
151	0xbe2f863c	-0.1714105
152	0xbd43b034	-0.047775462
153	0x3db186f3	0.08668318
154	0xbe122947	-0.14273559
155	0x3d8c65fe	0.06855391
156	0xbe3ba080	-0.18322945
157	0xbd83a123	-0.06427219
158	0xbd9a4e78	-0.07534498
159	0xbd20d6bd	-0.03926729
160	0xbe3541bb	-0.17700855
161	0xbc6ff879	-0.014646643
162	0xbe21f6e1	-0.15816833
163	0x3e15a30b	0.14612977
164	0x3dba0ad0	0.090840936
165	0xbcd33d32	-0.025786016
166	0x3b5de36c	0.0033857478
167	0xbde29056	-0.11062686
168	0xbe2e1b88	-0.1700269
169	0x3da63c2a	0.08116944
170	0x3d857422	0.06516291
171	0x3d1ad3aa	0.037799515
172	0x3e245a64	0.16050106
173	0xbdf3df38	-0.1190781
174	0x3da11709	0.07865722
175	0xbdbc8eb4	-0.09206906
176	0xbe2c1a52	-0.16806915
177	0x3d98d71d	0.074629046
178	0xbdeeb851	-0.11656249
179	0xbbd64780	-0.006539285
180	0xbdb4abe9	-0.08821852
181	0xbd417e6c	-0.047239706
182	0x3cc6b2b8	0.024255142
183	0x3e3da2c5	0.18519123
184	0x3d5810bc	0.052750334
185	0x3abfb4c4	0.0014626016
186	0xbe0fad3f	-0.14030932
187	0xbe484e57	-0.19561134
188	0x3d2fc3c3	0.042911302
189	0xbe395082	-0.18097118
190	0xbe1b5689	-0.1516973
191	0x3db78926	0.08961706
192	0xbe4787c8	-0.1948539
193	0x3d262b40	0.04056859
194	0x3ce38f12	0.027778182
195	0xbe231317	-0.15925251
196	0x3e149a4f	0.14511989
197	0xbd24befc	-0.0402212
198	0x3d05ea46	0.032694124
199	0xbcef15bb	-0.029185167
200	0xbde32c4a	-0.11092432
201	0xbc85c360	-0.016328514
202	0xbd7ae9c7	-0.061258104
203	0x3e054fd2	0.1301873
204	0x3d9c40a5	0.076295175
205	0x3d82f71c	0.063947886
206	0xbca0697a	-0.019581545
207	0xbdbf876c	-0.093520015
208	0xbd915eaf	-0.070981376
209	0x3e25a27b	0.16175263
210	0xbdd2f717	-0.10301035
211	0x3c9d47c3	0.019199258
212	0x3e321123	0.1738935
213	0xbe17ea5b	-0.14835493
214	0x3de36e0b	0.111049734
215	0xbe530a55	-0.2060941
216	0x3e22dd72	0.15904787
217	0x3de13bf0	0.1099776
218	0xbe575e8b	-0.21032159
219	0xbe3c03c3	-0.1836081
220	0x3db1b90c	0.08677873
221	0x3e1f1efc	0.15539163
222	0xbd424426	-0.047428273
223	0x3d753e48	0.05987385
224	0x3d17a6f3	0.03702445
225	0x3e130562	0.14357522
226	0x3d04cca3	0.03242172
227	0xbe4a9220	-0.19782305
228	0xbdf3ce56	-0.1190459
229	0x3b2c6835	0.002630723
230	0xbcc6e26f	-0.024277894
231	0xbe356731	-0.17715146
232	0x3dee7a13	0.116443776
233	0xbd9c0138	-0.0761742
234	0x3daceb6d	0.084433414
235	0xbe20203d	-0.15637298
236	0xbd7ce827	-0.061744835
237	0xbc8e4fb1	-0.017371984
238	0x3c30b1b5	0.010784556
239	0x3dbe0ab3	0.092793845
240	0x3e126b9d	0.14298864
241	0xbd61d191	-0.0551315
242	0xbe0adbda	-0.13560429
243	0x3e1ded80	0.1542263
244	0xbcb1bdcf	-0.021696953
245	0xbd9de13d	-0.077089764
246	0xbe3e464a	-0.185815
247	0x3e23dd27	0.16002332
248	0x3ca0a887	0.01961161
249	0xbcc56a68	-0.02409859
250	0x3e04a60e	0.1295397
251	0x3d4e00a9	0.0502936
252	0x3e28c757	0.16482292
253	0xbda99834	-0.082809836
254	0x3e0b4d3e	0.13603684
255	0x3d656333	0.056002807

sage1.lin_l.weight f4 [128, 128]
0	0x3dafcc7a	0.08583923
1	0xbd766385	-0.060153503
2	0xbd8bd4ef	-0.06827723
3	0x3da20daa	0.079127625
4	0x3cbd960e	0.02314284
5	0xbd796a36	-0.060892306
6	0x3d9de7aa	0.07710202
7	0x3dafcb28	0.08583671
8	0x3d290204	0.041261688
9	0xbd7310ed	-0.059342314
10	0xbd8f4aee	-0.069967136
11	0xbcd86b34	-0.026418306
12	0xbc25e04f	-0.01012428
13	0xbce672eb	-0.028130969
14	0xbce440ee	-0.027862992
15	0x3d249ede	0.04019057
16	0x3cc86ad5	0.024465004
17	0x3d7ef61f	0.062246438
18	0x3d83e46f	0.064400546
19	0xbc488859	-0.012239539
20	0x3c4ce610	0.012506023
21	0x3c891da9	0.016737776
22	0x3dabe94f	0.083941095
23	0xbd621148	-0.055192262
24	0x3c22fc56	0.009947857
25	0x3d5490a8	0.051895767
26	0x3ccae284	0.024766214
27	0xbce9dc98	-0.02854757
28	0xbd85f0b4	-0.06540051
29	0xbd6f9a79	-0.058496926
30	0x3d0cfc6a	0.03442041
31	0x3cc2fbf5	0.023801783
32	0x3d997e2d	0.07494769
33	0xbd8c1c1d	-0.068413
34	0x3d82cc95	0.06386677
35	0x3dae6ef3	0.08517256
36	0xbd2d0ca1	-0.042248372
37	0xbdb1038b	-0.08643254
38	0x3da3435e	0.07971834
39	0x3d2c95c1	0.042135004
40	0x3d4f847a	0.05066345
41	0x3d08ad7c	0.033368573
42	0x3d904ed9	0.07046289
43	0x3c53f13c	0.012935933
44	0x3d473a65	0.048639674
45	0xbd9c467d	-0.07630632
46	0xbcac0e07	-0.021002783
47	0xbc4f7ddf	-0.012664287
48	0x3cd27031	0.025688263
49	0x3da01e93	0.078183316
50	0xbcd09d93	-0.025465762
51	0x3da47b98	0.08031386
52	0xbd1df1ab	-0.03856055
53	0x3d90f73b	0.070784055
54	0xbda23f97	-0.07922285
55	0xbcfeac1d	-0.03108793
56	0x3d596c43	0.053081762
57	0x3d3e4712	0.046454497
58	0x3d2f4fb9	0.04280064
59	0x3da5393c	0.08067557
60	0x3d9368dd	0.071977355
61	0x3d57d59b	0.052693944
62	0xbdb20fcb	-0.086944185
63	0x3db3777c	0.08763024
64	0xbd8798ba	-0.06620927
65	0xbd9b90bf	-0.075959675
66	0x3c8a9362	0.01691598
67	0xbda924db	-0.08258983
68	0x3c0d54fb	0.008626218
69	0x3d30d1e6	0.043168925
70	0xbd84a75c	-0.06477234
71	0x3c85b6b1	0.016322466
72	0xbcc73749	-0.024318354
73	0xbbd0c241	-0.006370813
74	0xbd020cf1	-0.031750623
75	0x3d1255b9	0.035726283
76	0xbd910385	-0.070807494
77	0xbcd96fa6	-0.026542496
78	0xbd6297cf	-0.055320557
79	0x3d022a01	0.03177834
80	0x3d400ab3	0.046885204
81	0x3d16e7b4	0.036842063
82	0xbd9acbd4	-0.075584084
83	0xbda3ccd1	-0.0799805
84	0xbc0f411e	-0.0087435525
85	0xbd0c0aed	-0.034190107
86	0x3ca55cb1	0.0201858
87	0x3d794665	0.06085815
88	0xbd8db16c	-0.06918606
89	0xbca85a0d	-0.020550752
90	0x3ce2108d	0.027595783
91	0xbd0d6b09	-0.034525905
92	0x3d9d6017	0.07684343
93	0xbbcdef5d	-0.006284638
94	0x3ac3bccd	0.0014933586
95	0xbd486e87	-0.048933532
96	0xbcd7d8fa	-0.02634858
97	0x3ceb12ea	0.028695542
98	0x3d9b5d56	0.07586162
99	0x3bddc5b2	0.006767952
100	0xbd87e712	-0.0663587
101	0x3d2f2a78	0.04276511
102	0x3c92defb	0.017928591
103	0xbd0c8f89	-0.034316573
104	0xbc23a71a	-0.009988571
105	0x3d46f878	0.048576802
106	0xbd827c46	-0.063713595
107	0xbd942982	-0.072344795
108	0xbd3936c2	-0.045218237
109	0x3d012dcc	0.031537816
110	0x3d862ea0	0.06551862
111	0x3d2c2f92	0.042037554
112	0xbd7d298f	-0.06180721
113	0x3d1dbed0	0.03851205
114	0xbd5bc323	-0.053652894
115	0x3d103a30	0.035211742
116	0x3db25da7	0.08709269
117	0xbd314a2b	-0.043283623
118	0x3d543800	0.05181122
119	0xbd8df9d6	-0.06932418
120	0xbdb419cf	-0.08793985
121	0xbd170548	-0.03687027
122	0x3bfe56af	0.0077617983
123	0x3c7bbf7d	0.015365479
124	0x3cddea1b	0.02708917
125	0xbc60008e	-0.013672007
126	0x3d68fe64	0.05688323
127	0xbd62e3ed	-0.05539315
128	0x39de8e94	0.0004244937
129	0x3c1681bf	0.009186207
130	0xbd85ee67	-0.06539612
131	0x3d00abb8	0.031413764
132	0xbd236999	-0.039895628
133	0x3c0fa3f2	0.008767115
134	0x3d52c613	0.05145843
135	0xbca7c240	-0.020478368
136	0x3d83b804	0.064315826
137	0x3cbb8b2e	0.022893514
138	0xbc7856c6	-0.015157407
139	0xbc852ad7	-0.01625578
140	0x3d9fd0fe	0.07803534
141	0x3becf5c3	0.0072314455
142	0x3d250e0b	0.040296596
143	0xbd8010d1	-0.062532075
144	0xbce25609	-0.027628915
145	0xbcbbfcc6	-0.02294768
146	0x3d0d5610	0.034505904
147	0xbd1b9553	-0.037984204
148	0xbd2b2dc7	-0.041791704
149	0xbd2f4baf	-0.042796787
150	0x3d97b5be	0.074077114
151	0x3d17e414	0.037082747
152	0x3ce08c79	0.027410733
153	0x3c2b7743	0.010465446
154	0x3d8516c0	0.0649848
155	0xbd71f487	-0.05907109
156	0x3d09736d	0.033557344
157	0xbd843ee8	-0.06457311
158	0xbda516ba	-0.080609754
159	0xbdb55e8c	-0.08855924
160	0xbc6ca5e8	-0.014443852
161	0xbd362a3a	-0.044473864
162	0xbbd9694a	-0.006634866
163	0x3d58b190	0.05290371
164	0xbcb94d05	-0.022619734
165	0x3d9b68f3	0.07588377
166	0xbd8dd29a	-0.06924935
167	0x3b9854c5	0.004648777
168	0xbd3b330f	-0.04570299
169	0xbd6f37a6	-0.05840268
170	0x3d1a08a3	0.037605893
171	0xbd64673e	-0.055762522
172	0xbd87225a	-0.06598349
173	0x3d9c67f2	0.076370135
174	0x3d1f7c89	0.038937125
175	0x3d8397e9	0.06425459
176	0x3d9fc74e	0.07801686
177	0x3cf938c8	0.030422583
178	0x3c17ac08	0.009257324
179	0x3d253ed4	0.04034312
180	0xbd1545e8	-0.03644362
181	0xbd3d3af1	-0.04619879
182	0xbd0ea8d3	-0.034828972
183	0xbc153d9f	-0.00910893
184	0x3d8457bd	0.06462047
185	0xbd9e4f86	-0.07730012
186	0x3d14fdde	0.03637492
187	0xbcc6224f	-0.024186281
188	0x3d1bee8c	0.038069293
189	0xbdaed555	-0.085367836
190	0xbda54b8e	-0.080710515
191	0xbbf458b3	-0.007456863
192	0xbd4cb0f5	-0.049973447
193	0x3d6bf0a5	0.057602543
194	0xbcb35b54	-0.021894135
195	0x3da2068e	0.079114065
196	0xbbc18956	-0.0059062643
197	0x3d6e677f	0.05820417
198	0x3d98d08a	0.07461651
199	0xbca183ae	-0.01971611
200	0xbdbba0c0	-0.0916152
201	0x3da66f21	0.08126665
202	0xbd65ddf6	-0.05611988
203	0x3d6977e7	0.056999113
204	0x3d1b59f3	0.03792758
205	0x3d2340da	0.03985677
206	0xbc6c2af4	-0.014414538
207	0xbd5c42e8	-0.053774744
208	0xbd57f9fe	-0.052728646
209	0x3c105054	0.008808214
210	0x3da2e46c	0.07953724
211	0xbd9b93d6	-0.07596557
212	0xbd9ca850	-0.076492906
213	0xbd8ed455	-0.06974093
214	0xbd8224f8	-0.063547075
215	0x3dba9589	0.09110553
216	0x3d3a5a04	0.045496
217	0x3c629324	0.013829026
218	0xbcda71d5	-0.026665607
219	0xbcdd99f1	-0.027050944
220	0x3d25012a	0.040284313
221	0x3d596aff	0.053080555
222	0x3d575539	0.05257151
223	0xbd457888	-0.04821065
224	0x3d994065	0.074829854
225	0xbb195910	-0.0023399033
226	0x3d641c24	0.0556909
227	0x3c9373d4	0.017999567
228	0x3da1b0f0	0.07895076
229	0x3d43b5ad	0.04778068
230	0x3c746563	0.014916751
231	0xbcec0aef	-0.028813807
232	0xbd990cae	-0.074731216
233	0x3d287672	0.041128583
234	0x3c5f4026	0.013626134
235	0xbc965978	-0.018353209
236	0xbd896055	-0.06707827
237	0xbd16c7a9	-0.036811505
238	0xbd1dc4b8	-0.038517684
239	0xbd19e691	-0.0375734
240	0xbd44bd64	-0.04803218
241	0x3d30d9e2	0.04317654
242	0x3d73728c	0.059435412
243	0xbcb2d730	-0.021831125
244	0xbc3670ed	-0.011135322
245	0x3d0b714b	0.03404359
246	0x3cdb63ed	0.026781047
247	0xbd8b7a7d	-0.06810472
248	0x3d2fc71f	0.042914506
249	0x3d546edc	0.051863536
250	0xbd72f3a5	-0.05931439
251	0xbd811e39	-0.06304593
252	0xbd471fdd	-0.04861437
253	0x3c3aa74f	0.011392429
254	0x3d8dc35c	0.069220275
255	0xbc81b95f	-0.015835462

sage1.lin_l.bias f4 [128]
0	0xbd230baa	-0.039806046
1	0x3c16fb6e	0.009215219
2	0x3d14994e	0.036279015
3	0x3cdffe68	0.02734299
4	0x3d9a8346	0.0754457
5	0xbd0f5248	-0.03499058
6	0xbce74a2d	-0.028233612
7	0xbccf9bf3	-0.025342917
8	0xbd19d837	-0.037559714
9	0x3d64a906	0.055825256
10	0xbd0b5f49	-0.034026418
11	0x3d10f6d3	0.03539164
12	0x3da721c3	0.081607364
13	0xbd369e03	-0.044584285
14	0xbcda6b79	-0.026662575
15	0x3c47e929	0.012201586
16	0xbd6214e5	-0.055195708
17	0xbd97c284	-0.07410148
18	0xbc538d38	-0.012912087
19	0xbdb48f82	-0.088164344
20	0x3d8af6b9	0.0678534
21	0xbd751fd1	-0.059844796
22	0xbd9b43ca	-0.07581289
23	0xbd61848e	-0.055058055
24	0xbc608e70	-0.013705835
25	0xbc52fe86	-0.012878066
26	0xbcdf72e7	-0.02727647
27	0x3d043576	0.032277547
28	0x3d2bcf66	0.041945837
29	0xbc950d8c	-0.018194936
30	0x3d8d0d14	0.0688726
31	0x3c9e03e1	0.019288959
32	0x3bb2057e	0.0054327836
33	0x3c72be65	0.014815901
34	0x3c2a48f9	0.010393375
35	0xbce87db6	-0.028380256
36	0x3da4edc1	0.080531605
37	0xbd899a60	-0.06718898
38	0xbd1c6b77	-0.038188424
39	0x3beca2a6	0.0072215376
40	0x3d76b99e	0.060235612
41	0x3d5dbdc1	0.05413604
42	0x3bb2afbc	0.005453078
43	0x3d6234cb	0.05522613
44	0x3cc604dc	0.024172239
45	0x3c862997	0.016377253
46	0x3cf4a605	0.02986432
47	0xbcc1d255	-0.023659864
48	0x3dadcb57	0.084860496
49	0x3cdfcfef	0.02732083
50	0xbc2f7d66	-0.01071105
51	0x3d1566f2	0.03647513
52	0xbda0280e	-0.0782014
53	0xbcdf16ff	-0.027232645
54	0xbd926e86	-0.07149987
55	0x3d7134b8	0.058888167
56	0x3cc0426f	0.023469178
57	0xbd7fa048	-0.062408715
58	0x3d8d627c	0.0690355
59	0xbd8cd44b	-0.06876429
60	0xbcc20f64	-0.02368898
61	0x3d8dbb1d	0.06920455
62	0x3ca6ebb4	0.020376064
63	0x3d12e568	0.03586331
64	0x3d105d96	0.0352455
65	0x3c5b1d8b	0.013373743
66	0xbd9e42bf	-0.077275746
67	0xbdb5a7bf	-0.08869886
68	0x3d296ff2	0.041366525
69	0xbc7f95ac	-0.015599649
70	0x3c39768e	0.01131977
71	0xbcb1f54d	-0.021723414
72	0x3ca9b2fa	0.020715225
73	0xbd16b993	-0.03679807
74	0xbd210d4b	-0.039319318
75	0x3d4930e8	0.049118906
76	0xbda6dc1e	-0.08147453
77	0xbd9c2eab	-0.07626089
78	0x3cec7b3e	0.02886736
79	0x3c366e09	0.011134633
80	0x3d565a72	0.05233235
81	0x3db48dcf	0.0881611
82	0xbd80b865	-0.062851705
83	0xbb5bf965	-0.0033565399
84	0x3cdd25fb	0.02699565
85	0x3ce04106	0.027374756
86	0xbcb6afbf	-0.0223006
87	0x3d3f2481	0.046665672
88	0x3d0da21e	0.034578435
89	0x3d3ae76c	0.045630857
90	0x3d84c6b5	0.06483213
91	0xbdae33cb	-0.085059725
92	0xbda1cc43	-0.07900288
93	0xbc108cb6	-0.008822611
94	0xbcaed816	-0.021343272
95	0x3d0741cf	0.033021744
96	0x3c72b50a	0.014813671
97	0x3d566fb7	0.052352633
98	0x3d77bf26	0.060485028
99	0xbcdcc8db	-0.026951244
100	0xbc91e5ee	-0.017809834
101	0xbd2dab3d	-0.042399634
102	0xbd47eb2a	-0.048808254
103	0x3cdaf161	0.026726427
104	0xbcbf41e0	-0.023346841
105	0x3c932917	0.01796393
106	0x3d3921b7	0.04519817
107	0xbca82b9d	-0.020528609
108	0xbd808459	-0.06275243
109	0xbd54fd9c	-0.051999673
110	0xbd8140a5	-0.06311158
111	0x3b9113dc	0.0044274163
112	0xbd71f50d	-0.05907159
113	0xbda35a21	-0.07976175
114	0x3cec19dd	0.028820926
115	0xbd8a8d43	-0.06765225
116	0xbc3280df	-0.010894983
117	0xbd92d6cf	-0.07169878
118	0xbd1cc7f9	-0.038276646
119	0xbd399bb6	-0.045314513
120	0x3dab1fcb	0.083556734
121	0xbdbe6911	-0.092973836
122	0x3cb6b06b	0.02230092
123	0x3c716ae6	0.014734959
124	0x3b034d11	0.0020034949
125	0x3dabafd3	0.08383145
126	0xbd93296a	-0.071856335
127	0xbcac20c3	-0.021011716

sage1.lin_r.weight f4 [128, 128]
0	0xbd1f25ec	-0.038854524
1	0x3cb5b4fa	0.022181023
2	0xbd195122	-0.03743089
3	0xbd919a06	-0.07109456
4	0xbda9e4fb	-0.08295628
5	0xbd154ad3	-0.03644831
6	0xbcb3bd9f	-0.021941004
7	0xbda36086	-0.07977395
8	0xbc45d4b5	-0.012074639
9	0x3d9bd004	0.07608035
10	0xbda9597b	-0.0826902
11	0xbc3077c0	-0.010770738
12	0xbd786025	-0.060638566
13	0x3d40156e	0.046895437
14	0xbd6e8804	-0.058235183
15	0xbd6c5018	-0.05769357
16	0x3d0ea5a7	0.034825947
17	0x3d9410ba	0.07229753
18	0xbd0e77f7	-0.034782376
19	0xbd8084c1	-0.06275321
20	0xbaee9916	-0.0018203582
21	0x3ca7f774	0.020503737
22	0x3c344325	0.011002337
23	0x3d8a003a	0.067383245
24	0xbd991c34	-0.074760824
25	0x3ce7203e	0.028213616
26	0x3cd18639	0.025576698
27	0x3d65bdb9	0.056089137
28	0x3c8aca71	0.016942235
29	0xbda608eb	-0.0810717
30	0xbca77ac1	-0.020444276
31	0x3d755a0c	0.05990033
32	0x3d9b861f	0.07593941
33	0x3d5a4a93	0.053293776
34	0xbd9ad12e	-0.07559429
35	0xbd5bb65e	-0.053640716
36	0x3d461e2a	0.04836861
37	0x3cbe98d9	0.023266243
38	0xbcdecc86	-0.027197134
39	0xbd235819	-0.03987894
40	0x3d7670bf	0.060166117
41	0x3d9882a2	0.07446791
42	0xbce9373a	-0.028468717
43	0xbd876998	-0.06611937
44	0xbcd3bbe2	-0.025846425
45	0xbd0d1af2	-0.034449525
46	0x3d8997be	0.06718396
47	0xbd9cac66	-0.0765007
48	0xbc41f25a	-0.011837566
49	0xbc5a7ed8	-0.013335906
50	0xbd75fdcc	-0.060056493
51	0x3d25990d	0.040429164
52	0xbcfc7159	-0.030815767
53	0xbc90bc4a	-0.017667908
54	0xbd78d254	-0.06074746
55	0xbca68262	-0.020325843
56	0x3da65c89	0.081231184
57	0x3cfb99f1	0.030713053
58	0xbc4a7306	-0.012356525
59	0xbd92ba8c	-0.07164487
60	0x3d8c52c9	0.068517275
61	0xbd4b724c	-0.04966955
62	0x3c0d77c6	0.008634513
63	0x3da6ce47	0.08144813
64	0xbdb3ff2d	-0.08788905
65	0xbd2e134c	-0.04249887
66	0xbcc7029f	-0.024293242
67	0xbda2fb5e	-0.07958101
68	0x3cb7970f	0.022410898
69	0x3d923a39	0.07140011
70	0xbcce0ff5	-0.025154093
71	0x3d766ff8	0.060165375
72	0xbcfa4aee	-0.030553307
73	0xbd881af0	-0.06645763
74	0x3cb06d5a	0.021536518
75	0x3c6f1ffd	0.014595029
76	0x3c43fb3e	0.011961756
77	0x3d902fe5	0.07040385
78	0x3d695b27	0.056971695
79	0x3d8e0a9c	0.06935617
80	0xbd91a073	-0.071106814
81	0xbda5b30a	-0.080907896
82	0xbd31d098	-0.04341182
83	0x3b38090a	0.002808156
84	0xbd65ad4c	-0.056073472
85	0xbcffc0bc	-0.031219833
86	0xbc8f93d1	-0.017526539
87	0xbb9c850e	-0.0047766035
88	0x3d046393	0.032321524
89	0x3c38e713	0.011285561
90	0xbccb1fa2	-0.024795357
91	0x3c9c7f60	0.019103706
92	0xbdaf0db0	-0.085475326
93	0x3ca362fe	0.019944664
94	0x3c3254cc	0.010884475
95	0x3d666167	0.056245234
96	0x3c9cad24	0.019125529
97	0x3cfb04f7	0.030642016
98	0xbd92fefa	-0.07177539
99	0x3da5e5a0	0.08100438
100	0xbd782493	-0.060581755
101	0xbd336638	-0.043798655
102	0x3cf73b12	0.030179534
103	0x3c62a93e	0.013834296
104	0x3ca7a44f	0.02046409
105	0xbd014936	-0.03156396
106	0xbd57e22d	-0.052705932
107	0xbd980b52	-0.07424034
108	0x3cc71cc1	0.024305703
109	0x3cd4c4b3	0.0259727
110	0xbca98919	-0.020695256
111	0xbdb11015	-0.086456455
112	0x3c43bd36	0.011946967
113	0x3d230a82	0.039804943
114	0xbb4f9ac8	-0.003167795
115	0x3d9573d3	0.07297482
116	0x3c39404c	0.0113068335
117	0x3d0adf99	0.033904646
118	0xbda57cdd	-0.080804564
119	0xbdb5ad30	-0.088709235
120	0x3d859c54	0.06523958
121	0xbd7bc9e8	-0.06147185
122	0xbccb5942	-0.024822835
123	0x3d8728f6	0.065996096
124	0x3cc0589e	0.023479756
125	0xbd050b9f	-0.032481786
126	0x3c4833c4	0.012219373
127	0x3bdc7ffc	0.006729124
128	0xbd87811c	-0.066164225
129	0xbba21e16	-0.004947434
130	0xbd424e59	-0.047438
131	0xbc54d816	-0.012990972
132	0x3d9da3b6	0.07697241
133	0xbd8777b9	-0.06614632
134	0xbd879a75	-0.06621257
135	0x3cfa4520	0.03055054
136	0x3cb5eecc	0.022208594
137	0xbd8ba7db	-0.06819125
138	0x3d9dcc12	0.07704939
139	0x3cd43237	0.02590285
140	0x3d92e0bd	0.07171772
141	0xbbc7f042	-0.006101639
142	0x3c425dd0	0.011863187
143	0x3d98f5bb	0.07468744
144	0xbc6d4428	-0.014481582
145	0xbca0e27e	-0.01963925
146	0x3d931481	0.07181645
147	0x3c8054a2	0.015665356
148	0x3d2d7bbe	0.042354338
149	0x3c5fc9a5	0.013658916
150	0xbd183389	-0.037158523
151	0xbd2da7e9	-0.04239646
152	0xbdab55be	-0.083659634
153	0x3c07a516	0.008279106
154	0xbd01417c	-0.03155659
155	0x3d43f534	0.047841266
156	0x3d220ac1	0.039561037
157	0x3d914b1b	0.07094403
158	0xbd438fbd	-0.0477445
159	0xbba80640	-0.005127698
160	0x3d7e605f	0.062103625
161	0xbd354f1f	-0.04426491
162	0x3cd5f9ff	0.026120184
163	0xbc93c4ef	-0.018038241
164	0xbc49249a	-0.012276793
165	0x3cfc4002	0.03079224
166	0xbd512fd2	-0.051070996
167	0x3cfdfaf9	0.031003462
168	0x3d3ea9f8	0.046548814
169	0xbd2670b2	-0.04063482
170	0x3cea6c2f	0.02861604
171	0x3ce66726	0.028125357
172	0x3d9ea8b2	0.0774702
173	0x3c3c3fab	0.011489789
174	0x3d896a38	0.06709713
175	0xbd52f6b0	-0.05150479
176	0x3d8dfd07	0.06933027
177	0x3d434be0	0.047679782
178	0x3bebfae5	0.00720154
179	0x3d793dd2	0.060849972
180	0x3ced1c4b	0.028944155
181	0x3ccd596e	0.025067057
182	0xbd0c04ca	-0.034184255
183	0xbcd445b5	-0.025912145
184	0x3d3bc079	0.045837853
185	0xbd6c9d1d	-0.057767022
186	0x3d3f3c4f	0.046688374
187	0xbd016e63	-0.031599414
188	0xbceb82e2	-0.028748933
189	0x3d368a02	0.04456521
190	0x3d3267bb	0.043555956
191	0xbc986efd	-0.01860761
192	0x3cfb0f22	0.030646864
193	0x3d75e531	0.060033027
194	0xbd04b812	-0.032402106
195	0xbb598422	-0.003319033
196	0x3d47b3ef	0.048755582
197	0xbd4b74d4	-0.049671963
198	0xbd5aac42	-0.053386934
199	0xbd127674	-0.035757497
200	0x3d98a6c3	0.07453682
201	0x3d34d79d	0.044150937
202	0x3cfb6768	0.030688956
203	0x3ba6b501	0.0050874953
204	0x3cbbc753	0.022922194
205	0xbd696290	-0.056978762
206	0xbd3cb282	-0.046068676
207	0xbb8dfb55	-0.0043329396
208	0xbdac8b07	-0.08424955
209	0xbda7c492	-0.0819179
210	0xbd6bd413	-0.057575297
211	0xbc6a56c3	-0.014302912
212	0x3c86201a	0.01637273
213	0xbc8ac40f	-0.016939191
214	0xbdb5356c	-0.0884808
215	0xbda54153	-0.080691
216	0xbd9402ec	-0.0722712
217	0xbd15791f	-0.036492463
218	0xbd5ff612	-0.05467803
219	0xbc3a5792	-0.011373417
220	0xbd0b8ee7	-0.03407183
221	0xbc1f5064	-0.009723756
222	0x3da67cdb	0.08129283
223	0x3c76bb84	0.015059356
224	0xbce56510	-0.028002292
225	0x3c9477bd	0.018123502
226	0x3c21213e	0.009834586
227	0xbc5cd69d	-0.013478902
228	0xbadb1d72	-0.0016717149
229	0xbd11814f	-0.03552371
230	0xbd40e626	-0.047094487
231	0xbcda44de	-0.026644167
232	0x3c47c255	0.012192328
233	0xbd242cb4	-0.040081695
234	0xbcfe0310	-0.03100732
235	0xbccf7e18	-0.02532868
236	0x3d5772ab	0.05259959
237	0xbd686ae8	-0.05674258
238	0x3d2404c0	0.040043592
239	0x3d3b7698	0.045767397
240	0xbad9d390	-0.0016618837
241	0x3a22c29d	0.0006208809
242	0x3b8f261c	0.0043685567
243	0x3a4e48d0	0.0007869126
244	0x3d863117	0.06552332
245	0xbd289faf	-0.04116791
246	0xbc6e075a	-0.01452812
247	0x3d6af2d5	0.05736049
248	0xbcb30e31	-0.021857353
249	0xbd9a09eb	-0.07521423
250	0xbd032a6d	-0.032022882
251	0x3da773f5	0.08176414
252	0x3d8e7f22	0.069578424
253	0x3c2be609	0.010491856
254	0x3d604c6f	0.054760393
255	0xbd895765	-0.06706122

sagpool.gnn.lin_rel.weight f4 [1, 128]
0	0x3d85db37	0.065359525
1	0xbcfe6185	-0.03105236
2	0x3c869e1e	0.016432818
3	0x3c771571	0.015080796
4	0x3d078b34	0.03309174
5	0xbd272d5b	-0.04081474
6	0x3d03e32b	0.032199066
7	0xbcfff3bd	-0.031244153
8	0x3d83019a	0.0639679
9	0x3c9fe19c	0.019516759
10	0x3ca7d7bd	0.020488614
11	0x3c9a0b07	0.018804086
12	0xbcf34b4b	-0.029698988
13	0xbca01997	-0.019543452
14	0x3cd63e6b	0.02615281
15	0xbd5e937c	-0.05433987
16	0x3b7dac68	0.0038707498
17	0xbd6f45a1	-0.058416013
18	0xb9d36bce	-0.00040325377
19	0xbd9902e2	-0.07471253
20	0xbc3a056e	-0.011353834
21	0x3d9173bd	0.071021535
22	0xbd86bc65	-0.06578902
23	0xbd9ca406	-0.076484725
24	0x3d066331	0.03280944
25	0xbd172760	-0.036902785
26	0x3d9bef4d	0.076140024
27	0xbd8c02ff	-0.06836509
28	0x3db167c2	0.08662368
29	0xbd6d124d	-0.05787878
30	0x3d5c5589	0.05379251
31	0xbd49c49a	-0.04925976
32	0x3cb83cb1	0.022489877
33	0x3d876945	0.066118754
34	0xbc93365f	-0.017970262
35	0x3c173385	0.009228592
36	0x3ce4eba9	0.027944403
37	0x3c5238cf	0.012830927
38	0xbd8c42e5	-0.068486966
39	0x3d84f3f8	0.06491846
40	0x3ce953e2	0.028482381
41	0xbcbe1475	-0.023203114
42	0xbd44fc08	-0.04809192
43	0x3bfa7c35	0.007644201
44	0xbbf05a72	-0.0073350007
45	0x3d971008	0.073761046
46	0x3d6c9b66	0.057765387
47	0xbd2d61c3	-0.04232956
48	0x3d0bad90	0.03410107
49	0xbcf9b842	-0.030483369
50	0x3d48e0ac	0.04904239
51	0x3da43d9c	0.080195636
52	0x3d8c2856	0.06843631
53	0x3c2e2e49	0.010631152
54	0xbdad939f	-0.08475422
55	0xbd0a87bc	-0.033820853
56	0x3cba8999	0.02277069
57	0x3d0e9604	0.034811035
58	0xbd93fd91	-0.07226098
59	0x3d9ddb77	0.07707875
60	0x3b12817c	0.002235501
61	0xbc61d93d	-0.013784704
62	0xbd3b532c	-0.045733616
63	0xbc6e87a9	-0.014558711
64	0xbd726b8d	-0.0591846
65	0x3ca05fd3	0.019576943
66	0xbd4385ad	-0.047734905
67	0x3d5f5f55	0.054534275
68	0xbb46247f	-0.0030234156
69	0xbd6994e2	-0.05702675
70	0x3d76f29b	0.06028996
71	0x3d0d04f5	0.034428556
72	0x3cf2e4e2	0.029650155
73	0xbd8fc346	-0.07019667
74	0x3d9c8be0	0.076438665
75	0x3c60a6a8	0.013711609
76	0x3d443f63	0.047912013
77	0x3b3293eb	0.002724881
78	0xbd87e6ab	-0.06635793
79	0xbd6a9a7f	-0.057276245
80	0x3d3ceffe	0.046127312
81	0xbd2464b8	-0.040135115
82	0x3d333397	0.04375037
83	0x3bd0c45d	0.0063710646
84	0xbcb30cfa	-0.021856774
85	0x3d90ca94	0.07069889
86	0xbd8eaa3c	-0.069660634
87	0xbcc9d741	-0.024638774
88	0xbc7dc153	-0.015487987
89	0xbc2aa00c	-0.010414135
90	0xbc8ee2f7	-0.01744221
91	0x3c9d6193	0.019211566
92	0x3d9d09f9	0.07667918
93	0xbd1558d4	-0.036461666
94	0xbcbafc82	-0.022825483
95	0xba3d367f	-0.00072178984
96	0x3d928797	0.07154768
97	0x3d62093e	0.055184595
98	0x3ced78ef	0.02898833
99	0x3c4f4e59	0.012652957
100	0x3d0a3970	0.033746183
101	0xbd2d9b02	-0.042384155
102	0x3ce59468	0.028024867
103	0x3cced2f9	0.025247084
104	0xbd6832b8	-0.056688994
105	0xbd9e1f9c	-0.07720873
106	0xbd368be0	-0.04456699
107	0xbd7f6c3c	-0.06235908
108	0xbd1a2682	-0.03763438
109	0xbdb404ad	-0.08789954
110	0x3d09430c	0.033511207
111	0x3d34e8fb	0.0441675
112	0xbc5f5f86	-0.013633614
113	0xbc5385f1	-0.012910352
114	0xbd9c525d	-0.07632897
115	0xbd350340	-0.044192553
116	0xbd278cb9	-0.040905688
117	0xbda743a2	-0.08167197
118	0xbdb19dcd	-0.08672676
119	0xbc5d61a9	-0.0135120535
120	0xbd1bf5df	-0.038076278
121	0x3c88c645	0.016696105
122	0xb9d0ba0c	-0.00039811467
123	0x3d61e2a6	0.05514779
124	0xbcf1483e	-0.029453393
125	0x3da79664	0.081829816
126	0xbd931ba6	-0.07183008
127	0xbc8960e7	-0.01676984

sagpool.gnn.lin_root.weight f4 [1, 128]
0	0xbd5554c9	-0.05208281
1	0xbd35047b	-0.044193726
2	0x3d6c285d	0.05765568
3	0xbda2b28c	-0.07944211
4	0x3cac25d0	0.021014124
5	0x3d95e45b	0.07318946
6	0xbd9ffb07	-0.078115515
7	0x3d272552	0.040807076
8	0x3d4ac49b	0.049503904
9	0x3c1a1b16	0.009405872
10	0x3d23988f	0.039940413
11	0xbd7f46d2	-0.0623234
12	0x3d6825ec	0.05667679
13	0xbc706223	-0.014671835
14	0x3d978679	0.073986955
15	0x3d161102	0.036637314
16	0x3d26c644	0.040716425
17	0x3d96d058	0.07363957
18	0xbda0581e	-0.07829307
19	0x3d715395	0.0589176
20	0xb9beb207	-0.00036372265
21	0xbd978b5a	-0.07399626
22	0xbc6413e5	-0.013920759
23	0xbd5339a2	-0.051568635
24	0x3d3f593b	0.046715956
25	0xbd6440a5	-0.055725712
26	0x3b4b8b1a	0.0031058253
27	0x3cfbf663	0.030757135
28	0xbbd3dc95	-0.0064655044
29	0xbd3f0ec6	-0.04664495
30	0xbda657cc	-0.08122215
31	0xbcd1c6e3	-0.025607532
32	0xbc124830	-0.008928344
33	0x3d8569bc	0.06514308
34	0x3d3634ac	0.044483826
35	0xbd9ebddf	-0.07751059
36	0x3d0e3764	0.034720793
37	0x3d18c0ad	0.037293125
38	0xbca72593	-0.020403659
39	0x3d88ad71	0.06673706
40	0xbdb11db7	-0.08648246
41	0x3d293caf	0.041317638
42	0x3ccb4ef9	0.02481793
43	0x3d9177c1	0.07102919
44	0x3d07fa96	0.03319796
45	0x3c64fafb	0.013975854
46	0x3ccfd862	0.025371734
47	0x3d7c88df	0.061653968
48	0xbd5ec96c	-0.05439131
49	0x3ce224ac	0.027605377
50	0x3d7ab6b0	0.06120938
51	0xbd00b4c0	-0.031422377
52	0x3aba8797	0.0014231083
53	0xbd67528b	-0.056475203
54	0xbcca7c0d	-0.024717355
55	0x3d8bd12d	0.068270065
56	0xbcadf81f	-0.021236477
57	0x3cb11dda	0.02162068
58	0x3c189208	0.00931216
59	0xbda3de69	-0.08001406
60	0x3d207656	0.039175354
61	0x3d2f2f9f	0.042770024
62	0x3d462d6e	0.04838317
63	0x3cfc9745	0.03083385
64	0xbd1a3feb	-0.037658613
65	0x3dadbcc2	0.08483268
66	0xbd46efd3	-0.048568558
67	0xbdb0c16b	-0.086306415
68	0xbd0f83d0	-0.035037816
69	0x3ca9f6e4	0.02074761
70	0x3d928bb4	0.071555525
71	0x3cf72460	0.030168712
72	0xbd59f6d1	-0.053213898
73	0xbbd31e17	-0.006442796
74	0xbd89e135	-0.06732408
75	0x3cdb3708	0.02675964
76	0x3c774e29	0.015094318
77	0xbcfd0844	-0.03088773
78	0x3db1bb5b	0.08678313
79	0xbccfc9de	-0.025364812
80	0xbd9152c4	-0.070958644
81	0xbd44622d	-0.04794519
82	0xbc922362	-0.017839137
83	0xbd410112	-0.04712016
84	0x3d3d493c	0.04621242
85	0xbd81d78b	-0.0633994
86	0xbd477168	-0.048692137
87	0x3d70b048	0.058761865
88	0xbd69c41f	-0.0570718
89	0xbdb0c449	-0.086311884
90	0x3d822b96	0.063559696
91	0xbd436a0e	-0.047708564
92	0xbdb013d3	-0.08597531
93	0x3d7e37e6	0.062065028
94	0x3d4a9fa6	0.04946866
95	0xbd4d1b40	-0.050074816
96	0x3d87d01d	0.06631491
97	0x3d74ff96	0.05981406
98	0xbd6f6748	-0.058448106
99	0xbc09ff06	-0.008422619
100	0xbdaaa71b	-0.08332654
101	0xbcc7a9db	-0.024372986
102	0x3d1458a3	0.036217343
103	0xbd5fcd78	-0.05463931
104	0x3d599675	0.053122003
105	0xbc627d5a	-0.013823831
106	0xbd31e546	-0.043431543
107	0x3d8a4e4d	0.06753216
108	0xbd15d08d	-0.036575843
109	0xbdb1fbc0	-0.086905956
110	0xbcec2e94	-0.028830804
111	0xbd5847b5	-0.05280276
112	0xbdb3fb75	-0.08788196
113	0xbdb4d347	-0.088293605
114	0xbcbaf3ea	-0.022821385
115	0x3ceaeceb	0.028677424
116	0x3c639854	0.013891298
117	0x3da7e5d9	0.08198137
118	0x3c682971	0.014170037
119	0x3d642aa4	0.055704728
120	0xbc2b2c04	-0.010447506
121	0xbd0a1790	-0.033713877
122	0xbc5832c0	-0.0131956935
123	0xbda3ddc3	-0.08001282
124	0xbd387f68	-0.04504338
125	0x3c583d87	0.013198263
126	0x3d347d29	0.044064675
127	0xbd590b0b	-0.052989047

lin.weight f4 [64, 128]
0	0xbd6eb7ce	-0.05828076
1	0x3bbcd408	0.005762581
2	0xbb9d17be	-0.00479409
3	0xbd852a3d	-0.06502197
4	0x3d2fd591	0.042928282
5	0xbd2f3d56	-0.042783104
6	0x3cf54e05	0.02994443
7	0xbd2c2744	-0.042029634
8	0xbd71f28a	-0.059069194
9	0x3d7ddc59	0.061977718
10	0xbd1c278c	-0.038123652
11	0x3d03963b	0.032125693
12	0x3c925214	0.017861404
13	0xbc37e7d4	-0.011224706
14	0xbd914d57	-0.070948295
15	0x3da90fd3	0.08254971
16	0x3d6a03d9	0.057132576
17	0xbc5241c1	-0.01283306
18	0xbd010395	-0.031497557
19	0xbd44f8e5	-0.048088927
20	0xbcd18649	-0.025576727
21	0x3d0a92ac	0.033831283
22	0xbdbcd83e	-0.092209324
23	0x3d88f4de	0.0668733
24	0xbd9fc566	-0.07801323
25	0x3d282349	0.041049276
26	0x3d2b30c3	0.04179455
27	0x3d6b3637	0.05742475
28	0x3cab9eb3	0.020949697
29	0xbc6e262e	-0.01453547
30	0x3d732790	0.0593639
31	0x3d6609fc	0.056161866
32	0x39705852	0.00022921085
33	0xbd942736	-0.072340414
34	0x3d900fb6	0.070342466
35	0x3d169876	0.03676649
36	0x3d576bf3	0.052593183
37	0xbc42d0d1	-0.011890606
38	0x3d3225e9	0.043493185
39	0x3d0cf638	0.0344145
40	0x3c58e81a	0.013238931
41	0x38c5517c	9.40887e-05
42	0x3cee2953	0.02907244
43	0x3d4e8e58	0.05042872
44	0xbc0def90	-0.008663073
45	0xbc6ca667	-0.01444397
46	0x3c6581b7	0.014007977
47	0x3da28dc7	0.07937198
48	0xbc739dd1	-0.014869169
49	0xbd6a8877	-0.05725905
50	0x3d675a3a	0.05648253
51	0x3da65a2d	0.081226684
52	0x3daea77e	0.0852804
53	0xbd8ef037	-0.06979411
54	0x3b34e727	0.0027603598
55	0x3d84e1b9	0.06488366
56	0xbd412e2d	-0.047163177
57	0xbd01f752	-0.031730004
58	0xbd8cf914	-0.068834454
59	0xbd4e74bb	-0.05040429
60	0xbd9c8ee4	-0.07644442
61	0x3d6341ae	0.05548256
62	0xbd79c163	-0.060975444
63	0xbd7be0f7	-0.06149384
64	0x3c4c0941	0.012453378
65	0x3cd9ff97	0.026611133
66	0x3d4b652b	0.04965703
67	0xbbbaca1c	-0.005700363
68	0xbd847e83	-0.06469443
69	0xbd9d7b31	-0.076895125
70	0x3da1cdea	0.07900603
71	0xbd273d9a	-0.040830232
72	0xbc02dbd0	-0.007986978
73	0xbce46c30	-0.02788362
74	0x3d1af6e0	0.037833095
75	0x3d035280	0.0320611
76	0xbd1455a6	-0.036214493
77	0xbd40d3fd	-0.047077168
78	0xbc34af39	-0.011028104
79	0x3d37f8ec	0.044915125
80	0xbcbd7239	-0.023125755
81	0x3d829ed8	0.06377953
82	0x3b480941	0.0030523094
83	0xbd246e54	-0.04014428
84	0x3c9377c9	0.018001454
85	0x3cf0f297	0.02941255
86	0xbd560869	-0.052254114
87	0xbbd28839	-0.0064249304
88	0x3d38a346	0.045077585
89	0xbcd754e4	-0.026285596
90	0x3c995bb1	0.01872048
91	0x3c257af4	0.010100115
92	0xbd628f44	-0.05531241
93	0x3d466ef0	0.048445642
94	0x3c3c6571	0.011498795
95	0xbd59837d	-0.053103913
96	0xbda7597e	-0.08171366
97	0xbd355b31	-0.04427642
98	0xbd9c6ab5	-0.0763754
99	0x3beb7c08	0.0071864165
100	0x3cda9a5d	0.026684934
101	0xbdb5bcae	-0.088738784
102	0x3c5df03f	0.013546049
103	0xbda8b408	-0.08237463
104	0x3d682864	0.056679145
105	0xbc84237e	-0.016130205
106	0xbdab7d46	-0.083735034
107	0x3d72091f	0.05909073
108	0x3da48028	0.08032256
109	0xbcb52258	-0.022111103
110	0x3d915036	0.07095377
111	0xbd8e756f	-0.069559924
112	0xbd0cab94	-0.034343317
113	0xbcd02d5a	-0.02541225
114	0x3bcb8cf1	0.00621187
115	0x3d173d1e	0.03692352
116	0x3aff4f9a	0.0019478679
117	0xbd8012cc	-0.06253585
118	0x3c978e97	0.01850061
119	0xbdac72d5	-0.0842034
120	0xbd0621d2	-0.032747097
121	0xbd513423	-0.051075112
122	0xbd162d0c	-0.036664054
123	0x3d82077c	0.06349084
124	0xbda473ca	-0.080298975
125	0xbd8f1cce	-0.06987916
126	0x3cc9f7ce	0.024654295
127	0xbcb81724	-0.022471972
128	0xbc49b09a	-0.0123101715
129	0xbd890858	-0.066910446
130	0xbd368032	-0.04455585
131	0x3c78be03	0.015182021
132	0xbc83c0a3	-0.016083067
133	0x3a55f312	0.00081615255
134	0x3c3ec916	0.011644622
135	0x3cdbc0d3	0.026825344
136	0xbb68566c	-0.0035451902
137	0x3da7c0c0	0.08191061
138	0x3cf47515	0.029840985
139	0xbd0782d5	-0.033083756
140	0x3d445845	0.047935743
141	0x3d9aac8f	0.07552444
142	0x3d92df12	0.071714535
143	0x3d8ed366	0.06973915
144	0x3d0f76c7	0.035025384
145	0x3dac697a	0.084185556
146	0x3c225787	0.009908563
147	0xbbbddf86	-0.0057944683
148	0x3ce1be08	0.027556434
149	0xbd82ddca	-0.06389959
150	0x3c214ef6	0.009845486
151	0x3d199a91	0.03750092
152	0x3cf49918	0.029858157
153	0x3d01b4fb	0.031666737
154	0x3d869232	0.06570853
155	0xbd95b413	-0.07309737
156	0x3c391e7c	0.011298772
157	0xbc9afae8	-0.01891847
158	0x3d742213	0.05960281
159	0x3d8bcac0	0.06825781
160	0x3b930d4f	0.0044876705
161	0x3d876541	0.066111095
162	0x3c59a620	0.013284236
163	0x3dba8544	0.0910745
164	0x3d6aa0d0	0.05728227
165	0x3d39cd8a	0.045362033
166	0xbd994d98	-0.07485503
167	0xbdab7067	-0.083710484
168	0xbd81b17b	-0.0633268
169	0xbda54b8b	-0.08071049
170	0x3d82ca4f	0.063862436
171	0xbc1d1784	-0.009588126
172	0xbc52726b	-0.012844662
173	0x3b61bd80	0.0034445226
174	0xbd136d75	-0.03599306
175	0xbcf0dc46	-0.02940191
176	0x3a8a0ed9	0.0010532989
177	0x3d9b810b	0.07592972
178	0xbd80a79c	-0.06281969
179	0xbd1f1bc1	-0.038844828
180	0xbd44c348	-0.048037797
181	0x3cf7841e	0.030214366
182	0x3d0885cc	0.033330724
183	0xbd505190	-0.050859034
184	0x3c959f0a	0.018264312
185	0xbd63918e	-0.055558734
186	0xbd555c4b	-0.05208997
187	0x3d909f18	0.07061595
188	0x3d6e6589	0.0582023
189	0xbc92982e	-0.01789483
190	0xbd5e8af6	-0.054331742
191	0xbd126b8a	-0.03574709
192	0xbd96b861	-0.07359386
193	0x3b587868	0.0033030752
194	0x3d3dba65	0.046320338
195	0x3d1febdc	0.039043292
196	0x3d8c6cbd	0.06856678
197	0xbcf34fa8	-0.029701069
198	0xbd3523ad	-0.044223476
199	0xbc9893d7	-0.018625183
200	0xbd8ea71f	-0.069654696
201	0x3d5e2d69	0.054242525
202	0xbcfc7f8e	-0.030822542
203	0x3bc3fc47	0.0059810015
204	0x3d98c618	0.074596584
205	0xbd3bef7b	-0.045882683
206	0xbd200364	-0.039065734
207	0x3b8b887b	0.004258213
208	0x3c6ed1f2	0.014576422
209	0x3d5daad5	0.054117996
210	0x3d8ea05e	0.06964181
211	0xbd490a4f	-0.049082097
212	0xbd64e658	-0.055883735
213	0xbd410684	-0.047125354
214	0x3d6955a7	0.05696645
215	0x3da6ee2f	0.08150899
216	0xbc6e888f	-0.014558925
217	0xbc96b924	-0.018398829
218	0x3d67b1d4	0.056566074
219	0x3d42727f	0.047472473
220	0x3cb241b6	0.021759849
221	0x3bf664cf	0.0075193415
222	0x3ab2479a	0.0013601661
223	0x3d0c978c	0.034324214
224	0xbcecead8	-0.028920576
225	0xbd3e3187	-0.04643395
226	0x3d51045c	0.051029548
227	0x3c94108f	0.018074302
228	0x3cc35dc0	0.023848414
229	0xbc64bc6d	-0.01396094
230	0xbda1e1e4	-0.07904413
231	0xbdad8494	-0.08472553
232	0x3d2445e2	0.040105708
233	0x3d95798a	0.07298572
234	0xbd21e42d	-0.039524246
235	0x3d814e0a	0.06313713
236	0xbc96a7e0	-0.018390596
237	0xbd8703e2	-0.065925375
238	0x3d11c236	0.035585605
239	0x3bcfd91b	0.0063430197
240	0x3b9e392d	0.004828593
241	0xbc075c8c	-0.008261811
242	0xbcbca263	-0.02302665
243	0xbd1d0543	-0.038335096
244	0xbd7336a1	-0.05937827
245	0x3d88ecb6	0.06685774
246	0x3d365c3b	0.04452155
247	0xbd8fe701	-0.070264824
248	0xbdb822f6	-0.08991043
249	0xbd19f258	-0.037584633
250	0x3d216546	0.039403223
251	0x3d117087	0.035507705
252	0xbd8b1d50	-0.067927
253	0x3cf297d6	0.029613417
254	0x3c9f7308	0.01946403
255	0xbda65455	-0.08121554

lin.bias f4 [64]
0	0x3b4c4144	0.003116683
1	0xbd02e1d9	-0.031953666
2	0x3d25450f	0.040349063
3	0xbcb542d3	-0.02212659
4	0x3a9b0aef	0.001182882
5	0x3d9293ce	0.07157098
6	0x3d934aa4	0.07191971
7	0xbdb2c1a3	-0.087283395
8	0xbdb30921	-0.087419756
9	0x3d425a34	0.047449306
10	0xbd5d023c	-0.05395721
11	0x3c461006	0.012088781
12	0x3c506db0	0.012721464
13	0x3d9104b7	0.070809774
14	0x3d1f9b31	0.03896636
15	0xbd9ff1f5	-0.078098215
16	0xbd0d09e4	-0.03443326
17	0x3d6c2e55	0.057661373
18	0x3d0da233	0.034578513
19	0x3d9d0e04	0.07668689
20	0x3d6534b4	0.055958465
21	0xbdb4f207	-0.088352256
22	0xbd57bb82	-0.052669056
23	0xbd94fba3	-0.072745584
24	0xb9273cfd	-0.00015949081
25	0xbd2778a9	-0.040886555
26	0xbcf6f408	-0.03014566
27	0x3d7942e1	0.060854796
28	0xbcb33b17	-0.021878762
29	0xbd952c77	-0.072838716
30	0xbbb3d9ba	-0.0054886015
31	0x3d9c87de	0.07643102
32	0x3d6c6f25	0.057723183
33	0xbca088d8	-0.019596502
34	0x3c08a282	0.008339526
35	0xbc037aeb	-0.008024911
36	0xbd5df08b	-0.054184478
37	0xbcf07d66	-0.02935667
38	0x3ce1bee5	0.027556846
39	0xbd53d5ec	-0.051717684
40	0xbd63908d	-0.055557776
41	0x3b3abdca	0.002849447
42	0xbca13efb	-0.019683352
43	0x3d84b602	0.06480028
44	0x3d89ba5a	0.06724997
45	0x3d3fefb1	0.046859447
46	0x3d8cd8e9	0.0687731
47	0x3d12f7b0	0.035880744
48	0xbd1a411a	-0.037659742
49	0x3d8d6136	0.06903307
50	0x3d30a6f7	0.04312798
51	0x3d701dde	0.058622234
52	0xbd9948c3	-0.07484581
53	0x3c851950	0.016247422
54	0x3cd82169	0.026383119
55	0x3db029cc	0.08601722
56	0xbcbc6006	-0.022995006
57	0x3cd957fd	0.026531214
58	0x3d5b71b5	0.053575236
59	0xbd37855c	-0.044804916
60	0xbdadc844	-0.08485463
61	0xbd92a2f3	-0.07159986
62	0xbdada2eb	-0.0847834
63	0xbb8726d9	-0.004124504
