Tutorial/Benchmarking/Results/fold_1/best_model.pth (torch, 192098 bytes, 32 tensors)

gat1.att_src f4 [1, 4, 32]
-0.297721 -0.09962626 -0.041480903 -0.2236589 -0.29898304 0.27817556 0.27390096 -0.36346278
0.13375546 0.16633238 0.39039394 0.2284602 0.3813936 -0.14243972 0.27927083 0.3354814
-0.38475528 -0.32453382 0.08932409 0.22865084 -0.20002753 0.04707368 0.002029506 0.09856731
-0.21466096 0.23309618 0.27459183 -0.285784 0.0019981056 -0.00683397 0.12111927 0.37568575
0.12536508 -0.09712394 0.3566015 -0.16368134 -0.11276606 0.033649813 -0.3041462 0.041672338
-0.2764195 0.04255722 0.045645993 0.05726359 -0.3492637 -0.38003296 0.19330241 0.35532796
-0.3600741 0.15671505 -0.3125664 0.034882065 0.37404963 0.30542666 -0.30892196 0.2472321
0.21677949 -0.005955473 0.40258077 -0.1672883 -0.08346242 -0.20308028 0.052572522 0.101327315
0.03223763 -0.22956258 -0.18375155 0.13957499 -0.35780087 -0.06330016 -0.009371181 -0.1671933
0.14912611 0.023937205 0.288089 -0.035230115 -0.25756395 0.2881527 0.057909764 -0.11671695
-0.27035087 0.09342249 -0.38735944 0.107027 0.19977024 -0.3572462 -0.26728946 -0.29410222
0.34252807 0.3436784 0.02615828 0.3836211 -0.13661253 -0.3955663 0.14346217 0.14506203
0.399362 -0.0016191539 0.31180057 0.24939658 0.2944269 -0.4038778 0.33496526 -0.35447335
0.365867 -0.01669681 -0.3637168 0.11472344 -0.08266327 -0.36753577 -0.15093094 0.04198346
0.32186106 -0.12607355 0.24273603 0.05203406 0.010230604 0.07598212 -0.26969832 -0.34055454
-0.13050544 -0.38059655 -0.19025041 0.019136501 -0.26876575 -0.16924964 -0.07226479 -0.04765789
00000000: e36e 98be da08 ccbd e1e7 29bd d706 65be
00000010: 4e14 99be 076d 8e3e bf3c 8c3e cb17 babe
00000020: 31f7 083e 0953 2a3e b7e1 c73e 78f1 693e
00000030: 0646 c33e b8db 11be 96fc 8e3e 38c4 ab3e
00000040: a5fe c4be 4c29 a6be 8cef b63d 7223 6a3e
00000050: 04d4 4cbe 55d0 403d 7601 053b a8dd c93d
00000060: 15d0 5bbe c4b0 6e3e 4d97 8c3e 4852 92be
00000070: a6f2 023b 7fef dfbb 610d f83d e259 c03e
00000080: b45f 003e ebe8 c6bd 7994 b63e 159c 27be
00000090: e4f1 e6bd 63d4 093d 0db9 9bbe 9db0 2a3d
000000a0: db86 8dbe 7b50 2e3d 4bf7 3a3d 3a8d 6a3d
000000b0: b1d2 b2be ae93 c2be 11f1 453e 8ced b53e
000000c0: a25b b8be e979 203e b408 a0be 7fe0 0e3d
000000d0: 6f83 bf3e e260 9c3e 052b 9ebe 692a 7d3e
000000e0: 71fb 5d3e 2126 c3bb 111f ce3e a04d 2bbe
000000f0: 58ee aabd 47f4 4fbe 4956 573d b284 cf3d
00000100: 9b0b 043d 7412 6bbe 5e29 3cbe bfec 0e3e
00000110: ad31 b7be 84a3 81bd 9589 19bc b834 2bbe
00000120: 84b4 183e f517 c43c 6780 933e 744d 10bd
00000130: 6cdf 83be c088 933e ca32 6d3d 4c09 efbd
00000140: 6e6b 8abe 4a54 bf3d fa53 c6be f930 db3d
00000150: 9290 4c3e f9e8 b6be 2ada 88be 9194 96be
00000160: d75f af3e 9ef6 af3e e449 d63c fc69 c43e
00000170: 28e4 0bbe ab87 cabe bfe7 123e 248b 143e
00000180: 2d79 cc3e ca39 d4ba 53a4 9f3e d161 7f3e
00000190: 1fbf 963e 12c9 cebe 9180 ab3e 887d b5be
000001a0: eb52 bb3e c0c7 88bc 1739 babe 1ff4 ea3d
000001b0: 5c4b a9bd a62d bcbe a48d 1abe d9f6 2b3d
000001c0: f9ca a43e 6d19 01be cb8f 783e ab21 553d
000001d0: 439e 273c 849c 9b3d e615 8abe 2a5d aebe
000001e0: 38a3 05be 8ddd c2be 01d1 42be 27c4 9c3c
000001f0: aa9b 89be c74f 2dbe 90ff 93bd eb34 43bd

gat1.att_dst f4 [1, 4, 32]
-0.22538121 0.0197119 -0.057399474 0.11707853 0.018578649 -0.20360127 -0.14076512 -0.0045204423
-0.2544091 0.03203944 -0.028702464 0.15825003 0.096838035 0.30538687 -0.013613593 -0.30121887
0.18260372 -0.27562237 -0.05595608 -0.13201226 -0.15480414 -0.15104435 0.37520376 0.23349577
0.113282785 0.38342336 -0.36972138 0.06581723 0.26136953 0.2710693 -0.32503814 0.14507976
-0.23226434 -0.016313134 -0.08482253 -0.3404339 -0.38894373 -0.26826802 0.18504076 0.18626106
-0.35551763 -0.15288392 0.006297603 -0.35254595 0.22951542 0.36960313 0.07267326 -0.30294314
0.09556723 0.14869274 0.32350057 -0.21759728 -0.36565223 0.17885554 0.025884865 -0.13323282
-0.17056058 -0.21079315 0.33013046 -0.070901796 0.2940956 0.3642946 0.051465686 0.08654327
-0.029381486 0.2788766 -0.36826733 0.16407919 -0.065629795 0.18762389 -0.002597575 -0.1505348
-0.0442771 0.21986502 -0.28317833 -0.25671405 -0.09244239 -0.14980108 0.16122206 0.27308697
-0.044909634 0.38739964 -0.17193148 -0.2300829 -0.18127942 -0.27978897 -0.28790447 -0.36251923
-0.36289695 0.105062656 0.24756473 0.3849076 0.34612328 -0.02328394 0.08002951 -0.2427711
0.15777434 -0.39165586 0.19223312 0.075099394 0.12532286 0.14967248 -0.18771811 0.3500073
0.19513863 0.2684837 0.053657506 0.2565023 0.2744126 0.18476056 0.31071842 -0.07378063
0.2687294 0.09376955 0.24597633 0.39758676 0.09215716 -0.15176281 -0.040834475 0.11475104
0.06857123 -0.11120309 0.32019496 0.2455998 -0.25392845 -0.032935016 -0.03900838 -0.25616047
00000000: 55ca 66be da7a a13c b61b 6bbd dec6 ef3d
00000010: 4032 983c da7c 50be bb24 10be 3820 94bb
00000020: e941 82be ca3b 033d 6e21 ebbc 4c0c 223e
00000030: 0553 c63d ab5b 9c3e 8c0b 5fbc 5c39 9abe
00000040: 78fc 3a3e 601e 8dbe 3432 65bd 392e 07be
00000050: fa84 1ebe 5fab 1abe b51a c03e 8419 6f3e
00000060: ce00 e83d 1150 c43e 1f4c bdbe 2fcb 863d
00000070: 3ad2 853e 98c9 8a3e 666b a6be ca8f 143e
00000080: b4d6 6dbe 1fa3 85bc 6fb7 adbd 5a4d aebe
00000090: a223 c7be 6d5a 89be 537b 3d3e 38bb 3e3e
000000a0: 6806 b6be 9a8d 1cbe 1f5c ce3b e780 b4be
000000b0: 1706 6b3e 9f3c bd3e b8d5 943d 5d1b 9bbe
000000c0: c0b8 c33d e942 183e dea1 a53e d2d1 5ebe
000000d0: c536 bbbe e825 373e 7f0c d43c 2f6e 08be
000000e0: 6fa7 2ebe 29da 57be dc06 a93e f634 91bd
000000f0: b393 963e d284 ba3e afcd 523d 993d b13d
00000100: 71b1 f0bc eac8 8e3e 898d bcbe 6004 283e
00000110: ea68 86bd 7a20 403e 143c 2abb cb25 1abe
00000120: e85b 35bd 4c24 613e c0fc 90be 0670 83be
00000130: 7052 bdbd 7465 19be 6517 253e 0ed2 8b3e
00000140: 2af3 37bd 3f59 c63e ce0e 30be da9a 6bbe
00000150: 50a1 39be 8040 8fbe 3768 93be 1f9c b9be
00000160: a1cd b9be 172b d73d 9c81 7d3e 9c12 c53e
00000170: 1237 b13e f6bd bebc 83e6 a33d fd98 78be
00000180: 998f 213e 1e87 c8be c2d8 443e b6cd 993d
00000190: a354 003e be43 193e 2d39 40be 2834 b33e
000001a0: 6cd2 473e b276 893e f9c7 5b3d 4554 833e
000001b0: cf7f 8c3e df31 3d3e 7c16 9f3e 4d1a 97bd
000001c0: e696 893e 400a c03d 38e1 7b3e 7e90 cb3e
000001d0: e5bc bc3d b667 1bbe 0d42 27bd 9802 eb3d
000001e0: 136f 8c3d 72be e3bd 98f0 a33e 847e 7b3e
000001f0: e902 82be dee6 06bd 40c7 1fbd 7727 83be

gat1.bias f4 [128]
0.00044589269 0.00030031375 -0.00028132752 -0.00031331438 -0.0003866238 0.000103649516 -0.00013671363 -0.00017182472
2.2983539e-05 -0.00018220022 -0.00038783703 -0.00015458121 8.2299084e-05 -3.9090287e-06 -8.2946506e-05 -0.0004342377
0.00023379405 7.233838e-05 0.00022318694 0.000269772 0.00016874222 0.00019437692 0.0005079746 -0.0002276059
0.00022441785 0.0004632562 -0.00026882679 9.280477e-06 0.0007618941 0.00035247797 -1.3849058e-05 -2.6071157e-06
0.0006701932 6.473147e-05 0.0004661881 0.00020914672 0.000108207205 -0.00015286727 -5.2509677e-05 -0.000106443375
-5.4805073e-06 -0.00027486918 0.00041693053 -0.000573743 -0.00011450634 -8.7288645e-05 1.3905327e-05 -5.7286863e-05
0.00012154416 -9.773361e-05 0.00042456193 -1.0397982e-05 -0.0001570818 -0.0001967155 -0.00026717625 0.00042602967
0.00043243106 -0.00048758514 -0.00060729415 7.3496776e-05 -0.00020537397 0.00036655975 -0.00032562882 -0.00017854094
0.00035693223 0.00015131937 0.0002219335 2.4356377e-05 -2.6447988e-06 -8.1768725e-05 0.0003704641 -0.0001413963
-4.1651172e-05 0.0004487311 -0.00031550034 0.000118310505 0.00010680822 -0.00033104845 0.00015413512 5.9708273e-05
9.3282535e-05 -0.00050522666 0.00016033885 0.00018822821 -0.000491671 9.839598e-05 0.00022594644 -0.0003681171
0.0003269764 -2.255325e-05 0.00021773687 0.00011487481 -0.000108741224 0.00050611736 -6.111117e-05 -0.0006470784
0.00040047694 -3.1974864e-07 -0.00037680843 0.00026970563 -0.0001022914 -0.00025463547 -0.0002783416 0.0005315674
0.000599196 0.00020552026 -0.00032790093 -0.00034291728 -0.0003832212 7.375059e-05 0.00022291476 5.1589304e-05
-8.898055e-07 -0.00020249133 -8.392968e-06 0.00037663736 -4.8954702e-05 -0.0006861382 -0.00033787396 6.06637e-05
0.0002720727 8.626547e-05 0.00010281112 -0.00030566248 0.0001767799 6.510104e-05 -0.00052876194 -0.00020620342
00000000: b4c6 e939 6e73 9d39 247f 93b9 5844 a4b9
00000010: c5b3 cab9 695e d938 c95a 0fb9 d92b 34b9
00000020: c6cc c037 000d 3fb9 9b56 cbb9 1417 22b9
00000030: fc97 ac38 4d2a 83b6 91f3 adb8 66aa e3b9
00000040: 9d26 7539 5fb4 9738 4a07 6a39 2f70 8d39
00000050: 65f0 3039 a8d1 4b39 9929 053a 7ea9 6eb9
00000060: b551 6b39 32e1 f239 52f1 8cb9 58b3 1b37
00000070: d9b9 473a cbcc b839 4059 68b7 e8f5 2eb6
00000080: e8af 2f3a 71c0 8738 b56a f439 654e 5b39
00000090: 4ded e238 ff4a 20b9 d63d 5cb8 5a3a dfb8
000000a0: 33e5 b7b6 511c 90b9 7897 da39 3e67 16ba
000000b0: 2023 f0b8 bc0e b7b8 ed4a 6937 4d47 70b8
000000c0: 86e5 fe38 55f6 ccb8 bd97 de39 fe72 2eb7
000000d0: 53b6 24b9 6a45 4eb9 ca13 8cb9 bc5c df39
000000e0: eab7 e239 92a2 ffb9 d232 1fba 4822 9a38
000000f0: a859 57b9 d12e c039 29b9 aab9 b836 3bb9
00000100: a222 bb39 7cab 1e39 d2b6 6839 ec50 cc37
00000110: 4c7d 31b6 407b abb8 da3a c239 c843 14b9
00000120: 9bb2 2eb8 ab43 eb39 bd69 a5b9 781d f838
00000130: 3afe df38 9290 adb9 559f 2139 456f 7a38
00000140: aea0 c338 3071 04ba a220 2839 205f 4539
00000150: 7be3 00ba f159 ce38 09ec 6c39 d7ff c0b9
00000160: 086e ab39 bc30 bdb7 4c50 6439 f2e8 f038
00000170: 000c e4b8 f6ac 043a cf28 80b8 b2a0 29ba
00000180: 1bf7 d139 eba9 abb4 5f8e c5b9 4767 8d39
00000190: 4785 d6b8 9880 85b9 61ee 91b9 e258 0b3a
000001a0: 5d13 1d3a ed80 5739 1eea abb9 94c9 b3b9
000001b0: 14eb c8b9 8caa 9a38 3abe 6939 9861 5838
000001c0: f8da 6eb5 da53 54b9 86cf 0cb7 6977 c539
000001d0: b654 4db8 f5dd 33ba ad24 b1b9 2771 7e38
000001e0: fba4 8e39 6ce9 b438 4d9c d738 5341 a0b9
000001f0: fe5d 3939 db86 8838 9d9c 0aba 4f38 58b9

gat1.lin.weight f4 [128, 5]
0.04587784 -0.20257078 0.18611123 0.13448592 -0.2053769 -0.10006177 0.07105324 -0.04458769
-0.024693733 -0.09189364 0.17326789 -0.12159558 0.17422208 0.014491508 0.034446213 0.16342287
-0.03658572 -0.119265676 -0.032013964 0.17469601 -0.16391481 0.043885067 -0.2016961 0.114608556
0.088846646 0.007968824 0.08979695 0.002010339 0.11784362 -0.17320652 -0.02861595 0.096819155
0.20744565 0.10610177 -0.16071205 0.16044094 -0.048007753 -0.044143908 -0.19315006 -0.043219324
0.15098543 0.032912366 -0.12637039 0.06150308 -0.065641716 0.19638549 -0.18062612 -0.07022908
-0.2065103 -0.09057349 0.06830127 0.2028974 0.034386873 0.20979391 0.04945291 0.11611959
0.16797136 0.18055734 -0.10999995 0.20333497 0.12899531 -0.09861638 -0.101402536 -0.17969215
0.049191415 -0.16861756 0.08837781 0.06865772 -0.18921012 0.051138088 -0.016836068 0.09784383
0.12024387 -0.20735343 0.20177752 0.17724222 0.085508995 -0.19802316 -0.0705334 -0.071849965
-0.055407796 0.11895716 0.079519264 0.16217133 -0.08826259 0.070881516 0.073401146 -0.17612499
-0.20394234 -0.11052775 0.14775264 -0.20400918 -0.18056579 0.11458878 0.11810219 0.17784794
-0.15891273 -0.15687339 0.10615463 0.18419255 0.12252906 0.030287527 0.07419611 0.19575912
-0.1448772 -0.10029308 0.14209206 -0.13942277 -0.11871462 0.1660481 0.06650029 0.07189864
-0.09780622 0.00029316876 0.18635187 -0.11920902 0.0038081524 0.09564873 -0.14964303 0.21613222
-0.09723742 -0.05052969 -0.064156845 -0.1255895 -0.22300695 0.11994097 0.054410324 -0.20139143
-0.13242066 0.21797903 0.08394726 0.08614738 -0.12939918 -0.09354115 -0.024985392 -0.045843333
-0.14149624 0.024045397 0.015647326 -0.031128865 0.03259522 -0.09027677 0.053349596 0.08477692
-0.10417905 -0.21039602 0.11006939 0.051331338 -0.10744233 0.2070142 -0.091936596 0.14417048
0.106333286 -0.1794431 0.14277317 -0.1912803 -0.121641785 -0.034880657 -0.1367554 0.20880517
-0.045585357 0.08752595 -0.19212793 0.12268973 -0.05737144 -0.1643253 0.03406145 0.10100643
0.18132716 -0.13203406 -0.10037416 0.040774822 0.057050552 0.080835626 0.12150496 -0.047149252
0.123168014 0.15039389 -0.054792296 0.16152675 0.09876862 0.18988407 -0.11763667 -0.10466189
-0.06788297 0.0140729165 0.12826033 -0.11996878 0.101215295 -0.084475026 0.12363903 -0.011968051
-0.18302736 -0.11415789 -0.1642443 0.10805416 -0.13545623 -0.022761809 0.04793493 -0.12712048
0.058255706 -0.20707695 -0.15129873 -0.19363274 -0.07260722 -0.07351853 0.024106272 -0.03746476
0.10030153 0.20429261 0.073823616 -0.08616131 -0.19830592 0.082035966 -0.09934427 0.102843486
0.14219378 0.08488181 0.20073731 0.20410672 0.04851969 -0.16080162 0.19084014 -0.098802745
-0.09146591 0.17523853 0.15861878 0.06911319 0.011318844 -0.1871533 -0.020831013 0.20464219
0.0540046 0.0159458 -0.04224794 -0.07375738 0.12831059 0.011800647 0.13911366 -0.030080115
0.09010862 0.089295425 0.03782396 0.12688626 0.14194816 0.19901219 0.16273768 -0.058226753
-0.17551388 0.04451061 -0.0055746413 -0.05965166 -0.032304846 0.015462503 0.16300708 0.062330335
00000000: 67ea 3b3d b76e 4fbe f193 3e3e adb6 093e
00000010: 524e 52be 2fed ccbd 5c84 913d 95a1 36bd
00000020: 834a cabc bc32 bcbd 236d 313e 1a07 f9bd
00000030: 4667 323e ca6d 6d3c 7917 0d3d 5358 273e
00000040: e8da 15bd 9041 f4bd 1321 03bd 83e3 323e
00000050: 49d9 27be d4c0 333d 6c89 4ebe e4b7 ea3d
00000060: 3bf5 b53d ac8f 023c 77e7 b73d e4bf 033b
00000070: ff57 f13d 0d5d 31be ff6b eabc 1f49 c63d
00000080: a26c 543e e34b d93d b391 24be a14a 243e
00000090: c7a3 44bd 3ed0 34bd 21c9 45be bf06 31bd
000000a0: ed9b 1a3e 1ecf 063d 3d67 01be a7ea 7b3d
000000b0: 2a6f 86bd 4719 493e 0ef6 38be 44d4 8fbd
000000c0: 7077 53be 987e b9bd 89e1 8b3d 56c4 4f3e
000000d0: 40d9 0c3d 37d4 563e 228f 4a3d 1cd0 ed3d
000000e0: af00 2c3e 06e4 383e a747 e1bd 0b37 503e
000000f0: 5917 043e 62f7 c9bd 22ac cfbd 3801 38be
00000100: f07c 493d 15aa 2cbe 6dff b43d 6b9c 8c3d
00000110: 4cc0 41be 2c76 513d cbeb 89bc 5962 c83d
00000120: 6b42 f63d 7554 54be c49e 4e3e fc7e 353e
00000130: 571f af3d 95c6 4abe d173 90bd 1326 93bd
00000140: 49f3 62bd d09f f33d ffda a23d 3e10 263e
00000150: 04c3 b4bd 542a 913d 5753 963d 1c5a 34be
00000160: 43d6 50be 5f5c e2bd 784c 173e c8e7 50be
00000170: 3de6 38be 86ad ea3d 90df f13d c51d 363e
00000180: 05ba 22be 6ba3 20be 9967 d93d f99c 3c3e
00000190: 84f0 fa3d 8c1d f83c 21f4 973d 1475 483e
000001a0: b05a 14be 7566 cdbd 9580 113e d8c4 0ebe
000001b0: a720 f3bd 8308 2a3e 4e31 883d 983f 933d
000001c0: a14e c8bd 72b4 9939 06d3 3e3e dc23 f4bd
000001d0: 3292 793b 7be3 c33d 063c 19be c451 5d3e
000001e0: 6a24 c7bd 38f8 4ebd aa64 83bd 899a 00be
000001f0: ef5b 64be 9ca3 f53d 5cdd 5e3d 8e39 4ebe
00000200: 4899 07be e535 5f3e 8bec ab3d 0a6e b03d
00000210: 3881 04be 8192 bfbd 2aae ccbc 38c6 3bbd
00000220: 64e4 10be dafa c43c d22e 803c f601 ffbc
00000230: 9182 053d 07e3 b8bd 1b85 5a3d 869f ad3d
00000240: d35b d5bd 0e72 57be 0f6c e13d cf40 523d
00000250: b90a dcbd 88fb 533e 4149 bcbd 6da1 133e
00000260: 44c5 d93d efbf 37be 2133 123e fcde 43be
00000270: 541f f9bd 05df 0ebd 9c09 0cbe 06d1 553e
00000280: b6b7 3abd ce40 b33d 2fbd 44be c144 fb3d
00000290: 51fe 6abd e444 28be 0584 0b3d 76dc ce3d
000002a0: d4ad 393e f033 07be f890 cdbd 8003 273d
000002b0: d7ad 693d 268d a53d 98d7 f83d 931f 41bd
000002c0: 833f fc3d db00 1a3e e36d 60bd 4567 253e
000002d0: 3447 ca3d f870 423e 7feb f0bd f958 d6bd
000002e0: 3a06 8bbd 1792 663c ad56 033e 31b2 f5bd
000002f0: f749 cf3d 3e01 adbd 7636 fd3d a515 44bc
00000300: 866b 3bbe 9dcb e9bd a82f 28be 804b dd3d
00000310: 0ab5 0abe f976 babc 6b57 443d df2b 02be
00000320: 899d 6e3d fb0b 54be 0eee 1abe a947 46be
00000330: 18b3 94bd e290 96bd 847a c53c a674 19bd
00000340: e36a cd3d 1532 513e d630 973d 5775 b0bd
00000350: b510 4bbe 7902 a83d 0275 cbbd 9b9f d23d
00000360: 3f9b 113e 84d6 ad3d 158e 4d3e 5a01 513e
00000370: 95bc 463d 2ea9 24be 996b 433e 1859 cabd
00000380: 7b52 bbbd bb71 333e f66c 223e 378b 8d3d
00000390: ac72 393c 1da5 3fbe cda5 aabc b98d 513e
000003a0: ed33 5d3d c4a0 823c 2d0c 2dbd 1c0e 97bd
000003b0: da63 033e 8057 413c d073 0e3e 936a f6bc
000003c0: de8a b83d 85e0 b63d 4ced 1a3d 79ee 013e
000003d0: dc5a 113e dac9 4b3e b5a4 263e 2d7f 6ebd
000003e0: e9b9 33be c250 363d 7bab b6bb 4d55 74bd
000003f0: 1652 04bd 7056 7d3c 54eb 263e 184e 7f3d

sage1.lin_l.weight f4 [128, 128]
0.07344474 -0.022033272 0.030581614 0.0143673755 -0.058954332 -0.05569523 0.05710599 -0.03630599
0.062437665 0.017464688 0.006296425 0.056406878 -0.02830185 -0.023321256 0.03216422 0.017717285
0.04471927 0.061273143 0.07109348 0.046458986 -0.0024254124 -0.07637395 -0.03628273 -0.010863383
0.015094298 -0.05501446 -0.032880805 0.060603745 -0.050283123 0.0041822037 0.020458443 0.0008895949
0.008309801 0.07786948 0.058331445 0.050741773 -0.030098692 -0.06753748 0.062125344 -0.06344023
-0.042364508 -0.0540895 -0.0044969046 0.017661234 0.03141084 0.023066958 -0.06974188 0.025636729
-0.056689095 0.04352933 -0.078641005 0.01468452 -0.088469625 0.06456494 0.03177075 -0.007121097
-0.0060521965 -0.0065416116 -0.061558224 -0.064098075 0.0069949036 0.057269286 0.035710543 0.051291786
0.07104713 0.031816125 -0.054688834 0.016595233 -0.04763419 -0.018065445 -0.049661543 0.046406336
-0.052125644 0.06060136 0.034754995 0.04178492 0.051034275 0.016706413 -0.034106538 0.03760448
0.07464616 0.05716117 -0.061943762 0.039049115 -0.032728795 0.06772398 -0.03446616 -0.0140789505
0.032394808 -0.070883 0.015856946 0.042320274 -0.014622448 -0.07849202 -0.09038165 -0.06904632
-0.08152918 0.03506103 -0.02206194 -0.024664061 0.060090307 0.012293912 -0.059409972 0.020261077
0.038307007 -0.04249415 0.010774007 -0.03631213 -0.076852925 -0.059651725 -0.043720335 0.047362164
0.074886225 -0.06627055 0.048221983 -0.033959292 -0.014305139 0.007471729 0.01526596 0.008206982
-0.08876624 0.01607782 -0.09053428 0.08401191 0.08594263 -0.08099597 0.044446506 0.06335667
-0.054647945 0.021113815 -0.04578676 -0.06632005 -0.042106155 -0.033447843 -0.0575275 -0.00089289853
0.084253564 0.019668195 -0.0068296576 -0.08537547 0.037365973 0.0827328 -0.009634992 0.082144074
0.09192446 0.032544453 -0.0807506 -0.025116643 -0.019930577 -0.0046490254 -0.040337145 -0.031945325
-0.021250263 -0.0134555055 -0.07276616 -0.052811902 0.022532899 0.070465535 0.081159115 0.057471707
-0.088439986 -0.009975215 -0.036897995 0.03856494 0.087017015 0.056430165 0.05753883 -0.052651882
0.0756605 -0.06723158 -0.06594359 0.031150592 0.06592282 0.05242104 -0.08842425 0.0466776
-0.03552653 0.020288141 -0.0458025 -0.044512168 -0.027808981 -0.0023284047 0.041739337 -0.044515006
-0.042311285 0.045863844 -0.03666025 -0.06663725 0.010180609 0.035351753 -0.015511611 0.0014810328
0.07629068 0.034511354 0.0018739362 0.057835594 -0.018408418 -0.04667406 0.026761172 -0.060086537
0.026724707 0.045736138 0.04626736 0.010940707 0.052458618 0.053542104 0.04752127 -0.06875615
0.01664693 0.047711447 0.0675123 0.08413394 -0.07723953 0.07170794 0.018805023 -0.052262653
-0.080742575 0.038127374 0.06194302 0.058278207 0.04601031 -0.07004226 -0.086645 -0.022379043
-0.047957223 -0.05528853 -0.08402765 0.03209244 0.024519766 0.037186973 -0.043464143 -0.05287722
0.007823637 0.04753109 0.030252198 0.026002243 -0.02724798 0.011044952 -0.024900371 0.0589507
0.06725632 4.1993342e-05 -0.01212836 0.07894919 -0.056931835 0.0033801715 0.009957331 -0.03517292
-0.0053892224 -0.060239144 -0.00065236964 0.043813195 0.054449987 0.06214436 0.039582375 0.08022525
00000000: 326a 963d 1f7f b4bc 4b86 fa3c 2465 6b3c
00000010: 197a 71bd ae20 64bd f8e7 693d 97b5 14bd
00000020: a3be 7f3d 1b12 8f3c 3e52 ce3b e60a 673d
00000030: 48d9 e7bc 380c bfbc a1be 033d d723 913c
00000040: 8e2b 373d 8cf9 7a3d 7599 913d c74b 3e3d
00000050: abf3 1ebb f269 9cbd 339d 14bd 55fc 31bc
00000060: 134e 773c d856 61bd 06ae 06bd a23b 783d
00000070: adf5 4dbd de0a 893b 7798 a73c b433 693a
00000080: d525 083c 097a 9f3d f4ec 6e3d 9bd6 4f3d
00000090: 8891 f6bc 1751 8abd 2577 7e3d f4ec 81bd
000000a0: 6886 2dbd f48c 5dbd c55a 93bb 4bae 903c
000000b0: a7a8 003d ebf6 bc3c d5d4 8ebd 1e04 d23c
000000c0: d332 68bd d04b 323d 890e a1bd 5797 703c
000000d0: 902f b5bd a03a 843d 0c22 023d 1758 e9bb
000000e0: 8151 c6bb 045b d6bb 7a24 7cbd da45 83bd
000000f0: 8135 e53b 3393 6a3d 3845 123d 5617 523d
00000100: 2881 913d a051 023d 6601 60bd baf2 873c
00000110: 121c 43bd fcfd 93bc e769 4bbd 9214 3e3d
00000120: b381 55bd 2239 783d 415b 0e3d aa26 2b3d
00000130: 5109 513d e3db 883c 4cb3 0bbd 2807 1a3d
00000140: 16e0 983d d521 6a3d beb8 7dbd f7f1 1f3d
00000150: a10e 06bd dfb2 8a3d 632c 0dbd 66ab 66bc
00000160: 6bb0 043d 1b2b 91bd 6de6 813c 0658 2d3d
00000170: fe92 6fbc 6dc0 a0bd 041a b9bd 2868 8dbd
00000180: c5f8 a6bd 289c 0f3d 3ebb b4bc 490c cabc
00000190: 4121 763d 676c 493c df57 73bd 8ffa a53c
000001a0: cfe7 1c3d 590e 2ebd 7685 303c 07bc 14bd
000001b0: 1165 9dbd 5e55 74bd 1814 33bd d4fe 413d
000001c0: f35d 993d dbb8 87bd 6a84 453d e618 0bbd
000001d0: 1a60 6abc 68d5 f43b 141e 7a3c 9476 063c
000001e0: 13cb b5bd a2b5 833c 096a b9bd 700e ac3d
000001f0: b102 b03d 37e1 a5bd 8a0d 363d 24c1 813d
00000200: 86d6 5fbd e1f6 ac3c e68a 3bbd ced2 87bd
00000210: 8177 2cbd 9b00 09bd f5a1 6bbd 6811 6aba
00000220: 228d ac3d 321f a13c 52cb dfbb 56d9 aebd
00000230: 100d 193d d06f a93d 16dc 1dbc 273b a83d
00000240: e442 bc3d 554d 053d 9260 a5bd 6bc1 cdbc
00000250: 7345 a3bc da56 98bb 9038 25bd 1ad9 02bd
00000260: 0815 aebc 7b74 5cbc 6d06 95bd 4b51 58bd
00000270: ea96 b83c 3c50 903d c036 a63d 7467 6b3d
00000280: 0620 b5bd 166f 23bc 5a22 17bd 45f6 1d3d
00000290: fa35 b23d 5123 673d d6ad 6b3d 80a9 57bd
000002a0: e4f3 9a3d b6b0 89bd 6f0d 87bd 872f ff3c
000002b0: 8b02 873d 72b7 563d c617 b5bd 0331 3f3d
000002c0: 4484 11bd 5133 a63c 679b 3bbd 6452 36bd
000002d0: a9cf e3bc 2698 18bb def6 2a3d 5e55 36bd
000002e0: 994e 2dbd badb 3b3d 0f29 16bd 1c79 88bd
000002f0: 92cc 263c 00cd 103d 6924 7ebc 371f c23a
00000300: 4a3e 9c3d c75b 0d3d dd9e f53a 04e5 6c3d
00000310: 40cd 96bc 4d2d 3fbd 3f3a db3c 4d1d 76bd
00000320: c6ed da3c d155 3b3d d882 3d3d a740 333c
00000330: d9de 563d f74e 5b3d aaa5 423d 06d0 8cbd
00000340: 245f 883c 146d 433d e443 8a3d 6a4e ac3d
00000350: c22f 9ebd 9ddb 923d fe0c 9a3c 5d11 56bd
00000360: 5d5c a5bd 732b 1c3d f7b7 7d3d 21b5 6e3d
00000370: 4f75 3c3d 5172 8fbd ef72 b1bd 4154 b7bc
00000380: cb6e 44bd 3a76 62bd b016 acbd 5d73 033d
00000390: addd c83c 5e51 183d 7507 32bd c995 58bd
000003a0: b62e 003c f6af 423d 75d3 f73c a802 d53c
000003b0: 2837 dfbc e3f5 343c ddfb cbbc 4a76 713d
000003c0: aebd 893d 0222 3038 07b6 46bc 1db0 a13d
000003d0: 5b31 69bd de85 5d3b 1324 233c 7b11 10bd
000003e0: 1398 b0bb 52bd 76bd c903 2bba 7775 333d
000003f0: f306 5f3d 168b 7e3d 2121 223d 234d a43d

sage1.lin_l.bias f4 [128]
-0.04950407 -0.08918481 -0.023941416 0.0132125765 0.0107006775 -9.250362e-05 -0.086545385 -0.024254948
-0.04634741 -0.020044457 -0.050808374 -0.00059798104 -0.012817522 -0.08321216 0.038199306 0.026221253
0.020241769 0.039301872 -0.00520259 0.014289682 -0.09211787 0.060357504 0.06619747 -0.03204505
0.06999224 -0.025378117 0.03651959 -0.036643557 -0.047218714 -0.04583071 0.06506245 -0.026201488
-0.07282841 0.01628374 -0.052141342 -0.054561157 -0.047816742 -0.051136002 -0.058086976 0.031630713
-0.028909845 0.016947808 0.07668289 0.021304179 0.08367963 0.06757902 0.0064030765 0.042858362
0.07959439 -0.05996766 -0.05395902 0.064179376 0.04379095 0.02521697 0.015124082 -0.046010647
0.033555273 -0.007465982 0.008677919 0.07445373 0.049263414 0.0026289262 -0.020212421 -0.0537352
0.037220936 0.084282875 -0.0491413 -0.0571541 0.058501262 -0.07977449 0.07912849 0.006319042
0.081264816 0.008299186 0.02254721 -0.077386945 -0.016786724 0.065569535 -0.03692529 0.077261046
-0.014474338 -0.052056424 -0.042348728 -0.065340355 0.028457915 -0.048321217 0.029223261 -0.0272494
0.0428564 0.06634148 -0.0653468 -0.05286482 0.05939297 -0.02921759 -0.07166022 -0.056958683
-0.084580615 -0.05506681 0.0017540298 0.063853934 0.0134794535 0.011482975 -0.003917942 -0.05076867
0.0446379 0.06291703 0.029947272 0.07089228 0.08479743 0.010257304 -0.042260718 0.06483901
0.0030984455 -0.018743481 -0.012432631 0.008792324 -0.044436656 0.052167982 -0.061495025 0.005829372
-0.08218913 0.032965377 -0.0434564 -0.0057374565 0.06401595 0.01580187 0.0006718395 0.038487285
00000000: c8c4 4abd 87a6 b6bd ca20 c4bc 9079 583c
00000010: e551 2f3c 81fe c1b8 b53e b1bd 50b2 c6bc
00000020: c8d6 3dbd 4634 a4bc 711c 50bd d4c1 1cba
00000030: 9500 52bc 236b aabd e076 1c3d f4cd d63c
00000040: 11d2 a53c 00fb 203d 7d7a aabb 451f 6a3c
00000050: 4ba8 bcbd 6e39 773d 8a92 873d ac41 03bd
00000060: 1758 8f3d c5e5 cfbc 9195 153d 8e17 16bd
00000070: 6968 41bd fcb8 3bbd 763f 853d 81a4 d6bc
00000080: 1027 95bd 7a65 853c 2992 55bd 857b 5fbd
00000090: 7ddb 43bd fc73 51bd 9cec 6dbd 358f 013d
000000a0: 57d4 ecbc 21d6 8a3c eb0b 9d3d 1a86 ae3c
000000b0: 3a60 ab3d df66 8a3d e6d0 d13b 408c 2f3d
000000c0: 6202 a33d a6a0 75bd 2204 5dbd 7a70 833d
000000d0: 245e 333d d293 ce3c ffca 773c a975 3cbd
000000e0: 4171 093d 32a5 f4bb d52d 0e3c 327b 983d
000000f0: 6fc8 493d 104a 2c3b 8594 a5bc 7119 5cbd
00000100: fb74 183d 809c ac3d 6348 49bd 6b1a 6abd
00000110: 059f 6f3d cf60 a3bd 1e0e a23d f70f cf3b
00000120: 2b6e a63d 4ff9 073c edb4 b83c 0c7d 9ebd
00000130: 5084 89bc 5249 863d f93e 17bd 0a3b 9e3d
00000140: c625 6dbc 1e39 55bd dc75 2dbd 2ad1 85bd
00000150: 9320 e93c 78ec 45bd 9f65 ef3c 223a dfbc
00000160: 318a 2f3d 0bde 873d 8bd4 85bd c888 58bd
00000170: 0b46 733d ba59 efbc 98c2 92bd 824d 69bd
00000180: 9a38 adbd bc8d 61bd 79e7 e53a dac5 823d
00000190: edd8 5c3c 1723 3c3c 1462 80bb cff2 4fbd
000001a0: 3bd6 363d a5da 803d fb53 f53c f92f 913d
000001b0: 46aa ad3d 400e 283c 9319 2dbd 51ca 843d
000001c0: 4a0f 4b3b ee8b 99bc 3cb2 4bbc ae0d 103c
000001d0: 3603 36bd 18ae 553d 35e2 7bbd 5104 bf3b
000001e0: c652 a8bd b406 073d 57ff 31bd 4601 bcbb
000001f0: cb1a 833d ec72 813c 631e 303a d8a4 1d3d

sage1.lin_r.weight f4 [128, 128]
0.012873423 0.06271444 0.0124225095 0.051080465 0.05415284 -0.0084488755 0.07894311 0.017880702
0.06212472 -0.0788207 -0.08669763 0.022297548 0.024918614 -0.030395491 -0.023342129 0.02035853
0.08305118 0.021594288 0.06701201 0.07134257 0.030201733 0.004962821 -0.028116152 -0.06380482
0.057265088 -0.0032383846 -0.03681783 -0.01617179 -0.04406693 -0.0097810235 0.050926525 0.069919705
-0.05822678 0.018714054 -0.039230186 -0.08406043 0.05088518 0.07053989 0.076322235 0.08222627
-0.029368691 0.013015716 0.027841574 -0.06699388 0.084380314 -0.068711296 0.007202579 -0.0281223
0.033746228 0.068956174 0.0070330976 -0.04096637 0.07195946 -0.07999443 -0.009636362 -0.07472568
-0.006010132 0.06956824 0.039087832 -0.03627753 -0.036582105 0.025132265 -0.050411593 -0.07546374
0.07051518 0.026051251 -0.071599826 -0.07761885 0.036832336 -0.021655193 -0.04692963 0.094920486
0.04146799 0.07558728 0.009507086 0.0025491833 -0.060062826 0.03714046 -0.024370281 -0.009078446
0.008346717 0.071526214 0.029512832 -0.080096036 0.005572962 0.068627395 -0.0040612374 0.07969215
-0.034924865 -0.056714695 0.078486755 -0.026847035 0.065180264 0.06559726 -0.054402456 -0.074623115
-0.006965151 -0.04733937 0.0647831 0.048797235 0.079222314 -0.044506196 0.021691239 0.0012549788
-0.05848326 -0.03747637 0.033766963 0.0042154514 0.07862008 0.0007641135 0.031038765 0.036232352
-0.06326178 -0.071131945 -0.04987546 -0.030660888 0.028322281 -0.04355814 -0.07046734 -0.024091104
-0.07622141 -0.0020414572 -0.07728731 -0.0039379555 -0.06934892 -0.07440906 0.06704729 0.086410455
-0.05808142 0.018721726 -0.07238388 -0.06618751 -0.081547424 -0.058614638 0.09155595 0.02280685
0.037872184 -0.04873717 0.033287976 0.030626101 0.022753386 0.008492973 -0.042984404 0.030875018
0.075599484 -0.016972587 0.07027889 0.011375982 0.026114253 0.056783713 -0.016519014 0.018897286
-0.008712049 -0.07716739 0.004223308 0.02622705 0.008400638 0.01985258 -0.018692454 0.06847362
-0.07511946 0.004458706 0.00022324329 0.0317167 -0.029407943 0.015758643 -0.07232413 0.035808574
-0.02629331 0.0554491 0.07606864 0.072328314 -0.04878015 0.047383178 -0.039081454 0.014403924
0.027879098 -0.07809558 -0.086692125 0.008991709 0.011610873 -0.05500734 0.041551024 0.058414865
-0.01888122 -0.07752143 0.02236512 -0.0458562 -0.00034659426 -0.022973627 0.046986617 0.0226089
-0.06207911 -0.078945726 -0.051577132 -0.08778794 0.0017143314 -0.039342746 -0.033478748 -0.07245011
0.07232758 -0.04565307 -0.032440327 0.061063726 -0.017852318 -0.0190203 0.043677617 -0.036680963
0.06502282 -0.00038062525 0.04165255 0.012099839 -0.03548883 -0.041883416 0.003182092 -0.021329023
0.0530996 0.058718376 -0.049727242 -0.050991766 -0.015347625 0.06729019 -0.00013918796 0.07067459
0.025591206 0.001229226 -0.07346688 -0.0007218977 -0.05629399 -0.04820831 0.050056297 -0.052044064
-0.04044306 0.072006926 -0.042518314 -0.06792078 -0.025201485 -0.0077360175 -0.07155979 -0.08151899
-0.07643617 -0.003286771 -0.0070536966 -0.08335484 -0.057002507 0.005912944 -0.07822957 -0.05133785
-0.03381796 -0.08488979 -0.012940881 -0.026909837 0.012347637 0.0064691124 0.04371524 -0.030001653
00000000: 0deb 523c 6e70 803d c887 4b3c c039 513d
00000010: 5ecf 5d3d 276d 0abc edac a13d 8d7a 923c
00000020: 7e76 7e3d bf6c a1bd 878e b1bd 59a9 b63c
00000030: 1f22 cc3c f7ff f8bc fe37 bfbc efc6 a63c
00000040: bd16 aa3d 81e6 b03c 983d 893d 0e1c 923d
00000050: a069 f73c 299f a23b d853 e6bc 1aac 82bd
00000060: cc8e 6a3d 143b 54bb 4bce 16bd b47a 84bc
00000070: 867f 34bd 9640 20bc 5598 503d 1032 8f3d
00000080: 347f 6ebd 374e 993c d5af 20bd e027 acbd
00000090: fa6c 503d 3877 903d d54e 9c3d 3f66 a83d
000000a0: 9c96 f0bc df3f 553c 0314 e43c 1634 89bd
000000b0: 96cf ac3d 82b8 8cbd 9d03 ec3b bd60 e6bc
000000c0: 7c39 0a3d e538 8d3d e675 e63b 5acc 27bd
000000d0: 7b5f 933d 1fd4 a3bd d5e1 1dbc c709 99bd
000000e0: a4f0 c4bb cb79 8e3d 901a 203d bf97 14bd
000000f0: 1ed7 15bd 2ee2 cd3c 637c 4ebd bc8c 9abd
00000100: 436a 903d 6f69 d53c eea2 92bd a2f6 9ebd
00000110: 81dd 163d 3b66 b1bc 4939 40bd ac65 c23d
00000120: 57da 293d 81cd 9a3d 9cc3 1b3c 3310 273b
00000130: 7004 76bd 9820 183d 2fa4 c7bc c3bd 14bc
00000140: abc0 083c 567c 923d e5c4 f13c 6409 a4bd
00000150: 659d b63b 858c 8c3d 2114 85bb a335 a33d
00000160: 600d 0fbd ab4d 68bd aabd a03d 50ee dbbc
00000170: 3b7d 853d db57 863d 1cd5 5ebd 01d4 98bd
00000180: ec3b e4bb ede6 41bd 00ad 843d 9cdf 473d
00000190: 4f3f a23d 214c 36bd d3b1 b13c 1a7e a43a
000001a0: 258c 6fbd d280 19bd 3a4f 0a3d c521 8a3b
000001b0: 9103 a13d ca4e 483a 0245 fe3c 6068 143d
000001c0: 648f 81bd a0ad 91bd 364a 4cbd 8b2c fbbc
000001d0: 2104 e83c 056a 32bd 2e51 90bd b55a c5bc
000001e0: f819 9cbd f8c9 05bb cf48 9ebd f709 81bb
000001f0: ce06 8ebd c763 98bd 1750 893d f7f7 b03d
00000200: c8e6 6dbd 4e5e 993c 003e 94bd 518d 87bd
00000210: 5602 a7bd e715 70bd b081 bb3d 6ed5 ba3c
00000220: dd1f 1b3d a0a0 47bd f958 083d 97e3 fa3c
00000230: 4f65 ba3c 1c26 0b3c 6a10 30bd 9bed fc3c
00000240: e7d3 9a3d 180a 8bbc 61ee 8f3d 5462 3a3c
00000250: 8fed d53c 0a96 683d e252 87bc 7bce 9a3c
00000260: fbbc 0ebc f009 9ebd ad63 8a3b 1cda d63c
00000270: d4a2 093c e1a1 a23c eb20 99bc e63b 8c3d
00000280: 3bd8 99bd 561a 923b 6a16 6a39 5fe9 013d
00000290: ede8 f0bc 4518 813c ac1e 94bd 03ac 123d
000002a0: 1165 d7bc 981e 633d e0c9 9b3d de20 943d
000002b0: b2cd 47bd dd14 423d e013 20bd 70fe 6b3c
000002c0: b562 e43c 93f0 9fbd a48b b1bd f651 133c
000002d0: 883b 3e3c 604f 61bd 6831 2a3d 6d44 6f3d
000002e0: caac 9abc 8ec3 9ebd 0e37 b73c b6d3 3bbd
000002f0: 18b7 b5b9 3033 bcbc 0a75 403d 4d36 b93c
00000300: aa46 7ebd 4cae a1bd 8b42 53bd 2aca b3bd
00000310: 6bb3 e03a dc25 21bd 0321 09bd b960 94bd
00000320: 7b20 943d b7fe 3abd 26e0 04bd f51d 7a3d
00000330: 063f 92bc 76d0 9bbc 4de7 323d c73e 16bd
00000340: af2a 853d a88e c7b9 dd9b 2a3d 673e 463c
00000350: bc5c 11bd f28d 2bbd a58a 503b 34ba aebc
00000360: f77e 593d ae82 703d cbae 4bbd bedc 50bd
00000370: 9b74 7bbc 70cf 893d fcf2 11b9 d7bd 903d
00000380: a6a4 d13c fb1d a13a ce75 96bd bc3d 3dba
00000390: 8794 66bd 1476 45bd d507 4d3d 282c 55bd
000003a0: 9fa7 25bd 5e78 933d af27 2ebd 0d1a 8bbd
000003b0: 5873 cebc 6b7e fdbb f08d 92bd 6ef3 a6bd
000003c0: 918a 9cbd de66 57bb b222 e7bb f1b5 aabd
000003d0: 767b 69bd 5fc1 c13b d336 a0bd a347 52bd
000003e0: b484 0abd b3da adbd fd05 54bc 0572 dcbc
000003f0: be4d 4a3c d9fa d33b c00e 333d 07c6 f5bc

sagpool.gnn.lin_rel.weight f4 [1, 128]
-0.08098761 0.042900693 0.04960583 -0.02713242 0.03553252 0.054660402 0.061368745 0.0694277
-0.023261199 -0.02898398 0.060660284 0.061022934 -0.088458635 -0.07478583 -0.07260667 0.061087973
0.022625562 -0.04563393 0.015601808 0.0030035055 0.021143354 -0.032895897 0.035737347 -0.07224998
0.01516522 0.054087747 0.041815985 -0.05317078 -0.028034864 0.07768531 -0.04751056 0.07170298
-0.06979613 -0.050346076 0.0006250158 0.039843824 -0.029056735 -0.02190506 0.04502972 0.05701812
0.008453266 0.012767585 0.08208107 0.03681234 -0.032174487 -0.08278473 -0.044535697 0.025563426
-0.08449096 0.0062761125 -0.02017765 -0.06162001 0.042414226 0.0402793 0.0765317 -0.08814
-0.060649693 0.05868066 -0.07024053 0.07923305 0.06564971 -0.026265163 0.06443306 0.028649813
-0.016578019 0.006677124 -0.024314092 -0.013729451 0.07008657 -0.087164514 -0.04185551 -0.015142256
-0.03318195 -0.07870007 0.0070244675 0.025903188 -0.07101102 0.018777551 0.02215059 -0.026252873
0.066302426 0.012186748 -0.025305277 0.027701832 0.053844113 -0.06536991 -0.0056236456 0.009968755
-0.020061154 0.03194255 0.0034778023 0.06762476 -0.028582819 -0.06264528 0.0841888 0.025262065
-0.0017824584 0.08297661 -0.06364979 -0.03208778 0.06050058 0.08090117 0.017051129 0.08492429
-0.03529009 0.05558518 -0.075177014 0.022232937 0.05785638 0.021056615 0.04787204 0.010251932
0.040062483 -0.086579345 -0.0035086821 0.024913915 0.04188673 -0.014208544 -0.02034182 -0.089060135
0.04270385 0.036755085 -0.030201469 0.06053763 -0.011928701 0.022545498 0.039779194 0.036232214
00000000: d5dc a5bd a3b8 2f3d 7c2f 4b3d cf44 debc
00000010: 8c8a 113d 96e3 5f3d cb5d 7b3d 1c30 8e3d
00000020: 458e bebc d06f edbc eb76 783d 2ff3 793d
00000030: cd29 b5bd 5029 99bd ceb2 94bd 6237 7a3d
00000040: 3e59 b93c a5ea 3abd ba9e 7f3c 76d6 443b
00000050: d434 ad3c d9bd 06bd 5361 123d ccf7 93bd
00000060: 8b77 783c 1d8b 5d3d 3d47 2b3d 9bc9 59bd
00000070: 5fa9 e5bc 7a19 9f3d 6f9a 42bd 03d9 923d
00000080: 46f1 8ebd b037 4ebd 1ad8 233a 4733 233d
00000090: 6408 eebc 3e72 b3bc 1571 383d d58b 693d
000000a0: 917f 0a3c 222f 513c 1f1a a83d 89c8 163d
000000b0: 65c9 03bd 0a8b a9bd 106b 36bd 646a d13c
000000c0: 9909 adbd d9a7 cd3b 994b a5bc 4365 7cbd
000000d0: 8aba 2d3d e8fb 243d a7bc 9c3d bf82 b4bd
000000e0: d06b 78bd 225b 703d 44da 8fbd f044 a23d
000000f0: 5b73 863d 0a2a d7bc 7bf5 833d 03b3 ea3c
00000100: a0ce 87bc c7cb da3b 592e c7bc 7ef1 60bc
00000110: 8c89 8f3d 4f83 b2bd af70 2bbd 3a17 78bc
00000120: cce9 07bd 812d a1bd 812d e63b ec32 d43c
00000130: 3a6e 91bd 61d3 993c 2775 b53c 4410 d7bc
00000140: 91c9 873d edaa 473c 034d cfbc f4ee e23c
00000150: a58b 5c3d a9e0 85bd 8f46 b8bb fd53 233c
00000160: 4a57 a4bc 31d6 023d d7eb 633b da7e 8a3d
00000170: 8426 eabc 2b4c 80bd 2d6b ac3d 64f2 ce3c
00000180: 61a1 e9ba a4ef a93d d25a 82bd 7a6e 03bd
00000190: 75cf 773d 83af a53d cfae 8b3c c9ec ad3d
000001a0: 578c 10bd 49ad 633d 68f6 99bd d921 b63c
000001b0: d0fa 6c3d ec7e ac3c 7915 443d b8f7 273c
000001c0: 8f18 243d 8350 b1bd ebf1 65bb 4418 cc3c
000001d0: 6b91 2b3d f4ca 68bc e3a3 a6bc 2965 b6bd
000001e0: 3bea 2e3d 808c 163d 1269 f7bc 4ef6 773d
000001f0: 9970 43bc 56b1 b83c 82ef 223d 3b68 143d

sagpool.gnn.lin_root.weight f4 [1, 128]
-0.062833585 0.071487576 -0.0050570033 0.07748076 0.011758759 -0.005212263 -0.009382842 -0.08773295
0.02116602 0.06564647 0.025691207 -0.075418666 -0.0099012405 -0.018542586 0.07036346 -0.0031258527
-0.025814135 -0.079823434 0.0186364 -0.07659953 -0.05642703 0.03382846 -0.06005383 -0.03401641
0.0449042 0.07211653 0.057877913 -0.011166183 0.012140198 0.07646887 -0.020156367 0.08474567
-0.0034051146 0.08388265 -0.060061634 0.016203402 -0.033306498 -0.07995163 -0.054740414 0.011644746
-0.01317867 -0.047623634 0.07578255 -0.05391224 0.009786921 0.055619225 0.042862512 -0.081080474
0.055097546 0.023743253 -0.080132484 -0.053263586 0.02185229 0.039611444 -0.07886604 -0.06293921
0.013371876 4.9256738e-05 0.025783801 0.038086046 -0.019004814 -0.04436312 0.079651766 0.07459785
-0.07684734 -0.010388522 0.05474498 -0.063555054 0.056929894 -0.005137703 -0.07960326 0.022528546
0.0491031 0.02251129 -0.07908776 0.05463922 -0.079088055 -0.07321096 -0.029995399 -0.0019807164
0.025207743 0.047767285 -0.0877541 0.03557064 0.038598724 -0.06606122 -0.07272498 0.07149485
0.028772857 -0.08364499 -0.06542203 0.03492351 -0.0035513812 -0.017896121 -0.0025620428 -0.028501237
0.06312532 -0.022405429 -0.059884097 0.061109178 0.020502072 -0.08039843 -0.08579661 0.02278645
-0.06751835 -0.026442949 0.06825202 0.08700943 -0.051664516 -0.0072373017 0.030690946 0.06344031
0.021354293 0.08707425 -0.032916583 -0.0067170365 0.08045966 -0.043311205 -0.09536481 0.040630583
-0.062933855 -0.04786193 0.0746929 0.07136487 0.04695831 0.06392342 -0.087075606 0.021960963
00000000: e5ae 80bd 1468 923d 38b5 a5bb 3cae 9e3d
00000010: cfa7 403c a2cb aabb 7eba 19bc 55ad b3bd
00000020: 5c64 ad3c a871 863d 5e76 d23c 1a75 9abd
00000030: d038 22bc 9fe6 97bc b81a 903d 1bdb 4cbb
00000040: 2a78 d3bc 787a a3bd 5dab 983c 37e0 9cbd
00000050: 0820 67bd b68f 0a3d 01fb 75bd cb54 0bbd
00000060: 77ed 373d d5b1 933d 6411 6d3d 5ef2 36bc
00000070: aee7 463c b69b 9c3d f71e a5bc 238f ad3d
00000080: 5828 5fbb abca ab3d 3003 76bd ffbc 843c
00000090: 656c 08bd aebd a3bd 7c37 60bd 9bc9 3e3c
000000a0: 59eb 57bc 0011 43bd e233 9b3d 15d3 5cbd
000000b0: 5259 203c fcd0 633d 9a90 2f3d 850d a6bd
000000c0: f7ad 613d 3681 c23c 801c a4bd eb2a 5abd
000000d0: 9303 b33c 9c3f 223d 8584 a1bd 46e6 80bd
000000e0: b715 5b3c 0599 4e38 8d38 d33c 1d00 1c3d
000000f0: fcaf 9bbc 1ab6 35bd 7720 a33d c2c6 983d
00000100: 2362 9dbd 9f34 2abc 463c 603d 2729 82bd
00000110: 522f 693d 2d5a a8bb 0907 a3bd c98d b83c
00000120: 5520 493d 9969 b83c c3f8 a1bd 60cd 5f3d
00000130: ebf8 a1bd a1ef 95bd e9b8 f5bc e8ce 01bb
00000140: 7880 ce3c a1a7 433d 6cb8 b3bd 85b2 113d
00000150: b219 1e3d 1b4b 87bd d6f0 94bd e46b 923d
00000160: 0eb5 eb3c 114e abbd fcfb 85bd f40b 0f3d
00000170: 4abe 68bb e39a 92bc f2e7 27bb 6d7b e9bc
00000180: d947 813d 978b b7bc 0749 75bd 9e4d 7a3d
00000190: f6f3 a73c efa7 a4bd 22b6 afbd a6aa ba3c
000001a0: 1047 8abd e29e d8bc b7c7 8b3d 0032 b23d
000001b0: 2c9e 53bd e326 edbb 946b fb3c feec 813d
000001c0: 33ef ae3c fc53 b23d 8ad3 06bd 961a dcbb
000001d0: 09c8 a43d 1767 31bd a04e c3bd 416c 263d
000001e0: 77e3 80bd df0a 44bd 97f8 983d bf27 923d
000001f0: 5b57 403d 48ea 823d b254 b2bd 7ae7 b33c

lin.weight f4 [64, 128]
0.0706135 -0.08714893 -0.037483197 -0.055000182 -0.06054341 -0.063121185 -0.051084507 0.012238749
0.04002087 -0.0617172 0.069158144 0.06199055 -0.029779296 -0.037050836 -0.06475337 0.08357854
0.04145025 -0.031346977 0.035574935 -0.07594001 -0.053170055 0.05887362 -0.028476762 0.09604869
-0.0063679935 -0.08177837 0.010676064 -0.015654255 0.057842184 -0.02094762 -0.021880394 0.022721965
0.08433229 0.083939075 -0.05179472 -0.026833052 -0.049111478 -0.017964663 0.003613706 -0.028330216
0.031322367 0.055477165 0.0038588624 -0.015819369 0.050704706 -0.0041645374 -0.013125751 0.02221794
-0.036008533 -0.033215642 0.032333184 -0.02365858 -0.068647996 -0.09415503 0.10060131 -0.06571407
-0.0048407847 -0.035287417 -0.079803705 0.034273736 0.08974673 0.009255244 -0.027282374 -0.05383787
-0.039995015 0.03381566 0.00397626 -0.02885378 -0.056529876 0.024625892 0.08007699 0.06957776
0.04338807 0.007972609 -0.08188138 -0.063982375 0.06778214 0.042365633 -0.0033880053 -0.0335949
0.03314324 -0.061164364 -0.048456337 -0.056617286 -0.03661415 0.020053105 -0.04906906 -0.04540665
-0.0028288488 -0.09996607 0.08454538 -0.0050350595 0.033519123 -0.011683535 -0.06122233 -0.07563324
0.08211 0.03998397 0.03701232 -0.027859554 0.07480608 0.07999201 -0.0053202896 -0.04956949
-0.06794469 -0.024924494 -0.013658257 0.07993808 -0.054127175 -0.019014027 0.098214574 0.09255406
0.061813716 0.044531666 -0.032754518 0.04561333 -0.0003465139 -0.0059247646 -0.043749567 -0.0042113513
0.07270816 -0.05443362 0.070777334 0.026367512 0.03598307 -0.049119823 0.046734966 -0.0083344085
0.024315076 0.03909511 0.069948755 -0.05887245 -0.07322362 0.075835586 0.03669011 0.04797405
0.005657668 0.030282814 -0.053461324 -0.06812252 0.025991336 0.036698017 -0.036291003 0.0528119
0.063943855 -0.026191149 -0.036035452 0.05321213 0.03210474 0.054554895 0.07702832 0.0096104955
0.07013625 0.045994774 0.01750106 -0.04628237 0.05724506 -0.051973782 -0.056028772 0.011114636
-0.011256015 -0.05103814 -0.026019063 0.06269208 -0.078938276 0.009347512 0.0020371303 0.010050024
0.008690914 0.048381567 0.040454123 -0.01513193 0.058520798 0.0009261999 0.014697083 0.019794928
-0.080806166 -0.08608243 -0.03397317 0.03055524 0.012890946 0.022723844 -0.02669767 0.0067138574
-0.075139746 0.041262276 -0.023667369 0.083842374 -0.022307385 -0.079680465 0.013205523 0.045237217
0.026171077 0.021942506 0.07709689 0.038460303 0.08730355 -0.06522917 0.07496638 -0.059957128
-0.038910035 -0.07419076 0.061403338 -0.068498574 -0.029946677 -0.032163262 0.047418684 -0.0032663129
-0.014917111 0.034093916 -0.04110045 -0.044530693 -0.0331287 -0.047850747 0.022789985 -0.057704464
0.047132146 0.088151366 0.0005962523 -0.04078788 -0.0033636235 -0.037946526 -0.0794493 -0.047726575
-0.06347932 0.0055100154 -0.049736325 0.017500797 -0.07934398 -0.04693436 -0.080248505 0.0339295
-0.046706192 0.08944188 -0.00905325 -0.042006526 -0.0088736275 0.08752037 -0.08351584 -0.039050985
0.084879234 -0.005411857 -0.009460969 0.026476288 0.045118183 -0.03187462 0.07664596 0.019058255
0.00062529906 0.0024424125 -0.0064550694 -0.0018308868 -0.043239996 -0.017233843 -0.045376796 -0.008342782
00000000: d09d 903d 237b b2bd fb87 19bd df47 61bd
00000010: 5efc 77bd ae45 81bd fd3d 51bd 0985 483c
00000020: ecec 233d 2dcb 7cbd c9a2 8d3d cee9 7d3d
00000030: b6f3 f3bc 9ec2 17bd 6a9d 84bd 3a2b ab3d
00000040: bdc7 293d b065 00bd 06b7 113d 7086 9bbd
00000050: d8c8 59bd 7725 713d 1948 e9bc 2db5 c43d
00000060: 9aaa d0bb 6b7b a7bd a8ea 2e3c 5a3d 80bc
00000070: edeb 6c3d 589a abbc 833e b3bc 6a23 ba3c
00000080: 68b6 ac3d 40e8 ab3d b326 54bd fdd0 dbbc
00000090: 1e29 49bd a12a 93bc edd3 6c3b c514 e8bc
000000a0: e24b 003d 063c 633d f8e4 7c3b 9f97 81bc
000000b0: bdaf 4f3d ac76 88bb 640d 57bc 6602 b63c
000000c0: af7d 13bd 200d 08bd cd6f 043d a3cf c1bc
000000d0: 5297 8cbd 5ad4 c0bd 0f08 ce3d 1995 86bd
000000e0: 729f 9ebb 8a89 10bd 2070 a3bd 9e62 0c3d
000000f0: 22cd b73d 4fa3 173c 497f dfbc 1985 5cbd
00000100: d0d1 23bd 4a82 0a3d 494b 823b c35e ecbc
00000110: df8b 67bd 3dbc c93c 68ff a33d c97e 8e3d
00000120: b0b7 313d 8c9f 023c 6db1 a7bd 3109 83bd
00000130: 5dd1 8a3d 9687 2d3d 4c09 5ebb ce9a 09bd
00000140: 35c1 073d 7c87 7abd 277a 46bd 87e7 67bd
00000150: b8f8 15bd 6946 a43c a3fc 48bd 53fc 39bd
00000160: 3564 39bb 03bb ccbd 2126 ad3d 24fd a4bb
00000170: 594b 093d 4c6c 3fbc 44c4 7abd 9ae5 9abd
00000180: 4a29 a83d 3bc6 233d 3b9a 173d b839 e4bc
00000190: ee33 993d dad2 a33d d355 aebb 6109 4bbd
000001a0: 9626 8bbd 742e ccbc e2c6 5fbc 93b6 a33d
000001b0: 75b4 5dbd 4ec3 9bbc b924 c93d fc8c bd3d
000001c0: 6130 7d3d d666 363d 9a29 06bd 0bd5 3a3d
000001d0: 4fac b5b9 8724 c2bb bf32 33bd 60ff 89bb
000001e0: 04e8 943d caf5 5ebd b5f3 903d ae00 d83c
000001f0: fc62 133d de31 49bd 2a6d 3f3d 0b8d 08bc
00000200: 6930 c73c 3222 203d 4b41 8f3d 3d24 71bd
00000210: 44f6 95bd b04f 9b3d 5e48 163d 7080 443d
00000220: f663 b93b aa13 f83c 43fa 5abd d283 8bbd
00000230: c8eb d43c a950 163d e0a5 14bd 4a51 583d
00000240: fff4 823d d28e d6bc e999 13bd f6f4 593d
00000250: 4380 033d f474 5f3d 06c1 9d3d 5775 1d3c
00000260: 98a3 8f3d 0465 3c3d 625e 8f3c 9592 3dbd
00000270: cc79 6a3d 76e2 54bd 6d7e 65bd 2a1a 363c
00000280: 266b 38bc 5e0d 51bd ee25 d5bc b564 803d
00000290: 64aa a1bd 4f26 193c 6081 053b dba8 243c
000002a0: 5664 0e3c c02b 463d 39b3 253d eaeb 77bc
000002b0: 81b3 6f3d 39cc 723a 09cc 703c f928 a23c
000002c0: b47d a5bd fc4b b0bd 7327 0bbd fc4e fa3c
000002d0: 8c34 533c 5b27 ba3c 12b5 dabc ebff db3b
000002e0: dee2 99bd a202 293d 12e2 c1bc 8db5 ab3d
000002f0: fabd b6bc 832f a3bd fa5b 583c a94a 393d
00000300: ba64 d63c c5c0 b33c f9e4 9d3d 8d88 1d3d
00000310: 34cc b23d df96 85bd f987 993d 9b95 75bd
00000320: 2160 1fbd 53f1 97bd 1182 7b3d fb48 8cbd
00000330: bc52 f5bc a0bd 03bd 183a 423d a30f 56bb
00000340: e666 74bc 10a6 0b3d f258 28bd d165 36bd
00000350: f6b1 07bd 25ff 43bd 10b2 ba3c 845b 6cbd
00000360: a30d 413d b488 b43d d14d 1c3a 3111 27bd
00000370: 3d70 5cbb d16d 1bbd 51b6 a2bd f17c 43bd
00000380: 7201 82bd 5c8d b43b 51b8 4bbd d55d 8f3c
00000390: 197f a2bd 3e3e 40bd 5459 a4bd a9f9 0a3d
000003a0: fe4e 3fbd 4e2d b73d 1554 14bc 090f 2cbd
000003b0: b162 11bc e13d b33d 5a0a abbd edf3 1fbd
000003c0: 2ad5 ad3d f255 b1bb 2e02 1bbc cde4 d83c
000003d0: d8cd 383d f68e 02bd 8ff8 9c3d 0f20 9c3c
000003e0: 1ceb 233a e210 203b 0c85 d3bb 5efa efba
000003f0: 6c1c 31bd fd2d 8dbc 05dd 39bd 2ab0 08bc

lin.bias f4 [64]
-0.008105981 0.06402186 0.016162371 0.059472255 0.030022558 0.045108203 -0.0005300558 -0.018393615
0.04751023 -0.06178128 -0.07200579 -0.05201524 0.029111845 0.061368596 -0.008000385 0.030565144
0.029259302 0.03177612 0.04846575 -0.025861153 0.084610015 0.08626397 0.03119262 0.056264963
-0.06125282 0.052855447 -0.043024976 -0.02451316 -0.051435612 0.045285754 -0.015855484 -0.06050094
-0.03227972 -0.08376608 -0.052661534 0.068713956 -0.071770675 0.0070248665 0.039440047 -0.07987192
0.029072907 0.07908055 -0.04198667 0.04492071 -0.083741575 -0.053889535 0.07762311 0.07076986
-0.05666117 0.0771081 -0.021899633 -0.015153479 0.06946186 -0.072059914 0.03144686 0.07895501
0.08658705 0.018353883 0.046552993 -0.018117124 0.0064407852 -0.026095279 0.014656528 -0.03350695
00000000: f3ce 04bc e51d 833d f366 843c 2e99 733d
00000010: def1 f53c 61c3 383d 71f3 0aba 35ae 96bc
00000020: 169a 423d 5e0e 7dbd c677 93bd ef0d 55bd
00000030: f77b ee3c a35d 7b3d 0c14 03bc c163 fa3c
00000040: 34b1 ef3c ad27 023d 0684 463d c5da d3bc
00000050: 0448 ad3d 2aab b03d aa87 ff3c 1776 663d
00000060: 3de4 7abd f47e 583d f53a 30bd d3cf c8bc
00000070: 26ae 52bd 8e7d 393d 5ce3 81bc d5cf 77bd
00000080: bd37 04bd 8d8d abbd 9fb3 57bd e7b9 8c3d
00000090: 81fc 92bd da30 e63b e38b 213d e493 a3bd
000000a0: 4e2a ee3c fcf4 a13d 37fa 2bbd c7fe 373d
000000b0: b480 abbd 46bb 5cbd ddf8 9e3d caef 903d
000000c0: 8b15 68bd daea 9d3d dc66 b3bc 4c46 78bc
000000d0: 0542 8e3d 2694 93bd 6cce 003d 2ab3 a13d
000000e0: 8d54 b13d e25a 963c 5aae 3e3d 5d6a 94bc
000000f0: 390d d33b c4c5 d5bc ef21 703c 953e 09bd

fc.weight f4 [1, 64]
-0.041218065 0.1224059 -0.10945638 -0.06697339 0.12939915 0.07657134 0.10294093 0.067091525
-0.07127778 0.06762539 0.0031839164 -0.013167939 -0.08062528 -0.076378055 0.10615182 0.070389055
-0.06028186 -0.083151996 0.018882265 0.03363079 -0.027243719 0.13668118 -0.016673852 0.063529596
0.13595107 0.10420392 -0.10306322 -0.055500392 0.06413472 0.04176202 -0.018486649 0.053965837
-0.083325855 -0.029533649 -0.12981667 -0.028822267 -0.10024083 -0.022444798 -0.109903336 0.0882773
-0.108787805 -0.069716744 -0.015989687 0.13438922 -0.029804725 0.005071265 0.1270507 -0.11492798
0.029266002 0.13146578 0.09109799 -0.081688985 0.011446361 0.06769744 0.02524652 -0.0776107
0.064415775 0.08499976 0.1369331 -0.0873199 0.077583715 -0.09129538 -0.08479251 -0.074302636
00000000: 46d4 28bd f2af fa3d ab2a e0bd 5829 89bd
00000010: 3681 043e 6fd1 9c3d b2d2 d23d 4867 893d
00000020: 16fa 91bd 2e7f 8a3d 41a9 503b 57be 57bc
00000030: de1e a5bd 196c 9cbd 2066 d93d 2328 903d
00000040: 1dea 76bd 984b aabd fbae 9a3c 70c0 093d
00000050: 382e dfbc 27f6 0b3e 9a97 88bc ce1b 823d
00000060: c236 0b3e dd68 d53d cf12 d3bd 6154 63bd
00000070: 1059 833d a70e 2b3d 5071 97bc 480b 5d3d
00000080: bfa6 aabd 8df0 f1bc a9ee 04be ad1c ecbc
00000090: 104b cdbd 27de b7bc 0015 e1bd bbca b43d
000000a0: 24cc debd a7c7 8ebd cefc 82bc 549d 093e
000000b0: 0a29 f4bc db2c a63b 9419 023e 5c5f ebbd
000000c0: 41bf ef3c f79e 063e 9591 ba3d 8e4c a7bd
000000d0: 8589 3b3c f5a4 8a3d cad1 ce3c 5cf2 9ebd
000000e0: 6bec 833d 5b14 ae3d 3138 0c3e c7d4 b2bd
000000f0: 36e4 9e3d 12f9 babd b2a7 adbd fb2b 98bd

gcn_batch_norm.weight f4 [128]
1.0 1.0 1.0 1.0 1.0 1.0 1.0 1.0
1.0 1.0 1.0 1.0 1.0 1.0 1.0 1.0
1.0 1.0 1.0 1.0 1.0 1.0 1.0 1.0
1.0 1.0 1.0 1.0 1.0 1.0 1.0 1.0
1.0 1.0 1.0 1.0 1.0 1.0 1.0 1.0
1.0 1.0 1.0 1.0 1.0 1.0 1.0 1.0
1.0 1.0 1.0 1.0 1.0 1.0 1.0 1.0
1.0 1.0 1.0 1.0 1.0 1.0 1.0 1.0
1.0 1.0 1.0 1.0 1.0 1.0 1.0 1.0
1.0 1.0 1.0 1.0 1.0 1.0 1.0 1.0
1.0 1.0 1.0 1.0 1.0 1.0 1.0 1.0
1.0 1.0 1.0 1.0 1.0 1.0 1.0 1.0
1.0 1.0 1.0 1.0 1.0 1.0 1.0 1.0
1.0 1.0 1.0 1.0 1.0 1.0 1.0 1.0
1.0 1.0 1.0 1.0 1.0 1.0 1.0 1.0
1.0 1.0 1.0 1.0 1.0 1.0 1.0 1.0
00000000: 0000 803f 0000 803f 0000 803f 0000 803f
00000010: 0000 803f 0000 803f 0000 803f 0000 803f
00000020: 0000 803f 0000 803f 0000 803f 0000 803f
00000030: 0000 803f 0000 803f 0000 803f 0000 803f
00000040: 0000 803f 0000 803f 0000 803f 0000 803f
00000050: 0000 803f 0000 803f 0000 803f 0000 803f
00000060: 0000 803f 0000 803f 0000 803f 0000 803f
00000070: 0000 803f 0000 803f 0000 803f 0000 803f
00000080: 0000 803f 0000 803f 0000 803f 0000 803f
00000090: 0000 803f 0000 803f 0000 803f 0000 803f
000000a0: 0000 803f 0000 803f 0000 803f 0000 803f
000000b0: 0000 803f 0000 803f 0000 803f 0000 803f
000000c0: 0000 803f 0000 803f 0000 803f 0000 803f
000000d0: 0000 803f 0000 803f 0000 803f 0000 803f
000000e0: 0000 803f 0000 803f 0000 803f 0000 803f
000000f0: 0000 803f 0000 803f 0000 803f 0000 803f
00000100: 0000 803f 0000 803f 0000 803f 0000 803f
00000110: 0000 803f 0000 803f 0000 803f 0000 803f
00000120: 0000 803f 0000 803f 0000 803f 0000 803f
00000130: 0000 803f 0000 803f 0000 803f 0000 803f
00000140: 0000 803f 0000 803f 0000 803f 0000 803f
00000150: 0000 803f 0000 803f 0000 803f 0000 803f
00000160: 0000 803f 0000 803f 0000 803f 0000 803f
00000170: 0000 803f 0000 803f 0000 803f 0000 803f
00000180: 0000 803f 0000 803f 0000 803f 0000 803f
00000190: 0000 803f 0000 803f 0000 803f 0000 803f
000001a0: 0000 803f 0000 803f 0000 803f 0000 803f
000001b0: 0000 803f 0000 803f 0000 803f 0000 803f
000001c0: 0000 803f 0000 803f 0000 803f 0000 803f
000001d0: 0000 803f 0000 803f 0000 803f 0000 803f
000001e0: 0000 803f 0000 803f 0000 803f 0000 803f
000001f0: 0000 803f 0000 803f 0000 803f 0000 803f
