All_Benchmarking/P00648/Results/fold_3/best_model.pth (torch, 192098 bytes, 32 tensors)

gat1.att_src f4 [1, 4, 32]
00000000: dae8 c0bd 43d7 5abc a978 463d 606a 40bc
00000010: 6dde fa3d f826 c73e d0dc 613e dbde 85bd
00000020: 9e6a c33e 9408 24be aaf1 42be 029f 9abe
00000030: 3ad6 9c3e 954c c1bd 0847 2b3d fba4 833e
00000040: 488c 893e e113 ed3c cd36 3e3e 047f a53e
00000050: 61eb a8be 3358 c7be fe48 833e ddc2 933b
00000060: a345 16be dbcf afbe f944 6bbe cd69 a2be
00000070: 6e97 8cbe 531e 63be 555b 4ebe 71c3 633e
00000080: 9152 65be f7b9 203e 7c69 ae3d aa9e 8b3d
00000090: 21dc 633c 9cef c63e 7dd0 bcbe 9400 a73e
000000a0: b15a 56be f841 9e3e d074 4d3e 58ce a53e
000000b0: a417 9a3e 382f b0be b427 703d 52b1 02be
000000c0: e1ac 29be dafa 64be 85ed d5bc 9c8c 11be
000000d0: 7c04 88be cf52 0d3e 849c 633e c4fc 3b3d
000000e0: c60d b03e 6ea1 a1be 2448 82be ac91 9ebd
000000f0: 4170 de3d c677 1d3e f38d 943d 3687 adbe
00000100: d1a0 a53e db5c 9fbe f9e9 17be 5535 8dbe
00000110: 148e 23bd a78f 933c 2231 973c 1ede 6dbe
00000120: d331 d73d 32a8 893d 4a34 b63e 3f52 613d
00000130: 5cab 1dbd c241 08be ec92 2fbe 6a4f 713e
00000140: 0225 d9bd 655b 673d 005f 953e 5387 813e
00000150: b14a 4e3c cb10 b93e 7cf9 193e d7fc b53e
00000160: 970d 383d 7a96 22bd 2c4d 9fbd 3513 4dbe
00000170: 330b 713e fdff aa3e 5239 663e 9df3 d2bd
00000180: 8c6e 9abe d665 c6be 4230 f9bd c521 813d
00000190: b95a a43e 28b7 d2be ecc9 fcb9 f4e4 76bd
000001a0: b30a cf3e bf73 18be 3141 1fbe a08e ea3d
000001b0: cab0 04be cde4 943e ca40 983e 48b7 5ebe
000001c0: bcb9 863e f669 903e 1117 69be 0f14 ec3d
000001d0: 769a 7b3e 2368 6f3d 62f6 b53e aed8 983e
000001e0: 9700 a63e b779 cabe 9b1d 033e d22b 8d3e
000001f0: e049 71bd 6fd5 72be 1ecf 04be 1810 c8be
-0.09419413 -0.013356986 0.048454914 -0.011744112 0.122494556 0.38896918 0.2205689 -0.06536647
0.3816728 -0.16018897 -0.190375 -0.30199438 0.30632192 -0.09438435 0.041815788 0.25711808
0.2686484 0.028940143 0.18575592 0.32323468 -0.3299208 -0.38934478 0.25641626 0.0045093135
-0.14675002 -0.3433827 -0.2297553 -0.31721345 -0.27459282 -0.22179537 -0.20152028 0.22242524
-0.22394778 0.1569594 0.08516213 0.06817372 0.013907463 0.38854682 -0.36877814 0.3261763
-0.20933034 0.30909705 0.20064092 0.3238399 0.3009616 -0.34411025 0.058631614 -0.12762955
-0.16569854 -0.22361317 -0.026114235 -0.14213794 -0.2656592 0.1380112 0.22227675 0.045895353
0.34385508 -0.31568474 -0.25445664 -0.077426285 0.108612545 0.15377721 0.07253637 -0.3389222
0.32349256 -0.3112553 -0.14835347 -0.27579752 -0.039930418 0.018012835 0.018456046 -0.23229262
0.1050755 0.06721534 0.35586768 0.055010077 -0.0384935 -0.13306335 -0.1714589 0.2356545
-0.10602762 0.056483645 0.29174042 0.25298557 0.01259105 0.36145625 0.15036577 0.35544464
0.044934835 -0.039694287 -0.07778391 -0.20026858 0.23539428 0.3339843 0.22482803 -0.10300372
-0.30162466 -0.3874957 -0.121674076 0.06305269 0.32100466 -0.41155362 -0.0004821563 -0.06027694
0.4043785 -0.14887904 -0.15552212 0.11452985 -0.12958065 0.2908081 0.2973693 -0.21749604
0.2631358 0.28205842 -0.22762705 0.115272634 0.24570641 0.058448922 0.35539538 0.29852813
0.32422325 -0.39545986 0.12804262 0.27572495 -0.058908343 -0.23714231 -0.12969634 -0.3907478

gat1.att_dst f4 [1, 4, 32]
00000000: 331b 6bbe d570 e53d e786 93bd 8811 27be
00000010: 0b5d 95be 55a5 c13e 9fe3 4abe 3155 d03e
00000020: b47c 3ebe d878 91be 390c 37be 2542 6c3d
00000030: 3548 b83e 5f59 1cbe 7a3a 0bbe cc68 be3d
00000040: 0475 513e cb46 bb3e e333 7ebe b6f4 b9be
00000050: 31f7 8a3e c05a 973e e961 bd3e d126 b1bd
00000060: c6f0 843e 1ca7 ccbe c3a5 2abe 10f1 07be
00000070: de5b cc3e bf5e fa3d a620 cdbd c1de be3e
00000080: 58f5 c2be 8c4e b93c dbbb ce3d e3ad 203e
00000090: d64d cbbe 15c7 6f3e fea3 97be d374 e53d
000000a0: 702a 39bd 5c6f 243e 3af8 bfbc 1834 c63d
000000b0: c861 61be cf9c 6bbe 4dd0 74bc 2697 b13e
000000c0: d76d 0e3d 537a 5c3e 3af9 973e e51c 10bd
000000d0: 54c0 943e 16fa f7bc eb69 4ebe 7132 66bd
000000e0: 6f46 b13e 7ba5 b13e 9fa8 1a3e e1dc ecbd
000000f0: 4ef5 cfbe b18d 803e 5034 63be 1046 03be
00000100: 1db1 93be 7de4 c0be c7a8 5c3e 9e0c 61be
00000110: fc9f 0fbd 258e 29be 300a 373b 40b4 4dbe
00000120: c0db 263e f52b 92be 9c43 1c3e 1be2 8d3e
00000130: 9424 39bd b7c9 a0be 2edd 963e d5c2 4c3e
00000140: d3a1 b93e a487 90be 5aee b73e 72e3 b43e
00000150: a9b6 33be ec49 e8bc b3c3 5dbe 402a d0bd
00000160: 69ee de3d 9727 b7be c371 3e3e 5659 883e
00000170: 095d bdbe 4f6c 55be 36f9 1c3e d709 9bbe
00000180: 763a 463e 7a15 9d3e bf38 6c3d c997 b0be
00000190: c8c7 9d3e 8d01 1fbe d3c9 6b3d 0a05 a23e
000001a0: c923 69be 5217 703e 25df 403e c925 613e
000001b0: 10bb e93d 97cd 363e 6599 483d 0c5a bb3e
000001c0: 622b 373e 89a9 af3d 4f6d 803e 90f1 69be
000001d0: db88 7fbe 8c07 c33e c12b 16be cd21 a8be
000001e0: 3358 bf3e feee f83d 5aea 99be e987 6cbd
000001f0: a0f0 22be ef82 5cbe 2cbf ae3e faea a0be
-0.22959594 0.112031616 -0.07203465 -0.16315281 -0.2917255 0.3782145 -0.19813393 0.40689996
-0.18602258 -0.2841251 -0.17875756 0.057680268 0.3599259 -0.15268467 -0.13596526 0.09297332
0.20454794 0.36577448 -0.2482448 -0.36319512 0.27141717 0.29561424 0.36988762 -0.08649982
0.25964946 -0.39971244 -0.16664796 -0.13275552 0.3991384 0.12225103 -0.10015993 0.37279323
-0.38077807 0.022620462 0.10094424 0.15691333 -0.39707822 0.23415788 -0.29617304 0.11203923
-0.045206487 0.16058105 -0.023433793 0.09677905 -0.22009957 -0.23009036 -0.014942241 0.3468563
0.03477272 0.21531038 0.29682332 -0.035183806 0.29052985 -0.030270617 -0.20157592 -0.05620045
0.3462405 0.34696564 0.15103386 -0.11565567 -0.4061684 0.25108102 -0.22187924 -0.12819695
-0.28846064 -0.37674323 0.21548758 -0.2197747 -0.035064682 -0.1655813 0.0027929656 -0.20088291
0.16294765 -0.28549162 0.15260166 0.27711567 -0.0452009 -0.31403896 0.29465622 0.19996198
0.36256275 -0.28228486 0.35924035 0.35329777 -0.17550148 -0.028355561 -0.21656685 -0.101643085
0.10885317 -0.35772392 0.18598084 0.26630658 -0.36985043 -0.20842098 0.15329441 -0.30280945
0.19358239 0.30680448 0.057671305 -0.34490803 0.30816483 -0.15527935 0.05756552 0.3164447
-0.22767557 0.23446396 0.18835123 0.2198707 0.114126325 0.17851864 0.048974413 0.36592138
0.17887643 0.08577258 0.25083396 -0.22846055 -0.2495455 0.38091695 -0.14665128 -0.32838288
0.37371978 0.12154959 -0.3006161 -0.0577468 -0.15912104 -0.21534322 0.34130228 -0.31429273

gat1.bias f4 [128]
00000000: 6889 beb9 8692 303a 0df1 0db9 21fc 7c39
00000010: 505e 2b39 b845 7239 e422 beb7 d57a 183a
00000020: 2bdc 44ba f34c 993a 7c05 5c3a f437 07ba
00000030: 5351 42b9 a497 8b36 dcac 28b9 19a7 3ab9
00000040: 3b0f c0b8 1e4c 4639 0a65 5e39 8af9 8a39
00000050: 139c 41ba adad 80b9 3a76 8bba 7205 51ba
00000060: 68f6 d5b9 4860 06ba 4764 89b9 983a adb7
00000070: f109 21ba a882 d7b9 ddea 183a 0c38 adba
00000080: 8448 e839 7cd9 43b9 0185 aa38 bb6e d939
00000090: a015 1639 58ee 82b9 4631 8db9 8d0c 52b9
000000a0: 04c0 a9ba 25da bfb7 dbfe 4ab9 55b8 9ab9
000000b0: 2a11 b839 4286 07b8 5cc9 45b9 daf4 f638
000000c0: 9b88 3fba 854e 5f39 d7a0 0d38 4da8 fb38
000000d0: a056 933a 9a75 afb9 f20e 803a 5821 85b9
000000e0: 7724 e538 f7f7 cc39 e97c d1b9 df86 0eba
000000f0: 3724 94b9 369f 54ba 4420 343a c13f d139
00000100: 2f6c 62b9 4179 66b9 f156 6a38 c379 0a3a
00000110: 8524 a7b9 4f6f 33b9 9ebe 813a f030 b8ba
00000120: 5ff0 9c39 b541 8738 d0b4 df38 3949 743a
00000130: 8291 97ba fc03 003a 1fad 07ba 64f1 ec3a
00000140: 4544 513a a9f4 99ba 9585 3d39 a86b 2537
00000150: b01b b538 5d34 0fb9 8c5c 8039 e93a 41ba
00000160: 33a5 b939 9989 5bb9 8fc6 f8b9 2a60 d7b9
00000170: 375a 6fb9 235a 9ab9 86b8 54b8 654c 1ab9
00000180: d967 84b7 0857 e338 fcfc 4d39 5fb4 a5b9
00000190: 4800 60ba d83a c139 ac9d 2ab9 6a1b bb39
000001a0: e000 2439 4d40 0a39 6949 76ba 5352 51b9
000001b0: ffdf 7fb9 09c3 5cb9 00f5 45ba 1065 15b9
000001c0: a895 8a38 ce9b 8c39 4c44 e2b9 0598 f2b8
000001d0: 616d 6eb9 01a1 b538 7c32 c6b9 bf47 4839
000001e0: 04aa 37ba 0d28 6f39 c764 bcb8 edaa f738
000001f0: 1764 7d3a c5dc 7439 d5d4 30b9 3baf 54b9
-0.00036342 0.0006735701 -0.00013536606 0.00024126518 0.00016342965 0.0002310489 -2.2666012e-05 0.0005816643
-0.0007509614 0.0011695906 0.0008393151 -0.0005158179 -0.00018531577 4.160176e-06 -0.00016086124 -0.00017800591
-9.15811e-05 0.00018911107 0.0002120921 0.00026507332 -0.00073856226 -0.0002454346 -0.0010640093 -0.00079735287
-0.00040810113 -0.00051260414 -0.0002620539 -2.0650492e-05 -0.0006143144 -0.00041105342 0.0005833337 -0.0013215556
0.00044304517 -0.00018677668 8.1310056e-05 0.00041471966 0.0001431317 -0.00024973112 -0.00026930327 -0.00020031836
-0.0012950902 -2.2870556e-05 -0.00019359162 -0.00029510507 0.00035108003 -3.2311546e-05 -0.00018862396 0.00011775801
-0.00073064276 0.00021296188 3.3766813e-05 0.00011999961 0.0011241026 -0.0003346622 0.0009770079 -0.0002539258
0.00010926363 0.0003909466 -0.00039956652 -0.00054369675 -0.00028255742 -0.00081108825 0.0006871263 0.00039911087
-0.00021593341 -0.0002197968 5.5870918e-05 0.0005282426 -0.0003187993 -0.00017112236 0.0009898727 -0.001405267
0.0002993373 6.4495405e-05 0.000106671476 0.00093187724 -0.001156375 0.0004883406 -0.00051756384 0.0018077311
0.000798289 -0.0011745888 0.00018074208 9.859832e-06 8.63591e-05 -0.0001365705 0.00024483015 -0.0007371144
0.00035409033 -0.00020936727 -0.00047450184 -0.00041079643 -0.00022826424 -0.00029440326 -5.071659e-05 -0.00014715044
-1.5783984e-05 0.00010840414 0.00019644568 -0.0003160564 -0.0008544964 0.0003685567 -0.00016271201 0.00035687845
0.00015640585 0.0001318466 -0.0009395094 -0.00019962461 -0.0002440214 -0.00021053491 -0.00075514615 -0.00014247396
6.6082284e-05 0.00026818964 -0.00043156964 -0.00011567775 -0.00022738196 8.660742e-05 -0.00037803117 0.00019100214
-0.00070062303 0.00022807736 -8.98331e-05 0.00011809715 0.00096660986 0.00023351896 -0.00016863954 -0.00020283174

gat1.lin.weight f4 [128, 5]
00000000: f8f7 1b3e 63ee ce3d 20cd 04be 4c48 4fbe
00000010: acf7 4abe a019 bf3d 26a2 8fbd 5f48 263e
00000020: 43a2 85bd 9fdd d4bd 7789 56bd cdb8 503e
00000030: fee6 94bd 272c 2f3c 895a 0bbc 390d 54be
00000040: 51d0 56bc f580 8c3d a4c4 13bd c269 e3bd
00000050: 0d81 08bc 6336 073e b933 09be 9ca7 e8bd
00000060: 5879 e63d 62d3 24be 3509 1dbe 3fb3 f5bd
00000070: 0c8a 2ebd 7ce7 633e 4c87 1b3e dd1a 083e
00000080: 3ade a03d ed79 803d d934 65bd 4265 f4bb
00000090: c9c3 dbbb 2923 7dbc 787f a6bd e81a 1cbd
000000a0: ae40 5c3c f834 8d3d be52 8bbd 29a0 61bd
000000b0: acc3 0b3e 1e84 70bd 27e6 1cbd 4159 25be
000000c0: 90ba 22be 0477 7bbd de5f 253e 4bab 053e
000000d0: 742f 0fbe 5a70 b93d e254 47be f467 aabd
000000e0: d7b2 eabd 0498 20be e904 ed3d ecff 0fbe
000000f0: 0061 28be 02a7 0a3e 0615 1c3e b939 0e3e
00000100: 06b8 57be a26d 3ebd ccf4 323e a02d f03d
00000110: 3633 cf3d 8516 18be 6ce8 3dbe 572a 243d
00000120: a0a0 233d 3cb1 a33d 677f 62be df7e a83c
00000130: 3756 e2bd ae86 81bd 4b7d 63bc 89db 5c3e
00000140: 4ee3 1a3e 52ea 0f3e 0d4e b1bd e30c 13bd
00000150: 73b9 953d fcad 72bd ce9d 0f3e 19e5 b13d
00000160: 0816 3dbe 7571 543e 82da 023d 26d1 d03d
00000170: 1cc2 753d 762a f73d 16db 57be bb5e 153e
00000180: a08e 3cbe 65cf c6bd 54c7 4d3e a8e8 a23d
00000190: aabb 733d 463c dcbc 239e 58be 58f2 1bbe
000001a0: 95d8 39be 592e ef3c 11c7 a43d e571 b7bd
000001b0: 6ab5 2cbe 54cb 42be 7f18 91bd 0305 0cbd
000001c0: 4463 423e 0461 253c bb3e 723d bdb8 0a3e
000001d0: 5174 b93d 873f f9bc 819d 3d3e 7db8 4abd
000001e0: 4560 d63d 9ceb 3abe bd2a 053e 907b 273e
000001f0: 0a92 2a3e b92c 0e3d c50e ed3c 8017 543e
00000200: b463 2cbe f659 853d b698 33be 53a2 9fbd
00000210: 430a f53c 9259 f2bd a6c0 cb3c 0312 fb3d
00000220: 25fd 94bd 65ba fe3c d47e bcbd 7ce0 ee3d
00000230: e341 ae3d 4d50 d8bd d0ee 21bd 2c12 4ebe
00000240: ab76 49bd 4d80 03be 3d89 a1bd 35af 133e
00000250: a16b 2d3e 1e09 7e3d 9ef2 4c3e dac7 05be
00000260: e07e cbbd 0478 173e 93b3 c4bd e2f3 91bd
00000270: 68bb 933c 27cd 683d 1502 123b b3e6 4b3e
00000280: 2ddc e5bd ccf1 15bd 2154 0e3e 1ac5 90bc
00000290: 5fd5 3abe ead8 1d3d 8758 24be dd38 16be
000002a0: 430d ee3d 7df8 5abe 404d 7b3d 222d efbd
000002b0: fe04 b2bd 3420 d23d ee87 393e 36fd 1d3e
000002c0: fa42 193e 39dd 4abd 6e66 5c3e aab7 4d3e
000002d0: b378 413e 542f a53d ac3e 313d c69c a3bd
000002e0: e83e 15be 6927 36bc 6845 bd3d bc55 47be
000002f0: 4265 f13d 7499 a83d f566 01bd 8f18 bfbd
00000300: 8cc5 8fbd 6bae 2e3e fe7f bcb6 2915 c13c
00000310: 8d6d 4d3e 5edc 2bbe 48aa 993d 8a7d 343d
00000320: bc84 283d 906c e3bd 6f48 57be a930 423c
00000330: b57a 45bd 512d 6e3d 7a14 1a3e 115a be3d
00000340: 703f 173e 5ac8 ef3d 17d3 523e 5bb5 103d
00000350: 224f c5bd b09b adbd 6998 1bbd d754 553e
00000360: 690a 403e 2661 ecbd 36e2 5d3d 8701 10bd
00000370: 8bee abbd e37f 3abe fc3a 913b 1bf4 0ebe
00000380: 64aa 383e 79b3 32be d1c1 0bbe 454b 8ebd
00000390: fc75 3e3c e08b 94bd 54a0 683d dff8 d2bd
000003a0: e94d f73d a47d 34be 7f72 2bbe 70fc de39
000003b0: 8713 88bc 03a2 09be a779 c0bb d7ba f13d
000003c0: e395 873d 3a92 51be 73e5 193e 58f3 803d
000003d0: 0cad 0a3e 83b4 f43d 2f70 e8bc 3bed aabd
000003e0: a5bc 023e da10 aa3d 1dc3 693b 7e93 4f3e
000003f0: 5dba 7d3d 08b8 5c3e 8a7a 47be 33ec 4cbe
0.15231311 0.101040624 -0.12968874 -0.20242423 -0.19821042 0.093310595 -0.07013349 0.16238545
-0.065250896 -0.10393833 -0.05237719 0.20382996 -0.07270621 0.010691679 -0.008505472 -0.20708169
-0.01311119 0.06860534 -0.036076203 -0.11104156 -0.008331549 0.1320434 -0.13398637 -0.11360094
0.11253613 -0.16096261 -0.15335543 -0.11997079 -0.04261212 0.22256273 0.1518833 0.13291498
0.07854886 0.062732555 -0.055958603 -0.00745836 -0.006706689 -0.015450277 -0.081297815 -0.038111597
0.013443155 0.068948686 -0.06802891 -0.05508438 0.13648862 -0.058719747 -0.038305428 -0.16147329
-0.1589148 -0.0613928 0.16149852 0.13053624 -0.13982946 0.090546325 -0.19465974 -0.08320609
-0.11459892 -0.1568299 0.11573202 -0.1406247 -0.16443253 0.13540271 0.15242395 0.13889207
-0.21066293 -0.046491273 0.17476195 0.11727452 0.101171896 -0.1485234 -0.18545693 0.04007944
0.039948106 0.07992789 -0.22118913 0.02056831 -0.110516004 -0.06324516 -0.013884853 0.21568121
0.15125772 0.1405423 -0.08657465 -0.03590096 0.07310762 -0.059247956 0.14025041 0.08686275
-0.18465436 0.20746405 0.031946667 0.10196142 0.05999957 0.12068646 -0.21079668 0.14586918
-0.18413782 -0.09707526 0.20095569 0.07954532 0.059505142 -0.02688421 -0.21154074 -0.15229166
-0.18149026 0.029196905 0.080457814 -0.089572705 -0.16866079 -0.19022876 -0.070847504 -0.034184467
0.1898318 0.010093931 0.059141856 0.13547035 0.09055389 -0.0304258 0.18517114 -0.049492348
0.10467581 -0.1825394 0.13004585 0.16355729 0.16657272 0.03471062 0.028937707 0.2071209
-0.16834909 0.06511299 -0.17538723 -0.07794633 0.02991212 -0.118334904 0.024872135 0.12259295
-0.07274846 0.03109474 -0.09203878 0.11663911 0.08508661 -0.10562191 -0.03953439 -0.2012412
-0.049185436 -0.12841912 -0.07887504 0.14422305 0.16935588 0.062020414 0.20014426 -0.13064519
-0.09936309 0.14791876 -0.096045636 -0.07126595 0.018033698 0.056836274 0.0022279073 0.19912224
-0.11223636 -0.03660755 0.1389928 -0.01767211 -0.18245457 0.038536943 -0.16049396 -0.14670129
0.11623623 -0.21383853 0.06135297 -0.1167853 -0.086923584 0.102600485 0.1811826 0.15428624
0.14966956 -0.04952738 0.21523449 0.20089594 0.188937 0.08065668 0.04327266 -0.079888865
-0.14574778 -0.011117795 0.09241754 -0.19466299 0.117868915 0.08232394 -0.031592328 -0.09330856
-0.07020101 0.17058723 -5.617737e-06 0.02356966 0.20061322 -0.16783282 0.07503182 0.044065036
0.04114221 -0.11104691 -0.21023725 0.011852422 -0.048212726 0.058148686 0.15046874 0.092945226
0.14770293 0.11708136 0.20588337 0.035329204 -0.09634234 -0.08476961 -0.037987147 0.20833145
0.18753971 -0.11541967 0.05417081 -0.035157707 -0.08395108 -0.18212847 0.0044320803 -0.13960306
0.18033749 -0.17451276 -0.13648154 -0.0694795 0.011624809 -0.072532415 0.056793526 -0.10301375
0.12075407 -0.17626053 -0.16742896 0.0004253122 -0.016610874 -0.13440709 -0.005873877 0.11803215
0.066203855 -0.20465937 0.15028934 0.06296414 0.13542575 0.119484924 -0.028373806 -0.08346029
0.12767275 0.083039954 0.0035669275 0.20271108 0.061945308 0.21554577 -0.19480339 -0.20011978

sage1.lin_l.weight f4 [128, 128]
00000000: 4efb 83bd d611 863d 7882 cebc c0bb 9abd
00000010: 954c 3e3b cf01 443d 95a7 8bbd 2525 353d
00000020: bb01 b03c 1fc0 be3c d76b 9c3a 6afa 983d
00000030: d6c2 833d 6808 a0bd f7d9 4d3d 324c 70bd
00000040: 767e bf3c e18a a8bc 0d70 cd3c 8bfa 6e3d
00000050: 642c 483c 6fe7 963d fd1a 8fbc 4173 31bc
00000060: 0050 833c 0a76 6e3d 7109 1a3d 5b1f edbc
00000070: 830c a6bd b640 743c 4b10 f83c 1108 923d
00000080: ee65 8d3d a4e0 9e3d 05e1 9bbd 3f4f 9cbd
00000090: a14a a138 5356 3fbd 6669 a5bd 0af6 073d
000000a0: 251d fd3c 8373 4c3d 6f55 63bd 105d 143d
000000b0: 7e83 60bd 55a8 d43b c7ed 363d 3c4a d2bc
000000c0: a1b5 a5bd 9555 903d cddc a2bd 3a4c 3e3d
000000d0: 491c 30bd ba67 2e3d 2609 343c ca20 6f3c
000000e0: c4df 44bd 876a 973d 64f6 873d 030c 43bc
000000f0: 7c8d a1bd 5d24 a83c 6566 4dbd e6b7 19bd
00000100: 2fcd 7bbc bcb8 7d3d 35ca b43c 1c0f 5f3c
00000110: 578e 33bd 7fba 96bd c593 123d 02be 17bd
00000120: 008b 6b3d 214c 8dbc cad2 053d 5c1a 983d
00000130: 4022 ee3c ada0 373d bc30 7abd 75dd 343c
00000140: a050 b73d 4037 92bd 11e0 d4bb 950a ba3d
00000150: df59 0dbd f448 893d 136c 233d 9505 35bd
00000160: e698 9e3d 4a25 a53c 189e ac3d 03ef 42bc
00000170: 3dc1 123d 519b 673c 8d1d 1bbc e646 a2bd
00000180: ccb4 96bd 3907 88bc 1bc2 593d dbb6 4cbd
00000190: 1977 45bd c698 51bd 5fc3 c0bc 2f3a 5d3d
000001a0: 62af ee3c 6bf1 82bd 05c6 1d3c 6551 913d
000001b0: 8581 20bd 9f81 8cbd 10bc d43c 8017 923d
000001c0: 7d0f 35bc d289 4cbd 26d7 ad3c ec56 233d
000001d0: 5626 7fbd e441 6f3d e7cd a03d c10e 16bd
000001e0: 861f aebd c623 2abd 856c 793c b0ae 423d
000001f0: ad92 29bd 6a45 843d d7a1 b63a 79fd a5bd
00000200: 90c4 963d 25d2 a63d adda 63ba 4b15 98bd
00000210: 58fc 263d 5167 6c3d abfb f83c a59e a4bc
00000220: cda4 10bd 23fe cb3c 227d 3fbd b9e8 25bb
00000230: 80b8 82bd feea 2bbc 773a 863d 0842 843d
00000240: 90db b4bb c5ad e23c 373c 52bd 4118 463d
00000250: 3796 90bd e5a3 cb3c 0ccd 643d 79f6 6e3d
00000260: b1d6 93bd 12b7 7abc 3c6c e5bb c771 a8bd
00000270: 6e93 a1bd bb91 733d 3d16 b53d f9cc 8dbc
00000280: 1b6e fbbc 2127 05bb dea9 ab3d 104d 9bbc
00000290: 10d7 9abd 0114 803d 4ddc 40bd 28b0 99bd
000002a0: 7a9e 75bd 77ec 3bb9 6241 5dbc e4c3 623d
000002b0: a80c a9bd e366 7fbd ccdf 8a3d 1436 3bbd
000002c0: b684 82bc ae02 a23c 6056 fdbc 8025 c83c
000002d0: 445a 903d 5f6e 9d3d e4b4 993d bce7 79bc
000002e0: 079b bbbd 4535 6a3d 0d8f 0cbd df0e 4cbd
000002f0: 94f3 573c f350 b8bd bf07 8abc 75dc a5bd
00000300: c89b 993d 2e65 853d a89b 8abd b4b1 34bd
00000310: 1f28 bfbd 5798 c8bc f506 88bd 8c5f cfbc
00000320: 96d6 df3c 65c5 12bc d7b0 76bd 5719 52bd
00000330: 4c7d 153d e98c 8cbd cd9e 0bbd b8f4 96bd
00000340: b584 4dbd f783 b7bd bef2 b8bc 673b a2bd
00000350: 55d3 443c e5d7 5f3d dc3a 433c 07ac 53bd
00000360: eafe 013c e346 0cbd 0054 913d 10b3 913d
00000370: 92aa 19bd a9db 78bd 213f a53b fcaf b13c
00000380: 5140 cebc 74e0 97bd 6830 9e3d b949 76bd
00000390: cc3d 9e3d d92b cbbc ade0 f0bc 8517 4f3d
000003a0: edfe a23c 96bb cfbb 4a75 a7bd a074 73bd
000003b0: 410f 9dbd 3e19 93bc 2774 16bd 13c6 9a3c
000003c0: cad5 63bd ec30 ad3c 066c f23c 2286 853d
000003d0: 324d 9e3d a92f aa3d 7319 9fbc c71f c7bc
000003e0: 9498 bfbc 3985 91bc 1531 ac3d e147 65bb
000003f0: 84a8 8ebd a52d 953d d875 94bc 37c5 f9bc
-0.06444417 0.06546371 -0.025208697 -0.07555342 0.0029037346 0.047853287 -0.06819073 0.044224877
0.0214852 0.02328497 0.0011933994 0.07469638 0.064336464 -0.07814103 0.050256696 -0.058666416
0.023375731 -0.020574035 0.025077844 0.058344405 0.012217615 0.07368361 -0.017468924 -0.010830701
0.016029358 0.05821804 0.03760666 -0.028945616 -0.08107855 0.014908006 0.030281207 0.07130445
0.06904207 0.077576905 -0.076112784 -0.076323025 7.690979e-05 -0.046713185 -0.08076744 0.033193626
0.030897686 0.049914848 -0.055501398 0.036221564 -0.0548129 0.0064897933 0.044660356 -0.025670163
-0.080912836 0.070475735 -0.07952271 0.046459414 -0.042995725 0.04257939 0.010988509 0.01459522
-0.048064962 0.07393365 0.06638792 -0.011904719 -0.07888314 0.020525152 -0.05014648 -0.037528895
-0.015368744 0.061943755 0.022069076 0.013614442 -0.043836918 -0.0735979 0.035785455 -0.03704644
0.057505608 -0.017248215 0.032671727 0.07426903 0.029069066 0.044830967 -0.061081633 0.011039128
0.08950925 -0.07139444 -0.0064964374 0.090840496 -0.034509536 0.06703368 0.03989799 -0.044194777
0.07744007 0.020159382 0.084285915 -0.011897805 0.035828818 0.014136151 -0.009467495 -0.07923679
-0.07358703 -0.016605007 0.05316363 -0.049979072 -0.048209284 -0.051171087 -0.02353066 0.054010566
0.029136363 -0.06393703 0.009629731 0.07095603 -0.03918602 -0.06860661 0.025968581 0.071333885
-0.011051056 -0.049936123 0.021220755 0.039877817 -0.06229242 0.058412448 0.07851773 -0.036635164
-0.08502106 -0.041538022 0.015223627 0.047529876 -0.041399647 0.06458552 0.001393373 -0.08104987
0.0736171 0.08145551 -0.0008691948 -0.07425936 0.040767998 0.057715718 0.030393442 -0.020095179
-0.035313416 0.024901455 -0.046750195 -0.0025315715 -0.06382847 -0.010493038 0.0655412 0.06457907
-0.005519338 0.02767075 -0.051326957 0.048362974 -0.07059901 0.024858424 0.05585961 0.058340523
-0.072186835 -0.015302436 -0.007001428 -0.08224826 -0.07889448 0.05946515 0.08842132 -0.017309653
-0.03069215 -0.0020317512 0.08382009 -0.018957645 -0.07560551 0.062538154 -0.047085095 -0.07504302
-0.05996559 -0.000179218 -0.013504358 0.055362597 -0.08254367 -0.06235398 0.06780967 -0.04570587
-0.015932422 0.019776668 -0.030924976 0.024431944 0.07048467 0.07687067 0.07505205 -0.015253004
-0.091604285 0.057179708 -0.03431611 -0.04981887 0.013180632 -0.08999815 -0.016849397 -0.080986895
0.07500416 0.06513439 -0.0676797 -0.044114783 -0.09333824 -0.024486704 -0.06641952 -0.025314115
0.027324002 -0.008958195 -0.06022724 -0.051293697 0.036496446 -0.06862814 -0.03408699 -0.07370895
-0.050175387 -0.08960717 -0.022576686 -0.07921486 0.012013276 0.054649252 0.011915889 -0.05167773
0.007934311 -0.03424729 0.070961 0.071142316 -0.037516184 -0.06075636 0.005042926 0.021690361
-0.025177153 -0.07415858 0.077240765 -0.0601289 0.077266306 -0.024801182 -0.029404009 0.05055954
0.019896949 -0.0063395007 -0.08176668 -0.059437394 -0.07668925 -0.017956372 -0.036731865 0.018893277
-0.055623807 0.021141492 0.029592525 0.065197244 0.077295676 0.08309872 -0.019421315 -0.024307145
-0.023388185 -0.01776372 0.08407799 -0.003498547 -0.069657356 0.07284097 -0.018122599 -0.030489547

sage1.lin_l.bias f4 [128]
00000000: 5878 50bd bd6a 38bd 48e2 91bd 41e7 0cbb
00000010: 8fe9 b43c aa3b ad3d 457e 613d 5dd1 203d
00000020: a47e b13c 58f6 99bd 118d 5bbd 861a 513d
00000030: 15ce d6b9 8e57 78bd b6c6 2c3d 8cff a53d
00000040: 3c68 aebd 898b a33b 0263 c93b 42f4 6a3d
00000050: 85ac 65bd 8629 763d 3363 553d 13b4 28bc
00000060: 2708 053d b467 663d 4d48 79bd 2ff3 563d
00000070: 1589 43bd af1c 8cbd 6c11 85bd 8824 8d3c
00000080: 8c1a 963b 75a1 a7bd af1c 883d edb5 e23c
00000090: 14ad dfbb 4580 963d 1ec2 b2bb 5e57 7ebc
000000a0: aafa 653d 6509 acbd 1551 bdbc bf46 2d3d
000000b0: 1688 38bc 1fd6 85bd 44f6 6a3d 34bf 55bd
000000c0: 81fa 923d 0edb 3cbd 449c 033d 328c 88bd
000000d0: 9780 8a3d 5bfe 3bbc 5a8c c73c b39e 583d
000000e0: 7447 e3bb 1870 99bd 3a09 0b3b 44d4 0bbd
000000f0: 1eed 01bd 3159 fabc fcaf b13d cbb6 5bbd
00000100: 638f 313d d1ea 673d 8a45 803d 069c 093d
00000110: 9bde 2dbd a397 b13d 1c99 a63d 40bd aa3a
00000120: 2f06 77bd fafe ba3c a171 bc3d ef3f 293d
00000130: 8989 d73c 46af 91bd 376b 863d ac83 293d
00000140: 17e0 863d 45b4 21bd af42 173d 96c2 1a3d
00000150: 38ca 71bd 7224 413d 7c47 433d 4969 57bd
00000160: c26d 4fbd a28e 8dbd 1a2e 4a3c 679a 843c
00000170: bae8 93bb beb8 f8bc a458 c53c 55e4 f3bc
00000180: 2843 483d 7d24 7dbd 713a f93c ea5a 15bd
00000190: e058 a33d 89a6 8dbc 73c3 1c3d 7d2f 61bd
000001a0: a65c a63c d2b5 30bd 0ce7 2dbd 1691 a33d
000001b0: 662d 993d 7c94 a33c 2bc4 e3bb a862 e8bc
000001c0: 1dc4 923d e58b f13c 5eae 11bd 7067 b2bd
000001d0: 604c b6bc 5f37 f43c 589a c4bc 0fdf ef3b
000001e0: 98ed d73c a752 72bd cea5 3cbd 35e8 bbbd
000001f0: 6cba 4cbd 77dc 0abd 2182 8ebd 0573 653d
-0.05089602 -0.04502367 -0.07123238 -0.0021500143 0.022084026 0.08458646 0.05505206 0.039262164
0.021666832 -0.075176895 -0.05360133 0.051050685 -0.00040970804 -0.060630374 0.042181693 0.08105382
-0.08515975 0.004990999 0.006145836 0.05736185 -0.05607273 0.060098194 0.052096557 -0.010296839
0.032478478 0.056251243 -0.060859967 0.05247801 -0.047738153 -0.068414085 -0.064974636 0.017229334
0.0045808014 -0.08185092 0.06646096 0.02767464 -0.0068260524 0.07348684 -0.0054552695 -0.01552376
0.056147255 -0.08400229 -0.023109952 0.042303797 -0.011262914 -0.06534981 0.057363763 -0.0521843
0.07176686 -0.046107344 0.03213145 -0.06667365 0.06762808 -0.011474217 0.024358917 0.052885722
-0.006936008 -0.07492083 0.0021215216 -0.03413798 -0.031720273 -0.030560108 0.086761445 -0.05364112
0.043349635 0.056620423 0.062632635 0.03359606 -0.04244862 0.086715005 0.08134672 0.0013026372
-0.06030863 0.02282666 0.092013605 0.041320737 0.026310699 -0.07113509 0.06563418 0.041385338
0.065857105 -0.03947856 0.03692883 0.037783228 -0.05903074 0.047153898 0.047675595 -0.052590642
-0.050641783 -0.06911971 0.012340093 0.016186906 -0.004513827 -0.03036153 0.024090119 -0.029771963
0.04889217 -0.061802376 0.030423375 -0.036463656 0.07975936 -0.017291324 0.038272332 -0.05497693
0.02030785 -0.043142147 -0.04245667 0.07986657 0.07479362 0.019968264 -0.0069508753 -0.028367355
0.07166312 0.029485652 -0.03556668 -0.087111354 -0.022253215 0.02981156 -0.023999378 0.007320292
0.02635841 -0.059160855 -0.04605656 -0.09175149 -0.049982473 -0.033901658 -0.06958414 0.056017894

sage1.lin_r.weight f4 [128, 128]
00000000: d035 73bb e892 f93b eecf 90bd 5e29 a9bd
00000010: f820 d4bc aadf 76bd 5e3e dc3c e4e0 70bd
00000020: 9c10 2fbc b653 2f3d c72b 0f3d aad7 ddbc
00000030: 8d98 0d3d 783e 4a3d 7e6e f43b 61e6 afbd
00000040: ddb6 b13c e7a5 8f3d 8fe4 ecbc a46a 1c3d
00000050: 8f93 d33c 3b82 64bc 5f6d bbbc 4b8a b23d
00000060: ffdb a03c 5127 91bd e45e 663d c2df 58bd
00000070: 194e aa3d c2db 7bbd 1686 81bd 0f00 acbd
00000080: 8626 ad3d 6698 24bd 258f 5bbd 43be 47bd
00000090: 2f4d a03d e795 64bd adb0 a6bd 52b6 293d
000000a0: 4a6e 9c3b 8bb9 44bb 7777 073d 2088 e33c
000000b0: 265b 01bd a78d 983b 7809 21bc be98 393d
000000c0: f2ec 32bd 9b91 f33b 0e71 f73c d178 783d
000000d0: cf05 18bd 735f 533c 8a34 a5bd a9b3 d9bc
000000e0: 6055 a3bd cdf7 7e3d 15c7 1dbd f331 77bd
000000f0: 6b0f 22bd 8568 98bc ac64 803d 7cd3 803d
00000100: a75c 9dbd 015a f3bc 413c e9bc 1a00 b1bd
00000110: 3670 633d 54f3 a5bb 068a 63bd 888d 51bd
00000120: 211e 8bbc b759 69bd 404c 9abc 33a1 933d
00000130: b010 703d d2bb 95bc 1c8c 3ebd f6ea 863d
00000140: a2e6 8ebd 7de2 a13d 25e0 94bc e1ad 53bd
00000150: db5c 78bd f180 4bbd 7580 edbc ddc6 4c3c
00000160: f7ec acbd 3308 97bb 3029 223d 35d7 fb3b
00000170: bd44 97bd 5561 df3c c7ad a4bc 7641 8bbd
00000180: a688 0ebb 30f5 1abc 2989 d2bc ce19 0d3d
00000190: 71bc 97bd 11a5 9b3d 6a58 92bd 7a5a 9abc
000001a0: 55d2 9c3d 33c7 a03c 9af6 12bd 1c66 09bd
000001b0: f32c 7e3d 9cdb b7bc e75f f23c b3fb 413d
000001c0: 99b8 023c 71f7 b0bd 657d cf3c 6812 243d
000001d0: 11c3 edbc 30ae 08bd 1654 9f3c a985 77bd
000001e0: eec1 8b3c 92eb 9c3d a019 893c b206 0e3d
000001f0: 7be1 4fbd 0a7e 8f3d 1141 463d e984 0bbd
00000200: 8f23 6fbc 2e9f a4bd 824c 2a3d fa7e 5ebd
00000210: 2ad6 a4bd db6a 0a3d fa3d 99bd 086c 4a3d
00000220: 8b93 12bd ee31 af3d ea77 44bd 8c89 a63d
00000230: 72ac 77bd a4f4 09bd 6949 02bc c4b1 953c
00000240: 9f65 883d c4a5 68bd 2092 f1bb 1540 413d
00000250: 262c aabd 488b f8bb c155 97bd 1a67 60bd
00000260: 2728 22bd 3550 133d dace 45bd a451 8ebd
00000270: 6f93 69bd f617 323d 8603 45bd 1b12 843c
00000280: 0352 a23c 6341 38bd 21c8 c73c d63b 113c
00000290: 1ce9 90bd 461b a2bd 4695 8f3d f9c2 233d
000002a0: 7dc4 983d bdb7 53bd 1b61 75bb f7e0 3e3b
000002b0: cfa9 273d c078 8bbd eecd a53c 6e5a 43bd
000002c0: ab43 b13b 47b6 393d 52bd 623d 4b09 e7bc
000002d0: b797 9dbd e89e 853b 1737 453d 0c36 8dbd
000002e0: d3be 4e3d 2a2e d9b9 ecec 2abd d0b1 0fbd
000002f0: c188 973d feb7 9a3b 3753 b53d 6568 97bd
00000300: 44ca ffbc 7f3c 2dbc f7ee a1bb 05fe 823d
00000310: 12a1 99bc c738 0f3d ca00 c53a 12f2 17bc
00000320: 023c 59bd 0469 8e3d ff37 753d dfb6 82bd
00000330: acbb adbd 3ab4 27bd d7d0 c9bc d5ac 9d3d
00000340: 8402 95bd e5a5 e43c b2a2 99bd ada1 a3bd
00000350: 6422 6cbd e6ed 83bd 4a22 12bd 7da9 8fbd
00000360: 2352 0d3d 7e8a 91bd d004 c43c b868 9d3d
00000370: d905 a63d 7e9e 603d 8d05 24bd 883d 923c
00000380: 790f 9dbd c17d 08bc 35e3 813d 45cf 443d
00000390: 3db8 27bd 686f 10bd 5e9e 043d 0773 313c
000003a0: 7bdc 26bd fba4 9e3d 74b7 79bc e2f3 873c
000003b0: d1aa 87bd 8256 ae3c f300 2e3d 0282 d33c
000003c0: c800 3a3c c568 8f3d a14f 1ebd ae61 aabd
000003d0: aaa9 05bd 5cae 86bc 3280 b0bc fa14 8e3d
000003e0: 5a8b 913d 347f 973d cbd1 b4bd e912 a3bc
000003f0: b0cb 303b 6914 e33c 2da1 c43c b6a4 9d3d
-0.0037110932 0.0076163895 -0.070709094 -0.08259843 -0.025894627 -0.060271896 0.026885208 -0.058808222
-0.010685112 0.042804442 0.03495386 -0.027080376 0.034569312 0.04937598 0.0074594608 -0.08588863
0.021693641 0.07014065 -0.028917579 0.038187638 0.025827197 -0.013947065 -0.0228793 0.087177835
0.019636152 -0.07087577 0.05624284 -0.052947767 0.08315677 -0.061488874 -0.06324403 -0.08398449
0.084546134 -0.0401844 -0.05360331 -0.048765432 0.078272216 -0.05580702 -0.08139167 0.04143364
0.0047738897 -0.0030017819 0.033072915 0.02777487 -0.031581067 0.004655558 -0.009828918 0.045311682
-0.043683 0.007433129 0.030205276 0.060662095 -0.037114915 0.012901175 -0.08066662 -0.026574926
-0.07975268 0.06224804 -0.038519938 -0.06035037 -0.039565485 -0.018604526 0.06269202 0.062903374
-0.07683688 -0.029706003 -0.028471114 -0.086425975 0.055526935 -0.0050644074 -0.05555155 -0.051160365
-0.01698214 -0.056970324 -0.018835187 0.07208481 0.058609664 -0.018278036 -0.046520337 0.06587784
-0.069775835 0.07904527 -0.018173287 -0.051679496 -0.06063543 -0.049683515 -0.028991917 0.012498585
-0.08443635 -0.0046091317 0.03959006 0.007685567 -0.07386158 0.027268091 -0.020102395 -0.06799595
-0.002174893 -0.009457871 -0.025700169 0.034448437 -0.07408989 0.07599843 -0.0714577 -0.01884197
0.07657305 0.019626236 -0.03587971 -0.033544645 0.062054586 -0.022443585 0.029586745 0.04735918
0.007978582 -0.08640946 0.025328347 0.040056616 -0.029023679 -0.033369243 0.019449275 -0.060430203
0.017060246 0.07662119 0.016735852 0.034674354 -0.050752144 0.07006462 0.048401896 -0.0340623
-0.01459588 -0.080381736 0.04157687 -0.054320313 -0.08048661 0.03379331 -0.07482524 0.049419433
-0.03578524 0.08554445 -0.04796592 0.08131704 -0.06046719 -0.033680573 -0.007952073 0.018273242
0.06660008 -0.05679871 -0.007372156 0.047180254 -0.08309202 -0.007584963 -0.07389403 -0.054785825
-0.039589074 0.035965163 -0.048292972 -0.069491655 -0.05702537 0.043479882 -0.048099063 0.016121915
0.019814497 -0.044984233 0.024387421 0.008864364 -0.07075712 -0.07915358 0.070108935 0.039980862
0.07459352 -0.0516889 -0.0037441913 0.0029125789 0.040933426 -0.068101406 0.020239796 -0.047693662
0.005409678 0.04533985 0.05535633 -0.028202673 -0.07694953 0.004077781 0.04814824 -0.06895074
0.050474953 -0.0004142386 -0.041729853 -0.035081685 0.073991306 0.0047216406 0.088537626 -0.073929586
-0.031224377 -0.010573505 -0.004941817 0.06396107 -0.018753562 0.034966256 0.0015030142 -0.009274023
-0.053035744 0.06953624 0.059867855 -0.06382536 -0.08483061 -0.04094336 -0.024635715 0.07698981
-0.072758704 0.027911136 -0.07501735 -0.079898216 -0.057649985 -0.0644186 -0.03567723 -0.07014749
0.03450216 -0.071064934 0.023928076 0.07685989 0.08106584 0.05483865 -0.040044356 0.017851606
-0.07668967 -0.008330763 0.063421644 0.04804923 -0.040947188 -0.035262495 0.032377593 0.010830647
-0.04073761 0.07746311 -0.015241493 0.016595785 -0.066243775 0.021281485 0.042481374 0.025818828
0.011352725 0.07002405 -0.03865016 -0.08319412 -0.032632507 -0.016440563 -0.021545503 0.06937595
0.07106657 0.07397309 -0.08829077 -0.019906478 0.0026976876 0.027719693 0.024002636 0.07697432

sagpool.gnn.lin_rel.weight f4 [1, 128]
00000000: a048 743b b5a6 adbd dd97 acbd 84f4 d63c
00000010: d570 6c3d 21b9 133d 5f8f 05bd 07b9 2dbd
00000020: 46cc 75bd 26f6 8abb fe09 aa3d 6179 5fbd
00000030: 3b68 963d f762 e93c 804d 803d d01a a9bb
00000040: 3994 a0bc d75b 9cbd c79d 993b 33f8 0abd
00000050: 1e82 93bd 2a51 7b3c ad78 503b 7b98 84bb
00000060: 0765 8abd 63bf b93c 2ce7 bdbc 8a41 853d
00000070: d2dd 17bd cc8a 823c 0dc9 8a3d 30a1 ba3c
00000080: eb64 95bd b647 073c f986 f93c 5635 913d
00000090: 0e45 793c ee48 6cbd 4dcb 98bc 6b21 8dbd
000000a0: 2d3e a53d 9936 8bbd 4e7b 19bc 29a2 143d
000000b0: 8634 7a3d 0361 ae3c 4c65 8cbd ed3e 1c3d
000000c0: 2779 953c 060a 58bd d9a9 98bd 070a 50bd
000000d0: 4307 e23a 392c e7bc 4bed 423d 4447 aabd
000000e0: f8a8 6bbd ecbf 943d 2d56 b0bd d57a c2bc
000000f0: 8f3c a13d 35dc d8bb 46ae cb3c 2d57 5dbd
00000100: 63a5 7bbc b702 a23d 8652 9bbd 02f4 193d
00000110: 1309 9ebc 841d b13c f144 013d a851 8d3d
00000120: 528e 85bc a748 eabc 2f48 d1bc 31b3 a1bd
00000130: 7e3d aebc 06da 19bd 2224 87bc 3590 d6ba
00000140: e296 a2bd de61 133d 5d3a 2d3c cc82 3abd
00000150: 5876 8e3c a4d2 06bd b9db bd3c 6dce d2bb
00000160: 9f3a b23d 836d a33d 5245 38bd ae91 223d
00000170: e633 0c3d 8c12 643d d683 393d d9c6 273d
00000180: 3f9e a3bb 46b9 e93b 2195 a03d 5429 f2bb
00000190: 68e6 8cbc 7f3a 2bbd 563e 4a3d c84b a13d
000001a0: 54b8 68bd 4917 5a3d 08c3 c83c 72c1 0b3d
000001b0: c253 28bc cb80 c73c 3283 993d b140 483d
000001c0: 522e aa3d 91a3 94bc b4e2 fcbc 5157 81bd
000001d0: 61a8 efbc 5e68 4cbc a4b0 5a3d d3d5 30bd
000001e0: 0852 853d e7db 7fbd a9d7 ad3d 75e0 8d3c
000001f0: 1b27 893d cfba 473d e559 05bd 2301 873d
0.0037274733 -0.084790625 -0.08427403 0.026239641 0.057724793 0.036065225 -0.032607432 -0.042412784
-0.060009263 -0.004240769 0.08302687 -0.054559115 0.07344099 0.028489573 0.06264782 -0.005160667
-0.019601928 -0.076347046 0.004687998 -0.033928107 -0.07202552 0.015339175 0.003181021 -0.0040464974
-0.06757551 0.022674268 -0.02318152 0.06506641 -0.03707678 0.015935324 0.06776629 0.022781938
-0.07294639 0.008256843 0.030459868 0.07090251 0.015214218 -0.05768674 -0.018651629 -0.068911396
0.080685 -0.06797523 -0.009367777 0.03628746 0.061085247 0.021286493 -0.06855258 0.03814595
0.018246247 -0.052743934 -0.07454271 -0.050790813 0.0017244596 -0.02821933 0.04758958 -0.08314374
-0.057534188 0.07263169 -0.08610187 -0.023740212 0.07872879 -0.0066180476 0.024863373 -0.054038215
-0.0153592555 0.07910674 -0.075840995 0.03758622 -0.019291436 0.02162052 0.03155989 0.0690034
-0.016303215 -0.028599096 -0.025547115 -0.07895506 -0.021269556 -0.03756144 -0.016496722 -0.0016369881
-0.07938935 0.035982005 0.010572997 -0.045534894 0.017390415 -0.032915726 0.023176061 -0.0064332993
0.08702587 0.07979872 -0.044987984 0.039689712 0.03422918 0.05568175 0.045291744 0.04096112
-0.0049932296 0.007132682 0.07840944 -0.0073901806 -0.01719971 -0.041803833 0.049375854 0.07875782
-0.056816414 0.053244863 0.02450706 0.03412003 -0.010273876 0.024353405 0.07495727 0.04888982
0.08309616 -0.0181444 -0.03086982 -0.063154824 -0.029255094 -0.012476055 0.053391114 -0.04317267
0.06509787 -0.062465575 0.084883995 0.017318944 0.06696912 0.04876214 -0.032556433 0.06592014

sagpool.gnn.lin_root.weight f4 [1, 128]
00000000: b8d9 343d 700f 8b3d 7527 afbc 5972 cabb
00000010: 71f1 b1bc 6c8f 8d3c 3021 613d 0436 953d
00000020: 4066 3f3c 9eb6 693d 0e4f 553d 7fb2 65bc
00000030: f058 3d3d 47f6 d0bc 9a11 9b3d 974a a0bd
00000040: e2d8 8b3d fc8c d23c a753 8c3d 6ac7 c2bd
00000050: 9e4b 2dbc f913 243b 89f5 703c 0e47 9fbd
00000060: 4b94 7d3d 7f29 533c 324e 98bd 06e9 cebc
00000070: 2387 683d 678f 643c 7558 20bd 32e1 5fbc
00000080: 23bf 463d 41da 833c 105c 23bd 4261 99bd
00000090: 55a9 d73c 0e48 6a3d d0c2 7bbc 6cff 823d
000000a0: 844a 4a3d 99d0 7a3d 649f 18bd 8e56 b1bd
000000b0: 6297 953d 88f1 923a b6d5 843d 1f28 a3bd
000000c0: 9571 18bd d0b7 aabd a857 50bd 10c2 de3c
000000d0: 8a4a 863c 557a 273d a6f0 a2bd cff0 7fbd
000000e0: 3869 be3c ec5f bcbc 14f1 a43d 1795 3f3d
000000f0: 0062 9ebd 9c8d 243d edf7 a7bd fb00 5bbd
00000100: 6aec 99bd 5b94 6e3c 437c 673d 7311 cabc
00000110: fcc6 9fbc 67de e53c 96c8 3c3d 9a5a 4f3c
00000120: dbfe 75bd cd45 543d ea20 873c b163 8cbd
00000130: e696 1bbd f75e 903d 7a00 9a3d 6fb7 7c3d
00000140: 58d8 a8bd 8c61 893d dc4a 6b3d 737a 81bd
00000150: fd48 13bd 054d bb3c 6067 8fbc 5b01 80bc
00000160: 69a0 70bc 9714 b7bd 8cf7 9b3c 5c8b b8bd
00000170: fce9 24bc ba5a e63a 355e 083c f979 a33d
00000180: a19b 893d afc4 743c db1d 9d3d c5f7 903d
00000190: 3673 8abd 6fe6 283d 05cc 7a3d 279d 95bc
000001a0: a62d 943d 31a2 8e3b 69df 273d cee1 94bd
000001b0: 392e d83c f5d9 9e3b 055a 873c 70b1 a43d
000001c0: 28be 913d a0af 0bbd 76b3 233d a730 453d
000001d0: 7365 a43d 5955 73bd e88b abbd b9cf a2bd
000001e0: 9c93 47bd ee25 c5bd bbbe 053d cacf 243d
000001f0: 4fb9 f43c 4353 06bd cc89 dabb 7986 813d
0.044152945 0.06790054 -0.02138112 -0.006178182 -0.021721574 0.017280303 0.05496329 0.07285693
0.011682093 0.057058923 0.052077346 -0.014019608 0.046227396 -0.02550806 0.075717166 -0.07826727
0.068284765 0.025701992 0.06851893 -0.095106915 -0.010577111 0.0025036319 0.014706978 -0.077772245
0.061909 0.012888311 -0.074367896 -0.025257599 0.0567695 0.013950205 -0.03914686 -0.013664531
0.048522126 0.016095283 -0.03988272 -0.074892536 0.026325861 0.057197623 -0.015366271 0.06396374
0.04938747 0.06123409 -0.03726138 -0.08659087 0.073042646 0.0011210898 0.064860746 -0.07966637
-0.037217695 -0.08335841 -0.050864846 0.027192146 0.016392965 0.04088815 -0.07956056 -0.062485512
0.023243532 -0.022994958 0.080537945 0.046773043 -0.07733536 0.04017411 -0.08201585 -0.053467732
-0.075157955 0.014561738 0.05651499 -0.024666524 -0.019504063 0.028060151 0.04608973 0.012655878
-0.060057502 0.05182438 0.016495187 -0.06854952 -0.037985705 0.07049363 0.07519622 0.061698373
-0.08244389 0.06708059 0.05744444 -0.063221835 -0.03595828 0.022863874 -0.017505348 -0.015625646
-0.014686682 -0.08939474 0.019038938 -0.09010956 -0.010065552 0.0017574646 0.008323242 0.07982249
0.06719137 0.014939471 0.0767171 0.07078508 -0.06760256 0.041235384 0.061229724 -0.018263413
0.07235269 0.004352831 0.040984545 -0.07269631 0.026389228 0.00484776 0.016522417 0.08041656
0.071163476 -0.034103036 0.03996607 0.0481421 0.080271624 -0.059407566 -0.083762944 -0.07949776
-0.048724756 -0.09626375 0.032652598 0.040237226 0.029873518 -0.03279425 -0.0066692587 0.06324477

lin.weight f4 [64, 128]
00000000: 539b 8a3d d67d 383d 3693 603b 250f 4abd
00000010: 0b6b 14bd 6ad6 4cbd 5a65 2bbd 30cc ab3d
00000020: 1f6e 14bb 0eaf ac3c 16ca 843c fc04 05bd
00000030: 9b1a dd3c 9a74 873d d940 3e3c 79a9 0c3d
00000040: 6bf2 183c ed78 34bb aa55 4b3c d7ce 213d
00000050: 0405 cc3c 19e5 eb3c dff1 afbc 69b0 583c
00000060: dfa9 1e3d 0b27 d03c 6e6c e73c 1949 773d
00000070: e545 75bc f5a1 75bd 739a e73c f0be 393d
00000080: ba21 55bd 3a7c 6d3d 0b30 8cbd adde 80bd
00000090: f4ec 833c f23f 11bd 5fd2 af3d 17a6 52bd
000000a0: 81d4 5dbd a6a5 58bc cdce d0bb ef54 963d
000000b0: 4794 733d 0283 563d 0221 633d b509 e53c
000000c0: 494e abbb ecb7 a7bd d439 103d 9ff5 123d
000000d0: 5c1c b8bc d936 473d f747 133d e68b 82bd
000000e0: 86ec 7a3d 89b4 c5bd 4739 10bd cd91 263c
000000f0: 5166 b1bd 00b4 963c eaa9 a9bd a264 933d
00000100: 82b5 223d 42ad f43c f191 b3bd 57ae 8ebd
00000110: 886b 7a3c 00f6 7dbd 80d3 8bbc 284e 853c
00000120: 4689 79bd c1ae 093d adf9 ebbc 09f7 853d
00000130: cb81 9fbd b2c4 07bc 9d22 c13c 63f8 063c
00000140: 631f b83c 66f2 2a3d 0171 98bc 6147 8c3d
00000150: fff4 6ebd 6737 b2bc 23e9 ebba c55f 86bb
00000160: b719 9dbd cdd3 aabd 5a35 70bd 814a 09bd
00000170: 71b4 5d3b d1cf 8a3c 44de aebc 0911 3abd
00000180: 062d bf3d 0ee8 de3b dde1 c73b c512 babc
00000190: afd6 42bd 2719 063c b352 fa3c 5ba1 9ebc
000001a0: 0d97 e53c 4371 73bd b7b6 163d 9e83 34bd
000001b0: cfee 95bc 0597 bfbb f358 7abd f34e aabd
000001c0: 1bc8 b13d fdc0 f2bc 2879 9bbd a416 933d
000001d0: 46a5 6fbd f43b 2f3a 98c4 89bd b6bf a6bd
000001e0: 4fb4 b63b aaf6 443d 21c8 54bd 33db 953d
000001f0: 6d86 86bc 13ea 433d 6899 d93c 3536 b3bd
00000200: aaf5 7bbd a1c7 44bd 385e 963d 7b18 03bd
00000210: 70aa a63d 6e7b 4b3d 71e8 c73a f81f a6bb
00000220: 36aa 82bd 3136 c23c c351 2fbd 939e 3cbc
00000230: 187d 36bd a3b8 61bc da17 683c a0e6 bfbd
00000240: d392 83bd 721c 8e3d caf8 e83c ac5d 83bd
00000250: 3369 60bd 0b0f 77bd d96b ffbc 0e25 e43a
00000260: 54d3 11b9 8e69 8abd 7d47 853d 16e2 11bd
00000270: d479 a43d 50ca 103d cb5a 903c 7c02 e03c
00000280: a738 4a3d 76f7 3c3d 3c95 3d3d 27e5 05bd
00000290: ff98 dbbb 26c3 473d eacf 31bd e102 8ebd
000002a0: 360d 173d 4b6c 2b3d a999 71bc 6255 75bd
000002b0: daa5 cabc 2b0d 8f3d 2ea5 803d 1afe 473d
000002c0: a604 91bd 10a1 a3bd a170 703d 6a43 9fbd
000002d0: ad7e ba3d c01f b53d 21b4 8d3d 8982 50bc
000002e0: 7d8d 8dbb 5e8a d3bc a985 24bd 9251 debb
000002f0: d96b febb 1b67 503d e107 edbc 8a16 113d
00000300: 368b 513d 9376 97bd 076a b93d d663 8b3c
00000310: 2909 453d be54 5b3d 3505 86bc d88a 43bd
00000320: bf2d 06bc d119 863d 5f29 6cbd faa7 8b3d
00000330: 27c5 693d 7183 7e3c 2181 973d 8861 1fbd
00000340: 4463 7a3c f368 923d db07 8fbd 3907 983d
00000350: 48d0 78bd 2988 093d 27d5 7e3d 0553 073c
00000360: e4c1 b739 c138 1ebd d398 873d 0117 09bd
00000370: 54ae 20bd 4f46 32bd 353e 333d 7e29 943d
00000380: 69d5 7c3d 9ed1 a23a 5258 973c 60ae 863d
00000390: 2afc 053d d3eb 613d f573 93bd a84b 6c3d
000003a0: de28 92bd ad94 a83d a9f5 8d3d 595e 6abd
000003b0: f234 68bc 72cc 203d 4d1b bd3d c071 f83c
000003c0: a09b 663b 5998 4bbc ccbd be3c ae80 6d3d
000003d0: 1408 b4bc 7cb7 24bd f929 5e3c 833f 96bd
000003e0: 63e9 283d a714 85bd fd06 a43c 14e1 5dbc
000003f0: fd62 403c 1e95 5bbc c98d 8abd f2e0 983d
0.06767907 0.04504188 0.0034267432 -0.04933085 -0.036234897 -0.05000917 -0.041844703 0.08388555
-0.0022648645 0.021079566 0.016209643 -0.032475457 0.026990226 0.06614037 0.011612141 0.03434131
0.009335141 -0.0027537898 0.012410561 0.0395039 0.024904735 0.028795766 -0.021477638 0.013225653
0.03873622 0.025409242 0.028249945 0.060372446 -0.014970277 -0.059968907 0.02827189 0.045348108
-0.052034117 0.0579798 -0.06845101 -0.06292472 0.016104199 -0.035461374 0.08585047 -0.051427927
-0.054157738 -0.013223087 -0.006372309 0.073404185 0.05946758 0.052371033 0.0554514 0.02795873
-0.005227838 -0.08189377 0.0352114 0.035878774 -0.02247446 0.04863629 0.035957303 -0.0637434
0.061260723 -0.09653575 -0.035210874 0.010166598 -0.086620934 0.018396378 -0.08284362 0.071969286
0.03972388 0.029867772 -0.087680705 -0.069668464 0.0152844265 -0.062002182 -0.017068624 0.01627262
-0.06092193 0.033613924 -0.028805578 0.06541259 -0.07788428 -0.008286642 0.023576075 0.008237931
0.022475904 0.041735075 -0.018608572 0.06849552 -0.058339115 -0.021754934 -0.0017998557 -0.004100772
-0.0767092 -0.08341179 -0.05864463 -0.033518318 0.0033829475 0.016944798 -0.021346219 -0.045426402
0.093347594 0.0068025654 0.006099923 -0.022714028 -0.04756802 0.008184708 0.030557012 -0.01936405
0.028026128 -0.059434187 0.036795344 -0.044070832 -0.01830235 -0.0058468604 -0.061119985 -0.083158396
0.08680745 -0.02963304 -0.07591468 0.07182053 -0.058507226 0.0006684654 -0.067269504 -0.08142035
0.0055756937 0.0480868 -0.05194867 0.073171996 -0.016421521 0.047830652 0.026562408 -0.087505735
-0.06151358 -0.048041943 0.073421896 -0.03200577 0.08137977 0.04967826 0.0015251768 -0.005069729
-0.063801214 0.023707481 -0.042802583 -0.011512416 -0.044552892 -0.013776931 0.014165843 -0.0937016
-0.06424489 0.06939019 0.028438944 -0.06414351 -0.054787826 -0.06031708 -0.031179355 0.0017406063
-0.00013907003 -0.06758414 0.06507776 -0.035616003 0.08031049 0.03534919 0.017621418 0.027344935
0.049370434 0.046134435 0.0462849 -0.03268924 -0.006701588 0.048770092 -0.043411173 -0.06934143
0.036877833 0.041851323 -0.014746108 -0.05989588 -0.024737287 0.069849335 0.062815055 0.048826315
-0.07080965 -0.079897046 0.05870116 -0.0777653 0.09106193 0.088439465 0.069191225 -0.0127264345
-0.0043198452 -0.025822815 -0.04016653 -0.0067846263 -0.0077643213 0.05087958 -0.028934421 0.035421886
0.051158153 -0.07395663 0.09053426 0.017015379 0.04810444 0.053547613 -0.016359905 -0.047739834
-0.008189618 0.06547893 -0.057656642 0.06819148 0.057072785 0.015534268 0.07397676 -0.038911372
0.015282456 0.07148924 -0.0698392 0.074232526 -0.060745507 0.033577118 0.062214997 0.0082595395
0.0003504894 -0.038628343 0.06620946 -0.033469204 -0.039228752 -0.043524083 0.043760497 0.072344765
0.06172696 0.001242209 0.018474732 0.06576228 0.032711186 0.05515654 -0.071998514 0.05768934
-0.07136701 0.08231483 0.069316216 -0.057218883 -0.014172779 0.039257474 0.09233723 0.030327678
0.0035187975 -0.012426459 0.023283862 0.057984047 -0.021976508 -0.040214047 0.013559812 -0.07336333
0.0412382 -0.0649808 0.020022864 -0.013542432 0.011742351 -0.0134022515 -0.067653246 0.0746478

lin.bias f4 [64]
00000000: 8c93 afbd 4305 57bd 4e9e 87bd b5a2 683d
00000010: 898f 92bd 9039 7cbd 369c 963b 3fcd 7bbd
00000020: 81d8 1bbd 0bde 9abd 930f acbd 2fe5 a0bc
00000030: e728 763d e5fa 063d 4282 af3d 64d3 73bc
00000040: cf86 cebb be3c f3bc 7fa9 61bb 47d0 8c3c
00000050: ca15 48bc 3932 823c 3e3d e03c 5ee5 283d
00000060: 8187 64bb fa96 a3bc ec9d 5ebd cdbb 873c
00000070: ed73 10bc 856d 93bd 61f4 023d 8344 0e3d
00000080: ccbe 1b3d 4c49 973d 2649 b1bd 9da5 713d
00000090: 1fee 82bd 5ffb 6abd 741a 8f3b c693 0abc
000000a0: 09e2 afbd c4c2 623d da35 afbd b239 99bd
000000b0: 6c73 3dbd 9d1c 2d3d 9eb3 36bd c4ec 52bd
000000c0: 0fe4 253d 1e51 f43c e79b 82bd 6e45 1cbb
000000d0: ea7b ad3d 2fc8 223d e95e 59bd 6937 1bbd
000000e0: 230a 633d fa61 05bd 35d6 4d3d 8bee 1e3d
000000f0: 43ac 05bb 98e3 51bd 6a63 863d 6eb6 87bc
-0.08573064 -0.052495252 -0.06621991 0.056795795 -0.071562834 -0.061578333 0.0045962585 -0.061475035
-0.03804827 -0.075618826 -0.08401408 -0.019640533 0.0600976 0.032954115 0.085697666 -0.014881942
-0.0063026915 -0.02969205 -0.0034433303 0.017189158 -0.012212226 0.015893089 0.027372953 0.041234367
-0.0034870806 -0.019969452 -0.054349825 0.016569043 -0.008816701 -0.071986236 0.03197134 0.034733307
0.038023755 0.07387027 -0.0865653 0.05899583 -0.06393074 -0.057368632 0.004367167 -0.0084580835
-0.08588035 0.055361524 -0.08555193 -0.07481708 -0.046252653 0.042263616 -0.04460489 -0.05149533
0.040500697 0.029823836 -0.06377392 -0.0023845094 0.084709 0.03974169 -0.05306903 -0.03789464
0.05542959 -0.03256414 0.050253112 0.03880171 -0.0020396865 -0.05124244 0.065619305 -0.016566481

fc.weight f4 [1, 64]
00000000: b474 12bd 5e80 273d ceb8 e5bd 7021 a7bb
00000010: aca6 91bd c6e2 e73d 9b06 00be 3d82 dfbd
00000020: a48d 82bc fe6e 913d e4f9 d2bc 3a3f 203d
00000030: 5eef 2bbd 89b7 00be cf27 923d 27ce debd
00000040: ca3b d5bd 68c7 da3d f0ce 903d 4ddc 103e
00000050: 910b c53d 0741 f53d 9909 ccbc 2f59 e3bc
00000060: 1a1f 9ebd 1897 eabd 2810 e23d 88cf e53d
00000070: bdba 533d b18e b5bd 83ba 42bd c639 94bd
00000080: d32a db3d 471b ce3d 0cd1 e3bd e602 0a3d
00000090: 5722 31bd 69f5 efbd 5f3a b5bd 1a36 ac3d
000000a0: 99ed e53d c1bd d33d 050e a6bd 4c6b 893d
000000b0: 8ac8 a2bd 6a77 d6bd 027e 773d 3252 f0bd
000000c0: 172e eabc f5c4 2a3d 8df0 e93d ce6f e1bd
000000d0: 0f14 913d 57f9 a4bd 0a4e eb3d 1d61 bdbd
000000e0: 45c9 0a3d 6020 01be bd7d 663d 5968 01be
000000f0: 2675 3f3c 9758 0dbe 5cf5 a4bd eb19 0c3d
-0.035755828 0.040893905 -0.11216889 -0.0051004216 -0.07111868 0.113225505 -0.1250252 -0.10913513
-0.01593668 0.07101248 -0.025753923 0.039122798 -0.041976325 -0.12570013 0.07136499 -0.10879164
-0.104117945 0.10682565 0.0707072 0.14146538 0.09621347 0.119752936 -0.02490692 -0.027752487
-0.07720776 -0.114546 0.11038238 0.11221224 0.05169176 -0.08865107 -0.047541153 -0.07237582
0.107015274 0.100637965 -0.11123857 0.03369417 -0.04324564 -0.1171673 -0.08849024 0.084087566
0.11226959 0.10338927 -0.08108143 0.067099184 -0.07948406 -0.10471995 0.060422905 -0.117344275
-0.02858643 0.04169174 0.114228345 -0.11007653 0.07083904 -0.0805537 0.11489494 -0.092470385
0.03388335 -0.12610006 0.056272257 -0.12637462 0.011685645 -0.13803326 -0.08054611 0.034204405

gcn_batch_norm.weight f4 [128]
00000000: 0000 803f 0000 803f 0000 803f 0000 803f
00000010: 0000 803f 0000 803f 0000 803f 0000 803f
00000020: 0000 803f 0000 803f 0000 803f 0000 803f
00000030: 0000 803f 0000 803f 0000 803f 0000 803f
00000040: 0000 803f 0000 803f 0000 803f 0000 803f
00000050: 0000 803f 0000 803f 0000 803f 0000 803f
00000060: 0000 803f 0000 803f 0000 803f 0000 803f
00000070: 0000 803f 0000 803f 0000 803f 0000 803f
00000080: 0000 803f 0000 803f 0000 803f 0000 803f
00000090: 0000 803f 0000 803f 0000 803f 0000 803f
000000a0: 0000 803f 0000 803f 0000 803f 0000 803f
000000b0: 0000 803f 0000 803f 0000 803f 0000 803f
000000c0: 0000 803f 0000 803f 0000 803f 0000 803f
000000d0: 0000 803f 0000 803f 0000 803f 0000 803f
000000e0: 0000 803f 0000 803f 0000 803f 0000 803f
000000f0: 0000 803f 0000 803f 0000 803f 0000 803f
00000100: 0000 803f 0000 803f 0000 803f 0000 803f
00000110: 0000 803f 0000 803f 0000 803f 0000 803f
00000120: 0000 803f 0000 803f 0000 803f 0000 803f
00000130: 0000 803f 0000 803f 0000 803f 0000 803f
00000140: 0000 803f 0000 803f 0000 803f 0000 803f
00000150: 0000 803f 0000 803f 0000 803f 0000 803f
00000160: 0000 803f 0000 803f 0000 803f 0000 803f
00000170: 0000 803f 0000 803f 0000 803f 0000 803f
00000180: 0000 803f 0000 803f 0000 803f 0000 803f
00000190: 0000 803f 0000 803f 0000 803f 0000 803f
000001a0: 0000 803f 0000 803f 0000 803f 0000 803f
000001b0: 0000 803f 0000 803f 0000 803f 0000 803f
000001c0: 0000 803f 0000 803f 0000 803f 0000 803f
000001d0: 0000 803f 0000 803f 0000 803f 0000 803f
000001e0: 0000 803f 0000 803f 0000 803f 0000 803f
000001f0: 0000 803f 0000 803f 0000 803f 0000 803f
1.0 1.0 1.0 1.0 1.0 1.0 1.0 1.0
1.0 1.0 1.0 1.0 1.0 1.0 1.0 1.0
1.0 1.0 1.0 1.0 1.0 1.0 1.0 1.0
1.0 1.0 1.0 1.0 1.0 1.0 1.0 1.0
1.0 1.0 1.0 1.0 1.0 1.0 1.0 1.0
1.0 1.0 1.0 1.0 1.0 1.0 1.0 1.0
1.0 1.0 1.0 1.0 1.0 1.0 1.0 1.0
1.0 1.0 1.0 1.0 1.0 1.0 1.0 1.0
1.0 1.0 1.0 1.0 1.0 1.0 1.0 1.0
1.0 1.0 1.0 1.0 1.0 1.0 1.0 1.0
1.0 1.0 1.0 1.0 1.0 1.0 1.0 1.0
1.0 1.0 1.0 1.0 1.0 1.0 1.0 1.0
1.0 1.0 1.0 1.0 1.0 1.0 1.0 1.0
1.0 1.0 1.0 1.0 1.0 1.0 1.0 1.0
1.0 1.0 1.0 1.0 1.0 1.0 1.0 1.0
1.0 1.0 1.0 1.0 1.0 1.0 1.0 1.0
