All_Benchmarking/DATA_12/Results/f5/best_model.pth (torch, 192098 bytes, 32 tensors)

gat1.att_src f4 [1, 4, 32]
-0.268567 -0.37446105 0.07696393 -0.12851451 -0.1705144 -0.13105302 -0.2649828 0.23966725
0.03642908 -0.07475857 0.21038961 0.25472024 -0.31359848 0.00940984 -0.1732353 0.15978757
-0.06985314 -0.01729248 -0.25158796 0.24493565 -0.053500168 0.25390854 -0.19122775 0.2349038
-0.029597959 0.3697102 0.01241822 0.08226529 -0.25604966 -0.0924205 -0.26759306 -0.24766587
-0.12056781 0.06298022 -0.36688727 0.0240776 0.11697307 -0.36861283 -0.2825536 -0.27733144
-0.37529436 -0.22954671 -0.24964865 -0.28028452 -0.22936177 -0.03818839 -0.02373335 0.33093387
0.009575551 -0.18849541 0.32227287 0.21037216 -0.15940145 0.33055466 -0.36029643 -0.15266186
-0.37691697 0.35656646 0.1167006 0.2901007 0.33863205 -0.096927255 0.35926974 -0.10204786
0.30689478 0.010523445 -0.13205132 0.08945158 -0.23922062 0.20777841 0.09015859 0.39608693
0.30608112 -0.2615264 -0.2112833 -0.31545454 -0.020682488 -0.24430846 -0.0047025867 -0.2528088
-0.35330898 0.34661633 -0.38671562 -0.10732175 -0.40667865 0.023419045 0.2248717 -0.29457954
0.13573928 0.3960872 0.019686354 0.39796147 -0.021009993 -0.32750502 0.16426528 -0.18630879
-0.3895587 0.023972968 -0.11250451 0.36294225 0.34095344 -0.22205968 -0.38760304 -0.16455914
0.330234 -0.30143148 0.08411293 -0.2783677 0.14548072 -0.21252593 0.31957367 0.20832056
0.22084402 0.03450001 0.051793028 -0.22237521 -0.19662751 -0.23004016 -0.139352 -0.16068313
0.22123587 0.056779023 0.2594888 0.0876094 0.18084626 0.2923352 0.38374218 0.19185288
00000000: 9d81 89be 5cb9 bfbe 449f 9d3d 4f99 03be
00000010: 549b 2ebe c332 06be d3ab 87be 556b 753e
00000020: a936 153d 051b 99bd 6070 573e b16a 823e
00000030: fb8f a0be bb2b 1a3c 9864 31be 5a9f 233e
00000040: 2a0f 8fbd f6a8 8dbc 23d0 80be 69d0 7a3e
00000050: fe22 5bbd 4d00 823e 35d1 43be 9f8a 703e
00000060: 6b77 f2bc a84a bd3e ca75 4b3c b47a a83d
00000070: f118 83be f646 bdbd f501 89be 1f9c 7dbe
00000080: 42ec f6bd c6fb 803d a6d8 bbbe 633e c53c
00000090: 948f ef3d d2ba bcbe deaa 90be 63fe 8dbe
000000a0: 9526 c0be 4b0e 6bbe e5a3 7fbe 7481 8fbe
000000b0: d0dd 6abe 6e6b 1cbd 716c c2bc 2a70 a93e
000000c0: c6e2 1c3c f104 41be f300 a53e cd6b 573e
000000d0: 223a 23be 763e a93e c678 b8be 6453 1cbe
000000e0: 43fb c0be e18f b63e b900 ef3d 1488 943e
000000f0: 2e61 ad3e cc81 c6bd 34f2 b73e 78fe d0bd
00000100: 5021 9d3e 876a 2c3c 7638 07be 6432 b73d
00000110: 40f6 74be ddc3 543e 11a5 b83d e8cb ca3e
00000120: aab6 9c3e cae6 85be a65a 58be 4283 a1be
00000130: 526e a9bc ff2b 7abe 2818 9abb 2870 81be
00000140: eae4 b4be b277 b13e 97ff c5be 81cb dbbd
00000150: 2f38 d0be 4cd9 bf3c c444 663e 21d3 96be
00000160: 3dff 0a3e f1cb ca3e 4745 a13c 9bc1 cb3e
00000170: 261d acbc bdae a7be 2835 283e bbc7 3ebe
00000180: 3d74 c7be f562 c43c c468 e6bd 91d3 b93e
00000190: 7391 ae3e 9d63 63be e873 c6be 3182 28be
000001a0: 6e14 a93e 3a55 9abe 6643 ac3d 3686 8ebe
000001b0: e6f8 143e 66a0 59be 299f a33e fc51 553e
000001c0: ef24 623e e24f 0d3d ed24 543d 54b6 63be
000001d0: b958 49be a68f 6bbe 4ab2 0ebe 1e8a 24be
000001e0: a88b 623e 1f91 683d b7db 843e 8f6c b33d
000001f0: c32f 393e f6ac 953e db79 c43e 1575 443e

gat1.att_dst f4 [1, 4, 32]
0.33086997 -0.13441227 0.3218276 -0.07362938 0.02675502 -0.030768754 0.07311969 0.17971158
0.055128783 0.12232995 0.17056894 0.3471936 0.3249915 -0.12115377 0.15136036 0.40257806
0.018052734 0.3399449 -0.011239374 -0.01269034 -0.31688857 0.35067186 -0.13078669 0.17060691
0.2607874 -0.21125963 -0.1634331 0.058885723 -0.22282012 0.059481096 -0.26049063 -0.25644216
-0.20086358 -0.3722208 -0.06515054 0.38363418 0.0909131 -0.20165421 -0.119620636 -0.19200581
0.34614998 0.25285316 0.2781023 0.20057777 0.12438072 -0.29095235 0.1535045 0.28361756
0.15170588 0.011304498 -0.38399038 -0.05692322 -0.13663097 -0.19254342 -0.18553907 0.39953676
-0.08445671 -0.26707494 -0.24398094 0.28753868 -0.37583268 0.2144514 0.07030171 0.3158651
0.39558738 -0.35238367 0.25088793 -0.34184223 0.2559651 -0.103909075 -0.10036134 -0.25568652
0.30241984 -0.39638263 -0.24721102 0.23426795 0.14233784 0.2597773 0.358853 0.39441258
-0.38999435 0.17604679 0.029153312 -0.14944732 0.34991077 0.39866135 -0.16935559 -0.40531337
0.042368244 -0.04666414 0.16406426 0.3827553 -0.26027665 -0.009779273 -0.36635467 0.28449
-0.374891 -0.15664406 0.1322059 -0.39148128 0.23780525 -0.3583146 -0.3527979 0.2140146
0.09399746 0.33375025 0.22932073 0.32806215 0.3827863 0.07551994 0.2795179 -0.07429717
-0.12679148 -0.21550576 -0.24814342 0.02583581 0.2188568 0.21436733 0.24862427 0.0042341975
-0.40470156 0.12802333 0.3491235 -0.18142137 0.11705723 -0.20448236 -0.043945104 -0.02609213
00000000: ca67 a93e 5fa3 09be 96c6 a43e 00cb 96bd
00000010: 582d db3c c10e fcbc c7bf 953d 5006 383e
00000020: b8ce 613d 2088 fa3d a0a9 2e3e 5cc3 b13e
00000030: 4965 a63e 781f f8bd 36fe 1a3e b61e ce3e
00000040: 54e3 933c 420d ae3e 5a25 38bc 25eb 4fbc
00000050: 383f a2be 438b b33e f2ec 05be 94b3 2e3e
00000060: ed85 853e 7254 58be 025b 27be 2832 713d
00000070: f52a 64be 73a2 733d 075f 85be 634c 83be
00000080: 2faf 4dbe ba93 bebe a56d 85bd b36b c43e
00000090: a630 ba3d 717e 4ebe aafb f4bd 2c9d 44be
000000a0: 923a b13e f875 813e 6d63 8e3e 4264 4d3e
000000b0: 52bb fe3d b5f7 94be 4930 1d3e 5236 913e
000000c0: c958 1b3e 8036 393c 639a c4be 5328 69bd
000000d0: fde8 0bbe 1a2a 45be f4fd 3dbe 1590 cc3e
000000e0: a4f7 acbd 0cbe 88be 24d6 79be 4538 933e
000000f0: 246d c0be 2699 5b3e 58fa 8f3d 12b9 a13e
00000100: 6e8a ca3e a26b b4be 6274 803e f205 afbe
00000110: dc0d 833e 48ce d4bd 3f8a cdbd 58e9 82be
00000120: c6d6 9a3e aaf2 cabe e324 7dbe f0e3 6f3e
00000130: 03c1 113e 8801 853e 95bb b73e 72f0 c93e
00000140: 57ad c7be 9c45 343e edd2 ee3c b808 19be
00000150: 8127 b33e 571d cc3e 8d6b 2dbe 3c85 cfbe
00000160: 538a 2d3d e622 3fbd 7600 283e 81f8 c33e
00000170: fb42 85be 3e39 20bc d792 bbbe aca8 913e
00000180: b7f1 bfbe 4d67 20be fc60 073e 3c70 c8be
00000190: 3883 733e 0375 b7be eda1 b4be a526 5b3e
000001a0: be81 c03d 50e1 aa3e 0ed3 6a3e c3f7 a73e
000001b0: 91fc c33e 33aa 9a3d f81c 8f3e 1d29 98bd
000001c0: a0d5 01be 8bad 5cbe 4f19 7ebe 9fa5 d33c
000001d0: ff1b 603e 1c83 5b3e 5c97 7e3e 06bf 8a3b
000001e0: 0b35 cfbe 8c18 033e 51c0 b23e 86c6 39be
000001f0: b3bb ef3d d363 51be c8ff 33bd 2abf d5bc

gat1.bias f4 [128]
0.00032327775 0.00015231011 0.00028911367 -0.0005558128 4.3863573e-05 7.5354415e-05 -0.00031307523 -0.0001383742
-0.0003479706 0.00047416464 0.00023525271 -0.0005267482 -0.00010511465 3.2868185e-05 -2.4912964e-05 5.2547373e-05
0.0001767695 0.00015389628 -1.4767347e-05 -0.00033269924 -9.017886e-05 -0.0002925734 -0.00048008186 -0.00020995276
0.00019974276 -6.6749794e-06 -4.9328442e-05 -0.000256884 -0.00015405298 -0.00031681854 -0.000106168474 0.00024673043
0.0004531744 -0.00023591095 -7.7941695e-05 -4.0034196e-05 -0.00028721397 0.00027952582 0.00021255967 0.00020082205
-0.00011471144 -9.059809e-05 -7.609466e-05 0.00032206974 -0.00015481189 4.7100773e-05 -0.00041494003 0.0002055861
8.83545e-05 0.000103096165 -9.436737e-05 -6.789058e-06 -8.410058e-05 2.2437373e-06 -3.2679513e-05 0.00019842543
-7.3196104e-05 -6.679707e-05 -5.0458297e-05 -6.069355e-05 -0.0002170963 0.0003023108 -1.5462307e-05 0.00019574701
0.00035721823 -0.00031634682 -8.774425e-06 -0.0001547416 -0.00032239762 4.782184e-05 -9.0979775e-05 -6.25404e-05
-3.4237015e-05 5.951139e-05 0.00021303463 -0.0002593469 0.00028011942 -4.0399067e-05 -3.0483916e-05 -0.00027459464
0.0001875478 -0.00026879102 -0.00018672658 5.0102266e-05 0.00033613262 0.0003500597 7.8613986e-05 4.020014e-05
-0.000227486 6.160442e-05 2.8832304e-05 -0.00011129198 0.00017305852 -5.985094e-05 7.934076e-05 0.00024389022
0.0003750319 -9.395915e-05 -0.00013915871 -0.00026645468 0.00034573697 -0.00018208391 0.00018558188 0.00033409605
-2.0387892e-05 9.420455e-05 0.00025860828 -0.0006112108 8.352192e-05 -0.00016525084 0.0005299384 0.00025886635
0.0003491945 -4.9432092e-05 0.00042917085 0.00025273723 0.00023470426 8.572688e-05 9.032568e-05 -0.0001339798
-3.2308915e-05 2.2089218e-05 0.00027639975 -3.0216608e-05 -6.846908e-05 3.73113e-05 5.1879288e-05 -0.00051515165
00000000: 9b7d a939 6fb5 1f39 2e94 9739 f7b3 11ba
00000010: 27fa 3738 9807 9e38 3f24 a4b9 8b18 11b9
00000020: d36f b6b9 4d99 f839 2bae 7639 7915 0aba
00000030: ff70 dcb8 f2db 0938 2ffc d0b7 5066 5c38
00000040: 345b 3939 385f 2139 46c1 77b7 236e aeb9
00000050: 681e bdb8 8964 99b9 7fb3 fbb9 c426 5cb9
00000060: 0a72 5139 a3f9 dfb6 03e6 4eb8 63ae 86b9
00000070: 4889 21b9 aa1a a6b9 c4a6 deb8 995b 8139
00000080: 0a98 ed39 dd5e 77b9 a174 a3b8 64ea 27b8
00000090: 3595 96b9 528d 9239 8de2 5e39 c293 5239
000000a0: 3c91 f0b8 7bff bdb8 0295 9fb8 78db a839
000000b0: 0055 22b9 128e 4538 4f8c d9b9 9992 5739
000000c0: f64a b938 5535 d838 19e7 c5b8 90cd e3b6
000000d0: 285f b0b8 1d93 1636 5c11 09b8 6c10 5039
000000e0: dc80 99b8 6715 8cb8 2fa3 53b8 3491 7eb8
000000f0: 58a4 63b9 787f 9e39 0db5 81b7 7041 4d39
00000100: 0549 bb39 5adb a5b9 de35 13b7 2242 22b9
00000110: 7a07 a9b9 4f94 4838 65cc beb8 1f28 83b8
00000120: b799 0fb8 de9b 7938 0c62 5f39 f4f8 87b9
00000130: fedc 9239 2b72 29b8 b6b7 ffb7 78f7 8fb9
00000140: 7ba8 4439 85ec 8cb9 09cc 43b9 e624 5238
00000150: f53a b039 3888 b739 90dd a438 929c 2838
00000160: 4f89 6eb9 9f31 8138 e7dc f137 6d65 e9b8
00000170: 0b77 3539 7508 7bb8 bf63 a638 c8bc 7f39
00000180: ee9f c439 ef0b c5b8 22eb 11b9 f1b2 8bb9
00000190: 0844 b539 c7ed 3eb9 c298 4239 9d29 af39
000001a0: aa06 abb7 af8f c538 d195 8739 aa39 20ba
000001b0: 7d28 af38 2f47 2db9 90eb 0a3a 74b8 8739
000001c0: 1814 b739 4e55 4fb8 5602 e139 d181 8439
000001d0: f21a 7639 45c8 b338 3b6d bd38 ee7c 0cb9
000001e0: 6f83 07b8 3c4c b937 bfe9 9039 ac79 fdb7
000001f0: 0f97 8fb8 b47e 1c38 f698 5938 3e0b 07ba

gat1.lin.weight f4 [128, 5]
0.19327548 -0.06792383 0.06412682 0.17414528 -0.1993528 -0.092775874 -0.07800562 -0.10108266
-0.19815977 0.05098006 -0.13425952 0.107754335 -0.0003605651 0.065345384 -0.20878083 0.006135134
-0.06929299 -0.013643795 0.0067278654 0.20678316 -0.18964401 -0.16022806 0.18103282 0.11184454
0.06719278 -0.1987204 0.016554425 0.005799787 -0.15859908 -0.14678389 0.0035815884 -0.077255845
-0.026502298 0.11816062 0.1394867 0.21161728 0.029717382 0.20132121 -0.061477218 -0.033520117
0.021659814 -0.038801413 -0.08724623 0.13016577 -0.20693214 -0.18721943 -0.03601056 -0.1749565
0.043499425 0.17296982 0.036281552 -0.19959413 -0.16486208 -0.001972437 0.0750976 0.21170522
-0.119476974 -0.11300571 -0.03441575 -0.012651455 -0.18950194 0.06667716 -0.08428247 -0.1550464
0.16063474 0.10469375 0.014120333 -0.13528357 0.063945696 0.040711273 0.094250865 0.19884509
-0.21106723 -0.06170235 -0.19565219 0.02308413 0.1684915 -0.079381794 0.058152273 0.11047228
-0.08802879 -0.025550464 -0.054172937 0.16387914 0.055639822 0.030815192 -0.17125948 -0.2030811
0.154604 -0.05096448 0.08888416 0.18151002 -0.13912939 -0.19857848 -0.11163049 -0.114495955
-0.08383798 0.1307363 -0.20046405 0.15065645 0.051556733 -0.11977297 0.05337135 0.18113662
0.07517455 -0.19564041 -0.08439568 -0.15785071 -0.13047008 0.20220675 -0.19275454 -0.12468296
-0.011750534 0.13742456 0.050809853 0.16438982 -0.20356107 -0.055690367 -0.026515327 0.04696239
0.015202289 0.13632338 -0.14911021 -0.1112218 0.18911445 0.12459052 0.20513251 -0.16013882
-0.009247209 -0.18846732 0.05015121 -0.12918574 -0.11632771 0.10172002 -0.021534331 -0.045212798
-0.10002396 0.16765167 -0.003271097 -0.08460913 -0.007783326 -0.15325187 -0.050986826 0.09540502
-0.049379274 0.102718025 0.15366755 0.20282744 0.11727759 0.08711203 -0.09627758 -0.04977744
0.033827625 0.1645938 -0.13409196 0.09808765 0.13700353 -0.051344335 0.09533461 0.17031643
-0.12377417 -0.08853322 -0.0446709 0.19954042 -0.0062215663 -0.08601506 0.08056511 -0.20641449
0.11438993 0.021618802 -0.094184585 -0.16428821 0.0021417427 -0.12818025 -0.08979215 0.17816736
0.16045335 0.034403853 -0.12878557 0.18680485 -0.086010806 -0.0088451905 -0.105696544 -0.0962667
0.1265415 -0.13176323 -0.018766202 -0.19444665 0.0041500186 0.08350227 0.088145055 0.104204014
-0.08214585 -0.009472292 -0.13608356 -0.18349954 -0.16498964 0.03507801 -0.022443151 -0.0024302783
-0.18492715 0.078263335 0.013734114 0.20335874 -0.16546002 0.046405572 -0.1930028 0.14178665
0.100546665 -0.12308269 -0.12454855 0.1573395 0.15126383 -0.044376515 -0.05176289 0.09930213
-0.08375187 0.1040476 -0.0066461437 0.079928316 0.1592386 -0.05829742 0.14281602 -0.02145856
-0.09734953 0.046472266 0.04136062 -0.20695414 0.06701497 0.21667522 -0.17241928 -0.09374452
-0.022342077 0.10839674 0.20112915 -0.03882688 0.09758891 0.10629095 -0.16522829 -0.041015323
0.14640468 -0.09804847 0.047260206 -0.04460136 -0.21640043 0.193107 0.20241597 -0.20003459
-0.20773573 -0.20445849 0.19819024 -0.13253017 -0.05532822 0.087460704 0.20800284 -0.14175303
00000000: 02ea 453e a61b 8bbd ec54 833d 2453 323e
00000010: 2423 4cbe 4701 bebd 69c1 9fbd 6d04 cfbd
00000020: 65ea 4abe 78d0 503d 547b 09be 4eae dc3d
00000030: 3b0a bdb9 cdd3 853d a4ca 55be 3c09 c93b
00000040: 7ce9 8dbd 398a 5fbc 6d75 dc3b f7be 533e
00000050: 0a32 42be d312 24be ab60 393e c00e e53d
00000060: 5e9c 893d 5c7d 4bbe 259d 873c 240c be3b
00000070: cc67 22be 844e 16be 15b9 6a3b 5038 9ebd
00000080: 591b d9bc 32fe f13d 9ad5 0e3e 33b2 583e
00000090: de71 f33c 2627 4e3e 89cf 7bbd 644c 09bd
000000a0: ec6f b13c 3bee 1ebd 27ae b2bd 2d4a 053e
000000b0: 05e6 53be 73b6 3fbe cf7f 13bd cc27 33be
000000c0: 742c 323d 001f 313e f79b 143d 6762 4cbe
000000d0: 9bd1 28be 0044 01bb c5cc 993d 41c9 583e
000000e0: 58b0 f4bd 8a6f e7bd 88f7 0cbd 0c48 4fbc
000000f0: cc0c 42be 098e 883d 4a9c acbd 7cc4 1ebe
00000100: 6f7d 243e ad69 d63d f858 673c c787 0abe
00000110: f6f5 823d ddc0 263d 9906 c13d 0c9e 4b3e
00000120: 0222 58be 9abb 7cbd 0c59 48be ee1a bd3c
00000130: 0989 2c3e ec92 a2bd 1431 6e3d 4a3f e23d
00000140: 7048 b4bd 354f d1bc 71e4 5dbd efcf 273e
00000150: 95e6 633d 2470 fc3c a55e 2fbe 7ef4 4fbe
00000160: 8350 1e3e 21c0 50bd e608 b63d c3dd 393e
00000170: ef77 0ebe 2858 4bbe 879e e4bd db7c eabd
00000180: 3fb3 abbd bddf 053e 7346 4dbe af45 1a3e
00000190: 272d 533d 884b f5bd eb9b 5a3d e17b 393e
000001a0: 1df5 993d f655 48be a4d7 acbd 9ea3 21be
000001b0: f399 05be 490f 4f3e 7261 45be c859 ffbd
000001c0: 5085 40bc 06b9 0c3e fe1d 503d ce55 283e
000001d0: 5072 50be 951b 64bd ac36 d9bc a35b 403d
000001e0: 0613 793c 5b98 0b3e 59b0 18be 41c8 e3bd
000001f0: 38a7 413e 5129 ff3d 420e 523e 6efb 23be
00000200: 9b81 17bc 94fd 40be 5b6b 4d3d 4449 04be
00000210: 393d eebd 9652 d03d c468 b0bc 0e31 39bd
00000220: 5dd9 ccbd e1ac 2b3e e75f 56bb 8d47 adbd
00000230: 450b ffbb 0fee 1cbe 90d7 50bd b563 c33d
00000240: ec41 4abd d45d d23d 075b 1d3e ffb1 4f3e
00000250: 3c2f f03d cb67 b23d 2e2d c5bd 6ee3 4bbd
00000260: d68e 0a3d 478b 283e 674f 09be 2ee2 c83d
00000270: a74a 0c3e 704e 52bd cb3e c33d 6e67 2e3e
00000280: 507d fdbd e850 b5bd d5f8 36bd 5354 4c3e
00000290: 48de cbbb aa28 b0bd 52ff a43d 525e 53be
000002a0: 4545 ea3d ea19 b13c d9e3 c0bd 2b3b 28be
000002b0: 7b5c 0c3b af41 03be f2e4 b7bd 8171 363e
000002c0: e24d 243e 0eeb 0c3d 5de0 03be c549 3f3e
000002d0: 6f26 b0bd 6beb 10bc 6e77 d8bd 7a27 c5bd
000002e0: 1894 013e f1ec 06be 94bb 99bc 061d 47be
000002f0: e1fc 873b 3d03 ab3d 6585 b43d ea68 d53d
00000300: 153c a8bd ac31 1bbc 7d59 0bbe 4ee7 3bbe
00000310: 0bf3 28be f6ad 0f3d b3da b7bc 4e45 1fbb
00000320: 8b5d 3dbe 8748 a03d 0d05 613c 463d 503e
00000330: 5a6e 29be c513 3e3d 87a2 45be 8530 113e
00000340: 69eb cd3d c712 fcbd 4f13 ffbd 9b1d 213e
00000350: e8e4 1a3e 26c4 35bd 5305 54bd ea5e cb3d
00000360: 1a86 abbd e816 d53d e5c7 d9bb 75b1 a33d
00000370: 720f 233e 47c9 6ebd 5d3e 123e ddc9 afbc
00000380: 315f c7bd b459 3e3d c169 293d c9eb 53be
00000390: 253f 893d 1ce0 5d3e ae8e 30be 20fd bfbd
000003a0: bb06 b7bc 1cff dd3d cdf4 4d3e ef08 1fbd
000003b0: b2dc c73d 12af d93d 9b31 29be afff 27bd
000003c0: 1ceb 153e a3cd c8bd eb93 413d eaaf 36bd
000003d0: 1398 5dbe d7bd 453e 2246 4f3e ded5 4cbe
000003e0: adb8 54be 915d 51be 62f2 4a3e fdb5 07be
000003f0: d89f 62bd 991e b33d b2fe 543e b527 11be

sage1.lin_l.weight f4 [128, 128]
-0.05947991 -0.0566962 0.004798009 0.038035296 -0.07294746 -0.027825441 -0.066089034 0.023228718
-0.0023068832 0.07198376 0.04977613 0.06563223 -0.06733082 0.026718332 0.010326299 -0.08268703
0.021178633 -0.050385218 0.0565893 -0.04440593 0.014212653 -0.019549018 0.079929166 -0.0053049857
0.07835571 -0.07196587 0.0612778 0.015486251 0.05697991 0.03682882 0.031075636 0.033308037
0.01695917 0.072709806 0.07518178 0.035390932 0.049052786 -0.005370849 -0.024695614 0.08434295
0.047842503 -0.021995144 0.0008549541 0.05183824 0.08074354 -0.06506384 0.06822152 -0.039778557
-0.0090673985 -0.030645097 0.056183398 0.016042266 0.041610163 0.06542001 -0.025045786 -0.06893431
0.043707486 -0.077738546 -0.024516433 -0.08279304 0.044679727 -0.08519244 -0.03471713 -0.058258377
0.007787014 -0.08283195 0.066803746 0.064778164 0.08566733 0.028484179 -0.06644249 -0.014761982
-0.013617323 -0.053561732 -0.04324068 -0.03901269 -0.039005876 -0.0036347979 -0.06937578 0.08038348
0.029636513 0.069008335 0.07700124 0.08622604 -0.06658892 -0.05383061 -0.031034127 0.03545319
-0.06860023 -0.035666514 -0.050994687 0.025972487 0.07416992 0.01617262 0.03656234 0.08860435
-0.048603505 -0.07949186 -0.081729665 -0.052160006 -8.8762026e-05 0.04218523 -0.020171944 -0.034798164
-0.06664918 -0.041189216 0.054267943 0.05335616 0.089453794 0.0642784 -0.04725542 0.07228183
0.046952084 0.059690163 0.06873072 -0.08498186 0.072927326 0.024005342 0.05226661 0.0466128
0.010378493 -0.03457195 0.03900301 0.07902622 -0.020833272 0.08019597 -0.02978735 -0.06474037
-0.023096217 0.026549688 -0.065034226 0.06370785 -0.03026663 0.064267576 0.026786527 0.08553373
0.008791456 0.037893064 -0.04431125 -0.02677651 0.085677475 -0.061031718 -0.051898707 0.08087004
0.086522564 -0.05836461 -0.026263231 -0.023945387 -0.056787208 0.020894583 0.0050668926 -0.008588482
0.071777515 -0.024271559 0.055822156 -0.05948932 -0.0596405 0.014765502 0.014125221 -0.03416522
-0.02060111 0.025211483 -0.064250804 -0.0020223726 0.02531456 -0.038620777 -0.009438664 -0.07340425
0.00681165 0.046874493 -0.0070409877 -0.010111353 0.051089816 -0.07289137 0.052433427 0.013936331
-0.010994492 -0.0016271784 0.051015776 0.017521003 0.027442377 0.06597958 0.06551921 -0.059418723
0.070409656 0.032695446 -0.014270953 0.07558626 -0.02276386 0.06987511 0.07365782 0.06285815
0.015699992 0.052616168 0.01643508 -0.018596835 -0.07539619 0.03215129 0.062195506 -0.010876608
0.014528319 -0.031383965 0.020996816 -0.08184522 -0.012417942 0.087993614 0.028553395 -0.0016901608
0.08120445 -0.04470527 0.0679835 0.08513012 -0.032035593 -0.071134314 -0.07923726 -0.030405931
-0.075194806 -0.012762257 0.06547952 -0.050857216 0.08376336 0.04863491 -0.024994694 0.07108989
-0.044308607 0.025658116 0.046686765 -0.013740094 0.017234236 -0.0660586 0.020315543 0.048111957
0.07030679 0.030393478 -0.020090323 -0.031809416 -0.07132024 0.04736911 -0.0019350437 -0.033592984
-0.00026517906 0.053314522 -0.042722072 -0.031918533 -0.021640882 0.021503408 -0.08419 -0.065434754
0.04920671 0.040087853 -0.0048953523 0.058152523 -0.06824522 -0.07275571 -0.02594685 0.024336448
00000000: 35a1 73bd 463a 68bd 9e38 9d3b e6ca 1b3d
00000010: 7a65 95bd 2ef2 e3bc b059 87bd 274a be3c
00000020: 142f 17bb 396c 933d 0ee2 4b3d 316a 863d
00000030: bee4 89bd 67e0 da3c a32f 293c d157 a9bd
00000040: d07e ad3c bb60 4ebd 2fca 673d fee2 35bd
00000050: 30dc 683c 4325 a0bc e7b1 a33d 72d5 adbb
00000060: f578 a03d d862 93bd 6efe 7a3d 0bba 7d3c
00000070: c463 693d d1d9 163d 5592 fe3c 026e 083d
00000080: f5ed 8a3c e1e8 943d e8f8 993d 15f6 103d
00000090: 93eb 483d f2fd afbb 754e cabc ffbb ac3d
000000a0: 80f6 433d 292f b4bc 001f 603a 5654 543d
000000b0: de5c a53d 3140 85bd b9b7 8b3d d7ee 22bd
000000c0: 6d8f 14bc 6d0b fbbc 9020 663d 126b 833c
000000d0: 6b6f 2a3d edfa 853d d22c cdbc 6e2d 8dbd
000000e0: 9f06 333d 6335 9fbd b0d6 c8bc 668f a9bd
000000f0: 1702 373d 6079 aebd 8d33 0ebd 56a0 6ebd
00000100: 352a ff3b cca3 a9bd 67d0 883d 6aaa 843d
00000110: 5a72 af3d a757 e93c 0013 88bd 3ddc 71bc
00000120: 311b 5fbc 8c63 5bbd 241d 31bd c5cb 1fbd
00000130: a0c4 1fbd ca35 6ebb e414 8ebd 18a0 a43d
00000140: 46c8 f23c 3e54 8d3d d3b2 9d3d 4797 b03d
00000150: c65f 88bd 7c7d 5cbd 483b febc 5d37 113d
00000160: 477e 8cbd 0d17 12bd cedf 50bd 41c4 d43c
00000170: 66e6 973d 717c 843c 64c2 153d 3376 b53d
00000180: 7814 47bd a1cc a2bd e261 a7bd bba5 55bd
00000190: c025 bab8 6bca 2c3d a23f a5bc 8588 0ebd
000001a0: 5e7f 88bd 06b6 28bd 1048 5e3d fd8b 5a3d
000001b0: 8d33 b73d 65a4 833d e68e 41bd 7f08 943d
000001c0: d450 403d ac7d 743d b1c2 8c3d f80a aebd
000001d0: ec5a 953d daa6 c43c 8315 563d 10ed 3e3d
000001e0: 8e0a 2a3c 519b 0dbd 9fc1 1f3d 80d8 a13d
000001f0: 8aaa aabc c93d a43d 9a04 f4bc 9996 84bd
00000200: 4734 bdbc bb7e d93c aa30 85bd 4379 823d
00000210: b9f1 f7bc b89e 833d 6b6f db3c 4f2c af3d
00000220: 0a0a 103c c235 1b3d b77f 35bd 695a dbbc
00000230: ac77 af3d 65fc 79bd bd93 54bd 319f a53d
00000240: be32 b13d bb0f 6fbd fd25 d7bc 1e29 c4bc
00000250: b499 68bd 1e2b ab3c 2d08 a63b b4b6 0cbc
00000260: 1700 933d 26d5 c6bc c6a5 643d 13ab 73bd
00000270: 9949 74bd 01eb 713c 796d 673c d4f0 0bbd
00000280: a9c3 a8bc 5088 ce3c ed95 83bd c889 04bb
00000290: 7b60 cf3c d230 1ebd a0a4 1abc f854 96bd
000002a0: 4334 df3b 78ff 3f3d 16b8 e6bb 17aa 25bc
000002b0: 8e43 513d 1248 95bd 6fc4 563d 3555 643c
000002c0: 3e22 34bc 0c47 d5ba ebf5 503d 3588 8f3c
000002d0: d6ce e03c 4d20 873d f02e 863d 0c61 73bd
000002e0: f032 903d a9eb 053d b7d0 69bc f8cc 9a3d
000002f0: 467b babc af1a 8f3d e9d9 963d c6bb 803d
00000300: 459d 803c 0d84 573d dca2 863c 6458 98bc
00000310: 5169 9abd 12b1 033d b7c0 7e3d cd33 32bc
00000320: 3008 6e3c 798c 00bd 8401 ac3c 779e a7bd
00000330: a074 4bbc ff35 b43d cfe8 e93c 6388 ddba
00000340: 854e a63d e01c 37bd ef3a 8b3d b358 ae3d
00000350: c137 03bd deae 91bd 2547 a2bd dc15 f9bc
00000360: bcff 99bd c918 51bc 201a 863d a84f 50bd
00000370: 208c ab3d 6635 473d acc1 ccbc 9497 913d
00000380: f17c 35bd f830 d23c 9f3a 3f3d 221e 61bc
00000390: d02e 8d3c bb49 87bd c86c a63c 0b11 453d
000003a0: 02fd 8f3d befb f83c 7694 a4bc 974a 02bd
000003b0: 5910 92bd 1d06 423d 4ba1 fdba cc98 09bd
000003c0: bb07 8bb9 5460 5a3d 57fd 2ebd 02bd 02bd
000003d0: 3848 b1bc ea27 b03c cf6b acbd a802 86bd
000003e0: fa8c 493d 2933 243d 3169 a0bb 5731 6e3d
000003f0: 26c4 8bbd f200 95bd 7d8e d4bc 3b5d c73c

sage1.lin_l.bias f4 [128]
0.083207086 0.0013946692 0.025590535 -0.013493729 0.07325504 -0.05105133 0.0801451 -0.04797663
-0.05760945 0.045619544 0.073143765 -0.05667757 0.070185795 -0.07582963 -0.05508423 0.055071957
-0.053579208 0.05199401 0.0015096631 -0.026392926 -0.014728108 0.07475111 -0.05892614 0.019521672
0.004596774 -0.045429785 -0.027118664 -0.07093998 -0.07430156 0.07485483 -0.01092893 0.044886053
0.05475517 0.06766214 0.033349473 0.0121149635 -0.08603508 0.040413868 0.07162754 -0.08037491
0.011673571 0.028693626 0.087262705 0.021711985 -0.07900001 0.05433622 0.01325845 -0.052331995
0.041480873 -0.02866408 -0.041376203 0.026722806 -0.06746443 0.038717356 0.04336337 0.012121765
-0.017128693 -0.012532474 0.013909717 -0.008478629 0.076680005 -0.079891175 -0.04006353 -0.06388969
-0.07746146 0.08344983 0.018751215 -0.0031522857 0.025527887 0.052409485 -0.056261916 0.014064286
0.016919725 -0.018576141 -0.06830064 0.012364387 0.028252862 0.087771386 -0.07885389 -0.020182837
-0.05096418 0.04861945 0.046214793 0.011718902 -0.056608062 -0.00010753732 0.06157569 0.08833087
0.02957188 -0.055557713 0.06922957 -0.04823428 0.044783443 -0.02188803 -0.06347363 -0.06518579
-0.07732399 0.019071044 0.030463714 -0.060630087 0.04298127 -0.06251466 -0.052418765 -0.055240013
0.0018442405 -0.030035809 -0.06596554 -0.024942972 0.07931511 0.0115688825 -0.0024826233 0.064643696
-0.01408164 -0.013029671 0.08113108 -0.0063120592 -0.052319046 0.07923166 -0.046844814 0.06857849
0.08334597 0.06867651 -0.07908631 0.015375 -0.011082012 -0.06206744 -0.03571031 0.061339453
00000000: 7a68 aa3d 55cd b63a 3ea3 d13c cd14 5dbc
00000010: bd06 963d 331b 51bd 1d23 a43d 2583 44bd
00000020: e3f7 6bbd 8fdb 3a3d 66cc 953d bd26 68bd
00000030: 92bd 8f3d 914c 9bbd 00a0 61bd 2293 613d
00000040: df75 5bbd acf7 543d e3df c53a fa35 d8bc
00000050: 2a4e 71bc 1c17 993d 895c 71bd eaeb 9f3c
00000060: 89a0 963b 9514 3abd f627 debc fb48 91bd
00000070: 6b2b 98bd 7d4d 993d 410f 33bc 70da 373d
00000080: f546 603d 7392 8a3d 7599 083d d77d 463c
00000090: 2933 b0bd 0389 253d 76b1 923d 9a9b a4bd
000000a0: 8142 3f3c e50e eb3c cab6 b23d 55dd b13c
000000b0: c2ca a1bd a88f 5e3d f839 593c 135a 56bd
000000c0: d9e7 293d efd0 eabc 187a 29bd c9e9 da3c
000000d0: cb2a 8abd 1796 1e3d ca9d 313d 5e9a 463c
000000e0: 7951 8cbc 0155 4dbc 95e5 633c f3e9 0abc
000000f0: 680a 9d3d fc9d a3bd a819 24bd 99d8 82bd
00000100: 1da4 9ebd bfe7 aa3d 269c 993c 9496 4ebb
00000110: dc1f d13c 54ab 563d e572 66bd e46d 663c
00000120: 3c9b 8a3c fe2c 98bc 35e1 8bbd ff93 4a3c
00000130: 8c72 e73c 7cc1 b33d 267e a1bd 7a56 a5bc
00000140: d1bf 50bd 3025 473d b94b 3d3d a300 403c
00000150: dbdd 67bd a985 e1b8 ca36 7c3d d1e6 b43d
00000160: ba40 f23c 7c90 63bd 3cc8 8d3d 4f91 45bd
00000170: d86e 373d 874e b3bc 76fe 81bd 2180 85bd
00000180: 0a5c 9ebd e13a 9c3c 0a8f f93c 4157 78bd
00000190: 210d 303d b007 80bd 0fb5 56bd 5a43 62bd
000001a0: 71ba f13a a80d f6bc f118 87bd 3455 ccbc
000001b0: f66f a23d 698b 3d3c 82b3 22bb ea63 843d
000001c0: aeb6 66bc 677a 55bc 0d28 a63d 64d5 cebb
000001d0: 7f4c 56bd 3544 a23d 59e0 3fbd e172 8c3d
000001e0: 4bb1 aa3d 45a6 8c3d 01f8 a1bd 6de7 7b3c
000001f0: 5491 35bc 6e3a 7ebd f944 12bd 143f 7b3d

sage1.lin_r.weight f4 [128, 128]
-0.028024038 0.010930462 -0.08604563 0.0326627 0.0346694 -0.06476448 0.076001 0.028136674
0.04244563 -0.023105212 0.046648175 -0.086664446 -0.020334218 0.039928697 0.06671694 0.019632934
-0.051021658 -0.077171884 -0.015142442 0.052084144 0.07546536 -0.019552046 0.028319286 -0.032469083
-0.051001634 -0.080286846 0.04774162 -0.06038409 0.034193978 0.07886637 0.08787585 -0.07615081
-0.025226703 0.024691846 -0.003600292 -0.03642938 0.07281004 0.01569934 -0.08152404 -0.0013940313
-0.06160953 0.046910845 -0.016011253 -0.0756767 0.024487747 0.05537316 0.0047177854 0.04753284
-0.0015409952 0.0071983207 -0.07735546 -0.077561386 0.07810218 -0.009728878 -0.011186033 -0.038943306
-0.07171168 -0.015874863 0.062646456 -0.079148054 0.035033308 -0.082656205 -0.041731637 -0.06984553
0.012940213 0.005528658 0.065333076 0.009064935 -0.07885468 -0.0009384396 0.012764238 -0.01841161
0.05919733 -0.075725056 -0.07525647 0.041042753 0.028567847 -0.055064365 0.06330938 0.060175065
-0.009147195 -0.004593132 0.07400505 0.0016687929 -0.032770324 -0.009200604 0.042476106 -0.054706883
-0.08344943 0.032547507 -0.06210171 0.021495923 -0.01801457 -0.0056631044 0.017408188 0.018273655
0.009000533 -0.03805563 -0.047392555 -0.05349834 0.055694364 0.016993888 -0.08008799 -0.077598
0.08124878 -0.069722995 -0.05359602 -0.044956725 0.007850256 -0.07373722 -0.07506081 0.020548841
0.061732158 0.058748595 -0.045826685 -0.084219255 0.06834771 0.04434249 0.08742217 -0.0727379
0.06820876 -0.00467212 0.034571294 0.06897587 -0.023582183 0.046950813 -0.061523084 -0.03179471
0.008514115 -0.05317532 -0.07575933 -0.043309297 -0.057357524 -0.07083642 0.025535071 -0.06377591
-0.043849733 -0.009337525 -0.076778345 0.03913508 -0.06133823 0.06898429 0.08100887 0.014237912
0.045709077 0.06779997 0.031042011 -0.030045183 -0.06815622 0.054469135 0.050356902 -0.05687182
0.05866572 -0.017691977 -0.07976235 -0.028438745 -0.048899215 -0.00903676 0.011955881 0.085954875
-0.030299477 -0.049120594 0.08551015 -0.06907648 0.004220386 -0.00037938924 0.05343689 0.07000944
0.0035284504 0.024472805 -0.08588352 -0.0010161143 0.053488612 -0.058100197 -0.0075990977 0.021254808
-0.08375499 0.02923613 0.00844144 -0.029146116 0.005221614 -0.083105616 -0.020443326 -0.07317564
-0.07258988 -0.06537235 0.08416453 0.020216929 -0.048840284 0.026567688 -0.068606414 0.043448128
-0.0015567546 0.077607594 -0.0370939 -0.07154844 0.0032564239 -0.07636292 0.061256297 -0.04811496
-0.0333362 -0.0018233219 -0.047241524 -0.061688475 0.03785725 0.046703152 -0.058213558 -0.03859561
-0.055432096 -0.08392788 -0.06815707 0.06502105 -0.028562654 -0.08877659 -0.066323 0.0449468
-0.020774018 -0.010922584 0.050954886 -0.036057293 0.016442746 -0.034296565 -0.0047642523 0.04613804
-0.00932827 -0.07947372 0.036376607 -0.06437466 -0.058359887 -0.0016874673 0.055412017 -0.05510217
-0.063020244 -0.024471022 -0.05493518 -0.066318244 0.056164615 0.00023809355 0.04216482 -0.09015565
-0.06427676 0.017223638 0.014262768 0.052292295 0.0008187238 0.072328076 -0.029067095 0.057608694
-0.003937634 -0.08635799 -0.08472877 0.0455521 0.027390141 -0.022363557 -0.08074079 0.07607573
00000000: ab92 e5bc ae15 333c b138 b0bd 53c9 053d
00000010: 8001 0e3d 3da3 84bd 6aa6 9b3d e27e e63c
00000020: 78db 2d3d 2447 bdbc 2812 3f3d 217d b1bd
00000030: f293 a6bc 468c 233d e4a2 883d 3fd5 a03c
00000040: 16fc 50bd 4b0c 9ebd 0118 78bc 2f56 553d
00000050: 958d 9a3d 9d2b a0bc d9fd e73c 4dfe 04bd
00000060: 17e7 50bd 6e6d a4bd b88c 433d 4f55 77bd
00000070: fc0e 0c3d b184 a13d 41f8 b33d f5f4 9bbd
00000080: 3ba8 cebc 8e46 ca3c e0f2 6bbb f936 15bd
00000090: 6e1d 953d e79b 803c 13f6 a6bd eeb7 b6ba
000000a0: 465a 7cbd 9625 403d 082a 83bc 63fc 9abd
000000b0: 879a c83c f7ce 623d a797 9a3b ccb1 423d
000000c0: 38fb c9ba e4df eb3b 8a6c 9ebd 81d8 9ebd
000000d0: 09f4 9f3d df65 1fbc 9f45 37bc 0483 1fbd
000000e0: 93dd 92bd 000c 82bc c94c 803d 6018 a2bd
000000f0: 167f 0f3d a847 a9bd cbee 2abd 2c0b 8fbd
00000100: 3003 543c bf29 b53b 59cd 853d 1885 143c
00000110: 907e a1bd 9e01 76ba 1821 513c f2d3 96bc
00000120: e678 723d bd15 9bbd 1020 9abd 721c 283d
00000130: 1e07 ea3c 2c8b 61bd 59a8 813d 217a 763d
00000140: 1ede 15bc fc81 96bb f68f 973d 66bb da3a
00000150: 2d3a 06bd 21be 16bc 6dfb 2d3d 5314 60bd
00000160: 89e7 aabd 8950 053d 5d5e 7ebd 3818 b03c
00000170: 4b93 93bc 9091 b9bb 9e9b 8e3c a2b2 953c
00000180: f976 133c 38e0 1bbd b21e 42bd 1321 5bbd
00000190: c61f 643d c436 8b3c 2c05 a4bd b3eb 9ebd
000001a0: c365 a63d eeca 8ebd 8087 5bbd 8b24 38bd
000001b0: 5c9e 003c 8a03 97bd 7bb9 99bd 0b56 a83c
000001c0: dcda 7c3d 5ea2 703d c3b4 3bbd 257b acbd
000001d0: e2f9 8b3d 79a0 353d 650a b33d 9cf7 94bd
000001e0: 09b1 8b3d 9518 99bb a19a 0d3d 3943 8d3d
000001f0: 6c2f c1bc 7f4f 403d a1ff 7bbd 2b3b 02bd
00000200: c97e 0b3c 5dce 59bd b527 9bbd 1765 31bd
00000210: b9ef 6abd af12 91bd ed2e d13c f29c 82bd
00000220: c79b 33bd 6bfc 18bc f73d 9dbd 1b4c 203d
00000230: cc3d 7bbd a347 8d3d fae7 a53d 2246 693c
00000240: 7139 3b3d b6da 8a3d d14b fe3c 5121 f6bc
00000250: 7d95 8bbd 071b 5f3d 0a43 4e3d 6df2 68bd
00000260: 774b 703d c4ee 90bc 715a a3bd 5ff8 e8bc
00000270: 8b4a 48bd eb0e 14bc 99e2 433c 1c09 b03d
00000280: 9c36 f8bc ad32 49bd f21f af3d f877 8dbd
00000290: 2a4b 8a3b c3e8 c6b9 a4e0 5a3d 1c61 8f3d
000002a0: 933d 673b 317b c83c b3e3 afbd 232f 85ba
000002b0: e016 5b3d 79fa 6dbd da01 f9bb 901e ae3c
000002c0: bc87 abbd 9c80 ef3c f74d 0a3c d6c3 eebc
000002d0: 131a ab3b 4733 aabd c378 a7bc 1cdd 95bd
000002e0: 01aa 94bd f0e1 85bd 745e ac3d f99d a53c
000002f0: c00c 48bd 7ba4 d93c 8581 8cbd aaf6 313d
00000300: 040c ccba bbf0 9e3d c6ef 17bd fd87 92bd
00000310: ba69 553b 2a64 9cbd e2e7 7a3d 3114 45bd
00000320: 8a8b 08bd 88fc eeba 5480 41bd 0ead 7cbd
00000330: 3410 1b3d ce4b 3f3d 5771 6ebd 6e16 1ebd
00000340: c40c 63bd 61e2 abbd ef95 8bbd c229 853d
00000350: 3afc e9bc 80d0 b5bd 5ad4 87bd 231a 383d
00000360: 462e aabc a3f4 32bc 12b6 503d d0b0 13bd
00000370: f0b2 863c 8e7a 0cbd 721d 9cbb 3efb 3c3d
00000380: 9ad5 18bc 1ec3 a2bd a3ff 143d ddd6 83bd
00000390: c70a 6fbd 022e ddba b6f7 623d d0b2 61bd
000003a0: c210 81bd 7477 c8bc b603 61bd dcd1 87bd
000003b0: de0c 663d c0a8 7939 05b5 2c3d 87a3 b8bd
000003c0: 89a3 83bd 9618 8d3c 63ae 693c 7230 563d
000003d0: a09f 563a be20 943d 1e1e eebc 18f7 6b3d
000003e0: 4507 81bb 75dc b0bd 4786 adbd d794 3a3d
000003f0: 4a61 e03c c733 b7bc 6d5b a5bd 98cd 9b3d

sagpool.gnn.lin_rel.weight f4 [1, 128]
-0.087964006 0.037044507 -0.009591899 0.06799655 -0.05412309 0.031297468 0.001607996 0.06604543
0.013860039 -0.061036106 -0.054946005 0.058616858 0.07037859 -0.012992933 0.07549335 -0.049123153
0.04278819 -0.00828009 0.028238818 -0.07277698 0.055643108 0.084464245 0.029812898 -0.045624644
0.07621988 -0.053070065 -0.08660662 0.060855962 0.012895278 -0.026434354 -0.031427182 0.089232124
0.015813475 0.04077342 -0.011190391 -0.06762514 0.06444949 0.0205849 -0.0030668606 -0.04623423
0.077886 -0.06389793 0.05607992 -0.031286515 -0.03196656 -0.014719948 0.05386555 0.023165975
-0.07778689 0.072710276 0.03940921 -0.07935542 0.07926191 -0.07093944 0.056493226 -0.076123156
0.05236606 -0.0017740674 0.009044631 -0.02395885 0.014634369 0.059577104 -0.08296646 -0.055571582
-0.085420236 0.039252866 -0.032013483 -0.0120353345 -0.022304518 0.0024429536 -0.058595907 0.05709065
-0.006532743 -0.04224394 -0.050860994 0.07461819 -0.048843935 -0.06416895 0.032733496 0.05207597
0.0429082 0.03912012 -0.03845192 0.039296314 0.0578233 -0.031635873 -0.03328412 -0.05544806
0.07979983 -0.0086785965 -0.07969504 0.08677211 -0.057873186 -0.01484783 0.085547894 -0.06262245
-0.08320592 0.07872511 0.010025151 -0.03350773 0.06426431 0.061423875 -0.01654353 -0.04852881
0.0036929776 0.048293002 -0.020477243 0.026582815 -0.06823193 -0.042032957 0.0640055 0.031024044
-0.055857424 -0.008001473 0.026128076 -0.011989316 -0.04279064 0.077572964 -0.057045873 -0.027378023
-0.02983766 0.05174491 -0.065126695 0.07653753 0.065904334 0.047989145 0.0442633 0.04796258
00000000: 7926 b4bd fbbb 173d 5727 1dbc c641 8b3d
00000010: 2cb0 5dbd c631 003d 64c3 d23a d442 873d
00000020: 3815 633c ff00 7abd 100f 61bd 3b18 703d
00000030: a622 903d 50e0 54bc 429c 9a3d 5c35 49bd
00000040: ab42 2f3d 37a9 07bc 1855 e73c 190c 95bd
00000050: 07ea 633d 97fb ac3d 2e3a f43c e8e0 3abd
00000060: 2b19 9c3d ff5f 59bd d05e b1bd 1a44 793d
00000070: b746 533c dc8c d8bc cab9 00bd 55bf b63d
00000080: 438b 813c 0802 273d e757 37bc 0d7f 8abd
00000090: 18fe 833d aaa1 a83c 62fd 48bb 1b60 3dbd
000000a0: b282 9f3d ebdc 82bd 0fb4 653d 4a26 00bd
000000b0: 5eef 02bd f02b 71bc 1fa2 5c3d 92c6 bd3c
000000c0: bc4e 9fbd 20e9 943d 8d6b 213d 1885 a2bd
000000d0: 1154 a23d b248 91bd 7165 673d 75e6 9bbd
000000e0: cb7d 563d d387 e8ba ef2f 143c 5a45 c4bc
000000f0: fec4 6f3c 1f07 743d 52ea a9bd 079f 63bd
00000100: cef0 aebd 9dc7 203d 9220 03bd da2f 45bc
00000110: f7b7 b6bc f619 203b 4302 70bd e3d7 693d
00000120: 9f10 d6bb fb07 2dbd 9e53 50bd 6cd1 983d
00000130: 9410 48bd 036b 83bd 8f13 063d 9d4d 553d
00000140: 82c0 2f3d 6b3c 203d c37f 1dbd 2cf5 203d
00000150: 20d8 6c3d 9e94 01bd ee54 08bd 811d 63bd
00000160: 186e a33d ac30 0ebc 2737 a3bd 93b5 b13d
00000170: 6f0c 6dbd 5044 73bc bc33 af3d 3340 80bd
00000180: de67 aabd a13a a13d 8840 243c 673f 09bd
00000190: 029d 833d 9a97 7b3d 4c86 87bc 25c6 46bd
000001a0: e205 723b e2ce 453d e4bf a7bc 34c4 d93c
000001b0: 2fbd 8bbd c02a 2cbd 5115 833d 2326 fe3c
000001c0: c1ca 64bd 9c18 03bc 8c0a d63c d66e 44bc
000001d0: 3d45 2fbd 93de 9e3d efa8 69bd e047 e0bc
000001e0: 1c6e f4bc 79f2 533d 2561 85bd b5bf 9c3d
000001f0: daf8 863d 4490 443d 6f4d 353d 6974 443d

sagpool.gnn.lin_root.weight f4 [1, 128]
0.07771292 -0.052329537 0.040460978 0.06424275 0.010347831 -0.01006191 0.02116654 0.05995431
-0.019133093 -0.061074756 0.015072872 0.050903875 -0.08133405 0.033402227 0.0007701861 0.050881937
0.04908266 0.05723994 -0.073157005 -0.005240768 -0.0092902705 -0.046553824 -0.07665204 -0.0336277
-0.060831174 0.06799895 -0.06590912 0.036125556 -0.030013083 0.05396876 -0.005528845 -0.08740528
0.038673267 0.009577312 -0.021621883 -0.07785477 -0.027090548 -0.027164677 -0.01864548 -0.087489456
-0.049420092 0.08808339 0.028493492 -0.08333583 -0.0054035047 0.07057457 -0.07524704 -0.028657394
-0.013654376 0.0244223 0.02110932 0.021762677 0.08320333 0.030213354 0.02137807 -0.03535781
-0.044965353 0.029693749 0.045579463 0.08260477 0.056516625 -0.026107803 -0.07991407 0.0065821824
-0.02760385 -0.0356338 -0.04050672 -0.019169103 0.023856308 -0.07447673 -0.03831357 0.030294042
0.041341886 -0.0011923845 -0.002019951 0.042444926 -0.021888874 -0.0134794945 -0.029909953 0.018112749
0.05334134 -0.052210413 0.03842214 0.0036560553 0.015713602 0.038365062 0.0038288794 0.03244845
-0.049849834 -0.044555016 0.059627417 -0.025278037 -0.038233828 -0.07584383 0.062300183 0.013116142
-0.088350646 -0.014835841 0.06603829 0.07573593 -0.080041945 0.04101174 -0.012048334 0.0022430143
0.029532013 -0.029443907 -0.05104645 -0.054390598 0.07209634 -0.019681998 0.06436313 -0.0329502
-0.014828044 0.03068779 0.07522307 0.08144645 -0.012018244 -0.059557546 0.025760623 0.061544154
0.06091089 0.06633774 -0.061446063 0.085807994 -0.061160006 -0.057288136 0.05434961 -0.048180018
00000000: f427 9f3d 7f57 56bd 69ba 253d b491 833d
00000010: f389 293c b6da 24bc 7465 ad3c a792 753d
00000020: 01bd 9cbc 8629 7abd 35f4 763c 9580 503d
00000030: 7792 a6bd c6d0 083d 50e6 493a 9469 503d
00000040: e60a 493d 6d74 6a3d 57d3 95bd c0ba abbb
00000050: 3836 18bc 39af 3ebd bffb 9cbd 33bd 09bd
00000060: 1c2a 79bd 0943 8b3d 5cfb 86bd 64f8 133d
00000070: ffdd f5bc 590e 5d3d 502b b5bb 8a01 b3bd
00000080: dc67 1e3d 28ea 1c3c 6020 b1bc 5272 9fbd
00000090: ffec ddbc 7588 debc 68be 98bc ac2d b3bd
000000a0: b96c 4abd 1065 b43d 2f6b e93c faab aabd
000000b0: e20f b1bb 6689 903d 1f1b 9abd e9c2 eabc
000000c0: 9bb6 5fbc 4611 c83c 74ed ac3c a447 b23c
000000d0: 8266 aa3d ff81 f73c 1021 af3c 5ad3 10bd
000000e0: 972d 38bd 4e40 f33c 88b1 3a3d b12c a93d
000000f0: fa7d 673d 08e0 d5bc fda9 a3bd 59af d73b
00000100: 7821 e2bc bff4 11bd 60ea 25bd 8608 9dbc
00000110: 4e6e c33c 4187 98bd b1ee 1cbd 362b f83c
00000120: 1c56 293d c949 9cba 2761 04bb bbda 2d3d
00000130: 4c50 b3bc 19d9 5cbc b805 f5bc 3061 943c
00000140: 737c 5a3d 96da 55bd 8960 1d3d 6e9a 6f3b
00000150: d0b9 803c af24 1d3d f0ed 7a3b aae8 043d
00000160: 572f 4cbd 527f 36bd e13b 743d e313 cfbc
00000170: 139b 1cbd 0354 9bbd 7a2e 7f3d 16e5 563c
00000180: 2ff1 b4bd 0712 73bc 153f 873d 701b 9b3d
00000190: 08ed a3bd edfb 273d 6066 45bc 89ff 123b
000001a0: 1fed f13c 5934 f1bc 1516 51bd adc8 5ebd
000001b0: 3fa7 933d 243c a1bc d1d0 833d caf6 06bd
000001c0: 53f1 72bc f664 fb3c 8e0e 9a3d 65cd a63d
000001d0: 2be8 44bc 9df2 73bd f107 d33c b915 7c3d
000001e0: b37d 793d 15dc 873d deae 7bbd 1abc af3d
000001f0: ea82 7abd f7a6 6abd b29d 5e3d 6958 45bd

lin.weight f4 [64, 128]
-0.059845198 -0.015364185 0.06278108 -0.043074515 0.056796983 -0.06319782 -0.049034007 -0.04559726
0.08712859 -0.056277387 0.033913635 -0.03020806 -0.07250365 -0.031057773 0.0319004 -0.00027307248
-0.09094055 -0.04716948 0.05214818 0.064784646 0.047619663 0.07255111 -0.04582293 0.046272743
-0.07269187 -0.011673675 0.016114198 0.0134624895 -0.063132524 7.279686e-05 0.05847381 -0.0028408759
-0.07319007 0.027264213 -0.07721157 -0.072553836 -0.011887839 0.030964535 0.06084466 -0.05965792
-0.020372577 -0.07210848 0.0773484 -0.025971793 -0.08736547 0.055128984 0.017597761 0.058238942
0.07534453 -0.004854225 0.06341977 0.014805736 -0.07846954 -0.03992979 0.04560734 0.06750515
-0.05429667 0.05721672 0.013339245 -0.06438792 0.030841786 -0.0071105096 -0.08235494 -0.074748375
0.0004610896 -0.08327456 -0.07031439 -0.039816774 0.063517064 0.050201684 0.02840913 0.048530955
0.044094652 0.0022676226 0.006548777 -0.08315606 0.070933215 0.017346844 0.0018845942 0.07536672
-0.07236876 -0.0076579014 0.036373194 -0.06876012 -0.004002901 0.025816755 0.012788459 -0.060135346
0.0061699287 0.08925932 -0.07563475 0.024661379 -0.006392135 0.088029206 -0.03503031 -0.026044482
0.06529491 0.03661447 -0.05091355 -0.005402778 -0.059754483 0.021058176 -0.065834425 -0.021390453
-0.056424312 -0.061358467 -0.079515874 -0.051837437 -0.06716316 -0.07933491 0.07351753 -0.08240334
0.07580017 -0.06946931 0.039265983 -0.0344331 -0.050694846 0.052421987 -0.0722656 -0.0031211348
0.049424957 0.0853132 -0.08156191 0.034870572 -0.075217836 -0.09012082 -0.023333551 -0.031906992
0.027280182 -0.03659371 -0.041284084 -0.046666536 0.037417635 0.08325247 0.079632506 0.069111265
0.05958036 0.011087087 0.0551341 -0.051274545 -0.07996935 0.04733727 0.069335744 0.09127563
-0.012563399 0.07937742 -0.022551542 0.05001856 0.055083875 -0.039659273 0.015957782 -0.04830879
0.056020275 0.016679725 0.06394474 0.038218487 0.011618106 -0.05482337 0.06201763 -0.07309099
-0.04603045 -0.06940534 -0.016295644 0.045662273 0.047693335 -0.049022067 0.003501458 0.08210808
-0.071253106 -0.04935339 -0.06708772 0.061021227 -0.06056965 -0.034023043 -0.05895795 0.09040682
0.07396401 -0.007938269 -0.052866384 0.015952209 -0.065721214 0.047698956 -0.075012274 -0.07235482
-0.08271482 -0.0010314647 0.05389943 0.07090885 -0.07848876 -0.027769018 0.016544366 -0.033725105
-0.02784022 -0.0029368289 0.02568175 0.029215144 -0.051915023 -0.0076788543 0.08416153 -0.072980165
-0.086189225 -0.084886864 -0.034744147 0.024689024 -0.06840363 -0.004499617 -0.0793412 -0.0041495473
0.07140257 0.04640193 -0.08557687 0.045059796 0.019040389 -0.03156394 0.03448178 -0.05864647
-0.05302526 0.07177516 0.07148042 0.063229464 -0.028196866 0.037667874 -0.067419365 -0.061056193
0.048807885 0.04892531 -0.02976327 0.080178924 -0.011057637 -0.06868513 0.04168544 -0.01669473
-0.071428575 0.0665433 0.020234896 0.041923404 0.05917812 -0.004230711 0.072640866 -0.06500303
0.02731758 0.07193239 -0.020161642 -0.007761864 0.08164031 0.066262506 0.015788082 0.0082891565
0.0761369 0.0049938983 -0.02379192 0.010917217 0.07326374 -0.048179016 0.08154696 0.0077103935
00000000: 3d20 75bd 10ba 7bbc 5e93 803d e76e 30bd
00000010: f4a3 683d dc6d 81bd e2d7 48bd 31c4 3abd
00000020: 7970 b23d 1e83 66bd 06e9 0a3d e576 f7bc
00000030: cb7c 94bd df6c febc fea9 023d 2b2b 8fb9
00000040: 0a3f babd c934 41bd 5499 553d d0ad 843d
00000050: d60c 433d ad95 943d d3b0 3bbd 7d88 3d3d
00000060: 7adf 94bd f142 3fbc ec01 843c c691 5c3c
00000070: a04b 81bd 84aa 9838 3c82 6f3d fd2d 3abb
00000080: ade4 95bd 3359 df3c 1a21 9ebd 1b97 94bd
00000090: 36c5 42bc 56a9 fd3c 4038 793d dd5b 74bd
000000a0: 64e4 a6bc 9cad 93bd d768 9e3d ccc2 d4bc
000000b0: abec b2bd eece 613d 2e29 903c f58b 6e3d
000000c0: 3c4e 9a3d 3110 9fbb 39e2 813d c293 723c
000000d0: a3b4 a0bd 6b8d 23bd c3ce 3a3d 2440 8a3d
000000e0: 2f66 5ebd 145c 6a3d d98c 5a3c d0dd 83bd
000000f0: eaa7 fc3c 47ff e8bb b5a9 a8bd ad15 99bd
00000100: 66be f139 da8b aabd fe00 90bd ea16 23bd
00000110: 3c15 823d 48a0 4d3d 44ba e83c 65c8 463d
00000120: 989c 343d 659c 143b 2097 d63b b94d aabd
00000130: 6f45 913d f81a 8e3c 7d04 f73a de59 9a3d
00000140: 1336 94bd 22ef fabb 0ffc 143d 1bd2 8cbd
00000150: c42a 83bb a97d d33c af86 513c 7b50 76bd
00000160: 1d2d ca3b 97cd b63d 64e6 9abd a906 ca3c
00000170: 1d75 d1bb a848 b43d f17b 0fbd 3d5b d5bc
00000180: 56b9 853d 0ef9 153d ba8a 50bd c909 b1bb
00000190: 1ec1 74bd 3282 ac3c 33d4 86bd 083b afbc
000001a0: 2e1d 67bd 0453 7bbd 38d9 a2bd 7e53 54bd
000001b0: d78c 89bd 577a a2bd 5c90 963d 15c3 a8bd
000001c0: 1f3d 9b3d ed45 8ebd 5ed5 203d b909 0dbd
000001d0: 66a5 4fbd 70b8 563d fdff 93bd f48b 4cbb
000001e0: d371 4a3d b0b8 ae3d ee09 a7bd 72d4 0e3d
000001f0: cf0b 9abd 4491 b8bd 0126 bfbc e8b0 02bd
00000200: b07a df3c 49e3 15bd 8019 29bd 6925 3fbd
00000210: 3c43 193d 4580 aa3d 5e16 a33d 358a 8d3d
00000220: 890a 743d 9da6 353c 4bd4 613d 4205 52bd
00000230: f8c6 a3bd bae4 413d e6ff 8d3d b8ee ba3d
00000240: b7d6 4dbc a190 a23d 03be b8bc 43e0 4c3d
00000250: a19f 613d c371 22bd e5b9 823c 70df 45bd
00000260: 8475 653d eba3 883c 76f5 823d fd8a 1c3d
00000270: de59 3e3c 788e 60bd 3306 7e3d bbb0 95bd
00000280: 6d8a 3cbd 6324 8ebd 717e 85bc 5d08 3b3d
00000290: 165a 433d 5dcb 48bd b878 653b 4828 a83d
000002a0: 26ed 91bd c826 4abd 4965 89bd 65f1 793d
000002b0: e217 78bd bf5b 0bbd e47d 71bd 3627 b93d
000002c0: 717a 973d 830f 02bc 6c8a 58bd 35ae 823c
000002d0: d898 86bd fb5f 433d 09a0 99bd c42e 94bd
000002e0: 6366 a9bd 3632 87ba a6c5 5c3d a938 913d
000002f0: b7be a0bd da7b e3bc 0d88 873c 5623 0abd
00000300: 2c11 e4bc d077 40bb 8962 d23c 9954 ef3c
00000310: d9a4 54bd e69e fbbb e15c ac3d a076 95bd
00000320: fa83 b0bd 2ad9 adbd e14f 0ebd a340 ca3c
00000330: 3417 8cbd 8671 93bb a47d a2bd edf8 87bb
00000340: 833b 923d f30f 3e3d ed42 afbd 9f90 383d
00000350: 97fa 9b3c 3149 01bd c43c 0d3d 4837 70bd
00000360: 0431 59bd dbfe 923d 5464 923d 737e 813d
00000370: 1dfd e6bc a149 1a3d 2a13 8abd 0f16 7abd
00000380: c7ea 473d e865 483d 1ad2 f3bc d934 a43d
00000390: 172b 35bc caaa 8cbd 5abe 2a3d 63c3 88bc
000003a0: 2549 92bd db47 883d a7c3 a53c e0b7 2b3d
000003b0: c264 723d c7a1 8abb bcc4 943d 4f20 85bd
000003c0: 1ec9 df3c 4a51 933d 072a a5bc 3c57 febb
000003d0: 0933 a73d a3b4 873d 0256 813c 3ecf 073c
000003e0: aaed 9b3d dba3 a33b 46e7 c2bc 20de 323c
000003f0: 4d0b 963d 5c57 45bd 1802 a73d 78a7 fc3b

lin.bias f4 [64]
-0.058520973 0.062748976 0.054640125 -0.039803702 -0.0037073216 -0.04219032 -0.00056994887 -0.059988074
0.07261277 -0.023991602 0.07187648 0.067635216 -0.046489302 -0.035748485 -0.024252363 0.017209062
0.01693323 -0.031947 -0.08278421 0.030210514 0.04746007 0.08324224 -0.047482695 0.024140403
-0.0065321717 0.036320344 -0.011386773 0.08108403 0.02874415 -0.053635333 -0.055611126 0.021158624
-0.069521755 0.042937264 -0.0520908 -0.081488445 0.04834413 0.01340892 -0.052428454 0.05916984
-0.034673106 0.077914916 0.042002205 0.05614884 -0.0752605 0.059799522 0.020242494 -0.0029293292
-0.066818774 0.061001137 0.009102003 0.005852012 -0.01165335 0.02640046 -0.023282258 0.020596007
-0.032478552 -0.07935383 -0.006902775 0.036018662 -0.062342696 -0.06677391 0.055449653 0.06361198
00000000: b0b3 6fbd 8982 803d 53ce 5f3d 3509 23bd
00000010: 89f6 72bb c2cf 2cbd 9f68 15ba 0eb6 75bd
00000020: 01b6 943d 098a c4bc fa33 933d 5584 8a3d
00000030: 916b 3ebd 016d 12bd e4ac c6bc 05fa 8c3c
00000040: 8fb7 8a3c dcda 02bd c58a a9bd 0a7c f73c
00000050: 7e65 423d e87a aa3d 377d 42bd 18c2 c53c
00000060: d40b d6bb a4c4 143d 968f 3abc 620f a63d
00000070: da78 eb3c b9b0 5bbd 7ec8 63bd da54 ad3c
00000080: 6c61 8ebd fcde 2f3d 2a5d 55bd 6ae3 a6bd
00000090: 7f04 463d 16b1 5b3c 38bf 56bd 135c 723d
000000a0: 6305 0ebd db91 9f3d 810a 2c3d 53fc 653d
000000b0: 2d22 9abd 58f0 743d 96d3 a53c fdf9 3fbb
000000c0: 48d8 88bd 54dc 793d 9120 153c 3cc2 bf3b
000000d0: b1ed 3ebc c745 d83c 6fba bebc f5b8 a83c
000000e0: 3b08 05bd 4384 a2bd ac30 e2bb 4e88 133d
000000f0: 0e5b 7fbd c2c0 88bd 2d1f 633d ff46 823d

fc.weight f4 [1, 64]
0.09308894 0.09996479 -0.080634676 0.10748503 -0.022002775 0.08212188 0.013944821 -0.12072406
-0.036582425 0.089792125 0.10044948 -0.014997236 -0.11267585 0.048129153 0.029520933 0.030424537
-0.020319028 0.030820727 0.07962273 0.130735 0.093666404 -0.020911194 0.01724011 0.055732604
-0.021004282 0.009763094 0.06949911 -0.09918067 0.0888964 0.004572003 -0.12578757 0.030507578
-0.064412594 -0.06576004 -0.08526661 0.04500549 -0.1160113 -0.07862343 -0.10604905 -0.07734492
-0.06663431 0.0046157497 -0.06517013 0.030727599 0.025508607 -0.011970229 -0.047581326 0.013476474
-0.10945762 -0.09164359 -0.116497904 -0.11394493 -0.10696646 -0.055794153 0.10013828 -0.12381356
0.056472335 0.11216037 -0.0736823 0.12445533 0.114276364 0.08215705 -0.010628636 -0.06695798
00000000: 6aa5 be3d 57ba cc3d cb23 a5bd 1d21 dc3d
00000010: 2a3f b4bc 842f a83d d278 643c 2d3e f7bd
00000020: 74d7 15bd efe4 b73d 75b8 cd3d f8b6 75bc
00000030: 99c2 e6bd 1323 453d e2d5 f13c e13c f93c
00000040: 1774 a6bc c07b fc3c 3e11 a33d 65df 053e
00000050: 2cd4 bf3d f44d abbc 223b 8d3c df47 643d
00000060: 2c11 acbc 62f5 1f3c 8d55 8e3d 3c1f cbbd
00000070: 510f b63d bed0 953b 75ce 00be 07eb f93c
00000080: c0ea 83bd 33ad 86bd 43a0 aebd ad57 383d
00000090: 5597 edbd 5205 a1bd 3f30 d9bd 0367 9ebd
000000a0: 9277 88bd b73f 973b eb77 85bd 72b8 fb3c
000000b0: 6df7 d03c c81e 44bc a3e4 42bd 6ecc 5c3c
000000c0: 512b e0bd a2af bbbd 7496 eebd f65b e9bd
000000d0: 3b11 dbbd 6988 64bd 4c15 cd3d f791 fdbd
000000e0: 894f 673d 56b4 e53d bfe6 96bd 70e2 fe3d
000000f0: ba09 ea3d f541 a83d bb23 2ebc 4421 89bd

gcn_batch_norm.weight f4 [128]
1.0 1.0 1.0 1.0 1.0 1.0 1.0 1.0
1.0 1.0 1.0 1.0 1.0 1.0 1.0 1.0
1.0 1.0 1.0 1.0 1.0 1.0 1.0 1.0
1.0 1.0 1.0 1.0 1.0 1.0 1.0 1.0
1.0 1.0 1.0 1.0 1.0 1.0 1.0 1.0
1.0 1.0 1.0 1.0 1.0 1.0 1.0 1.0
1.0 1.0 1.0 1.0 1.0 1.0 1.0 1.0
1.0 1.0 1.0 1.0 1.0 1.0 1.0 1.0
1.0 1.0 1.0 1.0 1.0 1.0 1.0 1.0
1.0 1.0 1.0 1.0 1.0 1.0 1.0 1.0
1.0 1.0 1.0 1.0 1.0 1.0 1.0 1.0
1.0 1.0 1.0 1.0 1.0 1.0 1.0 1.0
1.0 1.0 1.0 1.0 1.0 1.0 1.0 1.0
1.0 1.0 1.0 1.0 1.0 1.0 1.0 1.0
1.0 1.0 1.0 1.0 1.0 1.0 1.0 1.0
1.0 1.0 1.0 1.0 1.0 1.0 1.0 1.0
00000000: 0000 803f 0000 803f 0000 803f 0000 803f
00000010: 0000 803f 0000 803f 0000 803f 0000 803f
00000020: 0000 803f 0000 803f 0000 803f 0000 803f
00000030: 0000 803f 0000 803f 0000 803f 0000 803f
00000040: 0000 803f 0000 803f 0000 803f 0000 803f
00000050: 0000 803f 0000 803f 0000 803f 0000 803f
00000060: 0000 803f 0000 803f 0000 803f 0000 803f
00000070: 0000 803f 0000 803f 0000 803f 0000 803f
00000080: 0000 803f 0000 803f 0000 803f 0000 803f
00000090: 0000 803f 0000 803f 0000 803f 0000 803f
000000a0: 0000 803f 0000 803f 0000 803f 0000 803f
000000b0: 0000 803f 0000 803f 0000 803f 0000 803f
000000c0: 0000 803f 0000 803f 0000 803f 0000 803f
000000d0: 0000 803f 0000 803f 0000 803f 0000 803f
000000e0: 0000 803f 0000 803f 0000 803f 0000 803f
000000f0: 0000 803f 0000 803f 0000 803f 0000 803f
00000100: 0000 803f 0000 803f 0000 803f 0000 803f
00000110: 0000 803f 0000 803f 0000 803f 0000 803f
00000120: 0000 803f 0000 803f 0000 803f 0000 803f
00000130: 0000 803f 0000 803f 0000 803f 0000 803f
00000140: 0000 803f 0000 803f 0000 803f 0000 803f
00000150: 0000 803f 0000 803f 0000 803f 0000 803f
00000160: 0000 803f 0000 803f 0000 803f 0000 803f
00000170: 0000 803f 0000 803f 0000 803f 0000 803f
00000180: 0000 803f 0000 803f 0000 803f 0000 803f
00000190: 0000 803f 0000 803f 0000 803f 0000 803f
000001a0: 0000 803f 0000 803f 0000 803f 0000 803f
000001b0: 0000 803f 0000 803f 0000 803f 0000 803f
000001c0: 0000 803f 0000 803f 0000 803f 0000 803f
000001d0: 0000 803f 0000 803f 0000 803f 0000 803f
000001e0: 0000 803f 0000 803f 0000 803f 0000 803f
000001f0: 0000 803f 0000 803f 0000 803f 0000 803f
