All_Benchmarking/DATA_17/Results/f4/best_model.pth (torch, 192098 bytes, 32 tensors)

gat1.att_src f4 [1, 4, 32]
00000000: 6ed7 863e 9922 acbe 520a 80be 2409 893e
00000010: 13d7 4fbe 4500 c1be 9070 b53e beeb 6ebe
00000020: b473 43be 66fb 45be 0411 b03e 5fa4 95be
00000030: 5bb6 bd3d 5b84 a83d 8f06 5dbe 0967 60be
00000040: c73f f13d d6ed 4ebe 00f8 4f3e 1c4d b13d
00000050: 1b55 a33e a064 84bd 4614 833b 6eee a7be
00000060: 473f 3cbe 260f ba3c fe89 773e a732 aa3e
00000070: ee97 71bd 83dd a2be 286e d0be 3d98 8bbe
00000080: ef67 41be 4b58 b2be aed4 b83e 5c06 9ebe
00000090: a241 21be cabf c5bd fdd9 ce3e dd33 51be
000000a0: 8109 863d 9adc a9bd 952a 8bbe 51cc 88be
000000b0: d80a d0bd 1c5a e2bb 8c28 8b3e 8568 9cbe
000000c0: 1246 613e c5f2 6f3d 8819 f4bc 4d63 f0bc
000000d0: 6c07 07be c342 663e da3f b73e cc0d 193e
000000e0: 3618 c0bd 9f4e 0cbe ec74 b9be f182 85be
000000f0: 9be1 3dbe 7214 e7bb 433f 38be 93e8 8a3e
00000100: 2793 993d b74c a3bd 3934 7c3c 6ebd 363e
00000110: 33fa b1be 235a 89be a856 d03e 6ff0 a6be
00000120: a009 75be 4651 2ebe 096a bb3c 9690 4d3e
00000130: 7fbb 43be ce1e 78be 5402 863e 1c8a 763e
00000140: aa08 5abe ad75 6abe e0cf 9e3c 4026 d43c
00000150: 1a76 03bd a363 0bbe 0779 83be 93fc 2c3d
00000160: 2b57 ef3d 73bf 013e a083 223e 7801 44be
00000170: e0be a43e ef42 f53d 37e8 6d3b 2114 583e
00000180: f1e5 bfbd 5927 c93e b4da 93be fdd7 b2be
00000190: f975 ca3e 4482 523e fa0b 483e f166 c73d
000001a0: 968d 9cbe b7e6 87be 90e1 d13d 8321 9bbd
000001b0: 170f b0be 22cc b83e 9ca8 593e df81 aabd
000001c0: 52d8 993e 2664 b33e 53c0 97be 1d72 323e
000001d0: 002e 563e 9ca8 6c3e 89de 8cbe bf46 57be
000001e0: 5fbb 1dbe 151c b43e 8798 963e a08b 8c3e
000001f0: 2a7a 3ebe 88bf a83e c169 0a3e 9da2 b33e
0.26336235 -0.33620146 -0.25007874 0.26764786 -0.20296888 -0.37695518 0.3543744 -0.23332116
-0.19087106 -0.19334182 0.34387982 -0.29226968 0.09263297 0.0822837 -0.21584533 -0.21914305
0.11779743 -0.20207915 0.20309448 0.086572856 0.31900868 -0.06464505 0.0040002195 -0.32799095
-0.18383513 0.022712301 0.24173734 0.3324177 -0.058982782 -0.31809625 -0.40709043 -0.27264586
-0.18887304 -0.34832987 0.36099762 -0.30864227 -0.15747693 -0.096557215 0.40400687 -0.2042994
0.065447815 -0.082940295 -0.27180925 -0.2671838 -0.10158318 -0.0069077145 0.27179372 -0.30548492
0.21999386 0.058581132 -0.02979733 -0.029344225 -0.13186425 0.22486405 0.35790902 0.1494667
-0.09379618 -0.13701867 -0.36222017 -0.26076463 -0.18543093 -0.007051998 -0.17992882 0.27130565
0.0749877 -0.079736166 0.01539331 0.17845699 -0.347612 -0.2682658 0.40691113 -0.3260531
-0.23929453 -0.17023191 0.02287771 0.20074686 -0.19114493 -0.24230501 0.2617365 0.24076122
-0.21292368 -0.22896452 0.019386232 0.025897145 -0.032095052 -0.13612227 -0.25678274 0.04223306
0.11686548 0.12670688 0.15870523 -0.19141185 0.32176876 0.11975657 0.003630174 0.21101429
-0.0937003 0.39287832 -0.28877795 -0.3493041 0.3954313 0.20557505 0.19535819 0.097364314
-0.30576771 -0.2654321 0.10248101 -0.07574751 -0.34386513 0.3609324 0.21255726 -0.08325552
0.30047852 0.35037345 -0.2963892 0.17426343 0.20915985 0.23111194 -0.2751353 -0.21023081
-0.15403508 0.35177675 0.29413244 0.27450275 -0.1860129 0.32958627 0.13516904 0.35085002

gat1.att_dst f4 [1, 4, 32]
00000000: 7226 983e a02a bd3e 89e0 87bc 026a 95be
00000010: c2d2 05be db3e 863e e4fc a5be 9a4e 08bb
00000020: ffe0 eb3d 469d b43e 2d28 833d 4928 c93e
00000030: 6226 bc3d d2e9 95be 060a a3be 983a bcbe
00000040: c159 8f3e 2ec4 083e 6c63 653e f72a c9be
00000050: e06b 5c3e 3760 a13e ab29 323e 29ad bcbe
00000060: 38d4 a5be 6853 a5be 808f bc3c 997d 2bbc
00000070: e56b 443e 4445 bdbe cc0e aebe 1475 9e3e
00000080: a994 b73e f7dd 8e3e 347b 173e cbf5 9d3e
00000090: c70b ce3e 6845 423e 23d0 9a3e 7406 2a3d
000000a0: c874 06be 0c94 3fbe a9b8 d83d 67b9 80be
000000b0: efd1 b93e 0b6d 82be 92fe 193e 3990 1fbe
000000c0: 114d 4dbe d933 463e 3813 c1bd d147 873e
000000d0: e6e1 9e3e 6f64 a73e 296c 1f3d b825 153e
000000e0: 4d83 643d 24c4 983e 5df6 2a3e 6bca fc3b
000000f0: b396 aebe 2bc6 87be 6e9a b5bd 98a5 a23d
00000100: 07f9 88bc 91b9 873e 39c7 9cbe 17cf 73be
00000110: 4e67 61bd 4111 913e dc1a c6be 8f89 743e
00000120: 73bf 18bd 70a1 b13d 5271 4e3e 4476 d23b
00000130: 02b6 a3be 1da7 ac3e 92dc c4bd 002d 0e3d
00000140: 775c abbc a310 943e dc4b 5e3e d0d2 b43e
00000150: 4b00 073e 26f1 75be adfd a6bd 97e9 ddbd
00000160: 85df b73e 19ab b6be 284b 693e 9d8f d2bd
00000170: d9b2 6c3e 886e bdbd 4543 16be 101c 1f3d
00000180: 83b8 a9be f992 bb3d bef9 f03c b3cf 98be
00000190: 175e 86be 5043 37be 5519 863e 0eed 9dbe
000001a0: b100 bf3d 4896 fcbd 78cf 1cbd 0f32 be3c
000001b0: 2940 883e 1dce cfbe 3723 25be f190 833c
000001c0: 9173 cabe deb6 e23d 5749 953d 0df2 d4bd
000001d0: f40b 3f3d 421e 0ebe 519a 1f3e e376 15bc
000001e0: d305 1fbe d65a b9be dbe9 5bbe 9536 dd3c
000001f0: fb8f b3bd f1b2 a7be 68db 463e bdad a7bd
0.2971683 0.36946583 -0.016586559 -0.2918244 -0.13068679 0.2621983 -0.32419503 -0.0020798803
0.11517524 0.3527624 0.06404147 0.39288548 0.091870084 -0.29279953 -0.31843585 -0.36763453
0.27998164 0.13356087 0.22401208 -0.39290592 0.21525526 0.3151872 0.17398708 -0.3685086
-0.32388473 -0.32290196 0.023017645 -0.0104669565 0.19181783 -0.36966908 -0.33995664 0.309487
0.35855606 0.2790372 0.14793092 0.30851588 0.4024336 0.18971789 0.3023692 0.04151006
-0.13130486 -0.18708819 0.10582096 -0.2514145 0.3629298 -0.25473818 0.15038517 -0.1558236
-0.2004893 0.19355716 -0.09427494 0.2642198 0.31031722 0.32693812 0.03892151 0.1456517
0.05578928 0.29837143 0.16695543 0.00771456 -0.3409935 -0.26518378 -0.08867346 0.07941741
-0.016720308 0.26508763 -0.30620745 -0.23809467 -0.05503016 0.28333476 -0.38692367 0.238806
-0.037291955 0.0867337 0.20160416 0.00642279 -0.31974798 0.33721247 -0.09612383 0.034710884
-0.020918114 0.28918943 0.21708626 0.35317087 0.13183706 -0.24017772 -0.081538536 -0.10835569
0.3591272 -0.35677412 0.22782576 -0.10281298 0.231151 -0.09249598 -0.14674099 0.03884512
-0.33148584 0.09158892 0.029415961 -0.29845962 -0.2624366 -0.17896771 0.26191202 -0.3084492
0.09326304 -0.123333514 -0.038283795 0.02321723 0.2661145 -0.4058694 -0.16126715 0.016060324
-0.39541295 0.110700354 0.07289379 -0.1039773 0.04664226 -0.1387873 0.15586211 -0.009122583
-0.15529566 -0.36202115 -0.21475928 0.027003566 -0.087676965 -0.3275371 0.19419634 -0.08187435

gat1.bias f4 [128]
00000000: d349 93b9 a9a5 b3b9 71cc bd39 81cf 8db8
00000010: f480 a538 345d 7639 aa63 22b9 ff55 7839
00000020: 04c0 05ba e760 1d3a 9133 6539 4344 9ab9
00000030: e735 9739 5d85 9438 1953 4a38 6b41 9939
00000040: 4547 c538 5567 5439 5ece da39 daa6 9438
00000050: ccae 1fb8 a620 0539 970f 8c38 e790 5e37
00000060: 8664 14b9 45e8 2039 7e1d 0bb9 8478 2739
00000070: a959 53b8 fb0c f839 5639 9eb9 fcda 1437
00000080: 4a92 97b7 6e70 6039 d200 a5b9 69cb 6f39
00000090: 35a6 1bb9 fb4b bd39 6a8e dcb8 a92e aa39
000000a0: 8699 d2b8 254d 4f39 2e22 16b9 6edf 7a39
000000b0: ac83 4fb9 236e aa39 9a3e 3839 1a3e fab8
000000c0: 04ed b637 7809 12b9 f099 5338 3526 8139
000000d0: 176f b639 d280 4d38 8ae0 e6b9 31cc 3539
000000e0: a985 60b9 53e1 a9b9 47a2 9ab9 183f 2a38
000000f0: 0a50 fa37 abd6 9738 4f8f adb7 89ea fe38
00000100: 8db2 c838 fad2 8737 643e 86b9 2953 fd38
00000110: 7c30 1b3a 987a 11ba f140 083a 8807 2037
00000120: c84e 71b9 dbe2 5639 5a8c a0b7 0977 1c39
00000130: 4591 72b9 2ea2 96b8 4f98 da38 86d2 09ba
00000140: 752e d137 611e 07ba 1ee0 d4b7 887d 5fb9
00000150: 7161 35b9 38b3 4db9 000d 72b8 21c1 5f39
00000160: c820 163a 18cc 1538 1636 26b9 d429 24b9
00000170: 3d8d 47b9 5b9f 70b9 7656 2fb9 88c5 9139
00000180: af54 2db7 12cc 27ba 1102 3138 022f e639
00000190: 57be ef38 e962 3b38 6417 fb37 605f 77b9
000001a0: 9c01 dbb9 5263 9339 ef7c 26b9 7d7d 6839
000001b0: 19a0 3d39 7314 1cba f7d0 8439 7c98 3f39
000001c0: 4f1d bcb9 16a5 8ab7 ef73 78b8 587c d439
000001d0: 93a9 1739 4f10 7a39 2e87 a0b8 4010 88b9
000001e0: bdaf 8ab9 5aa9 6639 1caa 6f39 29e8 bb39
000001f0: 9cc5 04b9 64e9 47b6 5b28 fab9 42f7 a539
-0.00028093028 -0.00034264967 0.0003620121 -6.7620545e-05 7.8918325e-05 0.00023495109 -0.00015486652 0.00023683159
-0.000510216 0.0006003514 0.00021858352 -0.00029424028 0.00028841125 7.082031e-05 4.8237944e-05 0.00029231174
9.406967e-05 0.0002025639 0.00041733956 7.0882685e-05 -3.8071346e-05 0.00012696031 6.678624e-05 1.3265969e-05
-0.00014151828 0.00015345316 -0.0001326706 0.00015971257 -5.0389823e-05 0.00047311917 -0.00030178827 8.872474e-06
-1.8068724e-05 0.00021404188 -0.00031471864 0.00022868592 -0.00014843869 0.000361055 -0.00010516944 0.0003245969
-0.00010042176 0.00019769797 -0.00014317848 0.00023925092 -0.0001979011 0.00032506985 0.00017570928 -0.00011932496
2.180646e-05 -0.00013927172 5.0449686e-05 0.00024633264 0.00034796514 4.8995782e-05 -0.00044036313 0.00017337572
-0.00021412097 -0.00032402072 -0.00029494075 4.058992e-05 2.9839593e-05 7.240226e-05 -2.068994e-05 0.000121553494
9.570001e-05 1.6191498e-05 -0.00025604956 0.0001207947 0.00059200055 -0.0005549579 0.00051976653 9.538497e-06
-0.000230129 0.0002049314 -1.9138843e-05 0.00014921663 -0.00023133036 -7.182766e-05 0.0001042342 -0.00052575057
2.4936375e-05 -0.0005154368 -2.5376732e-05 -0.00021313701 -0.00017297805 -0.00019617088 -5.7709403e-05 0.00021338883
0.00057269307 3.5714445e-05 -0.00015851142 -0.00015655841 -0.00019030734 -0.00022947548 -0.0001672151 0.00027803727
-1.03313205e-05 -0.0006400953 4.2202013e-05 0.00043904042 0.00011431862 4.467639e-05 2.9932424e-05 -0.00023591286
-0.00041772134 0.00028112024 -0.00015877535 0.00022171992 0.00018084086 -0.0005953975 0.00025332693 0.00018271984
-0.0003587999 -1.6527756e-05 -5.923578e-05 0.00040528434 0.00014463653 0.00023847933 -7.654574e-05 -0.0002595205
-0.00026452346 0.00021997598 0.00022856187 0.00035840392 -0.00012662116 -2.9789162e-06 -0.00047713783 0.00031655474

gat1.lin.weight f4 [128, 5]
00000000: ecd6 e33d 3503 44be 9ca9 393d c55d 1bbe
00000010: 2fef 523d 368e 2cbe 5b6b 1b3c 3088 f53c
00000020: 5a23 273e 3d12 debc 7e5a 0fbe 694b 4e3e
00000030: 829f e03b 4393 3f3e 9009 573d c977 2ebe
00000040: 8b25 2c3c 9a68 943d 9bf7 423e bfd8 763d
00000050: 5294 e4bc 1a3c a7bd 4ed5 033d 5091 bd3c
00000060: cec8 13bc 2cf9 24be 8259 53bb 6bf2 ccbd
00000070: 991d 56be f128 17bd a72c 253e 2c3b 28be
00000080: da57 31bd e9fe 3cbe 9a91 f1bd e24d d4bd
00000090: 14dd e23d d2ae a5bd bb29 56be a9e4 063e
000000a0: 4c0f bb3d 4a67 553e f25a c3bd 9fab 333e
000000b0: 7a80 123d 598f 503e 1147 15be c9fd 7dbd
000000c0: f8fa 17be 9fd6 003d 4ac8 34be 8881 ae3d
000000d0: 63f5 083d e610 e43d 4fa5 8cbd b210 16be
000000e0: 770d 153e 11c0 24be 645d ab3d 660d 083e
000000f0: af5c 55be 2039 8a3c 1b27 023e 46c7 3f3e
00000100: 1e99 f2bd 074f 173e b707 3ebe 0767 ddbd
00000110: 47d0 6ebb d25a 10be 0b8e 553c 8cb4 493e
00000120: 79e4 8f3d 4105 c83c 02bb 0fbd bca1 bd3d
00000130: 2a0a cc3d 05ba b03d 43f7 103e cc14 243e
00000140: 87ae 033e 2f3a 32be 2396 963b d118 f3bd
00000150: 5875 423e 51b3 603d 39b1 18bd 7932 babd
00000160: 99bb 863d 377d 90bd d7f2 183e 9f7d c43d
00000170: 9f70 463e 7ceb 3cbe 571b 573e e4c7 d53d
00000180: 6b53 d0bd a152 8cbd d1da 96bd 79f9 93bc
00000190: f5ed 773d b269 403e 2d3f 523e 62f0 9c3d
000001a0: c3ac 88bd 8044 103c b0b9 623d 90ae b9bd
000001b0: a8f2 39be 10c9 db3b f72f 2d3e 67f0 293d
000001c0: 1db6 0ebe ee68 61bd 1dc1 433e d162 03be
000001d0: 289c af3d cc02 28bd 79dc e4bc fa5f c23d
000001e0: 95c8 43be a17c 393d 74fd 9dbd a018 2e3e
000001f0: 2a00 363e 550b 54bd 373c bbbd 1e9f a6bd
00000200: 8f06 e43c c734 4b3e 9f93 55be 59ad a1bd
00000210: 958f 573e 5d75 583e daf7 d93d f653 37bd
00000220: 5450 253e 12f6 d63d 85a0 30be 6324 41be
00000230: 8231 1ebe 2f15 10bd 1a55 b33c be49 043e
00000240: 8c3f aa3c 565c 56be ee1f 00bd 1a43 15be
00000250: ac82 3bbe daba 15bd 34b8 563d f056 4abe
00000260: 2101 7abc e77c b33d ef16 0abe 045e 223e
00000270: 3957 413e 5432 f5bd 0d59 3dbe 0e19 8cbc
00000280: 81c5 683d cbdb 40be bab5 953d 8d12 e63d
00000290: ea22 55be b570 3ebe 23a9 57be 88d3 8abd
000002a0: bacc 193e 63e2 c83d 4823 58be f6c6 10be
000002b0: 0f25 073e 32da b0bd 932d 05bd 50d0 5cbd
000002c0: ea30 43be a8ae edbd 3ae9 86bd d349 373d
000002d0: 84ef dabd a3f2 0f3e 691d 0b3e 8e54 babd
000002e0: f7c1 29be 3c1a d1bd e1f5 00bb b5d6 173e
000002f0: ce70 ac3c 9e01 70bc 2c5f 3d3e 0b92 2a3e
00000300: 1f6f 4c3b c307 f23d 3826 b9bd b7a8 17be
00000310: 7402 b93d 3f5e 15be e97d a63d c763 073e
00000320: 3a81 9b3c 44a1 3e3e dbc5 2c3e a7f4 40bd
00000330: 2648 163e 409e bdbb 25de 3ebe 1f8b 063e
00000340: b29e fb3d 0eb3 193e c5a9 f9bd 7d62 e23c
00000350: 3861 4bbe 5f5c 94bd ab38 2fbe 0efd 4f3e
00000360: 7222 953d 3839 5a3d 2fc4 e13c da8a b13d
00000370: 30f1 e4bd 5654 a23d fc90 c13d 41ec 3b3e
00000380: 92ad 0c3e 9ea2 31bd 7382 1e3e 235c 14bc
00000390: a4a8 b13d e735 ef3d bd86 8cbd 7705 bebd
000003a0: 3001 c83d 6bff b5bd 0aa9 2e3e 68e0 04be
000003b0: e814 3b3d 0fb6 cbbd 915b ce3d e7d4 acbd
000003c0: 30ad 08be ed0a 50bd 0df9 3bbe ee6e 0ebe
000003d0: 4f22 a63d a19b 5dbb fac7 e63d fa23 bc3d
000003e0: 3a5f 4c3d 9e41 913c cc17 38be 432b 073e
000003f0: 477a 33be 49dc 4ebe 0c32 203e d3b3 f6bd
0.111249775 -0.19141848 0.045327768 -0.15172489 0.051497635 -0.16851124 0.009486045 0.029972166
0.1632208 -0.027108306 -0.13999364 0.20145954 0.0068549523 0.1870852 0.052499354 -0.17037882
0.010506998 0.07246514 0.19039766 0.0602653 -0.027902756 -0.0816576 0.032185845 0.02314058
-0.009020044 -0.16110677 -0.0032249396 -0.10007175 -0.20909728 -0.03690428 0.16130315 -0.16428822
-0.043296672 -0.18456616 -0.117953494 -0.103664175 0.110773236 -0.08089985 -0.20914356 0.13173164
0.09133777 0.20840183 -0.09538831 0.17545937 0.035767056 0.20367183 -0.14577891 -0.062009607
-0.1484183 0.03145468 -0.17654529 0.085208 0.033437144 0.111360356 -0.068674676 -0.14654806
0.14555918 -0.16088893 0.08367422 0.13286361 -0.20836137 0.016872942 0.1271023 0.1872836
-0.11845611 0.1477624 -0.1855763 -0.108106665 -0.003644006 -0.14097145 0.013034354 0.1969778
0.070259996 0.024416568 -0.035090454 0.09259364 0.09962876 0.086292304 0.14156823 0.16023558
0.12859546 -0.17405008 0.0045955344 -0.11869968 0.18990076 0.05485851 -0.037278388 -0.09091658
0.0657875 -0.07055133 0.14936386 0.09594273 0.19378899 -0.18449205 0.21006523 0.10438517
-0.10172161 -0.06851698 -0.07365955 -0.018063294 0.060529668 0.1879032 0.20531912 0.07663037
-0.06673577 0.008805394 0.055352867 -0.09066498 -0.18158972 0.006707318 0.16912828 0.04148903
-0.13936658 -0.05503171 0.19116636 -0.12830664 0.08574706 -0.041018292 -0.02793716 0.09490962
-0.19119485 0.04528487 -0.07714358 0.17001581 0.177735 -0.05176862 -0.091423444 -0.08135818
0.027835159 0.19844352 -0.20857094 -0.078943916 0.21050866 0.2113852 0.10642977 -0.044757806
0.16143924 0.10496153 -0.17248733 -0.18861537 -0.15448573 -0.035176452 0.021891166 0.12918755
0.020782255 -0.20933661 -0.03128045 -0.14576378 -0.18311566 -0.03655515 0.052421764 -0.19759727
-0.015259058 0.087640576 -0.13485311 0.15856177 0.18880929 -0.1197249 -0.18491001 -0.01710179
0.05682898 -0.18833844 0.07310052 0.11234007 -0.208141 -0.18597682 -0.21060614 -0.06778628
0.15019503 0.09808805 -0.21107209 -0.14138398 0.1319773 -0.086353675 -0.032514166 -0.0539096
-0.19061628 -0.11605579 -0.06587453 0.04474814 -0.10690215 0.14057402 0.13585438 -0.09098159
-0.16577898 -0.10210082 -0.0019677805 0.14827998 0.021049883 -0.014648823 0.18493336 0.16657273
0.0031194163 0.11817887 -0.09040493 -0.14810453 0.09033671 -0.14586733 0.08129484 0.13221656
0.018982518 0.18616205 0.16872351 -0.04710832 0.1467596 -0.005786687 -0.18639429 0.13139008
0.12286128 0.1500971 -0.12190584 0.027634853 -0.19861305 -0.07244181 -0.17111461 0.20311376
0.072819605 0.053277224 0.027559368 0.08669062 -0.11178815 0.07926242 0.09451482 0.18351842
0.13738087 -0.043367974 0.1547945 -0.00905517 0.08674744 0.11680203 -0.06861637 -0.09278386
0.097658515 -0.08886608 0.17056671 -0.12976229 0.045674235 -0.09946834 0.10076059 -0.084390454
-0.13347316 -0.05079167 -0.18356724 -0.13909504 0.081120126 -0.0033814686 0.11268611 0.091865495
0.049895503 0.017731484 -0.17977828 0.13200097 -0.17527114 -0.2020122 0.15644091 -0.120460175

sage1.lin_l.weight f4 [128, 128]
00000000: a3be 973d d478 0bbd 5fb4 b5bc 341b 4ebd
00000010: 1168 413d f82e 9ebd fc7b 973d b041 08bd
00000020: 5a8e f9bc 372e 4b3c b0dc 0fbd 8231 813d
00000030: 8e59 643c af16 10bb b398 973d bd6a cbbc
00000040: 15d9 33bd 6340 afbd d5db 60bd e2e6 c4bc
00000050: 7a1f 9fbb db7a 393c 7abe ae3c 6aac 95bd
00000060: 13c6 003d bcbe 3abd 54c3 ab3b 4400 d9bb
00000070: 094b b5bd f870 74bd 1d90 94bd 8082 363d
00000080: 97bd 573d 6129 14bd 1b5c b63d 8004 133d
00000090: cdac a0bd a63f 463c fec9 7abd 591d 933d
000000a0: c4a9 323b 87cd e3bc a362 93bd b945 83bd
000000b0: 23ee 2cbd bcac 04bd 869d 143d 050c e4bc
000000c0: b7e9 adbb aa8f 86bd 5609 923d 554f e3bc
000000d0: c4a7 6c3c 3a0e b4bd 4ad4 61bd fbc9 84bd
000000e0: d6ff 6d3b bda4 db3c b03d 3a3d 8f2a a63d
000000f0: 4910 54bd 255c a03d ac5d 383b 6727 3dbd
00000100: 2eca 003d 7dbc 063d 3b91 9fbd 4c11 ab3d
00000110: c723 b4ba 0403 963d 4429 473c c979 3dbc
00000120: d260 683d 0019 8ebb ce92 2a3b 758d 66bd
00000130: 9aa7 70bd eee0 afbd d482 e5bc 83c2 3b3d
00000140: ba33 f33c 291b 573d 3c86 c33c be0f 6c3d
00000150: 9d12 9dbd 3566 2a3d e40e f9bc 5077 8c3d
00000160: 23dc 883d 8553 63bd 7d74 143d 0d33 0bbd
00000170: 80ee 9f3c 12b7 f2bc bc6a fbbc 737c aabd
00000180: 5e9f b83c fdcb 2f3c c322 c23c ddfd 943d
00000190: 9be0 ed3c 821f 623d 18d5 afbd a0dd 0e3d
000001a0: 9762 b13d 1587 13bd 2143 593d 4f79 003b
000001b0: 15c7 cabc 4088 97bc 2ada ecbc da20 3e3c
000001c0: 9c82 5e3d f741 ecbc 688a e9bb 8faf 00bb
000001d0: f46a 253d c9d6 053d 4f39 be3b 00b8 bdbc
000001e0: 5f54 27bd 5fce ce3c 8609 3f3d a28c 0abd
000001f0: 35f8 b5bd ecf4 db3b 70bc 623a 93bc 9c3d
00000200: 86a6 433d 7a16 8b3b 3f76 203d 1995 ab3d
00000210: 95d7 5a3d 8fa7 fabc 520a 8f3c 577f 8f3d
00000220: 82b4 45bd 3126 2dbc 33d0 97bc 7662 9abd
00000230: 868e fabc 8ef6 643d 0994 b0bc ec6d 103d
00000240: 0d23 7cbd 6282 413d 3d63 0c3d 2170 703d
00000250: a255 8dbd a468 2f3d bc29 98bd 3726 efbc
00000260: 7043 2e3d e1c5 21bd 0ca9 77bd d0ea e4bb
00000270: 4bcc f7bc da0f 29bd a331 98bd 0974 97bd
00000280: 0472 0bbd 2e61 4cbc b1f7 4e3d be13 4abd
00000290: 5b63 823b 7afd 6c3c 2de0 0c3d 023f 31bb
000002a0: b31c 893d 9bb9 ea39 a164 ba3c 85cb a13b
000002b0: 6ba9 88bd f535 e0bc 2fe0 95bd afb1 c23c
000002c0: d1e4 2b3d fa76 623d 4669 8b3d 2504 aebd
000002d0: 2e34 62bc 6614 6abd 6a44 1fbd af46 59bc
000002e0: 96cf 74bd 2559 1e3d 8a5f 96bd b90c 873d
000002f0: c303 8c3d 1ae2 8ebd ffe2 a73d 7467 4b3d
00000300: 4e50 853d f9e9 b0bc 0047 8f3d daa5 30bd
00000310: 224b b4bd d2a4 393c d836 823d ee0a 80bd
00000320: 749b 92bc aad2 793d c730 12bd 76c5 8a3d
00000330: e9b6 b4bd bf80 963d 907d f93c 26ae 5f3d
00000340: 511d 5d3d b9e9 c1bc 4600 b3bd b458 a7bd
00000350: a268 ac3d 63a1 333d c5a4 183d 889d a23d
00000360: caba ef3b 9e02 a53d f7ef 2e3c 3e6d 6d3c
00000370: 5a03 72bd 29cc 00bd f2e0 0cbd 10d9 08bd
00000380: d3e9 9cbd 3511 353d 3e49 6cbd d93a 0cbd
00000390: 5347 7dbc 1807 47bd 0a49 97bd ae8c 8cbd
000003a0: f619 fe3c 0dd9 743d 0226 a53d 186c 973d
000003b0: ee39 81bd f9b4 2b3d cadf a9bd 1839 593b
000003c0: 475e b5bc ef74 a63d ff45 bb3c 4965 c03c
000003d0: 2de6 11bc 9b44 78bd 4190 5fbc ab5d 5cbd
000003e0: 516d 67bd f6d4 fd39 9ec9 d1bc 8412 d0ba
000003f0: bacb 8b3c 1ca7 0f3d 2e69 d5bb 7527 9a3d
0.07409408 -0.034050778 -0.022180734 -0.05031891 0.047218386 -0.07723802 0.07396695 -0.03326577
-0.030463386 0.012401155 -0.035122573 0.06308271 0.013937367 -0.0021986177 0.07402172 -0.02483117
-0.043908197 -0.08557203 -0.05489715 -0.024035875 -0.004856047 0.011320795 0.02133106 -0.07308276
0.0314389 -0.045592055 0.005241791 -0.006622346 -0.088522024 -0.059678048 -0.0725405 0.04455805
0.05267104 -0.036172275 0.089042865 0.035892963 -0.07845459 0.012100136 -0.06122779 0.07183332
0.0027261833 -0.027807964 -0.07196548 -0.06409783 -0.042219292 -0.032391295 0.03628304 -0.027837763
-0.005307402 -0.065703705 0.07130687 -0.02774779 0.014444295 -0.08791776 -0.055134095 -0.06483837
0.003631582 0.026811952 0.045468986 0.08113586 -0.051773343 0.07830075 0.0028132005 -0.046180155
0.031442814 0.0328946 -0.077913724 0.083529085 -0.0013743573 0.07324794 0.012155835 -0.01156468
0.05673296 -0.0043364763 0.0026027444 -0.056287248 -0.058753587 -0.08587824 -0.028016485 0.045839798
0.029687751 0.052516136 0.023867719 0.0576322 -0.07669566 0.04160138 -0.030402608 0.068586946
0.06682613 -0.055499572 0.036243904 -0.033984233 0.019522905 -0.02962831 -0.030690543 -0.08324518
0.02253693 0.010729787 0.023698216 0.07274983 0.029037764 0.05520583 -0.08585566 0.034879327
0.08661383 -0.036017496 0.053042535 0.0019603556 -0.024753133 -0.018497586 -0.028912622 0.011604512
0.054323778 -0.028840048 -0.007127095 -0.001963589 0.0403852 0.03267554 0.0058051716 -0.023159027
-0.040851947 0.02524489 0.04663994 -0.033825524 -0.08885232 0.0067125466 0.0008649295 0.07653155
0.04776623 0.004244623 0.03917527 0.083780475 0.05342825 -0.030597476 0.017460976 0.0700671
-0.04826785 -0.010568188 -0.018531894 -0.07538311 -0.030585539 0.055899195 -0.021554964 0.03526108
-0.061556865 0.047243483 0.03427433 0.058700684 -0.06901099 0.042824402 -0.07429835 -0.029193027
0.042544782 -0.039495353 -0.06046395 -0.0069859996 -0.030248782 -0.041274883 -0.074313425 -0.07395179
-0.03404428 -0.012474341 0.050529186 -0.049335234 0.0039791293 0.01446473 0.03439348 -0.0027045612
0.06694927 0.00044770245 0.022753062 0.0049375915 -0.06672939 -0.027369479 -0.0731815 0.023766367
0.041966263 0.055289246 0.06807189 -0.08496884 -0.013806386 -0.05714836 -0.038883604 -0.013261481
-0.059768282 0.038659234 -0.073424414 0.065942235 0.06836655 -0.06976719 0.08197593 0.049659207
0.065094575 -0.021595942 0.06995964 -0.04312692 -0.08803393 0.0113308 0.06358117 -0.06252085
-0.017896391 0.06099192 -0.03569105 0.06775944 -0.0882395 0.07348775 0.03045538 0.05460944
0.053983036 -0.023671018 -0.087402865 -0.08171216 0.084183946 0.043855082 0.03726651 0.07940203
0.007315968 0.0805714 0.010677329 0.014491377 -0.059085228 -0.031444702 -0.034394212 -0.033410132
-0.07661786 0.044205863 -0.057687037 -0.03423581 -0.0154589 -0.04859075 -0.07386978 -0.0686277
0.031018239 0.05977731 0.0806389 0.07393664 -0.06309877 0.041920636 -0.082946375 0.0033145603
-0.022139682 0.08127772 0.022860525 0.023485797 -0.008904976 -0.060612302 -0.013645233 -0.053800266
-0.056500737 0.0004841459 -0.025608834 -0.0015874659 0.017064918 0.035071477 -0.0065127825 0.07527057

sage1.lin_l.bias f4 [128]
00000000: e458 683d 5fd5 223d 787a 9dbd 2453 803c
00000010: 2811 adbd 400e 943d 742f 8e3c e5fc 633c
00000020: 6bf6 75bd 6fff 963d 66f2 243d 4e63 1f3c
00000030: 697d 933d 279e 75ba 9f41 b13c 4a2a abbd
00000040: 9f1a 2fbc 7936 6d3d 6e13 6d3c 106d 783d
00000050: 8cf8 81bd f858 843d 3abc 58bd 285a 2dbb
00000060: bfd1 db3c dc8a abbd d9a3 b5bc 04a4 483d
00000070: 2b8d 0a3d e86e 323c 2770 e63c ef7f c13c
00000080: 88d9 233d a715 c43c ff32 c3bc f7d3 c2bc
00000090: 7f03 4dbd 7e79 39bd 321a 3e3d a877 ad3d
000000a0: 1804 0bbd 5600 a13d cfc1 9cbd 2117 d53b
000000b0: c5ed 2fbd eb76 95bd d369 8abd 9e2b e63c
000000c0: bffc 6c3c 0b39 41bd c48d 93bb 0433 d9bb
000000d0: 5a25 a93d 02a6 d1bc 4661 6dbc cfa2 b4bd
000000e0: c873 af3d 48e3 b2bc c257 e43c 3013 4fbd
000000f0: 73ec 16bd f1d0 f6bc 6cf7 7e3d d829 86bd
00000100: 8fae 233c 11c6 62bd db0d 813d 4784 5c3d
00000110: c57e d7bc 2779 b8bd 62ac e4ba aafd 83bd
00000120: 771d 2dbd df99 3e3d 31e6 69bd 1471 d83c
00000130: f559 6cbd 71d8 1f3d f498 91bd 3197 76bd
00000140: 105e a9bd 6d10 ebbc 9d4a 9cbd 6aa9 bd3b
00000150: 97bf 103d 0445 60bd 47ef 183d bb63 ff3b
00000160: 2b3e 543c 02b3 a43d 73ca a4bd 376e 1b3c
00000170: aa9a 283d 28c1 043c 5c7b 13bd 591a 61bd
00000180: 0769 afbd 3a62 61bd 71ff 583c f0d4 0fbc
00000190: 7b5e 443d 619c 9abc e5bc c73c b5e2 f23c
000001a0: 96b6 413d 89c9 873d 6d7b 8cbd 4682 70bd
000001b0: f735 673d 0897 a1bd 3bd0 2a3d d9b5 aa3d
000001c0: a6c8 85bd cf3e 9abd e78f 9ebd b3e6 153d
000001d0: 6c9f 05bc 9d33 d93a dc20 2abc 6cb3 243d
000001e0: f235 013d da2f 6ebd d959 d6bb 0d49 c13c
000001f0: 0aa9 e6bc 0d13 51bd 0a58 363d 4343 e33c
0.056725398 0.039754268 -0.07689375 0.015664645 -0.08450538 0.072292805 0.017356612 0.013915275
-0.060049456 0.07372939 0.04027023 0.009728266 0.072016545 -0.0009369575 0.021637736 -0.083576754
-0.010687499 0.057913277 0.014469964 0.060650885 -0.06346235 0.06462282 -0.05291388 -0.0026451442
0.026833413 -0.08376095 -0.022172855 0.048984542 0.033826035 0.0108907 0.02812965 0.023620574
0.040002376 0.023936106 -0.023828028 -0.023782713 -0.050052162 -0.04528188 0.0464117 0.08470088
-0.03393945 0.07861392 -0.076541536 0.0065030013 -0.042951364 -0.072980724 -0.067584656 0.02809697
0.014464556 -0.04717354 -0.0045029838 -0.006628396 0.08259077 -0.025591854 -0.014488524 -0.08820116
0.085670054 -0.021836892 0.027873877 -0.050555408 -0.03684659 -0.030128928 0.06224768 -0.0655095
0.0099903485 -0.055364672 0.06301471 0.053837087 -0.026305566 -0.09007483 -0.0017446394 -0.06444867
-0.042264428 0.04653346 -0.057104293 0.026421107 -0.057702977 0.039024774 -0.071092516 -0.06020278
-0.08269894 -0.028694356 -0.07631419 0.005788018 0.035338964 -0.05475332 0.037337568 0.007793871
0.012954275 0.080419555 -0.080464266 0.0094867265 0.041163124 0.008102693 -0.036006317 -0.054956768
-0.08564954 -0.055025317 0.013244496 -0.008778796 0.047941666 -0.018873395 0.024382064 0.029649118
0.04729327 0.06630237 -0.06859479 -0.05871799 0.05644795 -0.07890135 0.04170249 0.08335466
-0.06532411 -0.07531511 -0.07742291 0.036596965 -0.008155685 0.0016571168 -0.010383811 0.040210173
0.031545587 -0.058151104 -0.0065414724 0.023594404 -0.028156776 -0.05104356 0.044517554 0.027742034

sage1.lin_r.weight f4 [128, 128]
00000000: e254 a5bd 5f14 4fbd 351a 223d 7f9a 333d
00000010: 10b3 68bd 042c 9dbd 278d 053d 2d77 14bd
00000020: 909b 1e3d 1305 afbd a576 d13c 1cea 8abd
00000030: 69a6 3fbd 62a3 7cbc 9e4f 943d 7afa a2bd
00000040: f984 f1bc 27e6 fa3c d2a8 003d 6cc3 4bbc
00000050: ab33 b1bd 2dc6 1b3d 44aa 803c 86f4 b0bd
00000060: 75cd febc 9e5a 20bd bc33 803c a0dc f5b8
00000070: 0ed1 b73b d175 aabc c9fc ac3d 6a8d 23bc
00000080: 3361 04bd 0f9d 7d3d 0027 8639 647f 803c
00000090: 0137 e53b 585d fcbc 5a7c 47bb 515b 56bc
000000a0: a2a5 7bbd aad4 a83d 0e22 bbbc 6253 acbd
000000b0: c437 203d 6da9 34bd 1943 abbd d586 e93c
000000c0: 1dfe a4bd 41bc 36bd ef61 4bbd 5a42 1dbc
000000d0: 602c 69bd 0228 4fbd 903b 2dbd 2cdf 143d
000000e0: 482a 98bd cc05 3dbb 12e6 70bd e853 15bd
000000f0: 6e84 8ebb 0f3e f7bc 7945 8a3d 1f63 903c
00000100: 52ce 93bd 8c5b a93d 0f91 a23d bd71 bf3c
00000110: 2597 97bd 60b7 803d d4df 013d c536 ccbc
00000120: fcfe 83bc 85cd c5ba 1a01 07bd c4e0 64bd
00000130: 5b87 20bd 8c06 a4bd 63bb 7c3d 5bd7 483c
00000140: a05f 1abd 0271 e5bc 5718 4f3d 4bde 443b
00000150: 5dc2 fb3b 9029 4abd 6eef 8d3c 8982 923d
00000160: fd01 803c fd41 d53b fcf0 773d e858 8e3d
00000170: 5b25 a8bd 3041 733d e35b 1abc 68d8 f8bc
00000180: 6c51 a6bd 7a6e a8bd 44c9 463c 02c2 53bd
00000190: 6113 043d c0c7 873d 2204 033d ded1 66bd
000001a0: e102 b5bc 7c1b a03d aa2e 803d b99a 29bd
000001b0: 9721 f93b 5715 993d 58df 943d c179 58bc
000001c0: 6070 72bc 2d69 85bd 9cea 163d d7d8 19bc
000001d0: a0f3 de3c 9cb6 8c3d a111 d5bc ee69 b1bb
000001e0: 7fce 173d 7c53 35bd 00cb 873c ffc9 25bd
000001f0: 30cb 653c a517 013d c8d5 6fbd b520 40bd
00000200: cbea 96bd cdbd d1bc 1646 bebc 84ed 96bd
00000210: 4b37 6b3c a153 a93c dab4 f53a 234b 4abd
00000220: b39e e8bb 2a91 31bc b75a c8ba a20a 933d
00000230: 6210 b3bd d76e 853d 3c6d a63c e737 933d
00000240: 5e85 f1bc c0c1 093c 88fc 883d 4abb 78bd
00000250: 9829 95bd 26fc 003d 45ab af3d bd88 283d
00000260: 4b9a c8bc 7bf0 933d 6d0f b03d 9b2f 943d
00000270: 6129 b73c b827 ab3d 91f5 753d 5260 e7ba
00000280: f723 14bd f3bd c8bb 2e49 a13c 4da4 963c
00000290: e89e ae3d 8adf a6bc fbe0 8e3d 59d6 73bd
000002a0: fb8e 193c 99dc acbd a037 a73d c64f 7dbc
000002b0: e996 81bd 6a80 653d 9501 51bd 2b93 203d
000002c0: 0753 fd3b f19a a1bd 2d63 1fbd 6e80 ea3a
000002d0: 81cc dd3c 98b6 71bd 1f66 043c 3194 73bd
000002e0: fb15 a4bd ddac 4fbd 674f 97bc 5401 88bd
000002f0: 9b0d b5bc 366f 8bbc 582c 8fbd c8da e7bb
00000300: 51af 3c3d 9834 0d3b f8fc e73c ee00 323d
00000310: 262f 2b3c 7de2 83bd 1677 aebd 09ac 98bd
00000320: ed01 ab3d c92f 063d 7a44 a13d dae5 4bbc
00000330: 6051 183b 1951 8abd a6d2 51bd 172e fabc
00000340: e03a a23b a250 88bd b071 593d 48ec 223c
00000350: 528d a93d fbcc e0bc 6740 243c fcd5 a8bd
00000360: 18ef a1bd f4cd 343d 5d64 943d 5224 323d
00000370: d889 b83c 00a9 8bbd 46e8 e33c d938 2f3d
00000380: 8bc7 b5bc d25f 2d3d ac83 a23d 799c a7bd
00000390: 5553 893d bb38 14bd cfb4 493c b7c3 2d3b
000003a0: 2b07 353d a698 efbc a129 b53d 5150 923d
000003b0: d267 a2bd 993e 8e3d 6629 3f3c bef5 97bc
000003c0: cdbc c2bb d3e4 9b3d 93e8 013c 338f 4b3d
000003d0: 89de 793d f9ba cbbb 5397 08bd 09a8 0bbd
000003e0: 775e 28bd 8fc6 233d 1bd4 5e3d 8bae 843c
000003f0: 7344 293b 4dbb 313d 1bba 543d 8beb 5dbd
-0.08072831 -0.050556537 0.039575774 0.04384851 -0.056811392 -0.07674411 0.032605316 -0.036246467
0.038722575 -0.0854589 0.02556927 -0.06782934 -0.04678956 -0.015419813 0.07241748 -0.07957931
-0.029482352 0.030627323 0.031411 -0.012436729 -0.08652433 0.038030792 0.015706189 -0.08640389
-0.031103829 -0.03914892 0.015649669 -0.00011723605 0.005609638 -0.020808132 0.084466524 -0.009982446
-0.03231926 0.06191736 0.0002558753 0.015685745 0.0069950824 -0.030806229 -0.003043911 -0.013083295
-0.061437257 0.082436875 -0.022843387 -0.084143415 0.039115682 -0.04410689 -0.08362407 0.028506676
-0.08056281 -0.044613127 -0.049653944 -0.009598339 -0.056927085 -0.050575264 -0.04229313 0.036345646
-0.074299395 -0.0028842567 -0.058813162 -0.036456972 -0.004349283 -0.030180959 0.06751532 0.01762539
-0.07217087 0.08269414 0.07937824 0.023369664 -0.074018754 0.06284976 0.0317076 -0.02492846
-0.016112797 -0.0015091157 -0.032960035 -0.055878416 -0.039191585 -0.08009061 0.061702143 0.012258376
-0.03768885 -0.028007988 0.05056032 0.0030039723 0.007683082 -0.049356043 0.017326083 0.07153804
0.015625948 0.0065081106 0.060532555 0.06950551 -0.0821025 0.05938834 -0.009421322 -0.030376628
-0.08120999 -0.08224197 0.012132946 -0.051698692 0.032245044 0.06629896 0.031986363 -0.05635249
-0.0220961 0.07817742 0.062589005 -0.04140732 0.007602881 0.074747734 0.07269162 -0.013212622
-0.0147973 -0.06514201 0.036844835 -0.009390078 0.027215779 0.068707675 -0.026009383 -0.005414239
0.037062164 -0.04426907 0.01657629 -0.04047584 0.014025494 0.03151669 -0.058553487 -0.04690619
-0.07369002 -0.0256032 -0.023226779 -0.07369521 0.014356445 0.02066976 0.0018745915 -0.049388062
-0.0070989965 -0.0108378325 -0.0015285824 0.071797624 -0.08743359 0.06515282 0.020315759 0.07188397
-0.02948254 0.00840801 0.066887915 -0.060725488 -0.07283324 0.031490467 0.08577589 0.04114603
-0.024487635 0.072236024 0.08596692 0.072356425 0.022358598 0.08357185 0.060048643 -0.0017652607
-0.03616711 -0.0061261593 0.019688215 0.018388892 0.08526403 -0.020370264 0.06976505 -0.05953059
0.009372468 -0.08440513 0.081649065 -0.015460914 -0.06327612 0.05603067 -0.0510269 0.03920285
0.007730845 -0.07890881 -0.03891294 0.0017891058 0.027075054 -0.059012026 0.008080988 -0.0594675
-0.08012005 -0.050701965 -0.01847048 -0.06640878 -0.022101214 -0.017020803 -0.0699088 -0.0070756413
0.046065632 0.002154624 0.028318867 0.043457918 0.010448253 -0.064396836 -0.085188076 -0.07454688
0.08349977 0.032760415 0.07874389 -0.012444938 0.0023241863 -0.067537494 -0.05122628 -0.030539555
0.004950866 -0.066560045 0.053086936 0.009944029 0.08278908 -0.027441492 0.01002512 -0.08243939
-0.07906932 0.044141725 0.07245705 0.04349167 0.022526667 -0.068193436 0.027820718 0.042778824
-0.022189876 0.04232771 0.07935271 -0.08184142 0.067053474 -0.036186915 0.0123111745 0.002651436
0.04419629 -0.029247593 0.08845831 0.071442254 -0.079299584 0.06945533 0.011667585 -0.018549796
-0.005942917 0.07612004 0.007928985 0.049697112 0.06100324 -0.0062173572 -0.03334744 -0.034095798
-0.041105714 0.039984282 0.0544015 0.01619651 0.0025828152 0.043391515 0.051935297 -0.05417971

sagpool.gnn.lin_rel.weight f4 [1, 128]
00000000: c779 283d 4803 803d e7bd d4bc e2f5 9ebd
00000010: f0fb 683d 17c5 343d 583e 07bd 27b8 163c
00000020: 2acb d2bc 6cb2 463d d859 b03d a858 533d
00000030: 7c6f 8a3d 07ac f1bc 88f9 7bbd 8a09 34bd
00000040: 064b 9fbd be04 a2bd a02c d73c 1158 36bd
00000050: 2fcf 963d eccf afbd be94 87bd 5986 a83d
00000060: a01c f2bc d89e b33d ac0b 8ebd a3f5 523d
00000070: 782f 39bc 6a7a b53d be4a fa3c 76ad 2c3d
00000080: e571 563c c981 973d f306 af3d d666 b23d
00000090: 0975 2abd 4964 be3c 8c0f 56bc cc9a fbba
000000a0: 827e acbd ed04 493c c7ff 7bbd c0ca 71bd
000000b0: 773c c5bc aaf2 0cbd aadf 0dbd 27d5 9f3c
000000c0: e6a9 a8bd eb14 91bd 3b8b 8d3c 91a5 523d
000000d0: 012d 5cbd cf68 d53c 89fc d23c 8758 793d
000000e0: 8456 4dbc 90df b53d 3153 9bbd 0dae fbbb
000000f0: d615 9bbc bfda ca3c 1196 1c3c e59f 78bd
00000100: 7386 8ebd 0de9 983c d73d 053d 0f17 24bc
00000110: 0602 193d 72fe a7bd e32c 2ebd 224a 873d
00000120: 1647 70bd 69b5 413d b81a 21bc da8a 783c
00000130: 0f51 5d3d 749c 51bd 0f49 b53a 78fe 05bd
00000140: 3fcf 78bd d442 a1bd d875 cdbc afc1 613d
00000150: 27f1 72bd 709a 513c c002 96bd cea5 a93c
00000160: 1e8c 593d d966 65bd 4ee8 a93c f011 613d
00000170: b1be eabc 4a36 63bc e5a2 aebd fdd6 8abd
00000180: 6040 89bd 23f4 813d e171 053d 8590 933d
00000190: 22cc c5bc 8985 98bd 13f3 33bd 1abb 8a3d
000001a0: fd41 d13b 622e 533d 5c7f f3bc 1e92 a1bd
000001b0: 35c8 3f3d 6582 9bbd df79 443b 6b8e 863d
000001c0: f3f9 a3bb a174 343d 4073 8b3d 174d 9abd
000001d0: 2e09 91bd caa8 f83c c39e 963d 4cbe 923d
000001e0: 44a3 60bd 9b4c 1d3d 5d04 413c 1a6c 933b
000001f0: 414a 493c c020 24bd 9087 983d 4216 e2bc
0.04113176 0.06250626 -0.025969459 -0.07761742 0.05688089 0.044133272 -0.03301844 0.009199179
-0.025731642 0.04851 0.08610886 0.05159822 0.06759545 -0.029500974 -0.06151727 -0.04395441
-0.077779815 -0.07911061 0.026266396 -0.04451758 0.07363736 -0.0858458 -0.06620167 0.0822875
-0.029554665 0.087705314 -0.0693582 0.05150379 -0.011302821 0.08861239 0.030553218 0.042157613
0.013088678 0.073978014 0.08546247 0.08711021 -0.04161552 0.023241179 -0.01306523 -0.0019195913
-0.08422567 0.012269241 -0.061523225 -0.059031248 -0.024076683 -0.03441111 -0.03463713 0.019510819
-0.082355306 -0.07084068 0.017278304 0.051427428 -0.053753857 0.026050953 0.025755184 0.060875442
-0.012532834 0.08880532 -0.07584227 -0.0076806606 -0.01893131 0.02476251 0.009557263 -0.060699362
-0.06959238 0.018665815 0.03252968 -0.010015263 0.037355445 -0.082028285 -0.042523276 0.066059366
-0.058661543 0.047292147 -0.00983303 0.015169824 0.05403238 -0.051174596 0.0013830977 -0.032713383
-0.06074452 -0.078740746 -0.025080606 0.05511635 -0.059312012 0.012793168 -0.07324743 0.020708945
0.05311214 -0.056006286 0.020740654 0.054948747 -0.028655382 -0.013867924 -0.085271634 -0.06779287
-0.06701732 0.063453935 0.032579307 0.07205299 -0.02414519 -0.07447345 -0.043932986 0.06773968
0.0063860402 0.051557906 -0.029723816 -0.07889198 0.04682179 -0.0759323 0.0029979867 0.06570133
-0.0050041615 0.04405654 0.068090916 -0.07534235 -0.07081829 0.030353922 0.073545 0.071652025
-0.054843202 0.038403135 0.011780825 0.0044989707 0.01228577 -0.040070295 0.074477315 -0.027598504

sagpool.gnn.lin_root.weight f4 [1, 128]
00000000: 35b6 4f3d 5b0f 473d ec4b b2bd 21c5 6bbd
00000010: 5f48 3abd 035c 803d 628e 37bd 383a a93d
00000020: 6052 9f3d f090 a73d 91b3 623d 9b32 2a3d
00000030: 2ddb 673b 38a8 aabc fb53 9abd 88f5 383d
00000040: d26c 9a3b fb59 c1bc e621 813d 4bda 9ebd
00000050: a287 a53c 74e6 92bd b5d2 a9bd 92b0 493c
00000060: 9fc7 4a3d b316 9cbd 7436 903d 0041 65bd
00000070: 016a 09bd aa4c 5fbc 6401 adbc 35ef b4bd
00000080: edae 2e3c 6c26 8fbc 912d dd3c 794e acbd
00000090: 246a 00bd 08d3 8ebc c4e5 b5bb 97bb 9abc
000000a0: 3784 a6bd 1126 19bc 88d5 f13c 358e c33c
000000b0: 584f 903d 9b5a 873d 7e9f 883c 6de8 97bc
000000c0: 4f46 c43c d0ae 75bd 6c5d 99bd ac50 203b
000000d0: 6c01 ab3c c956 8dbd 6558 86bd 5d76 98bd
000000e0: 2b53 dabc f3d2 983c 17a6 24bd 7b84 9e3d
000000f0: 9218 403d 5de5 68bc cb33 b0bc d69e 923d
00000100: 5267 7fbd 93c7 373b a294 193d afe3 4cbd
00000110: 65fb 66bd d6d4 023c a021 60bd 42b7 933c
00000120: db6c 183d 504a a1bc b64a c73b a950 473d
00000130: 16f4 b1bd eccf 61bd 8f81 17bd 7458 5a3d
00000140: 9871 49bd 094e 873d 257f 2fbd 23e0 29bb
00000150: bec0 95bb 6a21 9ebd f12a b13d bb30 683d
00000160: c686 963d 8fe1 943d 5723 6dbd 642f 363b
00000170: 209c 873d a797 47bc 027e 0fbd 2aac babb
00000180: c721 afbd 62dd 69bd 7c63 873c 4e92 ae3d
00000190: f96e 8b3d f8b5 8c3d d3b6 f83b 47d6 433d
000001a0: 830e 22bd 0bc2 9c3d 3175 a73d de04 84bd
000001b0: 735f 99bd 7f6c 963d 3d94 533c 7eeb a63d
000001c0: 95eb 9dbd 4892 903d a3ed 8f3d fb09 7b3d
000001d0: 4a7a ab3d a41d 96bd a09f 98bd 42b8 47bd
000001e0: aa4d 82bd 7821 0cbd c53e 363c 45fb 01bd
000001f0: 73a2 343d 052e b13d f1e5 233d 5fff a3bc
0.050710876 0.04859863 -0.08705887 -0.057561044 -0.045479175 0.0626755 -0.04481352 0.082630575
0.07779384 0.081819415 0.05534703 0.041552167 0.0035378442 -0.020832166 -0.07535549 0.04515603
0.0047126794 -0.023602476 0.06305294 -0.0775648 0.020206276 -0.07172862 -0.08292142 0.012310164
0.04950678 -0.07621517 0.07041636 -0.055970192 -0.03354836 -0.013629118 -0.021118827 -0.088346876
0.010661823 -0.017474376 0.026999267 -0.08413405 -0.031351224 -0.017434612 -0.005551072 -0.018888278
-0.08130687 -0.009347455 0.029520765 0.02387152 0.070463836 0.066090785 0.016677614 -0.018543446
0.023959307 -0.059981167 -0.07488522 0.0024462147 0.020874701 -0.069013186 -0.06559829 -0.07444451
-0.026650986 0.018655276 -0.040197458 0.077401124 0.046898432 -0.014214841 -0.021509072 0.07159202
-0.062354393 0.002804254 0.037495263 -0.050021823 -0.056392092 0.007985314 -0.054719567 0.01803172
0.037213188 -0.019688755 0.0060819043 0.048660908 -0.08689134 -0.05512993 -0.03698879 0.05330701
-0.049180597 0.06606681 -0.042845864 -0.002592095 -0.004570096 -0.07721217 0.086507685 0.056687098
0.07349925 0.072695844 -0.05789503 0.0027799243 0.06621575 -0.012182153 -0.03503228 -0.005696793
-0.085513644 -0.057095893 0.01652693 0.08523999 0.06808276 0.06870645 0.0075901537 0.047811773
-0.03956462 0.07654198 0.08176649 -0.06446241 -0.074889086 0.07344913 0.012913761 0.08150385
-0.07710949 0.07059151 0.070277475 0.061288815 0.08372934 -0.07329872 -0.07452321 -0.048759706
-0.063624695 -0.034211606 0.011123364 -0.03173377 0.044100236 0.08651356 0.04001421 -0.020019231

lin.weight f4 [64, 128]
00000000: 14e4 19bd 1f4e abbd 8623 a4bd 9a18 103d
00000010: f156 a73c 2857 e7bb 275b 543d 8e4f 2bbb
00000020: ad91 8dbd 1441 97bd 551a 92bc f2de 62bd
00000030: 7d96 c43c 9499 85bd b9c5 613d 173a 1ebd
00000040: 6208 f3bc b1e5 ffbb 5684 663d df42 2e3d
00000050: d8a2 3cbd 056a 88bd 90e3 d8bc 1fd8 dd3c
00000060: 6bb3 2ebd 2c3b b33d d248 853d f605 83bd
00000070: 23a1 513d 064f a0bd a9e0 06bd 5cb3 393d
00000080: b540 083d dbef b9bc 63b7 753d 050b 5c3d
00000090: c5be e7bc a027 97bb efc6 c73c 1acb 9ebd
000000a0: 8317 013b f927 83bd 7a14 d03c 336d 1fbd
000000b0: 140f efba 5e10 adbd c261 6abc 5f7d d4bc
000000c0: 19aa 6b3c b416 033b e569 9f3d 188c 93bd
000000d0: f82a 0f3d 4601 133d 8187 7b3d 93b0 a2bd
000000e0: 5ea7 a53d de3c af3c 8834 a7bd 8095 b8bc
000000f0: 648f a83b fdd0 933c 3a26 a73d e55e 68bd
00000100: f7b4 a8bd 7620 afbd 5f0c 7e3d fac5 2b3c
00000110: c18e 0c3d 0d05 0b3d 2d18 113d 39a6 9d3d
00000120: f03a b13d 4d97 9e3d 4d1a 8e3d ede6 b3bd
00000130: 6896 bb3c b9d2 273d 68d4 67bd b2d5 f23c
00000140: 4ca7 813d f6f2 8dbd d8f8 b4bd ed62 423d
00000150: c8e7 8fbd 0968 933d 0c6c 6abd e8ea 993d
00000160: ef04 cfbc 07a9 0f3b c1d9 7f3d 10c3 ad3c
00000170: ebdc eaba 2b3a edbb c35d 853d 666b 97bc
00000180: 9919 8e3d 4c0f b8bd ffd5 3cbd ce20 1ebd
00000190: 7545 063c 3814 203d 2c8f 95bd 8455 acbd
000001a0: 59ea 20bb e7b8 4b3d 70f7 5c3d e261 12bc
000001b0: 760d 5cbc bac5 663d 32e0 d1bc 8113 663c
000001c0: b2bb 81bc 4650 433c 781d 913c 4155 2abd
000001d0: 748f f03c 94c6 27bd 0ec1 523d dc57 153c
000001e0: 5e37 dabc 1a6d 65bd 9d24 26bd 199a abbd
000001f0: 7475 a8bd 34f3 aa3d a1ba 493d abdd 22bd
00000200: 938e c7bc 2986 88bd d238 413c 43bf 083c
00000210: 087a a73d 3ed1 6d3d 67f4 723d 8e27 373d
00000220: 5788 f23c ffd4 e43b 83a0 a6bd c736 28bc
00000230: 0e26 853c be78 843d 7976 a0bc a76b 863d
00000240: 625b 6dbd 6c30 8fbd a811 b3bd f43d 903d
00000250: 1637 31bc a8e3 c6bc 713f 923d cc6f 35bd
00000260: e0e8 7c3d f61c 383a 2eb5 3abd c4db 043d
00000270: 73f8 9c3d 05c6 2cbc 28e1 733d c457 a4bd
00000280: 145a e4bc 4b72 90bc 404a 933d 6110 e0bc
00000290: 9923 743d ac65 2bbd af11 b8bd 5fcd febb
000002a0: 4b6f 4e3b b11b 62bd 40db a9bc 7a44 923d
000002b0: 3186 d1bc d2fb 9d3c 5eab c03c 57dc 9abc
000002c0: 3bc5 a0bd c57b 84bc aaa3 c9bc 2f0c 383d
000002d0: 6723 23bd e3be 70bd 7fc7 95bd d08a 5c3d
000002e0: 3356 d7bc 5e20 57bd bbd2 213d dff7 67bc
000002f0: 24f6 d33c 6d08 f73c e6b5 5ebd 2099 e53c
00000300: 2b8b 45bd 8c2f 853d 7a5f 253d 4976 0b3d
00000310: 1d2d 983c 692b 823d fa15 713d 468d e2bc
00000320: 9e13 b7bc 6919 b43d cc42 b23c 17bc 473c
00000330: c95b 2f3d 27a7 653d d56b 7ebd a9b6 2d3c
00000340: f68d e93c 3778 c53c 0902 3ebd d0ba 983d
00000350: 5af1 893d f988 033a 558c 083d a27f 373d
00000360: 237c b8bc 5ce9 e6bc f99c 98bd 3552 9bbd
00000370: 79aa 66bb 3b6a 50bd 043d 2d3d d35b 9fbc
00000380: fc15 2b3d cbbf 81bc 89f9 e63c fd32 17bd
00000390: 5e92 8abd bfcf 9b3d 26f1 74bc 5b1b 983d
000003a0: a2c7 55bd ebe0 6f3d 0064 5dbd a634 ab3d
000003b0: 1d01 b4bd a866 acbd 51bc 453d 9aba 403d
000003c0: 7927 a33d 699c 893d b2be 68bd 8f1f 9ebd
000003d0: a715 43bd 0015 a6bd e08c 8bbd 864e 64ba
000003e0: e727 68bd cbea 953d ff18 b03d 7a42 dcbc
000003f0: b532 633c cdf9 b73d 6e3d a33a 2645 353d
-0.037571028 -0.0836451 -0.08014588 0.035179712 0.0204272 -0.0070599504 0.051844742 -0.0026139948
-0.06912551 -0.073854595 -0.017834822 -0.0553884 0.02399754 -0.06523433 0.055120204 -0.038629618
-0.029667083 -0.007809364 0.05627855 0.042544242 -0.046053737 -0.066608466 -0.026475698 0.027080594
-0.042651575 0.087515205 0.0650803 -0.06397621 0.051179063 -0.078275725 -0.032929096 0.045337066
0.033264834 -0.02269738 0.059989344 0.053721447 -0.028289208 -0.004612878 0.024386851 -0.07753582
0.0019697852 -0.064041086 0.025400389 -0.0389225 -0.0018238747 -0.084503874 -0.014305534 -0.025938688
0.014383816 0.0020002546 0.0778387 -0.07204455 0.034953088 0.035889886 0.061408523 -0.07943835
0.080885634 0.021391328 -0.081643164 -0.022532225 0.0051440466 0.01804399 0.08161588 -0.056731123
-0.08237641 -0.08551113 0.062023517 0.010484213 0.03431583 0.033940364 0.035423446 0.0769772
0.086538196 0.07743702 0.0693861 -0.0878428 0.022898868 0.040972445 -0.05659905 0.029642913
0.063307375 -0.06931107 -0.08836526 0.047457624 -0.07026631 0.071975775 -0.057231948 0.07515508
-0.025270907 0.0021920817 0.062463526 0.021211177 -0.0017918622 -0.0072396 0.06512024 -0.018483829
0.06938476 -0.08987293 -0.04610252 -0.038605504 0.008195271 0.039081782 -0.073026985 -0.08414748
-0.0024553745 0.049736883 0.053946912 -0.00893447 -0.013430944 0.05634091 -0.0256196 0.014042736
-0.01583657 0.011920994 0.017714247 -0.04158521 0.029365279 -0.040960863 0.051453643 0.009115186
-0.02663773 -0.05601225 -0.04056226 -0.08379001 -0.082255274 0.083471686 0.04925025 -0.03976218
-0.024359977 -0.06666214 0.011793332 0.008346382 0.081775725 0.058060877 0.05931511 0.044715457
0.029606028 0.006983399 -0.08136084 -0.010266966 0.016253497 0.06468342 -0.019587742 0.06563502
-0.057948478 -0.069916576 -0.08743602 0.070430666 -0.010816356 -0.024278477 0.07141007 -0.04429607
0.061745524 0.00070233585 -0.045582943 0.032436147 0.076645754 -0.010545258 0.059540898 -0.080245525
-0.027874984 -0.017632624 0.071918964 -0.02735156 0.05960426 -0.04184501 -0.08987748 -0.007775947
0.0031499441 -0.05520219 -0.02073443 0.07141967 -0.025576683 0.019285116 0.023519214 -0.018903894
-0.07850119 -0.0161723 -0.024614174 0.044933494 -0.039828684 -0.058775794 -0.073134415 0.05384332
-0.02628622 -0.052521102 0.03950761 -0.014158218 0.025874205 0.030155385 -0.05437269 0.028027117
-0.048228424 0.065032095 0.040374257 0.034048352 0.0185762 0.06355936 0.05885885 -0.027655255
-0.022348221 0.08793909 0.021760367 0.01219084 0.042812143 0.056067612 -0.062114555 0.010602632
0.028510075 0.024105174 -0.04638866 0.07457507 0.06735487 0.0005017664 0.033336956 0.044799455
-0.02252013 -0.028187446 -0.07451815 -0.07584039 -0.0035196824 -0.05088256 0.042294517 -0.019452965
0.041769013 -0.015838524 0.02819516 -0.03691386 -0.067661986 0.07607984 -0.014950072 0.07427093
-0.052192338 0.058564108 -0.054050446 0.08359651 -0.08789275 -0.084180176 0.048275296 0.047052957
0.07966513 0.06719286 -0.056822486 -0.07720863 -0.04762807 -0.08109474 -0.06813979 -0.00087092107
-0.05667868 0.07320174 0.085985176 -0.026887167 0.01386707 0.089831926 0.001245422 0.0442554

lin.bias f4 [64]
00000000: 97d1 0b3d 1aad 8fbd 2d75 9e3d 9a57 a43d
00000010: bade c23c 664e 42bd 3f02 973d 98cc 703d
00000020: 66f1 34bd 93f7 933d fbf7 953a 8beb a1bd
00000030: 24ae 933d 061e 203d ec15 a0bd 3c4f cb3c
00000040: 6019 ce3c 0724 b33d 5ce9 60bd 21d7 abbd
00000050: ea62 9ebd 3dc6 983d 0bee 68bd a3a2 d4bc
00000060: 55e6 d3bc 45f1 a7bd a87f 0d3d 212d 873d
00000070: 950d 9ebd 3856 acbd 9c18 55bd 376b ac3d
00000080: 2592 8a3d a8f7 693c 7f28 29bd 05e7 15bc
00000090: 3e65 10bc a7c1 7d3c 8a85 b63c 2929 d9bc
000000a0: 4d1b 163d 50f1 033d 4d7d 223d 6e89 83bd
000000b0: 2607 c83c 7451 473d 745b a7bd 4439 7b3d
000000c0: 6d6c 14bc ed66 77bd 715c 48bd e650 7e3d
000000d0: cd2e 7fbb 1a6e 09bd 073e 8e3c a2a7 51bd
000000e0: 3225 5c3d dd47 b93c e818 973c 9c68 353c
000000f0: e1e2 953c 0a89 b2bd 4a29 8dbc 2ab4 9abd
0.034135427 -0.070154384 0.07737193 0.08024521 0.023787845 -0.047438048 0.07373475 0.058788866
-0.044175528 0.072249554 0.0011441702 -0.079062544 0.07210949 0.039091133 -0.07816681 0.024818055
0.025158584 0.08747106 -0.05491005 -0.08390642 -0.0773371 0.07459686 -0.05686764 -0.025956457
-0.025866667 -0.082003154 0.03454557 0.066004045 -0.07717434 -0.084148824 -0.052025422 0.08418887
0.06766156 0.014280237 -0.041298386 -0.009149318 -0.0088132005 0.015488065 0.022280473 -0.026508885
0.03664713 0.032212555 0.039670277 -0.06422697 0.024417471 0.048661664 -0.0817174 0.06133391
-0.009059054 -0.060400892 -0.048916284 0.06208887 -0.0038937808 -0.033552267 0.017363561 -0.051185258
0.05374641 0.022617275 0.018444493 0.011072304 0.01829666 -0.087175444 -0.017231602 -0.07553895

fc.weight f4 [1, 64]
00000000: bb17 87bc 0418 963c 1968 6ebc bf4f 4b3d
00000010: 3573 aebd 421a e13b 4a03 e9bb cb37 633d
00000020: 7135 e33d 5f96 efbd b592 c1bd 35a9 a5bd
00000030: 176a 93bd afa8 783d 4337 843d caa0 d23d
00000040: b6c6 dc3d 4f2d 97bd 71ee 73bd 66ee 2abd
00000050: 9089 abbd d19b 40bd e38c f7bd cbaf b8bd
00000060: 12e7 e6bd 3e6e 983d 4f4f 11bd 0c4a ff3d
00000070: 7a21 d03d 94ab e63d 6acd e33d 8157 843d
00000080: b1c2 283d fbfd 4a3d 7fc6 98bd 92ff b73d
00000090: 78f4 b7bc 63b3 f73d 3763 e43d 788b cebd
000000a0: 7547 9a3d 8246 a03c f301 0f3d c9a1 cebd
000000b0: 3dd1 f83c 8929 3bbc 9f7c fdbd 55a4 793d
000000c0: 2c35 d8bd 6f76 acbd 7893 8abd 7d41 063e
000000d0: f77d 93bc c443 6b3b 4b31 883c e7b8 683d
000000e0: 06ac 95bd 50f3 debc 28ff 043e c027 87bd
000000f0: 5d07 62bc 58b4 9cbd 19dd d53d 6378 2bbd
-0.016490808 0.018321998 -0.014551186 0.0496366 -0.08518068 0.0068695853 -0.007110988 0.05547313
0.110941775 -0.11698603 -0.0945181 -0.08088914 -0.071979694 0.060707744 0.06455853 0.10284574
0.107800886 -0.07381689 -0.059553567 -0.04173126 -0.08375847 -0.047023598 -0.12087419 -0.09017905
-0.11274542 0.07442902 -0.035476025 0.12465295 0.10162635 0.11263195 0.11123164 0.064620025
0.041201297 0.04955862 -0.07459735 0.08984293 -0.022455439 0.12094762 0.11151736 -0.10085195
0.075331606 0.01956487 0.03491397 -0.10089452 0.03037321 -0.011423477 -0.12377285 0.060947735
-0.10557017 -0.08421027 -0.06766409 0.1311092 -0.0180044 0.0035898546 0.016625067 0.05681696
-0.073082015 -0.02721563 0.1298796 -0.065993786 -0.013795701 -0.07651585 0.10442562 -0.041862857

gcn_batch_norm.weight f4 [128]
00000000: 0000 803f 0000 803f 0000 803f 0000 803f
00000010: 0000 803f 0000 803f 0000 803f 0000 803f
00000020: 0000 803f 0000 803f 0000 803f 0000 803f
00000030: 0000 803f 0000 803f 0000 803f 0000 803f
00000040: 0000 803f 0000 803f 0000 803f 0000 803f
00000050: 0000 803f 0000 803f 0000 803f 0000 803f
00000060: 0000 803f 0000 803f 0000 803f 0000 803f
00000070: 0000 803f 0000 803f 0000 803f 0000 803f
00000080: 0000 803f 0000 803f 0000 803f 0000 803f
00000090: 0000 803f 0000 803f 0000 803f 0000 803f
000000a0: 0000 803f 0000 803f 0000 803f 0000 803f
000000b0: 0000 803f 0000 803f 0000 803f 0000 803f
000000c0: 0000 803f 0000 803f 0000 803f 0000 803f
000000d0: 0000 803f 0000 803f 0000 803f 0000 803f
000000e0: 0000 803f 0000 803f 0000 803f 0000 803f
000000f0: 0000 803f 0000 803f 0000 803f 0000 803f
00000100: 0000 803f 0000 803f 0000 803f 0000 803f
00000110: 0000 803f 0000 803f 0000 803f 0000 803f
00000120: 0000 803f 0000 803f 0000 803f 0000 803f
00000130: 0000 803f 0000 803f 0000 803f 0000 803f
00000140: 0000 803f 0000 803f 0000 803f 0000 803f
00000150: 0000 803f 0000 803f 0000 803f 0000 803f
00000160: 0000 803f 0000 803f 0000 803f 0000 803f
00000170: 0000 803f 0000 803f 0000 803f 0000 803f
00000180: 0000 803f 0000 803f 0000 803f 0000 803f
00000190: 0000 803f 0000 803f 0000 803f 0000 803f
000001a0: 0000 803f 0000 803f 0000 803f 0000 803f
000001b0: 0000 803f 0000 803f 0000 803f 0000 803f
000001c0: 0000 803f 0000 803f 0000 803f 0000 803f
000001d0: 0000 803f 0000 803f 0000 803f 0000 803f
000001e0: 0000 803f 0000 803f 0000 803f 0000 803f
000001f0: 0000 803f 0000 803f 0000 803f 0000 803f
1.0 1.0 1.0 1.0 1.0 1.0 1.0 1.0
1.0 1.0 1.0 1.0 1.0 1.0 1.0 1.0
1.0 1.0 1.0 1.0 1.0 1.0 1.0 1.0
1.0 1.0 1.0 1.0 1.0 1.0 1.0 1.0
1.0 1.0 1.0 1.0 1.0 1.0 1.0 1.0
1.0 1.0 1.0 1.0 1.0 1.0 1.0 1.0
1.0 1.0 1.0 1.0 1.0 1.0 1.0 1.0
1.0 1.0 1.0 1.0 1.0 1.0 1.0 1.0
1.0 1.0 1.0 1.0 1.0 1.0 1.0 1.0
1.0 1.0 1.0 1.0 1.0 1.0 1.0 1.0
1.0 1.0 1.0 1.0 1.0 1.0 1.0 1.0
1.0 1.0 1.0 1.0 1.0 1.0 1.0 1.0
1.0 1.0 1.0 1.0 1.0 1.0 1.0 1.0
1.0 1.0 1.0 1.0 1.0 1.0 1.0 1.0
1.0 1.0 1.0 1.0 1.0 1.0 1.0 1.0
1.0 1.0 1.0 1.0 1.0 1.0 1.0 1.0
