All_Benchmarking/P00648/Results/fold_5/best_model.pth (torch, 192098 bytes, 32 tensors)

gat1.att_src f4 [1, 4, 32]
00000000: f7dc 233e 71fb 663e 2395 c73e 81ee 163e
00000010: 2c3c 1a3e af79 9cbe c901 bebe 1997 993e
00000020: bbaa 713e 9621 81be 50c7 acbe 7800 193d
00000030: 137c 0f3e 03a4 f0bd f953 a9be a371 4d3e
00000040: db6c 0b3e 3c59 823e 0d93 c3be e5b6 083e
00000050: f078 263e 7189 793e 62ee 7cbe ef22 53bc
00000060: 7524 84be 8b1d 653d fdd7 c73e 0d38 9abe
00000070: f8cf 8bbe a944 363e e184 84be b5d5 a2bd
00000080: 21a9 7b3e 7486 54be eb99 9fbe ff3f 7ebe
00000090: d30e 98be b20f b83e 01e8 98be 7568 103e
000000a0: 6057 963e 3362 b6be 5259 c73d ed6f 6d3e
000000b0: 421a 7abe fc81 003e 7511 a3be a635 95bd
000000c0: 9665 b0be f839 1f3d 4299 e43c fae1 3c3d
000000d0: 474c 54be 2b98 e0bd 0d7c 463e 7652 263e
000000e0: f754 2abe 9ad2 023d 3971 8abe 03f7 943e
000000f0: 9dc9 6c3e f199 abbe d1c0 f53d 73c1 853d
00000100: 99f1 6d3e 1296 803e 3d2d 1f3c dafe 2c3e
00000110: 8753 2dbd b5a4 d1be 3c48 a03e 9dbf bc3e
00000120: 30d5 acbe 1ed7 413e 54a0 50be f62f 5ebb
00000130: f643 7dbe 1779 2b3e b5a4 8b3e a2e7 23be
00000140: ba32 07be fdaa b3be 9826 08be 38e0 1abd
00000150: bf5d a53e 6940 fe3d 67a8 c63e 334b 25bd
00000160: d380 7d3d 6867 623d ba68 63bc 3c48 84be
00000170: 6bd7 0f3d c263 06be 484f a73d d3c5 b4be
00000180: 0ad7 ab3e 4ff3 2cbe 50ed a53e e4a7 763d
00000190: 4bac 283d bcd1 5b3e f966 71bd fe18 fdbc
000001a0: d872 16be 51ff 88be 2b90 c2be e191 10be
000001b0: 7464 6a3d 646d c2be 15de 983e cae2 68be
000001c0: c9f8 9e3e 98e0 983e 97dc 73be f620 0e3d
000001d0: 05a0 1a3e 7284 c7be 8eb7 bd3d bad7 89be
000001e0: 4a4b 753e 71a9 bdbe 0079 533e 38f9 0abe
000001f0: 1074 82be 318b 113c 2357 58be 42bb 8cbd
0.1600226 0.22556855 0.3898097 0.1473942 0.15062016 -0.30561587 -0.37110737 0.2999809
0.23600285 -0.25220937 -0.33745813 0.037353963 0.14012174 -0.11750033 -0.3307188 0.2006288
0.13615744 0.25458705 -0.38198128 0.13351019 0.16257071 0.24368836 -0.24700311 -0.012886747
-0.25809065 0.055936377 0.39031973 -0.30120888 -0.27307105 0.1779963 -0.2588263 -0.07950918
0.24576236 -0.20754415 -0.31172118 -0.248291 -0.2969881 0.35949475 -0.29864505 0.14102347
0.29363537 -0.35621795 0.097338334 0.23187228 -0.24424079 0.12549585 -0.31849256 -0.07285623
-0.34452504 0.038873643 0.02790511 0.046113946 -0.20732222 -0.10966524 0.19383259 0.16242394
-0.16633974 0.031939127 -0.27039507 0.29094705 0.23123784 -0.33515885 0.119996674 0.06531038
0.23236693 0.25114495 0.0097153755 0.16894093 -0.042315986 -0.40945974 0.3130511 0.3686494
-0.337564 0.18929717 -0.2037366 -0.0033903099 -0.24732956 0.16745411 0.272741 -0.1600633
-0.13202944 -0.3509139 -0.13295972 -0.037811488 0.32298085 0.12414629 0.38800356 -0.04035492
0.061890434 0.055274397 -0.013879949 -0.2583636 0.035117548 -0.13123992 0.081694186 -0.35307178
0.335625 -0.1688969 0.32407618 0.060218707 0.041179936 0.21466726 -0.058936093 -0.030895706
-0.14692247 -0.2675729 -0.38000616 -0.14118148 0.057224706 -0.37974083 0.29856935 -0.22742763
0.31049183 0.2985885 -0.23814617 0.034699403 0.15100105 -0.38968235 0.09263526 -0.269224
0.23954502 -0.37043336 0.20651627 -0.13571632 -0.25479174 0.0088832835 -0.2112699 -0.06871654

gat1.att_dst f4 [1, 4, 32]
00000000: c784 ab3e 4fcb 54be a0ce 5a3d 0ed8 34be
00000010: dc5d 51be 419a 973e a593 a13c 8483 d1be
00000020: 4c69 983e 97af 103b 38ce cdbd 8fd1 b1be
00000030: bb1f 9f3e 0a63 c23e 84f9 083d 2cf7 8a3e
00000040: c8ba a2bc d2ff 853d e3f5 b1be 3065 b5bd
00000050: dd91 183c b18f c63e 619c a93e 1dd3 d7bb
00000060: 0c0e 283d 0373 59bd b664 6dbe 15dd 103e
00000070: 4c1c a53e 1709 8fbe c633 febd 67ef 183e
00000080: 988c 56be a0e2 ab3c ca1c 0b3e b0c8 9a3e
00000090: cf91 a3bd 801a 593d 42b3 0abe 016a d4bd
000000a0: e1a8 103d 7523 3c3e f0ba 8d3b c724 89be
000000b0: a154 23be 934b c9be 9fdf b23c 52ad b6be
000000c0: 20e2 e6bd 639d 3a3e a287 a63e bd69 90be
000000d0: c2c1 debd 8a20 b33d a1dc 0d3e 0b91 e03d
000000e0: 2853 b83e 73c1 c93e 7955 48be 0ff6 18be
000000f0: 50fe 07bd 6862 5cbe 4d8b 51be 630e 66bd
00000100: c7b9 c03e 9bff b1be cba9 913e 4c6f 11be
00000110: 6421 973e 2ea5 7fbe 44ec 89be c09d aa3e
00000120: 0833 ef3c b2f1 7f3d 70c5 32be 5d98 cb3e
00000130: 4b5f c9bd 6f5f d13e 3ed1 a9bd 45f3 543c
00000140: 41f3 4cbe a89c ab3e be92 bcbd 2630 bb3e
00000150: 2a98 c73e c4bf 213e d541 ee3d e6d3 ab3e
00000160: b2d1 ad3d b30b 9a3e 23c8 84be 3c1a 833e
00000170: 6e5d cfbe 043c 92be 0227 b83e 060a 273e
00000180: 5363 babe accb f9bd cec2 44be 3f77 803e
00000190: ac10 2ebe 9f16 333e 94e3 5d3c 1b8b 96be
000001a0: 330e 653e cf20 cc3d 37da 8d3e f9cc 623e
000001b0: 4b7a a0bd 4316 94be 0b6b 24be 4cb9 12be
000001c0: e352 43be 037f a9bd 313f e53c b403 dabd
000001d0: 7b6b 303e 2a45 b23e ec0b 9ebe 4d8f 933c
000001e0: 7c18 57be a849 e6bd 42a2 40be b02f b73e
000001f0: e79a 563d b1ef 2dbe e852 ab3e 8eec 9c3d
0.3349974 -0.20780681 0.05341971 -0.17660543 -0.20445961 0.29609874 0.019723723 -0.4092065
0.29767835 0.0022077316 -0.10049099 -0.34730193 0.31078896 0.37966186 0.03344108 0.27141702
-0.019864455 0.065429345 -0.3475791 -0.088571906 0.00931212 0.38781503 0.3312712 -0.006586446
0.04102902 -0.0530882 -0.2318295 0.14146836 0.3224815 -0.27936623 -0.12412219 0.14935075
-0.2095207 0.020982087 0.13585201 0.30231237 -0.07986795 0.053003788 -0.13544944 -0.10371781
0.035317305 0.18372901 0.004325263 -0.2678587 -0.15950252 -0.3931547 0.021835146 -0.35679108
-0.11273599 0.18224101 0.32525355 -0.28205672 -0.108768 0.08746441 0.13853694 0.10965165
0.36000943 0.39405403 -0.19563855 -0.14937614 -0.033201516 -0.21521914 -0.20463295 -0.056166064
0.37641737 -0.34765324 0.28449854 -0.14202613 0.29517663 -0.24965355 -0.2693807 0.3332348
0.029199138 0.062486358 -0.17458129 0.3976468 -0.09832629 0.40893123 -0.08291863 0.012997453
-0.20014669 0.33517957 -0.09207676 0.36560172 0.3898328 0.15795809 0.1163365 0.33560103
0.08487262 0.3008705 -0.25933942 0.25605953 -0.4050097 -0.28561413 0.3596726 0.16312417
-0.36403903 -0.121970505 -0.19214937 0.25090978 -0.16998547 0.17489098 0.013543028 -0.29403004
0.22368698 0.09967195 0.27705547 0.22148503 -0.078358255 -0.28923234 -0.16056459 -0.14328498
-0.19074588 -0.08276179 0.027984234 -0.106452376 0.172285 0.34818393 -0.3086847 0.018012667
-0.21005434 -0.112445176 -0.18811896 0.3577857 0.05239382 -0.16985966 0.3346169 0.07662307

gat1.bias f4 [128]
00000000: 50e8 a939 4cb4 ef39 3ff0 a239 479a d7b9
00000010: 6ef5 40b9 1956 a8b7 da59 9238 2c26 7237
00000020: a226 3b38 5b2b 96b9 edaf fbb9 3dbf eeb9
00000030: 3715 2439 b249 133a 4d6b 1b3a 8cc3 b939
00000040: 5629 36ba 23ff 02ba 6c3d 19b7 9786 f239
00000050: b439 b739 5e84 23ba 76f7 7339 97e5 333a
00000060: 36c8 36ba db8f f8b9 bdd6 343a d05d f7b9
00000070: 8723 82b9 4bc3 f338 d772 8b39 7732 a338
00000080: ab92 73ba a0a1 f1b9 c2ff 3139 9f08 73b9
00000090: 2afc bdb8 b1fb 8c3a 4435 a039 4957 24ba
000000a0: c2ca fbb9 3b34 b439 ed20 513a 23fe 5738
000000b0: acca 04bb c49f a739 5244 1839 ee29 3a3a
000000c0: 568e bfba f452 003a 007d 553a 811f 8239
000000d0: e587 8a39 3ea1 b6b9 94f4 01b9 abfd 61b9
000000e0: 8579 423a 545a 3039 5e0f dbb8 fadd 423a
000000f0: 4be0 aa39 c1d9 1b3a 42f7 c03a ff54 4eb9
00000100: 522c bf39 81d0 b436 2dd8 cbb9 bc50 57ba
00000110: f864 a0ba b29b 0fba 7912 a0b8 cb04 abba
00000120: b58a 803a df3e dcb9 64e2 07ba 582d a5b9
00000130: 5cf2 9739 d29b 243a 601c 39ba e01e bc39
00000140: a2dc 023a bef6 d138 65a0 cb38 9464 193a
00000150: cfd9 9137 8b72 0c3a 5476 ddb9 163f 3bb9
00000160: 8701 1639 8b3a 09ba c689 2639 1a3a 93b7
00000170: 9dfb 8639 16e1 4f3a 9b87 133a 7443 9d37
00000180: a304 2c3a 5d13 e3b8 0acb 32ba cb13 0dba
00000190: 5869 80ba 91c8 2eb9 666a cc3a d73e 9439
000001a0: 5388 2ab9 78ea a6b9 f827 5538 3993 cfb7
000001b0: 7376 51ba b696 723a f0f8 0a3a e779 3bb9
000001c0: 6356 3db9 aa21 183a bf44 9f39 2e2d ae39
000001d0: 8259 e6b8 83b9 5b39 10ac 02ba 2224 4939
000001e0: 9e94 89b9 d48d e5b9 a075 b9b9 0d68 a8b9
000001f0: 4f23 16ba 2d9c 02ba 0294 063a cf7b eab8
0.00032407278 0.00045719964 0.00031078045 -0.0004112294 -0.00018401977 -2.0067253e-05 6.978559e-05 1.4433212e-05
4.4620254e-05 -0.00028642532 -0.00048005526 -0.0004553738 0.00015648162 0.00056185864 0.000592877 0.00035431643
-0.00069489086 -0.0004997125 -9.133812e-06 0.00046258114 0.00034947472 -0.0006237681 0.00023266472 0.00068625197
-0.0006972583 -0.00047409427 0.00068984536 -0.00047181407 -0.00024822002 0.00011623519 0.00026597708 7.7818455e-05
-0.00092915696 -0.00046087522 0.00016975313 -0.00023177497 -9.0591915e-05 0.0010756162 0.00030557264 -0.000626911
-0.00048025517 0.0003437119 0.00079776236 5.1496678e-05 -0.0020262403 0.00031971757 0.00014521301 0.0007101585
-0.0014614563 0.00048951735 0.00081439316 0.00024819004 0.0002642266 -0.0003483388 -0.00012393511 -0.00021552171
0.00074186205 0.00016818318 -0.00010445596 0.000743359 0.00032592038 0.00059452286 0.0014722126 -0.00019677354
0.0003646338 5.388691e-06 -0.0003888024 -0.00082136295 -0.0012237122 -0.00054782175 -7.632835e-05 -0.0013047693
0.0009806963 -0.00042008513 -0.0005183576 -0.00031505036 0.00028981536 0.00062793226 -0.0007061418 0.00035881158
0.00049919833 0.00010011856 9.70967e-05 0.0005851474 1.7386772e-05 0.00053576444 -0.00042240566 -0.00017857211
0.00014305684 -0.0005234859 0.00015882318 -1.7550821e-05 0.00025745938 0.0007929964 0.0005627812 1.8747269e-05
0.000656197 -0.0001082781 -0.00068204163 -0.00053816725 -0.000979702 -0.0001666865 0.0015595674 0.0002827558
-0.00016263248 -0.0003183668 5.082038e-05 -2.4744879e-05 -0.00079903676 0.0009254025 0.0005301377 -0.00017879122
-0.00018056626 0.0005803356 0.00030378063 0.00033221528 -0.00010983927 0.00020954576 -0.0004984746 0.00019182314
-0.00026241405 -0.00043783954 -0.00035373587 -0.0003212098 -0.0005727307 -0.00049823785 0.0005133749 -0.00011181051

gat1.lin.weight f4 [128, 5]
00000000: ce6f 55be aaa7 a53d 6470 03be d2d3 893d
00000010: c07f 253e f58f 4e3e 0b57 10bd e4ea 3cbd
00000020: c13a 9d3d 5602 91ba debd cf3d 5744 173e
00000030: 942b babd 0db4 5b3d 910b 183e ca6e 2abe
00000040: a25d 1e3e 53b9 3f3e e33d 36be edfa d5bd
00000050: 735c d2bd 7681 663d 09ad 27be 2301 1c3d
00000060: a996 7d3d d662 643c ca4d 9b3d dcf4 d4bc
00000070: b4d4 1abe 17e6 17bc 6de3 51be 8cfb d43b
00000080: b01a 2ebe 8647 573e 0103 8f3d 5e6c 3abb
00000090: 2af6 013d 15d3 9f3d eea4 08be 37f0 963d
000000a0: 59fc 2abe 63d7 5bbd 1f93 5c3d 5845 49be
000000b0: 1a8c 20be c137 f6bd 7aa5 4fbe 6717 3b3e
000000c0: 2ddb e63d 917d ce3d 67c1 82bd 7ff9 3b3d
000000d0: 5031 983d 15d7 1e3d a2ea 023e 6ce3 053d
000000e0: 0636 103e cb02 f73c 2f8d ef3d 78eb fa3d
000000f0: 4db1 52be 0cca 1ebe 7e56 d63d 7d15 e23d
00000100: 6d78 2dbe fd0e d93d 0603 4abe 5c1a 963d
00000110: 4325 eabc 74ea 90bd c69b 5c3e 4c80 c13c
00000120: 30a4 ecbd d6dd 0f3e 97b8 48be 164a 04bd
00000130: 3863 b3bd b9c1 44be a569 823d 0c39 1d3d
00000140: ccca 49ba ab62 933a dcd5 9bbd 8f95 51bc
00000150: aa48 443e 0c75 12be b256 03be 39eb dabd
00000160: 6ff9 083c 9bf3 ffbd 549b 13bd acd7 133e
00000170: 5711 87bd 7bdc 84bd 4d57 153e c8f2 b0bb
00000180: 6b13 a2bd 98f8 2a3e fa8d 18bd 1a2c 94bd
00000190: 26d2 293e 738a 41be 2015 d3bd 413b 9a3d
000001a0: 2cf2 143e 6657 17bd 4498 1c3e 239c 9f3a
000001b0: b614 47bd 95bf c3bd 3481 08be 06ab dfbd
000001c0: 8469 313e 4d45 313e 978d 20be b14f 563d
000001d0: ff91 e5bc 56f1 ca3d 2a6f 4bbb 3e94 0f3e
000001e0: e419 153e d4f7 0cbd f4b2 553e 4992 903d
000001f0: 478e 263c 43b9 0fbc 7176 02bd ac94 3cbe
00000200: 242b 00be 92cc f8bd fd31 17be d237 42be
00000210: 2ff0 43be d272 323e ed3c 2cbe ee17 33be
00000220: 9586 013e 3f1a 393e 5ac7 2b3d 41c0 033d
00000230: dcb9 33be d764 073e 08b9 ce3d 8153 01be
00000240: b679 ebbd edb0 ddbd 2066 abbd 9944 02be
00000250: 9880 4e3e 549c 88bd bf4f 093e e838 833c
00000260: 4d86 5a3d 2457 0ebd c087 523d b7c6 a73d
00000270: 1019 ed3d c3bc 323e 771b 7a3d 9a58 80bd
00000280: 989d 803b ba98 0c3e e8b1 35bd 4dde 5a3e
00000290: 50a1 42be 3122 01be f059 cb3d cc35 51bd
000002a0: 562c cbbd 0439 f9bd ce9c 043e 381e cebd
000002b0: e0a4 05bd eeb4 7bbd eed1 42bd ba24 d53d
000002c0: 148b 763d 6f2d cebd 2779 0cbd 93fb 30bd
000002d0: 74ef ad3b 44d1 173e cb33 513d d37c 06be
000002e0: aa71 f1bd 41e6 c8bb c0fc 16be bbbd d73d
000002f0: 8765 26be b15a 2b3e abf3 38be 0bcd 793c
00000300: ef37 4b3d 2864 493e f271 56b9 e502 a43d
00000310: 1bc5 9fbd 0d3e 2fbd 368b 93bc ed3b 8c3d
00000320: 41e9 2c3d dff4 9e3d c517 05be 2b21 9abd
00000330: 790f 123d 77bf 443e dfe8 29bc f2a7 13bd
00000340: c724 c2bc 174f c43b 488a 2bbe 798b f73d
00000350: 82c2 063d 7083 eebc 01f7 233e b687 4ebd
00000360: 7bd3 d13c 4854 8a3d b5e2 dd3d 0fc0 003e
00000370: 0950 e23d 5cea 223e 7955 2c3e a2ab a43d
00000380: 0cb5 4dbe 701e 313e 402e 023e 5c26 1ebd
00000390: 0919 ccbd fa98 b63d b7d9 1c3e 1953 1f3e
000003a0: f19e fabd 8e64 09be 8e7d 6b3d a4c7 79bd
000003b0: 9d3f 1ebe 1ec5 173e b955 b0bb daa8 433e
000003c0: c0ba 6f3c 21c2 2e3e 1343 d13d aa37 33be
000003d0: a19a c3bd 94ff ca3c 7f56 0fbd acf5 e73d
000003e0: e194 a43d 0c9b babc a92a 32be d885 59be
000003f0: 79f4 45bd 8f97 233b 8aef cbbd 5430 cf3d
-0.20843431 0.0808862 -0.12835842 0.06729855 0.16162014 0.20172103 -0.03523926 -0.046122447
0.07677222 -0.0011063318 0.10143636 0.14772163 -0.09090343 0.053638507 0.14848162 -0.16643825
0.15465406 0.1872304 -0.17797045 -0.10448251 -0.102715395 0.056275807 -0.16374601 0.03808702
0.06191126 0.01393958 0.075831965 -0.025995664 -0.15120202 -0.009271166 -0.20496912 0.0064997133
-0.17002368 0.21023378 0.06982995 -0.002844594 0.0317289 0.078039326 -0.13344166 0.07370036
-0.16697825 -0.053672206 0.053851243 -0.19655359 -0.15678445 -0.12022353 -0.20277968 0.18270646
0.11272273 0.10082544 -0.06384545 0.045892235 0.074312806 0.038779337 0.12784818 0.03268759
0.14083108 0.030152699 0.116968505 0.12251943 -0.20575447 -0.15506762 0.10465716 0.11039255
-0.1694047 0.10598562 -0.19727716 0.073292464 -0.02858222 -0.070759684 0.21543798 0.023620747
-0.11554754 0.14049467 -0.19601665 -0.032297216 -0.08759159 -0.19214524 0.06367806 0.038384482
-0.00076977606 0.0011244615 -0.0760915 -0.012792005 0.19168344 -0.14302462 -0.1282604 -0.106893964
0.008360251 -0.12497636 -0.036036804 0.14437741 -0.06595104 -0.06487366 0.14584084 -0.0054000355
-0.0791386 0.16696393 -0.037244774 -0.07234974 0.16584072 -0.1890047 -0.10306764 0.07530833
0.14545506 -0.036948584 0.1529246 0.001217727 -0.048603736 -0.09558026 -0.13330537 -0.10921292
0.17325407 0.17311592 -0.15679012 0.052322093 -0.028023718 0.099093124 -0.00310416 0.14021394
0.14560658 -0.034416035 0.20869046 0.07059152 0.0101657575 -0.008772197 -0.031851236 -0.18416089
-0.12516457 -0.12148394 -0.14765163 -0.18966606 -0.19134592 0.17426613 -0.16820116 -0.17489597
0.12648995 0.18076418 0.041938163 0.03216577 -0.17551368 0.13222061 0.10093886 -0.1262951
-0.11497824 -0.108247615 -0.08369088 -0.1272148 0.20166242 -0.06670442 0.13409327 0.016018346
0.053350735 -0.034751073 0.051398993 0.08192199 0.11577046 0.1745482 0.06106135 -0.062668994
0.0039250366 0.13730136 -0.044359118 0.21373864 -0.19006848 -0.12610699 0.099292636 -0.051076695
-0.09920566 -0.12169078 0.12950441 -0.100643575 -0.03262794 -0.061451845 -0.047563486 0.10407396
0.06019123 -0.100672595 -0.034295227 -0.04320867 0.005308086 0.14825922 0.051074784 -0.13133554
-0.11789258 -0.006130964 -0.14744854 0.10534235 -0.16249667 0.16733815 -0.18061702 0.01524664
0.04961389 0.19667113 -0.00020451078 0.080083646 -0.07801267 -0.042783786 -0.018010717 0.068473674
0.042214636 0.07761549 -0.12997349 -0.075258575 0.035659287 0.19213663 -0.010370462 -0.036048837
-0.023699177 0.0059908736 -0.16751969 0.12087149 0.03290034 -0.029115409 0.16012193 -0.050422393
0.025613537 0.067543566 0.108342566 0.12573265 0.11050422 0.15909714 0.1682948 0.08040549
-0.20088595 0.17296767 0.12712955 -0.0386108 -0.099657126 0.08915897 0.15317427 0.15559043
-0.12237347 -0.13417265 0.057492785 -0.060981408 -0.15453954 0.14821288 -0.0053813127 0.1910738
0.014631927 0.17066242 0.102178715 -0.17501703 -0.095509775 0.024780072 -0.0349946 0.11326155
0.08036209 -0.02277901 -0.17399086 -0.21242464 -0.04832885 0.0024962162 -0.09957798 0.1011664

sage1.lin_l.weight f4 [128, 128]
00000000: c531 09bd 08bb 813d 13b2 22bd c9fc 2ebd
00000010: 0727 113d 6269 0ebd 6140 3a3d adb4 a73d
00000020: 2764 193c 77e5 603d 2e67 b93d 8fb7 ac3c
00000030: 5897 9ebd a3c3 57bd 8876 923d 9cef 4abd
00000040: 079d 073d 19df 32bb 4361 85bd 292a af3d
00000050: 9b8b 823d 4691 a43d 16d5 643d d8cb c53c
00000060: 3eb6 9b3c 58c8 ec3c 6fbb 9a3d 2e1d 693c
00000070: e3b7 843d 59b5 99bd cee7 943d 86f8 9f3d
00000080: 86b8 af3c 0719 713d 760d a03b 165b b03d
00000090: bc51 b93c f6b8 d0bc adf2 a73d ab26 3a3d
000000a0: 5706 9ebd b8d8 98bd 3e10 653d 4444 ae3c
000000b0: 693f 7abd 4824 963d afae 60bd 8c41 383c
000000c0: 4094 a63d 15c3 85bd 401e a1bc 5c1b 94bd
000000d0: a72b 88bd 6a1d 813d 01ca 8f3d f176 323d
000000e0: d770 933c b2ef 353d 0d4a 82bc fc2f 29bd
000000f0: b826 28bd b258 84bd bf04 dc3b d67a b43c
00000100: c1f6 b63d 17ce e53c b4d5 79bd e902 5cbc
00000110: c4be 9a3b a201 6c3d 9112 2d3d 4bbd bcbb
00000120: 8808 a0bd be43 6b3d 6359 103d 0c39 a3bd
00000130: ad8f 9e3d cae5 cf3c ac48 bc3c 34fe 2ebc
00000140: 0034 27bb 2365 29bd afe2 25bc b86f aebd
00000150: c225 993d 685e 33bd fd64 d83b f0a6 5f3d
00000160: 4eb5 28bc 803e b93a e3d9 20bd bfbf de3c
00000170: a74e 8abc f4e1 5dbc 52bc bb3d 43f5 b63c
00000180: 6f7c 223d 5348 4c3d 561a 1ebc 999f aebd
00000190: 91b6 35bc c3b3 70bc 3b3d 56bd 61c1 413d
000001a0: 0412 39bd 2064 993b b96d a1bc 1a93 65bd
000001b0: 1327 67bd 12d7 b13d 3a78 dabc b59c 56bd
000001c0: 01e5 90bd 73d8 abbb e8b6 8cbc 0ceb 87bd
000001d0: df8e 903d 189c e5bc 410a d5bc 4a04 72bd
000001e0: c792 8f3d 386f 8b3d d4f8 10bd a5d3 b63d
000001f0: 76ca 6e3d 1acf 4dbd 1c76 00bd b74c 163d
00000200: 93fd 86bd ec7b 55bd dde9 933c 1cd2 afbd
00000210: 54f3 efbc b91d df3c 0cea bdbc 2540 5ebd
00000220: a3a9 c5bc a45a f5bb 14b9 c8bc 5fe1 ba3d
00000230: 3af7 17bd 4332 a03b 8dba b93d 6704 26bd
00000240: 37c8 903d 89fb 02bc caf7 df3c 7749 91bc
00000250: d67e 6cbd 66b8 5d3d e2ad 853d 8d2a 353b
00000260: 42d7 ecbc 7ccc 02bd 7bfd 2bbd 120f 13bd
00000270: 406c c13d eb68 913d bf81 80bc 9943 9bbd
00000280: df34 ab3d 9f65 cfbc c123 3abd 4ec2 a83d
00000290: bed8 ee3c eee1 503d 0056 9ebd 50fa 68bb
000002a0: 6140 e83c 5757 2dbd 9d2e 433a 7d07 76bd
000002b0: 9b51 12bd 693e 343d 90c8 1f3d e07e 92bd
000002c0: ae36 33bd d509 9dbb 9b6c 973a 535d a0bb
000002d0: 32a8 0fbd 646d 0f3d c16b b73c 6483 003d
000002e0: 9f22 98bd e569 313d 42db 443d 7f34 12bd
000002f0: b886 983b 14ff 933c 3f76 403d 57c4 9cb9
00000300: a633 e4bc 720f b73b 9028 9abd 0039 e3bb
00000310: 9d13 67bd 153a d5bc ead7 71bc 730e 143d
00000320: 4c87 473d 4281 21bc b5c8 4b3c fc57 b43d
00000330: 12da ab3d f0cf 9a3d 77b5 0d3b abdc 49bd
00000340: c11b 79bd ea28 6fbc fda9 603d 84e5 423d
00000350: 2bd7 073d 3fee 063b 66d1 173d f280 e83c
00000360: 7780 4fbd 1e8a 8ebd 3195 01bd 9562 b33d
00000370: a363 00bd 935e fb3c f56d 9abd 23e1 92bd
00000380: 80e8 f13c 8215 c43c bfed d0bc ea98 d6bc
00000390: 0e2a 833d 5942 89bd 62c7 33bd b27d 803b
000003a0: 9393 a43c 43b5 68bc 0dc2 01bc 2583 913d
000003b0: 5f24 4d3d 975a a5bd ce58 993d a60b 82bd
000003c0: 3705 c8bc e1a0 b23d 5f6f a1bd c3df 88bc
000003d0: c81d 443c 4f15 053c 950f 703d e737 c4bc
000003e0: 9bd0 83bc 0599 7f3c fca1 603d 5b8c 403d
000003f0: bd8f b43d c47d c9bc 6c36 6dbd 2c89 843d
-0.03349473 0.063345015 -0.039720606 -0.042721543 0.03543761 -0.03476847 0.045471553 0.08188758
0.009362257 0.054906335 0.09052883 0.021083621 -0.0774371 -0.052676808 0.07151514 -0.049544916
0.033108737 -0.002729362 -0.06512692 0.08552963 0.06374284 0.08035521 0.055867277 0.024145052
0.019007798 0.028904125 0.07555281 0.014228148 0.06480386 -0.075052924 0.07270776 0.07811074
0.021450292 0.05886176 0.004884417 0.08611123 0.022621982 -0.025478821 0.082005836 0.045447033
-0.07716053 -0.07463211 0.055923693 0.021272786 -0.06109563 0.07331139 -0.05485409 0.011246096
0.08133745 -0.065313496 -0.019667745 -0.07231781 -0.06648951 0.063044384 0.07020951 0.043570463
0.017998142 0.044418044 -0.01590445 -0.041305527 -0.04105255 -0.0646223 0.006714433 0.022031229
0.08933783 0.028052373 -0.06099482 -0.013428428 0.004722448 0.057618745 0.042254034 -0.00575987
-0.07814127 0.05743765 0.035241496 -0.07969865 0.07742248 0.025378127 0.022983871 -0.010680724
-0.0025513172 -0.041356217 -0.010124846 -0.085174024 0.07477905 -0.043791205 0.0066038356 0.054602563
-0.010297133 0.0014133006 -0.039270293 0.027191041 -0.016883207 -0.013542641 0.091667786 0.022333747
0.03966945 0.04987366 -0.009649834 -0.085265346 -0.0110908905 -0.014691296 -0.052304488 0.04730356
-0.045183197 0.0046811253 -0.01970564 -0.05604849 -0.05643375 0.086835995 -0.026668657 -0.05239554
-0.07074929 -0.0052443086 -0.01717706 -0.066366285 0.070585005 -0.028028533 -0.026005866 -0.05908612
0.070104174 0.06808323 -0.03539355 0.08927087 0.05829855 -0.050246336 -0.031362638 0.036694255
-0.06591334 -0.052120134 0.01805585 -0.08584997 -0.029290833 0.027235853 -0.023182891 -0.05426039
-0.02412874 -0.007487612 -0.024502315 0.091250174 -0.037101008 0.004888804 0.09068785 -0.040531542
0.07069438 -0.007994541 0.027339835 -0.017735226 -0.057738148 0.054130934 0.06527306 0.002764377
-0.028911237 -0.031933293 -0.041989785 -0.035903044 0.09444475 0.0710009 -0.015686868 -0.075812526
0.08359694 -0.025317011 -0.045444254 0.08240186 0.029156085 0.050996713 -0.07731247 -0.0035549589
0.02835101 -0.042319622 0.00074456056 -0.060065735 -0.035722356 0.04400483 0.03900963 -0.07153106
-0.04375332 -0.004792432 0.0011552753 -0.0048939376 -0.035072513 0.035016432 0.022390248 0.031375304
-0.074284784 0.04331388 0.048060663 -0.035694595 0.0046547316 0.018065967 0.04698777 -0.00029900923
-0.02785666 0.005586558 -0.07527268 -0.006934285 -0.05641519 -0.026028672 -0.014760951 0.036146592
0.048713014 -0.009857478 0.012437989 0.08805844 0.08391203 0.07559192 0.0021623054 -0.04928271
-0.060817484 -0.014597157 0.054849613 0.047582164 0.033164185 0.0020588783 0.037064932 0.028381798
-0.050659623 -0.069599375 -0.03163642 0.087590374 -0.03134502 0.030684745 -0.07540504 -0.07171848
0.02952981 0.023936037 -0.025503991 -0.026195962 0.06404506 -0.06702108 -0.04389132 0.003921234
0.0200899 -0.014203372 -0.0079198005 0.07105092 0.050083514 -0.08073919 0.07487641 -0.06349878
-0.02441655 0.087220915 -0.078825705 -0.01670826 0.011969991 0.008122756 0.05860861 -0.023952438
-0.016090682 0.015600448 0.05484198 0.047008853 0.088164784 -0.024596103 -0.05791323 0.06471476

sage1.lin_l.bias f4 [128]
00000000: a603 acbd 418d 60bc afe1 8ebd 2d0b 713d
00000010: 6f53 c0bc ac0f 18bd dd3e fdbb bb02 40bd
00000020: 518a 89bd d9ae bc3b 0930 68bd 59f4 8a3d
00000030: f333 173d f2f7 b2bc cff5 87bd 9feb 23bd
00000040: db2e b2bc 40cc 87bd dd5e 71bd 6da1 233d
00000050: c9e2 59bd de90 3e3d b86e 04bd 0205 c43c
00000060: deb1 1a3c fe04 dc3c 2c03 003d a09c 4fbd
00000070: 7276 933d b03f 793d 1da7 1d3d 5887 963a
00000080: 44be 9b3d d0ce eabc 92be 68bb 8cc3 bbbc
00000090: ab00 66bd 8cc1 8f3d d834 ecbc 4947 95bd
000000a0: 3626 64bc 5ee4 67bc e9af ce3c 2f92 1abc
000000b0: 2694 293c b959 3cbd 9743 b7bb d573 123d
000000c0: e1cd ed3c ab37 263d 1e2c aebd 93a9 043d
000000d0: b589 bdbc 92f0 47bd 338b e43c b396 f1bc
000000e0: 001c a03d 67af b8bc aade 623d ec02 bbbc
000000f0: 9725 94bd 54d4 19bd dd85 3c3d b1bc b639
00000100: 4bfa 873d 93a3 f1bc 710b 67bc 6a38 aebd
00000110: c11d 7f3c fa2c 89bb d56f 853a 93cb fe3c
00000120: 8b48 343d 3f54 5bbd 7ab3 8b3d 3722 703d
00000130: a723 a63d 3cd5 d9bb f5e4 33bd 6702 54bc
00000140: 7bfe 523d 77e1 1f3b a0a5 0a3d 733a 8dbd
00000150: cc06 323b 7f29 25bd 46b8 393d 911d 66bc
00000160: 8bb0 d93c 378d c3bd a9f2 40bd 139f e5bc
00000170: 19e9 95bd 4d03 a5bd f57a 4bbc 9d4a db3c
00000180: d01c 9bbd 9cb2 40bd 6f2d 04bc 3c58 753b
00000190: d760 9b3d a5d0 1c3d 4040 e63c ce66 853d
000001a0: 230b 233d 3326 6cbd 5350 41bd 6e65 46bd
000001b0: e6cc b13c bfa1 703d 16bf 953d 1708 4e3d
000001c0: 5a13 54bc 8d29 883d 4aa6 063d 3e0a a9bc
000001d0: b4d5 ddbb ff41 edbc f85a 233d b79f 9a3d
000001e0: 7230 88bc c28b 963d 1d29 d4bb 1259 bebc
000001f0: 59cf 2d3d 1fa6 a6bd 1077 433d be00 803d
-0.083991334 -0.013705553 -0.069766395 0.05884855 -0.023477284 -0.03712432 -0.007728441 -0.046877604
-0.06715835 0.005758148 -0.056686435 0.06784887 0.036914777 -0.021846745 -0.06638681 -0.040019628
-0.021750858 -0.066307545 -0.05892836 0.03994887 -0.053194795 0.046524875 -0.032332152 0.02392817
0.009441821 0.02685785 0.031253025 -0.05068648 0.07200326 0.060851753 0.03848945 0.0011484427
0.0760465 -0.028663069 -0.003551398 -0.022920392 -0.05615298 0.07019338 -0.028833792 -0.07288987
-0.013925126 -0.014153568 0.025230365 -0.009434267 0.010350263 -0.045984004 -0.005592774 0.035754997
0.029028835 0.040580433 -0.085045084 0.03238828 -0.023136953 -0.04881341 0.027898407 -0.029490804
0.078178406 -0.022544576 0.05538813 -0.022828542 -0.07233732 -0.037556008 0.0460261 0.0003485433
0.066395365 -0.029496944 -0.014101849 -0.08506854 0.015571059 -0.00418627 0.0010180423 0.031102931
0.044014495 -0.05354714 0.06821342 0.05862638 0.08112269 -0.006647734 -0.043919522 -0.012940026
0.051512223 0.0024395862 0.03384936 -0.06895914 0.0027164696 -0.040322777 0.045341752 -0.014045135
0.02657344 -0.09548419 -0.04710642 -0.028029954 -0.073198505 -0.0805727 -0.012419452 0.026768977
-0.07573855 -0.047045335 -0.008067473 0.0037436625 0.0758683 0.038284916 0.028106809 0.06513749
0.039805543 -0.057653617 -0.047195744 -0.048436575 0.021704149 0.058748003 0.073118374 0.050300684
-0.012944067 0.0664855 0.03287343 -0.020634767 -0.00676986 -0.028962133 0.039881676 0.075499944
-0.016624663 0.073508754 -0.0064746276 -0.023235831 0.04243407 -0.08137154 0.04772097 0.062501416

sage1.lin_r.weight f4 [128, 128]
00000000: c744 68bd dab4 463d 5e89 953c 6bfc 143b
00000010: c671 c3bc d0ce 8a3d 0aa8 a23d 92e7 aa3c
00000020: 3489 32bd e333 043d 19df 18bc 5ecd 533d
00000030: 3911 9fbd d0e6 b83c 1f32 a73d 4f1a a43c
00000040: 34ce 7e3d 9be9 8ebd 8442 a43d 4baa 133c
00000050: fb00 72bc 86b7 003d 1769 653d 0232 ce3b
00000060: 96e3 40bd a8d9 b33d 637b a4bd efac 8bba
00000070: bf3a 683a b015 8ebc 5c90 80bc 107b 7bbd
00000080: 4f33 81bd 5edb 463d 7776 0cbc 9887 f53c
00000090: 5c67 59bd d37c 913d 3ddc 9f3d d3f8 fd3c
000000a0: cdb2 853d 4c91 3cbd b2d8 e2bc e15a 8fbd
000000b0: 5764 433d a342 f33c 17af 66b9 963d 6f3d
000000c0: 8063 85bd 11df a33d dc5b 65bd 6c47 973c
000000d0: ccce bbbc db69 9f3d f4dd f6bc de75 03bd
000000e0: 8237 b8bc efbd 0f3d e69e 63bd bb2b 8d3d
000000f0: 7af3 173d 1b76 84bd 29cd dbbc 4737 38bc
00000100: 7a8e 493d 9eed 95bd eff1 913b a2b3 f3bc
00000110: 2645 9c3d dfb4 36bd 3b8e 3dbd 9eec 813d
00000120: 1379 503d 442e ba3b 211f aebd 88e7 a13d
00000130: 379f 103b e393 083d 5b69 14bd 4917 f6bc
00000140: 15d9 573d f118 eb3c 52ac abbd f77f 9b3d
00000150: 8fd4 60bb d678 65bd 2831 aa3d 5099 2b3c
00000160: 7e24 67bd 0ac8 93bd 26ca 063d 5260 533c
00000170: 9fee b9bc 50a1 193d 8661 56bd a674 773d
00000180: 094a b43c cfb9 973d 98c8 973c a21c 563d
00000190: a1e9 3cbd 59ce 73bc eea2 ccbb 608e 71bd
000001a0: 8d4f adbb dfe1 b3bc fa82 753d 9c66 9fbd
000001b0: f809 37bd 33f0 8bbd 4ed0 ff3b 87dc 873d
000001c0: 420d a43b a15c 9a3d d16f c73c 5c0f 57bd
000001d0: 78f0 433d fd6a c83c e786 a0bd fcbc a4bd
000001e0: f604 a6bd 0338 083d ed7b 64bd a977 0a3d
000001f0: 1453 e5bc e7ac a7bd 63dd 2dbd 05f5 99bc
00000200: fe9c b83d a6be ee3b ea6e 9f3d 184d 5d3d
00000210: 8d2f 9c3d 8dc6 84bc a2a1 263c 0e31 2cbd
00000220: 759b 683d 401b 9d3d d383 93bd a54f 4abd
00000230: 6228 963d 3904 17bd 7282 0f3d 14ff 6cbd
00000240: 685c 123c 6ab6 0a3c 45fa 79bc a2ed 0abd
00000250: 83e9 84bd 043f 47bd 43a9 7ebd 6950 adbd
00000260: 7f45 16bd b25e 623d b0b5 97bd 9fe5 993d
00000270: 8fbf 8e3d 6690 6c3d 950f db3b 8839 9e3d
00000280: 60c7 48bd 3d83 aebc f266 a03d 8e2e 5a3c
00000290: e87a 903d 7289 3a3d 4a2c ad3d de50 0abd
000002a0: 5f01 75bd 80e8 54bd 83dc 493d cd70 0bbd
000002b0: f692 71bd d7f3 933d 6210 703c bc0d 12bd
000002c0: 9f90 5bbd 93b5 b23b b84b 14bd cf83 903c
000002d0: bb0f 9d3d f634 51bd 10a3 44bd b897 51bd
000002e0: df68 503d 0596 013c 0e20 c1bb 8c2f 2fbd
000002f0: 697d 68bd 7944 543d f5c8 81bb af56 72bc
00000300: 7b83 9fbb c2d7 a8bd e9d6 663c 3236 40bd
00000310: 705c 1c3b 3c73 e33c eb87 09bd b48d 74bd
00000320: 501f e8bc c74a 9dbb 9c99 87bb c21d 09bb
00000330: bc18 88bd 908f 9ebd 55b1 fe3c b557 833d
00000340: 289a 90bc 952e ad3d 2f9a 143d b625 a13a
00000350: ebd5 aa3d 8178 ac3d 96c4 88bd 6ea5 bebd
00000360: 6899 473c f5fd 963c b948 afbc 5a0e bb3c
00000370: 8bbb 9a3c 577c 903d 3d59 8f3d ef90 0e3d
00000380: 7864 203d 226c c33c 2daf 9ebd 2f62 423c
00000390: 6f57 5dbc 49b4 a8bc c153 073d 7a22 30bc
000003a0: b757 983d 08ef 9c3c ffbd 153d 2871 05bd
000003b0: d9af adbc 6e1c e83a d4b0 28bb 69ab 69bd
000003c0: 0673 4e3d 7292 d6bc 89d7 483d 2677 a6bb
000003d0: 5896 803c 8035 8cbd 593e 023d a9d6 b93c
000003e0: d515 773d ce45 76b8 741e 5bbc ca19 96bc
000003f0: 0fd6 873d 9bbf aa3d 9484 92bc f75f ae3d
-0.056706216 0.048512317 0.018253978 0.002273346 -0.023857962 0.067777276 0.07942207 0.020862374
-0.04358788 0.032276046 -0.009330534 0.051709525 -0.07766957 0.022570997 0.08163857 0.020032076
0.06220837 -0.069781505 0.08020499 0.009012769 -0.014770742 0.03142502 0.056008425 0.0062925825
-0.047092043 0.08781749 -0.08031347 -0.0010656397 0.00088588515 -0.017344326 -0.015693836 -0.06139666
-0.063086145 0.04854905 -0.008573166 0.029971883 -0.053077087 0.071038865 0.07805679 0.031002438
0.06528244 -0.046037003 -0.027691219 -0.06999756 0.047703113 0.02969486 -0.00021999735 0.058408342
-0.06513119 0.08001531 -0.055995807 0.018466674 -0.022925757 0.07783862 -0.030135132 -0.03209483
-0.022487406 0.035093244 -0.05557146 0.068931065 0.03709743 -0.06467839 -0.026831226 -0.011243648
0.049208142 -0.073207125 0.0044538896 -0.029748742 0.076303765 -0.044606086 -0.04627822 0.06343959
0.050896715 0.005681785 -0.08502031 0.07905489 0.0022067556 0.03334416 -0.036233287 -0.0300404
0.05269726 0.028698416 -0.08382477 0.07592767 -0.0034306382 -0.05602344 0.08310157 0.010473564
-0.056431286 -0.07215889 0.032907628 0.0129013825 -0.022696791 0.037507355 -0.0523391 0.06041398
0.022007959 0.07408487 0.018528268 0.0522734 -0.046121243 -0.01488074 -0.0062450087 -0.05897367
-0.005289024 -0.02195829 0.059939362 -0.07783243 -0.04468724 -0.06832924 0.0078068143 0.06633859
0.0050064633 0.07537199 0.02434531 -0.052504882 0.04783675 0.024465078 -0.078382306 -0.080438584
-0.08106415 0.033256542 -0.055782247 0.033805523 -0.027993716 -0.081872754 -0.04244746 -0.018793592
0.09014319 0.0072859107 0.07784827 0.0540286 0.07626257 -0.016207958 0.010170372 -0.04203897
0.05678888 0.07671213 -0.07202878 -0.04939236 0.07331921 -0.03686926 0.03503651 -0.05786045
0.008933164 0.008466342 -0.015257423 -0.03391803 -0.06489851 -0.04864408 -0.06217314 -0.08462603
-0.03668737 0.05526609 -0.07407701 0.075145 0.06970131 0.057754897 0.006685207 0.07725817
-0.049018264 -0.021302814 0.07832135 0.013316764 0.070546925 0.045541234 0.08455713 -0.033768527
-0.05981576 -0.05197954 0.049282562 -0.034043122 -0.058978043 0.07224243 0.0146523435 -0.03565763
-0.05360472 0.0054537742 -0.036205024 0.017640976 0.07669016 -0.051075898 -0.04800707 -0.05117008
0.050881263 0.007909303 -0.005893714 -0.042769954 -0.056760225 0.051823113 -0.0039607235 -0.014791175
-0.0048679686 -0.082442775 0.0140893245 -0.046926685 0.0023858808 0.027764909 -0.033576887 -0.05970545
-0.028335243 -0.004800174 -0.0041381847 -0.0020922278 -0.06645343 -0.07742226 0.031090418 0.06413213
-0.017651632 0.084561504 0.036279853 0.0012294564 0.08341583 0.08421422 -0.06678121 -0.09308897
0.012182571 0.018431643 -0.021396982 0.022833992 0.018888256 0.07054966 0.06999443 0.03480619
0.039158314 0.023855273 -0.07748256 0.011864229 -0.013509615 -0.02059378 0.03303886 -0.010750407
0.07438605 0.019156948 0.036558148 -0.032578617 -0.021202015 0.0017708668 -0.0025740163 -0.057048235
0.050402664 -0.026192877 0.049033675 -0.0050801216 0.01569669 -0.06846142 0.03179774 0.022685366
0.060323555 -5.871598e-05 -0.01337396 -0.018322844 0.06632625 0.08337327 -0.017885484 0.085143976

sagpool.gnn.lin_rel.weight f4 [1, 128]
00000000: e1bf a03c 9355 a73c 868a 8e3d 6f1b 05bd
00000010: 49b8 013d f868 92bd d26f 5abc 55e1 a83c
00000020: 0f76 8f3d 6a93 abbc 95a0 74bd 1799 9d3d
00000030: be36 b5bc f7b2 273d 41bc 23bd c358 3c3d
00000040: 85ce 2d3b 0d90 2ebc 949e 9cbd dabc a6bd
00000050: b3ef af3c f174 10bd becf a23d 29d3 223c
00000060: e055 de3c b1e4 483a 02b6 09bd 375b cb3b
00000070: ed18 0c3b 5094 9f3d 6707 9bbd 8f5a ccbc
00000080: dc9e 883d 9f10 4b3d c064 603c 21f7 81bd
00000090: 1b50 95bd 955b e6bc ef5c 623c 0783 aabd
000000a0: 9eb5 6ebd eacb 1cbd cbab a8bc 0266 5dbc
000000b0: d242 223d c1b2 a5bb 4ddd 08bb 0905 0abc
000000c0: ba2c 9f3d cd88 9b3d acb6 8fbd 3634 9f3d
000000d0: 5501 4bbd 6e78 edbc f5b5 4a3d 44fd 92bd
000000e0: c058 443d e35e b13d b873 b5bd 3355 6a3d
000000f0: 4d48 893c 7fe1 8e3c e6f2 9e3c 3db8 c93c
00000100: 0efc 1abd 8b9c 6cbd 4d34 84bc 1a9d e7bc
00000110: 1d84 b73b 33e2 44bb ed24 b3bd f986 1ebd
00000120: d582 a1bb 0b72 95bd 70df 8cbd 9020 ee3c
00000130: 3017 283d ef04 953d 18d7 0abd 7038 093d
00000140: 79d9 41bc b4cf d23c 8630 41bd 8450 a73d
00000150: fb08 2cbd 050c ab3c d2ad 943d c968 833d
00000160: 98e2 483c 49a2 27bd 4949 8ebd 2e66 adbd
00000170: a2a4 3e3d 0a8d 93bd 4fa8 363d daf3 8bbd
00000180: 55ed d03b 8b20 913c e371 703d 0441 903b
00000190: b9a2 823d 9dd3 abbd 0cb6 7b3d 4ad1 91bd
000001a0: 9906 a8bd 5657 a1bd 5342 2c3c 9c5b 6abd
000001b0: a33c 7e3d 9f0d 73bc c01e 62bd 050d 05bd
000001c0: da67 52bc c3e4 b83d be9e edbc da59 ad3d
000001d0: 6c91 033d 2add 22bd fb90 fcbc 57d9 80bd
000001e0: af1e 68bd 4ff7 953c 712c 03bc 4aed 9e3d
000001f0: d134 893d f97a 95bc f13c ac3d a5bf b03c
0.019622745 0.020426547 0.06960015 -0.032496866 0.03166989 -0.071489275 -0.013332324 0.02061526
0.0700494 -0.020944316 -0.059723455 0.07695215 -0.02212083 0.04094216 -0.039974455 0.045983087
0.00265208 -0.010654462 -0.07647434 -0.08141489 0.021476602 -0.035267774 0.0794978 0.00993804
0.027140558 0.0007663472 -0.03362084 0.006205942 0.0021377162 0.0779196 -0.07569771 -0.024945525
0.06670925 0.049576398 0.013695896 -0.06345964 -0.072906695 -0.028119842 0.013816102 -0.08325773
-0.058278672 -0.038280405 -0.02058973 -0.01351309 0.039614506 -0.0050567095 -0.0020883859 -0.008424052
0.07772203 0.07594452 -0.07017264 0.0777363 -0.049561817 -0.02898809 0.049489934 -0.07177213
0.0479362 0.08660676 -0.08859962 0.05721016 0.016758109 0.01744151 0.019402932 0.024623984
-0.037838034 -0.05776648 -0.01613822 -0.028273154 0.005600466 -0.0030042052 -0.087472774 -0.03870294
-0.0049289265 -0.072971426 -0.06878555 0.029068261 0.04103774 0.07276332 -0.033896536 0.03350109
-0.011831635 0.025733806 -0.047165416 0.08169654 -0.042000752 0.020879755 0.07259716 0.064164706
0.012261055 -0.04092625 -0.06947572 -0.08466755 0.046543725 -0.072046354 0.044594105 -0.0683362
0.0063759484 0.017715713 0.05870236 0.0044022817 0.06378693 -0.083899714 0.06145291 -0.07119997
-0.082043834 -0.07877986 0.01051386 -0.05721627 0.062069546 -0.0148347905 -0.055205107 -0.03248312
-0.012842143 0.09028008 -0.029006358 0.084644035 0.032121107 -0.0397617 -0.03083085 -0.06291454
-0.056669887 0.018306402 -0.008006201 0.07760103 0.06699527 -0.018247114 0.08410061 0.021575758

sagpool.gnn.lin_root.weight f4 [1, 128]
00000000: 1220 273d 7b8e 27bd 2a80 67bd 1c8d 1cbd
00000010: 3727 1dbd 4be9 073d 26c3 703d 0502 8fbd
00000020: 3486 3b3d 92b6 58bd 829b 3fbc 9f77 333d
00000030: f232 9fbd c865 cfbb f9ad a9bd 1be9 73bc
00000040: 2eab 3cbd 254e 843d a9f7 3c3c 5f5d 853c
00000050: 3794 c83c 86cf 533b 3c19 9abc a1c8 2ebd
00000060: ce53 3e3d fc9c 943c 9ee8 163c 755e 913d
00000070: 5367 c63d f0ce 4fbd 4ee4 86bd 9d0c 763d
00000080: 67c5 913d 6b99 63bc 219d fcbc 68ba 553d
00000090: e90b 81bd e28f 443c 8cae d13b 6263 22bd
000000a0: eb08 83bd 6253 ba3c 6e26 4c3d 8aa0 8dbd
000000b0: f6f1 e1bc 894a b5bd c3de 72bd 55cf 67bc
000000c0: e79c 3fbb 03eb cd3c bc0d 923b c94f d2bc
000000d0: 8c82 883d ba7b e7bc c3e8 c53c f9a9 63bd
000000e0: e743 f93b 44a1 363d a1a1 87bd 18b4 9f3d
000000f0: 1cea 8e3d 06c7 8d3b 58fd 133d 43f1 a23d
00000100: d600 033c ad35 c93c 965a 12bd c17e 9ebd
00000110: 509f 69bd aebc 653d 531f 68bd 6c79 943d
00000120: dc5f 25bd 74b2 aabc dd9a 373d 7bf0 9d3d
00000130: d296 a53d 01a6 3d39 24c5 90bd f6b1 a9bd
00000140: c938 833d 530a ab3b 7194 8fbd 29ec 453d
00000150: b17b 4fbd 880f 553c 502a 81bc b951 7e3d
00000160: 95bb 52bd 372f fabc 095f a4bc 0931 f6bc
00000170: a129 ce3b 2a25 673d 2fe2 533d 6101 633d
00000180: 81c9 2cbd 7ee6 b13d 8a2b 1fbc 30b1 923d
00000190: d509 383c be6a a7bd 5aab 843d 4758 23bd
000001a0: bb57 a03c 3856 503b 485b 16bd a041 82bd
000001b0: 4ecb adbd 4930 02bc db2f 82bd 6a34 35bd
000001c0: 862f 8fbd c883 94bd f11d 87bd 9e2e bb3d
000001d0: ba86 92bd f5e8 2abd d78b 8d3c 331f c23d
000001e0: 2eba 19bd 151c c1bc 94c2 48bc 2002 2f3d
000001f0: a343 493b 0ac7 c0b9 97ee af3c 791b 1a3d
0.04080207 -0.040907364 -0.05651871 -0.03822051 -0.038367476 0.03318147 0.058779858 -0.06982807
0.045782283 -0.052908488 -0.011694791 0.04381525 -0.07773389 -0.006329272 -0.08285136 -0.01488712
-0.046061687 0.064602174 0.011533656 0.016279874 0.024484737 0.0032319739 -0.01881086 -0.042671803
0.04646664 0.018141262 0.009210734 0.070980944 0.09687676 -0.05073446 -0.065865144 0.060070623
0.0711773 -0.013891558 -0.030836644 0.052179724 -0.063011 0.011997195 0.0063989814 -0.03964556
-0.06398185 0.022744838 0.049841337 -0.06915386 -0.027581196 -0.08852107 -0.059294473 -0.014148553
-0.0029237808 0.025136476 0.0044572037 -0.02567281 0.06665525 -0.02825724 0.024158841 -0.05558202
0.0076069715 0.04458739 -0.06622625 0.07798022 0.069782466 0.004326704 0.03613028 0.07956173
0.007995805 0.024561727 -0.03573092 -0.0773902 -0.057036698 0.056088142 -0.056670498 0.07249722
-0.04037462 -0.020837046 0.044825424 0.07711884 0.08085407 0.00018086286 -0.070688516 -0.082858965
0.06407315 0.0052197366 -0.07010735 0.048320923 -0.05065507 0.013004191 -0.015767246 0.062089656
-0.051448423 -0.030540092 -0.020064848 -0.030052679 0.0062915836 0.056431927 0.051729377 0.055421237
-0.042184357 0.08686541 -0.00971497 0.07162702 0.011232813 -0.08174656 0.06477995 -0.03987911
0.019573083 0.0031789672 -0.036708146 -0.06360173 -0.08486043 -0.007946082 -0.06356784 -0.04423944
-0.06991486 -0.07251698 -0.06597508 0.09139751 -0.07154603 -0.04172607 0.017278595 0.09478607
-0.03753107 -0.02357296 -0.012253422 0.042726636 0.003071048 -0.0003676939 0.021476073 0.037623856

lin.weight f4 [64, 128]
00000000: c366 a5bc a82e 573d 8b67 9a3c 2363 b63c
00000010: 27db 88bd f2ec 1cbd 947a 033b 37b9 3c3d
00000020: 36d5 15bd 3186 4e3a 6f92 75bd 181e 67bd
00000030: 4210 49bd b23d 94bb 05d8 66bd 1c04 8d3d
00000040: be84 023d 7d43 143d 80b7 d4bc 16e6 8cbd
00000050: cc57 97bc 91b7 5bbd 4af3 cb3d abbb 49bc
00000060: 4917 02bc 1476 053d 2c8f 6c3d a247 1e3d
00000070: fbd7 6abd 1123 643a 03e3 0abc 3cd9 5bbd
00000080: 8460 85bd 2793 4dbd 6139 a1bd 6678 963d
00000090: df9c 08bd c854 843d fca4 4abd 190d a73d
000000a0: e0b9 99bd e99b b5bd 7b67 ee3c 5e52 4bbd
000000b0: 02fe 8cbd 420b 0b3d 3f4a af3d 02b3 403d
000000c0: 0015 e0bc f9c3 613c 02de 2fbc 9c37 69bd
000000d0: 0bb4 36bd d20b b33c c9c9 96bd 654c 2abd
000000e0: f456 a23c cab7 9c3d dca4 efbc 0f50 e8bc
000000f0: 34f0 923b 29dd a1bd 5c8c 4bbd b18a a6bd
00000100: 3e63 35bd 9eef 713d 49c6 acbd 6d56 cc3c
00000110: 5f6d 9e3d 9d8d 513b 7534 9fbd 89fe 3abd
00000120: 0cbf 153c e855 6b3c 6e85 503d bd5d 993c
00000130: 3a4a 0f3d f606 0c3c 9c08 a1bd 07a3 b0bb
00000140: 9be0 47bc 54cb 83bd 69ff 87bd 62f4 d93c
00000150: f230 963d 1bac 17bd effa 263d 3954 4e3d
00000160: b985 663d 5ffc 83bd 504b 3f3c 9d7a db3c
00000170: 55c0 6739 62d2 3fbc 8bb0 5b3d ce99 853d
00000180: dca0 babb ff08 cd3c 1cbf 393c 038d a6bc
00000190: 56eb 8bbc 19d8 d33b 2e61 573d 4be7 8b3c
000001a0: f06c 60bd 8a6b 033d 7c0b 313d ae3e 87bd
000001b0: 1ab9 9a3b 995c 8e3d d33d 5b3d ac30 c6bd
000001c0: 4f76 313d 774c 6cbd 3cc1 39bc 31ac ee3b
000001d0: 9b44 0cbd abb9 d73c 2484 aa3d 2068 acbd
000001e0: 6ce3 32bd ad65 d23c cc65 a13c 47bd 4fbd
000001f0: 7381 0fbc 51b6 203d 3db2 8dbc cb79 cbba
00000200: ebb4 973d 19fd bebc 9a17 d9bc e151 14bd
00000210: fa5a 653d 07bd dcbc 497b d6bc c3d5 563d
00000220: 5c3f a33c f6dd dcbc 0e46 353d de21 05bd
00000230: 964a 84bd d1f6 983b 9191 84bc f599 0fbd
00000240: bf45 833d 59ce 543c 4f38 b4bc b0fc e4ba
00000250: 52f5 2dbd 8377 89bd 9128 0cbd f36e f33a
00000260: 9bb9 0dbd 192a afbd e558 153d e7ac 5cbd
00000270: 46c1 75bd 0085 f6bb 15ce 363d 1a6e 76bd
00000280: f488 12bd 7279 6b3d 5325 37bd f1ec a83d
00000290: 3d94 bb3b f2c7 2cbd 4221 433d 94fb a9bd
000002a0: c74a 983d 7c41 0c3d 5a0b 6b3d 9c98 2e3d
000002b0: ad5c bd3d 30fc 183d ddf2 f5bc 639e 513d
000002c0: 0455 1ebc 01d3 873d bc9a 1f3d a4e0 7abd
000002d0: 098a a93d c529 10bd 7436 9d3d 17f3 1b3d
000002e0: ce61 40bd b9e6 5fbd 3e8d d7bc 10e7 f93c
000002f0: 1292 993d c58c 80bc 65d7 a9bd 0e9e bd3a
00000300: 8148 6cbc 7816 103d 1c37 b5bc ef49 c0bc
00000310: 0e08 b3bd 9c79 163d 174b 9fbc f0c3 c63a
00000320: fb65 673d 0934 bcbc c0a0 d4bc 7941 9f3c
00000330: 679b a33c 45bf 403c d691 163d ebe8 d03c
00000340: dc9d df3c 3b19 413c 0d7d b6bc 44b4 ceba
00000350: 145a 86bc 36bc 29bd f065 793d 8e88 9e3c
00000360: 5210 e6bc 7c18 29bc 3acb 8abd 7dbc 483d
00000370: e3b8 89bc 4879 34bd 1b64 53bd 93e2 4f3d
00000380: 0af1 1abd de18 b1bd 8ce9 693d 02d7 80bd
00000390: 5bf4 ae3d 40bd b03c 6c92 3e3c 2cce 313d
000003a0: 7dd3 893d 27df 53bc aa67 9abc e7c9 0c3b
000003b0: af89 993d 17a3 0a3d e2e2 873c 14e4 21bd
000003c0: 13ee 9abb 5c49 06bd 770f b3bc 26cc 70bd
000003d0: d0c9 663d ee5d b1bd 7f09 4a3d ddad 61bd
000003e0: 1b6a acbc 88a7 28bd 7c1b 83bd d9df 733b
000003f0: 0028 273d 27e2 baba aa96 363c 9b34 3dbc
-0.020190602 0.05253473 0.018848201 0.022264069 -0.06682425 -0.038311906 0.0020062076 0.046075072
-0.036580287 0.00078782724 -0.059954103 -0.056425184 -0.04908777 -0.004523956 -0.056358356 0.068855494
0.031864874 0.036197174 -0.025966406 -0.06879823 -0.018474482 -0.05364186 0.09958513 -0.01231281
-0.007940122 0.03258331 0.057753727 0.038642533 -0.05733488 0.0008702735 -0.008476975 -0.053673968
-0.065125495 -0.050189164 -0.07872272 0.07347183 -0.03335273 0.06461483 -0.049473748 0.08156795
-0.07506156 -0.08867628 0.029102078 -0.0496391 -0.06884386 0.033946283 0.08559083 0.047045715
-0.027353764 0.013779634 -0.010734083 -0.0569378 -0.044605296 0.021856222 -0.07362706 -0.04157676
0.019816853 0.076522425 -0.029253416 -0.028358487 0.004484201 -0.07903511 -0.049694404 -0.08131922
-0.044284098 0.059066407 -0.084362574 0.024943555 0.07735705 0.0031975277 -0.07773677 -0.0456529
0.009139787 0.014363743 0.0509085 0.018721456 0.034982897 0.0085465815 -0.0786297 -0.005390528
-0.012199546 -0.06435266 -0.066405125 0.026605789 0.07333554 -0.037029367 0.040766653 0.05037329
0.05627987 -0.0644462 0.011675671 0.026791865 0.00022101526 -0.011707874 0.05363516 0.065234765
-0.0056954455 0.025028704 0.011337068 -0.020330912 -0.01707999 0.00646497 0.052582912 0.017078063
-0.05479139 0.03208498 0.043223843 -0.06603752 0.004721773 0.06951255 0.053525757 -0.09677252
0.04332572 -0.05769011 -0.011337575 0.0072837104 -0.034245115 0.02633365 0.08325985 -0.08418298
-0.043673918 0.025683248 0.01970186 -0.05071762 -0.00875889 0.03923637 -0.017296905 -0.0015523968
0.07407554 -0.023314046 -0.026500512 -0.0362109 0.055994965 -0.026945604 -0.026181834 0.052449953
0.019927673 -0.026961308 0.044256262 -0.032503 -0.06459539 0.0046680947 -0.016182693 -0.035058934
0.064097874 0.01298865 -0.021999506 -0.0017470326 -0.042470284 -0.06712248 -0.034218375 0.0018572494
-0.034600835 -0.08552951 0.03646173 -0.05387583 -0.059998773 -0.007523179 0.04463013 -0.060163595
-0.03577514 0.057488866 -0.04471333 0.08248318 0.0057244585 -0.04218287 0.04763914 -0.08299938
0.07436138 0.03424214 0.057383873 0.04262601 0.09246192 0.03734988 -0.030023033 0.05117644
-0.009663824 0.06632043 0.038965926 -0.06124939 0.08278281 -0.035196085 0.07676402 0.038073625
-0.046968274 -0.054663394 -0.026312467 0.030505687 0.07498564 -0.015692124 -0.08293036 0.001446666
-0.014421583 0.035177678 -0.022121005 -0.023472754 -0.08741771 0.03673707 -0.019444985 0.0015164595
0.05649374 -0.022974031 -0.025955558 0.0194404 0.019971563 0.011764352 0.036760174 0.025501689
0.027296953 0.011785801 -0.022276426 -0.0015770276 -0.016400374 -0.041439258 0.06088823 0.019352224
-0.028083954 -0.010320779 -0.06777044 0.04900788 -0.016811794 -0.044060975 -0.05160914 0.050753187
-0.03782753 -0.08647321 0.057107493 -0.062910095 0.08542701 0.021574616 0.011631589 0.04340951
0.06729791 -0.012931622 -0.018848259 0.0021482648 0.07496964 0.03384694 0.016587678 -0.039524153
-0.0047280877 -0.032784805 -0.02185796 -0.05878844 0.056344807 -0.08660494 0.049325462 -0.05509745
-0.021046689 -0.041175395 -0.064017266 0.003721228 0.04080963 -0.0014258072 0.01114432 -0.011548187

lin.bias f4 [64]
00000000: 114b 51bd 452b 353d b728 9cbc c2a7 203c
00000010: b84f 773d 0afc a6bd 15b9 04bd 1257 873d
00000020: 85c8 12bd dcda 023d f6ee a43c cb57 6f3d
00000030: 2373 553d 0d3f 5e3d b9ca 0a3b 5c32 58bd
00000040: 9301 663d 1525 5f3d 133f 8bbd 5e0f c33c
00000050: 603e 7cbd 45f0 34bd eba3 d73c bd3f 063d
00000060: d83a 8ebd 9f0f 5dbd 646d 03bd 0fd0 913d
00000070: e014 9c3d 2cfb b33d aa9d 583d bb6d c83c
00000080: ae94 a8bd 8587 96bc f9f3 68bc 80dd 393d
00000090: fffc 62bd 8ad7 e0bc 183c 1d3d dd0e 8fbd
000000a0: 9401 723d e9a2 9cbd c842 763a 799f 583d
000000b0: 0cf4 a73c cbb3 7fbd ad81 c03c 1ce2 7fbd
000000c0: 6d67 a8bd 1163 30bd f60e 55bc 254e 7dbd
000000d0: 2594 663d 0453 533d 1d79 8ebd 1cdb a3bc
000000e0: 908e 913d 9e9b a5bd 9e06 ddbc a7c5 a73d
000000f0: 85f5 4abd dcf9 b9bc ddc0 1b3d d390 733d
-0.05109698 0.04423072 -0.019062383 0.009805622 0.06037876 -0.081535414 -0.03240307 0.06608404
-0.03583576 0.031947 0.020133477 0.058433335 0.052111756 0.05425935 0.002117796 -0.0527824
0.056153845 0.054478724 -0.0679914 0.023811039 -0.061582923 -0.04417445 0.02632328 0.03277563
-0.06944817 -0.053969976 -0.032086745 0.07119762 0.07621169 0.087881416 0.052884735 0.024466386
-0.082314834 -0.018375168 -0.014218324 0.045377254 -0.055417057 -0.027446527 0.038387388 -0.06985257
0.059083536 -0.0764826 0.00093941065 0.05288646 0.020502113 -0.062427323 0.023499334 -0.062471494
-0.08222852 -0.043063227 -0.013004055 -0.061842103 0.056293625 0.05159284 -0.06956694 -0.02000194
0.0710727 -0.08086322 -0.026980694 0.08191996 -0.049550552 -0.02270215 0.038025726 0.059464287

fc.weight f4 [1, 64]
00000000: d4da 40bd 3598 0b3e ac52 c9bc ffcf fa3c
00000010: 92f1 763d 9625 b03d d72d 153d 707b 133e
00000020: f818 95bd 4eb7 6a3d eaf2 f83c e89c 38bd
00000030: e164 8dbd dacb aebd e242 a13d aa66 343d
00000040: 4d10 04be c1be 083e aa76 e4bc 5e65 373d
00000050: 4645 a7bd e05e da3d 91eb e33d 91a9 293d
00000060: 9965 9f3d 04a2 1d3e e80a 0abe f0ae 28bd
00000070: 2101 15be e8d1 073e 6f78 15be 2754 05be
00000080: 25d7 163e c222 08be bf09 7c3d 4667 eb3d
00000090: fec2 693d b98d 22bd ba8d d23d 9d43 d53d
000000a0: 76f5 adbd 4338 bbbd cba2 10be 0506 613d
000000b0: 2cce cabd 27f2 f83d 53b8 40bd 6e3e c3bd
000000c0: 8343 03be 3376 f1bd 011d 0dbd 2792 ce3d
000000d0: dd35 abbd 9eca 01be 86f5 7b3d a9db 013e
000000e0: 446f 72bd 8067 bdbd 0638 e83d 2321 cfbd
000000f0: 33f7 a73d bb88 1dbe fbf4 32bd 98fd a1bd
-0.04708369 0.13632281 -0.024575554 0.030616758 0.060288973 0.08600919 0.03642067 0.14402556
-0.07280153 0.05730372 0.030389268 -0.045071512 -0.06904007 -0.08534975 0.07874085 0.04404322
-0.12896843 0.13354017 -0.027888615 0.044774406 -0.0816751 0.10662627 0.11128915 0.041421477
0.0778305 0.15393835 -0.13480723 -0.04118246 -0.14551212 0.13263667 -0.14596723 -0.13020383
0.14730509 -0.13294509 0.061532732 0.11494307 0.057070725 -0.03968594 0.102809384 0.10413287
-0.084940836 -0.091415904 -0.141246 0.05493738 -0.099026054 0.12155562 -0.047050785 -0.09533392
-0.12818722 -0.11790123 -0.03445149 0.1008647 -0.08359883 -0.12674949 0.061513446 0.1268145
-0.059188142 -0.09248257 0.113388106 -0.10113742 0.082014464 -0.1538419 -0.043690663 -0.07909697

gcn_batch_norm.weight f4 [128]
00000000: 0000 803f 0000 803f 0000 803f 0000 803f
00000010: 0000 803f 0000 803f 0000 803f 0000 803f
00000020: 0000 803f 0000 803f 0000 803f 0000 803f
00000030: 0000 803f 0000 803f 0000 803f 0000 803f
00000040: 0000 803f 0000 803f 0000 803f 0000 803f
00000050: 0000 803f 0000 803f 0000 803f 0000 803f
00000060: 0000 803f 0000 803f 0000 803f 0000 803f
00000070: 0000 803f 0000 803f 0000 803f 0000 803f
00000080: 0000 803f 0000 803f 0000 803f 0000 803f
00000090: 0000 803f 0000 803f 0000 803f 0000 803f
000000a0: 0000 803f 0000 803f 0000 803f 0000 803f
000000b0: 0000 803f 0000 803f 0000 803f 0000 803f
000000c0: 0000 803f 0000 803f 0000 803f 0000 803f
000000d0: 0000 803f 0000 803f 0000 803f 0000 803f
000000e0: 0000 803f 0000 803f 0000 803f 0000 803f
000000f0: 0000 803f 0000 803f 0000 803f 0000 803f
00000100: 0000 803f 0000 803f 0000 803f 0000 803f
00000110: 0000 803f 0000 803f 0000 803f 0000 803f
00000120: 0000 803f 0000 803f 0000 803f 0000 803f
00000130: 0000 803f 0000 803f 0000 803f 0000 803f
00000140: 0000 803f 0000 803f 0000 803f 0000 803f
00000150: 0000 803f 0000 803f 0000 803f 0000 803f
00000160: 0000 803f 0000 803f 0000 803f 0000 803f
00000170: 0000 803f 0000 803f 0000 803f 0000 803f
00000180: 0000 803f 0000 803f 0000 803f 0000 803f
00000190: 0000 803f 0000 803f 0000 803f 0000 803f
000001a0: 0000 803f 0000 803f 0000 803f 0000 803f
000001b0: 0000 803f 0000 803f 0000 803f 0000 803f
000001c0: 0000 803f 0000 803f 0000 803f 0000 803f
000001d0: 0000 803f 0000 803f 0000 803f 0000 803f
000001e0: 0000 803f 0000 803f 0000 803f 0000 803f
000001f0: 0000 803f 0000 803f 0000 803f 0000 803f
1.0 1.0 1.0 1.0 1.0 1.0 1.0 1.0
1.0 1.0 1.0 1.0 1.0 1.0 1.0 1.0
1.0 1.0 1.0 1.0 1.0 1.0 1.0 1.0
1.0 1.0 1.0 1.0 1.0 1.0 1.0 1.0
1.0 1.0 1.0 1.0 1.0 1.0 1.0 1.0
1.0 1.0 1.0 1.0 1.0 1.0 1.0 1.0
1.0 1.0 1.0 1.0 1.0 1.0 1.0 1.0
1.0 1.0 1.0 1.0 1.0 1.0 1.0 1.0
1.0 1.0 1.0 1.0 1.0 1.0 1.0 1.0
1.0 1.0 1.0 1.0 1.0 1.0 1.0 1.0
1.0 1.0 1.0 1.0 1.0 1.0 1.0 1.0
1.0 1.0 1.0 1.0 1.0 1.0 1.0 1.0
1.0 1.0 1.0 1.0 1.0 1.0 1.0 1.0
1.0 1.0 1.0 1.0 1.0 1.0 1.0 1.0
1.0 1.0 1.0 1.0 1.0 1.0 1.0 1.0
1.0 1.0 1.0 1.0 1.0 1.0 1.0 1.0
